logs/classifier/45_contexts/fold_04/10-19-2022_10-41-50/model_params.pth (torch, 821283 bytes, 10 tensors)

feature.weight_ih_l0 f4 [512, 64]
00000000: 03e6 01bf 707b f63e 92cf 4dbf 45c7 12bf
00000010: 1050 383f 0b2f 20be c808 03bd d1cd 8abf
00000020: f7f0 f23e a826 9b3e c5ca 1f3f aeae 0ebf
00000030: 7eae fc3e 17e4 fb3e df2e 57bd 4785 0ebf
00000040: a2a1 cabe 45ca 8fbe db9e 65bf 0d41 92be
00000050: c191 d5bd 0d41 cbbd 4e40 0f3f 31f1 f93e
00000060: ae8b 45be c5ae 673e cae6 0e3f 5075 c13e
00000070: be03 0cbd 463b 443f 6962 33be 4ef5 5abe
00000080: 1216 d73e ee8e 893f 6a36 513f 072b 17bf
00000090: 4ecd 8fbf 5b47 a53f bb45 9bbe c677 cd3e
000000a0: 08a4 783f 8cd6 dd3d 9867 673f 2ce9 c63d
000000b0: bf85 56bf 1086 54bf d2c4 453e 4f69 233f
000000c0: 2b8e ae3d f377 2e3f d91e fabe 5eec 233f
000000d0: 17fb 66bf ea73 0b3f 7ca7 653f d1cf 233f
000000e0: 9e1f a2bf 21ac 4b3f ee0c abbe 197c 913f
000000f0: ef8f 7d3e 06e1 6dbf 826c 033f 87e1 94be
00000100: 9f01 be3e 68ab 303f e704 8b3e 2572 d7be
00000110: 3b2a 81be 0cce 123f 964e 1e3e bf97 db3d
00000120: 6016 c2be 839d d7bd 4748 bfbd a180 883f
00000130: 98d3 d3be 982c ccbe b45d 83bd 5625 73be
00000140: 064f bb3e e49b ad3e f91d 923f 8d96 48be
00000150: 1954 f03e 99a9 edbe 7ac5 b33e 360d 20be
00000160: 2be0 e2be 7757 42be cfeb 2abf 372a ae3f
00000170: 68bc c9be 7087 4e3f 7a13 b03f 99ef 1b3f
00000180: 1125 1c3f f496 9f3e 44d3 eabe ce65 243f
00000190: 47ea 203d 9a8f 58bf 61ad 4cbe a1e1 0abf
000001a0: 8c87 84be a9dd 863f 6083 413f 042b 1ebe
000001b0: 8fbd 34bf 246b 363e 03a1 00bf ec1b a0bc
000001c0: ff72 e7be cf02 0cbf 7a07 8ebe bdd5 05be
000001d0: 6ea0 9ebe 3ae5 c2bf 1f5f 493f 2b93 97be
000001e0: 3839 703e 55be b3be 12fe 5b3f f4c3 9dbf
000001f0: 7f14 e6be e892 f63e 04cd 563e b085 a0be
00000200: 0536 fe3e d6c0 343f b421 d13e df51 0dbe
00000210: 42c3 2e3f c1d5 7d3f 27ae 2cbe 5616 353f
00000220: 279f fa3e 20c9 263f a90d 2a3f 112a 2a3e
00000230: 503b 8e3e 5ddb 913f ed3d a93e 1a06 f7bd
00000240: 5650 84bf e46e e43e 4463 013e 9cd2 2bbe
00000250: d187 0abe e6c6 08bf 9ef0 853f afaf 183f
00000260: 4dca c73e d79c 2cbf 4baf 18bd 8100 c4be
00000270: df3a 0ebe b247 28bf a8a0 01be 24de 21bf
00000280: e3fd c73e f14c 06be b89b 823f 2deb 17bf
00000290: a36c bdbe 10f6 983f 7d3f 0f3d d63d b83d
000002a0: c38f d6be 985d b4be 979d f6be a082 c7bd
000002b0: eddd 00bf 9f72 87be e31a 1f3f 2a75 09bf
000002c0: e1f2 983e 3759 40be 45a6 e83d 33a5 2fbf
000002d0: 5b08 c9bd 5aa3 3c3f bad4 c13e 72c5 88bf
000002e0: 4ed2 93bf 0436 e13e 3b64 813d eb1c 3c3e
000002f0: 64a5 803f c6af 94be 0627 5d3d e8cb 1cbf
00000300: c0c2 693e c88f 0d3f f846 a73e 40bc 2bbf
00000310: fefd 07bf c42e 003f 6d9d c43d d31c 403e
00000320: f923 623e 1384 6abe 7eb0 22be 7cbe 773d
00000330: 9a78 093f cef4 4abf 2f62 17bf ffd8 b1be
00000340: 7205 33bf 3cd7 c83e 0f79 493f 0226 bcbf
00000350: 6e9e 0bbf a257 bebd 7b61 453e 2bf5 0c3f
00000360: 767d 8b3e 8b9f ae3e 88c8 133f 2db8 0fbe
00000370: 8288 3dbf 9cc5 c4be faea a13f 17c4 31bf
00000380: 8acb 67be 7fe4 5cbf 3f40 04bf 17e6 103e
00000390: eafd 2ebf 0710 543c 31b5 2e3d 61d2 53bf
000003a0: 604d a6be 24fe 743f 9c55 ebbd aa3e 88be
000003b0: 9ad6 c7bf f559 80bc d0df 77bf 2dad cd3c
000003c0: d6b7 e4be 0476 d5be 7ec3 b03e 1c61 2c3f
000003d0: 4abb 7abf 96ba 52bf d88d 813f 2f42 07be
000003e0: 9222 1c3d 5e91 87be a34b 443f d07e 43bf
000003f0: f1ff 75bf 1b57 633f b151 ddbe fcfc 1f3f
-0.50741595 0.4814105 -0.8039485 -0.5733531 0.71997166 -0.15642945 -0.031990796 -1.084406
0.47449467 0.3030293 0.62418777 -0.5573529 0.49351877 0.49197456 -0.052534934 -0.55672115
-0.3957644 -0.28084007 -0.8969552 -0.28565255 -0.10428191 -0.09924517 0.55957496 0.48816827
-0.19291565 0.22625263 0.55820906 0.37784815 -0.034183256 0.76652944 -0.17518009 -0.21382639
0.42009026 1.0746744 0.81723654 -0.5905003 -1.1234529 1.2912401 -0.30326638 0.40130442
0.9712529 0.10831937 0.90392447 0.09712443 -0.8379783 -0.83017063 0.19313362 0.63832563
0.0852321 0.6815178 -0.4885166 0.6403254 -0.9022688 0.54473746 0.89708686 0.6398898
-1.2665899 0.7955952 -0.33408302 1.1365997 0.24761938 -0.92921484 0.51337445 -0.29078314
0.37110612 0.69011545 0.27152178 -0.42079273 -0.25227532 0.5734565 0.15459666 0.10722303
-0.37907696 -0.1052809 -0.09339958 1.0664254 -0.4137237 -0.39877772 -0.06414357 -0.23744711
0.36583728 0.33907998 1.1415397 -0.1958868 0.4693916 -0.46418455 0.351116 -0.1563004
-0.44311652 -0.18978678 -0.66766065 1.3606633 -0.39401555 0.8067541 1.3755944 0.6091247
0.6099406 0.31169856 -0.45864308 0.6421784 0.039285924 -0.8459412 -0.19988014 -0.5425053
-0.25884664 1.0536395 0.7559109 -0.15446097 -0.70601743 0.17814308 -0.50245684 -0.019544564
-0.45204923 -0.54691786 -0.2774008 -0.13069816 -0.30981773 -1.5226204 0.7866077 -0.29604468
0.23459327 -0.3510615 0.85934556 -1.2325425 -0.44937512 0.48158956 0.20976645 -0.31351995
0.4965059 0.70606744 0.40846026 -0.13800763 0.6826669 0.9915429 -0.16863309 0.70737207
0.4894955 0.6515064 0.66427094 0.1661761 0.27779627 1.1395069 0.33055058 -0.12061711
-1.0337017 0.44615853 0.12635523 -0.1677956 -0.13528372 -0.53428495 1.0464056 0.5964307
0.3902153 -0.6742682 -0.037276547 -0.38281634 -0.13889645 -0.657344 -0.12658942 -0.63229585
0.39060888 -0.13115288 1.0203772 -0.59343225 -0.36996946 1.1950092 0.034972657 0.08996169
-0.41906556 -0.35227656 -0.48167107 -0.097417116 -0.5033863 -0.26454636 0.621504 -0.53694403
0.29872802 -0.18784033 0.113598384 -0.6861145 -0.09816047 0.73686755 0.3785761 -1.0685256
-1.1548555 0.43986523 0.063179456 0.18370406 1.0050473 -0.29040354 0.053992294 -0.61248636
0.22828197 0.5529752 0.32671332 -0.6708412 -0.53121936 0.5007136 0.09600339 0.18760996
0.22084035 -0.22901945 -0.15887639 0.060484394 0.5369965 -0.7927979 -0.5913419 -0.34735867
-0.69930184 0.3922671 0.78700346 -1.4699099 -0.5453862 -0.092940584 0.19275467 0.55061597
0.27244157 0.34106097 0.5772786 -0.14035101 -0.7403642 -0.38432014 1.2649834 -0.69439834
-0.22636238 -0.8628616 -0.5166053 0.14150272 -0.6835619 0.012943274 0.042653266 -0.8274289
-0.32480907 0.9570029 -0.11490938 -0.2661031 -1.5612366 -0.015667895 -0.96825886 0.02510699
-0.44671506 -0.416916 0.3452415 0.6733568 -0.9794203 -0.8231596 1.0121412 -0.13208841
0.038118906 -0.26478094 0.7667791 -0.76365376 -0.9609366 0.8880479 -0.43226388 0.624954

feature.weight_hh_l0 f4 [512, 128]
00000000: a033 1dbf 08d0 fbbe e1a0 bfbe 978b 073f
00000010: 3bb2 913e 9ea8 48bf 168d 62be aba3 e23d
00000020: f7fe 2cbf b321 b13e 526e 8c3f 6b00 983e
00000030: c9a1 e03e 818b 15bf b6a5 81bf dcfe 993e
00000040: 792b a0bf 7136 40bf d18f 6a3f 7af4 253f
00000050: e047 95bf 41b4 59be 7a39 4c3e 3de5 56bf
00000060: 0d6b b23e 628c 483f 354c 653f c90a 52be
00000070: 217a 873f 5e9b a2be 5d6c e8be b8fb 513e
00000080: 8e51 6d3d a3c0 86be 3bb5 d6be 7aab a93d
00000090: c5de f2be 36c8 503e 7242 8d3d b566 63be
000000a0: 189f d33e 942c a0be c47a 1c3f ad43 043e
000000b0: 2c0f 063f 0db2 d4be 40f1 34be 7ab2 a23e
000000c0: cbbc b3be 9000 ec3d 513d 543c ca51 8dbe
000000d0: 7665 35be 1946 913e 645a 7f3c 9221 09be
000000e0: 88cb b0be e755 c93e 97e0 0ebf 892c bdbe
000000f0: a865 cfbd 300b 0a3e 723a 74be c79d 8ebe
00000100: 6f87 c5bd 77b6 1d3f 41eb 433f b765 0bbf
00000110: 4a47 1c3f 6a96 2abd 6386 e3be cb44 21be
00000120: 4399 97bf 2f10 113e c493 903f c387 3fbe
00000130: bd30 5a3f f488 e93e d383 653f 7db4 f03d
00000140: f063 1fbf 24ee 52be 5bd8 02bf a435 363e
00000150: 5420 443d 1ee4 06bf b2ce 9c3e d632 ca3e
00000160: 4616 a33d 9806 24be 956b c53e 656c 6c3f
00000170: face b7bd d65d ad3d db27 74bf 45e3 bd3e
00000180: e815 3a3f ae9a 53bf c11d de3e 008f b8bd
00000190: 947a 13be 11d0 143f c651 ce3e c7d7 583e
000001a0: 4a47 31bf ef2f 943f 4f07 b4be 2c86 3f3d
000001b0: 30db 1abf 7bdc 9bbe a0fd b1bf 5948 67bf
000001c0: ab82 02be ce0f 073e eda6 043e 8fe9 463f
000001d0: 825a 293f 4715 dabd fa01 babe 6a6c 273f
000001e0: 442e 68bd 7813 e63e 1f4b 38bf 95f0 6a3c
000001f0: 44ea 253d 4677 c3be 461f 383f 5b77 3bbf
00000200: 7448 5a3e f9a4 443f 625e 5abe 10b4 2c3f
00000210: 86e7 2a3e f4b5 3d3f 8555 5a3f 40e3 7a3f
00000220: b857 0f3f dad8 22bf 8426 023e c324 a53e
00000230: d3b9 c23e 25e7 18bf 2f99 48bf 3e8b 0fbf
00000240: 49e9 94be 902c 1ebf cb86 48bf 13de 85be
00000250: 9629 b03d 816c 2a3f ff18 d23c d3d9 9c3e
00000260: 1d4c 0abf 9dad cd3e 6b3e a5be 8492 7d3f
00000270: bb81 b3be ce65 a83f 4263 b8be 8cbc 103d
00000280: e545 ac3d f5d6 46bf 28c0 f8bb b312 85bf
00000290: 5b54 943e a945 943e c897 51bd 2095 933d
000002a0: b033 043f b37d 9cbd ab64 253f 8ba4 3d3d
000002b0: 6bcf f0bd 9a34 a2be 96da 1c3f 0c50 0b3d
000002c0: 2e95 05bf 1c54 143f 7ad8 4fbf 5e9c 41bf
000002d0: bf20 fb3d 90ca 03bf 2dff c83e 15f0 06bf
000002e0: 1507 3c3f e407 ee3e 701b b73f 0641 993e
000002f0: 04f7 b0be 7ead 33bf d0c5 37be 8248 cc3f
00000300: b1dd cd3e 0794 c2bb 198f 6bbf b769 853e
00000310: dcf3 8cbe 1bbf a3be d5a0 0abf 6f72 6bbf
00000320: 15f3 40bf 0256 74bf 3c05 27be 3d82 9b3f
00000330: 4c24 e8be 46be 43bf 2cda 06be 2d97 2cbe
00000340: d722 603e 23a4 aebe a7be 8b3f 4679 ffbd
00000350: f7d3 8ebe 1ae9 4cbd 1d32 06be 29f3 20be
00000360: b9e3 a23e 4a2a 8ebd d3cf 2d3e 5c5f 3abd
00000370: c90f 723e 6a92 3dbf 35c2 3d3f ecd7 233f
00000380: c2ac 38bf a362 63bd ed03 b8be 64fc 40bf
00000390: 8bd8 123f 2422 d6be 059a cc3d 9e31 493f
000003a0: 6e1a 90be 693b 30bd fdca 9abd 5427 9ebe
000003b0: 5184 de3e 82dc 8b3e 09ee 013e c44a f33e
000003c0: 982e 04be 37eb 25be 4e7b 93bd 1326 20be
000003d0: 8eeb 99be 0b55 8ebd 3435 eb3e 5a2d b93e
000003e0: 1183 683e 0dca 993d 2c38 593e dc10 813e
000003f0: ca83 833e e180 393e d3cd d53c 6ee2 5f3e
-0.614069 -0.49182153 -0.37427428 0.5294737 0.28456292 -0.7838229 -0.22124133 0.110663734
-0.67576545 0.34596023 1.0971167 0.2968782 0.43873432 -0.5841599 -1.0128696 0.30077255
-1.2513267 -0.7508307 0.91625696 0.64826167 -1.166256 -0.21260168 0.199438 -0.8394354
0.34847298 0.7833921 0.8956941 -0.20511927 1.0584146 -0.3175916 -0.45395175 0.2050618
0.057939105 -0.26318845 -0.41935143 0.0828466 -0.47435585 0.20388874 0.06897439 -0.22207148
0.41332316 -0.3128401 0.61124825 0.12916441 0.523669 -0.41542092 -0.17670155 0.31776792
-0.35104975 0.11523545 0.012954072 -0.27601463 -0.17714486 0.28373793 0.015585516 -0.13391712
-0.34530282 0.3932335 -0.55811447 -0.3694804 -0.10126811 0.1348083 -0.2385042 -0.2785475
-0.096449725 0.61606544 0.76530844 -0.5445208 0.6104628 -0.041647352 -0.44438466 -0.15748899
-1.1843647 0.1416633 1.1295094 -0.18704133 0.8523062 0.456123 0.8965427 0.117531754
-0.6226187 -0.20598656 -0.5111138 0.177939 0.047882393 -0.5269183 0.30626446 0.3949191
0.07963233 -0.1601814 0.3855864 0.92352897 -0.089750245 0.084651634 -0.95373315 0.37087455
0.72689676 -0.826579 0.43382075 -0.0901165 -0.14402229 0.58129984 0.40296763 0.21176063
-0.69249403 1.1577128 -0.35161826 0.046758816 -0.60490704 -0.3044165 -1.3905525 -0.9034477
-0.12745158 0.13189623 0.12954302 0.7770013 0.6615373 -0.106485896 -0.36329633 0.653998
-0.056684747 0.44936728 -0.71989626 0.014339586 0.040506616 -0.38176936 0.7192272 -0.73228997
0.21316701 0.7681423 -0.21325067 0.67462254 0.16689882 0.74105763 0.8528674 0.98003006
0.55993223 -0.6361214 0.12710005 0.3225461 0.38032398 -0.597277 -0.7835874 -0.5607184
-0.29084232 -0.61786747 -0.7833068 -0.26145992 0.08601682 0.66571814 0.025646685 0.30634937
-0.5402239 0.4017152 -0.32274184 0.9905169 -0.35059914 1.3156068 -0.36013228 0.035336062
0.08411769 -0.7767175 -0.007591266 -1.0396332 0.28970608 0.28959396 -0.05117014 0.07206178
0.5164137 -0.07641163 0.6460673 0.0462995 -0.11758312 -0.31680757 0.61271036 0.034011886
-0.52180755 0.5794084 -0.8118969 -0.7562922 0.12262105 -0.5148096 0.39257184 -0.52710086
0.73448306 0.46490395 1.4305248 0.2993242 -0.34563458 -0.70186603 -0.17946553 1.5959628
0.402082 -0.0059380564 -0.92015225 0.26057217 -0.275298 -0.3198174 -0.5415166 -0.91971487
-0.75370914 -0.9544374 -0.1631059 1.214912 -0.45340192 -0.7646221 -0.13169163 -0.16854544
0.2188829 -0.341096 1.0917557 -0.12474303 -0.2789609 -0.05002699 -0.13105054 -0.15717758
0.31814364 -0.0694166 0.1697381 -0.045501098 0.23638834 -0.74051535 0.7412446 0.64001346
-0.7213861 -0.05551399 -0.35940495 -0.7538512 0.5736167 -0.41822922 0.099903144 0.78591335
-0.28145164 -0.043025408 -0.07558248 -0.3088938 0.43460324 0.27316672 0.1268846 0.4751798
-0.12908399 -0.16203009 -0.07201253 -0.15639524 -0.30062526 -0.069498144 0.45939028 0.36167413
0.22706248 0.07509241 0.21212834 0.25208175 0.25686485 0.1811557 0.026099121 0.2186372

feature.bias_ih_l0 f4 [512]
00000000: eda9 8d3d a8eb 70be 7581 803f 94ba 4c3e
00000010: 6747 073f 55b6 9b3d 550d 37be a2d7 4ebe
00000020: fae7 dbbc 6510 1b3e b6c4 523e f445 6abe
00000030: d131 53be 3f27 0e3f 5e17 6fbe dfaf a23e
00000040: 59e4 b93d dee9 b23d 9f2e 5e3d 580d 173e
00000050: ae9f 45be e2cf cb3d 0c79 29be 9809 85be
00000060: f4dc 5a3e 41b0 39be 1cfc b73e e930 0e3f
00000070: f7cd 583d ac20 e93d ea51 333f bb1a 5cbe
00000080: 7a1e f23c 7faf 703e a863 243e 6fd2 ad3b
00000090: 0cd0 9e3e 543a 2b3f 6f01 7a3e 5165 643e
000000a0: 6db6 f53d e8c6 3d3d 9787 0b3d dcb3 12be
000000b0: 401e d8be 424f d13e 071b 963e d611 abbe
000000c0: 1027 09be f59c 233f c76d d03f 5d7c 31be
000000d0: 7a3d 4cbe e56e a5be 2277 e4be 8621 a7bd
000000e0: 0fd3 723f fe18 55be e5c8 8b3f 1363 413e
000000f0: 230a ff3d d483 2cbe 9f91 8c3e e62d 2d3f
00000100: 0d7c 98be c5a6 d13e 6a26 d13e 14e1 b03e
00000110: 7fc0 8d3e 3d90 4c3e 3a9b a23d e8cb 843f
00000120: 50e1 da3d 65cb e33d 77ac 043e f38d 803f
00000130: 0603 66be 6dc4 bdbe 8772 db3c 203f de3c
00000140: 9631 ffbd 4631 3a3b ab1a 953d aa6f a43c
00000150: dd50 e0be d456 5cbe 48b7 c13e 9426 2f3f
00000160: c3e5 28be 5b9f cbbe 4764 2b3d ab8b cabe
00000170: a44c 073f 89ae 153e d7f0 153e 8314 3d3f
00000180: 4387 193f f708 0bbf 93b6 233f cbb1 b73e
00000190: ad33 0a3f ced0 b93e 562d 0c3d 3c93 fbbb
000001a0: 3144 063f 32e6 863f d81a 00be 0a0c 72be
000001b0: b53b 843f 48dc 123f 0607 443f f463 27bd
000001c0: d6b6 b1bd 2bd7 0b3e b136 b0ba b498 383f
000001d0: 5d07 433e 2280 4ebe 4044 293f 8ff9 913a
000001e0: 23ac 893e 12b9 983f e697 be3e 4e65 4e3c
000001f0: 6317 203f 21a4 ae3f 587b c8be 679a 09bd
00000200: 3640 f7be c7d2 85be 0294 e1be 6b3d 9bbe
00000210: 8fc5 b3be 4ca5 25be 1db1 36be cfae d9bd
00000220: 0655 8d3e 7c90 473e 6be9 893e 609f a7bd
00000230: c950 babd a3fe e5bd 70b5 1bbe 4c5a 9cbe
00000240: 9850 203e 0e3a 5ebe 5d64 d73d c7da e3be
00000250: e9f7 9abe e32e 18bd a429 65be 02c6 473e
00000260: 57e0 20bf c00f c7be c70f 51bf 7c91 76be
00000270: 3082 04bc e493 38bc 73a7 283d 552a 50be
00000280: adee 803e 8e2f 6abe 5b41 a8be a7a9 adbe
00000290: 98bd 843e 7f69 943d b04e 273d 309a b2be
000002a0: d61c 8dbd 26e1 81be 4d46 98be 49bf 15bf
000002b0: 17b0 9cbe 4e0f 21bf 8714 50bf 0e47 fd3c
000002c0: 1d4b 7bbe a78c d1be 2404 e5be 1c2a f0bd
000002d0: 1259 12bf 49d0 6bbe e1ce a8bc 6445 2ebe
000002e0: 839a 843c f6cf ecbc aa8b 883d 568b e9be
000002f0: 5d30 d4be 0d24 4fbe de06 f1be 1fea 9c3e
00000300: 9ac9 80be 4d3d 093f d613 e2be 233f f3be
00000310: cb3d a2be 4e6f 15bf 8546 4b3e 2d0f 38bf
00000320: ce4a 09bf 34c8 2e3d f3ae 36be a619 393d
00000330: 806d b93e 1908 a8be 38f8 a9be b0dd 1e3e
00000340: 9985 453e 421b 26be c0d8 12bf 6689 573e
00000350: 4445 eebe 9576 42be 0782 e9bd c477 c43d
00000360: 0d89 c7bc 0284 cfbd e594 42be 8161 2e3e
00000370: 56dc f13e e6f1 a33d 3c55 1d3e 1f2b 9e3e
00000380: df01 7a3e c39a 353e bb44 1fbe ccb6 44bd
00000390: 3659 90be 5763 dbbe d0ff f9be 64c8 41be
000003a0: e5ca fabe 59c1 acbe b0e7 06bf 4250 9fbe
000003b0: 6023 e4be 2fb6 81bf fd51 54bd 1c88 633e
000003c0: 5be3 493e 11f4 5abe b70a 74be 5dfc 42bf
000003d0: e572 21be f5b6 43bd fc32 16bf 5844 173b
000003e0: cc71 5a3e 8218 03bf 5988 30bf ef0c f9bd
000003f0: 7e30 90be b265 87bf c316 c7be 7eb8 dcbe
0.069171764 -0.23527396 1.0039507 0.19993049 0.52843326 0.076031365 -0.1787618 -0.20199445
-0.026844013 0.15142973 0.20582852 -0.22878247 -0.20624472 0.55528635 -0.23348758 0.31774804
0.09076757 0.08736013 0.05424368 0.14751184 -0.19299194 0.0995176 -0.16550082 -0.25983882
0.2137335 -0.18133642 0.35934532 0.5554338 0.0529308 0.11383185 0.70046866 -0.21494572
0.029555548 0.23504446 0.16053641 0.0053046267 0.31018102 0.66885877 0.2441461 0.22304274
0.119976856 0.04633227 0.034064855 -0.14326423 -0.4221058 0.4088078 0.29317495 -0.33412045
-0.13393807 0.6391137 1.6283501 -0.17332597 -0.19945326 -0.32311168 -0.4462214 -0.08160691
0.948533 -0.20810315 1.0920683 0.1888545 0.12453105 -0.16847163 0.2745485 0.6764816
-0.29782143 0.40947548 0.4084962 0.3454672 0.27685925 0.19976898 0.07939763 1.0374727
0.10687506 0.11122779 0.12956415 1.004332 -0.22462091 -0.37063923 0.02678801 0.02712971
-0.1246063 0.0028410717 0.07280477 0.020072777 -0.43811694 -0.21517497 0.37835145 0.6841824
-0.16493897 -0.39770016 0.04184368 -0.39559683 0.5285132 0.14617361 0.14642654 0.73859423
0.5997202 -0.54310554 0.6395046 0.35877833 0.539851 0.36292118 0.034222923 -0.007677464
0.524478 1.0539 -0.1251024 -0.23637405 1.0330721 0.5736737 0.76573217 -0.040866807
-0.08677451 0.13656299 -0.0013444034 0.72108006 0.19045778 -0.20166066 0.66119766 0.0011136996
0.26889142 1.1931479 0.37225264 0.012597395 0.62535685 1.3643838 -0.39156604 -0.033594515
-0.48291177 -0.26137373 -0.44058233 -0.30320296 -0.35111663 -0.16176337 -0.17841001 -0.10629045
0.2760393 0.1948871 0.26935896 -0.08184695 -0.0909744 -0.11230209 -0.15205932 -0.3053764
0.15655744 -0.21701834 0.1051719 -0.4450285 -0.30267265 -0.03715409 -0.22379166 0.19509128
-0.62842315 -0.38879204 -0.816647 -0.24078935 -0.00808768 -0.011265729 0.041175317 -0.20328648
0.25182095 -0.22869703 -0.32862362 -0.33918497 0.259259 0.07246684 0.040846527 -0.3488326
-0.06890266 -0.25367087 -0.29741135 -0.58495003 -0.30603096 -0.6291398 -0.8128132 0.03091767
-0.24540372 -0.40927622 -0.44729722 -0.11726782 -0.5716716 -0.23028673 -0.02060646 -0.17018658
0.016186958 -0.028907757 0.06667264 -0.45614117 -0.41443148 -0.20228596 -0.47075552 0.3064737
-0.2515381 0.5360916 -0.4415576 -0.47509107 -0.3168777 -0.5837296 0.1985112 -0.71898156
-0.5362977 0.042671397 -0.17840175 0.045190476 0.36216354 -0.32818678 -0.33197188 0.15514255
0.19289245 -0.16221336 -0.57361984 0.21048507 -0.4653722 -0.18990548 -0.11401754 0.09593156
-0.024357343 -0.101326 -0.19002111 0.17029382 0.47238415 0.08005123 0.15364546 0.30892274
0.24414776 0.17734818 -0.15553562 -0.04802589 -0.28193063 -0.42849228 -0.48827982 -0.18924099
-0.4898292 -0.33741263 -0.5269728 -0.3111592 -0.4455824 -1.0133723 -0.051836003 0.2221989
0.19715635 -0.21382166 -0.23832212 -0.76166326 -0.15766485 -0.047781903 -0.58671546 0.0023081508
0.21332473 -0.5120927 -0.6895805 -0.1216067 -0.28161997 -1.057791 -0.38884553 -0.43109506

feature.bias_hh_l0 f4 [512]
00000000: e577 d13d 2863 83be 3693 8f3f da35 293e
00000010: 34b4 123f 1b5b 203e 1524 79bc ffa8 3abe
00000020: a293 35bc 2f91 623e b721 853e bb7b 86be
00000030: 51d8 50be 3989 eb3e 33c7 5dbe 5460 843e
00000040: fe00 083c 72f4 443e 59dc 153e c954 d83d
00000050: 603e 81bc 0bae 0ebd 48f8 86be afb2 84be
00000060: 390d 4e3e 6522 82ba b6ee f53e ba23 303f
00000070: f31b 993d 7236 d53d e9aa 1e3f 7b39 7ebe
00000080: e47d 793e 2f71 163e 5e30 153e 4c20 f63d
00000090: 5f5a 0d3e 278a 133f dc3a bdbc 78d3 533e
000000a0: b46c 923d cbbf 18bd b40b 7d3e 0556 4fbe
000000b0: 1f12 bfbe 8bb6 bf3e 3e23 a93e 664d e9be
000000c0: 414c 8dbd 1df6 0c3f bc9a e43f 6352 15be
000000d0: e2fb b4be 3ff5 99be 120b 02bf 1342 78be
000000e0: f9fa 663f d772 57be 42d2 8c3f a7ae 583e
000000f0: 462c 933d 01b6 25be 5beb 903e d1c7 1c3f
00000100: 5d39 83be 38bc c63e 09a4 933e b02f a93e
00000110: 01ba a03e 5b95 093e 4523 bc3d 9f93 9a3f
00000120: 08ef 243d 54c5 da3d 0b1a bdbc 7e66 893f
00000130: 3b97 14be 40c6 bcbe f680 e43d 9dce 773d
00000140: e2f9 28be c6ea 043e 6044 373e 1ee8 cb3c
00000150: 3b17 eabe ce72 2ebe 4594 9a3e 2298 323f
00000160: f67a 08be f078 03bf 2c4b 9c3d cbf5 babe
00000170: f696 243f 6553 613e 3b1b 653e a0d4 353f
00000180: 5764 113f 2dd0 bcbe 4469 2f3f 9e34 c53e
00000190: 33b6 053f a1d3 ae3e b3e7 0b3e 9beb 193e
000001a0: db59 323f b777 843f e52f b5bd 9155 2dbe
000001b0: cb7e 853f 9795 023f 3ac1 3b3f e26e b8bd
000001c0: c365 51be 09ca b63d d69d d1bc 5ab5 433f
000001d0: 7fc7 063e 5b12 94be 5d1c 543f 199f ff3b
000001e0: 52ba aa3e 3f3e 923f c2fb 5e3e 8c13 a03d
000001f0: 2245 173f 8333 b13f eab7 f6be 8eb3 02bd
00000200: 94bc 09bf 3552 88be 7cff 09bf 984e c9be
00000210: 1e28 75be b90c a4bd 21fe 8fbe a2d2 6abd
00000220: dc39 363e 5ee3 f63d e64f b43e 23ac a4bc
00000230: 4149 a6bd ae3a 93be b8af 11be 5922 6ebe
00000240: 23e4 d83d bf79 2cbe 94b0 8b3d acf7 acbe
00000250: 76ab 9fbe cc09 1abe 258f d1bc c7c4 353e
00000260: 72bf 33bf 85a6 3abe 0af0 5dbf 7909 14be
00000270: 7205 03bd 93cf 9dbd 174c 853d 0f94 e4bc
00000280: edd2 483e db7f f7bd 083a a9be 50e1 a3be
00000290: ef96 8d3e 3a07 113d 0c7c ba3d 1b37 36be
000002a0: 90db 983c 1a11 5fbe 3b3a 73be 7186 f3be
000002b0: a70b bfbe 2dbe 15bf 0b6a 14bf 11f0 3cbb
000002c0: 54c4 7bbe 6b9c c6be 056f d7be c837 71be
000002d0: 324a 2cbf 82c4 7bbe 198c 4ebe 8c5a 0abe
000002e0: 6c0d 08bb a92b 6fbc 538a 023e 1733 fabe
000002f0: 9155 02bf a594 e1bd 2a02 bbbe 21cf 9a3e
00000300: 8cca 6abe adb6 f23e 20d8 dabe c09e 09bf
00000310: 34b3 27be 8b87 0fbf 5093 933d f8c1 3bbf
00000320: 44d8 f0be ba16 023d c462 55bd a1c4 fcbc
00000330: 868f dc3e fe7a a6be 4917 e6be 7ddf 083e
00000340: eb11 823e e3ec cbbc 8015 34bf 7d08 063e
00000350: 93c2 0abf ac04 fbbd e1f6 a8bd 45ca 663d
00000360: 14d0 293d 1001 a0bd 7618 2fbe b6a9 a23e
00000370: 7705 dd3e ff64 803d 121e 213e b32c d63e
00000380: e9a1 173e b38c ba3d 5a21 36be f2af 76bd
00000390: a3f8 4abe 330c eebe 9b8d b6be c892 37be
000003a0: 4f73 e5be 2a9f 66be 820e 10bf 6348 90be
000003b0: d275 cbbe f573 86bf 3be1 75bd 375f 873d
000003c0: 29d4 4f3e 4024 49be 8c3e 8cbe d482 48bf
000003d0: 4001 efbd 73cb 5abd a3af 11bf b46d 00be
000003e0: 1b0a 4f3e be77 f1be 07bf 40bf c091 cebd
000003f0: e74e 88be 515e 9bbf 10d7 cfbe 9254 0ebf
0.10227946 -0.25661588 1.12168 0.16524449 0.5730622 0.15659754 -0.0152063565 -0.1822853
-0.011082562 0.22125696 0.26002285 -0.26266274 -0.20395018 0.4600313 -0.2165802 0.25854743
0.008301018 0.19233873 0.14634837 0.105630465 -0.015776813 -0.03483395 -0.263613 -0.25917575
0.20122232 -0.0009928463 0.48033684 0.68804514 0.07476034 0.10410775 0.6197954 -0.24826615
0.2436443 0.14691614 0.14569232 0.12017879 0.13804005 0.5763268 -0.023099355 0.20686138
0.0714964 -0.037292283 0.24711496 -0.20247658 -0.37318513 0.37443957 0.330347 -0.45566863
-0.0689931 0.5506304 1.7859721 -0.1458221 -0.3534842 -0.3006992 -0.5079814 -0.24243955
0.90226704 -0.21039902 1.1001666 0.21160375 0.07186179 -0.1618271 0.28304562 0.61242396
-0.25629702 0.38815475 0.28836086 0.33044195 0.3139191 0.13435881 0.09186415 1.20763
0.04026702 0.106821686 -0.023083707 1.0734403 -0.14510815 -0.36870003 0.1115741 0.060499776
-0.16501573 0.12980184 0.17897177 0.024890956 -0.45720848 -0.17035982 0.30191246 0.69763386
-0.13328156 -0.5135641 0.076315254 -0.3651565 0.6429285 0.22004469 0.22373669 0.71027565
0.5679373 -0.36877576 0.6852 0.38516706 0.5223114 0.34145835 0.13662605 0.15031283
0.6966836 1.0349034 -0.08847026 -0.16927172 1.0429319 0.51009506 0.73341715 -0.09005524
-0.20448975 0.08925254 -0.025587957 0.76448596 0.13162039 -0.28920254 0.8285578 0.0078009483
0.33345276 1.1425246 0.21775725 0.07816228 0.59089863 1.3843845 -0.4818719 -0.031909518
-0.5380337 -0.2662522 -0.53905463 -0.39317775 -0.23941085 -0.08010239 -0.28123572 -0.05732978
0.17795509 0.120550856 0.35217208 -0.020101612 -0.08119441 -0.28755707 -0.14227188 -0.2325529
0.105903886 -0.16843317 0.06820789 -0.3378271 -0.31185502 -0.150428 -0.025580952 0.17750846
-0.70214 -0.18227585 -0.86694396 -0.14456739 -0.031987615 -0.07705607 0.065086536 -0.027902631
0.19611712 -0.12084933 -0.33052087 -0.32007837 0.27654216 0.035407282 0.09105691 -0.17794459
0.018659383 -0.21783867 -0.23752682 -0.47563508 -0.37313578 -0.5849331 -0.5797431 -0.0028829614
-0.24586612 -0.38791212 -0.4207689 -0.23556435 -0.67300713 -0.2458668 -0.2017063 -0.13511103
-0.0020759953 -0.014597812 0.12748079 -0.48867103 -0.50911814 -0.1101468 -0.3652509 0.30236152
-0.22928828 0.47404996 -0.42743015 -0.5375786 -0.16376954 -0.560662 0.07205832 -0.7334285
-0.47039998 0.031759955 -0.052096143 -0.030855479 0.4307825 -0.3251571 -0.4493964 0.13366504
0.25404295 -0.02489323 -0.70345306 0.13089176 -0.54203147 -0.122567505 -0.082502134 0.056345243
0.041458204 -0.07812703 -0.17099175 0.31770104 0.43168232 0.062692635 0.15734127 0.41830978
0.14807858 0.091088675 -0.1778616 -0.06022639 -0.1982141 -0.46493682 -0.3565491 -0.17927086
-0.44814536 -0.22521654 -0.5627214 -0.28180227 -0.39738327 -1.0504137 -0.06002925 0.06609958
0.20295776 -0.19642735 -0.2739147 -0.7832463 -0.1167016 -0.05341668 -0.56908625 -0.12541848
0.20218699 -0.4716167 -0.75291485 -0.10086393 -0.26622698 -1.2138158 -0.40593767 -0.55597794

feature.weight_ih_l0_reverse f4 [512, 64]
00000000: fd37 043d 93b4 75be 5752 603f 5281 d13e
00000010: d47b d93f f6d0 19bc e21e f73e ea56 96bd
00000020: 8126 4ebf 28ab 933e 0e10 5f3c 7a04 e03e
00000030: fa82 683e beb1 11be 0299 1b3f aa07 4abf
00000040: b9c5 0dbf 268d 643f 76eb 1abd 5087 78bf
00000050: 836b 69bd fe22 863e 73de 4f3e 7447 083e
00000060: 716b 91bf 9923 3dbf 838b 07bf ddc8 533f
00000070: 9dc7 1d3e 8cb5 c5bc c5b6 083f 6023 4cbf
00000080: 5b3d da3e f418 9e3d 384c 1bbf 9f9d febe
00000090: b4d6 bbbe 645b c13d 91bc ae3f 0ef9 9dbe
000000a0: db4c 99be 356c 4fbf c61d 78be bd42 503e
000000b0: 23d7 923e cec3 47bf a957 7e3e f7ed 87be
000000c0: 9380 75be 1f4f 39be 7d88 853f 9cc3 6bbe
000000d0: a67d 163d fabe 3cbc 932b 30be 28a1 853d
000000e0: a4ef 4bbd 6895 e9bd 7e16 263f 89be 233f
000000f0: 9cb0 813e 752d e4bd cb61 22bf 8ad0 fa3e
00000100: b2ec afbe ee67 3b3f 78b4 75be 481b 7cbf
00000110: acef e0be 1cc9 683f fb23 c0be ee1c 11be
00000120: b9f9 0e39 7e89 20be 7b56 413f 7f74 09be
00000130: 123a b23f c5af 66bf d3a7 d9be e4d2 8cbe
00000140: b864 85be 4546 073f 4662 a0be e0a0 94be
00000150: 9bfb 063f e6ad d5bf 0e30 d13e 7bbc e33e
00000160: a3ec e93e e832 a93e 5308 b63e 0127 5fbf
00000170: 610a 00bf 32d2 7b3f fde8 673f d7e8 9b3e
00000180: 5243 40bf d110 f63e 872c cfbe ce43 1ebe
00000190: 40f0 c53e 5de1 a73e 7008 8ebe 06b0 803d
000001a0: 602f 293e cd38 89be 3114 693f ecb9 873e
000001b0: 417f fcbe 3c61 1bbf a760 513e a76e 18bf
000001c0: ecaa 03be 980d b23f 0c7a a53e a3db 533f
000001d0: 0b50 b23e 682c e83e e797 c5be 94f7 013f
000001e0: 231d 85be 10eb fc3e 45c6 ae3d b74a 15bd
000001f0: f6a3 723f 5912 4e3d fb16 113f f849 0fbf
00000200: 501d 043f c5ef 5e3f 2ba4 063f 1a58 3e3e
00000210: fc4b 143f 818a 5cbe e1db 663e 513d 903e
00000220: e5e5 3ebf 18de 0d3f a9e0 22bf 84e2 7dbd
00000230: dd96 2abd 7530 d13e 170c 9fbe 3dd1 80bf
00000240: 6444 52be 5319 503f 4e80 373f 8124 3e3e
00000250: ebc4 283f 34ce 143f 98cb 293f 58a5 a0be
00000260: 1c0d 523f 3527 d33d 1c15 99bd 13d8 973f
00000270: b6d1 583f ad28 453f ffa8 ec3c ed09 223f
00000280: 3368 d8be 03ed 393f b053 06bf 38c4 fcbe
00000290: 5c17 8f3f 8f7d 09bf ab43 2dbe 178c 02be
000002a0: e94c 11bf cad5 653e e6f6 a8bf dace 2dbe
000002b0: 24ca 453e 5590 18bf ac8f ab3d 0715 91bd
000002c0: c356 39bf 8ea4 223f 3877 be3e 94df 38bf
000002d0: 1952 be3e b123 293f a51c 72bf 1353 69be
000002e0: 075b 5bbf d2c0 9cbd 8076 183f 87e9 803d
000002f0: 98a2 9bbe ca03 b6be 698f cc3e 061e 073e
00000300: 01a7 40be 3e0a 9e3e b09c 4cbf 3e8b 42bd
00000310: 1ac4 ea3e f376 823e d0ff c03e d6d8 3ebf
00000320: 6947 fd3f c0b6 41bd 7dd2 a8be 0202 5abe
00000330: 055f e7be ffc8 563f 55ec 16c0 1a12 86bd
00000340: 2594 1fbf ddfd 583d 9fcb 81bf c849 22bf
00000350: 2a53 973e fbfe 85bd 726d d53f 6ed6 3bbf
00000360: 29cd 9d3f ff1b aa3f ddd8 323e e96b 89bf
00000370: 04c8 9fbe e4f2 fc3e 2e59 d3be f380 14c0
00000380: d9bf a7bd de69 863e c6e3 fd3e 784c 11bf
00000390: 4445 1c3f 09ac 72bf e8c0 2b3f 2d82 c43e
000003a0: 36ee 80bf be7f 903e dcda 0fbf 7c6f 123f
000003b0: 6c0b 57be 5674 043d 3271 06bf 2eb7 563f
000003c0: 73f8 473f fa82 8bbf 7033 cdbd d8a8 32bd
000003d0: 88ac 173e 3673 f7be bd9a b5be eb7a b63d
000003e0: 75e4 e73d d163 eabd 191b 013e 109e cbbe
000003f0: 3697 06bf 167f c63e ed52 783d beb4 0abf
0.032279957 -0.23994665 0.8762564 0.40918976 1.6990914 -0.009388199 0.4826575 -0.07340796
-0.805275 0.2884152 0.013614668 0.43753415 0.22706214 -0.1422796 0.60780346 -0.78917944
-0.55379826 0.89277875 -0.03782221 -0.9708147 -0.056987297 0.26198572 0.20299701 0.13308507
-1.1360914 -0.7388244 -0.52947253 0.8272837 0.15408178 -0.02413442 0.53403884 -0.7974148
0.42624936 0.07719603 -0.60663176 -0.4972963 -0.36687243 0.094412595 1.3651296 -0.30854076
-0.2994145 -0.81024486 -0.24230108 0.20337959 0.2867976 -0.7803315 0.24838127 -0.2654874
-0.23974828 -0.18096589 1.0432278 -0.23023838 0.03674092 -0.011520142 -0.17204122 0.06524879
-0.049789086 -0.1140545 0.6487807 0.6396261 0.25330055 -0.11141483 -0.6343047 0.48987228
-0.34360272 0.7320546 -0.23994625 -0.9847913 -0.43932855 0.9093187 -0.3752745 -0.14171192
0.00013635204 -0.15677449 0.75522584 -0.13423346 1.3923972 -0.90111953 -0.42510852 -0.27504647
-0.26053405 0.528416 -0.31324977 -0.29028988 0.5272767 -1.6693695 0.40856975 0.44479737
0.45688352 0.3304665 0.35553226 -0.8716889 -0.50015837 0.9836761 0.90589887 0.3045108
-0.7510272 0.48059705 -0.4046366 -0.15455553 0.3865986 0.32789126 -0.27740812 0.06283574
0.16521978 -0.26801148 0.91046435 0.26509035 -0.49315837 -0.6069524 0.20447026 -0.5954384
-0.1285817 1.3910398 0.32319677 0.82757014 0.34826693 0.4534638 -0.38592455 0.507684
-0.25998792 0.49398088 0.08533911 -0.036448207 0.94781435 0.050310466 0.5667569 -0.5597224
0.5160723 0.8708461 0.5259425 0.18588296 0.5792844 -0.2153721 0.22544815 0.2817178
-0.7456954 0.55417013 -0.63624054 -0.0619836 -0.04164778 0.40857282 -0.3106391 -1.0063854
-0.20533901 0.8128864 0.7168015 0.18568613 0.6592547 0.5812714 0.66326284 -0.31376147
0.82051253 0.103102125 -0.074747294 1.1862816 0.84694993 0.7701519 0.028889177 0.63296396
-0.42266998 0.72627276 -0.52471447 -0.49368453 1.1179004 -0.5370721 -0.16920345 -0.12748753
-0.5675798 0.22444835 -1.3200347 -0.16973439 0.19315392 -0.59595233 0.083770126 -0.07084089
-0.7239801 0.6353234 0.37200332 -0.72216153 0.3717201 0.66070086 -0.9457496 -0.22785597
-0.8568577 -0.07653965 0.59555817 0.06294542 -0.30397487 -0.35549766 0.39953163 0.13195047
-0.18813707 0.3086719 -0.79926586 -0.047496073 0.4585274 0.25481376 0.3769517 -0.74549615
1.9787418 -0.047293425 -0.3297309 -0.21289828 -0.45189682 0.83900446 -2.3581746 -0.06546421
-0.62335426 0.052976478 -1.0140265 -0.6339383 0.29555637 -0.06542774 1.6674025 -0.7337407
1.2328235 1.3289794 0.1746554 -1.0736057 -0.31207287 0.4940406 -0.41278976 -2.3203704
-0.08190889 0.26252645 0.4958784 -0.5675731 0.6104319 -0.94793755 0.67091227 0.38380566
-1.0072696 0.2822246 -0.5619333 0.5720136 -0.21000451 0.03233751 -0.5251647 0.8387326
0.7811348 -1.0899346 -0.100195765 -0.043618053 0.14811909 -0.48330086 -0.35469618 0.089101635
0.113228716 -0.1144482 0.12607993 -0.3976903 -0.5257448 0.38768834 0.06062596 -0.5418204

feature.weight_hh_l0_reverse f4 [512, 128]
00000000: 72d1 df3e 4896 64bf f2f7 e33e 015e e63e
00000010: b450 ff3e 3c4a 88bf d64a 483d 21ef 2ebf
00000020: 8431 5a3f 6ef3 d9be 5863 3c3f b03a e73d
00000030: b0a6 f7ba 0d85 0abf a41d 0fbe 6472 293f
00000040: 600c 3f3f 1fe0 54be 4f1f 9cbd 09be 8a3f
00000050: 6a20 2a3f cc1b a2bd 5d59 40bf ca0d 1b3f
00000060: 4421 f33e 6162 603e 4071 1d3f be70 073f
00000070: 819c bd3c f6b2 e1be f5bf 383f 1b2e 1bbf
00000080: 7183 aabe 7c6c 9e3f 3a10 17bf 5740 d9be
00000090: 6568 523f eabd d63e e1a2 2e3e 0177 45bf
000000a0: 54c7 df3e 4006 4b3f f84f a63c 9150 d13d
000000b0: ffbc 0f3c bdf3 ca3e f845 ca3e ff3e 53be
000000c0: 52cb cbbe 22d7 f9bd fdfc 14bf 8d13 813d
000000d0: e8c1 0fbf 7df4 78bf 0b86 38be ecef 483e
000000e0: e7b7 36bf 8270 7fbe dbc8 eebe 6d1e 273e
000000f0: 343f 41bf 8477 c13e 39f8 1f3f 8fc5 0b3e
00000100: 5fd6 023a a7be 833e 0b69 023e e42d 48bf
00000110: b2ee 753d 500c cb3e ef0d 293e 82e3 a0bf
00000120: 969f 19bf 0818 4ebf dbfa 11be 781e 25be
00000130: 7a96 da3e e87b b1be 7ace 193f e17e 203f
00000140: 1cc1 01bf 1292 2dbe 4d26 0bbc e83b 34bc
00000150: 19ba b63d 281d 3f3e 30d1 803e 8e88 ad3e
00000160: 8997 95be 38d8 0e3f 6f3b d0bd 1d9b 1ebf
00000170: 2887 85bd d070 acbe cea7 6ebe 2bd7 373f
00000180: c184 69bd 47d3 e0be f535 45be 6eed c5bb
00000190: ddbc 0c3f 19b8 c8be d210 88bf a0e5 36bf
000001a0: 14fe 3bbf 5b0a 253e e4d7 cebe 1d33 9fbd
000001b0: a392 22be 5e6d d9bd 65b6 0bbf 0a46 3e3e
000001c0: e392 b33e 603d 50bd 4b7c c9be a4bb 973e
000001d0: 8f25 353f b5d7 e13f 60c6 a83e 6e38 a93e
000001e0: 9347 efbe 15bb fabe 8ffa 52bf 98a1 8abf
000001f0: 6626 343f cc84 253e 5aca e8be 691e 55be
00000200: 1240 a63e f404 73bf 8549 203f 9f95 283f
00000210: b1c7 5ebf 4bbf e8bd 6e14 8c3f 9e8e 883e
00000220: 78e4 94bd 16ef 83be 1cb3 c5be ecc3 383e
00000230: d9e1 5e3e 8b16 e43d bd02 b2be 21ec e7be
00000240: 6cc8 40bd 405e ff3e a322 873e 5567 563f
00000250: add0 593d 085a fbbe 5b40 c03e 3404 38bf
00000260: 6348 1a3f 4e29 013f 0dff 80bf b334 9b3e
00000270: a2f7 85be 0032 15bf 1a8d e63d 3be1 8f3e
00000280: 692b 48bf 6e33 15bf 3393 b7be fc2d d7bd
00000290: e424 a3be ad26 8b3e aa89 c53e fbbe 9abf
000002a0: a17c 6bbf d42d 713e e4db 27be b43a 483c
000002b0: 984d 57be df3b 2b3d 02d5 edbe 1b04 2e3f
000002c0: 8368 403f f9c3 8b3d d38e f6be 27aa 963d
000002d0: a160 8b3f b4bb 3e3f 5b0c 6fbe a012 44bf
000002e0: 4ff8 2e3f 8f27 503f 2b11 3d3e d160 0abf
000002f0: 8dc6 1ebf f716 553f 1d33 d0bd e9cb f7be
00000300: e4cf e63e d5a5 9a3e 8b60 273d 4d05 b93e
00000310: d4af 13bf 4b1e 3f3e 3a6e 72bd 52e9 143f
00000320: f77c 2abf d456 eb3e 5a5e 3cbf 13e4 5dbf
00000330: 2851 6b3e 7ea8 f13c 7274 e1bd cca1 233f
00000340: ca92 133f 5323 593c 3f5f 8d3e dfaf e1be
00000350: 1980 5fbe a8c1 c6be e9ac be3e 7843 76bf
00000360: 98a4 32bd 7884 2cbf a20b 553f 3b25 0bbf
00000370: 2121 933e 9f11 e0be 2e7d 89be 6e71 3b3f
00000380: 2cb6 913f 5acd 19be c780 50bf 941f 8e3f
00000390: 5ffe f0be 8692 85bf 607b b3be 2cd9 573f
000003a0: 9a6d 783f 75ff 60be 882a 893e 85e3 913f
000003b0: de90 2d3f 5bab 44be 5aec a2bf 64db 3bbf
000003c0: 02f2 2bbf cb75 923e 5a12 5c3f f4e9 a2be
000003d0: 1a58 473f 7902 59bf 1a41 56be 3b71 0e3f
000003e0: c475 50bb ce79 dc3e dd4d 9fbe 69fc 043e
000003f0: 948c a1be 25d2 a23e 38b9 27bf 7d62 1d3f
0.43714482 -0.8929181 0.44525105 0.44993594 0.4986626 -1.0647655 0.048899494 -0.6833363
0.85231805 -0.42568535 0.73589087 0.112904906 -0.0018894281 -0.5410927 -0.13976151 0.6619017
0.7462826 -0.2078862 -0.07623159 1.0839244 0.6645571 -0.07915458 -0.7513636 0.60567915
0.47486317 0.21912529 0.6150093 0.52906406 0.023145916 -0.4408185 0.72167903 -0.60617226
-0.33303407 1.2376857 -0.59009135 -0.424319 0.82190543 0.41941768 0.17054321 -0.7713471
0.43706763 0.7930641 0.020301804 0.10220445 0.0087730875 0.39639083 0.39506507 -0.206295
-0.3980356 -0.121992365 -0.5819853 0.06302557 -0.5615525 -0.9724806 -0.18019883 0.19622773
-0.7137436 -0.24945262 -0.46637616 0.163202 -0.75487065 0.37786496 0.6248813 0.13649581
0.000499105 0.25731394 0.12735383 -0.78195024 0.06004209 0.3965783 0.16509221 -1.256943
-0.60009134 -0.8050542 -0.1425585 -0.16124904 0.4269293 -0.34664845 0.60080683 0.626936
-0.50685287 -0.16950253 -0.008493018 -0.011000611 0.08922214 0.18663466 0.25159597 0.33893245
-0.29217175 0.55798674 -0.10167586 -0.61955434 -0.0651992 -0.3367982 -0.233062 0.71812695
-0.05701137 -0.43911192 -0.19258864 -0.0060402667 0.5497568 -0.39202955 -1.0630133 -0.7144413
-0.7343457 0.16117232 -0.40399086 -0.07773421 -0.1587625 -0.10616563 -0.54575187 0.18581405
0.35073003 -0.05083978 -0.3935264 0.29635346 0.70760435 1.7643954 0.32963848 0.33050865
-0.46734294 -0.48970857 -0.8241357 -1.0830564 0.7037109 0.16163939 -0.45466882 -0.20812382
0.32470757 -0.9492943 0.6261218 0.65853304 -0.87023455 -0.11364611 1.0943735 0.26671308
-0.072701395 -0.25768346 -0.38613212 0.18043488 0.21765842 0.11137112 -0.34767714 -0.4529734
-0.047066137 0.49876595 0.26393613 0.8375142 0.053177524 -0.49092126 0.375491 -0.71881413
0.60266703 0.5045365 -1.0077835 0.30313644 -0.2616549 -0.5827942 0.11257382 0.28101525
-0.7819124 -0.582816 -0.35854492 -0.10506818 -0.31864083 0.27177945 0.38581592 -1.2089533
-0.91987044 0.23552638 -0.16392475 0.012221027 -0.21025693 0.041805144 -0.46451575 0.67975014
0.7515947 0.06824488 -0.4815584 0.07356673 1.0888864 0.7450516 -0.23344557 -0.7659092
0.6834764 0.8131036 0.1846358 -0.5405398 -0.62021714 0.83238167 -0.10165999 -0.4839776
0.45080483 0.30204645 0.040863555 0.36136857 -0.5769017 0.186639 -0.05918715 0.5816852
-0.6659693 0.45964682 -0.7358147 -0.8667614 0.22980177 0.029499289 -0.11008538 0.6391876
0.5764586 0.013253051 0.2761173 -0.44079491 -0.21826209 -0.38819623 0.37241295 -0.961967
-0.043614 -0.6738963 0.83220875 -0.54353684 0.28736213 -0.43763444 -0.26853317 0.73219955
1.138372 -0.15019742 -0.814465 1.1103387 -0.4706907 -1.043534 -0.35055065 0.84315753
0.9704224 -0.21972449 0.2679026 1.1397558 0.67799175 -0.19205992 -1.2728379 -0.7338164
-0.6716615 0.28605494 0.859655 -0.31819117 0.7786881 -0.847694 -0.20923272 0.55641526
-0.0031808475 0.4306168 -0.31114092 0.12986912 -0.31552565 0.31800953 -0.65516996 0.61478406

feature.bias_ih_l0_reverse f4 [512]
00000000: 9a8f 81be 6ef1 103f bf0f ac3e 1968 db3d
00000010: c934 263d 9594 583e 5266 20bd d8bd 073f
00000020: cb70 fdbb b83b 92bd dfef f43d 1e66 6d3e
00000030: 4e14 69bd c92c 75bd 6fea 75bd 41e4 403d
00000040: 3b3e 61be 9965 ffbe f0ee 873e db33 d93e
00000050: 0283 c13d ccc4 1d3e bcb8 b03e 4295 623c
00000060: 5314 2f3e d837 433d 4fd3 3f3d b638 18be
00000070: b751 983c 7289 82bd 9361 d53c cb12 7abc
00000080: e4a7 8fbe a851 babe 1308 1e3f bac3 08be
00000090: a6a8 c6bd 6409 953e 2aa0 853e cddc dfbd
000000a0: 510f b33d daf4 4f3e bb1a 15be f9de e23e
000000b0: 3324 00bf 13d7 c13e bf55 28be 4bf6 1a3f
000000c0: b71c b23e df7f 4a3e b73b adbd 8a0a 2cbe
000000d0: d320 a2be 6618 c8be be5c 4cbe e705 823f
000000e0: 6c18 403e 0d87 443e 31b2 873e 6286 db3e
000000f0: 023f d03e 7cec 233f 9327 023f 714d 10bd
00000100: 2398 b9be cd71 093e dfae a03e 3e0f 843e
00000110: 2619 f7bd 9073 0a3e b0f8 d73d 9f68 843e
00000120: 685d 1e3e 29bc 1a3e 7f70 593d 3fda 35bd
00000130: 433c 933d 6097 1e3e 2113 9dbe 04a1 4abe
00000140: da61 9ebc d9f6 16be e79d 943e 29b1 513e
00000150: f03e 90be b33b bc3e ec4f 443f bf81 5d3e
00000160: 03e1 8ebd 9a1a fe3e 0a1d 033e 54e6 89bc
00000170: 9cc5 84bc 4d93 3c3e fa85 c93e 38d8 9b3d
00000180: 2f66 ecbd d32c c8bd f966 d5be 2d0b 8a3e
00000190: 31a7 1b3e fa61 f6be 60b3 003e 303f 9a3e
000001a0: 821d 4e3e 7e12 4e3e b3b6 9a3e 73e5 9f3e
000001b0: c4a6 c33e df5b 9abe d3f5 1a3f cabf 113f
000001c0: dcab 303f 0e3c 7d3d 2ed8 7abe 4e23 343e
000001d0: 6a4d f93d 894e da3e 7181 133e 1739 c73e
000001e0: c392 65be da19 793a 6672 81be b9ee f03d
000001f0: d1ca 143e 5d1f 773e 1ae2 f63c 5827 ff3d
00000200: ca34 493f 5fc8 b0be 7583 02bf b073 84be
00000210: 5f59 fdbd 3ba9 6abe 22d2 d1bd 7009 0fbd
00000220: 4137 80bd 9746 dcbe 713e 4ebe 10f4 50be
00000230: 11d8 d4bb 3e36 d7bd ba02 20bd 8462 82be
00000240: d9bd acbe 0f93 d43e ca90 173e 5011 88be
00000250: d75d 97be 23aa 443f 9424 e03d 050d 0ebe
00000260: fbb3 56be 8452 4cbe f59b 883f 0a42 1ebe
00000270: 8e58 7c3f 6134 66be 490e 98be 4b8b 693c
00000280: 9e99 c13e 61ce 463e 1f2b d3be f42e 93be
00000290: a72b 913c 42c4 553e a0c4 9e3d aaac 713c
000002a0: 9b2d d6be 9f56 db3e 7ced 633e 4c0b 05be
000002b0: fb96 483e 1f94 0e3f de69 d1be 4bbc 93be
000002c0: c5a8 983e d449 20bc 9ad2 963e 8ba1 b73f
000002d0: 03f0 9c3c f1d7 11be bb9c bc3e c7c3 6fbe
000002e0: 0879 0e3f 6b04 a63f d7b0 133f d46d 273d
000002f0: 676e e9be 0ce0 3cbe 9640 883d ee65 22be
00000300: 0828 f63e 5aee 153e 9eeb 973d 2f4f f8be
00000310: f453 3cbe 07de a93e d9cc cabb e62d 56bf
00000320: 8f2e bb3d b47b 483e 94b6 99bc 396c 0e3e
00000330: 4fd8 c7be 5a6f abbe f181 ec3e 1c51 09be
00000340: 2d9c 963e 850a 5e3e 82c2 9abd 446a 8fbd
00000350: eb1f c03e eb2a 293c 77d3 18bf 9ac2 82bd
00000360: 2338 c0be e4ee babe f8b1 073e 88f9 b33e
00000370: fb94 2dbe 19b8 0cbe 52c9 963d 853a 203f
00000380: c97a de3e 780d ebbc eca0 533f b8de 6e3e
00000390: 9475 7cbd e4be ae3e 0b6a babe 4a4a 02bf
000003a0: ca0d a5bb 2eb1 003f cff0 493f 4da9 56be
000003b0: e734 21bc 2efa fabd 6db2 4f3e 2ab6 da3e
000003c0: f826 ebbe d94e 79be e4c5 d33e cca3 cc3c
000003d0: a7ac a83e ac54 d1bd 74e6 a0be 1c39 c0be
000003e0: fd47 58be 9a44 58be cb59 023e 183a 503d
000003f0: a7dd 283d c8a6 703e 92af c33e 8c56 81bc
-0.25304872 0.5661839 0.33605763 0.107132144 0.040577684 0.2115043 -0.03916008 0.53024054
-0.0077343932 -0.07140297 0.11959814 0.23183486 -0.05690413 -0.059857164 -0.060038026 0.04709268
-0.21996395 -0.498822 0.26549482 0.42422375 0.09448816 0.15407103 0.3451594 0.013829531
0.17097597 0.04766068 0.04683238 -0.14865384 0.018593652 -0.06373872 0.026047504 -0.01526327
-0.28057778 -0.36390424 0.6173107 -0.13355914 -0.09700136 0.29108727 0.26098758 -0.10930786
0.08743156 0.20308247 -0.14560978 0.4431074 -0.50055236 0.378594 -0.1643896 0.60532063
0.34787533 0.19775341 -0.08458655 -0.16800895 -0.31665668 -0.39081115 -0.19957253 1.0158051
0.18759316 0.19192143 0.26503137 0.42875963 0.4067307 0.6403272 0.50841635 -0.035230104
-0.36248884 0.13422318 0.31383416 0.2579288 -0.120653436 0.13520646 0.1054548 0.2586107
0.15465319 0.1511084 0.0530858 -0.04439759 0.071892284 0.15487432 -0.30678657 -0.19787985
-0.019333769 -0.14742602 0.2902672 0.20477737 -0.28173018 0.36764297 0.7668445 0.21631525
-0.06976511 0.4962967 0.12804046 -0.016833462 -0.016207509 0.18415566 0.39360029 0.076096
-0.115429275 -0.097741745 -0.41680124 0.2696165 0.15200497 -0.48121625 0.12568426 0.30126333
0.20128444 0.20124242 0.30217513 0.31229743 0.3821317 -0.30148217 0.6053135 0.5693327
0.69012237 0.06182485 -0.24496529 0.17591593 0.12172969 0.42638043 0.14404847 0.38910744
-0.22419266 0.00095024484 -0.25282592 0.11764283 0.14530493 0.24133058 0.03013711 0.12458676
0.78596175 -0.3452787 -0.5098184 -0.25869513 -0.12370562 -0.22916119 -0.10245158 -0.03492111
-0.06260539 -0.43022606 -0.20141007 -0.20405602 -0.0064954837 -0.10508393 -0.0390651 -0.25465786
-0.33738592 0.41518447 0.14801326 -0.26575708 -0.29563782 0.7682211 0.10944477 -0.13872154
-0.20967095 -0.19953352 1.0672594 -0.1545488 0.98572624 -0.22480918 -0.296984 0.014254401
0.37812513 0.19414665 -0.41243836 -0.2874676 0.01772101 0.20875648 0.07752347 0.014750639
-0.4183167 0.42839524 0.22258562 -0.1299259 0.19588844 0.55694765 -0.40901083 -0.28854594
0.2981626 -0.009783227 0.2945755 1.4346174 0.019157415 -0.14242531 0.36838326 -0.23414527
0.5565343 1.2970098 0.5769171 0.040876225 -0.45592043 -0.18444842 0.06652944 -0.15859196
0.48077416 0.14641705 0.07417987 -0.48497912 -0.183914 0.33177206 -0.0061889705 -0.83663785
0.0913974 0.19578439 -0.018763818 0.13908471 -0.39032218 -0.33483392 0.46192887 -0.13409847
0.29416028 0.216837 -0.07556631 -0.070026904 0.3752435 0.010325174 -0.5969767 -0.063847736
-0.3754283 -0.36510384 0.13251483 0.35151315 -0.16951363 -0.13742103 0.073626176 0.62589294
0.43453053 -0.028692946 0.8266742 0.23327148 -0.06163557 0.34130013 -0.3640903 -0.50894606
-0.005037044 0.50270355 0.7888307 -0.2096302 -0.009839273 -0.12254749 0.20282908 0.42717105
-0.45928168 -0.24346484 0.41361916 0.024980448 0.32944223 -0.10221228 -0.31425822 -0.3754357
-0.21121211 -0.2111992 0.12729566 0.050836653 0.04122701 0.23501122 0.38219887 -0.01578834

feature.bias_hh_l0_reverse f4 [512]
00000000: b80a 9bbe 5a18 023f f514 c73e 3c66 0b3e
00000010: 8824 013d 7b6f 063e ea5d 0cbe e0bd 063f
00000020: fabb 623d 3de2 e23d 1632 b63d 8dde f83d
00000030: 2e74 8f3d 001e 373e 8f67 1abe b3bd 5f3d
00000040: 82a3 8cbe 7869 bbbe 4860 d53e f3e3 e23e
00000050: 7b2d a43d 5c8b 573e d0a2 cb3e ec8a 0d3d
00000060: 1956 0a3e b682 da3c 3035 a93c ab43 07bd
00000070: c82a 5abd af7f 62be 6d58 fa3d 3549 4b3d
00000080: fde1 b8be c105 a6be 0c27 343f 3beb 00bd
00000090: 797f 8ebd 6596 883e 5639 ef3d c2e1 72bc
000000a0: 9d84 123e 4b19 6b3e 56a1 4ebd 9cec d63e
000000b0: 39dd 00bf bc11 b23e 1784 8cbd 5ac6 1a3f
000000c0: 1142 b13e 22f4 1d3e f22a f0bd b5ff 52be
000000d0: 80b9 93be c2d7 64be 817c 84be f8fd a53f
000000e0: 3afb 2b3e f94e 763d 0b6e b43e 96a3 ed3e
000000f0: 479f f03e 5fca 3b3f cc02 d73e 2aa8 a2bd
00000100: 93ed b7be 2b87 143e b87e d93e 085e 8c3e
00000110: b933 46be f9aa 813d 0dad 853d ae4c 243e
00000120: 09b6 fc3d e72d 7e3e 8fbe 18bb 69bf b23d
00000130: b6f0 b8bc 4f7b 513e 4d58 90be bac2 94be
00000140: db43 0a3d 1c9a 58be ad4c 9f3e e3d0 a13e
00000150: 99f0 a0be 24c3 d83e 27e6 303f 0692 033e
00000160: 351e 98bd 29a6 f43e 1043 1d3e e3aa 0b3d
00000170: e0a2 313d 3fba c73d 3278 dc3e cc23 ef3d
00000180: 7baf 86be bbbb 18bd d3d1 a7be d285 863e
00000190: f80a 0d3e 717d d5be a0fa 223e 9cd6 a93e
000001a0: 364b 723e 56e9 823e c7de c63e 9540 973e
000001b0: 6fbd c03e a491 69be 10b1 2d3f def5 163f
000001c0: 68e6 1a3f 521a 873e 130f 80be 09c0 ebbc
000001d0: f1f7 963d 585c c43e 749a 4f3e e503 8b3e
000001e0: ba2a 73be 2109 863e 6f23 12be 54cb 333c
000001f0: c91e 393e 7864 a43e 06f3 873c 824a eb3d
00000200: d6f7 773f 5a5b cebe f34f 1bbf 6f36 04be
00000210: aa7d eebd 4445 5abe 0a08 cabd a576 bdbd
00000220: 19b3 edbc 4f52 b9be ffde afbe 9043 63be
00000230: 9bc2 bdbd 3b41 b5bd 9de4 50bd 9bcb 32be
00000240: 6710 b6be a221 dd3e e00c 0c3e 5201 cdbe
00000250: 02a0 88be dd59 2e3f 8382 3f3e ac6c c7bd
00000260: ff80 93be 9278 5dbe e0f9 933f 5763 d1bc
00000270: 0ef7 783f 8baa 7ebe ff68 6bbe fe66 273c
00000280: 9a69 9e3e 37ce 023e c749 c9be cd73 86be
00000290: f9d5 f3bd ee86 ff3d 58a4 023e c362 983d
000002a0: e14d 0cbf 4995 b93e 4aaa 993e 6013 4ebd
000002b0: 14a4 3e3e e90e 113f dde5 18be f22b 7abe
000002c0: ecce b63e e68f c5bb d03d 673e 6948 b13f
000002d0: fb6c b2bd 2077 74be 30c0 c23e ead7 a3be
000002e0: 00c2 063f 8218 933f e8e1 dc3e 6d02 393d
000002f0: f68c a8be 832b 83be aba5 243c d96b 663b
00000300: 33df c13e c2ce 503e 634c e33d a246 febe
00000310: 59d5 2bbe e2a4 883e 8016 b4bd 4a22 6bbf
00000320: abdd f13c e128 853c 3802 043c 709e 1a3e
00000330: b0ad 9abe 2b9f 7dbe b35e ec3e a6dc f9bd
00000340: 9b58 9e3e 1363 9e3e 002b 25be 4500 aabd
00000350: de2c e03e f182 39bc f256 34bf 371d ebbc
00000360: e392 9fbe e2dc f0be d438 d73d c27a a63e
00000370: 31c6 a5be f748 dcbd 0569 123e ac25 353f
00000380: faa8 9c3e 4894 5e3c e5a6 3d3f 98f3 883e
00000390: bc50 0cbe 9ee3 ac3e b5c7 9ebe e5ff 0abf
000003a0: 9145 20be 571f f73e 5685 523f f8fc 34be
000003b0: 971d b0bd 2879 59be 830f 233e bb33 183f
000003c0: 43f0 10bf 46e6 4ebe e646 063f 7f21 07be
000003d0: 0cb8 ac3e 35a6 b63d ca0b 85be a497 d3be
000003e0: 0190 4ebe 46e8 03be 0865 d13d 02af 8dbd
000003f0: 7a16 a03d e72b 4b3e 554a e03e 5526 ff3c
-0.30281615 0.5081841 0.38883176 0.13613218 0.03152898 0.13128464 -0.137077 0.52633476
0.05535505 0.11078308 0.08896272 0.12151823 0.070045814 0.17882538 -0.15078567 0.05462427
-0.27468497 -0.36603904 0.4167502 0.44314536 0.08016487 0.21049255 0.39772654 0.034556314
0.13509406 0.026673656 0.020655245 -0.033023518 -0.053263456 -0.2211902 0.12223897 0.049630363
-0.36109915 -0.32426265 0.7037208 -0.031474333 -0.06957907 0.26677242 0.11680858 -0.014824333
0.143084 0.22958867 -0.05044683 0.41977394 -0.5033756 0.34779155 -0.06861132 0.6045891
0.34620717 0.1542516 -0.11726941 -0.20605357 -0.28852463 -0.2234793 -0.2587624 1.296813
0.16795054 0.060133908 0.35240206 0.4641387 0.4699652 0.7335567 0.4199432 -0.07942231
-0.35923442 0.14504687 0.4247949 0.2741549 -0.19355668 0.063314386 0.065271474 0.16044876
0.12339408 0.24822198 -0.002330694 0.08727915 -0.022575717 0.20457195 -0.28192368 -0.29054815
0.03375612 -0.21152538 0.31113186 0.3160468 -0.3143356 0.4233638 0.69101185 0.12848672
-0.074276365 0.4778302 0.15357614 0.034098517 0.04336822 0.097523205 0.43060452 0.116767496
-0.26305756 -0.03728841 -0.3277727 0.26273972 0.13773715 -0.41697267 0.15915918 0.33171546
0.23661503 0.25568646 0.3884184 0.2954146 0.37644526 -0.22809464 0.678483 0.58968914
0.6050782 0.26387268 -0.250115 -0.028778093 0.0737151 0.38351703 0.20273763 0.2715141
-0.23746768 0.2617884 -0.1427133 0.01097377 0.1807815 0.32107902 0.016595375 0.114888206
0.9686254 -0.4030407 -0.6066887 -0.1291139 -0.11645062 -0.21315485 -0.098648146 -0.09251145
-0.029016064 -0.3619561 -0.3434982 -0.22193742 -0.09265634 -0.08850332 -0.050999273 -0.17460482
-0.3555939 0.43189722 0.13676786 -0.4004007 -0.26684576 0.6810587 0.1870213 -0.097375244
-0.28809354 -0.21628025 1.1560631 -0.025560064 0.97251976 -0.24869744 -0.22989272 0.010217426
0.30939943 0.12773977 -0.393141 -0.26260224 -0.119060464 0.12476908 0.12758005 0.07440712
-0.54806334 0.36246708 0.30012733 -0.050311446 0.18617278 0.56663376 -0.14931436 -0.24430826
0.35704744 -0.006029117 0.22582173 1.3850223 -0.087121926 -0.23873568 0.38037252 -0.32000667
0.5263977 1.1491854 0.43141103 0.04516833 -0.32920045 -0.25619134 0.010049264 0.0035159497
0.378656 0.20391372 0.11098554 -0.49663264 -0.16780604 0.26688296 -0.08793354 -0.91849196
0.029524645 0.016254844 0.00805717 0.15099502 -0.30210638 -0.24767749 0.46166 -0.122002885
0.30926976 0.30934963 -0.16129684 -0.08300833 0.4378423 -0.011322723 -0.7044517 -0.028700454
-0.31166753 -0.4704352 0.10508886 0.32515532 -0.3237777 -0.107561044 0.14297874 0.7076061
0.3059767 0.013585158 0.74082786 0.26748347 -0.13702673 0.33767408 -0.3101174 -0.54296714
-0.15651537 0.48266098 0.82234704 -0.17674625 -0.08599394 -0.21237624 0.15923886 0.59453934
-0.5661661 -0.2020503 0.5245193 -0.13196371 0.33734167 0.0891842 -0.25985557 -0.4132663
-0.2017212 -0.12881574 0.10224348 -0.06918146 0.07816787 0.19840966 0.4380671 0.031146208
