logs/classifier/40_contexts/fold_01/10-19-2022_10-14-35/model_params.pth (torch, 821283 bytes, 10 tensors)

feature.weight_ih_l0 f4 [512, 64]
00000000: e50c b1be 8104 cc3e ddca e83e cf00 a23e
00000010: 5b3f 873e 5887 fe3e 1680 9b3d b785 ca3d
00000020: 3615 813e bfab 653f 39a2 493e 6d96 a7be
00000030: 6e7a 2a3f f15a 7b3c a1bc d93e e52e d6be
00000040: 6077 5dbf 3a8c 13bf a963 92be f118 c33e
00000050: 2bba 0d3e 9256 39bf ad5a 353f 4240 19bf
00000060: 4c71 0a3f a474 193f 7dd0 113e c93c 223f
00000070: 73ce 0cbe f4b5 003f 207e 8a3e 1d20 123f
00000080: ce3e f43e 23c2 a53c 761a f7be a3db 55bf
00000090: 02b3 5d3e ed1a 2b3f 8c94 cc3d ed5e 2b3f
000000a0: 7562 993d 8e3d 91be 93db 933d 7c40 bf3f
000000b0: 4d79 59be b7e3 4d3f 5b6e 4d3e 543d 333f
000000c0: 2621 e03e 09ef 9e3f be68 5cbe 1eb3 043f
000000d0: bcc8 4b3e 1d51 fb38 951f fb3e 234e 03bf
000000e0: f26a 333b d7e2 953f 235f b73e 937a 553f
000000f0: 47d6 b93e b180 1e3f 92bc 333f c92e 51be
00000100: 40ef 1ebe e36d 3fbf e7e6 91be 627b 903f
00000110: 1e59 603d 4aaf a4bb ee50 203e dfd6 06bd
00000120: 60da 293f 3a64 e33e 989f 91be 245f 06be
00000130: 8bbe 04bf b46e df3e b91e 26bc 3817 19bf
00000140: 92c6 013e 3d6f 23be 26aa e23e 6c8b 86bf
00000150: cfb6 b1be 9637 ba3e 556b febd 3e41 493e
00000160: 84e1 e63d 1d06 e3bd 5eb9 6bbf 7e19 c3bd
00000170: 3ba1 35be f7d4 883e eaca a73d fc72 193f
00000180: b7e5 b2be 0e0e babc 62f3 083e 71f1 a13e
00000190: fa6e 013f f796 8b3d 419e b4be 4bb8 f43d
000001a0: 3d0a 3e3e a80b b73e 21a6 33be bb9f 99be
000001b0: 8b96 de3e 8348 21be 8127 293f b12d a6be
000001c0: 0f97 363e 15cc c93d 2fd8 62bf e7a3 54be
000001d0: ca9d 34be 29d4 2b3e f196 4bbe 0cbf 1b3f
000001e0: f489 c5be 8e74 0b3f 1597 f13e 7ff7 ccbe
000001f0: 403b 543d aa47 58bf cc01 a43c 29e4 713e
00000200: 5089 1a3f 7baf 583f f9dd 0c3f 57cc 843f
00000210: 1789 ce3e a2cc f23e 6936 7b3f 5f5e 653f
00000220: 4fdb 3b3f 565b 8a3e 45e3 20bf b2fa 17bf
00000230: a747 c6bf e004 a63f 55b0 8f3e 9810 9b3e
00000240: 95bf 9a3e f65c adbf 448e 30be 133e 343f
00000250: a62f ccbe 7e77 933d bc42 47bf 22c8 41bf
00000260: d495 043f b754 c53f 55d2 933e 9940 a1be
00000270: 2501 753e dd64 983f 136d 0a3f d59d e6bc
00000280: 4586 2dbf ac5d 0abf 2dde 4fbf dea5 b4be
00000290: b2b7 373e 37fd 54bf 1ee7 bbbd fe43 e8be
000002a0: 9da9 893d 1e80 913e ff8a 45bf a25e 41bf
000002b0: 6f56 cfbd f7f6 863e fede 0ebf a7bc fb3e
000002c0: e57d 653e 922e 7b3e b3c5 9ebf d614 d93f
000002d0: e690 863e 314f 17bf 8b82 ccbe e42a 77be
000002e0: aea0 d0be 578d 42be 613f 68bf 2e85 3ebe
000002f0: 5fed f1bd 4ddc 853e 43e4 26bd 131b bb3e
00000300: e6c8 a83e 3427 eb3c 8f2b 93be 5a84 c73e
00000310: c83c dbbe 7635 613e e02f 50bd 9625 ddbd
00000320: 1e57 323e 30f2 abbe 42c8 ba3e 11df 063f
00000330: 48b7 acbe 0e0d 5abe 326b e6be 14e0 883e
00000340: 338c 4ebe f68a d6be 5f2c 9cbe fb31 88bf
00000350: e9c0 873d e8e9 5bbd 4231 25bd 6ccc 88bd
00000360: 0266 ebbe b107 9dbe 590e ea3d 86c8 d33e
00000370: baba 19be 1de7 63be e442 563f 5bdb 173f
00000380: 599a 9d3e bea8 fc3e b7c1 0e3e 2805 0cbe
00000390: 7dd5 893d 2ba0 cc3d 9c3e d7be dd90 cabe
000003a0: 942d bfbe fdc0 4e3e 3c22 d1be 0587 c53e
000003b0: 7900 05bf b16e 0dbf 51e8 c13e 9b49 9f3e
000003c0: 207e b23d be97 b5be c4ee 32bf d4e6 95be
000003d0: 3bae 133f bd2c 7e3d 7f27 4e3e dd71 a6be
000003e0: 8d16 d53e 4870 a13e 33d2 8f3e cdd6 29bf
000003f0: 4929 e7be 8c79 48be 300a 833e 82ff 00bf
-0.3458015 0.39847186 0.45467272 0.31641242 0.26415524 0.49712634 0.0759279 0.09888785
0.25211495 0.8971519 0.1969079 -0.32731953 0.6659306 0.015341506 0.42526725 -0.41832653
-0.86510277 -0.57635844 -0.2859166 0.38104966 0.13840549 -0.7239772 0.70841485 -0.59863675
0.5407913 0.59943604 0.14239688 0.63374 -0.13750629 0.5027764 0.2704935 0.5708025
0.47704166 0.020234173 -0.48262376 -0.83538264 0.21650317 0.6683796 0.099892706 0.6694172
0.07489482 -0.28367275 0.07219615 1.4941554 -0.21237679 0.8042559 0.20061629 0.70015454
0.4377529 1.2416698 -0.21524331 0.5183581 0.19900793 0.00011983721 0.49047533 -0.512911
0.0027376977 1.1709851 0.3581477 0.8339016 0.36296293 0.6191512 0.7020961 -0.20428003
-0.15520954 -0.7477705 -0.28496477 1.1287653 0.05477249 -0.005025779 0.15655872 -0.03291976
0.6634884 0.44412404 -0.28442073 -0.13122231 -0.51853245 0.43639147 -0.010139161 -0.59801054
0.12673405 -0.15960403 0.44270438 -1.0511298 -0.34709784 0.36370534 -0.12422816 0.19653794
0.112734824 -0.110851504 -0.9207972 -0.095263466 -0.17737286 0.2672498 0.08193 0.5994108
-0.34940884 -0.02271178 0.13374093 0.31629518 0.5055996 0.06815904 -0.35276988 0.119492136
0.18558593 0.3575108 -0.17543842 -0.30004677 0.4347423 -0.15750317 0.66075903 -0.32456735
0.17831062 0.09853379 -0.8861112 -0.20765649 -0.17638317 0.16780151 -0.19881798 0.6083839
-0.38581812 0.54474723 0.4718558 -0.40032575 0.051814318 -0.8448435 0.020020388 0.23622192
0.6036577 0.8464276 0.55026203 1.037486 0.40338966 0.47421747 0.981299 0.89597124
0.73381513 0.2702281 -0.62846786 -0.59366906 -1.5490617 1.2970238 0.28064218 0.30286098
0.3022429 -1.3543994 -0.1724177 0.7040722 -0.39880103 0.07200526 -0.77836204 -0.75696003
0.5179112 1.5416478 0.28871408 -0.31494597 0.23926218 1.1905781 0.54072684 -0.028151432
-0.67783004 -0.5404918 -0.8119839 -0.35282797 0.17941168 -0.83198875 -0.091749415 -0.45364374
0.06721804 0.28418058 -0.77165216 -0.75535023 -0.10123908 0.26360294 -0.5580901 0.49167368
0.22411306 0.24529484 -1.2404083 1.6959484 0.26282424 -0.5910521 -0.39943346 -0.24137455
-0.4074759 -0.1899923 -0.9072171 -0.18605492 -0.11812853 0.2614464 -0.04074503 0.36544093
0.32965773 0.028705217 -0.2874417 0.38968164 -0.4281981 0.2199305 -0.050826907 -0.107981846
0.17416045 -0.33583212 0.3648091 0.5268412 -0.33733582 -0.21294042 -0.4500366 0.26733458
-0.2017067 -0.41902894 -0.30502602 -1.0640253 0.066285916 -0.053689867 -0.04033018 -0.066796154
-0.45976263 -0.3066993 0.11428518 0.41363925 -0.15012637 -0.22256131 0.83695817 0.59319085
0.3078182 0.4934749 0.13941084 -0.13673842 0.06730173 0.09991487 -0.42039955 -0.39563647
-0.3733946 0.20190807 -0.4084643 0.38579574 -0.51953846 -0.55247027 0.37872556 0.31110844
0.08715463 -0.35467333 -0.6989558 -0.2927767 0.5768773 0.062054384 0.20132254 -0.32508746
0.41618767 0.31530976 0.28090057 -0.66343385 -0.45148686 -0.19577616 0.2559371 -0.50389874

feature.weight_hh_l0 f4 [512, 128]
00000000: d740 ae3e ec3a 4c3e 3041 61be 892a 053e
00000010: 1bbc 973e c722 28be cd14 42bf 6b79 273f
00000020: c7a9 803e ae31 1b3e 057c 123e 4c2e 4b3f
00000030: 5d0c 3c3e 059a a0be db18 9dbe d9ef 9e3d
00000040: c20c 523f 63e0 983d 7886 f63c e56c 8dbc
00000050: 3980 e7be 4920 9a3e fc8a 13bf 54dd 993c
00000060: 765f 9e3e 6574 58bf 1f26 593d 540f 193f
00000070: cbc4 8abe 9109 aabc 93c1 36be a731 fe3d
00000080: e314 adbd 6ded 5c3e a8ae d6bd 7525 a43e
00000090: f960 0f3f 1bfc 7b3a 83e4 1dbf d77a 623e
000000a0: 746e 263f 7719 98bd 1559 b03e bcf9 9e3c
000000b0: 7fdb 163e cc95 b13c a3fa ba3d 214b c13e
000000c0: b9cc 34be ad68 71be b74e 623e 1aef c9bd
000000d0: b18b 2cbc 84d3 123d 0913 33bf 814b c83e
000000e0: 9dfc 35bf 5791 7f3e 3d3e ebbe 1e17 4c3f
000000f0: 8c76 143d 4ea5 a13d 1025 38bf 3c11 aabe
00000100: 515f aa3e 496a aa3d 7e9a 5a3e 78d7 043f
00000110: 2138 b8be 06f1 683e 596f 9e3e 48db 82be
00000120: 8672 313f 4a13 f5bc 5cf1 083f 8c1e 8ebe
00000130: 1f97 11be 7893 3abd 9432 fc3e 0be1 f83d
00000140: 5adc 31be 2cfe b13e ad54 8cbe 42b0 d13d
00000150: d511 85be 58be d3be 64a1 bdbe 80aa 81be
00000160: e07c 113f 8a0c 84be 61ef 103e 931e f1be
00000170: 3afe fbbc b826 933e eb24 55be 223c 3cbe
00000180: ff1b e03d 92fd 7a3d a506 1ebf 3c37 8f3e
00000190: 0de5 03bf 3630 40bf 7039 8d3e 85e6 96be
000001a0: 4b56 8cbe fe29 f2bd 3ad1 073f dffd 143f
000001b0: 0aa3 7abd d901 dd3e db75 183f 4887 adbe
000001c0: cef7 b03e d600 0a3e 82f2 de3d 9444 413f
000001d0: 617c 9fbd 83f4 273d 4f28 703d ae3a 11bf
000001e0: 1de3 e33e 06d3 2fbd 9f73 57bf c729 de3d
000001f0: e620 e4bd 83d0 023f 1a8e b03e 2a33 a1be
00000200: 9d64 01be 8bd4 00bf 3d1b 6cbf fe87 a13d
00000210: 54cc 64be e46a 653e 4953 763f bf69 a33c
00000220: 3879 d23e ab4e 0f3d d352 843e b3b7 b1bf
00000230: 8e08 fcbe da08 963e 1ca8 04bc 9876 e13e
00000240: af8e 053f 5d56 b1be af73 29bf e19f dc3d
00000250: 0616 d4be c3e5 8b3e 5809 903f 5c86 b83e
00000260: 676b abbe 7d92 ccbe 97b4 f13e 0e9a 9dbe
00000270: bd45 22bf 3ec9 7dbe 4f1c 173f afc2 233f
00000280: 3632 ab3e 3996 a33e 4444 18be 75ae ff3d
00000290: c8b4 eebe db56 8c3e e44e f9be e8be 903e
000002a0: bf34 053f fbe8 443f c386 43be 654e 86be
000002b0: 846c 28bf 2fbb 9bbe 7b0d 663f 99a8 b2be
000002c0: 7d95 fbbd 3297 e8be 4a2f 7b3f 3ca1 2ebe
000002d0: dc06 b93c 86aa 513d 8d8c ca3d 2a36 313f
000002e0: b5b4 9ebe d9e7 47bf a7fa dabd 48f1 75bc
000002f0: 8bdf 8abe 5f48 883f 2635 debd f96e f8bc
00000300: 9eaa 51bd 85ec 673f fbcb 9b3e 39aa 34bf
00000310: ec72 a4be a4de 153f 211b bb3e 3965 153e
00000320: 3a9a cbbd 3dba c73e c9e5 903e 9a8f c03e
00000330: 27db 0fbf 1585 89bf 834b 983e 8e96 e43c
00000340: 5207 f5be cf78 c33b 684e 683f fc8a 4f3e
00000350: 5f1e 323f be00 0a3e 408d 103f 0155 24be
00000360: 44fe bd3e 58ff 17bf bd60 353d a16e efbe
00000370: 4274 5cbe 58f6 d0bd 0258 0e3f d98a cbbd
00000380: 6932 af3e 635c 7dbd 843e 89bf 86c2 68bf
00000390: 9569 503f 9486 40bf 5b84 0dbe b1c0 803e
000003a0: 0622 21bf 733c 82be 06c3 68bf fcfe 493e
000003b0: 4338 3b3d 9764 a33c 77be ff3c a21d 463e
000003c0: af3f 1e3e 4145 0c3f 79cd 9dbe 76da 813d
000003d0: e432 d43e 33c1 6e3e b73d 0abf ed71 1abf
000003e0: da94 c5bc e15f f23e d35d e4be e34f adbe
000003f0: 3c5a 453d ca19 2e3f 72b0 d0bd e79b 4f3e
0.34033844 0.19944352 -0.21997523 0.13004507 0.296357 -0.16419517 -0.7581299 0.65419644
0.2512953 0.1515567 0.14305122 0.7936752 0.18364091 -0.31367508 -0.30683026 0.07760591
0.82050717 0.07464673 0.030093417 -0.017263839 -0.45215014 0.30102757 -0.5763395 0.018782295
0.30932206 -0.84552604 0.05301487 0.59789014 -0.27103266 -0.020756515 -0.1784728 0.12411814
-0.084512495 0.21574946 -0.10482532 0.32059827 0.56007344 0.0009612457 -0.61676806 0.22117172
0.6501229 -0.07426732 0.34442964 0.019406192 0.14732169 0.021677874 0.091298364 0.3775263
-0.1765622 -0.23575087 0.2210034 -0.09860058 -0.010531352 0.03584625 -0.6995092 0.39120105
-0.7108858 0.24957787 -0.45945922 0.79722774 0.036245868 0.078928575 -0.7193155 -0.33216274
0.33275846 0.083210535 0.21347997 0.5189128 -0.35980323 0.22748193 0.30944327 -0.25557923
0.69315374 -0.029916424 0.53493285 -0.2775768 -0.14217804 -0.045550793 0.49257338 0.121522985
-0.17369214 0.3476423 -0.27408352 0.10238697 -0.25990167 -0.41356158 -0.37037194 -0.25325394
0.5683117 -0.25790817 0.14153816 -0.4709364 -0.030760873 0.28740478 -0.20814864 -0.18382314
0.1094284 0.06127698 -0.6172889 0.27971828 -0.5152138 -0.75073564 0.27582884 -0.29472747
-0.27409586 -0.118244156 0.5305363 0.58199877 -0.061190642 0.43165472 0.59554833 -0.33892274
0.3456406 0.13476881 0.108860984 0.75495267 -0.07787395 0.04100467 0.05863219 -0.56730163
0.4450921 -0.042925857 -0.841608 0.10847812 -0.111390874 0.51099414 0.34483415 -0.31484348
-0.12636037 -0.50324315 -0.9222906 0.078872666 -0.2234357 0.22404057 0.96220833 0.019947885
0.41108108 0.034987133 0.2584444 -1.3884186 -0.49225277 0.29303628 -0.008096721 0.44035792
0.5217084 -0.34636202 -0.66192144 0.10772682 -0.41423053 0.27323732 1.1252851 0.36040008
-0.3348038 -0.39955512 0.47208092 -0.30781597 -0.6338766 -0.24783799 0.5902757 0.6396894
0.33436745 0.31950548 -0.14869791 0.12484447 -0.466223 0.27410015 -0.48693 0.2827065
0.5203361 0.76918 -0.19094376 -0.26231685 -0.6579058 -0.30416247 0.8986432 -0.34894255
-0.12284372 -0.45427853 0.9811903 -0.17053694 0.022586279 0.051188014 0.09890089 0.6922327
-0.30997244 -0.78088146 -0.106923394 -0.015011139 -0.27123675 1.0647086 -0.10849981 -0.030326353
-0.051188104 0.90595275 0.30429062 -0.7057224 -0.32118928 0.5854285 0.36544135 0.14589395
-0.09941526 0.39009276 0.28300312 0.3760956 -0.56193775 -1.0743738 0.2974511 0.027903821
-0.47857147 0.0059653292 0.9074464 0.20267862 0.6957759 0.13476846 0.5646553 -0.16048051
0.37108052 -0.59374 0.04428171 -0.4676409 -0.21528724 -0.10203236 0.5560304 -0.099385925
0.34218147 -0.061855685 -1.0722203 -0.9092182 0.81411105 -0.7520535 -0.13820021 0.25147012
-0.6294254 -0.25436744 -0.9092258 0.19726175 0.045707952 0.019945426 0.03121875 0.19347242
0.15453981 0.54793173 -0.30820826 0.06340496 0.41445076 0.23315887 -0.5400042 -0.60330087
-0.02411883 0.47338775 -0.44602832 -0.3385001 0.048181757 0.680081 -0.10189904 0.20274316

feature.bias_ih_l0 f4 [512]
00000000: eed3 163e ee07 7f3e c08b e53e d4ac 063e
00000010: 8c02 58bc aba3 0bbe 6675 3d3f 04c7 553c
00000020: 94dd 9bbd aa39 183f c9c5 2c3e e570 413e
00000030: 06ab 283f 5fec 8d3f 4df8 bcbe a12c 083e
00000040: eb81 b1be 7ad6 5abe f960 9c3d fc31 22be
00000050: 316d 12be 424c 0cbe e76d c53e 5d05 e83d
00000060: e1c0 47bd 86a4 8dbe 0115 af3e d13e 4d3f
00000070: 53ab 163e baee 893e 3764 543f 8afd 583e
00000080: 656a b03e c6c8 80bd a19b a53f 9498 403f
00000090: 53bc 413e 45bf f1be 3684 b5be d856 d53e
000000a0: d3a6 093f cbea 293f 6cc2 d13e 89df d1bd
000000b0: f6f4 e3be 9723 cd3d 37d1 1a3f 0955 603e
000000c0: b83e 11be 48fa 2b3c 43e7 a83f 9cf9 503e
000000d0: a884 1c3d e1ba e23e 67f5 183d 06b7 013e
000000e0: cc0c 6a3e 22c6 273f ca3c e0bd 41f5 42be
000000f0: ea43 f6be b282 483e 09bf 95be 5710 c9bc
00000100: 3ad3 9abe 15c6 3e3f f7b1 263f eb09 b53e
00000110: a232 b93e e4ef c8bd 687e c53d 872d 903f
00000120: 0007 8cbe 366a 1ebe 3032 043f 515f 68bd
00000130: ebed e0bc ecd5 9abc 0dde 673c dc07 1fbe
00000140: 62ca 53be 39bf 0abe c128 a53d 6809 1abe
00000150: 4cce 053d 954d 9fbd 5cb1 073f 2324 193f
00000160: 4e42 39bd 5b52 a03e 9dd8 783e fa55 d13e
00000170: 60a4 8d3e cabb 12be 19ad aa3e 0f8d a8bd
00000180: 81db a63f 9760 a6bd f75f 1e3f 17f3 203d
00000190: 778f 88be 33ff 11be 8835 933e 8238 23be
000001a0: 3ece a73e e67d 0e3f 9a1b 573e f900 48bc
000001b0: 512a e13d 71de 413e 3da4 063e 51d5 d2be
000001c0: 3fe7 a33d 7bdb 043e d3ec d33e e090 c03d
000001d0: 99c7 923e 1155 b3be 4788 b63d cd3d a3be
000001e0: 7b41 193f 08ff 82be f584 503f bea3 1d3e
000001f0: 9409 f23e b978 e1bd f4cf e83d 7301 5b3e
00000200: b9c3 7ebb a328 a8be d885 73bf a726 d0be
00000210: 5f01 11bd b551 48be f000 c6be d6ae 353d
00000220: 1870 803d 9ba7 e9be eead ac3c c08c fbbe
00000230: 085c b23d 6eaf dcbd 0e55 023f 8650 86be
00000240: fec1 8a3b 0991 063e b927 9cbe ef2a e0be
00000250: ad4d 03bf 3ec6 903e e323 f0bd c3b3 c3be
00000260: a74d 31be 68e6 4fbe 5f6e 313e 8dcd 133f
00000270: ebfd 773d 40ed 08bf d9d9 56bf f86d 26be
00000280: 9b80 c3be efbc bfbe 0efb 14bf 1a01 05bf
00000290: 9ace b5bc 5b1b 21be 69b1 2abe 5b9c 71bd
000002a0: bf04 c0bd eabe 01bf a296 0cbe 2bb5 45be
000002b0: 9e10 9bbe 7a60 d43d 080e 283c 0c3b 20be
000002c0: da58 38be f39a 0fbd fe91 92be 3fcf 71bd
000002d0: d242 4f3e 01c3 033f ce3b 0fbe b426 56be
000002e0: 1ae5 38bf 459b 39bf 9b00 663c a47a 123e
000002f0: a04b 153d 9878 603e fe8c a2be a57c 143d
00000300: ee67 eb3e c8ca 1dbe bb53 5a3e a828 5cbb
00000310: d53e cdbe fbf0 cc3d 8de6 b9be afc2 37bf
00000320: ee17 47be 9f7c 153d 3ca0 68be b6dc e0bd
00000330: ade7 4c3e 79b5 6a3d f921 013e 8d48 62be
00000340: 2156 c83d de9c 083e f219 66be 711b 093d
00000350: ba13 0d3e 90a2 59bc 899e 423d 9fee 89be
00000360: f067 2ebe 5dde 7cbd 2aec 35be e654 853d
00000370: 572d c13e 9086 89be f393 9a3c 7268 13be
00000380: 977a a6be 7bd7 51bd 7670 01bf bdfc 00bd
00000390: a1af 0d3e c709 e3be 7f43 eabd d0e4 fbbd
000003a0: 592a 5b3c ec98 ccbe 21ec 503e 2005 b7be
000003b0: dbc0 e43c 9c0a ef3e e48f 353e a8cd 9bbf
000003c0: b5a0 a1be 9b56 5cbe 68cc 86bd 609f a2be
000003d0: 037f c2be dacb 63be f2c6 0dbf 1184 2ebf
000003e0: 660c 1b3d 52f8 44bd ffc5 c6bd 74f3 c0be
000003f0: 3460 1f3d 807b d6be b49f 02be 68e0 1b3e
0.14729282 0.24905369 0.44833183 0.13151866 -0.013184201 -0.13636653 0.7400726 0.013047937
-0.07610622 0.5946299 0.16872324 0.18890722 0.6588596 1.108776 -0.36908188 0.13298275
-0.34669432 -0.21370879 0.076356836 -0.1583938 -0.14299466 -0.13700965 0.3856041 0.11329148
-0.048767928 -0.27664584 0.34195712 0.80173975 0.14713793 0.26939946 0.82965416 0.21190467
0.34456173 -0.062882945 1.2938119 0.75232816 0.18919496 -0.4721624 -0.3545243 0.4166782
0.5377018 0.6637389 0.40968645 -0.10247714 -0.44522828 0.10016554 0.60475487 0.21907438
-0.14184082 0.010496683 1.3195575 0.20407718 0.03821245 0.44283202 0.03734341 0.12667474
0.22856444 0.655367 -0.109490946 -0.1903887 -0.4809869 0.19581106 -0.2924731 -0.024543924
-0.30239278 0.74521 0.651153 0.3535913 0.36171442 -0.098113805 0.09643251 1.1263894
-0.2734909 -0.15470204 0.5163908 -0.056731526 -0.027457198 -0.018900834 0.014152062 -0.15530342
-0.20682672 -0.13549508 0.08064414 -0.1504265 0.032667443 -0.077784695 0.53005004 0.59820765
-0.04522925 0.31312832 0.24301381 0.40885907 0.2766447 -0.14329448 0.33335188 -0.0823003
1.3035737 -0.08123892 0.6186518 0.03929433 -0.26671955 -0.14257507 0.2875178 -0.15939525
0.32774538 0.55660856 0.21006623 -0.012207263 0.10994399 0.18932511 0.1314859 -0.41178373
0.08003091 0.1297435 0.4139162 0.09402633 0.28667906 -0.35025838 0.089127116 -0.31883088
0.5986554 -0.25585198 0.81452876 0.15394494 0.47272933 -0.11009354 0.11367789 0.21387272
-0.0038873984 -0.32843503 -0.95126104 -0.4065449 -0.0354017 -0.19562419 -0.3867259 0.04435619
0.0627138 -0.45635685 0.02107903 -0.4913082 0.0870896 -0.10775648 0.50911033 -0.2623331
0.0042345515 0.13141264 -0.30499056 -0.43782756 -0.512904 0.28276247 -0.11725595 -0.38223085
-0.17314778 -0.20302737 0.1732726 0.5773552 0.06054489 -0.53487015 -0.8392616 -0.16252887
-0.38184056 -0.37448832 -0.5819558 -0.51954806 -0.022193242 -0.15733092 -0.16669239 -0.058987003
-0.09375905 -0.50681937 -0.13729337 -0.19307391 -0.30286115 0.10369964 0.010257252 -0.15647525
-0.18002644 -0.03505988 -0.28627008 -0.059035536 0.20240334 0.5146943 -0.13987657 -0.20913202
-0.7222458 -0.7250255 0.01403823 0.14304596 0.036449075 0.21921003 -0.31748194 0.036251683
0.4597773 -0.15409386 0.21321003 -0.003359357 -0.40087 0.10006901 -0.3630871 -0.7178144
-0.19442722 0.0364958 -0.22717375 -0.10979597 0.20010252 0.057301972 0.12610616 -0.22097988
0.09782053 0.1334109 -0.22470835 0.033473436 0.13777056 -0.013283387 0.047514472 -0.26939866
-0.17031837 -0.0617355 -0.1776587 0.06510334 0.37729904 -0.26860476 0.018869376 -0.14395311
-0.32515404 -0.05123089 -0.50562227 -0.03149103 0.13836528 -0.44343397 -0.11438655 -0.12299502
0.013376796 -0.3996042 0.20402576 -0.35746098 0.027923992 0.46687782 0.17730671 -1.2172136
-0.31567922 -0.21517412 -0.06581956 -0.31762218 -0.37987527 -0.22245732 -0.5538169 -0.6817027
0.03785362 -0.04808838 -0.097057335 -0.3768574 0.038910106 -0.41891098 -0.12756234 0.15222323

feature.bias_hh_l0 f4 [512]
00000000: a8ae 1b3e 0f92 8c3e e3fb b53e 9e06 0b3d
00000010: 5312 d2bd e483 46be e442 543f a238 32bc
00000020: dbdf 44be a4ef 183f 6c7c 0b3e 3231 fb3d
00000030: 10fd 1c3f 4530 783f d418 a2be 2105 523e
00000040: 1ae1 6ebe 7984 86be b9ae 163e 2ad9 0bbe
00000050: 455e d0bb 318e cabd 6b21 b03e de43 ba3d
00000060: 220b 39be 6502 bcbe f361 f03e 08b3 2f3f
00000070: a5fe 733e fc45 833e 4754 5e3f 52cf 353e
00000080: 386e aa3e e4f7 9dbd b4d8 9e3f 989c 2e3f
00000090: fbae 3b3e 6bc4 ebbe 498b dfbe 09df c53e
000000a0: 48b6 083f 0670 153f 642e 8c3e f9e4 14be
000000b0: bd77 c2be 048c 10be 47dd 2b3f 7db9 883e
000000c0: ff74 0bbe 004d 6dbd f081 a33f 8ab6 ab3e
000000d0: d5f3 793c 184f 183f 83de 8ebd 24cc 5e3e
000000e0: 0f8c 9f3e c531 fe3e 3eba 03be 5da2 1cbe
000000f0: 8445 c8be 4a3b bd3d 7216 a3be 19ac 00be
00000100: cb4f b5be dea5 263f 4ea1 463f adf1 d53e
00000110: 9e65 ab3e 47b6 3abd 35ff 093e 72e5 893f
00000120: 8c93 50be 582f 8fbe d373 2b3f bf20 603c
00000130: 3b48 e2bb f982 413d 1aeb 14bd 94e4 0ebe
00000140: dadd 693b 3c4a 86be 1d84 303e bb88 c8bd
00000150: ed0f 273c 53ea 22be b2a8 313f 9bee 0c3f
00000160: 5987 01be 8a50 973e cb02 eb3d 2007 af3e
00000170: eb35 5f3e 1205 82bd a46c 993e 5fab 15be
00000180: fa0f 9f3f 1fff b83b 9d58 533f ee81 c13d
00000190: 1504 b0be 94df 42be d526 b63e 6f2d 83be
000001a0: f621 6b3e 25a6 0f3f cba8 9a3e 2c35 44bd
000001b0: d760 943d ec6b c43d 620e 873d 5613 9fbe
000001c0: 315a aebc b9ed e33d d1c7 da3e 5622 da3d
000001d0: a1e4 593e bb7a cbbe 28d8 bc3d 9880 a6bd
000001e0: a7de 193f 792f 4fbe fb38 443f 18e4 1e3e
000001f0: a4b8 0b3f 4796 85be f010 e73d b851 573e
00000200: 4570 773c a6d6 33be c866 55bf 0faa 18bf
00000210: 0869 26bd c0c5 e0bb ddab f6be ce84 e5bd
00000220: 2cdc ea3c c19b acbe 2937 833c 5667 dcbe
00000230: 832b 243e 61e9 06be 57a4 143f e1af 0bbe
00000240: 8c7e b93d 2553 eb3d 7633 96be 4e6a bcbe
00000250: 89bf 34bf 44bc 913e 5426 86be aaec fbbe
00000260: d91e dbbd 6506 6ebe 24e0 833e d2f3 203f
00000270: 18ea c03d 93d0 15bf db19 50bf 47cc c9bd
00000280: 6a72 e9be 71cf cfbe 6ad3 dbbe 0c13 c1be
00000290: d45d 44bd 5425 8cbd 0d42 81bd 23f7 38be
000002a0: 1901 e4bd dd49 e0be 5f67 aebd 5f6d 73be
000002b0: f829 8bbe 5bb0 d03d 8ec1 be3d f00f 59be
000002c0: 3e77 14bc 0609 cabd 8c6d 86be dff2 1a3b
000002d0: 9d74 613e 8354 c43e 173f 59be 1687 95be
000002e0: 5d97 26bf a5d0 4cbf 45b1 23bd bd07 863e
000002f0: 289e d33d 2a2d ea3d d36b b0be 003a 863c
00000300: ccd1 b23e b11f a5bd 34f4 993c 4768 f6ba
00000310: 14f8 ddbe a721 6cbd ca8a 94be 53d9 49bf
00000320: fbf8 8ebd 5db4 d23b 5ae1 bdbd 0de2 bbbd
00000330: 53db 8c3e 0d3f 153e 1f6c 8b3d 34a4 19be
00000340: feac ab3c 35b5 dc3d 6bb5 29be 1959 ccb9
00000350: d6d2 b83d 17ca f73d c0d1 a0bd fe64 42be
00000360: 6e57 25be 0565 be3b 489b f7bd 9552 183e
00000370: 8683 a33e 3455 a3bd e82b 9d3c a4c4 cfbd
00000380: 5a1f 40be bbb4 37bd 22a9 d0be ceb0 90bd
00000390: 0ff3 443e 7cfc a9be 554d 15be 2a9f d0bd
000003a0: adfc 873d 9b93 c3be 65b5 273e a25c cebe
000003b0: a204 db3d 9149 c63e 6b99 723e b2e5 9bbf
000003c0: 9a3e 86be df89 a2be 57c3 15be e2d1 69be
000003d0: 4939 b0be af4f 2abe d938 15bf 7d70 26bf
000003e0: 87d2 cc3c 253e 47bd 0f1f bb3d 4962 5fbe
000003f0: fe19 21be 5ce3 f5be c0bb 29be e338 283e
0.15203345 0.27455184 0.35543737 0.033941858 -0.10257401 -0.1938625 0.82914567 -0.01087776
-0.19226019 0.5974066 0.13621682 0.12265243 0.6132364 0.96948653 -0.31659567 0.20509769
-0.23328057 -0.26272944 0.14715089 -0.1365706 -0.006358894 -0.09890402 0.34400496 0.09094976
-0.18070653 -0.36720577 0.4694973 0.68632555 0.23827608 0.2563933 0.8684735 0.17754868
0.33287215 -0.07713297 1.2409883 0.68207693 0.18328469 -0.46048293 -0.43660954 0.38646725
0.5340314 0.5837406 0.27379143 -0.14540471 -0.37981978 -0.14115912 0.6713452 0.26704016
-0.13618849 -0.05793476 1.2774029 0.33537704 0.015255888 0.5949569 -0.069760345 0.21757561
0.31161544 0.49647346 -0.12864015 -0.15296312 -0.39115536 0.09239824 -0.31853062 -0.1256565
-0.3541244 0.65096843 0.7758988 0.41785946 0.33475965 -0.04558399 0.1347626 1.0773146
-0.20368785 -0.27965808 0.6697361 0.013679682 -0.006905583 0.047244046 -0.036357023 -0.13954383
0.0035685212 -0.2622851 0.17237897 -0.09791704 0.010196668 -0.159097 0.69398034 0.55051583
-0.12649287 0.29553634 0.11475142 0.34185123 0.21797912 -0.06348623 0.299657 -0.14616154
1.2426751 0.005645647 0.8255709 0.0944861 -0.34378114 -0.19030601 0.355765 -0.256206
0.22962174 0.5611289 0.30206904 -0.04790227 0.07245033 0.09590897 0.0659454 -0.3106944
-0.021283241 0.111293264 0.42730573 0.1065108 0.21278621 -0.39742073 0.09220916 -0.08129996
0.60105366 -0.20232953 0.76649445 0.15516698 0.54578614 -0.26091215 0.112825274 0.21027267
0.015102451 -0.1756235 -0.83359957 -0.5963449 -0.04062751 -0.006859511 -0.48177996 -0.11206971
0.02866944 -0.3371258 0.016017513 -0.4304759 0.16032223 -0.13174964 0.5806326 -0.13641311
0.0905734 0.11490468 -0.29336137 -0.36799854 -0.7060476 0.28463948 -0.26201117 -0.49203998
-0.10699243 -0.23244627 0.25756943 0.6287204 0.0941965 -0.58521384 -0.8128945 -0.09853416
-0.45595104 -0.40587953 -0.42934734 -0.37709844 -0.047941044 -0.06843057 -0.06311426 -0.18063025
-0.11133022 -0.43806353 -0.0851581 -0.2377219 -0.27180457 0.10189887 0.093142614 -0.21197486
-0.009061633 -0.09865002 -0.26255453 0.0023643298 0.2201714 0.38345727 -0.21215473 -0.29204625
-0.6507471 -0.80005866 -0.03996398 0.2617778 0.103329 0.114343956 -0.34457263 0.016385078
0.34925687 -0.08062685 0.018793203 -0.0018799388 -0.4335333 -0.05764928 -0.29012138 -0.78847235
-0.06981083 0.0064301924 -0.09271498 -0.09173975 0.2751108 0.14574833 0.06807732 -0.15004045
0.020956513 0.1077675 -0.16573112 -0.00038976295 0.09024589 0.120990925 -0.07852507 -0.18983838
-0.16146633 0.0058103823 -0.120901644 0.14875253 0.31936282 -0.079752356 0.019185975 -0.10144928
-0.1876196 -0.044850092 -0.40754038 -0.07064973 0.19233344 -0.33200443 -0.14580281 -0.10186608
0.06639991 -0.38198552 0.1637779 -0.40305048 0.10694243 0.38728002 0.23691337 -1.2179472
-0.26219636 -0.31745812 -0.14625297 -0.2283397 -0.34418705 -0.1663196 -0.5828987 -0.65015393
0.025002731 -0.04864325 0.09136783 -0.21814837 -0.15732571 -0.48025024 -0.16575527 0.1642795

feature.weight_ih_l0_reverse f4 [512, 64]
00000000: bd93 05bf 0783 9abb a451 6c3d faa2 56bd
00000010: dad5 3ebe 2fdf 54bf 2aaf 7a3e bccf b63f
00000020: 68c4 743f 4be2 a13e e352 22bf 43dd 42be
00000030: 35de 3abe b715 843d b147 4b3e c6dd b13e
00000040: d220 4f3e d88f 11be 1fd8 033d b90d 36be
00000050: 5ef7 0abf 1150 3abf 1959 073f cf8e 443d
00000060: ba5d 48bf 13cb 4bbf b150 01bf 5802 0dbf
00000070: 8d9e 87be a3e4 763e bb77 60bf 7e0b 573f
00000080: 05e8 d0bf dd1d 973e 25e0 0f3e e8a6 0d3e
00000090: 3315 debe b51c f0be bf3c e13e e7be 293f
000000a0: acfe 623d 9e78 1b3b 6f98 11bf d46e f7be
000000b0: e7db e73e 85a3 813f 188b bd3e 5b2d d23d
000000c0: 78ed 3bbf 43ea d8bf 75a2 62be 78bc 8abd
000000d0: dfcf 81be 01f1 8d3e 8036 193f c954 4d3e
000000e0: 3309 5b3f 8028 0ebe af8e 07bf 57d3 9cbd
000000f0: f09e c3be ff81 053e 49d7 283f 773a 8f3e
00000100: b30d a1bf 80b4 96bf 4c03 f13e 921d a0be
00000110: 6812 55be c20f 0c3f 4e0c 0dc0 ba20 41bf
00000120: fe57 d93e 306c 813e 4fae b1be aeb3 f13e
00000130: 27ed 88bf 2479 5e3c ee67 e73f b81b 1abf
00000140: 79c8 e1be b90b 36be 4048 bf3e 2e3e 87be
00000150: f4bd 83bf 84ff 023f 6134 2f3e 2cd8 45bf
00000160: 0a17 483f 5552 fdbf c77d 25bf bc6c eb3f
00000170: 1ca6 bdbd 172c 70bf 9b77 45bf e164 dfbe
00000180: 0f31 b73f 93ef 843e 5bc9 3bbd cceb 56bf
00000190: c6b5 953e e5dc de3c 5be2 0d3f 9157 003e
000001a0: 4c18 85bf eb04 d13f 1aaf 26be 3ad5 8fbf
000001b0: 2c1d 0d3f fabf 213e fc4b a6bf 9380 8bbf
000001c0: 0e45 6b3f f79c 4abe 2530 e23e 7596 ee3e
000001d0: 5bd8 2f3f b487 85bf d17e 16c0 672c 3c3f
000001e0: 1f9a 11be c21b 383f f873 f93d baaf 5f3e
000001f0: 5f82 30bf b8ce 85be d885 4b3f 6ba0 443e
00000200: 3529 6c3f 33bd f23d 1634 86bd d50d 4d3f
00000210: 0cf2 4ebf 0d91 66bf bf6a 66be a280 6abe
00000220: dde9 c5bd 9898 e9bb 6106 a03d 0fbd 5ebf
00000230: 71e6 a93d f29d 4d3f 675c e23d 7d04 d93d
00000240: 17e7 6abd 7e40 c9be d6a6 bdbe d866 febe
00000250: e935 27bf 29ed 873d 82f4 0d3f df61 143f
00000260: b676 07be b11a cd3e 7bc8 0dbe bacc 013f
00000270: 2d85 443f 0f92 143d 07df d83e a68d 1dbf
00000280: 05ff b33e 3ec6 8abd 5289 243d 20e5 b83d
00000290: 9191 003e 0ca1 db3e 7f73 3cbf 4b67 113f
000002a0: f227 753f b405 093f 591c 163c 899f 983e
000002b0: ad41 73bf e5ad 01be 57ed 8dbf e512 c83e
000002c0: f5c8 83be 207b 3d3f 3314 93bf c88a a33e
000002d0: 6944 6f3e 02b4 7ebf 6eb3 e43e a27e ffbe
000002e0: 793b 04bf 7025 533c d20e e9be 7a0b 4f3c
000002f0: b524 653e d750 5539 948d 28bf bc69 883d
00000300: 21ee 5b3e 38a7 193f e52c 1abf 7aff 423f
00000310: a718 a1be 334a c93e afd1 fdbe 65e9 843f
00000320: 3246 823f 248b d8be 7af4 27bf daf2 293f
00000330: ef92 41bf ebff e03e b1cf 5b3f 1272 443e
00000340: 4126 c8be 1fe8 09be d937 ecbe bc74 09bf
00000350: e707 0f3e 5855 1440 2339 1e3d 955a 793e
00000360: fe51 543e 303d 75be c2ca 81be 6788 d13e
00000370: 5ce6 0ac0 fbf7 3a3f 96c4 5ebe a427 0e3f
00000380: 17c1 58bf f286 47bf 9f4e 37bf 7c38 b53e
00000390: 5ad9 8abe b3e7 993d 97fd 103e 93ef 29bf
000003a0: 0daf c73e afd1 1c3e d651 a3bf 6e14 f73e
000003b0: 9d1d 59bf 4d05 313f 0167 993d 3b19 4a3e
000003c0: ccdb 19bf 3970 a4be 12a9 063f 8630 04bf
000003d0: 473e cdbd 7253 5bbd 0090 433e 73a0 463f
000003e0: ce76 903f 68d3 73bf 5f3b 1ac0 47da 53be
000003f0: 8517 043f b98b a03f 3c5a 083e 3363 fc3e
-0.52178556 -0.0047153267 0.057695046 -0.05240152 -0.18636265 -0.8315305 0.24480882 1.4282146
0.9561219 0.3161796 -0.63407725 -0.19029717 -0.18248828 0.06449454 0.19851567 0.34739512
0.20227364 -0.14215028 0.03218853 -0.17778672 -0.542837 -0.7277842 0.5287033 0.047987755
-0.78268015 -0.7960674 -0.5051375 -0.550817 -0.26488152 0.24110655 -0.87682694 0.8400191
-1.6320807 0.2951497 0.14050348 0.13833201 -0.4337555 -0.46896902 0.43991658 0.6630692
0.055418655 0.0023723016 -0.5687322 -0.48326743 0.4528496 1.0128027 0.37020183 0.10262557
-0.73409224 -1.6946491 -0.22132285 -0.06774229 -0.25353906 0.27722934 0.59848785 0.20051874
0.8556091 -0.13882637 -0.5295209 -0.076574974 -0.38207197 0.13037871 0.659535 0.27974293
-1.2582306 -1.1773834 0.47072828 -0.3127256 -0.20807803 0.54711545 -2.203876 -0.7544056
0.42449945 0.25277853 -0.347033 0.47207397 -1.0697373 0.013578687 1.8078592 -0.60198545
-0.4409826 -0.1777791 0.3735981 -0.26414627 -1.0292344 0.51171136 0.17109825 -0.7728298
0.78160155 -1.9790751 -0.64645046 1.8392558 -0.092601985 -0.93817276 -0.7713563 -0.43631652
1.4311846 0.2596403 -0.045846324 -0.8395355 0.29240245 0.02720494 0.55423516 0.12533404
-1.039804 1.6329626 -0.16277733 -1.1236947 0.5512264 0.1579589 -1.2991939 -1.0898613
0.91902244 -0.1978644 0.44177356 0.46599165 0.6868951 -1.0432038 -2.3514903 0.7350525
-0.14218949 0.71917355 0.121803224 0.21844378 -0.6894893 -0.26134276 0.79501104 0.1920182
0.92250377 0.11852493 -0.06552903 0.8009923 -0.80838084 -0.9006508 -0.22501658 -0.22900632
-0.096637465 -0.0071287863 0.07813717 -0.8700723 0.08295906 0.8031913 0.110527806 0.10596559
-0.05734929 -0.39307016 -0.37041348 -0.4968784 -0.65316635 0.066370316 0.55451214 0.5796184
-0.13228878 0.40059426 -0.13846008 0.5070301 0.7676571 0.036272105 0.42357656 -0.61544263
0.35155502 -0.06776093 0.04017002 0.09028077 0.12555529 0.42896307 -0.73613733 0.5679824
0.95764077 0.5352433 0.009162032 0.29809216 -0.9502209 -0.12663992 -1.1088055 0.39076915
-0.25739256 0.74016 -1.1490539 0.3194182 0.2336594 -0.9949342 0.44668144 -0.499013
-0.5165325 0.012887344 -0.4551912 0.012637014 0.22377284 0.00020343378 -0.6584103 0.06660792
0.21477558 0.6002078 -0.60224754 0.76171076 -0.3146412 0.39314422 -0.49574038 1.0383726
1.0177672 -0.42293656 -0.65607417 0.6638619 -0.7561483 0.4394525 0.85863787 0.1918414
-0.39091685 -0.13467453 -0.46136358 -0.5369375 0.13967858 2.317709 0.03862871 0.2435096
0.20734403 -0.23949122 -0.25350004 0.4092438 -2.17031 0.7303464 -0.21754679 0.55529237
-0.8466963 -0.77940285 -0.7160434 0.35394657 -0.2711895 0.07514896 0.14159237 -0.66381186
0.3900074 0.15314363 -1.2759349 0.48257774 -0.8481081 0.69148713 0.074903496 0.19736187
-0.6010101 -0.3211687 0.5260173 -0.5163654 -0.10021644 -0.053546377 0.190979 0.77588576
1.1286256 -0.95244455 -2.4098737 -0.20688735 0.5159839 1.254264 0.13315672 0.49294433

feature.weight_hh_l0_reverse f4 [512, 128]
00000000: e46f 88be ee26 f6bd b908 de3e e9b2 34be
00000010: 31d9 f3be 8e08 bebe c5ee d13e 55eb 83bd
00000020: 4670 113e e578 a0be 61b1 043f 521f eebe
00000030: 49ce bc3e 79b5 5d3e b990 8d3e 5569 063e
00000040: 6442 4a3d 050b 6fbf 0f1d 5a3f 8636 4cbd
00000050: c7b0 153e 8a84 7a3f 133c 613d bc1b 3abe
00000060: d72c 06bf e688 743e c383 a9be d22f e4be
00000070: 8a9d 643f 9334 86bd 3a28 78bd 019e 15bf
00000080: a775 25be c018 adbe 3ecf d8bd 3c6e 79be
00000090: 0419 95be e6bc 5a3f 085e 95bd 88a6 2f3f
000000a0: 61f0 93bd cb23 acbe f3fc a33e 18ff 9ebe
000000b0: e53a 6d3e 12d3 273f 2ec7 a03e e230 8b3f
000000c0: 713f 32be 0591 14be 12fd 1c3f 3a57 d73d
000000d0: ed23 403f 72dc de3d 577c 7b3e a945 16be
000000e0: e7a5 1f3f b074 173e d324 afbe ca50 513f
000000f0: f92a ab3e a50a 123f 475a 1f3f be5f 85be
00000100: a219 763e 3c1c 703d c2f0 cb3e 022d c93e
00000110: 7808 743f 0b08 12bf bdda 1e3e 0834 983f
00000120: 0e26 efbe b4d8 04bf e931 fabe ead9 67bf
00000130: c581 2fbf 572d d8be a26a ddbe 3aff 32be
00000140: 9ed4 a43e 1dc9 06bf da77 0ebe c4c8 433e
00000150: e94e de3b ca39 ce3e f7f5 03be 214a 82bc
00000160: cd2f f63e cd8d d73d 5d17 0e3e 10fd fabe
00000170: ce2a a13e edbc 82bc 6135 6b3f 1ca6 393a
00000180: c80c 0cbf 61fd 1abf b3eb 1ebf f885 9bbe
00000190: c8ba 043f 2fcf 8e3d 7862 023e 3696 afbd
000001a0: a7e2 0e3e 6a49 4abf 38a0 9dbe b4ef 27bd
000001b0: 0e4a 05bf 6566 35bf 51ca 383f 6f9b aabe
000001c0: b4d4 efbe 165f 15bf b655 1e3f 9827 213f
000001d0: 9d5a 48bf fe1e 10bf e2b5 a4bd faf9 ab3f
000001e0: 2f91 57be 7a88 523e 1d4d f4bc 81fc 4ebe
000001f0: 4ba3 073f 607d 35bf f33a c4bd 7118 4d3e
00000200: 04bb 9e3e d4fb a6be 58eb 873e 9c6a ce3e
00000210: d79c 313f b12e 61be 146f 803d 606e 64bd
00000220: b33b 8bbe 119d 04bf 816e 56be 6ce5 c03d
00000230: d0ad 9f3e c302 cbbe 99f5 f9be 249c 013e
00000240: 1f03 05bf f753 f7be ae5f da3e 8961 dabd
00000250: a5d9 bcbe 4308 e73e aac2 3cbe 4a2c 56be
00000260: d54c ac3d 7295 6abe 551c 8ebe a033 033f
00000270: 04dd a43e 4a57 8abe 6a50 48bc 6874 4d3e
00000280: 7aab f73e f8a4 5b3e d9cf c83e deab bb3e
00000290: 2c5b c0be a7c2 8cbe e18f af3e d1d8 95be
000002a0: 6bbf 19bf 900a 033f 7715 703e 1082 273e
000002b0: 6f85 923e d95a 9d3e 5471 963d 400f a23e
000002c0: 4649 e23d 8034 873f 888d aebc 68d5 9d3e
000002d0: ced5 97bd c78b b03c 8f97 4abe c25a ff3d
000002e0: d48f 9abe 8639 f53d 1356 3dbc 99d2 27bb
000002f0: 8c42 5e3e dedb 8a3e 2d32 89bd 64a5 f83e
00000300: 6729 c9be edb7 213d 94a1 c7be 1082 f7be
00000310: c294 7d3d 0c96 8fbd 7f07 7b3d b2d8 b2be
00000320: 64ac 953e 0165 37bc 6e5f 343f c90b cebd
00000330: 4cf9 0ebf a73f 9ebe 60a2 4d3e 1e8c 25bc
00000340: dca1 e8bd ed71 4f3f 0d63 b5be d0b5 393e
00000350: 032a 693e b775 533e a653 023f 0de0 c5bd
00000360: 27f0 06be f89e 5cbe 7bc0 ae3e 8563 babd
00000370: 9bde 003f 5d61 06bc ea44 203f 9737 c63e
00000380: 2f20 bc3d 17cc 423e e712 743b 445b ac3e
00000390: b55e 7a3c 2e16 f43a 824b 243e 65ed 5d3e
000003a0: 40d9 953d 29ce 5ebd c938 933e 8170 77be
000003b0: 5f7d d93e f9f3 e9be c4a6 cb3d 4902 f73e
000003c0: b0b0 8dbe 687a b83e aaee 9abe 213c fbbe
000003d0: df0e 19bd 5cef 893e 3753 08be 1c7d 8cbe
000003e0: 207d 61be ef22 413e 2c30 f9be 00fc 9ebe
000003f0: df13 66bd f9d8 04bf aaed 973d 7299 4cbe
-0.26647866 -0.12019144 0.4336603 -0.17646374 -0.4762664 -0.37115902 0.4100248 -0.064413704
0.14202985 -0.31342235 0.5183316 -0.4650827 0.36876133 0.21651258 0.27649477 0.13126118
0.04937972 -0.9337619 0.8520059 -0.049856685 0.14618216 0.9785849 0.054988932 -0.18174642
-0.5241217 0.23880348 -0.3310834 -0.44567734 0.89302886 -0.065529965 -0.060585238 -0.5844422
-0.16158162 -0.33807945 -0.10586403 -0.24358457 -0.29120648 0.85444486 -0.07293326 0.6861348
-0.07223583 -0.33621058 0.32028922 -0.31053996 0.23166998 0.6555644 0.31401962 1.0874293
-0.17407013 -0.14508446 0.61323655 0.10514684 0.7505482 0.1088189 0.2455915 -0.1467501
0.6236252 0.14790606 -0.34207782 0.817639 0.33431223 0.5704749 0.6224713 -0.26049608
0.24033216 0.058620676 0.3983212 0.3929215 0.9532542 -0.5704352 0.1551313 1.1890879
-0.4670872 -0.5189316 -0.48866203 -0.90566885 -0.6855739 -0.42222092 -0.43245417 -0.17480174
0.32193464 -0.52650625 -0.13912907 0.19119555 0.006784309 0.40278465 -0.12886797 -0.015904488
0.48083344 0.10525093 0.138761 -0.49021196 0.3147797 -0.015959227 0.91878325 0.0007081942
-0.54707 -0.60542876 -0.620784 -0.30375648 0.51847506 0.06973111 0.12732875 -0.08573572
0.13953649 -0.7901827 -0.307863 -0.041000083 -0.52066123 -0.70859367 0.7218371 -0.3332171
-0.46841967 -0.58348215 0.61849535 0.6295104 -0.78263265 -0.5629729 -0.08042504 1.3435662
-0.21051477 0.20559874 -0.029821927 -0.2021351 0.5298354 -0.7089443 -0.09581556 0.20028855
0.31002057 -0.32614005 0.2654674 0.40315711 0.69379944 -0.21990468 0.062711865 -0.055769324
-0.27193984 -0.51802164 -0.20940591 0.09418759 0.31187296 -0.39650545 -0.4882019 0.12657219
-0.5195789 -0.48306248 0.42651123 -0.106631346 -0.368848 0.4512349 -0.18433633 -0.20915332
0.08413092 -0.22908571 -0.2775599 0.5125065 0.32199872 -0.2701972 -0.012226203 0.20063937
0.48373014 0.2144965 0.39221075 0.36654562 -0.3756956 -0.27492258 0.34289458 -0.2926698
-0.60057706 0.5118799 0.23445688 0.16358209 0.28617427 0.30733374 0.073458344 0.3165226
0.11049132 1.0562897 -0.021307722 0.3082688 -0.07413827 0.021551026 -0.19784378 0.124684826
-0.30187857 0.11973862 -0.011556166 -0.0025607704 0.21705073 0.2712087 -0.066990234 0.48563683
-0.392894 0.039482046 -0.38990462 -0.48341417 0.061909445 -0.07011041 0.061286446 -0.3493095
0.29233086 -0.011193515 0.70458114 -0.100608416 -0.55849147 -0.30907938 0.20081472 -0.010104207
-0.11358997 0.8103321 -0.35427132 0.18135762 0.22769932 0.20650373 0.5090889 -0.09661875
-0.13177548 -0.21545017 0.34131226 -0.09101013 0.5033967 -0.008201924 0.62605155 0.38714287
0.09185826 0.19023167 0.0037242712 0.3366338 0.015281369 0.0018622333 0.16044429 0.2167259
0.07316828 -0.05439583 0.2875426 -0.2416401 0.42478463 -0.4569395 0.099439174 0.4824393
-0.27673864 0.3603089 -0.3026021 -0.49069312 -0.037367698 0.2694043 -0.13312994 -0.274392
-0.22020388 0.18860982 -0.48669565 -0.31051636 -0.056171294 -0.51893574 0.07418378 -0.1998041

feature.bias_ih_l0_reverse f4 [512]
00000000: 0bc7 e13e 8356 00be 29d8 57bd 9835 6cbe
00000010: aa25 84bd d985 383e 3515 1a3e 3adf 6d3e
00000020: ea60 883e bcaa d73e f1ea 70be 868f 003f
00000030: a307 5c3e 03d8 1c3f a3b1 87be db5a 383f
00000040: afb7 2f3e c1d3 183e ffaa c73d 7cee 223e
00000050: 0bd8 c3be 79f0 22bd f1dc 453e aa4b bbbe
00000060: 79e3 8d3e f319 97bd 67e5 61bc 4fad 4c3f
00000070: 3bd6 823e dd4b 493e 94a8 82bd afe4 3c3f
00000080: 149d a13d b4f7 cd3e 7168 8e3e 6fac 833d
00000090: 6f89 9c3d 7f82 52bc 136b 233e cc81 723d
000000a0: 8821 fe3e baea 823c 7733 543f b1d0 b03e
000000b0: 9565 6fbd f467 46bd be2d b3bc a931 9f3e
000000c0: b352 5b3e 6af3 2c3e f4cc 603e 9b13 ff3c
000000d0: b5b1 70be 1733 54be 913a 19be 19cf fc3d
000000e0: 7809 533f 6369 f43d 6491 863e a8a1 183e
000000f0: c766 023e 5009 6ebc 6084 09bd 8f17 8e3e
00000100: 247a 483e 688a 47bb 4afd b5bc fa11 0d3e
00000110: 1c25 a93e 58bb 503e e5c2 ff3e 6ad4 fcbd
00000120: c4b4 0e3f cfd4 7dbe 0f09 23be 7dd2 283e
00000130: 3563 c73e 3ccb 93be 01cf c43c a17d 37be
00000140: 4c36 4e3e b95e a43e 3c7d 6e3e c69f 303e
00000150: 6d20 0c3f 1b76 a7bd 0b6b 96be b605 9dbd
00000160: 5161 c83e e5a0 b23e a69b 0f3f 9f0c 583f
00000170: a34a 163e 956e d13e 63de f3bd 78eb 0fbd
00000180: f53f 563d 0c01 623e d8b2 58be 7df0 833e
00000190: 3cff 30be adaa e43d ed02 93bc c0a0 8c3e
000001a0: 035d e2ba 1cf6 81be 689c c13d 160b 193f
000001b0: 01a5 12bd 92f8 873e 7bc3 1a3f 0547 a6be
000001c0: 8d69 4c3d 2183 0d3e 993a 653e fe67 b7bc
000001d0: dca1 063e e3b7 543e 1895 fe3e 4f1e 8fbe
000001e0: 999e e4bd 8091 973c 0733 9a3d a105 503f
000001f0: 94cd bf3e d173 b83e e7d6 2c3e da0e f7bd
00000200: 3af9 1a3f f0b9 d8bd db66 f03e 4e2c b3bd
00000210: 42ec 493f 51ba 103f cd76 92bd cf86 bf3e
00000220: 5d4b d83e 0e72 b7bd 714a 7ebd f0df ec3e
00000230: 15c0 a1bc 6e86 21be fca3 983e 0ac8 e1be
00000240: df7c ef3d b419 683d f44a 833d 99a6 00bd
00000250: dcd5 59bd d02b 40be 5c5b 2f3f ee51 06bf
00000260: 2b89 3f3f 85d3 94bd 48ca bfbd b283 22be
00000270: 6157 b5bd 2b2e c43e 00e9 403e 34c2 10bf
00000280: 9fd2 b73c 58e8 3dbc 0fb6 c63d a25a 7b3e
00000290: bcb4 afbc 2eb1 5c3d a98b 8bbc abe9 f0bd
000002a0: 0762 39be 4790 db3d 82fa 9dbe 1150 2abf
000002b0: fa8a 153f d09b 7f3d c28a d93d eec8 c73d
000002c0: ef07 83bd 07cd e63e 8c37 b03e 8d90 41be
000002d0: d5cd ddbd 1fc2 4dbd 04a9 da3d bb24 83bd
000002e0: 6b6d f63d dd75 eb3c 8aec 903e 1430 bc3d
000002f0: 0e15 143f 99e5 68bd d270 a1bb 974a 703e
00000300: 3827 c1bd 8e05 8e3e 2d4f fcbd 613e 2abe
00000310: 4468 1dbe 71e5 de3e 9e3c 00bf 385b e23e
00000320: f793 f5be 68b5 fb3d 213a 3abd 1a55 b93d
00000330: c7b0 233c a5f5 d13e ce65 cf3d 59eb 91be
00000340: 84b6 7f3e eda3 fcbd 7e0d 0d3f 1664 d03d
00000350: 6edb f9bc fbe1 893e f0c2 fd3e 53d9 953e
00000360: a95a 883c 2b06 56bd 7d8b 62be 9cf9 763e
00000370: 65a0 0ebf a5b6 09be 93f1 d3be f120 6cbe
00000380: ee94 863e 89fd 3f3e 0fc1 04bd 15d2 0f3e
00000390: 4618 353e 94c0 91be 95af 273f 9caa 4d3e
000003a0: 5442 8b3e 34f2 e03d b082 bd3c 47e1 db3e
000003b0: 494a 0cbe 7c4a 983e 484e 1b3e ff16 1b3e
000003c0: 64e1 71bd 23b8 683f da82 bfbe d4b8 1bbe
000003d0: a620 50bc 1aff 76bd b0e7 ff3e a8b0 2ebe
000003e0: c159 b8be 0aca eebd d083 743d 8e18 643e
000003f0: 1e87 b8be 1a03 433f 453b fa3e b00d 3cbe
0.4409717 -0.12533002 -0.05269638 -0.2306732 -0.06452496 0.18019809 0.15047152 0.23229685
0.2663644 0.42122447 -0.23527123 0.50219 0.21487288 0.6126711 -0.26502714 0.72013634
0.17159913 0.14924528 0.09749412 0.15911287 -0.38250765 -0.039780114 0.19322564 -0.36581165
0.2771261 -0.07377996 -0.013787604 0.7995195 0.2555407 0.19657846 -0.0637981 0.73786443
0.078912884 0.40228045 0.27814057 0.064293735 0.07643401 -0.0128484955 0.15958814 0.059205815
0.49634957 0.015981067 0.8289103 0.3453422 -0.058446486 -0.04843898 -0.021872398 0.31092575
0.21418266 0.1688973 0.21953183 0.031137278 -0.2350529 -0.20722614 -0.14963748 0.12344188
0.82436323 0.119341634 0.262828 0.14905417 0.12734519 -0.014528587 -0.03357351 0.2775235
0.19577843 -0.0030447487 -0.022215504 0.13776389 0.33036125 0.20383966 0.4995338 -0.12345202
0.55744576 -0.24788211 -0.15921424 0.16486545 0.38942876 -0.28865993 0.024024488 -0.17919017
0.201379 0.32103518 0.2328996 0.17248449 0.5473698 -0.08176824 -0.29378542 -0.07667105
0.39136747 0.34888378 0.56096876 0.8439426 0.14676909 0.4090468 -0.11907651 -0.03513667
0.052307088 0.22070712 -0.21161973 0.25769415 -0.17284864 0.11165366 -0.017945731 0.27466393
-0.0017270151 -0.2538308 0.0945366 0.5978254 -0.03580189 0.26556832 0.6045453 -0.3247606
0.04990535 0.13819553 0.22385634 -0.022388455 0.13147682 0.20773272 0.49723125 -0.2795281
-0.111630626 0.018501997 0.07529264 0.8125859 0.3746153 0.3602586 0.16878854 -0.120633796
0.6053654 -0.1058234 0.46953472 -0.08748685 0.78876126 0.56534296 -0.07151566 0.37407538
0.42244998 -0.08957301 -0.06208271 0.462646 -0.019744912 -0.15773937 0.2981261 -0.4409793
0.11693739 0.056665137 0.064107805 -0.03140888 -0.053182468 -0.18766713 0.6849878 -0.52468765
0.74818677 -0.07266907 -0.09364754 -0.1587055 -0.08854557 0.38316473 0.18838882 -0.5654633
0.0224393 -0.01159104 0.09702694 0.24546292 -0.021448486 0.05387991 -0.017034369 -0.11763319
-0.181038 0.10720878 -0.30855185 -0.6652842 0.58415186 0.062404454 0.10622169 0.09755121
-0.063979976 0.45078298 0.3441738 -0.18902798 -0.10830275 -0.050233956 0.106767684 -0.0640349
0.120325886 0.028742725 0.28305465 0.09188858 0.57844627 -0.056859586 -0.0049267793 0.23465954
-0.094313085 0.27738613 -0.12319789 -0.16625358 -0.15371805 0.43534425 -0.50092494 0.4421022
-0.4796445 0.1229046 -0.045465592 0.09049435 0.0099908775 0.41007724 0.101268396 -0.2849987
0.24971968 -0.12335954 0.5509871 0.1017534 -0.03050014 0.26930222 0.49562788 0.29267368
0.016644793 -0.052251976 -0.22123523 0.24118656 -0.5571349 -0.1344858 -0.41395244 -0.23059441
0.262855 0.1874906 -0.032410678 0.14044984 0.17685041 -0.28467238 0.6550229 0.20084614
0.27199042 0.109836966 0.023133606 0.4294531 -0.13700213 0.29744327 0.1516658 0.15145491
-0.05905284 0.9090597 -0.3740452 -0.15207225 -0.0127030965 -0.060301878 0.4998145 -0.17059577
-0.36005977 -0.1165963 0.05969602 0.22274992 -0.36040586 0.7617661 0.48873344 -0.18364596

feature.bias_hh_l0_reverse f4 [512]
00000000: e51a 063f e244 e5bd 9c71 4fbd 6461 2cbe
00000010: 42fe 68be a2a9 333e 22b3 1d3e 82f8 4f3e
00000020: 7d8d cb3e 20da c33e 8d6e 45be 632f d83e
00000030: 7074 1c3e 7a7f 0c3f 89cb 73be 165c 473f
00000040: 1d86 b93d b7b8 633e 19a2 4c3d eab9 093e
00000050: 66a9 bbbe 9a80 2dbe 2e40 913e 9ac2 aebe
00000060: db89 323e f741 11be e501 b93d 4cf1 463f
00000070: d65d 7b3e e285 723e bc5c edbd 4627 133f
00000080: 9f8a 3c3e 0727 cf3e bff0 833e 3aed ae3d
00000090: 88aa 0c3d a8c0 293d 87d8 f33d cffc 1a3e
000000a0: 4d8d dc3e ff68 7abd ad13 393f 5d1a d43e
000000b0: c337 a23d 0a62 cfbc 0413 853d b7d2 b43e
000000c0: 8131 633e b1e2 363e 286b 813e f594 993d
000000d0: d01c 57be 6f24 79be 921f 8f3d 2eb2 763e
000000e0: c333 3c3f 21a3 f23c 08db a43e 3247 753e
000000f0: 3253 c43d 9ced 28bc 42c6 723d 5273 2c3e
00000100: 9df8 333e 6d10 05bd 4474 b8bc df98 553e
00000110: 6b88 513e 39f3 fe3d 9352 d73e 2657 293d
00000120: 18f1 c73e d252 a3be 69fc f6bd 506e db3d
00000130: 0b3c d83e 5dc2 34be 1e4d 2b3e 6e10 19be
00000140: 7805 873e 203a ab3e b55d ce3e c1b7 df3d
00000150: 0481 d23e fa3b 7fbd c620 4ebe cf5c 29bc
00000160: e374 f83e aef1 9e3e f719 e93e 5530 6c3f
00000170: 2770 373e bbc9 ce3e 21b5 16be b47c 973c
00000180: ab81 933c 1fd8 1a3e 95ca 1cbe 3d2b 573e
00000190: 2a30 7abe 579d 893e df6d 5abe ac42 823e
000001a0: f5b8 53bd 48b3 04be 113e 403e 2ba3 1a3f
000001b0: 5107 ec3c 229c 873e b4f8 263f c7d6 8bbe
000001c0: c7e0 77bd 493c 0e3e 1e99 3a3e aace 65bd
000001d0: f2d7 81bd 7b83 603e 3837 0f3f 4f8c 95be
000001e0: 6e34 a8bd 2b76 9c3d 07b5 2e3e 3283 4a3f
000001f0: 0dde fb3e 584a 0c3f 7b4e 513e 6e59 42bd
00000200: c2d9 163f 7b1d 6cbd ca4e 9a3e 463e 40be
00000210: 964d 343f a337 153f f936 1ebe dd6a d13e
00000220: 4e3e e93e a09a 97bd 8542 6b3b 9fd5 d33e
00000230: d299 8e3c 7d75 a0be 2974 963e 77ea c0be
00000240: 6c9a 793d 415d bd3c 595c 773d a344 2d3e
00000250: b82d 723c 7eb6 78be 33a9 2d3f eca8 01bf
00000260: c6c8 513f 67da 0bbe 7b85 81bc a5b8 49be
00000270: ba48 86bd ab68 913e ce31 1c3e 10f7 1ebf
00000280: 4a91 e13d 6b78 fc3d 3e3c 283e 7df3 d43d
00000290: c558 7cbd d8c3 473e 05ce adbd 1449 45be
000002a0: beb5 dabd 47b4 b23d b5c5 87be 0fa5 0fbf
000002b0: 86c8 003f 4ccc b43d aa46 d23d 2b86 e63d
000002c0: e22e 1dbe 3ddd cc3e 8aad a83e 643c bebe
000002d0: 6d52 b6bd 6c06 2fbe 2a12 dcbc 7365 d73d
000002e0: f613 b83d 3c67 b23d 358a 143e 8cb6 ffbc
000002f0: 3786 093f 2bde f43d 290c d53d 2694 3c3e
00000300: a03c c63d 4e64 683e ba07 67be 8a0f 07be
00000310: a757 80bd f158 093f 1122 03bf e261 c73e
00000320: 72c8 19bf 2572 873e 6eed f4bd 8d35 c3bd
00000330: 7b0b 39bc f0db 023f 4f43 233e b1bc 95be
00000340: b4df 883e 2ff6 1fbe ea52 093f c974 243e
00000350: 46d0 523b e254 9c3e 1c8c b73e 0ace f73e
00000360: 5fae 57bd 24db 1a3d b4aa 7cbe 6cbc c33e
00000370: 2c84 eebe 95a7 7bbd dfa5 8ebe c9de 20be
00000380: 36b6 983e bbbf 843e ebf5 efbd 4839 9e3d
00000390: 7363 143e 1f2f 99be 4bd4 493f 4d88 8a3e
000003a0: ced4 c83e f430 803e 696d babd 1d2e 7e3e
000003b0: 93dd 2a3d 5fb1 743e 20cc 233e 7fe2 463d
000003c0: 4530 e4bd b2f3 5f3f 97cc 90be 7f76 40be
000003d0: 805d a73d 0b93 94bd f9ca bb3e 5216 42be
000003e0: 9e82 8cbe 8b2c b13b a245 ec3d dfa1 0d3e
000003f0: b55c 80be b339 513f 7cd8 b43e 04d1 013e
0.5238479 -0.11194779 -0.050645456 -0.16834027 -0.22753242 0.17545179 0.15400365 0.20309642
0.39756384 0.38252354 -0.19280453 0.42223653 0.15278792 0.54882014 -0.23808111 0.77874887
0.09058783 0.22238432 0.049959276 0.13449827 -0.36652678 -0.16943589 0.28369278 -0.34132844
0.174354 -0.1418532 0.090335645 0.7771194 0.24547514 0.23683885 -0.11589953 0.574818
0.18412255 0.40459463 0.25769612 0.08541341 0.03434232 0.041443497 0.11906534 0.15135501
0.43076554 -0.06113529 0.7229565 0.41426364 0.07920792 -0.025315303 0.064977676 0.35317013
0.22186853 0.17859913 0.25277066 0.074991144 -0.21007085 -0.24330305 0.069884434 0.24091408
0.7351648 0.029618802 0.32198358 0.2395294 0.09586181 -0.010310557 0.059271105 0.16840866
0.17575307 -0.032486368 -0.022516377 0.20859097 0.20462196 0.12448735 0.42055187 0.041342877
0.39051127 -0.31899124 -0.12059862 0.107144 0.4223331 -0.17652269 0.16728637 -0.14947674
0.2637136 0.33442783 0.40305868 0.1092372 0.41114056 -0.062313057 -0.2012969 -0.010337069
0.48526677 0.31043762 0.45527622 0.9226125 0.17913876 0.40388283 -0.14717533 0.01849208
0.018006166 0.15121506 -0.15311654 0.21012588 -0.24432436 0.26877853 -0.21330975 0.25441492
-0.05169006 -0.12959015 0.18773676 0.60405225 0.028812082 0.26486307 0.6522324 -0.273123
-0.0605171 0.13890184 0.18222472 -0.056105293 -0.063400164 0.21925156 0.5594363 -0.2920861
-0.08213125 0.07639726 0.17061244 0.7910644 0.4919285 0.5480094 0.20440094 -0.047448568
0.5892602 -0.057645302 0.30138236 -0.18773755 0.70430887 0.5828802 -0.15450658 0.40901843
0.45555347 -0.07402539 0.0035897803 0.41373917 0.017407332 -0.31339636 0.29385498 -0.37678882
0.060938284 0.023115756 0.060390804 0.16920714 0.014781408 -0.24288365 0.678363 -0.5064838
0.8194698 -0.13657533 -0.015810719 -0.19699343 -0.0655684 0.28400168 0.15253374 -0.6209574
0.1101404 0.123276554 0.1642923 0.10398004 -0.061608095 0.19508302 -0.08486561 -0.19266158
-0.10679196 0.087257914 -0.26518026 -0.56111234 0.50305974 0.08828029 0.10267384 0.11256059
-0.15349916 0.4001254 0.329449 -0.3715545 -0.0890244 -0.17092294 -0.02686413 0.10517397
0.08988182 0.08711097 0.14505847 -0.031214975 0.5372042 0.11956438 0.1040271 0.18415889
0.09679532 0.22694513 -0.22561541 -0.13189521 -0.06266718 0.5365134 -0.51223856 0.38941866
-0.6007148 0.26454273 -0.119593486 -0.095316984 -0.011294241 0.5111685 0.15943645 -0.29245523
0.26733172 -0.15621255 0.5364214 0.16060175 0.0032167598 0.3053351 0.35849082 0.48399383
-0.052656528 0.037806645 -0.24674493 0.38229692 -0.46585214 -0.061439116 -0.27860925 -0.15709986
0.29826516 0.2592753 -0.11716827 0.07725769 0.14491062 -0.29918763 0.7883956 0.27057114
0.39224857 0.25037348 -0.091028996 0.24822278 0.041715216 0.23895787 0.15995836 0.048555847
-0.11142019 0.87481225 -0.2828109 -0.18795203 0.081721306 -0.07254609 0.36678293 -0.18953827
-0.27443403 0.0054069213 0.11536719 0.1383128 -0.2507073 0.8172867 0.35321414 0.1267739
