logs/classifier/1_contexts/fold_05/10-17-2022_17-13-36/model_params.pth (torch, 822087 bytes, 10 tensors)

feature.weight_ih_l0 f4 [512, 64]
0	0xbe69fd47	-0.22850524
1	0xbf1f7ea8	-0.6230264
2	0xbde835ac	-0.11338362
3	0x3e60f1fc	0.2196731
4	0xbf5f7506	-0.8728794
5	0x3ecfb29f	0.40565965
6	0x3f1ec334	0.62016606
7	0x3f0d6cd8	0.5524421
8	0x3f924280	1.1426544
9	0xbf612f80	-0.87963104
10	0xbf4540a2	-0.77051747
11	0xbdc6d66f	-0.09708869
12	0x3f184875	0.5948556
13	0x3dd77772	0.10520829
14	0xbf1766f3	-0.59141463
15	0xbf6be685	-0.9214862
16	0x3f993f23	1.1972393
17	0x3f8a81d0	1.0820866
18	0x3ec950d2	0.39319474
19	0xbedfa85a	-0.4368313
20	0xbf79ed10	-0.97627354
21	0x3f456b65	0.77116996
22	0xbd147411	-0.036243502
23	0xbd3e238f	-0.04642063
24	0xbea44dd0	-0.32090616
25	0x3f14f361	0.58183867
26	0xbc8c8413	-0.017152822
27	0x3ebbd308	0.36684442
28	0x3b636eb1	0.0034703428
29	0x3f36be94	0.7138455
30	0x3e85eaca	0.26155692
31	0xbc739553	-0.014867145
32	0xbe30fd06	-0.17284021
33	0xbf0c9f72	-0.54930794
34	0xbf3a4b5c	-0.7277124
35	0x3edbb4ca	0.4291137
36	0xbea0bc5a	-0.313937
37	0x3e1bb4bc	0.15205663
38	0xbce66381	-0.028123619
39	0xbeb60baf	-0.3555579
40	0xbf3d147f	-0.738594
41	0x3ed39db8	0.41331267
42	0x3ec76710	0.38945818
43	0xbf34b770	-0.70592403
44	0xbf61a734	-0.88145757
45	0x3e6d1a2a	0.23154512
46	0x3e9feda3	0.3123599
47	0xbe9c8f0b	-0.30577883
48	0x3d0ac7bd	0.03388189
49	0xbe971c27	-0.29513666
50	0x3e5bb721	0.21456577
51	0xbe6f4438	-0.23365867
52	0x3f02d0a5	0.51099616
53	0xbf7f8a42	-0.9982034
54	0xbf6dd4b3	-0.9290268
55	0x3f914ca6	1.1351516
56	0x3f141921	0.57850844
57	0x3e6a8522	0.22902349
58	0xbf97a8be	-1.1848371
59	0xbe072497	-0.13197552
60	0x3ef65781	0.48113635
61	0xbe827efc	-0.25487506
62	0x3f4c5901	0.7982331
63	0xbe49d6e3	-0.19710879
64	0xbf339191	-0.7014399
65	0x3dada883	0.08479407
66	0x3eb73fb3	0.35790786
67	0xbf1416c6	-0.5784725
68	0xbddc6389	-0.10761172
69	0xbf3c39e8	-0.7352586
70	0xbee917fc	-0.4552611
71	0xbe2164fb	-0.15761177
72	0x3e8edbff	0.2790222
73	0xbf32e2f2	-0.6987754
74	0x3e7df296	0.2479957
75	0xbe916940	-0.28400612
76	0xbe89e791	-0.26934484
77	0x3cad0c6f	0.021124093
78	0xbc53ae9d	-0.012920049
79	0xbe3aec4d	-0.18254204
80	0xbe3ec761	-0.18630745
81	0x3f342a96	0.7037748
82	0xbf1c99aa	-0.6117197
83	0x3e0c6001	0.13708498
84	0x3d591140	0.052994967
85	0x3f391794	0.723016
86	0x3eee2f9c	0.46520698
87	0x3e18d440	0.14924717
88	0x3f949953	1.1609291
89	0xbbde489d	-0.0067835585
90	0x3d38ddd7	0.045133438
91	0xbe82c1b5	-0.25538412
92	0x3d42f69a	0.04759846
93	0xbe92f5c3	-0.28703126
94	0xbd82c3e7	-0.06385022
95	0x3f4f9d08	0.81098986
96	0xbf14d44e	-0.5813645
97	0x3ec32226	0.3811199
98	0x3e8bcbba	0.2730387
99	0x3f069750	0.52574635
100	0xbec203f0	-0.3789363
101	0xbf9b561c	-1.2135653
102	0x3ea41d9f	0.3205385
103	0xbd73581b	-0.059410196
104	0x3f1beb1a	0.6090561
105	0x3f60aa2a	0.8775965
106	0x3f7d1701	0.98863226
107	0xbe73b3cf	-0.2379906
108	0x3f104421	0.56353956
109	0xbe4803bb	-0.19532673
110	0xbe848b85	-0.25887695
111	0xbe3ffc1c	-0.18748516
112	0x3ed85861	0.42254928
113	0x3de816e0	0.11332488
114	0xbeecc2a5	-0.46242252
115	0x3f518911	0.8184977
116	0x3f18415d	0.59474736
117	0xbda38931	-0.079851516
118	0xbe6bd898	-0.23031843
119	0x3e68704f	0.22699092
120	0xbedbae21	-0.42906287
121	0x3f6f80a3	0.9355566
122	0x3f15971c	0.584337
123	0xbedd1dee	-0.43186897
124	0x3deb7d26	0.114984795
125	0xbf4022e7	-0.75053257
126	0x3ca1ba40	0.019742131
127	0x3ea04da5	0.31309238
128	0x3f2c410a	0.6728674
129	0x3ecf5cc8	0.40500474
130	0xbe80f461	-0.25186446
131	0x3fdf715d	1.7456471
132	0xbf482fdf	-0.78198045
133	0xbdcde635	-0.10053674
134	0xbf8ccf6f	-1.1000804
135	0xbe9d8df5	-0.30772367
136	0xbf547f96	-0.8300718
137	0x3daf0ab0	0.0854696
138	0x3e590198	0.21192014
139	0x3e4c885f	0.19973896
140	0x3d755895	0.05989893
141	0xbedc5f9b	-0.4304169
142	0x3e0eb888	0.1393758
143	0xbe7f0a8d	-0.24906369
144	0xbec42930	-0.38312674
145	0xbd315b9f	-0.043300267
146	0x3e7863bb	0.24256794
147	0x3ef5e69a	0.48027498
148	0x3f4ab982	0.7918931
149	0xbf97c12b	-1.1855825
150	0x3ee62078	0.44946647
151	0x3f2dd34c	0.6790054
152	0x3ef606de	0.48052114
153	0xbe0c398c	-0.13693827
154	0xbdb2ff3c	-0.08740088
155	0x3ec52698	0.38506007
156	0xbef80f78	-0.48449302
157	0x3f81c5c7	1.0138482
158	0xbf609296	-0.8772367
159	0x3e047aa1	0.12937404
160	0x3f28bc6b	0.65912503
161	0xbf1336ef	-0.57505697
162	0x3eef6063	0.46753225
163	0x3d13f692	0.03612382
164	0x3e24ef2f	0.16106866
165	0xbe47c3c3	-0.19508271
166	0x3ee0e08e	0.43921322
167	0x3f714a92	0.9425441
168	0x3f09db40	0.53850174
169	0xbe978702	-0.2959519
170	0x3f7a6588	0.97811174
171	0x3eb150d0	0.34631968
172	0x3da35ba1	0.07976461
173	0x3f43e23e	0.76517093
174	0xbc7eb9a9	-0.0155471945
175	0xbf923187	-1.1421365
176	0xbef3a8de	-0.47589773
177	0xbdd2daf5	-0.10295669
178	0x3f8e9daa	1.1141865
179	0xbfc29dff	-1.5204467
180	0x3d96e22a	0.07367356
181	0xbf8f2a45	-1.1184775
182	0xbbb2a088	-0.0054512657
183	0x3e29549b	0.1653618
184	0xbebb678b	-0.36602435
185	0xbf437dc5	-0.76363784
186	0xbdbcbdfa	-0.09215923
187	0xbe5621e4	-0.20911366
188	0xbf036b1a	-0.513353
189	0xbf9de985	-1.233689
190	0xbe23f622	-0.16011861
191	0xbd711ad3	-0.058863472
192	0xbf203b65	-0.6259063
193	0xbe7bd618	-0.24593389
194	0xbec989e7	-0.39363024
195	0x3ef4515f	0.4771833
196	0x3f2c71eb	0.67361325
197	0xbedeb036	-0.43493813
198	0x3f5adaa6	0.8548988
199	0xbf1a111b	-0.6018235
200	0x3e1d9818	0.1539005
201	0x3ef96ec3	0.48717317
202	0x3f0ea02e	0.55713165
203	0x3eacc624	0.3374492
204	0x3e2fedb8	0.17180526
205	0x3e8b0bd8	0.27157474
206	0x3f11cd57	0.5695395
207	0xbd42ab47	-0.047526624
208	0xbed61f27	-0.41820642
209	0x3d29b698	0.0414339
210	0xbf0c679f	-0.54845613
211	0xbe775188	-0.24152195
212	0x3e553386	0.20820436
213	0x3e31c7b8	0.17361343
214	0x3b7615fc	0.0037549725
215	0x3dbfa340	0.09357309
216	0xbec09ee2	-0.37621218
217	0x3e91b1ee	0.28456062
218	0x3f030e10	0.5119333
219	0xbf447e19	-0.7675491
220	0x3c42e501	0.011895419
221	0x3fb6ca82	1.428055
222	0xbf490054	-0.78516126
223	0xbe89a0d7	-0.26880524
224	0x3f94ab76	1.1614826
225	0x3ea2a710	0.31768084
226	0x3f91e339	1.1397468
227	0x3da4c439	0.08045239
228	0x3d995d12	0.07488455
229	0x3e827442	0.25479323
230	0x3e346a1d	0.17618604
231	0xbcd18545	-0.025576243
232	0x3f130642	0.57431424
233	0xbed201ad	-0.41016904
234	0xbca9a056	-0.020706337
235	0x3f132beb	0.5748889
236	0x3ed78124	0.42090714
237	0x3f3beb25	0.7340568
238	0xbf2d3ed9	-0.6767402
239	0x3f01aae9	0.50651413
240	0x3f1868f6	0.5953516
241	0x3e875697	0.2643325
242	0xbf508d4f	-0.8146562
243	0xbf6dee6b	-0.9294192
244	0x3ebc1beb	0.3674005
245	0xbeac122c	-0.33607614
246	0x3f3553ea	0.7083117
247	0xbf8832e1	-1.0640527
248	0xbee24f61	-0.44201186
249	0x3f0c6cf5	0.54853755
250	0x3ac5cf75	0.0015091734
251	0xbe974d28	-0.29551053
252	0xbf0bc36f	-0.54595083
253	0xbf1515c4	-0.58236337
254	0xbfad62cf	-1.3545779
255	0x3e7467c8	0.23867714

feature.weight_hh_l0 f4 [512, 128]
0	0x3e94d4aa	0.290685
1	0xbf00e1ad	-0.50344354
2	0xbecd9dc5	-0.4015943
3	0x3f3cd8b3	0.73768157
4	0xbf90637b	-1.1280359
5	0xbcb76b03	-0.022389894
6	0xbde52975	-0.11189548
7	0xbe76f85b	-0.24118178
8	0x3f2718a3	0.6527197
9	0xbe2a0391	-0.16602923
10	0x3e9c6486	0.30545443
11	0x3e2957d3	0.16537409
12	0xbeafe01b	-0.34350666
13	0x3f33a33e	0.7017096
14	0x3e72e821	0.23721363
15	0xbe5853cd	-0.21125717
16	0xbebfe331	-0.3747802
17	0xbe14a689	-0.14516653
18	0x3eb2f2ad	0.34950772
19	0x3ef1ce5f	0.4722776
20	0x3f237ee6	0.63865507
21	0x3d9c64ab	0.076363884
22	0x3e071c73	0.13194446
23	0x3e2e4713	0.170193
24	0x3f9166f8	1.1359549
25	0xbf2bd260	-0.6711788
26	0xbee52788	-0.44756722
27	0x3f18e406	0.59722936
28	0xbe2ee0bb	-0.17077915
29	0x3ec8290a	0.3909381
30	0x3efc1955	0.49238077
31	0xbdc5f8d7	-0.09666603
32	0xbee9f0f0	-0.45691633
33	0xbfa607db	-1.2971147
34	0xbf546589	-0.8296743
35	0x3f495cc8	0.786572
36	0x3ee446ac	0.44585168
37	0x3ee95005	0.45568863
38	0xbf1b99e9	-0.60781723
39	0x3e5ef928	0.21774733
40	0xbf63c788	-0.88976336
41	0xbf286b6f	-0.6578893
42	0xbf2951de	-0.66140544
43	0xbf1aa26d	-0.6040409
44	0x3f35ece6	0.71064603
45	0x3e99b4a0	0.30020618
46	0xbc43f502	-0.01196027
47	0xbe44e4c7	-0.19227897
48	0x3eed77a4	0.4638034
49	0x3cca89f0	0.024723977
50	0xbd5ccdf4	-0.05390735
51	0x3df77c01	0.12084199
52	0x3d7cf006	0.06175234
53	0xbe8e741e	-0.27822965
54	0x3e849426	0.25894278
55	0xbf11a164	-0.5688689
56	0xbf1699b2	-0.5882827
57	0x3ef0f5c3	0.470625
58	0xbf4215d4	-0.7581456
59	0x3ec08b2f	0.3760619
60	0xbf6d332d	-0.92656213
61	0xbdd16472	-0.102242365
62	0xbea671e8	-0.3250878
63	0xbfa7b7c8	-1.310296
64	0xbeec5da2	-0.46165186
65	0x3ebe81a3	0.3720828
66	0x3de5146e	0.11185537
67	0x3db290ab	0.087189995
68	0x3f50e214	0.8159497
69	0x3e512cb0	0.20427203
70	0xbefbf4d2	-0.4921022
71	0x3d7cbd48	0.06170395
72	0x3f7afb25	0.98039466
73	0xbf450d46	-0.7697338
74	0x3e6bf475	0.23042472
75	0xbd98f949	-0.07469422
76	0x3ebcdee1	0.36888793
77	0xbb8f1cd2	-0.0043674493
78	0x3f8bb765	1.0915343
79	0x3dab77ac	0.08372435
80	0xbd817b93	-0.06322398
81	0x3db5c7d6	0.08876006
82	0x3f6e9eb4	0.9321091
83	0xbd8e83ee	-0.06958757
84	0x3d4b7773	0.049674463
85	0xbedd3a47	-0.43208525
86	0x3d84209e	0.06451534
87	0x3e8dad8c	0.27671468
88	0xbd040551	-0.032231633
89	0x3e5f4440	0.21803379
90	0xbe390ace	-0.18070528
91	0x3f078834	0.52942204
92	0xbed33654	-0.41252387
93	0x3e1cc6a7	0.15310155
94	0xbf8cf001	-1.1010743
95	0xbe870f7f	-0.2637901
96	0xbde93b1e	-0.11388229
97	0x3ee6bb32	0.45064694
98	0xbe4efe37	-0.20214163
99	0xbefc8498	-0.4931991
100	0xbe181066	-0.14850006
101	0xbbcc223f	-0.0062296684
102	0xbae35fd0	-0.001734728
103	0xbf229e63	-0.6352293
104	0xbea25191	-0.31702855
105	0x3e10c92f	0.14139245
106	0xbe36903c	-0.17828459
107	0xbe9e6ef4	-0.30944026
108	0x3efc1e7b	0.49242005
109	0xbf64df9c	-0.894037
110	0x3f008df0	0.5021658
111	0x3f6de26e	0.9292363
112	0x3f3e806e	0.7441472
113	0x3d83fffa	0.06445308
114	0xbe81340b	-0.25235018
115	0xbdb9b7a1	-0.090682276
116	0x3f143668	0.5789552
117	0xbece3c8e	-0.40280575
118	0xbc8f2fc3	-0.01747883
119	0x3eaaa78c	0.33330953
120	0xbe7e78c3	-0.24850754
121	0x3f24408c	0.6416099
122	0x3e185ffa	0.14880362
123	0xbf2c15de	-0.67220867
124	0xbd3adf5f	-0.04562318
125	0xbf000a89	-0.50016075
126	0x3ee5ab02	0.4485703
127	0x3e863014	0.26208556
128	0xbe2e5482	-0.17024425
129	0x3ecfa7c5	0.40557685
130	0xbe6ddc55	-0.23228581
131	0x3e26a120	0.16272402
132	0x3e666d1f	0.22502564
133	0xbe09d0e2	-0.13458589
134	0xbeee9a9a	-0.46602327
135	0xbec797eb	-0.38983092
136	0x3e122527	0.14271985
137	0xbf17a6ce	-0.592389
138	0x3e73ccc7	0.23808585
139	0xbd4c8f09	-0.049941096
140	0xbd2a4cb4	-0.041577056
141	0x3d1fa80a	0.038978614
142	0x3fd3bf92	1.6542838
143	0xbf36e784	-0.71447015
144	0x3e1439e2	0.14475206
145	0x3f3daf3d	0.7409552
146	0xbe032ec6	-0.12810811
147	0xbd20ad31	-0.03922767
148	0xbeed2654	-0.46318305
149	0x3e2a2958	0.16617334
150	0xbeebdf44	-0.46068776
151	0x3ec8dc8f	0.39230773
152	0x3f874ae3	1.0569729
153	0xbe61054a	-0.21974674
154	0xbdb8c8c7	-0.0902267
155	0xbcd9ec09	-0.026601808
156	0x3d883595	0.06650845
157	0x3d79efb9	0.061019633
158	0xbddc0a66	-0.10744171
159	0xbd8fb8f4	-0.07017699
160	0xbdd90567	-0.105967335
161	0xbed01e88	-0.40648293
162	0xbf16d65d	-0.5892084
163	0x3e996412	0.2995916
164	0x3dc36722	0.095411554
165	0x3f2e7445	0.68146163
166	0x3f81d2e1	1.014248
167	0xbde51352	-0.11185326
168	0xbf19aafd	-0.6002653
169	0x3ede388c	0.43402517
170	0xbeaf5fd0	-0.34252787
171	0x3f1aaaf8	0.6041713
172	0xbe6ed164	-0.23322064
173	0x3dcc926b	0.099888645
174	0xbef64938	-0.48102736
175	0x3f5475d7	0.8299231
176	0xbf005c4b	-0.5014083
177	0xbefdd8dc	-0.49579513
178	0xbe690b3b	-0.2275819
179	0xbe270b19	-0.16312827
180	0x3f4f8797	0.8106627
181	0xbca17e29	-0.019713478
182	0xbeb138d5	-0.34613672
183	0x3d32127a	0.043474652
184	0x3f4509ef	0.7696828
185	0xbe16c176	-0.14722237
186	0x3f588c69	0.8458925
187	0x3f89acfa	1.0755913
188	0xbd738acd	-0.059458543
189	0x3d7090a0	0.058731675
190	0x3f9e390e	1.2361162
191	0xbf174852	-0.5909473
192	0x3eeea477	0.46609852
193	0x3b42906f	0.002968814
194	0xbe8023dc	-0.2502736
195	0xbef26db5	-0.47349325
196	0x3e8d779e	0.27630323
197	0x3cf159d7	0.029461784
198	0xbf149974	-0.5804665
199	0xbed5e9e5	-0.4178001
200	0x3b976f78	0.0046214424
201	0x3eef6dd0	0.46763468
202	0xbf39367c	-0.7234876
203	0x3ded4ddb	0.115871154
204	0xbf0e571f	-0.55601686
205	0xbf877dd4	-1.0585275
206	0xbea8f254	-0.32997382
207	0x3e8212a2	0.2540484
208	0xbe6b6ac3	-0.22989945
209	0xbdc0d336	-0.09415285
210	0xbf03b5a9	-0.51449066
211	0x3ef703e7	0.48245165
212	0x3ea91426	0.33023185
213	0xbf016ed6	-0.5055975
214	0xbe24ddc1	-0.16100217
215	0x3f00bfca	0.50292647
216	0xbf7ded52	-0.9919025
217	0x3db8741c	0.09006521
218	0xbf1cc801	-0.6124268
219	0x3ea17ae4	0.3153907
220	0x3f2ba5a8	0.67049646
221	0xbcd88b31	-0.02643356
222	0x3db21f25	0.086973466
223	0x3ec9c90a	0.39411193
224	0x3f112a54	0.5670521
225	0x3e7e1ac0	0.24814892
226	0x3da1bd5a	0.07897444
227	0x3f36f3c8	0.7146573
228	0x3dfe68da	0.124223426
229	0xbd137df5	-0.036008794
230	0xbe4d4d16	-0.20048937
231	0xbecf91ec	-0.40541017
232	0x3e24289d	0.16031118
233	0x3df8c963	0.121477865
234	0xbf58842a	-0.84576666
235	0xbf0c7718	-0.5486922
236	0x3e2f0d41	0.170949
237	0xbd7f4fd9	-0.062332008
238	0xbec47145	-0.38367668
239	0xbf14ecd0	-0.5817385
240	0xbda7c4f7	-0.08191865
241	0x3e68ba00	0.22727203
242	0x3f15652b	0.58357495
243	0x3e95857f	0.29203412
244	0x3f8a22ce	1.0791872
245	0xbf10e6a1	-0.5660191
246	0x3e7bd3d2	0.24592522
247	0x3ecad45e	0.39615148
248	0xbeb86010	-0.3601079
249	0xbcaad1c1	-0.020851972
250	0x3e058d9e	0.13042304
251	0x3e6d538b	0.231764
252	0xbe89bb03	-0.2690049
253	0x3ebd80ec	0.37012422
254	0xbe12eb85	-0.14347656
255	0x3ea91473	0.33023414

feature.bias_ih_l0 f4 [512]
0	0xbd9ac922	-0.07557894
1	0x3ef6f854	0.48236334
2	0x3eb77513	0.35831508
3	0x3e1e5abf	0.15464304
4	0x3fbf8491	1.4962331
5	0x3f5c439b	0.8604066
6	0xbe9016ce	-0.281424
7	0x3e8b30d9	0.27185705
8	0x3e3eb3df	0.18623303
9	0xbe5d4105	-0.21606834
10	0x3f1fe8f0	0.6246481
11	0xbea51fad	-0.3225073
12	0xbe717a14	-0.23581725
13	0xbd1da43a	-0.038486697
14	0x3eeb4aa0	0.45955372
15	0x3f34a514	0.7056439
16	0x3ef01069	0.4688752
17	0x3ee62e1c	0.44957054
18	0x3e8eab3f	0.27865025
19	0x3d0866ef	0.03330129
20	0xbe866eb7	-0.26256344
21	0xbe4a7f73	-0.1977518
22	0x3e104a2d	0.14090796
23	0xbe2cc5f6	-0.16872391
24	0x3f105ff5	0.5639642
25	0x3cb5004a	0.022094864
26	0xbe511270	-0.2041719
27	0x3ef2bf88	0.47411752
28	0x3ebfe4de	0.374793
29	0xbeeb43f9	-0.45950297
30	0xbe815afe	-0.25264734
31	0x3bb9b9dc	0.005667908
32	0x3df47abf	0.119374745
33	0xbe852f54	-0.2601267
34	0x3e9e4407	0.30911276
35	0x3f7086c9	0.93955666
36	0xbe0e4a58	-0.13895547
37	0x3eb472ea	0.35243922
38	0x3e475667	0.19466554
39	0x3d8aa666	0.06770019
40	0x3ee66bcc	0.45004117
41	0x3e9f1e2e	0.31077713
42	0x3fa09b22	1.2547343
43	0x3e65c0df	0.22436856
44	0x3ed4d2a1	0.41566947
45	0x3ecba5e8	0.39775014
46	0x3e319c75	0.1734484
47	0x3d998cd5	0.07497565
48	0x3f9815b1	1.188162
49	0x3d600530	0.054692447
50	0x3dab9114	0.08377281
51	0xbe495d4f	-0.196645
52	0x3ed09a0f	0.40742537
53	0x3f22a843	0.63537997
54	0x3e10e8d8	0.14151323
55	0xbd5c01a6	-0.05371251
56	0x3e7528f0	0.23941398
57	0xbde2dbc1	-0.11077071
58	0x3e9a0244	0.30079854
59	0xbda8c590	-0.08240807
60	0x3e1f2b97	0.15543972
61	0xbec13bee	-0.37741035
62	0x3f176d3c	0.59151053
63	0x3ec495a9	0.38395432
64	0xbe82de18	-0.2556007
65	0xbe4ed08f	-0.20196746
66	0xbc8298ee	-0.015942063
67	0xbce8acc2	-0.02840269
68	0x3e862475	0.2619969
69	0xbc6d2a2a	-0.014475385
70	0xbcf36104	-0.029709347
71	0x3f170a8c	0.5900047
72	0x3c6ae553	0.014336902
73	0x3dab3da1	0.08361364
74	0xbe3e4962	-0.18582681
75	0xbe8c178b	-0.27361712
76	0xbe6bffb8	-0.23046768
77	0x3ebf606a	0.37378246
78	0x3ecd394c	0.40082777
79	0x3eb3fc5d	0.35153475
80	0x3dc539a3	0.09630134
81	0x3ecb610f	0.39722487
82	0x3e8226e3	0.25420293
83	0x3f215651	0.63022333
84	0x3f0bd44e	0.54620826
85	0x3ce2576c	0.027629577
86	0xbedcf7ec	-0.431579
87	0xbe9faf07	-0.31188223
88	0x3dcb9b88	0.099417746
89	0x3e6eda03	0.23325352
90	0x3f951026	1.1645553
91	0xbc72351a	-0.014783168
92	0x3f0cb2c3	0.5496027
93	0xbdd5ac01	-0.10433198
94	0x3f28189e	0.6566256
95	0x3ee6f223	0.4510661
96	0x3f058d17	0.5216841
97	0xbe85deac	-0.26146448
98	0x3ed55e15	0.4167334
99	0xbe383d8f	-0.17992233
100	0x3e6e0515	0.23244126
101	0x3f845ad1	1.0340215
102	0x3eb983ae	0.36233276
103	0x3ec8cec8	0.39220262
104	0x3e3cc422	0.18434194
105	0x3fa54fba	1.2914956
106	0xbcf2ff9f	-0.029662905
107	0x3f7e339b	0.99297494
108	0x3f40d918	0.7533126
109	0x3ee2d441	0.44302562
110	0x3f2ef847	0.6834759
111	0x3e8bd9ff	0.27314755
112	0x3e318a52	0.17337921
113	0x3d99fddb	0.07519122
114	0x3dcd9762	0.100386396
115	0x3d82e52e	0.06391369
116	0x3f19ffbf	0.6015586
117	0xbeab07c3	-0.3340436
118	0x3e1ce910	0.15323281
119	0x3e6a6b66	0.22892532
120	0x3efa35fc	0.48869312
121	0x3ea32dee	0.3187098
122	0x3efb10c0	0.49036217
123	0x3e884516	0.26615208
124	0xbe1c36d7	-0.15255295
125	0x3f16168b	0.5862815
126	0x3f913164	1.1343198
127	0x3ed6a221	0.4192057
128	0x3bd25845	0.006419214
129	0xbc44bc48	-0.01200778
130	0xbe5437a4	-0.2072435
131	0xbdb6964e	-0.08915387
132	0x3e90c4b9	0.28275087
133	0xbf1bf2b5	-0.60917217
134	0x3e5ff6cc	0.2187149
135	0xbdd91e65	-0.106015004
136	0xbe29d862	-0.1658645
137	0x3d1025da	0.035192348
138	0x3ea2b963	0.31782064
139	0xbe9f4687	-0.31108496
140	0xbe338dea	-0.17534605
141	0x3c9b40ca	0.018951792
142	0xbf542443	-0.8286783
143	0xbef6374b	-0.4808906
144	0xbcb036c5	-0.021510491
145	0xbf308532	-0.6895324
146	0xbf56fc1d	-0.83978444
147	0xbdc4a26e	-0.096012935
148	0xbdcb87a8	-0.09937984
149	0x3e130b4e	0.14359781
150	0xbdf0a3ba	-0.11749978
151	0x3f6b080b	0.9180915
152	0xbc088e84	-0.00833476
153	0x3c9a8389	0.018861549
154	0x3bbc5c4f	0.0057483087
155	0xbeb7f53c	-0.35929286
156	0xbd809eba	-0.06280275
157	0xbe73380a	-0.23751846
158	0x3e61c591	0.22048022
159	0xbebd7481	-0.37002948
160	0xbf39ea01	-0.72622687
161	0x3ec1f595	0.37882677
162	0x3c997312	0.018731628
163	0xbddbb886	-0.107285544
164	0xbf08022c	-0.53128314
165	0x3e76bb98	0.24094999
166	0xbef75fe7	-0.48315355
167	0x3ecd72d4	0.4012667
168	0x3ecb9267	0.39760134
169	0xbe547239	-0.20746697
170	0xbe743eff	-0.23852156
171	0xbd0111cf	-0.031511124
172	0x3eb4565a	0.3522213
173	0xbe4f9e92	-0.20275334
174	0xbe1f71bd	-0.15570731
175	0x3bfd4c8b	0.007730072
176	0x3c40a6bb	0.011758502
177	0xbf3b1081	-0.7307206
178	0x3d055f41	0.032561544
179	0x3dd52b3d	0.10408638
180	0xbcff7cbc	-0.031187408
181	0xbd642c20	-0.055706143
182	0xbe55f7ca	-0.20895305
183	0xbec45075	-0.38342634
184	0xbe23db41	-0.16001607
185	0xbe894074	-0.26806986
186	0xbe81f7dd	-0.25384417
187	0x3e38ed28	0.18059218
188	0x3dafd800	0.085861206
189	0xbd37dc91	-0.044888083
190	0xbdfc0275	-0.12305156
191	0xbe14dacc	-0.1453659
192	0x3e38a19c	0.18030399
193	0xbdd1aca9	-0.102380104
194	0xbe5f408a	-0.21801963
195	0xbe1b1dfe	-0.1514816
196	0xbd2be96e	-0.041970663
197	0xbe8b0971	-0.2715564
198	0xbedd60bb	-0.43237862
199	0xbe2b7c16	-0.16746554
200	0xbecd5d42	-0.40110213
201	0xbf1a2a4a	-0.6022078
202	0xbebb95bf	-0.36637685
203	0x3e73464c	0.23757285
204	0x3e134bd7	0.143844
205	0xbe5d638a	-0.21620002
206	0xbd334bc3	-0.043773424
207	0xbefb7d94	-0.49119246
208	0xbef481e4	-0.4775535
209	0x3d5eb3a5	0.05437054
210	0xbeb1773b	-0.34661278
211	0xbe99a282	-0.30006796
212	0xbdff519e	-0.12466739
213	0x3e42020a	0.1894609
214	0xbcd0197b	-0.025402775
215	0x3eb6eb6c	0.35726488
216	0xbe5354c9	-0.20637812
217	0x3e8288c2	0.25494963
218	0x3e62b107	0.22137843
219	0xbda6dd4f	-0.0814768
220	0xbef384dc	-0.475623
221	0x3e218fad	0.15777464
222	0xbe100eaf	-0.14068101
223	0xbe085756	-0.13314566
224	0xbd9277d8	-0.07151765
225	0x3e56995b	0.20956938
226	0xbe9ab6d6	-0.30217618
227	0xbe88a77d	-0.26690283
228	0xbf371418	-0.71515036
229	0x3eb4a9b4	0.35285723
230	0x3d02d916	0.03194531
231	0x3d861a93	0.065480374
232	0x3ddf2dc0	0.10897398
233	0xbf4cbc55	-0.7997487
234	0xbed54d02	-0.41660315
235	0xbf3f6614	-0.74765134
236	0xbd84b131	-0.06479109
237	0xbe69765a	-0.22799054
238	0xbea6f442	-0.3260823
239	0xbe7d52a7	-0.2473856
240	0xbe952a0b	-0.2913364
241	0xbec0374e	-0.37542194
242	0xbdf97750	-0.1218096
243	0xbdcd9e2b	-0.10039934
244	0x3dc2751d	0.09494994
245	0xbe421a16	-0.18955263
246	0x3ebc1951	0.36738065
247	0xbe6f0f6a	-0.23345724
248	0x3eba3bd3	0.36373767
249	0xbe0e5ba3	-0.13902144
250	0xbf21e11d	-0.6323412
251	0xbcc350e6	-0.023842286
252	0x3e6034a2	0.21895078
253	0xbf13b1a0	-0.5769291
254	0xbeffa10f	-0.49927565
255	0x3e322943	0.17398553

feature.bias_hh_l0 f4 [512]
0	0xbda83fc5	-0.08215288
1	0x3f079ac9	0.5297056
2	0x3ee11c9c	0.4396714
3	0x3e169d11	0.14708354
4	0x3fbb4203	1.462952
5	0x3f5d9476	0.8655466
6	0xbe7f467e	-0.24929234
7	0x3e2203b8	0.15821731
8	0x3e0349ff	0.12821196
9	0xbe6d81ff	-0.23194121
10	0x3f2222e4	0.6333449
11	0xbe502346	-0.20325956
12	0xbea8744a	-0.32901222
13	0xbca5e59a	-0.020251084
14	0x3ed2d742	0.41179854
15	0x3f224782	0.6339036
16	0x3ebaa7b7	0.3645608
17	0x3edbe965	0.42951503
18	0x3ea4962a	0.32145816
19	0x3d0a2da0	0.033734918
20	0xbe375560	-0.17903662
21	0xbeb86a5a	-0.3601864
22	0x3d933cc7	0.07189327
23	0xbe3b7d67	-0.18309556
24	0x3f068146	0.52541006
25	0x3d70b634	0.058767512
26	0xbe7541cd	-0.23950882
27	0x3ecc646e	0.39920372
28	0x3ef54631	0.47905114
29	0xbefa9af9	-0.4894636
30	0xbe21b586	-0.15791902
31	0x3d6cba5d	0.057794917
32	0x3cb1d070	0.021705836
33	0xbe2c3179	-0.16815747
34	0x3ebb79fd	0.36616507
35	0x3f7d3465	0.9890807
36	0xbdbd1162	-0.09231831
37	0x3eac426e	0.33644432
38	0x3e8a8d4f	0.27060935
39	0xbcee9a0e	-0.029126193
40	0x3f0a457e	0.54012287
41	0x3e55f880	0.20895576
42	0x3fa44afd	1.2835385
43	0x3e57f298	0.21088636
44	0x3e9320ef	0.28736064
45	0x3ef53e48	0.4789908
46	0x3e109572	0.14119509
47	0x3d584027	0.052795555
48	0x3fa59acc	1.2937865
49	0xbda90467	-0.08252793
50	0x3e4b53e6	0.19856223
51	0xbe9ab25f	-0.3021421
52	0x3e9a40ae	0.30127472
53	0x3f2d8670	0.6778326
54	0x3e4dde9f	0.20104454
55	0x3c665baf	0.014059945
56	0x3eaf8d08	0.34287286
57	0xbe13274a	-0.14370456
58	0x3e3baf9e	0.18328711
59	0xbde4bde3	-0.111690305
60	0x3e765dd8	0.24059236
61	0xbec3f6c5	-0.38274208
62	0x3f2a045b	0.66412896
63	0x3e88ea82	0.26741415
64	0xbde45ea0	-0.11150861
65	0xbea1d334	-0.31606448
66	0x3c5812c9	0.0131880725
67	0x3d7389de	0.059457652
68	0x3e44cb79	0.19218244
69	0xbdcd1ebf	-0.1001563
70	0x3d857837	0.0651707
71	0x3edc8b9e	0.4307527
72	0x3d2df253	0.042467427
73	0x3cd8aaf2	0.0264487
74	0xbe2aa076	-0.16662773
75	0xbe2f9b83	-0.17149167
76	0xbe437cd2	-0.19090584
77	0x3f01bae6	0.5067581
78	0x3ec9faf0	0.39449263
79	0x3e5f85fe	0.21828458
80	0x3b0e6bb3	0.0021731674
81	0x3ee9610b	0.4558185
82	0x3e6f56cf	0.23372959
83	0x3f2a6d76	0.66573274
84	0x3f0b3c8c	0.5438926
85	0x3d3e39e1	0.046441916
86	0xbf01f371	-0.5076209
87	0xbe991b3e	-0.29903597
88	0x3dc37281	0.09543324
89	0x3e3b1422	0.18269399
90	0x3f92d62d	1.1471611
91	0xbd851725	-0.06498555
92	0x3f1b7600	0.6072693
93	0xbe4e0207	-0.20117961
94	0x3f0c3410	0.5476694
95	0x3ee79874	0.452335
96	0x3ec1166a	0.37712413
97	0xbea369a2	-0.3191653
98	0x3ef8a25d	0.48561373
99	0xbe78847b	-0.24269287
100	0x3d9eaa99	0.07747383
101	0x3f8be214	1.0928369
102	0x3eb8639a	0.3601349
103	0x3f08a069	0.53369766
104	0x3e68ed80	0.22746849
105	0x3f9b66e8	1.214078
106	0xbd472bad	-0.048625637
107	0x3f5ca683	0.86191577
108	0x3f3e0a55	0.74234515
109	0x3eef45fd	0.46733084
110	0x3f0873a3	0.5330145
111	0x3e82ba9d	0.25533
112	0x3e5ea083	0.21740918
113	0x3abf32c0	0.0014587268
114	0x3de9fe66	0.11425476
115	0xbcd1ee8b	-0.025626441
116	0x3f072165	0.5278533
117	0xbee7afcd	-0.45251313
118	0x3e868916	0.26276463
119	0x3e6750aa	0.22589365
120	0x3e8cfa70	0.2753482
121	0x3e8085c6	0.2510206
122	0x3f0625af	0.5240125
123	0x3e1f2350	0.15540814
124	0xbe13241b	-0.14369242
125	0x3f04e2fd	0.51908857
126	0x3f8ba042	1.0908282
127	0x3ece672f	0.40313098
128	0x3d5f1d3d	0.054471243
129	0xbc88cdae	-0.016699638
130	0xbe1f82f0	-0.15577292
131	0x3caa6c53	0.020803606
132	0x3e26225f	0.16224049
133	0xbf291763	-0.6605131
134	0x3defefa1	0.117156275
135	0xbdfbd710	-0.12296879
136	0xbd9c2bbe	-0.07625531
137	0x3cd3a55f	0.025835691
138	0x3e93093f	0.28717992
139	0xbe9fe99e	-0.31232923
140	0xbd5270a1	-0.051376943
141	0x3d12cea8	0.035841614
142	0xbf41f83b	-0.75769395
143	0xbecce475	-0.4001805
144	0x3c4592a2	0.012058886
145	0xbf18acfe	-0.59638965
146	0xbf5bc0ce	-0.8584107
147	0xbc794445	-0.015214031
148	0xbe22e0fa	-0.15906134
149	0x3e70bae7	0.23508798
150	0x3d3ce9e7	0.046121504
151	0x3f5661bf	0.837429
152	0x3e45d710	0.19320321
153	0x3b8a344c	0.00421766
154	0x3c762a1e	0.01502469
155	0xbead3faa	-0.33837634
156	0xbe322810	-0.17398095
157	0xbe930076	-0.2871129
158	0x3e423f15	0.18969376
159	0xbeb0e4ec	-0.34549654
160	0xbf205e15	-0.6264356
161	0x3ee1f7c1	0.44134334
162	0x3d9df430	0.07712591
163	0xbde31c92	-0.11089434
164	0xbec66e64	-0.38756096
165	0x3f0009d4	0.50014997
166	0xbebb988f	-0.3663983
167	0x3eb2f5ef	0.34953257
168	0x3eca82f9	0.3955305
169	0xbe9ead64	-0.30991662
170	0xbe41c0d2	-0.18921211
171	0xbdedb5b7	-0.11606925
172	0x3eb76aa0	0.35823536
173	0xbdd75db5	-0.1051592
174	0xbe7d36e1	-0.24727966
175	0x3bfbf625	0.007689255
176	0xbe25a5b1	-0.16176488
177	0xbf453a45	-0.7704204
178	0xbd0d850d	-0.034550715
179	0x3e62c341	0.22144796
180	0xbdfc6a16	-0.12324922
181	0xbe0edd90	-0.13951707
182	0xbdd940b4	-0.10608044
183	0xbe33d4f1	-0.175617
184	0xbe5f4d60	-0.2180686
185	0xbe946dec	-0.28990114
186	0xbea67543	-0.3251134
187	0x3e83ddaa	0.25755054
188	0x3e0710b2	0.13189963
189	0x3d89b0a8	0.06723148
190	0xbdf8bafd	-0.1214504
191	0xbe01f6b4	-0.12691766
192	0x3e4f9af2	0.2027395
193	0x3ce9fef4	0.028563954
194	0xbe03171b	-0.12801783
195	0xbe352cd3	-0.1769288
196	0x3ce994f7	0.028513415
197	0xbed2c2eb	-0.41164336
198	0xbed87bd7	-0.42281982
199	0xbe4329e1	-0.19058944
200	0xbeb708e4	-0.3574897
201	0xbf1d0119	-0.613298
202	0xbe4f950f	-0.20271705
203	0x3e8d4d81	0.27598193
204	0x3e4a5234	0.1975792
205	0xbe27d93f	-0.16391467
206	0xbdbe545e	-0.092934355
207	0xbee5fd51	-0.44919828
208	0xbf0cf12f	-0.55055517
209	0x3e214c7c	0.15751833
210	0xbe05470c	-0.13015383
211	0xbeceec2a	-0.40414554
212	0xbd301030	-0.042984188
213	0x3e571316	0.21003374
214	0xbe1fc37b	-0.15601914
215	0x3e855005	0.26037613
216	0xbe8887c7	-0.2666609
217	0x3e66a82d	0.22525091
218	0x3e0660d8	0.1312288
219	0xbdd5fd12	-0.1044866
220	0xbef486e6	-0.4775917
221	0x3e1c455c	0.15260834
222	0xbe91e2c5	-0.28493324
223	0xbe61161f	-0.21981095
224	0x3d7dee2c	0.061994717
225	0x3e6de10c	0.2323038
226	0xbe471a53	-0.19443636
227	0xbe036be6	-0.12834129
228	0xbf11542f	-0.5676908
229	0x3ecf054c	0.4043373
230	0x3aad1791	0.0013205876
231	0x3d4a3ae0	0.049372554
232	0x3e28ea6e	0.16495678
233	0xbf4bf681	-0.7967301
234	0xbf06c3b2	-0.5264236
235	0xbf375fc7	-0.7163052
236	0xbc80c61f	-0.015719471
237	0xbe9a41d3	-0.30128345
238	0xbe5a05f5	-0.21291335
239	0xbe8e72bb	-0.27821907
240	0xbe836aaa	-0.25667316
241	0xbe9ec682	-0.31010824
242	0xbe23b9a5	-0.15988787
243	0xbd8addca	-0.06780584
244	0xbd2de4ac	-0.042454407
245	0xbe429b27	-0.19004498
246	0x3e995620	0.2994852
247	0xbe00fdd0	-0.12596822
248	0x3ef7a8da	0.4837101
249	0x3cbecb40	0.023290277
250	0xbef9b8bd	-0.48773757
251	0x3d51df48	0.05123833
252	0x3e5ebf31	0.21752621
253	0xbf25dfbb	-0.6479451
254	0xbecf345f	-0.40469643
255	0x3da4c1c0	0.080447674

feature.weight_ih_l0_reverse f4 [512, 64]
0	0xbd87a377	-0.06622975
1	0x3f4160f5	0.7553857
2	0x3f404613	0.75106925
3	0xbf3c7166	-0.7361053
4	0x3eb33fb7	0.35009548
5	0x3f1003e2	0.56255925
6	0xbe94f109	-0.29090145
7	0xbf2528fa	-0.6451565
8	0x3f14c513	0.5811321
9	0xbf23cb22	-0.6398183
10	0x3ed8e025	0.4235851
11	0xbee65ae4	-0.4499122
12	0x3eec10df	0.46106622
13	0xbd2217b6	-0.039573394
14	0xbef731da	-0.4828022
15	0xbe6db17c	-0.23212236
16	0x3f33b585	0.7019885
17	0xbe73a224	-0.2379232
18	0xbefb6a08	-0.49104333
19	0xbe891fd7	-0.26782104
20	0x3e90714d	0.28211442
21	0x3e86964c	0.26286542
22	0x3e83fee6	0.2578041
23	0xbf8af8be	-1.085716
24	0xbe4eade5	-0.20183523
25	0x3e3d0996	0.18460688
26	0xbda01c17	-0.07817858
27	0xbf6f13c2	-0.93389523
28	0xbe864635	-0.2622544
29	0x3f34ab4d	0.70573884
30	0xbbba4817	-0.0056848633
31	0x3f68616c	0.90773654
32	0x3e76214a	0.24036136
33	0xbedf85b3	-0.43656692
34	0x3ec9266f	0.39287135
35	0x3f206de0	0.62667656
36	0xbe4d5e28	-0.20055449
37	0x3ecece98	0.40391994
38	0xbe93f064	-0.2889434
39	0x3eac4e51	0.336535
40	0xbefec78c	-0.49761617
41	0xbe8b76f9	-0.27239206
42	0xbec3f2f8	-0.38271308
43	0xbea5a0ac	-0.32349145
44	0x3f71d864	0.9447081
45	0xbe064e33	-0.13115768
46	0xbeeb3da4	-0.45945466
47	0xbf648a41	-0.8927346
48	0x3d843569	0.064555
49	0x3f1449b2	0.5792495
50	0xbf0508a6	-0.5196632
51	0x3eca56aa	0.39519244
52	0xbe58c601	-0.21169282
53	0x3ec6c874	0.3882481
54	0xbea5a4a8	-0.32352185
55	0x3f294523	0.6612112
56	0x3ecffad6	0.4062106
57	0x3f9a3288	1.2046671
58	0x3f04e7ec	0.51916385
59	0x3ede0102	0.43360144
60	0x3f809815	1.0046412
61	0xbf2f499c	-0.68471694
62	0x3e270858	0.16311777
63	0x3ecfa7c1	0.40557674
64	0xbeb5c988	-0.3550532
65	0xbed0d4ac	-0.40787256
66	0xbf92a0ac	-1.1455283
67	0x3d710517	0.058842745
68	0x3ee028a2	0.43781
69	0x3f8b07bc	1.0861735
70	0x3ee01a15	0.437699
71	0xbeacf4d6	-0.33780545
72	0x3fc67b9a	1.550647
73	0xbf4cafb3	-0.79955596
74	0xbefe3fbb	-0.49657997
75	0xbdebada4	-0.11507729
76	0xbfa1cdad	-1.2640892
77	0x3f562e42	0.83664334
78	0x3ebf8605	0.37406936
79	0xbc918c11	-0.017766984
80	0x3e58c29d	0.21167989
81	0xbebf3eb5	-0.3735253
82	0xbf8d4717	-1.103732
83	0xbf13ed02	-0.5778352
84	0xbf1f64f4	-0.6226342
85	0x3ebf3f27	0.3735287
86	0x3f00d089	0.503182
87	0x3ea8597a	0.32880765
88	0xbfc572e1	-1.5425683
89	0xbd2084ec	-0.039189264
90	0xbdff8ba3	-0.124778055
91	0xbf664b11	-0.8995829
92	0xbed23ea8	-0.41063428
93	0x3ddac4df	0.106820814
94	0xbf8d6fff	-1.1049803
95	0x3df4ca6d	0.11952672
96	0x3ea98fbb	0.3311747
97	0x3ede50fd	0.43421164
98	0x3e519d1b	0.20470087
99	0x3e42e6f5	0.19033416
100	0x3e49f97a	0.19724074
101	0x3f847bca	1.0350277
102	0xbeadf791	-0.3397794
103	0x3f3fddc0	0.7494774
104	0xbf7ed23d	-0.9953955
105	0xbf1370b7	-0.57593864
106	0xbd784142	-0.06060911
107	0xbca8c597	-0.02060203
108	0xbd1db175	-0.038499314
109	0xbf58f512	-0.8474895
110	0x3f465379	0.7747112
111	0x3da3b423	0.07993343
112	0x3f221818	0.63318014
113	0xbda16380	-0.07880306
114	0xbeecfdb5	-0.46287313
115	0x3da41ff4	0.08013907
116	0xbe4a0349	-0.19727816
117	0xb9a7f70a	-0.0003203678
118	0x3d9beb91	0.0761329
119	0x3ed454ae	0.41470855
120	0x3ec1b9fc	0.37837207
121	0x3ef143c6	0.4712202
122	0xbeee7a6b	-0.46577772
123	0xbdfb56b6	-0.12272398
124	0x3f855562	1.0416682
125	0x3e7aa45a	0.24476758
126	0xbded822c	-0.11597094
127	0x3f04ce0f	0.5187692
128	0x3db98885	0.09059242
129	0xbf6b3e32	-0.9189178
130	0x3e0778c5	0.13229664
131	0xbeb1a3cf	-0.3469529
132	0x3efdb050	0.49548578
133	0x3edb0ac4	0.4278165
134	0x3ef8ca27	0.4859173
135	0xbe9720ac	-0.29517114
136	0x3f693686	0.9109882
137	0xbedb5576	-0.4283864
138	0xbf331c8d	-0.6996544
139	0x3f198863	0.59973735
140	0x3f1e5d59	0.6186119
141	0x3f4b5061	0.79419523
142	0x3ea56855	0.32306162
143	0xbf4e38d0	-0.8055544
144	0xbfb45a8f	-1.4090136
145	0xbcfb20aa	-0.030655224
146	0xbe8327de	-0.25616354
147	0x3d823d1c	0.06359312
148	0xbf0774b4	-0.5291245
149	0x3f01db24	0.5072501
150	0x3f21417d	0.6299055
151	0xbd125017	-0.03572091
152	0xbf36b1d2	-0.7136508
153	0x3efbe21c	0.49195945
154	0x3f1a6ae4	0.6031935
155	0x3cbe0f01	0.023200514
156	0x3d705eb9	0.058684085
157	0xbed1d407	-0.40982077
158	0xbf645a20	-0.8920002
159	0xbf984ea3	-1.1898998
160	0xbf597522	-0.84944355
161	0xbec25257	-0.37953445
162	0xbf5263d7	-0.82183594
163	0xbc1bf08f	-0.009517803
164	0xbe90720c	-0.2821201
165	0xbeadfe19	-0.33982924
166	0x3f04509c	0.516855
167	0xbea053e2	-0.31313998
168	0x3f4ac627	0.79208606
169	0x3d056d46	0.032574914
170	0x3f5d1234	0.863559
171	0xbf9f9378	-1.2466879
172	0xbf9f9fff	-1.2470702
173	0xbf0ee01a	-0.558107
174	0x3e5b4c04	0.21415716
175	0xbe414c87	-0.18876849
176	0xbe018cda	-0.12651387
177	0xbeb0a481	-0.34500507
178	0x3f57d50a	0.84309447
179	0xbf55b491	-0.8347865
180	0xbd335f78	-0.043792218
181	0x3e9d803a	0.30761892
182	0xbf01414d	-0.50490266
183	0xbe04e2c4	-0.12977129
184	0xbf5aa5e0	-0.85409355
185	0x3ed932ed	0.42421666
186	0x3e7850b3	0.24249534
187	0xbca0da7c	-0.019635431
188	0xbd9950ce	-0.074861154
189	0xbda89cee	-0.08233057
190	0x3daa8bdc	0.08327457
191	0xbf074471	-0.5283881
192	0xbecb4a08	-0.3970492
193	0xbf0797e9	-0.5296617
194	0xbeb83485	-0.3597757
195	0xbf104bfc	-0.5636594
196	0x3f1dbdfa	0.61618006
197	0x3f5a4c3d	0.8527258
198	0xbe7c37d3	-0.2463067
199	0xc00ceea6	-2.202066
200	0xbe290100	-0.16504288
201	0x3db1785e	0.08665536
202	0xbe849d73	-0.25901374
203	0xbf1f7b67	-0.6229767
204	0xbeba81d8	-0.36427188
205	0x3ec432c1	0.38319972
206	0x3ef21ed0	0.47289133
207	0xbfa00a00	-1.2503052
208	0xbe8783c8	-0.2646773
209	0x3e9273fa	0.28604108
210	0x3f4226dc	0.75840545
211	0xbf386964	-0.72035813
212	0xbdc2884c	-0.09498653
213	0x3f4291f7	0.76003975
214	0xbed6726f	-0.4188418
215	0xbf0ea447	-0.5571942
216	0xbe73ac20	-0.23796129
217	0x3fa31f91	1.2744008
218	0x3eb4dfe9	0.3532708
219	0x3f709b75	0.9398721
220	0xbe0e9546	-0.13924131
221	0xbe801e26	-0.25023
222	0x3ed06c5d	0.40707675
223	0xbf5ef6b7	-0.87095207
224	0x3e8321c6	0.25611705
225	0x3f030d5a	0.5119225
226	0xbf73ac34	-0.95184636
227	0x3ebf8989	0.37409618
228	0x3f5aa7cf	0.85412306
229	0xbedb8f33	-0.4288269
230	0x3e198b5d	0.14994569
231	0xbec5fe27	-0.38670465
232	0x3ecd1ef4	0.40062678
233	0xbd5730f4	-0.05253692
234	0x3d51b289	0.051195655
235	0x3e765def	0.2405927
236	0xbe696ac6	-0.22794637
237	0xbede0aa5	-0.43367496
238	0xbf7646f9	-0.96202046
239	0xbe1e2598	-0.15444028
240	0x3e9d08ea	0.30670863
241	0xbefe53cf	-0.49673316
242	0xbe954e33	-0.29161224
243	0x3f756392	0.9585506
244	0x3ea859e8	0.32881093
245	0x3d62be60	0.055357337
246	0xbdfb770a	-0.12278564
247	0xbf4068ac	-0.75159717
248	0xbece5d96	-0.40305775
249	0x3f1451b0	0.57937145
250	0xbef903bd	-0.48635665
251	0xbf325d12	-0.69673264
252	0x3ea50637	0.32231304
253	0x3d963741	0.073347576
254	0xbde62a63	-0.112385534
255	0x3d13c227	0.03607383

feature.weight_hh_l0_reverse f4 [512, 128]
0	0xbd1ff420	-0.039051175
1	0xbe94947a	-0.2901953
2	0x3e9b12a0	0.30287647
3	0xbebca1d9	-0.3684223
4	0xbef9a30a	-0.487572
5	0x3e09849d	0.13429494
6	0xbf165b3f	-0.5873298
7	0xbeba9f1e	-0.36449522
8	0x3f64dc25	0.89398414
9	0xbef0b0f7	-0.47010013
10	0xbf756b17	-0.9586653
11	0x3e0aa1c7	0.13538276
12	0x3f4a3588	0.7898793
13	0xbeb14245	-0.34620872
14	0xbf3c2792	-0.7349788
15	0x3e183b83	0.14866452
16	0x3e05f178	0.13080394
17	0x3e890e97	0.26768944
18	0x3f36b637	0.7137179
19	0x3dad31f9	0.08456797
20	0xbe21e571	-0.15810181
21	0xbed66c16	-0.41879338
22	0x3e7ddb93	0.24790792
23	0xbeab9244	-0.3351003
24	0x3e9ba377	0.3039815
25	0xbec36bdb	-0.38168225
26	0xbf222764	-0.63341355
27	0x3ed7da92	0.42158943
28	0x3e3ed39a	0.18635407
29	0xbf596d06	-0.8493198
30	0x3ee59b9d	0.44845286
31	0x3dfa69df	0.122272246
32	0x3c2d4d49	0.010577508
33	0xbe88c5f3	-0.26713523
34	0x3e6a8c56	0.22905096
35	0xbefaac03	-0.4895936
36	0x3eb5eb88	0.3553126
37	0xbe439079	-0.1909808
38	0xbd38a48b	-0.045078795
39	0xbc8bb233	-0.017052745
40	0xbdb62f4d	-0.08895741
41	0xbf46165e	-0.7737788
42	0x3fa9b3f4	1.3258042
43	0x3f90899f	1.1291999
44	0xbc8c8b83	-0.017156368
45	0xbe08c61a	-0.1335682
46	0x3de37d1a	0.111078456
47	0x3f1e791f	0.61903566
48	0x3f0d4fd4	0.55199933
49	0x3e6e93d1	0.23298575
50	0x3f7bea20	0.9840412
51	0x3ed53506	0.41642016
52	0x3da32182	0.079653755
53	0xbf10a894	-0.5650723
54	0xbf8a2966	-1.0793884
55	0xbee670bc	-0.45007885
56	0x3f4f64e0	0.810133
57	0x3ef9312b	0.48670325
58	0xbeed92f9	-0.46401194
59	0x3ea6d99b	0.32587895
60	0xbe971257	-0.2950618
61	0xbbc3b6ad	-0.0059727044
62	0x3e6285a2	0.2212129
63	0x3de2286d	0.11042867
64	0xbe8b9e5b	-0.27269253
65	0x3e184bfc	0.14872736
66	0x3f596154	0.84914136
67	0x3f713de2	0.9423505
68	0x3f210af7	0.62907356
69	0x3f38c678	0.7217784
70	0x3eaaf559	0.3339031
71	0x3f4efa8c	0.80851054
72	0x3e7d7fcb	0.2475578
73	0x3f7f14a3	0.99640864
74	0xbde3ab9d	-0.11116717
75	0x3f0ae4a4	0.5425513
76	0xbdbf68e4	-0.09346178
77	0xbc9067c6	-0.017627608
78	0x3e86e128	0.26343656
79	0x3fa50c11	1.2894307
80	0xbf288520	-0.6582813
81	0xbd0baafe	-0.034098618
82	0xbf195fa2	-0.5991155
83	0xbbc9427d	-0.006141959
84	0x3eb4aa2b	0.35286078
85	0xbf3c5149	-0.7356153
86	0xbe0bf27e	-0.13666722
87	0xbe88d0b2	-0.26721722
88	0xbf1c68aa	-0.61097205
89	0xbefcd1b3	-0.49378738
90	0xbf409522	-0.7522756
91	0x3ee201a7	0.44141886
92	0xbcbf4bc3	-0.023351556
93	0x3eb8957a	0.36051542
94	0xbf0ad1f9	-0.5422664
95	0x3ec84505	0.39115158
96	0xbeb65ce1	-0.35617736
97	0x3f285980	0.65761566
98	0xbf309617	-0.6897902
99	0x3e51fe26	0.20507106
100	0xbeb6cd8c	-0.35703695
101	0xbf06cbdc	-0.52654815
102	0xbf2c4d74	-0.67305684
103	0x3c7f2c24	0.015574489
104	0xbc8821b8	-0.01661764
105	0x3e6a0249	0.22852434
106	0xbd8dc8c9	-0.06923062
107	0x3e5f5208	0.21808636
108	0x3ea39149	0.3194678
109	0xbcb006a0	-0.021487534
110	0xbe65ca62	-0.22440484
111	0xbe0a8bc8	-0.13529885
112	0xbe8633f2	-0.26211506
113	0x3ee09f26	0.4387142
114	0x3f3f8107	0.74806255
115	0x3f77582e	0.96618927
116	0x3f4b7b4c	0.7948501
117	0x3ed134ab	0.40860495
118	0xbe88af26	-0.26696128
119	0x3ee65c04	0.44992077
120	0x3b118134	0.0022202255
121	0xbf498367	-0.7871613
122	0xbcc773f9	-0.024347292
123	0x3ec9261d	0.3928689
124	0x3efe7d7b	0.4970511
125	0xbf204789	-0.62609154
126	0x3d2a9243	0.041643392
127	0xbf710c61	-0.94159514
128	0x3dfab7d8	0.12242097
129	0x3e2b8309	0.16749205
130	0x3f241002	0.64086926
131	0x3f1a7a45	0.6034282
132	0xbf5dddf2	-0.86666787
133	0xbe8895f8	-0.26676917
134	0x3e21e771	0.15810944
135	0xbefdb286	-0.49550265
136	0xbefe9f80	-0.49731064
137	0x3ebf3b86	0.373501
138	0xbf4696c0	-0.77573776
139	0x3e5d58d0	0.2161591
140	0xbea25972	-0.31708866
141	0x3ce28a16	0.027653735
142	0xbe7e201f	-0.2481694
143	0x3e3ac60f	0.18239616
144	0x3e9afb90	0.30270052
145	0x3e458812	0.19290188
146	0xbee363d0	-0.44412088
147	0xbf36729c	-0.7126863
148	0xbe6e1e83	-0.23253827
149	0xbde908f9	-0.113786645
150	0x3eb266f2	0.34844166
151	0x3e6011d0	0.21881795
152	0xbde491e5	-0.1116064
153	0x3e885842	0.26629835
154	0x3ef4b863	0.47796926
155	0xbdd2ca45	-0.10292486
156	0xbec798db	-0.38983807
157	0x3efe709c	0.4969529
158	0xbec27b23	-0.3798457
159	0xbb9b458d	-0.0047385157
160	0x3fb7a245	1.4346396
161	0xbc0640b0	-0.008194134
162	0xbe88233d	-0.26589385
163	0xbea6062c	-0.32426584
164	0x3e8deef1	0.2772136
165	0xbeca1830	-0.3947158
166	0xbda5d7e6	-0.0809782
167	0x3e87c0f9	0.26514414
168	0x3e87c453	0.2651697
169	0xbedd59d1	-0.43232587
170	0xbdfe3c02	-0.12413789
171	0x3e59fdde	0.21288249
172	0xbeccbd51	-0.39988187
173	0xbe1179cb	-0.14206617
174	0x3ee5b6a0	0.44865894
175	0x3e4d08b5	0.20022853
176	0xbe06ab1d	-0.13151212
177	0xbefc8d93	-0.49326763
178	0x3d545153	0.05183537
179	0x3c6cf315	0.014462252
180	0x3e18e250	0.14930081
181	0xbc32fb7e	-0.010924218
182	0xbf10dc8c	-0.5658653
183	0x3e5942ff	0.21216963
184	0xbef87dae	-0.48533386
185	0xbf3567dc	-0.708616
186	0xbd0bdccd	-0.03414612
187	0xbf0415bc	-0.51595664
188	0xbe35fd73	-0.17772464
189	0xbe3becb8	-0.1835202
190	0xbf0288bd	-0.50989896
191	0xbf91c889	-1.1389323
192	0x3e89283a	0.26788503
193	0xbfac94ad	-1.3482872
194	0xbe27385c	-0.16330093
195	0xbca17edd	-0.019713813
196	0x3e27d1cd	0.16388626
197	0x3e2e16bf	0.17000864
198	0x3dc53f1a	0.09631176
199	0x3dc3d966	0.0956295
200	0x3ea1e306	0.31618518
201	0x3eeea92a	0.46613437
202	0x3db97728	0.090559304
203	0x3e46ddf0	0.194206
204	0x3c94538d	0.018106246
205	0x3dc337bf	0.09532117
206	0xbdbc590c	-0.09196672
207	0x3f1939c1	0.5985375
208	0xbe2f514e	-0.17120859
209	0xbe91c6ec	-0.28472078
210	0xbead1da5	-0.3381168
211	0xbc57f612	-0.013181226
212	0x3ec61c56	0.38693494
213	0xbda8e458	-0.08246678
214	0xbe8b4b2b	-0.27205786
215	0x3e4f9c3d	0.20274444
216	0xbef909b4	-0.48640215
217	0xbe2a181e	-0.16610762
218	0x3f19aec2	0.60032284
219	0x3f1bb2f2	0.60819924
220	0xbdcc786e	-0.09983908
221	0x3f55e41b	0.83551186
222	0xbeb0e04c	-0.34546125
223	0x3e5cfa99	0.2157997
224	0x3f5932d9	0.8484321
225	0x3d3af457	0.045643177
226	0x3edf6600	0.43632507
227	0x3f1b86f5	0.60752803
228	0xbecd7891	-0.40131047
229	0xbdfcd45f	-0.12345194
230	0xbe53dc98	-0.20689619
231	0x3e24873e	0.16067216
232	0xbf364713	-0.712022
233	0xbea0bcb7	-0.31393978
234	0xbe84bc9d	-0.2592515
235	0x3d997a14	0.07493988
236	0x3ee8972d	0.45427838
237	0xbefae647	-0.49003813
238	0x3e619068	0.22027743
239	0xbd78c818	-0.0607377
240	0x3e33043f	0.17482089
241	0xbefe5653	-0.49675235
242	0xbe0b5dad	-0.13609953
243	0xbeaa1a91	-0.33223394
244	0xbe489b52	-0.195905
245	0xbe894c58	-0.26816058
246	0x3e42c51c	0.19020504
247	0x3e29d897	0.16586529
248	0x3f7f74a0	0.9978733
249	0xbeaed45f	-0.341464
250	0xbe1fde15	-0.15612061
251	0xbe09a4cb	-0.1344177
252	0xbf12a391	-0.5728083
253	0x3eff1eb0	0.498281
254	0x3e3c7842	0.1840525
255	0xbf6f7750	-0.9354143

feature.bias_ih_l0_reverse f4 [512]
0	0x3e9ee46f	0.31033656
1	0x3e0f198c	0.13974589
2	0x3e6f5432	0.23371962
3	0x3e9987a1	0.2998629
4	0x3e399c18	0.18125951
5	0x3e21bb48	0.15794098
6	0xbe83a31d	-0.25710383
7	0x3de68a62	0.11256863
8	0x3da17208	0.07883078
9	0xbd0a9dc2	-0.033841856
10	0x3e392eea	0.18084303
11	0xbd8cf639	-0.06882901
12	0x3dcf1f86	0.101134345
13	0x3ecb23f2	0.39675862
14	0xbee1ad12	-0.44077355
15	0xbebd5a23	-0.3698283
16	0x3ecc4b41	0.39901164
17	0xbd0b8887	-0.03406575
18	0x3eec2391	0.46120885
19	0xbe49cc49	-0.19706835
20	0x3e396814	0.18106109
21	0x3d0132df	0.031542655
22	0x3e1a38b2	0.1506069
23	0x3e1e4710	0.15456796
24	0x3cc9df4c	0.024642609
25	0xbe412249	-0.18860735
26	0x3e2a8f90	0.16656327
27	0xbde953a8	-0.11392909
28	0x3e07d62a	0.13265291
29	0xbee8db4d	-0.45479813
30	0xbe3d19f6	-0.18466935
31	0xbf28f651	-0.6600085
32	0x3f1356b0	0.5755415
33	0xbde90f29	-0.11379845
34	0xbde1359e	-0.10996555
35	0x3eff5ddd	0.498763
36	0x3ea4267e	0.32060617
37	0x3eb82b6a	0.35970622
38	0x3e5c36b1	0.21505238
39	0x3e65efcd	0.22454758
40	0x3dca89a2	0.098895326
41	0xbe90c9e2	-0.28279024
42	0xbd945822	-0.072433725
43	0xbe201b13	-0.15635328
44	0xbe45b38b	-0.19306771
45	0xbb91e595	-0.004452417
46	0x3e0e174b	0.13876073
47	0x3d763324	0.060107365
48	0x3ccd8777	0.025089009
49	0xbe03894a	-0.1284534
50	0xbcf8f9b0	-0.030392498
51	0x3e56ff1f	0.20995758
52	0x3e68356a	0.22676626
53	0xbe0084a4	-0.12550598
54	0x3ea608ad	0.32428494
55	0x3e0c2994	0.13687736
56	0xbd8dae51	-0.06918014
57	0x3e3b8fda	0.18316594
58	0x3eac0ec6	0.3360502
59	0xbdefcc78	-0.11708921
60	0x3e38f968	0.18063891
61	0x3d91827a	0.071049646
62	0x3dd378dd	0.10325787
63	0xbe115747	-0.1419345
64	0x3de8142e	0.11331974
65	0x3f069c4c	0.5258224
66	0x3e69b4f5	0.22822936
67	0x3e813f4d	0.25243607
68	0x3e8840a1	0.26611808
69	0xbe60e619	-0.21962775
70	0xbc7a0b68	-0.0152615085
71	0xbe6e8db1	-0.23296238
72	0x3e4833af	0.19550966
73	0xbe333262	-0.17499688
74	0x3e9791b5	0.29603353
75	0x3e422966	0.18961105
76	0x3f2cdd0e	0.675248
77	0xbd8992a8	-0.067174256
78	0x3d90610f	0.070497625
79	0xbd5847c5	-0.05280282
80	0xbea7c283	-0.32765588
81	0xbea0129f	-0.31264207
82	0x3da3c080	0.07995701
83	0xbe5d4849	-0.21609606
84	0xbe012d68	-0.12614977
85	0x3e9be8b7	0.30450985
86	0x3e73e931	0.23819424
87	0xbe598834	-0.21243364
88	0x3f90804a	1.1289151
89	0x3e063811	0.13107325
90	0xbd17b063	-0.03703345
91	0xbbe3d8a0	-0.006953314
92	0x3de3eb8b	0.11128911
93	0xbe76d527	-0.24104749
94	0xbe45b670	-0.19307876
95	0xbdfbe0bc	-0.12298724
96	0x3ebfc997	0.37458488
97	0x3ef0370a	0.4691699
98	0xbcb54281	-0.022126438
99	0x3e73ae00	0.23796844
100	0xbe397491	-0.18110873
101	0x3e7713de	0.24128672
102	0xbed86d07	-0.4227068
103	0xbe16fb55	-0.14744313
104	0xbeb1a2e4	-0.34694588
105	0xbed1cc93	-0.4097639
106	0x3e6b4ba7	0.22978078
107	0x3ec1f901	0.37885287
108	0x3f30212c	0.68800616
109	0x3e8a7d63	0.27048787
110	0xbd89cc3f	-0.0672841
111	0x3e5ced2d	0.2157485
112	0xbd32a38a	-0.043612994
113	0x3ba157f9	0.0049238172
114	0x3e5767f8	0.21035755
115	0x3e1d0bdb	0.15336554
116	0xbea31989	-0.3185542
117	0x3f5547c0	0.83312607
118	0x3f63fcf8	0.89057875
119	0x3e32f800	0.17477417
120	0xbe82de11	-0.25560048
121	0xbe2dd346	-0.16975126
122	0x3e3773f4	0.17915326
123	0x3ee6b792	0.45061928
124	0x3e27a0b4	0.16369897
125	0xbde9928d	-0.114049055
126	0x3d0b8ab2	0.034067817
127	0x3f07cdbe	0.5304831
128	0x3f583cc5	0.84467727
129	0x3e25a09a	0.16174546
130	0x3cd9c011	0.026580842
131	0xbe46e14d	-0.19421883
132	0xbe7049fe	-0.23465726
133	0xbdf65726	-0.12028341
134	0xbd34bc1c	-0.044124708
135	0x3ec2ceb4	0.38048327
136	0xbd421e35	-0.04739209
137	0x3dfbe0a8	0.12298709
138	0x3f0f129b	0.55887765
139	0x3f0844a1	0.5322972
140	0xbddd7d5d	-0.10814927
141	0xbeb2be94	-0.34911025
142	0x3f45b45a	0.7722832
143	0xbeb1666e	-0.3464846
144	0xbd54bf36	-0.051940165
145	0xbe4832bc	-0.19550604
146	0xbef221e5	-0.47291484
147	0xbdf4448d	-0.119271375
148	0x3dc690f7	0.096956186
149	0x3e8be5b7	0.27323696
150	0x3d9309a6	0.07179575
151	0x3eced002	0.40393072
152	0x3e57385f	0.21017598
153	0xbe3f5886	-0.18686113
154	0x3d461557	0.048360195
155	0x3ca7ff95	0.020507613
156	0x3eaf1c98	0.34201503
157	0xbedc4eb2	-0.4302879
158	0xbdd692f0	-0.10477245
159	0x3eacb9b8	0.33735442
160	0xbf264ea8	-0.6496377
161	0xbdc7ca14	-0.0975534
162	0x3ef4550c	0.47721136
163	0x3e47c01a	0.19506875
164	0xbf06d172	-0.5266334
165	0xbebc0a1f	-0.36726472
166	0xbe708e54	-0.23491794
167	0xbdd4f0eb	-0.10397514
168	0x3df47437	0.11936229
169	0xbe2d661d	-0.16933484
170	0x3f34e82c	0.70666766
171	0x3d3c13ff	0.045917507
172	0x3ec38c74	0.38193095
173	0x3ba3d9ce	0.0050003296
174	0xbf01c991	-0.5069819
175	0xbe58b472	-0.21162584
176	0x3f273c54	0.6532643
177	0xbdf7e05f	-0.12103342
178	0x3e016981	0.12637903
179	0x3f0e0e42	0.55490506
180	0xbe5b7327	-0.21430646
181	0x3e845565	0.258464
182	0x3f613d6e	0.8798436
183	0x3d1458c4	0.036217466
184	0x3d849808	0.0647431
185	0x3ac7a1a2	0.0015230665
186	0x3e89a01e	0.26879972
187	0xbe59c969	-0.21268238
188	0xbefe6e82	-0.49693686
189	0xbed54c6e	-0.41659874
190	0xbe16f227	-0.14740811
191	0x3e8e65f2	0.27812153
192	0x3e674273	0.22583942
193	0xbe16489f	-0.1467614
194	0xbe08c29b	-0.13355486
195	0xbe9e6d23	-0.3094264
196	0xbeb7e62d	-0.35917798
197	0x3e3f6d6f	0.1869409
198	0xbeb090e4	-0.34485543
199	0x3f2d54a8	0.677073
200	0x3ba563e9	0.0050473106
201	0x3e93b35f	0.28847787
202	0xbea26c27	-0.3172314
203	0xbed78645	-0.42094627
204	0xbdd8c5a9	-0.10584576
205	0xbef9b7a3	-0.48772916
206	0x3e5af34a	0.2138187
207	0x3bd8f895	0.00662143
208	0x3e6f8f2b	0.23394458
209	0xbe9c2a31	-0.3050094
210	0x3eb49ebd	0.35277358
211	0xbceface8	-0.029257253
212	0xbd5572a7	-0.052111294
213	0xbd9626af	-0.07331597
214	0xbd9da64f	-0.076977365
215	0x3cf01d27	0.029310776
216	0x3f444703	0.76670855
217	0xbe5b88be	-0.21438882
218	0xbe8c4b49	-0.27401188
219	0xbed9c3cd	-0.42532197
220	0x3ea858d3	0.32880268
221	0x3d01a309	0.031649623
222	0xbe8ceb4c	-0.27523267
223	0x3d8bad48	0.0682016
224	0xbe886f68	-0.26647496
225	0xbf10c1d4	-0.5654576
226	0x3e4efeca	0.20214382
227	0x3de48bd2	0.11159481
228	0xbe5eb901	-0.21750261
229	0xbe6a3356	-0.22871146
230	0xbc8e952f	-0.01740512
231	0x3d0e7b37	0.034785476
232	0x3dffac48	0.12484032
233	0xbb2e9fe0	-0.0026645586
234	0x3ea1cc7f	0.3160133
235	0xbde07cce	-0.109613046
236	0xbf2c2cd7	-0.6725592
237	0xbedc728e	-0.43056148
238	0xbe8a18c8	-0.26972032
239	0x3c980d42	0.01856101
240	0x3e0567a9	0.13027824
241	0xbec35ea5	-0.38158146
242	0xbe8ff13c	-0.28113735
243	0x3e9a59e6	0.30146712
244	0x3e36670d	0.17812748
245	0x3e1617dd	0.1465754
246	0x3d355057	0.04426607
247	0x3e13ec56	0.14445624
248	0x3d2522f6	0.040316544
249	0x3d299a3b	0.04140685
250	0xbe3f4158	-0.1867727
251	0xbf14a311	-0.5806132
252	0x3c297f4b	0.01034529
253	0xbe06d191	-0.1316588
254	0x3d3b4aca	0.04572562
255	0xbec04c89	-0.37558392
