logs/unk/fold_2/10-24-2022_18-58-16/model_params.pth (torch, 821283 bytes, 10 tensors)

feature.weight_ih_l0 f4 [512, 64]
000000 0b 34 57 be e7 1b a3 3f 5b 75 62 3f 97 ac 9d 3f
       -0.21015947 1.274289 0.8846032 1.2318295
000010 60 70 f9 3e f1 eb 02 3e 25 ab 90 3f 4f 95 22 3f
       0.48718548 0.12785317 1.1302229 0.63509077
000020 36 19 20 3f 9f ef b2 bf 1d c4 02 40 16 ba d0 3d
       0.6253847 -1.3979377 2.0432198 0.10191743
000030 62 57 57 3f 3d 18 83 3e 47 60 1f be 31 d3 37 bd
       0.8411771 0.2560443 -0.1556407 -0.044879142
000040 71 a8 6a 3f f2 8c 6a bf 66 74 6a be 9d 76 41 3f
       0.9166327 -0.91621315 -0.22895965 0.75571615
000050 b6 bf 2f 3f 59 0f d6 3f 73 b2 af 3e b3 d7 7d 3f
       0.686519 1.6723434 0.34315833 0.99157256
000060 25 fe d7 be a9 ef cf 3f 75 d2 30 bf 76 b2 78 3e
       -0.42186084 1.6245013 -0.6907113 0.24286827
000070 d0 ca b0 3e 8a dd 09 3f b6 3c d0 be 76 be c8 3e
       0.34529734 0.53853667 -0.4067132 0.3920781
000080 a3 6c 3a be ec 17 d9 3e d2 56 30 bf 20 6e b4 bf
       -0.18205504 0.42401063 -0.6888248 -1.4096107
000090 87 43 fa be c7 84 04 bf 0d c9 12 3f 92 66 9d 3e
       -0.48879644 -0.517651 0.5733803 0.30742317
0000a0 48 c9 e1 be 23 13 f5 3e 05 9a 30 3e cc d9 cf 3d
       -0.44098878 0.47866163 0.17246254 0.10148963
0000b0 a0 23 90 3e 4e e8 95 bf 84 9d 18 3f 08 15 00 3d
       0.2815218 -1.1711519 0.5961535 0.031270057
0000c0 33 26 37 3f b1 46 0e bf d4 17 57 3e 63 59 25 3f
       0.7154266 -0.55576617 0.21005183 0.6458952
0000d0 c3 1d 2b 3e 1a 24 8b be 9e cf ce be bd 3d ca bf
       0.16710572 -0.2717598 -0.40392774 -1.5800091
0000e0 55 82 8b be fb b8 bc 3f 0c 2a 4e bf eb d9 55 bf
       -0.27247873 1.4743952 -0.8053291 -0.8353564
0000f0 87 3b eb be 3d 63 a3 bc 81 55 18 bf b7 8c 14 be
       -0.45943853 -0.019944781 -0.5950547 -0.14506803
000100 a1 7f 07 bb 8a 17 93 3f ec 24 9a 3f 5a 63 b5 3e
       -0.0020675438 1.1491559 1.2042518 0.35427362
000110 23 ee 83 3e 78 73 5a 3e 7b 56 41 3e 00 9c 8a bf
       0.2576762 0.2133311 0.18880646 -1.0828857
000120 95 de a4 3f 26 38 f3 be 3c 3d dc 3f ce e7 4b 3f
       1.2880427 -0.47503775 1.7206187 0.7965058
000130 34 28 6d 3f bf 00 7c bf 83 d8 18 3d 0b 6a 89 bf
       0.9263947 -0.9843864 0.037315857 -1.0735487
000140 2f 52 54 bf 64 a2 68 3f dc d7 8b be cc c3 93 bf
       -0.829379 0.9087279 -0.27313125 -1.1544127
000150 73 50 48 be 34 69 97 3e 90 21 87 3e 18 36 f6 be
       -0.19561939 0.2957245 0.26392794 -0.48088145
000160 02 79 cf 3f d4 e9 8e 3f 0d 2a 59 bf d7 11 0d bf
       1.6208804 1.1165109 -0.8482979 -0.55105346
000170 09 f4 2b bf 20 ef 9d 3f 86 16 67 be 02 64 a2 bf
       -0.67169243 1.23386 -0.22567186 -1.268677
000180 b9 c7 52 3f 95 9f 13 be 02 e8 c2 bd f1 50 83 3e
       0.82336 -0.14416344 -0.09516908 0.2564769
000190 46 65 a4 bd 98 06 61 bf 20 30 2b be 73 2a 55 3f
       -0.08027129 -0.87900686 -0.16717577 0.832679
0001a0 8a 35 f2 be 9a 7e 31 bf df d8 98 bf 6d 9d e3 be
       -0.47306472 -0.69333804 -1.1941184 -0.44456044
0001b0 59 95 d2 be 40 31 3a 3f 27 e1 93 3f a4 5d ef 3e
       -0.41129568 0.727314 1.1553086 0.4675113
0001c0 c9 41 b8 be 64 81 42 3f 5f 77 dc 3e 7e e0 20 bf
       -0.3598769 0.75978684 0.43059823 -0.6284255
0001d0 05 21 98 bf e3 fc 87 3c cf 8e b6 3e 75 01 bb bf
       -1.1885077 0.016600078 0.3565583 -1.460982
0001e0 1f 0a 9a 3e 20 1a e8 ba 67 7a 43 bf a6 56 09 bf
       0.30085847 -0.0017707981 -0.76358646 -0.5364784
0001f0 8a f7 96 be d8 2b 76 3c 7e 5c cd bf 89 17 91 3f
       -0.29485732 0.015025102 -1.6043851 1.1335307
000200 40 9c f9 be 04 16 0d bf 91 c2 96 bc 1c d3 cc 3d
       -0.48752022 -0.5511172 -0.018403323 0.100012034
000210 6a ce b9 3e 77 17 fa 3e 63 6b 80 3e f9 8e 80 bf
       0.36290294 0.48846027 0.2508193 -1.0043632
000220 ef 24 70 3f 7e ab 9f 3e 71 7c ab 3e 82 14 ec 3e
       0.93806356 0.31185526 0.3349338 0.46109396
000230 ba ce 78 be bc f2 40 3e 6b 5a 95 3e 0c 16 c8 be
       -0.2429761 0.18842596 0.29170546 -0.3907932
000240 70 4f a9 3e 7d a0 49 3f d1 0c b1 be 01 2d e5 3c
       0.33068419 0.7876051 -0.3458009 0.027975561
000250 29 fb d7 be 9d 1c f3 3e c6 f8 d5 be 1c 0d fc bf
       -0.42183807 0.47482768 -0.41791362 -1.9691501
000260 5b cf d7 be 3e 09 10 3f 9d 49 32 3e c5 71 ae 3e
       -0.42150387 0.562641 0.17410894 0.34071174
000270 be f7 ec bd 6c 91 20 bf 73 42 26 be c0 2b 20 bf
       -0.115706906 -0.62721896 -0.16236286 -0.6256676
000280 d5 78 3b 3e 96 7c 13 3f 4d 65 2f bf 76 38 02 bf
       0.18307813 0.5761198 -0.6851395 -0.508674
000290 2f de c4 3e 3e 60 bd be e1 3e b0 3e bb 3f 3d bf
       0.38450763 -0.3698749 0.34422973 -0.7392537
0002a0 09 6b 09 3f f2 cc 62 3f b5 4d 12 bf bb da 89 3f
       0.5367895 0.8859397 -0.5714982 1.0769876
0002b0 64 79 8e bf 77 d6 48 bf 0c c9 60 bf 61 30 09 3e
       -1.1130795 -0.7845225 -0.87806773 0.13397361
0002c0 c7 e1 33 bd ec d0 6d 3e 50 72 2f be 16 b6 35 bf
       -0.04391649 0.23224229 -0.1713345 -0.70980966
0002d0 4e c8 78 be fe d4 e3 3e d8 c7 15 bf 25 81 19 3f
       -0.2429516 0.44498438 -0.5850806 0.59962684
0002e0 a4 8c 04 3d ec eb a5 ba 62 ce 4a bf 91 7c d9 3f
       0.032360688 -0.0012658811 -0.79221165 1.699114
0002f0 46 35 8a be 7b 43 f7 3e 14 26 12 be e8 7b 28 be
       -0.2699377 0.4829367 -0.14272338 -0.16453516
000300 ac 89 02 be 81 cc 00 3f 9f ea 7c bf d7 44 8d bd
       -0.1274783 0.5031205 -0.98795503 -0.06897896
000310 95 34 0f bf 06 ea 9a 3f c4 67 82 be 44 49 29 3f
       -0.5593961 1.2102668 -0.25469792 0.6612742
000320 2e 8e 9e 3e 89 25 22 3e 2a 06 10 3f 65 e6 be bd
       0.3096785 0.15834631 0.56259406 -0.09321288
000330 ac 4f c1 3d 9d d1 74 be 1b a8 1b bf a9 91 0f bf
       0.09439024 -0.23908086 -0.60803384 -0.56081635
000340 48 a3 56 be c0 8c 80 3f 8f 4b 98 be 6e 62 b4 3d
       -0.20960724 1.0042953 -0.29745147 0.088078365
000350 c3 b9 a2 3e 5f 97 bf 3e ff 76 8a be 68 b6 0f bf
       0.3178235 0.37420174 -0.27043912 -0.56137705
000360 63 0b 69 3f 9c 1f 44 3f 39 89 18 3f bb f6 c8 3e
       0.91033 0.7661073 0.59584385 0.3925074
000370 ea 8c 6b be 98 63 db be 4f 7c 06 3f 39 05 0d bf
       -0.23002973 -0.42849422 0.5253343 -0.55086094
000380 f9 1b ea 3f 5e 41 02 be ec fe c9 3e 5b 9c dd be
       1.8289787 -0.12720248 0.39452302 -0.43283352
000390 84 64 4e be 0d bb f0 bd 33 76 88 bf a5 99 ae 3e
       -0.20155531 -0.11754427 -1.0661072 0.34101596
0003a0 1d bd 07 3f 1f 67 27 3e a4 cb 35 bf 34 ad 20 3f
       0.5302294 0.16347931 -0.71013856 0.62764287
0003b0 11 b0 92 3e a5 c1 51 3e 13 a8 e2 bb 2e ea 41 3f
       0.28649953 0.20484026 -0.0069170087 0.75747955
0003c0 a0 f6 48 be e1 63 03 3f 1d 6a 10 bf 4e 73 bf 3e
       -0.1962533 0.5132428 -0.56411916 0.37392658
0003d0 ad 44 89 3e f7 74 27 bf f0 08 05 bf d3 8d ca 3d
       0.26810208 -0.6541285 -0.5196676 0.09890332
0003e0 1d a4 16 3f 7b e3 9b 3d 77 f4 3f bd e0 5c 23 be
       0.58844167 0.07611748 -0.046864 -0.15953398
0003f0 9f ce b0 3d 65 72 bd 3d a6 6a 05 be 48 46 ec 3e
       0.0863316 0.09250335 -0.13028964 0.4614737

feature.weight_hh_l0 f4 [512, 128]
000000 a3 55 57 3e 5d e9 f0 3e ee 02 19 bf 8d 10 81 be
       0.21028762 0.47053042 -0.59770095 -0.2520794
000010 5a 00 84 3e 30 e5 94 3e 94 d2 27 bf 24 9a 94 3d
       0.25781518 0.29081106 -0.6555569 0.072559625
000020 3d ef 85 3f a9 df ed 3e ec 1a 7b bf d4 95 94 3e
       1.0463635 0.46459702 -0.98087955 0.2902056
000030 59 da d7 be 83 24 85 bf b7 a8 41 3e e7 50 4c be
       -0.42158774 -1.0401767 0.18912016 -0.19952737
000040 1f 75 81 3f 2a af 7a bf be 6e 21 3e f9 94 b2 3f
       1.0113868 -0.9792353 0.15764901 1.3951713
000050 1e 1c e3 3e eb df 6b 3d c0 8f b4 be d9 48 1d be
       0.4435739 0.05758659 -0.35265923 -0.1535982
000060 97 58 01 bd 3e 4f be bd 90 05 88 3e 84 3d b3 3e
       -0.031578626 -0.09292458 0.26566744 0.3500787
000070 8e 31 31 bf e5 cc e8 be 8a 85 2c bf 0c 16 b9 bd
       -0.6921624 -0.45468822 -0.67391264 -0.09037408
000080 24 74 3f be e5 dc e6 be d6 da 14 bf ed 54 5d bf
       -0.18696648 -0.45090404 -0.5814642 -0.8645771
000090 a4 ec ad 3e 95 79 33 3f 9e ab 39 3e 90 ed 8a 3e
       0.33969605 0.70107394 0.18131873 0.2713437
0000a0 54 37 82 3e ed 6b c1 bd 77 7e 40 3f c0 f9 c4 3e
       0.25432837 -0.09444413 0.7519297 0.38471794
0000b0 75 ee 99 3e b1 34 c8 3d 91 1e 1c 3e bd 82 35 be
       0.3006474 0.09775675 0.15246035 -0.17725654
0000c0 8f 74 34 3f 9d 90 a6 3d 6f da 81 bd 1c 54 12 bf
       0.70490354 0.081330515 -0.06340491 -0.5715959
0000d0 11 08 08 be 66 f8 8d 3e bf 60 2a 3f bb b7 f9 3e
       -0.13284327 0.27728575 0.6655387 0.48772988
0000e0 b9 01 d0 3e f6 dd da be 56 00 9a 3d 12 9f f9 be
       0.40626314 -0.42747468 0.07519595 -0.48754174
0000f0 cd d7 77 3d a0 24 74 be 6c ca 4d 3f 53 34 2b be
       0.060508538 -0.23842096 0.80386996 -0.16719179
000100 a1 a9 9e 3e d4 19 ae be 8f de 92 3e de 3d 03 bf
       0.30988792 -0.3400408 0.28685424 -0.51266277
000110 d5 f5 23 3e ca 95 74 3e a9 4a 2c be 11 34 4e 3f
       0.16011746 0.23885265 -0.16825356 0.805482
000120 d4 05 02 3f a0 ef 11 bf 72 4c 27 3d 50 3e a4 be
       0.50790143 -0.57006264 0.04084439 -0.3207879
000130 3e 79 b5 bd a0 2f 21 3d 72 38 b0 3e c1 14 c3 3e
       -0.08861016 0.03935206 0.34418064 0.3810177
000140 08 3e e9 bd 72 98 02 3f 4d 2b b7 3e 7f 30 bd be
       -0.11388785 0.51013863 0.35775223 -0.36951062
000150 81 11 1b bf b4 37 ca be 35 15 ce 3d 43 62 15 be
       -0.60573584 -0.39495623 0.10062639 -0.14588265
000160 f1 3f 96 be 43 ed f4 bd 10 d7 48 be c8 9c fe be
       -0.29345658 -0.119593166 -0.1961329 -0.4972899
000170 9d 87 99 3e c8 01 f5 be d5 29 de 3e 19 b1 4c bf
       0.29986277 -0.4785292 0.4339129 -0.7995773
000180 29 52 62 3c 2c d5 df 3d d1 dc 50 3f 1c 01 3d bf
       0.013813534 0.10929331 0.8158694 -0.7382982
000190 b3 3b c9 bd 92 48 1a 3e c7 fc a0 be 01 9b 2b bf
       -0.0982584 0.15066746 -0.31442854 -0.6703339
0001a0 c7 ff 9f 3e 9a 65 a8 3e 13 52 54 be c5 92 e6 3c
       0.3124983 0.32890016 -0.20734434 0.028146157
0001b0 4a 7e c7 3d 65 87 56 3e f6 08 86 3f cc 86 25 be
       0.097408846 0.20950086 1.0471485 -0.16164702
0001c0 25 31 29 bf 68 5f 8c 3e a2 f1 8d bd 8d 9f f6 3b
       -0.66090614 0.2741654 -0.069308534 0.007526344
0001d0 ef ef 62 bf d0 34 d8 be 8a 0f 26 3f 81 fa f9 3e
       -0.8864736 -0.42227793 0.6486746 0.48823932
0001e0 3f e5 07 3f 0c 2a 06 3f 45 bf 66 bf 72 3b 60 be
       0.53084177 0.5240791 -0.90135604 -0.21897677
0001f0 02 9e 10 bf 50 23 87 be ef b8 ea be 84 f1 1f 3f
       -0.564911 -0.2639413 -0.45844218 0.624779
000200 03 5b 19 3f 7d e5 38 3c ad ba 4f be c5 c7 b5 bd
       0.599045 0.011285183 -0.20286055 -0.08875994
000210 a7 06 2f 3f db 5a 21 3f 67 d4 a5 be 17 fb 06 3f
       0.68369526 0.6302926 -0.32388613 0.5272688
000220 d8 ac 09 bf 7b 19 3a be 74 70 fb 3c fd 6c 82 be
       -0.53779364 -0.18173783 0.03069327 -0.25473776
000230 db e1 5d be 1e cc e5 3e cb c7 0a bf dc f1 a6 be
       -0.21668188 0.44882292 -0.5421111 -0.326064
000240 ef 46 bb 3e b1 27 c8 be 8e 0f 6c 3f ce b6 c1 3e
       0.36577556 -0.39092782 0.92211235 0.3783478
000250 1d ca 12 be fe b7 88 bd 5b 9d 1b bf c7 ac c7 bc
       -0.14334913 -0.06675719 -0.6078698 -0.024374379
000260 72 7b 18 bd 85 86 ea 3e 36 5a 35 3f 4d 58 be 3e
       -0.0372271 0.45805755 0.70840776 0.37176743
000270 91 a8 10 3f dd c7 31 3d c4 d0 dd bf a4 4b 62 bf
       0.5650721 0.043403495 -1.7329335 -0.8839667
000280 86 51 82 be 3c 78 fc 3e 8f 71 a0 3e ca c7 eb be
       -0.25452822 0.49310482 0.31336638 -0.46050864
000290 de 78 32 3e 91 7c c8 bd 6f 7b 4d be bb e1 79 3e
       0.1742892 -0.09789384 -0.20066617 0.24402516
0002a0 79 89 57 bf 48 2a 90 bf 9d b2 0c 3c c4 3e 1c 3f
       -0.8419414 -1.1262903 0.008587507 0.6103327
0002b0 f0 9d 14 3e d8 81 d0 bd d2 a2 3e bf d0 e7 af 3e
       0.14513373 -0.10181016 -0.74467194 0.34356546
0002c0 12 56 48 bc 2a 63 d4 3e 73 7d 9e be 70 77 8f 3f
       -0.012227552 0.41481906 -0.30955085 1.1208324
0002d0 25 4a 01 3f 07 a3 10 3f 13 04 9c bd ad 56 2c 3e
       0.5050376 0.5649876 -0.076179646 0.16829939
0002e0 fa 6c 43 3f d9 f7 07 bf df 1f 0e bf d6 1b fa be
       0.7633816 -0.5311256 -0.5551738 -0.48849362
0002f0 79 60 49 3f a3 31 fd 3e 97 a9 a4 bc a8 40 35 3f
       0.7866283 0.49451932 -0.020100398 0.7080178
000300 25 d0 84 3e 2d 34 db be 1c bb 46 be da 10 dd be
       0.25940052 -0.42813244 -0.19407314 -0.4317692
000310 65 1a 0b 3f 8a 6d a0 be b9 38 51 bf 61 9f 0a be
       0.5433715 -0.31333572 -0.81727177 -0.1353736
000320 6d ac 49 bf 6a 19 0e 3d ef 8f 9c bf f6 6e 82 3d
       -0.78778726 0.034692205 -1.2231425 0.0636882
000330 17 c6 cf be 5f ee 6e 3b 48 6b dc 3e 61 04 a6 3e
       -0.40580818 0.0036457998 0.430506 0.32425216
000340 ce 5e 0a 3f de d1 b5 be 25 8f bb 3e 31 a0 02 3f
       0.5405091 -0.35511678 0.36632648 0.5102568
000350 15 75 71 be d1 65 c8 3e c6 7f 09 3f bf 4a b8 be
       -0.2357982 0.3914018 0.5371059 -0.35994527
000360 48 35 be 3e 2c ce 95 be da f5 92 3c bc c7 ba bd
       0.37150025 -0.2925886 0.017939497 -0.091201276
000370 48 5b 3b 3f f3 3a 08 be 49 28 5e 3e 34 f3 ab bd
       0.7318616 -0.13303737 0.21695055 -0.08395997
000380 f0 66 8c bd ec 30 c3 be 4c 4b 91 3f 78 21 c3 be
       -0.06855571 -0.38123262 1.1351104 -0.38111472
000390 7f 00 3a bf 85 6e 01 3f 13 e9 a8 3d af 96 24 3f
       -0.72657007 0.50559264 0.082475804 0.64292425
0003a0 a6 ee 72 be b9 1c bb 3e 95 3e 31 bd 6c e5 7c be
       -0.2372385 0.3654535 -0.043272574 -0.24696892
0003b0 c3 5e 27 bf b6 41 c3 3d a5 be 9f bd 14 16 e5 be
       -0.6537897 0.09534018 -0.078000344 -0.44743407
0003c0 33 57 a9 3f e7 20 2d bf 66 d0 24 3c af 41 a3 bc
       1.3229736 -0.6762833 0.010059452 -0.019928781
0003d0 09 51 20 3f 97 bb 0d bf 70 c6 c9 3d a7 a4 2d be
       0.6262365 -0.55364364 0.09852302 -0.16957341
0003e0 51 5f cf bc 3a 4c 8a bd 05 08 35 3e 22 96 94 3d
       -0.025314005 -0.0675282 0.1767884 0.07255198
0003f0 a1 26 30 bf 42 fb 1b bf a6 1b 01 3f fb 09 75 3f
       -0.68808943 -0.60930264 0.50432813 0.95718354

feature.bias_ih_l0 f4 [512]
000000 f4 1f db be c0 c9 fa 3e 6b d6 2b 3e cb 5e 65 bf
       -0.42797816 0.48982048 0.16781013 -0.8959777
000010 15 a3 8f be b4 1c 98 3c b5 68 07 3e b3 6c 58 be
       -0.2805411 0.018568374 0.13223536 -0.21135215
000020 22 6f 42 3e 8f a8 c1 3e d0 94 29 3e 9b 20 ee be
       0.18987706 0.37823913 0.16560674 -0.4650925
000030 fd 61 b6 be 4e 46 85 be e8 7d cb 3c d7 93 9c be
       -0.35621634 -0.260302 0.02484031 -0.30581543
000040 ac cd 5e 3f ac 62 21 be e9 39 00 be b8 49 92 be
       0.8703258 -0.15760297 -0.12522091 -0.28571868
000050 97 6c 13 be 83 3d 78 be 8b 84 ce 3e bf 9c a8 be
       -0.14396892 -0.24242215 0.40335497 -0.32932088
000060 f9 5f 36 3e 90 e1 f9 be 5d 68 a9 3e e2 b3 92 3d
       0.17810048 -0.48804903 0.33087435 0.07163216
000070 99 d4 e7 3d 6f ba 35 3e e9 40 94 3e 4e 20 40 3e
       0.11319847 0.177469 0.28955773 0.18762323
000080 5f 11 ad bd 22 21 6b be 9c 40 ad 3e 48 f9 83 3d
       -0.08450579 -0.22961858 0.33838356 0.06444031
000090 bf 05 63 be 5b 3e a1 3e 26 4c 6b be 48 85 b1 3e
       -0.2217016 0.31492886 -0.22978267 0.34671998
0000a0 f9 0d d8 3e a3 9b 1f 3d 17 4b 74 3e 40 0e b9 bd
       0.4219816 0.038966786 0.2385677 -0.09035921
0000b0 df 5f 2a be b4 66 f9 3e 49 57 5d 3e 9c 4a c3 3e
       -0.16638134 0.4871117 0.21615328 0.3814286
0000c0 6d b8 8a 3e bf 52 be 3e 32 49 98 be 94 a0 37 3d
       0.2709383 0.37172505 -0.29743344 0.044830874
0000d0 23 54 d4 be 86 2c ff be 79 c9 02 3e 0b 98 e2 bd
       -0.4147044 -0.49838656 0.12772168 -0.11064156
0000e0 3c 81 a1 3e ef c7 53 be 6d f6 d8 3d 95 c7 80 3e
       0.3154391 -0.20681737 0.10593877 0.2515227
0000f0 0b 36 7f be 93 fe bc be 6b 7c cb bd d3 42 82 3e
       -0.2492296 -0.36912975 -0.0993584 0.25441608
000100 6e bf a0 3d f7 44 4e be 9d 6a b7 3e 5c 23 58 3e
       0.07849012 -0.20143496 0.35823527 0.21107239
000110 a5 cb 21 3e 96 9f 36 3d 99 a4 5e bc 00 73 d8 be
       0.1580034 0.044585787 -0.013589048 -0.42275238
000120 de 02 98 3e 3d 0f 7e 3f 45 1e da 3e 18 2f 9f 3e
       0.29689687 0.99242 0.4260122 0.31090617
000130 47 17 d5 3d 63 38 96 be 62 9b 79 3e af 74 1f bf
       0.104048304 -0.29339895 0.2437568 -0.6228742
000140 37 6d 8e be 8f 41 89 be df 91 dc 3e 67 83 c8 3d
       -0.278177 -0.2680783 0.4308004 0.09790688
000150 60 8c 3c 3d da fc 2c be 01 c1 59 bd 82 82 91 bc
       0.04603231 -0.1689333 -0.05316258 -0.017762426
000160 04 42 66 be ca 0f 40 be 90 84 f0 bb 60 51 9b 3e
       -0.2248612 -0.18756023 -0.0073400214 0.30335522
000170 69 dd 5b be 55 27 3e bf dc aa 92 bb b8 93 f0 3d
       -0.2147118 -0.74278766 -0.0044759344 0.11746925
000180 7b 59 ba 3d 50 24 2c 3e a2 81 7b 3e c1 b7 bf 3e
       0.09099098 0.16810727 0.2456117 0.3744488
000190 ea c4 a4 3d 45 f2 17 bf 4c 0b a1 3d 1f 83 88 be
       0.08045371 -0.5935405 0.07863483 -0.26662537
0001a0 65 de 63 be 81 b7 96 3c bd 34 db 3d dc 64 82 be
       -0.22252806 0.018398048 0.107034184 -0.25467575
0001b0 da b2 99 be a9 12 e6 bd e5 3d bf bd ee c1 a0 3e
       -0.30019265 -0.11234028 -0.09337977 0.31397957
0001c0 5e 3b 27 3d f2 98 d6 bd c8 f1 25 bf d2 8a e0 be
       0.0408281 -0.10478391 -0.64822054 -0.43855911
0001d0 4b db 38 3f 9e 92 26 3d a3 fd 0d bf 49 50 81 be
       0.72209615 0.04066717 -0.55465144 -0.25256565
0001e0 11 03 0c be f1 da 51 be 52 71 94 bd 68 9f bd be
       -0.13673045 -0.20493676 -0.07248177 -0.3703568
0001f0 28 51 08 bf c0 d8 3e be 96 81 09 3f 5c 2d 49 bd
       -0.53248835 -0.18637371 0.5371336 -0.049115524
000200 21 80 3d 3e 85 21 b4 3e ee 1b 0b bd ac 77 4c be
       0.18505909 0.35181823 -0.033962183 -0.19967526
000210 ea 19 87 bc 6d 22 95 be 74 dd a9 3d 26 44 01 be
       -0.016491849 -0.29127827 0.08294192 -0.12623653
000220 39 ce 37 3d d1 f6 98 be 2c d8 9b be 31 f2 f7 bd
       0.044874404 -0.29875806 -0.30438364 -0.12106741
000230 ce 02 99 3c e3 50 2c bf 10 ad ff 3c fc e3 09 bf
       0.018678095 -0.67310923 0.031210452 -0.538635
000240 47 cb af be 9c d9 e4 be 44 6a 8a bb 00 03 09 3e
       -0.34334776 -0.44697273 -0.0042240936 0.1338005
000250 0a 1c 59 be a1 01 2c 3e e7 af 87 be 4c 76 aa be
       -0.21202102 0.16797496 -0.2650139 -0.33293378
000260 66 94 36 bd f9 93 22 bf cd 9a 48 bf 94 4f 41 be
       -0.044575118 -0.6350704 -0.7836121 -0.18878013
000270 07 7f e1 3c 7d 5e a6 be 7a 65 e5 be 7f 9a d1 3e
       0.027526392 -0.32493964 -0.44803983 0.40938184
000280 e2 e9 ca be 59 b3 66 bb 01 f4 f7 be e3 72 45 3e
       -0.39631563 -0.0035202114 -0.48428348 0.19282107
000290 b3 14 dd be 94 cf 87 bd 55 bc 99 be eb a8 81 3d
       -0.43179855 -0.06631389 -0.30026498 0.06331047
0002a0 0f 01 c1 be 5e 0d a2 be 7d 58 18 bf 1b c5 d8 be
       -0.3769612 -0.31650823 -0.5951002 -0.4233788
0002b0 8c 3d 02 bf 41 f9 c9 3d c4 db 07 3f a3 a2 0c bf
       -0.50875163 0.098619945 0.5306971 -0.54935664
0002c0 6f 08 2a 3d 77 4b c8 be 8d 17 9e 3e 56 29 c6 3b
       0.04151195 -0.39120075 0.30877343 0.006047408
0002d0 43 b8 23 3d 8b db b8 be af 10 39 be 09 61 aa be
       0.039970648 -0.36104998 -0.1807277 -0.33277157
0002e0 b8 d8 a4 3e 90 92 d5 bd 5e 39 91 bf 03 f0 69 bd
       0.32196593 -0.10428345 -1.1345632 -0.05711366
0002f0 2f 12 9d bd 8b 65 e2 bd 53 68 51 be 42 34 3c 3e
       -0.07669484 -0.11054524 -0.20449953 0.1837931
000300 5d 43 4b 3e da a8 27 be 44 f4 46 bd 20 75 43 bf
       0.19849916 -0.16373006 -0.048572794 -0.76350594
000310 f2 a2 05 bf 1b 8d 7f be 8b 6b b1 3d e6 74 43 bd
       -0.5220176 -0.24956171 0.0866309 -0.047718905
000320 eb d8 6b be 77 12 9f bc 36 4e fc be 24 94 a5 bd
       -0.23031966 -0.019417984 -0.4927842 -0.08084896
000330 53 d4 0e 3f e8 01 43 bd 45 da 91 be 3c c7 5d bd
       0.5579273 -0.04760924 -0.2848684 -0.054145083
000340 5a 4a d8 be c3 c8 50 be 38 f6 a0 be 7e 09 27 3e
       -0.42244226 -0.20389085 -0.3143785 0.16312215
000350 18 3a 95 be cb f3 19 be 96 1e 20 be 51 03 bb bd
       -0.29145885 -0.15034406 -0.15636668 -0.09131492
000360 0f be 85 be 76 0a d2 bd d9 a8 c4 be a9 c5 d3 be
       -0.26121566 -0.102559015 -0.3841007 -0.4136174
000370 48 19 9b be 24 0e 40 be 85 a5 82 3e b4 ca 51 3e
       -0.30292726 -0.18755394 0.25516906 0.20487481
000380 00 5a a4 3d da 11 d1 be 72 53 ab 3e 37 14 5c 3e
       0.08024979 -0.40833932 0.334621 0.21492086
000390 d2 89 54 bd 37 5f f1 be a4 9a 09 bb 46 e6 81 be
       -0.05188925 -0.47142956 -0.0020996714 -0.25370997
0003a0 63 47 5a bf a3 7c 88 bd 42 8e 5b bc f8 02 fe bd
       -0.8526518 -0.066643976 -0.013400616 -0.1240291
0003b0 48 bf 32 bf f0 df fc be b7 b2 68 bd e4 9e 42 bf
       -0.6982312 -0.493896 -0.05681106 -0.760237
0003c0 9a 0a 99 bb 4d 38 b2 3e b1 86 c4 be 6d 97 ab 3d
       -0.0046704533 0.3480858 -0.3838401 0.083784916
0003d0 cb 85 b4 be 89 fb 40 be 60 84 3b 3d 05 58 60 3e
       -0.35258326 -0.18845953 0.04578054 0.21908577
0003e0 c3 db 65 be b9 bc 03 3f 5a 11 28 3e b8 ef f2 bd
       -0.22447114 0.5145984 0.16412869 -0.11862129
0003f0 49 47 ce 3e f7 c1 91 3d 92 f2 32 3e 5d 86 84 be
       0.4028876 0.07117074 0.17475346 -0.2588376

feature.bias_hh_l0 f4 [512]
000000 0a d9 b3 be cf a6 01 3f 65 11 61 3d 4b c9 7a bf
       -0.35126525 0.50645155 0.05494823 -0.979634
000010 ec 56 90 be ab 77 06 be 08 15 73 3d be b5 6a be
       -0.28191316 -0.13131587 0.05934623 -0.22920892
000020 4d f9 7c 3e e9 49 c5 3e fb 2d 84 3d 78 50 c8 be
       0.24704476 0.3853295 0.064540826 -0.39123893
000030 88 23 e4 be 6a 0b 1f be 24 8a 5b 3e 74 28 1e bf
       -0.44558358 -0.15531698 0.21439415 -0.61780477
000040 49 b8 51 3f 25 ce 18 be b6 e8 ea bd 46 bc fe be
       0.8192182 -0.14922388 -0.11470167 -0.49753016
000050 e1 cc 37 be 80 55 1d be 99 ed 7f 3e 63 86 98 be
       -0.17949249 -0.15364647 0.2499298 -0.2979003
000060 33 90 74 3d c7 c4 02 bf 22 7f 9a 3e e0 bb 82 3d
       0.05970783 -0.5108151 0.3017512 0.063834906
000070 16 ca 07 3e d5 62 c7 3c 5c 95 b3 3e 62 51 41 3e
       0.13260683 0.024339119 0.3507489 0.18878701
000080 18 ad 6e be 3e 8c 0e be 36 65 e4 3e 47 ba 2b 3e
       -0.23308218 -0.13920686 0.44608468 0.16770278
000090 6c 5b d4 be 24 b0 00 3f f3 e7 35 be 4f 43 ba 3e
       -0.41476 0.5026877 -0.17764263 0.36379477
0000a0 97 43 b8 3e 87 47 01 3d 48 fd 60 3e 53 9c fb bd
       0.35989067 0.031562354 0.21971619 -0.12285676
0000b0 de b1 bf bd c3 6b c9 3e fa 07 83 3e 44 a4 4c 3e
       -0.09360097 0.39340028 0.25592023 0.19984537
0000c0 df 8f a6 3e 08 76 c2 3e 13 31 aa be 0d b7 d4 bd
       0.3253164 0.37980676 -0.33240566 -0.10386477
0000d0 df cc e7 be 4b 51 e5 be 43 7b ff 3d a8 6d fc bd
       -0.45273492 -0.44788584 0.12474682 -0.12325603
0000e0 c2 44 94 3e d0 d3 1a be c1 13 be 3d 25 a0 25 3e
       0.28958708 -0.15119863 0.092811115 0.16174372
0000f0 d9 47 47 be 94 39 e9 be 6a ec f7 bd 1d 3a 85 3e
       -0.19461001 -0.4555174 -0.12105639 0.260209
000100 9d bb 91 bd ea 83 8e be 0c e7 a7 3e 02 19 06 3e
       -0.071158625 -0.27835017 0.32793462 0.13095477
000110 de 8a a1 3d d5 ba 5a 3d b0 6d ac bd f8 13 e1 be
       0.07887815 0.053400833 -0.08419359 -0.43960547
000120 90 80 66 3e 75 1f 86 3f 7c 42 fe 3e 3a 24 8a 3e
       0.2250998 1.047835 0.496601 0.26980764
000130 67 b2 c2 3d 7d 0e ba be ee 09 24 3e 1a 06 e5 be
       0.09506684 -0.3633918 0.16019413 -0.44731218
000140 b5 f3 85 be a4 67 71 be 7e d3 9e 3e 49 d2 02 3d
       -0.26162496 -0.23574692 0.3102073 0.031938825
000150 67 e6 5b bd 36 48 84 be 82 c3 19 be b4 12 07 3e
       -0.053686526 -0.25836343 -0.15015987 0.13190728
000160 9d e7 38 be 63 33 56 be e9 e0 e0 bd fb da c1 3e
       -0.18057103 -0.2091804 -0.10980398 0.3786238
000170 17 c9 31 be c6 43 52 bf 7b 41 df 3d 9b a9 8f 3d
       -0.17361866 -0.82134664 0.10901161 0.070147716
000180 7b ec 95 3c 06 7b 8c 3e e3 c8 b2 3d ad e5 b2 3e
       0.01830124 0.2743761 0.08729722 0.34940854
000190 d1 71 b9 3d 9d f8 17 bf 97 9b 9a bd a4 99 59 be
       0.09054912 -0.5936373 -0.07549208 -0.21250015
0001a0 03 3d 11 be d9 42 14 3e de 42 10 3d 94 22 b3 be
       -0.1418343 0.14478625 0.03522002 -0.3498732
0001b0 57 57 af be 90 f2 16 be 7b a9 7d be f6 4d 71 3e
       -0.34246323 -0.14740968 -0.24771683 0.23564896
0001c0 e6 35 03 3c 45 59 5a bd 56 7a 07 bf f8 86 f1 be
       0.008008456 -0.05330779 -0.52921045 -0.47173285
0001d0 56 17 31 3f 66 0f 24 3e 9f 74 e7 be 11 6e 81 be
       0.6917623 0.16021499 -0.45206162 -0.25279287
0001e0 8d 8b 06 bd ef 68 5e be 75 0f 0e bd 45 03 c8 be
       -0.03284793 -0.21719716 -0.03468271 -0.39064994
0001f0 3b d6 08 bf 99 03 70 be 9f a1 10 3f 6d cf de bd
       -0.5345189 -0.23438872 0.56496614 -0.10879407
000200 b0 db b1 3d 86 29 be 3e bc ca 2f bd 27 ed b2 bd
       0.0868448 0.37141055 -0.042917952 -0.087366395
000210 0f 04 a8 3d c3 d7 38 be 56 fb 6a 3d f1 dc ef bd
       0.08203899 -0.18051057 0.0573686 -0.11712063
000220 74 63 6f 3d 4c 22 7b be 5e 0d 89 be 03 c7 db bd
       0.058444455 -0.24524802 -0.2676801 -0.10731318
000230 02 1e 37 bc 65 d9 41 bf 79 ef eb 3c 54 72 0b bf
       -0.011176588 -0.7572234 0.028800713 -0.54471326
000240 bb 47 76 be f4 f4 ce be 9e 1e 9e bc d1 b5 b4 3d
       -0.240508 -0.4042126 -0.019301709 0.08823741
000250 6e 53 9b be 96 73 d1 3d c6 4e bf be 6f ed a2 be
       -0.3033709 0.102271244 -0.37364787 -0.31821772
000260 88 a2 1f bd 7f 45 26 bf 37 2e 4c bf 55 7e 20 be
       -0.03897336 -0.6494979 -0.7975802 -0.15673192
000270 48 27 83 bc fd 44 b5 be d9 af f3 be 3c ee b5 3e
       -0.016009942 -0.35404196 -0.475951 0.3553332
000280 77 55 eb be 70 b4 d7 3b 99 dd 21 bf f4 7a 3d 3e
       -0.45963642 0.006582789 -0.63228756 0.18503934
000290 63 ac d6 be c7 a3 c2 3d 4d 5d b0 be ca 12 0e 3e
       -0.41928396 0.09503894 -0.34446183 0.13874355
0002a0 10 cb 85 be 78 a0 d3 be 10 2e 29 bf 92 a0 f4 be
       -0.26131487 -0.41333365 -0.6608591 -0.47778755
0002b0 d0 2e b8 be 1b a7 97 3d ce ef fa 3e 75 11 95 be
       -0.35973215 0.0740492 0.4901108 -0.2911488
0002c0 85 0c 2f 3e c9 bb c5 be 8b d5 dc 3e 25 45 c8 bc
       0.1709462 -0.3861983 0.4313167 -0.024447033
0002d0 94 f5 c4 3d 01 7f b1 be 69 ac 53 bd 87 84 0e be
       0.09617153 -0.3466721 -0.051678095 -0.13917743
0002e0 71 4e d3 3e 0c c7 b7 bd f2 9f 90 bf 50 80 d9 3d
       0.41270784 -0.08973512 -1.1298811 0.10620177
0002f0 2e ed a5 3d ad 68 27 be 77 3a 84 be a8 92 da 3d
       0.08101879 -0.16348524 -0.25825855 0.10672504
000300 c4 bb 5a 3e 0c ba bc be 6b f8 3f bd 9e d1 1c bf
       0.2136069 -0.36860693 -0.04686777 -0.6125735
000310 43 87 f2 be fa 8f a1 be 98 13 8e bb db 0f d1 bd
       -0.47368822 -0.31555158 -0.004335832 -0.10208102
000320 0c cc c4 be 6a 59 a3 bd 46 45 c7 be f9 b4 81 bd
       -0.38436925 -0.07976039 -0.3892004 -0.06333346
000330 ec 7c 0b 3f 00 44 82 bd bb 1b 86 be 3c 68 71 3d
       0.5448749 -0.06360626 -0.26193032 0.058937296
000340 51 18 9e be 38 ac a3 be a3 28 77 be 13 53 34 3e
       -0.30877927 -0.3196733 -0.24136595 0.17609815
000350 3e e6 93 be e2 67 4f be 84 ec 13 be 1e 32 65 be
       -0.28886598 -0.20254472 -0.14445692 -0.223824
000360 90 90 fb bd 21 15 21 bd b8 03 80 be 3c be d3 be
       -0.122834325 -0.03932679 -0.25002837 -0.41356075
000370 71 ac b3 be c6 d3 5d be bc b1 42 3e 39 4a 97 3e
       -0.350925 -0.21662816 0.19013113 0.29548815
000380 4a 93 af 3d b0 ec b4 be 86 36 bb 3e a7 9a 8a 3e
       0.08573015 -0.35336828 0.36565036 0.27071115
000390 40 a5 9f bd b9 9b 0a bf 10 2b bc 3d 8f 4c 9a be
       -0.07795191 -0.54143864 0.09187901 -0.30136535
0003a0 9e 4a 55 bf 0e c4 16 bd e0 dc 89 bd 88 cb ea bd
       -0.8331698 -0.036808066 -0.06731582 -0.11464602
0003b0 71 c8 44 bf 5c e5 e4 be b5 b1 ec b9 8e fb 2e bf
       -0.7686835 -0.44706237 -0.0004514583 -0.6835259
0003c0 55 aa 78 3d 31 42 b2 3e 7e 9c 95 be 65 b5 c4 3d
       0.060709316 0.34816125 -0.29220957 0.09604911
0003d0 1c 0b 91 be 80 48 76 be fe 33 27 3d 4d 0f 02 3e
       -0.28328788 -0.24051094 0.040821068 0.1270115
0003e0 71 55 5c be e3 f4 21 3f f3 54 0d 3e 80 69 d5 bd
       -0.21516968 0.6326429 0.13801937 -0.10420513
0003f0 cb b5 b6 3e ba 19 9d 3d d9 2a 21 3e e6 7d 67 be
       0.35685572 0.076709226 0.15739001 -0.2260662

feature.weight_ih_l0_reverse f4 [512, 64]
000000 7b 4a 44 3f c9 57 42 3f 19 a1 9e 3e fc 42 73 3e
       0.7667615 0.759152 0.30982283 0.23756021
000010 06 72 4e bd 8d 6b 35 3f fa 0e 9a be b8 86 46 3f
       -0.05040171 0.70867234 -0.3008955 0.77549314
000020 24 c2 04 3f 82 28 83 3d a6 27 01 3f 64 08 60 be
       0.51858735 0.064042106 0.50451124 -0.21878201
000030 62 11 f6 3f ac 20 86 bf 39 f3 12 3e 6d 13 64 3f
       1.9224055 -1.0478721 0.14350595 0.8909214
000040 ee 2f 94 bf ec a1 bb 3f 34 dc b9 bd 56 66 5f bf
       -1.1577127 1.465879 -0.090752035 -0.8726553
000050 19 98 ea 3f a7 f0 ff be 25 9e 94 3f 68 bf 6b be
       1.8327667 -0.4998829 1.1610762 -0.23022234
000060 33 70 91 be a1 41 9e 3f 2d 77 89 bf 1e 26 31 3f
       -0.28405914 1.2363778 -1.0739495 0.6919879
000070 a5 ea ca be 46 31 a8 be 84 2d cd 3f 00 20 5d bf
       -0.39632145 -0.32850093 1.6029515 -0.86376953
000080 25 88 1c bf cb 42 68 be c9 28 e0 3e 68 68 d8 3f
       -0.6114524 -0.2268173 0.43781117 1.6906862
000090 5d 31 12 bf ce 68 1f bf 84 a2 64 3f 77 cd 86 3f
       -0.5710657 -0.62269294 0.8931048 1.0531453
0000a0 78 65 44 bf a8 3d 80 bf df 9f c3 3f ee 85 b4 3e
       -0.7671733 -1.0018816 1.5283164 0.3525843
0000b0 3e 21 36 bf 8c bc 2d bd 8f ee 29 40 26 da e5 3f
       -0.71144474 -0.04241614 2.6551855 1.7957199
0000c0 1c ae 02 c0 34 96 1e bf 1b f4 a8 be 5c 16 ab 3f
       -2.0418768 -0.6194794 -0.32998738 1.3366199
0000d0 af 7c 15 40 ba 75 21 bf 3b ad eb 3f d6 1a b3 3f
       2.335735 -0.6307026 1.8412241 1.3992565
0000e0 d0 05 fb 3f 40 ed a2 bf a8 52 ad bf 40 62 a0 be
       1.9611149 -1.2728653 -1.354085 -0.3132496
0000f0 9c e8 c6 3e fc 8c a4 3e c8 41 25 bc 77 ae 77 bf
       0.38849342 0.32138813 -0.010086484 -0.9675059
000100 92 25 0f 3e ba 47 e5 be 2a cc a9 be 46 e8 51 bf
       0.13979176 -0.44781286 -0.33163577 -0.81995046
000110 f5 47 92 3e 57 b6 d2 3c b0 4a 22 3e 37 78 51 bf
       0.28570524 0.025721712 0.15848804 -0.8182406
000120 0e ae de 3e d6 56 2b bf 15 db 91 bf 4d 52 c2 3e
       0.43492168 -0.66929376 -1.1394984 0.37953416
000130 7c 4e 70 3e 1b 63 ac be 1f 19 97 35 af d5 75 3e
       0.2346744 -0.3366936 1.1257688e-06 0.24007295
000140 f5 ca f0 be 54 e2 a5 3d 76 19 81 be a3 9a 6e be
       -0.47029844 0.08099809 -0.25214738 -0.23301177
000150 31 f9 2f bd 87 03 99 be da 75 2a bf 91 23 0a 3b
       -0.042962257 -0.29885504 -0.6658608 0.0021078328
000160 b0 4e 45 3e d3 9b 34 bd 26 c9 1d bf 78 37 be bd
       0.19268298 -0.044093918 -0.61635053 -0.092879236
000170 8f bc 68 bd a8 57 4c be ee 05 45 3e 80 a0 ca 3d
       -0.05682045 -0.19955313 0.19240543 0.09893894
000180 b6 0a be 3e 66 ae 18 be 06 57 f0 be c0 2b b9 3e
       0.37117547 -0.14910278 -0.46941394 0.3616619
000190 8e 97 ae 3d 6e 9c d0 3c 66 76 5a bd d9 73 b1 be
       0.085250005 0.025465216 -0.05333557 -0.34658697
0001a0 52 f2 ae be 34 7e 99 be 84 a8 65 3c db 52 ad be
       -0.3416925 -0.29979098 0.014017228 -0.33852276
0001b0 47 1c 7e 3e bf 82 44 3f 01 09 d7 be e4 47 9b 3e
       0.24815474 0.76762 -0.41999057 0.30328286
0001c0 b0 9d 3f 3f 5d 11 7e be c3 13 9d be 62 d3 8e bd
       0.7484999 -0.24811311 -0.3067914 -0.06973912
0001d0 a0 2d 01 bf 9b 9b 4e bf 3a 59 98 3e 2d ce 42 3f
       -0.50460243 -0.80706185 0.29755574 0.7609585
0001e0 b3 33 3d bf 4a f2 ea bd c2 bb 51 bf 58 a9 8b be
       -0.7390701 -0.11471994 -0.8192712 -0.27277637
0001f0 fc a5 59 be 1f 68 bb 3e f9 d1 a1 be 4b 07 6f bd
       -0.21254724 0.36602876 -0.3160551 -0.058356564
000200 47 6e 4b be bd 09 c2 3f 45 64 94 3e 01 26 de 3e
       -0.19866286 1.5159222 0.2898275 0.4338837
000210 ee e7 8a 3f 5c 52 20 bf a0 84 6b bf 99 f9 14 3f
       1.0852029 -0.6262567 -0.91999245 0.58193356
000220 63 08 21 3f ee 92 93 bd 5c 30 1a c0 e9 b0 9b 3d
       0.6290342 -0.07205759 -2.4092016 0.07602102
000230 ed bc 0f bf 5a 52 b6 3f 87 f1 4f 3e ab f7 4d 3f
       -0.5614765 1.4243882 0.20306979 0.80456036
000240 ed 60 82 bf 92 16 a0 bd d3 68 b5 be 63 06 4e 3f
       -1.0185829 -0.07816805 -0.35431537 0.80478495
000250 f0 eb 52 bf 87 fa 4f 3d 5c 34 21 bf 1e bb a9 bf
       -0.8239126 0.05077603 -0.6297052 -1.3260229
000260 15 89 cc be 0d bb a2 3f 75 50 d3 bc 37 97 2e 3e
       -0.39948335 1.2713333 -0.0257952 0.17049871
000270 2c 8d cb be 5a 41 5e 3e c3 1f 52 bf 7d 4d 92 be
       -0.39756143 0.21704617 -0.82079715 -0.28574744
000280 12 60 07 3f cc 23 84 be 9a 5f 8d bf a1 93 3d bf
       0.52880967 -0.2580856 -1.10448 -0.7405339
000290 15 bb 65 3f e4 8a 15 3f a3 5c f3 3e 70 55 e9 be
       0.8973859 0.58415055 0.47531614 -0.45572996
0002a0 73 ce 0a 3d bc 21 53 3f 25 c3 c6 3e 5b 07 1d bf
       0.03388829 0.8247335 0.38820758 -0.6133935
0002b0 a6 a8 76 3f 63 30 13 bd ec 07 15 c0 c1 33 07 3f
       0.9635109 -0.035934817 -2.3286085 0.52813345
0002c0 96 c4 50 bd 49 6a f4 be a2 49 ea 3e f0 f3 e2 3f
       -0.05096873 -0.4773734 0.45759302 1.7730694
0002d0 c5 dc df 3e 5d a8 a1 be c7 93 68 bf 60 70 fc bf
       0.4372312 -0.31573763 -0.9085049 -1.9721794
0002e0 b7 4f 05 be 84 f4 85 3f 28 e2 c2 3d e2 01 a7 3d
       -0.1301869 1.0465245 0.09515792 0.08154656
0002f0 39 2a 84 3f ca 68 bd 3e e9 bc 53 be 53 7a 32 bd
       1.0325385 0.3699401 -0.20677532 -0.04357369
000300 c5 fb 4b be f6 08 72 be cf 93 e2 bb 1f 66 af bf
       -0.19920261 -0.23636231 -0.006914593 -1.370304
000310 0a ce 32 3d f7 69 7a 3f 75 c9 d0 bd 93 2a 6c be
       0.043653525 0.9781794 -0.10194675 -0.23063116
000320 a3 2f 4b bf 26 be e6 be 70 d9 5a 3f d7 f9 a3 3e
       -0.7936956 -0.45066947 0.85488033 0.3202655
000330 17 95 6a bf 08 bb 93 3e c5 d5 a0 bf bf a3 c7 be
       -0.91633743 0.2885363 -1.2565237 -0.38992116
000340 72 89 c9 bf c0 07 4b be 0e 27 04 be 21 ed 84 be
       -1.574507 -0.19827175 -0.12905523 -0.25962165
000350 03 2b 8a be 9e b9 c0 be 2d 8e 91 3e 6e bc ae 3f
       -0.2698594 -0.37641615 0.28428784 1.3651254
000360 20 b1 1d 3f e5 6b 9b 3d 3d ed 4e 3f 1c 7c 5d 3f
       0.61598396 0.075889386 0.80830747 0.865175
000370 ed 80 01 be b4 80 51 be 54 ff 8e bf 96 dd 46 be
       -0.12646838 -0.20459253 -1.117167 -0.19420466
000380 53 0f 28 3e ca b8 01 bf f2 be 18 3f 38 e2 d5 bd
       0.16412096 -0.5067259 0.5966636 -0.104435384
000390 c8 5c 05 3f 9d 67 62 bd 28 62 77 be 31 20 60 3e
       0.520947 -0.055274595 -0.24158537 0.2188728
0003a0 db 91 81 be 82 81 14 bf 1c 52 16 3f 14 4c bb be
       -0.2530659 -0.58010113 0.5871904 -0.3658148
0003b0 c7 aa e3 3e 5f ae 82 be 93 18 fa 3e f9 24 93 3f
       0.4446623 -0.2552366 0.48846874 1.1495658
0003c0 b9 ba b2 3a 12 37 fc be 20 41 88 3e 7b 9d b2 3d
       0.001363597 -0.49260765 0.26612186 0.08721443
0003d0 08 d0 72 bc ee 42 a1 be 4f 32 38 3f 1c f2 9d 3f
       -0.014820106 -0.31496376 0.71951765 1.2339511
0003e0 94 cf 85 3d f0 a6 37 be 39 fb 00 3f 35 d7 7e bf
       0.06533733 -0.17934775 0.50383335 -0.9954713
0003f0 ee 23 a7 be 30 b8 6b bd 7c 90 e1 bd 3b cd 9c 3f
       -0.326446 -0.0575487 -0.11013886 1.2250131

feature.weight_hh_l0_reverse f4 [512, 128]
000000 6a ac 49 3f 98 ed 74 bf 67 c4 f3 3c b0 e6 68 bf
       0.7877871 -0.9567504 0.029756738 -0.90977
000010 9c 46 3c bf c9 b9 01 bf ed 38 c0 be 90 75 27 bf
       -0.7354524 -0.5067411 -0.3754343 -0.6541376
000020 8b 54 59 bf 5a a6 0c 3f 5f dd c6 be 95 cb 94 3e
       -0.8489463 0.5494133 -0.38840768 0.2906157
000030 20 97 bd 3e 5f 09 28 3d e5 d3 79 3f 9a 82 24 3f
       0.37029362 0.041024562 0.9758895 0.6426178
000040 32 65 a1 3e d6 fe e7 be 89 67 08 3f f3 10 bc 3d
       0.31522518 -0.45311612 0.5328298 0.0918292
000050 c1 ce d6 3c 8b 1f 19 3f 57 d3 2a 3f 2a d3 5f bd
       0.026221635 0.59813756 0.6672873 -0.05464474
000060 35 39 6c 3f a1 5b 77 3e 15 2b 18 bf a5 ff 80 3e
       0.9227479 0.24156047 -0.5944074 0.2519504
000070 07 e9 d4 3e 98 44 76 3f f3 90 d9 bd ef 82 31 bd
       0.41584036 0.96198416 -0.1062335 -0.04333776
000080 99 73 76 3e 91 f1 87 be a3 0c c8 3d bd a1 8a be
       0.24067535 -0.26551488 0.09768035 -0.27076522
000090 9f 1e 6e 3e f6 b6 98 be 45 64 de 3e 4d ea 04 3f
       0.23253869 -0.29827088 0.43435875 0.51920015
0000a0 ff 25 e9 be 89 3b 83 be 0b 3d 71 3e e5 c3 02 3f
       -0.455368 -0.2563136 0.23558442 0.5108016
0000b0 81 cc 95 bf 49 df eb be e8 e7 15 3f f2 f4 a9 bf
       -1.1703035 -0.4606879 0.58556986 -1.3277876
0000c0 83 1f a8 be ba 59 aa bd 2b fa a7 3e 98 b0 09 3f
       -0.32836542 -0.08317895 0.3280805 0.53785086
0000d0 21 38 13 bf e6 fc da 3b 14 fe 61 bf 84 fe 62 bd
       -0.5750752 0.00668298 -0.8827832 -0.055418506
0000e0 f9 c5 16 be 24 c0 6b bf 16 ea e6 3b 98 b8 81 3e
       -0.14723958 -0.9209006 0.007046948 0.25336146
0000f0 97 28 83 3f 10 4d ba 3e 5a cc 92 bf 35 78 61 bd
       1.0246762 0.3638692 -1.1468613 -0.05504628
000100 85 f4 1c 3f 01 d3 e6 be 53 77 aa 3f d3 47 82 3f
       0.6131061 -0.45082858 1.3317665 1.0178169
000110 47 18 55 bf 49 f9 5b 3e b0 74 1f bd c2 1b 66 be
       -0.8324017 0.21481813 -0.03892964 -0.22471526
000120 9a b9 99 be 8d 16 3b 3e d2 a4 61 bf 5b 48 4b 3f
       -0.30024415 0.18270321 -0.8814212 0.7940728
000130 e9 69 52 be 20 af 31 3f 97 5b 80 be 12 13 5b be
       -0.20548214 0.69407845 -0.25069878 -0.21393993
000140 1a 22 36 3e a8 4f 8f be fe e3 6f bf c4 c1 03 3f
       0.17786446 -0.2799046 -0.93707263 0.5146754
000150 e7 91 c1 3e 54 8b 03 3f 35 2b 69 3c 81 52 95 be
       0.37806627 0.5138447 0.014231493 -0.29164508
000160 d1 d6 85 3f c6 ba fd bf da 3f 29 bf ed 5a 67 bf
       1.0456182 -1.9822624 -0.66113055 -0.90373117
000170 c5 db 89 3c 82 4d 05 3e eb 9e b3 be e1 65 04 bf
       0.016828427 0.13017848 -0.35082182 -0.51717955
000180 69 ca 0e bf af 19 a2 be 15 bd 83 bf 33 19 3d 3f
       -0.55777603 -0.3166022 -1.0292078 0.73866576
000190 0a 8c 61 3f 1e e4 09 3f 4a 36 f0 3e 02 64 f1 bd
       0.8810431 0.53863704 0.4691642 -0.11786653
0001a0 b9 63 89 3e 11 ac 8c 3e 07 70 66 be 6e 1e ff be
       0.26833895 0.27475026 -0.22503673 -0.49827904
0001b0 2d 34 24 3f ba 38 0a 3f ab 7e 39 3f 25 f8 63 bd
       0.64142114 0.5399281 0.72458905 -0.05565657
0001c0 e8 ec 11 3f a9 f3 e2 3e af 9e 05 bd 55 c5 ba 3e
       0.57002115 0.44326523 -0.032622036 0.36478677
0001d0 ba a6 5d 3c 03 60 9b be c8 26 d4 be 6b 9e 03 3e
       0.01352852 -0.3034669 -0.41435838 0.128534
0001e0 b3 92 c1 bf 3b c0 5f 3e d3 98 40 be 08 94 68 be
       -1.5122894 0.21850674 -0.18808298 -0.2271272
0001f0 87 2a 0e 3f 7e fb 24 bc ed 25 61 be 86 43 7e be
       0.5553364 -0.010069726 -0.21987124 -0.24830446
000200 fc 0f 1a be 4f c2 29 be ab 93 45 bf ba c1 e7 be
       -0.1504516 -0.16578029 -0.7717845 -0.4526499
000210 ec 97 60 bb 94 ce 15 3f f8 6f 8d 3e 34 35 54 bf
       -0.003427024 0.5851834 0.27624488 -0.8289368
000220 2d 83 09 3e c5 c3 d7 3e 88 3a c9 bd 2b 98 f1 bd
       0.13428946 0.42141548 -0.09825617 -0.11796602
000230 5e fb 5b be 11 1c c3 3e 39 e9 07 be 1f b0 09 bd
       -0.21482608 0.3810735 -0.13272561 -0.033615228
000240 66 df 05 be 17 34 03 3e 51 d8 f9 3d e8 3b 0b be
       -0.13073501 0.1281284 0.12199462 -0.13597071
000250 22 6c 9b 3f 8a a7 1a 3f 08 bc b5 3e ba 2a 6d bf
       1.2142375 0.60411894 0.3549502 -0.9264332
000260 a4 b6 f3 3e 7f e7 15 3e 31 b0 45 3e 9a 19 23 3f
       0.4760028 0.1463909 0.19305493 0.6371094
000270 ba fd 82 bf b9 c0 2c 3e 2b 15 c5 3e 84 7c 4d bf
       -1.0233681 0.16870393 0.38492712 -0.8026812
000280 86 04 b1 be a8 c7 91 bf 87 3e a3 bc b5 e8 c9 3e
       -0.34573764 -1.1389055 -0.019927276 0.39435354
000290 f2 3f 11 3e 67 e9 aa 3e e6 31 27 3f 66 27 99 bd
       0.1418455 0.33381197 0.65310514 -0.07478218
0002a0 6b b9 f3 3e 42 b7 56 3a 30 d8 85 be 29 e1 d3 be
       0.476024 0.00081907597 -0.261415 -0.4138272
0002b0 64 5b ee bd 8f 66 1a 3f 0a 9e 91 3e f2 4a 3d 3f
       -0.11638525 0.6031274 0.28440887 0.7394248
0002c0 ce 80 12 3f a3 21 6a 3d 8c d9 22 be 8c 29 27 bd
       0.5722779 0.057160985 -0.159033 -0.040811107
0002d0 34 1d 47 3e c7 67 87 3f 5a 87 14 be 0d 23 f3 bc
       0.19444734 1.0578545 -0.14504758 -0.0296798
0002e0 eb 03 a3 bd ed 15 f9 3e 62 00 ab 3e 29 58 49 be
       -0.07959732 0.4864954 0.3339873 -0.19662537
0002f0 1e 77 b0 be 50 a4 0a be e6 b5 90 3f 1d ff fd be
       -0.3446588 -0.13539243 1.1305511 -0.49608698
000300 e1 0e 21 3f 14 8e 8d 3e 78 29 75 be 43 b6 a2 bc
       0.6291333 0.2764746 -0.239416 -0.0198623
000310 6b e9 97 3f 97 fd e0 3e 5b 73 80 3f 8c 2a a9 be
       1.1868109 0.43943474 1.0035204 -0.33040273
000320 b4 7c b1 be 12 1e a4 bd 3a de 22 3f 14 70 70 be
       -0.34665453 -0.08013548 0.6362034 -0.23480254
000330 48 f3 15 bd 57 8b 09 bf 47 aa ab be 29 bf 61 3f
       -0.036608964 -0.5372824 -0.3352835 0.8818231
000340 7e 63 ea 3e 94 fc 97 bd 5a 99 dd 3e fb b5 33 3e
       0.45779032 -0.07421222 0.4328106 0.17549889
000350 d8 1a ca 3e 52 9c 27 bf 4c 6a ea be fd e6 e3 bc
       0.39473605 -0.654729 -0.45784223 -0.027820105
000360 b8 32 2b bf e8 e1 98 bd c7 df a2 3e fd ee 5b bf
       -0.66874266 -0.07464963 0.31811354 -0.8591154
000370 98 85 57 3f 2e 79 6c 3e 28 37 03 be 70 44 18 bf
       0.8418822 0.23093101 -0.12814009 -0.5947943
000380 af 59 7a bd ed e7 a4 3d df 29 30 3f 0b 74 a7 bf
       -0.061120685 0.08052049 0.6881389 -1.3082289
000390 ca 16 41 be c0 f1 20 bf 59 4c 80 bf 23 d7 d7 bd
       -0.1885635 -0.6286888 -1.00233 -0.10539081
0003a0 bd ff 70 be 1a 31 4e bf ed e6 7d be 6f 99 f8 be
       -0.23535056 -0.80543673 -0.24795122 -0.4855456
0003b0 66 e9 02 3f 09 8e 81 bd 68 2a 74 bf d5 65 b6 3e
       0.5113739 -0.06325919 -0.95377207 0.35624567
0003c0 11 fd e0 3d 32 d5 ab bd 80 a5 7e bd cd e7 39 3f
       0.109857686 -0.08390273 -0.06216955 0.72619325
0003d0 f0 f6 14 be 21 d6 4d 3e 06 f5 b4 be 91 f8 2a be
       -0.14547324 0.20101215 -0.35343188 -0.16696383
0003e0 a8 a4 34 3f 8b a8 dc be 79 41 63 bf 60 f7 fb 3d
       0.70563745 -0.43097338 -0.8877178 0.123030424
0003f0 cc 11 8c 3e e4 97 93 3e c8 e9 76 3f 8b e6 b6 bc
       0.27357328 0.2882682 0.9645047 -0.022326728

feature.bias_ih_l0_reverse f4 [512]
000000 0c 73 31 be 20 78 bb 3d 61 75 ca 3d e7 cc 53 3e
       -0.17329043 0.091537714 0.098856695 0.20683633
000010 ca a5 6b bc a0 3f 8e be b0 10 c8 3e a3 ef 9e 3d
       -0.014382789 -0.27782917 0.39075232 0.07760551
000020 1f d1 8e bd b6 8f fc 3e 71 f2 fa bd a4 fb ce 3d
       -0.069734804 0.49328393 -0.12253273 0.101065904
000030 f6 7f 93 be c2 42 eb bc 12 fb 88 3c f7 96 22 3e
       -0.28808564 -0.028718356 0.016721282 0.15877901
000040 68 17 d2 3d 8e f2 9a 3e da 67 49 3e 4a da 9f be
       0.10258371 0.3026318 0.19668522 -0.3122123
000050 45 34 dc be 38 9f c1 3e 57 48 47 3e 96 80 0e 3e
       -0.43008628 0.37816787 0.19461189 0.13916239
000060 9b 76 50 3e b4 c4 8e 3e aa 1a 85 3e a1 ac 61 3e
       0.20357744 0.27884448 0.25996906 0.22038509
000070 a6 2d ec 3e 9c db 32 3f a6 61 d7 3e 64 8e 7b 3d
       0.46128577 0.6986635 0.42066687 0.06141509
000080 e2 47 69 3e 01 db ad be 34 0c f4 3d 9d d0 2e 3f
       0.22781327 -0.3395615 0.1191639 0.6828707
000090 dd d9 bd 3d bf 1c 18 be d3 2b 1e 3f 9a 9e 14 3e
       0.0927007 -0.14854716 0.6178562 0.14513627
0000a0 8d ac 29 3e 7c 42 06 be 52 d5 75 be 59 dd bf 3d
       0.16569729 -0.131113 -0.24007156 0.093683906
0000b0 da 51 02 be bf 11 3a bd 35 66 b2 3c 46 a4 4c 3e
       -0.12726536 -0.04542708 0.021777252 0.1998454
0000c0 dc f2 19 3e c6 44 5c 3d 68 24 90 3d 2e d0 d4 3d
       0.1503405 0.053776525 0.07038194 0.103912696
0000d0 ed 94 45 be 5a 6e 1e be 00 89 cf bd ca 0f 47 3e
       -0.19295092 -0.15471783 -0.101335526 0.19439617
0000e0 b1 24 d4 3d a1 4f 1e bc ed 95 41 bc 72 52 89 be
       0.10358561 -0.00966254 -0.01181553 -0.26820713
0000f0 da 61 93 bd 86 c3 4f 3e 77 40 15 3e 74 5e 6f bd
       -0.07196398 0.2028943 0.14575373 -0.058439687
000100 f5 62 96 be 98 85 e7 bc 3c 02 5e be b2 fc d9 be
       -0.29372373 -0.028261945 -0.2168054 -0.42575604
000110 bf 33 3a 3d 6b 83 e7 3d 88 2a d8 bc 98 b7 7b be
       0.045459505 0.11304363 -0.026387468 -0.24581754
000120 93 c0 ac 3e 34 b9 04 3f 9d e8 79 3b 2d 16 b4 bd
       0.33740672 0.518451 0.0038133033 -0.08793292
000130 5e bf 08 be 8a cb 5a 3d 4b 93 a6 3e c8 f5 9f 3e
       -0.13354251 0.053416766 0.3253425 0.31242204
000140 47 1b ca be fa a8 88 be 29 6b 97 3d ad aa f9 3e
       -0.39473936 -0.2669142 0.07393486 0.48763028
000150 42 5c 8d bb 3b 3b ca 3e 79 92 14 be a5 66 1a be
       -0.0043139765 0.39498314 -0.14509 -0.15078218
000160 1b a6 1a be a5 3f ca 3b 85 d4 a4 bd 92 d9 99 bd
       -0.15102427 0.006172138 -0.080483474 -0.07512201
000170 a1 db 42 bd d8 a1 54 3e 35 7c a3 be 0f b0 8d 3d
       -0.047572736 0.20764863 -0.319307 0.06918346
000180 ab 98 82 bd 36 0f 59 bc 7f f4 55 be 66 5f 12 3f
       -0.06376775 -0.0132482555 -0.20894049 0.57176816
000190 9b a8 88 3e 39 5c a4 3c 97 50 0a 3d 65 4f c4 3e
       0.26691136 0.020063506 0.033768263 0.38341823
0001a0 ee f4 a8 3d ee 5e 2e be 32 56 04 bf 6c 01 24 3e
       0.08249842 -0.170284 -0.51694024 0.16016167
0001b0 f9 96 ca be ab 87 8b be e0 58 cf bd 69 f2 83 3c
       -0.39568308 -0.27251944 -0.101243734 0.016106801
0001c0 2b 23 dc 3d 98 e0 2a be b8 92 38 be 24 e4 32 3e
       0.10748895 -0.16687238 -0.18024719 0.17469841
0001d0 4b c0 1c 3f 20 f4 cc 3e 9c 25 1a bd ca be 05 3c
       0.61230916 0.40030003 -0.037633523 0.008163163
0001e0 22 82 a3 be 0d 65 6a 3e 68 b2 b0 be 70 ef f9 be
       -0.3193522 0.2289011 -0.34511113 -0.4881549
0001f0 a1 60 a4 bc 97 85 2e bd c1 73 0d 3e 48 93 a2 3e
       -0.020065608 -0.04260787 0.13813688 0.31752992
000200 fb 3a 03 bf 25 b1 1e 3e 79 7a 27 be f6 63 31 3e
       -0.5126187 0.15497263 -0.16355313 0.17323288
000210 22 40 df 3d f3 b4 c4 3d 40 e6 45 3e 87 03 fb be
       0.10900904 0.09604826 0.19326115 -0.4902613
000220 e1 6b 05 bf 9b 91 a8 be 62 0a 4d be 82 f9 cd be
       -0.52117735 -0.32923588 -0.20023492 -0.40229422
000230 d9 24 a6 bd f2 9b 41 bd 81 b9 98 3d a4 43 a1 3e
       -0.08112497 -0.04726786 0.07457257 0.31496918
000240 f8 71 9a 3d 5b ee 0d 3d 63 91 1b be 5a 6f 79 bd
       0.07541269 0.03465114 -0.1519218 -0.06089721
000250 31 9f 82 be 93 40 95 ba 07 79 2d 3e 81 79 32 be
       -0.25512078 -0.0011387042 0.169407 -0.17429163
000260 ce 86 b5 be 5f 57 a9 3e 26 c7 75 be c1 26 23 be
       -0.3545441 0.3307447 -0.2400175 -0.15932752
000270 92 75 c7 3d 41 72 05 bf c4 50 64 be fd dd 9b be
       0.09739222 -0.5212746 -0.22296435 -0.304428
000280 a1 5c 31 be 45 59 97 3e 3c 10 37 3d fa 20 4f 3e
       -0.17320491 0.29560295 0.044693217 0.20227423
000290 0f 88 c8 3e 8a 4d 9d 3e 83 c8 4f bc a3 6b 9c be
       0.39166304 0.3072322 -0.012682083 -0.3055087
0002a0 82 d9 d6 3e da 7f 18 bd 70 8e 7f be 3a 8a 91 3d
       0.4196282 -0.037231304 -0.2495668 0.07106443
0002b0 34 be 9b bc 93 17 08 bf 7e 50 38 3e 21 c1 52 be
       -0.019011594 -0.5316097 0.17999455 -0.20581485
0002c0 ff 57 86 be c7 c5 33 3e 1c 24 f4 bd 84 53 06 3f
       -0.2623901 0.17555915 -0.1192095 0.52471185
0002d0 2b 85 86 3e e3 b6 67 3d d0 d6 f2 3d ad 4d 71 bd
       0.26273474 0.0565709 0.118573785 -0.058911968
0002e0 ea bc f9 3c d5 d9 68 bd 2c cb 30 3b 4e b9 c1 be
       0.030485589 -0.056848366 0.0026976569 -0.3783669
0002f0 d1 a9 a8 bd 0e 2a 9b 3e e4 03 c1 bd 02 dc db be
       -0.08235515 0.30305523 -0.0942457 -0.4294129
000300 a8 99 42 be 13 ac e1 3c dc fa 90 bd b0 45 45 be
       -0.19003928 0.027547872 -0.07079098 -0.19264865
000310 33 8b b2 3e 5a cb 71 bd 75 0e bc 3c 34 50 63 3e
       0.34871826 -0.05903182 0.022956112 0.22198564
000320 8c 21 c4 be 85 07 e4 3e 33 a6 a9 3e 38 06 ba be
       -0.38306844 0.44536987 0.33134612 -0.3633287
000330 b0 86 2c 3c 2b 8c a5 be 19 32 b5 be 9e ce b0 be
       0.010530159 -0.32333502 -0.35389784 -0.34532636
000340 b9 88 cb be ba 79 2e bf 35 6d 87 bc 4d d3 1d bd
       -0.3975275 -0.6815449 -0.016531566 -0.03853159
000350 95 ce 89 3e bb e9 81 bd ec 02 b6 be 47 cf 79 be
       0.26915422 -0.06343409 -0.35549104 -0.24395476
000360 c7 0d e8 bd 4d 34 0c bf db f0 d4 3d ac b1 a1 3d
       -0.11330753 -0.54767305 0.10397502 0.07895216
000370 38 4a b7 be 97 eb 4d be b9 e9 b1 3d bb 9c ae 3d
       -0.35798812 -0.20109402 0.08687157 0.08525988
000380 62 be 20 3d 61 c1 57 bd 13 0a 4b 3d ce 15 2f 3d
       0.039244063 -0.052674655 0.049570154 0.042745404
000390 e5 0f 67 3d 2e d0 5a bd a0 4f 14 bf c4 ad 73 be
       0.056411643 -0.053421192 -0.57934 -0.23796755
0003a0 28 af 89 bc af cc 52 be 3f 8e af 3d f0 a5 2a be
       -0.016807154 -0.20585893 0.08572053 -0.16664863
0003b0 f4 9f 5d 3e 95 03 4e 3e f8 0a e6 bd f0 bf 33 3e
       0.21643049 0.20118554 -0.11232561 0.17553687
0003c0 71 89 25 bf 6e 84 ab 3e 72 63 19 be b5 0c 7e 3e
       -0.64662844 0.33499473 -0.14979342 0.24809535
0003d0 4a 61 39 bf c6 3e 85 bd fd 12 0b 3e 0d 4b 25 3e
       -0.72414076 -0.06506114 0.13581462 0.16141911
0003e0 40 23 a3 3d 4d 34 dd bd c5 d0 82 be f9 2f 86 bd
       0.07965708 -0.10800991 -0.25549904 -0.06552119
0003f0 06 e1 22 3e c6 6c ed be 34 ff af bd 79 95 bd 3d
       0.15906152 -0.4637205 -0.08593598 0.09257025
