logs/classifier/1_contexts/fold_03/10-17-2022_15-45-52/model_params.pth (torch, 822087 bytes, 10 tensors)

feature.weight_ih_l0 f4 [512, 64]
-0.9152705 0.21542463 -0.14192176 -0.5699218 0.24983723 -1.1656727 0.11415121 0.035195637
0.73520267 0.3267774 -0.43033788 -0.0883857 0.009030314 -0.39722946 -0.120848805 0.5676714
-0.16745096 -0.026566776 0.18533812 0.08338213 -0.0045312797 0.33947915 -0.18712091 -1.2871463
-0.12525076 -0.48850724 -0.34008944 -0.013134355 -0.699031 0.18750857 -0.79682773 0.69551647
-0.17863224 0.46006766 0.09879677 0.495752 0.50243706 -0.68544626 0.3229025 -0.28302753
0.5127785 0.3433973 -0.16695583 -0.88055265 -0.35182595 -0.22689356 -0.056727972 0.030931719
0.4333197 0.27258146 -0.42504853 -0.077368 -0.6509015 0.4272887 0.54269034 -0.6913351
-1.0094748 0.027676433 0.72083676 0.32601961 0.67248917 0.68466586 0.18315572 -0.3309815
-0.6653486 0.3798117 -0.119132355 -1.0297992 0.13795623 -0.78154266 -0.10148916 -0.3765262
-0.733774 0.33464524 -0.12848382 -0.7737549 -1.3516256 -1.0250958 0.06967909 -0.15254919
-0.8194536 -0.6819683 0.09791351 -0.8363412 0.38246158 -0.85104674 0.58176196 0.60142297
-0.54216725 -0.73596126 0.6391725 1.0739881 0.25523278 0.84647137 0.4810254 -0.060168136
1.1010966 -0.52663 -0.8823939 0.660038 -0.567492 -0.38814604 0.1912833 0.47966543
0.4522513 -0.52841115 -0.05556955 -0.69908124 0.58023 0.3124653 0.18241909 1.2793319
-0.45116392 1.428888 0.3210946 0.2122971 -0.33414426 -0.4267377 -0.8010906 -0.42901707
-0.3856005 0.3701753 -0.7139552 -1.1384507 -0.055641823 -1.865971 -0.28311634 0.877822
0.10952511 0.100153394 0.23882058 -0.6358977 -0.009426316 0.4351437 0.02423889 0.47616953
-0.0135020595 -0.39417142 -0.014793814 1.3025215 -0.4242471 -0.0063946163 -0.60851175 0.04240778
0.17586969 0.9481173 -0.026650619 0.114723705 -0.43093428 -0.100585006 0.6185292 0.6370227
-0.26101723 -0.15208533 0.381458 0.05397415 -0.94742876 -0.15203975 -0.38549945 -0.1368517
0.09978185 -0.48970526 -0.27731264 0.47915766 -0.36547104 0.40070674 0.5338941 -0.20199993
-0.51453495 0.024998304 0.88285965 -0.92538 -0.07731109 0.3864655 -0.15775417 -0.40526968
0.43792573 -0.57745814 -0.09834483 -0.3692637 0.49436668 0.8639689 -0.16283387 0.21018049
0.7770713 0.50758004 0.46519893 0.353664 0.27050602 0.5288093 -0.611127 0.27600428
0.5078289 0.28724074 -0.4329064 -0.81368923 0.04549732 -0.7191021 -0.26342177 -0.6520903
0.07732281 -0.50689465 0.40179795 0.51096696 -0.95567805 -0.47442117 -0.27015805 0.53608876
-0.70580816 -0.58698314 -1.6098298 -0.15201966 0.4364323 0.5902906 -0.6007248 -0.029455293
0.24662949 0.38101065 0.9153194 -0.40880966 0.52782106 0.10112371 -0.042711224 0.9489556
-0.41703838 1.6225554 0.4584054 0.51873535 -0.3469134 1.0570979 -0.274626 -0.44632226
0.35295933 -1.1302538 0.24958391 0.5068677 0.34455687 1.1591103 0.16609071 -0.69410795
-0.14562996 2.140155 -0.8449191 0.811992 0.29130676 0.7175759 0.5243255 0.4412108
0.45359585 0.14659284 0.16522127 0.46082956 -0.564182 0.81931835 0.70719427 -0.47646594
00000000: 2b4f 6abf 4698 5c3e f053 11be 65e6 11bf
00000010: 55d5 7f3e c334 95bf 1cc8 e93d 4d29 103d
00000020: 3e36 3c3f 5e4f a73e 3f55 dcbe 9003 b5bd
00000030: e2f3 133c a961 cbbe 947f f7bd ea52 113f
00000040: 4478 2bbe 91a2 d9bc 47c9 3d3e 40c4 aa3d
00000050: 217b 94bb 36d0 ad3e a09c 3fbe 36c1 a4bf
00000060: bc41 00be 9f1d fabe 3420 aebe 7a31 57bc
00000070: b2f3 32bf 3f02 403e e7fc 4bbf 5e0d 323f
00000080: 5feb 36be fd8d eb3e f655 ca3d 35d3 fd3e
00000090: b79f 003f 6879 2fbf 7a53 a53e fce8 90be
000000a0: 7445 033f c5d1 af3e 78f6 2abe e66b 61bf
000000b0: 8822 b4be c956 68be 975b 68bd 8464 fd3c
000000c0: 14dc dd3e cc8f 8b3e f69f d9be 1d73 9ebd
000000d0: 7ba1 26bf 96c5 da3e c1ed 0a3f 56fb 30bf
000000e0: 7836 81bf b0b9 e23c c288 383f 0bec a63e
000000f0: 4028 2c3f 4346 2f3f 2c8d 3b3e 6876 a9be
00000100: 4954 2abf ae76 c23e aafb f3bd 76d0 83bf
00000110: 6644 0d3e 2e13 48bf 8cd9 cfbd 0bc8 c0be
00000120: 9dd8 3bbf 9f56 ab3e 4391 03be cd14 46bf
00000130: 1102 adbf 5736 83bf e9b3 8e3d db35 1cbe
00000140: b6c7 51bf 7995 2ebf e186 c83d 751a 56bf
00000150: 01d2 c33e 33de 59bf 5aee 143f dbf6 193f
00000160: 79cb 0abf f567 3cbf cfa0 233f 7178 893f
00000170: dfad 823e 59b2 583f f648 f63e dd72 76bd
00000180: bcf0 8c3f 39d1 06bf 91e4 61bf 40f8 283f
00000190: 2847 11bf 14bb c6be c5df 433e b596 f53e
000001a0: 7b8d e73e f445 07bf e59c 63bd fdf6 32bf
000001b0: f489 143f 74fb 9f3e 12cc 3a3e 26c1 a33f
000001c0: f5fe e6be cde5 b63f 8366 a43e 6964 593e
000001d0: f514 abbe 5d7d dabe 4614 4dbf 20a8 dbbe
000001e0: 6e6d c5be 9e87 bd3e c5c5 36bf c1b8 91bf
000001f0: aee8 63bd 23d8 eebf a0f4 90be f1b8 603f
00000200: b34e e03d 391d cd3d 628d 743e 31ca 22bf
00000210: d670 1abc 28cb de3e a390 c63c 7ecc f33e
00000220: be37 5dbc d6d0 c9be c161 72bc 06b9 a63f
00000230: ea36 d9be ee89 d1bb 6dc7 1bbf c8b3 2d3d
00000240: 2f17 343e d1b7 723f 6652 dabc 43f4 ea3d
00000250: 6ba3 dcbe 83ff cdbd ee57 1e3f eb13 233f
00000260: 0da4 85be 42bc 1bbe 774e c33e 0014 5d3d
00000270: b18a 72bf 4fb0 1bbe 2f60 c5be da22 0cbe
00000280: 6d5a cc3d a6ba fabe ecfb 8dbe 2754 f53e
00000290: 051f bbbe 6f29 cd3e 49ad 083f 12d9 4ebe
000002a0: 90b8 03bf 3ec9 cc3c 1703 623f b4e5 6cbf
000002b0: 4755 9ebd cede c53e 4f8a 21be 827f cfbe
000002c0: cd37 e03e 4cd4 13bf 0469 c9bd 2210 bdbe
000002d0: a11d fd3e 112d 5d3f ecbd 26be 8e39 573e
000002e0: 25ee 463f c4f0 013f 8e2e ee3e 7313 b53e
000002f0: c47f 8a3e 0c60 073f d272 1cbf 6f50 8d3e
00000300: 1301 023f 3811 933e e8a5 ddbe f04d 50bf
00000310: 665b 3a3d 1317 38bf 38df 86be 64ef 26bf
00000320: 6c5b 9e3d d9c3 01bf 76b8 cd3e bbce 023f
00000330: 51a7 74bf 55e7 f2be 2852 8abe 1d3d 093f
00000340: d8af 34bf 8744 16bf e70e cebf 0bab 1bbe
00000350: 0e74 df3e 491d 173f 1ac9 19bf 3a4c f1bc
00000360: 718c 7c3e d413 c33e 5f52 6a3f 804f d1be
00000370: 481f 073f f319 cf3d f7f1 2ebd c1ee 723f
00000380: 0e86 d5be e5af cf3f 1db4 ea3e d7cb 043f
00000390: a29e b1be fc4e 873f c79b 8cbe 5a84 e4be
000003a0: 16b7 b43e 28ac 90bf ed92 7f3e 15c2 013f
000003b0: c269 b03e ba5d 943f af13 2a3e 0fb1 31bf
000003c0: 0520 15be 4df8 0840 9e4c 58bf b5de 4f3f
000003d0: 2926 953e 0eb3 373f 323a 063f 62e6 e13e
000003e0: b73d e83e 6f1c 163e c42f 293e daf1 eb3e
000003f0: 3b6e 10bf d9be 513f af0a 353f 58f3 f3be

feature.weight_hh_l0 f4 [512, 128]
0.49292833 -1.3455275 0.065183565 0.47032204 -1.3796983 0.28308466 0.14170627 -0.5792174
0.6785611 -0.16958924 -0.570638 -0.076611966 -0.085929275 -0.37206843 -0.65791667 -0.014187229
-0.4135219 -0.4637994 0.39127585 -0.22746244 -0.6110911 -0.82857364 -0.0873403 0.78321904
0.5175419 0.23890148 -0.15766908 0.21063624 0.4946677 -0.9146825 -0.22387332 -1.0708379
0.6320393 -0.24962173 -0.41369832 -0.19583976 0.19922346 0.026237985 0.42908326 0.55766284
0.32157484 0.93507826 -0.25904477 0.70063317 0.2984811 0.2784317 -0.48945856 0.4278539
-0.42439455 -0.57686967 0.6082764 -0.31526932 0.2584791 -0.38581187 -0.22037931 -0.85170233
-0.27358547 -0.90613735 -0.22526906 -1.8808961 -0.3776384 0.40302396 0.37521622 -0.028075656
0.23246326 0.03303699 0.17866407 -0.7095846 0.28360432 0.79271066 -0.35186777 -0.07242382
-0.01601737 0.2010722 0.084756255 -0.17467923 -0.37027758 -0.30342686 -0.26613945 -0.06730763
-0.072790414 -0.5905524 -0.6604887 -0.6539247 -0.9758683 -0.18184417 -0.2444351 0.31356135
-0.10457861 -0.2411033 0.560189 -0.15168098 -0.050438825 0.45230958 -1.0771533 0.18058734
0.06877566 -0.29041037 -0.041497115 0.29974338 0.6647539 -0.2985 0.80927247 -0.6073061
0.20427622 0.071018904 0.08020217 0.7489678 0.56347775 -0.7879684 -0.41396818 -0.45987377
0.21022965 0.24073368 0.8921368 0.14550042 0.8555286 0.39134592 -0.4083008 0.6659658
1.2980186 -0.17852291 -0.25579178 0.14385599 0.12228419 -0.40431222 -0.00059176504 -0.34849215
0.8176826 -0.18608683 0.028288545 -0.32256073 0.14085351 -0.22933683 -0.22939959 -0.12108339
0.27373344 0.14532755 0.6534005 0.54777217 -0.55009145 -0.739854 0.25685644 0.7119191
0.53444356 -0.48636535 -0.19588359 0.54991436 -0.20363167 -1.2560793 0.040174957 -0.597141
0.32547897 -0.3813676 -0.10179394 0.70330894 0.47233376 0.59928215 -0.2814821 -0.30397233
0.33895376 0.08505651 -0.25538677 0.3144351 -0.19444846 0.35792938 -0.49902022 0.10933194
-0.9898935 -0.2957403 0.2699392 -0.2463006 0.4795699 -0.5589748 0.37670964 0.09230664
-0.42057186 0.20892207 0.7326624 -0.66294515 -0.19876058 0.23672117 -0.44633734 -0.9215599
0.0017483702 -0.15347297 0.66165364 0.06229728 0.23390216 0.07777237 0.55383223 -0.38840264
0.2145265 0.7477494 -0.6614058 -0.06669119 0.9919447 -0.44839013 0.53471404 0.58278584
0.14167228 -0.20900655 0.44982973 0.17555882 0.5921421 0.20494132 -0.0854782 0.33859488
-0.7790362 0.5613594 -0.18355404 1.2746936 0.46785414 -0.4046619 -0.26870546 0.38547677
0.55104655 -0.47677642 -0.3456158 -0.2548443 -0.14037558 -0.059772007 0.18882495 0.5118414
0.3400491 -0.11302281 -0.15138589 -0.28624955 0.5019283 0.04693383 0.19400464 0.61839855
0.2648749 0.24942523 0.4511393 -1.0769085 -0.4732982 0.11346613 0.0548322 0.01267267
0.35057372 0.052615777 -0.621583 -0.26416758 0.51333773 0.50986075 -0.015686901 0.6030749
1.186063 0.5168805 0.00029516593 -0.46192804 1.1972607 0.26435858 -0.28235093 -0.5708337
00000000: 1a61 fc3e 3f3a acbf f67e 853d 0dce f03e
00000010: f499 b0bf 79f0 903e 731b 113e 9747 14bf
00000020: 2eb6 2d3f cda8 2dbe 5515 12bf bce6 9cbd
00000030: b0fb afbd c17f bebe 3a6d 28bf 8d71 68bc
00000040: 24b9 d3be 1d77 edbe 4f55 c83e eaeb 68be
00000050: 7770 1cbf 671d 54bf 79df b2bd 0b81 483f
00000060: a07d 043f 97a2 743e 0174 21be 07b1 573e
00000070: 1645 fd3e a228 6abf 0c3f 65be 3711 89bf
00000080: 54cd 213f d79c 7fbe 44d0 d3be 388a 48be
00000090: 3c01 4c3e 0bf1 d63c cdb0 db3e fec2 0e3f
000000a0: 75a5 a43e 4a61 6f3f 84a1 84be b25c 333f
000000b0: 84d2 983e 9a8e 8e3e 509a fabe ab0f db3e
000000c0: 3e4a d9be bbad 13bf 01b8 1b3f fb6a a1be
000000d0: 5f57 843e 2289 c5be 1dab 61be 2a09 5abf
000000e0: 6513 8cbe 9ef8 67bf efac 66be 34c1 f0bf
000000f0: d259 c1be 2859 ce3e 571c c03e ebfe e5bc
00000100: d90a 6e3e cb51 073d b7f3 363e 56a7 35bf
00000110: 9634 913e 16ef 4a3f 0328 b4be f152 94bd
00000120: dc36 83bc dfe5 4d3e b094 ad3d 1ddf 32be
00000130: 0695 bdbe c45a 9bbe 6e43 88be 95d8 89bd
00000140: 2413 95bd 712e 17bf ca15 29bf 9c67 27bf
00000150: 81d2 79bf 5c35 3abe 324d 7abe 1d8b a03e
00000160: 4f2d d6bd c9e3 76be 8c68 0f3f 4252 1bbe
00000170: f198 4ebd 1f95 e73e 29e0 89bf e3eb 383e
00000180: 41da 8c3d abb0 94be e1f8 29bd f777 993e
00000190: 502d 2a3f fed4 98be 7b2c 4f3f 6a78 1bbf
000001a0: c92d 513e 5c72 913d 0941 a43d 5bbc 3f3f
000001b0: 1440 103f 4cb8 49bf a3f3 d3be 9374 ebbe
000001c0: 7146 573e e482 763e 1463 643f 10fe 143e
000001d0: ec03 5b3f 7e5e c83e cd0c d1be bc7c 2a3f
000001e0: 7925 a63f b6ce 36be 24f7 82be fc4e 133e
000001f0: 2270 fa3d 0302 cfbe ae20 1bba 906d b2be
00000200: a653 513f 8c8d 3ebe 61bd e73c ae26 a5be
00000210: e73b 103e 46d7 6abe bae7 6abe 92fa f7bd
00000220: ca26 8c3e bfd0 143e 4145 273f cc3a 0c3f
00000230: cbd2 0cbf 1267 3dbf b082 833e 5540 363f
00000240: 4bd1 083f e104 f9be b595 48be 30c7 0c3f
00000250: d284 50be 35c7 a0bf 7f8e 243d 3cde 18bf
00000260: 2ea5 a63e 9d42 c3be 5779 d0bd 0e0c 343f
00000270: bbd5 f13e 8e6a 193f 6c1e 90be 43a2 9bbe
00000280: 598b ad3e 1c32 ae3d 0ec2 82be a3fd a03e
00000290: 7f1d 47be 8542 b73e 947f ffbe 6de9 df3d
000002a0: a969 7dbf 466b 97be 7935 8a3e 3936 7cbe
000002b0: 308a f53e f918 0fbf 16e0 c03e 440b bd3d
000002c0: 3255 d7be abef 553e c38f 3b3f c6b6 29bf
000002d0: e587 4bbe 0967 723e 5486 e4be 59eb 6bbf
000002e0: 9229 e53a 0528 1dbe 2262 293f 6f2b 7f3d
000002f0: 0c84 6f3e 1f47 9f3d f3c7 0d3f b6dc c6be
00000300: d6ac 5b3e 816c 3f3f e451 29bf 6495 88bd
00000310: 16f0 7d3f 6493 e5be 05e3 083f 7431 153f
00000320: 8a12 113e d005 56be 1550 e63e b1c5 333e
00000330: a096 173f 23dc 513e 320f afbd 4f5c ad3e
00000340: eb6e 47bf 40b5 0f3f 97f5 3bbe 2929 a33f
00000350: 948a ef3e d82f cfbe c393 89be 365d c53e
00000360: 6311 0d3f 0a1c f4be 8ef4 b0be f47a 82be
00000370: 9ebe 0fbe 7ed3 74bd 545b 413e 0a08 033f
00000380: ea1a ae3e 8178 e7bd e704 1bbe 4d8f 92be
00000390: 607e 003f b03d 403d 27a9 463e 5e4f 1e3f
000003a0: af9d 873e 5469 7f3e bbfb e63e 23d8 89bf
000003b0: 2454 f2be ee60 e83d bb97 603d 08a1 4f3c
000003c0: 667e b33e a483 573d 1020 1fbf f940 87be
000003d0: 1a6a 033f 3c86 023f d181 80bc 1e63 1a3f
000003e0: ead0 973f 4852 043f 80c0 9a39 d581 ecbe
000003f0: d73f 993f 025a 873e 4d90 90be 2822 12bf

feature.bias_ih_l0 f4 [512]
0.39430186 0.122865655 -0.072507195 -0.43995205 0.54672694 0.02250035 0.30894965 0.30207038
0.05843449 0.084204525 0.35363314 -0.078822635 0.15194595 1.354636 0.14884636 0.15843467
0.08562924 -0.009109324 0.35966367 -0.032935068 -0.026323766 -0.003480666 -0.19220367 0.7858243
-0.28650758 0.390144 -0.44386423 0.08125195 0.18860453 1.1453619 1.0623895 0.11292533
-0.038798783 0.16186579 0.14789958 0.11128603 0.65795153 0.41145128 0.055838734 1.0779121
-0.06770608 0.16386706 -0.09729571 0.7207112 -0.12993836 0.47053456 0.07977687 -0.15208736
1.0754924 0.09121461 0.4362953 -0.35200968 -0.27898428 -0.14684172 0.04353646 0.030568713
0.0813157 1.0544046 -0.41332486 0.077324875 -0.4148996 0.018703857 0.24718137 -0.19735484
-0.009708669 0.34898502 0.1007124 0.3967255 0.20805368 0.006862446 0.24451031 0.20694251
-0.3341191 -0.016649377 0.886054 0.9026625 0.21690762 0.028173782 0.40644485 -0.152804
0.017795125 -0.45072234 -0.13992862 -0.5741117 0.013362439 0.23560151 0.049874324 0.83388615
0.630302 0.0064293058 0.0775832 -0.15639341 0.012516602 0.87586826 0.15141325 -0.09714941
0.62337583 -0.034134097 0.45249465 -0.022800379 0.4066187 -0.23908016 0.68684095 0.9638873
1.0248848 0.3561505 -0.105464645 -0.40265825 0.0353233 -0.35673913 0.41646266 1.3601729
-0.039176945 0.2915692 -0.011684465 -0.17239168 0.48331648 0.11223399 0.52750415 -0.17243642
0.3454227 -0.06886707 0.08265248 -0.15805225 0.49536952 0.19114703 0.040097136 -0.27647755
0.19863945 -0.12901665 -0.395049 -0.005565605 -0.5738535 -0.006986331 -0.231954 -0.73832166
-0.15860936 0.14045475 0.22314 -0.10760641 -0.29342422 0.0037939898 -0.7338391 -0.014805919
-0.1283389 -0.05708081 -0.2898835 -0.5696335 -0.08027755 -0.32920462 -0.09690058 -0.27147102
-0.14206961 0.043527585 -0.14290415 0.19436175 -0.5230719 -0.57096213 -0.20944029 -0.19523346
-0.0967307 -0.27158615 -0.10308467 0.21428677 -0.18711036 0.11198202 -0.24973182 -0.21895196
-0.22483046 -0.23259912 0.21998462 0.7123369 -0.24105872 -0.14199212 0.06433439 0.0943519
-0.47816163 0.016048217 0.08067096 -0.09106734 -0.23275794 -0.23295084 -0.10402507 -0.17117114
-0.1372913 -0.5559103 -0.20847718 -0.31923172 -0.015246802 -0.27274185 -0.15966861 0.019971255
-0.49783552 0.18368368 -0.15766352 -0.04872971 -0.27539656 0.32620358 -0.31594875 -0.20737746
-0.41607448 -0.42001528 -0.25111523 -0.057785343 0.18344864 -0.24807194 -0.06861925 0.08978188
0.016480323 -0.22833507 0.394528 -0.19405635 -0.1367369 -0.40815672 0.08545408 0.3449637
0.36879063 -0.13634093 -0.020710386 -0.25549254 -0.46381223 0.05677176 -0.34238163 0.03798923
-0.13492075 0.30555344 -0.5480265 0.42561513 -0.63745487 -0.2024415 -0.075354345 -0.3807606
0.1931523 -0.3924278 -0.20170513 0.06880398 -0.426789 -0.4059431 -0.7815523 -0.36279216
-0.38687775 -0.26141566 0.051518932 0.13485444 0.18881841 -0.19063155 -0.31966946 -0.010252314
-0.19320221 -0.29893467 0.079776496 -0.021050427 -0.21202683 0.13005927 0.4037308 -0.11313144
00000000: efe1 c93e fda0 fb3d a77e 94bd 6541 e1be
00000010: 4cf6 0b3f a752 b83c a62e 9e3e f8a8 9a3e
00000020: 0159 6f3d 6c73 ac3d 670f b53e c36d a1bd
00000030: b897 1b3e b664 ad3f 2e6b 183e b33c 223e
00000040: 625e af3d 463f 15bc d625 b83e ece6 06bd
00000050: f0a4 d7bc e31b 64bb 0ad1 44be c82b 493f
00000060: 1fb1 92be f4c0 c73e 2c42 e3be 6c67 a63d
00000070: 8c21 413e 389b 923f 61fc 873f 6545 e73d
00000080: 79eb 1ebd 25c0 253e fd72 173e eee9 e33d
00000090: 836f 283f bea9 d23e 28b7 643d 06f9 893f
000000a0: 7ca9 8abd c4cc 273e f942 c7bd 8780 383f
000000b0: 900e 05be e8e9 f03e 0e62 a33d cabc 1bbe
000000c0: bca9 893f bace ba3d 1962 df3e 9d3a b4be
000000d0: 07d7 8ebe ad5d 16be 4953 323d 3d6b fa3c
000000e0: d988 a63d bbf6 863f 519f d3be 815c 9e3d
000000f0: b86d d4be d538 993c 1d1d 7d3e 6317 4abe
00000100: 1c11 1fbc 2aae b23e 4e42 ce3d 9b1f cb3e
00000110: 060c 553e 5fde e03b e960 7a3e bde8 533e
00000120: a911 abbe 4664 88bc 6fd4 623f e414 673f
00000130: 081d 5e3e b4cc e63c 8a19 d03e a778 1cbe
00000140: 15c7 913c 14c5 e6be 7349 0fbe fcf8 12bf
00000150: 22ee 5a3c 8641 713e 0549 4c3d 9079 553f
00000160: 795b 213f edac d23b f1e3 9e3d 9825 20be
00000170: 6f12 4d3c e738 603f 130c 1b3e 45f6 c6bd
00000180: 8f95 1f3f 32d0 0bbd 61ad e73e dcc7 babc
00000190: 5430 d03e 6ed1 74be cfd4 2f3f 51c1 763f
000001a0: 6d2f 833f 5c59 b63e d9fd d7bd 3929 cebe
000001b0: 2aaf 103d 83a6 b6be 983a d53e 251a ae3f
000001c0: 0178 20bd 8f48 953e 3370 3fbc 7287 30be
000001d0: 4275 f73e efda e53d 830a 073f 2c93 30be
000001e0: 3edb b03e 2e0a 8dbd b445 a93d 73d8 21be
000001f0: 13a1 fd3e 0cbc 433e e53c 243d 778e 8dbe
00000200: 2468 4b3e f11c 04be dd43 cabe ae5f b6bb
00000210: 10e8 12bf 98ed e4bb 5985 6dbe a602 3dbf
00000220: 7e6a 22be 5fd3 0f3e d07e 643e c060 dcbd
00000230: b33b 96be 96a4 783b e1dc 3bbf 8694 72bc
00000240: 466b 03be 91cd 69bd 9c6b 94be 80d3 11bf
00000250: 8e68 a4bd 828d a8be d073 c6bd 40fe 8abe
00000260: b27a 11be fb49 323d 7755 12be c406 473e
00000270: 0ae8 05bf 932a 12bf 8477 56be 48eb 47be
00000280: bf1a c6bd 570d 8bbe 0e1e d3bd fe6d 5b3e
00000290: dc99 3fbe d456 e53d b3b9 7fbe f134 60be
000002a0: f539 66be 772e 6ebe a643 613e b65b 363f
000002b0: 19d8 76be 6266 11be c0c1 833d 923b c13d
000002c0: 9ad1 f4be 8d77 833c d136 a53d 8381 babd
000002d0: 1958 6ebe aa8a 6ebe 190b d5bd 7d47 2fbe
000002e0: 1796 0cbe 2350 0ebf 0b7b 55be 5772 a3be
000002f0: b9cd 79bc d2a4 8bbe 2b80 23be c29a a33c
00000300: 4ce4 febe 9317 3c3e 8c72 21be ce98 47bd
00000310: c700 8dbe 2804 a73e 09c4 a1be c25a 54be
00000320: b707 d5be 3e0c d7be 2d92 80be 53b0 6cbd
00000330: f6d9 3b3e 9206 7ebe 4088 8cbd 90df b73d
00000340: be01 873c abd0 69be 93ff c93e b5b6 46be
00000350: c204 0cbe ebf9 d0be 8c02 af3d 159f b03e
00000360: 20d2 bc3e f59c 0bbe d4a8 a9bc ebcf 82be
00000370: cc78 edbe 8189 683d a54c afbe 989a 1b3d
00000380: aa28 0abe 8071 9c3e 774b 0cbf 3aea d93e
00000390: 3e30 23bf d34c 4fbe 6153 9abd 0ef3 c2be
000003a0: b7c9 453e 4cec c8be ca8b 4ebe 1ae9 8c3d
000003b0: 1684 dabe c6d7 cfbe d013 48bf e5bf b9be
000003c0: d714 c6be 46d8 85be 8405 533d 4817 0a3e
000003d0: 9d59 413e eb34 43be b7ab a3be 52f9 27bc
000003e0: cdd6 45be f70d 99be dc61 a33d f271 acbc
000003f0: 901d 59be 422e 053e ceb5 ce3e 75b1 e7bd

feature.bias_hh_l0 f4 [512]
0.15740187 -0.023036366 -0.12343026 -0.48737904 0.6138245 0.07589951 0.3725138 0.3301845
0.05345961 0.116281606 0.23528872 0.20482986 0.15892452 1.2234215 0.13941228 0.14837751
0.107096285 -0.07644343 0.4066592 -0.13697164 -0.03012395 0.094082706 -0.00828023 0.77615005
-0.095986456 0.27502152 -0.44331443 0.04641469 0.17417794 1.0462605 1.0900468 0.0540341
-0.015434148 0.18701167 0.038788028 0.031528942 0.65353173 0.40827116 0.11588026 1.1961555
-0.15325405 0.2560095 -0.19546898 0.79559153 -0.1575828 0.3355531 -0.0009749774 -0.26001623
1.0396612 0.08178735 0.504771 -0.3440628 -0.16063747 -0.17858796 -0.07099537 -0.07589302
0.16175249 1.0268408 -0.31998447 0.07490258 -0.44737157 -0.013477891 0.300163 -0.008384726
-0.06723058 0.21824342 0.15568566 0.4750675 0.13963665 -0.013023108 0.13944149 0.36242664
-0.2659458 -0.006749552 0.88633746 0.877849 0.2900576 0.08280261 0.2512557 -0.17548433
-0.06953761 -0.49705243 -0.12995037 -0.5074041 0.093658775 0.374932 0.045357194 0.77223563
0.7133611 0.087255076 0.11517253 -0.11536379 0.066322625 0.9260085 0.10950608 -0.038077444
0.44623986 -0.15683869 0.39062136 -0.041492186 0.36783344 -0.16390069 0.45022795 0.9972302
1.1388444 0.23289803 -0.30667594 -0.36905992 -0.123933524 -0.3695605 0.44001517 1.3784571
0.053803645 0.16921198 -0.014861044 -0.13288015 0.5386014 0.130546 0.45377535 -0.17700525
0.32273757 -0.081205904 0.04281757 -0.31917262 0.54013747 0.088435754 -0.0130728735 -0.2911777
0.12856066 -0.25141189 -0.21847402 -0.03646616 -0.49258298 -0.10208442 -0.3519052 -0.7122687
-0.072669655 0.09038558 0.21754639 0.037625432 -0.18672007 0.1756942 -0.67141014 -0.012251618
0.019064868 -0.06258237 -0.34711927 -0.54074764 -0.019573152 -0.22041045 -0.3036181 -0.3055175
-0.16396964 0.18638767 0.010940707 0.19168285 -0.5044479 -0.5990557 -0.08485655 -0.21914718
0.0033982424 -0.25115976 -0.16810943 0.14281368 -0.15569589 0.17586994 -0.21161057 -0.15040995
-0.110994026 -0.0963516 0.36949185 0.6853938 -0.214961 0.07256504 0.21820153 0.28333983
-0.5327328 0.05411395 -0.0715206 -0.056541607 -0.19118588 -0.24313836 0.021046378 -0.22411424
-0.14182651 -0.49205425 -0.11699851 -0.3558134 -0.17294529 -0.12890172 -0.12833321 0.09778171
-0.5365891 0.1173329 0.07260359 0.0045043835 -0.47962338 0.18705992 -0.41698503 -0.26837668
-0.38740364 -0.49305022 -0.26462185 -0.1288218 -0.023193235 -0.23560561 -0.16976662 0.06253633
-0.11299674 -0.23992392 0.35855937 -0.20894721 -0.0035779485 -0.53572804 -0.11094825 0.31388143
0.37458116 -0.19340847 -0.025469914 -0.3936464 -0.37393674 -0.046113018 -0.2736297 0.02465579
-0.03542242 0.19824325 -0.4445504 0.25545326 -0.75167763 -0.26050472 -0.24991378 -0.21962133
0.18574934 -0.3307892 -0.12858179 0.20225002 -0.40535784 -0.38556132 -0.6648045 -0.28504932
-0.31491345 -0.2563909 -0.09968847 0.07375661 0.13268046 -0.28549868 -0.4267143 0.08150091
-0.23451346 -0.22967702 0.105482094 -0.09340556 -0.32355195 0.099538326 0.12062754 -0.11943657
00000000: f52d 213e c3b6 bcbc 01c9 fcbd bf89 f9be
00000010: 9a23 1d3f 3471 9b3d 21ba be3e f10d a93e
00000020: 77f8 5a3d 0d25 ee3d 87ef 703e ebbe 513e
00000030: 1cbd 223e 1399 9c3f 18c2 0e3e 46f0 173e
00000040: 4c55 db3d 5f8e 9cbd a235 d03e 4b42 0cbe
00000050: 81c6 f6bc 6fae c03d cda9 07bc c5b1 463f
00000060: 8c94 c4bd 9fcf 8c3e 1cfa e2be 541d 3e3d
00000070: b45b 323e ddeb 853f a786 8b3f dc52 5d3d
00000080: 82df 7cbc fd7f 3f3e 32e0 1e3d 7e24 013d
00000090: db4d 273f eb08 d13e a152 ed3d a01b 993f
000000a0: a1ee 1cbe ad13 833e 0529 48be e3ab 4b3f
000000b0: 635d 21be 9ecd ab3e a095 7fba d920 85be
000000c0: 9e13 853f 2080 a73d ac38 013f 0029 b0be
000000d0: 267e 24be c3df 36be 0566 91bd cd6d 9bbd
000000e0: 72a2 253e 856f 833f 01d5 a3be 8666 993d
000000f0: e30d e5be 5fd2 5cbc f7ae 993e 1760 09bc
00000100: 30b0 89bd 347b 5f3e 106c 1f3e 0c3c f33e
00000110: e9fc 0e3e e05e 55bc c0c9 0e3e fc8f b93e
00000120: 0c2a 88be 592b ddbb 03e7 623f b6ba 603f
00000130: 6e82 943e 6a94 a93d 96a4 803e 2ab2 33be
00000140: bc69 8ebd a87d febe b611 05be 3ce5 01bf
00000150: 2cd0 bf3d 16f7 bf3e 77c8 393d 3cb1 453f
00000160: d59e 363f cab2 b23d 93df eb3d da43 ecbd
00000170: 28d4 873d e50e 6d3f b944 e03d 18f7 1bbd
00000180: 8d79 e43e 529a 20be 86ff c73e b6f3 29bd
00000190: aa54 bc3e 95d5 27be 4784 e63e 7a4a 7f3f
000001a0: a7c5 913f d27c 6e3e a104 9dbe 6cf5 bcbe
000001b0: dcd0 fdbd 0937 bdbe ab49 e13e 4871 b03f
000001c0: 3661 5c3d e845 2d3e bc7b 73bc bc11 08be
000001d0: c8e1 093f daad 053e 3e55 e83e dd40 35be
000001e0: dc3d a53e 484f a6bd 7a61 2f3d 986a a3be
000001f0: 7346 0a3f ce1d b53d 9b2f 56bc 3e15 95be
00000200: 68a5 033e 0fb9 80be a7b7 5fbe 8a5d 15bd
00000210: d633 fcbe a311 d1bd eb2c b4be 3e57 36bf
00000220: d4d3 94bd 131c b93d 7bc4 5e3e 201d 1a3d
00000230: 8c33 3fbe 2ee9 333e 89e1 2bbf 03bb 48bc
00000240: ed2d 9c3c 302b 80bd 9eb9 b1be 706e 0abf
00000250: e057 a0bc 47b3 61be d573 9bbe ca6c 9cbe
00000260: a8e7 27be 69dc 3e3e a740 333c 8248 443e
00000270: 7f23 01bf b75b 19bf 45c9 adbd 1e68 60be
00000280: 0cb5 5e3b 0398 80be e124 2cbe c03d 123e
00000290: be6e 1fbe 4017 343e 71b0 58be 1105 1abe
000002a0: d650 e3bd fd53 c5bd 092e bd3e f875 2f3f
000002b0: bd1e 5cbe fb9c 943d 3970 5f3e eb11 913e
000002c0: 2d61 08bf 97a6 5d3d 6479 92bd 2c98 67bd
000002d0: 3bc6 43be 43f9 78be 7469 ac3c 347e 65be
000002e0: f83a 11be 89ee fbbe ea9c efbd 2d2d b6be
000002f0: 9218 31be d0fe 03be c869 03be c741 c83d
00000300: e75d 09bf 3b4c f03d 31b1 943d 8299 933b
00000310: 3291 f5be a38c 3f3e 107f d5be ab68 89be
00000320: c559 c6be 1471 fcbe 847c 87be dde9 03be
00000330: bdff bdbc 9942 71be 4dd7 2dbe 0c13 803d
00000340: d66a e7bd 9eae 75be 1895 b73e 42f6 55be
00000350: 047c 6abb 7925 09bf d638 e3bd 11b5 a03e
00000360: 1ac9 bf3e df0c 46be 48a6 d0bc 058c c9be
00000370: a374 bfbe 01e1 3cbd 3119 8cbe f0fa c93c
00000380: 1917 11bd 4700 4b3e 1c9c e3be c5ca 823e
00000390: f26d 40bf e060 85be 66e9 7fbe 6ae4 60be
000003a0: 1335 3e3e 345d a9be f2aa 03be a11a 4f3e
000003b0: 108b cfbe 4b68 c5be a130 2abf fcf1 91be
000003c0: 563c a1be ab45 83be 7829 ccbd b50d 973d
000003d0: 63dd 073e e22c 92be 4c7a dabe f3e9 a63d
000003e0: 4c24 70be 7430 6bbe ff06 d83d 6a4b bfbd
000003f0: 9aa8 a5be c0da cb3d 920b f73d 299b f4bd

feature.weight_ih_l0_reverse f4 [512, 64]
0.99835765 -0.07617838 0.17837156 0.3169088 0.585674 -0.36762428 -0.22905545 -0.21783434
-0.547289 0.08469727 -0.14819333 0.21202777 0.07038797 0.83443993 0.49983126 -0.3191192
-0.37449342 -0.9000059 0.2523063 1.1544731 -0.2712685 -1.2753597 -1.2583066 0.19927701
-0.00020686517 -0.562339 -0.116818026 0.030742867 0.09041926 -0.31465027 0.07718149 0.23804145
0.07033392 0.13644566 0.83787817 0.017076297 -0.29392442 0.44189027 0.016697466 -1.076144
-0.31217617 -0.5967389 -0.08851449 0.4435693 -0.15524708 0.3761402 -0.82405907 0.48531747
-0.06439822 0.20518962 0.71381307 0.070385076 0.63457793 -0.026763277 0.13280272 -0.5850684
0.15138079 0.51539594 -0.66527164 -0.02917193 -1.367522 0.31109518 -0.8921154 -0.26917383
0.30978686 -0.57701236 0.051308293 -0.33903775 0.08443469 0.14169532 -0.33644062 0.22700435
-0.5569402 -0.03476268 0.6126473 0.4524787 0.6724312 -0.65419257 -0.13958761 -1.1272639
0.06712187 0.88608396 1.0224947 0.15173718 -0.83362985 0.29719666 -0.47621503 -0.2715634
0.8609255 0.35373086 -0.96006244 -0.31885865 -1.7102468 0.9181591 0.25176325 -0.52689725
0.06559897 0.26397663 1.1586165 0.07308819 -0.60031784 -0.72793216 -1.5114641 -0.14394574
-0.35349965 0.5987208 0.45290065 -0.064612545 -0.111832224 -1.653527 0.40305313 0.48711786
0.5559072 -0.92518413 0.16008744 0.4650243 -0.16984281 -1.078412 -0.29351562 0.20198831
0.11930433 -0.26580814 0.2978497 -0.067988075 -0.29545215 0.38510022 -0.18148617 0.28603142
1.0914092 0.92572 0.9184668 0.6079479 0.1814517 0.39255196 1.0143977 0.17296071
-0.5440579 -0.79931813 0.68744916 1.4505477 0.75367266 0.5887475 0.274898 -0.7350996
-0.19788457 0.30334634 -0.5676328 0.5287506 0.61603117 -1.105354 0.28907895 -1.4826021
-0.15921144 -0.54680914 -0.07565804 0.36505985 -0.480072 1.3224509 -0.44372386 0.51055443
1.1758618 -0.73488677 0.49500915 -0.82869214 0.4012898 -1.025111 -0.1599056 -0.09349914
0.38660082 -0.6827659 0.856645 -0.4125409 -1.1977104 0.062368054 -0.88331884 -0.8636827
1.2707815 -0.67166406 -0.78444374 -0.02654851 -0.11545901 -0.2725552 -0.37125152 0.87400293
-0.30549455 0.13865143 0.53080165 0.21967068 1.0077999 -0.4610171 -0.13723172 0.27231997
0.17267334 -0.1402098 -0.12864393 0.09678837 0.78996533 0.3110327 -1.2074298 -0.28151485
-1.4162492 -0.9356686 -0.26616463 -0.67875475 0.39795157 0.10867167 1.0057738 -0.6376238
-0.3103934 -0.21217412 0.48650476 0.22935809 -0.26626286 -1.1645291 -0.31089672 -0.061167847
0.24044777 0.50286734 -0.40071243 0.026168833 -0.41343075 0.4152887 -0.5725665 -0.2723261
0.3326981 -0.3759693 -0.6879612 -0.04080919 -0.08391298 0.6183692 -0.078338824 -0.3890955
1.3905358 -1.0332453 -0.044279244 -0.3601836 -0.022129707 0.62240815 0.04170379 0.5121759
0.93561834 -0.7144296 0.45811123 0.08962823 -0.034878068 0.45802093 0.5073911 -1.2077895
-0.0043103136 1.5447934 0.9114639 0.34741658 -0.4554686 0.004352603 -0.81077015 1.197572
00000000: 5e94 7f3f 6903 9cbd 09a7 363e df41 a23e
00000010: bbee 153f 4039 bcbe 838d 6abe f70f 5fbe
00000020: 221b 0cbf c375 ad3d febf 17be cf1d 593e
00000030: 9127 903d db9d 553f e2e9 ff3e 9763 a3be
00000040: 9abd bfbe c966 66bf 4b2e 813e c6c5 933f
00000050: b4e3 8abe fd3e a3bf 3110 a1bf 460f 4c3e
00000060: f2e9 58b9 73f5 0fbf 4a3e efbd 77d8 fb3c
00000070: bc2d b93d d719 a1be 5411 9e3d 23c1 733e
00000080: 3b0b 903d 69b8 0b3e 2f7f 563f 97e3 8b3c
00000090: 437d 96be 713f e23e 20c9 883c 16bf 89bf
000000a0: 8ed5 9fbe e1c3 18bf 1647 b5bd 841b e33e
000000b0: 17f9 1ebe 7395 c03e 89f5 52bf 887b f83e
000000c0: 37e3 83bd 3a1d 523e 74bc 363f 0d26 903d
000000d0: b373 223f a93e dbbc 70fd 073e 0bc7 15bf
000000e0: 9103 1b3e fdf0 033f 3e4f 2abf f9f9 eebc
000000f0: f60a afbf de47 9f3e ad61 64bf 27d1 89be
00000100: 629c 9e3e 15b7 13bf a528 523d 5b96 adbe
00000110: 18ec ac3d 9418 113e f241 acbe d473 683e
00000120: a293 0ebf 5063 0ebd 74d6 1c3f 4aab e73e
00000130: 7324 2c3f 2a79 27bf 0ef0 0ebe 2f4a 90bf
00000140: 3177 893d 66d6 623f 1be1 823f fe60 1b3e
00000150: c468 55bf 292a 983e 75d2 f3be 5c0a 8bbe
00000160: 9d65 5c3f 361c b53e a7c6 75bf 7141 a3be
00000170: 5ee9 dabf 7a0c 6b3f 1de7 803e bde2 06bf
00000180: c158 863d f227 873e 8c4d 943f 43af 953d
00000190: 6eae 19bf c359 3abf a877 c1bf 8366 13be
000001a0: e8fd b4be c445 193f 98e2 e73e 9553 84bd
000001b0: 4b08 e5bd c6a6 d3bf fb5c ce3e 8367 f93e
000001c0: ef4f 0e3f ded8 6cbf f6ed 233e aa17 ee3e
000001d0: 46eb 2dbe 6809 8abf ae47 96be 06d6 4e3e
000001e0: d455 f43d 0118 88be c27f 983e 553d 8bbd
000001f0: 8145 97be db2b c53e 83d7 39be b672 923e
00000200: 4cb3 8b3f fcfb 6c3f a420 6b3f 79a2 1b3f
00000210: 79ce 393e 92fc c83e c9d7 813f 9d1c 313e
00000220: 6147 0bbf 1da0 4cbf abfc 2f3f 8cab b93f
00000230: b1f0 403f 28b8 163f 6ebf 8c3e 7d2f 3cbf
00000240: 41a2 4abe 3650 9b3e 6250 11bf 335c 073f
00000250: 38b4 1d3f 3d7c 8dbf 2802 943e e8c5 bdbf
00000260: 5308 23be affb 0bbf 9af2 9abd 20e9 ba3e
00000270: ffcb f5be 1246 a93f c62f e3be b2b3 023f
00000280: a482 963f 8a21 3cbf d771 fd3e 2b25 54bf
00000290: db75 cd3e d636 83bf 4bbe 23be 7a7c bfbd
000002a0: 8bf0 c53e bfc9 2ebf 164d 5b3f 9038 d3be
000002b0: 934e 99bf a575 7f3d 2f21 62bf 4f1a 5dbf
000002c0: f8a8 a23f 2df2 2bbf 4ed1 48bf 437c d9bc
000002d0: c675 ecbd 5b8c 8bbe ae14 bebe a8be 5f3f
000002e0: c869 9cbe a4fa 0d3e 9ee2 073f 5af1 603e
000002f0: 96ff 803f 6f0a ecbe 7986 0cbe 866d 8b3e
00000300: 48d1 303e 2893 0fbe 3cbb 03be fb38 c63d
00000310: 2b3b 4a3f ae3f 9f3e 0f8d 9abf b722 90be
00000320: a747 b5bf fa87 6fbf bb46 88be dfc2 2dbf
00000330: 4fc0 cb3e 418f de3d 32bd 803f 503b 23bf
00000340: e2eb 9ebe 2c44 59be 2717 f93e d9dc 6a3e
00000350: 9b53 88be 4a0f 95bf db2d 9fbe 238b 7abd
00000360: f137 763e eabb 003f 2e2a cdbe 0560 d63c
00000370: 32ad d3be b8a0 d43e b893 12bf 546e 8bbe
00000380: 6857 aa3e 0c7f c0be 3a1e 30bf 8a27 27bd
00000390: 92da abbd 724d 1e3f 1b70 a0bd 8637 c7be
000003a0: 14fd b13f 6241 84bf 275e 35bd fc69 b8be
000003b0: 5c49 b5bc 2456 1f3f 98d1 2a3d f61d 033f
000003c0: af84 6f3f dce4 36bf 8e8d ea3e 018f b73d
000003d0: 4edc 0ebd b881 ea3e 62e4 013f d998 9abf
000003e0: 883d 8dbb cabb c53f b355 693f 96e0 b13e
000003f0: 2e33 e9be 48a0 8e3b a28e 4fbf 0a4a 993f

feature.weight_hh_l0_reverse f4 [512, 128]
0.09799842 0.5950699 0.005214912 -0.24845062 -0.6836606 -0.24525009 -0.306866 -0.518631
-0.7655251 -0.28649473 0.24569175 0.0075861174 0.040521003 0.5553741 -0.07192422 0.17054433
0.286308 0.106618665 -0.31195197 0.14762674 -0.33012152 -1.1680925 -0.18697046 0.39236197
0.093012534 0.22270639 -0.5690559 -0.49276012 -0.0830494 0.47323734 0.30960706 -0.47225735
0.34234616 -1.2215371 0.010816541 0.02424293 -0.12574565 0.50349075 1.5419912 0.65345603
0.28690726 0.3253418 -0.75240487 -0.6634623 0.8992488 -0.6916535 0.44809702 0.14587422
-0.24337043 -0.659309 -0.08751944 -0.4022941 -0.13956553 -0.5126325 0.049335912 -0.42488873
-0.858383 -0.30665034 -0.34771428 -0.18317719 0.3934546 0.84209055 0.44185013 0.47054935
-0.58250695 -0.2732767 -0.4388223 0.20290679 -0.12403777 -0.51789945 0.3110062 0.13706994
-0.07309472 -0.806418 -0.79519993 -0.6749995 -0.5341846 -0.010830064 -0.73116285 -0.72375727
0.11016307 -0.6781037 -0.18758716 0.44673952 -0.25635087 -0.82559687 -0.14581533 0.09347083
-0.1454098 -0.79254156 0.18521416 -1.3117493 0.8232785 0.65766895 -0.29535145 -0.42782575
0.35458577 -0.5075841 0.13004003 0.05859431 0.24159451 0.2222938 0.40349668 -0.14150992
0.28827956 -0.25538066 0.03973003 0.3710694 -0.596509 0.09458043 0.53238064 -0.598511
-0.42097607 0.2303839 -0.24805824 0.6515924 0.37291127 -0.19781613 0.36494142 1.166848
-0.019180045 -0.0036031036 -0.6963016 -0.19590421 0.9474307 0.23724547 0.39959288 0.93056756
1.1023288 -0.47541597 0.20826535 1.1974142 0.3429259 -0.1794395 0.42107674 -0.29634142
-0.094466686 0.7660011 -0.31328025 -0.016606 0.2811573 -0.2065682 -0.44669762 0.112132356
-0.48689178 -0.027846118 -0.515097 -0.4316022 -0.27066368 -0.5933043 0.3698185 0.22610456
1.1662213 1.5890738 -0.16569968 -0.7253513 -0.16165683 -0.08500302 -0.18265626 0.23144639
-0.23765361 0.7743524 -0.2582937 0.4838133 -0.097212546 0.44794086 0.43676817 0.5477223
0.38321584 -0.6229323 -0.024698002 0.09387076 0.12010386 -0.75525254 -0.28090632 0.66674423
-0.7485477 -0.98086226 0.04380112 0.7430137 -0.1340734 -0.34880397 -0.28750053 -0.0358939
-0.64461356 0.16148192 -0.6781229 -0.057829008 -0.15885727 0.13431197 0.2727872 0.98088855
0.12157001 -0.1115649 0.49715203 -0.048983254 -0.31022277 0.28217208 -0.28060818 0.2918308
-0.2914297 -0.10146844 -0.24605866 -0.14596646 -0.5883897 0.9765699 0.42089698 -0.029135158
0.52799183 -0.7875563 0.057083607 -0.15099598 0.3890616 -0.7593556 -0.19892733 0.076705225
-0.3920577 0.4088388 0.11618475 0.4168365 -0.2515702 -1.0237991 -0.97698385 -0.07375892
0.8511879 0.38315836 0.076736 -0.9269784 -0.25670105 0.114568524 0.67178345 0.10119655
0.05062668 -0.24642245 -0.3926405 -0.05062664 0.39845508 -0.008162914 -0.43550605 0.36389342
0.3208516 -0.90723735 -0.13901247 0.5060543 -0.8881606 0.38779476 0.21727866 -0.022270689
0.8382936 0.48008323 0.28591323 -0.539759 -0.42180106 0.017262839 -0.1757959 0.48600057
00000000: 65b3 c83d 8056 183f dae1 aa3b d769 7ebe
00000010: 6204 2fbf d722 7bbe 8a1d 9dbe 00c5 04bf
00000020: 74f9 43bf 70af 92be 9e96 7b3e f794 f83b
00000030: 5af9 253d ff2c 0e3f 014d 93bd 2ca3 2e3e
00000040: f696 923e e35a da3d 2bb8 9fbe 772b 173e
00000050: b005 a9be 0e84 95bf 2f75 3fbe abe3 c83e
00000060: 5b7d be3d 250d 643e a6ad 11bf 0e4b fcbe
00000070: ce15 aabd 2a4c f23e d184 9e3e b7cb f1be
00000080: ff47 af3e 545b 9cbf dc37 313c 1c99 c63c
00000090: 78c3 00be c5e4 003f f85f c53f e548 273f
000000a0: 82e5 923e 3393 a63e 9b9d 40bf aad8 29bf
000000b0: 2b35 663f 3410 31bf f96c e53e 0d60 153e
000000c0: 1936 79be 7ac8 28bf 643d b3bd 7ef9 cdbe
000000d0: 44ea 0ebe e23b 03bf 7414 4a3d 048b d9be
000000e0: fdbe 5bbf 4601 9dbe 9b07 b2be cd92 3bbe
000000f0: e272 c93e 3f93 573f 2e3a e23e d8eb f03e
00000100: 2d1f 15bf ecea 8bbe 51ad e0be ccc6 4f3e
00000110: 8407 febd 0f95 04bf 343c 9f3e 105c 0c3e
00000120: afb2 95bd 6971 4ebf 3992 4bbf c4cc 2cbf
00000130: 52c0 08bf 9570 31bc 7d2d 3bbf 2848 39bf
00000140: 2d9d e13d 3498 2dbf d916 40be 0bbb e43e
00000150: 6c40 83be 515a 53bf 9d50 15be a26d bf3d
00000160: 4ee6 14be 01e4 4abf c8a8 3d3e 67e7 a7bf
00000170: 61c2 523f fe5c 283f 4e38 97be fa0b dbbe
00000180: 448c b53e 08f1 01bf 3729 053e 9600 703d
00000190: 8d64 773e fca0 633e 1e97 ce3e fae7 10be
000001a0: 6199 933e 41c1 82be f5bb 223d cffc bd3e
000001b0: d0b4 18bf 62b3 c13d 194a 083f 0438 19bf
000001c0: 2d8a d7be c2e9 6b3e fb02 7ebe c2ce 263f
000001d0: 3aee be3e 5090 4abe 9ad9 ba3e 465b 953f
000001e0: 781f 9dbc 0c22 6cbb d240 32bf 1d9b 48be
000001f0: d18a 723f 7af0 723e 7097 cc3e ad39 6e3f
00000200: 1c19 8d3f b969 f3be 8343 553e de44 993f
00000210: fc93 af3e fdbe 37be 5f97 d73e 10ba 97be
00000220: c077 c1bd a618 443f 4566 a0be 4e09 88bc
00000230: daf3 8f3e 9d86 53be 8db5 e4be a6a5 e53d
00000240: e149 f9be 8b1d e4bc 66dd 03bf f7fa dcbe
00000250: 6e94 8abe cae2 17bf da58 bd3e f487 673e
00000260: bd46 953f c566 cb3f 2dad 29be 9fb0 39bf
00000270: 5e89 25be 1016 aebd 3e0a 3bbe 4800 6d3e
00000280: 785b 73be f53b 463f 123f 84be 60b6 f73e
00000290: 5f17 c7bd 8158 e53e 14a0 df3e 8737 0c3f
000002a0: de34 c43e 7e78 1fbf 7753 cabc 503f c03d
000002b0: 03f9 f53d 3b58 41bf f4d2 8fbe c0af 2a3f
000002c0: d2a0 3fbf ca19 7bbf ce68 333d 2536 3e3f
000002d0: 8a4a 09be 6f96 b2be 4533 93be 7b05 13bd
000002e0: 6505 25bf 845b 253e 7699 2dbf 1cde 6cbd
000002f0: 7bab 22be 1489 093e c4aa 8b3e 831b 7b3f
00000300: b3f9 f83d 237c e4bd b68a fe3e aaa2 48bd
00000310: 85d5 9ebe dc78 903e e0ab 8fbe d96a 953e
00000320: 4636 95be afce cfbd cdf6 7bbe 3b78 15be
00000330: b5a0 16bf 7c00 7a3f cf7f d73e dbac eebc
00000340: 792a 073f 4a9d 49bf 80d0 693d b19e 1abe
00000350: 1533 c73e 2165 42bf 9bb3 4bbe a117 9d3d
00000360: c9bb c8be 5253 d13e 45f2 ed3d 986b d53e
00000370: cfcd 80be d90b 83bf 9d1b 7abf eb0e 97bd
00000380: 73e7 593f 552d c43e c427 9d3d 754e 6dbf
00000390: 526e 83be e7a2 ea3d 00fa 2b3f 2340 cf3d
000003a0: ec5d 4f3d 2b56 7cbe 2d08 c9be e15d 4fbd
000003b0: 4e02 cc3e bebd 05bc a6fa debe 3d50 ba3e
000003c0: a946 a43e b540 68bf 4959 0ebe c68c 013f
000003d0: 7e5e 63bf 098d c63e 4c7e 5e3e 0571 b6bc
000003e0: 699a 563f 78cd f53e 3863 923e a52d 0abf
000003f0: 4ff6 d7be cc6a 8d3c d703 34be 11d5 f83e

feature.bias_ih_l0_reverse f4 [512]
-0.18739955 0.17767225 0.11423119 -0.15740897 0.38910368 0.19076829 0.2090289 0.16292603
0.3889734 -0.089869834 0.2201033 0.43576625 -0.0986846 0.08520872 0.06987891 -0.07042744
-0.18494132 0.19798511 -0.20258489 0.08698395 0.32164833 -0.05948555 0.08006787 0.096474275
0.32916147 -0.016176498 0.33751267 0.72498953 0.18698508 -0.255262 0.2553438 0.025228558
-0.026016159 -0.062345076 -0.079446375 -0.07546258 -0.28345725 0.34972903 0.038900375 0.7639756
-0.3631349 -0.22380836 -0.21755253 0.25931403 0.23712532 -0.18386169 0.049007773 -0.28137812
0.067227066 -0.0057542957 0.17327239 -0.38417667 -0.15159224 0.22361255 -0.040823266 0.57183653
0.17053984 0.797793 -0.378911 0.19440468 -0.25261214 -0.29192418 0.44939145 0.7862313
0.5532071 -0.12245982 0.52954566 0.33786714 0.5035819 0.034560084 -0.3204946 0.19483171
0.51191217 0.33765346 0.06772287 -0.10095636 0.14103538 0.08053146 -0.19524299 0.37873936
-0.14197947 -0.45289147 -0.20705768 0.040452674 0.026735056 0.6449313 0.30839097 0.5279831
0.30772442 0.6964632 0.23516127 0.45640966 0.07048377 0.31618693 0.4520623 0.015524549
-0.0659813 0.09872753 0.50008994 0.25298464 -0.040686972 -0.03579543 0.4853012 0.15573235
0.2416632 -0.4314714 0.36549464 0.03058714 -0.2364285 0.0583267 0.13576737 0.5252803
-0.056532837 0.71046793 0.08437722 0.47809488 -0.0693258 0.45955074 0.05125931 -0.030063804
0.6131824 0.2210735 -0.041532308 0.3029548 -0.19564936 -0.20178269 0.2824535 0.48455605
-0.28435552 0.067076474 0.3220667 -0.19228722 0.43469974 0.57793146 -0.31314382 0.34104592
0.2885969 0.19769546 -0.17518252 0.5618712 -0.11047426 0.036064614 0.019595312 0.05326529
0.7222073 -0.18018031 -0.20315604 -0.055086195 -0.082399346 -0.498833 -0.12891586 0.48201045
0.22596046 0.10729833 -0.34116042 -0.36523739 0.14311515 0.6638547 -0.03196804 -0.2073526
0.31102344 0.1930904 -0.03191827 -0.17885773 0.5559658 -0.3544874 -0.01764828 -0.62094545
0.21771689 0.2010849 -0.14733616 0.51874053 -0.067666344 0.14137316 -0.08684998 0.3063237
0.2339947 0.33315894 0.049321897 0.05026414 0.29537746 0.53879565 0.13509639 0.6446978
0.20213261 0.06485662 0.19923626 0.106084816 0.09133899 -0.059475143 -0.5655046 -0.480235
-0.32132706 -0.045496017 -0.5555479 -0.059037406 -0.12638874 -0.13261342 0.014312088 0.06501808
0.667029 -0.28291422 0.1372937 -0.52658826 -0.06628732 -0.25200158 -0.57915545 -0.6739652
-0.09506236 0.3107282 0.17474812 -0.022581028 -0.33123142 0.4558908 -0.92362684 -0.31844643
-0.0020711157 -0.63952607 0.19850002 -0.023599595 -0.18284999 -0.06963293 -0.020390738 -0.0017784644
0.14134425 0.32227924 -0.2965047 0.085385196 0.3648657 -0.29156262 -0.034123603 -0.592111
0.13797733 -0.043279134 0.64341354 0.070323646 -0.222649 -0.17387448 -0.23029211 -0.08909195
0.027324557 0.063253134 0.10934185 4.14144e-05 -0.09574266 -0.2433846 -0.27950603 -0.12627868
0.25675648 0.036259215 -0.064704 -0.2533873 0.14697202 0.0011886266 0.4414016 -0.2544385
00000000: abe5 3fbe b7ef 353e 0bf2 e93d d12f 21be
00000010: 9938 c73e c358 433e ac0b 563e 15d6 263e
00000020: 8627 c73e ad0d b8bd c262 613e c11c df3e
00000030: 271b cabd e981 ae3d ad1c 8f3d 433c 90bd
00000040: 4261 3dbe 9cbc 4a3e 6a72 4fbe a424 b23d
00000050: 17af a43e 1fa7 73bd a0fa a33d 4e94 c53d
00000060: da87 a83e 9384 84bc 76ce ac3e ea98 393f
00000070: 0479 3f3e b3b1 82be 6cbc 823e 1fac ce3c
00000080: d71f d5bc 8d5d 7fbd c8b4 a2bd 208c 9abd
00000090: 4f21 91be af0f b33e 0056 1f3d e893 433f
000000a0: d1ec b9be 052e 65be 17c6 5ebe cfc4 843e
000000b0: fbd0 723e 3d46 3cbe 60bc 483d cb10 90be
000000c0: 58ae 893d 888e bcbb 516e 313e ceb2 c4be
000000d0: ff3a 1bbe b0fa 643e 4c36 27bd e163 123f
000000e0: ffa1 2e3e 293c 4c3f 9f00 c2be 0512 473e
000000f0: 6156 81be 1677 95be a316 e63e 7446 493f
00000100: fb9e 0d3f 37cc fabd 4e90 073f ecfc ac3e
00000110: beea 003f e08e 0d3d de17 a4be f781 473e
00000120: ad0c 033f eae0 ac3e 4ab2 8a3d 35c2 cebd
00000130: 946b 103e aeed a43d c7ed 47be 20ea c13e
00000140: 1163 11be 64e1 e7be ee06 54be b4b1 253d
00000150: 7a03 db3c 381a 253f 6ce5 9d3e e729 073f
00000160: 0e8e 9d3e 6a4b 323f 1ece 703e 87ae e93e
00000170: cb59 903d 41e3 a13e b674 e73e ae5a 7e3c
00000180: 3421 87bd a931 ca3d e505 003f 3487 813e
00000190: 62a7 26bd 3b9e 12bd 6679 f83e 4d78 1f3e
000001a0: 8f76 773e d2e9 dcbe 1d22 bb3e e291 fa3c
000001b0: 501a 72be fae7 6e3d 9a06 0b3e c578 063f
000001c0: fa8e 67bd 3ae1 353f f7cd ac3d dac8 f43e
000001d0: affa 8dbd 3c4a eb3e 48f5 513d 5e48 f6bc
000001e0: 86f9 1c3f 1761 623e c81d 2abd e41c 9b3e
000001f0: 4e58 48be 1fa0 4ebe bf9d 903e bb17 f83e
00000200: 0c97 91be 645f 893d ede5 a43e f1e6 44be
00000210: f790 de3e 51f3 133f 6354 a0be 929d ae3e
00000220: f9c2 933e ae70 4a3e 0c63 33be cad6 0f3f
00000230: 5440 e2bd 7db8 133d 5986 a03c b42c 5a3d
00000240: 94e2 383f 3081 38be 2308 50be 10a2 61bd
00000250: fdc0 a8bd 0a67 ffbe 8502 04be 13ca f63e
00000260: 2e62 673e 3abf db3d 94ac aebe 6500 bbbe
00000270: c78c 123e 62f2 293f ebf0 02bd 3d54 54be
00000280: 773e 9f3e 7db9 453e bbbc 02bd 7b26 37be
00000290: c653 0e3f 5f7f b5be 2093 90bc 48f6 1ebf
000002a0: 2df1 5e3e 33e9 4d3e 4adf 16be 2ecc 043f
000002b0: a794 8abd 20c4 103e 67de b1bd 76d6 9c3e
000002c0: 4e9c 6f3e cf93 aa3e c205 4a3d c5e1 4d3d
000002d0: b73b 973e 83ee 093f b556 0a3e ea0a 253f
000002e0: dafb 4e3e 8cd3 843d 9704 4c3e ff42 d93d
000002f0: f00f bb3d 359c 73bd e9c4 10bf 5de1 f5be
00000300: fb84 a4be 085a 3abd 6338 0ebf 35d1 71bd
00000310: 0d6c 01be d0cb 07be 3f7d 6a3c 3328 853d
00000320: 6ac2 2a3f 22da 90be b896 0c3e 7dce 06bf
00000330: a5c1 87bd 5a06 81be 8843 14bf fc88 2cbf
00000340: 0eb0 c2bd c417 9f3e 2cf1 323e d9fb b8bc
00000350: 2a97 a9be 856a e93e cf72 6cbf 690b a3be
00000360: 8ebb 07bb fbb7 23bf 9743 4b3e f053 c1bc
00000370: 073d 3bbe b69b 8ebd 7a0a a7bc 5d1b e9ba
00000380: 8cbc 103e c901 a53e 77cf 97be 6fde ae3d
00000390: adcf ba3e b247 95be 31c5 0bbd 9694 17bf
000003a0: ee49 0d3e 7645 31bd c0b6 243f d805 903d
000003b0: 19fe 63be 270c 32be b2d1 6bbe d775 b6bd
000003c0: c0d7 df3c dc8a 813d 9fee df3d 60b4 2d38
000003d0: ba14 c4bd d039 79be 6a1b 8fbe 334f 01be
000003e0: 9675 833e 8b84 143d 8883 84bd fbbb 81be
000003f0: d57f 163e b1cb 9b3a 64ff e13e c345 82be

feature.bias_hh_l0_reverse f4 [512]
-0.044376094 0.07705885 0.04327275 -0.035780087 0.3603713 0.23933959 0.29095522 0.17545393
0.17456833 -0.018617537 0.38088596 0.39176738 -0.07726968 0.18958384 0.07845313 -0.21187167
-0.19280997 0.27080905 -0.16343191 0.10484543 0.32649156 0.17467375 0.11652086 0.15821569
0.33748156 -0.010840531 0.49267796 0.6786186 0.11877951 -0.15101956 0.12846826 0.07667488
-0.066434465 -0.09710712 -0.114675015 -0.0318925 -0.2575514 0.60653585 0.030311294 0.7673044
-0.26083595 -0.029207302 -0.14203073 0.49049446 0.3263173 -0.085618794 0.0084051145 -0.24411398
-0.03125738 0.11506819 0.1634998 -0.19268394 -0.2162274 0.22193882 0.0375797 0.5101506
0.27679244 0.7131731 -0.36315045 0.29350272 -0.21118435 -0.20432591 0.50324243 0.6912105
0.5489707 -0.024618527 0.5256897 0.08875194 0.43370086 -0.065441094 -0.08422801 0.1574214
0.41428334 0.42691213 0.1556349 -0.28575584 0.023631576 0.03610619 0.072476424 0.43756315
-0.15341389 -0.37697124 -0.14639229 -0.01977558 0.03257169 0.48734438 0.4614748 0.33445832
0.27260366 0.6860842 0.2630244 0.48252717 0.05813034 0.08416098 0.5114929 0.0042273
-0.024665201 0.18693754 0.5071194 0.2281296 -0.07615993 -0.009205611 0.41613862 0.20239206
0.20936355 -0.38401908 0.40319625 -0.022871766 -0.12797971 0.12230909 0.13287926 0.5138896
-0.022964986 0.736096 0.115071334 0.37068018 -0.04790218 0.48901626 0.15320164 -0.09600972
0.6583651 0.25144374 -0.066565596 0.058616128 -0.37796804 -0.089010544 0.36155 0.3482813
-0.3330357 0.117226146 0.3599739 -0.08845088 0.39385688 0.647338 -0.41461858 0.31456912
0.4684478 0.16429964 -0.02861454 0.53254414 -0.09236861 0.06694359 -0.014821077 0.008503013
0.7888982 -0.21795748 -0.18410186 -0.021555439 0.050616868 -0.43582535 -0.03734646 0.3381682
0.044271685 0.050060436 -0.35618258 -0.31733567 0.18467923 0.5846337 -0.111440495 -0.2936624
0.3979117 0.25079685 -0.19874403 -0.2106553 0.53609335 -0.2700289 0.120952845 -0.4845318
0.23360139 0.036660157 -0.08199804 0.64291286 0.061203636 0.02126838 -0.2106406 0.38854417
0.30988258 0.3921553 0.045770183 0.16234039 0.18530095 0.4966158 0.008889655 0.7290253
0.1730824 0.0037289136 0.17012784 0.1658433 0.11497339 -0.081990235 -0.4324767 -0.46336547
-0.42056334 0.03598707 -0.59121686 -0.09110977 -0.10342222 -0.12060178 0.04330344 0.025936179
0.74493754 -0.2109627 0.11980282 -0.4015598 0.05924071 -0.20904489 -0.4185243 -0.5850858
0.0050849477 0.44681525 0.11927514 0.0033499757 -0.22981308 0.27387396 -0.8370653 -0.21819605
-0.17399313 -0.70076454 0.16545992 -0.019631913 -0.025437672 -0.07341535 -0.11166922 -0.06597696
0.23313014 0.34532198 -0.40104893 -0.041628662 0.30579263 -0.13531025 -0.0080950875 -0.53780943
0.001236768 -0.0896927 0.4756431 0.051319394 -0.28993398 -0.16873395 -0.19072944 -0.13712534
-0.06422707 0.19325651 0.0531779 -0.09424328 -0.041728385 -0.21005498 -0.15270598 -0.08381616
0.18062721 0.06922 -0.12908047 -0.21901545 0.083644204 0.098441906 0.5104774 -0.091068335
00000000: b5c3 35bd 08d1 9d3d c43e 313d 248e 12bd
00000010: 9682 b83e 7015 753e 15f8 943e 32aa 333e
00000020: 0ac2 323e ce83 98bc 7c03 c33e bc95 c83e
00000030: 913f 9ebd 4422 423e 09ac a03d e3f4 58be
00000040: fa6f 45be 7ca7 8a3e b25a 27be 33b9 d63d
00000050: e729 a73e addd 323e 7da2 ee3d 4b03 223e
00000060: 62ca ac3e 7c9c 31bc 4940 fc3e f3b9 2d3f
00000070: ac42 f33d dfa4 1abe 2f8d 033e b807 9d3d
00000080: cb0e 88bd 19e0 c6bd bcda eabd b6a1 02bd
00000090: c7dd 83be ef45 1b3f 644f f83c 106e 443f
000000a0: 4a8c 85be 2744 efbc 8170 11be 1722 fb3e
000000b0: 1013 a73e e858 afbd 9bb5 093c 04f9 79be
000000c0: bd07 00bd dfa8 eb3d 7e6c 273e f04e 45be
000000d0: b76a 5dbe ee43 633e 2ced 193d 3b99 023f
000000e0: bdb7 8d3e 8392 363f dbee b9be fd45 963e
000000f0: b640 58be d03a 51be 7fd4 003f 2cf3 303f
00000100: 5889 0c3f cbac c9bc 9a93 063f 94c3 b53d
00000110: 0a0e de3e fb05 86bd bc7f acbd 1333 213e
00000120: f21c d43e 3a94 da3e c15e 1f3e 974e 92be
00000130: 0297 c13c 16e4 133d 856e 943d 4708 e03e
00000140: 8818 1dbe 6002 c1be dce7 15be 6600 a2bc
00000150: e469 053d 3485 f93e 6d46 ec3e 1f3e ab3e
00000160: b592 8b3e 37a3 2f3f 22ab 863e cd0d f73e
00000170: 141a 6e3d 985c ac3d 33f1 023f 2a85 8a3b
00000180: ad0e cabc 8e6c 3f3e 94d2 013f ce9a 693e
00000190: bdf9 9bbd 22d3 16bc 1f10 d53e dd3f 4f3e
000001a0: 6663 563e 269e c4be bd6f ce3e 925d bbbc
000001b0: 1d0d 03be 307d fa3d 8011 083e 458e 033f
000001c0: 1121 bcbc ca70 3c3f 85aa eb3d cbc9 bd3e
000001d0: 1435 44bd 5760 fa3e e4e0 1c3e bea0 c4bd
000001e0: 9d8a 283f 3cbd 803e 8b53 88bd 7717 703d
000001f0: 0785 c1be 294b b6bd 151d b93e ed51 b23e
00000200: a883 aabe 4314 f03d 804e b83e bc25 b5bd
00000210: 9ca7 c93e f1b7 253f e348 d4be 340f a13e
00000220: 64d8 ef3e 2a3e 283e 0a69 eabc d054 083f
00000230: c12b bdbd b919 893d 1ad4 72bc 3950 0b3c
00000240: 3cf5 493f 3f30 5fbe 3385 3cbe 0895 b0bc
00000250: a253 4f3d 8024 dfbe 9af8 18bd 6224 ad3e
00000260: 3a56 353d 2c0c 4d3d 905d b6be d279 a2be
00000270: 8d1c 3d3e 8eaa 153f ea3a e4bd eb5a 96be
00000280: 15bb cb3e 7268 803e 8e83 4bbe 06b6 57be
00000290: 6a3d 093f 3a41 8abe 20b6 f73d 8d14 f8be
000002a0: 3435 6f3e f628 163d 97ee a7bd f095 243f
000002b0: aab0 7a3d 073b ae3c 2bb2 57be 43ef c63e
000002c0: eea8 9e3e 94c8 c83e 8479 3b3d 8f3c 263e
000002d0: 88bf 3d3e 6d44 fe3e eaa5 113c 67a1 3a3f
000002e0: 833c 313e ca60 743b fe35 2e3e d3d2 293e
000002f0: 2b77 eb3d 7fea a7bd 966d ddbe 3d3e edbe
00000300: 1454 d7be 2e67 133d fd59 17bf c297 babd
00000310: 07cf d3bd 11fe f6bd f35e 313d 1c78 d43c
00000320: 3ab4 3e3f 9b06 58be 2e5b f53d 3f99 cdbe
00000330: 63a6 723d dd0f 56be d148 d6be 2fc8 15bf
00000340: a29f a63b f8c4 e43e 8646 f43d 448b 5b3b
00000350: 1f54 6bbe 3539 8c3e e949 56bf c96e 5fbe
00000360: 412b 32be 4e65 33bf 536e 293e 1bd3 a0bc
00000370: aa62 d0bc c95a 96bd d5b2 e4bd ee1e 87bd
00000380: abb9 6e3e 0bce b03e 4956 cdbe d182 2abd
00000390: da90 9c3e c58e 0abe 42a1 04bc e1ad 09bf
000003a0: 0c1b a23a ceb0 b7bd 7e87 f33e 4934 523d
000003b0: 3a72 94be 98c8 2cbe 944e 43be 966a 0cbe
000003c0: 7b89 83bd 09e5 453e 12d1 593d 9f02 c1bd
000003d0: 62eb 2abd a718 57be f55e 1cbe cfa7 abbd
000003e0: 57f6 383e 37c3 8d3d ac2d 04be 9645 60be
000003f0: a74d ab3d e99b c93d a6ae 023f 0982 babd
