logs/classifier/60_contexts/fold_04/10-19-2022_11-30-24/model_params.pth (torch, 821283 bytes, 10 tensors)

feature.weight_ih_l0 f4 [512, 64]
0.9196976 0.32286924 -0.051969454 1.1629213 -0.65040046 0.20287018 0.19783725 1.3104403
-0.11409791 0.8926219 0.41836622 -0.3024115 -0.26753584 -0.42630014 -0.97379893 0.1815334
0.2742885 0.94301075 -0.95106936 -0.35838962 0.93918127 0.88126886 0.7662188 -0.093119524
-0.51683646 -0.3793873 0.3401805 -0.32021114 -0.07375099 0.022508778 -0.700248 0.01064325
0.13190463 0.97116053 0.25694016 -0.49227983 0.119212076 0.40971723 -0.5473953 -0.100158215
0.35070395 -0.65190697 0.93447155 0.39264944 -0.61134595 1.5791582 0.19756947 0.5773633
-0.86745423 -0.36853954 -0.634227 -0.4061577 1.0306083 0.034802254 -0.8270405 -0.29073527
0.2700441 0.34679425 -0.6216845 -0.8526317 0.11295462 -1.2126306 0.78312534 -0.72144634
-1.613855 0.89204764 1.4108111 1.6255345 1.5215238 -1.1310797 0.19298558 -0.10872636
0.32175106 -0.5165822 0.22735177 -1.5686834 -0.65949506 -0.4731808 0.5734131 -0.27498293
1.3528385 -1.3307602 0.10217799 0.70232576 0.061592907 -0.29508257 -1.5593687 0.5504488
1.8755268 -1.647616 0.032302286 0.65302575 0.9012236 2.216158 -1.0932579 0.39759764
0.23507124 0.48285994 -1.0182635 2.3066967 -0.10411972 0.5154628 0.6072176 0.44340837
-0.13556005 -0.38729593 -0.24677308 -1.5673614 0.34144023 0.8874023 -0.46676737 1.537215
-1.0496417 1.1927468 0.7126319 -0.7750729 1.2825425 -0.27237782 -0.15998913 0.026950665
-0.8731592 0.72107214 0.8319949 0.9759126 0.19181293 -2.1742687 -0.86365306 0.51994646
0.41772375 0.7098183 0.68220043 -0.09069785 -0.43902946 -0.32210797 0.16081403 -0.031951323
0.2961754 -0.38115913 -0.89366776 -0.096087545 -0.82871735 -0.10229172 0.34555656 -0.097053714
0.60401016 -0.6156306 -0.35604084 -0.68625474 -0.0039161653 0.330441 0.6567205 0.23596628
-0.71276516 0.19197316 -0.46436447 -0.07232467 0.8701501 -0.89763266 -0.5006829 0.076267675
-0.19584535 -0.66489345 -0.44215575 0.5499301 -0.5205358 0.07629363 -0.7606644 0.64677817
0.3340508 -0.17807253 -0.60631865 -1.0067713 -0.31370524 -0.5118302 -0.551668 -0.79864115
0.2830975 0.16624896 0.09513313 0.5294959 -0.745317 0.03561377 -0.59973955 -0.48903552
-0.590385 0.48231238 0.68410766 0.3805676 -0.003744337 0.05197883 0.79713494 0.48457363
-0.92909163 -0.44675952 -0.381733 -0.04399065 0.43176404 -0.14312352 -1.2864397 0.91775346
0.24480873 2.0667827 -0.19802274 0.53321075 -0.07664273 -0.99552864 0.82458055 -0.1874991
-0.32960382 0.06980674 0.68180066 0.26381165 0.1333717 -0.42714822 0.9292372 0.108707406
0.7245148 1.0755109 0.06862729 0.22658229 -0.1626953 -0.52775043 0.5245444 -0.081074014
-0.31382957 0.13640581 0.008220597 -0.5537355 -0.2689067 0.012626586 0.6872079 -1.1665622
-0.75274944 0.0076796575 0.8855482 -0.6400111 -0.271458 0.46303558 0.06323332 0.10681866
0.96056694 -0.3452101 0.25486133 -0.16470107 0.19195452 -1.2274153 -0.07579707 -1.2315595
-0.5175356 0.10501278 -0.69814616 0.6112136 -0.62157553 1.5919719 0.36685434 -0.49167785
00000000: 4d71 6b3f 1e4f a53e ecdd 54bd 9bda 943f
00000010: a580 26bf 33bd 4f3e d995 4a3e 82bc a73f
00000020: 2aac e9bd de82 643f 1934 d63e aed5 9abe
00000030: 75fa 88be 0344 dabe e34a 79bf e4e3 393e
00000040: 8b6f 8c3e 2769 713f 4879 73bf d87e b7be
00000050: 2f6e 703f d69a 613f ea26 443f 73b5 bebd
00000060: 654f 04bf 0d3f c2be 232c ae3e b7f2 a3be
00000070: c20a 97bd 5464 b83c 7443 33bf 0761 2e3c
00000080: 0212 073e fa9d 783f a98d 833e 1a0c fcbe
00000090: 7625 f43d 75c6 d13e 1922 0cbf c01f cdbd
000000a0: 788f b33e 60e3 26bf 8739 6f3f 5909 c93e
000000b0: 2b81 1cbf db21 ca3f a74f 4a3e 15ce 133f
000000c0: 7b11 5ebf 37b1 bcbe b35c 22bf e7f3 cfbe
000000d0: f9ea 833f cf8c 0e3d edb8 53bf 41db 94be
000000e0: 3843 8a3e 048f b13e b726 1fbf 1246 5abf
000000f0: c054 e73d 7b37 9bbf e77a 483f b5b0 38bf
00000100: cd92 cebf 3c5d 643f 7595 b43f 8411 d03f
00000110: 4bc1 c23f 38c7 90bf 039e 453e edab debd
00000120: 8ebc a43e bb3e 04bf e7ce 683e 9eca c8bf
00000130: abd4 28bf c144 f2be 33cb 123f 90ca 8cbe
00000140: d029 ad3f 5a56 aabf b242 d13d 9fcb 333f
00000150: d848 7c3d 1015 97be 6599 c7bf 36ea 0c3f
00000160: 4311 f03f 15e5 d2bf 674f 043d b22c 273f
00000170: 97b6 663f 88d5 0d40 e0ef 8bbf eb91 cb3e
00000180: 84b6 703e 6b39 f73e 7556 82bf eba0 1340
00000190: b83c d5bd 5ff5 033f 9d72 1b3f 6c06 e33e
000001a0: 41d0 0abe a74b c6be 15b2 7cbe 4c9f c8bf
000001b0: 41d1 ae3e cc2c 633f 22fc eebe 76c3 c43f
000001c0: a95a 86bf edab 983f 0b6f 363f 2d6b 46bf
000001d0: 5a2a a43f 1b75 8bbe 31d4 23be a4c7 dc3c
000001e0: 5d87 5fbf 2f98 383f 9efd 543f 68d5 793f
000001f0: 9c6a 443e 3827 0bc0 5e18 5dbf 361b 053f
00000200: e3df d53e a7b6 353f b0a4 2e3f cbbf b9bd
00000210: 78c8 e0be 56eb a4be 6fac 243e 64df 02bd
00000220: 4da4 973e 4a27 c3be 69c7 64bf 8cc9 c4bd
00000230: d226 54bf 527e d1bd caec b03e 19c4 c6bd
00000240: 69a0 1a3f f899 1dbf fc4a b6be 64ae 2fbf
00000250: 2d53 80bb 902f a93e d61e 283f 25a1 713e
00000260: c777 36bf 9d94 443e 2ec1 edbe f51e 94bd
00000270: 28c2 5e3f 41cb 65bf c12c 00bf 3a32 9c3d
00000280: af8b 48be 7536 2abf 3d62 e2be 38c8 0c3f
00000290: d641 05bf d63f 9c3d e7ba 42bf 4193 253f
000002a0: b508 ab3e a558 36be b337 1bbf e2dd 80bf
000002b0: f99d a0be 4e07 03bf 1d3a 0dbf bf73 4cbf
000002c0: 28f2 903e 2b3d 2a3e 29d5 c23d 0b8d 073f
000002d0: 18cd 3ebf bfdf 113d 8888 19bf dd62 fabe
000002e0: 7923 17bf a6f1 f63e ae21 2f3f c2d9 c23e
000002f0: 8d63 75bb c1e7 543d 0911 4c3f 091a f83e
00000300: f3d8 6dbf aabd e4be 8272 c3be 8a2f 34bd
00000310: 2d10 dd3e f98e 12be 0eaa a4bf e4f1 6a3f
00000320: 24af 7a3e 2b46 0440 79c6 4abe 8080 083f
00000330: ddf6 9cbd f7da 7ebf b617 533f c4ff 3fbe
00000340: d5c1 a8be d6f6 8e3d 7d8a 2e3f 5212 873e
00000350: 9792 083e 2cb3 dabe 7de2 6d3f fda1 de3d
00000360: cd79 393f 57aa 893f 778c 8c3d 3005 683e
00000370: 9999 26be a71a 07bf 8b48 063f 220a a6bd
00000380: 45ae a0be f7ad 0b3e afaf 063c 9cc1 0dbf
00000390: 24ae 89be bddf 4e3c dbec 2f3f e951 95bf
000003a0: 30b4 40bf a3a5 fb3b 49b3 623f c4d7 23bf
000003b0: 8bfc 8abe 0013 ed3e 7980 813d bec3 da3d
000003c0: b7e7 753f 61bf b0be 2f7d 823e 66a7 28be
000003d0: ba8f 443e f21b 9dbf 7f3b 9bbd bea3 9dbf
000003e0: 377d 04bf f110 d73d b5b9 32bf 7f78 1c3f
000003f0: 931f 1fbf bcc5 cb3f 55d4 bb3e 33bd fbbe

feature.weight_hh_l0 f4 [512, 128]
0.07142744 0.48959553 0.22990955 -0.032507595 0.10053737 -0.10262499 -0.5238469 0.06383803
0.22329482 0.17255381 -0.71959955 0.035536125 -0.11204289 -0.26055694 -0.46430933 -1.0546963
-0.73948365 -0.23817587 -0.06027547 0.300009 0.23287024 0.4184598 -0.3810673 -0.440346
-0.7119869 0.2946796 -0.27312306 0.6845903 0.05631979 0.59313893 0.6411851 0.21027832
0.2803089 -0.22646146 0.1219248 -0.6269063 0.14634317 -0.594759 0.37874433 0.7649646
-0.33067223 0.98418474 0.18966725 -0.2433512 0.34279847 0.08588107 -0.36074242 -0.24083781
0.9034075 0.17505336 0.36571044 0.8411873 -0.060899355 0.42393053 0.4338137 -0.38490635
-0.1181109 0.055292156 0.01372729 -0.44482082 0.036990557 0.39242592 -0.48014766 -0.8772963
0.019035656 -0.28368902 0.5015893 0.28972316 0.6110022 -0.011204518 0.23053095 -0.91256446
0.05766615 -0.41285124 -0.16399877 0.11130254 -0.15126303 0.44612646 0.10727972 -0.6020205
0.04162762 -0.036617815 0.12662098 0.14457469 -0.2617871 -0.72697735 0.58362156 -1.1408007
0.0769685 -0.4826316 -0.85456944 -0.3172481 0.27494958 0.09518919 -0.020101896 0.31157875
0.26571417 -0.6683331 0.23848797 -0.054392375 0.9659031 0.6114233 -0.39535108 0.0038014639
-0.39733797 -0.60842544 -0.29148948 0.26296476 0.7814177 -0.11241057 -0.6904013 -0.8854459
1.0903872 0.69636375 0.6291416 -1.265958 -1.0132483 0.09694069 -0.49880803 -0.21095333
-0.6256373 -1.2994409 -0.03257154 0.18021531 -0.48992285 -0.89521974 -0.8307421 0.20856863
0.34064204 0.55508953 0.2785484 0.06572464 -0.07746534 -0.3022433 0.48751107 0.21341102
0.48078957 -0.009568048 0.74665964 0.5441913 0.26769555 0.11833653 0.38842273 -0.16401754
0.54684013 -0.19510299 -0.07604396 -0.10269331 0.14082763 -0.3731533 -1.6169847 -0.11669575
-0.07002545 0.009126657 0.056642506 -0.2565797 0.35029632 0.3904914 0.048332173 0.04556281
-0.4784785 0.3044392 0.2823427 -0.44022992 0.3874475 0.13252483 -0.15170284 0.45049384
-0.12314122 -0.5076255 -0.2641583 0.050728954 0.35516474 0.059747063 0.14115442 0.25700682
-0.23075174 -0.122077316 0.64646393 -0.07886086 -0.1520275 0.06512325 0.5473661 0.17259154
-0.26172766 0.045279846 -0.089957684 0.4096095 0.16846256 -0.93514943 0.593836 -0.20807154
-0.10299858 0.60181373 0.083009996 0.39458585 0.16795781 -0.16202345 -0.15857372 0.05820863
0.12486631 -0.42431325 0.29983968 -0.27168998 -0.23609138 0.66144943 -0.20184828 -0.86399686
0.48741868 0.007619858 -0.4573597 -0.4394244 0.63323575 -0.0401329 -0.20497414 -0.6290517
0.4169171 0.009603909 -0.04224347 0.14624462 -0.24226525 -0.59965974 -0.14936413 -0.22037439
0.44988975 0.20316406 -0.01243354 -0.19690838 0.9933929 0.683161 0.010675669 -0.022772623
0.5290381 -0.10121406 0.41226748 -0.38511485 -0.6249875 0.22085789 0.1625004 0.1345178
0.30763197 -0.1586597 -0.2778637 0.110428974 -0.78620094 0.17995957 -0.8763995 0.05475782
-0.29214004 0.24666062 -0.04308272 -0.3807032 -0.33736783 1.0027443 -0.43975815 0.33473366
00000000: 8d48 923d 44ac fa3e 696d 6b3e af26 05bd
00000010: 89e6 cd3d 0d2d d2bd d51a 06bf 83bd 823d
00000020: 66a7 643e f2b1 303e ad37 38bf 548e 113d
00000030: be76 e5bd b867 85be f4b9 edbe 4a00 87bf
00000040: cd4e 3dbf 60e4 73be 69e3 76bd c89a 993e
00000050: 8975 6e3e 5d40 d63e 411b c3be 0875 e1be
00000060: c644 36bf 3fe0 963e c9d6 8bbe 4f41 2f3f
00000070: 95af 663d f4d7 173f b524 243f 3353 573e
00000080: a684 8f3e 83e5 67be b6b3 f93d ee7c 20bf
00000090: fcda 153e 2042 18bf c7ea c13e b8d4 433f
000000a0: df4d a9be 88f3 7b3f 2238 423e 0f31 79be
000000b0: 4883 af3e 6ae2 af3d 3bb3 b8be 309e 76be
000000c0: b745 673f 3041 333e 663e bb3e 0d58 573f
000000d0: 9a71 79bd 6c0d d93e d41c de3e 7212 c5be
000000e0: 21e4 f1bd 077a 623d 6de8 603c 8ebf e3be
000000f0: 6983 173d 0dec c83e ead5 f5be 7e96 60bf
00000100: aaf0 9b3c b03f 91be 2868 003f 9856 943e
00000110: a46a 1c3f 2893 37bc 4e10 6c3e d39d 69bf
00000120: 5733 6c3d 3d61 d3be 4bef 27be 96f2 e33d
00000130: b2e4 1abe b06a e43e 78b5 db3d 041e 1abf
00000140: b981 2a3d 90fc 15bd eea8 013e 630b 143e
00000150: f508 86be 301b 3abf 3968 153f c205 92bf
00000160: a9a1 9d3d 7d1b f7be 10c5 5abf 586e a2be
00000170: 31c6 8c3e 8df2 c23d bbac a4bc 4087 9f3e
00000180: b00b 883e e117 2bbf 3136 743e 8aca 5ebd
00000190: 6d45 773f 3d86 1c3f 756b cabe fb21 793b
000001a0: e26f cbbe c5c1 1bbf 1c3e 95be 51a3 863e
000001b0: fe0a 483f 8337 e6bd 24be 30bf 95ac 62bf
000001c0: cf91 8b3f e544 323f 6d0f 213f e90a a2bf
000001d0: 1fb2 81bf d788 c63d c463 ffbe 2604 58be
000001e0: c429 20bf 1454 a6bf bc69 05bd 5d8a 383e
000001f0: 2bd7 fabe 1f2d 65bf 84ab 54bf 0493 553e
00000200: a268 ae3e 591a 0e3f e59d 8e3e a49a 863d
00000210: 26a6 9ebd a2bf 9abe 0d9b f93e 6b88 5a3e
00000220: 0d2a f63e 4dc3 1cbc 1625 3f3f 1f50 0b3f
00000230: 640f 893e 6c5a f23d 58df c63e 37f4 27be
00000240: b7fd 0b3f 14c9 47be f0bc 9bbd df50 d2bd
00000250: 1e35 103e f30d bfbe 5bf9 cebf 2efe eebd
00000260: 8169 8fbd f987 153c f901 683d 6a5e 83be
00000270: 0a5a b33e 7dee c73e f5f7 453d 12a0 3a3d
00000280: 22fb f4be 74df 9b3e 398f 903e d165 e1be
00000290: 855f c63e 97b4 073e fd57 1bbe 21a7 e63e
000002a0: 7731 fcbd bff3 01bf c23f 87be 2ac9 4f3d
000002b0: 27d8 b53e 56b9 743d c98a 103e 6696 833e
000002c0: 2f4a 6cbe ac03 fabd a97e 253f cd81 a1bd
000002d0: 19ad 1bbe 575f 853d 2f20 0c3f d6bb 303e
000002e0: 2b01 86be 5c77 393d bc3b b8bd 56b8 d13e
000002f0: 7381 2c3e f465 6fbf a305 183f b510 55be
00000300: ebf0 d2bd 7710 1a3f 2501 aa3d 2807 ca3e
00000310: 22fd 2b3e 7ae9 25be 2661 22be 2c6c 6e3d
00000320: e8b9 ff3d 963f d9be 9684 993e f31a 8bbe
00000330: f0c1 71be c054 293f 51b1 4ebe e62e 5dbf
00000340: f18e f93e 00b0 f93b 0d2b eabe 3cfc e0be
00000350: bd1b 223f 6562 24bd bee4 51be 8809 21bf
00000360: 2876 d53e b759 1d3c 7d07 2dbd 26c1 153e
00000370: 6214 78be 4d83 19bf e9f2 18be d3a9 61be
00000380: f357 e63e 3d0a 503e 0cb6 4bbc 5aa2 49be
00000390: ff4e 7e3f a4e3 2e3f 00e9 2e3c a78d babc
000003a0: 0a6f 073f 5149 cfbd b914 d33e c62d c5be
000003b0: 2eff 1fbf 9228 623e 8166 263e 09bf 093e
000003c0: f081 9d3e b077 22be 2744 8ebe 9628 e23d
000003d0: 7744 49bf 5247 383e b85b 60bf bc49 603d
000003e0: 6193 95be 9a94 7c3e 8277 30bd 88eb c2be
000003f0: 7abb acbe ed59 803f fb27 e1be 3662 ab3e

feature.bias_ih_l0 f4 [512]
0.43124676 0.021227874 0.27056387 0.12702636 0.061020013 -0.04981875 -0.37238762 -0.07860506
0.058924306 0.03158452 0.24098632 0.14979742 0.2096837 0.96902716 0.23216192 -0.3801292
-0.55725175 -0.03138544 -0.07118396 -0.28861028 -0.20515941 0.46555522 -0.015071828 -0.19625627
0.47286668 -0.21023458 -0.162713 0.47150165 -0.099287964 0.2565037 0.49166805 0.10190976
0.25910255 -0.31095135 0.16234937 0.80059695 -0.11019791 -0.014715728 1.4663513 0.5132579
-0.1646904 0.1359283 -0.29730323 -0.28603715 0.035900846 -0.12578668 0.24412583 0.2592542
-0.29227975 -0.016950328 -0.112739734 0.526895 0.5270162 -0.4533405 0.42287225 0.2944517
0.797144 0.40493912 0.38902974 -0.3994109 0.6022074 0.04287605 1.326017 -0.28035155
1.3361807 -0.22012275 0.3524275 0.1326912 -0.04127068 0.075677976 0.031106286 0.021900527
0.4149617 -0.22436522 -0.15655139 0.4084447 0.041561898 0.18311813 0.22875564 0.25267825
0.098811895 -0.11516333 0.05266228 -0.25848576 1.2447191 0.1363977 0.36895883 0.14681754
-0.15865351 0.26047993 -0.28773826 -0.058906727 0.09542272 0.030683538 1.3547456 -0.23115402
0.37512007 0.5973172 0.00092997216 0.36272946 0.110710815 0.5248729 0.2485119 0.061554417
0.5832802 -0.09859888 0.09255723 -0.020886255 0.097164266 -0.096677765 0.025417497 -0.1620677
0.08311273 0.19990829 0.09705476 -0.019467922 0.15540648 -0.4612225 -0.31016278 -0.39985856
0.26857784 0.70140636 -0.2615194 0.53086615 -0.07734648 -0.015381629 -0.2323813 0.034892082
-0.16235773 -0.31709868 -0.07365963 -0.16599509 -0.012314967 0.016314223 0.10641128 0.10495874
-0.502835 -0.34838158 -0.08345366 -0.031410187 -0.12784596 -0.54751474 -0.2626189 -0.5172801
-0.3860124 0.09200032 -0.3032964 -0.51756436 -0.20471923 0.10665249 0.19671454 0.14561373
0.1164006 -0.4380395 0.060402144 -0.29978937 -0.23919243 -0.31471813 -0.0382632 -0.111556835
-0.36346042 0.06843724 -0.4984676 -0.06374185 -0.49317598 0.4234329 0.34378862 -0.29463655
-0.18532404 -0.15345965 -0.39117035 0.19131877 -0.30093902 -0.029313197 -0.2139708 -0.22051337
0.32722762 -0.048684835 -0.3296037 -0.26030564 -0.3395055 -0.27838543 -0.11496918 -0.39947534
-0.1622636 -0.86172754 -0.56599534 0.4294437 -0.27772516 0.14270242 0.07389637 -0.2569188
-0.40464804 -0.11405233 -0.30441967 -0.26482394 0.49093533 -0.1433244 -0.039642725 0.2666982
-0.08482799 -0.20769665 0.17790346 -0.31497112 -0.29009736 -0.47638845 -0.032277957 -0.3140594
0.06680429 0.6024221 -0.281891 0.05637508 -0.23936245 -0.1814202 -0.08333906 0.3264522
-0.26301128 -0.6303371 -0.4005491 -0.28506857 0.3553274 -0.20337614 -0.21603468 -0.23972566
-0.73938113 -0.328263 0.18218659 -0.32063714 -0.016227018 -0.00047828793 0.09710816 -0.0558096
-0.50478923 0.07883085 -0.47833738 0.13630702 -0.18054394 0.22364867 -0.28459835 -0.25191873
0.111337505 -0.5537943 0.19984938 -0.036582544 0.0694342 -0.33821538 0.43555862 0.06744203
-0.36299378 -0.33969238 -0.35382628 -0.8251511 0.012870949 0.22235414 0.074431896 -0.59914297
00000000: 60cc dc3e 14e6 ad3c 5987 8a3e 3313 023e
00000010: 1ff0 793d bf0e 4cbd 97a9 bebe b1fb a0bd
00000020: 9d5a 713d c55e 013d 1ec5 763e 7f64 193e
00000030: 53b7 563e 2a12 783f dbbb 6d3e 4ba0 c2be
00000040: 0da8 0ebf 058e 00bd e5c8 91bd bac4 93be
00000050: 4f15 52be 415d ee3e d4ef 76bc 67f7 48be
00000060: 951b f23e bc47 57be 3d9e 26be aa68 f13e
00000070: 7d57 cbbd 7454 833e eabb fb3e 10b6 d03d
00000080: 17a9 843e 0435 9fbe ea3e 263e ecf3 4c3f
00000090: 71af e1bd 3d1a 71bc 66b1 bb3f df64 033f
000000a0: 9aa4 28be ca30 0b3e 2138 98be 7673 92be
000000b0: c40c 133d 39ce 00be 1ffc 793e f7bc 843e
000000c0: b1a5 95be 6adb 8abc 17e4 e6bd 97e2 063f
000000d0: 89ea 063f 3f1c e8be b682 d83e 60c2 963e
000000e0: a111 4c3f 2e54 cf3e e82e c73e 967f ccbe
000000f0: 442a 1a3f cc9e 2f3d edba a93f 3d8a 8fbe
00000100: f807 ab3f dc67 61be 6171 b43e 34e0 073e
00000110: 720b 29bd 0efd 9a3d 9cd2 fe3c bc68 b33c
00000120: dc75 d43e ffbf 65be 024f 20be aa1f d13e
00000130: cf3c 2a3d 5283 3b3e eb3e 6a3e 0b5f 813e
00000140: e45d ca3d c1da ebbd 67b4 573d 3f58 84be
00000150: f552 9f3f d7ab 0b3e 2ce8 bc3e 5657 163e
00000160: 1176 22be a05d 853e 6e52 93be 2e48 71bd
00000170: fd6c c33d 0b5c fb3c 4e68 ad3f a4b3 6cbe
00000180: bd0f c03e c8e9 183f 60c9 733a adb7 b93e
00000190: 5abc e23d 125e 063f e779 7e3e 7c20 7c3d
000001a0: da51 153f 36ee c9bd a58e bd3d a719 abbc
000001b0: 0ffe c63d fefe c5bd 5b38 d03c 13f5 25be
000001c0: 0237 aa3d c2b4 4c3e a5c4 c63d 317b 9fbc
000001d0: e022 1f3e 5b25 ecbe a8cd 9ebe 43ba ccbe
000001e0: 0983 893e 5e8f 333f dfe5 85be d8e6 073f
000001f0: d567 9ebd 3a03 7cbc 5df5 6dbe 00eb 0e3d
00000200: 1b41 26be c25a a2be dcda 96bd 9efa 29be
00000210: b7c4 49bc 68a5 853c 28ee d93d 9cf4 d63d
00000220: cbb9 00bf 125f b2be c1e9 aabd f8a7 00bd
00000230: 0dea 02be ed29 0cbf fc75 86be 786c 04bf
00000240: 6ba3 c5be aa6a bc3d aa49 9bbe 197f 04bf
00000250: eba1 51be 9f6c da3d 896f 493e c41b 153e
00000260: 7063 ee3d b746 e0be 3d68 773d fe7d 99be
00000270: dcee 74be bc22 a1be e0b9 1cbd e977 e4bd
00000280: 7c17 babe d328 8c3d 2537 ffbe 168b 82bd
00000290: 9081 fcbe 32cc d83e 1005 b03e 9ada 96be
000002a0: 96c5 3dbe 8724 1dbe 7b47 c8be 11e9 433e
000002b0: ae14 9abe 3b22 f0bc 291b 5bbe 42ce 61be
000002c0: 618a a73e c069 47bd d1c1 a8be c846 85be
000002d0: aad3 adbe 8988 8ebe f674 ebbd 0888 ccbe
000002e0: 6e28 26be 2d9a 5cbf 12e5 10bf 0be0 db3e
000002f0: fe31 8ebe 9520 123e fb56 973d dc8a 83be
00000300: 072e cfbe 4594 e9bd e5dc 9bbe 0197 87be
00000310: e05b fb3e a2c3 12be 6960 22bd ab8c 883e
00000320: 4cba adbd 6eae 54be 532c 363e e543 a1be
00000330: a487 94be 30e9 f3be e435 04bd 65cc a0be
00000340: b0d0 883d 5638 1a3f 0454 90be 8ee9 663d
00000350: 6e1b 75be 38c6 39be abad aabd be24 a73e
00000360: 6aa9 86be c65d 21bf c614 cdbe 82f4 91be
00000370: 79ed b53e d641 50be 3238 5dbe a57a 75be
00000380: 1548 3dbf 1712 a8be 1f8f 3a3e 8d2a a4be
00000390: 86ee 84bc b8c2 fab9 a5e0 c63d 9b98 64bd
000003a0: de39 01bf 1272 a13d a3e8 f4be 1194 0b3e
000003b0: 83e0 38be 2804 653e e0b6 91be 7efb 80be
000003c0: eb04 e43d 77c5 0dbf 51a5 4c3e 94d7 15bd
000003d0: 8533 8e3d 912a adbe 8a01 df3e 0c1f 8a3d
000003e0: 52da b9be 29ec adbe b828 b5be 1a3d 53bf
000003f0: ace0 523c ceb0 633e c06f 983d 6f61 19bf

feature.bias_hh_l0 f4 [512]
0.3695696 0.07178431 0.16596684 0.06320897 0.10651643 0.080333225 -0.3456452 -0.00371127
0.067974254 -0.039904587 0.27677196 0.23108141 0.19192685 0.95277745 0.14825271 -0.22501867
-0.5360519 0.16663465 -0.028278606 -0.15194954 -0.29677445 0.44067764 -0.001328715 -0.079006456
0.3633243 -0.111782774 -0.18882756 0.51350504 -0.031462505 0.3489433 0.3676889 -0.006695158
0.3707672 -0.38815904 0.17618158 0.62989014 -0.04353526 0.053955384 1.4377947 0.6374539
-0.22861744 0.19784722 -0.29058042 -0.25378293 -0.01975215 -0.16917625 0.3306065 0.22919177
-0.2648638 -0.14462079 -0.085502654 0.39476544 0.47542787 -0.46353865 0.36945194 0.17076217
0.7117425 0.4603803 0.26628378 -0.36422324 0.61943877 0.004129255 1.2644975 -0.14657639
1.2843239 -0.13895236 0.42549023 0.05611097 -0.051208038 0.14916022 -0.07461852 -0.061648667
0.29728106 -0.21750318 -0.12193939 0.38523808 0.09111054 0.12636985 0.147089 0.30411527
0.08031672 -0.13416867 0.09194666 -0.28148577 1.2307277 0.06286347 0.22490634 0.17611942
-0.38579226 0.26183864 -0.33303216 -0.12908775 0.19925138 0.036014285 1.3355628 -0.03323977
0.38807184 0.59158534 0.027160108 0.3365197 0.14639702 0.34920812 0.089721695 0.016123094
0.7008371 -0.0113269575 -0.025109269 -0.19369766 0.25471866 -0.20707773 0.034675933 -0.09011037
-0.020166945 0.25036785 -0.018358123 0.0926301 0.31821147 -0.47293702 -0.27019155 -0.3839158
0.18372373 0.67292315 -0.25270906 0.6383536 -0.12193622 0.0068088244 -0.31257254 0.11211853
-0.17831671 -0.34232178 -0.05701841 -0.31494963 -0.11690931 0.1335068 0.121255316 0.15505278
-0.35039514 -0.25135824 -0.20103648 0.08286033 -0.19878477 -0.61975414 -0.1661977 -0.5372359
-0.36797577 0.27044898 -0.21429549 -0.39044628 -0.2694004 0.011940724 0.20883118 0.22940996
-0.005352932 -0.4360786 0.047529448 -0.25637805 -0.20989735 -0.22426808 0.026933756 -0.11404525
-0.43940476 0.011541714 -0.51074094 -0.030908428 -0.5943426 0.39005274 0.45170984 -0.22368047
-0.08558198 -0.110130474 -0.36755326 0.39745063 -0.33066466 -0.007421918 -0.18473825 -0.17666563
0.306615 -0.07681348 -0.30148765 -0.24513265 -0.15239567 -0.23828916 -0.1840121 -0.4916547
-0.1601359 -0.68863714 -0.5840274 0.45072085 -0.24585177 0.2442315 0.16820133 -0.32577017
-0.5030402 -0.02286448 -0.18053652 -0.28340673 0.4044326 0.019772617 -0.14593959 0.31822482
-0.060971584 -0.19714135 0.28415453 -0.30832544 -0.22619013 -0.24559179 0.0794381 -0.318756
-0.05950879 0.4266758 -0.16665345 -0.008937707 -0.19943008 -0.20833096 0.07191235 0.2769233
-0.086113386 -0.5621869 -0.2005575 -0.44998413 0.3811973 -0.11549767 -0.25142267 -0.17015238
-0.823687 -0.31268087 0.19383568 -0.3031604 0.0229553 0.04060476 0.05236091 0.10198656
-0.38538766 -0.03458855 -0.47919366 0.07018028 -0.21708769 0.11219404 -0.4414822 -0.22645739
0.18229955 -0.4982688 0.11456317 -0.1112912 0.17140156 -0.31304985 0.3474532 0.16114789
-0.31539837 -0.43106553 -0.4543996 -0.8189925 0.03125676 0.33555493 0.2351983 -0.7070538
00000000: 3a38 bd3e a703 933d 36f3 293e b473 813d
00000010: 4925 da3d bf85 a43d 68f8 b0be c738 73bb
00000020: 1636 8b3d fe72 23bd 0eb5 8d3e 9ba0 6c3e
00000030: 7988 443e 39e9 733f 8fcf 173e 4b6b 66be
00000040: b33a 09bf 46a2 2a3e 89a8 e7bc a998 1bbe
00000050: d2f2 97be 80a0 e13e 4728 aeba 23ce a1bd
00000060: a505 ba3e 5eee e4bd 035c 41be 1175 033f
00000070: d4de 00bd b2a8 b23e b841 bc3e 0e63 dbbb
00000080: 33d5 bd3e c8bc c6be f268 343e 7b40 213f
00000090: 0752 32bd 5200 5d3d a809 b83f 2e30 233f
000000a0: b11a 6abe 7698 4a3e f5c6 94be d6ef 81be
000000b0: 43cf a1bc 8a3c 2dbe 4145 a93e 3fb1 6a3e
000000c0: 3a9c 87be 7917 14be 041c afbd b21e ca3e
000000d0: 486b f33e f054 edbe ce28 bd3e 47dc 2e3e
000000e0: c234 363f f7b6 eb3e 5956 883e 787b babe
000000f0: 8a93 1e3f b44e 873b 0edb a13f 1f18 16be
00000100: ba64 a43f 8749 0ebe dbd9 d93e 9ed4 653d
00000110: 85bf 51bd 75bd 183e 98d1 98bd 5083 7cbd
00000120: 3935 983e 27b9 5ebe 5cbb f9bd ed3d c53e
00000130: 2a98 ba3d 1967 013e 809e 163e ffb4 9b3e
00000140: 187d a43d 8363 09be 884e bc3d e71e 90be
00000150: 7c88 9d3f 90be 803d d94d 663e a658 343e
00000160: 9086 c5be b70f 863e 3183 aabe 942f 04be
00000170: 8e08 4c3e b783 133d b9f3 aa3f 6d26 08bd
00000180: 5ab1 c63e 2372 173f e07e de3c 4f4c ac3e
00000190: 1ae9 153e 68cb b23e 02c0 b73d 9414 843c
000001a0: 0f6a 333f b494 39bc f4b1 cdbc ae58 46be
000001b0: 7c6a 823e 2f0c 54be 5a08 0e3d c98b b8bd
000001c0: 2635 a5bc 3730 803e c663 96bc dab4 bd3d
000001d0: 9dec a23e cd24 f2be 8c56 8abe 9d90 c4be
000001e0: 1322 3c3e b144 2c3f 1563 81be 246b 233f
000001f0: b2b9 f9bd 8f1c df3b 8209 a0be 669e e53d
00000200: a898 36be cd44 afbe 238c 69bd 1441 a1be
00000210: 266e efbd 02b6 083e b554 f83d 28c6 1e3e
00000220: fe66 b3be 07b2 80be 82dc 4dbe adb2 a93d
00000230: 3c8e 4bbe 35a8 1ebf bb2f 2abe 4b88 09bf
00000240: 5267 bcbe 4a78 8a3e 4770 5bbe 93e8 c7be
00000250: d9ee 89be 07a3 433c d7d7 553e 72ea 6a3e
00000260: a667 afbb b245 dfbe 3dae 423d fc43 83be
00000270: 55ef 56be 88a6 65be 2ea4 dc3c 8e90 e9bd
00000280: a9f9 e0be 7519 3d3c ebbf 02bf ac33 fdbc
00000290: d626 18bf feb4 c73e 8346 e73e 7e0c 65be
000002a0: 9b45 afbd 168c e1bd f12f bcbe a67e cb3e
000002b0: e14c a9be 9033 f3bb 062c 3dbe d6e7 34be
000002c0: a4fc 9c3e 6350 9dbd 975c 9abe 0e04 7bbe
000002d0: 9c0d 1cbe 1302 74be ab6d 3cbe 2aba fbbe
000002e0: aafa 23be 864a 30bf d282 15bf e2c4 e63e
000002f0: 91c0 7bbe d317 7a3e f83c 2c3e 59cb a6be
00000300: 3ec7 00bf 4a4e bbbc 91de 38be b01a 91be
00000310: ca11 cf3e 2ffa a13c 3071 15be 5dee a23e
00000320: 57bd 79bd 6cdf 49be b47c 913e d5dc 9dbe
00000330: 639e 67be 6a7c 7bbe 71b0 a23d fd33 a3be
00000340: 7dbf 73bd 4075 da3e 34a7 2abe 766f 12bc
00000350: 6637 4cbe b654 55be c846 933d e4c8 8d3e
00000360: 375c b0bd 7beb 0fbf f25e 4dbe 5264 e6be
00000370: 4b2c c33e 0b8a ecbd 79ba 80be 6d3c 2ebe
00000380: 27dd 52bf b517 a0be dc7c 463e d737 9bbe
00000390: c10c bc3c 2d51 263d 6578 563d 54de d03d
000003a0: 8851 c5be b9ac 0dbd df58 f5be aeba 8f3d
000003b0: 3c4c 5ebe fdc5 e53d f409 e2be 72e4 67be
000003c0: bcac 3a3e 171d ffbe 18a0 ea3d a4ec e3bd
000003d0: e483 2f3e 1248 a0be 63e5 b13e f403 253e
000003e0: e57b a1be 9fb4 dcbe 10a7 e8be 7ea9 51bf
000003f0: 1707 003d dbcd ab3e d3d7 703e 7a01 35bf

feature.weight_ih_l0_reverse f4 [512, 64]
-0.7044469 0.46299413 0.3511996 -0.5601749 -0.6968895 0.03843911 -0.20783722 -0.059112687
-0.5147727 -0.45959428 -0.2017537 0.065884486 -0.03216677 -0.20942353 -1.0437452 -0.23673457
0.032500032 -0.5179974 -0.41128862 -0.24651593 -0.38981453 -0.20827259 0.5658645 -0.8965378
-1.2383826 1.691086 0.49568784 0.9608943 -0.41941422 -0.004581689 -0.26999927 0.9293938
0.59709316 0.608383 -0.83648336 -0.8406647 -0.24370968 0.4990861 0.1823979 -0.47143775
-0.013943298 0.19045481 0.6892861 0.60360765 0.30084422 -1.0605218 -0.21264164 0.1067892
-0.032656316 0.121169925 0.38171357 -0.7870249 -0.59221005 0.47344956 0.76530725 -0.9372866
0.8264204 0.6705281 0.58426 0.5823213 -1.0033011 -0.37546623 0.5505651 -0.1281292
-0.73749363 0.929537 0.8200419 0.4326987 -0.6238082 1.6949179 -0.27273378 -0.58059704
1.0446491 -0.5679354 0.16215241 -0.15233691 0.1990756 -0.3162613 -0.19010814 -0.36672747
-0.6923794 1.4084734 -0.5728929 -0.47428492 -0.27421328 0.42162746 -0.65972793 -0.6044411
0.45779783 0.9001052 0.24223714 0.6422425 -1.199737 -0.80273557 -0.6142578 0.26173636
0.50949 0.07234402 -0.34727803 1.46458 0.7767435 0.44856024 -0.41849235 0.2246188
0.39207348 0.08828081 -0.8413347 0.54224986 -1.0878136 0.816352 -0.43494955 -0.13694015
0.9274153 0.46666372 0.050062846 -1.0261449 -0.3059395 -0.64311546 0.010894113 0.0061354195
0.22524561 -0.5683 -0.22519758 0.6559888 -0.85613686 -0.51044774 -0.3109119 0.06617371
-0.4866771 -0.13631944 0.1227681 0.5997765 -0.4942491 0.34721026 0.7170203 0.45991063
-0.29610503 0.052341558 -0.41233447 0.91077805 -0.25808892 -1.3523073 1.3084693 -1.1301962
-0.23564765 -0.090371914 0.549192 0.09742941 -0.8154818 0.36436275 0.5767747 -0.41155952
-0.3216896 1.1720951 -0.540979 0.058466446 0.13310984 0.4011398 0.13754958 0.25526977
-0.74287176 -0.97460026 -0.078917824 0.032759417 -0.506936 -0.13506454 -0.6145416 0.771819
-0.79895973 -0.41459903 0.4460262 -0.78910935 -0.18711962 1.1793628 0.59995544 -0.0038160784
-0.8357749 0.61870116 0.4401031 -0.3952895 0.30990604 0.21139012 0.21462318 -0.22256505
-0.29941824 -0.42563823 -0.045907672 -0.13568269 1.1614089 0.27807784 0.19013397 0.007551317
0.05873268 -0.68914145 0.4249696 0.27432248 0.22473574 -0.7982134 -0.13670038 0.47643125
-0.015104328 0.08647741 -0.5306053 0.19484451 -0.022453623 -0.7481997 1.0021441 -0.6511262
0.2624551 0.5993928 0.24700499 -0.23465991 0.113418184 0.66640586 0.3121438 -0.38904905
0.566204 -0.17842625 0.5962457 0.023604995 -0.30517456 -0.35028717 -0.34462753 -1.3376687
0.813821 0.5301191 0.5469309 0.66042113 -1.2469705 0.41054308 -0.30380824 0.6256412
0.4365039 0.64298004 0.21262124 -0.90763193 0.3152038 0.542694 -0.6962345 -0.5248207
0.11458239 0.3265701 -1.0839984 -0.18650748 0.039548025 0.18444905 -0.8691062 1.5599982
-0.1799498 0.34742865 0.042555362 -0.34492263 0.08014031 -0.25904548 0.9948651 -0.5300464
00000000: a256 34bf 910d ed3e 6fd0 b33e 9f67 0fbf
00000010: 5a67 32bf 5472 1d3d 48d3 54be 2520 72bd
00000020: 25c8 03bf f14f ebbe 8698 4ebe 72ee 863d
00000030: 4ec1 03bd 1f73 56be 7199 85bf 8c6a 72be
00000040: c11e 053d 7a9b 04bf 6c94 d2be ac6e 7cbe
00000050: c595 c7be 6945 55be 7fdc 103f 8083 65bf
00000060: 5283 9ebf 8275 d83f ccca fd3e 2bfd 753f
00000070: 76bd d6be fe21 96bb 583d 8abe c1ec 6d3f
00000080: 19db 183f fdbe 1b3f c623 56bf cd35 57bf
00000090: 088f 79be 3788 ff3e 84c6 3a3e 4a60 f1be
000000a0: 6e72 64bc 9606 433e 0e75 303f 0886 1a3f
000000b0: 4108 9a3e 2ebf 87bf bbbe 59be 4cb4 da3d
000000c0: a1c2 05bd f027 f83d f66f c33e 777a 49bf
000000d0: 149b 17bf fb67 f23e 2deb 433f 04f2 6fbf
000000e0: 4a90 533f bba7 2b3f 1092 153f 0213 153f
000000f0: 2c6c 80bf 1c3d c0be d6f1 0c3f 4d34 03be
00000100: 62cc 3cbf 23f6 6d3f 44ee 513f af8a dd3e
00000110: e5b1 1fbf 12f3 d83f c3a3 8bbe 02a2 14bf
00000120: 10b7 853f 3764 11bf 480b 263e 35fe 1bbe
00000130: 79da 4b3e 00ed a1be b5ab 42be b4c3 bbbe
00000140: c73f 31bf db48 b43f 1ca9 12bf 79d5 f2be
00000150: af65 8cbe 8edf d73e eee3 28bf a7bc 1abf
00000160: 7a64 ea3e 4b6d 663f 030d 783e 016a 243f
00000170: fb90 99bf 1480 4dbf 0040 1dbf 4f02 863e
00000180: f06d 023f 1a29 943d 6dce b1be 5c77 bb3f
00000190: a9d8 463f b0a9 e53e a144 d6be 7902 663e
000001a0: dbbd c83e 92cc b43d b661 57bf e3d0 0a3f
000001b0: 7a3d 8bbf 72fc 503f b5b1 debe 0a3a 0cbe
000001c0: 176b 6d3f 8cee ee3e b30e 4d3d b758 83bf
000001d0: 1aa4 9cbe 37a3 24bf 397d 323c a10b c93b
000001e0: c9a6 663e 1c7c 11bf 329a 66be e2ee 273f
000001f0: c92b 5bbf b4ac 02bf d82f 9fbe 1586 873d
00000200: be2d f9be 5397 0bbe d76d fb3d f48a 193f
00000210: 380e fdbe 8bc5 b13e a48e 373f 6879 eb3e
00000220: 149b 97be 1a64 563d 811d d3be c028 693f
00000230: 3b24 84be 6818 adbf ec7b a73f 45aa 90bf
00000240: 9e4d 71be e914 b9bd d997 0c3f 1289 c73d
00000250: 6ac3 50bf c18d ba3e 82a7 133f eeb7 d2be
00000260: 80b4 a4be 3607 963f 9a7d 0abf 837a 6f3d
00000270: f24d 083e 3262 cd3e ccd9 0c3e b8b2 823e
00000280: d82c 3ebf 677f 79bf ab9f a1bd bd2e 063d
00000290: 8fc6 01bf 5c4e 0abe 9952 1dbf ee95 453f
000002a0: a088 4cbf 5346 d4be 8c5d e43e 1203 4abf
000002b0: 499c 3fbe 5cf5 963f ae96 193f 2c17 7abb
000002c0: 58f5 55bf 3363 1e3f 3255 e13e 6363 cabe
000002d0: 01ac 9e3e a776 583e 2ec6 5b3e 18e8 63be
000002e0: 594d 99be 41ed d9be af09 3cbd 67f0 0abe
000002f0: 0ca9 943f 3860 8e3e 7bb2 423e 0a71 f73b
00000300: ae91 703d 936b 30bf 9e95 d93e ff73 8c3e
00000310: 2021 663e b757 4cbf 2ffb 0bbe ccee f33e
00000320: 2578 77bc 111b b13d c0d5 07bf 5285 473e
00000330: a9f0 b7bc 048a 3fbf 4246 803f 35b0 26bf
00000340: 8460 863e ce71 193f e0ee 7c3e b04a 70be
00000350: cb47 e83d 9399 2a3f 50d1 9f3e 7031 c7be
00000360: bff2 103f 5fb5 36be 8fa3 183f 435f c13c
00000370: d73f 9cbe d758 b3be 0573 b0be ba38 abbf
00000380: 9356 503f e3b5 073f aa03 0c3f 5c11 293f
00000390: bb9c 9fbf b432 d23e c18c 9bbe 062a 203f
000003a0: 707d df3e 579a 243f 62b9 593e 915a 68bf
000003b0: 6462 a13e feed 0a3f 6d3c 32bf a65a 06bf
000003c0: 2caa ea3d 3234 a73e 76c0 8abf d1fb 3ebe
000003d0: 1cfd 213d 36e0 3c3e be7d 5ebf 05ae c73f
000003e0: c344 38be 2be2 b13e 884e 2e3d b399 b0be
000003f0: 9a20 a43d 9ca1 84be 7baf 7e3f 1fb1 07bf

feature.weight_hh_l0_reverse f4 [512, 128]
0.7511152 -0.05361721 -0.5375569 0.012801835 -0.26302397 0.015333699 -0.3356404 0.5155166
-0.7802831 -0.8421868 -0.01989657 -0.39594954 0.08303672 -0.7568199 -0.49829942 -0.23345587
-0.39452776 -0.19267838 0.5391873 0.18358827 0.17090526 0.5135204 -0.21809289 -0.94005
0.99108696 -0.73753524 -0.047200505 0.5193579 0.14772874 -0.022318743 -0.6821775 0.14409825
-0.28891215 0.035731707 -0.05223685 -1.0364105 0.5151453 -0.42371207 -0.09570848 0.04664605
-0.09059192 0.6236838 0.98790747 0.21048233 0.9938393 -0.683035 0.5787666 -0.30780986
-0.5724594 -0.28331417 0.10136872 -0.07527895 -0.40075514 0.42209288 -0.3075971 0.9686435
0.15579537 -0.08808528 0.22662492 -0.3995634 -0.062484436 -1.6779068 -0.42543027 0.12553743
-0.17545004 0.33758533 -0.54371345 -0.09558748 0.98118323 0.16028868 0.15719022 -0.21341002
0.34593788 0.21673462 0.6268041 -0.20877534 0.07406824 0.525894 0.05729999 -0.010800044
-0.0971325 -0.3348031 0.5607199 0.84658486 0.39668489 -0.6130505 -0.17327382 -0.4018323
-0.06123314 0.39966124 0.04728973 0.5494945 -0.33008543 -0.7732235 -0.1803546 0.5820314
-0.07389853 -0.60948205 -0.30953467 -0.15851954 0.12031039 -0.9747663 0.7236889 -0.39059964
-0.7015123 -0.6336586 0.18179896 -0.07098941 -0.20731641 -0.90266925 0.36265552 -0.14058796
-0.6861134 -0.31762812 1.2310939 0.014832817 -0.5043447 0.071143046 -0.38183558 -0.5878043
0.022600401 0.43048623 0.117199324 0.18658057 -0.5041282 0.6352015 0.74837476 0.6180658
0.07794998 -0.1484367 0.04690473 -0.5128517 0.40615025 0.6211263 0.23693216 0.14173672
-1.0191741 0.5418702 0.28660324 -0.02550401 0.010293359 -0.041884623 -0.086645335 0.08364443
0.19623178 0.049678672 -0.750361 0.065679654 0.332954 -0.36399466 -0.7479226 -0.36177576
0.49647683 0.5607453 0.3644709 0.3357447 0.55186105 1.1368095 -0.09081056 0.38848728
-0.53010726 -0.09053755 0.41677397 0.15013066 0.22198306 -0.3858912 0.44242164 -0.27949405
-0.34916955 -0.5496236 -0.49413583 0.113959745 0.1380326 -0.33822656 0.1076297 0.15770093
0.31817085 -0.26829797 0.59458214 -0.070855774 -0.267154 0.12064764 -0.5806953 0.5392982
0.7416905 -0.5256355 -0.577468 -0.2239522 -0.61282074 0.3774952 0.26584697 -0.09885921
-0.46541768 -0.29452425 0.2869248 0.86108655 -0.34104034 -0.36074206 0.25254032 0.33586562
0.07172255 -0.5701622 0.40949067 0.23421551 -0.39319542 0.7153193 0.03317455 -0.4911349
0.03333922 0.30037543 0.41720766 0.043210547 -0.22132626 -0.075975806 0.9923679 0.38639125
0.42819476 -0.12848051 0.04153117 0.27209517 -0.17863743 0.22037844 -0.49581096 0.360386
-0.49844232 -0.7732777 -0.30753294 0.37419218 -0.23637182 0.24531484 -0.04499715 0.29884917
-0.67287517 0.46339595 0.8056993 0.7113519 -0.30516565 -0.43167832 -0.20695077 -0.98654383
0.23474643 -0.026507806 -0.4033776 -0.080629766 -0.6041548 0.11510252 0.07237977 -0.17989461
0.18527353 -0.4264616 -0.7769734 -0.020790208 0.5999825 -0.29329735 0.071121976 -0.44003043
00000000: 1649 403f b89d 5bbd 549d 09bf cabe 513c
00000010: 14ab 86be 323a 7b3c 0fd9 abbe e5f8 033f
00000020: a2c0 47bf 8e99 57bf 22fe a2bc e6b9 cabe
00000030: 280f aa3d f3be 41bf 1a21 ffbe 0e0f 6fbe
00000040: 8bff c9be 7b4d 45be 2e08 0a3f 90fe 3b3e
00000050: ca01 2f3e 1376 033f be53 5fbe 1ea7 70bf
00000060: e0b7 7d3f 1ccf 3cbf 5155 41bd a4f4 043f
00000070: 3446 173e ccd5 b6bc 2fa3 2ebf 7e8e 133e
00000080: 4bec 93be 695b 123d 4ff6 55bd 19a9 84bf
00000090: 90e0 033f caf0 d8be cf02 c4bd ee0f 3f3d
000000a0: 4288 b9bd bea9 1f3f 81e7 7c3f ae88 573e
000000b0: 416c 7e3f 62db 2ebf 0c2a 143f 4199 9dbe
000000c0: b38c 12bf 8e0e 91be 679a cf3d da2b 9abd
000000d0: c72f cdbe 8f1c d83e 5e7d 9dbe 05f9 773f
000000e0: d288 1f3e 0e66 b4bd 5d10 683e 9393 ccbe
000000f0: aeef 7fbd a6c5 d6bf ffd1 d9be e28c 003e
00000100: 2da9 33be fcd7 ac3e ce30 0bbf 5ec3 c3bd
00000110: d32e 7b3f b722 243e 79f6 203e 2888 5abe
00000120: c51e b13e aeef 5d3e 3c76 203f 34c9 55be
00000130: 17b1 973d fda0 063f 65b3 6a3d abf2 30bc
00000140: 67ed c6bd 506b abbe 578b 0f3f c9b9 583f
00000150: 481a cb3e e1f0 1cbf b16e 31be f7bc cdbe
00000160: 9acf 7abd 66a0 cc3e e0b2 413d acab 0c3f
00000170: f500 a9be faf1 45bf e0ae 38be 0300 153f
00000180: 1d58 97bd 0407 1cbf 547b 9ebe f252 22be
00000190: 4b65 f63d 498a 79bf ad43 393f adfc c7be
000001a0: 4f96 33bf 7337 22bf 8229 3a3e e562 91bd
000001b0: c14a 54be 5515 67bf fcad b93e 4af6 0fbe
000001c0: 21a5 2fbf 27a0 a2be 7c94 9d3f 5805 733c
000001d0: bc1c 01bf 72b3 913d f47f c3be 587a 16bf
000001e0: 7a24 b93c b168 dc3e 3306 f03d fa0e 3f3e
000001f0: 8c0e 01bf 919c 223f 7d95 3f3f 8f39 1e3f
00000200: 3da4 9f3d caff 17be 2d1f 403d 404a 03bf
00000210: edf2 cf3e 2202 1f3f 589e 723e 6e23 113e
00000220: 4c74 82bf 01b8 0a3f a9bd 923e c9ed d0bc
00000230: 7aa5 283c 368f 2bbd 1c73 b1bd c54d ab3d
00000240: fcf0 483e dd7b 4b3d a917 40bf 0e83 863d
00000250: f278 aa3e 825d babe db77 3fbf ac3a b9be
00000260: 3632 fe3e 018d 0f3f ee9b ba3e bbe6 ab3e
00000270: c446 0d3f f982 913f e3fa b9bd cee7 c63e
00000280: 1cb5 07bf c06b b9bd 6663 d53e dabb 193e
00000290: 874f 633e 8893 c5be 1785 e23e d819 8fbe
000002a0: 5ac6 b2be 22b4 0cbf 5fff fcbe ba63 e93d
000002b0: 6b58 0d3e 082c adbe f66c dc3d 5a7c 213e
000002c0: 4ae7 a23e 5a5e 89be 8936 183f d51c 91bd
000002d0: 69c8 88be 1c16 f73d 72a8 14bf 720f 0a3f
000002e0: 6edf 3d3f 0c90 06bf f1d4 13bf ba53 65be
000002f0: d2e1 1cbf 0d47 c13e 181d 883e b376 cabd
00000300: 3a4b eebe e2cb 96be cfe7 923e 2b70 5c3f
00000310: d79c aebe 2fb3 b8be f74c 813e 94f6 ab3e
00000320: 46e3 923d 26f6 11bf c3a8 d13e 31d6 6f3e
00000330: e950 c9be 2a1f 373f 09e2 073d 0976 fbbe
00000340: b58e 083d cfca 993e 3e9c d53e 8bfd 303d
00000350: 5aa3 62be 3499 9bbd d30b 7e3f 13d5 c53e
00000360: 583c db3e 6590 03be 971c 2a3d 0f50 8b3e
00000370: bbec 36be e3aa 613e efda fdbe 8484 b83e
00000380: d533 ffbe 87f5 45bf f574 9dbe 1e96 bf3e
00000390: 740b 72be d033 7b3e ee4e 38bd c202 993e
000003a0: 8c41 2cbf 3c42 ed3e 4f42 4e3f 281b 363f
000003b0: ac3e 9cbe f104 ddbe e7ea 53be 238e 7cbf
000003c0: 5e61 703e e626 d9bc 8287 cebe 3821 a5bd
000003d0: e4a9 1abf dfba eb3d d83b 943d 4b36 38be
000003e0: 58b8 3d3e 2d59 dabe bbe7 46bf 3a50 aabc
000003f0: 7498 193f 122b 96be 66a8 913d ab4b e1be

feature.bias_ih_l0_reverse f4 [512]
-0.1821876 -0.0035219723 0.25984076 0.8221863 0.0095081935 0.16481593 0.116007775 0.4466677
0.24870402 0.35311636 -0.15687482 -0.32187235 0.39652166 0.07612353 0.40014943 0.5193691
0.4138318 0.29755732 -0.22709344 -0.2938462 -0.30501783 -0.053292673 0.66584367 0.46420306
0.3048817 0.059253663 0.3225864 0.020953007 0.351181 0.1184266 0.54163736 -0.13340034
0.2432419 -0.07498789 0.09464124 -0.029062023 0.20719591 0.4896312 0.06069376 0.33700693
-0.39231342 0.33433506 0.19671088 0.39146325 0.14988732 0.1288225 0.039047133 0.4377482
0.2816506 0.044345155 -0.21582715 0.08021505 0.24618652 0.29565713 0.31252193 0.03172421
-0.08526533 0.08571475 -0.008755113 0.018684959 0.041461334 -0.2732787 -0.26952347 0.15216672
-0.24765322 -0.093978204 -0.60474724 0.14632699 0.55933917 -0.023689019 -0.11758337 0.4414487
0.16448206 0.09717626 0.29462993 0.13749968 -0.14000492 0.38110796 0.41016433 0.41070497
0.387128 0.17542247 0.008967868 -0.046550438 0.6962785 -0.026846264 0.38104331 0.5945229
0.06449409 -0.41286948 0.35191634 0.4543758 0.7557624 -0.033979356 0.013435219 0.18114504
0.15751186 -0.21695067 0.07574734 0.17888483 -0.2809707 0.013926243 0.3760213 -0.12350446
0.13912323 -0.06461699 -0.08171805 0.4150436 -0.06285305 -0.2161993 0.11647666 -0.21539223
-0.02013806 0.23689108 -0.24107051 0.048621602 -0.004854112 0.057482366 -0.43880922 -0.042615548
-0.4120293 0.5038093 -0.29759145 -0.21754086 0.08879099 0.14510524 -0.037438106 0.003640991
-0.06736119 -0.10051267 -0.36255726 -0.4489416 -0.32694513 -0.032963138 0.14273402 -0.015357563
0.011864589 -0.2679944 -0.37081352 0.33087233 -0.008720224 0.0104745785 -0.19115952 -0.6354782
-0.14973854 -0.025501013 -0.38711712 0.31507355 -0.03824041 0.022504235 -0.24108317 0.43514994
-0.3455874 0.067852005 -0.21603405 0.5150449 0.43529135 -0.35586372 -0.22860354 0.2524884
0.29609466 -0.3644931 0.26919502 0.082150206 0.5951699 0.07428074 -0.030366 -0.06333578
0.031446062 -0.17589685 0.2191322 -0.19228515 -0.148953 0.26320943 0.22070304 -0.3361137
-0.28529847 -0.10898708 0.08626209 0.31867114 -0.28755054 0.15609898 -0.04970416 -0.082228914
0.058817647 0.038567834 0.06316947 -0.32670617 0.07596946 -0.40428963 -0.292011 0.34042993
0.69811964 0.9973051 0.47837105 -0.2669765 -0.36678138 0.060551275 -0.13233072 -0.07286454
0.21716547 0.10997118 -0.18764468 0.26745984 0.30033123 -0.38490915 -0.31988102 -0.0696922
-0.5250247 -0.032792855 0.09297171 -0.28342134 -0.3073885 -0.011008924 -0.7541499 -0.5076928
0.18912706 0.5366523 -0.07087317 0.24990943 -0.5443526 -0.28903764 0.62753445 -0.22535463
0.11130821 -0.12313874 0.22100265 -0.49566698 0.31834418 -0.18425336 0.16275403 -0.3118422
0.2750285 -0.45686576 -0.232686 -0.17168178 0.34555894 0.27216417 0.49335173 0.40651044
-0.07852744 -0.31485957 -0.2656278 -0.0021349867 0.45552784 0.12016758 0.96544975 0.088436194
0.14918165 -0.22039883 0.011282976 0.038080286 -0.5366103 0.6470938 -0.35548422 -0.031872027
00000000: 638f 3abe e4d0 66bb d909 853e cd7a 523f
00000010: 41c8 1b3c 82c5 283e 7c95 ed3d a1b1 e43e
00000020: 44ac 7e3e abcb b43e cba3 20be 74cc a4be
00000030: e304 cb3e a7e6 9b3d 63e0 cc3e 60f5 043f
00000040: c3e1 d33e 6f59 983e 2f8b 68be 0273 96be
00000050: 4c2b 9cbe 6b49 5abd bb74 2a3f 06ac ed3e
00000060: 7419 9c3e f8b3 723d 0b2a a53e a4a5 ab3c
00000070: ffcd b33e a589 f23d bfa8 0a3f 199a 08be
00000080: 6814 793e 4093 99bd 44d3 c13d 7b13 eebc
00000090: 2a2b 543e f1b0 fa3e 059a 783d 2c8c ac3e
000000a0: 4edd c8be f72d ab3e 946e 493e df6d c83e
000000b0: 107c 193e 0cea 033e e3ef 1f3d 8820 e03e
000000c0: 8234 903e 44a3 353d cb01 5dbe ca47 a43d
000000d0: 5218 7c3e 5f60 973e e002 a03e 3ff1 013d
000000e0: 979f aebd 378b af3d 9b71 0fbc 3311 993c
000000f0: 5cd3 293d 30eb 8bbe fbfe 89be 98d1 1b3e
00000100: ce98 7dbe a577 c0bd b7d0 1abf bed6 153e
00000110: da30 0f3f 790f c2bc 8dcf f0bd 9005 e23e
00000120: fc6d 283e 5904 c73d bcd9 963e b7cc 0c3e
00000130: 735d 0fbe 9520 c33e 0f01 d23e ec47 d23e
00000140: a435 c63e f3a1 333e f7ed 123c acab 3ebd
00000150: 4f3f 323f b2ec dbbc 1c18 c33e a732 183f
00000160: 7a15 843d a163 d3be 612e b43e f2a3 e83e
00000170: a579 413f f02d 0bbd 651f 5c3c 167e 393e
00000180: ca4a 213e 5128 5ebe 6c21 9b3d 962d 373e
00000190: 64db 8fbe e62a 643c dd85 c03e e8ef fcbd
000001a0: 5276 0e3e ea55 84bd cb5b a7bd 9880 d43e
000001b0: 1ab9 80bd 5963 5dbe 518b ee3d c88f 5cbe
000001c0: 93f8 a4bc 9393 723e 30db 76be 7227 473d
000001d0: 3e0f 9fbb a172 6b3d 9aab e0be a48d 2ebd
000001e0: 81f5 d2be a5f9 003f e85d 98be 08c3 5ebe
000001f0: 0dd8 b53d 7896 143e b358 19bd b19d 6e3b
00000200: aaf4 89bd 96d9 cdbd 1ba1 b9be acdb e5be
00000210: 5a65 a7be 5b04 07bd de28 123e 4a9e 7bbc
00000220: b163 423c 9036 89be 45db bdbe 1968 a93e
00000230: 45df 0ebc 919d 2b3c 52bf 43be b3ae 22bf
00000240: 0f55 19be 80e7 d0bc 3734 c6be 5251 a13e
00000250: faa1 1cbd cd5a b83c 82de 76be f9cb de3e
00000260: d5f0 b0be fef5 8a3d 0838 5dbe fcd9 033f
00000270: 82de de3e c533 b6be 0c17 6abe 2946 813e
00000280: b899 973e d79e babe eed3 893e 5e3e a83d
00000290: 0e5d 183f 8020 983d 1ec2 f8bc 30b6 81bd
000002a0: 96cd 003d 4e1e 34be 3164 603e 66e6 44be
000002b0: 2387 18be 63c3 863e faff 613e 1817 acbe
000002c0: a412 92be 9e34 dfbd 2eaa b03d dd28 a33e
000002d0: d339 93be 69d8 1f3e 9796 4bbd a267 a8bd
000002e0: c6ea 703d 4ef9 1d3d ff5e 813d 0846 a7be
000002f0: e095 9b3d 0dff cebe 7782 95be d54c ae3e
00000300: f8b7 323f 634f 7f3f 0ded f43e 25b1 88be
00000310: c5ca bbbe 9d04 783d b481 07be 013a 95bd
00000320: a060 5e3e 9238 e13d ed25 40be 7ff0 883e
00000330: 04c5 993e d012 c5be 72c7 a3be c9ba 8ebd
00000340: 0568 06bf cd51 06bd f467 be3d 9a1c 91be
00000350: 0762 9dbe c65e 34bc f80f 41bf 28f8 01bf
00000360: 86aa 413e 0c62 093f f425 91bd 42e8 7f3e
00000370: b15a 0bbf befc 93be 19a6 203f 5dc3 66be
00000380: 8ff5 e33d 2a30 fcbd 854e 623e 10c8 fdbe
00000390: 02fe a23e eaac 3cbe fea8 263e c8a9 9fbe
000003a0: 89d0 8c3e 4fea e9be 3d45 6ebe 59cd 2fbe
000003b0: 1aed b03e 1a59 8b3e 9998 fc3e 2322 d03e
000003c0: ffd2 a0bd 4635 a1be 5e00 88be 22eb 0bbb
000003d0: f23a e93e 6c1a f63d b727 773f 091e b53d
000003e0: 13c3 183e 3bb0 61be 3bdc 383c 13fa 1b3d
000003f0: 4b5f 09bf f0a7 253f 0702 b6be 3e8c 02bd

feature.bias_hh_l0_reverse f4 [512]
-0.1606017 0.027630681 0.2746988 0.87145615 -0.08749636 0.20529887 0.18159519 0.5311209
0.16232243 0.2658099 -0.2597526 -0.29465362 0.4469724 0.096575044 0.38065583 0.519279
0.41081992 0.252813 -0.04319061 -0.13622333 -0.088746645 -0.061951477 0.6530994 0.51025844
0.30624053 0.31759462 0.36511204 -0.005909191 0.31772447 0.12233143 0.44639492 0.1389625
0.1994082 0.023534747 0.3036372 -0.07218382 0.16154513 0.50878483 0.0019125137 0.43343785
-0.37154135 0.3525869 0.18265389 0.4077678 0.17827488 0.19287743 0.036569163 0.49065885
0.25563902 -0.03594404 -0.22541824 0.19456646 0.20085777 0.36132228 0.22276516 -0.0533085
-0.10281979 0.07076271 0.04704504 0.019958824 0.1198035 -0.25454405 -0.066765994 0.08374302
-0.32192597 -0.074187264 -0.58000386 0.23570655 0.7220962 -0.14591117 -0.27964705 0.1825606
0.09275373 0.12926276 0.39040118 0.029050255 0.03613298 0.44005668 0.268461 0.38406393
0.28862262 0.055599246 0.12645681 -0.10295043 0.7607998 -0.045200378 0.3383813 0.66118723
0.13573982 -0.29997602 0.39669287 0.47466305 0.76426834 0.092683844 0.037602548 0.22223522
0.23163605 -0.0629445 0.17847356 0.03742444 -0.37853974 -0.04868131 0.22257821 0.01594943
0.13416564 -0.003914797 -0.16970125 0.3800927 -0.37906468 -0.20129061 0.08495863 -0.28011328
-0.13761343 0.41235417 -0.18987784 0.04332911 0.016917305 0.06298744 -0.34626997 -0.022289917
-0.4970573 0.5105689 -0.41078204 -0.22064543 0.23039299 0.34747663 0.024927981 0.08220449
-0.15121284 -0.18720911 -0.36270586 -0.31161833 -0.22584884 -0.024931548 0.24750757 -0.0065042395
-0.009868523 -0.2788842 -0.4629734 0.35544506 0.11404364 0.056136936 -0.28764015 -0.5034808
-0.03971037 -0.0329035 -0.38953465 0.26975808 -0.14520697 0.046661887 -0.3267412 0.46801156
-0.30774483 0.045941606 -0.21649255 0.4843841 0.47345853 -0.4537183 -0.20009728 0.37546742
0.14827193 -0.27301887 0.1998205 -0.046903703 0.645824 0.26080427 0.021755096 -0.12795328
-0.07308465 -0.15967658 0.05674725 -0.11450674 -0.12981346 0.43863156 0.22863118 -0.20572749
-0.30208018 -0.24350314 0.041522846 0.3777652 -0.42399263 0.14556037 -0.029808694 0.052896194
0.11958738 0.11916454 -0.0015337723 -0.21792625 0.04940859 -0.4341816 -0.25401697 0.17849955
0.6715818 0.91012174 0.49202716 -0.27122784 -0.39414904 0.049070343 -0.21196516 0.027062075
0.060201928 0.27514258 -0.29411322 0.36973944 0.1631357 -0.42939147 -0.23523203 -0.061619904
-0.50659055 -0.17139229 0.22017147 -0.19089152 -0.3410907 -0.02310105 -0.7360276 -0.3406122
0.17521247 0.55598444 -0.29080558 0.24748513 -0.5898798 -0.3149458 0.75130963 -0.25028044
0.1350899 -0.19368337 0.15546115 -0.31088448 0.36441562 -0.2790797 0.24048837 -0.2965447
0.16394697 -0.41871604 -0.14590035 -0.06823431 0.31264028 0.2040345 0.4552645 0.40840325
-0.039873157 -0.222208 -0.24102879 0.078600086 0.41433883 0.12326576 0.8870884 0.2047399
0.19103698 -0.22953601 0.040083643 -0.0030571749 -0.48768526 0.48923117 -0.4213708 0.13729814
00000000: c674 24be bd59 e23c 52a5 8c3e c017 5f3f
00000010: 4b31 b3bd de39 523e 17f4 393e 8af7 073f
00000020: da37 263e 3c18 883e 4bfe 84be d7dc 96be
00000030: 91d9 e43e 23c9 c53d 52e5 c23e 78ef 043f
00000040: fd56 d23e b570 813e a3e8 30bd 217e 0bbe
00000050: cdc0 b5bd d5c0 7dbd 8631 273f 4ca0 023f
00000060: 8fcb 9c3e c39b a23e f7ef ba3e e3a1 c1bb
00000070: c8ac a23e e788 fa3d e08d e43e 304c 0e3e
00000080: aa31 4c3e f1cb c03c 5676 9b3e 1cd5 93bd
00000090: 166c 253e b93f 023f 50ad fa3a 91eb dd3e
000000a0: ab3a bebe 4586 b43e 9f09 3b3e f1c6 d03e
000000b0: b18d 363e a981 453e 8cc9 153d a337 fb3e
000000c0: 1ee3 823e 0f3a 13bd 0ad4 66be 6e3c 473e
000000d0: a9ad 4d3e 3cff b83e 8d1c 643e 045a 5abd
000000e0: 2f93 d2bd 0aec 903d 4db2 403d b080 a33c
000000f0: 8a5b f53d 9953 82be 9cbc 88bd 7681 ab3d
00000100: 7bd3 a4be 7eef 97bd 227b 14bf 0f5d 713e
00000110: 4cdb 383f bd69 15be e62d 8fbe 2af1 3a3e
00000120: abf5 bd3d 755d 043e aae2 c73e cdfa ed3c
00000130: 2d00 143d 1c4f e13e b873 893e 07a4 c43e
00000140: 58c6 933e 09bc 633d e57d 013e add7 d2bd
00000150: c7c3 423f 0824 39bd 5040 ad3e 9143 293f
00000160: 61ff 0a3e 7596 99be 541b cb3e 0907 f33e
00000170: 17a7 433f 07d1 bd3d 2105 1a3d a191 633e
00000180: 0032 6d3e 0ce9 80bd c6c1 363e 5f4a 193d
00000190: f6cf c1be 0e66 47bd 8beb 633e 61a8 823c
000001a0: b862 093e b347 80bb 2ac6 2dbe 839b c23e
000001b0: c414 c2be 201f 4ebe cafe ad3d 026b 8fbe
000001c0: 89ea 0cbe 1620 d33e 566f 42be dd79 313d
000001d0: 2996 8a3c 8fff 803d 4c4a b1be 5899 b6bc
000001e0: 4b7e febe a5b4 023f 0652 d2be e0f0 61be
000001f0: 24ec 6b3e 75e8 b13e c435 cc3c d45a a83d
00000200: 8ad7 1abe bfb3 3fbe 95b4 b9be 708c 9fbe
00000210: eb44 67be 3f3d ccbc a072 7d3e 8421 d5bb
00000220: 96af 21bc e9c9 8ebe d90a edbe e5fc b53e
00000230: b68f e93d d8ef 653d 9245 93be 1ee4 00bf
00000240: 57a7 22bd d2c5 06bd 1671 c7be bb1d 8a3e
00000250: 23b1 14be 8920 3f3d 9f4a a7be 369f ef3e
00000260: bb90 9dbe 442d 3c3d 39b0 5dbe 3101 f83e
00000270: 2869 f23e c44d e8be 4de6 4cbe 443d c03e
00000280: 99d4 173e 21c9 8bbe bf9d 4c3e 191e 40bd
00000290: b954 253f 2388 853e be37 b23c 2f06 03be
000002a0: 68ad 95bd 4282 23be ce6f 683d 8282 eabd
000002b0: d2ed 04be 5194 e03e 4b1e 6a3e 3aaa 52be
000002c0: 41aa 9abe e358 79be dc13 2a3d 716a c13e
000002d0: 9015 d9be c70d 153e 5d31 f4bc aea9 583d
000002e0: 3aea f43d 8a0c f43d dc08 c9ba 0f28 5fbe
000002f0: a960 4a3d 0d4d debe 830e 82be 96c8 363e
00000300: c9ec 2b3f bdfd 683f fcea fb3e 60de 8abe
00000310: e7cd c9be fcfd 483d 650d 59be 49b1 dd3c
00000320: 4c96 763d 7ddf 8c3e 0296 96be 7d4e bd3e
00000330: 0c0d 273e 33d9 dbbe aae0 70be 2765 7cbd
00000340: ebaf 01bf 7681 2fbe a174 613e 1179 43be
00000350: 71a3 aebe 6a3e bdbc 4e6c 3cbf b964 aebe
00000360: e66a 333e ff54 0e3f 78e4 94be be6c 7d3e
00000370: 5d02 17bf 9340 a1be d455 403f c224 80be
00000380: 0255 0a3e ef54 46be 3531 1f3e 402c 9fbe
00000390: af94 ba3e 89e3 8ebe 9542 763e b5d4 97be
000003a0: b7e1 273e f361 d6be e766 15be 6ebe 8bbd
000003b0: 6312 a03e 6cee 503e 6e18 e93e 3b1a d13e
000003c0: 0952 23bd 7e8a 63be 40d0 76be 15f9 a03d
000003d0: 3824 d43e c272 fc3d 3a18 633f 56a7 513e
000003e0: 339f 433e 7d0b 6bbe bf2e 243d e25a 48bb
000003f0: e2b1 f9be 827c fa3e eabd d7be e297 0c3e
