logs/classifier/30_contexts/fold_01/10-19-2022_09-07-39/model_params.pth (torch, 821283 bytes, 10 tensors)

feature.weight_ih_l0 f4 [512, 64]
0	0x3e87baca	0.26509696
1	0x3f1a57a6	0.6028999
2	0xbe41b7ee	-0.1891782
3	0xbea39d0d	-0.31955758
4	0x3f5395a9	0.8265024
5	0xbf296329	-0.6616693
6	0xbd4914a7	-0.04909196
7	0xbdafb8a1	-0.08580137
8	0x3d70706a	0.058700956
9	0x3dc25d09	0.09490401
10	0x3f784590	0.96981144
11	0xbe9e79bc	-0.3095225
12	0x3f16b61c	0.58871627
13	0xbdd2b3ee	-0.10288225
14	0xbf14f21d	-0.58181936
15	0xbe81cd75	-0.25352064
16	0xbe6cd327	-0.23127423
17	0xbf81137d	-1.0084072
18	0xbea7f033	-0.32800445
19	0x3ec8deef	0.39232585
20	0x3f6aa1d8	0.91653204
21	0x3da3a541	0.07990504
22	0xbcacc86f	-0.021091668
23	0xbe9df7c4	-0.30853093
24	0xbd2b53fd	-0.041828144
25	0xbf1724af	-0.5904035
26	0xbf3af231	-0.73025805
27	0xbf09031d	-0.53520375
28	0x3ec50d2d	0.38486615
29	0x3f444f10	0.7668314
30	0xbec73a24	-0.38911545
31	0x3dfce434	0.12348214
32	0x3ed2cbf8	0.4117124
33	0x3f680742	0.90636075
34	0x3e527122	0.20550969
35	0x3db3ead5	0.08785025
36	0x3f1f6544	0.62263894
37	0xbe59f613	-0.21285276
38	0xbe7335f4	-0.2375105
39	0xbd111c71	-0.035427514
40	0xbee030e7	-0.4378731
41	0x3f8759dc	1.0574298
42	0x3e87d807	0.26532003
43	0x3e5277c5	0.20553501
44	0xbec76aef	-0.3894877
45	0xbe34c2c5	-0.17652424
46	0xbe71ab9b	-0.23600619
47	0x3ee249bb	0.44196877
48	0x3f06de5b	0.5268304
49	0x3dccfed0	0.10009539
50	0xbf1002ba	-0.5625416
51	0xbf9526af	-1.165243
52	0x3e1d7d48	0.15379822
53	0x3f881578	1.0631552
54	0x3f2d32f2	0.6765586
55	0x3ea42927	0.32062647
56	0xbf2ea59b	-0.68221444
57	0x3db39205	0.087680854
58	0xbe5cd0cb	-0.21564023
59	0x3dc84512	0.09778799
60	0xbf4af384	-0.79277825
61	0x3ed4252f	0.4143462
62	0xbf70ce66	-0.9406494
63	0xbf6d9732	-0.9280883
64	0x3f3e6d4b	0.7438552
65	0x3eab333a	0.3343752
66	0xbec61f93	-0.38695964
67	0xbf3e3188	-0.7429433
68	0xbef5dd6d	-0.48020497
69	0x3f165e28	0.5873742
70	0x3f935580	1.1510468
71	0xbe1b6f28	-0.15179121
72	0xbe3d83aa	-0.18507257
73	0xbd068193	-0.032838415
74	0xbe42e425	-0.19032343
75	0xbf4d7a3f	-0.8026466
76	0x3ddf49e1	0.10902763
77	0x3eb10c8c	0.34579885
78	0x3efa7505	0.48917404
79	0xbed7836b	-0.4209245
80	0x3f88397c	1.0642543
81	0x3f88eb38	1.0696783
82	0xbfa75e84	-1.3075719
83	0x3f256933	0.64613646
84	0x3e72dc16	0.23716769
85	0xbf16824d	-0.58792573
86	0xbeeafe18	-0.45896983
87	0x3e1d3a07	0.15354167
88	0xbef6ad98	-0.48179317
89	0xbe90de98	-0.28294826
90	0x3d81a3d9	0.063300796
91	0x3f73ee92	0.95285904
92	0xbf0940f3	-0.5361473
93	0x3fc1da35	1.5144717
94	0x3e9293a4	0.28628266
95	0x3df3e5e8	0.119090855
96	0xbf43d883	-0.76502246
97	0x3edf7f7d	0.43651953
98	0xbe32e799	-0.1747116
99	0xbdaca59d	-0.08430026
100	0xbd752a2c	-0.05985467
101	0x3f55389b	0.832895
102	0x3d33481c	0.04376994
103	0x3efbead8	0.4920261
104	0x3c14f832	0.0090923775
105	0x3eb185e7	0.34672472
106	0x3ee450c5	0.44592872
107	0xbef5538d	-0.47915307
108	0x3ebbe775	0.36700025
109	0xbf443e44	-0.7665751
110	0xbeb5c2b0	-0.35500097
111	0x3e2c02b4	0.16797906
112	0x3ef4557f	0.47721478
113	0x3bdb5b70	0.00669425
114	0xbf7c5d5b	-0.9857995
115	0xbc133435	-0.008984615
116	0x3ef893d1	0.48550275
117	0xbc3b0efc	-0.011417147
118	0x3d7961a8	0.060884148
119	0x3b25c90e	0.002529684
120	0x3f1d1d28	0.61372614
121	0xbba75381	-0.00510639
122	0xbe6f0c2a	-0.23344484
123	0x3f088396	0.53325784
124	0x3f1a6e5e	0.60324657
125	0xbd578482	-0.052616604
126	0x3faa7d94	1.3319573
127	0xbf59348d	-0.8484581
128	0xbf0e6de5	-0.55636436
129	0xbd840b41	-0.06447459
130	0xbf25363b	-0.64535874
131	0x3e477693	0.19478826
132	0x3e4acb71	0.19804169
133	0xbeb725ba	-0.3577097
134	0xbf16d702	-0.58921826
135	0x3ee711f1	0.45130876
136	0x3e6a8cd3	0.22905283
137	0x3df28093	0.1184093
138	0xbf33ab00	-0.701828
139	0xbf6a8192	-0.9160396
140	0xbf93e453	-1.1554054
141	0x3f543faf	0.82909673
142	0xbf40b1fd	-0.7527159
143	0x3eb2bb05	0.3490831
144	0xbf08273f	-0.53184885
145	0x3e6ac4fb	0.22926705
146	0xbef98e97	-0.487416
147	0x3f18ca8a	0.5968405
148	0x3f71f0f5	0.94508296
149	0xbe3c9c56	-0.18419012
150	0x3e70e3f7	0.23524462
151	0xbe509e07	-0.20372783
152	0xbd8ac55c	-0.067759246
153	0xbdafe0db	-0.0858781
154	0x3e3af63d	0.18257995
155	0xbf060806	-0.5235599
156	0x3f103a43	0.563389
157	0x3edc45dd	0.4302205
158	0xbc9e0c62	-0.019293014
159	0xbf10c6dd	-0.5655344
160	0xbf0bcc40	-0.54608536
161	0x3ee48359	0.4463146
162	0xbe508de4	-0.20366627
163	0xbf50f5ad	-0.8162487
164	0xbe90b3a7	-0.28262064
165	0x3f1ecb22	0.62028706
166	0x3e622b39	0.220868
167	0x3f42063e	0.75790775
168	0x3f0a5cd9	0.54047924
169	0x3dec8f0f	0.11550724
170	0x3f05ef5a	0.52318347
171	0xbe98666e	-0.29765648
172	0x3e17d4d1	0.14827277
173	0xbeed94fb	-0.46402726
174	0xbf01884f	-0.50598615
175	0x3f374363	0.715872
176	0x3eef6452	0.46756226
177	0x3e235939	0.15952004
178	0x3e60b797	0.21945034
179	0x3e922449	0.28543308
180	0x3f9a93a2	1.2076304
181	0x3ec7b7b7	0.3900735
182	0xbec2ed07	-0.38071463
183	0xbe7a3b76	-0.24436745
184	0xbf4a48dc	-0.79017425
185	0x3fa15aa8	1.2605791
186	0xbe494677	-0.19655786
187	0xbe1d2a03	-0.15348057
188	0xbe24c48a	-0.16090599
189	0xbee731ee	-0.4515528
190	0x3fbf4d2b	1.4945425
191	0xbe834716	-0.25640172
192	0x3eb2c5cb	0.3491653
193	0xbfa59384	-1.2935643
194	0x3f827063	1.0190548
195	0x3ed04d2b	0.40683874
196	0x3f3bdcc2	0.73383725
197	0xbf66989e	-0.90076625
198	0xbefc678f	-0.4929776
199	0x3fa11aab	1.2586263
200	0x3e329bf6	0.17442307
201	0xbd5b7937	-0.053582396
202	0x3fabcaeb	1.3421301
203	0xbe53e1c4	-0.20691592
204	0xbf7e7b6f	-0.99407095
205	0x3e002d04	0.12517172
206	0x3c97da39	0.018536674
207	0x3f4eb3f3	0.8074333
208	0x3d827b27	0.06371146
209	0xbf350280	-0.7070694
210	0xbdd999d1	-0.10625041
211	0x3baa45ff	0.0051963325
212	0x3f08b253	0.533971
213	0x3fdddb8f	1.7332629
214	0xbec6f020	-0.38855076
215	0x3eac859b	0.33695683
216	0xbf626151	-0.88429743
217	0x40353497	2.8313348
218	0xbf94cb1e	-1.1624486
219	0x3f5bb272	0.8581916
220	0x3f0e8afd	0.5568083
221	0xbf565934	-0.83729863
222	0x3ea59cbd	0.32346144
223	0x3f7cec42	0.98798
224	0x3c997d64	0.018736549
225	0x3f4cf31c	0.80058455
226	0xbf5a4722	-0.8526479
227	0xbfb9b857	-1.4509381
228	0x3f028494	0.5098355
229	0xbf852c21	-1.0404092
230	0x3fa77c0b	1.308473
231	0x3f744196	0.95412576
232	0x3eb18a1a	0.34675676
233	0xbe222fab	-0.15838496
234	0x3fa802c3	1.3125843
235	0xbf01664c	-0.5054672
236	0x3eb17e51	0.34666684
237	0xbfd318a3	-1.6491894
238	0xbeb6f89b	-0.35736546
239	0xbf46cd3b	-0.77656907
240	0x3fb71d53	1.4305824
241	0xbdec44a9	-0.115365334
242	0x3dec10bc	0.11526629
243	0x3f01bfe7	0.50683445
244	0x3e682a9c	0.22672504
245	0xbd7fb8e8	-0.0624322
246	0xbf9a5dae	-1.2059839
247	0xbe5c96e2	-0.21541932
248	0x3f96b489	1.1773845
249	0x3fa9d46e	1.3267953
250	0xbfb95155	-1.4477946
251	0x3e8c71db	0.27430615
252	0xbf8c8c8f	-1.0980395
253	0xbebe9b7e	-0.37228006
254	0x3eb94bae	0.36190552
255	0xbffdcaf1	-1.9827558

feature.weight_hh_l0 f4 [512, 128]
0	0x3e1b3075	0.15155204
1	0x3e71907d	0.23590274
2	0xbcf12ee0	-0.029441297
3	0xbdbec587	-0.09315019
4	0x3dc9b35d	0.09848664
5	0xbfb12431	-1.383917
6	0x3e3ed8ba	0.18637362
7	0x3e840db7	0.25791714
8	0x3f6e5b80	0.9310837
9	0x3eda6e22	0.4266215
10	0xbf050471	-0.519599
11	0x3d530ef0	0.051527917
12	0x3d996023	0.0748904
13	0x3e0cb3ee	0.13740513
14	0x3d3c309f	0.045944806
15	0x3cee3def	0.029082267
16	0xbf35f520	-0.71077156
17	0x3ef39653	0.47575626
18	0xbd28f9db	-0.041253906
19	0x3f8cc4d6	1.099757
20	0xbec95d30	-0.3932891
21	0x3f4d7d40	0.8026924
22	0x3e9038e9	0.2816842
23	0x3e8291d4	0.25501883
24	0xbf00c1ce	-0.5029572
25	0x3eba8fa0	0.36437702
26	0xbe0f1a4b	-0.13974874
27	0x3f37c8a9	0.7179056
28	0xbe8ab8f3	-0.2709423
29	0x3f85e7d1	1.046137
30	0xbf03a765	-0.514273
31	0xbf1e26e7	-0.6177811
32	0x3e3d0128	0.18457472
33	0xbf00717d	-0.5017317
34	0x3f0b209d	0.5434664
35	0x3def3614	0.116802365
36	0x3d82a3aa	0.06378873
37	0x3f0a16e8	0.539412
38	0xbf158ddc	-0.58419585
39	0xbf2bfdfa	-0.6718441
40	0xbe37a0bd	-0.1793241
41	0x3fcda329	1.6065418
42	0xbd918f6c	-0.07107434
43	0x3e379fc4	0.1793204
44	0xbdf0a4d8	-0.117501915
45	0x3fc3de2e	1.5302179
46	0x3e8d3af0	0.27584028
47	0x3f4f1c01	0.80902106
48	0xbea15efa	-0.31517774
49	0x3d10a139	0.035310004
50	0xbe49cdf3	-0.1970747
51	0x3c6e297e	0.01453626
52	0x3e6fc6f7	0.23415743
53	0x3e129e0c	0.14318103
54	0xbecfbdc5	-0.4057447
55	0xbea3f87f	-0.32025525
56	0xbee25aba	-0.44209844
57	0x3dee7574	0.11643496
58	0xbecbb0e6	-0.397834
59	0x3eab48a3	0.33453855
60	0xbfa6a122	-1.3017924
61	0xbe1a9179	-0.15094556
62	0x3d7f2812	0.062294073
63	0xbd966ae5	-0.07344607
64	0x3d25ad13	0.04044826
65	0xbdf71162	-0.120638624
66	0x3f18594e	0.5951127
67	0xbec0332c	-0.3753904
68	0x3eb138c0	0.3461361
69	0x3f3c59dd	0.7357462
70	0xbf393d60	-0.72359276
71	0xbe20214b	-0.156377
72	0xbe6edcf3	-0.23326473
73	0xbf0c301b	-0.54760903
74	0x3f071b66	0.5277618
75	0xbd4c6f64	-0.049910918
76	0x3f64e87c	0.89417243
77	0x3f749d18	0.95552206
78	0xbe9cfa13	-0.3065954
79	0xbe5595e4	-0.2085796
80	0x3e39045f	0.18068074
81	0xbe5d359e	-0.21602485
82	0xbf156e7a	-0.583717
83	0x3e98b6a9	0.2982686
84	0x3ea60e2f	0.32432696
85	0xbeb907f3	-0.36138877
86	0x3e409585	0.18807037
87	0xbe4865e5	-0.1957012
88	0x3eee1ac4	0.46504796
89	0xbf004317	-0.5010237
90	0x3eb307d7	0.3496692
91	0xbee14556	-0.43998212
92	0x3e80ca91	0.25154546
93	0xbf67cf7f	-0.9055099
94	0xbe548cd9	-0.20756854
95	0xbd67d4a9	-0.056599293
96	0xbf5d45d5	-0.8643468
97	0xbf016594	-0.5054562
98	0xbeef374a	-0.4672187
99	0x3f51d460	0.81964684
100	0xbf0f2199	-0.5591064
101	0xbf2f8a74	-0.6857064
102	0xbecfe267	-0.4060242
103	0x3e3cb83d	0.18429656
104	0x3e6a138c	0.22859019
105	0xbe370d68	-0.17876208
106	0x3e2da7ab	0.16958492
107	0x3e107637	0.14107595
108	0x3ca19691	0.019725116
109	0x3ef7e3b4	0.4841591
110	0x3ebeae57	0.37242386
111	0xbed8845f	-0.4228849
112	0x3e1fd759	0.15609492
113	0x3d8742ce	0.06604539
114	0xbe810223	-0.25196943
115	0xbd938614	-0.07203308
116	0xbf1269c4	-0.57192636
117	0xbd89e72b	-0.06733545
118	0xbef5ce85	-0.48009124
119	0x3d9a13e1	0.07523323
120	0xbe87d329	-0.2652829
121	0x3ed83e84	0.42235196
122	0xbdc4ed0b	-0.09615525
123	0xbefeaa91	-0.49739507
124	0x3e3bee4c	0.18352622
125	0x3f3da902	0.7408601
126	0x3e3e74f5	0.18599303
127	0x3fab17ad	1.33666
128	0xbe1d649a	-0.15370408
129	0x3f309842	0.68982327
130	0xbdbf6630	-0.093456626
131	0x3f38b4c2	0.72150815
132	0x3efaa110	0.48951006
133	0x3f589706	0.84605443
134	0x3e9da05b	0.30786404
135	0x3f10c0f1	0.56544405
136	0x3e0067ad	0.12539549
137	0x3c9836b9	0.018580781
138	0xbf271a9b	-0.6527497
139	0xbf06aab0	-0.526042
140	0xbf15dae5	-0.5853713
141	0xbde79439	-0.11307568
142	0xbccad203	-0.024758345
143	0xbe7c0608	-0.24611676
144	0x3eb7969c	0.35857093
145	0x3f33234a	0.6997572
146	0x3ea57a0f	0.32319686
147	0x3f0d9138	0.5529971
148	0x3e040d39	0.12895669
149	0x3f41e6c0	0.7574272
150	0x3f362843	0.71155185
151	0xbe805fd9	-0.25073126
152	0xbe0457b9	-0.12924089
153	0x3f3d4cd8	0.7394538
154	0x3f00ade2	0.50265324
155	0xbf087935	-0.5330995
156	0x3f41ff74	0.75780416
157	0x3ef8ae94	0.48570693
158	0xbeb4935a	-0.3526867
159	0x3d17b68f	0.037039336
160	0xbd8ac075	-0.067749895
161	0xbf9cfd74	-1.2264848
162	0x3eaffa68	0.34370732
163	0xbf931a2f	-1.1492366
164	0x3ec1b3bf	0.37832448
165	0x3e7ff56f	0.24995969
166	0x3e2f526e	0.17121288
167	0x3e06dd01	0.13170244
168	0xbe0be248	-0.13660538
169	0x3ee3605c	0.44409454
170	0x3e0c6740	0.13711262
171	0xbe7b1c21	-0.24522449
172	0xbf10c844	-0.5655558
173	0x3eaf22e3	0.34206304
174	0xbf0a8d38	-0.5412173
175	0x3c14e034	0.009086657
176	0x3e835ede	0.25658315
177	0xbecc0454	-0.39847052
178	0xbf001397	-0.5002989
179	0xbca99811	-0.020702394
180	0xbe699da7	-0.22814046
181	0xbef6af23	-0.48180494
182	0xbe406fbd	-0.18792625
183	0xbe78c78f	-0.24294876
184	0x3de11371	0.10990036
185	0x3f6c00cb	0.9218871
186	0x3f6acc83	0.9171831
187	0xbe6e7a23	-0.23288779
188	0xbec4931c	-0.38393486
189	0xbca104cd	-0.01965561
190	0x3e89fef3	0.26952323
191	0xbe530361	-0.20606758
192	0xbe3aa939	-0.18228616
193	0xbf40dbe3	-0.7533552
194	0xbd79bc12	-0.060970373
195	0x3ea9d69b	0.33171543
196	0xbf8c5aef	-1.0965251
197	0x3e6d3580	0.2316494
198	0x3ebe25ad	0.3713812
199	0xbdd3e200	-0.103458405
200	0xbf0ffb7b	-0.56243104
201	0xbebca51f	-0.36844727
202	0xbe3c8b9c	-0.18412632
203	0xbf188f8e	-0.5959405
204	0x3f7eaf67	0.9948639
205	0xbdab9f93	-0.08380046
206	0x3ea43471	0.3207126
207	0xbee33228	-0.44374204
208	0x3e22c2e3	0.15894656
209	0xbedd2313	-0.43190822
210	0xbf9459f8	-1.1589956
211	0x3f40f1ac	0.7536876
212	0xbe94e125	-0.29078022
213	0xbdc1d7fc	-0.09465024
214	0x3eb42298	0.35182643
215	0xbe060784	-0.13088804
216	0xbf26733f	-0.650196
217	0x3c515b4d	0.012778115
218	0x3e950948	0.29108644
219	0xbe894d54	-0.2681681
220	0x3ea0ffaf	0.3144507
221	0x3deda27b	0.11603256
222	0x3e9098aa	0.28241473
223	0xbe31259e	-0.17299506
224	0xbee6e2ae	-0.45094818
225	0xbe998499	-0.29983976
226	0x3dbd8073	0.09253015
227	0x3e011d5d	0.12608857
228	0xbf3761c5	-0.7163356
229	0x3ecda91a	0.40168077
230	0x3e93995f	0.2882795
231	0xbeb508f1	-0.35358384
232	0xbdd1d071	-0.10244835
233	0x3f03a836	0.51428545
234	0x3e395fc8	0.18102944
235	0x3d5aa857	0.053383198
236	0x3ec49b2c	0.38399637
237	0xbe2ccf1d	-0.16875882
238	0xbef9c77d	-0.4878501
239	0x3f357411	0.7088023
240	0xbf1c8daa	-0.6115366
241	0xba228151	-0.0006199079
242	0x3ede8ea8	0.43468213
243	0x3e896775	0.26836744
244	0xbf213712	-0.62974656
245	0xbf146b43	-0.5797617
246	0x3e4c3461	0.19941856
247	0x3f3f5e23	0.74753016
248	0xbea68e14	-0.32530272
249	0xbea1aa97	-0.31575462
250	0xbd277bd5	-0.04088958
251	0x3e505cc9	0.20347895
252	0x3ee13128	0.43982816
253	0xbee70d4f	-0.4512734
254	0xbebeebb7	-0.3728921
255	0x3d95709a	0.07296868

feature.bias_ih_l0 f4 [512]
0	0x3ed8dcae	0.42355865
1	0x3e4945a2	0.19655469
2	0x3d7d773d	0.061881293
3	0xbd792e35	-0.060835082
4	0x3e8494ec	0.25894868
5	0xbcfb0ebd	-0.030646676
6	0xbe85bb05	-0.26119247
7	0x3fcdd1ad	1.6079613
8	0x3f36c866	0.71399534
9	0xbe47296b	-0.19449393
10	0xbd3447cb	-0.04401378
11	0x3f7cb466	0.98712766
12	0xbf101a72	-0.5629035
13	0x3d1504b4	0.03638144
14	0x3ea57b75	0.32320753
15	0x3dbad1e0	0.09122062
16	0xbe239722	-0.15975621
17	0x3f8612ad	1.0474449
18	0x3dc12915	0.09431664
19	0xbddfa5ec	-0.10920319
20	0x3f0ed2dc	0.55790496
21	0x3eaa267f	0.33232495
22	0x3f250007	0.64453167
23	0x3f97c8b0	1.185812
24	0x3d1eb62b	0.038747948
25	0x3f089c34	0.5336335
26	0x3ed21a67	0.41035768
27	0xbe5fe063	-0.2186294
28	0x3e834deb	0.25645384
29	0x3f0f7263	0.56033915
30	0x3e233388	0.15937626
31	0x3de8549c	0.11344263
32	0xbd214c9d	-0.039379705
33	0x3fafbe20	1.3729897
34	0xbdf1d082	-0.11807348
35	0x3ebd25e1	0.36942962
36	0x3da510c0	0.080598354
37	0x3e441a05	0.1915055
38	0xbe5fda21	-0.21860553
39	0x3c6ac9ca	0.014330337
40	0x3da7d220	0.08194375
41	0x3e09c919	0.13455619
42	0xbc3713b7	-0.011174134
43	0xbd8fc925	-0.07020787
44	0x3e737d74	0.23778325
45	0x3ef304e3	0.47464666
46	0x3eb6e5e8	0.3572228
47	0x3ed84dce	0.4224686
48	0x3e2d3eb1	0.16918446
49	0x3f06b05a	0.5261284
50	0x3e3024d2	0.17201546
51	0x3ca73f8e	0.020416047
52	0x3e288c4a	0.16459766
53	0xbd297449	-0.041370664
54	0x3eb37730	0.3505187
55	0x3f8b5d0a	1.0887768
56	0xbe8a2efa	-0.26988965
57	0x3f37ca42	0.71792996
58	0x3e7a03e1	0.24415542
59	0x3cd8c4b8	0.02646099
60	0x3f17f8b6	0.5936388
61	0x3f18f19a	0.59743655
62	0x3f1c50ad	0.610606
63	0x3f0e397c	0.55556464
64	0x3ea5f016	0.32409734
65	0x3e3a7417	0.18208347
66	0x3e5eadff	0.21746062
67	0x3f1d0bea	0.61346304
68	0x3ed140db	0.40869793
69	0x3e01a309	0.12659849
70	0x3ec08af2	0.37606007
71	0xbd5a61d3	-0.05331595
72	0xbdcbe976	-0.099566385
73	0xbe1fa2d7	-0.15589462
74	0x3f0c2c63	0.5475523
75	0x3efe5dd8	0.49680972
76	0x3e469406	0.19392404
77	0x3f0ec273	0.55765456
78	0xbe11cf80	-0.14239311
79	0x3f9cc5af	1.2247828
80	0x3e71898c	0.23587626
81	0x3f092d3a	0.53584635
82	0x3e9d2a13	0.30696163
83	0x3e36768d	0.17818661
84	0x3efe0d94	0.49619734
85	0x3dcb858b	0.09937581
86	0x3f60b8f4	0.87782216
87	0x3efd2b3e	0.49447054
88	0x3ebc2667	0.3674805
89	0x3e60d32b	0.21955554
90	0x3e10254b	0.14076726
91	0xbd656f4d	-0.056014348
92	0x3eafb519	0.34317854
93	0x3ed660fe	0.41870874
94	0x3d5bcf67	0.05366459
95	0x3ed80bc3	0.42196473
96	0xbe20a93d	-0.1568956
97	0x3e5274e3	0.20552401
98	0x3eaa2ef7	0.33238956
99	0x3f32b28d	0.69803697
100	0xbe858597	-0.26078483
101	0x3eaf741b	0.3426827
102	0xbd2eedbb	-0.042707186
103	0x3df78420	0.12085748
104	0x3e75739b	0.23969881
105	0xbeb0c00f	-0.3452153
106	0x3e8d843b	0.27639946
107	0x3f8dc7f0	1.1076641
108	0x3eb095e4	0.34489357
109	0x3f377c74	0.71674275
110	0x3ed3c185	0.4135858
111	0x3d8c3d96	0.06847684
112	0x3edf78c0	0.43646812
113	0xbe2643cd	-0.16236801
114	0xbe726edc	-0.23675102
115	0xbe29ca95	-0.16581185
116	0x3fc4a022	1.5361369
117	0x3ef9fc94	0.48825514
118	0x3d69fe45	0.057127256
119	0xbe8b2ab6	-0.27181023
120	0x3ec5954c	0.38590467
121	0x3e57d384	0.2107678
122	0xbd2078b0	-0.039177597
123	0xbc9d721e	-0.019219454
124	0x3ee10457	0.43948624
125	0x3e8bb74b	0.2728828
126	0xbeed594d	-0.46357194
127	0x3e7d9efa	0.24767676
128	0xbe4234dd	-0.18965478
129	0xbe2c082d	-0.16799994
130	0xbf03ca61	-0.5148068
131	0xbe85e527	-0.26151392
132	0x3e4dcf3e	0.20098588
133	0xbe52333c	-0.20527357
134	0xbe43dff4	-0.191284
135	0x3ea4c513	0.32181606
136	0xbdfe7f5f	-0.12426638
137	0x3ef8cb29	0.485925
138	0x3e0bcea3	0.13653044
139	0x3bf8a4f2	0.0075880224
140	0x3d8d5755	0.06901423
141	0xbca43874	-0.02004645
142	0x3ec49452	0.3839441
143	0xbec1c3ca	-0.37844688
144	0x3ef7e84e	0.48419422
145	0xbea619a9	-0.32441452
146	0xbc8e67e3	-0.017383521
147	0xbce61187	-0.02808453
148	0x3e2dc929	0.16971268
149	0x3d0a9267	0.033831026
150	0x3e0dc094	0.13842994
151	0xbe9a2a0b	-0.301102
152	0xbdafac14	-0.08577743
153	0x3e302ede	0.17205378
154	0x3d23c51d	0.039982904
155	0xbdcf9a1b	-0.10136815
156	0xbede9f42	-0.4348088
157	0xbdffa50c	-0.12482652
158	0xbd7ef0b4	-0.06224127
159	0xbd5a0e9b	-0.053236585
160	0x3d8dc1e5	0.06921748
161	0xbec884db	-0.3916386
162	0x3f3d3ca9	0.73920685
163	0xbe7c95e5	-0.24666555
164	0xbebae3c5	-0.365019
165	0xbde525c0	-0.11188841
166	0xbd55858a	-0.052129306
167	0x3ee3c5f5	0.44486967
168	0x3f1747a0	0.59093666
169	0x3e6b922d	0.2300498
170	0x3e71fc1c	0.23631328
171	0xbe96cdab	-0.29453787
172	0xbe73421e	-0.2375569
173	0xbc9b643b	-0.018968692
174	0xbe76a8e0	-0.24087858
175	0xbed665b6	-0.41874474
176	0x3cd1d184	0.0256126
177	0x3ea0bc4e	0.31393665
178	0xbd5d0887	-0.05396321
179	0xbe829074	-0.25500834
180	0x3dd64335	0.104620375
181	0xbe92d90f	-0.28681228
182	0xbec84ce2	-0.39121157
183	0xbe040550	-0.12892652
184	0xbe405ca4	-0.1878534
185	0xbee6d48f	-0.45084044
186	0xbdcb5f94	-0.099303395
187	0x3e27475f	0.1633582
188	0xbbf15974	-0.0073654
189	0x3cd15eec	0.025557958
190	0x3f07f2ff	0.5310516
191	0xbf118510	-0.5684366
192	0xbe68f49b	-0.2274956
193	0x3dd9bd04	0.10631755
194	0x3d881139	0.0664391
195	0xbdf7c7ec	-0.12098679
196	0x3cedb00b	0.029014608
197	0x3edae10c	0.42749822
198	0x3e1876f2	0.14889124
199	0x3d7bdabe	0.061487906
200	0xbea33b46	-0.3188116
201	0x3d9bd472	0.0760888
202	0xbd2cf68f	-0.042227324
203	0xbd47f2dd	-0.048815597
204	0xbe92e536	-0.286905
205	0x3c9030d9	0.017601417
206	0xbcd9b659	-0.026576208
207	0xbf238db6	-0.6388811
208	0xbe984f1b	-0.29747853
209	0xbdabda70	-0.08391273
210	0xbe85a817	-0.26104805
211	0xbe41641f	-0.1888585
212	0x3e1fc76c	0.15603417
213	0xbeb8cef2	-0.36095387
214	0x3df95a2d	0.12175403
215	0xbf183e49	-0.5947004
216	0xbd445ed5	-0.047942
217	0xbe7b08c5	-0.24515064
218	0x3e1f1710	0.15536141
219	0xbebcddd7	-0.36888
220	0xbe181bbb	-0.14854328
221	0xbcfdc56f	-0.030977933
222	0xbe955e64	-0.29173577
223	0x3e5e10a2	0.21686032
224	0xbe0de6ef	-0.13857625
225	0x3eb9d6dc	0.36296737
226	0xbeb66331	-0.35622552
227	0x3c5ea2ec	0.013588648
228	0xbe39d590	-0.18147874
229	0xbd796ca5	-0.060894627
230	0x3e15cb1a	0.14628258
231	0xbe9b3111	-0.30310872
232	0xbebaa116	-0.36451024
233	0xbe7a5301	-0.24445726
234	0xbe4ad234	-0.19806749
235	0x3e41aaa7	0.18912755
236	0xbe013bdd	-0.12620492
237	0xbf409b35	-0.7523683
238	0x3e28f7b9	0.16500749
239	0x3de724d2	0.1128632
240	0x3f15b108	0.58473253
241	0xbee8d5e4	-0.45475686
242	0xbdeb0d1e	-0.11477111
243	0xbc0a7312	-0.008450286
244	0x3ec563fa	0.3855284
245	0xbd24e3b2	-0.04025621
246	0x3d5ea0e1	0.054352645
247	0x3ea8d7ae	0.3297705
248	0xbe47aba1	-0.19499065
249	0x3eb0bb86	0.3451807
250	0xbe81e3c5	-0.25369087
251	0xbe7fb5c5	-0.24971683
252	0x3e4aa069	0.19787754
253	0xbd63c4c5	-0.055607576
254	0x3e958f58	0.29210925
255	0xbe626bc6	-0.22111425

feature.bias_hh_l0 f4 [512]
0	0x3f0962e7	0.5366654
1	0x3e6c5f97	0.2308334
2	0xbe0b7a0d	-0.13620777
3	0xbe125d06	-0.14293298
4	0x3eaff990	0.3437009
5	0xbd6a253f	-0.057164427
6	0xbe96909e	-0.2940721
7	0x3fd5b24a	1.6695035
8	0x3f495991	0.7865229
9	0xbe6bd139	-0.23029031
10	0xbcc533b1	-0.0240725
11	0x3f89a4d4	1.0753427
12	0xbf133a69	-0.57511
13	0x3cd94c18	0.026525542
14	0x3e912694	0.28349745
15	0xbd11333f	-0.035449263
16	0xbe2b6f3d	-0.16741653
17	0x3f766224	0.962435
18	0x3e3b53f0	0.18293738
19	0x3a51b233	0.0007999271
20	0x3efd8259	0.4951351
21	0x3ec59955	0.38593546
22	0x3f10a10a	0.56495726
23	0x3f9ff411	1.2496358
24	0xbcf8e788	-0.03038384
25	0x3f1317e6	0.5745834
26	0x3eada478	0.33914542
27	0xbe34feb1	-0.17675282
28	0x3d9a68e9	0.07539541
29	0x3eddba11	0.4330602
30	0x3e7722df	0.24134396
31	0x3e3f5e06	0.18688211
32	0xbc89b2a7	-0.01680882
33	0x3fc00bb2	1.5003569
34	0xbe593980	-0.21213341
35	0x3ecdf7b3	0.40228042
36	0x3e369303	0.17829518
37	0x3e6c59b8	0.230811
38	0xbe2cefc7	-0.16888343
39	0xbbc0bb72	-0.00588172
40	0x3ce9ee8e	0.028556135
41	0x3e141ec3	0.1446486
42	0xbbea9114	-0.007158408
43	0xbe12723a	-0.14301386
44	0x3e7bca8b	0.24588983
45	0x3f05931b	0.5217759
46	0x3eb6e416	0.3572089
47	0x3ef3db23	0.47628126
48	0x3e968c86	0.29404086
49	0x3ebf7796	0.37395924
50	0x3e11ff4d	0.14257546
51	0x3dc8f7e7	0.098129086
52	0x3e6f3d70	0.2336328
53	0x3beeb8fd	0.007285236
54	0x3ec56983	0.38557062
55	0x3f8f100b	1.1176771
56	0xbe97a251	-0.29616025
57	0x3f2dc77b	0.6788251
58	0x3eb85c9b	0.36008152
59	0xbae295b6	-0.0017287049
60	0x3eb3c505	0.3511125
61	0x3f118cf7	0.5685572
62	0x3f21eaa5	0.63248664
63	0x3f0acce1	0.5421887
64	0x3ee39a80	0.44453812
65	0x3eafb6e0	0.3431921
66	0x3e74430a	0.23853698
67	0x3f242348	0.64116335
68	0x3ec9ab2a	0.393884
69	0x3e241325	0.16022928
70	0x3eb61487	0.35562536
71	0xbd4a3a13	-0.04937179
72	0xbd8834d4	-0.06650701
73	0x3cc723bf	0.024309037
74	0x3f1a5429	0.6028467
75	0x3e6e345b	0.2326216
76	0x3d89c732	0.067274466
77	0x3f21d10d	0.6320961
78	0xbe549514	-0.20759994
79	0x3f9e16e6	1.2350738
80	0x3e27c312	0.16383007
81	0x3ef11deb	0.47093138
82	0x3e753944	0.23947626
83	0x3ea69f1d	0.3254327
84	0x3ef10019	0.47070387
85	0x3e9051f2	0.2818752
86	0x3f4e33a5	0.80547553
87	0x3ef5904d	0.47961655
88	0x3efe67c0	0.4968853
89	0x3dcee4fa	0.101022676
90	0x3e2907be	0.1650686
91	0x3e06eae4	0.13175541
92	0x3e90e61f	0.28300568
93	0x3ec65e2a	0.38743716
94	0x3bf6c189	0.0075303954
95	0x3ee25e92	0.44212776
96	0xbdd24d00	-0.10268593
97	0x3ee1b320	0.44081974
98	0x3ed4d9c4	0.41572392
99	0x3f0f4a6d	0.5597294
100	0xbec6433f	-0.3872318
101	0x3f0f872b	0.56065625
102	0xbc1b9ef2	-0.009498345
103	0x3d7feaac	0.06247966
104	0x3e81f49a	0.2538193
105	0xbea82ada	-0.32845193
106	0x3e65f5b8	0.22457016
107	0x3f852f5c	1.0405078
108	0x3ec5a750	0.38604212
109	0x3efdc8ae	0.4956717
110	0x3ec2aa89	0.38020733
111	0x3df34e3d	0.11880157
112	0x3ea07490	0.3133893
113	0xbd8f861d	-0.07008002
114	0xbe239c3d	-0.15977569
115	0xbe033ae0	-0.12815428
116	0x3fced1e3	1.6157802
117	0x3edb3aa6	0.42818183
118	0x3daa38de	0.08311628
119	0xbeb06a6d	-0.34456196
120	0x3e91dcf4	0.28488886
121	0x3e8265e1	0.25468352
122	0x3e032f85	0.12811096
123	0x3d4ab695	0.04949053
124	0x3ee551a1	0.4478884
125	0x3e62e178	0.22156322
126	0xbeb500b8	-0.3535211
127	0x3e9c1837	0.30487224
128	0xbe124d08	-0.14287198
129	0x3cd5d0dd	0.02610057
130	0xbeb310e3	-0.3497382
131	0xbe92a01b	-0.28637776
132	0x3e474152	0.19458511
133	0xbde6aabf	-0.11263036
134	0xbe425fbe	-0.18981835
135	0x3e1329b7	0.14371382
136	0xbe6fc6c2	-0.23415664
137	0x3f1e183e	0.6175574
138	0xbd1307ab	-0.035895985
139	0x3d9470fa	0.07248111
140	0x3df81598	0.12113494
141	0x3b01f0c9	0.0019827357
142	0x3f098021	0.53711134
143	0xbe9e624a	-0.30934364
144	0x3e956959	0.29181936
145	0xbeb1f62a	-0.3475812
146	0x3cef3dc4	0.029204257
147	0x3d4ce584	0.05002357
148	0x3e36edda	0.1786417
149	0x3cd73b1f	0.026273308
150	0x3db8a9a6	0.09016733
151	0xbe00b54f	-0.12569164
152	0xbd8d4426	-0.06897764
153	0xbbb61e74	-0.0055578295
154	0xbd881e2e	-0.06646381
155	0xbd91a012	-0.07110609
156	0xbeea0543	-0.4570714
157	0xbe0b09a8	-0.13577902
158	0xbd1b0258	-0.037844032
159	0x3d2399bc	0.039941534
160	0x3e201038	0.15631187
161	0xbed2bbcc	-0.41158903
162	0x3f80b378	1.005477
163	0xbe5709b8	-0.20999801
164	0xbe6cc4e6	-0.23121986
165	0xbe4d5b8d	-0.20054455
166	0x3d6ec2a6	0.0582911
167	0x3eb209fa	0.34773237
168	0x3f032b22	0.5123769
169	0x3df5b16d	0.11996732
170	0x3e0ef5c3	0.13960938
171	0xbe939518	-0.28824687
172	0xbe8fcaec	-0.28084505
173	0xbd3860a7	-0.04501405
174	0xbe739eaf	-0.23791002
175	0xbf06f336	-0.5271486
176	0x3dbf5064	0.09341505
177	0x3e915cc7	0.28391096
178	0xbd8ac2ad	-0.06775413
179	0xbe5d6c73	-0.21623401
180	0x3d57f9cd	0.052728463
181	0xbe45c2e1	-0.19312622
182	0xbec06e6f	-0.37584254
183	0xbe82b10f	-0.2552571
184	0xbe2f7e78	-0.17138088
185	0xbecac382	-0.39602286
186	0xbc2e4261	-0.010635943
187	0x3b7074a9	0.0036690629
188	0x3dfbd3b2	0.12296237
189	0x3d84aa01	0.06477738
190	0x3ed854ce	0.422522
191	0xbf100fd4	-0.5627415
192	0xbec11961	-0.37714675
193	0x3cb9d2e4	0.022683568
194	0x3d8856b5	0.06657163
195	0xbe711927	-0.23544751
196	0x3d8d4577	0.06898015
197	0x3eda7074	0.4266392
198	0x3e0433fe	0.12910458
199	0x3e7fb55b	0.24971525
200	0xbe8cf7cb	-0.275328
201	0x3e1f8d19	0.15581168
202	0xbe9a9a9f	-0.30196092
203	0xbe349706	-0.17635736
204	0xbeb1bb76	-0.34713334
205	0x3d8252ea	0.06363471
206	0xbdce6330	-0.10077512
207	0xbf0fe6f2	-0.5621177
208	0xbea79163	-0.3272811
209	0xbda4dc43	-0.08049824
210	0xbe9d60d6	-0.30737942
211	0xbe24112e	-0.16022179
212	0x3e9fcb27	0.3120968
213	0xbecc1bcd	-0.3986496
214	0x3e817234	0.25282443
215	0xbf3a1f09	-0.72703606
216	0xbda5527e	-0.08072375
217	0xbe297994	-0.16550285
218	0x3e567cb1	0.20946003
219	0xbeba49f5	-0.3638455
220	0xbe815326	-0.2525875
221	0xbcefdc51	-0.02927986
222	0xbe7ffa67	-0.24997865
223	0x3df8baa7	0.12144976
224	0xbe299095	-0.1655906
225	0x3ec0035a	0.37502557
226	0xbea02c06	-0.31283587
227	0xbc8bbbbc	-0.017057292
228	0xbdb7e531	-0.08979262
229	0xbd9af648	-0.07566506
230	0x3e47c32d	0.19508047
231	0xbe50dab5	-0.2039593
232	0xbe94901c	-0.29016197
233	0xbe3bfa08	-0.18357098
234	0xbda6d17e	-0.08145426
235	0xbd064adf	-0.032786246
236	0xbdb55d8c	-0.08855733
237	0xbf416ce2	-0.75556767
238	0x3e1c5915	0.15268357
239	0x3d9e73cf	0.077369325
240	0x3f2e39f5	0.68057185
241	0xbed1f2d6	-0.41005582
242	0xbe7e23a6	-0.24818286
243	0xbd535ff4	-0.05160518
244	0x3ecc97db	0.39959607
245	0x3c80a823	0.015705174
246	0x3d9ae331	0.075628646
247	0x3ea9fe18	0.3320167
248	0xbe94ac39	-0.29037645
249	0x3eb310a0	0.3497362
250	0xbeb063b3	-0.34451064
251	0xbdcf3650	-0.10117781
252	0x3e878e92	0.2647596
253	0xbd0b3482	-0.033985622
254	0x3ea57402	0.3231507
255	0xbe7f598e	-0.24936506

feature.weight_ih_l0_reverse f4 [512, 64]
0	0xbe78d0c8	-0.24298394
1	0xbd6cf9d1	-0.05785543
2	0xbccc4214	-0.024933852
3	0x3f8c2b3f	1.0950698
4	0xbe7db8e0	-0.24777555
5	0x3f29c08e	0.6630944
6	0xbec6ca76	-0.3882634
7	0x3f69cdb0	0.9132948
8	0x3f324fad	0.69652826
9	0xbead6a31	-0.3387008
10	0x3f43a4c5	0.76423293
11	0x3ef21b7b	0.4728659
12	0x3e86911d	0.26282588
13	0xbd83c9cb	-0.06434973
14	0xbdb33a7f	-0.087513916
15	0xbf3221cb	-0.69582814
16	0xbe8c9ad8	-0.27461886
17	0x3f2073de	0.626768
18	0x3e30526a	0.17218938
19	0x3e4f84e1	0.20265533
20	0x3fa3e74f	1.2804965
21	0x3f71faa7	0.9452309
22	0xbf2c6319	-0.6733871
23	0x3f38f357	0.7224631
24	0x3f1bc116	0.608415
25	0x3f550de1	0.832243
26	0xbf84d6d3	-1.0378059
27	0xbd9d2a8b	-0.0767413
28	0xbf48f61f	-0.7850055
29	0x3f459c8c	0.77191997
30	0xbec952bb	-0.3932093
31	0x3f1fe5d5	0.6246007
32	0xbe98dea8	-0.29857373
33	0xbf8a1bb4	-1.0789704
34	0xbf87c136	-1.0605838
35	0xbeb659eb	-0.35615477
36	0x3e570165	0.20996626
37	0xbdb1ceed	-0.08682046
38	0x3ed8df3f	0.42357823
39	0x3e5ec705	0.21755607
40	0xbf5386c1	-0.82627493
41	0x3f92bd37	1.1463994
42	0x3ebaf5b3	0.3651558
43	0xbf487ac0	-0.783123
44	0xbf2f3cde	-0.6845225
45	0xbf00ca06	-0.50308263
46	0xbe5a740f	-0.21333335
47	0xbdf4bdf5	-0.11950294
48	0xbd95e4b6	-0.07319014
49	0xbdbe08e9	-0.09279043
50	0x3f05ab46	0.5221447
51	0xbca6e781	-0.020374062
52	0x3d5a30c0	0.053269148
53	0x3e74c951	0.23904921
54	0x3efe4ef6	0.49669617
55	0xbeaceb41	-0.33773234
56	0x3f6be5a7	0.92147297
57	0xbee1455e	-0.43998235
58	0xbc721099	-0.014774465
59	0x3eb095ff	0.34489438
60	0xbf064e13	-0.5246288
61	0x3eedfdba	0.4648264
62	0xbef0a23d	-0.46998778
63	0x3f92e763	1.1476864
64	0xbe016f73	-0.12640171
65	0x3e918ca7	0.28427622
66	0xbdbed69a	-0.09318276
67	0xbf264828	-0.6495385
68	0xbe4f518a	-0.20245948
69	0x3f2c0eef	0.67210287
70	0xbea94c9b	-0.33066258
71	0x3e0d45bf	0.13796137
72	0xbdbfc1c6	-0.09363131
73	0xbf8b7d83	-1.0897678
74	0x3e1772c2	0.1478987
75	0x3e267f07	0.16259395
76	0x3d5e6505	0.05429556
77	0xbe86ef5a	-0.26354486
78	0x3f136f3b	0.575916
79	0x3d0517e2	0.03249348
80	0xbf07e700	-0.53086853
81	0x3d2bd96d	0.0419554
82	0xbef1231e	-0.47097105
83	0x3ec66855	0.38751474
84	0xbd309aae	-0.043116264
85	0xbea8613d	-0.32886687
86	0x3f481063	0.78150004
87	0x3f119c94	0.56879544
88	0xbfa0db74	-1.2566972
89	0xbeb2254c	-0.3479408
90	0xbf579171	-0.842063
91	0xbd204c64	-0.03913535
92	0xbea966b0	-0.33086157
93	0x3de8a35f	0.113592856
94	0x3eb2b450	0.34903193
95	0xbe4768fd	-0.19473644
96	0xbea108a8	-0.31451917
97	0x3f0196ce	0.50620735
98	0xbe04a2ff	-0.12952803
99	0x3e392c30	0.18083262
100	0xbfd6616f	-1.6748484
101	0x3f180138	0.5937686
102	0xbfc195b5	-1.5123812
103	0xbe406682	-0.18789104
104	0xbedaad3a	-0.42710286
105	0xbe12e383	-0.14344601
106	0xbe933ae2	-0.28755862
107	0xbea4cfee	-0.32189888
108	0x3f9ca980	1.2239227
109	0x3e8c830c	0.2744373
110	0x3fa60517	1.2970303
111	0x3e8da262	0.2766295
112	0x3eb2c026	0.34912223
113	0xbdd34675	-0.10316173
114	0x3ecf2f67	0.40465853
115	0xbd9f771c	-0.0778639
116	0x3ed983b6	0.424833
117	0x3def6f55	0.11691157
118	0xbd7f059f	-0.06226122
119	0x3f38956f	0.7210302
120	0xbe424b45	-0.18974026
121	0x3e865ba7	0.262418
122	0x3f44f506	0.76936376
123	0xbd67a0f5	-0.056549985
124	0x3f1ced94	0.61300015
125	0x3f11b049	0.56909615
126	0xbedc1d8e	-0.42991298
127	0xbf5bbbf6	-0.8583368
128	0x3f086c2c	0.5329006
129	0x3d84fc5a	0.06493445
130	0xbe8c43fe	-0.27395624
131	0xbf42af50	-0.76048756
132	0xbecbef0b	-0.39830813
133	0xbf2f625b	-0.68509454
134	0x3f133bde	0.57513225
135	0x3e97c426	0.29641837
136	0xbefafc88	-0.4902079
137	0x3f6bee7f	0.9216079
138	0xbe2f8b58	-0.17142999
139	0xbd7e0fab	-0.06202666
140	0xbe6142b3	-0.219981
141	0xbf7405f4	-0.95321584
142	0x3ece180d	0.40252724
143	0xbecefc18	-0.40426707
144	0xbe992e51	-0.2991815
145	0xbe7bbd52	-0.24583939
146	0x3ee58cfc	0.44834125
147	0xbf0c3945	-0.54774886
148	0xbe4e0299	-0.20118178
149	0xbcfb1164	-0.030647941
150	0x3d254785	0.04035141
151	0xbea9e861	-0.33185104
152	0x3ea7f927	0.32807276
153	0xbe0f40f5	-0.13989623
154	0x3c90efb8	0.017692432
155	0xbec3e24f	-0.38258597
156	0xbd72ebc1	-0.059306864
157	0xbf69f589	-0.9139028
158	0xbf336df1	-0.7008963
159	0x3f148921	0.5802174
160	0x3e92934f	0.28628013
161	0x3f51b936	0.81923234
162	0x3eddd882	0.43329245
163	0xbe1073ee	-0.14106724
164	0xbdc72a3e	-0.09724854
165	0xbe4db3ce	-0.20088121
166	0xbea8bba7	-0.32955667
167	0x3cc29ffe	0.02375793
168	0x3f2b8a99	0.6700836
169	0xbf97639b	-1.1827272
170	0x3e2154f3	0.15755062
171	0x3f0721d5	0.52786
172	0x3d1e3832	0.03862781
173	0xbf7ecc68	-0.9953065
174	0x3f42dcf8	0.7611842
175	0x3fe44edf	1.783657
176	0xbf57cb59	-0.8429466
177	0x3eeb37d9	0.45941046
178	0xbede4050	-0.43408442
179	0x3f1fa0f2	0.6235496
180	0x3f21ac96	0.6315397
181	0xbf5c19e2	-0.85976994
182	0xbe74a6fd	-0.23891826
183	0x3e1dc583	0.15407376
184	0x3c22bfcb	0.009933422
185	0xbef0ed99	-0.47056273
186	0x3df226c4	0.118238
187	0x3f67e43d	0.9058264
188	0x3eacdc2c	0.33761728
189	0x3da815f7	0.082073145
190	0x3f4d8987	0.80287975
191	0x3e980de3	0.29698095
192	0xbf17c929	-0.5929132
193	0xbee56de1	-0.44810393
194	0xbef52790	-0.47881746
195	0x3eb5bed9	0.35497168
196	0xbfce3e1a	-1.6112702
197	0x3c74d622	0.014943631
198	0x3f23e359	0.6401878
199	0x3eef717e	0.46766275
200	0x3ef081a6	0.46973914
201	0x3f842d8b	1.0326399
202	0x3e581e4f	0.21105312
203	0xbf0505d9	-0.5196205
204	0x3e0939d9	0.13400973
205	0xbea63dc7	-0.32469007
206	0xbf9eeef0	-1.2416668
207	0xbc189891	-0.009313718
208	0x3ec32a62	0.38118273
209	0x3ee468e3	0.44611272
210	0x3f3c8ee5	0.7365554
211	0xbd8500e4	-0.064943105
212	0x3f4c00c2	0.79688656
213	0xbe103482	-0.1408253
214	0x3fbf87ec	1.4963355
215	0x3f6266bd	0.88438016
216	0x3e7c4e50	0.24639249
217	0xbf2b6e96	-0.66965616
218	0xbd7cf2eb	-0.061755102
219	0x3ef0d3d2	0.47036606
220	0xbe9d53e1	-0.30728057
221	0x3d9e2325	0.07721547
222	0x3f6fb91a	0.9364182
223	0xbf9170d6	-1.136256
224	0x3f364df4	0.712127
225	0x3ece95cb	0.40348658
226	0xbec61a55	-0.38691965
227	0x3da4429b	0.080205165
228	0x3ef28c10	0.47372484
229	0x3e22259d	0.15834661
230	0x3f1fc90c	0.6241615
231	0xbf52a405	-0.82281524
232	0x3eadb7ec	0.33929384
233	0x3f054616	0.5206007
234	0x3f273d26	0.6532768
235	0xbec710ca	-0.38879997
236	0xbf0be9d5	-0.54653674
237	0x3e096f73	0.13421421
238	0xbedbbe57	-0.42918655
239	0xbea443f3	-0.3208309
240	0xbf857581	-1.0426484
241	0x3e21753d	0.15767379
242	0x3dd9edc1	0.10641051
243	0xbd043183	-0.03227378
244	0x3f8c7ab9	1.0974952
245	0x3deb9636	0.1150326
246	0x3e662155	0.22473653
247	0xbef8452b	-0.4849027
248	0x3f397ddf	0.7245769
249	0x3e354cae	0.17705032
250	0xbca09465	-0.01960201
251	0x3e19b26c	0.15009469
252	0xbf477407	-0.7791142
253	0xbe845681	-0.25847247
254	0xbe39530f	-0.1809809
255	0x3e7fb3f3	0.24970989

feature.weight_hh_l0_reverse f4 [512, 128]
0	0x3e2e4fc3	0.17022614
1	0xbd804a18	-0.06264132
2	0xbeb370ee	-0.35047096
3	0x3de97b19	0.11400432
4	0xbea1a533	-0.3157135
5	0xbdcf5d0d	-0.1012517
6	0x3f821922	1.016392
7	0xbf0b25de	-0.54354656
8	0xbe5cafb2	-0.21551397
9	0x3ea2a36f	0.31765315
10	0x3a025467	0.00049716834
11	0x3ea1e617	0.31620857
12	0x3eb4cf70	0.35314512
13	0x3e40d15b	0.18829863
14	0xbe3b8e88	-0.1831609
15	0x3f0bd8fb	0.5462796
16	0xbe3af36c	-0.1825692
17	0xbf136ef8	-0.575912
18	0xbecaf5a4	-0.39640534
19	0xbec390b3	-0.38196334
20	0xbee42fef	-0.4456782
21	0x3ee624ed	0.44950047
22	0x3e0bed96	0.1366485
23	0xbe888e8a	-0.2667125
24	0xbf1ba2bf	-0.60795206
25	0xbcea710a	-0.028618354
26	0xbe9d4025	-0.30713
27	0xbdb993ba	-0.0906138
28	0x3e8a3e23	0.27000532
29	0x3ec2c404	0.38040173
30	0x3e0072fa	0.1254386
31	0xbf01a105	-0.5063632
32	0xbece62fc	-0.40309894
33	0x3e91d536	0.2848298
34	0x3c2b65d9	0.010461294
35	0x3ed1f35e	0.41005987
36	0xbecd1a07	-0.4005892
37	0x3dbc68dc	0.09199688
38	0xbea6b973	-0.32563362
39	0x3e517ead	0.20458479
40	0x3d4b883f	0.04969048
41	0x3f2d6aae	0.67740905
42	0xbcfefc39	-0.031126129
43	0x3ec022d7	0.3752658
44	0xbdba02b1	-0.090825446
45	0xbeb1bdb5	-0.34715047
46	0x3f2934a1	0.6609593
47	0xbdad5bc7	-0.08464771
48	0x3d701817	0.058616724
49	0xbe8f905d	-0.28039828
50	0x3f09191d	0.53553945
51	0xbe9e25c0	-0.30888176
52	0x3ddd35ec	0.108013004
53	0x3edbdf33	0.42943725
54	0x3eb664e9	0.35623863
55	0xbe487c78	-0.19578731
56	0x3e2b84da	0.16749898
57	0x3e9ee98f	0.31037566
58	0x3d886411	0.06659711
59	0xbd962488	-0.073311865
60	0xbe07ca18	-0.13260686
61	0x3e935757	0.28777573
62	0xbe3cadb1	-0.18425633
63	0x3ed4a3c9	0.41531208
64	0xbd023df9	-0.031797383
65	0x3f80501e	1.002445
66	0x3f06a9f5	0.52603084
67	0xbeaf7a24	-0.34272873
68	0x3f5180b6	0.8183702
69	0x3e9dfcac	0.30856836
70	0xbd4faf03	-0.050704014
71	0xbea576ee	-0.323173
72	0xbe316012	-0.17321804
73	0x3e990503	0.29886636
74	0x3e40c1f9	0.18823995
75	0xbefe164e	-0.49626392
76	0xbe08eb91	-0.13371111
77	0x3e2d35a2	0.1691499
78	0xbe81c8c9	-0.253485
79	0xbd406f91	-0.046981398
80	0x3f18c1eb	0.59670895
81	0xbebe4d0f	-0.37168166
82	0x3f44dd8d	0.7690056
83	0x3d881de5	0.06646327
84	0xbe879e89	-0.2648814
85	0xbeca942d	-0.39566174
86	0x3e2db224	0.16962487
87	0x3e2da811	0.16958643
88	0xbde9923e	-0.114048466
89	0xbe8ab57e	-0.27091593
90	0x3ed349d1	0.41267255
91	0xbeb826a6	-0.35966986
92	0xbe13c943	-0.14432244
93	0xbe9dd243	-0.3082448
94	0x3ccdda80	0.025128603
95	0xbe9a6e77	-0.30162403
96	0xbe2c76be	-0.16842172
97	0x3f4fa4de	0.8111094
98	0xbf26f53b	-0.6521794
99	0x3e911d4e	0.2834267
100	0x3d7b562a	0.06136147
101	0xbe128e5f	-0.14312123
102	0xbf1e3990	-0.61806583
103	0xbda93e06	-0.08263783
104	0x3de6c048	0.112671435
105	0x3dac7f81	0.08422757
106	0x3e17ac12	0.14811733
107	0xbeaba825	-0.33526722
108	0x3e4d359b	0.2003998
109	0x3eca99ad	0.3957037
110	0x3eaf3730	0.34221792
111	0xbe9b54aa	-0.3033803
112	0xbe0afd02	-0.13573077
113	0x3e786c98	0.24260175
114	0xbeadedda	-0.3397053
115	0x3ed4d23a	0.4156664
116	0x3d9d25c1	0.076732166
117	0xbdb9325f	-0.09042811
118	0x3eeb3050	0.45935297
119	0xbf0bc94b	-0.54604024
120	0xbd59878b	-0.05310778
121	0xbf453ff0	-0.77050686
122	0x3da547ba	0.080703214
123	0xbe7ee379	-0.24891461
124	0xbed98713	-0.42485866
125	0x3c312768	0.010812618
126	0xbef7b929	-0.48383453
127	0xbd3da5a0	-0.04630053
128	0x3d7fe1cf	0.062471207
129	0xbee85224	-0.45375168
130	0x3f719b0c	0.9437721
131	0x3f5bc714	0.85850644
132	0xbea3a35a	-0.31960565
133	0x3e599942	0.2124987
134	0x3cea680c	0.028614067
135	0xbe405e98	-0.18786085
136	0xbd811908	-0.063036025
137	0x3ee6d91d	0.4508752
138	0x3f08dd9a	0.5346314
139	0xbf072f89	-0.5280691
140	0xbe76d745	-0.24105556
141	0x3f68d027	0.90942615
142	0x3f7def5e	0.9919337
143	0xbf6ca1b7	-0.9243426
144	0xbd1b45fd	-0.037908543
145	0x3ee573e3	0.44814977
146	0x3e862ea8	0.2620747
147	0x3d6a4997	0.057199087
148	0x3eb07254	0.34462225
149	0xbee71dfa	-0.45140058
150	0xbe98e249	-0.29860142
151	0x3f6a4d6a	0.91524374
152	0x3f85a5fb	1.0441278
153	0x3d44218f	0.047883566
154	0x3d663394	0.056201532
155	0xbde606a3	-0.112317346
156	0xbe4ce808	-0.20010388
157	0x3f1a5056	0.6027883
158	0xbe0003a9	-0.12501396
159	0x3de96f23	0.11398151
160	0x3ea9d8f1	0.33173326
161	0xbe52d421	-0.20588733
162	0x3f08bc38	0.534122
163	0x3e637b75	0.22215064
164	0xbf18d8ae	-0.59705627
165	0x3e1e5b57	0.15464531
166	0xbe6aff0a	-0.22948852
167	0xbe536565	-0.20644148
168	0xbebb8a38	-0.3662889
169	0x3f318e36	0.6935762
170	0x3f68e6a3	0.90976924
171	0x3ebe31cc	0.37147367
172	0x3f27708c	0.6540611
173	0x3ee0a4b3	0.43875656
174	0x3f9050d2	1.1274664
175	0xbdf18592	-0.11793055
176	0x3f714482	0.9424516
177	0xbe901661	-0.28142074
178	0xbee2787d	-0.4423255
179	0x3f0d6dc2	0.552456
180	0xbe9a601c	-0.3015145
181	0x3e535fc2	0.20641997
182	0x3eb42e6b	0.35191664
183	0x3f42f3cc	0.76153255
184	0x3f535072	0.82544625
185	0x3e71c3ff	0.23609923
186	0xbe178c83	-0.14799695
187	0xbf09f9ad	-0.538966
188	0xbeb39ca2	-0.3508044
189	0xbf98c213	-1.1934227
190	0x3dd3dacb	0.10344466
191	0xbec7bd10	-0.3901143
192	0xbdfc9925	-0.123338975
193	0xbe8fe20e	-0.28102154
194	0x3e090b99	0.1338333
195	0x3e01e2c1	0.12684156
196	0x3bdd8f2f	0.0067614536
197	0x3f00d07f	0.5031814
198	0x3e1f83bf	0.15577601
199	0xbf51ef3c	-0.8200567
200	0x3f29145c	0.6604669
201	0xbf9896c3	-1.1921009
202	0x3f5163c8	0.8179288
203	0xbd854bcb	-0.06508597
204	0xbf0d4a77	-0.5519175
205	0x3e0f6101	0.14001848
206	0x3f600983	0.87514514
207	0xbf607f93	-0.8769466
208	0x3dec006b	0.11523517
209	0xbe7bf02b	-0.24603336
210	0x3f811189	1.0083476
211	0xbedc894a	-0.43073493
212	0x3f0a5198	0.5403075
213	0xbed666f6	-0.41875428
214	0x3dff4b62	0.1246555
215	0xbf957659	-1.1676742
216	0x3d166b38	0.036723346
217	0x3f2e16d3	0.68003577
218	0x3e9c1839	0.3048723
219	0xbf6bd48d	-0.921212
220	0xbe2cbd5b	-0.16869108
221	0x3dca44a5	0.09876374
222	0xbe5cad0d	-0.21550389
223	0xbd03f345	-0.03221442
224	0xbf96958f	-1.1764392
225	0x3f43177e	0.7620772
226	0xbf4df588	-0.80452776
227	0x3dd79f50	0.10528433
228	0x3f197adf	0.5995311
229	0xbd691dd4	-0.056913212
230	0xbce0bc11	-0.027433427
231	0xbf4ea577	-0.8072123
232	0x3e965599	0.2936218
233	0xbf07729e	-0.52909267
234	0xbd1bf335	-0.038073737
235	0x3dfebc99	0.12438316
236	0x3f7eed57	0.995809
237	0xbf1b9167	-0.6076874
238	0x3eda17b4	0.4259621
239	0xbf48bd77	-0.784141
240	0x3f0b575b	0.5443017
241	0x3eb8eca6	0.36118048
242	0xbec72030	-0.38891745
243	0xbecae2d7	-0.3962619
244	0xbc7f3051	-0.015575484
245	0x3c93e170	0.018051833
246	0xbd942411	-0.072334416
247	0xbe5b454f	-0.21413158
248	0xbf8e3079	-1.1108543
249	0x3e628001	0.22119142
250	0x3e0f78d1	0.14010932
251	0xbf1074fd	-0.5642851
252	0xbe203e17	-0.15648685
253	0x3ed0120c	0.4063877
254	0x3d7bf1d1	0.06150991
255	0xbe9a5a78	-0.30147147

feature.bias_ih_l0_reverse f4 [512]
0	0x3e0f0e6e	0.13970348
1	0x3da3b576	0.07993595
2	0xbe18d059	-0.14923228
3	0xbcc04cbf	-0.023474095
4	0xbc05fb3e	-0.008177577
5	0x3c3b19fb	0.011419768
6	0x3f194ab9	0.5987964
7	0x3dab21fe	0.08356093
8	0x3e2fd0ff	0.1716957
9	0x3e200710	0.15627694
10	0x3f1f0428	0.62115717
11	0x3bf8f2e0	0.0075973123
12	0x3de912d6	0.11380546
13	0x3ea0db16	0.3141715
14	0x3e34b16d	0.17645808
15	0x3de83a20	0.113392115
16	0xbe519531	-0.20467068
17	0x3f04221d	0.5161455
18	0xbcae676b	-0.021289548
19	0xbea158e5	-0.31513134
20	0xbdc0d018	-0.09414691
21	0xbee11e92	-0.43968636
22	0x3ee2e040	0.44311714
23	0x3e296023	0.1654058
24	0xbea200e2	-0.316413
25	0x3ec11049	0.37707737
26	0xbe4b8c0b	-0.19877641
27	0xbc964dc1	-0.018347623
28	0xbedcb9f3	-0.43110618
29	0x3f4e727b	0.80643433
30	0x3e92e96c	0.28693712
31	0xbf4000f7	-0.7500147
32	0x3f033cb4	0.512645
33	0x3e6ca1f0	0.23108649
34	0x3cc2b992	0.023770127
35	0xbe457c68	-0.19285738
36	0x3d934a7b	0.071919404
37	0xbe57fc89	-0.21092428
38	0x3e9575ba	0.2919138
39	0xbf0c832f	-0.5488767
40	0x3f43b6fc	0.76451087
41	0xbe3272f4	-0.17426664
42	0x3d992397	0.07477491
43	0x3f60ed6e	0.8786229
44	0x3e860baa	0.26180774
45	0xbe1ed3b8	-0.15510452
46	0xbdee5d39	-0.116388746
47	0xbd20d12a	-0.039261974
48	0x3dac7d22	0.08422305
49	0x3e6856e8	0.22689402
50	0x3e084f69	0.13311543
51	0xbdd3ad54	-0.10335794
52	0x3e666d1b	0.22502558
53	0x3def5e4a	0.11687906
54	0xbdb99cb8	-0.09063095
55	0xbedd03b2	-0.43166882
56	0x3f3b6388	0.7319875
57	0x3f6cb873	0.9246895
58	0x3ddcf9d3	0.10789838
59	0xbee479c4	-0.4462415
60	0xbe46ba17	-0.19406925
61	0xbe30efe1	-0.17279007
62	0xbe9053ed	-0.2818903
63	0xbdc90b36	-0.098165914
64	0xbeea2806	-0.4573366
65	0x3de507f3	0.11183157
66	0x3f600e9d	0.875223
67	0xbee9d03a	-0.45666677
68	0x3edb3d27	0.42820093
69	0x3ea8655a	0.32889825
70	0xbe192efc	-0.1495933
71	0xbe51dcd2	-0.20494393
72	0xbe6f2e5f	-0.23357533
73	0x3dd17fba	0.1022944
74	0x3ebe3cee	0.3715586
75	0xbf1e71aa	-0.6189219
76	0xbe76675e	-0.24062869
77	0xbe56a69e	-0.20961997
78	0x3e8ae9f8	0.2713163
79	0x3f140d04	0.5783236
80	0x3cd64d9c	0.026160054
81	0xbeb6646a	-0.35623485
82	0x3e0769ca	0.13223949
83	0x3defcd75	0.1170911
84	0x3e2376f4	0.15963346
85	0xbe93007c	-0.28711307
86	0x3db1a1a3	0.08673408
87	0xbdfa64ae	-0.122262344
88	0xbe4a019c	-0.19727176
89	0x3d7492cd	0.059710313
90	0x3b966827	0.0045900526
91	0xbddeaf44	-0.10873273
92	0xbeb4eea4	-0.35338318
93	0x3f260c51	0.64862543
94	0xbd87d4c2	-0.06632377
95	0x3da72ebb	0.0816321
96	0xbee0ab35	-0.4388062
97	0x3ea87878	0.3290441
98	0xbe4a5861	-0.19760276
99	0x3de1ec2c	0.11031374
100	0xbd3c9e58	-0.046049446
101	0xbe1a7eb7	-0.150874
102	0x3e91ced4	0.2847811
103	0x3eafbc3b	0.34323296
104	0xbdca9977	-0.09892552
105	0x3e286de1	0.16448165
106	0xbd876a80	-0.0661211
107	0x3ede4b7c	0.43416965
108	0x3ea3786c	0.31927812
109	0x3e38c522	0.1804395
110	0x3ed0105c	0.4063748
111	0x3f125255	0.5715688
112	0xbd929af7	-0.071584634
113	0xbd7e02ae	-0.062014274
114	0xbe5bb18a	-0.21454445
115	0x3aadf89b	0.0013272943
116	0xbdfaff90	-0.12255776
117	0x3e0c4c02	0.1370087
118	0xbe900a2d	-0.28132764
119	0xbee617dc	-0.44940078
120	0x3f2fd3a5	0.6868232
121	0x3e94d185	0.290661
122	0xbc3ed40d	-0.0116472365
123	0x3f0c7998	0.5487304
124	0xbe62862d	-0.22121496
125	0x3e77cd88	0.24199498
126	0xbd3e768e	-0.04649978
127	0x3e3d620b	0.18494432
128	0x3e00df08	0.1258508
129	0x3e81bac3	0.253378
130	0x3f0bccbd	0.5460928
131	0xbe8300d8	-0.2558658
132	0x3ceb7d82	0.02874637
133	0xbefe8891	-0.49713567
134	0xbe1aa9fd	-0.15103908
135	0xbe0ef7ea	-0.13961759
136	0xbd599de1	-0.05312908
137	0x3decac4d	0.11556301
138	0xbde70577	-0.11280339
139	0xbca9a1cb	-0.020707032
140	0xbde78892	-0.113053456
141	0x3cae07b5	0.02124391
142	0xbdfd75de	-0.12375997
143	0x3eeae880	0.45880508
144	0x3e4286fb	0.18996803
145	0xbea194de	-0.3155889
146	0x3dee35a4	0.11631325
147	0xbef8904c	-0.4854759
148	0x3c7ccfc4	0.015430395
149	0x3e69711e	0.22797057
150	0xbe74fddc	-0.23924965
151	0xbe04b72c	-0.129605
152	0x3df698b0	0.120408416
153	0xbe9bd46c	-0.30435503
154	0xbe4932e0	-0.19648314
155	0xbd42717d	-0.047471512
156	0xbee21fcf	-0.44164893
157	0x3e92e9c7	0.28693983
158	0xbdd38b92	-0.10329355
159	0x3d001af9	0.031275723
160	0x3dad4432	0.08460273
161	0x3de2c136	0.11072008
162	0xbe8f4a5d	-0.27986422
163	0x3dda2652	0.1065184
164	0x3d29bd6b	0.04144041
165	0x3ef4fe8b	0.4785045
166	0x3e55414e	0.20825693
167	0x3e75d22f	0.2400596
168	0x3cde8a61	0.027165594
169	0x3e82e8cd	0.25568238
170	0x3c794509	0.015214213
171	0xbeb19f5c	-0.34691894
172	0xbf00a089	-0.5024496
173	0x3ded6ef8	0.11593431
174	0x3e4b83b9	0.19874467
175	0xbe5bc0cc	-0.21460265
176	0xbee4a808	-0.44659448
177	0xbce46154	-0.02787844
178	0xbe5406e8	-0.2070576
179	0x3e7e668a	0.24843803
180	0x3de5ac32	0.11214484
181	0xbe85a4e2	-0.26102358
182	0x3eb91067	0.36145326
183	0x3d2edad4	0.04268916
184	0xbf3d4232	-0.7392913
185	0x3d6eef03	0.058333408
186	0x3ce97270	0.02849695
187	0x3ee164ac	0.4402212
188	0x3f0934c4	0.5359614
189	0x3d34df42	0.044158228
190	0x3f141a21	0.5785237
191	0x3ea300cf	0.31836554
192	0x3e3e1a5a	0.1856474
193	0xbee32a95	-0.44368425
194	0xbf0a846a	-0.541083
195	0x3e85449d	0.2602891
196	0xbefdac6a	-0.49545604
197	0x3e14a062	0.14514306
198	0x3e4b4226	0.19849452
199	0xbe46ad49	-0.1940204
200	0xbe00bf85	-0.12573059
201	0x3ef4f418	0.4784248
202	0xbedd9bb3	-0.43282852
203	0xbe1b477c	-0.15163988
204	0x3d57de91	0.05270249
205	0xbea87f6c	-0.32909715
206	0xbe4d7a50	-0.2006619
207	0xbe107b70	-0.14109588
208	0x3dfceba0	0.123496294
209	0xbce89e15	-0.028395692
210	0xbe268fd6	-0.16265807
211	0x3e298afa	0.16556922
212	0xbdf21fc4	-0.11822465
213	0xbeb560ff	-0.35425565
214	0xbe8c671f	-0.27422425
215	0x3e44ff89	0.19238104
216	0xbe0cf8ab	-0.13766734
217	0xbe743569	-0.238485
218	0xbe5506a9	-0.20803322
219	0x3dff87b3	0.124770544
220	0x3cacf9db	0.021115234
221	0xbeebf396	-0.4608428
222	0x3e2a8e16	0.16655764
223	0xbded6a71	-0.11592568
224	0xbe08e9f4	-0.13370496
225	0xbe5ed72e	-0.21761772
226	0xbeea8115	-0.45801607
227	0xbef867d0	-0.48516703
228	0x3e65da81	0.22446634
229	0xbd3a6b0a	-0.045512237
230	0x3eaac771	0.33355287
231	0x3ef529a0	0.4788332
232	0xbe885669	-0.26628426
233	0xbebe069d	-0.3711442
234	0xbd70554e	-0.058675103
235	0xbf7d4cb1	-0.98945147
236	0xbe8d5cdc	-0.2760991
237	0xbf4181dd	-0.7558878
238	0xbe1f470a	-0.15554443
239	0xbf35d154	-0.71022534
240	0xbec5378e	-0.38518947
241	0xbca7d5fb	-0.020487776
242	0x3ea1cd04	0.31601727
243	0xbf1d36a1	-0.6141148
244	0xbc0c3c17	-0.008559248
245	0x3eac571d	0.33660212
246	0xbe82353b	-0.25431237
247	0xbe87ad33	-0.26499328
248	0xbe170d7e	-0.1475124
249	0xbf1fcb82	-0.62419903
250	0xbecbb17b	-0.39783844
251	0x3dac100b	0.084014975
252	0xbdf3209b	-0.118714534
253	0xbe8a0cb5	-0.2696282
254	0xbe9c77ca	-0.30560142
255	0xbf20ba84	-0.627846
