logs/classifier/5_contexts/fold_04/10-19-2022_13-42-53/model_params.pth (torch, 821283 bytes, 10 tensors)

feature.weight_ih_l0 f4 [512, 64]
1.0736958 0.3784279 0.26351392 0.080695026 0.3796244 1.1695751 0.47070193 0.019965405
-0.004455964 -0.08160752 -0.35278058 0.14185894 -0.34045067 -0.07247709 0.30839574 0.06879514
0.62542653 0.7664847 0.846702 -0.21985538 -1.5030673 -0.33895424 -0.90767354 -0.038945444
-0.3819751 0.008011845 0.43430427 0.029451938 0.7311782 1.2760688 0.7896264 0.11421956
0.0341171 0.42327034 -0.2648574 0.12643072 0.13954125 -0.2777268 -0.69039917 0.12770435
-0.096298926 -0.31319568 0.305607 -0.46023965 -0.4555806 1.2138237 0.0012978277 -0.5668281
0.22506636 0.07927873 0.033981487 0.7507349 0.08797013 -0.47352356 -0.02613861 -0.3904576
-0.14839073 0.6507881 -0.6529978 -0.18370476 -0.39073133 0.29859087 0.7418007 -1.0923808
1.0626642 -0.42871612 0.5439635 0.22600679 -0.3951396 -0.32236204 -0.22634071 -0.706611
-0.7639276 -0.6404532 0.51907927 -0.16908155 -0.12275839 0.04197729 0.874842 0.3511072
-0.08566297 1.119304 0.0040449677 0.72614956 0.48085362 0.077900335 -0.72571886 0.3455206
-1.3821485 -0.60089064 0.5565046 -0.10678733 -0.28729838 -0.504152 -0.81434304 0.578547
-1.0399367 -0.672648 0.27781537 0.27763835 0.1759104 0.60553277 0.22916882 -0.93169177
-0.8579855 -0.89673847 -1.1952962 -0.28122225 -0.55721086 0.4206073 -0.56225747 -0.8156275
-0.69998693 0.70699656 -0.35442284 -0.73153275 -0.75277525 0.71741414 0.2683991 0.043747447
0.03237001 -0.69507694 0.09894821 -0.848979 0.44726712 0.36590573 -0.317895 0.63330084
-0.5023766 0.08686719 0.6491706 0.38470978 0.21180153 -0.15818702 -0.44874755 0.34108776
-1.2319213 -1.7729895 -0.5443735 -0.047755107 -0.8290788 0.757446 -0.9345698 0.16225414
-0.25193757 0.30695647 -0.6697972 -0.094334856 -0.1893249 0.9294937 -0.08242865 0.109920554
-0.5134123 -0.09703272 0.31775978 -0.21828759 -0.08798216 -0.71738845 -1.0234183 1.540556
0.7022861 -1.3051143 0.19231679 -0.4107705 0.50648373 -0.38187546 -0.3300493 -0.36776602
-0.13664785 -0.96525514 1.7559036 -0.31654313 0.7697605 0.47886154 -0.43251196 -0.44858587
0.53660446 1.4454439 2.3371153 0.561095 0.11350642 0.5081516 0.32902902 0.13286984
0.39669695 0.013307857 0.061899196 0.09124214 -0.15177615 -0.083397985 -0.5951378 -0.16796923
0.4898486 1.3059598 -0.3199618 -0.09748166 -0.0028124598 -0.46945977 0.2470033 -0.32141966
-0.4710749 -0.4676543 0.32621622 0.25420618 0.5706272 -0.77642673 -1.1829522 0.40632677
-0.35603464 0.4317006 0.2579023 0.25901178 -0.3859867 0.026393691 0.50670606 0.57467073
-0.6183746 -0.6656123 0.3234946 -0.69586 -0.13092917 -0.4077461 0.3095933 0.57022953
-0.8152465 -0.3854695 0.008264167 0.24645221 -0.7450585 0.58894587 -0.26714754 -0.012288994
-1.3705654 0.37166402 -0.84664476 -0.20885453 -0.24481782 0.022353506 0.08950686 0.33064732
0.45692617 -0.20967583 -0.56692135 -1.5736811 -0.32600424 0.24494131 0.07094087 -0.48817685
-0.02303837 0.9744217 -0.6625219 -0.18596706 -0.5605058 -0.48435 0.3696206 -0.35643348
00000000: dd6e 893f 4dc1 c13e 4ceb 863e 6f43 a53d
00000010: 215e c23e a3b4 953f d8ff f03e 7d8e a33c
00000020: 5603 92bb d821 a7bd a89f b4be 7843 113e
00000030: 8d4f aebe de6e 94bd 0ce6 9d3e 77e4 8c3d
00000040: f41b 203f 5738 443f 76c1 583f c521 61be
00000050: 8264 c0bf 698b adbe 4b5d 68bf 4285 1fbd
00000060: 3e92 c3be 1d44 033c 215d de3e 3145 f13c
00000070: 7f2e 3b3f 3956 a33f f524 4a3f f2eb e93d
00000080: 5fbe 0b3d e4b6 d83e 649b 87be 0e77 013e
00000090: e7e3 0e3e 3532 8ebe 00be 30bf eec4 023e
000000a0: 5f38 c5bd 2f5b a0be 8578 9c3e 88a4 ebbe
000000b0: dc41 e9be 935e 9b3f df1b aa3a a51b 11bf
000000c0: cc77 663e e35c a23d 2c30 0b3d 2a30 403f
000000d0: af29 b43d ae71 f2be a320 d6bc 0fea c7be
000000e0: bdf3 17be 0d9a 263f dd2a 27bf 1a1d 3cbe
000000f0: f00d c8be e7e0 983e a7e6 3d3f 22d3 8bbf
00000100: 6105 883f ae80 dbbe 3141 0b3f 536e 673e
00000110: bd4f cabe a30c a5be dcc5 67be 75e4 34bf
00000120: c290 43bf bef4 23bf 61e2 043f b723 2dbe
00000130: c068 fbbd 61f0 2b3d a5f5 5f3f 53c4 b33e
00000140: 1170 afbd 5a45 8f3f a68b 843b f0e4 393f
00000150: 7232 f63e 368a 9f3d b6c8 39bf 13e8 b03e
00000160: 3eea b0bf f8d3 19bf 1677 0e3f 51b3 dabd
00000170: c618 93be 1b10 01bf c978 50bf a81b 143f
00000180: a51c 85bf a932 2cbf d13d 8e3e 9d26 8e3e
00000190: db21 343e 3204 1b3f 3bab 6a3e 5a83 6ebf
000001a0: f0a4 5bbf a790 65bf 77ff 98bf 5dfc 8fbe
000001b0: 5fa5 0ebf d759 d73e 1bf0 0fbf f7cc 50bf
000001c0: 5832 33bf bafd 343f e976 b5be bb45 3bbf
000001d0: e1b5 40bf 74a8 373f 9b6b 893e 8630 333d
000001e0: 6a96 043d 90f0 31bf 5ca5 ca3d b056 59bf
000001f0: 3200 e53e ff57 bb3e 22c3 a2be 0120 223f
00000200: c19b 00bf 6de7 b13d 0b30 263f aef8 c43e
00000210: 80e2 583e c7fb 21be 3dc2 e5be 0ea3 ae3e
00000220: 99af 9dbf 52f1 e2bf 105c 0bbf dc9a 43bd
00000230: 823e 54bf fbe7 413f f73f 6fbf f325 263e
00000240: f6fd 80be 6629 9d3e d477 2bbf a232 c1bd
00000250: 63de 41be 4df3 6d3f 5ad0 a8bd 071e e13d
00000260: fd6e 03bf 17b9 c6bd 69b1 a23e c886 5fbe
00000270: fe2f b4bd c5a6 37bf 5fff 82bf f030 c53f
00000280: 06c9 333f fc0d a7bf b1ee 443e 8350 d2be
00000290: eba8 013f 2e85 c3be 39fc a8be d44b bcbe
000002a0: 6aed 0bbe f61a 77bf 73c1 e03f f111 a2be
000002b0: 060f 453f 572d f53e 3572 ddbe 0cad e5be
000002c0: e95e 093f 4e04 b93f 4c93 1540 eca3 0f3f
000002d0: 0e76 e83d 3916 023f 7e76 a83e 080f 083e
000002e0: dd1b cb3e 3309 5a3c 038a 7d3d 29dd ba3d
000002f0: 356b 1bbe 90cc aabd f35a 18bf 2000 2cbe
00000300: 70cd fa3e b129 a73f 08d2 a3be 77a4 c7bd
00000310: 3f51 38bb 085d f0be 6fee 7c3e 1e91 a4be
00000320: bb30 f1be 6270 efbe d005 a73e 5027 823e
00000330: a014 123f e7c3 46bf fa6a 97bf 100a d03e
00000340: 2c4a b6be dc07 dd3e c50b 843e 319d 843e
00000350: 0ca0 c5be 9537 d83c 7db7 013f 9f1d 133f
00000360: cc4d 1ebf 9165 2abf 16a1 a53e e223 32bf
00000370: 4c12 06be 19c4 d0be 0383 9e3e 90fa 113f
00000380: ffb3 50bf 425c c5be 6e66 073c f85d 7c3e
00000390: 27bc 3ebf 28c5 163f 90c7 88be c757 49bc
000003a0: b06e afbf bf4a be3e b6bd 58bf f6dd 55be
000003b0: 86b1 7abe b31e b73c 5f4f b73d 9b4a a93e
000003c0: 3af2 e93e 43b5 56be c221 11bf 626e c9bf
000003d0: 07ea a6be e5d1 7a3e 7249 913d 51f2 f9be
000003e0: f7ba bcbc b373 793f 099b 29bf 266e 3ebe
000003f0: 4f7d 0fbf b9fc f7be e93e bd3e 737e b6be

feature.weight_hh_l0 f4 [512, 128]
0.84173447 -0.9519512 0.60219055 -0.30027956 -1.3216337 0.60973305 1.1362132 -0.36612564
-0.40392295 -0.13090841 0.12881361 0.5842613 1.2628762 0.44429243 -0.82623535 -0.4192577
-0.24961405 -0.1959811 -0.85715944 -0.18268566 0.5801706 -0.40530068 -0.3237141 0.48266625
0.5446103 0.9287766 -0.14052042 0.1444948 0.77107364 -0.25759476 -0.6428946 -0.02104239
-0.8050288 -0.013676756 -0.2102178 0.122622564 -0.61266625 -0.28315443 0.8570774 -1.2933705
-0.18153878 -0.7136648 -0.04229223 0.7337983 -0.66911995 -0.053341277 -0.23915736 -0.88531107
-0.019867709 0.11179826 -0.7874109 0.14333713 -0.2753141 0.46318093 -0.26431656 0.15077353
-0.0603464 0.15883286 -1.1921393 0.6669205 0.8655019 0.92109156 0.23593181 -0.18008919
-0.59017503 -0.48916608 0.42731765 -0.61801916 -0.062527604 0.38205984 -0.9025239 -0.11281386
0.7610258 0.743929 -1.0517327 0.43459484 -0.52913076 0.18388928 0.49169013 -0.5376117
0.26185754 0.24296072 0.21479681 0.5833769 -0.1820788 0.07983009 -0.48041195 -0.39286834
-0.4266505 0.1320775 -0.4582815 0.2101252 -0.06079882 -0.16432853 -0.32921907 0.50561213
-0.089835554 -1.3902292 0.20613855 -0.41258734 0.050836377 -0.63122946 0.7358671 1.1165744
0.23836489 -0.34006208 0.35616168 0.28075644 0.79008424 -0.16812842 -0.13678294 0.108891346
0.3708041 0.68750054 0.22041205 -0.016239412 -0.34209898 0.13407554 0.35754034 -0.8558719
0.6900059 -0.37098703 0.5293352 0.4108439 -0.24623114 0.25682336 0.2766505 -0.412824
-0.56148463 -0.41420534 1.4258487 -0.39773622 0.70362127 0.33341163 -0.1278985 -0.08577421
0.118305944 0.070424385 -0.038352165 -0.33449087 0.23302808 0.33003917 0.44546005 -0.062216796
0.49990058 -0.4231213 -0.90568095 -0.2335127 0.20679045 -0.19145195 -0.055720814 -0.78638166
-0.51993185 0.19236113 -0.62898827 1.0011718 -0.59824884 0.64931995 -0.6994099 -0.4573873
0.18869314 -0.11545564 -0.78947955 0.19366121 -0.18654975 1.0984362 -0.22884014 -0.33767992
-0.024198133 0.38387054 0.19067489 0.22104286 0.18224868 -0.020003747 0.3675402 0.24994893
-0.7932164 -0.11629999 0.18510738 0.9926668 0.59291846 0.008138512 -0.03971025 0.30921614
-0.432861 -0.16865753 1.171904 -0.46811816 -0.69215584 0.06571942 0.37146667 -0.42309394
0.4784491 -0.39254907 0.2816034 -0.630872 0.45560247 -0.07193471 0.054615874 0.29496217
-0.20991881 -0.7390651 0.5781672 -0.5730699 0.38482538 -0.31967714 -0.79310125 0.12589581
-1.0509093 -0.3984333 -0.5905568 -0.13252032 0.751246 0.012625254 -0.3396141 -0.93334913
0.11962434 -0.19047819 -0.60261816 0.05749315 0.0007795094 0.5151895 -0.14246742 -0.43217418
0.6706335 0.9081471 0.45812887 -0.32346544 0.33047092 -0.24444339 -0.554646 0.44130242
-0.18165624 -0.20513347 0.0031339626 -0.1788923 -0.2895705 -0.29533195 -0.7806177 0.03949887
-0.08259394 -0.93286645 -0.44604963 0.20372571 0.092186384 0.71178085 -0.4739041 0.27715567
-0.38256526 -0.4465762 0.26867265 0.23097411 -0.032346983 -0.27952752 0.15607686 0.50078446
00000000: e97b 573f 13b3 73bf 2929 1a3f 3ebe 99be
00000010: 4b2b a9bf 7717 1c3f 6f6f 913f d274 bbbe
00000020: fdce cebe db0c 06be b7e7 033e 2692 153f
00000030: eda5 a13f 4c7a e33e 2984 53bf f2a8 d6be
00000040: d39a 7fbe 45af 48be cd6e 5bbf f311 3bbe
00000050: 0f86 143f 9283 cfbe dbbd a5be 0820 f73e
00000060: 956b 0b3f 4ec4 6d3f 96e4 0fbe 72f6 133e
00000070: 1565 453f 76e3 83be be94 24bf 1761 acbc
00000080: 5e16 4ebf 7914 60bc 5643 57be 8a21 fb3d
00000090: b2d7 1cbf 9ef9 90be 6d69 5b3f 2a8d a5bf
000000a0: 4de5 39be bdb2 36bf 9e3a 2dbd 35da 3b3f
000000b0: 724b 2bbf 627c 5abd abe5 74be bfa3 62bf
000000c0: 9bc1 a2bc 7cf6 e43d c393 49bf f8c6 123e
000000d0: f8f5 8cbe 0d26 ed3e 8054 87be 6064 1a3e
000000e0: c92d 77bd 15a5 223e 0598 98bf 4dbb 2a3f
000000f0: 8891 5d3f a8cc 6b3f 1c98 713e 4d69 38be
00000100: b615 17bf fa73 fabe 61c9 da3e 8136 1ebf
00000110: 790e 80bd 599d c33e ce0b 67bf f40a e7bd
00000120: 96d2 423f 2272 3e3f 2d9f 86bf 3783 de3e
00000130: 1d75 07bf 794d 3c3e cfbe fb3e eca0 09bf
00000140: 3112 863e b2ca 783e b2f3 5b3e 3058 153f
00000150: dd72 3abe f57d a33d 8ef8 f5be 0a26 c9be
00000160: ef71 dabe 533f 073e dfa3 eabe 0f2b 573e
00000170: 2f08 79bd bd45 28be 678f a8be cc6f 013f
00000180: b4fb b7bd 08f3 b1bf fc15 533e a63e d3be
00000190: ce39 503d 4198 21bf c961 3c3f e9eb 8e3f
000001a0: ed15 743e 9e1c aebe d35a b63e 4fbf 8f3e
000001b0: f642 4a3f db29 2cbe d410 0cbe 6d02 df3d
000001c0: 09da bd3e 0900 303f b2b3 613e 8408 85bc
000001d0: 9927 afbe 194b 093e 870f b73e 6c1a 5bbf
000001e0: 3aa4 303f 03f2 bdbe 8382 073f 225a d23e
000001f0: 0424 7cbe 5a7e 833e 22a5 8d3e ab5d d3be
00000200: 75bd 0fbf b912 d4be 3682 b63f 15a4 cbbe
00000210: 8620 343f eeb4 aa3e d3f7 02be 64aa afbd
00000220: 634a f23d a93a 903d 2917 1dbd 6342 abbe
00000230: ea9e 6e3e e5fa a83e 5713 e43e 0ad7 7ebd
00000240: f8f2 ff3e 5ba3 d8be b5da 67bf f41d 6fbe
00000250: e0c0 533e fb0b 44be 823b 64bd 4f50 49bf
00000260: 411a 05bf 51fa 443e 6005 21bf 6626 803f
00000270: d626 19bf d539 263f 870c 33bf ab2e eabe
00000280: c638 413e 0274 ecbd 551b 4abf 204f 463e
00000290: e606 3fbe 8f99 8c3f 1255 6abe 62e4 acbe
000002a0: 2a3b c6bc ae8a c43e 4740 433e 0f59 623e
000002b0: 669f 3a3e e6de a3bc 3b2e bc3e 9df2 7f3e
000002c0: 3b10 4bbf b02e eebd ca8c 3d3e 691f 7e3f
000002d0: 81c9 173f 6557 053c 37a7 22bd 9451 9e3e
000002e0: f59f ddbe 8fb4 2cbe f300 963f 2fad efbe
000002f0: 2031 31bf e797 863d e130 be3e c59f d8be
00000300: 48f7 f43e 31fc c8be 522e 903e d480 21bf
00000310: ba44 e93e 8152 93bd e5b4 5f3d 4805 973e
00000320: f5f4 56be 5f33 3dbf c402 143f b5b4 12bf
00000330: d507 c53e b9ac a3be af08 4bbf d5ea 003e
00000340: 3284 86bf 73ff cbbe bb2e 17bf 68b3 07be
00000350: a851 403f 27da 4e3c e6e1 adbe f8ef 6ebf
00000360: 9bfd f43d b70c 43be 2f45 1abf f07d 6b3d
00000370: fe57 4c3a 76e3 033f fbe2 11be ef45 ddbe
00000380: a3ae 2b3f 547c 683f de8f ea3e 439d a5be
00000390: 7c33 a93e 5e4f 7abe 48fd 0dbf 64f2 e13e
000003a0: 1804 3abe 820e 52be 2b63 4d3b 8b2f 37be
000003b0: 9642 94be c035 97be 90d6 47bf 91c9 213d
000003c0: 0327 a9bd 56d0 6ebf 9e60 e4be 799d 503e
000003d0: 37cc bc3d 4537 363f 8fa3 f2be 59e7 8d3e
000003e0: 98df c3be a3a5 e4be 768f 893e 7a84 6c3e
000003f0: 457e 04bd 3b1e 8fbe 9dd2 1f3e 6933 003f

feature.bias_ih_l0 f4 [512]
-0.14593068 -0.46941686 0.25546622 -0.027448865 0.2917277 0.8747139 -0.066221505 1.0885388
0.13279818 0.033091433 0.54039544 -0.12622888 -0.20140594 -0.21014209 -0.2552069 -0.75712144
0.55899715 -0.09405605 0.3434865 -0.04669642 -0.3138313 -0.2992133 -0.5097567 0.15377153
-0.4047292 1.0278655 -0.2419988 -0.03522772 0.22661822 -0.33320984 -0.09592944 -0.18084238
0.2560759 -0.19659643 0.28447044 0.071090765 -0.06713882 0.119342536 0.5670469 0.10300072
-0.18888895 0.9896465 -0.023818012 -0.17361447 -0.08709463 0.004712293 0.55387384 0.13329218
0.21301942 0.1934971 -0.11562335 0.612185 -0.19433598 0.096722245 -0.14493722 -0.31650156
0.13962252 0.018112041 0.15363766 0.38753146 -0.18143658 0.79205394 -0.09622524 0.0021447912
0.79816806 0.016421929 0.14266402 -0.33936343 0.013850439 0.57857937 -0.2044219 0.08121311
-0.038027823 0.32968998 -0.5493912 0.28901157 0.2492924 0.3617844 0.51865727 -0.2134351
1.4224997 -0.26888934 0.71806675 0.025936417 -0.07350246 0.47195128 0.044432856 0.37863705
-0.38261855 0.54375213 0.6481958 -0.09028808 0.053067226 -0.37789214 0.10083471 -0.53424406
0.46436056 0.54282403 0.36636975 0.4617271 -0.4227017 0.40637323 -0.0012099777 0.10878423
0.8352613 0.98615307 0.08064601 0.22583161 -0.41762644 0.015121696 0.66378564 0.027729036
0.3383928 0.48735842 0.56855285 -0.56792843 0.0580453 0.41552886 -0.05790514 0.6164979
0.13388109 -0.21577232 0.079594314 0.19615762 0.21060231 -0.118307345 0.43505916 -0.17126034
-0.34025824 -0.010192551 -0.28011933 -0.00036464428 -0.61238885 0.21397771 -0.087371804 0.7032509
-0.8223994 -0.4913388 -0.5302881 -0.19730367 0.08619291 -0.18985443 -0.57452947 0.27096778
-0.17426774 -0.20401675 -0.84505546 -0.24870785 -0.38928816 -0.04084393 0.06521613 -0.029626187
-0.15920468 -0.3159097 -0.082560845 -0.28528973 -0.14165957 -0.20259683 -0.2412506 0.044695023
-0.5382503 -0.07285376 -0.7693551 -0.17957468 -0.53481656 0.1307895 -0.24521437 -0.054564
-0.17930916 0.24575755 -0.11440508 0.027553856 0.26051366 0.032001674 -0.35283267 -0.009636955
-0.020759769 -0.08980527 -0.25769034 -0.6166809 0.037280712 -0.33257034 -0.004370892 -0.028022971
-0.2957562 0.42117992 -0.29541972 0.26079357 -0.037305653 -0.15748794 -0.33172774 -0.008140553
0.11747849 -0.37592882 0.12698732 -0.23473817 -0.2139574 -0.009062426 -0.34476143 -0.17529884
-0.058988433 -0.7041302 0.22718142 -0.25305104 -0.4594392 -0.5671874 -0.3617643 -0.28151777
-0.5357777 -0.214727 -0.38531452 -0.12582637 -0.03893192 -0.74649185 0.03715778 0.20595773
-0.29836202 0.05655382 -0.47603473 -0.16285719 0.7709803 -0.4450269 -0.35891283 -0.2920521
-0.19388765 -0.18902218 -0.09058613 -0.52149075 -0.13334535 -0.560363 0.4837521 -0.18180378
-0.21954563 -0.6799261 -0.3073358 -0.07830342 0.1934767 -0.109746106 -1.08155 -0.6583729
0.15556242 -0.5884654 -0.2881964 0.14421183 -0.03923203 0.53733927 -0.014834043 -0.4955577
0.04031255 -0.0704367 0.5417285 -0.7168182 -0.22554708 -0.095490515 -0.227373 -0.22295427
00000000: da6e 15be 6857 f0be 78cc 823e 71dc e0bc
00000010: 555d 953e 40ed 5f3f 249f 87bd 3d55 8b3f
00000020: 3ffc 073e e28a 073d 5b57 0a3f 2542 01be
00000030: 5c3d 4ebe 7d2f 57be 7baa 82be b6d2 41bf
00000040: 701a 0f3f 75a0 c0bd 76dd af3e bf44 3fbd
00000050: 7fae a0be 7c32 99be 6a7f 02bf 4976 1d3e
00000060: aa38 cfbe 1991 833f 89ce 77be f14a 10bd
00000070: 9b0e 683e 7b9a aabe a776 c4bd bf2e 39be
00000080: 611c 833e 9350 49be 1ca6 913e 0998 913d
00000090: 1480 89bd dc69 f43d fc29 113f 0bf2 d23d
000000a0: 1b6c 41be 7959 7d3f fe1d c3bc fec7 31be
000000b0: ab5e b2bd 9469 9a3b adca 0d3f bf7d 083e
000000c0: c321 5a3e 1b24 463e efcb ecbd 28b8 1c3f
000000d0: 0300 47be 5016 c63d 6c6a 14be 7e0c a2be
000000e0: 35f9 0e3e b45f 943c 3153 1d3e 866a c63e
000000f0: 83ca 39be 0cc4 4a3f bd11 c5bd a08f 0c3b
00000100: be54 4c3f 4887 863c 8416 123e 0bc1 adbe
00000110: f4ec 623c c71d 143f f953 51be 0f53 a63d
00000120: 10c3 1bbd 20cd a83e e7a4 0cbf 53f9 933e
00000130: 8246 7f3e ce3b b93e b9c6 043f bb8e 5abe
00000140: 7814 b63f ddab 89be 39d3 373f 9c78 d43c
00000150: 7588 96bd 99a3 f13e 3aff 353d b7dc c13e
00000160: 94e6 c3be 5733 0b3f 29f0 253f f5e8 b8bd
00000170: 055d 593d 147b c1be 6e82 ce3d 38c4 08bf
00000180: abc0 ed3e 84f6 0a3f d194 bb3e 7f67 ec3e
00000190: 5b6c d8be 2710 d03e 1d98 9eba 44ca de3d
000001a0: afd3 553f 8774 7c3f bc29 a53d 6740 673e
000001b0: 22d3 d5be fdc0 773c dbed 293f 0128 e33c
000001c0: d241 ad3e 0b87 f93e ae8c 113f c263 11bf
000001d0: e9c0 6d3d 33c0 d43e f12d 6dbd ced2 1d3f
000001e0: 2018 093e 6bf3 5cbe 5802 a33d 8bdd 483e
000001f0: 22a8 573e 1f4b f2bd 13c0 de3e df5e 2fbe
00000200: 5436 aebe a8fe 26bc cd6b 8fbe ba2d bfb9
00000210: 84c5 1cbf f91c 5b3e fdef b2bd 4008 343f
00000220: c488 52bf c290 fbbe f6c0 07bf f909 4abe
00000230: e985 b03d 3369 42be 5d14 13bf 4abc 8a3e
00000240: 3e73 32be c4e9 50be 8e55 58bf 45ad 7ebe
00000250: c750 c7be f74b 27bd 0990 853d 9eb2 f2bc
00000260: 8d06 23be ebbe a1be a915 a9bd 7f11 92be
00000270: 350f 11be 8b75 4fbe 660a 77be 2112 373d
00000280: c6ca 09bf 5a34 95bd 75f4 44bf 6de2 37be
00000290: bde9 08bf afed 053e 7a19 7bbe 807e 5fbd
000002a0: d29c 37be dea7 7b3e 364d eabd a0b8 e13c
000002b0: 0c62 853e 3014 033d 7ca6 b4be 52e4 1dbc
000002c0: 6410 aabc d3eb b7bd fdef 83be cdde 1dbf
000002d0: a9b3 183d a946 aabe b339 8fbb 6e90 e5bc
000002e0: 5b6d 97be e5a4 d73e 4141 97be bc86 853e
000002f0: d0cd 18bd 8544 21be 38d8 a9be f45f 05bc
00000300: 9098 f03d be79 c0be f708 023e 345f 70be
00000310: a617 5bbe 927a 14bc 9284 b0be 8a81 33be
00000320: db9d 71bd e041 34bf 3fa2 683e e88f 81be
00000330: 9d3b ebbe 3233 11bf 2c39 b9be 1923 90be
00000340: ba28 09bf 65e1 5bbe f247 c5be a1d8 00be
00000350: 1477 1fbd 171a 3fbf c232 183d 95e6 523e
00000360: e8c2 98be faa4 673d d3ba f3be 09c4 26be
00000370: f75e 453f 91da e3be 6cc3 b7be da87 95be
00000380: 7c8a 46be 088f 41be 3985 b9bd 6b80 05bf
00000390: af8b 08be f373 0fbf 5bae f73e c52a 3abe
000003a0: 92d0 60be a30f 2ebf 1e5b 9dbe 8b5d a0bd
000003b0: c21e 463e 91c2 e0bd 3b70 8abf 208b 28bf
000003c0: c14b 1f3e aba5 16bf 7b8e 93be 44ac 133e
000003d0: c4b1 20bd 118f 093f 7c0a 73bc bdb9 fdbe
000003e0: c61e 253d 1e41 90bd b8ae 0a3f 6681 37bf
000003f0: d0f5 66be 8890 c3bd 78d4 68be 204e 64be

feature.bias_hh_l0 f4 [512]
-0.095872946 -0.4373197 0.19598927 0.005148769 0.18637238 1.0017564 -0.13757302 1.1547745
0.121425115 0.21756317 0.48569334 -0.13356534 -0.2890232 -0.2925511 -0.013859306 -0.6525583
0.5001374 0.06081992 0.3138176 -0.06559529 -0.2760979 -0.25155747 -0.53700167 0.28569573
-0.42210442 1.0958995 -0.18265133 -0.06668231 0.09002813 -0.22001214 -0.038123176 -0.11683216
0.27904722 -0.1524599 0.4065 -0.063640185 -0.0992632 0.16974452 0.5048967 0.09616913
-0.22232725 0.95400804 0.060407534 -0.08259647 -0.14292501 -0.09722255 0.4864241 0.11363508
0.24960095 0.15307982 -0.23270401 0.7027165 -0.20613872 0.13046198 0.038488407 -0.24504405
0.18683867 0.00044276143 0.19798969 0.35358742 -0.11290755 0.7160397 -0.0424171 0.11733435
0.83004236 0.017151218 0.05682434 -0.23477775 0.023694666 0.67697805 -0.25324097 0.037310045
-0.122070946 0.31322703 -0.47286347 0.3667533 0.23439191 0.18569773 0.5604692 -0.124155074
1.2973291 -0.24518023 0.72561806 0.025493115 -0.017919328 0.35700485 0.17505018 0.2748496
-0.42470223 0.5664815 0.5074078 -0.16241331 -0.093048155 -0.4140961 0.08183151 -0.50051886
0.42264637 0.5709542 0.44185147 0.3140874 -0.37103128 0.5170886 -0.011465426 0.09846055
0.83370143 0.92251366 0.19134809 0.20731068 -0.32019058 -0.1166292 0.5400311 0.08568003
0.4284574 0.30500168 0.5885493 -0.343016 0.10426197 0.4512028 -0.00028093616 0.51029956
0.07422966 -0.22423454 0.1261227 0.15622315 0.2319684 -0.10172962 0.40044445 -0.049980305
-0.35057488 0.000866869 -0.34173402 -0.03378475 -0.7277663 0.15517314 -0.21419811 0.9237534
-0.8773265 -0.5527688 -0.45716405 -0.19960175 0.19237429 -0.071091406 -0.62231994 0.163125
-0.336893 -0.3171345 -0.8331112 -0.30043882 -0.19626664 -0.11634203 -0.022371307 -0.09680937
-0.22643423 -0.49855372 0.0034726125 -0.21205781 -0.12879506 -0.23271196 -0.23295693 0.14824012
-0.5840231 -0.09682202 -0.58054996 -0.26116937 -0.52438575 0.2049732 -0.2916239 -0.07483071
-0.33170503 0.18671393 -0.14810722 -0.1088388 0.110970065 -0.024095437 -0.37932867 -0.008874072
0.19137639 -0.015367696 -0.23059428 -0.6262789 0.13073523 -0.36469665 -0.05955183 0.0897296
-0.43667158 0.44523847 -0.44047314 0.15080632 -0.026500702 -0.08299862 -0.34590164 -0.09523145
0.14201234 -0.29330552 0.08659559 -0.15554982 -0.25454637 0.12566943 -0.13878223 -0.15268756
-0.11295432 -0.71036434 0.18519215 -0.22946087 -0.3451539 -0.51866174 -0.24061552 -0.47447288
-0.53122 -0.23366308 -0.27938122 -0.09914929 0.032451354 -0.69052833 -0.029781828 0.09353579
-0.18595622 -0.04277097 -0.48417583 -0.104591176 0.761476 -0.32275528 -0.33347267 -0.49561784
-0.18288016 -0.33235484 -0.0903762 -0.5127729 -0.13093796 -0.5557323 0.46262127 -0.4249075
-0.26968428 -0.6734308 -0.24635182 -0.11123764 0.20223871 -0.14038755 -1.1019437 -0.59555733
0.049378093 -0.47971228 -0.14092965 0.10459591 -0.08776293 0.4282094 0.11350295 -0.58642894
0.093508825 -0.15958652 0.61091906 -0.66722846 -0.3994 -0.029186735 -0.23489127 -0.101024054
00000000: 0959 c4bd 5ee8 dfbe 69b1 483e 01b7 a83b
00000010: 67d8 3e3e 8e39 803f f1df 0cbe a7cf 933f
00000020: bbad f83d e1c8 5e3e ccac f83e 5ac5 08be
00000030: d9fa 93be 42c9 95be 2512 63bc 100e 27bf
00000040: 0109 003f 4f1e 793d b3ac a03e d356 86bd
00000050: b45c 8dbe 24cc 80be f178 09bf b646 923e
00000060: 121e d8be 6f46 8c3f f308 3bbe bc90 88bd
00000070: ab60 b83d dd4a 61be 0c27 1cbd b345 efbd
00000080: 47df 8e3e 731e 1cbe c520 d03e c955 82bd
00000090: 814a cbbd 82d1 2d3e e940 013f 52f4 c43d
000000a0: c1a9 63be df39 743f e46d 773d 5728 a9bd
000000b0: ef5a 12be 9e1c c7bd 940c f93e 82b9 e83d
000000c0: 6497 7f3e f5c0 1c3e f649 6ebe 3be5 333f
000000d0: 0716 53be d397 053e 05a6 1d3d d4ec 7abe
000000e0: a352 3f3e 6f22 e839 cfbd 4a3e 6909 b53e
000000f0: 133c e7bd 614e 373f 8ebd 2dbd fe4c f03d
00000100: a87d 543f b680 8c3c a4c0 683d 9469 70be
00000110: 511b c23c 6f4e 2d3f cda8 81be 6bd2 183d
00000120: 5500 fabd 4b5f a03e 291b f2be 17c7 bb3e
00000130: 6f04 703e 8c27 3e3e e97a 0f3f 0445 febd
00000140: e10e a63f 8710 7bbe 1bc2 393f f0d6 d03c
00000150: 8ecb 92bc 57c9 b63e 5b40 333e 16b9 8c3e
00000160: 9272 d9be ee04 113f 7ae5 013f ad4f 26be
00000170: 0890 bebd 6704 d4be 4797 a73d 0122 00bf
00000180: 1b65 d83e 0e2a 123f 5b3a e23e 10d0 a03e
00000190: d0f7 bdbe eb5f 043f 7bd9 3bbc afa5 c93d
000001a0: 756d 553f db29 6c3f c1f0 433e 4049 543e
000001b0: 05f0 a3be 4adb eebd 7a3f 0a3f 0379 af3d
000001c0: c55e db3e 2e29 9c3e 2bab 163f cb9f afbe
000001d0: 4d87 d53d 0e04 e73e 9d4a 93b9 fea2 023f
000001e0: b805 983d bd9d 65be 4f26 013e f6f8 1f3e
000001f0: 2089 6d3e 9e57 d0bd 0e07 cd3e 26b8 4cbd
00000200: 8d7e b3be 983e 633a c3f7 aebe e161 0abd
00000210: e44e 3abf b5e5 1e3e c056 5bbe 1a7b 6c3f
00000220: 7898 60bf 4282 0dbf 6811 eabe 6764 4cbe
00000230: c4fd 443e 5f98 91bd 5c50 1fbf 3d0a 273e
00000240: 3d7d acbe 745f a2be c746 55bf 1ed3 99be
00000250: 1ffa 48be bb44 eebd 0844 b7bc fe43 c6bd
00000260: 60de 67be 6f42 ffbe c594 633b af25 59be
00000270: dae2 03be 0b4c 6ebe 438c 6ebe 42cc 173e
00000280: 8a82 15bf a04a c6bd ec9e 14bf feb7 85be
00000290: 253e 06bf 7fe4 513e ba4f 95be d840 99bd
000002a0: 3ed5 a9be f031 3f3e 6ba9 17be e0e6 debd
000002b0: 4644 e33d cb63 c5bc 5e37 c2be 8e64 11bc
000002c0: 2cf8 433e cac8 7bbc e820 6cbe d053 20bf
000002d0: 75df 053e 85b9 babe 9fec 73bd 27c4 b73d
000002e0: 6b93 dfbe 4cf6 e33e b285 e1be f96c 1a3e
000002f0: 0018 d9bc 2efb a9bd 051a b1be b508 c3bd
00000300: af6b 113e 242c 96be 0759 b13d 7448 1fbe
00000310: e753 82be 7daf 003e ee1c 0ebe 215a 1cbe
00000320: 9854 e7bd 70da 35bf 03a3 3d3e caf7 6abe
00000330: 03b8 b0be 04c7 04bf ea63 76be 1cee f2be
00000340: 09fe 07bf 6045 6fbe 0e0b 8fbe c80e cbbd
00000350: b6eb 043d 77c6 30bf 05f9 f3bc b18f bf3d
00000360: 4f6b 3ebe 9d30 2fbd e5e5 f7be e633 d6bd
00000370: 17f0 423f 2e40 a5be eebc aabe 9fc1 fdbe
00000380: f044 3bbe 6a2a aabe 2817 b9bd 1645 03bf
00000390: 9a14 06be 7944 0ebf b2dc ec3e 7a8d d9be
000003a0: 0f14 8abe f665 2cbf a743 7cbe 8fd0 e3bd
000003b0: aa17 4f3e c1c1 0fbe 7e0c 8dbf 7276 18bf
000003c0: af40 4a3d d99c f5be dd4f 10be 6136 d63d
000003d0: 0dbd b3bd 433e db3e 3c74 e83d 3520 16bf
000003e0: 8e81 bf3d a66a 23be 3165 1c3f 7ccf 2abf
000003f0: 287e ccbe 0519 efbc 5687 70be b3e5 cebd

feature.weight_ih_l0_reverse f4 [512, 64]
-0.16919377 -0.94846356 1.1016885 -0.036766347 0.19034593 0.53593093 -0.7017223 -0.09164133
0.058037326 -1.3278413 -0.5374417 -0.056483228 0.56855214 0.60871744 0.1711025 -0.14804614
0.54665864 0.21022157 -1.3799142 -0.19120842 0.64044756 -0.86633193 -0.6410406 0.7003685
0.31248733 -1.2366138 1.2649367 0.147913 0.4329742 -0.2693981 -0.20277092 0.936846
-0.35494417 0.36433086 0.060442664 -0.047955696 0.86849654 0.91319454 0.29570413 0.41819888
-0.12496977 -0.1010742 0.028772477 -0.49277312 -0.49132338 0.11376639 0.543371 -0.47113353
-0.21504648 -0.14170429 0.071004994 -0.8369397 0.9381958 -1.0274704 -0.34466413 1.1982325
-0.7959621 0.83664405 0.015234667 0.66157067 0.019077485 0.73313737 -0.017683245 -0.18736847
-0.6325019 0.3934008 0.48356926 -0.81089264 -1.274254 0.005317183 0.90159345 -1.9044163
0.18189697 -0.32331908 -0.32748795 -0.08383293 0.37111443 0.13632849 -0.21112403 0.3877278
0.8540246 -0.47736037 0.28219143 -0.11234222 0.871232 0.58319116 -0.68543845 -0.08462527
1.7911297 0.51074624 -0.39467293 0.4143467 0.28099126 0.23551399 -1.0782202 0.2147836
0.10555842 0.0205423 0.9729058 0.9157389 0.7659591 0.63422453 0.15971701 1.1505708
0.31505135 -0.7255998 0.12938178 0.5257535 -0.35556033 -0.5792803 -0.1623218 -0.01357165
0.20588325 0.14950088 -0.4956202 -0.3748342 0.99381334 -0.9581887 -0.19984342 0.8393006
-0.71953344 -0.2506197 0.22013536 0.060827576 0.3545195 -1.1108863 -0.9160225 -1.3230748
-0.024086282 -0.057919785 0.6502204 -0.7236158 0.59351605 -0.43536592 1.5039396 0.33252823
-0.782644 -0.21306139 -0.075907886 0.123287216 -0.09174252 1.04951 -0.71796525 -0.27004227
-0.39273557 0.17775819 -0.052021958 0.54997724 0.5380285 0.35108665 -0.7837428 0.26825398
0.34928757 -0.008845402 -0.35697392 0.45216754 0.99545264 -0.33683622 0.09462294 1.2820492
0.36467537 -0.15568769 0.79272956 -0.102060035 -0.70289457 -0.42773205 -0.22727343 0.80888987
-0.7965791 -0.1708541 1.1995716 0.36838588 0.49160868 0.09992613 0.15608335 -0.067240804
0.5965409 0.29707366 1.1688411 -0.22341968 0.12755379 -0.064783685 0.04062296 0.5852473
-0.16704911 1.212166 0.29843625 0.3120883 -1.0197664 0.25130007 0.23448972 -0.23877929
-0.84893024 -1.1192354 0.37594008 0.120439276 0.48782283 0.9725848 -1.069191 0.64032143
-0.7590946 0.38960135 0.9021776 0.08605004 0.40194926 0.29664317 0.05003657 -0.32791087
-0.553643 1.4282143 1.2578741 -0.5309617 -0.8171987 -0.072521634 -0.07398478 -0.36025006
0.14191143 0.5449768 -0.87511 0.66853327 -1.2340665 -0.57942224 1.1516844 -0.7159454
0.7119076 -0.1583356 -0.10151285 -0.52432483 -0.11014759 -0.85664016 0.988392 -1.4220691
-0.40152746 1.7471361 -0.08012481 0.041755084 0.8430269 -1.5552629 0.21272908 0.9501183
-0.8267639 -0.23677047 0.834028 0.4807279 -0.24522322 -0.42017275 -0.13908808 -0.9082734
0.9237986 -0.3862984 0.18098383 -0.050467987 -0.370566 0.81478155 -0.31473586 0.8573346
00000000: 2241 2dbe 82ce 72bf 2104 8d3f 4f98 16bd
00000010: 0bea 423e c532 093f 13a4 33bf 73ae bbbd
00000020: 8cb8 6d3d b4f6 a9bf c795 09bf f55a 67bd
00000030: a28c 113f e8d4 1b3f 7e35 2f3e 6899 17be
00000040: d2f1 0b3f 5344 573e 07a1 b0bf 24cc 43be
00000050: 5ff4 233f eec7 5dbf 3d1b 24bf 5a4b 333f
00000060: 57fe 9f3e 5c49 9ebf 72e9 a13f 8176 173e
00000070: cbae dd3e 8cee 89be 2ea3 4fbe 24d5 6f3f
00000080: 3ebb b5be 9389 ba3e ba92 773d 316d 44bd
00000090: ca55 5e3f 1ec7 693f 8866 973e 2a1e d63e
000000a0: 27f0 ffbd fdff cebd 42b4 eb3c c24c fcbe
000000b0: bd8e fbbe 5afe e83d 5d1a 0b3f 6a38 f1be
000000c0: 2535 5cbe ee1a 11be 116b 913d ae41 56bf
000000d0: 9a2d 703f 2684 83bf d177 b0be af5f 993f
000000e0: 2cc4 4bbf 4e2e 563f d39a 793c b25c 293f
000000f0: 6348 9c3c e4ae 3b3f 74dc 90bc 85dd 3fbe
00000100: a5eb 21bf d46b c93e 6496 f73e a996 4fbf
00000110: c11a a3bf c43b ae3b d4ce 663f eac3 f3bf
00000120: 3343 3a3e 148a a5be 80ac a7be 99b0 abbd
00000130: b602 be3e b299 0b3e e630 58be 4284 c63e
00000140: 5ba1 5a3f 9468 f4be 657b 903e ae13 e6bd
00000150: 0f09 5f3f 044c 153f e578 2fbf 0350 adbd
00000160: bd43 e53f 44c0 023f 9212 cabe 4025 d43e
00000170: 16de 8f3e 942a 713e 1f03 8abf 3bf0 5b3e
00000180: 032f d83d 5348 a83c 5b10 793f dd6d 6a3f
00000190: e515 443f 8a5c 223f db8c 233e e745 933f
000001a0: 694e a13e e9c0 39bf a87c 043e c897 063f
000001b0: 010c b6be b74b 14bf b037 26be a05b 5ebc
000001c0: 0fd3 523e c216 193e eec1 fdbe 45ea bfbe
000001d0: 8d6a 7e3f db4b 75bf c1a3 4cbe 67dc 563f
000001e0: 5833 38bf 3a51 80be 2a6b 613e 5626 793d
000001f0: 9483 b53e 8631 8ebf 7380 6abf 845a a9bf
00000200: 9850 c5bc 4c3d 6dbd d874 263f e33e 39bf
00000210: abf0 173f 48e8 debe 1881 c03f 2441 aa3e
00000220: 5b5b 48bf c42c 5abe 9875 9bbd 027e fc3d
00000230: 81e3 bbbd 5856 863f 92cc 37bf fb42 8abe
00000240: a314 c9be 3e06 363e fa14 55bd 4fcb 0c3f
00000250: 3cbc 093f a1c1 b33e 5ea3 48bf 9658 893e
00000260: d2d5 b23e 4eec 10bc 49c5 b6be 8182 e73e
00000270: fcd5 7e3f cc75 acbe acc9 c13d 301a a43f
00000280: bbb6 ba3e 986c 1fbe 53f0 4a3f da04 d1bd
00000290: e6f0 33bf b2ff dabe 5eba 68be 6813 4f3f
000002a0: 9cec 4bbf 61f4 2ebe 908b 993f 139d bc3e
000002b0: 22b4 fb3e 12a6 cc3d 50d4 1f3e 8cb5 89bd
000002c0: e8b6 183f 0a1a 983e 969c 953f 21c8 64be
000002d0: 769d 023e 4fad 84bd 4364 263d c4d2 153f
000002e0: ec0e 2bbe 4128 9b3f a3cc 983e 0aca 9f3e
000002f0: b587 82bf 67aa 803e 131e 703e 8f82 74be
00000300: 7e53 59bf 1b43 8fbf 387b c03e dea8 f63d
00000310: eac3 f93e 51fb 783f 40db 88bf 1bec 233f
00000320: 0654 42bf d479 c73e 1cf5 663f 013b b03d
00000330: 4bcc cd3e 9de1 973e 25f3 4c3d efe3 a7be
00000340: 8cbb 0dbf bacf b63f 0502 a13f 1bed 07bf
00000350: ef33 51bf 3986 94bd 5585 97bd b272 b8be
00000360: 3b51 113e 9983 0b3f 3507 60bf ff24 2b3f
00000370: e4f5 9dbf 0455 14bf 656a 933f 3348 37bf
00000380: 943f 363f ba22 22be f8e5 cfbd 273a 06bf
00000390: 0f95 e1bd c54c 5bbf 4207 7d3f 5c06 b6bf
000003a0: 0295 cdbe 28a2 df3f 7a18 a4bd 6107 2b3d
000003b0: 9cd0 573f db12 c7bf a7d5 593e f43a 733f
000003c0: cda6 53bf f573 72be dc82 553f f821 f63e
000003d0: cc1b 7bbe e220 d7be 1b6d 0ebe 9b84 68bf
000003e0: 117e 6c3f e7c8 c5be d353 393e 85b7 4ebd
000003f0: d4ba bdbe 8695 503f 0f25 a1be 487a 5b3f

feature.weight_hh_l0_reverse f4 [512, 128]
0.24262223 0.5309349 -0.17120013 0.40082496 -1.1894314 -0.2895095 0.26763874 0.036549695
-0.15704729 -0.41350737 0.3453016 0.8224429 0.8108544 0.5806435 -0.1664043 -0.4180607
0.24559855 -0.58676785 0.94773984 1.0058417 -0.5692949 0.16379882 0.9810105 0.51243067
-0.38629234 0.64831674 0.5236929 -0.077120304 -0.13342811 -1.1294622 -0.04492083 -0.017499197
-0.921847 -0.06831857 0.04982325 0.36019883 -0.36859444 0.46460286 0.44160149 -0.024178565
0.4056331 0.17035902 -0.7986157 0.04472777 -0.025751282 -0.46565148 0.07591987 -0.58487946
0.70011157 -0.7874922 0.19906323 0.99782354 1.4176952 0.5711093 -0.036367916 0.031190667
-0.073959805 0.09334124 0.2541896 0.6188051 -0.23572944 -0.27543333 -0.27848732 0.32321477
0.82561684 0.2072435 -0.053258676 0.34508955 0.0796558 0.52117515 -0.3055717 0.63282657
-0.7538198 -0.31972736 0.16101606 0.05517809 0.5813402 0.75244534 -0.1867711 -0.38255212
0.6464483 0.30858293 0.79824066 0.178996 -0.30662704 0.69863427 0.9279468 0.5919072
-0.35869896 0.83416265 0.0796452 -0.11885888 -0.025146887 0.49130324 0.55102736 0.027639028
0.6989784 -0.29292643 0.24916822 -0.055161804 -0.018080711 1.1285319 -0.59474 0.8999462
-0.73340094 -0.36838374 -1.3002415 -0.569047 -0.71001923 1.4715261 0.491636 0.38018206
-0.053773433 0.046643335 0.19824475 -0.65550315 0.29264113 -0.32103306 0.50995135 -0.18675286
0.7185852 -0.0192615 -0.14311543 0.29063287 -0.36597604 0.35081726 -0.1827277 0.61908615
-0.25428608 0.5431765 0.042503834 -0.66817683 -0.22313555 -0.45184776 0.20467679 0.13703404
0.14520994 0.011266057 -0.29511723 -0.17219806 0.2417856 0.36505342 0.11295756 0.4450374
0.0840429 -0.3898907 -0.17580494 -0.12501414 -0.45531675 -0.26621914 -0.19133155 -0.07327506
0.22694044 -0.44584334 0.0614462 0.35357246 -0.14658877 0.4649658 -0.56018305 0.061502274
-0.29996222 -0.09657563 0.8936426 0.12435304 -0.7754456 -0.17082402 -0.16993608 -0.38568285
0.48485512 -0.266939 0.10468797 -0.21860144 -0.8815421 -0.4731643 -0.5141776 0.06848429
1.0949999 -0.3574943 0.81581235 0.08810172 -0.43819925 0.106553465 -0.15546718 -0.03333406
0.86175746 0.4373884 -1.5776551 -0.18543546 -1.3755896 0.5676163 0.2346094 0.5263357
0.046872236 -0.4312827 -0.57198197 -0.04841371 0.06491209 0.21098961 -0.7158656 0.42823693
-0.5810396 -0.35220942 -0.7929282 -0.12721914 0.8119303 0.561208 1.5898442 0.7410495
-0.19809125 0.23789947 0.19993739 0.18729854 -0.41824135 -0.2679385 0.5044823 -0.6180881
-0.038026605 -0.021040117 0.61012447 -0.010484765 0.5401001 0.2556377 1.017929 0.19687533
-0.073674664 -0.38900858 0.48007327 -0.52634364 0.32058156 -0.18412074 -0.56458503 -0.04049793
-0.002707969 -0.3542741 0.0023454304 -0.42236686 -0.16746932 -0.37324288 -0.13013172 -0.231821
-0.28077555 0.42998633 1.040775 0.4387874 0.0094622485 1.1155003 0.54645216 0.3284149
0.44097635 0.28791556 -0.1659777 -0.68253624 0.037106257 0.9823909 0.19630593 -0.40868154
00000000: f671 783e 59eb 073f 164f 2fbe ee38 cd3e
00000010: 4a3f 98bf 973a 94be f207 893e 22b5 153d
00000020: 01d1 20be 3db7 d3be 5fcb b03e 9e8b 523f
00000030: 2794 4f3f 0da5 143f e465 2abe 0d0c d6be
00000040: 307e 7b3e 6b36 16bf 149f 723f 6cbf 803f
00000050: 50bd 11bf e1ba 273e 8123 7b3f a82e 033f
00000060: 1cc8 c5be 16f8 253f bd10 063f 40f1 9dbd
00000070: 61a1 08be 3892 90bf e7fe 37bd 7a5a 8fbc
00000080: 2afe 6bbf 9bea 8bbd 7713 4c3d fb6b b83e
00000090: 69b8 bcbe 6de0 ed3e 9719 e23e 2012 c6bc
000000a0: 24af cf3e 9872 2e3e 1472 4cbf 7734 373d
000000b0: 5af4 d2bc df69 eebe e07b 9b3d a9ba 15bf
000000c0: 833a 333f 1799 49bf 3bd7 4b3e 5d71 7f3f
000000d0: 0977 b53f 3834 123f 86f6 14bd 9283 ff3c
000000e0: 3d78 97bd b129 bf3d 2425 823e 036a 1e3f
000000f0: 0f63 71be 9905 8dbe e495 8ebe 687c a53e
00000100: a05b 533f a437 543e c525 5abd 94af b03e
00000110: 9422 a33d bc6b 053f e573 9cbe ec00 223f
00000120: 56fa 40bf 4eb3 a3be 65e1 243e 6c02 623d
00000130: b6d2 143f 42a0 403f ec40 3fbe dfdd c3be
00000140: a37d 253f 95fe 9d3e 8059 4c3f ba4a 373e
00000150: 38fe 9cbe b2d9 323f ec8d 6d3f 3b87 173f
00000160: 64a7 b7be af8b 553f 061d a33d 496c f3bd
00000170: d800 cebc 198c fb3e 2110 0d3f 3e6b e23c
00000180: 40f0 323f 74fa 95be f425 7f3e 58f1 61bd
00000190: 001e 94bc bc73 903f e140 18bf e062 663f
000001a0: 2ac0 3bbf cb9c bcbe 506e a6bf 10ad 11bf
000001b0: d2c3 35bf f85a bc3f b7b7 fb3e 39a7 c23e
000001c0: 8841 5cbd 150d 3f3d ac00 4b3e 0ecf 27bf
000001d0: 0fd5 953e 725e a4be 2c8c 023f 243c 3fbe
000001e0: 33f5 373f 4bca 9dbc da8c 12be d5cd 943e
000001f0: 3661 bbbe 529e b33e f81c 3bbe 6e7c 1e3f
00000200: c931 82be 9d0d 0b3f 8018 2e3d a30d 2bbf
00000210: a57d 64be 9758 e7be cb96 513e a752 0c3e
00000220: eab1 143e 4595 383c 9b19 97be b054 30be
00000230: a596 773e 48e8 ba3e 4b56 e73d f1db e33e
00000240: af1e ac3d c19f c7be 3606 34be b503 00be
00000250: 471f e9be e04d 88be 6bec 43be 3c11 96bd
00000260: 1363 683e 9445 e4be 03af 7b3d 7307 b53e
00000270: 5e1b 16be ff0f ee3e 2868 0fbf cfe9 7b3d
00000280: a694 99be 72c9 c5bd c3c5 643f ceac fe3d
00000290: 9a83 46bf 7eec 2ebe b903 2ebe 3978 c5be
000002a0: ee3e f83e 3bac 88be a566 d63d 0ed9 5fbe
000002b0: beac 61bf 9742 f2be 25a1 03bf 7e41 8c3d
000002c0: f528 8c3f 7e09 b7be 14d9 503f ad6e b43d
000002d0: a75b e0be b438 da3d ca32 1fbe 4c89 08bd
000002e0: 239c 5c3f 5ff1 df3e 9af0 c9bf cbe2 3dbe
000002f0: 5213 b0bf 4d4f 113f 723d 703e f0bd 063f
00000300: 1afd 3f3d 16d1 dcbe 696d 12bf 744d 46bd
00000310: a1f0 843d a90d 583e f842 37bf df41 db3e
00000320: 03bf 14bf cb54 b4be 58fd 4abf bc45 02be
00000330: aada 4f3f 54ab 0f3f 0480 cb3f 6cb5 3d3f
00000340: 6fd8 4abe eb9b 733e 63bc 4c3e 30cb 3f3e
00000350: bb23 d6be 3c2f 89be c125 013f 063b 1ebf
00000360: c9c1 1bbd 535c acbc 1e31 1c3f 4bc8 2bbc
00000370: 0044 0a3f f2e2 823e 7f4b 823f b099 493e
00000380: bee2 96bd 222c c7be 2acc f53e 75be 06bf
00000390: 4423 a43e 268a 3cbe a588 10bf 28e1 25bd
000003a0: 2e78 31bb 6a63 b5be cbb5 193b 7840 d8be
000003b0: 147d 2bbe b119 bfbe 4041 05be 7c62 6dbe
000003c0: d0c1 8fbe 2b27 dc3e 1d38 853f bea8 e03e
000003d0: 8c07 1b3c b7c8 8e3f 4ae4 0b3f ff25 a83e
000003e0: a7c7 e13e ab69 933e 0ff6 29be b2ba 2ebf
000003f0: bbfc 173d f87d 7b3f 6c04 493e b53e d1be

feature.bias_ih_l0_reverse f4 [512]
0.16260883 0.35320026 0.19291835 -0.1431322 0.14000869 0.36882865 0.40504554 0.6133353
-0.34671172 0.042362187 -0.26430625 0.8222721 0.30461773 0.19242404 -0.0405712 -0.050716124
-0.009273388 0.42420876 0.4805868 -0.13456179 -0.14485283 0.050899725 -0.11658282 0.8760544
-0.34673333 -0.08081998 -0.055979222 -0.11015858 0.06436181 -0.33821425 -0.004554387 -0.4247162
-0.14676352 0.4458019 0.020395782 -0.029646616 -0.12793075 -0.38055027 -0.29499435 0.053035744
-0.14643697 0.41853 -0.06511079 -0.06013292 0.1970233 -0.6925561 -0.09121657 -0.077981904
0.10903968 0.1255705 0.36324206 0.0764943 -0.14501204 0.0023541087 0.015755672 0.14579147
-0.8253604 -0.12326092 -0.35494137 0.07444481 0.054519102 -0.076284856 0.73658025 0.077613086
1.2196339 0.49684423 -0.45598093 -0.027838714 0.47167084 0.3805736 0.15120395 -0.11834122
-0.048503347 0.39226907 0.481234 0.89562035 0.00683331 0.27360654 0.19060504 0.5980259
-0.010498106 -0.06763988 0.333568 0.15514147 0.30416888 0.37714446 -0.21701945 -0.08883699
-0.062123984 -0.12206716 0.23345678 0.2040314 -0.44554794 -0.19315763 0.13185066 0.65826726
0.19854178 0.46467373 0.10349688 -0.070453055 -0.0937383 0.007762618 -0.19827107 0.4475798
0.28825304 -0.13379578 0.2147594 -0.3561072 0.18338537 -0.14080863 -0.17105006 -0.16395678
-0.25748828 -0.03528927 -0.070916206 0.42872036 0.06440183 0.8417892 -0.08888154 -0.27868393
0.8725493 -0.087903254 -0.4249169 -0.3568741 0.18952729 -0.10048155 -0.029676994 0.11257119
-0.26832598 -0.5290749 0.17492725 -0.037383214 0.20182091 -0.31922844 0.52948755 -0.34437728
-0.10887481 -0.13521037 0.49070954 -0.4728355 -0.3024801 -0.15468892 -0.1523945 -0.22571929
0.05257138 -0.6146469 -0.083702765 -0.07205374 0.06322928 -0.09449751 -0.013112491 -0.2311209
0.07848166 -0.08998285 0.00034186762 -0.2680011 0.21857682 -0.019003058 0.035181332 0.057953294
-0.23741184 -0.45287502 -0.07387443 -0.039050814 -0.07719163 -0.113358214 -0.3607902 -0.06556165
-0.117306 -0.045671426 -0.27852932 -0.0040893056 -0.14609267 -0.0023298222 0.07444713 0.066544056
0.30959097 -0.55352366 -0.031160431 0.030254489 -0.30818164 0.61468893 0.114455804 -0.4066154
0.2728641 0.07103792 0.17993659 -0.12708431 -0.16446893 -0.13349414 -0.4092958 -0.12473556
-0.71084356 -0.33969626 0.095854275 -0.085519545 -0.21657506 0.0031135248 0.84525293 -0.12753363
-0.24396291 -0.2243634 -0.5079755 -0.048556656 0.07762122 -0.14843544 0.014915287 -0.35973504
-0.097496346 0.14638785 -0.36396617 -0.19995598 -0.2798472 -0.16577137 -0.34197012 0.19342932
-0.19482338 0.39750984 -0.23708823 0.20275818 -0.35310996 0.051537316 -0.43925038 -0.49201688
-0.21294273 -0.095598415 0.09673194 -0.33560386 -0.14966783 -0.18526527 -0.23866291 0.31673762
-0.35701165 -0.4650505 0.38692155 0.20306405 0.23487853 0.40074387 0.35505083 0.26483127
-0.1437272 -0.071845494 -0.12627114 -0.25668994 -0.3417347 0.86329395 0.8836221 0.33053428
-0.4074248 0.17182943 0.07819545 -0.08421304 -0.35020673 -0.7812343 -0.70810103 -0.120320916
00000000: ee82 263e aad6 b43e 638c 453e 3f91 12be
00000010: 705e 0f3e 1cd7 bc3e 2162 cf3e 8b03 1d3f
00000020: 3384 b1be f983 2d3d 2653 87be 6d80 523f
00000030: dbf6 9b3e cf0a 453e fd2d 26bd b6bb 4fbd
00000040: 69ef 17bc e431 d93e 790f f63e 91ca 09be
00000050: 4d54 14be 3b7c 503d f9c2 eebd 1a45 603f
00000060: 0887 b1be f284 a5bd 784a 65bd d29a e1bd
00000070: 20d0 833d 6b2a adbe f83c 95bb 6774 d9be
00000080: 2d49 16be 2640 e43e 0e15 a73c 76dd f2bc
00000090: 4700 03be 7cd7 c2be 8009 97be 023c 593d
000000a0: 93f3 15be 9049 d63e ce58 85bd f04d 76bd
000000b0: 7ac0 493e 5b4b 31bf c1cf babd fab4 9fbd
000000c0: 3250 df3d 8e95 003e ddfa b93e 0ba9 9c3d
000000d0: 097e 14be 6447 1a3b 0a12 813c 5c4a 153e
000000e0: d24a 53bf 3970 fcbd e0ba b5be 8576 983d
000000f0: 6c4f 5f3d 3c3b 9cbd 8690 3c3f 9cf3 9e3d
00000100: f71c 9c3f 5e62 fe3e 5576 e9be 040e e4bc
00000110: d77e f13e 8bda c23e 35d5 1a3e e25c f2bd
00000120: 72ab 46bd 7ed7 c83e 4e64 f63e 6047 653f
00000130: f5e9 df3b 2816 8c3e f82d 433e 3a18 193f
00000140: 3f00 2cbc c786 8abd 6dc9 aa3e 68dd 1e3e
00000150: 06bc 9b3e 1419 c13e 593a 5ebe 2bf0 b5bd
00000160: b875 7ebd 59fe f9bd 4b0f 6f3e 9bed 503e
00000170: dc1e e4be 1dcb 45be dc03 073e 3484 283f
00000180: 894e 4b3e b7e9 ed3e 2cf6 d33d b149 90bd
00000190: def9 bfbd 8f5d fe3b 9207 4bbe 2e29 e53e
000001a0: e795 933e c301 09be e3e9 5b3e af53 b6be
000001b0: 60c9 3b3e 2330 10be bf27 2fbe 49e4 27be
000001c0: 81d5 83be 7b8b 10bd 843c 91bd 3c81 db3e
000001d0: 1be5 833d 7f7f 573f 8607 b6bd a9af 8ebe
000001e0: 645f 5f3f 9f06 b4bd b58e d9be 34b8 b6be
000001f0: 7113 423e 45c9 cdbd 2b1d f3bc b98b e63d
00000200: 0662 89be 7471 07bf 2120 333e 241f 19bd
00000210: 24aa 4e3e e971 a3be 7f8c 073f 3852 b0be
00000220: c2f9 debd 9674 0abe 483e fb3e 7f17 f2be
00000230: acde 9abe c666 1ebe 4e0d 1cbe f522 67be
00000240: 1655 573d 8059 1dbf 5b6c abbd e990 93bd
00000250: 5a7e 813d e987 c1bd c6d5 56bc f5aa 6cbe
00000260: feba a03d ee48 b8bd b23c b339 7137 89be
00000270: 9ad2 5f3e 4dac 9bbc 4d1a 103d 6f60 6d3d
00000280: 171c 73be 3cdf e7be 7a4b 97bd bff3 1fbd
00000290: a516 9ebd 5a28 e8bd 7eb9 b8be 3045 86bd
000002a0: 213e f0bd f611 3bbd 659b 8ebe 95ff 85bb
000002b0: 5199 15be eeaf 18bb bd77 983d 4048 883d
000002c0: b582 9e3e bab3 0dbf 2944 ffbc 43d8 f73c
000002d0: fcc9 9dbe 415c 1d3f ce67 ea3d e52f d0be
000002e0: d8b4 8b3e 547c 913d 4c41 383e 6422 02be
000002f0: 8b6a 28be b0b2 08be 388f d1be 5b75 ffbd
00000300: d8f9 35bf abec adbe 3f4f c43d df24 afbd
00000310: dac5 5dbe 470c 4c3b 7f62 583f 2d98 02be
00000320: 6ad1 79be 85bf 65be af0a 02bf 58e3 46bd
00000330: e0f7 9e3d 76ff 17be 3f5f 743c 312f b8be
00000340: 2aac c7bd b2e6 153e c659 babe 43c1 4cbe
00000350: 2248 8fbe f8bf 29be b516 afbe 5612 463e
00000360: c87f 47be 6986 cb3e 42c7 72be d79f 4f3e
00000370: d4ca b4be cb18 533d 6de5 e0be a3e9 fbbe
00000380: a90d 5abe 1ac9 c3bd 651b c63d 45d4 abbe
00000390: 8642 19be 2eb6 3dbe 0d64 74be 6f2b a23e
000003a0: 3bca b6be 191b eebe 951a c63e 06f0 4f3e
000003b0: ff83 703e 4d2e cd3e 39c9 b53e f797 873e
000003c0: 392d 13be bb23 93bd 394d 01be dd6c 83be
000003d0: daf7 aebe d500 5d3f 0f35 623f ca3b a93e
000003e0: fc99 d0be 0ef4 2f3e f024 a03d e377 acbd
000003f0: 4c4e b3be f9fe 47bf 1c46 35bf d06a f6bd

feature.bias_hh_l0_reverse f4 [512]
0.11967416 0.44284195 0.2054826 -0.11601169 0.06265379 0.47230595 0.49512407 0.66116005
-0.37815425 0.015477318 -0.44051626 0.8823639 0.17462417 0.22043955 -0.12315548 0.027520165
0.0021127053 0.3820428 0.4687211 -0.2522438 -0.1253087 -0.0077249864 -0.026890203 0.84336
-0.17312512 -0.17154393 -0.04625793 -0.089234605 0.00017840657 -0.2963839 0.020186212 -0.37711376
-0.19681099 0.37839344 -0.0042187967 0.0014481558 -0.13973652 -0.3112491 -0.35371253 -0.03632543
-0.007108429 0.27937862 -0.08727538 -0.035759997 0.24687083 -0.687398 -0.08986843 -0.0075992798
0.1550556 0.11409919 0.26962322 0.060468625 -0.19178577 -0.07533943 0.050371945 0.31622243
-0.6780715 -0.12167862 -0.36120316 0.13376322 0.101179615 -0.045213107 0.6448863 -0.0048365025
1.1738106 0.48256543 -0.39982975 0.013883208 0.40687057 0.3956845 0.07271689 -0.27804443
-0.022952395 0.498876 0.3894061 0.9298367 0.037873723 0.093037315 0.116082154 0.6161625
0.058751006 -0.0736743 0.33750677 0.1875802 0.34831697 0.49681017 -0.26380992 -0.006407623
-0.13451967 -0.272051 0.13015305 0.16017783 -0.45013684 -0.2712322 0.07373347 0.42483747
0.28734758 0.51538867 0.19145729 -0.17130104 -0.058016997 -0.031492468 -0.12767607 0.44124806
0.28288206 -0.100092664 0.10934237 -0.4109544 0.20951873 0.09309186 -0.18255739 -0.15643264
-0.34597287 0.0878655 0.045236897 0.41918817 -0.008948405 0.88987076 -0.13001312 -0.22183855
0.7974501 -0.0054639955 -0.37493175 -0.2526687 0.11733588 -0.10719188 0.065683156 0.020966826
-0.27488944 -0.52117425 0.19529393 -0.009281962 0.23222987 -0.40933865 0.49317318 -0.31433487
-0.12768684 -0.09961105 0.5254682 -0.30460006 -0.26673654 -0.37193328 -0.15373686 -0.28411055
-0.011371413 -0.683611 -0.0770733 -0.09633198 0.089209564 -0.24661626 0.061751217 -0.19218506
0.03747483 0.06577201 0.02622985 -0.2599692 0.06956627 -0.065431535 0.08154311 0.026558727
-0.3521243 -0.370978 0.047983788 -0.19918475 0.044723146 -0.17578517 -0.30619746 -0.06393491
-0.18737425 -0.04874399 -0.28864637 0.034008242 -0.2129125 -0.09965525 0.14402808 0.066842616
0.30136302 -0.55016005 -0.18828426 0.19860004 -0.3479032 0.564989 0.039300166 -0.42718208
0.31083527 0.114507794 0.069700785 0.016487999 -0.041668102 -0.057026286 -0.41276103 -0.14066951
-0.6427603 -0.34758884 0.18954839 -0.196084 -0.09395817 0.014601555 0.77794856 -0.06797826
-0.22283444 -0.22953269 -0.52762234 -0.18305217 -0.04105331 -0.08273393 -0.0059624836 -0.3810942
0.09157588 0.036442634 -0.27962735 -0.22804525 -0.2708102 -0.13114661 -0.25154153 0.057737924
-0.19904548 0.39452294 -0.18826455 0.29480976 -0.3373869 -0.04438107 -0.47772425 -0.5804694
-0.08565716 -0.14700927 0.06361166 -0.31117895 -0.049278084 -0.24438252 -0.18729047 0.24261795
-0.14559811 -0.53057057 0.44933257 0.19192135 0.1427991 0.5101235 0.3813617 0.31981912
-0.18978406 -0.16363956 -0.02855655 -0.2454048 -0.3718345 0.89392674 0.8272721 0.19360052
-0.4506644 0.083873816 -0.0465208 0.0012253029 -0.31765565 -0.8701817 -0.60553503 -0.1518388
00000000: ba17 f53d 2ebc e23e 086a 523e 8997 edbd
00000010: a150 803d 16d2 f13e e780 fd3e c941 293f
00000020: 6f9d c1be 9494 7d3c 598b e1be 9ae2 613f
00000030: aed0 323e e8ba 613e f138 fcbd f871 e13c
00000040: 5075 0a3b 1d9b c33e 36fc ef3e 1926 81be
00000050: ed50 00be e221 fdbb d848 dcbc 71e6 573f
00000060: b647 31be 36a9 2fbe f578 3dbd a2c0 b6bd
00000070: a612 3b39 a1bf 97be 8e5d a53c 0e15 c1be
00000080: d288 49be c9bc c13e d53d 8abb 0cd0 bd3a
00000090: 1717 0fbe 0b5c 9fbe cf19 b5be f9c9 14bd
000000a0: d3ed e8bb b70a 8f3e 6fbd b2bd 1379 12bd
000000b0: b5cb 7c3e 51f9 2fbf f00c b8bd 6103 f9bb
000000c0: e5c6 1e3e d6ac e93d 0e0c 8a3e f3ad 773d
000000d0: 7d63 44be 8f4b 9abd d052 4e3d e8e7 a13e
000000e0: 1896 2dbf a432 f9bd 9fef b8be 3af9 083e
000000f0: 4237 cf3d 6131 39bd 4517 253f 867b 9ebb
00000100: 6d3f 963f d112 f73e 7cb6 ccbe 6576 633c
00000110: 5751 d03e 2997 ca3e 98ec 943d d75b 8ebe
00000120: a906 bcbc ad6c ff3e 3d60 c73e c709 6e3f
00000130: 7a21 1b3d 598a be3d 7bbc ed3d d3bc 1d3f
00000140: e5a4 703d 8de2 96bd b0cd ac3e 0615 403e
00000150: 9a56 b23e e75d fe3e 1812 87be 0af7 d1bb
00000160: 86bf 09be 454a 8bbe d746 053e a805 243e
00000170: 5678 e6be f2de 8abe 9301 973d 4c84 d93e
00000180: 391f 933e 83f0 033f 610d 443e 8a69 2fbe
00000190: 3ba3 6dbd 3ffe 00bd 84bd 02be 44eb e13e
000001a0: ebd5 903e 62fd ccbd e4ee df3d 9d68 d2be
000001b0: 148c 563e f2a6 be3d 53f0 3abe e12f 20be
000001c0: 5b23 b1be d4f2 b33d 534a 393d d59f d63e
000001d0: 559c 12bc 92ce 633f 2922 05be a529 63be
000001e0: b125 4c3f 510b b3bb 0ef7 bfbe cb5d 81be
000001f0: cb4d f03d 6b87 dbbd e484 863d 9fc2 ab3c
00000200: 4fbe 8cbe ad6b 05bf 22fb 473e 5f13 18bc
00000210: abcd 6d3e d694 d1be 3281 fc3e 80f0 a0be
00000220: 57c0 02be e100 ccbd 1585 063f 8af4 9bbe
00000230: b191 88be 0a6e bebe 326d 1dbe f076 91be
00000240: 2a4f 3abc 2101 2fbf 9bd8 9dbd b349 c5bd
00000250: 81b3 b63d f988 7cbe d8ee 7c3d 29cc 44be
00000260: 357f 193d 7ab3 863d fbdf d63c af1a 85be
00000270: c378 8e3d f800 86bd 1300 a73d b091 d93c
00000280: a349 b4be d4f0 bdbe a68a 443d 16f7 4bbe
00000290: 9e2f 373d 0701 34be eac5 9cbe 4ef0 82bd
000002a0: 09df 3fbe c7a7 47bd 75c9 93be 3a4c 0b3d
000002b0: bc05 5abe 0d18 ccbd 197c 133e c8e4 883d
000002c0: 414c 9a3e 4ad7 0cbf 97cd 40be cf5d 4b3e
000002d0: 5e20 b2be 1ea3 103f 36f9 203d 9cb7 dabe
000002e0: cd25 9f3e 1083 ea3d 49bf 8e3d d711 873c
000002f0: 2cac 2abd 6594 69bd 6a55 d3be ab0b 10be
00000300: f08b 24bf 2af7 b1be f918 423e 3eca 48be
00000310: 246d c0bd 5c3b 6f3c a327 473f 3038 8bbd
00000320: b62e 64be 9e0a 6bbe 4212 07bf 0772 3bbe
00000330: 8427 28bd 6870 a9bd f060 c3bb c71e c3be
00000340: 238c bb3d df44 153d 512b 8fbe b284 69be
00000350: a2a7 8abe 4c4b 06be 0dca 80be 9a7e 6c3d
00000360: 94d2 4bbe e9fe c93e 6cc8 40be 4ef1 963e
00000370: fabd acbe edc8 35bd 4698 f4be a599 14bf
00000380: 056d afbd 9989 16be d446 823d d952 9fbe
00000390: d1d7 49bd 693f 7abe 13c9 3fbe d770 783e
000003a0: ac17 15be 79d3 07bf eb0e e63e 0887 443e
000003b0: ed39 123e 7497 023f d741 c33e 55bf a33e
000003c0: c156 42be 2191 27be 6def e9bc 654b 7bbe
000003d0: 1761 bebe 62d8 643f 1bc8 533f 373f 463e
000003e0: 7cbd e6be 09c6 ab3d 988c 3ebd 589a a03a
000003f0: c3a3 a2be 3ac4 5ebf 5804 1bbf a17b 1bbe
