logs/classifier/79_contexts/fold_03/10-17-2022_11-54-25/model_params.pth (torch, 822087 bytes, 10 tensors)

feature.weight_ih_l0 f4 [512, 64]
000000 71 79 d4 3d d7 0e 7e 3e 68 2f 2a bd 80 e0 9d 3f
       0.103747256 0.24810348 -0.041549116 1.2334137
000010 8d 12 05 bf 01 44 80 3d f2 ae 3b be f1 82 c9 be
       -0.5198143 0.06262971 -0.18328455 -0.39357713
000020 5d e2 8b bd 1b c6 ac be 68 96 a5 be db ae ca be
       -0.06830285 -0.33744892 -0.32341313 -0.3958653
000030 70 ba fb bd c1 8d 28 bc 90 73 4f 3e 4a 42 23 3f
       -0.122914195 -0.010287703 0.20258927 0.63773024
000040 46 18 0c bf 70 c0 59 be 79 d9 f8 be a9 68 13 3f
       -0.5472454 -0.21264815 -0.48603418 0.57581574
000050 b2 85 fb be 27 53 9d bf e9 4d fa 3e c8 4e 4a 3f
       -0.4912544 -1.2291001 0.48887566 0.7902646
000060 e6 41 54 3f 50 de a4 3d 46 91 cb 3d 51 39 03 bf
       0.82913053 0.08050215 0.09939818 -0.5125933
000070 38 c6 6c be 59 0f 96 3e 9f b0 14 bf 10 41 07 3f
       -0.2312249 0.29308584 -0.58082 0.5283365
000080 58 e2 52 be e4 3d 15 3f d5 28 75 bf 16 ec 02 3e
       -0.20594156 0.5829756 -0.9576543 0.12785372
000090 73 d5 5c 3e e7 07 5e be 3b 7a 2d 3e 2f 2a 8d 3e
       0.215658 -0.21682702 0.16941158 0.27571246
0000a0 66 09 94 3d 96 75 88 3f a0 c2 27 bf 6b d0 50 be
       0.07228355 1.0660884 -0.6553135 -0.20392005
0000b0 3c 4f 1b 3f 7a 07 9a 3e a7 f1 1f 3f 76 97 f8 3e
       0.6066778 0.3008383 0.6247811 0.48553056
0000c0 a5 82 a3 be bd 86 39 bf 44 e7 d5 be e1 77 9a 3f
       -0.3193561 -0.7247122 -0.41778004 1.2067834
0000d0 22 9f 49 3d c4 a3 c9 bc ee b3 df be b3 8f 60 be
       0.049224027 -0.024614222 -0.43691963 -0.21929817
0000e0 27 a5 de 3e ea 35 e5 be 72 96 3b 3f 76 fc 88 bf
       0.43485376 -0.44767696 0.73276436 -1.0702045
0000f0 bf d2 55 be 7e 8c 72 3f 58 6c bc be 2e 18 c0 3e
       -0.20881175 0.94745624 -0.3680141 0.37518448
000100 bd ae 9a 3e a5 93 86 3e 0d 6e 64 bf 13 2a f8 be
       0.3021144 0.2628452 -0.89230424 -0.484696
000110 1a bb b0 3d 03 d2 98 bf fb aa 43 3f 56 7b 00 bf
       0.08629437 -1.193909 0.7643277 -0.50188196
000120 9e a2 86 bf 23 26 1a be 6e a6 a4 3f 56 be ca bb
       -1.0518377 -0.1505361 1.286329 -0.0061872406
000130 50 da 3f be 9f 3e 7a be f8 c2 ee bd ed 6d 86 be
       -0.18735623 -0.2443795 -0.11658281 -0.26255742
000140 c6 fa fc be 97 6a 63 bf f1 70 a2 bf 7b b3 35 bf
       -0.49410075 -0.8883452 -1.2690717 -0.7097699
000150 cb 94 29 3f c1 69 03 bf 97 65 bf be 7f f8 ce be
       0.66242665 -0.5133324 -0.37382194 -0.40423962
000160 7c 47 38 3e 31 45 1d be 47 01 28 3f d7 1e 24 bf
       0.17996019 -0.15358426 0.6562695 -0.6410956
000170 33 40 0f 3f 1d 37 29 3e ee 9f e1 3e 71 48 47 3e
       0.55957335 0.1652493 0.4406733 0.19461228
000180 39 f0 17 3f fd 8b 23 be 48 d0 a3 3e 9b ed 0d be
       0.59350926 -0.1597137 0.31994843 -0.1386017
000190 23 6e a2 3e 7a f1 f7 3e a6 81 52 3f cb d0 63 3f
       0.31724653 0.4842642 0.8222908 0.8899047
0001a0 f8 8e 09 3e 67 38 96 3f f7 a2 7a 3d 5c 8b 9d 3e
       0.13433444 1.1735963 0.06119057 0.30770385
0001b0 c9 ad 2a 3e d1 f1 44 bf 12 e3 65 3e 4a 8d df 3e
       0.16667856 -0.7693148 0.22449902 0.43662483
0001c0 c6 e9 99 bf f2 8c 63 bf 60 02 19 3e b7 75 f6 be
       -1.2024467 -0.8888694 0.14942312 -0.48136684
0001d0 7c 8c 47 3e 31 8e 30 3f 3e ba 86 be 8f 66 fd 3d
       0.19487184 0.68966967 -0.26313967 0.12373077
0001e0 b9 8a 8b 3e a1 a9 83 bf de 1b f5 3e b0 ca 64 be
       0.27254274 -1.0286142 0.47872823 -0.22342944
0001f0 2f cd e0 3e 16 94 56 3f e6 b4 98 bf 1e df 1c 3f
       0.43906543 0.8381971 -1.1930206 0.6127795
000200 bc 0e 45 bf 3e c2 d8 bd c8 32 03 be 8d 46 98 be
       -0.7697561 -0.10583924 -0.1281234 -0.29741326
000210 d1 be fb be a0 62 10 3d 05 6a 8c bf ba c1 cf be
       -0.4916902 0.035250306 -1.0969855 -0.4057749
000220 f1 2c ce 3e e3 52 86 be b8 41 83 3f e3 82 b0 be
       0.40268663 -0.26235113 1.0254431 -0.3447486
000230 5e cd 3a 3f 49 38 2b bf 4b 81 16 3c 7d 32 98 bf
       0.72969615 -0.6688276 0.009186099 -1.1890408
000240 b9 5a a2 bf ef c4 03 3e 05 ee c3 bd 56 ac b0 be
       -1.2683936 0.12868093 -0.09566883 -0.34506482
000250 ba be e1 bc 56 7e 8f bd 61 92 3c 3e 88 43 52 3f
       -0.027556766 -0.070065185 0.18415214 0.82134295
000260 16 e8 ba be 8b e4 91 be 20 42 0a bf c6 4b 07 bf
       -0.36505193 -0.28494677 -0.5400715 -0.52849996
000270 55 e1 71 be 9f 36 a9 3e 6b ed 1b bf 3b 77 69 bd
       -0.23621114 0.33049485 -0.60909146 -0.056998473
000280 28 d8 06 3f 88 e9 ce 3c 68 ae 7f be fc 3c 0a 3e
       0.5267358 0.02525784 -0.24968874 0.13499826
000290 85 cb 45 3a 59 ce 36 3e 27 c5 b8 be 10 64 68 3f
       0.00075452804 0.17852153 -0.36087915 0.90777683
0002a0 d9 76 4b be f4 c3 25 be 2b cd 89 bf f5 8b 15 bf
       -0.19869556 -0.16188031 -1.0765737 -0.5841668
0002b0 68 4d 01 3f b7 89 8e bf 03 2f 3b 3d 41 25 08 bf
       0.5050874 -1.1135777 0.04569913 -0.53181845
0002c0 89 d7 6a be 00 81 5d be 89 30 8d 3f e3 48 88 bc
       -0.22933783 -0.21631241 1.1030437 -0.016636318
0002d0 29 bd 9b be 2b 14 9a be 0f c7 d9 bd 89 4a 0f 3f
       -0.30417755 -0.30093512 -0.106336705 0.55973107
0002e0 05 48 12 be 4d 0e 6b bf 21 db ac be ec 0a 0c bc
       -0.14285286 -0.91818696 -0.33760932 -0.008547526
0002f0 61 5e c8 3d f9 7b 6f 3f e8 81 c1 be 4c 35 cd 3e
       0.09783626 0.9354854 -0.37794423 0.40079725
000300 45 1d 99 bc d3 14 7f be a0 cf 8f 3f 11 90 63 bf
       -0.018690715 -0.24910288 1.1235237 -0.888917
000310 cd e7 9f 3e 2c b1 6a bd 03 08 8a 3d c8 c8 22 3f
       0.31231537 -0.05729787 0.06739809 0.6358762
000320 ee a2 8e bf f1 15 df be 0b 54 55 3e 80 e7 68 3e
       -1.1143472 -0.43571427 0.20832841 0.2274456
000330 5e fd 71 3f a9 d1 4e 3f 53 d8 9d 3f e0 1b eb bf
       0.9452723 0.80788666 1.2331642 -1.8367882
000340 70 1b 06 3f ff c5 c7 3e 01 5b 3c bd 67 c0 92 be
       0.52385616 0.39018247 -0.045985226 -0.28662416
000350 4f f8 9e 3f 37 3a 06 3d ea 76 34 3f 5b b9 27 bf
       1.2419528 0.03277036 0.7049395 -0.65517205
000360 b4 2d ec be dd 92 40 3f a0 0b 86 3f a9 0d 7f 3f
       -0.4612862 0.75224096 1.0472298 0.9963022
000370 3e 83 e8 3e 2d 17 b8 3f 4d cf 59 3e bd 98 d3 3e
       0.4541263 1.4382073 0.21270485 0.41327468
000380 29 97 22 3d 79 61 0f be 74 99 56 bf 31 ae 38 bf
       0.03969494 -0.14002027 -0.838279 -0.72140795
000390 2e 2c 69 3f a9 89 84 3e c7 d2 64 3f 14 a4 a1 bf
       0.9108304 0.25886276 0.8938412 -1.2628198
0003a0 5b 62 92 bf 69 05 09 3f 87 21 a6 3f d3 06 c1 bf
       -1.1436266 0.5352388 1.2978982 -1.5080208
0003b0 0c fa d0 bf 87 66 a7 bf 7d 7b 5d be f3 54 02 3e
       -1.6326308 -1.3078164 -0.21629138 0.12727718
0003c0 7d 00 98 3f 00 ba cc 3e 27 14 bd be 49 91 84 3e
       1.1875149 0.39985657 -0.36929438 0.25892094
0003d0 fd 1f 89 3e 57 48 25 3e f6 bf 89 bf 89 4e 67 3e
       0.26782218 0.16140877 -1.0761707 0.22588553
0003e0 d6 05 2d bf 2c bd a9 be 46 0e 29 bf 98 e7 5c be
       -0.6758703 -0.3315214 -0.66037405 -0.21572721
0003f0 35 b8 93 bf 6f 55 15 bf cd 7f 15 3f de 62 c1 bf
       -1.154059 -0.58333486 0.58398134 -1.5108297

feature.weight_hh_l0 f4 [512, 128]
000000 45 d7 6c be 27 44 ff 3d 3b dc 86 be 4a c8 cd 3e
       -0.23128994 0.12464171 -0.26339898 0.4019187
000010 2d 85 36 be 44 f3 19 be 1f d0 8f bd f7 e1 20 3c
       -0.1782424 -0.15034205 -0.07022118 0.009819499
000020 e1 86 b7 be 5d 5f ca be c3 87 35 bf 9b fc 4b bf
       -0.35845092 -0.3952588 -0.7091028 -0.7968232
000030 6f 44 00 3e 85 4e 9e 3e e2 e7 e6 bd e9 13 3a bd
       0.12526105 0.3091928 -0.11274697 -0.045429144
000040 15 2d 4a be 42 38 58 bf d7 77 ea bc 20 50 36 bf
       -0.1974376 -0.8446084 -0.028621597 -0.7121601
000050 a3 6b 96 bf dc 85 a2 3d 56 14 58 bf 83 85 0c bf
       -1.1751598 0.07935688 -0.8440603 -0.5489122
000060 03 de cc be 73 5c a3 be a4 df 66 3f ba 16 49 be
       -0.40013131 -0.3190647 0.90185 -0.19637576
000070 80 1d 93 3e eb 49 4f 3d ad 3d bf be 56 3c f9 3c
       0.28733444 0.050607603 -0.37351742 0.030424278
000080 75 dc 73 3e 32 57 d0 3e 5f 50 23 be 85 de 98 3e
       0.23814566 0.40691525 -0.15948628 0.2985727
000090 89 ba e5 3d b4 99 f2 3e 89 d8 50 bf c8 5f 73 3e
       0.112172194 0.4738289 -0.81580406 0.23767006
0000a0 e2 36 01 be 8c 35 db bd a4 f7 94 3d bd d7 8f 3e
       -0.12618592 -0.10703573 0.07273796 0.28094283
0000b0 48 76 ae bd 50 aa 62 3f 78 1a cd 3e 3c f3 9b 3e
       -0.08518654 0.88541126 0.40059257 0.3045901
0000c0 d6 19 5c 3e 29 12 62 bf e8 84 6c bf 02 25 02 bf
       0.2149423 -0.8830896 -0.923903 -0.5083772
0000d0 70 81 2e 3c 54 08 dc bd ad 43 a4 3d 53 a5 fe 3d
       0.0106509775 -0.10743776 0.08020721 0.12433877
0000e0 c2 04 52 bf 47 a6 bf bd 3d 4f af be 3f 05 06 3f
       -0.8203851 -0.09357887 -0.34240142 0.52351755
0000f0 73 7f d3 be c6 f5 6f 3e 62 27 3c bd ed 9d de 3e
       -0.41308174 0.23433599 -0.045935996 0.43479863
000100 55 ff 0c 3e 86 99 2f 3d 37 c2 0e 3f e1 00 c0 3e
       0.13769276 0.04287102 0.557651 0.3750067
000110 e3 c5 c1 be ec a5 8f be 85 a5 aa bd 2f 2f de be
       -0.37846288 -0.28056276 -0.083323516 -0.43395373
000120 c4 c7 aa 3e 1d 43 8c 3e 3e 1e d2 3d d6 ee 8c 3e
       0.33355534 0.27394953 0.102596745 0.27525967
000130 7c b9 3b 3d 6b b3 54 3f 48 4d 6c be c4 c5 e4 3e
       0.04583119 0.8308627 -0.23076355 0.44682133
000140 7e 97 5d be d3 97 fa 3e 89 5d d3 3e a8 d9 cd bc
       -0.21639821 0.48943958 0.412823 -0.0251282
000150 a0 19 4f be 69 20 52 bd 56 26 5a 3f 64 7b ca 3e
       -0.20224619 -0.05130044 0.85214746 0.39547265
000160 37 5c 69 be a5 80 3e 3e 24 b5 79 be fe 2f 3d be
       -0.22789083 0.18603761 -0.24385506 -0.18475339
000170 11 5d 1d be 61 79 ea be 4e 78 23 3e 36 43 8b bd
       -0.15367533 -0.4579573 0.15963861 -0.06799929
000180 69 cb 4f 3e 91 0c e2 3d 58 91 5f 3e b6 cc 0e bf
       0.20292439 0.11037553 0.21832788 -0.55781114
000190 79 db 91 be 4d ec 45 3f b5 31 5d bd ac 72 da be
       -0.28487757 0.7731369 -0.054002482 -0.42665613
0001a0 3c c7 7d be 76 f2 7e 3e f8 d6 e6 be 6e 98 a4 be
       -0.24783033 0.24897179 -0.45085883 -0.32147545
0001b0 33 db 92 be 76 12 f3 3c 82 86 4f be 5a 5a 7b 3e
       -0.2868286 0.029671889 -0.20266154 0.24546185
0001c0 d9 f2 55 be 49 13 1c be 72 a9 ec be ef cd 96 bd
       -0.2089342 -0.15241732 -0.46223027 -0.073634975
0001d0 23 63 f5 be 2f 8e 0a 3f 41 a6 c4 3f 8b 89 86 bf
       -0.47927198 0.54123205 1.5363237 -1.0510725
0001e0 f9 35 a6 be 69 12 ba be 7c 4d 72 3d 6d 8c 03 bd
       -0.32463053 -0.3634217 0.059155926 -0.032116342
0001f0 e3 a0 db bc f9 6e 0d 3e 24 51 89 3d 2e 2e e1 3e
       -0.026810115 0.13811864 0.067049295 0.43980545
000200 5c 94 d2 3e ac 97 84 3f e5 61 9e bc dd 53 9d 3e
       0.41128814 1.0358787 -0.01933379 0.30728045
000210 3e ef 9e bf 4a 11 94 3e a9 25 a9 3d e0 17 28 bf
       -1.2416761 0.2891944 0.08259136 -0.6566143
000220 01 f0 7a be ae 53 0f bf 2d 8e 3f 3f fb 20 7d 3e
       -0.24505617 -0.5598706 0.7482632 0.24719612
000230 64 6c 60 bf 82 4f 4c 3f da 49 1e 3e 46 e6 5f be
       -0.8766539 0.7980882 0.1545786 -0.21865186
000240 d5 30 94 bf e5 71 31 bf 5e dd aa 3e 14 db e5 3d
       -1.1577402 -0.69314414 0.33372015 0.112234265
000250 99 8a f3 3e 68 71 e0 be 09 a3 0f 3f 98 fb 44 3f
       0.4756668 -0.43836522 0.56108147 0.769464
000260 6b 3e 44 be a1 44 32 be 10 16 89 bf 13 48 5e bf
       -0.19164436 -0.17408992 -1.0709858 -0.86828727
000270 b6 09 84 3b af da 0f be c4 45 7e 3e 97 b5 5e 3f
       0.004029478 -0.14048265 0.24831301 0.86995834
000280 19 c2 06 3f 6d 7f 5c 3f f4 94 3a 3e a7 3d 30 3f
       0.5263992 0.86131936 0.18220884 0.68844074
000290 17 b6 ff 3e ad 7a 49 bf 1f 65 f3 be ba ad 5d be
       0.4994361 -0.78702813 -0.47538087 -0.21648303
0002a0 80 09 08 bf 9c 38 1b bf de 33 7b bc 27 c9 f0 3e
       -0.53139496 -0.60633254 -0.01533219 0.47028467
0002b0 bb 21 33 3e 7c 2f 58 3d a4 7f c3 3d f4 92 83 3d
       0.17493336 0.05277966 0.0954583 0.064245135
0002c0 bc 1b 3d 3e 20 50 8c be fb f8 34 be a4 52 6b 3e
       0.18467611 -0.2740488 -0.17673104 0.22980744
0002d0 43 5b 11 3f 26 d0 b8 be 14 e4 3e bf 52 8a d6 be
       0.5677988 -0.36096305 -0.7456677 -0.41902405
0002e0 8b 34 bf be 01 22 0a be cc 6b 14 3f 90 2f b1 3c
       -0.37344775 -0.13489534 0.57976985 0.021629125
0002f0 25 4b ac 3e ad 86 ad bf b1 dd 41 3f f7 a7 6a 3d
       0.3365108 -1.3556725 0.757289 0.05728909
000300 f9 a0 73 bf 33 2a bb bd 04 a3 45 bf c5 9e 7c be
       -0.951675 -0.09138908 -0.7720187 -0.24669941
000310 a4 d7 cf 3d 8b fa c3 be c7 7b 37 bf c0 00 d7 be
       0.10148552 -0.38277087 -0.71673244 -0.4199276
000320 a7 16 10 3f e8 da 5e bf 2c c6 81 be c3 10 1e 3e
       0.56284565 -0.87052774 -0.25346506 0.15436082
000330 5e ad ca 3d 97 77 77 3e c4 cb 36 3f 11 c7 06 bf
       0.098963484 0.24166714 0.7140467 -0.526475
000340 ff 9b 20 be 61 9a fc be 9d 3c d0 3e 70 58 bf 3f
       -0.15684508 -0.49336532 0.40671244 1.4948864
000350 fb 11 49 bf 10 4f 19 be 38 5c a5 3e 9e 37 dc be
       -0.7854306 -0.14971566 0.3229692 -0.43011183
000360 08 ac 3b bf f5 b6 37 bf 93 a6 2a 3e 9a c6 a3 be
       -0.73309374 -0.71763545 0.16665106 -0.31987458
000370 5a 55 d3 be 86 35 97 3f dc 8a 04 3f 56 45 8b be
       -0.41276056 1.1813209 0.5177438 -0.27201337
000380 3d e0 59 3e 14 02 bb 3e cf cb 70 3d 6a 19 aa 3e
       0.21276946 0.36525023 0.058788117 0.33222514
000390 e2 d4 00 bf a8 03 1e be 1b a3 2d be ba 64 10 bf
       -0.50324833 -0.15431082 -0.16956751 -0.56403697
0003a0 22 2b 12 bf 6a d1 b2 3d 62 47 3f 3f 17 77 81 bf
       -0.57097065 0.08731349 0.74718297 -1.0114468
0003b0 20 57 38 be af 17 67 bd 58 2f e8 3d 18 b5 6e 3c
       -0.18001986 -0.05641907 0.11337155 0.014569543
0003c0 10 84 cd be 79 e1 6a 3f d7 35 1d 3e d1 90 08 be
       -0.40139818 0.91750294 0.1535257 -0.13336493
0003d0 e2 6c 47 3e 10 d7 ab 3d b0 02 97 be 97 20 f5 be
       0.19475129 0.08390629 -0.29494238 -0.47876427
0003e0 07 53 84 3d 21 f9 b9 3e 90 e3 b1 3e f0 5b 94 bf
       0.06461149 0.36322883 0.3474393 -1.1590557
0003f0 d2 19 99 3e e7 4b f9 3e 7d 31 23 3f ee fa e7 be
       0.29902512 0.4869072 0.6374739 -0.45308632

feature.bias_ih_l0 f4 [512]
000000 7d aa 63 3e d4 e9 23 3f 40 18 30 be b4 d7 cd 3e
       0.22233005 0.6402867 -0.1719675 0.4020363
000010 d4 d0 27 3e e6 73 17 3f 44 9d 80 3e 24 c7 ba be
       0.16388255 0.5916122 0.25119984 -0.36480057
000020 2a a2 bb be 45 cc 25 be 83 51 36 be c3 63 24 3e
       -0.3664716 -0.16191204 -0.17804532 0.16053681
000030 53 9a 81 3e d9 c7 9b 3e c1 bf bf 3c 6d ac 87 be
       0.25313053 0.3042591 0.023406865 -0.26498738
000040 5b 42 d8 be 94 03 a7 bd 4a bf e8 3e b4 38 fc 3e
       -0.42238125 -0.08154979 0.45458442 0.4926201
000050 fd b5 32 be 93 7f 84 3e 0b 92 2a bd 5d 87 fb 3d
       -0.17452236 0.2587858 -0.041643184 0.12281678
000060 a1 6e 81 3f 6a 4d e9 3e bc 8d 6f 3f c2 3c 04 3f
       1.0111886 0.45566875 0.93575644 0.5165521
000070 61 f8 64 3e c8 44 ea be e1 f0 a1 bc 0e 4e ae 3d
       0.22360374 -0.457556 -0.01976818 0.085109815
000080 8e 77 16 3e 90 b5 30 3e 7b 57 7b bc 5e 1c f9 3e
       0.14694044 0.1725676 -0.015340681 0.48654455
000090 91 cf e0 3d f9 6c e9 3e 72 ca 9b be ae a8 43 3e
       0.1097709 0.45590952 -0.3042789 0.19107315
0000a0 4b a5 7f bd de 9f 3b be ea 81 e3 bc 8f 5c d6 bd
       -0.062413495 -0.18322703 -0.027771909 -0.10466873
0000b0 4c 12 70 3e 4e 74 69 3d 4a 0b ec 3d 95 f2 b8 bc
       0.2344448 0.056995682 0.11525591 -0.02257661
0000c0 79 74 99 bd c3 c1 73 3f 0b e9 d7 bd ea 49 b3 3e
       -0.074929185 0.9521753 -0.10542496 0.3501733
0000d0 41 38 ca 3e 60 bd f5 bb 2b 8f 3e 3e c0 11 7e 3e
       0.39496043 -0.007499382 0.18609302 0.24811459
0000e0 24 b8 75 3e 90 b9 cb 3e de 1f e2 3d 11 c9 23 3e
       0.23996025 0.3979001 0.110412344 0.1599467
0000f0 ef ee 48 3d 7a 66 c3 3e 70 9b 98 3e e8 85 ec bd
       0.04905599 0.3816412 0.2980609 -0.11548978
000100 bf 86 e3 3d bb b9 c9 3e e5 b4 8e 3c 8b f9 e1 3e
       0.11109685 0.39399514 0.017420242 0.441357
000110 fe 45 40 be 29 c8 96 bc ed 1e b1 3d 8a ab 68 3d
       -0.187767 -0.01840599 0.08648477 0.056804217
000120 72 47 9c 3e 83 8d 9d bd b4 b7 4d bc 3d d9 12 3e
       0.30523258 -0.07693007 -0.012556005 0.14340682
000130 34 8f 62 bd d8 aa 32 3f 09 c0 69 3f a6 a8 0c bd
       -0.05531235 0.69791937 0.9130865 -0.034340523
000140 03 7c 86 bd a4 97 98 3e 28 89 b8 bd 7f 7c d8 3e
       -0.06566622 0.29803193 -0.090105355 0.42282483
000150 6d 6b 02 bf 87 fa 25 3d c8 b9 9d 3d dd ad 45 3f
       -0.5094517 0.040522125 0.077014506 0.7721842
000160 f0 38 8a 3e 71 70 33 3f cc 65 71 bc 6e 27 10 3f
       0.26996565 0.70093447 -0.014733743 0.56310165
000170 f6 b3 19 3e 29 62 b9 3f 91 f4 8e 3d 38 6a 5e 3c
       0.15010056 1.4483081 0.06980241 0.013575129
000180 01 33 05 3f 44 66 a8 be 92 6b 1a 3f 21 4e 02 be
       0.5203095 -0.32890522 0.6032039 -0.12725116
000190 41 6e 15 3f 5c 17 28 3f 0d d0 cb 3e b2 8e b4 3d
       0.5837136 0.65660644 0.39807168 0.088162795
0001a0 06 b5 a1 3e 39 90 ee be 51 a5 15 3f 0e 19 bb bb
       0.31583422 -0.46594408 0.5845538 -0.005709774
0001b0 e6 64 45 bc 19 51 92 be 51 11 48 be 9e a2 d4 3d
       -0.012047982 -0.28577498 -0.19537856 0.10382579
0001c0 79 49 c5 bd 45 e5 90 3e e9 cc 13 3e ea 8b 33 bd
       -0.096331544 0.2829992 0.14433636 -0.043834604
0001d0 92 f3 17 3e d6 9b af be 10 74 83 3e b1 d1 3d be
       0.14839008 -0.3429858 0.25674486 -0.18537022
0001e0 34 a5 8a 3e a3 3d 09 bf c6 5f fd 3e 78 51 98 bd
       0.27079165 -0.53609675 0.49487132 -0.07437414
0001f0 93 40 3d 3e f9 bd df 3d 4a 18 b5 bd 8c ea d5 3d
       0.18481664 0.10924906 -0.088425234 0.10445127
000200 d4 5d a2 be 14 c2 32 be d1 fe 85 be 2f 5d ee bd
       -0.3171221 -0.17456847 -0.26170972 -0.11638867
000210 54 fa cf be fb ba 7d bd 3f b9 db 3e a5 15 5c 3e
       -0.40620673 -0.061945897 0.4291477 0.21492632
000220 96 e3 a0 be 76 68 ce 3d a5 74 12 3e ce e0 86 3e
       -0.31423634 0.10078518 0.14302309 0.26343387
000230 29 79 0c 3d bf ae 1a bf 89 41 e5 3c 7c 2b 00 bf
       0.034295235 -0.6042289 0.027985351 -0.5006635
000240 e1 26 11 bf 71 02 e1 bc 92 db d8 be 84 45 3c bf
       -0.5669995 -0.027466984 -0.4235502 -0.7354357
000250 e2 6a 65 3d d9 16 5c 3d 73 f1 0f be 53 1c 5d be
       0.056010135 0.053732727 -0.1405695 -0.21592836
000260 37 bb 57 3f ca f7 08 3e f2 06 14 bf da a0 fb 3e
       0.8427004 0.13375774 -0.578231 0.49146158
000270 2f 8f 9e be 3a 7b 77 ba 69 cc 87 be 5d 1c c2 3d
       -0.30968615 -0.00094406644 -0.2652314 0.09478066
000280 9c 11 1d bf 71 7c 7a be 8b 9d f3 bd b8 24 f6 3d
       -0.61354995 -0.24461533 -0.11895283 0.12018722
000290 19 a7 2f 3c c0 77 41 3c ef 88 37 bd 68 82 a0 be
       0.0107209915 0.011808336 -0.044808324 -0.31349492
0002a0 15 91 aa 3c e5 97 9d be 13 18 f7 bd 00 4e 11 bf
       0.020821134 -0.3077995 -0.12065139 -0.56759644
0002b0 09 29 9a be aa 92 9f 3e 90 f8 4d be cf 32 88 be
       -0.30109432 0.31166583 -0.2011435 -0.26601264
0002c0 7a 31 ff 3d 02 16 78 bd 07 93 e8 3d 49 22 d2 bd
       0.12460609 -0.060567863 0.11356168 -0.102604456
0002d0 57 c6 6c be 49 2e 8c be a2 b1 a8 be 71 a3 dc bd
       -0.23122536 -0.27379063 -0.32948023 -0.107733615
0002e0 13 f0 c8 be 55 a9 be be ae a2 19 3e 69 06 e2 be
       -0.39245662 -0.37238565 0.15003464 -0.44145516
0002f0 e0 03 e9 3d a0 6c 88 be df 75 6d be 33 d8 a1 3e
       0.11377692 -0.26645374 -0.23189496 0.3161026
000300 06 88 17 bf 27 ce 14 3d 0a 00 44 3e 47 f0 84 be
       -0.5919193 0.036329415 0.1914064 -0.25964567
000310 12 3b 8c 3d 21 90 09 bf 68 11 e5 be 3d 1d f7 be
       0.06847204 -0.5373555 -0.44739842 -0.48264495
000320 19 d6 a3 be 88 00 a7 3d 6b 15 1b bf fe b4 9e 3e
       -0.3199928 0.08154398 -0.60579556 0.3099746
000330 18 83 a9 3b 1e 0f 54 be d2 a4 b3 3d 7e 8c 35 3d
       0.0051730983 -0.20708892 0.08771671 0.044323437
000340 4c bb 86 3e 53 dd bc 3d 83 62 d9 be f2 8c dc bd
       0.2631477 0.09221902 -0.4245797 -0.10769071
000350 2f 71 8c be c4 48 7f 3e 95 52 ef 3d ec 60 aa bd
       -0.27430102 0.24930102 0.11685673 -0.08319268
000360 83 e9 05 bf 04 57 c7 3c c0 68 97 be fc f9 a4 bd
       -0.52309436 0.024333484 -0.29572105 -0.08055493
000370 53 d0 91 3c f3 01 b2 bd d6 33 e2 be 48 48 a0 bd
       0.017799532 -0.08691778 -0.44180173 -0.078262866
000380 0c f2 b5 3e cc 85 27 be b5 71 e5 be 85 e7 f5 bd
       0.3553623 -0.16359633 -0.44813314 -0.120070495
000390 69 7c 4f be c9 90 00 bd 40 f8 01 bf 55 5a 92 3e
       -0.20262302 -0.031388078 -0.50769424 0.28584543
0003a0 53 bb 0d be 95 f7 e1 bd 9e 2c f1 be 9a 2a fb 3a
       -0.1384099 -0.11033551 -0.47104353 0.0019162477
0003b0 1b 31 b8 be de 5f 5f be e3 a0 23 3d 84 df af 3d
       -0.35974964 -0.21813914 0.039948355 0.08587554
0003c0 49 b7 f9 bd 68 70 b1 bc 75 f4 c3 be f4 34 bc be
       -0.12193162 -0.021660045 -0.38272443 -0.3675915
0003d0 ed d6 84 be aa 9f af 3e 1c c3 e0 be b7 79 b7 be
       -0.25945225 0.34301502 -0.43898857 -0.3583505
0003e0 7b 8b 88 be 59 fd 1e bf b6 ef d8 be 7c 2a 48 3e
       -0.26668915 -0.6210533 -0.42370385 0.19547457
0003f0 ce 05 ba bb a6 d4 e9 bd ca 0e 11 be 90 87 02 bf
       -0.0056769615 -0.114175126 -0.14165798 -0.509881

feature.bias_hh_l0 f4 [512]
000000 6f 03 a8 3e 15 4f 1e 3f 4a c1 5c be 31 43 fb 3e
       0.3281512 0.6183942 -0.21558109 0.490747
000010 6b e6 88 3c 8d 10 1f 3f 83 2e a3 3e 74 65 f8 be
       0.016711434 0.6213463 0.31871423 -0.48514903
000020 ec b7 c0 be 79 30 9f bd 0a 41 f8 bd e2 92 47 3e
       -0.3764032 -0.07772917 -0.1212178 0.19489625
000030 99 3c 8e 3e c1 89 bb 3e 8b 3c 90 3c 41 cb 80 be
       0.27780607 0.36628535 0.017606994 -0.2515507
000040 ae 7c b7 be 19 68 02 be 32 5a a0 3e bb 10 04 3f
       -0.3583731 -0.12735023 0.31318814 0.5158803
000050 70 ce d9 bd c0 65 98 3e da 98 9a bd 8b 8a 52 3e
       -0.10635078 0.2976513 -0.07548685 0.20560662
000060 46 f5 83 3f 04 c0 09 3f f0 6a 69 3f 99 ac 01 3f
       1.0309227 0.5380862 0.911788 0.5065399
000070 85 95 95 3e c7 d1 d3 be 7a a0 1d bd 9e 23 01 3d
       0.29215637 -0.41370985 -0.03848312 0.031528108
000080 e1 5e b4 3e 79 13 86 3e 08 37 00 3d ae e3 fa 3e
       0.35228637 0.2618673 0.031302482 0.4900183
000090 f6 ed 15 ba b4 04 cb 3e 53 2c 90 be 4b a3 81 3e
       -0.0005719358 0.39652026 -0.28158817 0.25319895
0000a0 7f 92 02 be 76 29 55 be 76 f6 2e bd 10 87 dd bd
       -0.12751196 -0.20816597 -0.042715512 -0.10816777
0000b0 70 89 64 3d c6 73 72 3e af 15 d7 3d 2c 8a b3 ba
       0.055795133 0.23676977 0.10502183 -0.0013697795
0000c0 6b 06 01 be 04 e5 5b 3f 32 1e 5e bd d8 46 cd 3e
       -0.12600105 0.85896325 -0.054228015 0.40093112
0000d0 8e 18 fb 3e f5 ce 52 3c 15 aa 46 3e 39 ab 91 3e
       0.4904217 0.012866725 0.19400819 0.28450945
0000e0 2a e8 8b 3e 9a 2f da 3e 2a b0 7d 3c ab 77 18 3e
       0.27325565 0.42614442 0.015483895 0.148894
0000f0 58 31 65 3d 05 f5 ff 3e 3e 4e 35 3e cc dc 75 bd
       0.05595526 0.49991623 0.17705628 -0.06002502
000100 c2 f8 e9 3d 91 40 7b 3e 21 d2 1a 3e 2b 55 f0 3e
       0.114244 0.24536349 0.1511922 0.46939978
000110 e1 fe 1a be 43 da 35 bd 12 12 9c 3d 9a 66 91 3d
       -0.15136291 -0.044397604 0.07620634 0.07099648
000120 bf 3a cf 3e c1 f8 1e be bb 60 bc bc fe 02 b4 3d
       0.40474507 -0.1552458 -0.022995343 0.08789633
000130 12 a8 5e bd 8a f3 3d 3f 23 00 76 3f 98 dd e2 bc
       -0.054359503 0.74199736 0.9609396 -0.027693555
000140 3f 0e 5f be 03 4e 91 3e 2c a5 d9 3c 8a 2e b9 3e
       -0.21782778 0.2837983 0.026568018 0.3616832
000150 11 78 d4 be d3 8f 9f bc c8 aa 84 3d 21 78 14 3f
       -0.41497853 -0.01947776 0.064778864 0.579958
000160 9b fa 62 3e 31 0d 54 3f c6 a0 bc 3c ab c3 28 3f
       0.22165911 0.8283263 0.023025881 0.65923566
000170 ae ca 64 3e 3a 46 b8 3f cf 10 0b 3e 5e 77 36 bd
       0.22342941 1.4396431 0.1358063 -0.04454743
000180 a5 15 e3 3e 0a 99 af be ce 3c 33 3f 3a 29 a3 3d
       0.4435245 -0.34296447 0.70014656 0.07966848
000190 9c da 0c 3f 37 da 15 3f a3 1a dd 3e ef 46 8e bc
       0.5502107 0.58536094 0.43184385 -0.017367808
0001a0 a2 e1 76 3e 62 52 00 bf 56 74 02 3f da e1 f0 bb
       0.2410951 -0.50125706 0.50958765 -0.0073511424
0001b0 c9 31 6a bd e4 d5 c9 be e2 db 67 be d9 84 44 3e
       -0.057176385 -0.39420998 -0.22642472 0.19191302
0001c0 cf c1 b9 bd aa 2a 8a 3e 63 a4 49 3e e6 27 26 3b
       -0.09070169 0.26985675 0.19691615 0.0025353371
0001d0 20 06 35 3d 13 62 cc be 38 fa 2a 3e 49 ed 3e be
       0.044195294 -0.39918575 0.16697013 -0.18645205
0001e0 0e 2d 74 3e 8d 94 ee be 47 61 00 3f 7a 0f 1e be
       0.23845312 -0.4659771 0.50148433 -0.15435591
0001f0 0d 0c b6 3d d4 e5 9b 3c ee c0 bd bd 8e 0d dd 3d
       0.08889017 0.019030489 -0.09265314 0.10793601
000200 43 70 8a be d5 9e a2 be 37 78 23 be 5a 9c 1c bd
       -0.27038774 -0.31761804 -0.15963827 -0.038235046
000210 3c 7b bb be 43 bf 23 3d 34 ff 96 3e 87 24 ec 3d
       -0.36617458 0.039977323 0.2949158 0.115304045
000220 8b 43 73 be 18 21 af 3d 01 50 f3 3d 80 dc 14 3e
       -0.23756234 0.08551234 0.11880494 0.14537239
000230 c0 75 90 3b 18 46 16 bf af 3d 91 3d fe a7 cf be
       0.004408568 -0.58700705 0.07091843 -0.40557855
000240 7b d8 1b bf cb 00 05 bd 7f 42 c6 be 34 f3 43 bf
       -0.608772 -0.03247146 -0.38722607 -0.76542974
000250 ff ff c2 3d b0 f3 3c 3d 4d c6 a2 bd 51 3c 5c be
       0.09521484 0.046130836 -0.07947979 -0.21507384
000260 f7 5a 58 3f 69 00 1f 3e 95 26 43 bf 97 4e f7 3e
       0.845138 0.155275 -0.76230747 0.48302147
000270 9c fa bc be 6c 7d 0f 3e bf 09 92 be c3 6d 33 bd
       -0.3690995 0.14012688 -0.2852306 -0.04380585
000280 a7 09 ff be f8 55 4b be 7a e6 8c bc 9e 42 0b 3e
       -0.49812052 -0.19857013 -0.017199744 0.13599631
000290 88 55 94 bd 4e f9 df 3d bd 0c ef 3b 63 50 85 be
       -0.07242876 0.10936223 0.0072952197 -0.26037893
0002a0 c2 de c9 3d a9 ca 07 be f3 64 e4 bb 98 fa 0f bf
       0.09856941 -0.13260902 -0.006970042 -0.5624175
0002b0 5b 4d 9f be ff 75 63 3e 7b a0 23 be 77 b0 01 be
       -0.31113705 0.2221298 -0.15979187 -0.12664972
0002c0 c1 bd da 3d 63 82 b6 bd 53 2b 70 3d e4 c9 5f be
       0.10680724 -0.08911588 0.058635067 -0.21854359
0002d0 e5 37 69 be 00 b4 49 be 34 86 22 be 1f 1d 07 bc
       -0.22775228 -0.19697571 -0.15871507 -0.008246689
0002e0 2e ac f2 be e1 3a f1 be 62 6f 69 bc 3d d1 d0 be
       -0.47396988 -0.47115234 -0.014247747 -0.40784636
0002f0 ed a5 4a 3d 57 83 94 be 46 70 37 be 24 70 ca 3e
       0.049474645 -0.29006454 -0.17913923 0.39538682
000300 1a 47 00 bf 2b 0b 02 3c 56 5c b2 3d 59 58 b7 be
       -0.5010849 0.007937233 0.08709018 -0.3580959
000310 8b a8 cb bd a0 6b 07 bf cd 13 11 bf a5 97 ce be
       -0.099442564 -0.528986 -0.5667084 -0.4035007
000320 96 67 92 be e2 3a e8 3d f4 ea 02 bf 9a b1 90 3e
       -0.28594655 0.11339356 -0.5113976 0.282605
000330 b7 f9 ab bd e9 2c 83 be 1f e7 13 3d 04 26 b9 3d
       -0.08397239 -0.256202 0.036109086 0.09040454
000340 a1 7b 0f 3e a4 79 83 3d 07 45 c6 be 03 5b 08 be
       0.14012004 0.064196855 -0.3872454 -0.13315968
000350 ed c8 1c bd 42 51 99 3e e6 4e 82 3d c3 ea 7a bc
       -0.038277555 0.29944807 0.06362705 -0.015314761
000360 3a 71 ec be 41 35 50 3e e9 ae 98 be a2 69 cc bd
       -0.46180135 0.20332815 -0.29820946 -0.09981085
000370 2d 31 4d bc 5c e8 f1 bd d2 c0 10 bf 0b 18 8a bd
       -0.012523931 -0.11811897 -0.5654422 -0.06742867
000380 ba 15 6c 3e d1 1a 84 be c8 3f d8 be 24 fb 23 3d
       0.23055163 -0.2580171 -0.4223616 0.04003443
000390 aa 56 c2 bd ef 72 e0 bc f5 e4 c9 be 30 96 b0 3e
       -0.09489186 -0.027398555 -0.39432493 0.34489584
0003a0 16 7c 73 bd 4c 7a a0 bd b5 22 02 bf d2 25 72 bc
       -0.05944451 -0.07835826 -0.5083421 -0.014779525
0003b0 7d 05 ab be 92 4b 96 be d2 8d 99 3d a2 00 3e 3e
       -0.33402625 -0.2935453 0.07497753 0.18554929
0003c0 dc 4e b6 bd af d6 c2 3d fe 66 a6 be e7 ee f0 be
       -0.0890176 0.09513604 -0.32500452 -0.47057268
0003d0 fa 58 8e be b4 d0 b5 3e c9 a5 c4 be b2 3a f2 be
       -0.2780226 0.3551079 -0.38407734 -0.47310406
0003e0 88 c4 dc be 5a 72 fc be 24 16 06 bf 49 28 6e 3e
       -0.4311869 -0.49305993 -0.52377534 0.23257555
0003f0 9b 0c 9b bd da 1c 0c be 83 fa 19 be 53 70 f2 be
       -0.07570764 -0.13682881 -0.15036969 -0.47351322

feature.weight_ih_l0_reverse f4 [512, 64]
000000 41 0e f2 be ae e8 82 3f a0 db 11 bf 78 17 cf be
       -0.472765 1.0227258 -0.56975746 -0.40447593
000010 26 71 c1 3e 25 f0 0c bf 6e 9c 61 3e 09 45 dc 3e
       0.37781638 -0.5505393 0.2203233 0.4302142
000020 a0 46 1a bf 6a 33 50 3e 20 6f 39 be 81 21 b5 3e
       -0.60264015 0.20332113 -0.18108797 0.35377124
000030 71 70 0b bf ad cd f3 bc 8c 65 92 be 9a 8f 07 3f
       -0.54468447 -0.02976116 -0.285931 0.52953494
000040 fd 96 34 bf fe 3b 1b bf 83 f4 61 3e d0 11 4b 3f
       -0.7054289 -0.60638416 0.2206593 0.79324055
000050 ce 71 cf be a0 66 8c be 71 be e8 3e 4c 24 ca 3b
       -0.40516514 -0.27422047 0.45457795 0.0061688777
000060 a6 f8 b2 3d 92 bc 31 3e ce 2a 3e 3f 10 b0 8f be
       0.08738832 0.1735709 0.74284065 -0.28064013
000070 3c 5e f3 be ee 28 3f 3f 8a d4 90 3e d1 f2 dc 3f
       -0.47532833 0.7467183 0.28287154 1.7261602
000080 46 39 af 3f 20 6f 59 be cd 45 50 3d 83 49 22 be
       1.3689353 -0.21233797 0.050847817 -0.15848355
000090 fc 90 ce be 25 b7 fc 3d 5e d3 e2 3e 96 85 76 bb
       -0.4034499 0.123396195 0.44301885 -0.0037616245
0000a0 be 85 8b bf cc 71 36 3f 6d 18 5f bf 52 26 6f 3f
       -1.090019 0.7126739 -0.87146646 0.9341785
0000b0 3a 94 4d bd e7 48 df be d4 99 38 bf 62 39 b0 3e
       -0.050190188 -0.43610308 -0.72109723 0.3441878
0000c0 cb 97 07 bf 73 ff a1 3d ba 74 c4 bd 21 b0 54 3f
       -0.5296599 0.07910051 -0.09592576 0.8308125
0000d0 1c e9 5a be 07 e3 15 3f 22 e6 82 3d dc 09 07 3e
       -0.21377987 0.5854954 0.063915506 0.13187355
0000e0 b3 56 21 3e 1c 9b c4 bd f5 38 8c 3f 97 11 2c 3e
       0.1575573 -0.09599897 1.0954882 0.16803585
0000f0 7d 51 10 3e bb af 23 3f a8 25 14 bf 41 13 2b 3f
       0.14093585 0.6394002 -0.5786996 0.66826254
000100 da 21 1e bf cf da 9c 3f de a8 e1 be 4e 9b d4 3e
       -0.61770403 1.2254275 -0.44074148 0.41524738
000110 22 49 1c 3e f8 df cf be 02 6e d2 be 15 27 46 3e
       0.15262273 -0.40600562 -0.41099554 0.19350846
000120 04 b7 fc 3d 1c 5c ff 3e be 3f e9 3e 51 40 58 be
       0.12339595 0.4987496 0.45556444 -0.21118285
000130 2f 82 ac be 26 1d fc 3e d0 5a 38 bf 18 63 d3 bd
       -0.33693072 0.49240988 -0.7201357 -0.10321635
000140 02 df 8f be 08 a6 d6 3e e0 18 8d 3f f1 62 7c 3e
       -0.2809983 0.41923547 1.1023216 0.24647118
000150 39 a7 8a 3d ce e4 81 3f 4f 96 0f 3f d5 2a 92 3e
       0.067701764 1.0147951 0.5608873 0.28548303
000160 92 5a 3c bf 8c 43 b7 be ae 80 83 bd e1 af 78 3d
       -0.735757 -0.35793722 -0.06421028 0.060714606
000170 f5 d8 2a 3f 5d 35 b0 3d 7a 0f 40 3e 3d 18 8f 3e
       0.667373 0.08603928 0.18755904 0.2794818
000180 26 c1 7d be de d8 4b 3a 2d 71 90 3e 25 16 58 3f
       -0.24780712 0.0007776151 0.28211346 0.8440879
000190 97 98 32 3f 2f 96 29 3e 62 42 c0 3e f7 a4 69 3e
       0.69764084 0.16561197 0.37550646 0.22816835
0001a0 89 fe 19 bf a7 5f 07 be f8 2d 30 bf d7 9f fd 3d
       -0.60154015 -0.13220082 -0.6882014 0.12384003
0001b0 1f 64 22 bf a0 78 42 be d1 39 38 3e 80 36 df bf
       -0.6343402 -0.18991327 0.17990805 -1.7438507
0001c0 f2 80 ac be 4c 39 a9 3e d5 a5 19 bf 29 d1 8f 3b
       -0.33692127 0.33051527 -0.60018665 0.0043889475
0001d0 a1 5e 42 3f 46 00 d1 3d e6 05 12 3f db 4a 01 bf
       0.7592564 0.1020513 0.5704025 -0.50504845
0001e0 d5 c8 82 3e f6 f9 0b bd 72 db c7 3e 66 03 9c 3e
       0.25543848 -0.03417393 0.3903461 0.30471343
0001f0 ef 84 b6 bd 44 de 80 be 0e 32 01 3f 9c 22 84 bf
       -0.08912074 -0.25169575 0.50467 -1.0323062
000200 ad 9a 90 3d c5 6b 86 bf 9d d7 51 3e 66 8c 07 bf
       0.07060752 -1.0501639 0.20492406 -0.52948606
000210 f5 55 23 bf e2 c4 0b 3f d9 60 19 3d ad 65 5e 3e
       -0.63803035 0.54597294 0.037445877 0.21718474
000220 e0 cc e2 be 14 d9 73 3f 9c 5d 77 be f6 22 dd be
       -0.44296932 0.9525311 -0.24156803 -0.43190736
000230 82 99 41 3f 7f 84 ac bd f4 e0 51 3e 21 2e d0 3a
       0.7562486 -0.08423709 0.20495969 0.0015882888
000240 cd b8 1b 3f e8 2d 45 3f dc de 4e 3f 5d 09 17 3f
       0.6082886 0.7702317 0.80808806 0.5899866
000250 3a 54 96 bd 3a 34 ba 3e ae 5c 6a bd 63 69 80 be
       -0.07340284 0.3636797 -0.057217292 -0.25080404
000260 ae 54 87 3e ec b9 25 bf 1d 6e 1f be 16 9a 20 3f
       0.26431793 -0.6473682 -0.15569349 0.62735116
000270 aa 90 12 bf 75 a0 21 bf c4 b3 e5 be 48 b3 c9 3c
       -0.5725199 -0.63135463 -0.44863713 0.02462162
000280 1b e0 82 be 9d ae 7b bc 0e 61 34 3e 33 04 46 3f
       -0.25561604 -0.015361455 0.17615148 0.7735016
000290 95 00 bd be a4 78 ac 3e 24 98 3e be d6 cd ba be
       -0.36914507 0.33685791 -0.18612725 -0.36485165
0002a0 d3 8c 45 3f de ce 27 bf 47 e1 b2 bd 3e 77 6c 3c
       0.77168006 -0.6555003 -0.087343745 0.014432726
0002b0 b6 e1 59 be 63 a4 e9 3e fe 46 c9 3d f2 09 0a bf
       -0.21277508 0.4563323 0.09827994 -0.53921425
0002c0 6d 6d b8 be e4 fd 84 3f 92 8e 11 bf da 90 92 be
       -0.36020985 1.0389981 -0.5685817 -0.28626138
0002d0 0e 08 0d be 8f 30 e9 3e 9c f8 0f 3f a6 00 46 3e
       -0.13772604 0.4554486 0.5623872 0.19336185
0002e0 32 ae f4 3d d3 d2 08 3d e5 fc 2d bd c1 f6 2d bf
       0.119472876 0.033404183 -0.042477507 -0.6795464
0002f0 84 c0 e7 3d 34 24 79 3b 66 d3 0a 3f cf d8 60 bf
       0.11316016 0.0038015964 0.5422882 -0.87830824
000300 8f 40 dd be 07 f9 c9 be e5 e8 ba bf bc 44 35 bf
       -0.43213317 -0.39447805 -1.4602324 -0.70808005
000310 a1 2c 8a 3f 9a 18 e8 3e 79 dc 62 bf 47 d0 05 bf
       1.079487 0.4533127 -0.88617665 -0.5227093
000320 64 db d6 be 74 13 0a be c5 ef 60 3e 99 5d 70 3e
       -0.41964257 -0.13483983 0.21966465 0.23473205
000330 0e f0 60 bf b8 8f 56 bf 52 cf 73 bf c2 c3 81 be
       -0.87866294 -0.8381305 -0.9523822 -0.25344664
000340 23 df ae 3f f0 73 68 3f 3a 4c 43 3e 16 c9 2b be
       1.3661846 0.90801907 0.19072047 -0.16775927
000350 2d db 29 3e 5c f4 bd bd 93 a5 3c bf 03 5e 07 bf
       0.16587515 -0.092751235 -0.73690146 -0.52877825
000360 d9 4a 0e bf dc b2 be 3c 48 a5 23 bf d1 11 54 3e
       -0.5558296 0.023278646 -0.63924074 0.20709921
000370 79 01 1e 3f ed c2 db 3e 24 51 12 3f 2d 80 44 bf
       0.61721 0.42922154 0.5715506 -0.7675808
000380 fa d2 91 3f 56 b3 b5 3f 8f 51 9c 3f 54 be 8d 3f
       1.139251 1.4195354 1.221239 1.1073709
000390 3c eb 28 3f 74 3a 3b 3e cb 48 df bd 7c fd 3e 3f
       0.6598394 0.18284017 -0.10902556 0.74605536
0003a0 b7 ae 5c bf a8 fa 42 3e 2a 39 10 bf b7 c7 b6 3e
       -0.86204094 0.1904093 -0.56337225 0.35699245
0003b0 01 e7 3d bf 0b c2 e4 3e d0 9b ed 3e 72 c5 0b 40
       -0.7418061 0.44679293 0.46407938 2.183926
0003c0 3d 21 e0 3e 9b 44 44 bf da 49 ab 3e 77 a2 04 bf
       0.4377536 -0.76667184 0.33454782 -0.518104
0003d0 b2 48 45 be f2 9a f6 be 74 39 84 3e 78 ba a6 3f
       -0.19266012 -0.4816509 0.25825083 1.3025656
0003e0 0b 25 a5 3e 78 18 94 be e7 bd 81 be e9 00 96 be
       0.32254824 -0.28924918 -0.25340196 -0.2929757
0003f0 92 45 ff bd f7 49 04 3f c0 5e f3 3e a0 5e 71 be
       -0.12464441 0.5167536 0.47533226 -0.23571253

feature.weight_hh_l0_reverse f4 [512, 128]
000000 39 1e 34 3e 44 80 31 3d dd 5c 2d 3f c1 d6 1d bf
       0.17589654 0.043335214 0.67719823 -0.61655813
000010 85 d6 bc 3e e2 c8 cb bc e7 e8 e4 bd 8f b3 9f 3d
       0.36882415 -0.024876062 -0.11177235 0.0779792
000020 a0 62 ca be 4e 0d de be 59 e6 44 3d 9b a6 ae be
       -0.3952837 -0.43369526 0.04807124 -0.34111485
000030 62 88 e6 bd 2f e3 af 3e 60 0e ee 3e 23 49 b9 bd
       -0.11256482 0.34353015 0.46495342 -0.09047153
000040 5e 09 19 3e ba 60 05 bf 84 46 47 be bf b8 aa bd
       0.1494498 -0.5210072 -0.19460493 -0.08336019
000050 d0 bc 7c bd 0c eb df 3b a3 da f1 3d ce d6 89 bc
       -0.061703503 0.0068334397 0.1180928 -0.01682606
000060 76 a1 c7 be 91 63 f3 3d 8e 6e 84 3e 26 69 46 3e
       -0.38990372 0.11884225 0.25865597 0.19376048
000070 53 ac af be 66 e8 97 be 66 b4 4e bf 2f 6f 35 bf
       -0.3431116 -0.29669493 -0.80744016 -0.7087278
000080 f1 1e 3a 3e 5e 2d 8c be 55 66 3c bf 54 72 d0 3d
       0.18175866 -0.27378362 -0.73593646 0.10178056
000090 c9 72 82 3d 54 6d 28 3b de b0 5e be ad f0 e1 3e
       0.0636955 0.002569993 -0.21747157 0.44128934
0000a0 ae de 4a 3f 2a 69 08 3f 6e af 7e be d0 30 93 be
       0.7924603 0.5328547 -0.24871609 -0.28748178
0000b0 54 2a ec be 9a 0d 11 bf 3e 3d 67 bf 36 c4 74 bd
       -0.46126044 -0.5666138 -0.90327823 -0.059757434
0000c0 53 51 4a 3e 91 19 fb be 5f 89 3a 3e 75 f1 5e bf
       0.19757585 -0.49042943 0.18216465 -0.87087184
0000d0 ba 45 90 3e c4 d8 0e 3f f0 d4 5e be 4f 2d ae bd
       0.28178197 0.5579951 -0.21760917 -0.08504736
0000e0 b1 52 ee be 8c ae 92 be cd 8c 5d 3e a8 8c c4 be
       -0.46547464 -0.28648794 0.21635742 -0.38388562
0000f0 39 d5 5a be 80 53 83 bf 28 27 26 3f a4 b9 05 3e
       -0.213704 -1.0259857 0.649035 0.13059098
000100 ae 93 12 3e 09 3d c0 3d f8 e3 85 bd e9 d3 d0 be
       0.14314148 0.093866415 -0.06537622 -0.40786675
000110 19 73 a9 bc 35 e9 12 3f 41 3b 21 3f 55 3b 94 3e
       -0.020684766 0.57387096 0.6298104 0.28951517
000120 17 b5 53 bc 15 d1 27 3e 5e 1e 5a be 3b 08 83 bd
       -0.012921593 0.16388352 -0.21300647 -0.06398054
000130 94 b3 f5 3d 41 82 b9 3b ed e0 5e bf f7 91 91 be
       0.119971424 0.0056612794 -0.8706196 -0.28431675
000140 24 16 3d be 9b 61 1b bf f3 85 29 be 1d b8 58 3e
       -0.18465477 -0.6069581 -0.16555004 0.21163984
000150 c3 9c 7e 3c cf be 7d be 3b f3 23 3e 79 e4 e7 be
       0.015540305 -0.24779819 0.16010754 -0.45291498
000160 b5 53 28 3d d2 23 1b be 09 99 d5 be 29 8d b6 bd
       0.041095454 -0.15150383 -0.4171832 -0.08913643
000170 3a e8 a1 be 34 88 14 bf ea 67 0a bf 75 75 58 be
       -0.31622487 -0.5802033 -0.5406481 -0.21138556
000180 17 6b f8 3d 5b d7 46 3e 9c 83 59 3e 49 ca 95 3e
       0.12129801 0.19418089 0.21241611 0.29255894
000190 bd 83 50 3f 85 a9 af 3d cf d7 68 3f a2 ac 29 bf
       0.81451017 0.08577255 0.909543 -0.6627904
0001a0 f3 cb 89 3e e7 99 0a 3f 86 62 aa be a0 9f a8 be
       0.26913413 0.54141086 -0.33278292 -0.32934284
0001b0 3d 79 14 bf 22 5e 67 3e 64 69 3f bf f4 5f c3 be
       -0.57997495 0.22594503 -0.7477019 -0.38159144
0001c0 19 50 7d be 21 51 97 3e fd f4 23 be 4b 5f 5e be
       -0.24737586 0.29554084 -0.16011424 -0.21716039
0001d0 b9 14 a9 3d d5 4c d3 3c 46 35 e7 be 59 9b 50 3e
       0.08255906 0.025793472 -0.45157832 0.2037176
0001e0 18 37 e4 3c db e7 50 be 7a b8 27 be 96 ff 52 bf
       0.027858302 -0.20400946 -0.16378966 -0.82421243
0001f0 c7 de 26 bd a6 39 ad 3e 41 c4 47 bd b8 97 a2 3e
       -0.0407398 0.33833045 -0.048771147 0.31756377
000200 c5 56 11 be 96 8d a4 bd f1 64 eb be 53 d1 ef 3e
       -0.14193256 -0.08034818 -0.4597545 0.4683939
000210 31 16 a4 3e b8 89 60 bd 0e 15 7e 3e 2d 55 c6 be
       0.3204818 -0.05481884 0.24812719 -0.3873686
000220 8d 99 76 3f 0b 66 ac be cb b1 f8 3d e2 d6 09 bf
       0.9632805 -0.33671603 0.12143286 -0.5384351
000230 91 a1 97 be 0b d7 b1 3d b9 e1 e0 3f 67 e2 b9 3d
       -0.29615453 0.08683594 1.7568885 0.09076386
000240 50 e4 3b 3e b9 79 83 3f ee d7 3e bf 2c 37 11 bd
       0.18348813 1.0271522 -0.7454823 -0.035453007
000250 ae 20 9a be 35 b4 e1 3d d4 c7 90 3f d1 29 87 3e
       -0.30103058 0.110207 1.1310983 0.2639909
000260 10 3c 37 be f5 5f 41 be 2f 35 25 3f e4 f6 25 be
       -0.17894006 -0.18884261 0.64534277 -0.16207463
000270 8c 2f f8 be 58 f6 33 3f 6c 31 85 be 3a 5a f1 3e
       -0.48473775 0.70297766 -0.26014268 0.4713915
000280 ba cc 0d be 9e 8d 23 3e c0 65 9c be 19 99 47 3e
       -0.13847628 0.15971991 -0.3054638 0.19491996
000290 e5 08 0e 3e db d8 90 bc d6 a2 e2 3c c5 24 f3 be
       0.1387058 -0.01768153 0.027665537 -0.4748899
0002a0 c8 1b bd bc 5b 7f cd be 9e 97 52 3f d3 4e 04 be
       -0.023084536 -0.40136227 0.822626 -0.12920694
0002b0 39 59 1d 3e fc c8 f8 be 6c ad 7c bf e6 16 fe be
       0.15366067 -0.4859084 -0.9870212 -0.49626845
0002c0 ea 84 03 3f 46 a2 9e be 62 eb 20 3e d3 de 7a 3d
       0.51374686 -0.3098318 0.15714791 0.061247658
0002d0 65 1e 5c 3f a1 b0 21 3f 40 53 3e bf 85 89 6d bb
       0.8598388 0.6316014 -0.7434578 -0.0036245298
0002e0 b3 4d 1f 3c 06 bb 86 3e a5 47 7a 3d 07 82 24 3f
       0.009723115 0.26314563 0.06110348 0.64260906
0002f0 5c 07 be 3d 1e d6 0e bf b4 c7 1c bf d3 35 da be
       0.092787474 -0.55795467 -0.6124222 -0.4261919
000300 e2 4f 97 bd 63 bc 07 be f9 74 6c 3e e7 5f 44 3f
       -0.07388283 -0.13255458 0.23091497 0.76708835
000310 ef c4 60 3f 25 13 67 bf 79 f4 6d 3e 59 d7 20 3e
       0.87800497 -0.9026359 0.2323779 0.15707149
000320 e8 fe f8 be b4 b7 a2 3d da 9e 03 3e 39 7a 8c be
       -0.48631978 0.07945195 0.12853566 -0.27436998
000330 61 99 8a 3e fd 65 25 bf e9 79 4d 3f c9 37 a4 bf
       0.27070144 -0.64608747 0.80264145 -1.2829524
000340 08 90 2b bf ec 2f 90 3e 58 c1 03 bf 3e 9f 37 bf
       -0.6701665 0.2816156 -0.51466894 -0.7172736
000350 cb b9 30 3e 9a 2b 5a 3f c6 1c 51 bd 2a 6c 07 bf
       0.17258374 0.8522278 -0.05105283 -0.5289942
000360 e1 9c 7b be 66 0d 0e 3f 6c bf b8 be fb fe a0 bd
       -0.24571563 0.55489194 -0.36083543 -0.07861134
000370 d4 0e b4 3f bf 69 3a 3e 86 7f db be c9 4c 72 3e
       1.4067025 0.18204401 -0.4287073 0.23662104
000380 fa 71 fb 3e 73 4f 56 3c cc bd 0a 3f 09 4c 93 bd
       0.49110395 0.013080466 0.5419586 -0.07192237
000390 46 3d 16 bf 41 ab 13 bf 5a 2a 56 3e 1c 63 67 bf
       -0.58687246 -0.5768319 0.20914593 -0.90385604
0003a0 48 2f 61 be 73 0d 54 bf 7a 0e 83 3e c6 ed ad bc
       -0.21990693 -0.8283302 0.25596982 -0.021231543
0003b0 83 5a 4c 3e 7f 32 15 bf ce 2d fd bc 31 e3 81 bd
       0.19956402 -0.58280176 -0.03090563 -0.063421614
0003c0 d9 dd a8 3e 30 ec 80 be 59 c0 7d bd 34 a1 d7 3d
       0.32981756 -0.25180197 -0.061951015 0.10528794
0003d0 7f ad 85 3e 37 2b 71 bd 28 25 94 bc 0e b1 67 bf
       0.2610893 -0.058879104 -0.018084124 -0.9050454
0003e0 2e 8a cb 3e 8b 30 df 3e 46 0c 06 3f 25 19 9a be
       0.3975386 0.43591723 0.5236248 -0.3009731
0003f0 bb cb 1d 3e 20 e5 d7 be 98 4b 41 39 ea 0c e1 3d
       0.15409748 -0.42166996 0.00018434075 0.10988791

feature.bias_ih_l0_reverse f4 [512]
000000 ec 9a 7c 3e 42 42 80 3e 7a cb 27 3f ce c7 3f 3e
       0.24668473 0.2505055 0.65544856 0.18728563
000010 c4 a9 15 3e ce b2 5d 3e 55 84 09 be 0b 79 8c be
       0.14615542 0.2165024 -0.13429387 -0.27436098
000020 0e 51 19 3f f1 aa 0b be ac 56 15 3e 61 30 97 3e
       0.59889305 -0.13639428 0.14583844 0.29529098
000030 8e 35 1d be 54 c4 08 3f 50 85 2c be ef dc d3 3d
       -0.1535246 0.5342457 -0.1684773 0.10344874
000040 bc 6d 98 be ab dc 06 3f 01 a1 b2 3e 6b 2b b0 3d
       -0.2977122 0.5268046 0.3488846 0.08602031
000050 00 18 59 3e 4d 8a 88 3e 26 db 7f 3e 97 46 29 3e
       0.21200562 0.26668015 0.24985942 0.16530834
000060 7d b3 0d 3f de 0e 8a 3e 67 db a1 3d d6 03 1c 3e
       0.55352 0.26964468 0.07903176 0.15235838
000070 58 42 63 3d 5a 1a 0d be cf 33 e1 3e 95 30 f4 3e
       0.055483192 -0.13779584 0.4398484 0.47693315
000080 f0 6c a9 be 71 1e 2f 3e 4d 9d eb be 59 2a 1b bd
       -0.33090925 0.17101456 -0.46018448 -0.037882183
000090 d8 e9 2b be 92 17 9b 3e df 1d 3d be 8f 38 1b be
       -0.16788423 0.3029142 -0.18468426 -0.15158294
0000a0 d9 fb 47 be 0b d9 6a 3e 2b 22 2a be ca 24 45 3e
       -0.19529666 0.22934358 -0.16614597 0.19252315
0000b0 12 82 c0 3e 98 96 97 3e 8f 8e c9 3e 42 a5 03 3f
       0.37599236 0.2960708 0.39366576 0.5142404
0000c0 ca 5c 62 be 68 d1 90 3e f3 e0 ed be 40 21 5b be
       -0.22105709 0.28284764 -0.46460685 -0.21399403
0000d0 fa f4 39 3d 64 d8 95 3e 5f 06 a8 be 86 44 ac bd
       0.045399643 0.29266655 -0.3281736 -0.08411507
0000e0 68 8d 9c 3e 96 6f f6 3d 43 3a ac bd ff 89 81 3e
       0.30576634 0.12033002 -0.0840955 0.25300595
0000f0 5b 61 f5 bd a5 ef d2 3e 2d 70 43 3e b8 b7 9a 3d
       -0.1198146 0.4119846 0.1908576 0.07554573
000100 80 3e c5 be da 2b 49 3c a2 63 56 3f 7d b1 83 be
       -0.38524246 0.012278521 0.8374578 -0.2572135
000110 82 d5 c6 3d fa cb 4f 3e ff b4 a1 3e e1 73 95 3e
       0.09708692 0.20292655 0.31583402 0.2918997
000120 1b 49 9c bc 67 9e f1 3d d6 ab 1b 3f c8 e5 d8 bd
       -0.019077828 0.11797791 0.60809076 -0.10590702
000130 40 d7 98 bd 25 d6 08 3f 33 3c c1 be a6 b7 65 3d
       -0.07462931 0.5345176 -0.3774124 0.056083344
000140 af a5 7a 3d 9b dc 04 3f 91 8b b9 3e 08 43 d7 3e
       0.061193164 0.5189912 0.36239293 0.42043328
000150 e7 52 ff 3e f8 c6 5a 3e bc 8d 5e 3e cc c4 d4 3e
       0.49867937 0.21364963 0.21733755 0.41556394
000160 a6 2e 96 bd cf ee 79 3e 83 9a e2 3e 54 3c 36 bc
       -0.07333116 0.24407504 0.44258508 -0.011122782
000170 15 a3 0b 3e c0 37 df 3e 9b c2 dd 3e 31 fe 98 3d
       0.1363643 0.4359722 0.43312535 0.07470358
000180 9c 25 0a 3f df 79 0d 3d 49 23 c2 3d d4 22 d7 bd
       0.5396364 0.034540053 0.09479386 -0.1050469
000190 20 31 a0 be b5 ba 00 be 61 c8 5b bd 0c 21 db 3e
       -0.3128748 -0.12571223 -0.053657893 0.4279865
0001a0 2e 81 99 be 79 12 05 3f f7 f9 e5 3c c4 43 d8 3b
       -0.2998137 0.5198131 0.028073294 0.006599875
0001b0 5a 53 d2 3e aa 64 4e be 62 e8 2f 3e b3 d6 4d 3e
       0.41079217 -0.20155588 0.17178491 0.20101433
0001c0 75 4f 95 bc f0 11 b3 3d 6b 37 0b be 22 90 17 be
       -0.018226365 0.08743656 -0.13595359 -0.14801076
0001d0 ca 11 3a be 3b b8 5d bd 17 e3 30 be dc af f3 bd
       -0.18170848 -0.054130774 -0.17274128 -0.11898777
0001e0 a5 9f 08 3e a8 6e 5c 3e e8 5c a4 be d3 0b 7b bd
       0.1334215 0.21526587 -0.32102132 -0.061290573
0001f0 e7 71 d2 3d 02 4a c5 3d bb 62 20 3f 97 cc 97 be
       0.102756314 0.096332565 0.6265065 -0.29648277
000200 a2 2b 85 bc 13 a0 cf 3d ca 4e de 3e d8 68 fc bd
       -0.016256157 0.101379536 0.43419486 -0.12324685
000210 2b d2 8c bd 01 d0 b8 bd 8f 40 80 bd 83 ae b3 3d
       -0.06876024 -0.090240486 -0.062623136 0.0877352
000220 32 3e a7 be 04 bc 9a 3c 23 96 20 be 08 8a 91 be
       -0.3266464 0.018888481 -0.15682273 -0.28425622
000230 e8 3a 07 3f bb 38 89 be 7c 1f a4 3e 87 03 9f bd
       0.5282426 -0.26801094 0.3205527 -0.07764345
000240 2f 13 13 be eb a2 6a 3e d5 52 09 bf 04 55 ad be
       -0.14362787 0.22913711 -0.53642017 -0.33853924
000250 08 4c 65 be b8 16 15 bd 2b 25 23 be 33 f5 01 3f
       -0.22392285 -0.03639862 -0.15932147 0.5076477
000260 99 00 93 be 16 be 57 be 28 c6 d6 3e 6f 17 08 3e
       -0.28711393 -0.21068606 0.41948056 0.13290189
000270 63 c2 35 3f d4 41 a1 bd 94 2b 13 bd 74 68 01 bf
       0.70999736 -0.07873884 -0.03593023 -0.5055001
000280 50 db 8e bd b8 fe 09 3d ed 00 10 bd 34 e3 58 3e
       -0.06975424 0.033690184 -0.035157133 0.21180421
000290 c9 66 61 3e 2c 8f 41 be 24 64 1c 3e f2 5b 05 3f
       0.22011866 -0.18902272 0.15272576 0.5209342
0002a0 de a5 1c 3f 39 e1 52 3e 4f 30 dd 3e 5b 4f 18 3e
       0.61190593 0.20593728 0.4320092 0.14874022
0002b0 49 3e 98 be ed 13 99 3e b0 55 65 3e b6 c7 cb 3d
       -0.2973502 0.29898015 0.22395968 0.09950201
0002c0 28 61 4d be 35 a5 ef 3e f3 f9 c8 3e dd f9 b3 be
       -0.20056593 0.4680573 0.39253196 -0.35151568
0002d0 aa ff 0b 3f 2a 99 9d be d9 92 a4 3e 6b c1 4e 3e
       0.5468699 -0.30780917 0.32143286 0.2019097
0002e0 17 fb 6b 3e 6e 69 0f be 3e 8a bf 3e af d6 9b 3e
       0.23045002 -0.14005062 0.37410158 0.30437228
0002f0 f4 66 f9 3e 27 89 c3 be ba a5 ab bd 58 c3 e4 3e
       0.4871136 -0.38190576 -0.08381219 0.44680285
000300 a2 e8 3a 3e bc 17 53 be f0 2b 16 3f d4 ee 99 be
       0.18252805 -0.20614523 0.58660793 -0.30065024
000310 78 7c ab 3e e6 38 b2 3d 9a d4 96 3e 26 3e 73 be
       0.334934 0.08702259 0.29459077 -0.23754176
000320 63 23 a9 3d 57 25 b6 3d 84 b4 ca be 62 04 e5 3d
       0.082587026 0.08893841 -0.39590847 0.111824766
000330 60 be c4 3d a2 82 26 3f 90 be 12 3f 2c d7 3d be
       0.09606624 0.6504308 0.57322025 -0.18539113
000340 4f 1f 32 3e 96 03 d3 be bb 65 1f be 77 46 60 bd
       0.17394756 -0.41213673 -0.15566151 -0.0547547
000350 5f 9e 22 3f 96 ec e7 be ee 48 0c 3d e4 4d cb be
       0.63522905 -0.45297688 0.03424924 -0.39707863
000360 7c ca b4 bd 02 68 61 3e a5 c9 ba be f5 55 33 3e
       -0.08827683 0.22012332 -0.36481968 0.17513259
000370 4d b4 e6 bd 5c 7d 96 bd 3b 7e 01 3f 64 e7 ce bd
       -0.112648584 -0.07348129 0.5058324 -0.10102728
000380 a6 e4 30 3e 7c fc bc be cd 5b 96 be 9f c4 b1 bd
       0.17274722 -0.3691138 -0.29366913 -0.086800806
000390 e8 ee 69 be df 29 5c be 6f 4c 1a 3f 57 6c 74 be
       -0.22845042 -0.21500348 0.6027288 -0.23869453
0003a0 15 45 bb 3e 29 6d 7f 3d d9 c0 12 bf a1 ff 47 bd
       0.36576143 0.062359963 -0.5732551 -0.04882777
0003b0 32 34 81 be 62 a8 0f bf 18 c7 f8 3d c8 5b 2e 3e
       -0.25235134 -0.56116307 0.12147349 0.170272
0003c0 eb cb 63 bd d3 54 80 3e 86 3d 91 bd 28 c4 b7 3d
       -0.055614393 0.25064716 -0.07091813 0.08972961
0003d0 c2 1d 0a bd 64 a3 0d 3e e5 7a c9 3e 2a 14 2a be
       -0.033719786 0.1383186 0.39351574 -0.16609254
0003e0 30 ae 7b 3e 81 21 dd be 79 fd 93 3d c3 cb 9b 3e
       0.24578166 -0.43189624 0.072260804 0.30428895
0003f0 38 77 76 3e f3 22 d6 3e c5 d1 c8 3e 57 e3 06 be
       0.24068916 0.4182354 0.3922254 -0.13172661
