logs/classifier/30_contexts/fold_03/10-19-2022_09-11-23/model_params.pth (torch, 821283 bytes, 10 tensors)

feature.weight_ih_l0 f4 [512, 64]
00000000: 1249 623b 4543 dfbe 44b1 43bf 0b8a c1be
00000010: fd1a d13f 7e1d dabd e05a 45be 7576 e4be
00000020: fd64 ff3e 9f61 f03d e63d e7bf 88df 47bd
00000030: db2b 1b3f ea5e 993e 5bc7 613e 8c0e 09bf
00000040: 9f0a 25bf 9776 5ebf 79c6 8abe 86a1 43be
00000050: 2854 96bf b5b2 163e c55f 9c3f 59df e13d
00000060: 9083 57bf 1317 b3be 7c69 77ba 7f16 0dbf
00000070: dbde 34bf 69ac 0e3f daf6 9ebe 6e76 1d3a
00000080: 179b 89be 7a10 9a3e f0eb 8b3f b232 19bf
00000090: 6e67 2f3e 4827 6a3f 8f0e 83bf 1ed4 b53d
000000a0: 15c9 dd3e c4f2 4cbe 27c7 dbbe 7584 d43e
000000b0: b193 823f 7582 8e3e b853 e0be d3fe 4c3f
000000c0: 51bb 6a3e 50d5 e7bc 3e63 d63e 582b c13f
000000d0: 6c64 db3c c4f8 11bf 3cf2 ab3e f5ce 95bf
000000e0: c34d 323f 8b30 723f e1f3 dfbe eceb f5be
000000f0: 8d14 17bf 5af9 1dbe ec82 c83e ebf6 acbe
00000100: d9d4 9cbd 202f 9bbe d232 18be ba68 22be
00000110: feec 67bf 7e40 a63e c18f a3bc e5a0 5f3e
00000120: eeb5 943f fe09 81be b52a 183f 41fe 79be
00000130: d622 443f 3d62 af3e 8cce 753e 3578 143f
00000140: c302 8bbc bbec 623e 6161 76be 65f9 fb3e
00000150: 086f 203f 74f1 37be 5778 603f 076f 503f
00000160: 4f43 08bf 656a bbbe 1a5f 11bd 81c9 0b3d
00000170: ad2b cc3e 3119 9ebe 1be0 cf3f 5f43 563e
00000180: e935 173f be32 0d3f 4f7a a23e fa5a b3be
00000190: 0d89 5c3f 9f91 d53e e4fb a5be 65c6 85bf
000001a0: 3258 613e f57e adbe 338f ddba 19c8 dc3e
000001b0: becb 423c b7fa 2e3f 17af 193f 3df1 4d3f
000001c0: 5f8f 8a3e e795 c73d afe7 01bf a6d3 a03e
000001d0: c3ff 32bf cb73 313f 8022 11bf bdc1 90bf
000001e0: c704 3fbf 706d bb3f c168 d8be 729b 02bf
000001f0: 8e71 9e3c a789 0ebf e7d4 5ebf 5887 013f
00000200: 23d4 2fbf 31ee 263f 2fe9 53be 6d44 6b3e
00000210: feac 7c3f dfba 7a3d 9efa d53e 6a86 233e
00000220: e194 003e 81c6 6c3f 66fb 09bf b1f8 6f3e
00000230: 0b18 083f 49ca fb3c 0c9d 1a3f da8b b5be
00000240: 14d2 48bf db57 92bd 406b f83d de53 e43e
00000250: 30a7 18bf fb1f 9fbe 59b3 aabf 1a89 ab3d
00000260: bbf2 ddbd 3d38 643e a4fc cf3d 5466 6bbf
00000270: db88 bf3e 60eb 30bf cf1c bdbe f460 96bd
00000280: 10e7 713f 4932 123f fbc6 bb3f 94da 6abf
00000290: 722a a83f 804b 593e b8e9 f8bd 9471 6cbe
000002a0: a8c8 323f 4cf4 363f adca 8dbe 6f4c d23e
000002b0: 9ca9 b0be 44df 84be 6f4f d7be 8a7e c13f
000002c0: a045 38bf 0183 333d 572c 24bf 3844 183e
000002d0: a0b0 41bd 0c4e 01bf 0b36 16bf b0d3 0cbe
000002e0: c0a8 92be 68c5 633e 4955 343f cf4a b73e
000002f0: 1b04 03be b9a2 293f 22a9 19bf 1791 663c
00000300: 1049 7dbf 2578 a2bb baae 3a3b 9bfe ef3c
00000310: 56f6 10bf 25f6 2f3f bde8 d63e 929a dcbe
00000320: b9f9 303e 85a9 24be 6c99 153e d60f 9e3f
00000330: 006f cf3e c473 acbe e919 ac3c 3e69 823f
00000340: b197 e8be 6976 a13e 5703 5dbd 1945 dcbe
00000350: b201 77bf cd0d fd3e 2abf 473f 644b 463e
00000360: d110 1c3f 4b8c 513e 6a4f d3bd 1ead 11bf
00000370: 6e3b 07bf 517c 99bf 2f6c a3bf 593b 583e
00000380: 9d89 afbe 7806 023f fa74 04bd 2cf1 8a3e
00000390: 2d02 86be d8d6 d43e 590e c8be 85c8 09bf
000003a0: 93bf dbbd e992 4c3f 8508 e93e dc7c b7be
000003b0: b738 49bf 4343 863e e2a7 41bf 1b45 9bbe
000003c0: 5d25 083e 9bde 5fbf f02e 2b3e 1762 e83e
000003d0: 9190 333e 4b6a 11bf 2d30 643f 8005 1bbf
000003e0: 5cba 1d3f 0f88 0ebf 1cbb 51bf bdf3 83be
000003f0: c733 c93d 0afd 753f f388 a43f 220a 113f
0.0034528417 -0.4360601 -0.7644236 -0.3780063 1.6336361 -0.106501564 -0.19272947 -0.44621626
0.49881735 0.1173737 -1.8065765 -0.04879716 0.60613793 0.29955226 0.22048704 -0.5353782
-0.6446933 -0.86899704 -0.27104548 -0.19104585 -1.1744432 0.14716609 1.2216727 0.11028928
-0.84185123 -0.34978542 -0.00094380206 -0.5511245 -0.7065255 0.5573183 -0.31047708 0.0006006722
-0.26876137 0.30090696 1.0931377 -0.5984298 0.17129299 0.9146619 -1.0238818 0.08878349
0.43317476 -0.20014483 -0.4292538 0.41507307 1.0201322 0.27833906 -0.43813872 0.8007633
0.22923018 -0.028299958 0.4187259 1.5091352 0.026781283 -0.5702021 0.33583248 -1.1703783
0.69649905 0.9460532 -0.43740752 -0.48031557 -0.59015733 -0.15427151 0.39162385 -0.33782133
-0.07657785 -0.3030939 -0.14863136 -0.15860263 -0.90595996 0.3247108 -0.019966008 0.2183872
1.161802 -0.25202936 0.59440166 -0.24413396 0.76615655 0.34254637 0.24004573 0.5799592
-0.01696909 0.22160618 -0.24060585 0.4921371 0.6266942 -0.17963201 0.87683624 0.81419414
-0.53227705 -0.3660461 -0.035491087 0.034127716 0.39877072 -0.30878595 1.6240267 0.20924138
0.59066635 0.5515555 0.3173394 -0.35030347 0.8614662 0.41712663 -0.3241874 -1.045117
0.220063 -0.33885923 -0.0016903639 0.43121412 0.011889396 0.6835131 0.6003279 0.80446225
0.27062508 0.097453885 -0.50744146 0.31411475 -0.6992151 0.6931731 -0.5669327 -1.1309124
-0.74616665 1.4642773 -0.4226742 -0.5101844 0.019341256 -0.5567879 -0.87043613 0.50597143
-0.6868307 0.652072 -0.20694421 0.22975321 0.98701465 0.06121337 0.41792768 0.15969244
0.12556793 0.9249039 -0.5389923 0.23434712 0.53161687 0.030736106 0.60395885 -0.3545826
-0.78445554 -0.07145663 0.12129831 0.44595236 -0.5963011 -0.31079087 -1.3335983 0.083757594
-0.10837313 0.22287078 0.10155609 -0.91953015 0.374091 -0.69109154 -0.36936042 -0.07342711
0.944932 0.5710798 1.4670099 -0.91739774 1.3137953 0.21220207 -0.12153953 -0.23090202
0.6983743 0.7146652 -0.27693692 0.4107394 -0.34504402 -0.25951588 -0.4205279 1.5116742
-0.7198124 0.043826107 -0.6413016 0.14869773 -0.047287583 -0.50509715 -0.58676213 -0.13752627
-0.2864437 0.22243273 0.70442635 0.35799262 -0.12794535 0.6626392 -0.600237 0.014072678
-0.9893961 -0.00495817 0.0028485493 0.02929621 -0.5662588 0.6873496 0.4197444 -0.43086678
0.17282762 -0.16080292 0.14609307 1.2348583 0.40514374 -0.33682072 0.021008449 1.0188367
-0.4542823 0.31535652 -0.053958263 -0.43021467 -0.9648696 0.49424592 0.7802607 0.19364697
0.6096316 0.20463674 -0.103178814 -0.5690478 -0.5282506 -1.1991063 -1.276739 0.2111639
-0.34284678 0.5079112 -0.03233812 0.27137125 -0.26173535 0.41570163 -0.39073446 -0.53821594
-0.10729899 0.7991167 0.45514312 -0.35837448 -0.78602165 0.26223192 -0.75646794 -0.3032616
0.13295503 -0.87449044 0.16717124 0.45387337 0.17535616 -0.56802815 0.8913601 -0.6055527
0.61612487 -0.5567636 -0.8192613 -0.25771895 0.09824329 0.9608923 1.2854294 0.56656086

feature.weight_hh_l0 f4 [512, 128]
00000000: 7455 be3e d02e 8dbd 2cd7 f13d c045 d5be
00000010: 513b 8abe 2d7e ba3f e1b2 31bf be7a 163f
00000020: f951 653f 5f51 fc3e 00e6 943d 19c4 0bbf
00000030: 99ca 933e 40f6 833e c94b 09bf ffd0 923d
00000040: a706 093f c0a1 043f 362d 8ebe 650e 8d3e
00000050: d78b c43d fea2 85be ca8b da3e d108 e6bd
00000060: 1f28 813e ab1a 67bf 5f89 08bf 8f02 dd3e
00000070: 58cb c5be a8bf 78bd 9d96 d0be 1786 373d
00000080: 4386 b93f 0954 f2bd 0cdd bcbd 4f15 2a3e
00000090: 448c 63bf 0840 b1bd 48e0 0cbf aa81 0fbf
000000a0: d8ec 03be be17 0cbf 6e47 9cbe c62b 883e
000000b0: f8a0 ad3d bc19 37be 3796 5ebf 78db 88bf
000000c0: c49e 733f d6c6 27bf f0b6 d43d ed48 7abc
000000d0: e6a0 8e3e 68f8 f33e b919 7f3f a816 19be
000000e0: aea1 0d3e 312e bfbd 08d9 f9bc 3bb4 99bd
000000f0: b48a 27be f17c 72bf 4468 d43d 3162 05bf
00000100: 4490 40bf 13ac 6fbc d0f4 16be cf38 f13c
00000110: 6252 a33e 6da0 d93a 9397 cfbd 5f2c 053e
00000120: 1643 b23d 245a cf3d 7ce5 9ebe 1910 5b3f
00000130: 3b7f 0abf 2f01 173a 7a82 89be eefc c3be
00000140: b2cd 0abf 10f9 343e dc44 10bf 5098 623f
00000150: 5bf9 1ebf 4d45 abbe 44d5 7cbf 7f23 0ebf
00000160: d31b 80bc 70af 42be d7bf a73c cc95 9c3c
00000170: e1d2 d1be f44f 203f 174e 4ebe 017b 83be
00000180: 1cdf f4be 795b cbbe 3ae3 f1bd 5efc 5e3f
00000190: 0fed 823d 796e 043e 2fe8 2cbe cad5 9bbe
000001a0: 1598 b03f acd9 89be 0db6 dabe 97e1 1f3e
000001b0: 7c00 48be 5617 38bf c885 ea3d aa61 f63e
000001c0: 07a1 9f3c 425c 363d b441 233c b0da b03d
000001d0: 7c7c cebe 60a4 dc3e 65fc 0e3f eaab 103f
000001e0: d77e 893e f473 14be c197 cbbd 4374 f73e
000001f0: 40e0 da3e 167d e1bd 198c 3a3f 59b9 2abf
00000200: 5402 3c3f ed1c 333e d0c8 473f 5274 2a3f
00000210: de82 cc3e 445e 1ebe 4f9d 24be 01f1 863e
00000220: 88d6 1fbf c289 68bf 3297 0f3f 5ed2 c23e
00000230: 5ffb 9d3e ab62 50be 9702 8f3e f281 9a3e
00000240: 2f95 493f 20aa a53c 2772 e4be 6355 033f
00000250: 94a9 d9be 7dd4 bdbe db2d a23e 01d8 89bc
00000260: 4a37 85bf 2931 e9be 9d47 f7be eadd 34bf
00000270: 3aff a9be f176 2c3f 6e78 0fbc 2e64 26be
00000280: 59a4 e0be 8722 f93e 5983 66bd 024f 393f
00000290: cd2b 5a3d 268f 54be 353d 913e b052 ad3e
000002a0: 74a1 1dbf 97d3 783e dd6b a0be 604e 353f
000002b0: dafa 353f 09d7 983f 863b 53bf 355a 0dbd
000002c0: 6cbe 5ebd 9387 a63e d60d 50be f693 12bf
000002d0: 0abc ddbd 4a83 853d f818 b53e a5f1 86bd
000002e0: 42d5 453f 0a0e 863e bcc0 c63c f69a b33c
000002f0: fb0f 89bf 0475 ca3e 9334 af3e 2297 6abe
00000300: af5b 08bf 0a1e 3e3f 15c5 e2be 113f 1bbf
00000310: 16e0 47bf 2ebd c33e a1b3 343e 881f 893f
00000320: 6915 413f 4cf6 4f3f 2874 a5be 5251 623b
00000330: 38cc 69bf 6845 1fbe c7b5 50bf 6290 b93e
00000340: 35eb cbbc 3c24 a8be dbca 713f 0376 05bf
00000350: 8fa7 ac3d 665c 463f 49b7 2dbf aa08 3a3f
00000360: 2d40 1a3e e7fe 563f 464f 1abf b3d5 01bf
00000370: 9156 2e3f 6b98 61be a6e8 7f3f a087 2cbe
00000380: dbcd f23c 0ac6 fcbe a415 b43e 6c1c 3e3e
00000390: 8add ee3e 4e76 943c 8615 51bf b8a5 743e
000003a0: 380c 97bf 6323 403d 3ac1 4fbf 2b9b f9be
000003b0: ac5b 58be 599f 473f 4b5d 473e 160f 5cbe
000003c0: fffd eb3e 1611 4dbf 76a5 09bf ee0d d9bc
000003d0: 25dc 093e 4e4b 4abe d76a ab3d 30f6 c93c
000003e0: 27ee 47bf 6901 a13e 74bc 4d3f 65d0 0fbf
000003f0: 378d a1be c891 75be ee5e 4a3e 6d40 39bf
0.3717457 -0.068936944 0.11808619 -0.41654778 -0.2699838 1.4569756 -0.6941357 0.5878104
0.89578205 0.4928083 0.072704315 -0.54596096 0.28865507 0.2577381 -0.53631264 0.07168769
0.53525776 0.5180931 -0.27768868 0.27550045 0.09596985 -0.26100916 0.42684776 -0.1123215
0.25225922 -0.9027507 -0.5333461 0.43166015 -0.386317 -0.060729653 -0.4073991 0.044805612
1.4494098 -0.11832435 -0.09221849 0.16609691 -0.88885903 -0.08654791 -0.55029726 -0.56057227
-0.12883317 -0.5472373 -0.30523247 0.26595896 0.08477968 -0.1788091 -0.8694796 -1.0691977
0.9516413 -0.65537775 0.10386455 -0.015276176 0.2785713 0.47650456 0.99648625 -0.14950049
0.13831207 -0.09334982 -0.030498996 -0.07505079 -0.16361505 -0.94721895 0.103714496 -0.52102953
-0.7522013 -0.014628428 -0.14741826 0.029446034 0.3189879 0.0016603597 -0.10136332 0.13005207
0.08704202 0.10124615 -0.31034458 0.8557144 -0.5410039 0.0005760369 -0.26857358 -0.38278908
-0.54220116 0.17673135 -0.5635507 0.8851366 -0.62099236 -0.3345131 -0.9876292 -0.5552291
-0.015638268 -0.19012237 0.020477219 0.019114397 -0.409812 0.62622 -0.20146976 -0.25679782
-0.4782647 -0.39718226 -0.11810918 0.8710383 0.063928716 0.12932767 -0.16885446 -0.30436546
1.3796412 -0.26923883 -0.4271702 0.156134 -0.19531435 -0.7191061 0.11451298 0.48121387
0.019485964 0.044521578 0.009964395 0.08635461 -0.4032935 0.43094158 0.55853873 0.5651232
0.26854584 -0.14497358 -0.09941054 0.48330888 0.42749214 -0.110101864 0.7287002 -0.6668907
0.7344105 0.17491503 0.7804079 0.6658374 0.39943594 -0.15465647 -0.16075633 0.26355746
-0.62436724 -0.908352 0.5609008 0.38051122 0.30855843 -0.20350139 0.27931663 0.30177265
0.7874326 0.020222723 -0.4461834 0.51302165 -0.4251219 -0.37076178 0.3167561 -0.016826632
-1.0407498 -0.4554532 -0.48296824 -0.70651114 -0.33202535 0.6736899 -0.00875674 -0.16249153
-0.43875387 0.48659155 -0.056277607 0.7238618 0.053264428 -0.20757732 0.2836701 0.33852148
-0.6157448 0.24299465 -0.31332293 0.70822716 0.71085894 1.1940624 -0.825127 -0.034509856
-0.05438082 0.3252531 -0.20317778 -0.5725702 -0.10826881 0.06519182 0.35370612 -0.06589059
0.7727853 0.26182586 0.024261825 0.021924477 -1.0708002 0.395424 0.34219798 -0.22909215
-0.532649 0.74264586 -0.44290987 -0.60643107 -0.78076303 0.3823027 0.17646648 1.0712748
0.75423294 0.81235194 -0.32315183 0.0034533334 -0.9132724 -0.1555382 -0.8152737 0.36242968
-0.024892429 -0.32840145 0.9445016 -0.52133197 0.08430397 0.7748474 -0.67857796 0.7266947
0.15063544 0.839827 -0.6027721 -0.50716704 0.6810084 -0.22030799 0.9996437 -0.16848612
0.029639175 -0.49369842 0.3517276 0.1856553 0.46653396 0.018122818 -0.8167347 0.23891342
-1.1800604 0.046908747 -0.81154215 -0.48751196 -0.2112872 0.7797752 0.19469182 -0.2149013
0.4609222 -0.80104196 -0.537681 -0.0264959 0.13462885 -0.19755289 0.083699875 0.024653524
-0.78097767 0.31446388 0.8036568 -0.5617736 -0.3155305 -0.23981392 0.19762775 -0.7236393

feature.bias_ih_l0 f4 [512]
00000000: 6805 a23d 3dae 483f d8f2 763f 2156 523e
00000010: 0814 cbbe ffa0 8d3e 1fb3 453d c4d3 bd3f
00000020: 1c57 9a3d 16dc e83e 3684 3c3f aee1 9a3e
00000030: 7d00 8e3f fadf e53e 4e47 9fbd 6412 5f3f
00000040: 99c8 1bbe 7d9a be3d d664 5ebe 53b5 5cbe
00000050: 8c98 d63e 311c 9e3d f21e c4be 53b6 813f
00000060: 3e63 24bd 26e3 d13d 2357 533e 6057 693d
00000070: b974 6a3e 8c2b eabd cd47 9bbc 8096 863d
00000080: b15d 893e 9c0f 233f 1551 443f b05e 1fbd
00000090: 1354 fd3e 9a17 f2be 0f45 4dbe ecf8 563f
000000a0: 6c76 3ebd 75b0 25be d072 0d3f 2069 4a3e
000000b0: bdac 083e adc4 b13c 9e46 01be 6234 6a3e
000000c0: e73d 3c3f d2cc 26bd 59a4 123f 4d26 6c3d
000000d0: 512c d53e 7d52 523d 8d61 aabe 9f4b 153e
000000e0: ef43 8c3f 6341 0ebd 7991 b33e df36 afbd
000000f0: 1042 38be 2f07 e33d 074e 473c 1bde 5dbd
00000100: 68ba acbd 48ae ed3e c805 183f cd09 5a3f
00000110: cb60 e43d 2f3e 1e3d 14ed bb3e 2d05 23be
00000120: bf29 703d 7e99 8b3e 1572 173e 818a 753e
00000130: a498 183e d1dc a2bd ea3a a03c 80c6 be3e
00000140: 6ef7 f0bd 439e c53e 6f33 1c3e d79b b5be
00000150: 9c92 1e3f 18c3 45be a6d0 a33e d160 5cbe
00000160: 637f d4bd ce2a 28be 4682 c23c b19a edbd
00000170: caaa febd 4513 033f 8ba0 523e 1ff5 343f
00000180: 654b 603f f224 d33d 96e3 adbe 759e 903e
00000190: df99 6cbe c928 433e 5ded 063f 0a99 f4bd
000001a0: 358e c83d 7ac7 083f 45e2 21be 0c81 583e
000001b0: 69eb 6cbd 6f02 bdbe 63f8 13be 1b94 ff3d
000001c0: fa80 983c 0f51 43bd deb9 50bd dde6 9f3d
000001d0: f00c 9b3e 13fa 2cbd 61b6 b93e 3f63 183f
000001e0: 4c14 30be e623 173f 1b42 843e f614 9dbe
000001f0: 183d 653e a4b8 3a3e 01da 91be 38e1 5d3e
00000200: a49e b3be ebe8 27bf f01b 0dbf 45de d23e
00000210: 8bbf 5cbd 4ae2 2e3d 4364 bd3d 4624 903e
00000220: b7b5 333d de98 50be ead8 2cbf 4a26 59bf
00000230: f268 a0be a0f0 80bc a802 82bd 82da bc3e
00000240: 24d7 70be 952d c43a 987f 7ebd 43ba 043f
00000250: 9884 e73e 6f86 35be ae9e 91be 88fc 75bd
00000260: 8b65 d5bd f2fc 3ebd 9810 d73c b7c7 01be
00000270: 7101 b9be 1d21 3cbd 5667 02bf 2d2d ccbe
00000280: 26ac a0be da22 17bf 801d 5ebe 2a4b 613d
00000290: a80e 69be 2b8a 54be 5ca2 d0bd b824 47bf
000002a0: efe7 933e 0863 9abe ed70 00bf 108b 4fbe
000002b0: f933 33bf ca25 ffbe 2ac2 c3be 29f1 4cbe
000002c0: 46f4 22bf 047e d3bc 1640 91be 0245 5abd
000002d0: b090 a9be 63c4 33be 505c 7dbe 50b5 8d3e
000002e0: 1fcd 8fbe b85c bebd fde2 05be 67b4 bc3d
000002f0: e532 d6bd 2626 97be f016 1a3e 61a3 bdbe
00000300: e046 a1bd 5fe4 1d3e d7b8 4dbe 222f 91bc
00000310: 38b1 d6be bd54 163e 934e 61be e16d 973d
00000320: 70d6 ac3d f676 e5be 9078 72bd fa27 5ebe
00000330: ff4a 08bf baa5 3cbe b715 a1bd 2841 71be
00000340: f726 a53d 1fad 82be aa0b d8be 774d 7ebe
00000350: aa61 e5be bb38 6bbe 604a cbbe 41ac 9cbe
00000360: 89a3 1cbe c2a7 8bbe 59fb 17bf e0cf 3dbf
00000370: 083b e13d d2ac 45be bb9c a1be 549a 37bf
00000380: 3ba0 9ebe e62d 7cbe 45b7 a63d 4c2a fabe
00000390: efd4 3c3c 061a 2ebe 98f7 9cbe 6ca2 94be
000003a0: 5ac7 dabd b268 7bbe ecfe dfbe 1735 d8bd
000003b0: 6254 89bc 99d5 753e 8ee4 4bbe 170b 703e
000003c0: 9545 1a3e 2506 b9be b4f7 f03d 56fe 1d3f
000003d0: 5c22 963e afeb 71be 21f7 05be f0f0 133f
000003e0: d60c 84be 313e 08bf 7a5d 2dbd 93e3 f73c
000003f0: 7e51 33be 5195 283e 703b 673d 063d 95be
0.079111874 0.78390867 0.964643 0.20540668 -0.3966372 0.27661893 0.048266526 1.4830251
0.07536146 0.45480412 0.7363924 0.30250305 1.1093899 0.44897443 -0.07777272 0.87137437
-0.1521324 0.0930681 -0.21718153 -0.21553545 0.4191326 0.07720221 -0.3830486 1.0133766
-0.040133707 0.10248403 0.20638709 0.056968093 0.22896089 -0.11434087 -0.018955136 0.06571674
0.26829293 0.63695693 0.7668622 -0.03890866 0.49478206 -0.47283632 -0.20045875 0.83973575
-0.046499655 -0.16180594 0.55253315 0.19766665 0.13347144 0.021700228 -0.12624595 0.22871545
0.73531955 -0.040722676 0.57282025 0.057653714 0.41635373 0.0513482 -0.3327755 0.14579628
1.0958232 -0.034730326 0.35071924 -0.08555388 -0.17993951 0.110853545 0.012164599 -0.054166894
-0.08433992 0.4642203 0.5938382 0.85171205 0.11151274 0.03863352 0.36704314 -0.15919943
0.058633562 0.27265543 0.14789613 0.23978616 0.14901978 -0.07952274 0.019559342 0.37260818
-0.117659435 0.38597307 0.15253995 -0.3547046 0.6194246 -0.19312704 0.31995124 -0.21521308
-0.103758596 -0.16422579 0.02374376 -0.11601771 -0.12434919 0.5120128 0.20569055 0.70686525
0.8761504 0.10309781 -0.33962697 0.28245893 -0.23105572 0.19058527 0.5270594 -0.119432524
0.09792749 0.5342938 -0.15808971 0.21142977 -0.057841692 -0.3691592 -0.14450221 0.12479421
0.018616188 -0.047684725 -0.050958507 0.078077056 0.30283308 -0.042230677 0.36271957 0.5952644
-0.17195243 0.5903915 0.25831684 -0.30680054 0.22386587 0.18234497 -0.28486636 0.21667945
-0.3508197 -0.6558978 -0.55120754 0.41185203 -0.053893607 0.042696275 0.09247639 0.28152674
0.04387447 -0.20370814 -0.67518485 -0.8482405 -0.31330067 -0.015739739 -0.06348163 0.36885458
-0.2351957 0.0014967198 -0.0621334 0.5184671 0.45218349 -0.17727064 -0.28441375 -0.060055286
-0.104197584 -0.046627946 0.02625303 -0.12673841 -0.36133912 -0.045930017 -0.5093893 -0.39878216
-0.3138134 -0.59037554 -0.21690941 0.055003323 -0.22759497 -0.20755832 -0.101872176 -0.77790403
0.2888789 -0.3015368 -0.5017231 -0.20267892 -0.7000118 -0.49833518 -0.38234073 -0.2001387
-0.6365398 -0.025816925 -0.28369206 -0.053288467 -0.331182 -0.17555384 -0.24742246 0.27677393
-0.28086182 -0.092950284 -0.1307487 0.092140965 -0.10458926 -0.29521292 0.15047812 -0.3703871
-0.078748465 0.15419148 -0.20090042 -0.01772267 -0.41932082 0.14680763 -0.2200263 0.073940046
0.08439338 -0.44817322 -0.05919701 -0.21694937 -0.53239435 -0.18422595 -0.0786547 -0.23560011
0.080640726 -0.25522706 -0.421964 -0.24834238 -0.44801074 -0.2297086 -0.3970518 -0.3060017
-0.15296759 -0.27276427 -0.593679 -0.7414532 0.109975874 -0.19304207 -0.31564888 -0.7171986
-0.3098162 -0.24626884 0.08140425 -0.48860395 0.011525377 -0.17002115 -0.3065765 -0.29030168
-0.106825545 -0.24551657 -0.43749177 -0.10557001 -0.01676387 0.24007262 -0.19911405 0.2344173
0.15065606 -0.361375 0.117659956 0.6171621 0.2932309 -0.23625062 -0.13082553 0.57789516
-0.25791043 -0.53219897 -0.042325474 0.030259883 -0.17511556 0.1646321 0.05645317 -0.2914812

feature.bias_hh_l0 f4 [512]
00000000: c68b bf3c c80c 4f3f 3328 6a3f da91 0f3e
00000010: b971 a5be b6c9 233e 3185 e6bd db17 bc3f
00000020: aaa0 4d3e f9e6 e73e f04b 323f 7f66 a13e
00000030: 1117 893f 666d e93e 3fed 29be bc50 6e3f
00000040: d5b9 39be 0564 653d a309 75be 4ca8 93be
00000050: 540f cf3e fe42 c3bc d8f2 b0be 18f3 6c3f
00000060: 7bb4 d2bd 2007 1c3e 12bb 383e 9838 0dbd
00000070: 1338 363e 85fd 0abe 53f6 5f3d 88b7 153e
00000080: ce0c 913e 472e 353f d67b 4a3f a828 11be
00000090: 746c 043f b66a d5be 13f5 4dbe 0b7e 5d3f
000000a0: 9e62 e7b8 38f6 07be 5e21 0f3f 96fb 1c3e
000000b0: 1410 9f3d 31d3 9e3a d931 e3bd d759 7c3e
000000c0: 3f6e 233f e976 fbbd 5271 013f 0245 c43d
000000d0: 2a36 bc3e 2c73 0c3d 6932 a1be 4c1e ef3d
000000e0: 171a 883f 0116 37be f41a ab3e fe9a 5f3c
000000f0: 240a debd f367 a43e ee22 92ba 43be d7bc
00000100: 09c8 6a3d 7ce8 e53e 1a72 483f 478c 763f
00000110: 8d60 653e 5b0c 92bd 8fbb a13e 6000 12be
00000120: fbd3 7a3d b0ba b03e b564 6d3e 1f0b a03e
00000130: b45f 553d d4de efbd da08 0c3d 59d5 8d3e
00000140: c7e8 f6bd b58e c73e 3fb3 763d 0bf3 30be
00000150: 37c0 ac3e 7312 81be 5bb8 913e 31c7 21bd
00000160: e1bd c4bd 86ac 02be 0432 c3bd d46e 80bd
00000170: d429 9bbd c43f 0f3f 7e02 5e3e bf64 2d3f
00000180: 085b 563f 5f10 063e 80e7 bfbe 1efd 133e
00000190: 3bc8 b0be 0ae7 903e 4fbe 0b3f 3806 98be
000001a0: e57d 013e 24a2 053f c766 e8bd dbdd d6bc
000001b0: 40d5 35bd a299 9dbe 4b5f 14be db1f b7bc
000001c0: 6bd4 303e 4a4c 8fbd b815 33be d746 8a3e
000001d0: 7083 a43e a31b 6c3d c24e e23e 982e 343f
000001e0: 8b61 babd bf3c 2b3f d955 7f3e 6b9f c7be
000001f0: a947 8a3e 96b5 443d 8ba7 91be 1975 6b3e
00000200: dec8 d2be 1200 11bf 2a8e 08bf 4d5d a73e
00000210: 7081 a2bd ebd9 fd3c 7c52 1c3e f815 ab3e
00000220: 8155 4dbc 239d 1bbe 1ae5 34bf 21a2 44bf
00000230: 274f 4dbe 6516 48bc a9f3 bf3b 2595 f33e
00000240: 1308 50be bdd8 18be a754 8b3d c37f ea3e
00000250: af6c 123f 5373 62be 1b2c 27be fc1d 07be
00000260: d452 c8bd f926 52bd d942 b4bd ff4f 0abe
00000270: 8141 d9be 47b7 debd f8b4 fbbe df53 a3be
00000280: 2ac3 f7bd 8030 1abf 4563 28be 698e 6d3b
00000290: 3572 9cbe bc6f 82be db7f bbbd daf7 31bf
000002a0: df44 223e a49c a3be e963 07bf 00d4 68be
000002b0: b7cd 07bf 49c4 04bf 887d f4be 4998 64be
000002c0: 7f81 33bf 0d6d ccbd 1792 7dbe ab52 c3bd
000002d0: cbb2 b2be 6511 71be 30db 74be 0aa6 1a3e
000002e0: c305 dfbe f24d a8bd 59c5 fbbd 7422 c9bc
000002f0: 2123 56be bed2 b1be 8daa 283e 293f acbe
00000300: bda7 a13d 7148 153d ae14 85be c961 e6bd
00000310: 7cca bbbe 44aa 0d3e 8f6b a9be e094 273e
00000320: ed71 a23e abfe e6be 53c8 0fbd 1f63 14be
00000330: 29f2 24bf 8286 55be 97fa 6fbe d726 64be
00000340: 32ea d03c d840 d6be 39fe cdbe 07c2 4fbe
00000350: 236e d9be 14ab dfbd 61a8 d6be f7ec b9be
00000360: cf7c 30be ce73 90be 9b1d 36bf 81ca 35bf
00000370: f70d 75bd a791 1dbe cec2 d5be c7a0 1fbf
00000380: 6219 acbe 7f5d 89be 7191 083e d746 02bf
00000390: 921b 803d ce9d 85be 184c 87be 54c9 7ebe
000003a0: d65f 14be beff 70be c7f7 cabe 010f a7bd
000003b0: d1ad d03c facd a73e 4158 67be efe1 5a3e
000003c0: a58d 163e c349 6dbe 0fbb 0b3e ce7e 143f
000003d0: c61e 963e 9064 bfbd 3d5e bfbd af85 093f
000003e0: d76e 3bbe 3375 1dbf 4eb4 df3c 5166 67bd
000003f0: 58f1 46be daa9 493e 32b7 9b3d 06bd 75be
0.023382079 0.8087888 0.9146759 0.14020482 -0.32313326 0.15994915 -0.11255873 1.469478
0.2008082 0.45293406 0.6964712 0.3152351 1.0710164 0.45591277 -0.16594408 0.9309194
-0.18137296 0.05600359 -0.23929457 -0.28839338 0.40441382 -0.023835655 -0.34560275 0.9255843
-0.1028833 0.15237093 0.18040112 -0.0344778 0.17794828 -0.13573273 0.054678272 0.14620793
0.28330082 0.7077374 0.7909521 -0.14175665 0.51727986 -0.41682976 -0.2011302 0.8652045
-0.00011033307 -0.13277519 0.5591029 0.15330347 0.077667385 0.0012117383 -0.11093492 0.24643646
0.638401 -0.1227854 0.5056354 0.09583475 0.36760074 0.034289524 -0.31483772 0.116757005
1.0632962 -0.17879488 0.33419 0.013647793 -0.10841778 0.32110557 -0.0011149326 -0.026335841
0.057319675 0.44903934 0.78299105 0.96307796 0.22400112 -0.07131263 0.31588408 -0.14257956
0.061237317 0.3451743 0.23182948 0.31258485 0.052093223 -0.11712423 0.03418813 0.27701834
-0.120561175 0.38976064 0.060229536 -0.17280214 0.33740398 -0.25209388 0.28460965 -0.039496604
-0.09606529 -0.12761125 -0.09531024 -0.06271139 -0.075763375 0.55956674 0.21680638 0.6773185
0.8373265 0.13092183 -0.37481308 0.14452025 -0.34527764 0.2830127 0.5458726 -0.29692245
0.12645681 0.5220053 -0.11347728 -0.026228836 -0.044392824 -0.30781275 -0.14489476 -0.022354057
0.17268531 -0.06996973 -0.17488754 0.27007172 0.3213153 0.057643544 0.44200712 0.70383596
-0.09100636 0.66889566 0.24935092 -0.38988814 0.27007797 0.048024736 -0.28448138 0.22993888
-0.41168875 -0.5664073 -0.53341925 0.3268837 -0.079348445 0.0309877 0.1526584 0.33415198
-0.012532593 -0.15196662 -0.7066208 -0.7680989 -0.20049725 -0.0122123705 0.005857904 0.47574726
-0.2031558 -0.14926429 0.068032555 0.458006 0.5719709 -0.22114305 -0.16325419 -0.13195032
-0.09781423 -0.0513067 -0.08801813 -0.13507079 -0.42432788 -0.10874801 -0.49161506 -0.31899926
-0.120977715 -0.60230255 -0.16444118 0.0036248213 -0.30555883 -0.25475872 -0.09155246 -0.69518816
0.15846585 -0.31955445 -0.52886826 -0.22737122 -0.5304827 -0.5186201 -0.47752023 -0.22323717
-0.7011947 -0.09981737 -0.2476276 -0.09537252 -0.34902033 -0.23541792 -0.23911738 0.15102401
-0.43559083 -0.08217992 -0.122935005 -0.024552561 -0.20911838 -0.34731096 0.1647131 -0.33641937
0.07893322 0.03644604 -0.2599234 -0.1124912 -0.3667792 0.13834482 -0.33089873 0.16365385
0.31727543 -0.4511617 -0.035103153 -0.14490937 -0.6443201 -0.20852092 -0.23435436 -0.22280441
0.025502298 -0.41846347 -0.4023302 -0.2028886 -0.4246684 -0.109213024 -0.41925338 -0.36313602
-0.1723511 -0.28213352 -0.71138924 -0.7101212 -0.05982777 -0.15387593 -0.41750187 -0.623547
-0.33613116 -0.26829144 0.13336731 -0.50889343 0.062552586 -0.26096958 -0.26425242 -0.24881488
-0.14489684 -0.23535058 -0.39642164 -0.08157159 0.025473507 0.32774335 -0.2259226 0.2137525
0.1470247 -0.23172669 0.13645576 0.5800599 0.29320353 -0.09345353 -0.093441464 0.5371961
-0.18304001 -0.61506957 0.027307656 -0.05649406 -0.19428003 0.196937 0.07603301 -0.23997888

feature.weight_ih_l0_reverse f4 [512, 64]
00000000: 252f 253f 65c9 2c3f d0e9 f1be ae17 1dbf
00000010: 38b3 a3be 0b50 20bf f0aa 38be 1114 f23e
00000020: 4709 24bf 3f85 fc3d 0428 e13e a821 c33e
00000030: ed8a db3e 5dc2 43bf 8ee7 4dbf a333 bebe
00000040: 090a 2dbf 5e25 c43d b09b 913f 00f7 0abe
00000050: f468 a7be 001d 02be 6801 0ebf 7a8b 7e3f
00000060: 6a83 a0be 7bc0 01bf cd36 a13e cd0b 853f
00000070: babe 02bf c345 ea3e 6b81 6c3f a6c8 95be
00000080: 8610 3f3e 92e2 4c3f 3e00 86be 6f2b c13d
00000090: 22cc 9b3e 2b5d e73e 73db 1dbe 2a29 663e
000000a0: 957f 403e 338c b4bf ec12 5ebe 99c2 53be
000000b0: 0d8f 1c3f e03e 01bf 5336 2e3f d1fb 57bf
000000c0: a88a f5bd 841d 9dbe 5c29 fb3d e234 8b3d
000000d0: 71ea 50bf 6b74 19bf f334 983d 2f54 a6bd
000000e0: e1fb babb 66d3 16bf 0c58 243e 32f6 ebbd
000000f0: a336 5b3e b49e 2e3c a703 783d 2415 10bd
00000100: 4bdd b63c 19d6 10bd d9fc c3be 4c04 173f
00000110: 6846 b6be fde7 303e a7df b93e 6279 ae3e
00000120: 18ec 253e 3294 07bf f69b 26bf 7edf 0cbf
00000130: 5914 58bf 7d6b 413f d550 79be 8d0a 77bf
00000140: af9d 073e 9781 79bf 686d 0f3f ef6d 1cbe
00000150: 772a c43e 2e83 afbe e2de 8bbd 929c 63be
00000160: a9ab cdbd 156d 583f 9925 4c3c 72e8 573f
00000170: 8394 cbbe 7e2e b53e 56cb 26be b436 033d
00000180: ea19 0ebe c36e 01bf 7452 303f f4aa 8c3f
00000190: 1d66 30bf 2a61 40be 3175 ad3e 193f 133f
000001a0: ea52 163e 1974 15be 1515 2d3f ed70 9d3b
000001b0: 3230 d43e 0813 813f 65c4 e7be 13fb ee3c
000001c0: 826b dcbb 1398 12bf 4d46 2bbe d65d 6b3f
000001d0: b020 f2bd 919c 89be 1eb8 c8be 9de6 70bf
000001e0: 3425 5e3f b4b4 eabd bded debe 939c a1ba
000001f0: 8a2c 33bc bd9e 81be dd77 0d3f 3384 053f
00000200: 5db5 cd3e 08e2 66bf 3c75 80be de57 02bf
00000210: f359 223f 7d0a 863e 19d0 c7be a7f8 7dbc
00000220: 92cf cbbe f573 15bf 1e49 973e 34a9 c03e
00000230: 6c48 18bd 7b59 ccbe 638e d43d 2598 b43e
00000240: f501 8aba 2d15 8b3e 5238 35bf 0195 763f
00000250: ba9e b2be 31d3 423f 6ad5 c8be d015 413f
00000260: 7211 46bd 04bf 8f3e 84c4 ebba a0ad 353f
00000270: 201f 03be 820f 0e3f b2f0 413f 60f5 ab3d
00000280: 27b8 333f f442 a33e 4c2f a0bf 545b 21bf
00000290: ba90 07bf 3fa5 55bf 660a 99be b9f1 e4bd
000002a0: ab3f 2abe 4b6e 8cbe cdfa 19bf 2d67 a2be
000002b0: f136 243f 70c6 13bf 4fef 603f aedb a93f
000002c0: 1bc3 493f 4b60 3f3f eccc 3a3f 9ac9 4ebf
000002d0: 93d1 7e3e 4544 1e3f 50d9 28bf b450 38be
000002e0: 8b9e f6be 18eb b13b 4a5a 5dbf cb3e 233e
000002f0: 636d a4bd fd5b 503e 7bef 50bf 9b81 c33d
00000300: a7ae 0a3e 568c 0fbf 39a3 32bf 29e4 033f
00000310: 6248 e0be 2014 62bf a20a e13e c0b3 69be
00000320: f55a 3b3f 6d9e 2fbf 6de5 013f d312 9c3b
00000330: ec07 71bc 3eff ecbe 6d72 a13e 3403 7ebf
00000340: 400d 0e3e 971c e7be 55a6 f83e 2579 393f
00000350: 4b02 573f c0e5 16bf aa00 a13f c8bf 933e
00000360: ddfe 65bf ec3e 903e 1a01 3abe 147b 97bd
00000370: 2be4 9ebe 839a 213f 8460 423f ef5e f3be
00000380: 7a77 7dbf c92e 5b3f 1ec7 883f b847 73bf
00000390: 34c0 fe3e fd44 903d b81d 93be 4dd3 a8be
000003a0: 2bfc 85be 7e46 a9be 1be0 d53f a523 e1be
000003b0: d180 a5be 2319 7abd fa58 f1be 7c1e a2bd
000003c0: c3ed eb3e 4056 103f 4691 f3be 0ce8 dd3e
000003d0: cb16 813d dcb2 dcbe 6413 e7be ea09 95be
000003e0: 0587 5abf 0cb6 c23e 8ec5 20bd 6f33 55be
000003f0: 95f2 8c3e 6435 c6bd 60a1 df3e c0c4 c9be
0.6452506 0.67494804 -0.47248697 -0.6136426 -0.3197267 -0.62622136 -0.18033957 0.47280934
-0.64076656 0.12330102 0.43975842 0.38111615 0.4287943 -0.7646845 -0.8043145 -0.3714877
-0.6759344 0.0957744 1.1375637 -0.13570786 -0.3269726 -0.12706375 -0.55470896 0.99431574
-0.3135026 -0.50684327 0.31487122 1.0394226 -0.51072276 0.4575635 0.92384976 -0.29254645
0.18658647 0.8003322 -0.2617206 0.094321124 0.30429178 0.4518827 -0.15415744 0.2247664
0.18798669 -1.4105285 -0.21686906 -0.20679702 0.6115578 -0.50486565 0.6805164 -0.84368616
-0.11989337 -0.3068658 0.12263748 0.06797196 -0.8160773 -0.59943265 0.07431974 -0.081215255
-0.005706296 -0.5891632 0.16049212 -0.115215674 0.21407561 0.010657955 0.06055036 -0.03517641
0.022322318 -0.03536043 -0.38278845 0.5899093 -0.3560059 0.17275997 0.36303446 0.34076983
0.16203344 -0.52960503 -0.6508173 -0.5502852 -0.8440605 0.7555464 -0.24347241 -0.96500474
0.13243745 -0.97463363 0.56026316 -0.15276311 0.38313648 -0.3427977 -0.06829621 -0.22227696
-0.10042507 0.84541446 0.012460136 0.8433906 -0.39761743 0.35387033 -0.16288504 0.03203459
-0.13877073 -0.50559634 0.68875813 1.0989671 -0.6890581 -0.18787065 0.33878472 0.57518154
0.14680067 -0.14595069 0.67610294 0.0048047216 0.4144302 1.0083933 -0.45267025 0.029172456
-0.006726683 -0.57263297 -0.16726036 0.9194006 -0.11822641 -0.26877263 -0.3920297 -0.9410189
0.8677552 -0.11460248 -0.43540755 -0.0012329988 -0.010935912 -0.2531642 0.5526102 0.52154845
0.40177432 -0.90188646 -0.25089443 -0.50915325 0.634185 0.26179877 -0.39025953 -0.015501178
-0.398068 -0.5838006 0.2954797 0.37629092 -0.037178442 -0.39912018 0.103787206 0.35272327
-0.0010529148 0.27164593 -0.7078906 0.9632111 -0.34886724 0.761035 -0.39225322 0.7542391
-0.04835648 0.2807542 -0.0017987643 0.70968056 -0.12804842 0.55492413 0.75757897 0.08396411
0.7020287 0.3188702 -1.2514434 -0.6302998 -0.5295521 -0.8345527 -0.29890746 -0.111789174
-0.1662585 -0.27427897 -0.60148317 -0.31719342 0.64146334 -0.57724667 0.87865156 1.3270166
0.7881333 0.74756306 0.72968936 -0.8077637 0.24884634 0.6182292 -0.6595659 -0.17999536
-0.48167834 0.0054296367 -0.86465895 0.15941922 -0.08028676 0.2034759 -0.8161542 0.09546205
0.13543187 -0.5607351 -0.6978031 0.5152002 -0.43805224 -0.8831196 0.43953425 -0.22822475
0.73185664 -0.68601114 0.507407 0.004762986 -0.014711361 -0.46288484 0.31532612 -0.9922364
0.13872242 -0.45139 0.485644 0.72450477 0.83987874 -0.5894432 1.2578328 0.28857255
-0.89842016 0.28173006 -0.18164483 -0.07396522 -0.31033453 0.6312639 0.7592852 -0.47533366
-0.9901043 0.85618263 1.0685766 -0.9503131 0.49756014 0.070444085 -0.2873361 -0.3297371
-0.2616895 -0.33061594 1.6709017 -0.43972507 -0.32324842 -0.06105913 -0.47138196 -0.07915971
0.46079835 0.5638161 -0.47571772 0.433411 0.063031755 -0.4310521 -0.4513198 -0.29109126
-0.85362273 0.38029516 -0.039250903 -0.20820402 0.27528825 -0.09678152 0.43677807 -0.3940792

feature.weight_hh_l0_reverse f4 [512, 128]
00000000: c66d c13e 8cf6 2ebe c3a6 f03e c7b5 03be
00000010: 0637 4ebf 8bc3 e03e e46c df3e ecab cc3e
00000020: ad18 98be 14d8 5e3e c071 843e f32a 823e
00000030: cc78 55bf 1cc7 80bf cfc7 70be 60ec af3f
00000040: 43e2 ffbd cdc3 b5be e264 143e 62c7 68be
00000050: 6b94 023f 245c 8b3d 6aca d73e 6c50 52bf
00000060: 46dd 1ebf 8475 883e 08bd 463e 36da d6bd
00000070: fa8e bf3d 3bcf 9c3e 02c4 5dbe df9e 1c3e
00000080: 38a6 aa3e 41d3 c63e 3f9e 95be 647a b53d
00000090: 6c7e 75be 264c 3fbf 2ee8 0abe 46ce 81be
000000a0: 7456 773e 0f73 fd3e d306 10bf 28c1 033e
000000b0: 7b2c 9a3e 1756 85bd 25a4 03be 7480 2dbe
000000c0: 272c ec3e 8753 acbe 6b16 513f e837 62bd
000000d0: e12b 8ebe 52f2 cd3e f0dc 9a3e 7f12 c0be
000000e0: 7f90 5c3c 4af7 cfbe 81d6 73bd 3332 29bf
000000f0: a1da 3dbe 3222 14bf e46d 8a3d ccfd e03e
00000100: d031 dc3d 5c9f 15be 2068 89be c5f3 13be
00000110: 4865 913e 8318 84be 5370 a33d 2b9d 183e
00000120: 72dd 983d 35eb 9bbe bd85 973b 0ebb 813e
00000130: ed31 9abe c3b0 1ebd c80e 4e3d af26 92bd
00000140: b2c9 653f b3e4 11bf 19dc 653d 39e7 25be
00000150: 72d1 133f cf8b 91be 7e5c 283f 7c98 0d3f
00000160: bc5e 0f3f ef9c cfbd c3b8 993e 5430 7d3e
00000170: 85eb 943e c059 c63e d5a1 ba3d 1174 803d
00000180: 1639 b53e 0ad1 66bf 2ed8 3cbf 65af 543f
00000190: ef8d 863e 60d2 ae3e f88c 123f f7ca 273f
000001a0: 1402 2fbf 0238 193f 4977 ae3e 1a12 b6bd
000001b0: 6a81 1abf 7b43 0abf a785 0b3e 0e3a 38be
000001c0: 2d8b 5e3e 02ce 34be 3667 adbe 2e93 8e3e
000001d0: 2477 9e3e 7257 ea3d 314d 40be 89c0 cc3e
000001e0: 3edd 103f 16d9 083f d493 d93e 324a b2be
000001f0: b38f 243e cf72 82be bfcf ff3e fc16 68be
00000200: 9ae4 d2be 8d6c 42be 8e52 983d 888e 0a3e
00000210: f362 273f 4e50 1a3e bbca 08bf 40b3 4d3e
00000220: 4510 38be e074 763e 779a 79be 9d2d c4bd
00000230: 499e 44be 1e08 77bd 668c 2cbf 739f bc3e
00000240: 6f09 9ebe 58cb 993f 73b1 aabf 2081 dabe
00000250: a24f 79be d53a 723e f570 1abe eee0 053e
00000260: 81f8 cdbd e4a9 de3e b374 443e 6773 d2bc
00000270: 4a6d 283f 3e61 113e 341a 903e a1e8 0b3f
00000280: 5e4c f73e 60f8 e2bd 628b 603e c9b7 ab3c
00000290: b971 e03e 5853 a2be a92e cfbe 04ea 58bf
000002a0: e097 553e ca57 fa3c b7e7 103d 6163 213f
000002b0: 0bf7 04be 4cf7 3bbe 9361 20bf ca75 afbe
000002c0: 47d8 4d3f 85de 1b3f 6fad 41bd cd27 09bf
000002d0: 78ae 27bf 0d52 553d 0812 05be c7a6 623f
000002e0: b3fd 013f 0208 1b3f b6db 37be f1aa ac3d
000002f0: 60ca 4b3f fc71 70be 1820 4dbd 0e11 61bd
00000300: 74e5 42be 8480 873d ffc9 393e 2cfd 113e
00000310: 175a b0be 2d46 4fbf 45d3 1c3f 006f 63bd
00000320: 5ec3 103f dd1e 1ebf 1286 0c3e 7ca2 cd3e
00000330: 9f7d fe3e ab1a cc3e 0806 c13d af5d b63d
00000340: 2cd9 e33b 42e9 113d ec06 543c cfcd 573f
00000350: f693 003f bdc3 2a3c 550d 7abd 5df4 a13e
00000360: d147 11bf ee9c 37bf b238 833e 050c c13e
00000370: a61e 513f fc32 5a3e 885a 523e c308 7dbf
00000380: db5a 003e 457b 63bf bdba 09bd 960c 98be
00000390: 6e2c 073f 48ce 2d3f 81ef fd3e 718f 87bf
000003a0: ca33 b73d aab5 013d 8319 39bf 354c 873f
000003b0: a998 273f 445c 7b3e cab3 0e3f a1c9 94be
000003c0: 6fa0 89b8 7339 c93d 013d cd3e d21e cd3d
000003d0: a3c5 3cbe 207b d23e 4c46 37be 9450 2cbe
000003e0: ef17 0f3e 3c96 23bc f80e babe 7540 c6bd
000003f0: 5304 e73d 770e e5be 2167 08be ec2e dd3e
0.37779063 -0.17086238 0.4700223 -0.12862311 -0.8055271 0.43899187 0.43637764 0.39974916
-0.29706326 0.21762115 0.25868034 0.25423393 -0.83387446 -1.0060763 -0.23513721 1.3744011
-0.12494328 -0.35500947 0.14491609 -0.22732309 0.5100772 0.06804684 0.42146617 -0.82153964
-0.62056386 0.26652157 0.19408047 -0.10490839 0.093534425 0.30626854 -0.21656802 0.1529498
0.3332994 0.3883305 -0.29222295 0.08861235 -0.23974007 -0.7472557 -0.13565132 -0.25352687
0.24154073 0.49501845 -0.5626041 0.12866652 0.3011206 -0.06510561 -0.12855585 -0.16943532
0.46127436 -0.33657476 0.8167483 -0.055229098 -0.27767852 0.40223938 0.30246687 -0.3751411
0.013462185 -0.40618354 -0.05953074 -0.6609222 -0.18540432 -0.5786468 0.06759241 0.43943632
0.107516885 -0.14611572 -0.26837254 -0.1444846 0.28397584 -0.2579995 0.079804085 0.14903705
0.07464112 -0.30452886 0.004624097 0.25338024 -0.30116215 -0.03874279 0.050307065 -0.071362846
0.8976089 -0.5698959 0.056118105 -0.16201486 0.57741463 -0.28426978 0.6576613 0.553108
0.5600393 -0.101373546 0.30023775 0.24725467 0.29085937 0.3874035 0.09112898 0.06272138
0.35395116 -0.9016272 -0.73767364 0.8308013 0.26280162 0.34144878 0.5724635 0.65544075
-0.68362546 0.59851086 0.34075382 -0.08890171 -0.6035372 -0.5400922 0.13625203 -0.17990896
0.21732779 -0.1765671 -0.33867806 0.27846664 0.30950272 0.1144246 -0.18779446 0.39990643
0.5658759 0.53456247 0.42495596 -0.34822232 0.16070442 -0.25478217 0.49963185 -0.22665018
-0.41190034 -0.18986721 0.07437621 0.13530934 0.6538536 0.15069696 -0.5343434 0.2008791
-0.17974956 0.24068022 -0.2437533 -0.095790125 -0.19201006 -0.060310476 -0.6740173 0.368404
-0.30866572 1.201518 -1.3335403 -0.4267664 -0.24346784 0.23655255 -0.15082152 0.13074085
-0.10057164 0.4348899 0.19185142 -0.025689794 0.6579176 0.14197251 0.2814499 0.5465184
0.4830045 -0.1108253 0.2192817 0.020961659 0.43836764 -0.3170421 -0.40465286 -0.8473208
0.20858717 0.03055944 0.03537723 0.63042265 -0.12984864 -0.18356055 -0.62648886 -0.34269553
0.8040814 0.6088641 -0.04728454 -0.53576356 -0.65500593 0.052080203 -0.1299516 0.8853573
0.5077774 0.60559094 -0.17954907 0.08431042 0.79605675 -0.23480982 -0.050079435 -0.054947905
-0.19032842 0.06616309 0.18143462 0.14256734 -0.34443733 -0.80966455 0.6125987 -0.05552578
0.56548107 -0.61765844 0.13723019 0.40163028 0.49705216 0.39864096 0.094249785 0.089045875
0.006953379 0.035622843 0.012941103 0.84298414 0.5022577 0.010422644 -0.06104787 0.31631747
-0.5675021 -0.7172383 0.25629193 0.37704483 0.8168739 0.21308511 0.20542347 -0.98841494
0.12534659 -0.8885997 -0.033625353 -0.29697102 0.5280217 0.67892885 0.4959679 -1.059065
0.08945425 0.03166739 -0.7230455 1.0570132 0.65467316 0.24546915 0.55743086 -0.2906008
-6.562552e-05 0.09825411 0.40085605 0.10015644 -0.18434767 0.41109562 -0.1789791 -0.16827613
0.13973974 -0.009984549 -0.36339545 -0.09680263 0.11280122 -0.44737598 -0.1332059 0.4319986

feature.bias_ih_l0_reverse f4 [512]
00000000: 7515 91be 4617 a83d b85f 21be 629f 9c3d
00000010: ce4b 76be 71c4 343e 1a45 06bf 1fe9 17be
00000020: bd7c 52be d610 70be 07ef af3e cce4 cbbe
00000030: 90f3 1d3e f32d 003f d745 aa3e 549b 653e
00000040: fa46 873d 0ea6 c3bb 5578 ec3e a9c4 ab3d
00000050: a213 94be 347f 2e3f 4eed 4b3e 1e44 af3e
00000060: 23b6 103f 5c83 2abe cb7c 9bbe f147 033e
00000070: 7b7b 0c3e cb01 76bd 128c f73e b167 8bbd
00000080: 0b38 893e f1f2 5c3c ea82 353e bbf3 5abe
00000090: 9f57 afbe c219 0b3b 3399 67be 32e1 d43e
000000a0: 1b3a 943e 0b6a 9c3d a7e3 0dbe 78d8 5d3e
000000b0: 2b8a ab3d 5b57 10be 84df 763d fa12 c93d
000000c0: 359f 9d3e 4761 fbbc 8160 d23c 146c 88bd
000000d0: a756 d2bd a378 70bd 8620 2dbe e596 0b3e
000000e0: b672 24be 6a9b 1c3e eeea fabd 6752 1dbd
000000f0: cf08 2e3f 9e56 0f3e 2a27 093c a764 11bd
00000100: b0e3 ee3e b18c 4bbe cfae 793d 4434 593e
00000110: b114 02be d5fe 813e 7b3e 5bbe 62b0 473e
00000120: f89e bebe f0a7 9ebd fc8c 233f 1742 99bd
00000130: be2b d03e e852 da3e a97f 6cbc 57af 9c3e
00000140: d4c1 cabe af1c 003f 6579 263f 03ee 573e
00000150: 5c11 28be 5699 7d3f 34bf 5bbd a6f5 2f3e
00000160: 2ca6 f7be 23de a63e eb25 923d 164c b13e
00000170: 3cbd 91be f3dd 283e ba7a 143f 144d ed3e
00000180: 138e 8e3e 67d2 f73e ae5a eabe bcc6 893e
00000190: bca0 923e 6b89 c73a 94ca 723f 96fe e4bd
000001a0: 4009 a6bd 1ace c83c 051d a93c 9d12 213e
000001b0: 9324 e13d e3c8 423e 7a02 593e e56e 6ebe
000001c0: f117 573f 3755 843d e71f 75bd 5dee f0bb
000001d0: 6185 0f3f 045d 9f3e eb9f f23d ca0b f639
000001e0: 87b7 0abd 3c52 993e c3a2 b5bc 1dda d53d
000001f0: ff1b 8fbb 4c1e 1cbe 4912 43be 4d06 3c3e
00000200: 72aa cb3e b813 843e 1628 1d3e d01a ccbe
00000210: b4a5 bf3e 1bbe 41be 1f3d 14bc 751b d4bd
00000220: 90ec 0e3e a77c 213f 6b21 42be f312 86be
00000230: 5d09 b9bc d9be 88be c95b 93bd fe49 ecbd
00000240: e2bc 9e3e 89eb 463e 0971 bd3d a5a7 53be
00000250: 20c1 903d f0ae 2bbe dc41 6d3e 67ed 023f
00000260: 8717 acbe 3276 5e3e 1ff5 823e 442f 0b3d
00000270: 8587 04be 91e6 79be 7f5a 1abf f903 4cbb
00000280: 1eea 6a3e 506b 973d f5d8 513d 498f 0a3e
00000290: 6367 9a3d 85c4 b73d fc2e e6be 1af3 f43e
000002a0: 67f0 0ebd 876c 893d 5647 99bd 604f 9abd
000002b0: d8d1 0abe 0ef3 5b3d e897 00be 622e cc3e
000002c0: a294 19bf cce3 0e3d 72bb f0bd cbe5 6bbd
000002d0: d139 efbc 84b4 55be 3e06 5ebe ae95 e33e
000002e0: 2b72 52be 751b f0bd dd3a a43c 93b6 c93e
000002f0: 44c4 d3be 3753 e7bd a9f3 eb3c 84f6 57be
00000300: 8c72 d3be 029d fcbd 74ff 5e3e f821 743f
00000310: 61ab a9bd efcc 78be 1022 69bd 4e78 b2be
00000320: f8eb 17be 5a3d 413e 252d 89be b63c 1f3d
00000330: f1ce e63e d08c aabe 335b 8dbe 7e96 253e
00000340: cc8c 0b3e 4fc0 dabe 6701 a33e 3cf3 01bf
00000350: 4a0e 90bc d87d f8be bdc5 9ebd e89f 97bd
00000360: b4f9 88be 6ef8 c0be 406f 3bbe a3c4 bb3e
00000370: 63d2 b43c 1481 30be b7e1 80be 3573 e7be
00000380: 5344 1c3f a517 06bf 015f a53e bd15 3ebf
00000390: c7f0 5abd 5b8a 4e3f 58b1 65be b814 053e
000003a0: b230 773d 5fba eebd 2747 fcbe bb80 39bf
000003b0: 1182 17be 1dd8 d3be b75e d9be ac5a 30be
000003c0: 4d75 343e 9808 b03e 3767 73be dd7d 5b3e
000003d0: 59ee cb3c 3438 1bbe b7ee ef3d 6fec 3f3d
000003e0: 2a91 f43e a39a 99be 26ab f9bd 9ae0 e63e
000003f0: 347e c13e 4782 be3d f2e6 bfbe b8fb 5d3d
-0.28336683 0.08207564 -0.1575917 0.07647587 -0.24052355 0.17653061 -0.5244919 -0.14835022
-0.20555396 -0.23443922 0.3436205 -0.39822996 0.15424943 0.5007011 0.3325641 0.22422534
0.066053346 -0.005970723 0.46185556 0.08387119 -0.2892123 0.68162847 0.19914743 0.34231657
0.5652792 -0.16651672 -0.30368647 0.12820412 0.13718979 -0.060060304 0.48349053 -0.06806887
0.2680057 0.013485656 0.17725721 -0.21382038 -0.34246537 0.002122507 -0.22617035 0.4157806
0.2895058 0.076374136 -0.13856374 0.21664608 0.08375963 -0.14095823 0.060271755 0.098180726
0.30785528 -0.030686034 0.025680782 -0.06661239 -0.10270434 -0.0587088 -0.16906938 0.1363178
-0.16059384 0.15293661 -0.122518405 -0.038408663 0.6798219 0.13997886 0.008371154 -0.03549638
0.46658087 -0.19877888 0.060957726 0.21211344 -0.12703206 0.25389734 -0.21410553 0.19500878
-0.3723066 -0.07746875 0.63887 -0.07483309 0.40658373 0.42641377 -0.014434733 0.30602524
-0.39601004 0.5004377 0.65028983 0.21086888 -0.16412872 0.990621 -0.053649142 0.17183551
-0.48368967 0.32591352 0.071361385 0.3462836 -0.28464687 0.16490917 0.57999766 0.46347868
0.2784277 0.48402712 -0.45772308 0.26909435 0.28638256 0.0015223449 0.9484036 -0.11181371
-0.08107233 0.02451234 0.02064372 0.15729757 0.10993304 0.19021945 0.21192351 -0.2328449
0.84020907 0.06461566 -0.059844878 -0.007352634 0.56062895 0.31125653 0.11846908 0.0004692956
-0.03386643 0.29945552 -0.022172337 0.104419924 -0.004367351 -0.15245932 -0.19049944 0.18361779
0.39778477 0.25796294 0.15347323 -0.39864206 0.3743111 -0.18920176 -0.0090477755 -0.103567995
0.13957429 0.6308083 -0.1895806 -0.26186332 -0.022587473 -0.26708105 -0.07195241 -0.115375504
0.3100348 0.19425787 0.09250075 -0.2066942 0.07068086 -0.16765952 0.23169655 0.511435
-0.336117 0.21724775 0.25577638 0.033980623 -0.12942322 -0.2440436 -0.60294336 -0.0031130298
0.22940871 0.07393515 0.051232297 0.13531221 0.07539251 0.0897303 -0.4495772 0.47841722
-0.034897234 0.06710153 -0.074843094 -0.07534671 -0.13556612 0.053698592 -0.12557948 0.39879137
-0.5999242 0.034885213 -0.11754502 -0.057592195 -0.029202374 -0.20869642 -0.21682069 0.44450134
-0.20551364 -0.11723987 0.0200476 0.39397106 -0.41360676 -0.11295169 0.02880271 -0.21090132
-0.4129833 -0.12334634 0.21777135 0.9536433 -0.08284641 -0.24296926 -0.05691725 -0.3485741
-0.14836109 0.1887106 -0.26792255 0.038876258 0.4507976 -0.33310556 -0.27608642 0.1617069
0.13627928 -0.42724845 0.31837007 -0.5076177 -0.017584939 -0.4853351 -0.07752559 -0.074035466
-0.26753008 -0.37689537 -0.18304157 0.3667346 0.022072976 -0.1723674 -0.25172207 -0.45205083
0.61041754 -0.5237983 0.32299045 -0.7425192 -0.05345228 0.80679864 -0.22430933 0.12996185
0.060349174 -0.11656641 -0.49273035 -0.7246205 -0.1479571 -0.4137582 -0.42455074 -0.17222089
0.17622872 0.34381557 -0.23769842 0.21434732 0.024893926 -0.15158159 0.11715453 0.04685634
0.47767 -0.3000079 -0.12190847 0.45093232 0.37791598 0.09302192 -0.37480885 0.054195136

feature.bias_hh_l0_reverse f4 [512]
00000000: bc8b 90be 383d 5f3e 1dd8 ccbd d8bd 4c3d
00000010: c0ec fdbd 39f9 0a3e b6e8 c3be 7835 c0bd
00000020: 6c06 5fbe 5df7 e0be c097 c93e 8a24 0bbf
00000030: 0b33 d43d f41c 0e3f 0d03 a03e 0e82 963e
00000040: 8831 bb3d 1d80 663d 148e 0d3f 3949 b53b
00000050: 008c f0be 095b 293f d4d2 203e 6a82 c23e
00000060: 2415 203f f3d2 7dbe f7df b1be e182 bc3d
00000070: fe15 45bd 7587 2dbe dc4d 093f 087d f43d
00000080: bc00 7e3e 5058 c63d 1f4a af3d f2d5 b9be
00000090: 13a1 a8be 9cbc dc3d 0e52 a0be f405 c53e
000000a0: 798a dc3e af22 463d 40f9 86be 630c b03e
000000b0: 52d5 793d e6cc 3bbe c4bd f43d 22f6 0b3e
000000c0: 506c db3e 2801 91bd ee78 513e 5135 9cbc
000000d0: 3ee0 53be ba4c 3ebd b8a2 5bbe 77a7 1e3e
000000e0: 4bd8 abbe 1525 023e 247e f8bd 473e 9cbc
000000f0: d3ee 153f 5e67 553d acab 20bc 336d 87bd
00000100: 0152 bf3e 5738 2fbd a8fe 973d f551 db3d
00000110: 30ef d1bd bd98 643e 0213 28be e748 013e
00000120: dad4 82be a3cc 53bd bf8a 373f 1c57 c3bd
00000130: fa0c 9b3e 9e3a d23e d281 c0bd 5354 583e
00000140: 4997 c3be 99b2 053f fd53 293f da95 473e
00000150: 1417 07be fd1b 643f ab5e 813d 3072 c93e
00000160: 19ed ffbe 7ff0 823e 9b19 bd3c 5538 d53e
00000170: d1ba 99be 53b6 c93d a4ad 0b3f af49 f93e
00000180: 458f b03d fa9f 023f c43d c4be bfec 763e
00000190: e10b 983e 2f83 9b3b ed0b 6e3f 7ded 03be
000001a0: 1e6e 5abc 3ce4 9ebd 7f4f afbd 5e44 933e
000001b0: 0959 80bc 6805 823e 0512 933e 7888 24be
000001c0: 92fb 743f dc28 153e 6aa5 27be 4b91 46be
000001d0: 9f86 043f 6f5a 803e d1da 043e 9f8a ccbc
000001e0: 06f7 29bd 09c9 733e 8b1d 8bbd 4b28 b43d
000001f0: a8d8 7dbd 26aa 25bd 3857 74be 5ca1 013e
00000200: 5dea c33e f9e1 a23e d480 013e 5a72 c6be
00000210: f626 ba3e 1be7 77be 5698 fcbd e140 9c3d
00000220: b929 9dbd 4824 203f 9fa4 d9be 4f4f 83be
00000230: fc97 bd3d 9089 47be 2d69 473e f23d 95bd
00000240: eb9a 963e f1ec 8a3e 1966 1b3e 4593 7bbe
00000250: 941b f13d afc9 91be 39b2 963e 690a ca3e
00000260: 5cc2 b9be 272b 843e 3086 853e adee 82bb
00000270: 1b46 05be e464 27be 37aa 09bf 75b0 13be
00000280: ce01 9a3e 7747 3fbc ab4e 193d cf59 363d
00000290: 4a6b d93d 85e3 7d3d 72c0 afbe 0f17 0d3f
000002a0: 64a4 883e ec31 4d3e 1c18 4bbe 860b febd
000002b0: 7f3f afbd c02e 153e 84ec b6bc df52 c83e
000002c0: 8ad4 fdbe 5c5e a43c fd26 38be f811 043d
000002d0: 5533 35bd c661 2abe 4dea 8dbe a1d1 b33e
000002e0: 5763 20be c9a8 febd 167c d8bd fe2e bb3e
000002f0: ea76 14bf 3f89 13be ffdf 983d ae2e 52be
00000300: c4f2 dabe fdab 0fbe e944 2b3e ff2b 743f
00000310: 9241 9dba 49f4 a1be 60bf b4bd 2cca ccbe
00000320: 25f4 e9bd 1ccc ea3d 9552 42be 1ac3 4a3d
00000330: 20dc 053f 20de bfbe 8ec3 77be 1836 c13d
00000340: a327 423e ffad 11bf aee9 6a3e d04c e7be
00000350: 6449 a9bd 8851 ecbe 583a f0bd 9936 e2bd
00000360: 6718 9cbe 83dd acbe c4be 7a3c a6f8 ad3e
00000370: b577 8dbd 190c c0be 0021 48be f4d1 f9be
00000380: 60da 2b3f 3683 05bf 0d91 903e d340 75bf
00000390: 3100 2ebe 54ce 353f d3f6 98be 666c 913d
000003a0: 4775 52be c0fb 3ebe 1328 c9be 51fe 1cbf
000003b0: f700 8cbe 616e 01bf b78f 61be fba1 d6bd
000003c0: 7bd7 373e e780 8b3e f05a 3cbe fc9e e23b
000003d0: 7f83 f63d 545a 47be f614 b63d 1a64 88bd
000003e0: c5ea 1a3f ae33 89be 6340 1fbe 4365 963e
000003f0: e8b8 ee3e 6878 533d 44e3 c1be 6f1d 91bd
-0.2823161 0.21800697 -0.10002158 0.049985737 -0.12398672 0.13571633 -0.38263482 -0.09385198
-0.21779794 -0.43938723 0.3937359 -0.5435263 0.10361298 0.5551293 0.31252328 0.293961
0.09140307 0.056274522 0.5529492 0.0055324105 -0.46981812 0.66154534 0.15705425 0.37990123
0.6253226 -0.24787502 -0.34741184 0.09204651 -0.048116677 -0.16946204 0.5363443 0.1193791
0.24804968 0.09684813 0.08559059 -0.3629604 -0.3293539 0.10778162 -0.31312603 0.38481104
0.43074396 0.04837292 -0.26362038 0.3438445 0.060994454 -0.18339881 0.119502574 0.13668111
0.42856073 -0.07080299 0.20456287 -0.019068392 -0.2069101 -0.04645989 -0.21448791 0.1549357
-0.33563456 0.12709458 -0.121334344 -0.019072665 0.5856754 0.05210053 -0.009806555 -0.06612625
0.37367252 -0.04277834 0.07421619 0.107089914 -0.102506995 0.2232389 -0.16413501 0.12625466
-0.25553018 -0.05170883 0.71696085 -0.09538099 0.30283338 0.41060346 -0.09399761 0.21125917
-0.3820136 0.52225643 0.6614378 0.19490758 -0.13192397 0.89105207 0.063168846 0.3934493
-0.4998558 0.2557411 0.023083499 0.4164454 -0.30025342 0.09849229 0.5456183 0.4868903
0.086210765 0.51025355 -0.38328373 0.24113749 0.29696563 0.004745863 0.9298695 -0.12883563
-0.013331918 -0.07758376 -0.085600846 0.28763098 -0.015667455 0.2539475 0.28724685 -0.16067684
0.95696366 0.14566368 -0.16371694 -0.19391362 0.51767915 0.25068995 0.12974097 -0.024968443
-0.041495346 0.23807158 -0.06792744 0.08796748 -0.061974198 -0.04044547 -0.23861396 0.1265921
0.38264742 0.31813028 0.126468 -0.38759118 0.3635785 -0.24209253 -0.12333743 0.07629562
-0.076739736 0.6255536 -0.42508408 -0.25646445 0.09257504 -0.1948607 0.19473715 -0.07287206
0.29415068 0.27133897 0.15175666 -0.24567898 0.11772838 -0.28474185 0.29432848 0.39461067
-0.36281097 0.25814173 0.2607894 -0.0039957375 -0.13015024 -0.1634708 -0.5377535 -0.14422782
0.30079502 -0.011674753 0.03742854 0.044519242 0.10616167 0.061984558 -0.34326512 0.5511331
0.2668792 0.20038575 -0.19833416 -0.12404542 -0.08557033 0.14568615 -0.022329576 0.39125726
-0.49576217 0.020064525 -0.17983623 0.0322437 -0.044238407 -0.1663886 -0.2771782 0.35120872
-0.15662895 -0.12434537 -0.105705425 0.3655929 -0.5799395 -0.14407824 0.07464599 -0.2052562
-0.4276334 -0.14030452 0.16725506 0.9537963 -0.0011997691 -0.31631687 -0.088255644 -0.39997995
-0.1142352 0.11464712 -0.18976815 0.04950247 0.5228901 -0.37474155 -0.24195692 0.09434146
0.18960433 -0.5690612 0.22940704 -0.4517579 -0.08265951 -0.46155953 -0.11729878 -0.1104557
-0.30487368 -0.3376275 0.015304271 0.33978766 -0.06907598 -0.3750923 -0.19543839 -0.48792994
0.6713009 -0.52153337 0.28235665 -0.9580204 -0.1699226 0.71017957 -0.29875812 0.071007535
-0.2055255 -0.18650723 -0.39288387 -0.61325556 -0.27344486 -0.5055905 -0.22027479 -0.10480114
0.17953293 0.27246782 -0.18394065 0.006915925 0.120368 -0.19468051 0.08890717 -0.06659718
0.6051448 -0.2679724 -0.15551905 0.29374132 0.46625447 0.0516285 -0.37868702 -0.07085692
