logs/classifier/35_contexts/fold_04/10-19-2022_10-10-53/model_params.pth (torch, 821283 bytes, 10 tensors)

feature.weight_ih_l0 f4 [512, 64]
000000 49 54 35 bf 93 b8 16 bd 45 ac e1 be e1 17 ac be
       -0.70831734 -0.036797117 -0.44076744 -0.33611968
000010 a6 b1 04 3f 01 ed 09 bf 06 b4 22 bd a8 9a 0f 3e
       0.5183357 -0.53877264 -0.039722465 0.1402384
000020 67 38 15 bf b2 37 e7 3e 41 06 9b bf d3 62 99 be
       -0.5828919 0.4515968 -1.2111284 -0.2995821
000030 8f 57 86 3d 1d f5 7d be 26 57 fe 3d c8 be 49 3e
       0.06559669 -0.24800535 0.12418966 0.19701684
000040 35 ef 68 be 13 08 b1 be e4 bd e7 3d 04 c3 5c 3f
       -0.227475 -0.34576473 0.11315516 0.8623507
000050 48 0f 10 bf 51 1b 44 bf cc c1 f8 bd 7f bb 8c be
       -0.5627332 -0.7660418 -0.12146339 -0.27486798
000060 1f 9b f2 be af cd 93 3f cc 48 17 bd e1 3f da 3e
       -0.47383973 1.1547145 -0.03693466 0.4262686
000070 98 54 70 bd 15 ae 04 3e 0b 2c 08 bf 83 83 0b bf
       -0.058674425 0.12957032 -0.53192204 -0.54497546
000080 32 22 dc bc 93 ce e1 3e 1f 6a 70 bd ab 97 e7 be
       -0.026871774 0.44102916 -0.058694955 -0.452329
000090 cd f7 38 3e 78 67 85 be d8 eb c5 3e 5b 7e 21 bf
       0.18063278 -0.26055503 0.38656497 -0.6308343
0000a0 59 2b 30 bd c1 c0 31 be e8 06 40 be 5c b4 f5 3d
       -0.04301009 -0.17358686 -0.18752635 0.119972914
0000b0 8f 7c be bf 84 4c 86 3e 10 f1 09 bf 63 5f 21 3f
       -1.4881762 0.26230252 -0.5388346 0.63036174
0000c0 60 6f d6 be bd 2d b2 bd 2d 94 90 3d d3 17 44 3e
       -0.41881847 -0.0870013 0.07059512 0.19149713
0000d0 65 2e af be f4 fd a7 bf a2 33 09 bf 0b fc 39 bf
       -0.34215084 -1.3124375 -0.5359441 -0.7265021
0000e0 54 c1 fc bd 87 a3 82 3f e1 58 3f 3e 3b 11 cb 3e
       -0.12341562 1.0206155 0.18686248 0.39661583
0000f0 ed 73 01 bd 2a 4e 35 3f 8e 86 41 3f 89 cb 9f be
       -0.031604696 0.70822394 0.7559594 -0.31209973
000100 53 d2 52 3f 0d bf 9e be f5 86 12 bf 6c 72 78 3f
       0.8235218 -0.31005135 -0.5723718 0.97049594
000110 55 79 90 3f 43 49 2a 3e 86 46 71 bf b7 b3 15 be
       1.1287028 0.1662951 -0.94248235 -0.14619337
000120 66 67 a6 3d d9 93 0f 3f 67 14 bf 3d 0e d9 40 bf
       0.081251904 0.5608497 0.09330063 -0.753312
000130 e3 db 31 bd 74 21 73 3e ed cf 04 3f f6 99 88 3f
       -0.04342259 0.2374323 0.5187977 1.0671985
000140 45 e6 fd 3c 90 c0 1b bf 9b 1d 81 bf 26 ac 8a 3e
       0.03099359 -0.608407 -1.008716 0.27084464
000150 d7 ff 18 3f ab ed 8c be 5f 3b 49 3e 65 18 b7 3e
       0.5976538 -0.27525076 0.19651555 0.357608
000160 46 4a 57 bd 1c 46 cf 3d d3 23 9d 3e 1b 90 02 3f
       -0.052561067 0.10120794 0.30691394 0.5100114
000170 8c b0 09 3f 45 fd 58 3e 60 b7 41 3d 02 38 c3 bd
       0.53785014 0.21190365 0.04729402 -0.09532167
000180 2a b6 f1 3e c2 ae ae 3e 61 69 29 3e 02 75 8c 3e
       0.47209293 0.34117705 0.16544105 0.2743302
000190 38 b1 0c be cf 50 8c be 8c 86 ce be ad ff ab 3f
       -0.13739479 -0.27405402 -0.40337026 1.3437401
0001a0 c9 42 57 3f a8 3a 00 be de 1d 99 be 99 cf 98 be
       0.8408628 -0.12522376 -0.299056 -0.29845884
0001b0 c3 b6 60 bf c6 c1 e0 be 8f f4 29 bd 75 bb e4 3d
       -0.8777887 -0.43897837 -0.041492995 0.11168567
0001c0 a3 5e 36 3f 41 31 ba be cb 9c 90 be 93 09 c3 3e
       0.71238154 -0.36365703 -0.28244624 0.38093242
0001d0 a0 88 19 3f 47 34 b4 bf a3 99 82 3d bf e9 9b 3d
       0.599741 -1.4078454 0.0637696 0.07612943
0001e0 70 43 ab 3d 34 04 a3 3f 1a ec 2f bf 22 af a3 3e
       0.08362472 1.2735658 -0.6871964 0.31969553
0001f0 52 25 45 3e 6d 6b dd 3e d7 32 c3 3f 95 0c 89 3e
       0.19252518 0.43246022 1.524989 0.26767412
000200 0e bb e3 3e 41 05 63 be 70 bb 35 bc 55 ff 42 bf
       0.4447865 -0.22169973 -0.011092052 -0.76170856
000210 84 3b 4e bf 08 71 a4 bf d2 91 99 bf e7 06 fc be
       -0.80559564 -1.2846994 -1.1997626 -0.49224016
000220 94 75 21 3e 7a 9b 89 3f 96 68 0a 3f 81 18 3b 3e
       0.15767509 1.0750573 0.54065835 0.18271066
000230 51 b9 0a 3f 8e e1 c8 be e2 26 e0 3d 20 84 b1 3d
       0.5418902 -0.39234585 0.10944916 0.08667779
000240 ae 6d 10 3f 6d 88 4e bf 8c 9a f6 be fb 1d ac be
       0.5641736 -0.8067692 -0.48164785 -0.33616623
000250 06 9f 01 bf d1 89 bb 3e e8 e9 1c bf 2e ad 0c 3f
       -0.50633276 0.36628583 -0.6129441 0.5495175
000260 a0 09 ed be f5 b9 ce 3e 7c a7 0d 3e 5e 6f bb be
       -0.46296406 0.4037625 0.13833421 -0.36608404
000270 f9 d4 8e 3e 12 2f 8e bf 99 97 01 bf 15 30 38 3f
       0.2789686 -1.1108115 -0.50621945 0.7194837
000280 8d 93 9c 3d f4 ed 33 3f f2 70 a7 3d 54 da 13 be
       0.076453306 0.7028496 0.081758395 -0.14438754
000290 aa 62 ae 3e 44 86 d9 3d 3f ba 66 be f6 97 a4 be
       0.3405965 0.10621312 -0.22531985 -0.32147187
0002a0 94 0c d8 3e 4d 20 4a bf 74 a5 f4 be 3c 75 89 be
       0.42197096 -0.7895554 -0.4778248 -0.26847255
0002b0 95 c2 15 3e eb 82 c4 3e 6f 73 ce be 95 7d 23 be
       0.14625008 0.38381132 -0.40322444 -0.15965874
0002c0 f3 62 bc 3e c0 72 58 bf c6 b0 43 bf 92 80 62 be
       0.36794242 -0.84550095 -0.7644161 -0.22119358
0002d0 03 48 07 bf c5 b5 fd be f1 62 fd bb 2f 54 c8 bd
       -0.52844256 -0.49552742 -0.007732742 -0.09781682
0002e0 4b b0 ce be 9d f5 2d 3f 9a 4c b6 be 5c 34 5f 3f
       -0.40368876 0.679529 -0.35605317 0.8718927
0002f0 ce e0 c5 3d 49 13 ad 3e 37 59 e1 3e c9 80 f5 3d
       0.09662019 0.33803776 0.44013378 0.119874544
000300 07 b7 d9 3d 26 fd bc 3e 07 f0 3c 3f 01 23 e6 be
       0.10630613 0.36911887 0.7380375 -0.4494858
000310 3a 9a 15 3f cb 49 d6 3c a7 d1 bb 3f 25 6f 0f 3f
       0.58438456 0.026158234 1.4673356 0.5602897
000320 8a 8d 75 bd 52 7c ae 3d 24 eb c3 be 16 03 64 bf
       -0.059949435 0.08519806 -0.38265336 -0.8906721
000330 61 f0 2a 3f e9 b8 3f bf 56 0c 2e be 25 af ca be
       0.6677304 -0.74891526 -0.16996893 -0.3958675
000340 ba e9 20 3e 77 6d ff 3e 8e e1 8f 3f d9 53 0f 3f
       0.1571416 0.49888203 1.1240709 0.55987316
000350 10 df e9 bd 0e 0f dd bd 83 b3 61 bf 4d 43 73 bd
       -0.11419499 -0.10793887 -0.8816454 -0.059390355
000360 5f a4 2c bf 9c 6e d0 be 82 ae da be b2 3f 34 3e
       -0.6743831 -0.40709388 -0.42711264 0.17602423
000370 8b 9a dd 3e 08 9f ea bd 77 94 0f bf 9d 65 d4 bf
       0.4328197 -0.11456114 -0.56085914 -1.659351
000380 91 3d ab be 2a a0 6f bf 86 22 e4 3e 2e 8e 12 be
       -0.3344541 -0.93603766 0.4455759 -0.1431205
000390 8b d9 79 bf 59 ca f5 bd c4 09 02 3e 9d 91 c2 be
       -0.9759757 -0.120014854 0.12699038 -0.3800172
0003a0 a3 9b 8d bf 7d b5 00 be 5f c8 9f 3f 97 0b 12 3e
       -1.1063122 -0.12569232 1.2483023 0.14262234
0003b0 23 da f9 be eb e5 a7 3c 5f f1 d6 3e a2 7d 72 3f
       -0.48799238 0.020495376 0.41981027 0.9472295
0003c0 4b 17 1f 3e 5b 80 c6 be f5 ec ae 3e f0 cd d7 3d
       0.1553623 -0.38769802 0.3416516 0.10537326
0003d0 8d 4a 26 bf 65 17 f7 be e1 e2 b4 3e a9 42 af bd
       -0.64957505 -0.48260036 0.35329345 -0.08557636
0003e0 d5 8a 19 3f 7a 15 63 be 23 ab 1e 3f b9 f5 76 bd
       0.59977466 -0.22176161 0.61979884 -0.060292933
0003f0 54 d7 37 be dd 42 ef 3e a2 27 b7 be ea e1 49 bd
       -0.17953235 0.467307 -0.35772425 -0.049287714

feature.weight_hh_l0 f4 [512, 128]
000000 63 ba ba 3e aa 1d b0 be c3 52 f8 3e 29 cc ba bd
       0.36470327 -0.34397632 0.48500642 -0.09120972
000010 a6 de 84 3f 04 5b 6b 3f 16 d6 b6 bd be 6a 7b bf
       1.0380447 0.91935754 -0.089275524 -0.9820975
000020 55 e7 a0 3e 50 af 9e be 05 ad 1b 3f f5 ca dd 3e
       0.31426492 -0.30993128 0.6081088 0.43318906
000030 90 74 f6 be 79 6a 50 3d a9 28 54 be af 29 8b 3e
       -0.48135805 0.05088279 -0.20718636 0.2718024
000040 de 21 65 bd 6f 5e e0 be 45 31 6a 3f 65 d3 b3 3d
       -0.0559405 -0.43822047 0.9148143 0.08780555
000050 d9 91 e8 3c 83 2b cb 3e 3c 2e c6 be 65 03 0d 3f
       0.028389858 0.39681634 -0.3870715 0.55083305
000060 31 3a 68 3f c2 de e7 be 32 dd c4 be 24 35 a6 be
       0.90713793 -0.45287138 -0.3845001 -0.32462418
000070 38 ee c0 3d 65 96 aa 3e c3 3b a3 be a1 1d 6e 3f
       0.094204366 0.33317867 -0.31881532 0.9301396
000080 63 04 88 bd ab cc 6a bc fd bf 18 bf b9 39 41 3f
       -0.06641462 -0.014331023 -0.5966795 0.754787
000090 93 8d 35 3f 33 4a 55 bf 99 b3 59 3f 2c eb b1 3e
       0.7091915 -0.83316344 0.8503967 0.34749734
0000a0 5c f5 bb 3d 36 7c ee 3e 77 5d 9f be 93 dc 2a be
       0.09177658 0.4657914 -0.31125996 -0.16685705
0000b0 6e 2c c8 be a6 87 0f be b5 d8 60 3e 30 f9 1d 3f
       -0.39096397 -0.1401659 0.21957667 0.61708355
0000c0 ba 9c fd 3e 56 61 7f 3f a7 40 d4 3e 4b 99 da 3e
       0.49533635 0.997579 0.41455576 0.42695078
0000d0 e9 2e 75 3d 52 e0 21 bf 5f a6 eb 3c e5 53 f6 3e
       0.05985919 -0.6323291 0.028765855 0.4811088
0000e0 43 80 9a 3e c0 0b 11 3f 5e a6 85 3e 0c cf 92 3e
       0.3017598 0.56658554 0.2610349 0.2867359
0000f0 bc 1d fd 3e 08 de b3 bd 9d db 4c be 57 ae 25 bf
       0.49436748 -0.087825835 -0.20005651 -0.64719146
000100 2a 83 8e 3f 73 32 71 3e dc 03 47 be 4b 21 4b 3e
       1.1133778 0.23554401 -0.19435066 0.19836919
000110 a9 b8 de 3d 7c 5c 0c bf 1a a3 62 3e 4f f4 22 bf
       0.10875065 -0.5482862 0.22132531 -0.63654035
000120 77 6f 68 be 98 c7 16 3f 82 1f e5 3e d7 00 19 be
       -0.2269877 0.58898306 0.447506 -0.14941727
000130 6c d3 09 3f 64 ff fd be 11 1a 84 3e 0d c0 79 bf
       0.5383823 -0.4960891 0.25801137 -0.9755867
000140 bd c7 5e 3e 1b d0 14 bf fa 72 cf 3e c2 00 08 3e
       0.21755882 -0.58130044 0.40517408 0.13281539
000150 13 61 28 3f 8e 32 cd be 60 c2 a0 3e a5 89 8d be
       0.65773124 -0.40077633 0.31398296 -0.27644077
000160 4d 37 87 3f 45 1a 68 bd 3e e8 75 3f d0 d4 85 be
       1.0563751 -0.056665678 0.960575 -0.26138926
000170 c3 ea 1c be 14 39 15 be 97 8c 89 3d d4 26 07 3e
       -0.1532393 -0.14572555 0.067162685 0.13198406
000180 2e bf cc 3e 4b 56 61 3f 55 11 1c bf 2f 73 11 bf
       0.3998961 0.880223 -0.60963947 -0.5681638
000190 53 22 a7 be 5c 60 2f bf c4 a5 a2 3f f3 ae 31 3f
       -0.32643375 -0.6850641 1.2706838 0.69407576
0001a0 64 89 e8 3e c2 2b cf 3e 83 68 e0 3e 22 ed 6d 3e
       0.4541732 0.40463072 0.43829736 0.2323499
0001b0 36 0a 82 3d 84 d6 2c 3e e7 00 a7 3e eb 65 71 3f
       0.06349604 0.16878706 0.32617876 0.9429614
0001c0 12 cf 16 be 44 20 58 bf d2 07 77 bf bd ab 5b be
       -0.14727429 -0.84424233 -0.9649631 -0.21452232
0001d0 e3 44 74 bf 8f 43 5d 3f 04 e2 bd be f4 ad 17 be
       -0.9541761 0.8643121 -0.370865 -0.14812452
0001e0 cd 18 22 3f 76 bf 36 3f f0 89 d4 3e 8d 1b 99 be
       0.63319093 0.71385896 0.41511488 -0.29903832
0001f0 34 54 c0 3e 2a bf 3b be b2 98 2d bf ac 08 f9 bc
       0.37564242 -0.18334642 -0.6781112 -0.030399643
000200 73 a8 10 bf 6a cc 08 3e 8d e9 2e be 02 b8 19 be
       -0.56507033 0.13359228 -0.1708128 -0.150116
000210 e3 2b b4 be e5 f3 0f bf 7d d5 93 3f 8b 3d de be
       -0.35189733 -0.5623153 1.1549526 -0.4340633
000220 58 a3 15 3f 95 12 cb be 38 b8 41 3f 3f e1 08 bf
       0.5845237 -0.39662614 0.7567172 -0.534687
000230 f3 ef 1d 3f 02 bc 82 3e 1c b6 13 bf 65 33 19 3c
       0.6169426 0.25534064 -0.5769975 0.009350632
000240 02 00 68 3e ff 15 a3 be f5 c5 2f be 4b cb f4 bd
       0.22656253 -0.3185272 -0.17165358 -0.119528376
000250 10 34 3f be 79 3b b9 be 27 89 2a bd 3a 72 19 3f
       -0.18672204 -0.36178187 -0.041634705 0.5993992
000260 8b f4 29 3f 71 87 c9 3c 7d 8f 4c be f4 01 23 bf
       0.6638877 0.024600716 -0.19976611 -0.63674855
000270 02 13 b9 be 2c c5 00 3f ae 4c 85 3e e1 6a 5a be
       -0.36147314 0.5030086 0.26035064 -0.21329834
000280 12 26 03 3f 43 8c 08 bd cb 25 0e be 02 15 5d be
       0.51229966 -0.03333689 -0.13881604 -0.21590045
000290 ff 0e 41 3e 02 1b a3 bf 77 74 96 be 5b 78 35 3f
       0.18853377 -1.2742617 -0.2938573 0.7088677
0002a0 21 a4 b9 3e 35 01 91 3f 1f ee a3 bf 0e fa 22 bf
       0.36258033 1.1328493 -1.2807044 -0.63662803
0002b0 7a b1 13 bf ae 90 b2 bc b4 43 0d bf e5 1c 10 3f
       -0.5769268 -0.021797504 -0.5518143 0.5629409
0002c0 3b 57 24 be 43 49 10 3f be e6 90 bd 92 80 a7 bf
       -0.16048901 0.5636179 -0.070752606 -1.3086112
0002d0 d0 f8 91 3e 48 0c 91 3c ea 85 3e 3e 81 a3 ec 3d
       0.2851014 0.017706051 0.18605772 0.115546234
0002e0 f7 89 03 bc 36 62 ab 3b 5d fa 02 bf 09 9a 10 3e
       -0.008028499 0.0052302135 -0.51163274 0.1412126
0002f0 2c b6 7c 3e 68 58 39 bf f5 eb 1a 3d 8d 48 8a be
       0.24678868 -0.7240052 0.037822682 -0.27008477
000300 41 6b a9 be 6d 0c 04 3f 58 87 46 3f 53 67 47 3f
       -0.3308964 0.5158146 0.7755027 0.77892035
000310 fc aa 92 be 39 e0 3c 3d 2d 12 36 3e 6a 35 c0 3d
       -0.28646076 0.046112273 0.17780371 0.09385188
000320 55 8f bb be 99 85 16 3f 6a 8d 52 3d 77 3a 09 be
       -0.3663279 0.58797604 0.051404394 -0.13401209
000330 19 97 9e 3d a3 e5 4c 3e df 70 9e be c9 04 fa 3e
       0.07743663 0.20009474 -0.3094549 0.48831776
000340 34 dc e1 3d 94 4a 6b bd 8b 12 c7 be 78 8b d7 3e
       0.110283285 -0.05744417 -0.38881335 0.42098594
000350 e8 b2 ca be cc c6 bc bd 5d ba 58 3d 56 b4 bf 3e
       -0.3958962 -0.09217605 0.052912105 0.37442273
000360 a2 0b 07 be b6 bc 3c 3e 86 99 cc bd 64 60 45 3e
       -0.13188031 0.18431363 -0.0999022 0.19275051
000370 4f 33 32 3e 77 47 74 3f 7a b9 7a 3e e6 2d 9e 3e
       0.17402385 0.95421547 0.24484816 0.30894393
000380 2f ad 0f bf ee d3 36 3e 8a 5e 00 bf 4c 18 27 3f
       -0.5612363 0.17854282 -0.50144255 0.6527145
000390 77 c2 04 bd 0f 00 0c 3f b1 01 3d 3e 39 fa c5 3e
       -0.03241202 0.5468759 0.18457676 0.38667467
0003a0 8c 4e ac be 58 7c b8 3f 42 32 95 be 1d 3e 69 bf
       -0.33653677 1.4412947 -0.29139906 -0.911104
0003b0 e2 61 57 bd 35 fd 4f 3f 1a 3a 2c 3f d8 4d a8 bd
       -0.052583583 0.8124574 0.67276156 -0.082179725
0003c0 7d e6 54 3d ff db 0c bf 76 1b 35 3e bd 4a 1c 3f
       0.051977623 -0.5502319 0.17686257 0.6105154
0003d0 e9 ff 8b bf fa d0 13 3e 4d 6d dc be 27 3a 52 3f
       -1.0937473 0.14435187 -0.4305214 0.82119983
0003e0 26 1a 74 3f 9e 7d 1b be ec 43 09 3e 24 e6 94 3e
       0.953524 -0.15184638 0.13404816 0.29081833
0003f0 2d 30 90 3e 3e d1 4f 3f 25 57 84 3d 97 1b 87 3d
       0.28161755 0.81178653 0.06461934 0.06597059

feature.bias_ih_l0 f4 [512]
000000 28 8b 68 3f 55 85 1f 3e 88 64 0b be f0 24 a5 3e
       0.90837336 0.15578206 -0.13612568 0.32254744
000010 cc ff 53 3d 09 e5 12 3f 86 a6 ab 3d b0 de 9f 3d
       0.05175762 0.5738073 0.08381371 0.07806146
000020 c2 13 80 3e d6 51 80 be 6a 62 c5 3e a1 32 47 39
       0.25015074 -0.25062436 0.38551646 0.0001899698
000030 d7 e9 a9 3d c9 5a f2 3e a4 4c b8 bd 40 3e 9a 3e
       0.082965545 0.4733489 -0.08998993 0.30125618
000040 47 7a 4a 3e e8 36 89 3d 10 85 34 be ab ab 59 be
       0.19773208 0.06699926 -0.17628884 -0.21256892
000050 cc 1d 61 3f 3a 5c 0f 3e 77 e7 18 3e a9 02 29 bd
       0.8793609 0.14000025 0.14932047 -0.041262303
000060 07 66 c9 bc af 93 8e 3f 62 da c5 be e4 2c 39 3c
       -0.024584783 1.113882 -0.38643175 0.011302207
000070 f5 36 9b 3f 2e e5 04 be 16 29 8d 3d e3 c3 87 3f
       1.2126147 -0.1297805 0.06892602 1.0606655
000080 cc 99 19 3f 2b b3 a7 3e a8 2f d6 be 7b 86 fa ba
       0.600003 0.32753882 -0.41833234 -0.0019113565
000090 57 9f 49 3e f2 a0 95 3d ef b3 24 3e 84 70 42 3f
       0.1968969 0.073060885 0.16084264 0.75952935
0000a0 f4 1c fe bd 2b 33 c7 3e e1 45 da bc 33 7a 63 bd
       -0.12407866 0.38906226 -0.026644649 -0.05553646
0000b0 b3 0e 43 be 41 7d 97 3d fc 84 57 3e 11 80 87 3f
       -0.19048576 0.07396937 0.21046823 1.0585958
0000c0 7b 87 31 3e 43 c7 a3 3d 11 d1 59 be 33 2d 90 3d
       0.17336838 0.079969905 -0.21271159 0.07039871
0000d0 d5 a3 ad bd d2 7e a4 3e e5 9f 3a bd 21 46 4c 3e
       -0.08478514 0.32128006 -0.045562644 0.19948627
0000e0 2c 5d a6 3d e7 5e 54 3e 2d 53 a1 3e 60 48 4d 3f
       0.0812324 0.20739327 0.3150877 0.8018856
0000f0 a3 a3 cc be e3 4a 7b 3e ab 24 f6 be 3e c8 84 be
       -0.39968595 0.24540286 -0.4807485 -0.25934023
000100 76 19 d4 3e 50 68 19 3f 2b 90 a6 3e 43 ef 31 3d
       0.41425675 0.59924793 0.32531866 0.04344107
000110 7e 95 ca 3d 05 cb 70 be cb 9c 3d bd da 53 bb be
       0.098917946 -0.23514946 -0.046292108 -0.3658741
000120 b2 9a 54 3e 76 e6 88 bc 3b 1a 10 3e a0 98 8f be
       0.20762137 -0.016711455 0.14072506 -0.2804613
000130 9a a3 cf 3e dd 15 71 3f e0 20 90 be 2d 27 f3 be
       0.40554506 0.94173986 -0.28150082 -0.47490826
000140 5b 9b 53 be 89 aa b3 3e 2a 4d 8a 3f 47 d9 6b 3e
       -0.20664732 0.35091045 1.0804799 0.23032103
000150 cc c2 d5 3e 3a 7d 4e 3f c2 9c de 3e 6a cf f5 bd
       0.4175018 0.8065983 0.43478972 -0.12002452
000160 00 e9 88 be 36 fb af 3d 40 70 b3 3d 01 82 87 bd
       -0.26740265 0.085928366 0.08761644 -0.06616593
000170 60 4b 9e bd 2b 00 ee 3e 1c 83 ae 3d 5a ed eb bd
       -0.077292204 0.46484503 0.08521101 -0.115198806
000180 fd c3 01 3f 62 d8 ad bd 9c 43 c1 3e 4a 38 89 3e
       0.5068968 -0.08488537 0.37746894 0.26800758
000190 14 13 35 3f 85 d2 c0 3f a1 8c 6f 3f b6 f7 07 3e
       0.70732236 1.5064245 0.9357396 0.13278088
0001a0 5f 07 0e 3f 2f 8c 5c 3f 0a 3f 13 3f 7b c1 aa 3e
       0.5548 0.86151403 0.57518065 0.3335074
0001b0 35 95 a6 3c b8 fd 11 bd 57 1e 7c bd f6 b0 19 3f
       0.02033482 -0.035642356 -0.06155237 0.60035646
0001c0 c7 c3 5d be e9 89 9c be 69 bb d4 3d 54 62 5a be
       -0.21656714 -0.30573967 0.10387308 -0.21326572
0001d0 f2 02 4c 3e 00 d5 4a 3e d4 89 b4 be b6 3a 8b 3e
       0.19922999 0.19807816 -0.35261405 0.2719323
0001e0 e2 39 5e 3f 35 39 34 bd 0a 3e 21 3f 96 66 1f bd
       0.8680707 -0.04399987 0.6298529 -0.038916193
0001f0 fc 8f 0c be e1 25 34 3e 0a a7 c4 bd 8d ae 24 be
       -0.137268 0.17592575 -0.09602173 -0.16082211
000200 e5 9e 07 be 68 fd 38 bd 56 bf 99 bd 9e 71 55 3d
       -0.13244207 -0.045163542 -0.075071976 0.052110307
000210 aa 91 23 3e 82 d6 9b bd 53 75 78 be 9b 4d aa be
       0.15973535 -0.076092735 -0.24263506 -0.33262333
000220 01 56 ba be 1a d1 ff 3c aa 5a ee bc 77 39 e5 bd
       -0.3639374 0.031227637 -0.029095966 -0.11192601
000230 58 a8 99 3e b5 62 a7 bd 2f 54 16 bd 6b 9e e3 bd
       0.3001125 -0.08173124 -0.036701377 -0.111142
000240 2c 66 89 3d 3d 29 ea be 05 c6 80 be 0e 03 13 3e
       0.06708941 -0.45734587 -0.25151077 0.14356634
000250 e0 56 ea be 53 3e b2 3d 5e 9a 45 be 7e 3f f0 3d
       -0.45769405 0.08703294 -0.19297168 0.1173086
000260 9c ef d1 3d e9 97 c8 be 14 5b 7d be 9b 7d d7 be
       0.1025078 -0.39178398 -0.24741775 -0.42088017
000270 ba fa 02 be 2c 22 c9 3e 6d 72 7b 3d d7 ae 0b bf
       -0.12790957 0.39283884 0.06138842 -0.5456366
000280 8e 75 b4 bd 7d f7 1d 3e 63 34 24 3e 58 b4 86 3e
       -0.08811484 0.1542644 0.16035609 0.26309466
000290 40 ef b1 bb 0c 34 f1 be bc e5 4f 3e 16 57 31 be
       -0.005430132 -0.4711002 0.2030248 -0.17318377
0002a0 23 46 5a be 8b 21 16 be bd 6e c0 bb 4f 79 12 3e
       -0.21315818 -0.14661233 -0.005872576 0.14304088
0002b0 8e a1 fa bc 5f 9d d7 3e f1 81 fe 3d 8c 1c a0 bc
       -0.030594613 0.42112252 0.12427128 -0.019544862
0002c0 1a 71 d0 be 0a 73 25 be 98 1a 68 be 47 ab 26 3e
       -0.4071129 -0.16157165 -0.22666395 0.16276275
0002d0 f9 93 9b 3e a5 79 f0 be d9 7e b2 bd 75 e4 b8 be
       0.30386332 -0.46967807 -0.087156005 -0.361118
0002e0 b6 38 94 bc 29 94 c0 bc 26 9b 34 bc a7 f8 75 3e
       -0.018093448 -0.023508148 -0.011023318 0.24020635
0002f0 64 08 84 3e 09 4c b3 3e e8 28 8b 3d 1d 37 19 be
       0.25787652 0.35018948 0.067949116 -0.1496243
000300 e8 64 1c be 89 34 20 be b3 b9 10 3e bd 7a 37 3e
       -0.15272868 -0.1564504 0.14133339 0.17917915
000310 c3 29 09 3e d4 e6 89 3c d6 0d dc bd f7 f5 9e 3d
       0.13394837 0.0168337 -0.107448265 0.07761758
000320 85 18 4e bc a7 70 ce be 46 41 2e be f0 83 c6 3e
       -0.012579088 -0.40320322 -0.17017087 0.38772535
000330 e6 50 f7 bc 15 c6 ce be 15 33 c4 3d 98 2a 5d be
       -0.030189943 -0.403855 0.095800556 -0.2159828
000340 6f 38 81 bd b8 d5 a2 be a7 da fc bc a2 61 8a 3e
       -0.06309592 -0.3180368 -0.03086598 0.27027613
000350 1b 0f 0a bf 9a a9 5a bf c3 9a 8e 3c de f8 e8 3d
       -0.539293 -0.8541504 0.01740778 0.11375593
000360 a4 c1 c6 bd ea f8 41 bd c0 9a 8b 3e c9 71 91 3e
       -0.09704903 -0.047356524 0.27266502 0.28407124
000370 3e 70 28 bf 39 6d 84 3e 1c 24 4d bf 90 e9 8b bd
       -0.6579627 0.2586458 -0.80133224 -0.06831658
000380 68 fd 6f 3e 30 12 b7 be 2c 49 f9 bd 62 91 91 3d
       0.2343651 -0.35756063 -0.121721596 0.07107808
000390 bd 63 ae 3e 06 b3 03 bf 7c f5 1c bf 44 08 33 3d
       0.3406047 -0.51445043 -0.6131208 0.043709055
0003a0 a0 e9 07 bf 8c 22 f9 be f9 3b 1d 3d 98 3f 02 3d
       -0.5309086 -0.4865917 0.038387273 0.03179893
0003b0 79 38 74 be 5f 97 c4 be 14 0d 0a be 97 bf 6d be
       -0.23849668 -0.38396737 -0.13481551 -0.23217617
0003c0 19 00 d1 be 66 5e b2 be 0a a3 4f be 9e 67 e6 3e
       -0.40820387 -0.34837645 -0.20277038 0.4500093
0003d0 94 a5 82 3e 55 05 90 3b 6f 9c c2 be 94 1d ad 3d
       0.2551695 0.004395167 -0.38009974 0.08452907
0003e0 f7 41 74 be aa 72 81 3d a9 df c1 be 2f 20 9e 3e
       -0.23853289 0.063206986 -0.37865952 0.3088393
0003f0 3f 24 31 3e da ed 0f bf 7b d9 2d 3e e5 a1 a8 bd
       0.17298983 -0.5622231 0.16977493 -0.08234004

feature.bias_hh_l0 f4 [512]
000000 47 33 62 3f e4 cf 2c 3e be b6 7d be 96 a3 a1 3e
       0.88359493 0.16876179 -0.24776742 0.3157012
000010 88 e9 50 3d 46 3d 26 3f 97 0b 5c 3e c4 ad 8c 3b
       0.051003963 0.64937246 0.21488796 0.0042931754
000020 ef df 63 3e c8 c5 ce be a7 8f c3 3e b1 27 ab 3d
       0.22253393 -0.4038527 0.38195536 0.0835718
000030 71 88 29 bd f3 1f f2 3e 72 d0 e3 bc 12 b4 99 3e
       -0.041389886 0.4729 -0.027809355 0.30020195
000040 80 3f 2b 3e a2 3f 1b 3e 23 4a 57 bd d1 65 2a be
       0.16723442 0.15160993 -0.052560937 -0.16640402
000050 e3 14 46 3f 1a eb 3a 3e 1f a1 87 3d 1b 3c e2 3d
       0.7737562 0.18253747 0.06622528 0.110466205
000060 34 28 56 bd 1c f7 93 3f 73 e8 dc be 90 5e e7 3d
       -0.052284434 1.1559787 -0.43146095 0.11297333
000070 52 34 88 3f db 09 8b bc 82 a4 fc bc 7f 3d 94 3f
       1.0640967 -0.016972473 -0.030840162 1.1581267
000080 81 31 1b 3f f9 56 6a 3e dd 07 eb be 1f d2 6d 3d
       0.6062241 0.2288474 -0.45904437 0.058061715
000090 22 13 8d 3e a9 f5 0a 3d 76 17 8e 3e 8f c4 3f 3f
       0.2755366 0.033925686 0.27752274 0.749093
0000a0 8e a8 92 bd 4f 13 c5 3e 9c 72 be bc 2f cf 4c bd
       -0.071610555 0.38491294 -0.02324801 -0.050002273
0000b0 fa 63 69 be 4e 26 f8 3d 1f 81 65 3e 6a 59 81 3f
       -0.22792044 0.12116681 0.22412537 1.0105412
0000c0 13 d1 ef 3d f6 ef 56 3d aa 06 59 be 5c 68 74 bd
       0.117097996 0.05247494 -0.21193948 -0.059669837
0000d0 4a 05 ee bd de 4e 65 3e bf 4b 19 be 58 b1 b1 3e
       -0.116221026 0.22393367 -0.14970301 0.34705615
0000e0 da 49 38 3c ab 45 43 3e c7 b3 c3 3e ff 77 22 3f
       0.011248076 0.19069545 0.38223097 0.6346435
0000f0 7d c3 b1 be 71 5c 54 3e f2 75 e3 be ef bb b5 be
       -0.34719458 0.20738389 -0.44425923 -0.35494944
000100 be fb 99 3e 54 f1 eb 3e bc ce b0 3e 4b bb af 3d
       0.30074877 0.46082556 0.34532726 0.08580645
000110 73 78 c4 3c 5a bf 0f be 3f af bc bd 99 ac 86 be
       0.023983216 -0.14037839 -0.09213113 -0.26303557
000120 8f bb 90 3e 64 b6 36 3c 82 b6 7c 3e f9 ae 8d be
       0.28268096 0.011151884 0.24678996 -0.27672556
000130 62 98 96 3e 3b 09 7d 3f 03 d7 80 be 50 b1 e6 be
       0.29413134 0.9884221 -0.2516404 -0.45057154
000140 8e cd 23 be 41 88 9a 3e 38 c9 5d 3f e8 03 27 3e
       -0.15996382 0.30182078 0.8663516 0.16310084
000150 1f bb e2 3e c4 d1 56 3f d2 fc ec 3e 68 02 61 ba
       0.44283387 0.83913827 0.46286637 -0.00085834274
000160 61 25 80 be 3b d9 f8 3c 05 15 51 3d 35 76 1a be
       -0.25028518 0.030377021 0.051045436 -0.15084155
000170 09 92 b6 bc ca d2 05 3f ec f9 39 3e 10 b1 c8 bd
       -0.022286432 0.52274764 0.18161744 -0.09799397
000180 65 2a e6 3e 3e 20 13 3c 67 0e b6 3e af f0 94 3e
       0.4495422 0.008979855 0.35557863 0.29089877
000190 d4 6e 2f 3f 2c 64 bc 3f 4d 71 77 3f 25 1a 92 3e
       0.68528485 1.471807 0.9665726 0.28535572
0001a0 ff 29 14 3f ae 10 62 3f c8 46 0a 3f 06 50 ca 3e
       0.5787658 0.883067 0.54014254 0.39514178
0001b0 8f 68 75 bb cf a4 58 be ab 65 90 be 72 42 2f 3f
       -0.0037446355 -0.2115662 -0.28202567 0.6846076
0001c0 37 70 0f be 6d db 74 be 5f ed 2f 3e a0 91 52 bd
       -0.1400765 -0.2391183 0.17180394 -0.05140841
0001d0 e0 b7 5d 3e f0 9c 92 3e 32 ab 8f be 01 27 2e 3e
       0.21652174 0.2863536 -0.280603 0.17007066
0001e0 f4 27 57 3f 93 13 a8 3d 3c 48 20 3f 26 a8 05 be
       0.8404534 0.082068585 0.6261022 -0.13052425
0001f0 ec 98 2e be 3a db 94 3e ef 60 8f bd b2 0a 99 be
       -0.17050523 0.29073507 -0.070009105 -0.29890972
000200 47 fb 29 be e2 54 95 bc 37 83 2d bd 72 41 c6 bb
       -0.16599761 -0.018228952 -0.042361464 -0.006050282
000210 20 c9 c9 3d 25 28 4b bd a6 5b 87 be f7 75 87 be
       0.09852815 -0.04959883 -0.2643711 -0.26457188
000220 9e cb de be dc 32 9d bd b7 19 c1 3d 87 95 84 3b
       -0.43514723 -0.07675716 0.09428733 0.0040461454
000230 2a 8d d9 3e 85 a3 8e bd 17 f6 b9 bc 77 79 2e be
       0.42490512 -0.069647826 -0.022700353 -0.17038523
000240 05 7d 00 3e 70 49 0f bf 2a ba a4 be 4e ee 44 3e
       0.12547691 -0.5597143 -0.32173282 0.19231531
000250 7e 02 0f bf 1e 2f 11 3b d8 95 60 be 76 37 7f bb
       -0.5586318 0.0022153328 -0.21932161 -0.003894297
000260 f6 0b 6a 3c 9e 3e 91 be bc 3a 82 be 3e e1 cd be
       0.014285078 -0.28368086 -0.25435436 -0.4021091
000270 56 c8 34 bc 8e 9e a6 3e b0 8f 1f be 46 1d e3 be
       -0.011034092 0.32542843 -0.15582156 -0.4435827
000280 3d b3 39 be e3 e6 37 3e ac 99 21 3d 9a 66 66 3e
       -0.1813478 0.1795917 0.039453194 0.22500077
000290 d2 45 d1 bc 7d 45 1d bf b2 52 00 3e a9 c5 52 be
       -0.025545988 -0.61434156 0.12531546 -0.20583214
0002a0 0a 29 a5 bd 07 c1 59 be 4a be 84 bd 52 2a a9 3d
       -0.08064468 -0.2126504 -0.06481607 0.08260025
0002b0 8e d6 79 3d 2f fa c3 3e 78 16 b4 3d a1 c1 c6 3c
       0.06099563 0.38276812 0.08793348 0.024262251
0002c0 fa 5d da be c2 29 ec bd 66 38 92 be 9d 61 3c 3e
       -0.42649823 -0.11531402 -0.28558654 0.18396612
0002d0 15 44 b8 3d 75 a3 f9 be 34 85 bb bd 61 59 b6 be
       0.089973606 -0.4875752 -0.09156266 -0.35615066
0002e0 c5 b0 10 bd b4 20 35 3e f2 a8 51 bd 36 66 2d 3e
       -0.03532483 0.17688257 -0.05118651 0.16933522
0002f0 33 48 c1 3e ea 86 e4 3e 96 f7 90 3d 2c 27 e4 bd
       0.37750396 0.4463418 0.07078473 -0.11140284
000300 be bf 62 bc 4e 1a 2a be 6a f3 0a 3e fa 4e d5 3c
       -0.01383966 -0.16611597 0.13569418 0.026038636
000310 fb 7f 13 3e 87 ef b9 bd fa 0e e4 bb 13 5e 25 3d
       0.1440429 -0.09078889 -0.006959793 0.04037292
000320 04 a1 d2 bc 3b 5b e4 be 14 b5 0a be 01 57 c3 3e
       -0.025711544 -0.44600853 -0.13545638 0.38152316
000330 89 30 82 3c 5c f6 e8 be 65 a1 5f 3e 46 8c 51 be
       0.015892284 -0.45500457 0.21838911 -0.20463666
000340 37 58 14 3d 24 c3 d5 be 25 9c a0 bd 57 4c 2d 3e
       0.03621694 -0.41750443 -0.07842282 0.16923653
000350 59 01 c9 be d5 1c 77 bf ab ec 5b 3d c0 38 ef 3c
       -0.3925884 -0.9652837 0.0536925 0.029201865
000360 59 43 11 be c1 bd 5f 3c e3 34 9d 3e 5b a4 31 3e
       -0.14185847 0.013656081 0.30704412 0.17347853
000370 ca e8 35 bf 08 4f 99 3e eb eb 5c bf 66 2a 94 3b
       -0.7105833 0.2994311 -0.8629748 0.004521656
000380 ed 73 80 3e 9e 28 b5 be 40 df 04 be 18 31 91 3d
       0.25088444 -0.3538255 -0.12975788 0.07089442
000390 38 60 bd 3e 8c 8e d9 be ec ef 17 bf ad af 75 3c
       0.36987472 -0.42491567 -0.59350467 0.014995498
0003a0 9c 09 24 bf 30 89 bb be fa f3 8b bd e2 d6 49 bd
       -0.6407716 -0.36628103 -0.06833644 -0.049277194
0003b0 08 a6 94 be 09 65 19 bf df f5 87 bd a5 54 d2 bd
       -0.29032922 -0.5991979 -0.06638693 -0.10270051
0003c0 3a c4 b4 be 91 d6 b5 be 3f d3 81 be 41 58 b2 3e
       -0.3530596 -0.35515264 -0.2535648 0.34832957
0003d0 f6 85 92 3e d2 b4 83 bd 8f 66 c5 be fe a9 da 3d
       0.2861783 -0.06430973 -0.38554808 0.10676955
0003e0 25 1b 89 be 19 8d 0f 3d f3 80 9d be 6f 7b 88 3e
       -0.26778522 0.03504667 -0.30762443 0.26656672
0003f0 4d 43 d2 3d 92 e6 05 bf db 78 4b 3e 49 15 21 be
       0.10266743 -0.5230495 0.19870321 -0.15730776

feature.weight_ih_l0_reverse f4 [512, 64]
000000 7f a1 9c bf 1c 13 32 bf 64 9b e1 3e d5 d5 22 3f
       -1.2236785 -0.6956041 0.44063866 0.6360753
000010 33 70 f5 bd 18 5c 87 bf 78 79 c0 3e fc cc 61 be
       -0.11984291 -1.057498 0.37592673 -0.22050852
000020 5b ed 8b 3f fe 3c 8e 3e 3a ba 48 bf 34 b0 c7 3e
       1.093181 0.27780908 -0.7840916 0.3900162
000030 4e 07 23 be 8a 7d c1 be ef ad 57 3f 49 03 bd be
       -0.15920755 -0.3779109 0.84249777 -0.3691657
000040 ad 5d ce 3d 3e 26 5a be 38 17 c8 3d 90 0c 51 be
       0.10076461 -0.2130365 0.097700536 -0.20414948
000050 a0 10 73 be e6 9c b8 3f a3 46 7b bf c9 91 e7 3d
       -0.2373681 1.4422882 -0.9815466 0.11307103
000060 b5 38 8d bd d3 6f 1c 3f 82 9f 8d be 82 03 31 bf
       -0.06895582 0.6110813 -0.27660757 -0.6914598
000070 83 54 c4 3d ed e6 95 bf c2 ef 44 3e 3c 19 1e 3f
       0.09586432 -1.1711098 0.19232085 0.61757255
000080 8e 68 20 bf ef 86 2a 3e ed 41 9f be b9 d6 2d bf
       -0.6265954 0.16653036 -0.31104985 -0.67905766
000090 c5 1f 97 3e f2 33 8d bd e7 23 71 3f 5a c7 a2 bf
       0.29516426 -0.068946734 0.9419541 -1.2717087
0000a0 a0 99 75 3e 27 ae aa bc d1 79 b5 3e 1a f8 89 3f
       0.23984385 -0.020834995 0.354445 1.077884
0000b0 66 8e 40 3f 8f 97 be bd 2b 78 16 3f 57 da 7f 3e
       0.7521728 -0.09306251 0.5877711 0.24985634
0000c0 f5 cb a3 3f b2 c4 ac bd 7c ee 65 bf 7e d6 0a 3f
       1.2796618 -0.08435954 -0.89817023 0.5423354
0000d0 cb 23 b9 3e 38 85 94 3e fb 4e 78 be 4d 58 82 bf
       0.3616012 0.29007888 -0.24248879 -1.0183197
0000e0 9c c8 63 be e1 b1 03 3e 88 5a 0d bf d5 29 6f be
       -0.22244495 0.12860824 -0.55216265 -0.23355801
0000f0 aa 9a f2 3e 64 30 40 be 08 41 45 3e cf 5d 1b 3f
       0.47383624 -0.1876846 0.19263089 0.60690016
000100 55 52 91 3d 7c a4 16 3f 90 6d bc 3c 1e ca 06 3f
       0.07095782 0.58844733 0.023001462 0.52652156
000110 50 9b 3b 3f 70 2b fb 3e 00 18 88 3f 4a 40 9b 3e
       0.73283863 0.49056578 1.0632324 0.30322486
000120 09 a3 6d bf 07 e3 43 3e c5 63 44 bc d3 ec 0d bf
       -0.92826897 0.19129573 -0.011986678 -0.5543949
000130 98 e8 e7 bb 26 e5 9b 3e 40 b7 3f be d2 94 4f 3f
       -0.007077288 0.30448264 -0.18722248 0.81086457
000140 63 6c 1d bf cc 81 df be 7e 0f 21 bf a1 5f 6e 3e
       -0.6149351 -0.43653715 -0.62914264 0.23278667
000150 20 db 7f bd 7d df b7 be 8a e0 96 3f fd 3c 89 3f
       -0.062464833 -0.35912696 1.1787274 1.0721737
000160 23 b5 96 be a3 2b d7 be a5 b0 c2 3e 4f 1a 23 be
       -0.2943507 -0.4202548 0.38025394 -0.15928005
000170 a7 09 17 3f 6f e0 36 bd 1a 3e 0d bf ff ba 4b 3e
       0.58999103 -0.04464763 -0.55172884 0.19895552
000180 0c 3e 67 3d 31 16 22 be 5d 54 75 be 2d 77 ef 3e
       0.056455657 -0.15828778 -0.23957963 0.4677061
000190 5d 6f 48 3e 71 33 41 be f8 63 e2 be 95 10 7e 3e
       0.19573732 -0.1886728 -0.44216895 0.24811013
0001a0 65 cb 07 3e e7 9f 54 be 02 c8 94 3e e7 35 8e 3f
       0.13261183 -0.20764123 0.29058844 1.11102
0001b0 83 11 50 be 31 52 cc bd 01 4e 93 be 31 6a 43 bf
       -0.2031918 -0.09976614 -0.2877045 -0.7633391
0001c0 cd 2a 87 3f a2 b7 91 bd 3a bc 2e 3f 0d 12 20 bf
       1.0559937 -0.07115103 0.6825596 -0.62527543
0001d0 c9 8d a6 bd c4 78 3c bf 67 62 24 3f a5 db f1 3e
       -0.08132512 -0.73621774 0.6421265 0.47237888
0001e0 24 dc 01 be c3 e5 04 bb 54 cb 4c 3f 7f 93 c8 be
       -0.12681633 -0.002027855 0.79997754 -0.3917503
0001f0 20 ee 6b 3e 61 e7 23 3f 24 97 5d 3e 27 c3 45 3f
       0.23040056 0.6402493 0.21639687 0.77250904
000200 09 8d 3e 3f d9 24 8f 3f cf 12 af be 49 d5 bc bd
       0.7443395 1.118312 -0.34194037 -0.092203684
000210 c0 9e dc 3e aa 94 90 be f7 75 e6 be 9c 66 3b be
       0.43089867 -0.28238422 -0.45011875 -0.18300861
000220 17 e0 cc bd 34 cd d9 bc aa 60 84 3f 94 39 03 3f
       -0.10003679 -0.026587106 1.0342 0.5125973
000230 03 8c 09 be d9 05 08 be 40 42 bb 3e ee 95 5a be
       -0.13432316 -0.1328348 0.36573982 -0.21346256
000240 43 80 91 3d 21 c0 cc be 40 59 41 bf 05 f7 42 bf
       0.07104542 -0.39990333 -0.7552681 -0.7615817
000250 63 86 35 3f dd eb 9a 3f ac 69 f7 3e 11 cb 2b be
       0.7090818 1.210323 0.4832281 -0.16776682
000260 d2 6a 1d 3f 0d a4 9a be d4 9e c5 3e 0e b0 7e 3e
       0.6149112 -0.30203286 0.3859774 0.24871847
000270 b3 3e c8 ba 70 39 58 bf bd 90 ae be 23 37 2f 3f
       -0.0015277475 -0.8446264 -0.34094802 0.68443507
000280 f1 62 6a be 27 a7 a1 be 62 f9 65 be f0 60 48 3e
       -0.22889306 -0.3157284 -0.22458413 0.19568229
000290 a6 19 09 bf ca 25 a7 bd 0d b4 0a be c2 dc 95 3f
       -0.5355476 -0.081615046 -0.13545246 1.1707995
0002a0 b1 a7 86 3f d2 71 a2 3e 60 b6 c8 be e7 df aa bb
       1.0519925 0.31727463 -0.3920164 -0.0052146795
0002b0 74 4f df 3f e0 47 d0 3e 96 b1 94 bd b0 87 16 bf
       1.7446122 0.40679836 -0.07260434 -0.5880079
0002c0 39 c7 47 3f c6 ee ad 3d 25 21 10 3f da e8 a1 be
       0.78038365 0.08492808 0.56300575 -0.31622964
0002d0 30 de f2 be 64 34 33 3f e9 34 cf 3e fc a1 2d 3f
       -0.4743514 0.70001817 0.40470055 0.67825294
0002e0 d5 b2 65 3e b2 59 1a bf d7 e3 87 be 8a fa bc be
       0.224315 -0.60293114 -0.26541016 -0.36909896
0002f0 e9 d9 8c 3b c9 b7 82 3e 8b 86 40 be 59 83 31 3e
       0.004298438 0.25530842 -0.18801324 0.17335261
000300 a9 12 3f be 45 ac 8b 3e a1 3e b4 bd 3c df 0d 3f
       -0.18659462 0.2727987 -0.08801008 0.55418754
000310 d6 e3 85 be f5 8f d4 3e 3e 67 72 bb 6e d9 b8 3d
       -0.26150388 0.4151608 -0.0036987807 0.090258464
000320 2f a7 5c 3e 48 96 d8 bd 7f ba 9c bf 22 3f e7 3e
       0.2154815 -0.10575539 -1.2244414 0.45165354
000330 4a b6 35 be be d0 87 3d 10 99 94 be 2b 25 39 be
       -0.17745319 0.06631611 -0.29023027 -0.18080585
000340 bc 8c 64 bf 70 30 4c 3e e5 8e cf 3e 6b d3 b1 3f
       -0.89277244 0.19940352 0.40538707 1.3892645
000350 0c 9f a8 be 37 b1 2a 3f d3 78 45 bf 64 b6 ac bd
       -0.32933843 0.6667666 -0.7713749 -0.08433226
000360 b5 70 82 be 1e eb e4 3e 31 11 1e bf 73 c3 f1 3e
       -0.25476614 0.4471063 -0.6174498 0.47219428
000370 8b 42 83 3e c3 fb a6 3f 58 91 a0 3d a3 5d 4c be
       0.25636706 1.3045582 0.07840222 -0.19957595
000380 b1 d4 2b 3f cb b7 02 3e 84 ae 23 3f 3a 47 1f be
       0.67121416 0.12765424 0.63938165 -0.15554515
000390 31 07 9f be c2 6f 62 be 18 49 82 3e f6 c6 03 be
       -0.31060174 -0.22112945 0.2544639 -0.12868866
0003a0 bf a1 b8 3e 18 c2 94 be 83 6e ff bd 6e 8b 8f 3e
       0.36060902 -0.29054332 -0.1247225 0.28036064
0003b0 11 b7 99 3e d0 c1 73 be 37 68 26 bf 56 c2 36 3f
       0.3002248 -0.23804402 -0.6500277 0.71390283
0003c0 75 36 15 3e e1 07 bd 3d 11 25 32 bf dd be ef 3e
       0.14571555 0.092300184 -0.6958781 0.46825305
0003d0 7f 83 6c bf ab 12 a0 bd b8 24 8d be 03 0f e8 3e
       -0.9238815 -0.07816061 -0.27567077 0.45323953
0003e0 a9 6c fe 3e d1 a3 85 3f 58 e5 9c 3e fb 8d cb be
       0.49692276 1.0440618 0.30643725 -0.3975676
0003f0 61 0b 3b 3d 58 a2 2c be 38 ac 0b 3f b2 46 4a bd
       0.04566515 -0.16858804 0.5455966 -0.049383827

feature.weight_hh_l0_reverse f4 [512, 128]
000000 af 24 7a bf b3 15 1a 3f d7 62 97 3d ce ff 1b 3f
       -0.97712225 0.6018936 0.07391899 0.609372
000010 4f c1 9b be c7 c4 d0 3e f5 d3 4e 3f 1f 16 af 3d
       -0.3042092 0.4077513 0.8079217 0.08549141
000020 56 9e 9d bf e9 06 fc 3e 69 2e 0d bf 0a 8c 16 3c
       -1.2313945 0.49224022 -0.5514894 0.009188661
000030 3c 53 fe be 2a 63 50 3e 9f d3 31 bf 61 19 4c bf
       -0.49672878 0.20350328 -0.69463533 -0.79726225
000040 ea 0d ea 3e bb 1a c4 be ad 60 96 bd 27 42 24 3e
       0.4571374 -0.38301644 -0.07342658 0.1604086
000050 79 64 39 bd b3 1b 7b 3f 6a 29 d7 3d f9 f3 23 bf
       -0.045261834 0.9808914 0.10505946 -0.6404415
000060 2d 36 31 3c bf 02 c8 3f 30 0c 3a 3f c2 56 fa 3e
       0.010816139 1.5625838 0.72674847 0.48894316
000070 48 e8 fa 3d e5 94 17 be ea 17 12 3c 0e ba fb bc
       0.122513354 -0.14802893 0.008916834 -0.030728366
000080 e4 2f 06 3f 22 26 1f bf d3 17 0f 3f a4 52 30 3f
       0.52416825 -0.6216756 0.5589573 0.688761
000090 6c d2 1b be d5 cf b3 be 3b ef 34 be c8 49 cb bc
       -0.15216988 -0.351195 -0.17669384 -0.024815455
0000a0 32 29 3f bf 12 ff 18 bd e2 a3 e9 be 11 81 a2 3f
       -0.74672234 -0.03735263 -0.45632845 1.2695638
0000b0 ee fa 42 3f 46 b8 40 3f 7b 44 b1 3e 98 13 b8 3f
       0.7616414 0.7528118 0.3462256 1.438098
0000c0 e5 8a 37 3f 83 b5 db 3e 88 50 28 bf 1b 8e 98 bf
       0.7169631 0.4291192 -0.6574788 -1.1918367
0000d0 40 0a ae be 92 86 d4 be 0a c5 1e 3f 01 b0 b9 be
       -0.33992195 -0.4150892 0.6201941 -0.36267093
0000e0 8d de 2f bf 8c 92 d9 be b5 79 2d 3f 29 bb 94 3f
       -0.6869896 -0.4249462 0.67763835 1.1619617
0000f0 84 76 42 bf 60 98 5b 3f 9b 27 ed 3d e4 30 18 bf
       -0.7596209 0.8577938 0.1157982 -0.594496
000100 e2 d6 d1 be 50 c0 40 bf f5 19 a8 be 9e 39 8a 3b
       -0.40984255 -0.75293446 -0.32832304 0.0042182943
000110 b4 36 48 bf 9f 97 9a 3e d1 e0 fb be f0 29 0a 3f
       -0.7820847 0.30193803 -0.4919496 0.5397024
000120 1f dd 1a 3f f0 4a 1f bf 84 0b 60 bf 86 c6 01 3f
       0.60493654 -0.6222372 -0.8751757 0.5069355
000130 40 c2 06 bf bb 38 7b 3e 35 99 12 3f 2d 46 fa 3e
       -0.5264015 0.2453336 0.57265025 0.48881665
000140 9e 7b ee 3b fb 6d 2e 3f 20 c5 48 3e 25 42 93 3e
       0.00727792 0.68136567 0.19606447 0.28761402
000150 10 aa 12 be 51 20 6f be 35 14 16 3f 7c ed 6f 3f
       -0.14322686 -0.23352171 0.58624583 0.9372175
000160 b8 df 1d 3e c4 4e 24 3e cd 7e 6f 3d f1 df 81 3f
       0.15417373 0.16045672 0.058470536 1.0146466
000170 a5 fb e7 be ea 5d 9c 3e b2 da 37 be 91 b0 03 3e
       -0.45309177 0.305404 -0.1795452 0.12860323
000180 53 78 90 3d 54 ab 86 3f 1c 90 7d 3d dc 1d aa be
       0.070542 1.0521035 0.06190501 -0.33225906
000190 cf 39 7e be f1 6a c2 bf d5 37 d1 be 91 1d 78 be
       -0.2482674 -1.5188886 -0.4086291 -0.24230029
0001a0 f6 87 78 be c9 72 7d 3f fa 2f 0e 3e 55 39 d2 bf
       -0.24270615 0.99003273 0.13885489 -1.6423746
0001b0 a7 33 84 bf 43 3e 7f 3d 47 0f 36 bf e5 14 75 bf
       -1.0328263 0.062315237 -0.7111706 -0.9573501
0001c0 8e f3 ba 3e 97 37 b0 be d3 82 1e 3f 4f 4c 4d be
       0.36513942 -0.34417412 0.6191837 -0.2004864
0001d0 55 23 65 be 4c 86 36 bf 8a b8 14 3f c6 be bb 3e
       -0.2237676 -0.7129867 0.58094084 0.36668986
0001e0 41 f3 23 bf e7 41 59 3e b3 3b 41 3f 56 8d d9 3e
       -0.6404305 0.21216546 0.7548172 0.42490643
0001f0 c6 b2 7a 3f 0a 78 2d 3f 6b 75 49 bd 43 6e a3 be
       0.97929037 0.6776129 -0.049184244 -0.3192006
000200 27 a3 cb be 93 43 73 3e ec ab 52 bf 2b a3 86 3f
       -0.39772913 0.23756246 -0.8229358 1.0518545
000210 10 58 47 be 51 92 3b 3f d6 06 82 3f 49 82 97 bf
       -0.19467187 0.73270136 1.0158336 -1.1836635
000220 48 ba d5 3d 14 97 2a 3e 3a 71 90 3e 8f c8 1f 3f
       0.10435921 0.16659194 0.28211385 0.62415403
000230 7e 53 44 be bb c5 14 be af 3e b9 bd eb a9 2d bf
       -0.19172475 -0.14528553 -0.09045159 -0.678374
000240 62 30 f1 be 7d 2a 62 b9 6d 1d b5 3e a5 09 83 3f
       -0.47107226 -0.00021568868 0.35374013 1.0237318
000250 e9 5d 80 bf 1e 65 0b bf 79 73 8f 3c 0f d9 09 bf
       -1.0028659 -0.5445117 0.017511116 -0.5384683
000260 ec 88 ca be 46 06 e6 3d 80 73 ae be 12 60 64 3f
       -0.39557588 0.11231665 -0.34072495 0.8920909
000270 ea b5 2c be f3 07 e5 bd 1b 44 49 be 57 73 92 3f
       -0.1686627 -0.11183157 -0.19654886 1.1441449
000280 7a bb c4 be a0 53 ae 3e 9b c6 52 be 74 e7 b9 be
       -0.38424283 0.34048176 -0.20583574 -0.36309397
000290 f8 ba d1 3e 2e e9 cd 3e a1 23 45 bf f5 e9 58 3e
       0.40962958 0.40216964 -0.7700749 0.21182998
0002a0 f1 c8 a5 3d ba a3 72 3e ac a7 89 39 1b ff 62 be
       0.08094967 0.23695269 0.00026255602 -0.22167628
0002b0 df 17 3c bb a4 56 15 3e 24 7e 02 bf 4c d3 88 bf
       -0.0028700752 0.14583832 -0.50973725 -1.0689483
0002c0 da 16 03 3f fe 66 15 3e 74 8f f1 be 1b b1 ad 3e
       0.51206744 0.1459007 -0.4717976 0.33924183
0002d0 d1 4a 0b 3e f4 fc ff be 6f 6a c4 3c 8d d4 08 bf
       0.13602759 -0.49997675 0.023976533 -0.53449327
0002e0 e2 3c 97 3e a0 c4 92 3e ae b3 c2 be 52 fa de 3e
       0.29538637 0.28665638 -0.3802771 0.43550354
0002f0 d2 f9 ec be b7 24 50 3f 3f 2b 0d 3f 07 fa 11 3e
       -0.46284348 0.8130602 0.55144113 0.14255534
000300 2f c8 bb bf 14 d2 09 3f 76 13 8a bf 39 1c 5b 3e
       -1.4670466 0.5383618 -1.0787189 0.21397485
000310 96 63 2b bf b2 e5 36 be 35 2a 41 bf ff 26 34 3f
       -0.6694883 -0.1786106 -0.7545503 0.70372003
000320 46 2d 10 be 1f 49 0b 3f f4 c3 9f bd 81 2b 88 bf
       -0.1407977 0.5440845 -0.07801047 -1.0638276
000330 5f 56 29 bf c3 c4 bf be b7 17 d0 3e c9 f3 0e be
       -0.66147417 -0.37454805 0.40643093 -0.13960184
000340 6e f9 f5 3d 7f 46 26 3f d5 01 81 be d8 f6 11 3e
       0.120104656 0.6495132 -0.2519671 0.1425432
000350 ba a5 93 bf 5f 0d 4a 3f e8 f1 97 3f f4 5b b7 be
       -1.1534951 0.7892665 1.1870699 -0.35812342
000360 27 41 76 3f 06 66 7d 3e ca 38 99 3d 13 fc ab be
       0.96193165 0.2474595 0.07481535 -0.33590755
000370 50 2e 52 bf ce 3d 15 bd 15 98 bc bf 67 72 1a 3f
       -0.8210192 -0.036435895 -1.4733912 0.60330814
000380 1c e6 fa be 95 5e cf be 15 6e 7f be e3 05 33 bf
       -0.49003685 -0.40501848 -0.24944337 -0.6993086
000390 6b 2c 4f 3f a5 9c 66 3f de fb 27 3e b2 8c 76 3f
       0.8092715 0.9008277 0.16404673 0.96308434
0003a0 c2 97 7c bf 54 19 4b be b8 3c 87 3f d5 50 8b 3e
       -0.98669064 -0.1983388 1.0565405 0.27210107
0003b0 47 00 b5 bd 27 bf 62 be 1a 08 87 bf 17 60 e9 bd
       -0.088379435 -0.22143231 -1.0549347 -0.11395281
0003c0 55 c2 35 bf 4f 3d 03 3f 50 8f d2 bc b9 7e 27 bf
       -0.7099965 0.51265424 -0.025703102 -0.6542774
0003d0 10 c2 1a bf 79 19 40 3f a3 62 2e bf a1 4c 73 3e
       -0.60452366 0.7503887 -0.6811926 0.237597
0003e0 11 91 24 3f 2f 16 10 bf d0 0d b7 be e4 79 8c be
       0.64283854 -0.5628385 -0.35752726 -0.27436745
0003f0 2c f3 84 3f 68 4a 0c 3e 7c b0 96 3e 48 86 23 3e
       1.038671 0.13700259 0.29431522 0.15969193

feature.bias_ih_l0_reverse f4 [512]
000000 e1 54 b8 3d 77 b1 24 3e be a4 db 3e ad 2e 93 3e
       0.09000564 0.16083322 0.42899126 0.28746548
000010 9f fb 29 3c b4 a1 b4 3e 04 6c a2 3d 50 12 ab 3e
       0.010374933 0.3527962 0.079307586 0.3341241
000020 3d 23 a4 be 4a 3c 51 3d 50 e5 48 be f0 58 4a 3f
       -0.32058135 0.051082887 -0.19618726 0.7904196
000030 7f 93 d9 bd b2 3a e0 3d 4e d0 44 3f 36 9f 4d be
       -0.10623836 0.10948695 0.7688035 -0.20080265
000040 67 9e 8c 3e 09 17 20 be d9 5c a1 bd 20 f1 b5 bd
       0.274646 -0.15633787 -0.078790374 -0.088838816
000050 61 bf 58 be cb e2 93 be ce 6c 1c 3e 5d 03 91 3e
       -0.21166755 -0.28883967 0.1527588 0.28322878
000060 4e 98 c8 3c fb 75 a6 3d d1 f8 e8 3d 42 5d 21 be
       0.024486687 0.08127972 0.11375583 -0.15758231
000070 29 ec 0f be c6 7b 56 bd d0 9b 10 3d 8d 2e f8 3e
       -0.14054932 -0.052364133 0.035304844 0.48473015
000080 7e 6d 1e be d2 b5 7f be ba 4a 0b 3e be 34 0c bd
       -0.15471455 -0.24971703 0.13602725 -0.034229986
000090 a7 cf 17 3d 0b d6 2f 3f 2f b7 a8 3e 3f 42 40 be
       0.037063267 0.6868598 0.32952258 -0.18775271
0000a0 04 c2 3c be 5d 89 b3 3d 4b df 18 3f 29 13 54 3e
       -0.18433386 0.08766434 0.5971572 0.20710434
0000b0 24 88 84 bd 40 26 41 be 1a 3e cf 3e 59 3a dd be
       -0.06471279 -0.18862247 0.40477067 -0.43208578
0000c0 63 34 07 bd 4f 54 8f 3e 83 5e a8 3e 54 8f 49 3e
       -0.033008944 0.2799401 0.32884607 0.19683582
0000d0 18 d7 0f be c7 d2 3b 3e a4 31 a3 be af 09 00 3d
       -0.14046896 0.18342124 -0.3187381 0.031259235
0000e0 1b 1b 1c 3f 78 ef 34 be d8 16 07 3e 15 9c 40 be
       0.6097886 -0.17669475 0.13192308 -0.1880954
0000f0 c7 78 02 3e 0c d2 95 3d c4 4e d0 be a6 b3 b5 3e
       0.12741385 0.07315454 -0.40685093 0.35488623
000100 68 34 c3 3d 9f 1c da 3e d9 7c 8b 3e d5 53 00 3d
       0.0953148 0.4259996 0.2724369 0.03132995
000110 71 b0 ad 3e 41 8d 29 3d 7b ae b2 3e f9 3c e7 3b
       0.33923677 0.041394476 0.34898743 0.007056829
000120 7f 4c 9c bb 52 7e 0f 3d 92 b1 8d 3c 32 1f 37 be
       -0.004769861 0.035032578 0.017296586 -0.17882994
000130 54 85 6c 3f 3c d5 c4 3e 81 a4 eb 3e cf 34 9c bd
       0.9239094 0.38443935 0.46023944 -0.0762726
000140 cd 4a d3 3e e4 ff c8 3e bd 63 29 3e 01 88 7f 3d
       0.41268006 0.3925773 0.16541953 0.062385563
000150 2c 6b 27 bf 27 d9 c8 3e 5f b0 84 bd 33 f9 ec be
       -0.65397906 0.39228174 -0.064789526 -0.46283874
000160 32 72 27 3e 51 d8 ac 3d 5d a2 24 be 40 83 a1 bd
       0.16352156 0.084396966 -0.16077562 -0.07886362
000170 ef d6 72 3d 15 9c 11 bd 83 db 29 3d 6e af 56 3e
       0.059287008 -0.035549242 0.04146911 0.20965359
000180 e2 59 26 3d cd a6 f1 3e 80 7d 8d 3e 03 e8 66 3d
       0.040613063 0.4719757 0.2763481 0.056373607
000190 9e 75 0f 3d dd dd 4c 3c 8f 62 fd bd be d1 97 3e
       0.035024278 0.012504068 -0.12372314 0.29652208
0001a0 fd 4a db 3d 59 f0 0c 3d 15 75 9c 3d da bb 3a 3e
       0.10707662 0.0344089 0.07639519 0.18235722
0001b0 44 a0 72 3e 7a 3e ce 3d 8a 23 64 3e be c1 25 3e
       0.23693949 0.1007051 0.22279182 0.16187188
0001c0 c7 a2 f4 3e c2 c5 56 be eb a8 06 3f 49 17 d3 bd
       0.4778044 -0.20973876 0.526015 -0.10307176
0001d0 96 9f ff 3c da 92 03 3f 6a e8 dc 3e d2 85 37 bd
       0.031204026 0.5139595 0.43146068 -0.044805355
0001e0 99 ae 26 3e 95 3d 22 3f 61 ef 6d 3d 85 59 67 3e
       0.16277541 0.63375217 0.058089618 0.22592743
0001f0 53 0d 1b 3f e5 26 82 3d c2 f2 a9 bd d7 d0 cc 3e
       0.60567206 0.06355075 -0.082982555 0.40003082
000200 d8 43 67 be ec 96 01 bf bc 2f 8d be 04 83 9a bd
       -0.22584474 -0.50620914 -0.2757548 -0.075445205
000210 1d 42 a5 3d 17 40 1e 3f 13 ae d4 3e 9b ef 53 be
       0.08069251 0.61816543 0.41539058 -0.20696871
000220 57 32 0f 3d 49 79 1b 3e 94 2d 95 3e cc 3c 46 bf
       0.034960117 0.15182985 0.29136336 -0.7743652
000230 fa 29 09 3f 63 fb 20 3e a5 e0 16 bf 54 9a b6 be
       0.53579676 0.15720896 -0.5893653 -0.35664618
000240 80 68 bb be f6 76 53 3e cf b7 1f 3e 9e 32 be bc
       -0.36603165 0.20650849 0.15597461 -0.023217496
000250 07 aa 9f be ee e4 11 3e 96 ac 85 be 46 52 83 bd
       -0.31184408 0.14247486 -0.26108235 -0.06412177
000260 1d 68 3a be 06 92 8f 3e 98 ce 68 3e 13 00 34 3c
       -0.18203779 0.28041095 0.2273506 0.010986346
000270 90 f8 15 bf 59 f4 8d 3e 4f 38 01 3f 77 57 91 3e
       -0.585824 0.27725485 0.50476545 0.28387043
000280 4d d9 71 bd 0e 21 dc 3d 58 0b 80 bc 7b c6 e6 bd
       -0.059045125 0.10748492 -0.01563041 -0.11268326
000290 78 e6 e3 bc 68 b7 98 be 9c 9c 5e be 5b f5 86 be
       -0.027819857 -0.29827428 -0.21739429 -0.26359066
0002a0 16 2b 26 3f 6c 45 86 be 53 cc 92 be 55 7e b3 be
       0.64909494 -0.2622484 -0.28671512 -0.3505732
0002b0 d0 83 3c 3e e2 6d e2 bd 5d ef 74 be fb a4 85 bd
       0.18409657 -0.11056115 -0.23919435 -0.06525608
0002c0 b1 2c a0 3c 52 73 be 3e 02 60 78 3e 84 5e fc bc
       0.01955256 0.37197357 0.24255374 -0.030806787
0002d0 64 94 e2 bd 35 34 3c be 60 32 31 3d b3 32 04 bf
       -0.110634595 -0.1837929 0.043260932 -0.5163986
0002e0 06 b8 f9 3c fb d1 3a 3e eb 93 3b 3e f0 b4 a5 3d
       0.030483257 0.18244164 0.18318145 0.08091152
0002f0 82 88 ee bd df 49 2e be 6e f2 6b bb 7a 22 97 be
       -0.116471305 -0.17020367 -0.0036002654 -0.2951849
000300 3d 2c 9a 3d f6 a5 78 3e 9a fc 35 bd af 43 99 be
       0.07527969 0.24282059 -0.044430353 -0.2993445
000310 12 64 03 3e 8c 44 31 be 58 65 bf be 29 e8 25 3e
       0.12831143 -0.17311305 -0.37382007 0.16201843
000320 a7 1b 06 be 28 ad 03 3e 7e 95 90 3c e8 b2 80 bd
       -0.13096486 0.12859023 0.017649408 -0.06284124
000330 0b e3 5d be 7c 6b af 3d 49 22 88 3e c6 56 7a be
       -0.21668641 0.08565423 0.26588657 -0.24447164
000340 7f 5b bf be 40 02 62 3e 8c a0 04 3e 22 df 4a 3e
       -0.37374493 0.22071171 0.12951869 0.19811681
000350 75 5e a5 3d ff 04 96 bc ce e6 82 be ee f2 34 3e
       0.08074657 -0.01831293 -0.25566715 0.17670795
000360 54 a8 c3 be 17 df 86 3d 23 e7 a4 3e 6e ec 23 3e
       -0.38214362 0.0658552 0.32207593 0.1600816
000370 a3 1c 0a bd 44 90 fe 3d d6 37 15 be c4 63 3e be
       -0.033718716 0.1242986 -0.14572081 -0.18592745
000380 8f 53 c7 be b9 51 dc bd 6d 71 06 3f 9b 01 2d 3f
       -0.38930938 -0.10757775 0.52516824 0.67580575
000390 25 d5 8e be aa 26 1b be 74 16 03 3f 1f 31 e2 3e
       -0.2789699 -0.15151468 0.51206136 0.441781
0003a0 17 a1 1b 3e d8 61 c1 3c 68 2b 3f 3f b3 d7 f1 bc
       0.1519817 0.023606226 0.7467561 -0.029521799
0003b0 a5 20 5a bd 48 89 9c 3d 57 e0 10 be 67 89 b2 be
       -0.05325379 0.07643372 -0.14148079 -0.34870455
0003c0 86 07 18 be f5 21 66 3e 56 c0 1d bf 6b 04 79 be
       -0.1484662 0.22473891 -0.61621606 -0.24318092
0003d0 7f 02 d3 39 a6 f4 a1 3b f0 5f 9e be 01 c9 d8 be
       0.00040246916 0.0049424944 -0.3093257 -0.42340854
0003e0 82 34 d6 be fe 53 4c 3d 2a 67 79 be b3 5d 6c 3c
       -0.41836935 0.04988479 -0.2435576 0.0144266365
0003f0 c9 f8 26 bf 14 a3 ef 3d e1 04 01 be 17 42 02 be
       -0.65223366 0.117010266 -0.12599517 -0.12720524
