logs/classifier/10_contexts/fold_02/10-18-2022_10-33-33/model_params.pth (torch, 822087 bytes, 10 tensors)

feature.weight_ih_l0 f4 [512, 64]
000000 9a 84 97 bd 9c c7 14 be 0f f8 85 3d 36 f5 5e 3e
       -0.073983386 -0.1452927 0.06541454 0.21773228
000010 39 07 0f bf 02 0e 6a 3d aa c2 7e 3f 56 f3 6f 3f
       -0.55870396 0.057142265 0.99515784 0.93730676
000020 b7 c0 02 3f da 20 8e be bd 53 9b 3e 81 84 7b 3f
       0.5107531 -0.2775944 0.30337325 0.9824906
000030 cb d3 55 bf 1c c5 1e 3d cf b6 e4 3e da ce d1 3d
       -0.83526295 0.038762197 0.44670722 0.10244532
000040 a0 9c a8 be 88 f4 15 3f 86 e2 33 3e 9f 75 c4 3e
       -0.32931995 0.5857625 0.1756688 0.38370988
000050 4b cf ba 3e bf 3e 7a 3c 38 28 15 bf aa e3 13 be
       0.36486277 0.015273749 -0.58264494 -0.14442316
000060 1f a3 0f 3e 63 e1 52 3e 77 3e c9 bd 2a 55 04 3f
       0.1402707 0.2059379 -0.09826367 0.5169245
000070 3d bd cd 3e 22 d8 46 bf a2 0a 49 3e e9 07 3e bf
       0.4018344 -0.7767354 0.19632962 -0.7423082
000080 a7 1e 2f be 1d 16 cf 3e be 1d 46 bf 2f 2f 5f 3f
       -0.17101537 0.4044656 -0.7738913 0.8718137
000090 3f 15 00 3f f2 51 c3 3c 91 5e 1f be 34 b2 ad 3e
       0.5003242 0.023842786 -0.15563418 0.3392502
0000a0 83 93 08 3f ce 8d 00 bf 79 e0 31 3f 88 34 33 bf
       0.53350085 -0.50216377 0.69483143 -0.7000203
0000b0 f7 a1 8a be 50 5b d0 be 2c 2e 4e 3f aa b1 73 be
       -0.27076694 -0.40694666 0.805392 -0.23798242
0000c0 d7 1b ec 3e dc 3c 09 3f b9 6c c4 be 30 8e d8 3e
       0.4611499 0.5360849 -0.383642 0.4229598
0000d0 d1 74 0b 3f 80 15 3f bf 22 70 a8 be 8f 5e 09 3f
       0.5447512 -0.7464218 -0.3289805 0.5365991
0000e0 16 49 ad 3d 65 ca dd 3d 03 6c d4 bd 81 17 28 bf
       0.08461206 0.10829619 -0.10372164 -0.65660864
0000f0 a0 93 ae 3e ac cf 26 be bf b2 7f 3e 31 53 58 bf
       0.34097004 -0.16290158 0.2497053 -0.8450194
000100 fe 99 4a 3e 50 06 ac 3f 97 58 4c 3f 0c 18 81 3f
       0.19785306 1.3439426 0.7982268 1.0085464
000110 61 29 b2 be 89 2a af 3f ed 1c 92 3e c9 86 39 3e
       -0.34797195 1.3684856 0.28537694 0.18117823
000120 2d a4 a2 be 08 05 8e 3f 16 61 26 3f 94 92 04 3f
       -0.3176588 1.1095285 0.6499189 0.5178616
000130 59 2b 79 3f 24 6f f8 be 7f 55 e3 3e a6 83 9f be
       0.9733177 -0.48522294 0.44401166 -0.31155127
000140 df 62 0c 3f 2f 9a 8b be 1d 1e 4b 3e a8 cc 7a bf
       0.54838365 -0.2726607 0.19835706 -0.9796853
000150 60 0a c8 3f fe a3 ab 3e 83 2c e5 3c 95 0a 7a be
       1.5628166 0.33523554 0.027975326 -0.24418099
000160 a8 3c 1e be 45 b2 22 3f 78 63 80 3e 34 d9 1f bf
       -0.15452826 0.6355327 0.2507589 -0.624408
000170 8b 9f 26 bf 6e 33 37 3f ca 7e 39 3f fc b7 9f 3e
       -0.65087193 0.7156285 0.7245909 0.31195056
000180 50 76 c7 3e 6f 83 96 3f b1 a8 19 bf 62 94 81 be
       0.38957453 1.175886 -0.6002303 -0.2530852
000190 90 07 03 be a6 52 20 3c b2 70 d4 3f e6 66 a7 be
       -0.12795854 0.00978533 1.6596892 -0.32695693
0001a0 9b 17 0c bf 87 bd 49 3f 88 73 2a bd fd 05 09 3d
       -0.5472352 0.7880482 -0.041614085 0.033452976
0001b0 67 f1 c7 3c 9b dd 07 bf 01 7c 0f bf a5 34 07 bf
       0.024407102 -0.5307252 -0.5604859 -0.52814704
0001c0 6a 37 6c 3f 4c 47 ba 3e d1 be 93 be d8 87 3e 3f
       0.92272055 0.3638252 -0.2885652 0.7442603
0001d0 ec 90 d8 3c d2 3f 86 3f 69 51 9b 3d 5c ef 89 3b
       0.026436292 1.0488226 0.07583887 0.004209442
0001e0 50 9a ae 3d 47 0d cf 3e 0d ad 30 3f 66 7c 23 3e
       0.085255265 0.40439817 0.69014055 0.15965423
0001f0 1f 96 5b bf 98 9f fc 3e f5 03 db 3f e8 a4 9c be
       -0.8577594 0.4934051 1.7110583 -0.30594563
000200 eb d6 e0 be 98 80 54 3e 3e 09 8f be f0 f0 45 bd
       -0.4391397 0.2075218 -0.2793674 -0.04832548
000210 9c 05 7a bd c9 b1 b0 3e 10 e0 4f 3f 6c 8a 14 3f
       -0.061040506 0.3451064 0.8120127 0.58023715
000220 2a 21 07 3e 53 8b 57 be e9 1e 8b 3f fe 5d 59 3f
       0.13196245 -0.21049242 1.0868808 0.84909046
000230 94 15 17 bf 39 46 4b bd 71 9b 4e bc 29 1d 19 3f
       -0.590173 -0.049627516 -0.012610302 0.5981012
000240 8a c0 39 be 9b 1e af be 46 41 05 bf 38 e1 0c 3e
       -0.18139854 -0.34203038 -0.52052724 0.13757789
000250 4c e0 d2 3e 34 4e 84 be 1c 42 4c bf 3a bc 2c bf
       0.4118675 -0.25840914 -0.79788375 -0.6747471
000260 0f fd d5 3e 27 3a 62 3f cc fd 24 bd d6 df 2e 3e
       0.4179463 0.88369983 -0.040281102 0.17077574
000270 3f e3 34 3e 7c de 0d 3d 90 7a f4 3f 8e e4 f9 3e
       0.17664813 0.034636006 1.9099903 0.48807186
000280 de cd 13 3f a9 8f 84 3f 4c 75 b9 3e fd 59 5c bf
       0.57736003 1.0356342 0.36222303 -0.8607481
000290 e3 b0 b0 3e 93 b1 b3 be 56 c4 b6 3d 1a fb 94 be
       0.34509954 -0.35096416 0.08924167 -0.29097825
0002a0 2c d3 ae 3e 25 1d 13 be b6 51 08 bf 69 fd ca bd
       0.34145486 -0.14366587 -0.5324968 -0.099116154
0002b0 b8 7a e3 be eb c7 12 bf eb 96 51 be 2f b9 66 bd
       -0.44429564 -0.573363 -0.20467727 -0.05632895
0002c0 82 19 b9 3f e7 e9 12 bf 4a 40 52 3f af 6e 2b 3d
       1.4460909 -0.57388157 0.8212935 0.041853603
0002d0 fc 29 4a 3f e6 4d ac 3d 0f 8c 7e 3f d4 fe 29 3f
       0.78970313 0.084132954 0.9943246 0.6640446
0002e0 db 0e b3 3e 35 be d1 be 51 b0 9f 3e 33 da 02 3f
       0.3497227 -0.4096543 0.31189206 0.51114196
0002f0 c8 f6 25 3f 87 ed dc bd c2 6a 95 bc 52 a9 2d 3f
       0.64829683 -0.10787492 -0.018239383 0.6783649
000300 d6 2e 39 be 68 88 23 3d 89 99 96 3f e8 cb 0d bf
       -0.18084273 0.03992501 1.1765605 -0.5538926
000310 02 58 18 bf a1 e0 15 bf 4c c8 24 be 95 12 0c 3f
       -0.5950929 -0.5854588 -0.16092032 0.54715854
000320 3e 30 ee bd 74 7c 2c bf 3b 3e 2d bf 6a 73 95 bd
       -0.11630295 -0.673774 -0.6767308 -0.07297404
000330 42 00 64 bf 21 5c 0d bf 65 41 0e 3f 65 e3 5b bf
       -0.89062893 -0.552187 0.55568534 -0.8589385
000340 2d 02 9e 3d 08 d9 dd 3f 1f 94 c3 3e b8 f5 2b 3f
       0.07715259 1.7331858 0.38198945 0.6717181
000350 16 be 0d bf 30 94 84 3e 01 17 b2 bf 56 8d 32 bf
       -0.55368173 0.25894308 -1.391327 -0.6974691
000360 ec 8d c6 bf 38 69 87 be 8e 16 99 3f ad f4 c9 3d
       -1.5512061 -0.26447463 1.1960008 0.09861121
000370 d5 44 14 bf 87 81 14 bf cc bb d6 bf cc 22 e7 3f
       -0.5791753 -0.58010143 -1.6776061 1.8057494
000380 23 a8 5e 3f 4d 26 1f bf 1a 36 48 bf 14 82 3e be
       0.86975306 -0.6216782 -0.7820755 -0.18604308
000390 8e fc c7 3d b6 2b 28 3f 8a 0d 9e 3e eb f4 80 3f
       0.09764968 0.656917 0.30869704 1.0074743
0003a0 3b 5d ab bd 19 f5 9b bc 20 5d 06 3f 59 d4 c5 3e
       -0.08367392 -0.01903777 0.5248585 0.3863857
0003b0 6a c0 42 3f c4 84 d2 3e 95 90 d4 3e 3c 47 80 bf
       0.7607485 0.41116917 0.41516557 -1.0021739
0003c0 4d 04 aa 3e 0e bf ae 3e 88 c5 f4 be 3a 27 6a bf
       0.33206406 0.34130138 -0.47806954 -0.91466105
0003d0 bf 93 f4 3e 1d c9 9e 3f a0 44 e8 3d a8 11 aa be
       0.4776897 1.2405125 0.11341214 -0.33216596
0003e0 88 d3 c9 be c4 3b bc 3d 8c a0 a8 bf ba 73 7b bd
       -0.39419198 0.09191087 -1.3173995 -0.061389662
0003f0 3b 04 42 be 87 af d3 3e 6c 59 fd be fd df 85 3f
       -0.18946926 0.41344854 -0.49482286 1.0458981

feature.weight_hh_l0 f4 [512, 128]
000000 a3 6d 78 3d af 7a 8d 3e 03 42 83 bd c2 c3 ad 3e
       0.060651433 0.27632663 -0.06409075 0.33938414
000010 96 4a 5a bf 1d be c7 bd 7b 08 05 bf 27 22 f9 bd
       -0.8527006 -0.09753058 -0.51966065 -0.12164717
000020 72 43 2e bf 61 1b 88 be 95 17 e0 be 2d 0e 2e bf
       -0.68071663 -0.26583388 -0.43767992 -0.6799038
000030 0e 73 df bd 31 90 7d 3d b5 2b 83 bf ca e1 12 3f
       -0.10910617 0.06190509 -1.0247713 0.57375777
000040 12 62 a1 3e 4e 57 f9 be ba 46 17 3f 60 0f 02 3f
       0.31520134 -0.4869942 0.59092295 0.5080471
000050 f4 96 67 3e b5 7a 85 3f e4 f0 e9 be 14 7e 39 bf
       0.22616178 1.0428072 -0.45691597 -0.72458005
000060 9f b9 67 bd 8e 0b c7 be 28 13 d0 3d 9a 5e ca 3d
       -0.056573506 -0.38876003 0.10159904 0.09881325
000070 3f 0f 50 3c 57 e5 0d 3d c9 a1 af be da ef bf be
       0.012698947 0.034642544 -0.3430312 -0.3748768
000080 69 2f 8e 3e 1e bc 73 bf 19 69 82 3e 61 8c 94 be
       0.27770546 -0.9520892 0.25470808 -0.2901335
000090 51 cd e6 3c 50 05 41 bf 08 3d 10 3f c1 31 55 3f
       0.028174074 -0.7539873 0.56343126 0.83279043
0000a0 31 de 16 bf 61 fb f2 3e df fb c3 bc 51 78 85 3e
       -0.5893279 0.47457412 -0.023923812 0.26068357
0000b0 5b 5e 0e 3d 73 ea 61 bb cd 8f a2 3e af 53 6d be
       0.034757953 -0.0034472018 0.31750336 -0.23176454
0000c0 34 c5 23 3f 54 c4 e3 3d 08 ad 62 3f 0f 46 d2 bd
       0.63972783 0.11121431 0.88545275 -0.10267269
0000d0 fa c6 9b 3e fd ce 7d be 37 e8 57 3f 43 60 66 3e
       0.30425245 -0.24785991 0.84338707 0.22497658
0000e0 6e 9e 25 bc f4 a5 bd be 79 04 3c 3e 13 f8 b7 3e
       -0.010108573 -0.37040675 0.18361081 0.35931453
0000f0 31 63 3a 3c 8b 2d 2b be 84 cd 56 be cf 84 08 3f
       0.011376188 -0.16716592 -0.20976835 0.5332765
000100 78 76 16 3f 44 33 17 3f 81 71 6c be 12 d1 e5 be
       0.5877452 0.590626 -0.23090173 -0.4488607
000110 0e 73 cc bd 9e c2 f4 3d c3 af 63 3e 20 51 ce 3e
       -0.099828824 0.11951183 0.22235017 0.40296268
000120 35 3e 00 3f d6 69 58 3e 2c 90 df 39 8f 0e 08 3f
       0.5009492 0.21134123 0.0004264129 0.53147215
000130 94 eb 5c 3f 47 c6 23 bf 2b e6 25 3e 2d c9 5d 3e
       0.86296964 -0.6397442 0.16201083 0.21658774
000140 e0 dc 17 bf 60 2f 15 bf 25 03 71 be af 10 05 3f
       -0.59321404 -0.58275414 -0.23536356 0.5197858
000150 3e 7e d0 bd 42 1c b0 bd 21 02 9f bd 52 e1 94 3d
       -0.10180329 -0.0859914 -0.07764078 0.07269539
000160 c7 7d 9f 3e a8 c0 39 3d 54 43 22 3f 87 6d 9b 3d
       0.31150648 0.045349747 0.63383985 0.0758925
000170 72 04 0d 3f 4b 52 d5 3e 33 45 08 be 3a cc 24 3d
       0.5508491 0.41664347 -0.13307647 0.040233828
000180 22 46 f8 be 2c e5 86 bf da 6c 37 3f 83 3a 7f 3f
       -0.48491007 -1.0538688 0.7165047 0.99698657
000190 2a 6a b2 be 3e ad 17 be d9 86 ca 3e cd b5 a9 3e
       -0.34846622 -0.1481218 0.39556006 0.33146515
0001a0 ad c7 25 bf 59 3a 99 bf 7e fe 10 3f 42 54 d5 3e
       -0.64757806 -1.1970931 0.56638324 0.41665846
0001b0 61 9d 1e be 11 44 70 3c 52 75 1b bf bb a8 5e 3e
       -0.15489723 0.014664666 -0.6072589 0.21744053
0001c0 d8 b6 00 bf 98 8e 9b be 19 6c fd 3e ac 39 80 3d
       -0.50279 -0.30382228 0.49496534 0.06261
0001d0 5b 0e a7 bd 4a 7c 0d bf a0 67 41 3e b0 73 67 3e
       -0.08157035 -0.55267775 0.18887186 0.22602725
0001e0 f7 7d 19 3e 47 61 dc be 53 81 01 3f c7 97 8c 3f
       0.14989458 -0.43042967 0.5058796 1.0983819
0001f0 38 e8 8f 3e a9 7f 86 be b4 40 28 3f 96 8f 97 bd
       0.28106856 -0.26269272 0.6572373 -0.07400434
000200 06 fd 58 3c e1 9f 33 3f cb a8 ec bc 7d 7b b0 3e
       0.013243919 0.7016583 -0.02888908 0.34469214
000210 8c 3a 17 bf b0 65 d9 be 8d 71 c4 be e9 b2 3d be
       -0.5907371 -0.42460394 -0.38367882 -0.1852528
000220 49 e1 6f 3d 54 a0 5b be 30 e4 c3 bd f0 4e 0c bf
       0.058564458 -0.21447879 -0.09565008 -0.5480795
000230 fb 0a 3c 3e 5a 50 2c 3e db 5d 41 bf 4b 9a 7c be
       0.18363564 0.16827527 -0.7553384 -0.24668233
000240 7f c6 b3 3e d3 62 25 be 04 2d e0 bd 87 90 07 3e
       0.35112378 -0.1615098 -0.10946086 0.13238727
000250 4d 6e 6d 3e d4 58 45 bf fc 93 0a 3f 1f 5c d8 be
       0.23186608 -0.77088666 0.54132056 -0.42257783
000260 d0 df 22 3f e9 1c 88 3e 96 c4 1d bf c3 30 cb bc
       0.6362276 0.26584557 -0.6162809 -0.024803525
000270 56 b7 91 3e e9 d5 aa be 08 5c 67 3e a9 04 a2 be
       0.28460187 -0.33366325 0.22593701 -0.3164418
000280 a7 bb ae bd d8 c7 fd be e4 6d dc 3d 55 7c 5c 3e
       -0.085318856 -0.4956653 0.107631475 0.21531804
000290 1d 53 9d be a6 f3 c3 bd 15 a9 d7 bd f6 c3 2a bf
       -0.30727473 -0.095679566 -0.10530297 -0.6670526
0002a0 d7 88 74 be f1 60 f9 3d 53 20 91 be ab 25 0a be
       -0.23880325 0.12176693 -0.28344974 -0.13490932
0002b0 86 0f 9a 3e 7f bd 01 bf 5f 7c 0c be 32 02 b8 3d
       0.30089968 -0.50679773 -0.13719319 0.08984794
0002c0 95 2e ce bc e8 40 07 bb 03 9a 4c 3e 84 e2 af be
       -0.025168696 -0.0020638052 0.19980626 -0.34352505
0002d0 83 54 d4 3e b0 03 18 bf 5c 80 77 3e 85 47 72 3f
       0.41470727 -0.59380627 0.24170059 0.9464038
0002e0 d3 4e 71 bf 3a c7 b3 be 3a 24 46 3e 60 61 c8 3e
       -0.942609 -0.35112935 0.19349757 0.3913679
0002f0 b6 80 28 bf 0b e8 5d 3f 07 ab 3c bf 54 d5 93 bc
       -0.658214 0.86682194 -0.73698467 -0.018046059
000300 7e 83 19 be e6 7b a9 3e 11 cd fa bd 33 77 d8 bd
       -0.14991567 0.3310234 -0.122461446 -0.105696104
000310 28 16 9f 3e 63 e4 bb 3e a4 05 96 3d 72 c4 e5 3b
       0.3107159 0.36697683 0.073252946 0.0070119435
000320 f4 f9 cc be 89 90 96 3e 51 e7 47 3e cf eb 62 be
       -0.4003445 0.29407147 0.19521834 -0.22160266
000330 60 aa a6 3e 7c 95 a6 be 8f 75 8f be 80 af e7 be
       0.3255186 -0.32535923 -0.28019378 -0.45251083
000340 52 eb 76 bd 21 bd 13 bf 0c 04 06 bc 06 ca 73 3e
       -0.060283013 -0.5771046 -0.008179676 0.23807535
000350 1f 8f a4 be 34 17 2c be a5 eb 9c be 2c b4 f0 3e
       -0.32140443 -0.16805726 -0.30648533 0.4701246
000360 48 56 14 3f 98 b9 80 3e 02 ce 2c 3e 9d 52 2f bf
       0.57944155 0.25141597 0.1687546 -0.6848543
000370 f7 55 94 bd ac 38 1f 3f 55 72 38 be 4a 24 2d 3f
       -0.07242959 0.6219585 -0.18012364 0.676335
000380 03 a2 7f 3e 7c b9 b7 be 5e ac 03 bf 56 66 4d 3e
       0.24964146 -0.358837 -0.51434886 0.2005857
000390 6a 0f 9b be 46 a1 4b 3f ed 2f 0f be 20 3b 4a 3f
       -0.30285197 0.7954296 -0.13983126 0.7899647
0003a0 67 3e bb 3e 05 d2 22 bf 0a 05 07 be 00 bb 10 3f
       0.36571047 -0.63601714 -0.13185516 0.5653534
0003b0 6d 48 c6 3c b3 68 03 3f e6 81 32 3e 0a 2a 0f bf
       0.024204457 0.51331633 0.17432365 -0.5592352
0003c0 17 7f 10 3f 8f ed 33 3e 4d 7b 1d 3e b5 14 33 3e
       0.56443924 0.1757109 0.15379067 0.17488368
0003d0 8b 3e ce bc 26 86 c1 bd d2 d4 79 3f 6f a1 8a 3f
       -0.025176307 -0.09449415 0.97590363 1.0830516
0003e0 6d 84 c2 be 06 52 02 be a7 12 aa bd f9 8b e3 3d
       -0.37991658 -0.12726602 -0.08304339 0.11110682
0003f0 eb 63 b3 bd 01 f3 94 3e 43 2c 1d be 74 20 ee be
       -0.08759292 0.29091647 -0.15348916 -0.46509135

feature.bias_ih_l0 f4 [512]
000000 10 2e 69 3e 8b aa a6 3e 02 5a 82 be 5b 82 e9 be
       0.22771478 0.3255199 -0.25459296 -0.45607266
000010 9a 38 b4 3d 7b dc 3b 3e 83 11 84 be c8 14 9c be
       0.087998584 0.18345825 -0.2579461 -0.30484605
000020 f9 b1 3c be e4 41 9a 3d 27 bc c5 3d 55 c0 99 be
       -0.18427266 0.07532099 0.09655028 -0.3002955
000030 18 b0 65 be 45 f9 18 3e cf 64 cb bd d2 19 89 3f
       -0.22430456 0.14938839 -0.09931337 1.0711005
000040 31 8e b3 3d ea c8 8b be 1c 1d 5e bc 87 c8 6a be
       0.08767355 -0.27301723 -0.013556745 -0.22928058
000050 87 86 c3 be 8a d6 04 be ae 00 83 3f 59 c0 61 3c
       -0.38188574 -0.12972465 1.0234582 0.013778769
000060 f5 01 3e be 5c 8f df 3e 7a d1 0e be 4c d1 cd be
       -0.18555434 0.43664062 -0.13947096 -0.40198743
000070 bf 32 89 3e 7e b3 70 be f5 2b 2c 3e 53 be b0 bc
       0.2679653 -0.23505971 0.16813643 -0.021575129
000080 75 2b 71 be d7 74 c8 3e 11 16 59 bd ed 52 95 be
       -0.23551734 0.39151642 -0.05299956 -0.2916483
000090 bb 30 26 3e b8 09 3a 3f c3 60 fb bd 61 c5 38 3f
       0.16229527 0.7267108 -0.12274315 0.72176176
0000a0 9f c7 53 3e f8 c8 5f be 79 04 18 3e b7 a5 7a 3f
       0.20681618 -0.21854007 0.14845456 0.9790911
0000b0 44 2f 88 be 0a 61 9e 3e b8 af 20 be ff a9 68 3f
       -0.2659856 0.3093341 -0.15692031 0.90884393
0000c0 49 c5 c8 bd 7f 3a f1 3e 97 e0 95 3f 08 9e df 3e
       -0.09803254 0.4711494 1.1709164 0.43675256
0000d0 8e 14 ae 3f a2 f0 24 3e 94 3d ed be 8a fa 30 3d
       1.3600023 0.16107419 -0.46336043 0.043207683
0000e0 12 7b 94 bd 04 c1 30 3e a2 f0 a5 bd a2 52 e2 be
       -0.07250036 0.1726113 -0.08102538 -0.4420367
0000f0 7c 6f 44 bd 21 87 6b 3e ce e3 2b be 27 8e 81 3e
       -0.047957882 0.23000766 -0.1678612 0.25303766
000100 9a bd 31 3f d9 24 b6 3d 39 f0 32 be b4 fd cd 3e
       0.69429934 0.08893747 -0.1747445 0.40232623
000110 99 3b cf bd c3 37 bd 3e 00 2f 93 3e 9c bd b3 3e
       -0.10118789 0.36956605 0.28746796 0.35105598
000120 96 37 83 bd 00 9c 9e 3e 96 e2 09 3f 31 76 f2 3c
       -0.064070866 0.30978394 0.5386137 0.029597374
000130 04 25 16 3e 37 a0 b6 bc 3c 03 d5 3e 68 52 0a 3e
       0.14662558 -0.022293193 0.4160403 0.13507998
000140 d2 00 d8 3e 58 c2 fb 3e 43 69 f4 3e 11 9c fc bd
       0.42188126 0.4917171 0.47736558 -0.12334455
000150 07 b1 2f 3d 76 7c 73 be f7 d1 02 3f f4 86 f8 bc
       0.042893436 -0.23777947 0.5110163 -0.030337788
000160 d9 ac 80 bd 04 cf ff 3c 2b 48 38 3d 32 bd 39 3f
       -0.06282968 0.031226642 0.0449907 0.72554314
000170 5f ac e0 3d 47 8a 8f 3e 9a ef a5 3d 92 88 b4 bd
       0.10970377 0.28035185 0.08102341 -0.08815111
000180 89 f2 ed be a1 ff a8 3c 41 c4 8d be 1b db 4f 3f
       -0.46474102 0.020629706 -0.27688792 0.81193703
000190 88 96 0a 3f 24 87 06 bd b6 59 41 3f 0e a0 cd 3d
       0.5413594 -0.032843724 0.75527513 0.10040294
0001a0 b1 0b d6 3d 0d 14 59 be d9 61 da 3d b4 39 ba 39
       0.10451449 -0.21199055 0.10663194 0.00035519677
0001b0 9c 8f 19 be eb f1 f6 3e 2a 5b cf 3e d1 31 27 be
       -0.14996189 0.48231444 0.4049924 -0.16327597
0001c0 0b 77 ca 3e c8 ae 2f 3f a0 cd 02 be cb af 2e 3f
       0.39543948 0.6862607 -0.12773752 0.6823699
0001d0 2d 13 eb bc 9d fe 05 3f c1 29 11 3e b9 39 ee bd
       -0.028695667 0.52341634 0.14176084 -0.116321035
0001e0 2e e0 f1 bd bd 11 05 be 80 d3 cf 3e 55 31 09 be
       -0.11810337 -0.12995048 0.4059105 -0.13397725
0001f0 59 4f 9f be 89 50 2b 3e b3 f4 97 3e 5a 03 1a bb
       -0.31115225 0.1672994 0.29678878 -0.0023500533
000200 1c fa cc 3e 29 be 0f bd 0e 2b 25 bd fb 7e 45 3e
       0.40034568 -0.03509346 -0.040324263 0.1928672
000210 d4 73 fc bc dd 19 ce 3d f0 b3 ed be fa e6 fb bd
       -0.03081695 0.10063527 -0.46426344 -0.12299915
000220 66 72 60 3d 0b b1 64 3e 93 de 7a 3e 53 e3 01 bf
       0.0547966 0.22333162 0.24498968 -0.50737494
000230 c2 02 41 bd 7b 16 4e 3e de a2 80 be 31 c4 8f 3e
       -0.04712177 0.20125763 -0.25124258 0.2807937
000240 06 1a 44 bd f8 fe 6d bd 76 c0 28 be 97 e0 98 bd
       -0.04787638 -0.058104485 -0.16479668 -0.07464712
000250 79 82 50 be ab 76 94 bd 3f 09 ef be 68 d3 fb 3c
       -0.20362271 -0.072491966 -0.46686742 0.030740455
000260 a2 12 45 be cd 14 cf bc 32 6a 0f be c5 40 b3 3c
       -0.19245389 -0.025278473 -0.14005354 0.02188147
000270 cc 8f 25 be 50 8e 27 be 89 ea 4d be 59 9c da be
       -0.16168135 -0.16362882 -0.20109 -0.4269741
000280 c5 d2 07 bf 1b 0b cc be bf 41 c2 3d 07 03 f1 3c
       -0.53055984 -0.39852223 0.09485196 0.029420389
000290 8d 8c c1 3e f7 1b 93 be 76 82 0c bf 5c 26 b0 be
       0.37802544 -0.28732273 -0.5488657 -0.34404266
0002a0 d6 d0 0b bf 8a b7 f5 bd 4f 79 f0 bd bb bd d2 bf
       -0.54615533 -0.11997898 -0.11741888 -1.6464151
0002b0 ce 49 10 be b6 48 8b be 60 b0 9e be 6a f1 90 bf
       -0.14090654 -0.27203912 -0.30993938 -1.1323674
0002c0 28 6d 73 bd 7e 96 9d be 02 20 09 bf a6 08 74 be
       -0.05943027 -0.3077888 -0.53564465 -0.23831424
0002d0 21 71 94 be 2e 71 ef bc 06 61 24 3e 6d cd a3 3e
       -0.2899256 -0.029228773 0.16052637 0.31992665
0002e0 95 1b 92 be c3 b2 76 be 4a 05 21 be d8 ae 1a bd
       -0.28536668 -0.2409163 -0.15724674 -0.0377644
0002f0 ae 03 80 be 65 f9 94 be 66 56 7b be d5 d9 92 3a
       -0.25002807 -0.29096523 -0.24544677 0.0011203835
000300 20 b2 8b be a3 14 27 be c0 b1 7a bb ea 15 dd bd
       -0.27284336 -0.16316466 -0.003825292 -0.107951954
000310 e7 b5 cf be 67 1e f7 bd 54 a9 6b 3e 11 32 71 bd
       -0.40568468 -0.12066346 0.23013812 -0.058885638
000320 b0 9b a1 be 59 32 9d be cc 5d 3c be 0b 8f 69 be
       -0.31564093 -0.30702475 -0.18395156 -0.22808473
000330 11 93 94 be 2e e1 4c be fc 7e 04 be dd 17 44 be
       -0.29018453 -0.20007774 -0.12939066 -0.19149728
000340 4e 24 e8 be 28 e4 8e 3b 52 fc 34 3c bf 67 46 be
       -0.45340198 0.0043606944 0.011046486 -0.19375513
000350 36 cd 3b bd 81 e2 60 3e 74 57 b7 be 4d ea 80 be
       -0.04585 0.21961404 -0.3580891 -0.25178757
000360 55 a1 67 3e 4d 7e 26 3d 49 dc 8c be 54 64 1f be
       0.22620137 0.040647794 -0.27511814 -0.15565616
000370 cc e8 43 be dc ce fd bd ee c8 63 3e 9c cd e4 be
       -0.19131774 -0.12392971 0.22244617 -0.44688118
000380 73 a4 1a be 32 67 95 3d 81 b1 13 be 27 4b 4a 3f
       -0.15101795 0.072950736 -0.14423181 0.79020923
000390 10 66 85 3c bc 88 af be 6f fe 8a 3e eb be a6 be
       0.016284019 -0.34284008 0.27147242 -0.32567534
0003a0 c0 9c fc 3d ea 5a 1b 3f 82 44 22 be 3d db fe 3c
       0.12334585 0.606856 -0.15846446 0.0311104
0003b0 48 ec 0b 3e 2d ba 51 3e e8 83 31 be 7e 76 c9 3d
       0.13664353 0.20481177 -0.17335474 0.09837054
0003c0 3a bb d7 be 65 20 d9 3d 77 65 ec be 06 30 9a 3e
       -0.4213503 0.10601882 -0.46171162 0.30114764
0003d0 e3 d1 75 be 70 60 04 bf 32 38 0a 3e c8 d2 59 3e
       -0.24005847 -0.5170965 0.13498 0.21271813
0003e0 b1 4b be be b1 cc bc be 91 47 bc be 80 87 b9 bd
       -0.37167123 -0.36874917 -0.3677335 -0.09059048
0003f0 09 3a 12 be 71 0d a0 be 4c bd d4 be 24 d6 10 be
       -0.14279951 -0.31260255 -0.41550672 -0.14144188

feature.bias_hh_l0 f4 [512]
000000 fe 6e 66 3e fe 6e cf 3e e7 dc bd be f2 ef e9 be
       0.22503278 0.40514368 -0.37082598 -0.45690876
000010 8a 72 37 bd c3 9b 84 3e ca 8b 97 be d2 f2 9c be
       -0.044786967 0.25900087 -0.29598838 -0.30654007
000020 e6 54 4a be f0 93 ff 3c 23 0a 33 3e 18 ac 07 be
       -0.19758949 0.031198472 0.17484336 -0.13249242
000030 b6 96 31 be 98 f9 bc 3e cb e7 a5 bd 28 cb 8a 3f
       -0.17342648 0.36909175 -0.081008516 1.0843248
000040 84 61 3c 3e 05 80 aa be f8 98 af bd 78 aa 98 be
       0.18396574 -0.33300796 -0.08574098 -0.29817557
000050 0c ec e9 be c4 f4 78 be 59 b3 6f 3f d9 3f 52 bd
       -0.45687902 -0.2431212 0.9363304 -0.05133042
000060 0d 41 a5 be 64 18 e2 3e 76 f9 42 be 8e 6a c0 be
       -0.32276192 0.44159234 -0.19040474 -0.37581295
000070 fc 18 88 3e a9 86 bb be 88 74 74 3a f5 33 cd bc
       0.26581562 -0.36626175 0.0009325226 -0.02504919
000080 5d ad 8a be 15 09 0e 3f 4a 20 1c 3d aa 90 56 be
       -0.2708539 0.5548261 0.03811673 -0.20953622
000090 de f9 0d 3e c5 37 53 3f e7 49 f0 bd 41 af 74 3f
       0.13864848 0.8250697 -0.11732846 0.95579916
0000a0 47 8c 8d 3e 7e 61 32 be cc 46 85 3e 3b 7c 88 3f
       0.27646086 -0.17420003 0.26030576 1.0662912
0000b0 7d d7 72 be 86 8c 56 3e 80 13 1b bd 77 07 4a 3f
       -0.23715015 0.20952043 -0.037860394 0.7891764
0000c0 46 06 00 bd 5f 3b f7 3e 53 10 99 3f 21 ab ac 3e
       -0.031255983 0.48287484 1.1958107 0.3372431
0000d0 3a 96 9e 3f c0 7e 6b 38 30 6e ea be ed 91 bd 3d
       1.2389596 5.614641e-05 -0.4578719 0.09256349
0000e0 94 b3 3d bc 59 a2 ee 3d 00 63 99 bd 19 dd 6e be
       -0.011578459 0.11652059 -0.07489586 -0.2332653
0000f0 c1 47 1c be 70 f4 52 3e af 32 ac bd f3 e8 9f 3e
       -0.15261747 0.20601058 -0.08408105 0.31232414
000100 a2 90 16 3f 95 0d 3e 3d 7b 2c 12 be ce 1e a1 3e
       0.5881444 0.04639967 -0.1427478 0.31468815
000110 3c 82 86 bd 9c e6 8e 3e 02 38 8f 3e fa ca a1 3e
       -0.06567809 0.27910316 0.27972418 0.3160017
000120 b7 d5 ad bd 98 22 80 3e 3a 92 04 3f e8 f8 aa bd
       -0.084880285 0.25026393 0.51785624 -0.08348256
000130 82 ca 20 3e 9f c4 dd 3c 24 a6 fd 3e 11 a1 a5 3b
       0.1570225 0.027071295 0.49540818 0.005054601
000140 2d 78 cf 3e 39 5f 0f 3f c6 45 08 3f e5 f6 3e be
       0.40521374 0.56004673 0.53231466 -0.1864887
000150 b3 ec 57 3d 4f 02 78 be 91 2c 1e 3f 02 8b e0 bd
       0.05271597 -0.2421963 0.6178675 -0.10964014
000160 da d9 9d 3c 1d 32 57 3d 3c a4 0e 3e 05 60 40 3f
       0.019268919 0.052538026 0.13929838 0.75146514
000170 72 36 87 3e 8b db a8 3e c1 6d 8d 3d 51 b0 71 bd
       0.26408726 0.32979998 0.069056995 -0.05900604
000180 4a 34 ef be 7e 56 53 3e f7 30 a0 be 88 2c 62 3f
       -0.4671958 0.20638463 -0.31287357 0.883492
000190 08 08 c8 3e 1c 70 60 bc 54 b6 24 3f e0 5c 55 3e
       0.39068627 -0.013698604 0.6434071 0.2083621
0001a0 59 10 8e 3e 7f 5a 8d be a5 90 f5 3d 55 af a8 bd
       0.27746847 -0.27608106 0.119904794 -0.08236567
0001b0 03 1f 0c be 1a cc ba 3e fa 3c c4 3e b9 36 a9 bd
       -0.13683705 0.36483842 0.3832777 -0.08262391
0001c0 0e 10 5f 3e 11 06 3f 3f 46 46 8f be 0d 77 35 3f
       0.21783468 0.7461863 -0.27983302 0.7088478
0001d0 b5 17 e5 bd 67 78 e6 3e 10 1e 73 3e 7a 0b 8a be
       -0.111861624 0.45013735 0.23741937 -0.2696188
0001e0 6b 6f 66 be 8b 48 61 bc 8e 20 01 3f d6 53 38 be
       -0.2250344 -0.013750206 0.504403 -0.18000731
0001f0 66 a5 87 be ac 21 9a 3e 97 31 37 3e 5c 8d 74 bd
       -0.26493376 0.30103815 0.17890011 -0.059705123
000200 d8 28 db 3e 40 53 e2 3d fb f7 ac bd 6c bf c1 3c
       0.428046 0.11051035 -0.08445736 0.023650847
000210 0f 73 12 bd 4c 14 a1 3e 80 8b 9f be 7b 9e 7c be
       -0.03575426 0.31460798 -0.31161118 -0.2466983
000220 bc e2 69 bd 6c 2d 47 3e b9 d3 4b 3e c3 f3 f6 be
       -0.057100996 0.19450921 0.19904985 -0.4823285
000230 91 2a 2b 3d b8 54 59 3e c7 ae d1 be 7a e7 a9 3e
       0.04178864 0.21223724 -0.40953657 0.33184415
000240 7c 46 18 be 1c 9f a0 be c9 bf c7 bd be 3b 81 bd
       -0.14870638 -0.3137139 -0.09753377 -0.06310223
000250 1d d7 88 be 1c 99 a2 bd af 6d 0e bf 13 24 cd 3c
       -0.26726618 -0.079393595 -0.55636114 0.025041616
000260 75 1e 76 be d8 13 92 3d 4b 39 3e be 05 05 f4 bc
       -0.24035056 0.07132691 -0.18576543 -0.02978755
000270 7b 25 d8 bd d2 34 aa bd 1c 0f 26 be d4 a6 aa be
       -0.10554024 -0.08310856 -0.16216701 -0.33330405
000280 34 f9 be be 79 43 cb be 1d 3b 83 3d f7 17 c6 3d
       -0.37299502 -0.39699915 0.06407759 0.0967254
000290 ab ef b9 3e e0 da 87 be a7 18 0b bf fd e6 a6 be
       0.36315665 -0.26534176 -0.5433449 -0.32598105
0002a0 02 45 10 bf 9e 91 35 bd 02 70 40 be a7 02 be bf
       -0.563553 -0.044328324 -0.18792728 -1.484456
0002b0 e6 97 4b be c3 c0 22 be 89 0f ca be 57 07 7d bf
       -0.19882163 -0.15893845 -0.39464977 -0.98839325
0002c0 48 9d 80 be 24 76 ce be 6f fc 11 bf 6f 54 47 be
       -0.25119996 -0.4032451 -0.5702581 -0.19465803
0002d0 dc 67 21 be 99 d8 ea 3b 9d bc 0e 3e d8 c1 d4 3e
       -0.15762275 0.0071669337 0.13939138 0.4155414
0002e0 53 5d 75 be 49 b9 50 be 1f 33 4b be 90 51 0a bd
       -0.23961382 -0.2038318 -0.1984372 -0.03376919
0002f0 72 35 7e be 01 d0 a1 be 65 6b 10 be be 66 58 be
       -0.24825075 -0.31604007 -0.14103468 -0.21132943
000300 36 88 89 bd bb c2 91 be ac b2 6a be 6e 5c 1a be
       -0.06715433 -0.2846888 -0.2291972 -0.15074322
000310 5a 20 eb be 75 f7 a9 bd 9c 36 85 3e 0f 84 98 3d
       -0.4592312 -0.08299152 0.26018226 0.07447063
000320 29 9d 4a be fb 66 92 be 36 dd 4d be 89 b5 6f be
       -0.19786514 -0.28594193 -0.20103917 -0.23409094
000330 a5 1f 3d be fe 53 ee bb 0b fe 0d be 5b af 62 be
       -0.18469103 -0.0072731962 -0.13866441 -0.22137205
000340 8b 1a e6 be d6 c1 43 bd 2e 78 4e bd d3 10 31 be
       -0.44942126 -0.04779228 -0.05040758 -0.17291574
000350 27 1c d0 bd 67 a6 23 3e d9 55 e6 be 9b a6 97 be
       -0.1016162 0.15981446 -0.44987372 -0.29619297
000360 03 66 7b 3e b4 be 0b 3e 30 c3 9a be 5e 57 cc bd
       0.24550633 0.13646966 -0.3022704 -0.099776015
000370 06 1f d0 be ea d5 10 bd 75 4e a1 3e fa 4f a4 be
       -0.4064867 -0.035360254 0.3150517 -0.32092267
000380 23 0c 0c be 19 9a 53 bd 48 e8 dc bd 39 9a 35 3f
       -0.13676505 -0.05166063 -0.10786492 0.7093845
000390 f8 6d 6b bc 01 f3 b9 be 7c 3e 37 3e 37 9a 8b be
       -0.01436948 -0.3631821 0.1789493 -0.27266094
0003a0 86 dd 59 3e a5 0c 2f 3f de be 0f be 8c db 8f 3e
       0.2127591 0.6837867 -0.14037654 0.28097188
0003b0 0e ec 81 3d d3 43 85 3e c1 02 85 be 92 8f 4b bc
       0.06343852 0.26028308 -0.25978664 -0.012424367
0003c0 ca 42 ed be ca 3f a7 bb 45 9c 94 be 73 d6 9f 3e
       -0.4634002 -0.00510404 -0.29025474 0.312183
0003d0 84 1c 36 be 64 28 e3 be d5 f2 13 3e ec c9 b7 3e
       -0.17784315 -0.44366753 0.14448102 0.35896242
0003e0 b0 01 c4 be 43 11 d3 be 48 23 f5 bd 6d d3 b9 bc
       -0.38282537 -0.41224107 -0.1196962 -0.022683823
0003f0 dc b3 8f bd 70 26 76 be 06 f7 e8 be 2a 7f 6f 3d
       -0.07016727 -0.240381 -0.45500964 0.058470882

feature.weight_ih_l0_reverse f4 [512, 64]
000000 b9 4c 47 3e bc b5 1d be 4e fc ca 3c 58 ae 02 be
       0.19462861 -0.15401357 0.024778511 -0.1276182
000010 f6 1b 77 3f 91 d9 20 bf 70 15 bd bd f7 43 8a bf
       0.9652704 -0.6283198 -0.092326045 -1.0801991
000020 12 09 7f bc 21 73 ad 3e 32 38 b3 be a3 92 5b 3f
       -0.015566127 0.338769 -0.3500381 0.85770625
000030 32 9c 2d be 83 1f 83 3d 59 a5 12 be f8 0c a9 3e
       -0.16954115 0.06402495 -0.14320888 0.33017707
000040 fd a5 a2 3f 6c b7 d0 3e a8 1c a9 be 32 d9 fc bb
       1.2706906 0.4076494 -0.33029675 -0.0077163214
000050 8b a1 d0 be ab 90 14 3e e2 59 3e bf a6 db 84 bf
       -0.40748248 0.14508311 -0.743559 -1.0379531
000060 e1 3d e9 3d 04 45 21 3e ee 5a fe 3d 27 49 77 be
       0.113887556 0.15748984 0.12419687 -0.24148999
000070 1a 30 23 bf ba 96 46 be a3 01 b3 3e 30 52 b7 3e
       -0.6374527 -0.19393435 0.34962186 0.35804892
000080 0a 5a 0b be 32 67 96 3d 96 4f a0 3f 40 a8 94 bf
       -0.13608566 0.07343902 1.2524288 -1.1613846
000090 f8 7a fa 3e d0 d0 5f bf ec 80 0b 3f 64 cb c7 3e
       0.48921943 -0.87428 0.54493594 0.39022362
0000a0 d2 9c 68 3e ca d1 8b be 9c df 20 bf 32 72 d3 3e
       0.22716072 -0.27308494 -0.628412 0.41298062
0000b0 e2 20 9b bf b2 50 91 be 53 31 92 be 42 a7 d0 be
       -1.211941 -0.28381878 -0.28553256 -0.40752608
0000c0 d2 ea a1 3f 4c 88 76 bf 8a 87 6f bf 4a 83 ad 3e
       1.2649786 -0.9630172 -0.9356619 0.33889228
0000d0 dd b4 95 3e 3e 8f b7 be c9 da 20 3e 2a 2a 7d 3e
       0.2923955 -0.35851473 0.1570846 0.24723116
0000e0 e9 70 02 3e 3e 5a 86 3e 37 49 ca 3e d6 32 84 3f
       0.12738384 0.26240724 0.39508983 1.0328014
0000f0 e1 e8 8a 3f 27 6b 98 3e 7b 48 8a be ba f0 74 3e
       1.0852319 0.2976925 -0.27008423 0.23919955
000100 2d f0 4a 3e 8c 9c 53 3f 79 b1 28 be 81 c0 3b 3f
       0.19818182 0.82660747 -0.1647395 0.7334061
000110 b0 a8 b8 3e ff a6 5a 3d 67 3a f8 3e 41 4f 09 3f
       0.36066198 0.053381916 0.48482057 0.53636557
000120 29 eb 6a 3e 52 02 e9 be 07 66 29 be de 9f 91 be
       0.22941269 -0.45509583 -0.16542827 -0.2844228
000130 f3 b9 28 bf 7a 13 7c be 06 cb 2e 3f 94 62 a3 3e
       -0.65908736 -0.24616805 0.6827854 0.31911147
000140 3e bd 8c 3d f7 69 3f bf e3 e0 c5 bd 68 f1 7c 3e
       0.068720326 -0.74771065 -0.09662034 0.24701464
000150 1a 00 06 bf 22 2e 08 bf 24 6a ee be ca cb 0d bf
       -0.52343905 -0.53195393 -0.46565354 -0.5538908
000160 26 93 e9 be e7 ee 36 be 39 f4 c9 3e 6d 0f 74 bf
       -0.45620078 -0.17864572 0.3944414 -0.9533604
000170 6a 5a e4 3c 3d a2 68 3e 68 c6 86 bf d8 33 22 3f
       0.027875144 0.22718139 -1.0529299 0.6336036
000180 b5 0b a1 3e dc 78 4a 3f e4 be 6b bd 21 41 5c 3f
       0.31454244 0.79090667 -0.057555094 0.8603688
000190 ca 4a f2 bc 89 e6 f5 bd c8 99 78 be 82 ba 03 3c
       -0.029576678 -0.12006862 -0.24277413 0.008040072
0001a0 53 eb 07 3f e1 19 66 be 8b a4 88 be e6 4f d8 be
       0.5309345 -0.2247081 -0.26688036 -0.42248458
0001b0 85 c1 2f 3e db 2d c2 be 5f 33 b9 be 4b b6 81 3e
       0.17163666 -0.3792561 -0.36172006 0.2533439
0001c0 41 f2 78 3f 98 43 24 bf 33 68 94 bf 07 8c 91 3e
       0.9724465 -0.6416564 -1.1594299 0.28427145
0001d0 ee 5d c7 be 53 68 06 3e 73 70 39 3d 66 86 e2 be
       -0.3893885 0.13125734 0.045273256 -0.44243163
0001e0 65 00 86 be b6 15 26 bf 86 5f e2 3e 70 79 fd be
       -0.26172176 -0.6487688 0.44213504 -0.49506712
0001f0 9d 0f 61 bd 55 52 d8 be 17 6e 96 3e d7 e6 3a bf
       -0.05494653 -0.42250314 0.29380867 -0.73008484
000200 af ee f4 3d 6d 63 b5 3e 9f 9f 65 3f ea 0c 7a bf
       0.11959588 0.35427418 0.8969669 -0.97675955
000210 5f 00 2f 3f 95 5b 51 3f 37 36 04 3f e3 e5 0e bf
       0.6835994 0.8178037 0.51645225 -0.5581953
000220 13 a3 ce bd 83 20 31 bf 64 12 3a bf 21 40 de bc
       -0.10089698 -0.69190234 -0.7268431 -0.027130188
000230 15 14 9c 3e 87 1b b9 3f 12 e4 2e 3d 69 47 26 be
       0.3048407 1.4461526 0.042697974 -0.16238178
000240 db 6d 11 3f d2 a0 58 be 5e 6e 15 bf 31 f6 5c bf
       0.5680825 -0.21155098 -0.5837153 -0.8631316
000250 90 ca b7 3c 3f ae ed bb a6 4e e3 3e 20 c0 44 bf
       0.022435457 -0.007253438 0.44395941 -0.7685566
000260 66 00 9d 3e b7 c1 9d 3e d5 7f 23 3f 28 ba 3c 3e
       0.30664366 0.30811855 0.6386693 0.18430388
000270 3e 6e bd 3e ec a3 3c 3f e6 bf 4c bf 61 5d 25 3f
       0.3699817 0.73687625 -0.79980314 0.6459561
000280 ef da 95 3f 07 2f 1f 3f dd 99 7d bf 45 95 1e 3e
       1.1707438 0.62181133 -0.990629 0.1548663
000290 a3 44 24 3f 86 59 37 3e 28 de d5 bd be f3 97 3d
       0.6416723 0.17905244 -0.104427636 0.07419537
0002a0 0f d6 90 bf 15 59 bf 3f 77 e1 54 be 4c e0 39 3f
       -1.1315325 1.4949061 -0.20789133 0.72607875
0002b0 4e 62 b8 be e5 34 43 3f 21 6b 61 be ac cf 9f 3e
       -0.360125 0.76252586 -0.22013523 0.3121313
0002c0 3b 8e d8 be 50 2c 8a 3f ca 16 98 bf 25 8d 02 bf
       -0.42296013 1.0794773 -1.1881955 -0.5099662
0002d0 36 5b b7 be 17 4f 0b 3f 08 bb 68 bc 72 8d 2c 3f
       -0.35811776 0.54417557 -0.014204748 0.6740333
0002e0 7b 53 d3 be e6 d1 6f 3e ad 2f a9 3f a0 13 82 3d
       -0.41274628 0.23419914 1.3217674 0.063513994
0002f0 fa 66 39 bf 0e aa 8c bf b5 41 35 bf 5a d4 07 c0
       -0.72422755 -1.0989397 -0.70803386 -2.122336
000300 2f d9 2f 3f 6d a6 32 3f a9 1f de be 05 94 13 3f
       0.6869077 0.69785196 -0.4338353 0.57647735
000310 a4 8d 08 bd 41 0f bc 3e 47 b0 73 bb a9 dc 0c 3f
       -0.033338204 0.36730388 -0.0037183927 0.550242
000320 8b c6 0b bf c7 00 28 3e 7c c2 d1 be aa 53 31 3e
       -0.5459983 0.16406547 -0.40968692 0.17317072
000330 ed 1a 1e 3f 3e af bd 3e af b7 c2 bf e0 7e d9 be
       0.61759835 0.37047762 -1.5212306 -0.4247961
000340 af 7c d0 be 1d 3f 5e bc c3 7a 18 3f 9c 83 1a 3e
       -0.40720126 -0.013564852 0.5956232 0.15089267
000350 58 d2 08 bf d1 0c a9 be df 8e f1 be f9 a3 95 3f
       -0.5344596 -0.3301759 -0.47179314 1.1690665
000360 f6 f6 1f bf 5f e0 55 3c 75 d8 42 be 6b ba 03 bf
       -0.6248621 0.0130539825 -0.19027884 -0.51456326
000370 27 95 57 3e 10 4b 96 3e 25 e7 6d 3d 3c 7d 2f 3e
       0.21052991 0.29354143 0.058081765 0.17137617
000380 8f 68 ce bd 1c 08 af 3f bf 0f 19 3e 25 4e 81 3f
       -0.10078537 1.367435 0.14947413 1.0101973
000390 6e 08 99 be f4 98 83 be 55 6c 0e bf 8b 8d 92 be
       -0.29889244 -0.2570263 -0.5563405 -0.28623614
0003a0 57 cb 47 bd f6 ec 12 3f 51 f2 35 bf ca 35 32 bd
       -0.048777904 0.57392824 -0.7107287 -0.04350833
0003b0 f2 2c 53 bf b5 dd 10 3e e8 19 d1 bf 19 6d 60 be
       -0.82490456 0.14147075 -1.6336031 -0.21916617
0003c0 9f 62 ba 3e a8 f7 72 3e 87 d3 2f bd 3d 37 33 3b
       0.36403367 0.23727286 -0.042926338 0.0027346157
0003d0 85 18 1a bf 2f 2e 1b bf b4 82 2f bf 6c ed 6c bf
       -0.60193664 -0.60617346 -0.6855881 -0.9254978
0003e0 e5 00 e0 be 2d 41 e8 3e 29 57 3f be 5a f0 79 3f
       -0.43750682 0.45362225 -0.18685593 0.9763237
0003f0 ca bb 3f bf 50 9b 39 3e 12 32 0f 3f bc fc 8e 3e
       -0.7489592 0.18125653 0.55935776 0.27927196

feature.weight_hh_l0_reverse f4 [512, 128]
000000 0d 08 1a 3f ec c3 6f 3e ed e8 11 3e ea 22 1b bf
       0.60168535 0.23414582 0.1424901 -0.6060015
000010 d3 c7 d5 3e 83 a2 1c 3e 56 61 eb bd ce fd 06 bc
       0.41754016 0.15296368 -0.11493175 -0.008239223
000020 c3 07 60 3f df 4a a0 3e cb 94 32 be 2a cb aa 3f
       0.87511843 0.31307122 -0.17439573 1.3343251
000030 cc 28 4b 3e 5c ba 4d 3e cd 7e a6 3d 28 d1 4f be
       0.19839782 0.20090622 0.08129654 -0.2029463
000040 c1 e7 00 3d 04 c4 4f 3e 89 ea 3f 3d b2 80 64 be
       0.031471018 0.20289618 0.04685453 -0.22314718
000050 e7 eb 9d bb 86 d8 75 be 9e c2 9b ba 26 9d 60 3f
       -0.0048193815 -0.24008378 -0.0011883562 0.8773979
000060 bd e1 bb be 97 00 ba 3e 0f 63 74 bf 41 b2 3f bd
       -0.36695662 0.36328575 -0.9546365 -0.046800856
000070 97 c4 b8 bd 75 56 40 3e b8 b1 34 bd 46 13 60 3f
       -0.090218715 0.1878298 -0.0441148 0.8752941
000080 12 b1 01 bf c4 7d a9 bd 70 d1 90 be c7 f6 ba 3e
       -0.5066081 -0.08275941 -0.28284788 0.365164
000090 bc 19 f9 be 8f 4a 6c 3e 99 a2 41 3e a2 f6 90 3f
       -0.48652446 0.23075317 0.18909682 1.1325266
0000a0 2f 40 ea be 75 4a 63 be 48 48 4d bf 85 d2 10 3f
       -0.45752093 -0.22196372 -0.8018842 0.5657123
0000b0 7a e1 df 3e f0 b5 05 bf c1 d6 23 bf be e6 36 bf
       0.43726712 -0.5223074 -0.63999563 -0.71445835
0000c0 38 7f a8 3e d3 e2 47 3f e5 7c d3 be fa 8e 22 3e
       0.3290956 0.7808048 -0.41306224 0.15874854
0000d0 80 58 ca be 97 d8 69 3f 1c c9 78 3e 9b 4f 8f 3e
       -0.39520645 0.91346115 0.24295467 0.27990422
0000e0 8b 34 11 bf 00 39 7c be 86 cb f6 bc 53 b7 ad be
       -0.567208 -0.24631119 -0.030126344 -0.33928928
0000f0 88 07 56 bf 1a 09 a1 be 44 49 6b be a9 83 7e 3f
       -0.8360524 -0.31452256 -0.22977167 0.9941965
000100 34 2b 28 bd 5d 60 12 3f 10 be c9 be e1 18 a4 3e
       -0.041056827 0.5717829 -0.3940282 0.3205023
000110 a3 64 83 3e 6a 43 73 3f 20 46 b0 be a9 44 81 be
       0.25662717 0.9502474 -0.344285 -0.25247696
000120 cd 4c 29 bf b5 a7 88 bd 8b d9 7d 3d cd a5 9a 3e
       -0.66132814 -0.066726126 0.061975043 0.3020462
000130 d8 9a 30 bf 05 fd 75 3e e8 02 13 be 81 b7 f4 be
       -0.6898627 0.240223 -0.14356577 -0.47796252
000140 cc 17 5f 3e ce 5a 5f 3f 3c 9c aa 3e 67 ed bf 3e
       0.21786422 0.8724793 0.33322322 0.3748581
000150 4c e2 95 3e 50 aa a5 3e c5 ec d6 be 50 7a 58 be
       0.29274213 0.323565 -0.41977516 -0.21140409
000160 94 64 a2 bd f7 c2 ce be 27 fd dc 3e 82 d3 58 3f
       -0.0792934 -0.4038312 0.4316189 0.84697735
000170 97 32 7d 3e 69 25 cd be b9 3b 34 3f e9 cb 94 3e
       0.2472633 -0.40067604 0.7040363 0.2906182
000180 12 10 2d 3f 62 70 05 bf e8 f8 ce be 6c b9 7f be
       0.67602646 -0.5212461 -0.40424275 -0.24973077
000190 e2 69 ca be a3 cf 7b bf 33 6e 03 bf b2 f6 11 bf
       -0.39533907 -0.98363703 -0.51340026 -0.5701705
0001a0 20 76 0d bf 25 2d 39 be be 15 4a bf 99 11 cc 3e
       -0.5525837 -0.18083628 -0.78939426 0.39857176
0001b0 38 93 74 3e de 20 ea 3e 7b 24 88 bf 67 1e d1 be
       0.23884284 0.457282 -1.0636133 -0.40843508
0001c0 32 3f b3 bd 7e 19 8a be bf 97 d6 bd c1 33 4f bf
       -0.08752288 -0.26972574 -0.10478162 -0.80938345
0001d0 d6 1e fc be fc 2e 1e be 82 e6 d1 bc 5d 8d e4 be
       -0.49242276 -0.1544761 -0.02562261 -0.44639102
0001e0 42 12 21 3e 56 0d a3 3e 0b 1f c7 bd 91 9f 89 bd
       0.15729621 0.31846112 -0.09722718 -0.06719888
0001f0 aa fc de be 4e 8d b2 bd bd 29 13 bf 8c d9 15 bf
       -0.43552142 -0.08718358 -0.5748556 -0.58535075
000200 36 5e 10 bd 28 17 bc 3d 67 65 6c 3d b7 5c e5 bd
       -0.035246097 0.09184104 0.057713892 -0.111993246
000210 fe 42 29 bf e0 4f 9d be 3a d8 ce bd c5 2c 11 be
       -0.66117847 -0.30725002 -0.10099836 -0.14177234
000220 7d fa 9c be 77 b6 eb bc f1 b2 a4 3e 94 36 09 3e
       -0.30659857 -0.02877353 0.3216777 0.13399726
000230 3e 38 07 be 1e bf ac 3e e5 c9 92 bd d1 d9 58 be
       -0.13205048 0.3373956 -0.071674146 -0.2117684
000240 5c 6f 8f 3e 99 cb d4 3e 8a 8b 2b be 07 5e e8 be
       0.28014648 0.41561583 -0.16752449 -0.45384237
000250 7e 1e 24 3f 5b d7 87 3e 84 94 9f 3e f2 5d 54 bd
       0.6410903 0.2653149 0.31167996 -0.051847406
000260 a3 aa 09 be a8 bb de be d7 09 d3 bd 97 b9 4d 3e
       -0.13443999 -0.43502545 -0.10304611 0.20090328
000270 32 27 04 3f 8d 83 0d bd 2b b6 d4 bc 33 00 53 3d
       0.5162231 -0.034549285 -0.02596577 0.051513862
000280 9e cf 2c bf 9a a8 cf 3e 4d 76 16 3f 9e 06 b1 3d
       -0.675043 0.4055832 0.5877426 0.0864384
000290 7c bd 9b bd 82 c9 51 3d 85 59 03 3f 4b 72 02 3e
       -0.07604501 0.051217563 0.5130847 0.12738912
0002a0 19 fd a5 bd 0f 29 03 bf 31 c4 c1 3c 29 53 e1 bd
       -0.08104915 -0.51234525 0.023653122 -0.1100219
0002b0 ba bb 81 be 71 3b ea 3e 1d 0b 44 3f 74 ee 18 bf
       -0.25338537 0.45748475 0.7657946 -0.5973885
0002c0 2f 89 87 3e 8f 1e c5 be e3 63 57 bd c7 eb b2 3c
       0.2647185 -0.38499877 -0.052585494 0.021840943
0002d0 e6 98 9b bd 05 a0 84 be d5 6e 3f 3e 6c ba 56 3e
       -0.075975224 -0.25903335 0.18694623 0.20969552
0002e0 1a e7 b0 3c b6 7f fb be 77 83 bc be f1 69 4d be
       0.021594573 -0.49120873 -0.3681905 -0.20059945
0002f0 22 19 16 bf f9 29 74 be 9a 0c ff 3d 01 9d 41 bf
       -0.586321 -0.23844136 0.124535754 -0.75630194
000300 13 19 1e be 13 7d 81 bf 1f be cd be 92 69 de 3e
       -0.15439253 -1.0116295 -0.40184113 0.4343992
000310 2f 8c ab 3e 6f f6 52 bd 26 3f 07 3f 07 03 03 bf
       0.3350539 -0.05150455 0.5283073 -0.51176494
000320 66 b7 c3 bd 36 3c cf be 80 33 ac be ee 48 5f 3e
       -0.09556465 -0.40475625 -0.3363304 0.21805164
000330 5a 92 2d be 6e 58 80 3e 3b 1b 2e 3e 63 1e af be
       -0.1695036 0.25067466 0.17002575 -0.3420287
000340 7b 9c 85 bd 76 98 33 3e 28 e9 33 bf 46 d2 a5 3e
       -0.06523987 0.17538628 -0.70277643 0.32386988
000350 3e 20 81 bf c4 a5 62 be 80 2f 33 3e 9c 65 04 3c
       -1.0087965 -0.22133547 0.17498589 0.008080866
000360 1b 1c 52 3f 3c 2f 85 bf 93 6f d0 3d 3a 58 ab 3d
       0.82074136 -1.040504 0.10177531 0.08366437
000370 f6 f5 f3 be 83 dd 07 3f 9f d7 54 be 97 b3 4c be
       -0.4764859 0.53072375 -0.20785378 -0.19990383
000380 47 6d a9 be 1a 7a 08 3f 9d 06 09 3e e8 2f b3 bc
       -0.33091184 0.5331131 0.13381429 -0.02187343
000390 c5 08 33 3f 8f eb 56 3d 09 cd bb be 06 cd e9 bd
       0.69935256 0.05247074 -0.36679867 -0.11416058
0003a0 65 f2 f6 3e 7a 5a 23 3f 90 13 ee 36 25 52 bc 3d
       0.48231807 0.6380993 7.09523e-06 0.09195355
0003b0 9a 2c ba 3e aa 74 d1 be 22 75 b2 3e f6 d2 cd 3e
       0.36362153 -0.4090932 0.3485499 0.40200013
0003c0 45 dd 68 be 4f c8 72 3f 01 f7 fc 3d 2a 48 80 bd
       -0.22740658 0.94836897 0.123518 -0.06263764
0003d0 c0 8e 57 3f cb 02 38 be 56 64 9a 3e 52 bb f8 3c
       0.84202194 -0.17969815 0.30154675 0.030362759
0003e0 12 3d 8c be 4a eb 90 be 17 da b0 bd 3c 02 55 bf
       -0.27390343 -0.2830451 -0.08635347 -0.83206534
0003f0 29 fa c4 3e ae f3 83 3e 4e e1 30 3f d2 82 82 3e
       0.38472107 0.2577185 0.6909379 0.25490433

feature.bias_ih_l0_reverse f4 [512]
000000 e3 e3 c9 bd f7 dd 0a 3e df 75 ce bd 7e 8e 91 3d
       -0.09857919 0.13561235 -0.10081076 0.07107256
000010 6c d1 bb 3d 9d a8 a5 3e 2e 0b 9a 3e 0d 13 cd be
       0.091708034 0.32355204 0.30086654 -0.40053597
000020 63 61 fb 3e 61 00 6d 3f 1b 69 26 bd cd 64 d6 bd
       0.49097738 0.92578703 -0.04062758 -0.10468445
000030 c2 4b 82 be b2 3c 99 3d 0a 65 07 3d 5b c6 06 3f
       -0.25448424 0.0748228 0.033055343 0.52646416
000040 ae b2 6b 3e f0 70 05 bd 2a 4f 5d bd ca 3b cd bd
       0.2301738 -0.03257841 -0.054030575 -0.100211695
000050 61 89 6f be 43 79 da 3e 9e da 2f 3e b5 56 00 3f
       -0.2339225 0.4267064 0.1717324 0.50132304
000060 5a eb 10 bd c5 e9 a3 3e a8 c8 db bc ff 0d b0 3e
       -0.0353807 0.3201429 -0.026829079 0.34385678
000070 3f 12 c9 bd f1 01 b5 3e bd 81 2d 3d d8 6b 49 bd
       -0.09817933 0.35353044 0.042360056 -0.049175113
000080 6d 82 32 bd 86 2b 92 3e b5 02 1a 3f 18 1b fb bd
       -0.043581415 0.2854883 0.6016038 -0.12261027
000090 97 d8 8e be 38 c9 5e bc 29 fe a3 3e 16 d0 10 3f
       -0.2789962 -0.013597779 0.32029846 0.56567514
0000a0 8d 42 1e be ba f1 48 3e c4 ae cb be 97 c8 5c bb
       -0.15455075 0.19623461 -0.39781773 -0.0033688897
0000b0 9d 20 f2 be bd c2 72 3e 4f f2 ec 3d d6 92 47 be
       -0.47290507 0.237071 0.11569654 -0.19489607
0000c0 eb c6 15 3e b3 a4 dd 3d 7d d8 48 3f b0 7d d8 3c
       0.14626662 0.108224295 0.78455335 0.02642712
0000d0 ad fb dd bd 5d da ae 3e ee 69 b5 3e cb 8a 6f be
       -0.10839019 0.34150973 0.3543238 -0.23392789
0000e0 32 20 28 be 63 3f 0a 3d 58 5e 02 3e 49 07 c9 bd
       -0.16418532 0.033751857 0.12731302 -0.09815843
0000f0 65 e9 80 be 2d 26 b8 3e 7a cc 5e ba 02 99 b3 be
       -0.25178066 0.35966626 -0.00084990973 -0.35077673
000100 22 26 af 3e 8f 1b e4 bd dd d1 10 3e 00 c6 81 bd
       0.3420878 -0.11138069 0.14142556 -0.06336594
000110 be aa c2 be 0b b8 0f bd b0 5d cf be aa fe 33 be
       -0.3802089 -0.035087626 -0.40501165 -0.17577615
000120 fc ac 66 bd 40 ce 99 be 01 88 9b 3e ae b0 b8 3e
       -0.056317315 -0.3004017 0.303772 0.36072296
000130 d1 b6 b8 3d 20 92 d8 3d 5d d3 10 3f 9d b5 d0 3d
       0.090192445 0.10574746 0.56572515 0.1019089
000140 18 ac 1b 3e 63 80 4c 3f 8e e2 e7 3e 6d 09 30 3e
       0.15202367 0.798834 0.45290035 0.17191096
000150 c4 ea 91 be fb 7a 4a bb b2 4c 8d ba 94 0f 5f be
       -0.28499424 -0.0030896056 -0.0010780303 -0.21783286
000160 43 58 12 3f 5f 08 ab 3d fc f9 0f 3e 2d 8c 93 3e
       0.57165927 0.08351206 0.14060205 0.28817883
000170 cd 7e 6e be 5f 72 8b 3e 96 53 da 3c 65 96 75 bd
       -0.23290558 0.27235696 0.026651185 -0.05995788
000180 57 6a 87 bb 13 fb 31 3f df ac 63 3e 15 69 df be
       -0.0041325497 0.69523734 0.22233914 -0.4363486
000190 0b c9 13 3f 19 b1 21 3f a9 d8 0a 3e 19 b8 cf 3e
       0.5772864 0.63160855 0.13559212 0.40570143
0001a0 15 6d 1f 3e a1 39 1a be 24 bc 61 be 68 2a ae bd
       0.15568955 -0.15061046 -0.22044426 -0.08504182
0001b0 74 38 29 3e 0c f4 83 3d 06 88 12 3e c6 c8 c6 be
       0.16525441 0.064430326 0.14309701 -0.38825053
0001c0 87 c8 85 3d dd 04 3b 3f a1 e9 bd 3e 88 27 da 3e
       0.06532388 0.73054296 0.37092307 0.42608285
0001d0 20 06 db bd e8 3a 8e bd 51 1d 05 be 4c aa 70 3e
       -0.106945276 -0.06944829 -0.12999465 0.23502463
0001e0 9d 02 06 bf 69 d0 ca 3b ed d3 26 bd ab 72 af bd
       -0.5234774 0.006189395 -0.040729452 -0.08566793
0001f0 51 cb 0a 3e b2 f6 95 bd 93 95 ac 3e f6 b7 5b be
       0.13554122 -0.07322444 0.33707866 -0.21456894
000200 ef 03 2d be ba 85 74 3f 99 ef c6 be e2 05 e0 bd
       -0.16896032 0.9551655 -0.38854674 -0.10938622
000210 8f e2 2e bb 31 28 9b be 25 87 80 bc 80 32 ae 3d
       -0.0026685332 -0.303041 -0.015689442 0.08505726
000220 82 04 9f be 74 3c 4c bf 52 db 34 3e 78 08 16 bf
       -0.31058127 -0.79779744 0.17661789 -0.5860667
000230 60 d4 89 3e ee a8 24 be b1 12 3c bd e5 03 71 bc
       0.26919842 -0.16080067 -0.045916263 -0.014710401
000240 f5 9c e8 3d 6b 7c ef bd 9d 2c f2 be 98 3e 32 3e
       0.11358062 -0.11693653 -0.47299662 0.1740669
000250 cc 32 ab 3d 67 50 80 be 41 b4 61 3e 60 e6 76 be
       0.08359298 -0.25061342 0.22041418 -0.24111319
000260 ca 64 a3 3d e3 4a 23 3e 00 b6 9c 3e 4d 0a 1d 3f
       0.07978208 0.15946536 0.30607605 0.6134384
000270 07 0a 3b bd 92 cc 3a be cd 39 07 3e 93 f2 94 bd
       -0.04566386 -0.182421 0.13205643 -0.0727283
000280 19 58 5c 3e 0f f6 95 bd 23 3c 15 bf ea 7f 79 be
       0.21517982 -0.073223226 -0.58294886 -0.24365202
000290 60 25 7a 3e f1 46 c4 3d 18 18 ba 3e 29 37 62 be
       0.2442832 0.095838435 0.36346507 -0.22091354
0002a0 44 04 05 be b5 54 16 3f b6 44 ac be 3f a5 01 3e
       -0.12989908 0.58723 -0.33646172 0.12660693
0002b0 b7 2b 5e 3f 3e c2 9c 3e 61 ce 68 bd 4d db f1 3c
       0.86785454 0.30616945 -0.056837443 0.029523516
0002c0 71 c5 14 3d 5a eb 87 be 8e 74 19 bf 97 93 6d 3c
       0.036321107 -0.26546746 -0.59943473 0.01450052
0002d0 85 0e a2 be d0 4f 24 3e 3a 33 1d 3d dc 6f 12 3e
       -0.31651703 0.16046071 0.03837893 0.14300483
0002e0 cf 30 ee 3e b5 45 bf 3a 5c 89 06 3d 9a 27 8d 3e
       0.46521613 0.0014592918 0.03284584 0.27569276
0002f0 be 33 fd 3e 28 4d 44 3f e7 02 46 be 02 7f b1 3e
       0.4945354 0.7668023 -0.19337045 0.34667212
000300 c6 c8 80 be 80 9d 0d bb c8 cf ac 3e a5 37 a7 be
       -0.25153178 -0.002160877 0.33752275 -0.3265964
000310 73 ab eb be 89 23 3c 3f ad 5e c4 be e7 e7 3f 3d
       -0.46029243 0.7349172 -0.38353482 0.04685202
000320 02 dc 10 3e b9 da 6a 3e ce e4 6b be fb 51 99 be
       0.14146426 0.22934999 -0.23036501 -0.2994536
000330 48 0a d6 bc 4a 90 0c 3e d8 a6 2b be f3 f0 16 be
       -0.02612795 0.13726917 -0.16762865 -0.14740352
000340 c2 46 ce bd bc f9 93 be 0c 80 b0 be 53 d5 d9 be
       -0.1007209 -0.2890147 -0.34472692 -0.42545566
000350 f4 74 d3 3d 9f 09 bc be de b5 fb 3d 10 be 51 3e
       0.103250414 -0.3672609 0.12290548 0.2048266
000360 cb 47 fc be 85 87 b4 bd 5f 25 f7 bd 52 8a 61 be
       -0.49273524 -0.08814911 -0.12067675 -0.22025421
000370 08 67 66 3d 58 03 09 bf d3 3f eb be d9 31 14 3f
       0.056250602 -0.5352073 -0.45947132 0.5788856
000380 6c 3d 31 be 92 9c f4 be cb 3d 38 3e 9a d8 ba 3e
       -0.17308587 -0.47775704 0.17992322 0.3649338
000390 fc d0 a0 be b1 84 4b bf 18 84 d1 3c fc 64 c6 be
       -0.31409442 -0.79499346 0.025575683 -0.3874892
0003a0 86 a5 f5 bc 67 6b 4e 3d 53 eb 22 3e ac dc 0f bd
       -0.029986154 0.050395396 0.15910082 -0.03512256
0003b0 a4 cf 11 be ae b6 05 be dd 40 bd be 5c ce 3b be
       -0.14239365 -0.13057968 -0.3696355 -0.18340439
0003c0 d1 8f 44 3f 2a ff e6 be 9e 99 89 be 2d f9 66 bd
       0.76781946 -0.4511655 -0.26875013 -0.056389976
0003d0 d8 1a 2e 3e 33 d4 cf bc ca 21 7e bd 1f f7 86 bd
       0.17002428 -0.02536974 -0.062043943 -0.06590103
0003e0 e1 c9 b8 be 4d 2d f0 3d 97 fd 44 be 3c fd e3 3e
       -0.3609152 0.117273904 -0.19237362 0.4452914
0003f0 d4 38 0e 3f 57 7f 54 be 9f 9b 48 3e af d1 ad 3e
       0.5555546 -0.20751701 0.19590615 0.33949038
