logs/classifier/5_contexts/fold_01/10-19-2022_13-33-27/model_params.pth (torch, 821283 bytes, 10 tensors)

feature.weight_ih_l0 f4 [512, 64]
0	0xbf664fd7	-0.89965576
1	0xbbaabd21	-0.005210534
2	0x3e96ca9b	0.2945145
3	0x3f038452	0.5137378
4	0xbf8672b3	-1.0503753
5	0xbebfea5b	-0.37483487
6	0xbf468113	-0.775407
7	0xbc5369eb	-0.012903671
8	0xbdad0002	-0.08447267
9	0x3e9e4305	0.30910507
10	0xbf58a7ee	-0.8463124
11	0xbc05b0f5	-0.008159866
12	0xbdf80bd3	-0.1211163
13	0x3fbc74c8	1.4723139
14	0xbeef0051	-0.4667993
15	0x3f77b99c	0.9676759
16	0x3ee7566a	0.45183116
17	0x3d32eb45	0.0436814
18	0xbedda970	-0.43293333
19	0x3f4a34f5	0.78987056
20	0x4009ca7e	2.1529841
21	0x3ef7cb56	0.4839732
22	0x3dbcfb0e	0.092275724
23	0xbf0734dc	-0.5281503
24	0xbfc4b181	-1.536667
25	0x3ed0e922	0.40802866
26	0xbeca02e1	-0.3945532
27	0xbf17cf22	-0.59300435
28	0x3ea6a703	0.32549295
29	0x3e0c1898	0.13681257
30	0x3f834c5b	1.0257677
31	0xbee6778f	-0.4501309
32	0x3dfeccbe	0.12441395
33	0x3d211991	0.039331023
34	0x3f1acbf2	0.60467446
35	0xbe405678	-0.18782985
36	0x3ee0f939	0.43940142
37	0x3fdfde37	1.748969
38	0x3d8c4733	0.06849518
39	0x3f356c02	0.7086793
40	0x3e7b91e5	0.24567373
41	0xbfb91715	-1.4460169
42	0x3f8352cc	1.0259643
43	0x3f7d615c	0.98976684
44	0x3e6c43d1	0.23072745
45	0xbfa9de97	-1.3271054
46	0x3da2719b	0.07931825
47	0x3f7ad2b1	0.9797774
48	0x3e61229a	0.21985856
49	0x3f49b305	0.7878879
50	0xbe76abcd	-0.24088974
51	0xbe1f8c35	-0.15580828
52	0x3fb8af6a	1.4428532
53	0x3f01da2b	0.5072352
54	0xbe88c14a	-0.26709968
55	0xbe4463e9	-0.19178738
56	0xbf891af2	-1.0711348
57	0xb9ffc5d1	-0.00048784775
58	0x3d0f1514	0.03493221
59	0x3e91f754	0.2850901
60	0x3e0e55dc	0.1389994
61	0x3e27fb56	0.16404471
62	0xbe344a6e	-0.17606518
63	0xbf3aba3a	-0.7294041
64	0xbdc73e03	-0.09728625
65	0xbe2d70c1	-0.16937543
66	0xbddf99f7	-0.10918038
67	0xbf14154f	-0.57845014
68	0x3f73c2a8	0.95218897
69	0xbeccbac8	-0.39986253
70	0xbebf02dd	-0.37306872
71	0xbf5661dd	-0.8374308
72	0xbf507f7f	-0.81444544
73	0x3f2683e7	0.65045017
74	0xbf6cb3d7	-0.92461914
75	0x3eb3ad0c	0.35092962
76	0x3f269a5b	0.6507928
77	0x3f65b269	0.8972536
78	0xbf4ea131	-0.8071471
79	0x3f34bf28	0.7060418
80	0x3f33be65	0.70212394
81	0x3e17f0ec	0.14837998
82	0xbf0a9c79	-0.5414501
83	0x3f6fed58	0.9372153
84	0x3f49f9c0	0.78896713
85	0x3ee83701	0.45354465
86	0xbc14d71f	-0.009084492
87	0x3f58a465	0.84625846
88	0x3e453f40	0.19262409
89	0xbf241111	-0.6408854
90	0x3ec23cc1	0.37936977
91	0x3f1ae31c	0.6050279
92	0x3f6f3d0f	0.93452543
93	0xbef1c9fc	-0.47224414
94	0xbe369adf	-0.17832516
95	0xbc3f39d5	-0.011671503
96	0xbefad4ed	-0.48990574
97	0x3e99140e	0.29898113
98	0x3e8bc2dd	0.27297106
99	0x3f06a338	0.525928
100	0x3f6a61d1	0.91555506
101	0x3e373f56	0.17895254
102	0x3e2b2a7a	0.16715422
103	0xbecaa0cb	-0.395758
104	0x3f2532b8	0.64530516
105	0xbefcdef2	-0.49388844
106	0xbf45fc9d	-0.7733858
107	0x3ece1721	0.4025202
108	0x3fa36282	1.2764437
109	0xbf3a22af	-0.7270917
110	0xbe8dd9fe	-0.27705377
111	0x3f09750e	0.53694236
112	0x3e7f23e1	0.2491603
113	0x3ee087ce	0.4385361
114	0x3ecd9cc9	0.4015868
115	0xbf640236	-0.89065874
116	0xbc29b77a	-0.010358686
117	0x3e5e841f	0.21730088
118	0xbd2e2931	-0.042519752
119	0xbf0f87af	-0.5606641
120	0xbe2c646a	-0.1683518
121	0x3f12107c	0.57056403
122	0x3f45f6e9	0.7732988
123	0x3d1400e6	0.03613367
124	0x3e37aa08	0.17935956
125	0xbf047544	-0.51741433
126	0xbe028d6c	-0.1274926
127	0x3fc83aa7	1.5642899
128	0x3e8d276e	0.27569145
129	0x3e45807c	0.19287294
130	0xbf2f682b	-0.6851832
131	0x3f2bc2f9	0.6709438
132	0x3f309a0b	0.6898505
133	0x3c989d94	0.018629827
134	0xbf16974b	-0.58824605
135	0x3f02e280	0.5112686
136	0x3e8e19bd	0.27754012
137	0x3faa2e1a	1.3295319
138	0x3e0835ab	0.13301723
139	0xbe9950ef	-0.2994456
140	0xbf19d5d2	-0.6009189
141	0x3d9b1303	0.075719856
142	0x3fa71faf	1.3056544
143	0x3db47d80	0.08813
144	0xbebad166	-0.36487883
145	0xbd91710d	-0.07101641
146	0x3f11bcf2	0.5692893
147	0xbd83e38a	-0.06439884
148	0x3f9146ce	1.1349733
149	0x3f0bf14c	0.54665065
150	0xbf115e3d	-0.5678442
151	0x3ec00d33	0.3751007
152	0xbf00abbf	-0.50262064
153	0xbe43aee0	-0.19109678
154	0x3e800913	0.25006923
155	0x3f86b8f5	1.0525194
156	0xbdbf27a8	-0.09333736
157	0x3f7556a4	0.9583533
158	0xbef552ec	-0.47914827
159	0xbf412d66	-0.754599
160	0x3dc779fc	0.097400635
161	0x3f49fb37	0.7889895
162	0x3f965991	1.1746083
163	0xbe1996f9	-0.14998998
164	0xbe519f20	-0.20470858
165	0x3e5fc918	0.21854055
166	0xbe1e31ee	-0.15448734
167	0xbf873e8c	-1.0565963
168	0xbf815f8e	-1.0107286
169	0x3e15766b	0.14595954
170	0xbeb0f3a7	-0.34560892
171	0x3f4d7855	0.8026174
172	0xbe1b68dd	-0.15176721
173	0xbf6f5e37	-0.93503135
174	0xbcb342ee	-0.0218825
175	0x3e19a2f1	0.15003563
176	0x3e4985fc	0.19680017
177	0xbef4d04f	-0.47815177
178	0xbea3d379	-0.31997278
179	0x3f6d5361	0.9270535
180	0xbf0a7dcb	-0.54098195
181	0x3ed38149	0.41309574
182	0x3e4dbec9	0.2009231
183	0xbfbc4ecd	-1.4711548
184	0x3eb47d21	0.35251716
185	0xbea879af	-0.32905337
186	0x3ddbe763	0.10737493
187	0x3eee822f	0.46583697
188	0x3f86de5d	1.053661
189	0x3ed10b12	0.40828758
190	0x3f9d9221	1.231022
191	0x3f84d1c6	1.0376518
192	0x3f11550a	0.56770384
193	0xbdb8a981	-0.09016705
194	0x3f037b1c	0.51359725
195	0x3f130c00	0.57440186
196	0x3ec25338	0.37954116
197	0x3e6dd733	0.23226623
198	0x3ee3ab41	0.44466594
199	0x3e1a82fa	0.15089026
200	0x3f9bc758	1.217021
201	0x3e548acf	0.20756076
202	0xbdc7b489	-0.09751231
203	0xbe5ff5bc	-0.21871084
204	0x3b699c22	0.003564604
205	0xbe767d3f	-0.24071215
206	0x3eee55f3	0.4654995
207	0xbea9e476	-0.33182114
208	0xbeeae196	-0.45875233
209	0x3f078d3e	0.52949893
210	0xbe836ab9	-0.2566736
211	0x3ebe84d1	0.37210706
212	0xbfa62aa3	-1.2981762
213	0xbf47d480	-0.78058624
214	0x3e4c40e5	0.1994663
215	0x3e777587	0.24165927
216	0xbd9f180c	-0.077682585
217	0xbe902059	-0.2814968
218	0xbe20754d	-0.15669747
219	0x3f2bcdcf	0.67110914
220	0xbfc47f40	-1.5351334
221	0xbf0fcbf5	-0.5617059
222	0xbf09e93a	-0.538715
223	0x3f1a3485	0.6023639
224	0x3e84b262	0.25917345
225	0x3f1d50eb	0.61451596
226	0x3e8cf927	0.27533838
227	0x3eaf6fe9	0.34265068
228	0xbf3287f6	-0.6973871
229	0x3f8715d2	1.0553534
230	0xbe9e2618	-0.30888438
231	0xbf4d9104	-0.802994
232	0xbdf50edd	-0.119657256
233	0xbdf83b06	-0.12120633
234	0x3f16cd49	0.5890699
235	0x3ebe28c5	0.3714048
236	0x3dcb8e7b	0.09939285
237	0xbe632be3	-0.2218471
238	0x3d76411f	0.060120698
239	0x3eebbe14	0.46043456
240	0xbed15063	-0.40881643
241	0x3f11d60b	0.5696723
242	0x3d2141bb	0.039369326
243	0xbd8a3beb	-0.0674971
244	0xbf1adc41	-0.6049233
245	0x3e9c3731	0.30510858
246	0x3e8ab4ca	0.27091056
247	0x3d9320cb	0.07183989
248	0x3dfa2004	0.12213138
249	0x3f37f240	0.7185402
250	0x3e0f5142	0.13995841
251	0x3e45e178	0.19324291
252	0x3e6b5da3	0.22984938
253	0x3e2d6bfa	0.16935721
254	0xbe582788	-0.2110883
255	0xbe71d3b8	-0.2361592

feature.weight_hh_l0 f4 [512, 128]
0	0x3d90acba	0.07064195
1	0x3e9bdba9	0.30441025
2	0x3e8daf94	0.27673018
3	0xbec740b2	-0.38916546
4	0x3e2d17d7	0.16903625
5	0xbe2ca554	-0.16859943
6	0xbf23d9b2	-0.6400405
7	0x3f74ee9c	0.9567659
8	0xbdd2a215	-0.10284821
9	0x3df0877f	0.11744594
10	0xbe0c4b86	-0.13700685
11	0xbf929f85	-1.1454931
12	0xbda6c0f2	-0.0814227
13	0xbeb63e5d	-0.35594454
14	0x3e4f083b	0.20217983
15	0xbe7a7a79	-0.24460782
16	0x3d90dcbb	0.07073351
17	0x3e4deb48	0.20109284
18	0xbf01f7b7	-0.5076861
19	0x3f16d725	0.58922035
20	0x3dc3bc9c	0.09557459
21	0x3e9950c2	0.29944426
22	0xbf825400	-1.0181885
23	0xbf0764cd	-0.52888185
24	0x3dabc9ff	0.08388137
25	0x3d9d3044	0.076752216
26	0xbf7062c2	-0.9390069
27	0x3de5b518	0.112161815
28	0xbe57fe4a	-0.21093097
29	0xbf0eda27	-0.55801624
30	0x3f160754	0.5860493
31	0xbeea8075	-0.4580113
32	0x3f6fc85c	0.936651
33	0x3f34a1e0	0.705595
34	0x3ebd211f	0.36939332
35	0x3f006790	0.50158024
36	0x3f450137	0.7695498
37	0x3ed6606d	0.41870442
38	0xbed87e9b	-0.42284092
39	0x3e7888db	0.24270956
40	0x3fc333d5	1.5250193
41	0x3ece0160	0.40235424
42	0xbed0283c	-0.40655696
43	0xbe81ec2e	-0.25375503
44	0xbe84e7c5	-0.25958076
45	0xbf2a85da	-0.6661049
46	0xbd1ae1f5	-0.037813146
47	0x3f439b55	0.7640889
48	0x3e994825	0.29937854
49	0x3edd57dd	0.43231097
50	0xbe4c7d06	-0.19969568
51	0xbef4f3f5	-0.47842374
52	0xbd604e76	-0.054762326
53	0x3d1facda	0.038983203
54	0x3f24d172	0.6438209
55	0x3f462557	0.77400726
56	0xbebd15c5	-0.3693067
57	0x3e86fd6a	0.26365215
58	0x3f51e62b	0.81991833
59	0x3e4d7f58	0.20068109
60	0xbf66d1c1	-0.9016381
61	0xbf7e0780	-0.99230194
62	0x3f60e3d5	0.87847644
63	0x3e246400	0.16053772
64	0x3f02c024	0.51074433
65	0x3f50699b	0.8141114
66	0x3f4dd95c	0.8040979
67	0xbe32efe9	-0.17474331
68	0xbc30074b	-0.010743926
69	0x3fb29802	1.3952639
70	0xbe2b9784	-0.16757017
71	0xbe6abdf1	-0.2292402
72	0x3d84b960	0.0648067
73	0xbf15f41b	-0.585756
74	0xbe4915b1	-0.19637181
75	0xbe0e6007	-0.13903819
76	0xbea86c4b	-0.3289512
77	0x3ef5c751	0.4800363
78	0xbf059234	-0.52176213
79	0x3fc4482d	1.5334526
80	0x3ed071d6	0.4071185
81	0x3ef4da5c	0.47822845
82	0xbe2e6117	-0.17029224
83	0xbede3afb	-0.43404374
84	0xbe52e388	-0.20594609
85	0xbf08c8b1	-0.5343123
86	0xbecea02b	-0.40356573
87	0xbe0818ba	-0.13290682
88	0x3eb9694e	0.36213154
89	0xbf09aaef	-0.5377645
90	0x3e1e9549	0.15486635
91	0x3e9bd8de	0.30438894
92	0xbf121791	-0.5706721
93	0x3edb7bc9	0.42867878
94	0x3ec2b393	0.3802763
95	0x3f276c74	0.6539986
96	0xbe4d85ac	-0.20070523
97	0xbf18fa8f	-0.5975732
98	0x3e19366b	0.14962165
99	0x3cf33506	0.02968837
100	0xbf592bd8	-0.84832525
101	0xbe9d32c6	-0.307028
102	0xbeb34482	-0.35013205
103	0xbbe8e12b	-0.0071069202
104	0x3e56643c	0.20936674
105	0xbd32204c	-0.043487832
106	0x3e1959ea	0.14975706
107	0xbeb55dcf	-0.35423133
108	0x3f0baa0c	0.54556346
109	0x3f32e1a2	0.6987554
110	0xbea8a5d2	-0.3293901
111	0xbf15b8bd	-0.58485013
112	0xbef2cb00	-0.47420502
113	0x3f5c7013	0.8610851
114	0x3cbf13e3	0.023324912
115	0xbd983abc	-0.07433078
116	0x3ebb1c5b	0.3654507
117	0xbf1882c6	-0.59574544
118	0xbf19ccf6	-0.6007837
119	0x3edbcb5c	0.42928588
120	0xbd8bf7ee	-0.06834398
121	0xbdb614ec	-0.08890709
122	0x3f1a54c1	0.60285574
123	0xbf121be3	-0.570738
124	0x3ea23c3e	0.31686586
125	0x3f2ec0d3	0.68262976
126	0x3eb2e841	0.3494282
127	0x3eb3a58e	0.35087246
128	0xbecb566f	-0.3971438
129	0xbd914581	-0.07093335
130	0x3f85e7f6	1.0461414
131	0xbef35fe6	-0.47534102
132	0xbeec8551	-0.46195462
133	0xbe4861bc	-0.19568533
134	0x3f0ac8e2	0.5421277
135	0x3ec16bd7	0.37777588
136	0x3efa8fe8	0.48937917
137	0xbe85c037	-0.2612321
138	0xbde5e035	-0.11224405
139	0x3f22ab5c	0.63542724
140	0x3e1d8258	0.15381753
141	0xbe3f7061	-0.18695213
142	0xbf62b638	-0.88559294
143	0x3e81bf2b	0.25341162
144	0xbf81eb95	-1.0150019
145	0x3f36a377	0.7134318
146	0x3e87f6d0	0.2655549
147	0x3f3d7999	0.7401367
148	0x3edbd6bf	0.42937276
149	0x3edbd6af	0.42937228
150	0x3ef5f888	0.48041177
151	0xbc9a5226	-0.018838
152	0xbfd4bfd8	-1.6621046
153	0xbdd90f2b	-0.10598596
154	0xbf602d68	-0.87569284
155	0x3f01ba20	0.5067463
156	0x3e9e5225	0.30922046
157	0x3e76860b	0.24074571
158	0xbf3782b6	-0.71683824
159	0x3e6ed551	0.23323561
160	0xbf371902	-0.71522534
161	0x3e1495cb	0.14510266
162	0x3ebb49a0	0.3657961
163	0xbf0baba3	-0.5455877
164	0x3f3e06b4	0.7422898
165	0xbf20bbbe	-0.6278647
166	0xbbb52879	-0.0055285064
167	0x3e9d4967	0.30720064
168	0x3f32ca98	0.69840384
169	0x3f1e5f7b	0.6186444
170	0x3f84e022	1.03809
171	0x3edfbcc3	0.436987
172	0xbe93934b	-0.28823313
173	0xbe78a290	-0.24280763
174	0xbe391fcf	-0.1807854
175	0xbe1c0281	-0.1523533
176	0xbed7ebc6	-0.42172068
177	0xbea36d6d	-0.31919423
178	0xbeb68422	-0.35647684
179	0xbf594e05	-0.84884673
180	0xbe5ba349	-0.21449007
181	0x3f661eb2	0.8989059
182	0xbe2580ab	-0.16162364
183	0xbd1eb1ec	-0.0387439
184	0x3ea5e707	0.32402822
185	0x3f408ffc	0.752197
186	0xbee5e3db	-0.44900402
187	0x3dc03d19	0.093866535
188	0xbe8ff520	-0.28116703
189	0x3f03600c	0.5131843
190	0x3ce3b96f	0.027798383
191	0xbe503f49	-0.20336641
192	0xbf2bb39a	-0.67070925
193	0x3d6ea9da	0.05826745
194	0x3eae45b2	0.34037548
195	0x3de563a9	0.11200649
196	0xbf255a9c	-0.64591384
197	0x3f479c57	0.7797293
198	0xbe80590c	-0.25067937
199	0x3c07b8af	0.008283778
200	0xbebcf632	-0.36906582
201	0x3edbaa7c	0.42903507
202	0x3f18cc4b	0.59686726
203	0x3cec44fc	0.028841488
204	0xbe81854f	-0.2529702
205	0xbeaef4bd	-0.34171095
206	0x3f0a4bd8	0.5402198
207	0xbe4beaef	-0.19913839
208	0x3e6ee275	0.23328574
209	0xbea0d47e	-0.3141212
210	0x3f081c21	0.5316792
211	0xbeeca5cc	-0.46220243
212	0xbdd83f64	-0.10558966
213	0x3eaa1cf1	0.33225206
214	0xbefa2b0a	-0.4886096
215	0xbee03124	-0.4378749
216	0xbef190b3	-0.4718071
217	0x3d96d31e	0.07364486
218	0x3d04ab7b	0.0323901
219	0x3f2579f2	0.646392
220	0x3e9cba9c	0.30611122
221	0x3e9fe481	0.31229022
222	0xbd855923	-0.06511142
223	0xbf5baa5f	-0.8580684
224	0x3f02bfdb	0.51074
225	0x3e047c30	0.12937999
226	0x3f3b34e9	0.7312761
227	0x3e8eed14	0.2791525
228	0x3ecc1d32	0.39866024
229	0xbefbd608	-0.4918673
230	0x3edb3c38	0.4281938
231	0xbf27c03f	-0.6552772
232	0xbe1085d3	-0.1411355
233	0x3ea649d0	0.3247819
234	0x3cdc7df2	0.026915524
235	0x3ee988c2	0.4561215
236	0xbdf55456	-0.119789764
237	0xbed5e398	-0.41775203
238	0x3e56ded0	0.20983434
239	0xbe69465f	-0.2278075
240	0xbeea73e1	-0.45791534
241	0x3dc1fa06	0.09471516
242	0xbd981156	-0.074251816
243	0x3f2d1c4c	0.676213
244	0xbebd591f	-0.36982056
245	0x3f274f72	0.653556
246	0xbea556fd	-0.3229293
247	0xbe6acc54	-0.22929507
248	0x3d520078	0.05126998
249	0xbf89ed43	-1.0775532
250	0xbeb407e5	-0.35162273
251	0xbeadcd67	-0.33945772
252	0xbe863079	-0.26208857
253	0xbf255f87	-0.6459889
254	0xbf93ac25	-1.1536909
255	0x3e59d0db	0.21271078

feature.bias_ih_l0 f4 [512]
0	0x3e91311f	0.2835779
1	0x3ea2e288	0.31813455
2	0x3f2e38e0	0.68055534
3	0x3f2c307a	0.6726147
4	0x3cf2d306	0.02964164
5	0x3eacbc6c	0.33737504
6	0x3e2d0b5d	0.16898866
7	0x3e9f125b	0.31068692
8	0x3efb8882	0.49127585
9	0x3ca17dd3	0.019713318
10	0xbcd1c5a4	-0.025606938
11	0x3e6a7e2c	0.22899693
12	0x3c793f9d	0.0152129205
13	0xbc55f68f	-0.013059272
14	0xbed35dbb	-0.41282448
15	0x3ed68cf5	0.41904417
16	0x3f2fb03b	0.6862828
17	0x3fb98dd7	1.4496411
18	0x3dbbb113	0.091646336
19	0x3e905f08	0.28197503
20	0xbed03d1d	-0.40671626
21	0x3f09ade7	0.5378098
22	0x3ec85a08	0.39131188
23	0xbf0179ec	-0.50576663
24	0xbcfc4f5e	-0.030799564
25	0x3ed50eed	0.4161295
26	0x3e3e68b0	0.18594623
27	0xbe814d8d	-0.2525448
28	0x3ec7433a	0.38918477
29	0xbe2e2939	-0.17007913
30	0xbdc82a0a	-0.09773643
31	0xbb461b11	-0.0030228535
32	0xbd293ce0	-0.04131782
33	0x3d2ec9ef	0.042673048
34	0xbd3dd1af	-0.046342548
35	0x3e4efbf8	0.20213306
36	0xbe471bbb	-0.19444172
37	0x3e0fe4f6	0.14052185
38	0x3d33ea12	0.0439244
39	0xbccd2ac7	-0.025044812
40	0x3f01c2a3	0.5068762
41	0x3f0f051e	0.55867183
42	0xbeba96b9	-0.36443117
43	0xbe4d0f20	-0.20025301
44	0x3e2cedbd	0.16887565
45	0x3e844e1a	0.25840837
46	0xbc89e16b	-0.01683112
47	0x3ea69f30	0.32543325
48	0xbe3f5a17	-0.1868671
49	0x3d1f3a6b	0.03887407
50	0x3ef02982	0.46906668
51	0x3e696e8f	0.22796081
52	0x3f036dc3	0.5133936
53	0x3f08f793	0.5350277
54	0x3f6c7585	0.9236682
55	0xbebad859	-0.36493185
56	0x3ed176e1	0.4091101
57	0x3f562581	0.83650976
58	0xbe868259	-0.26271322
59	0x3e231be4	0.15928608
60	0xbcdb5df6	-0.026778203
61	0xbeea00a7	-0.45703623
62	0x3de87814	0.11351028
63	0x3d21d36e	0.039508276
64	0xbeaa790d	-0.3329548
65	0x3ecfdf02	0.4059983
66	0xbe9279dc	-0.28608596
67	0x3d16c061	0.03680456
68	0x3eb260dd	0.34839526
69	0x3e4a8032	0.19775465
70	0x3deed6b1	0.11662043
71	0x3e46688f	0.19375823
72	0x3e9cb54b	0.30607066
73	0x3f2e2bd5	0.6803563
74	0xbe919df3	-0.28440818
75	0x3fa96201	1.3233033
76	0xbe37e5e8	-0.17958796
77	0x3e96502e	0.29358047
78	0xbe79b56a	-0.2438561
79	0x3f9639b5	1.1736361
80	0x3f055cd5	0.52094775
81	0xbcdc910e	-0.026924636
82	0x3dba0bab	0.09084257
83	0x3c98ebdd	0.018667156
84	0x3e444aff	0.19169234
85	0xbed2185f	-0.4103422
86	0x3e250d8c	0.16118449
87	0x3dc1eb38	0.094686925
88	0xbb2f2f26	-0.0026730984
89	0x3e4b5c50	0.19859433
90	0x3e93bf62	0.2885695
91	0x3f16d79a	0.5892273
92	0x3e8929bd	0.26789656
93	0x3e91ca62	0.28474718
94	0x3f15c50b	0.5850379
95	0x3ef83016	0.48474187
96	0x3face619	1.350772
97	0xbd7b34b1	-0.061329547
98	0xbebd3e90	-0.36961794
99	0x3ed39ef1	0.413322
100	0x3ec28dac	0.37998712
101	0x3eecba0d	0.46235695
102	0xbe2ef3de	-0.17085215
103	0xbe8bce89	-0.2730601
104	0xbdd818b4	-0.10551587
105	0xbe080928	-0.13284743
106	0x3e4bfd6d	0.19920893
107	0x3ef0c6d0	0.47026682
108	0x3e0e2ca8	0.13884223
109	0x3e3d72c5	0.18500812
110	0xbeda3243	-0.42616472
111	0xbdc3491a	-0.095354274
112	0xbea7892f	-0.3272185
113	0xbdea05c1	-0.11426879
114	0x3e7b8812	0.24563625
115	0xbe5ad567	-0.21370469
116	0x3e46b1a5	0.19403704
117	0x3f2a230b	0.6645972
118	0xbd1a3a25	-0.037653107
119	0xbecee93f	-0.40412328
120	0x3e3c3682	0.18380168
121	0x3ed6d93b	0.4196261
122	0xbd961074	-0.07327357
123	0x3eb9994d	0.36249772
124	0xbe05b7a8	-0.1305834
125	0xbd852d53	-0.065027855
126	0xbdc0c4a7	-0.094125085
127	0x3d4920ea	0.049103655
128	0xbf113628	-0.5672326
129	0xbf23b9dc	-0.63955474
130	0xbf3e56b7	-0.74351066
131	0xbef64d78	-0.4810598
132	0xbf02e696	-0.51133096
133	0xbe96fb2d	-0.29488507
134	0xbe9d1076	-0.3067662
135	0xbee7672b	-0.45195898
136	0xbe8915af	-0.26774356
137	0xbdfbb5f0	-0.12290561
138	0xbede34b4	-0.43399584
139	0xbd66da6b	-0.056360643
140	0xbe0873cd	-0.13325424
141	0x3d7f7c93	0.062374663
142	0x3db6315d	0.08896134
143	0x3d259560	0.04042566
144	0xbf3cc257	-0.7373404
145	0xbec2aa66	-0.3802063
146	0x3e160903	0.14651875
147	0xbd1536fb	-0.036429387
148	0xbe386578	-0.18007457
149	0xbec176f2	-0.3778606
150	0xbebc3560	-0.36759472
151	0xbe731d36	-0.23741612
152	0xbf007b97	-0.50188583
153	0xbd814652	-0.06312241
154	0xbea92964	-0.3303939
155	0xbd61b001	-0.05509949
156	0xbe9b2263	-0.30299672
157	0xbe402a88	-0.18766224
158	0x3cbca5af	0.023028223
159	0x3d8dead8	0.069295585
160	0x3eaf6dcb	0.34263453
161	0xbe9a3d77	-0.3012502
162	0x3df45aed	0.11931405
163	0xbe83ab46	-0.2571661
164	0x3e85f8f9	0.26166514
165	0x3d7253eb	0.05916206
166	0x3e0ed91f	0.13950013
167	0xbd0139ca	-0.031549253
168	0xbed408bb	-0.4141291
169	0xbed03d49	-0.40671757
170	0x3e110be8	0.14164698
171	0xbb921adf	-0.0044587697
172	0x3ebb7c09	0.3661807
173	0x3e027351	0.12739302
174	0x3e382b56	0.17985281
175	0x3d768e8e	0.060194544
176	0x3f245ea0	0.64206886
177	0xbe4faac5	-0.20279987
178	0xbe71c268	-0.23609316
179	0xbe241c56	-0.16026434
180	0xbe2ab037	-0.16668783
181	0xbee55dd8	-0.4479816
182	0xbf5f06bd	-0.87119657
183	0x3e9fda35	0.31221166
184	0x3e5ebf30	0.2175262
185	0xbe8ab2cf	-0.27089545
186	0xbd60c7a3	-0.05487789
187	0xbea53b40	-0.32271767
188	0xbec52ec5	-0.38512245
189	0x3d2f1234	0.04274197
190	0xbdd31b2c	-0.10307917
191	0xbdcd1d43	-0.10015347
192	0xbd94b827	-0.07261687
193	0x3e010384	0.12598997
194	0xbe3478d8	-0.17624223
195	0xbea98189	-0.3310664
196	0xbe9a7c7d	-0.30173102
197	0xbef0f2ff	-0.4706039
198	0x3e95b4f4	0.2923962
199	0x3ee79e6a	0.45238048
200	0x3e8f47dc	0.27984512
201	0xbedd1986	-0.43183535
202	0xbd8fd30b	-0.07022675
203	0x3ea665cb	0.32499537
204	0x3e241093	0.16021948
205	0xbf04b97d	-0.5184553
206	0xbdab0c56	-0.08351962
207	0x3df3df1f	0.11907791
208	0xbe11ec39	-0.14250268
209	0xbedee9b6	-0.43537682
210	0x3ea87a35	0.32905737
211	0xbe9427fc	-0.28936756
212	0x3eb8abee	0.36068672
213	0x3e97107c	0.29504764
214	0xbd0be7ee	-0.034156732
215	0xbe1eaa40	-0.15494633
216	0x3e2c031f	0.16798066
217	0x3e11bf14	0.14233047
218	0xbed21c09	-0.41037014
219	0x3c46e841	0.012140335
220	0xbe78ca9e	-0.24296042
221	0xbf08b93a	-0.53407633
222	0xbdcaf17d	-0.099093415
223	0xbf138b56	-0.57634485
224	0xbef9c3ec	-0.4878229
225	0xbddc51d7	-0.10757797
226	0xbe72e437	-0.2371987
227	0xbea6c360	-0.32570934
228	0xbe0c92fe	-0.13727948
229	0xbf063ba4	-0.52434754
230	0x3d62d80b	0.055381816
231	0xbd49ecd9	-0.04929814
232	0x3e08874c	0.13332862
233	0xbd9e67c3	-0.07734635
234	0xbe1ea7b9	-0.15493669
235	0x3da28f78	0.07937521
236	0xbe339528	-0.17537367
237	0x3cbd9bbf	0.023145555
238	0xbf0ac086	-0.5420002
239	0x3dec835e	0.11548494
240	0xbe2df3da	-0.16987553
241	0xbdbb51f9	-0.091464944
242	0xbe101837	-0.14071737
243	0xbf118566	-0.56844175
244	0x3e48ef12	0.19622448
245	0xbf1ae363	-0.60503215
246	0xbf13ba57	-0.5770621
247	0xbe805905	-0.25067917
248	0xbf03dffa	-0.51513636
249	0x3e229504	0.15877157
250	0xbef76d59	-0.48325613
251	0xbf076279	-0.5288463
252	0x3e20cf5c	0.15704101
253	0xbe4d0c57	-0.20024239
254	0x3cb0f0d4	0.02159921
255	0xbe48aa14	-0.1959613

feature.bias_hh_l0 f4 [512]
0	0x3e61cb80	0.22050285
1	0x3ea0c701	0.31401828
2	0x3f2f7cdd	0.685499
3	0x3f4711fb	0.7776181
4	0xbd5d0554	-0.05396016
5	0x3dd34da5	0.10317544
6	0x3e12788c	0.14303797
7	0x3e9950b3	0.2994438
8	0x3ee480dc	0.44629562
9	0xbd808edc	-0.06277248
10	0xbdac258b	-0.08405598
11	0x3d9971b9	0.07492394
12	0x3de2c052	0.110718384
13	0x3bdde167	0.006771255
14	0xbf0680b0	-0.5254011
15	0x3eb1766e	0.34660667
16	0x3f656941	0.8961373
17	0x3fbc3aa4	1.4705396
18	0xbd42ac52	-0.04752762
19	0x3e9f63b9	0.3113077
20	0xbea788a5	-0.3272144
21	0x3ed194af	0.4093375
22	0x3ebc569f	0.36784837
23	0xbeb627a5	-0.3557712
24	0xbda4e2c9	-0.08051068
25	0x3e859b40	0.2609501
26	0x3e3dfba2	0.18553022
27	0xbe5df55d	-0.2167563
28	0x3ee857bb	0.45379433
29	0xbe03b894	-0.1286338
30	0xbdb20331	-0.08692015
31	0xbdf6eff0	-0.12057483
32	0xbb31e9a1	-0.002714731
33	0xbd858218	-0.06518954
34	0xbde91ca3	-0.11382415
35	0xbc8f9c15	-0.01753048
36	0xbe59f268	-0.21283877
37	0x3df09faf	0.11749207
38	0xbe296456	-0.16542181
39	0x3dd2e66b	0.10297855
40	0x3ed232b9	0.41054323
41	0x3f036ada	0.5133492
42	0xbe77c8be	-0.24197671
43	0xbdc57733	-0.09641876
44	0x3d3eeb3e	0.046611063
45	0x3ec8f220	0.39247227
46	0x3d5b507a	0.053543545
47	0x3ebd7c26	0.3700878
48	0xbe4b98cc	-0.19882506
49	0x3dc91d0e	0.09819995
50	0x3ec7cfd5	0.3902575
51	0x3e119eca	0.1422073
52	0x3f06ab7e	0.52605426
53	0x3f1058e9	0.56385666
54	0x3f842acd	1.0325562
55	0xbeab6061	-0.3347197
56	0x3ec179c3	0.3778821
57	0x3f5240be	0.8213004
58	0xbea41ded	-0.32054082
59	0x3d69e488	0.05710271
60	0x3aad6909	0.0013230155
61	0xbee45ebe	-0.44603533
62	0x3d04dcd2	0.032437153
63	0x3e1ac840	0.15115452
64	0xbea2cd63	-0.31797323
65	0x3eb03f48	0.3442328
66	0xbe47f572	-0.19527224
67	0xbd06e861	-0.032936458
68	0x3ed23c5a	0.4106167
69	0x3dfb7e48	0.122799456
70	0x3ddd0002	0.10791017
71	0x3de9ce77	0.11416333
72	0x3ea40e7b	0.32042298
73	0x3f54c3ac	0.8311107
74	0xbeaa471e	-0.33257383
75	0x3fa958e3	1.3230251
76	0xbe83ab24	-0.25716507
77	0x3e71f76c	0.2362954
78	0xbe819dae	-0.25315613
79	0x3f916cc5	1.1361319
80	0x3f14b920	0.5809498
81	0x3db2df1c	0.08733961
82	0x3baec52d	0.005333564
83	0x3d9fee3c	0.078091115
84	0x3dd88a4e	0.105732545
85	0xbefc1258	-0.49232745
86	0x3d801570	0.06254089
87	0x3d03b111	0.032151286
88	0xbcc7af18	-0.024375483
89	0x3e234ca9	0.15947212
90	0x3d8f1688	0.06986719
91	0x3f341d4a	0.7035719
92	0x3e4ea45f	0.2017989
93	0x3ed4b890	0.4154706
94	0x3ef9cce5	0.48789135
95	0x3f208d77	0.6271586
96	0x3fbfc608	1.4982309
97	0x3d862d73	0.065516375
98	0xbede30f5	-0.43396726
99	0x3ecb95bc	0.39762676
100	0x3ee1e303	0.4411851
101	0x3f04bd0d	0.5185097
102	0xbdafcd53	-0.08584084
103	0xbe095c2c	-0.13414067
104	0xbe32c556	-0.1745809
105	0xbe18a247	-0.14905654
106	0x3e7e08ec	0.24808091
107	0x3f19a7eb	0.6002185
108	0x3db853d1	0.09000362
109	0x3e016eec	0.1263997
110	0xbec748e5	-0.38922802
111	0xbe871e71	-0.26390412
112	0xbea8280a	-0.32843047
113	0xbc6db8b7	-0.0145093715
114	0x3e833b9f	0.25631425
115	0xbe13b372	-0.14423922
116	0x3e98ae2e	0.2982039
117	0x3f1abd28	0.6044488
118	0xba44d69f	-0.00075087877
119	0xbe9839f0	-0.29731703
120	0x3e6aeeb7	0.22942625
121	0x3e8b4442	0.27200514
122	0xbe21c754	-0.15798694
123	0x3edebfd6	0.43505734
124	0xbe376853	-0.1791089
125	0xbd5f1a99	-0.054468725
126	0xbc47c41b	-0.012192751
127	0x3e529fef	0.20568822
128	0xbef06931	-0.46955255
129	0xbf366615	-0.71249515
130	0xbf373981	-0.7157212
131	0xbf0bdc6c	-0.5463321
132	0xbf161c27	-0.5863671
133	0xbe825951	-0.25458768
134	0xbe40683d	-0.18789764
135	0xbefa665e	-0.48906225
136	0xbeda0da9	-0.42588547
137	0xbc3f77e8	-0.011686303
138	0xbf0b1d6a	-0.5434176
139	0xbe514819	-0.2043766
140	0xbe1b65ac	-0.15175503
141	0xbde10337	-0.10986941
142	0x3d947e9b	0.072507106
143	0x3dbda42c	0.09259829
144	0xbf52c781	-0.8233567
145	0xbe9fd4d8	-0.31217074
146	0x3dff0e35	0.12453882
147	0xbde5165f	-0.111859076
148	0xbe44bf85	-0.19213684
149	0xbef6e74b	-0.48223338
150	0xbe62c666	-0.22145995
151	0xbec5159f	-0.38493058
152	0xbec4df97	-0.38451836
153	0xbe318c4b	-0.17338674
154	0xbeab77ef	-0.3348994
155	0x3d0cd64f	0.034384068
156	0xbed462de	-0.4148168
157	0xbe29d2f3	-0.16584377
158	0xbd8d8259	-0.069096275
159	0x3dcb19c4	0.09917024
160	0x3ea42570	0.32059813
161	0xbef9692b	-0.4871305
162	0x3e086818	0.13320959
163	0xbe901662	-0.28142077
164	0x3eb7b3a1	0.35879233
165	0x3be9f70e	0.007140047
166	0x3e0e5683	0.13900189
167	0xbd9e7eaf	-0.07739007
168	0xbee5885f	-0.44830605
169	0xbf05350c	-0.5203407
170	0x3ea6dd67	0.32590792
171	0x3db5f4f0	0.08884609
172	0x3ed3c614	0.4136206
173	0x3d463a5e	0.048395507
174	0x3e00ddb2	0.1258457
175	0x3d4bacfa	0.04972551
176	0x3f1cb8f3	0.6121971
177	0xbe15d41a	-0.14631692
178	0xbe67fdc9	-0.22655405
179	0xbe5410bf	-0.20709513
180	0xbdf7e795	-0.12104718
181	0xbf1c63bd	-0.6108969
182	0xbf57821e	-0.8418292
183	0x3e95570c	0.29167974
184	0x3e462e13	0.19353513
185	0xbeadcde5	-0.33946148
186	0x3c9190db	0.017769268
187	0xbeb21626	-0.34782523
188	0xbe96987d	-0.29413214
189	0x3b39430f	0.002826873
190	0xbce8010d	-0.028320814
191	0xbe1216da	-0.1426653
192	0x3df7056b	0.1206158
193	0xbc6b6f8b	-0.014369856
194	0xbe40198a	-0.18759742
195	0xbedc27db	-0.42999157
196	0xbead1c2f	-0.33810565
197	0xbefded87	-0.4959528
198	0x3e2a46aa	0.16628519
199	0x3f002261	0.5005246
200	0x3e5ba7f8	0.21450794
201	0xbedc6022	-0.43042094
202	0xbe474178	-0.19458568
203	0x3e80f9a4	0.2519046
204	0x3e5287f2	0.20559672
205	0xbee883ca	-0.45413047
206	0xbdc50ff1	-0.09622181
207	0x3e1ebbb4	0.1550129
208	0xbe8f0ef0	-0.27941084
209	0xbea8c100	-0.32959747
210	0x3ea55b4f	0.32296225
211	0xbea53789	-0.32268932
212	0x3ec0887a	0.37604123
213	0x3e9679bc	0.2938975
214	0xbe0123ed	-0.12611361
215	0xbe163db4	-0.14671975
216	0x3e6273c4	0.22114474
217	0x3d94f935	0.07274095
218	0xbecadd07	-0.39621755
219	0xbd842c88	-0.06453806
220	0xbea5f389	-0.32412365
221	0xbf1895f7	-0.5960383
222	0xbdae6dbb	-0.08517023
223	0xbf22b58a	-0.63558257
224	0xbf1ea078	-0.61963606
225	0xbe2b1883	-0.16708569
226	0xbe7295fb	-0.23690026
227	0xbe7b6b07	-0.24552546
228	0xbde5b9b7	-0.11217063
229	0xbf00fca0	-0.50385475
230	0x3d3ffc10	0.046871245
231	0x3ca02c73	0.019552445
232	0x3e03d9ed	0.12876101
233	0xbdfe9676	-0.12431042
234	0xbe98da6a	-0.29854137
235	0xbdf27e14	-0.11840454
236	0xbe66bb76	-0.22532448
237	0x3cc6c50a	0.024263877
238	0xbed91fdb	-0.42407116
239	0x3d73b7e4	0.059501544
240	0xbe5b0faf	-0.21392702
241	0xbe034917	-0.1282085
242	0xbe86f805	-0.263611
243	0xbeac2799	-0.3362396
244	0x3e8a8a6d	0.27058735
245	0xbf339f6e	-0.70165145
246	0xbf372951	-0.7154742
247	0xbe2b4924	-0.1672712
248	0xbf1233df	-0.571104
249	0x3e1e24f7	0.15443788
250	0xbec7e984	-0.39045346
251	0xbf158c11	-0.5841685
252	0x3e4ea3b7	0.2017964
253	0xbe20b62a	-0.1569449
254	0xbde2a5c4	-0.110667735
255	0xbe97c51b	-0.29642567

feature.weight_ih_l0_reverse f4 [512, 64]
0	0xbeb24dbf	-0.3482494
1	0xbf0a2370	-0.53960323
2	0x3df1ac69	0.11800463
3	0xbf4fc572	-0.8116065
4	0xbfc60e98	-1.5473204
5	0x3f4e270b	0.80528325
6	0x3bd8052c	0.0065924134
7	0x3f7b4577	0.9815287
8	0xbf2cba1e	-0.6747149
9	0x3f402d4a	0.75069106
10	0xbf2b2323	-0.6685049
11	0x3f40ca1b	0.7530839
12	0x3f119a79	0.5687633
13	0x3f58916d	0.845969
14	0x3ef1ed55	0.47251382
15	0xbe65dcd3	-0.22447519
16	0x3ed57a5d	0.41694918
17	0x3f3e92cb	0.7444274
18	0xbde75d6d	-0.112971164
19	0x3f54fdfb	0.83200043
20	0xbd148e26	-0.036268376
21	0x3e87d4bb	0.26529488
22	0x3c006c0b	0.007838259
23	0xbe9343ee	-0.28762764
24	0xbe9025c8	-0.28153825
25	0x3f691606	0.9104923
26	0x3f4874ce	0.7830323
27	0x3d4f4fac	0.05061309
28	0x3f96a19f	1.1768073
29	0xbf3b0a0d	-0.7306221
30	0xbf1daa91	-0.6158839
31	0xbee1c61c	-0.44096458
32	0x3ec587cb	0.38580164
33	0xbef0d3bf	-0.4703655
34	0xbecdfcdd	-0.40231982
35	0xbcb509c2	-0.02209938
36	0x3f5d957c	0.8655622
37	0x3ed92ab2	0.42415386
38	0xbdd97f10	-0.106199384
39	0x3f18d7c7	0.5970425
40	0x3f1fc4a2	0.6240941
41	0xbec115bb	-0.37711892
42	0x3e770a5f	0.2412505
43	0x3df8b52b	0.1214393
44	0xbd6e13cf	-0.05812436
45	0xbe564f0b	-0.2092859
46	0x3d218a1e	0.03943836
47	0xbc027326	-0.007962024
48	0xbee19f82	-0.44067007
49	0xbf8158c1	-1.010521
50	0x3ec12a9a	0.37727815
51	0xbf427812	-0.7596446
52	0x3f5d105d	0.86353093
53	0xbed0864b	-0.40727457
54	0x3f181fc0	0.59423447
55	0x3e6a47cc	0.22878951
56	0x3e5c6242	0.21521857
57	0xbf5e7c3f	-0.86908334
58	0x3e9d765a	0.30754358
59	0x3ef5f4c3	0.480383
60	0x3e11e0df	0.14245938
61	0x3e2b1cbf	0.16710185
62	0xbf07cea9	-0.53049713
63	0x3e72f853	0.2372754
64	0x3f258b35	0.6466554
65	0xbe885954	-0.26630652
66	0x3f8df4f9	1.1090385
67	0xbd78d665	-0.060751338
68	0x3d00fd19	0.031491373
69	0xbec33b85	-0.38131347
70	0x3f724b6d	0.9464634
71	0xbe99f0e4	-0.30066597
72	0xbfb6f1b8	-1.4292517
73	0xbd9b3779	-0.0757894
74	0xbe338bb9	-0.17533769
75	0x3f45689a	0.77112734
76	0x3eeda0b0	0.46411657
77	0x3fb93262	1.4468501
78	0xbf433ff7	-0.7626948
79	0x3f3e25b0	0.74276257
80	0xbf14ad8d	-0.5807732
81	0xbe1ad1da	-0.15119115
82	0xbf63dd77	-0.89009804
83	0x3e811cd2	0.252173
84	0x3e910295	0.28322282
85	0xbdce1f7e	-0.100646004
86	0x3faa9d01	1.3329164
87	0xbf14b400	-0.5808716
88	0x3efd25b5	0.4944283
89	0x3f0fc23f	0.5615577
90	0xbeab487f	-0.33453748
91	0xbe38afa2	-0.18035749
92	0x3f3b3fd2	0.7314426
93	0x3e87dc79	0.26535395
94	0xbf8036cc	-1.0016723
95	0xbe51124e	-0.20417139
96	0x3e4368f7	0.1908301
97	0x3d22036e	0.039554052
98	0xbf11eeca	-0.5700499
99	0xbe9f8463	-0.3115569
100	0xbf1c1ac9	-0.6097837
101	0x3f245b15	0.6420148
102	0xbea47b0a	-0.3212512
103	0x3d09211a	0.033478834
104	0x3e88df5d	0.26732913
105	0xbfbdc2f4	-1.482512
106	0x3ed5cd79	0.41758326
107	0xbfaa69fe	-1.3313596
108	0x3e222005	0.15832527
109	0x3e117362	0.14204171
110	0x3e55ecbe	0.20891091
111	0x3f0e20cd	0.555188
112	0xbef353c6	-0.47524852
113	0x3dbf5ac8	0.09343487
114	0x3e1f2c78	0.15544307
115	0x3da66c31	0.081261046
116	0x3e13b2ce	0.14423677
117	0xbe621d03	-0.2208138
118	0x3eda451c	0.4263085
119	0x3e810b19	0.2520378
120	0xbed7ab00	-0.4212265
121	0xbf5608c9	-0.83607155
122	0xbe92f752	-0.28704315
123	0x3da46473	0.08026972
124	0xbf3aca13	-0.7296459
125	0x3d4ee25a	0.050508834
126	0xbfcfa2d5	-1.6221567
127	0xbcc8051b	-0.024416497
128	0xbf936bc7	-1.1517266
129	0x3eed6ac5	0.4637052
130	0xbf81873a	-1.0119393
131	0xbeedd2ac	-0.46449792
132	0x3f2e6579	0.68123585
133	0xbe9e54a1	-0.30923942
134	0xbf33b78a	-0.70201933
135	0x3ee4d8c5	0.44696632
136	0xbdd5e89c	-0.10444757
137	0xbf36143b	-0.7112462
138	0xbf0ed2b8	-0.5579028
139	0x3ee24f7f	0.44201276
140	0x3e2b603a	0.16735926
141	0x3e5d9c9b	0.21641771
142	0xbf176a66	-0.59146726
143	0xbf458a02	-0.7716371
144	0x3eac7818	0.33685374
145	0xbf487afe	-0.7831267
146	0xbf95109a	-1.1645691
147	0xbec89c4e	-0.3918175
148	0x3d558d1d	0.05213653
149	0xbe085d4c	-0.1331684
150	0x3e239256	0.15973791
151	0x3ef57920	0.47943974
152	0xbe798501	-0.24367143
153	0xbee8e318	-0.4548576
154	0x3e8f283e	0.2796039
155	0xbf4bd678	-0.7962413
156	0xbe6a24b1	-0.22865559
157	0x3d39f1b5	0.045396525
158	0xbeb27080	-0.34851456
159	0xbed471f6	-0.41493195
160	0xbf523706	-0.8211521
161	0xbec41358	-0.38296008
162	0xbec4eaae	-0.38460296
163	0x3f045572	0.5169288
164	0xbf01ded6	-0.50730646
165	0xbf4e3389	-0.80547386
166	0x3e598dec	0.21245545
167	0x3e2acd14	0.16679794
168	0x3ef4be5d	0.47801486
169	0xbecd897e	-0.4014396
170	0x3eb56ac3	0.35433015
171	0xbf21097c	-0.62905097
172	0xbe6efd45	-0.23338802
173	0x3cbf35b3	0.023341035
174	0x3f3d4faa	0.7394968
175	0x3dc3906b	0.0954903
176	0xbee68a8a	-0.45027572
177	0xbe0be3b0	-0.13661075
178	0x3f4b5149	0.79420906
179	0xbf23fbb0	-0.6405592
180	0x3f36ed13	0.71455497
181	0xbf3fdae0	-0.7494335
182	0x3f2e10e4	0.67994523
183	0x3dabd1fa	0.08389659
184	0xbf75fa1a	-0.9608475
185	0xbdba9dcf	-0.09112131
186	0xbe4fde74	-0.20299703
187	0x3e3d5e60	0.18493032
188	0xbef36781	-0.47539905
189	0x3f132053	0.574712
190	0x3f6aa327	0.916552
191	0xbe081560	-0.13289404
192	0xbb8ce91b	-0.0043002493
193	0xbe6d599a	-0.23178712
194	0x3db84836	0.08998148
195	0x3f62b09d	0.8855074
196	0x3e9324cf	0.2873902
197	0xbe429a96	-0.19004282
198	0xbe8fd5b5	-0.28092733
199	0x3f0bbd65	0.5458587
200	0x3ce0eb62	0.02745599
201	0x3f997a30	1.1990414
202	0x3f2a2c9b	0.6647431
203	0xbe6250a5	-0.22101076
204	0xbec46e02	-0.3836518
205	0x3eebeea8	0.46080518
206	0x3e579410	0.21052575
207	0x3f78dc65	0.97211295
208	0xbe97aede	-0.296256
209	0xbf31fc85	-0.6952594
210	0xbf0e8a50	-0.556798
211	0x3e65ef33	0.22454529
212	0xbecd797a	-0.40131742
213	0xbeedc594	-0.46439803
214	0x3f1bca5b	0.60855645
215	0x3df302ac	0.11865744
216	0x3ef16deb	0.47154173
217	0x3f39c36f	0.72563833
218	0x3de7a5c6	0.11310916
219	0x3e504587	0.20339023
220	0x3e2b7484	0.16743666
221	0xbeeff19e	-0.46864027
222	0xbeb1f78e	-0.34759182
223	0x3ec4712a	0.38367587
224	0x3f1b2885	0.606087
225	0x3f4f98d9	0.810926
226	0xbe95b023	-0.29235944
227	0xbf859dc5	-1.0438772
228	0x3f444c5d	0.7667902
229	0x3f246d9e	0.6422976
230	0x3bf52730	0.007481478
231	0x3eb94ed0	0.36192942
232	0x3f28a211	0.65872294
233	0x3e0c4fad	0.13702269
234	0xbe5b084a	-0.21389881
235	0x3f194ccc	0.5988281
236	0x3f00833f	0.50200266
237	0x3f3d9a08	0.7406316
238	0x3ed8c4da	0.42337686
239	0x3eab4c25	0.3345653
240	0x3f31b57a	0.69417536
241	0xbe7d0485	-0.24708755
242	0x3e58b872	0.2116411
243	0xbd915538	-0.07096332
244	0xbf6273e4	-0.88458085
245	0xbf0cb770	-0.54967403
246	0x3f0585b4	0.5215714
247	0x3e87d423	0.26529035
248	0xbe2b0165	-0.1669975
249	0xbf59c4a5	-0.8506568
250	0x3ed9ddf9	0.42552164
251	0xbecb9501	-0.39762118
252	0xbe6bd7ee	-0.2303159
253	0x3f0eea50	0.5582628
254	0x3f028127	0.5097832
255	0x3ed76b2d	0.42073956

feature.weight_hh_l0_reverse f4 [512, 128]
0	0x3d9b3d55	0.075800575
1	0xbdd75044	-0.10513356
2	0xbd8e7216	-0.06955354
3	0x3ee244d3	0.44193134
4	0x3e4ceaf7	0.20011507
5	0xbd0d2210	-0.034456313
6	0xbe9ebfa6	-0.3100559
7	0x3e14d8d0	0.14535832
8	0x3dbadef4	0.09124556
9	0xbf3206c6	-0.69541585
10	0x3db8a0ca	0.09015043
11	0xbf163d86	-0.5868763
12	0xbee2341d	-0.44180384
13	0x3f38fc05	0.7225955
14	0xbf15dd08	-0.5854039
15	0xbf8f874f	-1.1213168
16	0x3f7843dd	0.9697855
17	0xbf046b88	-0.5172658
18	0xbf617cdc	-0.88081145
19	0xbd64f698	-0.055899233
20	0x3e551c8a	0.20811668
21	0x3f012d25	0.5045951
22	0x3f02291a	0.50843966
23	0x3f1fa5a6	0.62362134
24	0x3ec36f04	0.38170636
25	0x3eabd6ec	0.3356241
26	0xbeb33fc7	-0.35009596
27	0xbf07f931	-0.5311461
28	0x3e9bde19	0.30442885
29	0x3e5f2c13	0.21794157
30	0x3ec61fd5	0.3869616
31	0xbebca460	-0.36844158
32	0xbeddd59e	-0.4332704
33	0xbea43b7e	-0.3207664
34	0xbbcce30d	-0.0062526525
35	0x3e98ecfe	0.2986831
36	0xbe895ed4	-0.2683016
37	0xbf30009a	-0.6875092
38	0xbf10d31e	-0.5657214
39	0xbf414fd5	-0.7551244
40	0x3d137d25	0.03600802
41	0x3f042896	0.5162443
42	0x3e9b2720	0.30303288
43	0x3cc07f45	0.023498187
44	0xbdc7814b	-0.097414576
45	0xbf1aa495	-0.6040738
46	0xbf3a455a	-0.7276207
47	0xbebdb7aa	-0.37054187
48	0x3e1a8ffd	0.1509399
49	0x3db2e25c	0.08734581
50	0x3f3c0d8c	0.7345817
51	0xbcc6dc55	-0.024274984
52	0xbefc6e38	-0.4930284
53	0x3eece541	0.46268657
54	0x3f10f252	0.5661975
55	0x3d412650	0.04715568
56	0x3de47c1c	0.111564845
57	0x3e5da549	0.21645083
58	0x3e176983	0.14786343
59	0x3f03625a	0.5132195
60	0xbefaa7e9	-0.4895623
61	0x3f4b8c6d	0.7951115
62	0xbeb4d3ed	-0.35317937
63	0x3e8a6f83	0.27038202
64	0xbe9e055a	-0.30863458
65	0x3e945b06	0.28975695
66	0xbd80d784	-0.06291106
67	0x3e8406f8	0.25786567
68	0xbec7afa4	-0.3900119
69	0xbd097b37	-0.033564772
70	0x3e7b250a	0.24525848
71	0x3f52e717	0.82383865
72	0xbdc11b42	-0.09429027
73	0xbf5d3a88	-0.86417437
74	0x3dd800a1	0.10546995
75	0x3defb6f6	0.11704819
76	0x3e880265	0.26564327
77	0x3eaa4edb	0.33263287
78	0x3de00c51	0.10939849
79	0x3f0aadd4	0.5417149
80	0xbe3bc8c4	-0.18338305
81	0xbdfc185f	-0.12309336
82	0xbef75675	-0.4830815
83	0xbfc6d28b	-1.5533003
84	0xbed3d144	-0.41370595
85	0x3d6ad937	0.05733606
86	0xbb83beae	-0.0040205335
87	0x3eac5974	0.33661997
88	0xbfa043db	-1.2520708
89	0x3f0d7b2c	0.5526607
90	0xbf47c02f	-0.78027624
91	0xbe9bf537	-0.30460522
92	0xbf4276a7	-0.759623
93	0x3df152e0	0.11783385
94	0xbdda789a	-0.10667534
95	0x3f283726	0.6570915
96	0x3f07ace9	0.52998215
97	0x3e836000	0.2565918
98	0x3f3c3bc4	0.73528695
99	0x3eb20f54	0.3477732
100	0x3efea0cc	0.49732053
101	0x3e53815e	0.20654818
102	0x3f1c5627	0.6106896
103	0x3e118e4a	0.14214435
104	0x3f0496d9	0.51792675
105	0xbe8be054	-0.27319586
106	0xbf8503d7	-1.0391797
107	0xbe8f626a	-0.2800477
108	0xbf453922	-0.770403
109	0xbcae8f36	-0.021308523
110	0x3f17c5c5	0.5928615
111	0xbdc1a86a	-0.094559506
112	0xbf4bacbd	-0.7956045
113	0x3f23d256	0.6399282
114	0x3d5b4437	0.05353185
115	0xbeca1342	-0.39467818
116	0xbd7ab43d	-0.061207045
117	0xbf47674d	-0.77892
118	0xbd810774	-0.0630025
119	0xbcb8ef1f	-0.02257496
120	0x3f2616ab	0.6487834
121	0x3d910a2d	0.07082019
122	0x3c17cf72	0.009265767
123	0x3e94e956	0.2908427
124	0x3e067316	0.1312984
125	0x3e437591	0.19087817
126	0x3f5cd27f	0.8625869
127	0x3f55e649	0.8355451
128	0xbd6dc09e	-0.058045022
129	0xbe8a5c26	-0.2702343
130	0xbec57dfd	-0.38572684
131	0xbf247650	-0.6424303
132	0xbe363e7b	-0.17797272
133	0x3f7f4ce8	0.99726725
134	0xbeff3601	-0.4984589
135	0x3e16f37e	0.14741322
136	0xbe88ec2c	-0.26742685
137	0xbe91e416	-0.28494328
138	0xbead437b	-0.33840546
139	0x3e2abdb0	0.16673923
140	0x3ed4cbb9	0.41561678
141	0xbaebd4aa	-0.0017992456
142	0xbf1b5c42	-0.6068765
143	0xbf69da65	-0.9134887
144	0x3f72192a	0.9456965
145	0x3f828367	1.0196351
146	0x3ecbfb4a	0.39840156
147	0xbf2112b2	-0.6291915
148	0xbe8853ea	-0.2662652
149	0x3db3c402	0.0877762
150	0xbe83af2e	-0.2571959
151	0x3fb31d60	1.399334
152	0x3ea88c8d	0.32919732
153	0xbe0a9d5a	-0.13536587
154	0x3f9a0466	1.2032592
155	0x3f138a30	0.5763273
156	0xbe79db03	-0.24399953
157	0x3ba91e1c	0.00516106
158	0xbf91565c	-1.135448
159	0x3dfc431e	0.12317489
160	0x3f0475bb	0.5174214
161	0xbf92af1c	-1.1459689
162	0x3f01cd65	0.5070403
163	0xbe7bd321	-0.24592258
164	0x3f37959d	0.71712667
165	0xbf1017d7	-0.56286377
166	0x3e6b650d	0.22987767
167	0x3f3372b7	0.70096916
168	0xbf0e00ef	-0.55470175
169	0x3ed36217	0.41285774
170	0xbd33fcc2	-0.04394222
171	0x3f1ab413	0.6043102
172	0xbf8782f4	-1.0586839
173	0x3dbe8603	0.093029045
174	0xbf04dd7c	-0.5190046
175	0x3f127505	0.5720981
176	0x3e918416	0.28421086
177	0x3e879e75	0.2648808
178	0x3fa253fe	1.2681882
179	0xbeb6986d	-0.35663167
180	0xbdd02670	-0.10163581
181	0xbebc2df3	-0.36753806
182	0xbe3cdc8c	-0.18443507
183	0x3def3d5b	0.116816245
184	0x3f44480d	0.7667244
185	0xbe95bfed	-0.2924799
186	0xbe9a13af	-0.30093142
187	0x3e0ef16d	0.13959284
188	0xbd57bc21	-0.052669648
189	0xbe384517	-0.17995106
190	0x3dd840ec	0.10559258
191	0x3f727d60	0.9472256
192	0xbe6f5a44	-0.23374277
193	0xbdb418a8	-0.08793765
194	0x3f48d74f	0.78453535
195	0xbe820170	-0.25391722
196	0x3ef71098	0.48254848
197	0x3f102585	0.5630725
198	0x3f8971b0	1.073782
199	0x3d6e27a5	0.058143277
200	0xbe226b69	-0.15861286
201	0x3d80be9b	0.06286355
202	0xbcd7eaff	-0.026357172
203	0x3ebdcf30	0.37072134
204	0x3f1ff8b6	0.6248888
205	0x3db1a1bf	0.08673429
206	0x3e0f5b6b	0.13999717
207	0xbed74b69	-0.4204972
208	0xbdde9932	-0.108690634
209	0x3eace90b	0.33771548
210	0xbeab6e4d	-0.3348259
211	0x3fa0d7b8	1.2565832
212	0x3e0ef13e	0.13959214
213	0x3df4c601	0.11951829
214	0x3e160621	0.14650775
215	0xbf11a3de	-0.56890666
216	0xbee7f155	-0.4530131
217	0x3e8b8ce8	0.2725594
218	0x3f819f6a	1.0126774
219	0x3ed171ab	0.40907034
220	0xbd3d3d21	-0.046200875
221	0x3f2d7d8b	0.6776969
222	0x3e1699c2	0.14707091
223	0x3efff825	0.49994007
224	0x3ec54c28	0.38534665
225	0xbf15c5ca	-0.5850493
226	0x3f02ecfb	0.51142853
227	0xbf08e362	-0.5347196
228	0x3d8ec344	0.06970838
229	0xbe0ce8b3	-0.13760643
230	0x3e8070d2	0.25086075
231	0xbf3c3cf2	-0.73530495
232	0xbf03ba01	-0.51455694
233	0xbccdfb23	-0.025144165
234	0xbee1cf51	-0.44103482
235	0x3e97a5cd	0.29618683
236	0xbf8183b8	-1.0118322
237	0xbed19cb7	-0.40939876
238	0xbeb0c06e	-0.34521812
239	0xbfaa07b9	-1.3283607
240	0x3ecf4839	0.4048479
241	0xbe87bc83	-0.2651101
242	0xbd6d6321	-0.057955865
243	0x3ff495db	1.9108232
244	0x3e3533a3	0.17695479
245	0xbf604843	-0.8761026
246	0xbf0447e3	-0.5167219
247	0x3df7a43e	0.120918736
248	0x3f4fe758	0.8121238
249	0xbe80c36d	-0.25149098
250	0x3e9abd94	0.30222762
251	0x3f2d9f5f	0.67821306
252	0xbcdab34d	-0.026696825
253	0x3c2ff94b	0.010740588
254	0x3be4dec7	0.006984565
255	0x3ede2e7a	0.43394834

feature.bias_ih_l0_reverse f4 [512]
0	0x3d7b29a0	0.061318994
1	0x3ea364f9	0.31912974
2	0x3e7ebeab	0.24877422
3	0xbe431021	-0.19049121
4	0xbcf89ada	-0.030347276
5	0x3f007556	0.5017904
6	0x3e89a8f5	0.26886716
7	0x3e67ff82	0.22656062
8	0x3e314de6	0.17314872
9	0x3dfc0a3f	0.12306642
10	0x3dec53de	0.11539434
11	0x3cf0a131	0.029373737
12	0x3e729a41	0.23691656
13	0xbe19687e	-0.14981267
14	0x3e650fd0	0.22369313
15	0x3ebf0309	0.37307003
16	0x3ce97ce6	0.028501939
17	0xbe05d1ed	-0.13068362
18	0xbec46356	-0.38357037
19	0x3e88e5b4	0.2673775
20	0xbe36d2e5	-0.17853887
21	0x3f5d5522	0.8645803
22	0x3e85d9cb	0.26142725
23	0x3d015404	0.031574264
24	0x3eddd552	0.43326813
25	0xbe85a785	-0.2610437
26	0xbc956b48	-0.018239632
27	0x3e581d56	0.21104941
28	0xbe42c7d3	-0.1902154
29	0xbdc3e5ef	-0.09565341
30	0xbdab5158	-0.083651245
31	0xbb5fce16	-0.0034149936
32	0x3e1c2272	0.15247515
33	0x3da6ef8c	0.08151159
34	0x3e898023	0.26855573
35	0x3d3a9510	0.045552313
36	0xbd0037ed	-0.031303335
37	0xbf0d95b4	-0.55306554
38	0x3e8bb8c3	0.272894
39	0x3f582cb4	0.8444321
40	0xbebb4528	-0.365762
41	0x3eb3d3a7	0.35122415
42	0x3e327a64	0.17429501
43	0xbe5bc496	-0.2146171
44	0xbd9823cb	-0.07428702
45	0xbe73080e	-0.23733541
46	0x3d093897	0.033501234
47	0x3e3c780d	0.1840517
48	0xbde0f346	-0.10983901
49	0xbe3ec458	-0.18629587
50	0x3ed817ae	0.42205566
51	0xbd5b165f	-0.05348813
52	0x3ee0ac40	0.43881416
53	0xbe8d6aed	-0.2762064
54	0x3d3b0436	0.045658313
55	0x3f2f4a08	0.6847234
56	0xbe9d3fe3	-0.30712804
57	0xbdb363f3	-0.08759298
58	0x3eaa483a	0.3325823
59	0xbeae776d	-0.3407549
60	0x3f510c4f	0.81659406
61	0x3e92f245	0.28700462
62	0x3de44bc0	0.11147261
63	0x3e1232b0	0.14277148
64	0x3d94aaab	0.07259115
65	0x3e04759b	0.12935488
66	0x3eec6e86	0.46178073
67	0xbe9cdd9a	-0.3063782
68	0x3d33082a	0.043708958
69	0x3efab57f	0.48966596
70	0x3d336eaf	0.043806728
71	0x3e696aeb	0.22794692
72	0xbe457b91	-0.19285418
73	0x3f9828b8	1.1887426
74	0xbdce73b8	-0.10080665
75	0x3ef9aa71	0.4876285
76	0x3c0f922f	0.00876288
77	0x3eb0dfc0	0.34545708
78	0x3eb4909e	0.35266584
79	0x3e7f31ce	0.24921343
80	0xbaf40c6a	-0.0018619422
81	0x3e8cc3c9	0.27493122
82	0x3ee0f38e	0.43935817
83	0xbc2a8c5e	-0.010409443
84	0x3dbfd12a	0.09366067
85	0x3e301b19	0.17197837
86	0xbe3b8c11	-0.1831515
87	0xbebe2656	-0.37138623
88	0xbeb45623	-0.35221967
89	0xbebd19d7	-0.36933777
90	0x3ea86005	0.32885757
91	0x3e9df396	0.30849904
92	0xbe65797e	-0.22409627
93	0x3e9addfa	0.3024748
94	0xbdc1fe1c	-0.09472296
95	0xbe653c38	-0.22386253
96	0x3eaa83d9	0.33303717
97	0x3cbf8f13	0.023383653
98	0xbdb71d8f	-0.08941185
99	0x3f601dac	0.87545276
100	0xbdf3f80d	-0.11912546
101	0x3d5e5c5e	0.054287307
102	0x3e180ad0	0.14847875
103	0xbdce0020	-0.100586176
104	0x3dfd8c1d	0.1238024
105	0xbe890264	-0.26759636
106	0x3f1b029b	0.6055085
107	0x3d5a6f0b	0.053328555
108	0x3ef154fa	0.47135144
109	0xbe3ad271	-0.1824434
110	0x3965bfc5	0.00021910582
111	0xbdd7fbf0	-0.105461
112	0x3e9c77e9	0.30560234
113	0xbc53c4e3	-0.012925359
114	0xbd63dffa	-0.055633523
115	0x3edd3872	0.43207127
116	0x3f162fa4	0.58666444
117	0x3ee426a6	0.44560736
118	0xbe4eeb8d	-0.20207043
119	0x3d96294e	0.07332097
120	0x3e3971c6	0.18109807
121	0x3d4b22c7	0.049593713
122	0xbc9b7a53	-0.018979227
123	0xbe4c30cb	-0.19940488
124	0x3ea4add7	0.3216388
125	0xbec0f54f	-0.37687156
126	0xbdd28832	-0.102798834
127	0x3dcbe4c5	0.09955744
128	0xbb3531e4	-0.0027648145
129	0xbd56382e	-0.05229967
130	0xbd5b91f7	-0.053606
131	0x3d82ab81	0.06380368
132	0x3efda5ed	0.49540654
133	0xbe298187	-0.16553317
134	0x3f30193f	0.6878852
135	0x3d393b6e	0.045222692
136	0xbe0b1333	-0.13581543
137	0x3da77d29	0.08178169
138	0x3d8fc58d	0.07020102
139	0x3e25ff4b	0.16210668
140	0xbe443a08	-0.19162762
141	0x3e80cf83	0.2515832
142	0xbd78c040	-0.06073022
143	0x3f5e69f6	0.86880434
144	0xbdd0a956	-0.10188548
145	0xbe580fdb	-0.21099798
146	0xbd829447	-0.06375938
147	0x3b887967	0.004164863
148	0xbdff348a	-0.12461193
149	0xbf0455de	-0.5169352
150	0x3e1b9d65	0.1519676
151	0xbd68a491	-0.056797568
152	0xbe870dae	-0.26377624
153	0x3d4ba84e	0.049721055
154	0xbd3a1400	-0.04542923
155	0x3e8548ab	0.26032004
156	0xbdfd5747	-0.123701625
157	0x3cb5c43d	0.0221883
158	0xbe0dc7ea	-0.13845792
159	0xbbe37cd8	-0.006942373
160	0x3df5ef27	0.12008505
161	0x3ea44141	0.32081035
162	0x3e034ce8	0.12822306
163	0x3e919ccc	0.2843994
164	0x3ed9a3eb	0.42507872
165	0x3f20dcf1	0.6283713
166	0x3de4ddae	0.111750945
167	0xbe5e042e	-0.21681282
168	0x3ed96507	0.4245989
169	0x3e36bcba	0.17845431
170	0xbd034d59	-0.032056186
171	0x3cc0929a	0.023507405
172	0x3e3b6ffc	0.18304437
173	0xbdc2e5bb	-0.09516474
174	0x3e18f1e3	0.14936022
175	0x3f549f87	0.8305592
176	0x3be74268	0.007057477
177	0x3f17b130	0.5925474
178	0x3f446fc9	0.7673307
179	0xbda961a8	-0.082705796
180	0x3e81e1ff	0.25367734
181	0xbd8916ca	-0.066938
182	0xbce5dbf8	-0.02805899
183	0xbe87bbdf	-0.26510522
184	0xbe21911c	-0.15778011
185	0xbe5f336c	-0.2179696
186	0xbeb5846c	-0.35452592
187	0x3f293aae	0.66105163
188	0xbee83b97	-0.45357963
189	0xbeb30bda	-0.3496998
190	0xbeac3c65	-0.33639827
191	0x388ef862	6.8173526e-05
192	0x3df429c6	0.1192203
193	0x3ee1c68a	0.44096786
194	0xbe719e3d	-0.2359552
195	0x3e6994bf	0.22810648
196	0xbe54a2b4	-0.20765191
197	0xbe12453e	-0.14284226
198	0x3f256f4d	0.64622957
199	0x3e012b74	0.12614232
200	0xbd4c1255	-0.04982217
201	0xbd4a756b	-0.049428385
202	0x3e856f7b	0.26061615
203	0xbed4fc38	-0.41598678
204	0x3e3b7998	0.18308103
205	0xbe4de758	-0.20107782
206	0x3dc5d007	0.09658819
207	0xbe1eef49	-0.15520968
208	0xbeb2c58e	-0.34916347
209	0xbf0fbef0	-0.5615072
210	0xbec79ec7	-0.38988325
211	0x3ec9e258	0.394305
212	0xbc847e20	-0.016173422
213	0xbf05d91e	-0.5228442
214	0x3e369f2a	0.17834154
215	0x3e12986a	0.14315954
216	0x3f0a6003	0.5405275
217	0xbd5e3041	-0.054245237
218	0xbef93cf5	-0.4867932
219	0x3e30bd2e	0.17259666
220	0xbdf872b6	-0.121312544
221	0xbe008396	-0.12550196
222	0x3d8aa394	0.06769481
223	0x3f17d99a	0.5931641
224	0x3e9c4abe	0.30525774
225	0x3e1705f7	0.14748369
226	0xbdbba4e9	-0.091623135
227	0xbf03e8a3	-0.5152685
228	0x3eda5933	0.4264618
229	0xbdded464	-0.10880354
230	0x3de60083	0.11230566
231	0x3f0c1355	0.54717
232	0xbdf358c0	-0.11882162
233	0xbe792529	-0.24330582
234	0x3ec38a0b	0.38191256
235	0x3d83dcc1	0.0643859
236	0x3d87db4a	0.06633623
237	0xbe147287	-0.14496814
238	0x3ec6d258	0.38832355
239	0xbdc9cd03	-0.09853556
240	0x3ec5009e	0.38477033
241	0x3cad9af5	0.021192053
242	0x3d1c6fdb	0.03819261
243	0xbf0b3a9d	-0.5438631
244	0xbdcd7158	-0.10031384
245	0xbeb69140	-0.35657692
246	0xbe455b21	-0.19273044
247	0x3d83bc7e	0.064324364
248	0xbb82a110	-0.0039864853
249	0x3f485d4e	0.7826737
250	0x3d8466b3	0.06464901
251	0xbdd89265	-0.105747975
252	0x3df9ec2d	0.1220325
253	0x3dcf70a6	0.10128908
254	0x3f4c751b	0.7986619
255	0x3e56d1e4	0.20978504
