logs/classifier/20_contexts/fold_04/10-18-2022_22-31-49/model_params.pth (torch, 822087 bytes, 10 tensors)

feature.weight_ih_l0 f4 [512, 64]
000000 78 a4 97 be 5f 03 9a 3e 01 52 3c bf 48 c4 c0 bf
       -0.29617667 0.30080697 -0.7356263 -1.50599
000010 8d d6 35 bf f3 08 b4 3f 54 e0 5c bf 79 c8 a3 3e
       -0.71030504 1.4065231 -0.862798 0.31988886
000020 fd 1f ce 3e b4 ad 13 3d 81 4f 2d 3f b6 be c6 be
       0.4025878 0.036054328 0.6769944 -0.38817376
000030 1f ed 07 bf 51 68 a6 be 11 1b 0e bf b9 93 1a bf
       -0.53096193 -0.32501462 -0.5551005 -0.60381657
000040 94 71 e4 be fd 75 eb 3e 4b 54 9b be 91 4d fc 3e
       -0.44617903 0.45988455 -0.30337748 0.49277928
000050 c9 67 09 be 04 69 82 bf 85 2d 75 3e ec 00 2f 3f
       -0.13418497 -1.0188298 0.23943146 0.6836078
000060 f8 64 44 3e fb a1 32 bf 64 58 84 3f 6b e5 ae bf
       0.19179142 -0.6977841 1.0339475 -1.3663763
000070 d2 0e 47 3f a2 18 0f be fc cd 85 bd c0 eb 32 bf
       0.7775699 -0.1397424 -0.06533429 -0.69890976
000080 86 0a 53 be be ed e7 bd 8b 19 92 3d 26 ee 86 3e
       -0.20609483 -0.113246426 0.07133778 0.26353568
000090 c9 37 32 be a7 78 08 3e d9 ed a7 bf a1 88 ba bd
       -0.17404093 0.13327275 -1.311946 -0.09108091
0000a0 9f a2 22 3f 9d ab 73 bf eb 24 9e bc 22 f6 6a be
       0.6352939 -0.95183736 -0.019304713 -0.22945455
0000b0 a4 97 cd bf b4 e6 95 3f 69 47 e7 3e 14 f1 56 be
       -1.6061902 1.171103 0.4517167 -0.20990402
0000c0 ba ed 86 3e ad 53 d7 3f af 65 aa 3e 62 4b 3f bf
       0.26353246 1.6822411 0.33280703 -0.747244
0000d0 10 dc f6 be 94 98 ff be 23 66 2d bd 1f 9d 42 bf
       -0.4821477 -0.49921095 -0.042333733 -0.76021
0000e0 bb 9c 3b bf 5f 39 60 3f a4 a1 54 3f 54 d6 b0 be
       -0.73286027 0.8758754 0.83059144 -0.3453852
0000f0 5a e8 3e 3f 62 f7 2f bf 9c 54 82 be 51 63 98 bf
       0.7457329 -0.6873685 -0.25455177 -1.1905309
000100 62 bc bf 3e 26 08 96 be 67 90 ad 3e 63 14 1c bf
       0.37448412 -0.29303092 0.33899233 -0.6096861
000110 5f 05 ad 3b db e6 00 bf 49 b2 b2 bd df 03 0c 3f
       0.0052801813 -0.5035226 -0.087254114 0.54693407
000120 c3 e5 91 3e a5 64 88 3f 08 ad c5 3e 4f 61 f0 3e
       0.28495607 1.0655714 0.38608575 0.4694924
000130 50 58 a8 3d e6 4d 81 3c 85 e1 80 bc ab 8a 0b bf
       0.08219969 0.015784215 -0.015732536 -0.54508466
000140 02 f6 38 3e ec ff ae 3e ee 11 b6 be 96 40 1e bf
       0.18062595 0.34179628 -0.35560554 -0.618173
000150 e2 69 5b bd 29 c0 21 3f 24 2f 75 3f 06 c7 11 3f
       -0.053567775 0.6318384 0.95775056 0.5694431
000160 9a d2 0f bf 22 af 0a bf 52 2d 78 be 59 61 5c 3e
       -0.5618073 -0.5417348 -0.24236038 0.2152151
000170 eb 23 42 be 23 d6 be 3e 58 98 a5 be 2a 46 3b 3e
       -0.18959014 0.37272748 -0.32342792 0.18288484
000180 e4 44 19 3d 00 6b 53 3e ac 93 0e bf bb 33 d9 bc
       0.037419215 0.20646286 -0.5569408 -0.026513925
000190 55 11 ea 3e 3a dc 27 be 92 86 10 bf 7c 5e 2e 3d
       0.45716348 -0.16392604 -0.5645534 0.042570576
0001a0 21 ae 18 3e e8 3c 88 3e 67 df 73 bf a7 cd 29 3f
       0.14910175 0.26608968 -0.9526276 0.66329426
0001b0 7a 96 c3 be ad 1d fa be 05 1a 9c bf 70 04 4c be
       -0.38200742 -0.48850766 -1.219544 -0.19923568
0001c0 f2 be a7 be 1d a4 22 3d 49 1e cb 3e 2d 25 98 3e
       -0.32762867 0.039707292 0.39671543 0.29715863
0001d0 69 ab f5 bd d1 87 4d bf 4f a1 26 bf ba 8c 21 be
       -0.119955845 -0.80285364 -0.6508989 -0.15776339
0001e0 1d 57 99 3e 11 e7 6a 3e 32 20 d1 bf 36 4f 39 be
       0.29949275 0.22939707 -1.633795 -0.18096623
0001f0 50 38 f3 3d 05 43 64 bb ea 80 d4 3f 0e a7 30 3f
       0.11875975 -0.0034829986 1.6601841 0.69004905
000200 b8 e4 60 3d c6 13 0b 3e 72 85 47 bf 47 17 ee 3e
       0.054905623 0.13581762 -0.77937996 0.46502134
000210 ab 14 21 3f e5 58 15 bf 0c 60 d9 be 9c 7d bb bd
       0.6292216 -0.5833877 -0.4245609 -0.091548175
000220 8a 82 93 be d0 9b ef be 6c b1 c6 be 00 43 a8 bf
       -0.2881053 -0.46798563 -0.38807237 -1.3145447
000230 69 50 b1 3e 3f ae 6e bd 0e 48 85 3e 0c 3b c1 3e
       0.3463166 -0.058271643 0.26031536 0.37740362
000240 cc 97 59 3f d1 d0 3e bf 05 90 2a 3e 55 0c 5b 3f
       0.8499725 -0.7453738 0.16656502 0.8556569
000250 17 9b e7 be 03 4c 34 3e bb 3f 5b 3e cd e5 2a bf
       -0.45235512 0.17607121 0.2141103 -0.667569
000260 d8 3f 76 bc 51 02 74 be bf 3f dc 3e cb a7 a9 bd
       -0.01502987 -0.23829009 0.43017384 -0.08283957
000270 89 74 e2 be d8 a5 8c bf 52 53 1b 3e 2c 05 dd be
       -0.44229534 -1.0988111 0.15168503 -0.43168008
000280 c2 59 1f bf 2b 45 e4 3e 61 7a 18 bd 54 d3 36 3f
       -0.62246335 0.4458402 -0.037226085 0.7141621
000290 01 49 45 3f b1 9b 8b 3f 43 fd ad 3e 4c d6 11 bd
       0.7706452 1.0906888 0.33982286 -0.03560476
0002a0 7a 52 b7 3e 9a 4d 30 3e 1c 5d ec be 9b f8 ea 3e
       0.35805112 0.17217103 -0.46164787 0.45892796
0002b0 17 b6 d4 bc 31 86 93 be ba fb b1 3e 35 8f ca 3e
       -0.025965733 -0.28813317 0.34762365 0.39562383
0002c0 21 53 10 3f e3 7a 1b 3f 94 79 45 bf 70 ed 85 3f
       0.56376845 0.60734385 -0.7713864 1.0463085
0002d0 df b5 97 bc 04 6d b1 bf 04 ea a2 be 93 96 01 be
       -0.01851934 -1.3861394 -0.31819165 -0.12655096
0002e0 a6 41 2c bf 14 28 11 bf 96 7e 06 3f 7d 11 2e bf
       -0.6728767 -0.5670178 0.52536905 -0.67995435
0002f0 2f 63 9e bd 0e e7 e6 be 25 c9 12 3e 0d f0 84 3d
       -0.077337615 -0.45098156 0.14334543 0.064910986
000300 f9 30 0b 3f 79 48 86 3e d8 d7 c3 be a0 40 8b bd
       0.543716 0.26227167 -0.38250613 -0.067994356
000310 a0 04 11 be be b7 dd be 5b b7 64 be 8c 05 af 3e
       -0.1416192 -0.43304247 -0.2233557 0.3418392
000320 d1 99 6d bc 06 ca c5 be 87 78 e3 3e 67 f9 8c be
       -0.014502005 -0.38630694 0.44427893 -0.2753403
000330 ce 0f 97 3e b3 05 66 3e f0 8b fb 3d 82 5b 48 3e
       0.29504246 0.22463112 0.1228255 0.19566157
000340 74 bc 88 3f d7 29 d3 bf 44 20 0e 3f 6a b5 7b 3e
       1.0682511 -1.6497144 0.55517983 0.24580923
000350 a4 6e 6c 3f b9 51 0a bf 96 b2 de be 90 98 ef 3e
       0.92356324 -0.5403095 -0.43495625 0.46796083
000360 1a 12 e0 3a 52 5e 60 3e bf be 9c 3d c6 3b 22 3f
       0.0017095238 0.2191098 0.076535694 0.6337246
000370 3a 06 67 bf 57 d1 e6 be 02 1f 7c 3f 35 e9 0d 3f
       -0.90243876 -0.4508159 0.98484814 0.5543397
000380 14 8c 4c bf f8 74 a0 3e 50 47 d4 3e 40 f1 d3 3e
       -0.7990124 0.3133924 0.41460657 0.41394997
000390 c9 e2 8d be a4 2d 55 3f 1f 26 75 3e 7f ea 51 3f
       -0.27712086 0.8327277 0.23940323 0.8199844
0003a0 bc 44 9a bf e2 88 6c be a2 e4 a8 3e 3e ac 59 bf
       -1.2052226 -0.23099092 0.32986933 -0.85028446
0003b0 f6 a5 4b bf f8 b4 a5 bd 94 97 44 bf ef 3d b7 bd
       -0.7955011 -0.08091158 -0.7679379 -0.0894736
0003c0 8b 4d 65 3e 36 42 23 3f c8 5a 87 be 05 49 cf 3e
       0.22392862 0.63772905 -0.26436448 0.40485397
0003d0 34 61 42 bd 5d 6f 3e bc ad 5a 4f be 58 93 b1 3e
       -0.04745598 -0.011623231 -0.20249434 0.34682727
0003e0 f6 2e 1a bf a4 ab 30 be 62 7b 53 3f 9c 03 54 3f
       -0.60227907 -0.17252976 0.8261014 0.8281801
0003f0 0c f9 6b 3e 67 e9 fd be c9 55 81 3e 40 fc c3 3e
       0.23044223 -0.49592134 0.2526076 0.3827839

feature.weight_hh_l0 f4 [512, 128]
000000 f1 b7 9d be 42 ee 4c 3e f2 aa e6 be 09 18 30 bd
       -0.308044 0.20012763 -0.45052296 -0.04299167
000010 a3 31 ad be 93 ae bd be ba fc 98 be 26 84 b0 be
       -0.33826932 -0.37047252 -0.29880315 -0.3447582
000020 de 34 52 3e df 7c 0b be 9b 46 5a 3f d3 b3 c2 be
       0.2052798 -0.13621853 0.85263985 -0.3802782
000030 3d f9 0a be 12 a8 55 bf 45 72 2a bf 74 d7 1c bf
       -0.1357164 -0.8345958 -0.6658061 -0.61266255
000040 73 55 f1 3e 5b ca 93 bc 11 f5 8a be eb e2 c4 3e
       0.47135505 -0.018040827 -0.27140096 0.38454375
000050 a0 0e 1c bf 7b 85 54 bf c0 fe f6 3e 98 3d df be
       -0.60959816 -0.83016175 0.48241234 -0.4360168
000060 ab 41 29 bf d4 8c 93 be 0f a8 12 3e 53 f3 21 3f
       -0.66115826 -0.2881838 0.14321922 0.6326191
000070 45 9e b4 3e 64 50 d9 be 80 8f 24 bf b3 f1 25 3f
       0.35277 -0.42444146 -0.64281464 0.6482193
000080 21 7e e2 bc c6 ec f1 be ce 61 84 be 8d 56 30 3f
       -0.027648034 -0.47250956 -0.2585587 0.68882066
000090 0b 80 42 bd 2d 02 b8 3e 18 87 35 be 32 46 cc 3d
       -0.047485393 0.3593916 -0.17727315 0.09974326
0000a0 71 48 92 be 7f dc 79 bd 92 7c b2 3d 94 1f 07 be
       -0.28570893 -0.061001297 0.08715166 -0.1319564
0000b0 83 6e 5b 3d e4 2f 73 3f fe 69 3f bc ff ae 79 be
       0.05357219 0.9499495 -0.011682985 -0.24383162
0000c0 6e 5d 83 3c ce 56 e5 3e 48 9a 86 be aa 07 68 bf
       0.016035762 0.4479279 -0.26289582 -0.90636694
0000d0 41 7c 73 3d fa 7a de 3d 93 18 4c bf 92 72 cd bd
       0.05944467 0.108633 -0.79725 -0.10031618
0000e0 74 aa e8 3e 0f 6f 53 bf 7a 66 12 be 90 a1 49 3e
       0.45442545 -0.82591337 -0.14296904 0.19690537
0000f0 99 2d f9 3d a3 0f ea 3e 82 25 5c be cd 06 81 3c
       0.121669 0.45715055 -0.21498683 0.015750313
000100 ad ac 56 bf 20 8f 49 3e 87 5a 80 bf de a1 49 3d
       -0.8385723 0.19683504 -1.0027627 0.049226634
000110 c3 8c 9b 3e da 0c f5 3b 57 70 a9 bf 92 fb 1f 3f
       0.3038083 0.0074783387 -1.3237408 0.6249324
000120 16 e6 86 3e 4a a1 cc 3d bf a2 b8 3c b5 86 68 bf
       0.26347417 0.09991701 0.02253854 -0.90830547
000130 01 e9 29 bd ae b7 43 3e 68 79 11 3f 81 94 f5 3e
       -0.041481975 0.19113037 0.56825876 0.47964862
000140 ed f5 1a bf 5c 0a ba 3e e2 a5 79 3e 75 91 96 3d
       -0.605315 0.3633603 0.24379686 0.073519625
000150 29 e0 8e bd ad f3 f8 3d 16 04 cb 3e aa ab 19 3c
       -0.06976349 0.121558525 0.39651555 0.009379307
000160 85 58 2f 3e 83 10 23 3f 75 c7 0b 3f fa e0 34 3f
       0.17123611 0.6369707 0.5460122 0.70655787
000170 62 a9 30 be b8 1b 04 bf b6 8d 21 3e e6 63 f9 3e
       -0.17252114 -0.51604795 0.15776715 0.4870903
000180 08 b7 0a 3f 66 fd b9 3c 44 12 ba 3e 0a 08 08 3f
       0.54185534 0.022703838 0.3634206 0.53137267
000190 2b e5 05 bf c8 55 2c bf 0f 9e 28 3f d8 1a 12 3f
       -0.5230281 -0.6731839 0.6586618 0.5707221
0001a0 54 1b 84 3e 0a 03 8d be 8f 94 a9 3e 76 71 ed 3d
       0.258021 -0.2754138 0.33121154 0.115939066
0001b0 22 52 5f 3f 6d 68 31 3f db a0 be be 5b 60 33 3e
       0.872347 0.69299966 -0.37232098 0.17517225
0001c0 9f b0 dd 3d 50 d6 de 3e 50 62 00 be dc 1c 22 bf
       0.108247034 0.43522882 -0.12537503 -0.63325286
0001d0 db 89 26 bd 4c eb c4 3e 61 48 19 3d d5 07 ac 3e
       -0.040658813 0.38460767 0.03742254 0.33599725
0001e0 71 8f b9 be ef 17 3c bf 72 26 a7 3f f9 a5 3c bf
       -0.3624225 -0.7347402 1.3058608 -0.73690754
0001f0 e8 b0 85 3e 85 c5 b5 3c c3 92 d2 be a4 d3 3c 3f
       0.2611153 0.022188911 -0.41127595 0.7376044
000200 e9 6e 4e 3d 70 53 16 3e a9 64 cf bf 8a 10 8e 3f
       0.05039874 0.14680266 -1.6202594 1.1098797
000210 dc 86 12 3f b0 2b 10 3f 5a 58 f1 3e ce 6e f1 be
       0.5723703 0.5631666 0.4713772 -0.4715485
000220 77 74 4e 3f f7 ff b8 be 61 bb 0d bf ab 68 38 3e
       0.8064646 -0.36132786 -0.5536404 0.18008678
000230 a6 fc 7b 3f 72 e8 28 bd 30 e7 fb bd 7c ef e4 bd
       0.98432386 -0.041237302 -0.12299955 -0.111784905
000240 df 3a 0a 3f e7 6c f3 bd 7f 8c bd 3e af 1d a9 be
       0.5399608 -0.11886006 0.37021253 -0.3303046
000250 70 86 0d 3f b6 1d c7 3e 2a 01 c1 3d 84 b5 97 bc
       0.5528326 0.38889855 0.0942405 -0.01851917
000260 e1 0f 21 bf 78 0c f1 be 0a 37 b6 3e d0 15 8d be
       -0.62914854 -0.47079825 0.35588866 -0.27555704
000270 37 87 03 be 18 b9 a1 3f d3 6a 49 be ec 52 80 3e
       -0.12844549 1.2634611 -0.19669656 0.25063264
000280 cd 7a fc be 1f 9d 2d bf c1 47 16 3f 19 03 ab 3e
       -0.4931244 -0.6781787 0.5870324 0.334008
000290 11 8d 73 be f7 35 2c bf b4 76 64 be 6f 71 99 3e
       -0.23784281 -0.67269844 -0.22310907 0.29969355
0002a0 c7 e9 15 3e 85 b5 bf 3d a3 b2 c1 3e 8d 52 46 3f
       0.1463996 0.09360794 0.37831602 0.7746971
0002b0 3f 49 ba 3e 0d 3f d2 3d 79 be 51 bf aa 6d c1 3e
       0.36384007 0.10265932 -0.81931263 0.3777898
0002c0 e2 02 a2 3e 81 b6 80 3f 3c cd a5 be 92 dc 81 be
       0.31642824 1.0055696 -0.32383144 -0.25363594
0002d0 d8 48 0c 3f 03 74 26 3f 06 b3 0e 3e db 50 44 3d
       0.5479865 0.6502077 0.1393548 0.047928672
0002e0 49 9d e7 3e 56 06 77 bd 05 04 01 bf b8 31 f9 3d
       0.45237187 -0.060308777 -0.5039676 0.12167686
0002f0 02 2e f2 3d b8 43 7e be 26 be b7 be 08 b5 fd bd
       0.118251815 -0.2483052 -0.3588726 -0.123880446
000300 67 e2 90 3f 0e 8f cc 3e 64 ad 33 be fe 9d 6b 3f
       1.1319093 0.39952892 -0.17546612 0.9203795
000310 0a 94 6b 3e 05 4e 22 3f 12 e8 4f bf 81 e1 a9 3e
       0.23005691 0.634003 -0.81213486 0.33179858
000320 e0 8e ac 3e a7 75 ac be ad e6 bf 3e f9 53 46 3f
       0.33702755 -0.33683512 0.3748068 0.7747188
000330 37 3c 50 be d5 c8 f6 3e 13 91 b4 3e da e9 04 3f
       -0.2033547 0.48200098 0.35266933 0.5191933
000340 65 66 7d bf 52 dd 84 3e 65 d3 16 bf b0 d6 41 bf
       -0.98984367 0.25950104 -0.5891631 -0.7571821
000350 1b 6c 1c bf 34 ad d9 be 41 04 9d 3c 7c fc ce 3e
       -0.61102456 -0.42514956 0.019167067 0.40427005
000360 1b dd f8 3e 99 5d ce 3e 25 32 84 3d b3 a0 b8 3c
       0.4860619 0.40305784 0.06454877 0.022537565
000370 cb a6 65 bf c2 e0 53 bd 30 b6 5a be 8a 05 32 3f
       -0.8970763 -0.051728018 -0.21358562 0.695397
000380 12 00 a6 3f 74 74 27 be 06 3c 69 3e b6 47 1c bf
       1.2968771 -0.16353017 0.22776803 -0.6104692
000390 0d 71 1d bf a6 ce 24 bf 2d 59 3d 3f a8 53 bd 3d
       -0.61500627 -0.6437782 0.73964196 0.09244472
0003a0 09 ca 3a 3e 38 eb 97 3b 5b d7 92 be d5 89 88 3e
       0.18241133 0.0046361946 -0.28679928 0.26667657
0003b0 d0 44 f5 3e b1 06 83 be 73 70 e7 bd 25 62 9f 3e
       0.47904062 -0.25591043 -0.11300745 0.31129566
0003c0 14 e2 34 be 8f b1 90 bd fa 7d 1c be b9 96 2d bf
       -0.17664367 -0.070651166 -0.15282431 -0.6780811
0003d0 72 51 30 be c1 b6 5b 3e c8 fd 5b bf cd ae 4d bf
       -0.17218569 0.21456434 -0.85934114 -0.8034485
0003e0 87 57 0e 3f a3 78 9c bf 27 d5 35 be 4e 21 f7 3d
       0.55602306 -1.2224315 -0.17757092 0.12066899
0003f0 5e ed 94 3f 35 a7 d8 bd cc a9 79 bd c9 7e c1 3e
       1.1634939 -0.10578767 -0.060952947 0.37792042

feature.bias_ih_l0 f4 [512]
000000 58 b3 22 3f cf d6 5c 3f e6 28 01 be 62 a7 1f 3e
       0.63554907 0.8626527 -0.12613258 0.15591195
000010 dc 0a 16 be 59 6e 85 3e dd 09 3e 3f 53 a1 83 3e
       -0.1465258 0.2606075 0.742338 0.25709018
000020 fb 98 aa 3f 25 17 35 be 36 29 a8 bb 9f 0d 05 3e
       1.3327936 -0.1768461 -0.005131866 0.12993477
000030 42 7c be 3e 90 84 8e be d6 d8 28 3f 37 8c 42 3d
       0.37204176 -0.27835512 0.65955865 0.047497
000040 e5 41 94 3d 6f b0 61 3f c8 0e 2f 3e 05 a9 9e 3e
       0.07239131 0.8815984 0.17095482 0.30988327
000050 75 91 44 be fd 65 62 3e 29 9c 8c be b5 99 5a be
       -0.19196112 0.22109218 -0.2746289 -0.21347697
000060 34 6a 3b bd 21 f4 b1 3e b4 ca a7 3e f7 17 28 3e
       -0.04575558 0.34756568 0.32771838 0.16415392
000070 42 33 20 be 2c 40 a7 3f 0a 0e 83 be 42 96 20 3d
       -0.15644553 1.3066459 -0.25596648 0.039205797
000080 00 ad 09 bf 3f b2 fa 3e c5 5f 12 3f 13 f1 87 be
       -0.537796 0.48964116 0.5717738 -0.26551113
000090 c2 30 1f 3c 5a b0 25 be f4 0d 9d 3f d3 36 8c 3d
       0.009716215 -0.16180554 1.2269883 0.068463944
0000a0 f4 2c a8 bd f2 15 2a 3f 56 a0 8b 3e 31 5b 96 3d
       -0.08211699 0.66439736 0.27270764 0.07341612
0000b0 08 05 66 be 6d a0 b1 3e 01 26 f1 be 7a ee 71 3e
       -0.22462857 0.34692708 -0.47099307 0.23626128
0000c0 98 40 4d 3e 68 13 95 3d 4f b2 a8 3e 12 cd 6c 3e
       0.20044172 0.07279092 0.3294854 0.23125103
0000d0 24 05 ca 3e e4 85 2e be dc 6a 35 bd 22 ec 02 3e
       0.39457047 -0.17043263 -0.044291362 0.1278539
0000e0 f5 7f da 3d c5 f5 91 3e 33 b7 e0 3e 8d fe c3 3e
       0.10668937 0.2850782 0.4388977 0.38280144
0000f0 71 f7 58 3e de 72 d2 3e 5e d7 9e 3e 0e 11 c3 bd
       0.21188141 0.41103262 0.31023687 -0.09524737
000100 d1 e6 62 be 78 cc 9f 3e 3c 7c b0 bd d6 8b a7 3e
       -0.22158362 0.31210685 -0.08617446 0.32723874
000110 0d 2e 92 3e 9e 5f 63 3f 7b c3 f6 be 36 3f 33 3f
       0.2855076 0.88817775 -0.48196015 0.7001833
000120 c9 b6 ad 3d 12 3b c5 bb 47 41 ab 3e 71 b9 10 3f
       0.08482129 -0.0060190046 0.3344824 0.5653296
000130 36 89 0a bc 60 98 8e 3e 06 11 27 3e 7c 53 62 3e
       -0.008455565 0.27850628 0.16315088 0.2210216
000140 28 23 d1 be 5f 41 f8 3e 5b 69 0c 3e f4 6e 69 3e
       -0.40847135 0.48487374 0.13712065 0.22796232
000150 8d b9 4f 3f a0 db a0 bd bb ea 03 be ba fc 25 be
       0.81142503 -0.0785439 -0.12882511 -0.16209689
000160 fb 22 72 3f 34 09 23 be 23 aa 45 3e 86 b1 26 3f
       0.94584626 -0.1592148 0.19303183 0.6511463
000170 81 68 86 be f0 03 32 be 87 62 66 3e 77 85 19 3f
       -0.26251605 -0.17384315 0.22498523 0.59969276
000180 e8 5f 49 3d be 86 64 3e 7b d2 c5 bd ec 4e be bd
       0.04916373 0.22317025 -0.096592866 -0.09292397
000190 db b0 ac bd aa 82 56 3f 5b 29 4a 3e 43 38 11 3e
       -0.0843217 0.8379313 0.19742338 0.14181618
0001a0 52 46 3c be 47 6f 93 be 9e b3 3a bd 92 5b 05 be
       -0.183862 -0.28795835 -0.045581453 -0.13023213
0001b0 f3 77 ae 3e 06 e5 de be 22 6e a6 3f e4 82 4d be
       0.3407589 -0.43534106 1.300236 -0.20069462
0001c0 c3 4a 56 be eb 25 7c 3e 20 7c d8 bd 08 6f d8 3e
       -0.20926957 0.2462384 -0.1057055 0.4227221
0001d0 93 ed f8 be c8 de f5 bc 2d eb b3 3d 3c 42 1a be
       -0.48618755 -0.030013457 0.087850906 -0.15064329
0001e0 66 ce c3 3e d2 22 82 3e d0 96 7f be 62 e7 6e be
       0.38243407 0.2541719 -0.24959874 -0.23330453
0001f0 11 64 ec 3d 5c 40 94 3f 5f 5f 92 bd 91 71 6a bc
       0.11542524 1.1582141 -0.07147097 -0.014309303
000200 60 d9 dd be 20 35 12 bf c3 77 48 3d f6 78 3b bf
       -0.43329906 -0.5711231 0.04894234 -0.73231447
000210 e7 39 38 3e 88 20 f3 be 65 99 5f be 7c b0 0a bf
       0.17990838 -0.47485757 -0.21835859 -0.54175544
000220 24 3e 08 3e 5f 1f 9a 3e 63 b7 b2 bd 21 74 36 bf
       0.13304955 0.3010206 -0.087263845 -0.7127095
000230 74 6b ec be 7a 10 25 3e 3b c5 c9 3d c0 2d 82 be
       -0.4617573 0.16119567 0.09852072 -0.2542553
000240 42 68 bc be 63 ff 2a bf 64 ed 24 3e cc 53 c4 be
       -0.36798292 -0.6679594 0.16106182 -0.38345182
000250 cd 18 0d bf a9 d6 86 3d fc f6 09 be 4c 09 24 3e
       -0.5511597 0.06583912 -0.13473123 0.16019171
000260 2e a8 e7 3d 5b 3d 3d be a4 ad 0b bf df 3e 82 bf
       0.113113746 -0.18480437 -0.5456183 -1.0175437
000270 f4 5b e5 be f1 84 56 be c4 fb 1d bf c3 6a 7f 3e
       -0.44796717 -0.2094915 -0.6171229 0.2494307
000280 ef 97 22 bf e8 77 37 bf 43 79 1a bf 6f 4c 9b bc
       -0.6351308 -0.7166734 -0.6034128 -0.018957345
000290 da 59 b3 bd ea c7 5b be c4 ea 92 be 79 08 a9 be
       -0.08757372 -0.2146298 -0.28694737 -0.33014277
0002a0 f5 bc 58 bd 7b c9 75 be 3c 9a a8 be ac d2 a7 3d
       -0.05291458 -0.2400264 -0.3293017 0.08194479
0002b0 18 31 e1 bb 0a 32 b7 3c a4 a5 03 3d 53 7d ca 3d
       -0.0068723075 0.022362728 0.03214039 0.09887185
0002c0 4f 60 ec bd 4b 32 01 3e 7f e7 bd be 41 e4 e7 bc
       -0.11541807 0.12616841 -0.3709068 -0.028307082
0002d0 fb a1 c6 bd 77 cd 5c be d7 e3 b5 bd f4 a8 b0 be
       -0.09698864 -0.21562754 -0.088813476 -0.345039
0002e0 b9 84 bf 3c cf 75 dc be 1f 76 04 bf 47 e5 84 3e
       0.023378717 -0.4305863 -0.5174274 0.25956175
0002f0 a0 fb 44 be ac 6d bb be a4 07 97 be 35 4c 1c be
       -0.19236612 -0.3660711 -0.29498017 -0.15263446
000300 62 e2 4c bf 10 52 c3 bd 18 27 d5 bd 34 00 69 3e
       -0.8003293 -0.095371366 -0.10407847 0.22753984
000310 27 18 97 3e ba 92 83 be d0 33 68 bd 62 54 97 be
       0.29510614 -0.2569788 -0.056690037 -0.29556566
000320 bf af 8f bd f5 98 e5 3d d1 8d c3 b9 75 08 cf be
       -0.07015943 0.11210815 -0.0003729896 -0.4043614
000330 ae 48 c4 3d 9d b5 2e bf e2 39 28 be a4 4a d1 3d
       0.09584175 -0.6824587 -0.1642833 0.10219315
000340 46 f9 84 3e 20 55 2f 3e 33 7b de bd 4c e5 37 bd
       0.2597143 0.17122316 -0.10863342 -0.04489641
000350 72 d8 0b 3f 34 1f 69 be 8a af 3b be 34 69 db be
       0.54627144 -0.2276581 -0.18328682 -0.428537
000360 e7 ce ee bd 66 32 22 3e 9a 3b 94 bb 46 1e 5a bf
       -0.11660557 0.15839538 -0.0045237066 -0.85202444
000370 1e 97 51 bd 1a bb 91 be 2f ba 9c 3d f2 fc 59 be
       -0.051169507 -0.2846306 0.07652699 -0.21287897
000380 ec dd 94 bd 76 ec d7 bd d1 0c 48 3e 3a ff e7 be
       -0.07268891 -0.10543148 0.19536139 -0.4531191
000390 4c 3f f5 3e 81 9f 86 3c b0 b4 e9 bd 2b ca da be
       0.47899854 0.01643348 -0.114114165 -0.42732367
0003a0 5e b6 a2 be 35 c5 93 be 36 6c 7e be 8c 06 b4 3c
       -0.3177976 -0.28861395 -0.24845967 0.021975778
0003b0 3e 25 94 be e7 ed 59 be a2 8d 5a be 23 e6 df be
       -0.28934664 -0.21282159 -0.21343091 -0.43730268
0003c0 7e 23 67 3e 6f 28 19 bf 9f 40 85 3d 81 1e bb be
       0.22572133 -0.5982732 0.06506466 -0.3654671
0003d0 eb b3 b3 3e 50 80 e5 bc 20 de 26 be 0d fd ae be
       0.35098204 -0.028015286 -0.16295671 -0.34177437
0003e0 22 6b a1 be 68 c1 e2 be ed 04 8c 3d a9 ca cc be
       -0.31527048 -0.44288182 0.06836877 -0.39998367
0003f0 bd e7 7e bd 37 09 0c bf 10 d1 0b bd a0 bd 46 3e
       -0.06223272 -0.5470156 -0.034134924 0.19408274

feature.bias_hh_l0 f4 [512]
000000 ae cb 19 3f cb 53 4d 3f ca 64 1d be 49 d9 47 3e
       0.60076416 0.8020598 -0.15370479 0.19516481
000010 53 38 a4 be 4f b5 91 3e 05 e6 47 3f ab b0 53 3e
       -0.32074222 0.2845864 0.78085357 0.20672862
000020 15 be a6 3f ba 4c 08 be ec 54 1e bd d3 f7 4b 3e
       1.3026758 -0.13310519 -0.038655207 0.19918756
000030 d0 5b bd 3e 8f b7 b9 be d6 28 39 3f 02 34 bf 3d
       0.3698411 -0.36272857 0.72327936 0.093360916
000040 bf 12 1c 3e 2a 71 61 3f cb 44 47 3e 81 ca 67 3e
       0.15241526 0.880633 0.19459836 0.22635843
000050 56 3c e3 bd fa 9e c1 bc e8 fb ac be a4 9c 9c be
       -0.110954925 -0.023635376 -0.3378594 -0.30588257
000060 9a 44 c1 bd bb ab c9 3e a1 b5 55 3e a0 c9 88 3e
       -0.09436913 0.39388832 0.20870067 0.26716328
000070 3e 4c 71 3d 9a 79 a5 3f be 67 90 be b7 3c 85 3d
       0.0589106 1.2927735 -0.2820415 0.06505721
000080 5d db e2 be 13 3b 15 3f 93 f2 37 3f 94 8b ed be
       -0.44307986 0.58293265 0.71854514 -0.46395552
000090 f0 d3 15 be 7d 61 5f be 5f 09 9e 3f f9 22 52 3e
       -0.14631629 -0.21814533 1.234661 0.20521154
0000a0 23 b1 00 be f6 74 37 3f 78 8c db 3e ff 0a b1 3d
       -0.12567572 0.71662843 0.42880607 0.086446755
0000b0 11 a0 e1 bd 58 0e 3e 3e dc 77 ca be 71 d8 36 3e
       -0.11016858 0.18560159 -0.3954457 0.17856003
0000c0 0b 5d be bc f8 e7 0a 3e b5 9f eb 3e 20 b4 3c 3e
       -0.023237726 0.13565052 0.46020284 0.18428087
0000d0 32 e7 6d 3e 65 05 ec be ce 4d 80 bb e5 e6 3e 3e
       0.23232725 -0.46097866 -0.003915525 0.18642767
0000e0 50 fc 1b 3e f1 69 b3 3e 9c af 05 3f 92 d8 b6 3e
       0.15232968 0.35041764 0.52221084 0.35712105
0000f0 82 81 e5 3d 60 c5 6d 3e 08 57 46 3e f0 01 69 bd
       0.11206342 0.23219824 0.19369137 -0.056886613
000100 f0 36 de bd 43 ff b3 3e d5 b5 24 be 67 61 a7 3e
       -0.10850322 0.35155687 -0.16084988 0.326915
000110 70 d1 47 3e f5 bc 7c 3f df f1 da be 7e be f8 3e
       0.19513488 0.98725826 -0.42762658 0.48582834
000120 f4 ad 65 3d a8 33 7f 3c 20 3b 79 3e 0a a1 00 3f
       0.056074098 0.015576281 0.2433896 0.50245726
000130 14 53 6b 3c fd ab ba 3e a6 8d 24 3e d0 05 53 3e
       0.014363069 0.36459342 0.1606966 0.20607686
000140 fe bc b8 be 3b 26 fc 3e b1 e1 90 3e 1d ce 6e 3e
       -0.3608169 0.49247918 0.2829719 0.23320813
000150 73 45 3f 3f 3e 56 93 bd a1 89 85 3d a4 00 5e be
       0.74715346 -0.07194184 0.06520391 -0.21679932
000160 1d d5 47 3f ed 68 0f be 48 2e c8 ba f6 cc 11 3f
       0.7805956 -0.1400487 -0.0015272582 0.5695337
000170 18 0d 02 be 9f 59 74 be ff dc 99 3e 57 99 1b 3f
       -0.12700307 -0.23862313 0.3005142 0.60780853
000180 f7 b1 cf 3d 9d 0e 6a 3e a1 44 e1 3c 6d 48 20 be
       0.10141366 0.22857137 0.027498545 -0.15652628
000190 cc 1e 84 bc 2e ea 4a 3f c4 76 2c 3e 54 1f bd 3d
       -0.016127966 0.7926358 0.1684218 0.09234491
0001a0 1f b4 38 be f6 3d 44 be 9f 7e 52 3c f2 bc 12 3d
       -0.1803746 -0.19164261 0.012847572 0.035824724
0001b0 d7 39 b0 3e 53 75 12 bf 37 98 9a 3f dd 49 db bd
       0.34419128 -0.5721027 1.2077702 -0.10707448
0001c0 24 35 6a be f4 56 42 3e 26 de f1 bd 62 ad a8 3e
       -0.22871834 0.18978482 -0.118099496 0.3294478
0001d0 1d fd 1c bf c4 67 b7 bc 30 61 a8 bd 7e 9d cd bd
       -0.6132372 -0.022388346 -0.08221662 -0.10039805
0001e0 08 af df 3e 43 5a 84 3e 30 1d ff bc d0 14 a8 be
       0.43688226 0.25850114 -0.031141847 -0.3282838
0001f0 11 b2 85 3d 6b 91 a6 3f 7d 7d 87 3d 19 b5 47 3e
       0.06528104 1.3013128 0.06615732 0.19502677
000200 2a e6 e9 be 5d 42 17 bf 74 bc ec bb 5d df 35 bf
       -0.45683414 -0.5908564 -0.007224614 -0.7104395
000210 c8 e6 49 3e 4b fd 01 bf 60 57 87 be 82 72 09 bf
       0.19716942 -0.5077712 -0.2643385 -0.5369035
000220 c9 75 29 3e 3d 9f f1 3d 18 ce b9 bd 65 57 1c bf
       0.16548838 0.117979504 -0.090725124 -0.61070853
000230 da f1 e3 be d0 cf 59 3e 4a 5c 8d 3e 8b 5f a3 be
       -0.44520456 0.2127068 0.27609473 -0.3190883
000240 32 b4 e8 be fa 26 35 bf 0a f5 94 3e 80 01 f2 be
       -0.45449978 -0.707626 0.290932 -0.4726677
000250 ab 27 28 bf db 74 75 3d 8e ba 88 3d da 71 5c bc
       -0.6568553 0.059925895 0.066762075 -0.013454879
000260 f6 43 04 3e f9 4c 88 be 11 8b 27 bf a0 5f 7f bf
       0.1291655 -0.26621225 -0.65446573 -0.9975529
000270 c1 a7 b1 be 37 ac 92 bd 36 1d 1c bf 20 58 78 3e
       -0.346983 -0.071617536 -0.6098207 0.24252367
000280 b0 f0 2b bf 20 a9 1d bf d0 46 0b bf 73 29 ff bd
       -0.67164135 -0.6158619 -0.54404926 -0.12459078
000290 e4 38 18 be 8f 88 5e be af 05 b3 be 44 00 8e be
       -0.14865452 -0.2173178 -0.34965274 -0.27734578
0002a0 56 48 4b bd d6 d8 64 be 4d cb 71 be 39 94 f6 ba
       -0.04962953 -0.22348341 -0.2361271 -0.0018812484
0002b0 67 a4 f1 3d 88 56 c8 39 f4 c3 97 3a 7c 67 0f bd
       0.117989354 0.00038211443 0.0011578784 -0.0350108
0002c0 46 06 2a be 07 0d 0d 3e 9c 1f ef be 66 74 14 3e
       -0.16603956 0.13774501 -0.46703804 0.14497527
0002d0 99 6e 86 be d2 66 21 be fa 6c 48 be 34 3c a5 be
       -0.26256254 -0.15761879 -0.19572821 -0.32272494
0002e0 68 c6 38 3d 78 aa cb be b3 2d dd be 95 7e 4c 3e
       0.04511109 -0.39778495 -0.43198928 0.19970162
0002f0 f5 ae 97 be e2 d3 06 bf ad 27 99 be f3 00 fe bd
       -0.2962567 -0.5266706 -0.29913083 -0.12402525
000300 de 33 4c bf e2 b3 97 be fb 9b e2 bd 14 d6 85 3e
       -0.79766643 -0.29629427 -0.11064907 0.2613989
000310 fd c8 a3 3e 7d 77 bd be c7 5a b9 bd 4a 6c ab be
       0.3198928 -0.37005225 -0.090505175 -0.33481055
000320 a3 75 89 bd 88 50 de bc f1 f5 c2 bc 6c 7a cf be
       -0.067118905 -0.02713801 -0.023798915 -0.40523088
000330 53 bf bb 3c 70 bd 2c bf be b4 d4 bd 5a 1c 92 3d
       0.022918379 -0.6747656 -0.10386036 0.07134314
000340 2e fc 84 3e 58 91 8c 3e 07 fe 4f 3d af c8 74 bd
       0.25973648 0.27454638 0.05077937 -0.0597617
000350 77 5b a9 3e 83 cd b3 bd 35 40 5a be e3 96 a2 be
       0.33077595 -0.087794326 -0.21313556 -0.31755742
000360 c5 de c2 bd ad 02 47 3e b1 59 7d bd 79 07 44 bf
       -0.09515146 0.19434614 -0.061853115 -0.765739
000370 52 b6 30 be f2 a3 7a be 0d 10 3e 3e 7f cf ae be
       -0.1725705 -0.24476603 0.1856081 -0.34142682
000380 15 8d b5 3d a3 2a 50 bd cc ac a3 3e db 50 cf be
       0.088648 -0.05082191 0.3196777 -0.40491375
000390 ef e1 d4 3e bc db 7b 3d 0a d6 38 be 3b f9 b1 be
       0.41578624 0.061488852 -0.180504 -0.3476046
0003a0 42 35 da be ac 8f a4 be 4e cf 8a be cf bb e4 3d
       -0.42618757 -0.32140863 -0.27111286 0.11168634
0003b0 6e 41 0c be 1c 00 39 be 38 e7 31 be 10 c5 d6 be
       -0.13696834 -0.18066448 -0.17373359 -0.41947222
0003c0 37 f7 ce 3d ce 0e 2b bf 30 98 22 be cf 32 f4 be
       0.10105746 -0.66819465 -0.15878367 -0.47695014
0003d0 97 02 95 3e 2d 50 28 bd dc 91 48 be e6 9e ce be
       0.29103538 -0.041092087 -0.19586891 -0.40355605
0003e0 c7 c5 a8 be f1 a3 ac be a3 9d ca 3d 69 eb a7 be
       -0.32963392 -0.33718827 0.09893348 -0.3279679
0003f0 5b 71 27 be b7 b9 c9 be a6 96 02 be fc 2b a1 3e
       -0.16351835 -0.39399502 -0.1275278 0.3147887

feature.weight_ih_l0_reverse f4 [512, 64]
000000 ac a7 b5 3e 3f 62 09 3f aa 74 c9 3e d3 80 c8 3e
       0.35479486 0.53665537 0.3934682 0.39160785
000010 59 0f 5e 3f 0e 05 91 3d 60 e9 97 3d c8 e8 d9 bd
       0.8674217 0.07081042 0.074175596 -0.106401026
000020 04 f0 77 3e 53 6e 2c bf 46 f7 35 3e df b8 2f bf
       0.24212652 -0.6735584 0.17770109 -0.68641466
000030 cc 92 6d be bf aa 4f bf a7 c6 45 bf 7d 1f a7 be
       -0.2320053 -0.8111991 -0.77256244 -0.3264121
000040 d8 40 a6 3e d6 2b 4c be 97 5c 4a 3e 1b 57 8d bc
       0.32471347 -0.19938597 0.19761883 -0.01725345
000050 44 e1 e5 be 13 9b 9e 3e 6e c0 b1 bf a0 04 39 3f
       -0.44898427 0.30977687 -1.388685 0.7227268
000060 f3 bf 99 be ea 3f 98 3f e0 38 b6 3e ef ef a5 3f
       -0.30029258 1.1894505 0.35590267 1.2963847
000070 bd 4f b2 be 57 dd 85 bd 24 ea 04 3f 9f 92 62 bf
       -0.3482646 -0.06536358 0.5191977 -0.88504976
000080 e3 17 a9 bf bd 2e 41 bb aa 9b 4e bf 8e b5 03 3f
       -1.3210415 -0.002947732 -0.80706275 0.51448905
000090 1a f8 f1 3e 7f 37 d8 bd 24 d9 04 3f 02 ce 31 3f
       0.472596 -0.1055746 0.5189383 0.6945497
0000a0 65 d3 06 be a9 3f 86 3f 8f 34 b3 be d1 3f 01 bf
       -0.13166578 1.0488178 -0.35001037 -0.50488
0000b0 d3 9d 31 3f 6c e7 96 3e 43 07 0d bf d3 f0 34 3f
       0.69381446 0.29473436 -0.55089206 0.7067997
0000c0 ba 47 fa bd 8e ed b3 3e 68 f8 03 be bf 21 6a bf
       -0.12220712 0.35142177 -0.12887728 -0.9145774
0000d0 8b 30 94 3e 5d 4e 51 bf 93 f3 f5 be d7 92 92 3d
       0.28943285 -0.817602 -0.48037395 0.07156914
0000e0 e7 b8 32 3f 70 6e 30 bd 5a eb b1 3e fc 7f bd bc
       0.6981339 -0.04307407 0.34749871 -0.023132317
0000f0 7a 84 89 bc 48 f0 70 bd 43 10 06 bf cc 37 12 bf
       -0.016786803 -0.0588229 -0.52368563 -0.5711639
000100 2b c7 b0 3d b6 9b 31 3f 97 ce 97 3f 47 79 67 3f
       0.08631738 0.6937822 1.1859921 0.9041943
000110 f5 35 c6 be 47 ea 4a 3e ec f4 88 bf 55 2f 2f 3f
       -0.3871304 0.19815932 -1.0699744 0.684316
000120 44 15 d1 3f 9c f7 6c 3f 57 ae 67 3f 1d 78 b9 3f
       1.6334615 0.9256532 0.90500396 1.4489781
000130 50 b2 1b 3f 36 e3 97 bf d4 e5 d3 3c 3c 0f 0e bf
       0.6081896 -1.1866214 0.025866427 -0.55491996
000140 ff 2d 89 be ba ef 30 3f 27 bc 8e 3e 8b 8b 0b bf
       -0.26792905 0.69115794 0.27877924 -0.545098
000150 58 f6 2d 3f 32 a3 ab 3d 19 89 9c 3e b0 ec 80 bd
       0.67954016 0.083807364 0.30573347 -0.062951446
000160 ed 51 0e 3f 7c 69 a1 3e b0 fb 59 bf 8f 50 1a be
       0.5559376 0.3152579 -0.8514967 -0.15069793
000170 71 a2 b4 be e9 c0 00 3e 5c a1 c8 be 68 c2 61 bf
       -0.35280183 0.1257359 -0.39185607 -0.88187265
000180 fc bc 81 3f d8 14 a4 3d eb 50 2d bf 9f 8c 52 be
       1.0135798 0.08011788 -0.67701596 -0.20561455
000190 95 d0 15 3e ed 29 cc be 17 e6 27 3e ab 76 ba 3e
       0.14630349 -0.39875737 0.16396366 0.3641866
0001a0 f7 4c 82 be 3d 7c e5 3f 17 cb d9 3e b4 de 77 bd
       -0.25449345 1.792854 0.42537758 -0.06051512
0001b0 2a 68 b5 3e 16 a2 8e bf f4 b1 3c 3b d4 8f d4 3e
       0.35431033 -1.1143215 0.0028792592 0.41515982
0001c0 b5 dd 52 be d9 53 8e 3e 8d c9 f0 bc bb 8d f3 be
       -0.20592387 0.27798346 -0.029392982 -0.4756907
0001d0 ec ba 50 bf cf 5c 68 bf 03 e9 a5 bf 8e 4c d8 3b
       -0.8153522 -0.90766615 -1.2961735 0.006600923
0001e0 62 81 08 3f 52 70 24 3f e5 a1 67 bf 4c 84 bc 3e
       0.5332242 0.6423389 -0.90481406 0.36819685
0001f0 02 ea db bc 7f 14 68 3f 26 07 e7 bc ec ff f1 3e
       -0.026844982 0.90656275 -0.02820165 0.47265565
000200 30 0d 31 3f 91 14 90 be 52 54 90 3f 24 a2 4e 3d
       0.6916075 -0.2814069 1.1275733 0.050447598
000210 91 88 40 3e 59 88 47 bf 39 8a 88 3f 9e 2f 85 3f
       0.18802096 -0.77942425 1.0667182 1.0405157
000220 e4 f5 3c bf 5a da 57 3f 4b 1b 24 bf dd 7b 8e bd
       -0.738127 0.84317553 -0.64104146 -0.06957219
000230 26 1f e2 be 76 b7 e9 3d 89 11 e7 3d 12 fa d5 3e
       -0.4416439 0.114119455 0.112826414 0.4179235
000240 b7 0a ef be df 8f 41 3f 7a 88 d2 3b 29 4b d2 3e
       -0.46687862 0.75610155 0.0064249607 0.41072968
000250 6a 88 bc 3b eb a1 8e bc 00 cc c7 3d 91 40 12 3e
       0.0057535665 -0.017411193 0.09755707 0.14282443
000260 d0 ac b3 bf 44 63 49 be ea 99 ba be 4c df 3c bf
       -1.4037113 -0.19666773 -0.36445552 -0.73778224
000270 7a 79 4e bf 36 2b d4 3e 3a bc f0 3e da dc b1 3f
       -0.8065411 0.41439217 0.47018605 1.3895524
000280 91 4d b4 3d e0 0b 4a 3f c2 87 d0 bd d9 ee 1f be
       0.08803857 0.7892437 -0.10182144 -0.15618457
000290 50 c6 3b 3e 59 f0 ea be fa af c5 3f de fb 49 3e
       0.18337369 -0.45886496 1.5444329 0.19724986
0002a0 c8 ea 2b be bd 33 07 bf 2f c3 95 3e 9f ae 3d 3e
       -0.1678878 -0.5281332 0.29250476 0.18523644
0002b0 3b 9f 08 3f 24 59 c6 3e 9d 05 7c be 4c 05 17 3e
       0.53367966 0.38739884 -0.24611516 0.14748114
0002c0 c8 48 05 be 05 2a 36 3f b4 70 12 bf c0 1f 84 be
       -0.13016045 0.71157867 -0.5720322 -0.25805473
0002d0 59 95 bb 3e a1 59 21 3f 27 e3 38 3f 65 1e 2a 3f
       0.3663738 0.6302739 0.72221607 0.6645263
0002e0 75 25 cf bd 7a 2f e1 be 7b b8 2f bf 47 b7 19 3e
       -0.10114566 -0.43981534 -0.6864087 0.15011321
0002f0 46 e7 bc bd ca 83 8d bb 10 6d ca 3d 8b 74 d3 3e
       -0.092237994 -0.004318689 0.09884083 0.41299853
000300 43 70 6e 3e c6 bf 0a 3f bf 45 62 3e 8e af 81 3d
       0.23285012 0.54198873 0.22096919 0.063323125
000310 77 c5 48 3f cc c8 a5 3e 6b 0c e6 be 51 d2 e1 be
       0.7842631 0.32379758 -0.4493135 -0.4410577
000320 76 fd 01 be c6 67 a9 3e 2e f6 81 3f 94 a8 8f be
       -0.12694344 0.33086985 1.0153253 -0.28058302
000330 3e ad fa be 01 6c 87 3f 7e 28 47 3e ea 6e 12 bf
       -0.48960298 1.0579835 0.1944904 -0.5720049
000340 b1 60 4d 3f 37 98 0e 3f 64 c2 3b bf 42 da d6 be
       0.80225664 0.5570101 -0.7334349 -0.41963392
000350 bd df a7 3e aa 8a 2a 3e 51 3e 85 3f 22 58 81 3e
       0.32787886 0.16654459 1.0409642 0.25262552
000360 f7 41 8f be 70 46 20 be 19 a4 4a be 4c 0a 28 bf
       -0.27980015 -0.1565187 -0.19789161 -0.6564071
000370 5b 38 a4 3f b5 03 f1 bd 1b 3f 36 3e ce 7f e3 be
       1.2829698 -0.11768285 0.1779751 -0.44433445
000380 f0 b8 d6 3d 77 b8 70 3f aa 50 d1 3e 85 c6 2f 3f
       0.10484493 0.9403147 0.40881854 0.6866229
000390 82 2b 0a be 49 20 fa 3e 36 63 0e bf 8f e6 0d 3f
       -0.1349316 0.48852757 -0.55620134 0.5542993
0003a0 4f 8c 7b 3f 09 55 70 bf c5 06 8c 3e 25 9e 07 bf
       0.9826097 -0.93879753 0.27348915 -0.52975684
0003b0 1d 49 08 3e 41 95 2d 3e 72 41 dd be fe 66 31 bf
       0.1330914 0.16951467 -0.43213993 -0.6929778
0003c0 86 b6 2a bf 8a dd ab 3e 5b fa 6b 3e 22 a7 43 3f
       -0.6668476 0.33567458 0.23044722 0.764269
0003d0 af 4f 38 bf 8c d7 47 bf ac b6 8e bf 66 01 80 3f
       -0.7199659 -0.78063273 -1.1149497 1.0000427
0003e0 a0 53 c8 be e7 eb 0d 3f 46 99 47 3e ca c0 48 bd
       -0.391263 0.55438083 0.19492063 -0.049011983
0003f0 cb 78 00 40 fa bf c5 bf da 9e 53 3f 6e 48 0b 3e
       2.0073726 -1.5449212 0.82664263 0.13601848

feature.weight_hh_l0_reverse f4 [512, 128]
000000 fb da 17 bf 66 13 42 3c 00 f4 2a bf 86 0a 02 bf
       -0.5931851 0.011845445 -0.66778564 -0.5079731
000010 7f 84 d6 be bd cc ab 3d 04 d5 4a bb 87 07 cd 3e
       -0.41897961 0.0838866 -0.003094972 0.40044805
000020 b5 85 13 3f 9d 74 c2 be 82 b2 81 be ce f0 6b be
       0.57625896 -0.37979594 -0.25331503 -0.23041078
000030 ca 0a 1c 3e df 95 a1 3e 84 d7 33 3f 0b 1b 45 bf
       0.1523849 0.31559655 0.70250726 -0.7699439
000040 55 04 af 3d fb 8b fa 3d 1a 69 54 3b fa b4 21 be
       0.08545748 0.122337304 0.0032411278 -0.15791693
000050 e0 fa cf 3e d7 ef 47 3f 52 ab ee be 5b e8 67 be
       0.4062109 0.7810034 -0.46615082 -0.2264723
000060 ac cd 3d 3f e7 0b 9f bf f8 ba e4 be 6f e2 c9 3d
       0.74141955 -1.2425507 -0.44673896 0.09857642
000070 5d 4e 31 bc 6e 58 2d be 9b 95 9a bd 4d a1 52 be
       -0.010821906 -0.16928264 -0.07548066 -0.20569344
000080 f9 df 08 bd 48 17 30 3d 2c 99 f1 3c 6b f3 30 3f
       -0.033416722 0.042990953 0.029491983 0.69121426
000090 1a a5 af bd dc 6f e9 3e 94 d7 2b 3f 75 fc 04 bf
       -0.085764125 0.45593154 0.6712582 -0.5194772
0000a0 cb 6d 0b bf fe 32 08 be 13 54 cb 3e 61 93 9a be
       -0.54464406 -0.13300702 0.3971258 -0.30190566
0000b0 73 98 f8 be d3 21 3f bc aa 6b 2f bf 67 1d 1c 3e
       -0.4855381 -0.011665779 -0.6852366 0.15245591
0000c0 6f 7e 2a 3f 02 05 ae 3e 11 cb 20 bf 73 6e 53 be
       0.6659917 0.33988196 -0.62809855 -0.20647602
0000d0 5d 29 0f be af 94 5c bf dc aa d7 be 4f 54 31 bf
       -0.13980623 -0.86164373 -0.42122543 -0.6926927
0000e0 12 23 02 bf 91 23 54 3f a4 d3 42 be de 55 51 3e
       -0.50834763 0.8286677 -0.19026047 0.20442912
0000f0 ff 5f d6 be 47 2d 01 3f f6 f8 db be 66 2b 22 bf
       -0.41870114 0.5045971 -0.4296338 -0.6334747
000100 55 63 d7 3e 08 14 27 3f d7 77 45 bf c2 db ad be
       0.42067972 0.6526494 -0.77135986 -0.33956724
000110 62 b5 89 3d 9c 43 43 be dd f5 24 3c 12 f6 03 bf
       0.06724049 -0.1906876 0.010068384 -0.5154735
000120 54 71 38 3f ed 57 1a 3e c7 30 11 bf ab cf e8 bd
       0.72047925 0.15072604 -0.56715053 -0.113677345
000130 95 36 a5 be 3f a4 a1 3f c4 73 d6 3e ca 6b 52 3e
       -0.32268205 1.2628249 0.41885197 0.20548931
000140 b0 69 50 bf c4 23 64 3e a0 6f ca 3c 9c 20 0f bf
       -0.81411266 0.22279269 0.02471143 -0.5590913
000150 c4 33 75 bd 1b 61 08 3e 10 d2 c7 bc d4 6e 41 3e
       -0.05986382 0.13318293 -0.024392158 0.18889934
000160 a8 d1 4e bf f3 2f 41 bf 96 83 64 be 3a d4 6e be
       -0.8078866 -0.7546379 -0.22315821 -0.23323146
000170 d4 30 64 be a4 f6 6d bd 0e 66 b9 3e ee 72 df bf
       -0.22284251 -0.058096543 0.36210674 -1.7456949
000180 ec 6b 97 be fb 3a da 3c 3c 19 14 bf e1 3a d0 3e
       -0.29574525 0.026639452 -0.57851005 0.4066992
000190 71 39 47 bf d5 3c ac 3e 3e 84 d4 3e 62 f5 ac 3e
       -0.77822024 0.3364016 0.41507143 0.33780962
0001a0 5d ca 1b bf 58 fe 48 3e b1 67 15 3f e7 f8 07 3f
       -0.60855657 0.19628274 0.58361346 0.5311417
0001b0 f9 73 e6 be 61 d4 72 3f 01 8d cd 3e b3 8d 41 3f
       -0.45010355 0.94855314 0.4014664 0.7560684
0001c0 f0 41 2d 3f dc 24 e8 3e a8 1d 15 3d 1c 2a 9f 3d
       0.6767874 0.4534062 0.036405236 0.077717036
0001d0 20 6f 40 3f c6 d1 2c 3f f2 76 2b 3e f0 e4 08 bf
       0.75169563 0.6750759 0.16744593 -0.5347433
0001e0 73 f2 47 bf b6 7d 02 bf 2b 1f b4 bc 58 ff c9 3e
       -0.78104323 -0.5097307 -0.021987518 0.39452624
0001f0 64 5c 92 3d 79 67 2a bf e0 26 47 3d 33 77 c6 3d
       0.07146528 -0.66564137 0.04862106 0.09690704
000200 9c 5d aa 3e d0 df e7 3e dd 63 c7 3c 01 74 4b be
       0.33274543 0.45287943 0.02433961 -0.1986847
000210 70 02 93 3e 58 49 9c 3e 94 d7 01 bf f9 bb 0c bf
       0.28712797 0.30524707 -0.5071957 -0.54974324
000220 92 19 98 3d 15 8c 48 3c ad 85 d2 be 58 62 9e bd
       0.07426752 0.012240429 -0.41117612 -0.07733601
000230 b1 6d 67 3f ac 5a 49 bf 1c 98 f6 be 00 d8 e3 be
       0.9040175 -0.7865398 -0.48162925 -0.44500732
000240 01 85 fb be 18 de d3 3e 93 99 8a 3d 35 0e 1f 3e
       -0.4912491 0.41380382 0.06767573 0.15532763
000250 38 92 b7 be a7 53 74 3e b6 f3 6a 3e de fd 53 3e
       -0.35853744 0.23860036 0.22944531 0.20702311
000260 ad db 2c 3e dd 88 2b be a1 af 96 3f d7 e6 a3 be
       0.16880675 -0.16751428 1.1772348 -0.32012054
000270 21 7f 07 bf ee b0 94 bc 2f d7 bf be cb 88 7b 3c
       -0.5292836 -0.018150773 -0.3746886 0.015352438
000280 3a 09 2c bf 00 f0 f3 bd 28 80 00 3f 90 a7 b9 be
       -0.6720158 -0.11911011 0.5019555 -0.36260653
000290 d8 14 7c 3e 38 9b 9b 3d fb 97 ec 3e 87 cd f5 3d
       0.24617326 0.07597965 0.46209702 0.12002092
0002a0 69 25 ae 3e da 31 ce 3e d7 cb e5 be 2c 63 ad be
       0.34012917 0.4027241 -0.4488208 -0.33864725
0002b0 40 ac ed bd e9 da 28 3e f3 5b e6 3e 2e 8a 3a 3d
       -0.1160512 0.16489758 0.44992027 0.045541935
0002c0 40 09 8f 3e de d8 f3 3e 60 95 37 3f 60 c1 13 3e
       0.27936745 0.47626394 0.71712303 0.14429235
0002d0 2b 49 b2 be a4 a0 47 bd c8 76 17 bf 5a 74 f9 3e
       -0.34821448 -0.048737183 -0.5916562 0.48721582
0002e0 03 55 11 3f bc 9d 15 3f 6a 85 ac bd 2f a4 74 bd
       0.5677034 0.5844381 -0.08423884 -0.05972689
0002f0 45 49 23 bd 67 ec b6 3d f5 7d e6 3d 67 8d 15 3f
       -0.039864797 0.08931809 0.11254493 0.5841889
000300 96 03 14 bf b0 69 da 3d 16 55 ee 3d c0 1f 3d be
       -0.5781797 0.106646895 0.116373226 -0.18469143
000310 fe 1a 92 3e bf 8a ef bd 63 a9 cc 3d e6 77 ff be
       0.28536218 -0.116963856 0.099932455 -0.49896163
000320 7c dd 6e 3d 7c 46 16 bf 76 c6 94 3e 59 ba ae be
       0.058316693 -0.587013 0.29057664 -0.34126547
000330 85 d4 dc 3e 97 55 63 3c 58 7a 3b be f8 ea 2a 3f
       0.4313089 0.013875387 -0.18308389 0.66764784
000340 1a 45 25 bf 98 ed 45 bd 2f 70 6e 3f 03 c5 80 be
       -0.64558566 -0.04832229 0.9313993 -0.25150308
000350 b4 2d 18 3e 74 87 e1 3d 0c 89 ce 3e 35 75 42 be
       0.14861184 0.11012164 0.40338933 -0.18990023
000360 9e f7 03 3f 5a b6 c2 3e f9 f2 de 3e 7f 4e 1d bd
       0.5154971 0.38029748 0.43544748 -0.038404938
000370 37 42 fd 3d f7 84 4d be a0 ab c9 3e 54 36 e9 3e
       0.12366145 -0.20070253 0.39388752 0.45549262
000380 d2 06 a5 be ea 6c e1 be 25 19 b4 3d 45 06 b5 be
       -0.32231766 -0.44028407 0.087938584 -0.35356346
000390 92 9f 9b 3e 44 21 60 3f 29 b8 26 3f 19 23 b0 be
       0.3039518 0.8755076 0.65124756 -0.34401777
0003a0 df a1 b5 be 34 2b 15 3f 5d 1e c7 3e 60 c0 49 be
       -0.3547506 0.5826905 0.38890353 -0.19702291
0003b0 9e 4b 0c bf c0 8b b0 be ee 60 0d bf 34 4b 1b bf
       -0.5480288 -0.3448162 -0.5522603 -0.60661626
0003c0 07 f0 09 bf 3b 8d 45 be 59 8a a5 3c 83 77 70 bf
       -0.5388188 -0.19292156 0.02020757 -0.9393236
0003d0 6c ed bf 3e 8b 27 70 3d fe d5 d7 be 1d d0 94 be
       0.37485826 0.05863146 -0.4215545 -0.29065028
0003e0 b8 5f 50 bc fc 71 8d be 63 97 2f 3e cb a3 39 be
       -0.012718134 -0.27626026 0.17147593 -0.18128888
0003f0 84 b7 67 be a3 4f f3 3e c8 a0 1c bf 5a 99 f0 3c
       -0.226286 0.47521695 -0.6118283 0.029369999

feature.bias_ih_l0_reverse f4 [512]
000000 75 fb 28 be 0f 35 1c bc b4 3c 86 3d 50 18 86 3d
       -0.16502173 -0.0095341345 0.06554547 0.06547606
000010 ad d9 19 3f 8b fb a5 3e ee eb 17 3e 89 a3 1c be
       0.6009777 0.32418475 0.14836094 -0.15296759
000020 db a5 e9 bb 36 04 1b be 27 c4 d5 3e bd c3 d5 3e
       -0.007130367 -0.15138325 0.41751215 0.417509
000030 c2 24 3c 3e 52 d9 0a 3e b8 6c ce 3e 34 a8 4b be
       0.18373397 0.13559464 0.4031732 -0.19888383
000040 99 6f 77 be 95 b6 e9 3e 39 1a b2 be 0a 05 12 3e
       -0.24163665 0.45647112 -0.3478563 0.14259735
000050 96 71 f3 3d 30 65 a7 bd 67 7a 6a 3e 33 1d 27 3f
       0.11886899 -0.08173597 0.22898255 0.6527893
000060 4d 65 84 bd 02 dd fe 3e aa dd 68 3e 44 6d 83 3e
       -0.06464634 0.4977799 0.22740808 0.256693
000070 d7 59 dd bd 91 e2 cf 3e c8 78 5f be 3e 42 b8 3e
       -0.10808151 0.40602544 -0.21823418 0.3598804
000080 e4 a4 13 be 03 40 fb be eb b5 11 bf 0a b7 95 bd
       -0.1441837 -0.49072275 -0.5691821 -0.073103026
000090 9b 26 55 3e 56 90 75 bd fd 2e 07 3e d6 08 02 be
       0.20815508 -0.059952103 0.13201518 -0.12698683
0000a0 4c 62 9d 3c 60 ca 9b bd 2a 97 8d 3e 9e fa b7 3e
       0.01921191 -0.07606959 0.27654392 0.35933393
0000b0 f3 32 f3 bc ff 72 10 3d 0b ef a1 be 87 00 91 be
       -0.02968738 0.03526592 -0.31627688 -0.28320715
0000c0 46 85 00 3f 71 73 4e 3c 6c 20 1d 3f e5 00 82 3e
       0.5020336 0.012600766 0.61377597 0.25391307
0000d0 3f 7f ad 3e 6f 0d 2f 3d 7c d9 2c 3e a9 d4 8c 3e
       0.33886144 0.04273742 0.16879839 0.27505997
0000e0 66 38 d0 3e bb 43 f8 3c 38 c3 92 be 93 f7 43 3e
       0.4066803 0.030305734 -0.28664565 0.19137411
0000f0 06 24 01 3d 0e 67 ac 3e 5b 93 ac 3e ed 89 04 3f
       0.031528495 0.33672374 0.33706173 0.5177296
000100 7e 4a e6 3e 63 a1 cb 3d 29 b6 b8 3d e8 86 9b bd
       0.44978708 0.099428914 0.09019119 -0.07594091
000110 3a 6c 78 3f 81 f8 3c be 1d 58 3b be 2e db ab 3e
       0.9704014 -0.18454172 -0.18295331 0.33565658
000120 2d b7 c1 bd fe 7d d4 3e 20 c9 48 bf 96 e5 5a 3e
       -0.09458766 0.41502374 -0.7843189 0.21376643
000130 a9 86 a9 bc 0b aa 74 3d 7e 5a 99 be 79 18 f3 bd
       -0.020694094 0.059732478 -0.29951853 -0.11869902
000140 5e b1 04 be 60 04 84 3e f7 47 98 3d 04 2d f7 3b
       -0.12958285 0.25784588 0.07435601 0.007543208
000150 4b 1b 9b 3e f0 75 3f 3e d3 17 07 3e 38 58 95 3e
       0.3029426 0.18697333 0.13192682 0.29168868
000160 6f d7 9c 3e ea 16 50 3e 19 68 f0 bd 07 f6 51 be
       0.30633113 0.20321241 -0.11738605 -0.20504008
000170 23 79 2f 3e c2 69 d1 be 02 81 2d be 1c 8b d0 3e
       0.17136054 -0.40901 -0.16943744 0.40731132
000180 7e d5 08 3d 1f 1d c0 3c f0 e0 1c 3e a9 a9 d7 3b
       0.033406727 0.023451386 0.15320182 0.0065815044
000190 1e 9d bc be bf dc c8 3e ca 1f 49 3f e6 ef 9c be
       -0.3683862 0.39230916 0.7856413 -0.30651778
0001a0 1b 27 0f 3e 4d a8 c1 3e 4c e8 f1 3c eb f8 42 3d
       0.13979761 0.37823716 0.029529713 0.047600668
0001b0 23 45 62 be f0 69 a7 bd 4f d5 63 be 88 17 08 3f
       -0.22096686 -0.08174503 -0.2224934 0.53160906
0001c0 ec 09 af 3e 45 4f bd bd d2 f9 29 3d af 78 b2 3d
       0.34187257 -0.09243635 0.041498013 0.08714425
0001d0 9b 5d e2 be e1 1c 12 3e 19 32 1a 3e f8 37 8f bd
       -0.4421204 0.14268829 0.15058173 -0.06993097
0001e0 e1 70 70 be 01 45 24 3e 69 e0 40 be 7e 86 4f bb
       -0.2348056 0.16041948 -0.18835606 -0.0031665857
0001f0 70 9f 21 3e 3d 30 d3 3d b0 21 b9 3d 4a 4b 7d 3e
       0.15783477 0.10311935 0.090396285 0.24735752
000200 ab e8 1c bd ac d0 15 be 43 f3 b7 3e 77 87 92 be
       -0.038307827 -0.14630383 0.3592778 -0.28618976
000210 99 e3 5c be 1a 85 93 3e 95 95 a1 3e 97 47 49 bd
       -0.21571197 0.28812486 0.31559435 -0.04914054
000220 e3 46 e3 3e 56 2f fc 3c 26 9c 63 3e b9 b8 a9 3e
       0.4439002 0.03078429 0.22227535 0.33148745
000230 a1 7b eb 3e ee 95 0f 3e 57 33 42 be bd 8b 0a 3f
       0.4599276 0.14022037 -0.18964897 0.54119474
000240 68 35 e3 3e 27 05 8e 3e c5 e8 44 bd 59 f6 3a be
       0.44376683 0.27738306 -0.04807355 -0.18258037
000250 4c de 65 bd d4 55 96 3e 62 87 75 be 52 ca cb be
       -0.056120202 0.29362357 -0.23977426 -0.39802796
000260 48 74 3a 3e 1d 45 d5 bd 67 38 30 3d 96 d9 45 3d
       0.1820842 -0.10413573 0.04302254 0.04830321
000270 07 90 48 3e 04 89 dd be dc 78 e6 be c5 52 c6 3e
       0.19586192 -0.43268597 -0.45014083 0.38735023
000280 5f e9 4a 3f 0c 52 b0 3c 87 d9 04 3f cb b6 0a bd
       0.79262346 0.021523498 0.5189442 -0.03386573
000290 1e 5a 4e be 94 71 b6 3e e2 2c 80 be ef af 77 3e
       -0.20151564 0.35633528 -0.25034243 0.24188207
0002a0 fd e5 e7 bd ad 97 6d 3d 01 cf 21 3f 8e 42 22 bf
       -0.11323164 0.058005977 0.6320649 -0.63382804
0002b0 3a a0 d1 be 1b 2f b9 3e 54 00 f3 3d 9e bb 82 3e
       -0.40942556 0.3616875 0.11865297 0.25533766
0002c0 00 e6 fa 3e c6 96 41 3e f9 de 06 bf 37 6d 33 bd
       0.490036 0.18905172 -0.5268398 -0.043805327
0002d0 34 25 ea 3d ff b4 ea 3e dc 12 2a 3e f0 9a ef 3e
       0.11432877 0.45841214 0.16608757 0.46797895
0002e0 60 da fa 3b 43 b8 41 3d 51 b1 5e 3e 59 79 12 3d
       0.007655427 0.047294866 0.21747328 0.035760257
0002f0 be 87 67 3e 0c 49 00 3b 2a 4c 17 3f 22 61 b9 bd
       0.22610375 0.001957479 0.5910059 -0.0905173
000300 ab bf 85 be a8 1f c3 3d 1c 31 b6 3d 0f 24 2c 3d
       -0.26122794 0.09527522 0.088960856 0.042026576
000310 e4 fb 31 bf 44 a9 71 3d 59 e3 e3 3e a0 82 25 3f
       -0.6952498 0.058999315 0.4450939 0.6465244
000320 ef b1 28 be df b8 3e be df f7 86 be 90 0b 96 3e
       -0.16474126 -0.1862521 -0.26360986 0.29305696
000330 9e a2 12 3e 97 b1 94 3d 29 50 5a be 1d d8 a5 3e
       0.14319846 0.07260435 -0.21319641 0.32391444
000340 71 62 b6 3e 72 c6 45 be a1 47 4b be 40 c9 c4 bd
       0.3562198 -0.19313982 -0.19851543 -0.09608698
000350 fd 81 4a be 40 4a 0e 3e 37 8a da 3d a7 ed c8 3d
       -0.19776149 0.13895512 0.10670894 0.098109536
000360 d6 f7 16 3d 9d 67 ce be 9d 1e 1b 3f fb fb f9 3e
       0.03685745 -0.40313426 0.6059359 0.48825058
000370 7e aa 89 3d 45 74 c4 be 0c 7d 54 bd 82 22 a9 bd
       0.06721972 -0.38369957 -0.051877066 -0.08258535
000380 8d 0c e4 3e 84 93 86 3f 33 41 ce be b9 bb fc 3d
       0.44540825 1.0513768 -0.40284118 0.12340493
000390 bf 1f 5a bd f2 68 0f 3e e8 86 83 be a1 a4 94 bd
       -0.05325293 0.14004877 -0.25688863 -0.07257963
0003a0 43 69 ab be d5 7d 7f 3d 7d ac e9 3d 25 3c 35 be
       -0.33478746 0.062375862 0.11409853 -0.17698725
0003b0 80 74 20 3d b4 3a 2c 3d 7a e7 df 3e 4e 9b 45 be
       0.039173603 0.04204817 0.4373129 -0.19297525
0003c0 73 1e 50 3e 24 9d 04 be 57 5f 23 3e 42 80 db 3e
       0.20324115 -0.1295057 0.15954338 0.4287129
0003d0 1a c1 01 be d7 e2 03 be ef 54 44 be a2 32 43 3f
       -0.12671319 -0.12879501 -0.19173025 0.76249135
0003e0 d8 ca 97 3e 83 bf fa 3c 88 f3 1b 3a 80 72 21 3f
       0.29646945 0.030608898 0.000594907 0.6306534
0003f0 bc 1d f6 3d ef b7 d5 bc 08 6b 93 be 3f df 72 be
       0.1201739 -0.026088683 -0.28792596 -0.23717974
