logs/classifier/30_contexts/fold_04/10-19-2022_09-19-07/model_params.pth (torch, 821283 bytes, 10 tensors)

feature.weight_ih_l0 f4 [512, 64]
0	0xbe87b822	-0.2650767
1	0xb9d1f427	-0.00040045494
2	0x3f63c10a	0.8896643
3	0xbcf7990c	-0.030224346
4	0xbed8fe9e	-0.42381757
5	0xbfa943b4	-1.3223786
6	0x3f0686c8	0.5254941
7	0xbec65f5a	-0.38744622
8	0x3e3049f4	0.17215711
9	0x3eb58acc	0.35457456
10	0x3ef17dd4	0.47166312
11	0xbe36dbbf	-0.17857264
12	0xbf08470d	-0.53233415
13	0xbf392d72	-0.7233497
14	0x3dea355c	0.11435959
15	0xbd116ede	-0.03550612
16	0x3f848063	1.035168
17	0x3f35dd0e	0.7104043
18	0xbf84b5ea	-1.0368016
19	0x3e0e8154	0.13916522
20	0x3e69cdf7	0.22832476
21	0x3f49253f	0.7857246
22	0xbf7e4554	-0.99324536
23	0xbd9fc61d	-0.07801459
24	0xbda95f52	-0.08270134
25	0x3eecbd42	0.46238142
26	0xbf5e162f	-0.867526
27	0xbd0152cb	-0.0315731
28	0x3f837b4a	1.0272
29	0x3ed8d9d1	0.4235368
30	0x3b978e93	0.0046251505
31	0x3d9a5823	0.07536342
32	0xbd8eb0cb	-0.06967314
33	0xbe7a1eed	-0.2442586
34	0x3e411cc2	0.18858626
35	0xbd1ba929	-0.03800312
36	0x3e82c0de	0.2553777
37	0x3f1e0b9f	0.6173648
38	0xbce0885a	-0.027408767
39	0xbf2590e2	-0.646742
40	0x3e18b898	0.14914167
41	0xbf686696	-0.90781534
42	0xbded2cef	-0.11580836
43	0xbf54363c	-0.82895255
44	0xbf344ae7	-0.7042679
45	0x3e407028	0.18792784
46	0x3f2e8334	0.6816895
47	0xbe50b92c	-0.20383137
48	0xbf73bef7	-0.95213264
49	0x3f9394d0	1.1529789
50	0x3f50ba49	0.8153425
51	0xbeb1cb7f	-0.34725568
52	0xbee6a61e	-0.45048612
53	0x3dbf3df3	0.09337988
54	0x3d28cedc	0.0412129
55	0x3f55324a	0.8327986
56	0x3e70dd44	0.23521906
57	0xbf4a9d7d	-0.7914656
58	0x3f57e110	0.84327793
59	0x3d579268	0.05262986
60	0xbe8709cb	-0.2637466
61	0xbdf8015d	-0.12109635
62	0xbf5e94bb	-0.86945695
63	0x3dbe494c	0.09291324
64	0xbf4682eb	-0.77543515
65	0x3e051480	0.12996101
66	0xbf02d201	-0.5110169
67	0x3f06b23d	0.5261572
68	0x3cca7d5d	0.024717981
69	0x3e2e6fe0	0.17034864
70	0x3e525214	0.20539123
71	0xbe83b635	-0.2572495
72	0x3e2f6312	0.17127636
73	0x3f74adf4	0.9557793
74	0xbd85aeb7	-0.06527465
75	0x3f154fc2	0.58324826
76	0xbf58698a	-0.8453604
77	0xbf55fe10	-0.83590794
78	0xbf8c45a3	-1.0958751
79	0x3f2e0dfa	0.67990077
80	0xbdcc5809	-0.09977729
81	0xbee5deb7	-0.4489648
82	0xbf631013	-0.886964
83	0x3fab053f	1.3360976
84	0x3f694103	0.91114825
85	0xbefc01cd	-0.49220124
86	0xbf6de129	-0.9292169
87	0x3fbcfa05	1.47638
88	0x3f57eb05	0.84342986
89	0x3eb13cb9	0.3461664
90	0x3f2c0e61	0.6720944
91	0xbf4a0258	-0.78909826
92	0x3dd043fd	0.10169218
93	0xbf2c58e8	-0.6732316
94	0xbf6849e0	-0.90737724
95	0xbe8b56db	-0.27214703
96	0xbe2e266f	-0.17006849
97	0x3f9ee4bc	1.2413554
98	0x3f3822a7	0.71927875
99	0xbe56e215	-0.20984681
100	0x3efe4794	0.49663985
101	0xbe12a312	-0.14320019
102	0xbe154ebd	-0.14580818
103	0xbdf6ef91	-0.120574124
104	0x3e24b678	0.16085231
105	0xbd95a2d4	-0.073064476
106	0x3f6612bb	0.8987233
107	0x3ef48e02	0.47764593
108	0xbf888b3b	-1.066749
109	0xbe672d45	-0.22575863
110	0xbf4be3a1	-0.7964421
111	0x3f7fe137	0.99953026
112	0xbe36906e	-0.17828533
113	0x3f3cb6a0	0.73716164
114	0x3e90719b	0.28211674
115	0xbeafa515	-0.34305635
116	0xbd389890	-0.04506737
117	0xbf19c34f	-0.6006364
118	0x3e1b119a	0.15143433
119	0x3ed0feb0	0.4081931
120	0x3d949957	0.0725581
121	0xbe88833d	-0.26662627
122	0xbec951b4	-0.39320147
123	0xbde57721	-0.11204363
124	0x3ee78a8e	0.45222896
125	0xbdde89ca	-0.10866125
126	0x3ea94462	0.33059984
127	0x3d273b8c	0.040828273
128	0xbf6ac225	-0.9170249
129	0xbdf7687b	-0.12080475
130	0xbe805368	-0.25063634
131	0x3f4885ad	0.78328973
132	0x3f5b4226	0.8564781
133	0xbe0b46e0	-0.13601255
134	0xbf312e93	-0.6921169
135	0x3eef374f	0.46721885
136	0x3de49fc8	0.11163288
137	0x3ef3373e	0.47503084
138	0x3fa3f1e5	1.2808195
139	0xbeddc69e	-0.43315595
140	0x3d2e1e9c	0.04250966
141	0xbfa95418	-1.3228788
142	0xbe12d0c5	-0.14337452
143	0xbd39da84	-0.04537441
144	0xbe1feb02	-0.15616992
145	0x3e2f1f95	0.17101891
146	0x3e867e34	0.2626816
147	0xbe357315	-0.17719682
148	0xbf73faba	-0.95304453
149	0x3fa48cdb	1.2855486
150	0xbf4e00e0	-0.80470085
151	0x3f83064e	1.0236299
152	0x3efd84ad	0.49515286
153	0xbcc55ae0	-0.024091184
154	0xbdd2cb67	-0.10292702
155	0xbf21052a	-0.62898505
156	0x3e826e32	0.25474697
157	0x3e41d1a5	0.1892763
158	0xbeb93fb3	-0.3618141
159	0xbf63d0de	-0.8899058
160	0x3e533582	0.2062588
161	0xbee4cd53	-0.446879
162	0xbfd2807d	-1.6445462
163	0xbeb6ac76	-0.35678452
164	0xbdde3eda	-0.10851832
165	0x3f3d3cb9	0.7392078
166	0x3e9eacce	0.30991215
167	0xbde58cdf	-0.1120851
168	0x3e930cf6	0.28720826
169	0x3e6abf27	0.22924481
170	0xbfc2a2a9	-1.520589
171	0xbf23e12e	-0.6401547
172	0xbf3d0aa3	-0.73844355
173	0xbf8dccd1	-1.107813
174	0x3e0cbfb5	0.13745005
175	0x3ebc4405	0.36770645
176	0x3e4a7d85	0.19774444
177	0xbf37f0de	-0.7185191
178	0x3f972361	1.1807672
179	0xbf91423e	-1.134834
180	0xbf11ae03	-0.56906146
181	0xbef50cad	-0.47861233
182	0xbfad7e9a	-1.3554261
183	0xbf33beff	-0.7021331
184	0xbe5f9714	-0.21834975
185	0xbf1c1e60	-0.6098385
186	0x3eb0c1f2	0.3452297
187	0xbeb2205b	-0.3479031
188	0xbe301bc1	-0.17198087
189	0xbe141e39	-0.14464654
190	0xbec5dc9f	-0.38644883
191	0xbf3648c4	-0.7120478
192	0xbfb615e0	-1.4225426
193	0x3e7f6cbc	0.24943823
194	0xbf3c63ae	-0.735896
195	0xbf3405b1	-0.70321184
196	0x3f9c0c24	1.2191205
197	0x3e8c9baf	0.27462527
198	0xbe859cd3	-0.2609621
199	0xbf882c35	-1.0638491
200	0x3ff35c2e	1.9012506
201	0x3f8dad92	1.1068594
202	0xbf43772a	-0.76353705
203	0xbea5f7df	-0.32415673
204	0x3d376165	0.044770617
205	0xbf79919f	-0.97487825
206	0xbeac6cd7	-0.33676788
207	0xbf080aa5	-0.5314124
208	0x3f3ec557	0.74519867
209	0xbf2b670c	-0.6695411
210	0x3f57f789	0.84362084
211	0xbecb370b	-0.39690432
212	0xbf2d5139	-0.6770206
213	0x3d1807d0	0.037116826
214	0x3f4b38c3	0.79383487
215	0xbf8b5980	-1.0886688
216	0x3deca995	0.11555783
217	0x3f1f18b6	0.6214708
218	0xbf04ce95	-0.5187772
219	0x3f05cae3	0.52262706
220	0xbf870795	-1.0549189
221	0x3ef11487	0.47085974
222	0x3fa986f3	1.3244308
223	0xbfbe6b7b	-1.487655
224	0xbeeed5c5	-0.46647468
225	0x3f24dfdc	0.6440408
226	0xbe63e596	-0.22255549
227	0xbc52f04a	-0.012874672
228	0xbee32170	-0.44361448
229	0xbef1ed35	-0.47251287
230	0xbe3aaea1	-0.18230678
231	0xbeba6c36	-0.36410683
232	0xbe5bb2cc	-0.21454924
233	0x3f412f92	0.7546321
234	0xbf1fd56c	-0.6243503
235	0x3f815200	1.010315
236	0x3feefe2b	1.8671316
237	0x3e8b9b02	0.272667
238	0xbf8ad7b5	-1.0847079
239	0x3fc1148e	1.5084398
240	0xbf8a11b3	-1.0786651
241	0xbefa0ecc	-0.48839414
242	0x3f74c2f5	0.9560998
243	0x3e7d6a0e	0.24747488
244	0x3ec88ac5	0.39168373
245	0xbfa0d4d5	-1.2564951
246	0xbe5f3ce0	-0.21800566
247	0x3ed34105	0.41260543
248	0x3f6c276a	0.9224764
249	0xbef39cf7	-0.47580692
250	0xbf44604d	-0.76709443
251	0xbf1b26b3	-0.60605925
252	0xbf65af70	-0.8972082
253	0xbed2c034	-0.41162264
254	0xbcb50982	-0.02209926
255	0xbee7942e	-0.4523024

feature.weight_hh_l0 f4 [512, 128]
0	0x3f2de8d2	0.6793338
1	0x3ee74192	0.45167214
2	0xbea046e1	-0.31304076
3	0xbdddc415	-0.10828415
4	0xbef3cb5f	-0.47616097
5	0xbe22e3d9	-0.1590723
6	0xbee6ee79	-0.45103815
7	0xbe4cda87	-0.20005237
8	0xbf4acf50	-0.79222584
9	0xbec4f28d	-0.38466302
10	0xbd5b13d2	-0.0534857
11	0x3e2a6127	0.16638623
12	0xbf082e93	-0.53196067
13	0xbdb3b62b	-0.0877498
14	0xbe7f49e9	-0.24930538
15	0x3e505960	0.20346594
16	0xbee9d163	-0.45667562
17	0xbf29681f	-0.661745
18	0xbea7146b	-0.32632765
19	0xbf245d07	-0.6420445
20	0x3f049d30	0.5180235
21	0x3d2cd12e	0.042191677
22	0x3ea3564d	0.3190178
23	0xbdafddfa	-0.085872605
24	0xbf02c4c9	-0.5108152
25	0xbe46367f	-0.19356726
26	0xbf4190d1	-0.756116
27	0x3d4030c6	0.046921514
28	0xbe30f795	-0.17281945
29	0xbf37b96f	-0.71767324
30	0x3eb5ca91	0.35506108
31	0xbf26bffa	-0.65136683
32	0x3eec6062	0.46167284
33	0xbf539ff0	-0.8266592
34	0xbe85a86a	-0.26105052
35	0x3eec8bee	0.46200508
36	0xbe33cc13	-0.17558317
37	0xbf27d3e5	-0.655577
38	0x3e40187e	0.18759343
39	0xbe90d099	-0.28284147
40	0x3e2af939	0.16696633
41	0x3f2edc97	0.68305343
42	0x3f2be241	0.6714211
43	0x3f0bfc4f	0.5468187
44	0x3dcbf482	0.099587455
45	0xbed9f806	-0.4257204
46	0xbe8169fd	-0.25276175
47	0x3e4df3c1	0.20112516
48	0xbca4379c	-0.020046048
49	0x3fcbee23	1.5932049
50	0x3f4723dd	0.777891
51	0x3e887cb4	0.2665764
52	0xbef3180e	-0.4747929
53	0x3e86904c	0.26281965
54	0x3e911c15	0.28341737
55	0x3ee26e8a	0.4422496
56	0x3e25601b	0.16149943
57	0x3e694368	0.2277962
58	0x3d1593cb	0.0365179
59	0x3f6ad56f	0.91731924
60	0x3f079680	0.5296402
61	0xbf6824ab	-0.9068095
62	0x3e6add4a	0.22935978
63	0x3ec086a1	0.37602714
64	0xbf0443e7	-0.5166611
65	0x3e62d0f4	0.22150022
66	0xbf0ca885	-0.5494464
67	0xbeceef38	-0.40416884
68	0xbdea9b13	-0.11455359
69	0xbeb94239	-0.36183336
70	0xbe12909d	-0.14312978
71	0x3ec55929	0.38544586
72	0xbe28621b	-0.16443674
73	0x3e08539f	0.13313149
74	0xbf034270	-0.5127325
75	0xbf09d65e	-0.53842723
76	0xbde90562	-0.1137798
77	0x3db89892	0.090134755
78	0x3f31a6b8	0.6939502
79	0xbee2bb26	-0.44283408
80	0x3ec54894	0.38531935
81	0xbee33f60	-0.4438429
82	0x3f14860c	0.5801704
83	0x3e967f2a	0.29393893
84	0xbef748c7	-0.48297712
85	0xbe8481c5	-0.25880256
86	0xbe2d5e2f	-0.1693046
87	0xbfddf1bc	-1.7339396
88	0xbe9bf4bc	-0.30460155
89	0xbeb5b873	-0.35492286
90	0xbf5b8896	-0.8575529
91	0xbf6ce41e	-0.9253558
92	0x3e8b38bb	0.2719172
93	0x3e1840f7	0.14868532
94	0x3ed49e90	0.41527224
95	0xbd2705ed	-0.040777136
96	0xbf1927ff	-0.59826654
97	0x3ed27261	0.4110289
98	0xbedc5ad1	-0.43038037
99	0x3f2d3159	0.67653424
100	0xbe0fb780	-0.14034843
101	0x3ef5fe37	0.48045513
102	0xbeb2dc60	-0.34933758
103	0x3ec6fcac	0.38864648
104	0x3d87432d	0.0660461
105	0xbd8edcb4	-0.069756895
106	0x3da963b1	0.08270968
107	0x3f2d14d7	0.67609924
108	0x3c28730e	0.010281337
109	0xbe6e3127	-0.23260938
110	0xbd933cd5	-0.07189337
111	0xbdc4ea83	-0.09615042
112	0xbf79003c	-0.9726598
113	0xbf591658	-0.8479972
114	0xbf203cc8	-0.62592745
115	0xbe9dc11e	-0.308114
116	0x3f000c11	0.5001841
117	0xbeaec901	-0.3413773
118	0xbe980cc8	-0.2969725
119	0xbd394367	-0.045230296
120	0xbf0cf0bb	-0.55054826
121	0xbec4fe19	-0.3847511
122	0x3f992a1c	1.1965976
123	0xbe1fc336	-0.15601811
124	0x3effe716	0.49980992
125	0x3e9aea39	0.30256823
126	0xbf1ef0ec	-0.6208637
127	0xbdd8d9d1	-0.1058842
128	0xbd672d0b	-0.05643944
129	0xbec1e615	-0.3787085
130	0x3e48ee2c	0.19622105
131	0xbf1c4453	-0.61041754
132	0xbef886d8	-0.48540378
133	0x3ec966be	0.393362
134	0xbe537b81	-0.20652582
135	0xbf0b3ab8	-0.5438647
136	0xbf80016e	-1.0000436
137	0x3ebeaa49	0.37239292
138	0x3eecc672	0.46245152
139	0xbdaebcfe	-0.08532141
140	0xbeea238c	-0.45730245
141	0xbf0c2c5e	-0.547552
142	0xbf3c5ea1	-0.7358189
143	0x3f0f208b	0.5590903
144	0xbf4d1d2f	-0.80122656
145	0x3e6e3e00	0.23265839
146	0x3d0e05e6	0.034673594
147	0x3ea36ba2	0.31918055
148	0xbe8f4af5	-0.27986875
149	0x3edf3efb	0.43602738
150	0xbc6c8695	-0.014436384
151	0xbed4efde	-0.41589254
152	0x3f861b76	1.047713
153	0xbd3fdeb0	-0.04684323
154	0xbe5c84f1	-0.21535088
155	0x3f30b5bb	0.690273
156	0x3fab6a3a	1.3391793
157	0x3de67183	0.112521194
158	0xbf8ab334	-1.0835938
159	0x3da13167	0.07870751
160	0x3eef953e	0.4679355
161	0xbde78457	-0.11304539
162	0x3e206098	0.15661848
163	0x3f04ec28	0.51922846
164	0xbe5ca451	-0.21547057
165	0xbedc71d0	-0.43055582
166	0x3ccd9bed	0.025098765
167	0x3ee4b641	0.446703
168	0x3ec7a21a	0.3899086
169	0x3f0a1a2c	0.53946185
170	0x3f3b51f9	0.73171955
171	0x3f2a445e	0.6651057
172	0xbe5b42d7	-0.21412216
173	0xbef6f18a	-0.48231155
174	0x3f415121	0.7551442
175	0x3ea38a91	0.31941655
176	0x3f28dc51	0.65961176
177	0x3e9e8595	0.3096129
178	0xbe85a8d3	-0.26105365
179	0xbe49577c	-0.19662279
180	0xbdeb0273	-0.114750765
181	0x3f0a0f83	0.5392992
182	0xbea23686	-0.31682223
183	0x3d0352e7	0.032061484
184	0x3e4f7f6b	0.2026345
185	0xbf826aea	-1.0188878
186	0x3e586aa5	0.21134432
187	0x3f258cc2	0.64667904
188	0xbeda75bd	-0.42667952
189	0xbe38a2cb	-0.1803085
190	0x3f2632ac	0.6492107
191	0x3ef83070	0.48474455
192	0xbf419676	-0.7562021
193	0x3f374f1b	0.7160508
194	0x3ec26728	0.37969327
195	0x3f0b3a80	0.5438614
196	0xbe515e99	-0.20446242
197	0x3f441c98	0.7660613
198	0x3f86ae4b	1.052194
199	0x3e8eb967	0.27875826
200	0xbf40b486	-0.75275457
201	0x3dd58b19	0.104269214
202	0x3d4f8da1	0.050672177
203	0x3e916ec3	0.28404817
204	0x3faad7df	1.3347129
205	0x3ce2df39	0.027694331
206	0x3df2a6cf	0.118482225
207	0x3e18e805	0.14932258
208	0x3d356847	0.0442889
209	0x3ea7593d	0.3268527
210	0xbf1ea760	-0.61974144
211	0x3f2a1292	0.66434586
212	0x3e5c5bec	0.2151944
213	0x3d3f98d7	0.04677662
214	0x3ea4380a	0.32074004
215	0x3f22c1c8	0.63576937
216	0xbf44e591	-0.7691279
217	0xbe924d72	-0.2857471
218	0xbf518d57	-0.8185629
219	0xbe0aa7d9	-0.13540591
220	0x3f2a512e	0.6653012
221	0x3ed31518	0.4122703
222	0xbdc57e54	-0.09643236
223	0x3eaf7f61	0.3427687
224	0xbe941e86	-0.28929538
225	0xbf999f23	-1.200169
226	0x3f1413f1	0.5784293
227	0xbeb3b7e5	-0.35101238
228	0x3f48ed6a	0.78487265
229	0x3f81042d	1.0079399
230	0x3f1b421b	0.60647744
231	0x3e38b32a	0.18037096
232	0xbdee38ce	-0.116319284
233	0xbea4a6f0	-0.32158613
234	0xbf2fad7e	-0.68624103
235	0xbe863131	-0.26209405
236	0xbec702b6	-0.38869256
237	0xbec8249c	-0.3909043
238	0x3fcee9d3	1.6165107
239	0xbf1cd3ae	-0.612605
240	0x3ed2bd7e	0.41160196
241	0xbebdcd23	-0.3707057
242	0xbe2fcd0d	-0.17168064
243	0xbf7aabd2	-0.97918427
244	0x3f85696b	1.0422796
245	0x3f205cef	0.62641805
246	0x3f059aae	0.5218915
247	0x3dccc53b	0.09998556
248	0x3f20c457	0.6279959
249	0x3eeb3834	0.45941317
250	0xbe928ffe	-0.28625482
251	0xbf06b8cd	-0.52625734
252	0x3f1861f9	0.59524494
253	0xbd800759	-0.062514015
254	0xbe06c0cc	-0.13159484
255	0x3f34ba3f	0.7059669

feature.bias_ih_l0 f4 [512]
0	0x3dbd0c98	0.09230918
1	0x3f5d9dba	0.86568797
2	0x3e6d49b4	0.23172647
3	0x3e105dd7	0.14098297
4	0x3e467906	0.19382104
5	0x3ed49ddb	0.41526684
6	0x3cd67c9e	0.026182469
7	0xbdbd2699	-0.092358775
8	0xbd925ec9	-0.07146985
9	0xbe1615f6	-0.14656815
10	0x3daec259	0.085331626
11	0x3e9b5c08	0.30343652
12	0x3f532952	0.82484925
13	0xbee6fb8c	-0.4511379
14	0x3e55be63	0.20873408
15	0xbee03b22	-0.43795115
16	0xbc82eea8	-0.01598294
17	0xbe834b11	-0.2564321
18	0xbeb4a5a0	-0.35282612
19	0x3ec477d7	0.3837268
20	0xbe137d93	-0.14403372
21	0xbe0289b7	-0.12747847
22	0x3ec78b79	0.38973597
23	0xbe5b56a5	-0.21419771
24	0x3e02faba	0.12790957
25	0x3e3d5536	0.18489537
26	0x3e2e09d5	0.16995938
27	0x3e3a3176	0.1818293
28	0xbe9a265b	-0.30107388
29	0x3e9c2e82	0.30504233
30	0xbeb7561b	-0.3580788
31	0x3d264ef4	0.04060264
32	0xbee18da5	-0.4405338
33	0xbe981d42	-0.29709822
34	0x3e1a2fa3	0.15057234
35	0xbe461617	-0.19344364
36	0x3f27034c	0.65239406
37	0xbc74ba1b	-0.014936949
38	0x3fa5704f	1.2924899
39	0x3e302446	0.17201337
40	0x3eb235b3	0.34806594
41	0x3ee35f6d	0.44408742
42	0xbdea66b5	-0.11445371
43	0x3eb9c9e5	0.36286846
44	0x3ee664a3	0.44998655
45	0x3d76bbbd	0.060237635
46	0x3f2b975f	0.6702785
47	0xbdab3a90	-0.08360779
48	0xbe8c2e1d	-0.27378932
49	0xbdfbbc8f	-0.12291824
50	0x3f36e47d	0.71442395
51	0x3b353a96	0.0027653328
52	0x3f87d064	1.0610471
53	0x3e6f45ac	0.23366421
54	0x3eb95675	0.36198774
55	0xbe7f30d2	-0.24920967
56	0x3ef9c709	0.48784664
57	0xba0db7d0	-0.00054061133
58	0xbdb50d50	-0.0884043
59	0x3e0ee8f3	0.1395605
60	0x3e7e744e	0.24849054
61	0x3f42b01a	0.7604996
62	0xbe608bdf	-0.21928357
63	0x3e37d85e	0.17953631
64	0x3e7a3256	0.24433264
65	0xbe435879	-0.19076718
66	0xbd65d215	-0.056108553
67	0x3e690fa3	0.22759871
68	0xbd9391cb	-0.07205542
69	0x3f127ef9	0.57224995
70	0x3de57dad	0.112056114
71	0x3ec939b1	0.39301828
72	0x3f233124	0.6374686
73	0xbd93afa7	-0.072112374
74	0xbe119d36	-0.14220127
75	0x3c9974da	0.018732477
76	0x3e64de5b	0.22350447
77	0x3f1e6d83	0.6188585
78	0x3f0f15fc	0.5589292
79	0x3f5f84be	0.87311924
80	0x3f862dae	1.048269
81	0xbe4aaaba	-0.1979169
82	0xbe6c540c	-0.23078936
83	0x3f038f5e	0.51390636
84	0x3e4c8ad3	0.19974832
85	0xbe4db3ac	-0.2008807
86	0x3eb88ed6	0.36046475
87	0x3e250e70	0.16118789
88	0x3defbd9b	0.11706086
89	0x3ebdbc55	0.37057748
90	0xbdb0ac58	-0.08626622
91	0x3c4aac41	0.01237017
92	0xbe24165d	-0.16024156
93	0x3f16514b	0.58717793
94	0x3cd69a8a	0.026196737
95	0xbe1616a9	-0.14657082
96	0x3f1ccc77	0.6124949
97	0x3d43a1f7	0.047761884
98	0xbdda3509	-0.10654647
99	0x3f2eacf4	0.68232656
100	0x3e54fad2	0.20798805
101	0xbd7f45e7	-0.062322523
102	0x3b82db80	0.0039934516
103	0xbe41c934	-0.18924409
104	0xbe50d41c	-0.20393413
105	0x3eba46a2	0.36382014
106	0x3f699b8c	0.9125297
107	0x3d0cd5cf	0.03438359
108	0x3de7c3ca	0.11316641
109	0xbe1d4f47	-0.15362273
110	0xbd5cde11	-0.053922717
111	0xbdc4e70b	-0.096143804
112	0x3f10de25	0.56588966
113	0xbe1e1219	-0.15436591
114	0xbdf2fb20	-0.118643045
115	0xbcd1c165	-0.025604913
116	0xbea15f84	-0.31518185
117	0x3ddf61a6	0.10907297
118	0x3e94de48	0.29075837
119	0xbcd08613	-0.025454557
120	0x3f295acb	0.66154164
121	0xbe496d5e	-0.19670627
122	0x3e9d0097	0.30664513
123	0xbd849572	-0.06473817
124	0xbe1dc31a	-0.15406457
125	0x3dc389a5	0.09547738
126	0xbeccf643	-0.40031633
127	0x3dbbece7	0.09176045
128	0xbecdd81f	-0.4020395
129	0xbed86432	-0.42263943
130	0x3c3dd9b0	0.011587545
131	0xbe247cff	-0.16063307
132	0xbd29051b	-0.041264635
133	0x3f01bfa3	0.5068304
134	0xbeaa2ea9	-0.33238724
135	0x3e2f4431	0.17115857
136	0xbe0524ab	-0.13002269
137	0x3d94879e	0.072524294
138	0x3dc8c02f	0.09802281
139	0xbf338056	-0.701177
140	0xbf77febc	-0.9687307
141	0x3d010b36	0.031504832
142	0x3c05da85	0.008169775
143	0x3d68ceaa	0.056837715
144	0x3e0402ec	0.1289174
145	0xbdb5f7f0	-0.08885181
146	0xbf091d28	-0.53560114
147	0xbeec243b	-0.46121392
148	0xbeae3433	-0.340242
149	0x3da2f752	0.07957329
150	0xbe960890	-0.29303408
151	0xbe10d61c	-0.14144176
152	0xbe5c8752	-0.21535996
153	0xbe369c1c	-0.17832989
154	0xbe4236fe	-0.1896629
155	0xbe8dd7ae	-0.27703613
156	0xbd377896	-0.044792734
157	0xbda6f7f5	-0.08152763
158	0xbdc57ecd	-0.09643326
159	0x3b697441	0.0035622271
160	0xbeb31fc0	-0.3498516
161	0x3ea6ebf3	0.3260189
162	0xbf260a97	-0.6485991
163	0xbf3a0bdf	-0.72674364
164	0xbf02acf1	-0.5104514
165	0xbf201213	-0.6252758
166	0xbe45c614	-0.19313842
167	0xbd657fb0	-0.056029975
168	0xbd451268	-0.048113257
169	0x3d1f86ff	0.0389471
170	0xbe8a9944	-0.27070057
171	0xbeb48cc7	-0.35263655
172	0x3e0965a5	0.1341768
173	0x3e2d909e	0.16949698
174	0xbf13a80f	-0.5767831
175	0xbf0abd46	-0.5419506
176	0xbdc06294	-0.09393802
177	0xbf1b01b3	-0.6054947
178	0xbea65b66	-0.32491606
179	0xbed687b3	-0.41900405
180	0xbf1a9da8	-0.60396814
181	0xbf2da2ef	-0.6782674
182	0xbe8d5a03	-0.27607736
183	0xbe60c66a	-0.21950689
184	0xbe7af13e	-0.24506089
185	0x3e386602	0.18007663
186	0xbe37a02a	-0.17932191
187	0xbe652288	-0.22376454
188	0x3e0a90dc	0.13531822
189	0x3ebb0bb6	0.36532372
190	0xbd336dc4	-0.043805853
191	0xbeae39c1	-0.34028438
192	0xbcb8e693	-0.022570884
193	0xbd43ddff	-0.047819134
194	0xbf08bc3d	-0.5341223
195	0xbe26af6e	-0.16277859
196	0xbe808a91	-0.25105718
197	0xbeaa31f5	-0.3324124
198	0xbe9d663e	-0.30742067
199	0xbe9cd820	-0.3063364
200	0xbf60692e	-0.8766049
201	0xbedc8e1e	-0.43077177
202	0xbe7d70cb	-0.24750058
203	0xbdf3bd9c	-0.119013995
204	0x3f2e75d0	0.6814852
205	0xbe1f54ef	-0.15559743
206	0xbec29d59	-0.38010672
207	0xbeac603c	-0.3366717
208	0xbf1e64ce	-0.61872566
209	0xbd50755c	-0.050893173
210	0xbeebe087	-0.46069738
211	0xbedc09fc	-0.42976367
212	0xbe55674b	-0.20840184
213	0xbe7dbf44	-0.24779993
214	0x3dc92b03	0.09822657
215	0xbf055878	-0.5208812
216	0xbe6d2841	-0.23159887
217	0xbe6395b1	-0.22225071
218	0xbf114a2c	-0.567538
219	0xbe7d58b6	-0.24740872
220	0xbde39ea1	-0.111142404
221	0x3e48f154	0.1962331
222	0xbebd4c49	-0.36972263
223	0xbe94f8dd	-0.29096118
224	0x3d626260	0.0552696
225	0xbe9b3cfa	-0.3031996
226	0xbde8c6dc	-0.113660544
227	0xbeb2cc88	-0.3492167
228	0xbec8e83e	-0.39239687
229	0xbedadddd	-0.42747393
230	0xbed1a0e2	-0.40943056
231	0xbe845597	-0.2584655
232	0x3ea5d62e	0.3238997
233	0xbe67b682	-0.22628215
234	0x3d40f2d3	0.047106575
235	0x3df8cd39	0.12148518
236	0x3deba3cf	0.115058534
237	0xbe7404cd	-0.23829956
238	0x3e8c25d8	0.27372622
239	0xbdde24d6	-0.1084687
240	0x3e0ba844	0.13638407
241	0xbf1b69db	-0.607084
242	0xbe38be6e	-0.18041393
243	0xbd8249a2	-0.063617006
244	0xbe055f7c	-0.13024706
245	0x3d16cdf4	0.036817506
246	0xbe350d50	-0.1768086
247	0xbd106d78	-0.035260648
248	0xbef8e2ea	-0.48610622
249	0xbe893a7a	-0.26802427
250	0xbf024f1d	-0.5090197
251	0xbd9d5e98	-0.07684058
252	0xbdd8d41e	-0.10587333
253	0xbe3f364d	-0.18673058
254	0x3e0cabde	0.13737437
255	0xbea87b14	-0.329064

feature.bias_hh_l0 f4 [512]
0	0x3de05cef	0.10955226
1	0x3f56305a	0.8366753
2	0x3e0c1fe4	0.1368404
3	0x3dfd82f7	0.12378495
4	0x3c15e231	0.0091481665
5	0x3edb67a6	0.42852515
6	0x3cbef741	0.02331126
7	0xbd32c53c	-0.04364513
8	0xbe1d3179	-0.15350904
9	0xbea5007e	-0.32226938
10	0x3d9694fa	0.07352634
11	0x3de65f67	0.11248665
12	0x3f581799	0.8441101
13	0xbe9e561b	-0.30925068
14	0x3e257a50	0.1615994
15	0xbeef43f9	-0.46731547
16	0xbd34cd47	-0.04414108
17	0xbe4cdddc	-0.20006508
18	0xbebb1c8f	-0.36545226
19	0x3ecc1c3e	0.39865297
20	0xbd6c651f	-0.057713624
21	0xbdccc620	-0.09998727
22	0x3ea427a4	0.32061493
23	0xbda7c3b8	-0.08191627
24	0x3d9301c6	0.07178073
25	0x3e09403e	0.13403413
26	0x3e1503c6	0.1455222
27	0x3e25afa1	0.16180278
28	0xbeac59a5	-0.33662143
29	0x3eaa9376	0.3331563
30	0xbec1247c	-0.37723148
31	0xbcdd6899	-0.027027415
32	0xbec6e71f	-0.38848206
33	0xbe789788	-0.24276555
34	0x3e29411d	0.16528745
35	0xbdfc9a2d	-0.12334094
36	0x3f21509b	0.6301362
37	0x3d678b19	0.05652914
38	0x3fab04f1	1.3360883
39	0x3dd0dfef	0.10198962
40	0x3e9fca93	0.3120924
41	0x3ef6f989	0.48237255
42	0xbda232dd	-0.07919858
43	0x3e8b2ded	0.27183476
44	0x3ee2396a	0.44184428
45	0xbd5b99f3	-0.053613614
46	0x3f49ff8d	0.78905565
47	0xbe69c928	-0.22830641
48	0xbe8f4f97	-0.2799041
49	0xbd989c1f	-0.07451653
50	0x3f31a067	0.6938538
51	0x3d2c74b9	0.042103503
52	0x3f91820d	1.1367813
53	0x3edbd2df	0.4293432
54	0x3eb68ed3	0.3565584
55	0xbe3b5d8c	-0.18297404
56	0x3e98e20b	0.29859957
57	0xbba55ce1	-0.0050464724
58	0xbd89d68d	-0.067303754
59	0x3e0b6e5f	0.13616322
60	0x3e2ad738	0.16683662
61	0x3f6c6aa4	0.9235022
62	0xbe68f14d	-0.22748299
63	0x3e428f4e	0.18999979
64	0x3d9de456	0.07709567
65	0xbea747d6	-0.32671994
66	0xbd0b2867	-0.033974078
67	0x3e779ca7	0.24180852
68	0x3c885a66	0.016644668
69	0x3f3b0274	0.7305062
70	0x3c26669b	0.010156299
71	0x3ec5dc56	0.38644665
72	0x3ef5686b	0.47931227
73	0xbcecef6d	-0.02892276
74	0xbe5d9cb8	-0.21641815
75	0xbd087675	-0.033316094
76	0x3e89a380	0.26882553
77	0x3f124df0	0.57150173
78	0x3ece7b52	0.4032846
79	0x3f61ccce	0.8820313
80	0x3f80e3eb	1.0069555
81	0xbdd58ae3	-0.10426881
82	0xbe7b43cc	-0.24537581
83	0x3f0fb39c	0.5613344
84	0x3ea243e6	0.31692427
85	0xbddd44c2	-0.1080413
86	0x3ecfd7c3	0.405943
87	0x3e8a203c	0.26977718
88	0x3e01a8f1	0.12662102
89	0x3eb83517	0.35978004
90	0x3c123fd2	0.008926349
91	0xbd479d93	-0.04873426
92	0xbe6624d7	-0.22474991
93	0x3efe803e	0.49707216
94	0xbcda1c07	-0.026624693
95	0xbe0638ac	-0.13107556
96	0x3ef468e7	0.47736284
97	0x3d6b7bb0	0.057491004
98	0xbe4af4db	-0.19819967
99	0x3f72277d	0.94591504
100	0x3dc31806	0.095260665
101	0x3cb5c410	0.022188216
102	0x3d7da649	0.06192616
103	0xbe805105	-0.25061813
104	0xbd8b9faa	-0.06817563
105	0x3eca40d4	0.39502585
106	0x3f38baec	0.7216022
107	0x3e015ad3	0.12632303
108	0x3e536854	0.20645267
109	0xbe22179b	-0.15829317
110	0x3de2645e	0.110543
111	0x3da3064a	0.07960184
112	0x3ed0c11d	0.40772334
113	0xbe88658e	-0.2663998
114	0xbe009fc9	-0.12560953
115	0xbd127c30	-0.035762966
116	0xbe953d59	-0.29148367
117	0x3de92e78	0.11385816
118	0x3ebef232	0.37294155
119	0xbd09e1a0	-0.03366244
120	0x3f71a843	0.9439737
121	0xbea880c0	-0.32910728
122	0x3e231588	0.15926182
123	0x3d20d5c5	0.039266367
124	0xbe3f9507	-0.18709193
125	0x3defb3fc	0.11704251
126	0xbeb80ec6	-0.3594877
127	0x3ba36913	0.004986891
128	0xbec1532d	-0.3775877
129	0xbecd4df9	-0.4009855
130	0x3aa193d4	0.0012327381
131	0xbee23e6e	-0.44188255
132	0xbd2479e4	-0.040155306
133	0x3f1f7dba	0.6230122
134	0xbeb49db5	-0.3527657
135	0x3e868575	0.26273695
136	0xbd83e0bb	-0.06439348
137	0x3dc0dc52	0.09417023
138	0x3e5c38d3	0.21506052
139	0xbf0e9d60	-0.55708885
140	0xbf55176a	-0.8323885
141	0x3d673f7a	0.05645702
142	0x3e0c297f	0.13687705
143	0x3cdfa5ab	0.027300676
144	0x3e5a1b5c	0.212995
145	0xbd4341f4	-0.04767032
146	0xbf214c79	-0.63007313
147	0xbf014d31	-0.5050841
148	0xbe9884d6	-0.29788846
149	0x3db2f7b8	0.08738655
150	0xbec816d1	-0.39079908
151	0xbe0bd2ab	-0.13654582
152	0xbd20111d	-0.03907882
153	0xbe356ef8	-0.17718112
154	0xbe5e524f	-0.21711086
155	0xbe403219	-0.1876911
156	0xbdb6d14d	-0.0892664
157	0xbde6d04a	-0.11270197
158	0x3dadc395	0.0848457
159	0xbd443c42	-0.04790903
160	0xbeb88207	-0.36036703
161	0x3ee6f748	0.45110536
162	0xbf0995a8	-0.5374398
163	0xbf52d7f8	-0.8236079
164	0xbf0a3d4d	-0.5399979
165	0xbf1e77be	-0.6190146
166	0xbe9045f5	-0.28178373
167	0xbdc9c8ca	-0.098527506
168	0xbd6b7c9f	-0.057491895
169	0xbc69d29b	-0.014271404
170	0xbed2936d	-0.41128102
171	0xbe85b303	-0.26113138
172	0x3e4138bd	0.188693
173	0x3e48f8b9	0.1962613
174	0xbf050358	-0.5195823
175	0xbe96e9b7	-0.29475185
176	0x3c83bd6a	0.01608153
177	0xbf084c5a	-0.53241503
178	0xbe55f75d	-0.20895143
179	0xbeb69625	-0.35661426
180	0xbf248a9f	-0.6427402
181	0xbf33182d	-0.69958764
182	0xbe7a5553	-0.24446611
183	0xbe1a73c4	-0.15083224
184	0xbe352380	-0.17689323
185	0x3e354f5f	0.17706059
186	0xbe113e7e	-0.14183995
187	0xbdcfaf02	-0.10140802
188	0x3dabe112	0.08392538
189	0x3eb8ecd8	0.36118197
190	0xbd6fa044	-0.05850245
191	0xbe80d5ee	-0.25163215
192	0xbdf419f2	-0.11919011
193	0xbd3263fd	-0.043552388
194	0xbf14ab9a	-0.58074343
195	0xbdf9af1b	-0.12191602
196	0xbe8fed97	-0.28110954
197	0xbebe2d4b	-0.3714393
198	0xbeaeafbe	-0.34118456
199	0xbe81f52c	-0.25382364
200	0xbf6cb6e9	-0.924666
201	0xbeab65c1	-0.3347607
202	0xbec263f1	-0.37966874
203	0xbe59a39b	-0.21253817
204	0x3f1bbf30	0.60838604
205	0xbe573fc4	-0.21020418
206	0xbf005f88	-0.5014577
207	0xbebd30ba	-0.36951238
208	0xbf0b1343	-0.54326266
209	0xbe2df0fe	-0.16986462
210	0xbecfe828	-0.4060681
211	0xbf144d9b	-0.57930917
212	0xbe0d90d0	-0.13824773
213	0xbea690f4	-0.32532465
214	0x3d7877f0	0.060661256
215	0xbf042895	-0.51624423
216	0xbe70eb07	-0.23527156
217	0xbe5f70d6	-0.21820387
218	0xbf199637	-0.59994835
219	0xbe603b43	-0.21897607
220	0xbd867c9b	-0.06566735
221	0x3e25d8f5	0.16196044
222	0xbecb282d	-0.3967909
223	0xbda8a6c4	-0.08234933
224	0x3c001b00	0.007818937
225	0xbe3ef2ae	-0.18647262
226	0xbdee2a0c	-0.116291136
227	0xbe806b85	-0.2508203
228	0xbe7bab42	-0.24577048
229	0xbeb43b9f	-0.35201737
230	0xbedca660	-0.43095684
231	0xbeaa3968	-0.33246922
232	0x3f06e832	0.5269805
233	0xbdc82a35	-0.09773675
234	0x3d326f43	0.04356314
235	0x3e7417e1	0.23837234
236	0x3dd55e46	0.10418372
237	0xbec6ec4c	-0.38852155
238	0x3ec93126	0.3929531
239	0xbdf08e64	-0.11745909
240	0x3ddb8b3f	0.107199185
241	0xbee0a2f5	-0.43874326
242	0xbe265907	-0.16244899
243	0xbc6a9f97	-0.014320276
244	0x3d26f653	0.040762257
245	0xbdb010e9	-0.08596975
246	0xbe626c41	-0.22111608
247	0xbe067e56	-0.13134131
248	0xbedccffe	-0.43127435
249	0xbead7baf	-0.33883426
250	0xbee7b109	-0.45252255
251	0xbea07a39	-0.31343248
252	0xbdb8ac0d	-0.09017191
253	0xbe6d78ef	-0.23190664
254	0x3dc560dd	0.09637616
255	0xbee0ad44	-0.4388219

feature.weight_ih_l0_reverse f4 [512, 64]
0	0xbfc59742	-1.5436785
1	0xbe954908	-0.2915728
2	0xbd19da3f	-0.03756165
3	0x3ec5aaa9	0.38606766
4	0xbdb831e3	-0.0899389
5	0x3f65e16b	0.89797086
6	0x3f1e61e1	0.618681
7	0xbeac1dc6	-0.33616465
8	0x3ed13d5c	0.40867126
9	0xbe87d31c	-0.2652825
10	0xbe8bfa14	-0.27339232
11	0x3f648bdd	0.89275914
12	0x3e7fff20	0.24999666
13	0xbbd5fcb3	-0.0065303682
14	0xbeee334f	-0.4652352
15	0xbdc45f4d	-0.0958849
16	0x3d8d268e	0.06892119
17	0x3eada214	0.33912718
18	0xbe193e3c	-0.14965147
19	0x3f4cf258	0.8005729
20	0xbe977cc1	-0.29587367
21	0x3f132aad	0.57486993
22	0x3f83a7ee	1.0285623
23	0xbea354fb	-0.31900772
24	0x3e62ba7c	0.2214145
25	0xbe27c3e7	-0.16383325
26	0x3ec4df3a	0.38451558
27	0xbf2b2f2c	-0.66868854
28	0xbd2b1c18	-0.04177484
29	0xbe2fdc83	-0.17173962
30	0x3e9bd80a	0.30438262
31	0xbd4dbb14	-0.05022724
32	0x3f9eaf81	1.239731
33	0xbf1de996	-0.6168455
34	0x3dd99005	0.10623173
35	0xbe08d690	-0.13363099
36	0x3f66aecd	0.90110475
37	0x3dfdd4df	0.123941176
38	0x3ec0d4d3	0.37662372
39	0x3f1a7a2b	0.60342664
40	0xbece93a7	-0.40347025
41	0xbf19b333	-0.6003906
42	0x3f355478	0.70832014
43	0xbdeafdcb	-0.114741884
44	0x3ee37feb	0.4443353
45	0xbe77ba34	-0.24192125
46	0x3d24a90f	0.04020029
47	0xbf0993e9	-0.5374132
48	0xbe072592	-0.13197926
49	0x3f3fe089	0.7495199
50	0x3dad87be	0.084731564
51	0x3e9f3069	0.31091622
52	0x3ed04abe	0.40682024
53	0x3f3fcdc9	0.7492338
54	0x3d7070d8	0.058701366
55	0xbf661c16	-0.89886606
56	0x3ff8076a	1.9377263
57	0x3d16e200	0.036836624
58	0xbe91950b	-0.28434023
59	0xbf897446	-1.0738609
60	0x3f3f4b12	0.74723923
61	0x3f20d831	0.6282988
62	0xbecc7ac9	-0.39937428
63	0xbbd3ae8c	-0.0064600166
64	0x3e80d019	0.25158766
65	0x3e3679a8	0.17819846
66	0xbe4c4702	-0.19948962
67	0xbf4912aa	-0.78544104
68	0x3ed4df89	0.41576794
69	0x3eb581a4	0.3545047
70	0x3f42127b	0.7580945
71	0x3e0509d1	0.12992026
72	0x3de26e15	0.11056153
73	0xbf158902	-0.5841218
74	0xbe1feed2	-0.15618446
75	0x3d6faed8	0.058516353
76	0xbf95ce72	-1.1703627
77	0x3fbce942	1.4758685
78	0xbe0ac927	-0.13553296
79	0xbf84e493	-1.0382255
80	0x3f254516	0.6455854
81	0xbd25889d	-0.040413488
82	0xbe5314de	-0.20613429
83	0x3da3d519	0.079996295
84	0xbedc5724	-0.43035233
85	0xbea7e963	-0.32795247
86	0x3f82dc0c	1.0223403
87	0xbe513c01	-0.20433046
88	0xbf1b3c23	-0.60638636
89	0xbea56072	-0.32300144
90	0xbe94f091	-0.29089788
91	0xbdda4f28	-0.10659629
92	0x3f31e0c7	0.6948361
93	0x3f46ae0b	0.7760932
94	0x3e8939f2	0.2680202
95	0x3e87a8ab	0.2649587
96	0xbef8b1d9	-0.48573187
97	0x3ed6c753	0.41948947
98	0xbf098130	-0.5371275
99	0xbf1406a9	-0.5782266
100	0xbf1e6643	-0.6187479
101	0x3eb6785b	0.356387
102	0xbe196e90	-0.14983582
103	0x3ef384c1	0.4756222
104	0xbe079e01	-0.13243867
105	0x3f706d5c	0.9391687
106	0x3eef55f4	0.46745265
107	0xbe728846	-0.23684797
108	0x3dae1345	0.08499769
109	0x3f2a46af	0.66514105
110	0xbdf44c6f	-0.11928641
111	0xbe1e84bd	-0.15480323
112	0x3f13dea5	0.57761604
113	0x3eaf6b38	0.3426149
114	0xbe916c87	-0.28403112
115	0x3e7a89c0	0.2446661
116	0x3f68442b	0.90729016
117	0x3f4bd03b	0.7961461
118	0xbeb22a80	-0.3479805
119	0xbf802b1d	-1.0013157
120	0xbeed5c5c	-0.46359527
121	0x3f09098b	0.53530186
122	0x3f5211f8	0.8205867
123	0x3e659a0f	0.2242205
124	0xbf5124db	-0.8169686
125	0x3ea2c566	0.31791228
126	0x3f1ca734	0.6119263
127	0xbf1160a9	-0.56788117
128	0xbea57d01	-0.32321933
129	0xbf03d4e7	-0.5149674
130	0xbf2046df	-0.6260814
131	0x3ebeef38	0.37291884
132	0x3ed14ea7	0.4088032
133	0x3f4ffb06	0.81242406
134	0xbe1b0a02	-0.15140536
135	0x3d82d996	0.063891575
136	0xbeb75e1d	-0.3581399
137	0xbe016570	-0.12636352
138	0xbf01e999	-0.50747067
139	0x3e6cbd52	0.23119095
140	0xbeab607c	-0.3347205
141	0x3f47877c	0.7794111
142	0xbd89ae43	-0.06722691
143	0x3e98b07d	0.2982215
144	0xbf5c19e0	-0.8597698
145	0xbf045494	-0.51691556
146	0xbeb81256	-0.3595149
147	0x3e7afe14	0.24510986
148	0xbf408cba	-0.7521473
149	0xbf2d73d8	-0.6775489
150	0x3fe71435	1.8053042
151	0x3efcdb36	0.49385995
152	0xbf415e5e	-0.7553462
153	0xbe56ba77	-0.20969568
154	0x3dfcc5ea	0.123424366
155	0xbe12037c	-0.14259142
156	0x3f04c1f1	0.5185843
157	0x3ec0f12b	0.37683997
158	0xbec5027a	-0.38478452
159	0xbdcb8ceb	-0.09938987
160	0xbf15d8fe	-0.5853423
161	0x3e108591	0.14113452
162	0xbf27e7ec	-0.6558826
163	0xbec94838	-0.3931291
164	0x3f193f3f	0.5986213
165	0xbca136fd	-0.01967954
166	0x3ecd6bae	0.40121216
167	0xbeba05c0	-0.36332512
168	0xbf35d6d8	-0.7103095
169	0xbd914b66	-0.07094459
170	0x3e145072	0.14483812
171	0x3dc5c252	0.09656204
172	0x3f0cacd9	0.54951245
173	0x3eef164a	0.46696693
174	0xbdcd7dd5	-0.10033766
175	0x3dfad447	0.1224752
176	0x3f180d15	0.5939496
177	0x3f3eea86	0.74576604
178	0xbf168402	-0.5879518
179	0x3f2da66e	0.67832077
180	0x3f1a049b	0.6016328
181	0x3f360bfd	0.7111204
182	0xbe176b6d	-0.14787073
183	0x3e2b51d7	0.16730438
184	0x3d40257c	0.046910748
185	0xbe6521aa	-0.22376123
186	0xbecba342	-0.39772993
187	0xbf438d34	-0.76387334
188	0xbc9b9f58	-0.01899688
189	0x3d890efc	0.06692311
190	0x3db85ee4	0.09002474
191	0xbfd4a1b1	-1.6611844
192	0xbe9aeb2b	-0.30257544
193	0xbe0b5dc3	-0.13609986
194	0xbe0b66fe	-0.13613507
195	0x3ed5b956	0.41742963
196	0xbd25cc98	-0.04047832
197	0xbf041b17	-0.51603836
198	0xbf1babad	-0.6080883
199	0xbe91728c	-0.28407705
200	0x3f037243	0.51346225
201	0xbe4aa91e	-0.19791076
202	0xbf88b37a	-1.0679772
203	0x3eb10943	0.3457738
204	0xbf997a55	-1.1990458
205	0x3f23b773	0.63951796
206	0xbe9bde97	-0.3044326
207	0x3e3d929e	0.18512961
208	0x3e39001d	0.1806645
209	0x3dc9e896	0.09858815
210	0xbf3e7887	-0.7440266
211	0xbe4b860f	-0.19875358
212	0x3e1c35cb	0.15254895
213	0x3f319bc7	0.6937832
214	0x3f9b518d	1.2134262
215	0x3e61a77c	0.22036546
216	0xbf1917e2	-0.5980207
217	0x3e8d4e5e	0.27598852
218	0xbee6e554	-0.45096838
219	0x3ef540fe	0.47901148
220	0x3f425729	0.75914246
221	0x3f01f5a3	0.50765437
222	0xbf1dad82	-0.61592877
223	0xbee21114	-0.44153655
224	0xbfa2ec54	-1.2728372
225	0xbe1eab53	-0.15495043
226	0x3ed37c35	0.413057
227	0xbeb2731a	-0.3485344
228	0x3cbb991c	0.022900157
229	0xbea4bbb9	-0.3217447
230	0xbf1410af	-0.5783796
231	0x3ef24318	0.47316813
232	0x3db0d2bb	0.08633944
233	0x3f026725	0.50938636
234	0x3f486ba6	0.7828926
235	0xbf79385f	-0.9735164
236	0xbe19f554	-0.15034992
237	0x3eabeddc	0.3357991
238	0xbfa1a25b	-1.2627672
239	0xbec17a92	-0.37788826
240	0x3f981244	1.1880574
241	0x3ef599a0	0.4796877
242	0xbf256e50	-0.6462145
243	0x3dd20eac	0.10256705
244	0x3df948bd	0.12172077
245	0xbe7216fe	-0.23641583
246	0x3f05d131	0.52272326
247	0xbf0b75a0	-0.54476357
248	0x3eaa1851	0.33221677
249	0x3ea969fb	0.3308867
250	0xbe3f1445	-0.18660076
251	0xbedabf86	-0.42724246
252	0x3f243181	0.64138037
253	0x3f25cdbe	0.6476706
254	0x3f9fb79e	1.247791
255	0xbebd881e	-0.37017912

feature.weight_hh_l0_reverse f4 [512, 128]
0	0x3f18008b	0.5937583
1	0xbf5b0728	-0.85557795
2	0x3e77eea6	0.24212131
3	0xbf9efeb1	-1.2421476
4	0x3f465149	0.7746778
5	0x3eeb1e5a	0.45921594
6	0x3f090199	0.5351806
7	0xbeb7aa97	-0.35872337
8	0xbe8be7ce	-0.2732529
9	0x3ee1d105	0.44104782
10	0x3d9ec302	0.077520385
11	0x3e8d993e	0.27655977
12	0x3cf3b56d	0.029749596
13	0xbf9b431d	-1.2129856
14	0xbf38583d	-0.7200964
15	0x3cc08da8	0.023505047
16	0x3edee097	0.43530723
17	0xbf539ce7	-0.8266129
18	0xbea642e0	-0.32472897
19	0x3d52d83f	0.05147576
20	0x3e9001b6	0.28126305
21	0x3e65b215	0.22431214
22	0x3ea9de14	0.33177245
23	0x3f1c746f	0.61115164
24	0xbdd1657a	-0.10224433
25	0x3f231345	0.6370128
26	0xbf25a7f6	-0.64709413
27	0xbef835cb	-0.4847854
28	0xbeae0858	-0.3399074
29	0x3dc83ccf	0.09777223
30	0xbf0d51c6	-0.552029
31	0xbe975046	-0.2955343
32	0x3f3aa399	0.7290588
33	0xbeb756b9	-0.35808352
34	0xbe16a808	-0.14712536
35	0xbf3bf74b	-0.73424214
36	0x3f583131	0.8445006
37	0x3ec4cbf3	0.3843685
38	0xbf1463ae	-0.579646
39	0xbf7159b8	-0.94277525
40	0x3f77c378	0.96782637
41	0xbeacade3	-0.33726415
42	0xbec8aea6	-0.39195746
43	0x3e91c410	0.28469896
44	0xbf38ab4c	-0.7213638
45	0xbf9b689c	-1.2141299
46	0x3e8e8f6f	0.27843806
47	0x3ec477cc	0.38372648
48	0x3f199a1f	0.60000795
49	0x3e07050b	0.13185517
50	0x3d845a9e	0.06462596
51	0xbc3acff7	-0.011402122
52	0x3eda86b5	0.42680898
53	0xbf1e235c	-0.61772704
54	0xbf1059e7	-0.5638718
55	0x3e788c15	0.24272187
56	0x3e4d59ff	0.20053862
57	0x3ef76e4c	0.48326337
58	0xbe16e99a	-0.1473755
59	0xbe1e5fa4	-0.15466172
60	0x3e76b9d6	0.24094328
61	0x3e93bcc9	0.2885497
62	0x3f213068	0.6296449
63	0xbe4f8cf7	-0.20268618
64	0xbf324f5a	-0.6965233
65	0x3e81e3b1	0.25369027
66	0xbe59b5ec	-0.21260804
67	0xbf9775b9	-1.1832801
68	0x3ec7550b	0.3893207
69	0xbf2f75c5	-0.6853908
70	0xbf0e91d0	-0.5569124
71	0xbf1ef53c	-0.6209295
72	0x3db0c985	0.08632187
73	0x3f69c957	0.91322845
74	0x3ef3f664	0.4764892
75	0xbdc7a5e5	-0.09748439
76	0x3ee897ba	0.45428258
77	0x3f5351cd	0.82546693
78	0x3f0237ef	0.508666
79	0x3e32cb53	0.17460375
80	0xbf24828c	-0.642617
81	0xbe966c77	-0.29379627
82	0x3f0bd6d6	0.5462469
83	0x3c61c325	0.013779436
84	0x3bea1926	0.007144111
85	0x3e9a7dd8	0.30174136
86	0xbe5df281	-0.21674539
87	0x3f201878	0.62537336
88	0xbe85beed	-0.26122227
89	0x3e4ff272	0.2030733
90	0xbe8a8037	-0.27050945
91	0x3e6aced4	0.22930461
92	0x3c88f56e	0.016718592
93	0x3df783d1	0.12085689
94	0xbd94424d	-0.07239208
95	0x3d00d2fc	0.03145121
96	0xbecc4966	-0.3989975
97	0xbf28ae26	-0.6589073
98	0xbf819a9c	-1.0125308
99	0xbea6d4df	-0.32584283
100	0xbf42ace7	-0.7604508
101	0xbed68d3a	-0.41904622
102	0xbf934bfc	-1.1507564
103	0x3f22a207	0.63528484
104	0x3f4cccc9	0.7999998
105	0xbe1c53c7	-0.15266334
106	0xbe53907a	-0.20660582
107	0xbe0c4064	-0.13696438
108	0xbecbca3c	-0.3980273
109	0xbecdd52d	-0.40201703
110	0xbed7d4c6	-0.4215452
111	0x3f897e84	1.0741735
112	0x3db50acb	0.08839949
113	0xbecaaddd	-0.39585772
114	0x3f1f8b57	0.6232199
115	0x3dc1c0d1	0.09460605
116	0xbe220518	-0.15822256
117	0x3dd2791f	0.10277008
118	0x3fa68b98	1.3011351
119	0x3edcf666	0.43156737
120	0x3e019804	0.12655646
121	0xbef1af52	-0.4720407
122	0x3fa5df4f	1.2958773
123	0x3e7e369c	0.2482552
124	0xbee49473	-0.44644508
125	0x3ec52976	0.38508195
126	0xbf0f7c0f	-0.56048673
127	0xbf5df42b	-0.86700696
128	0x3eaced88	0.33774972
129	0xbe26d8ed	-0.16293688
130	0x3f2a53d9	0.6653419
131	0x3dc14bb8	0.0943827
132	0xbea7ce10	-0.327744
133	0x3efef720	0.49797916
134	0x3e48aed1	0.19597937
135	0xbefbab56	-0.49154156
136	0x3ea7659e	0.32694715
137	0x3eed8f4c	0.4639839
138	0x3f752511	0.95759684
139	0x3e8334b0	0.25626135
140	0x3ebe0dd1	0.37119916
141	0xbf23860e	-0.63876426
142	0x3e1b186b	0.15146033
143	0xbe2d1aed	-0.16904803
144	0xbea2d876	-0.31805772
145	0xbf499b6f	-0.787528
146	0xbeac10c4	-0.3360654
147	0xba39383d	-0.000706557
148	0xbd7f830d	-0.06238084
149	0xbca45981	-0.02006221
150	0x3f23d20a	0.6399237
151	0x3f54a699	0.8306671
152	0x3fa4d559	1.2877609
153	0x3ef83db5	0.4848458
154	0x3ec6a531	0.38797906
155	0xbe34fd13	-0.17674665
156	0x3f230677	0.6368174
157	0x3f36adbe	0.7135886
158	0xbec4d3e8	-0.38442922
159	0xbeceb23d	-0.4037036
160	0x3ebc7647	0.36808988
161	0x3e34f2a8	0.17670691
162	0x3ee2ec75	0.44321027
163	0xbdba7023	-0.0910342
164	0x3ef996d3	0.48747882
165	0xbe943825	-0.28949085
166	0xbe11f6c6	-0.14254293
167	0xbe394b8c	-0.18095225
168	0x3ed745f7	0.42045566
169	0x3e8b5c4e	0.2721886
170	0x3e46b5a3	0.19405226
171	0xbec06a92	-0.37581307
172	0x3e9b74e4	0.30362618
173	0x3de25a0a	0.1105233
174	0x3e9be266	0.30446166
175	0x3eabe95b	0.33576474
176	0x3e0074b8	0.12544525
177	0x3d8570ff	0.06515693
178	0xbf05ca87	-0.5226216
179	0xbf126ff6	-0.5720209
180	0x3d362495	0.04446848
181	0x3ede7a6e	0.4345278
182	0xbe58bac3	-0.21164994
183	0x3f095b8e	0.53655326
184	0x3f37e637	0.71835655
185	0x3e82b970	0.25532103
186	0x3f563de0	0.83688164
187	0x3dc2a8d0	0.09504855
188	0xbf08a251	-0.53372675
189	0x3f21559e	0.63021266
190	0xbd3177e3	-0.043327224
191	0xbe0b9ebf	-0.13634776
192	0xbe207428	-0.1566931
193	0x3eea79a4	0.4579593
194	0x3f056fd9	0.5212379
195	0x3e52adff	0.20574187
196	0xbe841e21	-0.25804237
197	0xbe4537f4	-0.19259626
198	0xbe221334	-0.15827638
199	0x3e75caba	0.24003115
200	0x3dd94661	0.10609127
201	0xbeb05867	-0.34442446
202	0x3df9a223	0.12189128
203	0xbf151c83	-0.5824663
204	0x3f1dc1bf	0.6162376
205	0xbe1f44ac	-0.1555354
206	0x3f02ec4c	0.5114181
207	0x3eaca0aa	0.33716327
208	0xbe329001	-0.17437746
209	0xbe0b9aaa	-0.13633218
210	0x3e465509	0.19368376
211	0x3e0da9a8	0.1383425
212	0xbe7281aa	-0.23682275
213	0xbf35a99d	-0.70961934
214	0xbea6018f	-0.32423064
215	0x3e779c80	0.24180794
216	0xbe9dfb06	-0.30855578
217	0xbe9563f7	-0.2917783
218	0x3e9dac24	0.30795395
219	0x3e814daa	0.25254565
220	0xbf0a962c	-0.54135394
221	0x3ea98713	0.33110866
222	0xbee70f33	-0.45128784
223	0x3e0acff4	0.1355589
224	0xbe4cbdfe	-0.19994351
225	0x3e8847b1	0.26617196
226	0xbf9345e4	-1.1505704
227	0x3e87957f	0.26481244
228	0x3c51b4ee	0.012799485
229	0x3ded2e0e	0.1158105
230	0x3e81ddd7	0.25364563
231	0xbda1e59d	-0.079051234
232	0xbefb8d1e	-0.491311
233	0xbebbd3ad	-0.36684933
234	0xbea287c5	-0.3174421
235	0x3e805991	0.25068334
236	0xbe832411	-0.25613454
237	0xbde4949f	-0.1116116
238	0x3c69ab6b	0.014262061
239	0x3ed36555	0.41288248
240	0x3ed83276	0.42226
241	0x3d511d07	0.051053073
242	0x3e896ee4	0.26842415
243	0x3eb88356	0.360377
244	0x3e8a52e6	0.2701637
245	0xbed13f1a	-0.40868455
246	0xbdee40ae	-0.116334304
247	0x3dc604f3	0.09668913
248	0x3de9b46c	0.11411366
249	0xbe0f6a94	-0.140055
250	0xbe58219b	-0.2110657
251	0xbd10624a	-0.035249986
252	0x3e6a20b8	0.22864044
253	0x3ed80357	0.42190048
254	0xbf46361f	-0.7742633
255	0x3f0c44d2	0.5479251

feature.bias_ih_l0_reverse f4 [512]
0	0x3f16b04b	0.5886275
1	0x3ec938ab	0.39301047
2	0x3e89b0a0	0.26892567
3	0x3e1830f0	0.14862418
4	0x3e2d15fc	0.16902918
5	0x3e581c14	0.21104461
6	0xbe6c5db5	-0.23082621
7	0x3e7a479a	0.24441376
8	0x3ecb59db	0.39716992
9	0x3e9c81bf	0.30567738
10	0x3a27e81b	0.0006405131
11	0xbd85b8a4	-0.06529358
12	0x3ea4650d	0.32108346
13	0x3f00554b	0.50130147
14	0xbd798f93	-0.06092794
15	0x3b9f9c11	0.0048708995
16	0xbdfca540	-0.123362064
17	0xbebe393c	-0.3715304
18	0x3e98ce0f	0.2984471
19	0xbf007912	-0.5018474
20	0xbd82e599	-0.063914485
21	0x3e791ac5	0.24326618
22	0x3f1e4c46	0.61835134
23	0x3edd6f5a	0.43249017
24	0xbd1272db	-0.035754066
25	0x3f211660	0.62924767
26	0x3dafec27	0.08589964
27	0x3e9dad23	0.30796155
28	0x3eb3b91d	0.35102168
29	0x3c88d672	0.016703818
30	0xbe9e4b54	-0.30916846
31	0x3e6f30c2	0.23358443
32	0x3eaf47ad	0.34234372
33	0x3ecaa8a7	0.39581797
34	0x3ed63812	0.41839653
35	0x3da61952	0.08110298
36	0xbdc5b118	-0.096529186
37	0xbe87bc58	-0.26510882
38	0x3d47502f	0.048660453
39	0x3996ac59	0.00028738639
40	0x3da46237	0.080265455
41	0xbe262b77	-0.16227518
42	0x3ed33251	0.41249326
43	0x3f177cad	0.59174615
44	0xbe557b41	-0.20847799
45	0x3f185b5e	0.59514415
46	0xbe4dd871	-0.20102097
47	0xbe717fd0	-0.23583913
48	0x3e3562e0	0.17713499
49	0xbe261abb	-0.16221134
50	0x3d9e46e4	0.07728365
51	0xbe4e7eeb	-0.20165603
52	0x3dcdbf40	0.10046244
53	0x3f1152ab	0.56766766
54	0xbd7e6bb4	-0.062114432
55	0x3f08339f	0.5320377
56	0x3e9b4dfd	0.30332938
57	0x3e8fe580	0.28104782
58	0x3f4dc03b	0.80371445
59	0x3ea85bc0	0.328825
60	0x3e79fb7e	0.24412343
61	0x3ef7a63e	0.4836902
62	0xbd9271a0	-0.071505785
63	0x3edc362d	0.43010083
64	0xbdfad5d3	-0.12247815
65	0x3c62c23b	0.013840253
66	0xbe4dda78	-0.2010287
67	0xbc264206	-0.010147577
68	0xbe99f598	-0.30070186
69	0xbe23976b	-0.1597573
70	0x3dc2bc12	0.09508528
71	0x3e290cec	0.16508836
72	0x3ed3d1a8	0.41370893
73	0xbede0cee	-0.4336924
74	0xbe450096	-0.19238505
75	0x3e0ef293	0.13959722
76	0x3f387e05	0.7206729
77	0x3d0d4186	0.034486316
78	0x3e34aa26	0.17643031
79	0x3e810768	0.25200963
80	0xbe4321e9	-0.19055904
81	0x3f336cb5	0.7008775
82	0xbe08d7a1	-0.13363506
83	0xbddd5150	-0.10806525
84	0x3eebe637	0.46074077
85	0x3e347cff	0.17625807
86	0x3cbcbb17	0.02303843
87	0xbe2afe4e	-0.16698572
88	0xbe535966	-0.20639572
89	0xbeb621c3	-0.35572633
90	0xbec758c0	-0.38934898
91	0xbe397c5c	-0.18113846
92	0x3e959475	0.29214826
93	0x3d2a244e	0.04153853
94	0x3d584b89	0.05280641
95	0x3f1c8c17	0.6115126
96	0x3e90462c	0.28178537
97	0xbe869d4d	-0.26291886
98	0xbe1c432e	-0.15260002
99	0x3ecc7794	0.3993498
100	0x3eb2a87b	0.34894165
101	0xbed2d9a8	-0.41181684
102	0x3c73e407	0.014885909
103	0xbe10621b	-0.14099924
104	0xbca46e25	-0.020072052
105	0xbeeca72b	-0.4622129
106	0xbe4d512f	-0.200505
107	0x3f17de7a	0.5932385
108	0xbdd554db	-0.104165755
109	0xbdbe72e9	-0.09299261
110	0xbe669854	-0.22519046
111	0xbddd11a6	-0.10794382
112	0xbf10b96c	-0.5653293
113	0x3e426bec	0.18986481
114	0xbd75e444	-0.060032144
115	0xbd3ec869	-0.046577845
116	0xbd414b94	-0.047191218
117	0x3d946593	0.07245936
118	0x3cf35067	0.029701425
119	0x3e47678b	0.19473092
120	0x3ea5b76e	0.32366508
121	0x3d79e4ca	0.061009206
122	0x3ed10b93	0.40829143
123	0xbe2834a3	-0.1642633
124	0x3e2a368c	0.1662237
125	0x3e0303f1	0.12794472
126	0x3dc697c4	0.09696916
127	0xbe3f5d58	-0.18687952
128	0xbddd3cf9	-0.10802645
129	0x3e5df1c0	0.21674252
130	0xbd24ce4a	-0.040235795
131	0x3dbc0838	0.09181255
132	0xbdb95b00	-0.0905056
133	0x3f42ac70	0.7604437
134	0x3e14b9c0	0.14523983
135	0xbef07aa4	-0.46968567
136	0x3e2d7380	0.16938591
137	0x3f2e57a7	0.68102497
138	0xbdfb9cce	-0.122857675
139	0xbbc3f231	-0.005979799
140	0xbeb4512c	-0.3521818
141	0xbe99463b	-0.29936394
142	0xbe65f552	-0.22456864
143	0x3e31c41c	0.17359966
144	0xbd8a02ef	-0.06738841
145	0xbdb8f223	-0.09030559
146	0xbe32d6b0	-0.1746471
147	0x3eb402a4	0.35158265
148	0x3e26939c	0.16267246
149	0xbeba4151	-0.36377957
150	0x3efc28dd	0.49249926
151	0xbe927594	-0.2860533
152	0xbd01ce50	-0.031690896
153	0xbf0a38d2	-0.5399295
154	0x3e55abac	0.20866269
155	0xbdbb856b	-0.09156307
156	0xbedd44c1	-0.43216518
157	0xbf06a554	-0.5259602
158	0xbeae51f6	-0.34046906
159	0xbf0771c1	-0.5290795
160	0xbecb9780	-0.39764023
161	0x3d52b0b4	0.05143805
162	0x3e6c68bd	0.2308683
163	0xbe108a6e	-0.14115307
164	0x3c7a4623	0.015275511
165	0x3e6fe10c	0.23425692
166	0x3dbd9bb7	0.09258216
167	0x3ea8443e	0.32864565
168	0x3e672d4b	0.22575872
169	0xbdba472e	-0.09095608
170	0xbef59abc	-0.47969615
171	0xbca770e3	-0.02043957
172	0xbe258fe0	-0.16168165
173	0xbea79f84	-0.32738888
174	0xbe09214c	-0.13391608
175	0x3e5be4e8	0.2147404
176	0x3dcd586a	0.10026629
177	0x3ec1de74	0.3786503
178	0xbe55359e	-0.20821235
179	0x3e1f333d	0.1554689
180	0xbd23c002	-0.039978035
181	0xbf063c0f	-0.5243539
182	0x3d053256	0.032518707
183	0xbe1944eb	-0.14967696
184	0xbdeffadf	-0.11717772
185	0xbe5898bc	-0.21152014
186	0xbed525ae	-0.4163031
187	0x3deeb059	0.116547294
188	0xbbf873c8	-0.0075821616
189	0xbe4e533d	-0.2014894
190	0xbe85c85e	-0.2612943
191	0xbe34f7ca	-0.17672649
192	0x3dc9bc36	0.098503515
193	0xbda58f19	-0.08083934
194	0x3e7d77d3	0.2475274
195	0xbe121890	-0.14267182
196	0xbe5dfcaf	-0.21678422
197	0x3ea1edf5	0.3162686
198	0xbdd96952	-0.106157914
199	0xbe839537	-0.2569978
200	0x3f37c81a	0.71789706
201	0x3ebb2055	0.36548105
202	0xbe97d8f5	-0.29657713
203	0xbea672a6	-0.32509345
204	0xbec1a82b	-0.37823614
205	0xbf34923f	-0.70535654
206	0x3f0f4025	0.5595725
207	0x3e54b97d	0.20773883
208	0x3ea9443a	0.33059865
209	0xbf082215	-0.53177005
210	0xbea362cb	-0.3191131
211	0xbe8436af	-0.2582297
212	0xbe7494b7	-0.23884855
213	0xbe3aa476	-0.182268
214	0x3e7c1176	0.24616036
215	0x3eb835b1	0.35978463
216	0x3e02a11a	0.12756768
217	0xbf3bead2	-0.7340518
218	0x3e09caf2	0.13456324
219	0x3e1238ea	0.14279523
220	0xbe604069	-0.2189957
221	0xbe2efb2a	-0.17087999
222	0xbe311641	-0.17293645
223	0xbee971ab	-0.45594534
224	0x3e9e1b7c	0.30880344
225	0x3daa8586	0.08326249
226	0xbe34bdff	-0.17650603
227	0x3e94e32d	0.2907957
228	0x3e79f310	0.24409127
229	0x3dbd1af6	0.09233658
230	0xbe8ac2ed	-0.27101842
231	0xbe82ede1	-0.25572112
232	0xbe5210df	-0.20514248
233	0x3e8b0993	0.27155742
234	0xbdf886c2	-0.12135078
235	0xbf87560b	-1.0573133
236	0x3e6aa236	0.22913441
237	0x3f84f5ef	1.0387553
238	0x3f266a37	0.6500582
239	0xbeb98d91	-0.3624082
240	0x3e34b144	0.17645746
241	0xbd3992ce	-0.04530602
242	0x3f143864	0.57898545
243	0x3e346c3c	0.17619413
244	0x3e9b8897	0.30377647
245	0x3dddd15b	0.10830947
246	0xbdbe4acb	-0.092916094
247	0xbe0f9e77	-0.14025293
248	0x3dd5cbc8	0.10439259
249	0x3ec5808f	0.38574645
250	0x3e0aeefe	0.13567731
251	0x3e257fab	0.16161983
252	0xbecb4782	-0.39702994
253	0xbed76988	-0.420727
254	0xbe920fa7	-0.28527567
255	0x3e07c7b9	0.13259782
