logs/classifier/5_contexts/fold_05/10-18-2022_09-38-03/model_params.pth (torch, 822087 bytes, 10 tensors)

feature.weight_ih_l0 f4 [512, 64]
0	0xbf134652	-0.57529175
1	0xbf614cb9	-0.88007694
2	0x3e825c8b	0.2546123
3	0x3f4c4209	0.7978826
4	0x3d8be2f5	0.06830398
5	0x3ce30710	0.027713329
6	0xbfbb0854	-1.4611917
7	0x3faaf225	1.3355147
8	0xbe80994a	-0.2511695
9	0xbddfad6a	-0.10921748
10	0xbf015fe3	-0.50536937
11	0xbf26394d	-0.64931184
12	0x3d5a9bee	0.053371362
13	0x3f8ecb8c	1.1155868
14	0x3ea97824	0.33099473
15	0x3eac13fa	0.3360899
16	0x3e7898e8	0.24277079
17	0x3f6926a4	0.91074586
18	0xbf41a57c	-0.75643134
19	0xbe6cf16a	-0.23138967
20	0xbeef1e76	-0.46702927
21	0x3eb4db02	0.3532334
22	0xbe008b02	-0.12553027
23	0x3e8f5358	0.27993274
24	0xbe3893e6	-0.18025169
25	0x3ea05e5c	0.3132199
26	0x3f8aa386	1.0831153
27	0x3ea03781	0.31292346
28	0x3f95a106	1.1689765
29	0x3f8ca68e	1.0988328
30	0xbe023577	-0.12715708
31	0xbec1c40b	-0.3784488
32	0xbe5224cc	-0.2052185
33	0x3f1b5674	0.6067879
34	0xbf399f4b	-0.72508687
35	0xbe39b0b1	-0.18133809
36	0x3f5559b2	0.8333999
37	0x3e95a7d2	0.292296
38	0x3da6a3d3	0.08136716
39	0x3dd6a6b7	0.10481017
40	0xbe5ddeff	-0.21667098
41	0xbf9891d0	-1.1919498
42	0x3e5c6c34	0.21525651
43	0xbfa87882	-1.3161776
44	0xbe978663	-0.29594716
45	0x3dcb18cc	0.09916839
46	0x3e9d219b	0.306897
47	0xbf1f25c8	-0.62167025
48	0x3e227c0e	0.15867636
49	0xbf1e2fee	-0.61791885
50	0xbee72695	-0.45146623
51	0x3e83dfd6	0.2575671
52	0xbdee9817	-0.116501026
53	0x3e5763fe	0.21034238
54	0x3c9863b2	0.018602226
55	0xbdb6e519	-0.08930416
56	0xbe9993e0	-0.29995632
57	0x3c2bdc12	0.010489481
58	0xbed63529	-0.41837433
59	0x3f8c636b	1.096784
60	0x3f07a94d	0.5299271
61	0xbea1f2b4	-0.3163048
62	0xbf17dc1d	-0.5932024
63	0xbde51fd5	-0.11187712
64	0xbf21cce8	-0.6320329
65	0x3f3ee99c	0.7457521
66	0x3f45bc89	0.77240807
67	0x3e61c817	0.22048984
68	0xbf99139e	-1.1959112
69	0xbfa320be	-1.2744367
70	0x3f24704f	0.6423387
71	0xbddd8be7	-0.108177
72	0x3fbcf1a1	1.4761239
73	0xbd80d4d7	-0.06290596
74	0x3f533b7f	0.8251266
75	0x3efb5136	0.49085397
76	0x3f8aee18	1.085391
77	0x3f3d7f39	0.7402225
78	0xbf0905bc	-0.53524375
79	0x3c6568d5	0.014002045
80	0xbed3c35b	-0.41359982
81	0xbf0ce9d4	-0.55044293
82	0xbf5438c9	-0.8289915
83	0xbf13050b	-0.5742957
84	0x3eedca0c	0.46443212
85	0xbe6c6b0c	-0.2308771
86	0xbec92f22	-0.39293772
87	0xbf16a9cd	-0.58852845
88	0xbe2d81a6	-0.16943988
89	0xbf28dfd2	-0.6596652
90	0x3d3c5ea8	0.04598871
91	0xbe703842	-0.2345896
92	0xbefb31e1	-0.49061492
93	0xbf831316	-1.02402
94	0x3e6cdbe4	0.23130757
95	0xbe309d98	-0.17247617
96	0x3f21605c	0.6303766
97	0xbf669ca0	-0.9008274
98	0xbed46215	-0.4148108
99	0x3ddfd39f	0.109290354
100	0x3f3d63a8	0.7398019
101	0x3ef64754	0.48101294
102	0x3e6bfd90	0.23045945
103	0xbd94766b	-0.07249149
104	0x3eabdfc6	0.33569163
105	0x3ee224a3	0.44168577
106	0xbe6efede	-0.23339412
107	0x3dc58886	0.096451804
108	0xbf39663a	-0.7242161
109	0xbecf8b2d	-0.4053587
110	0x3ee6ea70	0.45100737
111	0xbf7fcb79	-0.9991985
112	0x3f6d3af8	0.92668104
113	0x3e0bee89	0.13665213
114	0xbdc34542	-0.09534694
115	0xbd61e39e	-0.055148713
116	0xbdc21823	-0.0947726
117	0x3fc078b1	1.5036832
118	0xbe63b641	-0.22237493
119	0x3f7de2a0	0.9917393
120	0xbf27ebd3	-0.65594214
121	0xbf3fc23f	-0.7490577
122	0x3ea81ddf	0.3283529
123	0xbf218170	-0.6308813
124	0x3e8a6714	0.27031767
125	0xbd054f5c	-0.032546386
126	0xbf6f9fb6	-0.93603075
127	0x3f66eaab	0.90201825
128	0x3f5a37bd	0.852413
129	0x3e588d2c	0.21147603
130	0x3e85e09c	0.26147926
131	0xbf4b12f1	-0.7932578
132	0x3f6e6ed1	0.9313784
133	0xbdd59a5e	-0.10429834
134	0x3ea6b7a7	0.3256199
135	0xbe9cf6a0	-0.3065691
136	0x3d27ac75	0.040935952
137	0x3ee22653	0.44169864
138	0xbf0d63fe	-0.552307
139	0xbd067d7f	-0.032834526
140	0xbe5df1b7	-0.21674238
141	0xbecc8aa5	-0.39949527
142	0x3ed194a7	0.40933725
143	0xbf1b9831	-0.607791
144	0xbd9487d1	-0.072524674
145	0x3ecabd10	0.39597368
146	0x3f2dfbea	0.67962515
147	0x3ed65ee5	0.41869274
148	0x3c9605dc	0.01831334
149	0xbe57c3e3	-0.21070819
150	0x3e71a79a	0.23599091
151	0x3ee65a2c	0.4499067
152	0xbda4e6ab	-0.08051809
153	0xbf9f7a47	-1.2459191
154	0x3e087ea4	0.1332956
155	0x3f852951	1.0403234
156	0xbdb96126	-0.09051733
157	0xbf919399	-1.1373168
158	0xbddac638	-0.106823385
159	0x3f1bdd6b	0.6088473
160	0xbec2fc19	-0.3808296
161	0x3e563ef6	0.20922455
162	0x3f35fd97	0.7109007
163	0x3f2c717b	0.6736066
164	0xbf3dcc01	-0.7413941
165	0xbe884a6e	-0.26619285
166	0xbeee1e15	-0.46507326
167	0x3ec25170	0.37952757
168	0x3eedfa0b	0.4647983
169	0xbebb0c4c	-0.3653282
170	0x3f693fe9	0.91113144
171	0x3ee572df	0.44814202
172	0xbf8d2849	-1.1027919
173	0x3f056fbf	0.52123636
174	0xbe88c5a0	-0.26713276
175	0x3e9f97da	0.3117054
176	0xbe91b831	-0.2846084
177	0x3f265760	0.64977074
178	0x3c988002	0.018615726
179	0xbe1958ae	-0.14975235
180	0xbee8c6ad	-0.45464078
181	0xbf3c8388	-0.736382
182	0xbd861929	-0.06547768
183	0x3f7ee851	0.99573237
184	0x3d7e9b7a	0.062159993
185	0x3f229de3	0.63522166
186	0xbeceb4fb	-0.40372452
187	0xbe1327c4	-0.14370638
188	0xbf5dd758	-0.86656713
189	0x3e9c7cbd	0.30563918
190	0x3f294748	0.6612439
191	0xbfd929c1	-1.6965867
192	0xbea59061	-0.32336715
193	0x3e52846c	0.20558327
194	0x3e0e1000	0.13873291
195	0xbe8cdb73	-0.27511176
196	0xbf03c78b	-0.51476353
197	0x3e1ff65d	0.15621324
198	0xbeb4a184	-0.35279477
199	0x3e936a2b	0.28791937
200	0xbe4aa8b8	-0.19790924
201	0xbf233713	-0.6375591
202	0xbd04233d	-0.03226017
203	0xbcc7beb9	-0.024382936
204	0xbf34d83b	-0.7064244
205	0xbda87f16	-0.08227365
206	0x3f86b704	1.0524602
207	0xbfabfb0f	-1.3435992
208	0x3e2dccf1	0.1697271
209	0x3eff642d	0.49881116
210	0x3fa31246	1.2739952
211	0x3d88f14a	0.06686647
212	0xbea8aa4b	-0.32942423
213	0x3f117c7c	0.56830573
214	0xbd5b2343	-0.053500425
215	0x3e90d43d	0.28286925
216	0xbfa9ceeb	-1.3266271
217	0x3f0de845	0.5543254
218	0x3f9750a1	1.1821481
219	0xbee67043	-0.45007524
220	0x3e5ed78d	0.21761914
221	0x3e184556	0.148702
222	0xbd784e0e	-0.060621314
223	0x3edd3a6c	0.43208635
224	0xbe959075	-0.29211774
225	0x3e22b7f4	0.15890485
226	0x3f3262ec	0.6968219
227	0x3d8be12e	0.06830059
228	0x3eb79167	0.3585312
229	0xbd01be9c	-0.03167592
230	0xbcc54651	-0.024081381
231	0x3e3925cb	0.18080823
232	0xbe893868	-0.26800847
233	0xbf146972	-0.57973397
234	0xbed8ac52	-0.4231897
235	0x3f6de318	0.9292464
236	0xbed172eb	-0.40907988
237	0x3e80fee9	0.2519448
238	0xbe6ed2fc	-0.23322672
239	0xbe42e743	-0.19033532
240	0xbec1d90f	-0.37860915
241	0xbf5778c0	-0.84168625
242	0x3e93fb92	0.2890287
243	0x3eabb0fb	0.33533463
244	0xbe0fe1fb	-0.14051048
245	0xbd929664	-0.07157591
246	0x3c6dd50c	0.014516126
247	0xbf5ce4d0	-0.8628664
248	0xbe2bdb32	-0.16782835
249	0xbd981b3a	-0.07427068
250	0xbf9bf625	-1.2184492
251	0xbe852e21	-0.26011756
252	0x3ef67db5	0.48142782
253	0xbe05a3cc	-0.13050765
254	0x3e868d59	0.26279715
255	0xbe49d059	-0.19708385

feature.weight_hh_l0 f4 [512, 128]
0	0x3f4be7d5	0.7965062
1	0xbfb65cdd	-1.424709
2	0xbf92bcb0	-1.1463833
3	0xbea19798	-0.3156097
4	0x3f3f10e2	0.74635136
5	0xbfcb38dd	-1.5876728
6	0x3f844613	1.0333885
7	0x3e554ab8	0.20829284
8	0xbebeb770	-0.37249327
9	0x3eef72fa	0.46767408
10	0x3e42b41f	0.19014023
11	0x3f67df53	0.9057514
12	0xbd80dd92	-0.06292261
13	0xbecae05e	-0.39624304
14	0xbf19b603	-0.6004335
15	0xbf179568	-0.5921235
16	0xbf5cf899	-0.8631683
17	0xbeac8a1c	-0.3369912
18	0xbeb60364	-0.35549462
19	0xbf6bc50c	-0.92097545
20	0x3f70f67c	0.94126105
21	0xbf9d98af	-1.231222
22	0xbf03d478	-0.51496077
23	0x3f2c69bf	0.67348856
24	0x3f335f7a	0.7006756
25	0xbf77d969	-0.96816117
26	0xbf95f78c	-1.171617
27	0xbedc60e4	-0.43042672
28	0xbf19d5a4	-0.60091615
29	0xbdba8113	-0.0910665
30	0x3e9766c6	0.29570597
31	0xbe743658	-0.23848855
32	0xbe2732c2	-0.16327956
33	0x3cca652d	0.024706447
34	0xbe063709	-0.13106932
35	0x3f3ddb40	0.74162674
36	0x3e586722	0.21133092
37	0x3ec9262e	0.3928694
38	0xbc8c2296	-0.017106336
39	0x3e0600cf	0.13086246
40	0xbf433c71	-0.762641
41	0x3d89ad77	0.06722539
42	0xbe5a9019	-0.21344031
43	0x3d87b1f8	0.06625742
44	0x3e19ec62	0.15031579
45	0x3f1369ea	0.5758349
46	0xbf598d9b	-0.849817
47	0xbedabdc3	-0.42722902
48	0xbe0d2ec9	-0.13787378
49	0x3ef374c3	0.4755002
50	0x3edff94e	0.43744892
51	0x3e94475c	0.28960693
52	0xbe28e87a	-0.16494933
53	0x3fabb29c	1.3413882
54	0xbdd83de0	-0.10558677
55	0xbf683902	-0.90711987
56	0x3e88a1b4	0.2668587
57	0xbe4c0dee	-0.19927189
58	0x3e50d061	0.2039199
59	0x3e61fe79	0.2206973
60	0xbf7de8dc	-0.9918344
61	0x3fe554e9	1.7916538
62	0x3e1260e6	0.14294776
63	0x3e406703	0.18789296
64	0xbf4f790a	-0.81044066
65	0xbd251d90	-0.040311396
66	0x3f16165d	0.58627874
67	0x3eb45e24	0.35228074
68	0xbfa7cfdf	-1.3110312
69	0x3f9e9bce	1.2391298
70	0xbf215dc2	-0.6303369
71	0x3e41983b	0.18905728
72	0x3f3c1fc2	0.7348596
73	0x3f6eec9e	0.933298
74	0x3ec1b1a6	0.37830848
75	0x3e794f44	0.24346644
76	0xbf5ff793	-0.87487143
77	0x3e9f64c9	0.3113158
78	0x3e5093fe	0.20368955
79	0x3da49d11	0.080377705
80	0xbf537495	-0.82599765
81	0xbee3e7ed	-0.44512883
82	0x3d372dd3	0.044721436
83	0x3ece1166	0.4024765
84	0xbe3b1771	-0.18270661
85	0x3f3890b4	0.720958
86	0x3ea19a0e	0.31562847
87	0xbf3aa8aa	-0.7291361
88	0xbee96c42	-0.45590407
89	0x3f0821fb	0.5317685
90	0x3f0641e1	0.52444273
91	0x3e44fa60	0.19236135
92	0x3ec8632c	0.39138162
93	0xbf06f086	-0.5271076
94	0xbf109a1c	-0.5648515
95	0xbe5302d3	-0.20606546
96	0xbedccd0d	-0.4312519
97	0xbe92d3c8	-0.286772
98	0xbedef631	-0.43547204
99	0x3e9bb402	0.30410773
100	0xbde0ed09	-0.10982711
101	0x3f94b61b	1.1618074
102	0x3e842b74	0.25814402
103	0xbe88f7d8	-0.2675159
104	0x3f192c8b	0.5983359
105	0x3e2e3bd7	0.17015015
106	0x3e985da7	0.2975895
107	0x3ee0f288	0.43935037
108	0xbea214d7	-0.31656525
109	0x3f5cb91c	0.86219954
110	0xbe083f17	-0.13305317
111	0x3f7afeae	0.9804486
112	0xbebfaa94	-0.37434828
113	0xbf0b1551	-0.543294
114	0xbddcea0d	-0.10786829
115	0x3eb3bd40	0.35105324
116	0x3f6702db	0.9023873
117	0x3e2d4d06	0.16923913
118	0x3f4719ce	0.7777375
119	0xbd2d75d9	-0.042348716
120	0xbe888f33	-0.26671752
121	0xb93c4298	-0.00017953885
122	0xbf8c37e8	-1.0954561
123	0x3fc2f88b	1.5232099
124	0xbe653178	-0.22382152
125	0x3ec13ac4	0.37740147
126	0xbf6be83d	-0.9215124
127	0x3ebbdd82	0.36692435
128	0x3f2c2dfa	0.67257655
129	0x3f58116f	0.844016
130	0x3dea0ca0	0.11428189
131	0x3f7f45dd	0.9971598
132	0x3f02cd56	0.5109457
133	0xbd8cfd4b	-0.06884249
134	0x3ea23b44	0.3168584
135	0xbd893a06	-0.0670052
136	0x3d111652	0.035421677
137	0xbe8b66e3	-0.27226934
138	0x3e9a281e	0.30108732
139	0xbf15f0dd	-0.58570653
140	0x3e9d40d5	0.30713525
141	0x3f0fa239	0.5610691
142	0xbee49cd3	-0.44650897
143	0xbe2600c5	-0.16211231
144	0xbf793f09	-0.9736181
145	0x3ef0be05	0.47019973
146	0x3e4993d9	0.19685306
147	0x3e9a0e89	0.30089214
148	0x3e809481	0.251133
149	0x3df116f2	0.117719546
150	0xbbcfc1e1	-0.006340251
151	0xbefd74b4	-0.495031
152	0xbf4f283d	-0.80920774
153	0x3ef03ba3	0.469205
154	0xbd06c4d5	-0.032902557
155	0x3f1db52c	0.6160457
156	0xbe8b2af3	-0.27181205
157	0x3eee567e	0.46550363
158	0xbeeacfba	-0.45861608
159	0x3f0ff9a3	0.5624029
160	0xbdfbfb07	-0.12303739
161	0xbf8f5092	-1.1196463
162	0xbf471012	-0.77758896
163	0x3f0e589f	0.55603975
164	0xbdeee8e1	-0.11665512
165	0x3eab4110	0.33448076
166	0x3edc41c5	0.43018928
167	0xbc58b57c	-0.013226863
168	0xbe17b47e	-0.14814946
169	0x3de6a0c2	0.11261131
170	0xbf612d0a	-0.8795935
171	0xbdc49f25	-0.09600667
172	0xbea7420f	-0.32667586
173	0x3f023eaa	0.5087687
174	0xbe96195d	-0.29316226
175	0x3c7e4693	0.015519756
176	0x3e4330fa	0.19061652
177	0x3f012052	0.5043994
178	0xbf4a963c	-0.7913549
179	0xbf8b300e	-1.087404
180	0x3efe0b4a	0.49617988
181	0xbdd61ff9	-0.10455317
182	0xbefb0a2a	-0.49031192
183	0xbecd08fe	-0.40045923
184	0xbf0876e1	-0.53306395
185	0xbe1e4a85	-0.15458114
186	0xbe40cfb1	-0.18829228
187	0xbf1130e7	-0.56715244
188	0x3f346554	0.70467114
189	0x3ef6a04b	0.4816917
190	0x3f2f7687	0.68540233
191	0x3e96177e	0.29314798
192	0xbea852a1	-0.3287554
193	0xbda93c32	-0.082634345
194	0xbc9ae626	-0.018908571
195	0x3dba727b	0.09103867
196	0x3e297599	0.16548766
197	0xbea6ed6c	-0.32603014
198	0xbe0fe12f	-0.14050744
199	0xbc1b9d3a	-0.009497935
200	0x3ee72960	0.45148754
201	0xbf3f450e	-0.74714744
202	0xbdc824df	-0.097726576
203	0x3f223ec0	0.63377
204	0xbeafbde9	-0.34324577
205	0x3ee94e13	0.45567378
206	0xbe0a3c9b	-0.13499682
207	0xbf337e04	-0.7011416
208	0xbeaf19e0	-0.3419943
209	0xbf666a9b	-0.9000642
210	0xbc123689	-0.008924135
211	0x3f015355	0.5051778
212	0x3e429860	0.19003439
213	0xbe2b65c9	-0.16738047
214	0xbe1505aa	-0.14552942
215	0xbeeb01df	-0.45899865
216	0x3f2ca92d	0.6744564
217	0xbe760440	-0.24025059
218	0xbede60a6	-0.43433112
219	0xbf9c9330	-1.2232418
220	0x3efbb364	0.49160302
221	0x3f449eed	0.76805
222	0x3f1a00f1	0.60157686
223	0xbeceb67a	-0.40373594
224	0xbe88c190	-0.26710176
225	0x3f197ba1	0.5995427
226	0xbdbe7be3	-0.09300973
227	0x3dae3468	0.085060894
228	0xbec4a975	-0.38410535
229	0x3ea0c927	0.31403467
230	0xbf36b19d	-0.71364766
231	0xbdcf18b8	-0.101121366
232	0xbf0e9c74	-0.5570748
233	0x3eef18ae	0.46698517
234	0xbc67f678	-0.014157884
235	0x3e476140	0.19470692
236	0xbec958e8	-0.39325643
237	0xbefa4cb1	-0.48886636
238	0x3f62692b	0.88441724
239	0x3e97920d	0.29603615
240	0x3d9d4eff	0.07681083
241	0xbf531fce	-0.82470405
242	0x3f741307	0.95341533
243	0xbf2bd3d2	-0.6712009
244	0x3e72935a	0.23689023
245	0x3f3e6724	0.7437613
246	0xbf09d1f1	-0.5383597
247	0xbf04fd7e	-0.519493
248	0x3ea423a8	0.32058454
249	0xbf0d15e2	-0.55111516
250	0x3dfce87c	0.123490304
251	0x3e84554c	0.25846326
252	0x3ecfb504	0.4056779
253	0xbee4c862	-0.4468413
254	0xbe989ec5	-0.29808632
255	0x3eb6b839	0.35687426

feature.bias_ih_l0 f4 [512]
0	0x3ead2d0e	0.33823436
1	0xbd7ef928	-0.062249333
2	0x3e52f543	0.20601372
3	0xbe962f0e	-0.29332775
4	0x3ee217a5	0.44158664
5	0x3e554e0d	0.20830555
6	0x3e04e516	0.12978014
7	0xbcfc1ae4	-0.030774541
8	0x3e9d1359	0.30678824
9	0xbed2c8ac	-0.41168725
10	0x3f8fe0ab	1.1240438
11	0x3f3f91f8	0.74832106
12	0xbc16b756	-0.009198984
13	0x3f16203e	0.5864295
14	0x3cf491f0	0.029854745
15	0xbd5d0dbd	-0.05396818
16	0x3ea5de6e	0.32396263
17	0x3ce2d010	0.027687103
18	0x3f325efa	0.6967617
19	0x3ec6f6c4	0.38860142
20	0xbe1cc8cb	-0.15310971
21	0xbf279843	-0.6546671
22	0x3e8b417a	0.27198392
23	0x3ec6a2be	0.38796037
24	0x3f47339e	0.77813137
25	0x3e329a4a	0.17441669
26	0x3d02b465	0.03191032
27	0x3e59d369	0.21272053
28	0xbd85e81c	-0.06538412
29	0x3e7f1677	0.24910913
30	0x3f98c816	1.1936061
31	0xbd78e349	-0.06076363
32	0xbd5e0ef9	-0.054213498
33	0xbc648d89	-0.01394976
34	0xbe303e32	-0.17211226
35	0x3d88e157	0.06683605
36	0x3ba8229d	0.0051310793
37	0x3ed3c5af	0.41361758
38	0x3e87c147	0.26514646
39	0x3e88c467	0.26712343
40	0xbdcc974e	-0.099897966
41	0x3ecf33c5	0.40469185
42	0xbea117dd	-0.3146352
43	0x3ec8e373	0.3923603
44	0xbd92c2b1	-0.07166041
45	0x3fb6c5e2	1.4279139
46	0xbddb589c	-0.1071026
47	0xbe890849	-0.26764134
48	0x3eb50d5d	0.35361758
49	0xbee32751	-0.44365934
50	0x3d6cbdf5	0.057798345
51	0x3dcdd1d2	0.10049786
52	0xbebc7105	-0.36804977
53	0x3ec490ee	0.38391823
54	0x3e97c2c9	0.29640797
55	0x3d15647e	0.03647279
56	0xbe300747	-0.17190276
57	0xbecfa746	-0.40557307
58	0xbdff7af2	-0.12474622
59	0x3eda7c72	0.4267307
60	0x3dea6b9d	0.11446307
61	0x3f0af6ea	0.5428301
62	0x3f388a99	0.72086483
63	0xbe1cdd78	-0.15318859
64	0x3f1d5772	0.61461556
65	0x3f9441d2	1.1582587
66	0x3d6cd4a5	0.05781998
67	0x3dfca76d	0.123366214
68	0x3bcd09a8	0.0062572546
69	0x3f76a705	0.963486
70	0x3d275228	0.040849835
71	0x3d917b38	0.0710358
72	0x3f83841e	1.0274694
73	0x3ebec6a1	0.37260917
74	0x3eba464e	0.36381763
75	0x3e95abb7	0.2923257
76	0x3d81dac3	0.063405536
77	0xbeda3bde	-0.426238
78	0x3ea70c8a	0.32626754
79	0x3d1d7ca4	0.038448945
80	0x3f40db2e	0.7533444
81	0x3e390b1a	0.18070641
82	0x3e698164	0.22803265
83	0x3edde777	0.43340656
84	0x3d338586	0.04382851
85	0x3eb3ee92	0.35142952
86	0xbea6e080	-0.32593155
87	0xbd70e436	-0.05881139
88	0xbe9584d6	-0.29202908
89	0xbe80b5bd	-0.25138655
90	0xbef25c05	-0.4733583
91	0x3f1e2588	0.6177602
92	0x3e03fbfa	0.1288909
93	0x3ba11647	0.0049159857
94	0x3e489b78	0.19590557
95	0x3f303930	0.6883726
96	0x3f95355e	1.1656911
97	0xbcdde29b	-0.027085593
98	0x3ea77005	0.32702652
99	0x3f2dd9c1	0.6791039
100	0xbea4be3a	-0.3217638
101	0xbdabefd5	-0.08395354
102	0x3f6abe9d	0.916971
103	0xbda41904	-0.08012584
104	0x3dcbd92d	0.09953532
105	0x3e04382d	0.12912054
106	0x3cf46536	0.029833417
107	0x3f033a64	0.5126097
108	0xbe400d8a	-0.18755165
109	0xbe2c18b2	-0.16806296
110	0x3eb6da6d	0.3571352
111	0x3e2909f1	0.16507699
112	0xbe5a644f	-0.21327327
113	0xbea5a0b3	-0.32349166
114	0x3e8a1dd0	0.2697587
115	0xbe3a46ce	-0.18191072
116	0x3ef44b7b	0.47713837
117	0xbe29c263	-0.16578059
118	0x3e735ab6	0.23765072
119	0x3beb610a	0.007183199
120	0x3e0f0e20	0.13970232
121	0xbd1467c2	-0.036231764
122	0x3f0cb39d	0.5496157
123	0x3f780107	0.9687657
124	0x3e0746c8	0.13210595
125	0x3f891256	1.0708721
126	0x3e963ae4	0.29341805
127	0xbe54c6d7	-0.20778976
128	0xbe931e6a	-0.28734142
129	0xbe23b01d	-0.1598515
130	0x3e15f4c9	0.1464416
131	0xbd9c90cf	-0.076448075
132	0xbeba9faa	-0.3644994
133	0xbd0e3b2d	-0.034724403
134	0xbe13206b	-0.14367835
135	0x3c0b2566	0.008492803
136	0xbe48329e	-0.19550559
137	0xbec84350	-0.39113855
138	0xbe8eb35a	-0.2787121
139	0xbf21ce36	-0.6320528
140	0xbef61271	-0.48060945
141	0xbf09e433	-0.5386383
142	0xbe9bc1b4	-0.3042122
143	0x3c0b4d28	0.008502282
144	0x3ed34d34	0.4126984
145	0xbe8f89e9	-0.28034905
146	0xbe9a596d	-0.3014635
147	0xbe4e8848	-0.20169175
148	0xbd3fddac	-0.046842262
149	0xbd876076	-0.06610195
150	0xbef67770	-0.48138
151	0xbd521e0a	-0.05129818
152	0x3ed7c53f	0.42142674
153	0xbdbd096b	-0.09230312
154	0x3df6634c	0.12030658
155	0x3e09ffa7	0.1347643
156	0xbe3b8301	-0.18311693
157	0xbec7d70c	-0.39031255
158	0xbf0b873e	-0.5450324
159	0xbf3994ca	-0.7249266
160	0xbe2f417b	-0.17114823
161	0xbe9c9817	-0.30584785
162	0x3e30051a	0.17189446
163	0xbe2ea04f	-0.1705334
164	0x3e3c93a6	0.18415698
165	0x3eccc6d6	0.3999545
166	0xbebbfe7c	-0.36717594
167	0xbec38ba7	-0.38192484
168	0x3e7d70c4	0.24750048
169	0xbf2f3150	-0.6843462
170	0xbdd064ba	-0.10175462
171	0x3f6d49b0	0.92690563
172	0xbe49a507	-0.19691859
173	0xbe8653bb	-0.26235756
174	0xbe32458f	-0.17409347
175	0xbda6cddb	-0.081447326
176	0xbc4c0bb1	-0.012453959
177	0xbf1979ac	-0.5995128
178	0xbdef4a06	-0.11684041
179	0xbeb2b327	-0.34902307
180	0x3ce37f8c	0.02777078
181	0x3db281ee	0.08716188
182	0x3db353b0	0.087561965
183	0xbe9b17e1	-0.30291656
184	0x3e8cae33	0.27476653
185	0xbe112f0c	-0.14178103
186	0xbd4de44e	-0.050266556
187	0xbecbd1d6	-0.3980853
188	0xbe998893	-0.2998701
189	0x3e4b8204	0.19873816
190	0x3d62a52e	0.05533331
191	0x3d6c80a9	0.057739887
192	0xbea8d291	-0.3297315
193	0xbef66220	-0.48121738
194	0xbed3eac4	-0.4139005
195	0x3df28fde	0.11843847
196	0x3e143c2e	0.14476082
197	0xbecd8dc9	-0.40147236
198	0x3f04d1fb	0.51882905
199	0x3f054d0f	0.5207071
200	0xbf0ccb82	-0.5499803
201	0xbe9d1b96	-0.3068511
202	0xbe39fd8b	-0.18163125
203	0xbf107ced	-0.5644062
204	0xbe28e715	-0.16494401
205	0x3cf178b0	0.029476494
206	0xbe193c48	-0.14964402
207	0x3d9660b9	0.07342667
208	0xbdb9a169	-0.0906399
209	0xbeb34002	-0.35009772
210	0xbd68e622	-0.056860097
211	0xbe93b519	-0.28849104
212	0xbf18029f	-0.59379
213	0xbdcbd8ff	-0.09953498
214	0xbe3355d3	-0.17513208
215	0xbdda624f	-0.10663282
216	0xbee5d85c	-0.44891632
217	0xbedf1107	-0.43567678
218	0xbd870eb2	-0.065946
219	0xbf12fb07	-0.5741429
220	0xbdf07228	-0.117405236
221	0xbb565f7d	-0.0032710724
222	0x3e4b5846	0.19857892
223	0xbcdb2e2b	-0.026755413
224	0xbf49219c	-0.7856691
225	0xbd0fe43b	-0.035129767
226	0xbc793fc6	-0.015212959
227	0xbf0e845e	-0.55670726
228	0x3ddd4a11	0.10805143
229	0x3e6e23b6	0.2325581
230	0x3ec7db73	0.39034614
231	0xbe6a7800	-0.22897339
232	0x3d7b5efd	0.061369885
233	0xbe7cc8ff	-0.24686049
234	0xbe49445b	-0.19654982
235	0xbde9d45a	-0.11417456
236	0x3dafa52c	0.08576426
237	0xbc244951	-0.010027246
238	0x3e82dab0	0.2555747
239	0xbd245a01	-0.040124897
240	0x3e84e8f7	0.25958988
241	0x3b507ad1	0.0031811486
242	0xbe9bb38c	-0.3041042
243	0xbc0c60ba	-0.008567983
244	0xbf4af27a	-0.7927624
245	0xbc9565bc	-0.018236987
246	0xbf02b5b5	-0.5105851
247	0x3d4eab23	0.050456177
248	0x3dea5349	0.11441667
249	0xbe40ef76	-0.18841347
250	0xbe8a3eb5	-0.27000967
251	0xbe144c4c	-0.1448223
252	0xbf119122	-0.5686208
253	0xbef19a6a	-0.4718812
254	0x3f017058	0.5056205
255	0xbe6233c6	-0.22090062

feature.bias_hh_l0 f4 [512]
0	0x3e9029ef	0.28156993
1	0xbe13652d	-0.14394064
2	0x3e29b90e	0.16574499
3	0xbe91e866	-0.28497618
4	0x3f0663de	0.52496135
5	0x3e24204e	0.16027948
6	0x3c7a0544	0.0152600445
7	0xbcef8c0f	-0.02924159
8	0x3e9bd721	0.30437568
9	0xbf055ead	-0.5209759
10	0x3f9524c8	1.165185
11	0x3f44c2c6	0.768597
12	0xbda040cb	-0.07824858
13	0x3f1afa1d	0.6053789
14	0x3d608774	0.05481668
15	0xbd08935f	-0.03334367
16	0x3ec57d53	0.38572177
17	0x3abfa99c	0.0014622691
18	0x3f4b0a90	0.7931299
19	0x3e9b1f8f	0.30297515
20	0xbe38a53a	-0.18031779
21	0xbf0ccd60	-0.5500088
22	0x3e4f0efd	0.20220561
23	0x3ed61acf	0.41817328
24	0x3f6f2fe2	0.9343244
25	0x3d5ba7a4	0.05362667
26	0x3d4804cd	0.048832703
27	0x3e1f86fc	0.15578836
28	0xbc3c0a8e	-0.011477126
29	0x3eab5b86	0.33468264
30	0x3f856767	1.0422181
31	0xbc275c03	-0.010214808
32	0xbd8fdf44	-0.070250064
33	0x3d90a785	0.07063202
34	0xbe4cb913	-0.19992475
35	0x3d0e744e	0.034778886
36	0xbdb38055	-0.08764712
37	0x3ecbc5ab	0.39799246
38	0x3e2c8d01	0.16850664
39	0x3e4be82f	0.1991279
40	0xbe262e7e	-0.16228673
41	0x3f093232	0.53592217
42	0xbe3ecd69	-0.18633045
43	0x3e91ef0b	0.28502688
44	0xbe809494	-0.25113356
45	0x3fccf538	1.6012335
46	0xbe0471fe	-0.1293411
47	0xbe2d84e5	-0.16945226
48	0x3ee65ca8	0.44992566
49	0xbee93cd5	-0.45554224
50	0x3e11d047	0.14239608
51	0x3dcf3722	0.101179376
52	0xbebcf0e5	-0.36902538
53	0x3ef5ef90	0.48034334
54	0x3ea07d35	0.31345525
55	0x3d9d23b1	0.07672823
56	0xbd3c4fcb	-0.045974534
57	0xbee8d854	-0.45477545
58	0xbe12858c	-0.14308757
59	0x3ef38622	0.47563273
60	0x3e2aed45	0.16692074
61	0x3f031aa5	0.5121253
62	0x3f267353	0.6501972
63	0xbe893049	-0.2679465
64	0x3f1bf738	0.609241
65	0x3f977e64	1.1835446
66	0x3dcf2a81	0.10115529
67	0x3d75903d	0.05995201
68	0x3ca96c6c	0.020681582
69	0x3f7579ef	0.9588918
70	0xbddae1e0	-0.106876135
71	0x3c8e2380	0.017350912
72	0x3f5cd7bb	0.8626668
73	0x3edf3650	0.43596125
74	0x3ecb3dec	0.3969568
75	0x3ec28894	0.37994826
76	0x3d843526	0.0645545
77	0xbeb91854	-0.36151373
78	0x3e80635d	0.25075808
79	0x3dc4c233	0.09607353
80	0x3f554131	0.833026
81	0x3e0b53fc	0.13606256
82	0x3d82fbb7	0.06395667
83	0x3ed1ecf3	0.4100109
84	0x3da91ade	0.08257078
85	0x3ef78d8d	0.48350182
86	0xbe9cbbd4	-0.3061205
87	0xbcf7324b	-0.030175349
88	0xbe99f8f0	-0.30072737
89	0xbe4eec1d	-0.20207258
90	0xbef81302	-0.48452002
91	0x3f41ffe3	0.7578108
92	0x3e46590a	0.19369903
93	0xbc7a44bc	-0.015275177
94	0x3e6036a1	0.2189584
95	0x3f10b799	0.5653015
96	0x3fbc2f0d	1.4701859
97	0x3d1b10c0	0.03785777
98	0x3eb8916e	0.36048454
99	0x3f411c7c	0.7543409
100	0xbe9aa581	-0.30204394
101	0xbe004262	-0.12525323
102	0x3f70089d	0.9376314
103	0xbdcde181	-0.10052777
104	0x3d1751a2	0.036943085
105	0x3d5a29e4	0.053262606
106	0x3de05c7b	0.10955139
107	0x3ebd96ae	0.37029022
108	0xbe456fdc	-0.19280952
109	0xbe24aa9f	-0.16080712
110	0x3eb7f6bb	0.35930428
111	0x3cf70c75	0.030157307
112	0xbea59b2c	-0.3234495
113	0xbeb08986	-0.34479922
114	0x3e7e1c59	0.24815501
115	0xbe226484	-0.15858656
116	0x3e993d55	0.29929605
117	0xbe1b0839	-0.15139855
118	0x3e1cbbd8	0.15306032
119	0xbd766324	-0.06015314
120	0x3e773542	0.2414141
121	0xbbba2c55	-0.0056815543
122	0x3ec79258	0.3897884
123	0x3f71fe93	0.94529074
124	0x3d4bb439	0.04973242
125	0x3f8c6ebc	1.0971293
126	0x3e81d8cb	0.25360712
127	0xbe3cefae	-0.18450806
128	0xbe8a843b	-0.2705401
129	0xbe853d6f	-0.26023433
130	0x3d84106b	0.06448444
131	0xbe58a918	-0.21158254
132	0xbe6a88f1	-0.22903802
133	0x3e415229	0.18878998
134	0x3cf7199b	0.030163577
135	0xbd6051e2	-0.05476559
136	0xbdeff587	-0.117167525
137	0xbed1bb6a	-0.40963298
138	0xbea500c2	-0.3222714
139	0xbf347be3	-0.70501536
140	0xbf00047a	-0.5000683
141	0xbf535561	-0.8255215
142	0xbefcc496	-0.49368733
143	0x3daffdfb	0.08593365
144	0x3ea6ca6c	0.3257631
145	0xbe417973	-0.18893985
146	0xbe998d72	-0.29990727
147	0xbe2af5ae	-0.16695282
148	0x3db888ba	0.090104535
149	0x3cd89088	0.026436105
150	0xbead61f1	-0.33863786
151	0xbe506cef	-0.20354055
152	0x3ebddcd0	0.3708253
153	0xbe3398e8	-0.17538798
154	0x3e567af4	0.2094534
155	0x3e33a0e7	0.17541848
156	0xbe87610d	-0.2644123
157	0xbe9df6aa	-0.30852252
158	0xbf043755	-0.5164693
159	0xbf4781d3	-0.7793247
160	0xbe14a25f	-0.14515065
161	0xbe9287aa	-0.28619128
162	0x3e2a6097	0.16638409
163	0xbe88467c	-0.26616275
164	0x36608c00	3.3460092e-06
165	0x3ea313d6	0.3185107
166	0xbeb17509	-0.34659603
167	0xbed82e60	-0.4222288
168	0x3e7dc049	0.24780382
169	0xbf25551e	-0.64583004
170	0x3b956e3c	0.00456026
171	0x3f64a31b	0.8931138
172	0xbe028b5e	-0.12748477
173	0xbe884e57	-0.2662227
174	0xbe5fea7d	-0.21866794
175	0xbe7f15c5	-0.24910648
176	0xbe6170ce	-0.22015688
177	0xbf096bba	-0.5368
178	0xbd44cd51	-0.048047367
179	0xbed83a1e	-0.4223184
180	0x3dd40174	0.1035184
181	0xbd80c738	-0.06287998
182	0x3e37c842	0.17947486
183	0xbe96ac42	-0.29428297
184	0x3ea9ca5b	0.33162197
185	0xbe94a597	-0.29032585
186	0x3dd6af29	0.10482628
187	0xbebba191	-0.36646703
188	0xbe0414c2	-0.12898543
189	0x3e46aefc	0.19402689
190	0x3db0e921	0.08638216
191	0xbd065e0a	-0.032804526
192	0xbe98c694	-0.29839003
193	0xbf17a081	-0.59229285
194	0xbeedd7fb	-0.46453843
195	0xbc24aeaa	-0.010051409
196	0x3e023e4b	0.12719075
197	0xbeaa4c16	-0.33261174
198	0x3f08a9d8	0.5338416
199	0x3ef38078	0.4755895
200	0xbef1099e	-0.4707765
201	0xbe920ef8	-0.28527045
202	0xbe0224c2	-0.12709334
203	0xbed4ad55	-0.41538492
204	0xbe02c557	-0.12770592
205	0x3e5cbc6e	0.21556255
206	0xbe9e0d9a	-0.30869752
207	0x3cb41e23	0.021987027
208	0xbd8c1fc0	-0.06841993
209	0xbe855efb	-0.26049027
210	0xbdc3256a	-0.095286205
211	0xbe4db466	-0.20088348
212	0xbf1818a8	-0.5941262
213	0xbd17d91d	-0.03707229
214	0xbe10bdd1	-0.14134909
215	0xbe372517	-0.17885242
216	0xbedde9e2	-0.433425
217	0xbedb9ce3	-0.42893133
218	0xbdfbbaed	-0.12291513
219	0xbef55045	-0.47912803
220	0xbe006d73	-0.12541752
221	0xbd9b3336	-0.07578127
222	0x3e884cf2	0.26621205
223	0xbe9df5a6	-0.30851477
224	0xbf1fbfda	-0.6240212
225	0x3dcd8f2d	0.10037074
226	0x3d904fee	0.070464954
227	0xbf1f74a1	-0.62287337
228	0x3d39cc7c	0.045361027
229	0x3e94ecc1	0.2908688
230	0x3e8d103b	0.27551445
231	0xbe79b3e9	-0.24385037
232	0xbd83cfc1	-0.0643611
233	0xbe9d235a	-0.30691034
234	0xbe78bedd	-0.24291559
235	0xbe0c5a57	-0.13706337
236	0x3e23abcf	0.15983509
237	0x3d0d1bc1	0.034450296
238	0x3ead1f03	0.33812723
239	0xbdbe185f	-0.09281992
240	0x3e8f0fea	0.2794183
241	0xbcf08a80	-0.029362917
242	0xbeffe912	-0.49982506
243	0x3cd13783	0.025539165
244	0xbf40cb4e	-0.7531022
245	0x3d619f75	0.05508371
246	0xbeb0761b	-0.34465107
247	0x3d4e1e1d	0.050321687
248	0x3dbb2b2c	0.09139094
249	0xbd96eb16	-0.07369058
250	0xbe88cfce	-0.26721042
251	0xbe65630b	-0.22401063
252	0xbf00a11c	-0.50245833
253	0xbeed2c4c	-0.46322858
254	0x3ef8ce1b	0.48594746
255	0xbdfa9ac7	-0.12236553

feature.weight_ih_l0_reverse f4 [512, 64]
0	0x3f6e7019	0.931398
1	0x3d63e1bd	0.055635203
2	0xbe4a0541	-0.19728567
3	0xbd196657	-0.037451115
4	0x3df5d7f9	0.12004084
5	0x3da0b9a1	0.07847906
6	0xbda531c9	-0.080661364
7	0xbfb15841	-1.3855058
8	0xbf09b226	-0.5378746
9	0x3f874b04	1.0569768
10	0xbe164883	-0.14676099
11	0xbe8bdca3	-0.2731677
12	0x3f46a901	0.7760163
13	0x3fcf3c21	1.6190225
14	0x3e7874b2	0.24263266
15	0xbd20474c	-0.039130494
16	0x3f68fc03	0.9100954
17	0x3c968c6f	0.01837751
18	0x3f5cb4cb	0.8621337
19	0xbc8ddf37	-0.017318351
20	0x3f0f8940	0.560688
21	0x3dd9c02f	0.10632359
22	0x3f13c976	0.5772928
23	0xbf55d5ca	-0.8352934
24	0x3eed12ef	0.46303508
25	0xbd785208	-0.060625106
26	0xbf40e125	-0.75343543
27	0xbd4abcea	-0.04949657
28	0x3ed9ea5f	0.42561623
29	0xbc445646	-0.01198346
30	0xbef8a4ca	-0.48563224
31	0xbeb112cc	-0.34584653
32	0xbf0047cf	-0.5010957
33	0x3f31fb77	0.6952433
34	0x3f0f7ac5	0.56046706
35	0xbfa22260	-1.266674
36	0x3f4753cc	0.7786224
37	0xbe097aff	-0.13425826
38	0x3d5b114f	0.053483304
39	0x3e018e6f	0.1265199
40	0xbe9a5937	-0.3014619
41	0x3f58982c	0.84607196
42	0x3d76065d	0.060064662
43	0x3f523644	0.8211405
44	0x3dec68dc	0.11543438
45	0xbf301265	-0.6877807
46	0x3f11dad2	0.5697452
47	0x3e587434	0.21138078
48	0x3f69fda0	0.91402626
49	0x3e60f8ae	0.21969864
50	0xbf936b7a	-1.1517174
51	0x3ebbdb8a	0.36690933
52	0xbda2140c	-0.0791398
53	0xbf2c531c	-0.67314315
54	0x3efa28ee	0.48859352
55	0xbf4caf79	-0.7995525
56	0xbf3241d8	-0.6963172
57	0xbfae9cb3	-1.3641571
58	0x3f005229	0.50125366
59	0xbe3ae609	-0.18251814
60	0x3e10f1a7	0.14154683
61	0xbcdb2f70	-0.026756018
62	0xbedcc26a	-0.43117076
63	0xbf5634a7	-0.8367409
64	0x3bf94528	0.007607121
65	0x3e5e9cf6	0.21739563
66	0xbe02686c	-0.12735146
67	0xbe99b122	-0.30017954
68	0xbe75489a	-0.23953477
69	0xbc88f97f	-0.016720532
70	0x3d458392	0.04822118
71	0xbf30bf66	-0.6904205
72	0xbc7a0128	-0.015259065
73	0xbe6add45	-0.2293597
74	0x3db60b0f	0.08888828
75	0x3f315932	0.69276726
76	0xbe780122	-0.24219182
77	0x3e5998a3	0.21249633
78	0xbe814f90	-0.25256014
79	0x3ddfe04a	0.109314516
80	0xbf285063	-0.6574766
81	0xbe9ddf31	-0.30834344
82	0x3f7ab6fd	0.9793547
83	0x3c8235c4	0.015894778
84	0x3f0bd3f1	0.5462027
85	0x3d356645	0.044286985
86	0x3cb105eb	0.021609267
87	0x3f00e7d3	0.50353736
88	0xbf9a9a55	-1.2078348
89	0x3f00d2aa	0.5032145
90	0xbecb815d	-0.39747134
91	0xbf1cdc4a	-0.61273634
92	0x3db5af91	0.08871377
93	0x3dacc8c8	0.084367335
94	0x3f30ffcd	0.6914032
95	0x3f150431	0.5820952
96	0xbb5d716d	-0.003378953
97	0xbf4cad5d	-0.7995203
98	0xbedd3d2c	-0.43210733
99	0xbf0d8ac0	-0.5528984
100	0xbf3fae4a	-0.7487532
101	0x3f1693f2	0.58819497
102	0x3e9ebacc	0.3100189
103	0xbd6148ac	-0.055000946
104	0xbe7827da	-0.24233952
105	0xbf3be3ad	-0.7339428
106	0x3f4e1bf2	0.8051139
107	0xbf106558	-0.5640464
108	0xbf28a345	-0.6587413
109	0xbefb66d5	-0.49101892
110	0x3f68d332	0.9094726
111	0x3f859aae	1.043783
112	0x3eb70533	0.35746154
113	0xbfa0d923	-1.2566265
114	0xbf387c92	-0.7206508
115	0x3e15c720	0.14626741
116	0x3f643d8f	0.8915643
117	0x3f36ab61	0.71355253
118	0x3ec4f504	0.38468182
119	0xbe0db4c3	-0.13838486
120	0x3e0db4b6	0.13838467
121	0x3f101551	0.56282526
122	0xbd86da20	-0.06584573
123	0xb96aa410	-0.00022377097
124	0x3e80d433	0.25161895
125	0xbf11ecba	-0.5700184
126	0xbf2cb8b2	-0.6746932
127	0xbeec66f3	-0.46172294
128	0xbf690448	-0.9102216
129	0xbf287e11	-0.6581736
130	0xbfaa1fb7	-1.3290929
131	0x3e2dac3a	0.1696023
132	0x3f429ce3	0.7602064
133	0xbe83fe3d	-0.25779906
134	0xbf61d999	-0.8822265
135	0x3e8591c3	0.2608777
136	0xbe33f114	-0.17572433
137	0xbf1b5320	-0.60673714
138	0xbe013dfc	-0.12621301
139	0x3e972978	0.29523826
140	0xbcd7ede4	-0.026358552
141	0xbf4f4e59	-0.80978924
142	0x3f4b9eb7	0.79539055
143	0x3ef2d1da	0.4742573
144	0x3f07cfcf	0.53051466
145	0xbdad2d98	-0.08455962
146	0xbe0ade9a	-0.13561478
147	0x3dcc56d9	0.099775024
148	0xbec42657	-0.383105
149	0x3b647d27	0.0034864636
150	0xbc5917c3	-0.013250294
151	0x3ea5b56e	0.32364982
152	0x3d439148	0.047745973
153	0x3dc2a743	0.09504559
154	0xbf4cf795	-0.8006528
155	0xbf86602e	-1.0498102
156	0xbf1b62d0	-0.6069765
157	0x3ddcf427	0.10788756
158	0x3e8b21dc	0.2717427
159	0xbe80648b	-0.25076708
160	0xbe8bba21	-0.27290443
161	0xbed324ba	-0.41238958
162	0xbfa55fb7	-1.2919835
163	0x3f32dafc	0.69865394
164	0xbf59788f	-0.8494958
165	0xbef76b55	-0.48324075
166	0x3eb5b207	0.35487387
167	0xbe706192	-0.2347472
168	0xbed44013	-0.41455135
169	0x3f03bbe3	0.5145857
170	0xbe9619ba	-0.29316503
171	0xbee48655	-0.44633737
172	0x3e81ed74	0.25376475
173	0x3ea8d279	0.32973078
174	0xbe96c713	-0.29448757
175	0xbeda7345	-0.4266607
176	0x3f0f4f57	0.5598044
177	0xbebf8708	-0.37407708
178	0xbf8d8912	-1.1057456
179	0xbd4b2ede	-0.049605243
180	0xbe9c3f38	-0.30516982
181	0x3dfb5efa	0.12273975
182	0x3ee0e216	0.4392249
183	0xbf083734	-0.53209233
184	0x3da42c96	0.080163166
185	0xbee06ccd	-0.43833008
186	0xbda2e8e8	-0.079545796
187	0x3eb50dc7	0.35362074
188	0x3f936ef3	1.1518234
189	0xbee55e6f	-0.4479861
190	0xbef28e90	-0.47374392
191	0x3f55b2a9	0.8347574
192	0xbeafc5fd	-0.3433074
193	0xbf1856e7	-0.595076
194	0xbda71b3a	-0.0815949
195	0xbe690690	-0.2275641
196	0xbe85dad3	-0.26143512
197	0xbf333f19	-0.70018154
198	0xbe02a834	-0.12759477
199	0x3deccce7	0.115625195
200	0x3f307691	0.6893092
201	0x3fb28cae	1.3949182
202	0x3df2fde5	0.11864833
203	0x3f529661	0.8226071
204	0xbe9ac0e5	-0.30225292
205	0xbeed8e66	-0.46397704
206	0xbeb44691	-0.35210088
207	0xbf0e979c	-0.5570009
208	0xbd4b1d96	-0.049588762
209	0xbe1d3464	-0.15352017
210	0x3e83efb3	0.25768813
211	0x3f8c9fbc	1.0986247
212	0xbf2398bf	-0.6390495
213	0x3d051b23	0.032496583
214	0xbcf4492a	-0.029820044
215	0x3f2c39d6	0.6727575
216	0x3ec932ca	0.3929656
217	0xbef7f992	-0.48432595
218	0xbcd96506	-0.02653743
219	0x3ccf5f51	0.025314005
220	0x3ec26e9c	0.37975013
221	0xbedfa5d8	-0.43681216
222	0xbea5df97	-0.32397148
223	0x3e1039ed	0.14084597
224	0x3f8994dc	1.0748553
225	0xbf4c73c7	-0.7986416
226	0xbf111c0d	-0.5668343
227	0x3e1fbfa0	0.15600443
228	0xbf1aff8a	-0.6054617
229	0x3f6e21dd	0.9302042
230	0x3dc6710c	0.09689531
231	0x3e2a309b	0.16620104
232	0xbe84791d	-0.25873652
233	0x3e1d1480	0.15339851
234	0x3f2515c4	0.64486337
235	0x3e986642	0.29765517
236	0xbec4aced	-0.38413182
237	0x3d23d22f	0.03999537
238	0x3e374990	0.17899156
239	0x3e7acac8	0.24491417
240	0x3f8a06ed	1.0783364
241	0x3f049e1f	0.51803774
242	0x3e683e3f	0.22679995
243	0x3f2ceb2a	0.6754633
244	0xbeb3918f	-0.3507199
245	0xbf8f3d37	-1.1190556
246	0x3edb6e74	0.42857707
247	0xbeada666	-0.33916014
248	0x3ec041be	0.37550157
249	0xbf0d51c8	-0.55202913
250	0x3f045815	0.516969
251	0x3f6baaaa	0.9205729
252	0xbf5b4728	-0.8565545
253	0xbe5f03e9	-0.21778835
254	0x3f15f262	0.5857297
255	0x3f9ced18	1.2259855

feature.weight_hh_l0_reverse f4 [512, 128]
0	0x3ea25b08	0.31710076
1	0xbf4fd55b	-0.8118493
2	0x3d61b66e	0.05510562
3	0x3f842d98	1.0326414
4	0x3f370666	0.7149414
5	0xbe9b5024	-0.3033458
6	0x3e3eec96	0.18644938
7	0x3dcb776b	0.099348865
8	0xbe822dcd	-0.25425568
9	0xbe4604d9	-0.19337787
10	0xbf09fd94	-0.53902555
11	0xbeb6f63f	-0.35734746
12	0x3eb97b8e	0.36227077
13	0x3f558a91	0.8341456
14	0xbef339c6	-0.47505015
15	0xbd8f621a	-0.07001133
16	0x3ec71374	0.3888203
17	0xbea5d059	-0.3238552
18	0x3f6a663e	0.9156226
19	0xbea14ea3	-0.31505308
20	0x3e9c17ef	0.3048701
21	0x3ca2fc4b	0.019895693
22	0x3fb5eb6a	1.4212468
23	0x3eee1e3e	0.46507448
24	0xbefbad24	-0.49155533
25	0xbdb522ae	-0.08844505
26	0x3f48eb94	0.78484464
27	0xbdacee6c	-0.08443913
28	0x3f1f7228	0.62283564
29	0xbeffbe3d	-0.49949828
30	0x3eb840c4	0.35986912
31	0xbe264479	-0.16237058
32	0xbe9f1c37	-0.31076214
33	0xbf06856e	-0.5254735
34	0xbb515e4d	-0.0031947077
35	0xbf15cb26	-0.58513105
36	0xbe919f0e	-0.28441662
37	0x3f1de74b	0.6168105
38	0x3edbb502	0.42911536
39	0xbeee3af8	-0.46529365
40	0x3e5b1d16	0.21397814
41	0x3f0a7f21	0.54100233
42	0xbea9ec97	-0.33188316
43	0xbe4321f1	-0.19055916
44	0xbd68761f	-0.056753274
45	0xbc373d54	-0.011184055
46	0x3f43c46b	0.76471585
47	0xbf0c5cab	-0.548289
48	0x3eb94166	0.36182708
49	0xbe04c6d7	-0.12966476
50	0xbe4d8385	-0.20069702
51	0xbf2f28a6	-0.684214
52	0x3dc10646	0.09425025
53	0xbdf59611	-0.119915135
54	0xbeef472f	-0.46733996
55	0xbe1412fd	-0.14460368
56	0x3f60bdcc	0.8778961
57	0x3da3b591	0.079936154
58	0x3df12715	0.117750324
59	0xbe984fb0	-0.29748297
60	0x3f826a02	1.0188601
61	0x3f88a378	1.0674887
62	0x3db793cf	0.08963739
63	0xbd83437c	-0.06409356
64	0x3f0f3434	0.5593903
65	0xbe29fc09	-0.1660005
66	0x3f447a46	0.76749074
67	0xbc011e84	-0.007880811
68	0xbf0051ca	-0.501248
69	0x3f2e60d5	0.68116504
70	0x3e02ea1b	0.12784617
71	0x3d155b17	0.036463823
72	0x3e109e88	0.14122975
73	0xbe9d62e2	-0.30739504
74	0x3e984f33	0.29747924
75	0xbf5e4e98	-0.86838675
76	0xbe505e20	-0.20348406
77	0xbe34de2f	-0.17662881
78	0xbf70c304	-0.9404757
79	0x3e36894e	0.17825815
80	0x3ee98f7c	0.45617282
81	0x3f7de4bb	0.9917714
82	0xbed9b8f4	-0.4252392
83	0xbe89436e	-0.26809257
84	0x3ee603c1	0.4492474
85	0xbe034c0d	-0.1282198
86	0x3f19cc3e	0.60077274
87	0x3e9209e2	0.28523165
88	0xbf5a06b9	-0.8516651
89	0x3e97659b	0.29569706
90	0x3ee2f253	0.44325504
91	0xbea50a96	-0.3223464
92	0xbe7cf380	-0.24702263
93	0xbeaa4817	-0.33258125
94	0x3de97319	0.11398906
95	0xbe77a410	-0.24183679
96	0xbf87d583	-1.0612034
97	0x3f778433	0.96686095
98	0xbf3c5dcc	-0.7358062
99	0x3ef2b268	0.47401738
100	0x3f17f9c4	0.5936549
101	0x3fc758e2	1.5574
102	0xbae929b8	-0.0017788922
103	0xbf664434	-0.8994782
104	0x3f972337	1.1807622
105	0x3e9f8b2d	0.3116087
106	0x3f80154a	1.0006497
107	0xbf2f4d8a	-0.6847769
108	0x3f120466	0.5703796
109	0x3ea42cd9	0.32065466
110	0x3cdcf465	0.026972005
111	0x3e6bf7b0	0.23043704
112	0x3eea3d65	0.45749965
113	0xbf1f1fa6	-0.62157667
114	0x3e3b7414	0.18305999
115	0x3e3bd9c7	0.18344794
116	0xbfeea84e	-1.8645113
117	0xbf6531f1	-0.8952933
118	0x3e2d958d	0.1695158
119	0x3df0b795	0.117537655
120	0x3f48cf5e	0.7844142
121	0xbe42356d	-0.18965693
122	0x3ee7d839	0.45282152
123	0x3d583a86	0.052790187
124	0xbf3a4278	-0.72757673
125	0x3d3e1cf2	0.046414323
126	0x3e8a452c	0.270059
127	0x3e4a99a0	0.19785166
128	0x3f4dc482	0.8037797
129	0x3da2dc5f	0.07952189
130	0x3efa2e08	0.48863244
131	0x3ea049df	0.3130636
132	0xbf234f24	-0.63792634
133	0xbf298b61	-0.662283
134	0xbead6984	-0.33869565
135	0x3f3ab9db	0.7293984
136	0x3d4ea355	0.050448734
137	0xbead9276	-0.33900803
138	0xbe67f15a	-0.22650662
139	0x3deabeea	0.11462195
140	0xbeb48fde	-0.35266012
141	0x3d57612f	0.052582916
142	0x3f2a0ce9	0.6642595
143	0xbf2ab6fd	-0.6668547
144	0xbec25010	-0.37951708
145	0xbd97557c	-0.07389352
146	0x3e96a5d8	0.29423404
147	0xbe9f1f02	-0.31078345
148	0xbc99bb0b	-0.018765947
149	0xbea1f7ad	-0.31634274
150	0xbe2529d6	-0.1612924
151	0xbe0486a4	-0.12941986
152	0x3f129934	0.5726502
153	0xbf06d559	-0.5266929
154	0xbe23b713	-0.15987806
155	0x3e6258aa	0.22104135
156	0x3ea158ea	0.3151315
157	0x3d9609ee	0.07326113
158	0xbf01cc3d	-0.5070227
159	0xbccb3f9a	-0.024810601
160	0x3e089f2b	0.13341968
161	0x3f33be6b	0.7021243
162	0xbd90087c	-0.07032868
163	0x3f800d57	1.0004071
164	0x3ed91740	0.4240055
165	0x395cc6a0	0.00021054829
166	0x3bba2e22	0.005681769
167	0x3e4bcbfc	0.19902033
168	0x3ef56111	0.47925618
169	0xbec963d8	-0.39333987
170	0x3ea131b2	0.31483227
171	0x3f0d5bb7	0.5521807
172	0xbdb98e21	-0.09060312
173	0xbf50db0e	-0.8158425
174	0x3ecdf26a	0.4022401
175	0xbe9db114	-0.30799162
176	0x3eb9247f	0.36160657
177	0xbc3210c2	-0.010868253
178	0xbe5f9285	-0.21833237
179	0xbcfdf447	-0.03100027
180	0x3f428497	0.75983566
181	0x3d74f251	0.059801403
182	0xbdf04c28	-0.11733276
183	0x3ede96be	0.43474382
184	0xbdccd28d	-0.10001097
185	0xbf2a9c5a	-0.66644824
186	0x3ea1a7f0	0.3157344
187	0x3e81f9d7	0.25385925
188	0x3f427f6e	0.7597569
189	0x3e799e32	0.24376753
190	0xbdda863c	-0.106701344
191	0x3d7c4f12	0.061598845
192	0x3f1b430c	0.6064918
193	0x3f2c63f6	0.6734003
194	0x3eab0712	0.33403832
195	0x3ecf3669	0.404712
196	0x3f3032f0	0.68827724
197	0x3f22f3f6	0.63653505
198	0xbf26c9e3	-0.65151805
199	0x3e42fb08	0.19041073
200	0xbc50028d	-0.012695921
201	0x3f09e9ef	0.5387258
202	0xbf1501b3	-0.5820572
203	0x3e988c50	0.2979455
204	0x3d0c177f	0.034202095
205	0xbe5c116d	-0.21491022
206	0xbdace6b8	-0.084424436
207	0xbf120142	-0.5703317
208	0x3c02e5a0	0.007989317
209	0x3f20b4d8	0.62775946
210	0x3e2f9524	0.17146736
211	0xbe0f262e	-0.13979408
212	0xbe7c395d	-0.24631257
213	0xbf0900a1	-0.53516585
214	0x3ea22e7e	0.31676096
215	0xbea3569a	-0.3190201
216	0xbd71403a	-0.05889914
217	0x3ede7d61	0.43455032
218	0x3e2aa6c7	0.16665183
219	0x3eccedf0	0.40025282
220	0x3ef8ee86	0.4861948
221	0xbe9f1b3e	-0.31075472
222	0x3e1c96d9	0.15291919
223	0xbe4b282d	-0.19839545
224	0x3e419a13	0.18906431
225	0xbec9618b	-0.39332232
226	0x3eb7fe52	0.35936219
227	0xbd83a043	-0.06427052
228	0x3e7a5a49	0.24448504
229	0xbe76facc	-0.24119109
230	0xbf3eb1d9	-0.74490124
231	0xbe86f69c	-0.26360023
232	0xbe2b9867	-0.16757356
233	0x3e2f451c	0.17116207
234	0xbc91e0f8	-0.017807469
235	0xbe856081	-0.2605019
236	0xbe0ef527	-0.13960706
237	0x3efbda1e	0.49189848
238	0xbe22e370	-0.15907073
239	0xbed37b85	-0.41305175
240	0x3f0a76a1	0.54087263
241	0x3f3263b7	0.696834
242	0x3e1882bc	0.14893621
243	0x3eafbd48	0.34324098
244	0x3e128946	0.14310178
245	0xbe5e9c55	-0.21739323
246	0x3ee3e8a5	0.4451343
247	0xbe112ef5	-0.14178069
248	0x3d4c2405	0.04983904
249	0xbe19073c	-0.14944166
250	0xbe859873	-0.26092872
251	0xbf89d6aa	-1.0768635
252	0xbe89c3f9	-0.26907328
253	0x3e183d6b	0.14867179
254	0x3e3e219a	0.18567505
255	0xbe2e824e	-0.17041895

feature.bias_ih_l0_reverse f4 [512]
0	0x3e1988fb	0.1499366
1	0xbbaf3977	-0.0053474265
2	0xbe822630	-0.2541976
3	0xbc936118	-0.017990634
4	0x3d7f7152	0.06236393
5	0x3ec651cb	0.38734278
6	0xbe0918d2	-0.13388374
7	0x3e0748d6	0.13211378
8	0x3dceb3b1	0.10092867
9	0x3cc41d7f	0.023939846
10	0x3ec470cf	0.38367316
11	0x3f26f437	0.6521639
12	0x3e1d8c6c	0.15385598
13	0x3e60ebd3	0.2196496
14	0x3e7879a2	0.24265149
15	0x3f1ba339	0.60795933
16	0x3db1f9cd	0.08690224
17	0x3b4f2d32	0.0031612632
18	0x3eb93411	0.36172536
19	0x3db78348	0.08960587
20	0xbdc48d08	-0.09597212
21	0x3e95a764	0.2922927
22	0x3e2c18b4	0.16806298
23	0xbea16fd3	-0.31530628
24	0x3d9191b1	0.071078666
25	0x3df0a963	0.11751058
26	0x3e34a731	0.17641903
27	0x3ee4ec64	0.44711602
28	0xbd82cf9b	-0.06387254
29	0xbdcca635	-0.09992639
30	0x3e9fd4be	0.31216997
31	0x3e766e26	0.24065456
32	0x3d9ebbd8	0.07750672
33	0x3f0add12	0.54243577
34	0x3d0c8ea9	0.03431574
35	0x3e08e94f	0.1337025
36	0xbc946f8b	-0.018119594
37	0xbd618cce	-0.055065922
38	0x3e585cbe	0.21129128
39	0xbe9d669c	-0.30742347
40	0x3d429001	0.047500614
41	0x3e06c396	0.13160548
42	0xbdc3d992	-0.095629826
43	0x3df64b0e	0.12026034
44	0xbe25dfff	-0.16198729
45	0x3dd9cbbc	0.106345624
46	0x3eb03489	0.3441508
47	0x3ebf7d44	0.37400258
48	0x3de94d42	0.11391689
49	0xbd88873a	-0.066664174
50	0x3deec780	0.11659145
51	0x3d4615a3	0.048360478
52	0x3e95df98	0.2927215
53	0x3e226420	0.15858507
54	0xbe4a1c0f	-0.19737266
55	0xbe0c605a	-0.1370863
56	0x3e809a81	0.25117877
57	0x3e849110	0.25891924
58	0xbd9c1935	-0.07621995
59	0xbe12ca4b	-0.14334981
60	0xbd9e8c0f	-0.07741558
61	0x3e03e59a	0.12880555
62	0x3f1814d5	0.5940679
63	0x3e17b386	0.14814577
64	0xbe839a85	-0.25703827
65	0x3f0c60f0	0.54835415
66	0x3e537b29	0.2065245
67	0x3e5d14c9	0.2158996
68	0x3eb8b559	0.36075857
69	0x3df29942	0.11845638
70	0x3ec823b7	0.39089748
71	0x3eb4d174	0.3531605
72	0x3b55c826	0.0032620518
73	0x3e5e74cb	0.2172424
74	0xbcd2fa2a	-0.025754053
75	0x3eb04569	0.34427956
76	0x3e56d703	0.20980458
77	0xbe70c3be	-0.2351217
78	0x3e81ec8e	0.2537579
79	0x3ca51994	0.020153798
80	0x3e9c5bfc	0.30538929
81	0x3e06f37f	0.13178824
82	0x3ec0ad97	0.3763244
83	0xbe4e20ef	-0.2012975
84	0x3f024f35	0.5090211
85	0xbe4eb8a4	-0.20187622
86	0x3d6f77f3	0.058464002
87	0x3ef506f5	0.4785687
88	0xbe4f7fb8	-0.20263565
89	0x3df62af4	0.120199114
90	0x38273b10	3.987091e-05
91	0xbce86d9f	-0.028372584
92	0x3ef351f4	0.47523463
93	0x3e139f0f	0.14416145
94	0x3f08981f	0.5335712
95	0x3e44a270	0.1920259
96	0x3e2d682a	0.16934267
97	0x3ec49b03	0.38399515
98	0x3dbeecf8	0.09322542
99	0xbed6073e	-0.418024
100	0xbdb39ab3	-0.08769741
101	0x3c65c7bc	0.014024671
102	0x3f008bec	0.50213504
103	0x3e9e355d	0.30900088
104	0x3d9d26e5	0.07673434
105	0xbc7628b2	-0.015024351
106	0x3f0d00e0	0.5507946
107	0x3e92fa8d	0.2870678
108	0xbd5d7e97	-0.054075804
109	0x3ec4cf74	0.38439524
110	0xbd23b9f9	-0.03997228
111	0xbd37a8f3	-0.044838857
112	0x3d744a8e	0.059641413
113	0xbc6d596e	-0.014486654
114	0x3eae6028	0.34057736
115	0xbeb685ab	-0.35648856
116	0xbcbffba5	-0.023435423
117	0x3ef01c75	0.4689671
118	0x3b8d29bd	0.004307954
119	0x3ef7424d	0.4829277
120	0x3f857bd8	1.0428419
121	0xbe8063b5	-0.2507607
122	0x3e8f88e3	0.28034124
123	0x3e884e16	0.26622075
124	0x3da0ef93	0.07858195
125	0x3e449115	0.1919597
126	0x3e373f36	0.17895207
127	0xbc117c1f	-0.00887969
128	0xbe696010	-0.22790551
129	0x3c469fa9	0.012123027
130	0x3ead5fd9	0.33862188
131	0x3d70d4a7	0.05879655
132	0xbe870976	-0.26374406
133	0x3ed2bfbf	0.41161916
134	0x3f60162c	0.8753383
135	0x3d975b87	0.07390504
136	0x3e0adb5a	0.13560238
137	0x3f5a9365	0.85381156
138	0x3e39b0e2	0.18133882
139	0xbe8e09cb	-0.27741846
140	0xbe034bbd	-0.1282186
141	0x3ebac3a4	0.36477387
142	0xbeb1faed	-0.34761754
143	0x3d1f76e8	0.038931757
144	0x3eb569f6	0.35432404
145	0xbe06b248	-0.13153946
146	0x3ebb61b5	0.36597982
147	0x3d387801	0.04503632
148	0x3e58c46a	0.21168676
149	0xbe8462ca	-0.2585662
150	0x3e817161	0.25281814
151	0xbf0c7e4a	-0.548802
152	0x3dd6449e	0.104623064
153	0xbdcd8040	-0.10034227
154	0x3eb40442	0.35159498
155	0xbe50c32f	-0.20386957
156	0xbd5ef58d	-0.054433394
157	0x3ec8b37b	0.39199433
158	0xbcfc55b7	-0.03080259
159	0x3e885121	0.26624396
160	0xbf02c566	-0.51082456
161	0x3ecbb347	0.39785215
162	0xbe3a0c93	-0.18168859
163	0x3dd03d6a	0.10167964
164	0x3db4776e	0.08811842
165	0x3d9612e4	0.07327822
166	0x3ea4402b	0.32080206
167	0x3e6aaa28	0.22916472
168	0xbe9874c0	-0.29776573
169	0x3f0e6470	0.55622005
170	0xbe123800	-0.14279175
171	0xbe2982b8	-0.16553771
172	0x3e40e681	0.1883793
173	0xbe42a94c	-0.19009894
174	0x3daa9e20	0.08330941
175	0xbdc87f3b	-0.09789892
176	0x3e58916d	0.21149226
177	0xbe533a52	-0.20627716
178	0xbd4890e3	-0.0489663
179	0x3e9b6a45	0.30354515
180	0xbea83aba	-0.32857305
181	0xbe610cdc	-0.21977562
182	0xbe2fda20	-0.17173052
183	0x3d30f04c	0.043197915
184	0xbde2a570	-0.11066711
185	0xbe3e4ce6	-0.18584022
186	0x3f227bed	0.63470346
187	0x3f5eed05	0.87080413
188	0xbe0ea646	-0.13930616
189	0xbe0e155a	-0.13875332
190	0xbde3dfa6	-0.11126642
191	0x3f115691	0.56772715
192	0xbe00161d	-0.12508436
193	0xbe95e983	-0.29279718
194	0xbb4590a5	-0.003014603
195	0x3da1a8b0	0.07893503
196	0xbf0c58df	-0.54823107
197	0xbe1e4266	-0.15455016
198	0xbea5d3c6	-0.32388133
199	0x3f106920	0.5641041
200	0x3dcaccfe	0.099023804
201	0x3eda4aa9	0.42635086
202	0xbd902ff0	-0.07040393
203	0xbbfd3088	-0.0077267326
204	0x3e045830	0.12924266
205	0x3f166709	0.5875097
206	0xbe8eb0c9	-0.2786925
207	0xbe9ff2f3	-0.31240043
208	0xbc6c811b	-0.014435078
209	0xbee675f1	-0.45011857
210	0x3e01eada	0.12687245
211	0x3e3d8164	0.1850639
212	0x3ea9f36e	0.33193535
213	0x3d05719a	0.032579042
214	0x3d782459	0.06058154
215	0xbdc01548	-0.09379059
216	0x3e833551	0.25626615
217	0x3f2a5ac1	0.6654473
218	0xbda92ea6	-0.082608506
219	0xbdf548bc	-0.119767636
220	0x3f025dec	0.50924563
221	0x3efc83c0	0.49319267
222	0xbe73ff4b	-0.23827855
223	0x3e7fc8d4	0.24978954
224	0x3eef2cdf	0.4671392
225	0xbec08cc0	-0.37607384
226	0x3c5192ad	0.012791318
227	0x3e63e1ab	0.22254054
228	0x3e460bfc	0.19340509
229	0x3ee67334	0.45009768
230	0xbea928dc	-0.33038986
231	0x3e735439	0.23762597
232	0x3e5995bd	0.21248527
233	0xbe45ef7c	-0.19329637
234	0xbed98aed	-0.42488804
235	0xbee8aa52	-0.45442444
236	0xbe10ce97	-0.14141308
237	0xbe50ec1e	-0.20402572
238	0xbd24855f	-0.040166255
239	0xbdca88a6	-0.09889345
240	0x3c0d6615	0.008630295
241	0x3eb70854	0.3574854
242	0xbd9b1efd	-0.0757427
243	0x3e7c797b	0.24655716
244	0x3e8f03ac	0.2793249
245	0xbd9460fd	-0.072450615
246	0xbda17313	-0.07883277
247	0xbeb39936	-0.35077828
248	0xbe694ab7	-0.22782408
249	0xbe93e297	-0.28883812
250	0x3e5cb560	0.21553564
251	0x3e7c5908	0.24643338
252	0x3ef96e9c	0.487172
253	0xbe9a83c8	-0.30178666
254	0x3eb324f2	0.34989125
255	0xbddf3bd8	-0.10900086
