logs/classifier/40_contexts/fold_04/10-19-2022_10-20-27/model_params.pth (torch, 821283 bytes, 10 tensors)

feature.weight_ih_l0 f4 [512, 64]
00000000: 69e4 543f 9c7a 16be 1263 99bd 3d0b 17bf
00000010: fab0 d83d 24af 293d 6451 08bf ddc6 1b3e
00000020: ec01 14bf 5461 1abe 24a9 023d 0701 ebbe
00000030: fd2a 443f d601 693f eaec c9be a3e5 aa3e
00000040: c9ca 0c3f 9747 d13e b07e 25be 54f3 9c3f
00000050: cb84 a8be b408 a3be 4118 7d3f 7ac1 9d3e
00000060: dc26 033f 0ce8 75be da7a a73f d4f0 94be
00000070: 6f5e 4ebe 32e5 6f3f ab2a debf 0aa7 96be
00000080: 48dc 363f 899d 193f 9f8d 283e 34a0 853e
00000090: 43cd 2cbf 30d9 d93e 805f 88bd c32b 113f
000000a0: ee94 cbbd 5a1e afbe 9da7 88be c283 8f3e
000000b0: 3ab5 b5be f17a 68be a40e 83bf 94eb 85be
000000c0: b21e 30bf acc0 ba3e ce12 84bf 71a6 6b3f
000000d0: becc 1d3f 5f89 8abe d1dc 90be 42a0 11bf
000000e0: 1024 cabe 193e a33e a58d fe3e 1732 393f
000000f0: e167 6fbf 4344 22bf 6426 cd3d 9dc9 88bf
00000100: f8af 843f f0fa e8be 6cc4 8dbe ca2a 5ebe
00000110: f875 3fbf 5479 67bf 4889 a33c 97ff de3f
00000120: 19e2 1d3f 6159 f2be 06e1 7dbf 4294 e53e
00000130: 0b89 94be e86d 893e 3de9 90bd bdfb e33e
00000140: d960 173e e549 963e d2b9 703e 3457 713e
00000150: 30cd 39be 5e14 a43f adff 513f 5a86 4e3f
00000160: dcc1 fcbe ca45 4e3d c39d 0abf b498 72be
00000170: fc4b 913e aaf1 143f eddc 2bbf e6d8 c73d
00000180: eee9 c8be 86a4 9e3e a7cf d9bd 2ff2 1dbf
00000190: 7685 e0be 80d5 513f 624c 1e3b 5aac 593e
000001a0: b737 fb3e b2f4 a2bf 342e 9c3c a915 5a3e
000001b0: e3a4 c0be b8bb 5fbe 2e4e 7a3e d841 41bf
000001c0: bdc1 b4be ee68 65bf 80de 23bf 46aa d1be
000001d0: a4e9 29bd da98 f83d 90ef d93e 0092 1ebe
000001e0: 217c 033f 49f9 5c3f 5864 ecbd 3c45 273e
000001f0: 6111 303e ecd7 9fbe 06de 0d3f 2cbd b5bf
00000200: 3710 af3f f3f8 1cbe b3ca a5bf 6e87 c13e
00000210: db0f 17be 8696 88bf e9e9 c5be 18ae 013e
00000220: e372 b83e c39d e33e 0267 53bf 1462 65be
00000230: 6047 ab3e 8b04 4dbd 60dd 463f c1ba d43e
00000240: e4da 79be 8d59 f93e 2efd e0be 2997 42bf
00000250: 03b4 d9be fdb1 593f 7c53 2b3f 1b56 afbe
00000260: 9923 b03c 174a 5cbf 546e d3be c3d0 47be
00000270: 9e8f b13e 3f7b 033e 1c9a 31bd 0ddc 2d3d
00000280: b33b c7be b0b2 303f 3398 eebe cf2f 00bf
00000290: 4b65 5c3f c225 453f 3092 13bf bea2 843f
000002a0: d7ac 25be 65a5 72be 978e 1a3e dcb1 9cbd
000002b0: 3033 0e3f d507 c33d 6342 463e c037 633e
000002c0: 2c76 833f 130d 0fbf 251e 3dbf 0d85 a6be
000002d0: c463 b3bf 1d04 bd3d d285 5a3f 1875 563e
000002e0: a950 e1be 216c b03f 9d83 a8bf e7fc e3be
000002f0: 355f 3f3f e4ca 39bf 7dab 603e d7a1 5bbf
00000300: ecaa 58bd 6415 f1bd 36b5 7f3e 41b5 203f
00000310: d886 5a3e a3c6 a7be dd44 5ebe 18f2 043f
00000320: ef3c 67bd 7458 553d 2694 1bbe 64d4 d8be
00000330: 4a74 423f 6502 03bf 0d57 3b3f 6132 c4be
00000340: 59fa 1b3f def0 2bbf 98cc 143e fa8a b73f
00000350: fc32 433e 44c2 493e 61e0 52be 3969 b03f
00000360: 664e 8fbe 2f5a cdbd 43c0 a83e 1e2b d9be
00000370: d1eb 2bbe 43cc a83e e4a5 943e 02db 1ebf
00000380: 515a 89bd a9f9 4dbe 2b5b 463d 484e 9b3f
00000390: fe21 803f 187a 8cbd 8a96 d93e 5d0d 043f
000003a0: acb4 753f 045d 0dbf ad03 a73e 30f6 98bd
000003b0: f969 1c3f 830c 63bf 9a3d d3be 1ce9 c0bc
000003c0: 1cd8 88bf 1555 533f 1ca0 543e d96b 70bf
000003d0: 8bb7 5dbf e190 2bbf fcc7 093d 747e 3e3e
000003e0: ee69 9e3e e55d 133f 3c98 373f 42aa 573f
000003f0: e94e 673f 5eb6 993e 8634 8d3c 1d93 c23f
0.83161026 -0.1469521 -0.07489599 -0.59001523 0.105806306 0.041426793 -0.5324919 0.15212579
-0.5781543 -0.1507619 0.031899586 -0.4589922 0.76628095 0.91018426 -0.39438564 0.33378324
0.54996926 0.4087493 -0.16161609 1.2261758 -0.32913813 -0.31842577 0.98865134 0.30811673
0.5123117 -0.240143 1.3084366 -0.29089987 -0.20153211 0.937091 -1.7356771 -0.29424316
0.7142987 0.60006005 0.16460274 0.26098788 -0.67500705 0.42548513 -0.0665884 0.567074
-0.099405155 -0.34202844 -0.2669038 0.2803021 -0.35489827 -0.22703148 -1.0238843 -0.26156294
-0.6879684 0.36475122 -1.0318239 0.92050844 0.61640537 -0.2705793 -0.2829347 -0.5688516
-0.39480639 0.31883314 0.4971744 0.72342056 -0.9351788 -0.6338541 0.10017088 -1.0686527
1.0366201 -0.4550395 -0.2768892 -0.2169601 -0.7478938 -0.9041951 0.019962922 1.742175
0.6167312 -0.47333816 -0.99171484 0.44839674 -0.29010805 0.26841664 -0.07075737 0.44528
0.14783038 0.29353252 0.23508385 0.23568422 -0.18144679 1.2818716 0.82030755 0.80673754
-0.49366653 0.050359525 -0.54146975 -0.23691064 0.28378284 0.5818125 -0.6713398 0.09758167
-0.39240974 0.30984896 -0.1063531 -0.6169767 -0.43851823 0.819664 0.0024154414 0.21257153
0.49065945 -1.2730925 0.019065 0.21297325 -0.376258 -0.21848953 0.24443886 -0.75491095
-0.3530406 -0.89613235 -0.64011383 -0.4095022 -0.041482583 0.12138529 0.42565584 -0.15485382
0.5136128 0.8631788 -0.115425766 0.16335005 0.1719413 -0.31219423 0.55416906 -1.4198356
1.3676823 -0.15329342 -1.2952484 0.37798637 -0.14752142 -1.0670936 -0.38655022 0.12664068
0.36025152 0.444563 -0.8257905 -0.22400695 0.33452892 -0.05005316 0.7768154 0.41548732
-0.24399906 0.48701134 -0.4394316 -0.760119 -0.4252015 0.85037214 0.6692426 -0.3424538
0.02150135 -0.8605055 -0.4129511 -0.1951323 0.34679884 0.12839983 -0.04335986 0.042446185
-0.38912734 0.69022655 -0.46600494 -0.5007295 0.8609206 0.7701074 -0.5764494 1.0362165
-0.16179214 -0.23695906 0.15093456 -0.076511115 0.55546856 0.09522978 0.19361262 0.22189236
1.0270438 -0.55879325 -0.7387412 -0.32523385 -1.4014821 0.092293 0.85360444 0.20943105
-0.4400685 1.3782998 -1.3165165 -0.44528887 0.7475465 -0.7257521 0.21940418 -0.85793823
-0.05289738 -0.11771658 0.2497147 0.6277657 0.21340501 -0.32768735 -0.21705957 0.51931906
-0.056454595 0.05208631 -0.15193233 -0.4234954 0.75958693 -0.5117553 0.73179704 -0.38319686
0.60928875 -0.6716441 0.14531171 1.4339287 0.19062418 0.19703013 -0.20593406 1.3782111
-0.279895 -0.10026967 0.32959184 -0.42415708 -0.16789176 0.3296834 0.29032815 -0.6205293
-0.067066796 -0.20114769 0.04842679 1.2133265 1.0010374 -0.06859225 0.42497665 0.5158289
0.9597881 -0.55220056 0.32619992 -0.074688315 0.610992 -0.88690966 -0.41257936 -0.023548655
-1.0690951 0.825517 0.20764202 -0.9391456 -0.8660819 -0.6701794 0.033637986 0.18602926
0.30940193 0.57565147 0.71716666 0.8424417 0.9035478 0.30021948 0.01723696 1.5201145

feature.weight_hh_l0 f4 [512, 128]
00000000: 0c7f 92bd 3bc5 433e 4630 4c3e 44fe 17be
00000010: ccc1 053f 3529 00be f500 863c 98f9 e43e
00000020: 993d bf3d bb75 863d ce23 7bbd a2a0 953e
00000030: 7e79 dd3e 7d49 473e 6813 8ebe b91e 5abf
00000040: ce4f 473e 9bc1 df3e 5cae 093f ac06 753f
00000050: 2fb0 f13e 693f 23bf ee0d a0be f43a 243c
00000060: 16a4 2b3f a94f 46bc 382b dc3d 13a5 febe
00000070: ffe8 40bd e577 7f3f 9511 44bf 6dca 9cbe
00000080: 5702 abbe a2b3 5cbe dc1f 54bd 6c71 fe3d
00000090: 6a6e 3ebf a08d a33e 4ceb 053f 6ee0 3abe
000000a0: 926c 08bf 310a 3a3f 9f1b 41bf 907f cbbe
000000b0: 7e28 d7bc 2257 bbbf 87b7 6bbe f047 2d3f
000000c0: f58a 34bf 8b0a 823d 2b29 b2be 1066 7dbf
000000d0: 4be8 1fbf 4d0f 873e 2f7e 0bbf 4698 32be
000000e0: 1456 4a3e 4d93 6c3f 95dc 873d f24a d83e
000000f0: 4172 60be 39fa 043f dd73 9a3f 0e17 b73e
00000100: 2b62 0abf 4188 f53e 19fe 45be 4540 ca3e
00000110: aada 2b3f 0604 073f 224c 5e3e 4d6f fc3e
00000120: 856d 463e 0a03 813e c8fd e8be 9520 d93e
00000130: e3cc 723f d1bd d3be 51bb 853f 44f0 533e
00000140: 7ce3 f6be aa57 60be cfe6 d3bb a1ab 0abe
00000150: cce1 0e3e 87d9 01bd f420 73be 066a 49bf
00000160: 2ee8 dbbe 1898 24bf 5763 17bf 55d3 af3e
00000170: b085 9c3d 26d6 13bf a59e ef3e 45e8 783d
00000180: d734 4f3e 211f 2dbf d244 973c 493e 2d3d
00000190: 2b05 88bd b01f 8abe 1cf3 37bd 9644 fc3e
000001a0: 1cab 9d3e a5e6 3bbf b7db e63e 49ce 903f
000001b0: f18c 023e 4e0f 54be ba76 203f cc60 ae3e
000001c0: 1ead 5f3f ab46 d7be e80e 2d3f aae1 433f
000001d0: 1e3f 143d 17cc a6be d767 843f ad7c 73bf
000001e0: f5c8 483f 95eb 19be 9f46 ae3e 335e 6bbf
000001f0: 4112 c73e 201e ce3e 8edd 483e dc04 81be
00000200: 752f 12bf cd2f bebe 14a0 533f b7c0 80be
00000210: c69d 7e3e 3a29 32be 6ae9 3cbf ea62 cd3e
00000220: 45e7 6cbe 2609 da3e c739 3abd 1f34 8b3d
00000230: e4e6 5a3f 4fcd 0f3f 1fc0 f9be da2e 2e3f
00000240: b0ed 74bf 1875 9b3e e0c9 d43e 8f01 f13e
00000250: 3fbc 3dbf f925 9c3e 5220 7e3a 53d2 22bf
00000260: 3609 f23e e924 1c3f b5aa 10bf 0b7a 05bd
00000270: fad0 0dbf 088e 05bf 73a4 96be e963 8bbd
00000280: f349 54bb 3eec 92bd fbbc 59bf f4b6 903f
00000290: dd51 853e db87 4d3f 7ec0 8f3e 6cb6 ad3e
000002a0: c0de 5b3f cb3e 993f 2172 a8be 3e55 ef3e
000002b0: 9232 efbd 4fd7 1c3d 8ae2 17bf 9810 333f
000002c0: 5dd7 32bf c9c7 1e3e de8f b43c 7177 c7be
000002d0: d8d5 873d 88bb fc3e 39e8 2f3f dfa3 04bf
000002e0: ece7 e73d 5a69 c63c c891 4ebc e84d 1cbe
000002f0: 9ae2 8dbb e29d 3f3e f0fd a93d ca7f 37be
00000300: aa45 653f 2a45 64be 54a1 993e 6293 303f
00000310: 72b4 663e 0bcc 23be 5624 443e 8cff 80bf
00000320: 8099 5a3d a0be fabd 5bf7 4cbf 29e5 743f
00000330: 1ed1 123f 4f9a 02bd 23b8 b03d 582d 373f
00000340: d7a9 013f 2151 e4be 6b91 d23e de38 1abe
00000350: c987 d7be 45bd 013f 757d 34bf c251 0fbe
00000360: 4567 d13e 0f6b 123e f252 aa3e 0bb3 f03e
00000370: 02e2 00bf 7b50 dfbe 44eb 16bf 6a3b 363f
00000380: 41cb 373e 7f18 cabe dc12 a23e a7b4 b83e
00000390: 59b7 94bc 96b6 9fbd c6db 0abe 5c6b d03d
000003a0: 0d41 8a3e 5d3b 483f 3449 ccbe d008 c6be
000003b0: 9832 44be b40b 463f 2b7a afbd 60fc 9fbe
000003c0: 5cb1 85bc f364 533c 1bfa 80be 92db 7bbe
000003d0: 49a6 4cbe 37b4 d63d 5a32 5b3e 2b47 16bf
000003e0: 568c 81be 1fdb 2f3e fc25 8f3d fb55 c7be
000003f0: 81c6 87be 98ba 6abe 8075 213f 605e 36bf
-0.071531385 0.19118206 0.1994029 -0.14843088 0.52248836 -0.12515719 0.016357878 0.44721675
0.09337921 0.06565424 -0.061313443 0.29224116 0.43256754 0.19461627 -0.2774918 -0.8520313
0.19464037 0.43702397 0.53781676 0.95713305 0.4720473 -0.6376863 -0.31260628 0.010023821
0.6704725 -0.012103953 0.10750431 -0.49735317 -0.047097202 0.9979232 -0.7658933 -0.3062319
-0.33400223 -0.215529 -0.051788196 0.12423977 -0.7438723 0.3194399 0.5231216 -0.18249676
-0.53290665 0.726718 -0.7543277 -0.3974576 -0.026264425 -1.4635966 -0.23019229 0.6768789
-0.7052453 0.06349667 -0.34797034 -0.9898386 -0.62463826 0.2637886 -0.54489416 -0.174409
0.19759399 0.92412263 0.066338696 0.4224468 -0.21918584 0.5194431 1.2066609 0.35759777
-0.5405604 0.47955516 -0.19335212 0.3950216 0.6713053 0.52740514 0.2170873 0.49303666
0.19377716 0.2519763 -0.4550612 0.4240767 0.9484388 -0.41355756 1.044779 0.20697123
-0.48220432 -0.21908441 -0.0064667235 -0.13542034 0.13953322 -0.03170159 -0.2374304 -0.78677404
-0.42950577 -0.64294577 -0.59135956 0.3434092 0.07642686 -0.5774864 0.46800724 0.060768384
0.20235 -0.67625624 0.018465433 0.042295728 -0.06641611 -0.269773 -0.04490958 0.49271077
0.3079461 -0.7339881 0.45089504 1.1312953 0.12749077 -0.20708963 0.6268116 0.34058225
0.8737353 -0.42046103 0.6760087 0.7651621 0.036193006 -0.32577583 1.034419 -0.95112115
0.78431636 -0.15031274 0.34038255 -0.9194061 0.38881114 0.4025736 0.19615766 -0.2519902
-0.57103664 -0.37145844 0.82666135 -0.2514703 0.24864873 -0.17398539 -0.7379366 0.40114528
-0.23135097 0.42585105 -0.045465257 0.06797051 0.8550856 0.5617265 -0.4877939 0.6804024
-0.9567518 0.30362773 0.41560268 0.47071502 -0.74115366 0.3049772 0.0009694147 -0.6360218
0.47272652 0.6099382 -0.5651048 -0.032587092 -0.55397 -0.5216985 -0.2942234 -0.06806166
-0.003239271 -0.07173966 -0.85053986 1.1305833 0.2603902 0.80285424 0.28076547 0.3392824
0.85886765 1.1972288 -0.32899573 0.46744722 -0.116795674 0.03829127 -0.59330046 0.69947195
-0.6985987 0.155059 0.022041257 -0.38958314 0.06632584 0.49361825 0.6871372 -0.5181255
0.113235325 0.024220157 -0.012607999 -0.15264094 -0.0043299915 0.18712571 0.08300388 -0.17919841
0.89559424 -0.22292009 0.30005896 0.6897489 0.22529772 -0.15995805 0.19154486 -1.0077987
0.053369045 -0.1224339 -0.80064934 0.9566217 0.5735034 -0.03188544 0.08628871 0.71553564
0.5064978 -0.44593146 0.4112657 -0.15060756 -0.42095783 0.5067943 -0.7050393 -0.13996032
0.408991 0.14298652 0.33266407 0.470116 -0.5034486 -0.4361609 -0.58952737 0.7118441
0.17948629 -0.39471814 0.31655014 0.36075327 -0.018153833 -0.077984974 -0.135604 0.10176727
0.27002755 0.7821558 -0.398996 -0.38678598 -0.19159925 0.7736161 -0.085682236 -0.31247234
-0.016319923 0.012902486 -0.25190815 -0.24595478 -0.19985308 0.10483592 0.21405926 -0.58702344
-0.2530238 0.17173432 0.06989667 -0.38932785 -0.26518634 -0.22922742 0.63069916 -0.71237755

feature.bias_ih_l0 f4 [512]
00000000: 688e 21bd e7a2 e53c e9d9 cc3d 785c e4bc
00000010: cc29 f63e 01ab 08bf 379a 52bc 6ae5 bbbe
00000020: 4436 e23e 167d 993e 5bed 363e 511a d33e
00000030: 9513 9b3f ba90 1fbd e46f 463f 17bf 44be
00000040: b49f b03e 604a 613e 23d5 18bc 749a 00be
00000050: 4616 963e 4aac d83e 290f 5b3e 7672 033f
00000060: 7506 08bf e86a 503e 6676 7b3e 2bc8 453f
00000070: 3fd3 ffbd 65ac 1cbe 86fb e93e 85d5 97bd
00000080: a6e9 a3be 48fa 1ebe 3b1c e33e 50b1 503f
00000090: bebd 0ebe 61e4 683d 3016 40be d7cd b7bc
000000a0: 036f abbe b99e 0f3f 524c 3abe 308a 41be
000000b0: 2971 4b3e 9301 a9bd 4496 ad3f 0f19 4cbd
000000c0: 5654 32be e73f 67be f2f9 93bd e462 fbbe
000000d0: 2185 0b3e 1b7e 6d3f aa89 a33e fca6 233f
000000e0: 05c5 313e 8f81 5f3f bd7e 523f d764 eebd
000000f0: 7e5b 5c3f d8d5 05be c94a ca3f d9b9 3ebf
00000100: 6aae d4bc 04f5 533d 6c5b 37bd b1e6 f6bc
00000110: 10b1 fa3c c6d5 ad3e aa25 793e decd 213f
00000120: 0f0c b73d 8611 81be 6963 6c3f d76b 70bc
00000130: 9170 cfbe cd6c 1ebd 90cb 2ebf 6b7c 95be
00000140: 90d8 8c3e 682b b3be 1a87 1c3c 004b 0e3f
00000150: 015e 2f3e a3b6 8b3e 56d8 263f 2e7d d53d
00000160: 9564 923c 4592 e0bd 2278 ddbe 4dc2 88be
00000170: a860 9c3e 6466 663e 0fa8 5abd 1df5 2dbd
00000180: 542e 3b3f fa0f 38bf 95ed 5c3f c8a0 4fbd
00000190: 954e ea3d ca0d c8bc f5b0 bdbe 2598 183e
000001a0: 374d fb3e 46b3 703b b961 af3e fdf5 f73e
000001b0: 60ff 6d3c bac5 8e3e a4dc 9b3d 58ee ac3c
000001c0: b211 7c3e c89c edbd 40e7 773c a1b4 debe
000001d0: a908 353e d30e c3bd 0869 7bbd a266 3d3f
000001e0: c03d 753c a6f9 7b3f 0fb2 91be 3765 363e
000001f0: 906b 63be e742 f93c 8c0c c23d 56c9 12bf
00000200: 2922 55be 5033 43be cccd 06be 110b efbe
00000210: 60d9 8fbe f1b1 80bd 3cd0 bc3e b63b 83be
00000220: c75e 3ebf 21b3 c13e 0605 063d dd9d 2c3f
00000230: c66e 303e ef87 a5bd 1f16 26bf 8012 93be
00000240: 553d b1be 5cb7 fa3a ee00 1ebe 6a89 9e3e
00000250: 7566 aabe 5d38 47bc 23a9 64be 3a8a 1bbc
00000260: 0d6e 1ebe 8190 14bf bc95 933d b75f 863e
00000270: 9ce7 a9be d031 b8be 0dbd 233e ad5b edbe
00000280: b914 70be 5219 26bf 9cd5 1f3e 6994 8f3d
00000290: 075c b1be ff9f d03d 4594 8abe 754f dabe
000002a0: 2c30 663d cec2 d6be 3ade eabe d244 b9be
000002b0: 6783 34bc 1159 f2bd 0c7c c3bd 2ca5 31be
000002c0: 862b 22bf 3915 a5bd 65ea 28be a37a 83be
000002d0: 3995 92be 7d48 26bd fda9 4dbd dde4 aabe
000002e0: 80c5 523e b523 80bf e7cf cebe 5719 f63e
000002f0: 1836 ac3d 32e5 cc3d 9b2c 03bf ee37 a7be
00000300: f494 36bf d9c0 f83c 30a8 c3be 27cd cc3e
00000310: adf6 943e f691 ec3d a5a5 fd3e 7160 2bbe
00000320: 4aee cc3d 11dd 96bc b1f9 09bf e58e b9bb
00000330: 4cce 08bf 2821 263e 0e34 6ebe 06b2 0fbf
00000340: d866 b6be e016 143e 6784 92be d835 66be
00000350: 3ad2 8bbe f917 30bf d54b 17bf 6b01 a23e
00000360: af4b 803d 24fa 66be 4e1f 953b 52b7 6e3d
00000370: 0d68 4ebf 73a8 92be 5e03 02bf 51d7 1bbf
00000380: 7990 b0be f1b0 973e 9ab9 473e a652 e4be
00000390: cffd e6be e623 d03e d7d7 72bc 62b1 ab3e
000003a0: c360 593d 6e11 853d 2913 18bd 3ce0 2bbf
000003b0: c962 a3be a57e 96be 5931 533b f1f5 c4be
000003c0: ba08 113f db27 f2be eaa4 b8be 36b0 aabe
000003d0: db02 293d 7944 5abf e1e6 abbe cefb b6be
000003e0: 4e41 a0be 399c 3b3f e486 3dbf 67f0 9fbe
000003f0: 9661 19bd f235 fe3c 8ea7 88be 826e e3be
-0.03944245 0.02803178 0.100025006 -0.027876124 0.48078763 -0.5338593 -0.0128541505 -0.36698467
0.44182026 0.29978245 0.17863981 0.41231015 1.2115351 -0.03895638 0.7751448 -0.1921352
0.34496844 0.22001028 -0.0093281595 -0.12558919 0.29313868 0.42318946 0.21392502 0.5134653
-0.5313485 0.20353281 0.24556884 0.7725856 -0.12491464 -0.15300138 0.4569971 -0.074137725
-0.32014197 -0.15525162 0.44357476 0.8152056 -0.13939568 0.056858424 -0.18758464 -0.02243702
-0.33483133 0.56101567 -0.18193176 -0.1890037 0.19867386 -0.082522534 1.3561482 -0.049828585
-0.17414984 -0.2258297 -0.07225408 -0.49098885 0.13625003 0.92770547 0.31940967 0.6392667
0.17360313 0.87307066 0.8222464 -0.116403274 0.86077106 -0.13069856 1.5804073 -0.7450233
-0.025962073 0.051747337 -0.04476492 -0.0301393 0.030602008 0.3395216 0.24330774 0.63204753
0.08937847 -0.25208682 0.9233919 -0.0146741485 -0.4051557 -0.03867798 -0.6827936 -0.29196486
0.27508974 -0.34994054 0.009553695 0.5558319 0.17125703 0.27287778 0.6517385 0.10424267
0.017870227 -0.10965399 -0.43255717 -0.2671074 0.30542493 0.22499996 -0.05338293 -0.042470086
0.73117566 -0.7189938 0.8630002 -0.050690442 0.114407696 -0.024420638 -0.3704907 0.14901789
0.49082348 0.003672795 0.34254244 0.48429862 0.014526218 0.27885228 0.07610443 0.021109745
0.24616125 -0.11602169 0.015130818 -0.43497184 0.17679085 -0.09524312 -0.061379462 0.7398473
0.014968336 0.9842781 -0.2845616 0.17812048 -0.22209 0.03042741 0.094750494 -0.57338464
-0.20813812 -0.19062543 -0.13164443 -0.4668813 -0.2809553 -0.0628394 0.3687762 -0.25631493
-0.7436337 0.37831977 0.032719634 0.6742838 0.17229757 -0.08082568 -0.64877504 -0.28725052
-0.34617105 0.0019128132 -0.15430042 0.30964214 -0.33281294 -0.012159434 -0.22330146 -0.009493405
-0.15471669 -0.58032995 0.07206294 0.262449 -0.33184516 -0.35975504 0.15990086 -0.46359006
-0.23445405 -0.64882386 0.1560883 0.07010729 -0.34640524 0.10186767 -0.27066246 -0.42638746
0.056198284 -0.419455 -0.4587267 -0.36185318 -0.011017657 -0.11833394 -0.095451444 -0.17348164
-0.6334766 -0.080606885 -0.16495664 -0.25679502 -0.28629473 -0.040596474 -0.05021094 -0.33377734
0.20583153 -1.0010897 -0.40392992 0.48066208 0.08408755 0.10004653 -0.5123994 -0.32659858
-0.71321034 0.030365394 -0.38214254 0.4000027 0.2909445 0.11551277 0.4954044 -0.16736008
0.100063875 -0.01841596 -0.53896624 -0.0056627863 -0.53439784 0.16223586 -0.23262045 -0.5613102
-0.3562534 0.14461851 -0.2861664 -0.22481477 -0.27308828 -0.6878658 -0.59100085 0.31641707
0.062644355 -0.22556359 0.004550851 0.058280297 -0.8062752 -0.28644142 -0.5078639 -0.6087542
-0.34485224 0.29627183 0.19504395 -0.44594306 -0.45115516 0.40652388 -0.014821968 0.3353377
0.053070795 0.06497465 -0.037127648 -0.6713903 -0.31911305 -0.29393497 0.0032225458 -0.38468888
0.5665394 -0.47296032 -0.3606332 -0.33337563 0.04126249 -0.8526073 -0.33574584 -0.35738987
-0.31299824 0.7328525 -0.7403395 -0.312381 -0.03744658 0.031031583 -0.26690334 -0.44420248

feature.bias_hh_l0 f4 [512]
00000000: 3817 eabd 2d9c c13d 97ef 463e ef7d 8ebd
00000010: ad39 1c3f 93a8 10bf 4002 cabd 686d 7fbe
00000020: 5b98 dc3e dd10 843e 3517 823e b8e3 c83e
00000030: 555c 813f 188a 923d 6306 443f 1d99 8ebe
00000040: 1973 7d3e 0556 133e 83b0 f3bd d10e 51be
00000050: c944 8d3e dd01 103f 5ecc d73d 0334 1b3f
00000060: 7f10 10bf 6604 583e 354e 643e 296e 413f
00000070: b92a 24bd 944a 73be ba6b d13e 0113 09bc
00000080: 5623 9fbe 1d30 0dbe dcb8 013f 5432 553f
00000090: 63f8 a0bd 48c3 e53c 4ebb 54be 2595 f7bd
000000a0: 0566 5ebe 9fa9 f63e f611 d0bd 8a05 1ebd
000000b0: 512d 543e 214e 08be 4287 b53f 25e3 dbbd
000000c0: 5001 1e3d f757 0bbe aca5 c4bd 81bd fdbe
000000d0: 29b9 d53d 5317 553f 25e3 653e 9a99 dd3e
000000e0: c023 3a3e ae08 633f 38c9 743f bdfa adbc
000000f0: d8b5 2d3f ffbb 0ebe 4fc0 d43f 9b5f 3bbf
00000100: 8f8c e53b cea3 403e ea99 8cbc 7ff6 ecbb
00000110: 1a8d 5c3d d9b4 be3e b005 9b3e 6f9c 033f
00000120: e5e0 8c3e 8c09 75be f012 5e3f 3193 cc3d
00000130: 5450 c9be d662 cdbd 298a 10bf 48ae 1bbe
00000140: 1d3a 823e be0e efbe ccf1 01bd fee1 073f
00000150: 79a8 523e a2c2 923e dcb6 393f 817a 5b3e
00000160: 3113 cc3d af18 67bd b166 c8be 62b0 5fbe
00000170: 2e4d bb3e fd50 4d3d a143 13bc ee73 acbd
00000180: 104d 3c3f 9a96 38bf 5465 6a3f d374 95bb
00000190: 0061 8d3e 6875 e93c 1b22 b4be a8ba 393e
000001a0: bb67 033f 0e0d 6bbd 38e2 ba3e a914 f83e
000001b0: f0bb a33d 26a0 733e db8a fb3d 4057 e03d
000001c0: de5c d53e c508 47be ab70 4bbd 5350 8bbe
000001d0: 8dcc 303e 16f9 febd 031b 143e f05c 3d3f
000001e0: 4c9a d5bd 147e 723f 1d86 8abe 8609 4b3e
000001f0: 5adf 38be 6514 d33c 3e5b 0b3e 3254 f7be
00000200: 64cc 00be 4fde 2ebe 77e0 b0be 7afc ffbe
00000210: 7f80 05be 1dd2 1f3d 6075 013f eddb fbbd
00000220: b3b0 29bf 08fe bd3e 862f 303e 7395 263f
00000230: e8e7 303e 90c8 67bd 66f0 0ebf fa2e 9ebe
00000240: ca49 7fbe b00d cc3d 1f04 06be 9c09 c93e
00000250: 1928 98be d17f 32be 3813 b1bd f96d 46bd
00000260: e830 29be a614 30bf 0df4 a03d 23a2 5b3e
00000270: 5697 82be 9aa6 bfbe 07ad a03d dcea f0be
00000280: bf78 5fbe 4208 11bf 9512 e33d 668b dd3c
00000290: 7f11 c5be 40d9 f43d 9e9c 51be 8f55 d4be
000002a0: a0e8 123d e0fc c4be 7785 11bf 0794 0cbf
000002b0: db80 46bd ee7c 2abe 997d 9dbd 7695 67be
000002c0: 5cf0 3bbf 3b67 40be de61 89be 70e5 6bbe
000002d0: 077a 56be 8c52 573d 2b07 bd3c 4a5d debe
000002e0: 2f36 443e 5229 7abf 9c10 f4be 0139 dd3e
000002f0: c51b d73d 2a96 053e adc1 00bf bffe 43be
00000300: 3dc0 46bf 19db 0d3c e3d3 92be 732d d63e
00000310: b7fc ae3e c701 0a3e 7aae 0a3f ea57 83be
00000320: d6f0 123e 44f9 193e 8c94 20bf a607 f73d
00000330: 8475 aebe b25f 75bc b9af 8dbd e602 0abf
00000340: e003 e0be 54cc b53d 5c2d 56be df81 34be
00000350: 64dd b7be 2d7e 1bbf d330 1fbf c049 9e3e
00000360: 0c68 8c3d f015 a8be 061b 6bbc 0c3c 5d3e
00000370: 8f88 4dbf e3f5 8ebe 31d4 d3be ea0f 37bf
00000380: 7d11 b3be 9f83 b23e 745f 443e c886 bfbe
00000390: 7d66 a8be 57e8 d63e 1ff4 36be 382c 7b3e
000003a0: e10f 44be 5c15 c33d 88d8 0ebd d337 49bf
000003b0: cd8b d0be eaf6 7bbe 3648 183e 45ff f3be
000003c0: f425 e93e 9db0 dfbe ec3b 97be 657b c0be
000003d0: 486f 8d3c 2a05 38bf 2b87 85be 3184 e1be
000003e0: e035 a8be 3753 203f 9b18 47bf 16dd a7be
000003f0: 20ed bf3d e7bc b43d 85c3 07bf 26dd fcbe
-0.1143021 0.09453616 0.19427334 -0.06957614 0.61025506 -0.56507224 -0.098637104 -0.24944079
0.43084988 0.25794116 0.2540833 0.39236236 1.0106302 0.071552455 0.76572245 -0.2785119
0.24750938 0.14388283 -0.11898901 -0.20415808 0.2759154 0.56252843 0.10537027 0.6062624
-0.5627517 0.21095428 0.22295459 0.75558716 -0.040079806 -0.23758918 0.409025 -0.008366347
-0.31081647 -0.13787885 0.506727 0.8327992 -0.07859876 0.028047219 -0.20774576 -0.12088994
-0.21718605 0.48176286 -0.10159676 -0.0385795 0.20720412 -0.13311054 1.4181902 -0.10736684
0.03857547 -0.13607775 -0.09601912 -0.49558643 0.10435707 0.83238715 0.2244993 0.4328125
0.181777 0.8868512 0.95619535 -0.021237725 0.67855597 -0.13938902 1.6621188 -0.7319276
0.0070052813 0.18812487 -0.017163236 -0.007231533 0.053845502 0.3724735 0.30277777 0.51410574
0.2751533 -0.23929423 0.86747646 0.09989012 -0.39319098 -0.10028617 -0.56460816 -0.15203202
0.25434962 -0.46690935 -0.031724736 0.5307921 0.2057208 0.28664118 0.72544646 0.2143345
0.09964598 -0.056420024 -0.39140847 -0.21844628 0.3658232 0.050126065 -0.008988292 -0.08420549
0.7355509 -0.721048 0.91560864 -0.0045610457 0.27613068 0.028498366 -0.3518227 0.1813761
0.51330155 -0.057385497 0.36500716 0.48453262 0.079948306 0.2379156 0.12282344 0.109541416
0.41672415 -0.19436939 -0.049667995 -0.2720972 0.1726553 -0.12449853 0.14463429 0.73969936
-0.104298204 0.9472363 -0.27055445 0.19827852 -0.18053952 0.02576656 0.13609025 -0.48306423
-0.12577969 -0.17076991 -0.34546253 -0.49997312 -0.13037299 0.03901874 0.50569725 -0.12297807
-0.66285247 0.37107873 0.17205629 0.6507179 0.17275965 -0.056587756 -0.5583557 -0.30895215
-0.24930492 0.09963548 -0.1308751 0.39265144 -0.29718092 -0.1743157 -0.08646244 -0.04844472
-0.16522563 -0.68781507 0.07859049 0.21448569 -0.25506085 -0.37431794 0.07845502 -0.47054183
-0.21823405 -0.56653225 0.110875286 0.02704401 -0.3848991 0.119555 -0.20469901 -0.41471526
0.03586638 -0.38474178 -0.56844276 -0.5491337 -0.04846273 -0.1664922 -0.076899715 -0.22615609
-0.73413634 -0.1878938 -0.2683248 -0.23036742 -0.20944987 0.052568957 0.023074707 -0.4343055
0.19161294 -0.977193 -0.47668922 0.43207553 0.105033435 0.13045564 -0.50295526 -0.19140147
-0.7763708 0.008658194 -0.28677282 0.4183155 0.3417718 0.1347724 0.5417248 -0.2565301
0.14349684 0.15036494 -0.62726665 0.12062006 -0.34074032 -0.014976429 -0.06918282 -0.5391067
-0.43752956 0.08876863 -0.2091574 -0.17627667 -0.35911095 -0.60739404 -0.62183875 0.30915642
0.06855783 -0.32829237 -0.014349705 0.21604937 -0.80286497 -0.27921972 -0.41372827 -0.7150866
-0.3497428 0.34866044 0.19177037 -0.37407517 -0.32890692 0.41974136 -0.17866562 0.24528587
-0.19146682 0.09525558 -0.03487447 -0.78600806 -0.4073166 -0.24605909 0.14871296 -0.47655693
0.45536768 -0.43689433 -0.29537904 -0.37594143 0.017264977 -0.7188288 -0.26079687 -0.44046167
-0.32853603 0.62626976 -0.7777192 -0.32785863 0.093714 0.08825093 -0.53032714 -0.49387473

feature.weight_ih_l0_reverse f4 [512, 64]
00000000: 0aad 983a db6a 693f ae05 d5be eed3 a2bd
00000010: 3eb7 bdbe 8158 673f 2e09 703f e8f5 a53d
00000020: 3997 92bc 552c 03bf 22b8 35bf 85f7 a8be
00000030: 637c 0f3f f276 f2be a6a7 233e f7e4 a8be
00000040: 4c6f eebc c3b9 a83f 3e92 1dbf d3f6 783f
00000050: c673 253f d0bd a4be a581 d7be 30dc 373f
00000060: 3483 a63d 1afd 5cbd a638 ecbe 2a89 783e
00000070: b230 423f 890b 5abe b0c5 99bf 4ef2 ea3d
00000080: 25d3 4d3f e11f 933f c953 1ebf e1b2 c63d
00000090: d972 0b3f 9b85 113f 46e0 afbd 6b06 f53f
000000a0: 5f5b f13d 6d9b 99be a7c1 af3f 2ee8 5e3e
000000b0: f3cb b03f 024e 1b3f 9a63 bdbe 79aa 24be
000000c0: 6325 393f cf98 85bf 4f97 bd3e 2193 28bf
000000d0: 6d33 5dbf 5066 8a3e 4061 c43e 3f86 803f
000000e0: db50 703e b4aa ce3e f744 973e 70ea e23f
000000f0: 9e06 cabe f86e 9abf 591c 803e a39a 2abf
00000100: 01f5 8f3e 6640 953e b08a 54bf 6b63 97bf
00000110: 0f87 203f 3ec6 a2bd 2d42 6f3e a0dc 1cbf
00000120: bf0c 1dbf 1c5b 01bf ddb2 193d e045 11bf
00000130: d733 c4be 4393 bebd b80f 4c3e 9873 0ebf
00000140: 2304 b13f a649 d2be 8477 8abe 75f5 c03e
00000150: 937c 0e3f 009d aabe f8e0 1e3f 2310 ff3e
00000160: 877b e33d 103d 8d3e 08d7 153e 596b 09bf
00000170: b4b3 9cbc 8b6f 9abe 865e 85be b12e fe3e
00000180: 1a7f 3cbe 1180 783f 5428 d1bd 344c c8be
00000190: 3f7f d2be 6f8d 223f 6d4f 1e3f 2c19 223f
000001a0: ee7f f63d 40f6 ff3d 2d38 ab3f d5df 83bd
000001b0: 296c e93e ee7f 82bd e767 15bf 9b08 563f
000001c0: 97ce b3bc 173f 3fbf 1cc2 343f 8afd 863f
000001d0: 1e42 1d3f 369e 36be b6c6 f73e c1f0 0fbe
000001e0: 1ec1 23bf ddb0 f03e e574 cf3e f305 953e
000001f0: e403 e43d 50ae 323f b058 57bf e445 8bbf
00000200: efbe 4d3f 26f0 da3e ce82 393f 27d7 a8bd
00000210: 1f3f c93b 8877 ff3e 8a6d 593e e7d3 19bf
00000220: 3edb fb3e ab63 0d3e 415d 223e b740 79bf
00000230: d535 b23d ac5c 03bf 67a2 98bd 26ff d83c
00000240: a701 03be 1910 81be 0276 643d adf1 28bf
00000250: 701d 00be 3562 f4be fb8a ebbe ba44 053e
00000260: 4a4f 633e 4984 d73e fd11 353f aaa5 de3e
00000270: 601f 1b3f 189f 063e f465 9c3e 8498 a3bd
00000280: 359f 8f3e 393f 2a3e 74e2 33bf b4a6 d2bd
00000290: edf9 cbbc 6585 f13d a344 fbbe ad45 d03e
000002a0: 7468 8b3f 1167 9f3c 2008 9abe 9a08 2f3e
000002b0: 56c0 45bf 3656 e4bb 38db 4abf a640 4cbe
000002c0: d33c 35be 97c6 843f d969 31be 3611 c93e
000002d0: 4ebf eabd a5a8 973e 360d c1be 1640 39bd
000002e0: 5811 c0be 01c0 383f 4880 7d3e de6c 203f
000002f0: 9928 0e3f 0dd8 1d3d 7f41 c93e 0646 9e3e
00000300: 3c03 99be e7ad 00be 65ca 0dbe 2628 603f
00000310: d4fc b23d 28b7 a3bf 0e82 723e 652f 4e3f
00000320: f8a4 9fbe bcd2 043e d3ca ca3e ecb0 8c3f
00000330: 1628 19bf 4433 493f cc1d eebe 5dbf 243f
00000340: a62a 9fbe aec4 053d 4bb1 c8be 6596 ffbe
00000350: 5a6c 603f f201 b33e 6649 00bf f37a 69bf
00000360: 0b99 c2bd 4f32 123f c5ff 73be 8d65 b93e
00000370: 09c4 8abb dc0e 193f 3d68 00bf f990 313e
00000380: 4d74 2abf e93e 103e 4955 4bbf 20fa 233e
00000390: 41c1 16bf b21b 273f 9ae7 c03e d5ad c5bf
000003a0: ace7 41bf d2f2 4ebd 3463 023e b5f0 dfbe
000003b0: 643b 103b f901 e1be f289 e83e 8527 17bf
000003c0: 2c29 6ebe cb06 1cbe e18a 473e af8a b23d
000003d0: efcc 923f c42d 023e 68fb 94be 5d1d 4e3e
000003e0: 7e9b 403f cd88 14bf 6c0b 01bf ce17 2bbf
000003f0: d244 84be 5d24 2abc 1b44 89be 326d 483e
0.0011648249 0.91178674 -0.41605896 -0.07950579 -0.37053865 0.9036942 0.9376401 0.081035435
-0.017894374 -0.5123952 -0.7098409 -0.33001342 0.56049174 -0.47356373 0.15981922 -0.32987186
-0.029105805 1.318169 -0.6155127 0.97251624 0.6462978 -0.32176065 -0.42091098 0.71820354
0.08130494 -0.053952314 -0.4613697 0.24271074 0.75855553 -0.21293463 -1.2013454 0.11471997
0.80400306 1.1494104 -0.61846596 0.09702087 0.5447212 0.5684449 -0.08587699 1.9142584
0.11785006 -0.30001393 1.3730973 0.21768257 1.381224 0.60665905 -0.36990052 -0.16080655
0.7232267 -1.0437258 0.37029502 -0.658495 -0.86406595 0.27031183 0.38355446 1.0040969
0.23468344 0.4036461 0.29544804 1.7727795 -0.39458174 -1.2065115 0.25021628 -0.66642207
0.2811661 0.29150695 -0.8302412 -1.1827215 0.62706083 -0.07947968 0.23365088 -0.6127415
-0.61347574 -0.50529647 0.037524093 -0.56747246 -0.383208 -0.09305432 0.19927871 -0.5564513
1.3829387 -0.41071814 -0.27044308 0.3768727 0.55658835 -0.33322906 0.62062025 0.49817
0.11107545 0.2758565 0.14632809 -0.53679425 -0.019128658 -0.30163226 -0.26048678 0.49644998
-0.1840786 0.97070414 -0.1021277 -0.39120638 -0.41112706 0.6349706 0.61839944 0.6331966
0.120361194 0.1249814 1.3376518 -0.06439177 0.45590332 -0.06372057 -0.5836167 0.8360688
-0.021949096 -0.7470564 0.7060869 1.0546124 0.6142901 -0.1783379 0.48393792 -0.14056684
-0.6396655 0.47009936 0.4051887 0.291061 0.111335546 0.6979723 -0.841197 -1.0880704
0.80369467 0.42761344 0.7246522 -0.08244162 0.006141558 0.49895883 0.21233192 -0.6008896
0.49190706 0.13807552 0.15855886 -0.9736437 0.08701674 -0.5131328 -0.07452851 0.026488852
-0.12793599 -0.25207594 0.055776604 -0.6599377 -0.1251123 -0.47731176 -0.4600447 0.13014498
0.22198215 0.42093113 0.7073057 0.43485767 0.6059475 0.13146627 0.30546534 -0.079880744
0.28051153 0.1662568 -0.70267415 -0.10285702 -0.024899447 0.11793021 -0.49075803 0.40678158
1.0891252 0.019458326 -0.30084324 0.17093125 -0.77246606 -0.006968285 -0.7924075 -0.19946536
-0.17698984 1.0373105 -0.17325534 0.39270943 -0.1146227 0.29620853 -0.37705392 -0.045227133
-0.37513232 0.72167975 0.24755967 0.6266612 0.555307 0.03853612 0.39307782 0.309128
-0.2988528 -0.12566338 -0.13846739 0.8756126 0.087396294 -1.279027 0.23682424 0.8054107
-0.3118055 0.12971014 0.39607868 1.0991492 -0.5982679 0.7859385 -0.46507108 0.643545
-0.31087226 0.03265827 -0.39197764 -0.4991943 0.8766533 0.34962422 -0.50112 -0.9120323
-0.09501847 0.57108015 -0.23828037 0.3621029 -0.004234795 0.597883 -0.50159055 0.17340459
-0.6658371 0.14086498 -0.7942701 0.16013384 -0.5888863 0.65276635 0.37676698 -1.5443674
-0.7574413 -0.05052454 0.12733155 -0.43738332 0.0022008056 -0.43946818 0.45417744 -0.59044677
-0.23257893 -0.15236966 0.19486572 0.08717858 1.1468791 0.1271277 -0.29098058 0.20128389
0.7523726 -0.5802124 -0.50408053 -0.668332 -0.25833756 -0.010384646 -0.26809773 0.19572905

feature.weight_hh_l0_reverse f4 [512, 128]
00000000: 83e6 133f 509e ac3e ba50 4abe dcfd 8a3e
00000010: b69b a53e 7a91 07be 990a 203f e859 e2be
00000020: 6c3a 9bbf d16a 9c3e 4da2 653f a0bf a73f
00000030: f182 a03d 96f3 d03d 41c4 10bd e36f 2ebe
00000040: d8aa adbe 0f01 403f 9166 29bf 5f88 31bf
00000050: e4d8 d6be 4793 783d c358 113f 8f2e a93d
00000060: 0f9c 00bf b417 89be d3ad 3e3f e72b 1a3e
00000070: cad8 023d 10ae 343c e208 273f fa5e 6dbd
00000080: b14a 09bf 35fe 98be 7b11 32bf a45d ef3e
00000090: 11b2 04be b7d4 a73e b8d5 8b3d 1cc7 d8bd
000000a0: 5860 6a3e 8a06 203e 3f2a cb3e 50c1 243e
000000b0: 44a0 1bbf 8242 99be 42c7 1e3e 53ee bdbe
000000c0: b145 f83e 341e 303f 29af f73d 81de b63e
000000d0: a2aa 05bf a87c d6be 9309 e4be 75ea 133e
000000e0: 33f6 9c3e 56e4 f5bd 98e9 033f b157 07bf
000000f0: 0ab4 24be 0f38 12bd e403 153f 780e 713e
00000100: 7f62 13bf 89fe 73bd f8a6 5b3f 063e 5bbf
00000110: 1b67 8ebe 9603 c9be 61ce 89bf 1028 18bf
00000120: 531e 1abf a78c 53bf fdb1 16bf e09e f2bd
00000130: fd9d 0cbe a818 97be b5b4 c5bd 84ab 393f
00000140: f6f5 f2be e927 48bf 6a37 983e 681b c53c
00000150: df66 a83e 807d ba3e 6e86 813e 93d8 f0be
00000160: 4280 d9be 70a1 cd3e d9c2 c83d 300b 88bc
00000170: 828b 30bf 071e 563e c442 513e 6e1b 26bf
00000180: 3b5c 273f 9b02 c93e b8cf b8be 7b12 2a3f
00000190: 046f 17be 99e4 3c3f a5d3 273e 39aa 77bd
000001a0: 71ab a43b 5aca a5be 60ff 303d 97c4 e2be
000001b0: 54fd 2dbf 0743 713f 312a 0dbe fda3 73bf
000001c0: 1230 bb3e 2eb4 2ebf df54 90be 30de 9b3e
000001d0: b701 e7be 99a4 4ebe 5003 4abf 2907 453e
000001e0: 8ee8 59be ec04 dd3e 41ef 89bf 9aba 493f
000001f0: 26c3 723e aa39 133f e06f dcbe 10fa 15bd
00000200: 8f10 3cbd 2754 153f a571 453e 4a91 0cbc
00000210: 69db 0a3f c7a8 873d 3aac 0a3f d0ba a9be
00000220: 326f 5b3f 9481 2e3f 175a e33d fedd 2f3f
00000230: f2f4 87bd d5af 77bf 042a 90bf 3513 e73e
00000240: f71e 0c3e 6eb2 08bf d2a6 a53f 21ed dcbe
00000250: b8fa b6be 83a6 c4bf 8405 753e 2b50 06bf
00000260: 4231 1bbf 3bd1 af3f 173b 4dbf 8010 583e
00000270: 0ced 97be 3861 08bf f622 15bf 9d95 0f3e
00000280: 67cd 2c3e f5a2 06be 5d56 bbbe 57b0 92bd
00000290: 9c88 0b3f 89da 3e3e 2f6f 08be bae1 ea3e
000002a0: 1572 aabe 3837 c2be d7db ecbe b7a5 cc3d
000002b0: d1c2 bb3e 288a 1dbf 89d7 c93d 913b 473e
000002c0: 0aae 823d 3451 bbbd f356 0fbe f44d 793f
000002d0: cfe6 e23e 5295 a1bf 4be6 a6be 3d8a 07bf
000002e0: 0be4 3ebe 81b4 08be 4859 af3d 89e3 1a3e
000002f0: a2ae 88be 4f45 773e e733 a63e 95c3 183f
00000300: db46 1f3f 58bd 2e3f 2bcf fbbe b80d 743e
00000310: e35d 2dbf 74a7 1cbc 8438 f43e c210 913e
00000320: 5af2 083f 2532 b43e b540 95bd 9dd4 fabe
00000330: 943f 233f 813b a5be b04b 8e3e f3b4 cabe
00000340: e8f9 4d3f d6b9 6e3f f680 973e 71be 4dbf
00000350: 7e84 94be e3b8 803f 7e14 e8be a154 3d3f
00000360: 99c5 04bf 4bd9 ce3e d982 e23e 3f95 763f
00000370: c2cd adbd 9237 a0bd 1057 f5be 5ba2 f23e
00000380: fe7b b83e 0384 64be 8457 303e b5ea 213d
00000390: a7a5 043e 0d47 d23d 3a83 3fbf da95 f03e
000003a0: d313 573e de54 e83c d708 2fbe 8026 3ebf
000003b0: 7f56 d5be ec76 50be 0e52 09bf 8dd6 323d
000003c0: a695 143f 3448 3bbd eaea 2d3f 19f3 e3be
000003d0: c677 84be bee4 cbbe 8801 cd3e a54e b1be
000003e0: f6af ea3d 8cc0 8e3e 82a7 2f3f 9a35 9fbf
000003f0: 845f 223f 9c64 843f 4637 14bf 44ab 96be
0.5777361 0.33714533 -0.19757357 0.27146804 0.3234536 -0.13239089 0.6251617 -0.44209218
-1.2127204 0.30550244 0.89700776 1.3105354 0.07837475 0.1020271 -0.035343412 -0.17034869
-0.33919406 0.75001615 -0.6617213 -0.6934871 -0.4196235 0.06068733 0.56776065 0.082608335
-0.50238127 -0.26775897 0.74483985 0.1505581 0.031945027 0.011027828 0.6524793 -0.057951905
-0.53629595 -0.29881445 -0.69557923 0.4675113 -0.12958552 0.32779476 0.06827873 -0.10584852
0.22888315 0.15627494 0.3968067 0.16089368 -0.6079142 -0.29933554 0.15505698 -0.3709589
0.4849067 0.68796086 0.12093956 0.35716632 -0.5221349 -0.4189198 -0.44538555 0.14444907
0.30656585 -0.12006442 0.5152831 -0.5286818 -0.16084304 -0.035697993 0.5820906 0.23540676
-0.5757217 -0.059568916 0.8580165 -0.85641515 -0.27813038 -0.39260548 -1.0766107 -0.5943613
-0.6020252 -0.82636493 -0.5886534 -0.11846709 -0.13732143 -0.29511 -0.09653608 0.7252734
-0.47453278 -0.781859 0.29729778 0.02406092 0.32890984 0.36423874 0.25297874 -0.47040233
-0.42480665 0.4016223 0.09802789 -0.016606897 -0.6896287 0.20909892 0.20435625 -0.64885604
0.6537511 0.392598 -0.36095977 0.6643445 -0.14788443 0.7378631 0.1638933 -0.06046507
0.00502532 -0.32380944 0.043212295 -0.4429061 -0.67964673 0.942429 -0.13785626 -0.951721
0.36560112 -0.6824368 -0.28189752 0.30442953 -0.45118496 -0.20179977 -0.78911304 0.19241013
-0.21280119 0.43167818 -1.077614 0.78800356 0.23707256 0.57509863 -0.43054104 -0.03661543
-0.04591423 0.5833153 0.19281633 -0.0085795615 0.54241043 0.066239886 0.54169047 -0.3315034
0.85716546 0.6816647 0.11101168 0.6869811 -0.066385165 -0.96752673 -1.1262822 0.4513184
0.13683687 -0.5339726 1.2941535 -0.43149665 -0.35738158 -1.5363315 0.23927885 -0.52466077
-0.60622036 1.3735727 -0.8016829 0.21100044 -0.2967304 -0.53273344 -0.5825647 0.14021917
0.1687523 -0.131481 -0.36589327 -0.071625404 0.54505324 0.18638052 -0.13323663 0.4587534
-0.33290163 -0.37932754 -0.46261474 0.09992545 0.3667207 -0.61538935 0.09855563 0.19456317
0.063808516 -0.09146348 -0.13998012 0.9738457 0.44316718 -1.2623694 -0.32597575 -0.5294531
-0.18641679 -0.13350107 0.08561951 0.1512586 -0.26695734 0.24147533 0.32461473 0.59673434
0.6221749 0.68257666 -0.49181494 0.23833358 -0.67721385 -0.009561408 0.47699368 0.28333098
0.534948 0.35194507 -0.072877325 -0.48990336 0.6376889 -0.3227196 0.2779212 -0.39591178
0.8045945 0.93252313 0.29590577 -0.80368716 -0.29007334 1.0056423 -0.45328134 0.7395726
-0.5186401 0.40400156 0.44240454 0.9632148 -0.08486511 -0.07823099 -0.47917986 0.47389492
0.360321 -0.22315983 0.17220885 0.039530475 0.12953816 0.10267458 -0.7480961 0.46989328
0.21003656 0.02836078 -0.17093216 -0.74277496 -0.41667554 -0.20357865 -0.5364083 0.043661643
0.58040845 -0.045723155 0.67936575 -0.44521406 -0.2587263 -0.39822954 0.4004023 -0.34630314
0.11459343 0.27881277 0.6861497 -1.2438233 0.63426995 1.0343204 -0.5789684 -0.2942754

feature.bias_ih_l0_reverse f4 [512]
00000000: 049c ecbd 7df3 81be cbcd 113f a7fa babe
00000010: 7010 f83e 9f25 8f3e e86f e93c 297c a1bd
00000020: 2c75 0b3f a226 00be 7679 543e 343b 8e3c
00000030: c698 c63e 6f62 cc3e bc21 783f bcf0 fc3e
00000040: 08b3 343f f135 df3c 0ce2 803e 0ac4 dd3d
00000050: f0c9 ff3e 0580 323f 0f10 033f ed2e 073f
00000060: fda9 233d 4e01 cc3d 4e6e 6c3f 3a06 67be
00000070: cbff 90bd c044 8c3d 958c 353e a383 b23e
00000080: 70aa 923e 3d13 a8be d6c5 95bc cf84 253f
00000090: 8f27 e83e 5f13 1abe f3d6 03bf 69f6 bdbe
000000a0: 4442 aebd 0f59 dc3e 3b91 cf3d 1426 d7bd
000000b0: ccfc e23e 91a9 533e 1d4d 0f3e f322 723e
000000c0: e2fb 883e 79db ecbc 22c7 803d be5e fabc
000000d0: 0f14 d9bd 6bc0 3bbe 0570 f53e 3ae3 ed3e
000000e0: 0553 1e3f 4a03 c13e 5b4b e73e f810 1d3f
000000f0: 3bf3 9dbd 85ac c23d 939a 143d 02cd c2bd
00000100: a5b9 e63e 78ef 113f 3142 333f 8739 80bd
00000110: 99ed f73e 80c9 d5bd 2575 003f dc6c 34be
00000120: 21a5 2c3e c8e8 2dbe f1a4 843e b106 153d
00000130: 64cf 243d 4fea ab3e 36ad 59bd 9163 1a3f
00000140: fb66 0b3f ab08 d33e 22a5 853d 76c9 46be
00000150: f250 9dbe a626 f73e 1621 adbc 045e bf3e
00000160: e4e6 663e abe6 2e3e 3281 f4bd e19b 583e
00000170: 0564 d33e ed07 1cbd 7c8a 4f3f c7bc d43e
00000180: fb5c e1bd 5492 2c3e b54c 09bf 74a9 473f
00000190: a4ef c03d d772 1bbe b813 e73e 85c7 8d3e
000001a0: 9ce8 413b ce81 adbe c5e7 153e c407 4c3e
000001b0: 8ab3 a83d 8d37 02bf 493d efbe 3761 85be
000001c0: be1b cf3e 8684 c2bd d89e b9bd b694 a23e
000001d0: 604d 873d 0260 a63e 1c1e 00be 1928 81be
000001e0: 008a 223f 78a5 3a3f c843 133d 63b1 253e
000001f0: d2ca 483f e499 183e cbc4 87bd 8d39 43ba
00000200: 42b7 23be 5392 2cbe 260d 3b3f c1ab e93d
00000210: cbde 70be 0a7c cfbe 1757 f3bc 68aa a53e
00000220: 3e57 a9be 2c0e 8f3e f86c 8c3d 72f3 79be
00000230: 28bc 4a3f 55d2 8bbc 14cb 133e 430c 44bd
00000240: 2cd6 83be f84b 8f3e cde8 17bf ca0c b33e
00000250: 9a2b a03c 9bbe 52be bace 213f 5f21 39be
00000260: d6ee 69bb d412 a3be 7883 5abd 992e 9b3e
00000270: f7dc 123e f306 1bbe 1974 7d3e 0eba 5e3f
00000280: 0d89 86be e867 333d b155 ee3c 5e87 15bf
00000290: d915 9f3e c6da 85be 8f6e 1b3f 134b 823e
000002a0: 5229 683d df88 16bf e6fb e53d 136d e83e
000002b0: a9f4 0f3e e755 1ebe cf89 4ebe 0a3c e9bd
000002c0: fc42 ffbd 6489 823e 2793 95bd d9cf abbd
000002d0: b9a1 23be 14ec b63d a4e1 24be 6e16 563e
000002e0: c7f7 15bd 38e1 6f3f ec85 9dbe d341 643d
000002f0: 8f55 f03d de61 293d 2519 24be b53e 383e
00000300: e69a 3ebd e5fa e9bd cff0 50be 2743 b93e
00000310: 2316 8dbe b5a1 9a3e dab4 6abe 38d8 a9be
00000320: 8639 e2be 4894 123e 5fd8 7ebe b246 aabe
00000330: df89 113d 681f 2dbf dc10 cd3e c841 07be
00000340: 20db 48be 769b 22be 60b0 5a3e fe61 263e
00000350: c069 afbe 424c 1bbf a434 98be 14ed 3b3d
00000360: 9a39 59bf df28 20bb 5506 1d3d 5597 50bb
00000370: 4145 673d 6140 e2bd 45ff 3dbf d4f3 0c3f
00000380: 6a46 623e 0570 02be 82fa b8be 793a e3be
00000390: fd94 c73e 0b89 9dbe 8996 6cbd a1ce 323f
000003a0: 0034 12be e10a 5e3e 39d3 ec3e 8b08 d63e
000003b0: 8703 25be 9772 2d3e 3bf0 df3e 9b4d 8a3e
000003c0: 945a 8bbe 4bca a83e 428d 923c f9f3 90be
000003d0: 446e f4be cad6 5cbe a639 863e d329 033e
000003e0: 6108 3ebf bee6 00bf 7903 c8bd 7569 9bbe
000003f0: 959d 663d dbc7 8e3d c842 353f ea19 5d3e
-0.11553195 -0.2538108 0.5695464 -0.36519358 0.4845004 0.2795839 0.028495744 -0.0788501
0.54475665 -0.12514737 0.20749459 0.017362215 0.38788432 0.3991885 0.96926475 0.49402416
0.7058568 0.027247401 0.2517246 0.10828407 0.49958754 0.6972659 0.5119638 0.5280598
0.039957035 0.09961186 0.9235581 -0.22560969 -0.07080039 0.068490505 0.17729409 0.34866056
0.28645658 -0.32827178 -0.018282812 0.64655775 0.4534268 -0.15046452 -0.5149986 -0.3710206
-0.08508733 0.43036696 0.101351224 -0.1050531 0.44333494 0.20670153 0.1399426 0.23646145
0.2675467 -0.028913246 0.062879816 -0.030562755 -0.10599529 -0.1833512 0.47937027 0.46462423
0.6184543 0.37697822 0.4517468 0.6135402 -0.07712408 0.09505562 0.036280226 -0.095117584
0.4506351 0.57006025 0.70022875 -0.062609725 0.4842346 -0.10438824 0.5017875 -0.17619652
0.16859867 -0.1698333 0.2590709 0.036383335 0.040236846 0.335772 -0.053143702 0.60308176
0.5445401 0.4121755 0.06525637 -0.19412789 -0.3072582 0.48271674 -0.02113394 0.37376416
0.22549015 0.1708018 -0.119387046 0.21153213 0.41287246 -0.038093496 0.81070685 0.41550276
-0.11004063 0.16852695 -0.5363267 0.7799294 0.09420708 -0.15180527 0.45132232 0.27691284
0.002958811 -0.33888096 0.14639194 0.19924837 0.08237369 -0.50866014 -0.46726444 -0.26050732
0.40450853 -0.09497933 -0.090635 0.31754082 0.06606555 0.32495123 -0.12511486 -0.25225905
0.6349182 0.72908735 0.035953313 0.16180949 0.7843448 0.14902455 -0.06629332 -0.00074472354
-0.15987876 -0.16852693 0.7306694 0.114097126 -0.23522489 -0.40524322 -0.029704614 0.32356572
-0.33074373 0.279405 0.06856722 -0.24409273 0.79193354 -0.017068068 0.14432937 -0.047863256
-0.25749338 0.27987647 -0.593396 0.34970695 0.01955204 -0.20580523 0.63206065 -0.18079136
-0.0035695336 -0.31850302 -0.053348035 0.3030899 0.14342104 -0.1513937 0.24751319 0.87002647
-0.26276436 0.043800265 0.029093595 -0.5840968 0.31071356 -0.26143473 0.60715574 0.25447902
0.05668003 -0.588026 0.112296864 0.45395717 0.14058174 -0.15462457 -0.20169757 -0.11388405
-0.12463948 0.25495446 -0.07303458 -0.08389253 -0.15979661 0.08931747 -0.161017 0.20906994
-0.036613252 0.9370303 -0.30766237 0.055726837 0.11735069 0.0413531 -0.16025217 0.17992671
-0.04653444 -0.114248075 -0.20404361 0.36184046 -0.2755595 0.30201498 -0.22920552 -0.33172774
-0.44184512 0.14314377 -0.24887227 -0.3325706 0.035531875 -0.6762605 0.40051925 -0.13208687
-0.1961484 -0.15879616 0.21356344 0.16248319 -0.34260368 -0.60663235 -0.29727662 0.045880392
-0.8485352 -0.0024438424 0.038336117 -0.0031828482 0.05646253 -0.110474356 -0.74217635 0.5505955
0.22097173 -0.12738045 -0.36128622 -0.4438055 0.38980857 -0.30768618 -0.05776075 0.6984654
-0.14277649 0.21683837 0.462549 0.41803393 -0.16114627 0.16938244 0.4373797 0.27012333
-0.27217543 0.32966837 0.017889623 -0.28311136 -0.47740376 -0.2156631 0.26215857 0.12808923
-0.74231535 -0.50352085 -0.09766287 -0.30353895 0.056302626 0.06971713 0.70805025 0.21591917

feature.bias_hh_l0_reverse f4 [512]
00000000: 680f 053d e49d 7abe 7224 213f 0b98 88be
00000010: 77d3 7c3e 350b 183e ac9e 22bd 5354 08be
00000020: d078 133f 7656 dc3c 78af 583e 1c7c d83d
00000030: 630d d53e 7517 b43e a24e 663f b9eb f53e
00000040: 2486 3d3f 169a 6ebe 4483 773e c2ba 373e
00000050: 0bf5 ed3e 728e 143f 0fd1 f93e 68a6 df3e
00000060: 9a99 94bb 3bf7 3b3e 4293 603f 54ca bebe
00000070: d88a 6fbe 0a5a 2e3d cc1c 8a3e e9a8 e03e
00000080: f824 a63e 3700 b9be 9540 7f3d d987 f43e
00000090: f8c8 8d3e 18bc 3dbe 6e81 b0be bef1 c4be
000000a0: 148a 80be f77a f43e 369a 513e e9c6 a1bb
000000b0: c09d 803e de7a e93d 2f54 783e b6d9 333e
000000c0: 34ed 973e 6f3f 19be 8b8c debd 8a07 f4bb
000000d0: 0357 e1bd 51c7 efbd 4e3b fb3e 092c b43e
000000e0: 2ff0 0a3f 5b92 0c3f bee3 023f fe7c 243f
000000f0: 5019 5cbe 5ed3 403d 7fe7 aa3d 633e fcbd
00000100: 4059 173f 00e7 0f3f b053 293f f3d0 bc3c
00000110: 8a8f 1e3f 934c 0abe ed04 ff3e b180 a7bd
00000120: 0c36 083e 7b3a a3bd 8c30 503e a893 333e
00000130: 5548 023e 991f ab3e a72f 2cbe f292 0b3f
00000140: 6724 093f a568 c03e 142d 2f3c 2879 87be
00000150: 3c3a c4be 7d62 ed3e dfcc d0bc 4c34 683e
00000160: 0b24 8d3e da67 c63d 31bd b5bd 3607 353d
00000170: 0c95 f53e 79fb 873d 932d 4a3f dd47 b73e
00000180: ba3e bfbd 37f6 443b c6fa d6be e976 513f
00000190: c854 4f3d bae8 1bbe 4982 e53e 62d8 803e
000001a0: 1e42 b63d a9d3 93be bada 073e 0be6 723e
000001b0: 486e 2d3e 237a 10bf f2ba c6be 73d8 50be
000001c0: e7bc f93e 6872 03be f3ea 273c b4bc 753e
000001d0: 5ab7 ef3d 9406 be3e ebd5 90bd 4e0c 20be
000001e0: 9ac6 313f e212 083f 9654 b23d ea07 743e
000001f0: 8ba4 6f3f 0f9e 3c3e d215 cabd 1af5 473c
00000200: 1f3f 38be 949f 3fbd 934d 463f 0754 933c
00000210: f3f7 b9bd 0400 c7be 6d32 e7bc 6c8b 503e
00000220: 8f39 debe 8b3b 963e 46c5 913d 2c0a c4bd
00000230: 1606 483f 9afc 303d e470 083e d85c d0bd
00000240: 2ee9 b6be c091 7e3e ef8a 02bf 7594 d13e
00000250: 5092 983b 7e1c a1be 5dfa 403f f870 23be
00000260: d312 923d 5ca8 b2be b693 51be e89e 213e
00000270: e2fa 4a3e d390 57be c039 a03e b10f 733f
00000280: 9901 a1be 0465 4abd bbf8 083d 6238 23bf
00000290: d7a2 a43e 33e8 bfbe fc37 ed3e e748 6c3e
000002a0: e529 59bb 822e 04bf 51c7 253c 7ffb fc3e
000002b0: d3e4 3b3d aa02 9bbe 86ec adbd 40a4 0bbe
000002c0: 46d7 e3bd 0b38 813e c7b8 14be 6f94 ed3c
000002d0: 5c3d 87bd 33d4 763e ea05 43bd 37d0 903e
000002e0: 7bdf 8fbd dd5b 7c3f 1883 6bbe 7904 5a3b
000002f0: b4e6 343e 340b d0bd 89cc 29bd 1ea9 373e
00000300: 94b3 67bd a07b 37be 06b7 39be 68be 8a3e
00000310: b2bf a2be ccfe 233e 5b64 acbe 4343 9ebe
00000320: 0d6e cabe 2efd b3bc 842e 96be 2207 e3be
00000330: a46d 12be f9d4 16bf 0763 a03e dc73 4bbe
00000340: c63f 62be 973c f4bd 8561 bc3d 535c e03d
00000350: e573 51be 6221 28bf 2985 5abe ebe0 853d
00000360: 3f95 2bbf 5a8e c03d 7336 f63d 6906 133d
00000370: fa7e f83d aa3c 82bd 8413 32bf 8f97 0f3f
00000380: 09e8 4e3e eb79 18bd 3484 a7be 30b7 f8be
00000390: 28b5 a53e a88a 1ebe eb69 7f3d 272e 173f
000003a0: 9ef4 51be 365c 0f3e ee23 033f b5b9 d83e
000003b0: e56f 58be 9d54 6d3e 5cb4 153f 6114 903e
000003c0: c4dc 0abe dccf b23e 01c7 413d 21b4 20be
000003d0: b2a8 f4be 7e5d 9ebe 1fc4 3f3e 1165 dd3d
000003e0: 27c2 2bbf 5319 0abf fc64 e6bc 9ded 5ebe
000003f0: 5fcd 00be d4e6 113e 7ed1 403f 200c 283e
0.032485396 -0.24474293 0.62946236 -0.266785 0.24690042 0.14848025 -0.039702103 -0.13313417
0.5760622 0.026896697 0.21160686 0.10570547 0.41611776 0.35174146 0.89963734 0.48031405
0.7403281 -0.23300967 0.24171168 0.17942336 0.46476015 0.58029854 0.48792312 0.43681645
-0.0045349123 0.1835603 0.877247 -0.3726374 -0.23392808 0.042566337 0.26975095 0.43878868
0.3245008 -0.36132976 0.06231745 0.47759894 0.2769239 -0.18528783 -0.34473747 -0.38465685
-0.25105345 0.47750065 0.20468983 -0.004937042 0.25120354 0.11400388 0.24250863 0.17563519
0.2967316 -0.14965604 -0.1086665 -0.007447188 -0.11002924 -0.117079385 0.49068683 0.35189846
0.5427274 0.5491082 0.51128757 0.6425322 -0.21494031 0.047076575 0.083449356 -0.12316587
0.5912056 0.56211853 0.6614332 0.023048854 0.61937773 -0.13505773 0.49808446 -0.08178843
0.13301867 -0.07970139 0.20331019 0.17536795 0.12722905 0.33422545 -0.16815053 0.54521096
0.5357117 0.37579837 0.0106919 -0.26459622 -0.3832568 0.46364203 -0.025488315 0.226762
0.2756656 0.09687777 -0.08873976 0.04419633 0.47965276 0.066397615 0.7897579 0.35797015
-0.09338136 0.0030053982 -0.419882 0.8182207 0.050617963 -0.15225497 0.44825962 0.25165087
0.088993296 -0.2887242 0.13267031 0.23720567 0.169366 -0.56436366 -0.38814503 -0.20395069
0.48776934 -0.12836611 0.010248887 0.23997766 0.117048934 0.37114394 -0.070720516 -0.15629694
0.69443667 0.5315381 0.0870754 0.23831144 0.9361045 0.1841967 -0.09867443 0.012204433
-0.17992829 -0.046783045 0.7746212 0.017984403 -0.09080496 -0.388672 -0.028222287 0.20365685
-0.4340329 0.29342303 0.07117705 -0.09572253 0.78134286 0.04320965 0.13324314 -0.101739585
-0.35724777 0.24860287 -0.50993246 0.40933576 0.0046561137 -0.3146705 0.75382024 -0.15961063
0.07132497 -0.34894073 -0.20466504 0.15783274 0.19822267 -0.2105134 0.3129406 0.9494582
-0.3144653 -0.049412742 0.033440333 -0.6375791 0.32155487 -0.3748184 0.46331775 0.23074685
-0.0033136543 -0.51633465 0.0101183215 0.49410626 0.04587252 -0.3027547 -0.08492379 -0.13636875
-0.111250445 0.2523807 -0.14523612 0.029001443 -0.066035 0.24104385 -0.047613062 0.28283855
-0.070250474 0.9857767 -0.22999227 0.0033266826 0.17666131 -0.10158387 -0.041454826 0.17935607
-0.056567743 -0.17918253 -0.18136224 0.27098393 -0.31786877 0.16015166 -0.33670315 -0.30910692
-0.39537087 -0.021971311 -0.29332364 -0.4434138 -0.14299637 -0.5891872 0.31325552 -0.19868416
-0.2209464 -0.11925619 0.09198288 0.109551094 -0.20454367 -0.6567594 -0.21339859 0.0653704
-0.67024606 0.094021514 0.12022104 0.035894785 0.12133594 -0.06359227 -0.6956103 0.56090635
0.20205702 -0.037225645 -0.3271805 -0.4857726 0.32364774 -0.1548258 0.06235687 0.590548
-0.2050347 0.1400002 0.512267 0.42329183 -0.21136434 0.23176809 0.5847833 0.28140548
-0.13560778 0.3492421 0.047308926 -0.15693714 -0.47784954 -0.30930704 0.18727158 0.108102925
-0.6709313 -0.5394489 -0.028124325 -0.2177033 -0.12578343 0.1424821 0.7531966 0.16410875
