logs/classifier/20_contexts/fold_03/10-19-2022_14-34-31/model_params.pth (torch, 821283 bytes, 10 tensors)

feature.weight_ih_l0 f4 [512, 64]
000000 de 89 a8 bd 7b bf 44 3f 45 9c 0c be e7 2e c3 3f
       -0.08229421 0.76854676 -0.13731487 1.5248688
000010 f3 8b b9 3e 70 7c 87 bd e9 bf ba 3e 37 a2 42 bf
       0.36239585 -0.066155314 0.3647454 -0.7602877
000020 f3 98 81 3f 36 f1 08 bf 2d 4b de 3e 1b 9b 9d bd
       1.0124801 -0.5349306 0.4341673 -0.076956
000030 2a 46 06 be bf 7b aa be 5f ee 13 be 8d d1 8e be
       -0.13112703 -0.33297536 -0.144464 -0.2789425
000040 26 63 58 3f c9 2b b1 be 23 90 2c bf 55 bb cc be
       0.8452629 -0.34603718 -0.67407435 -0.39986673
000050 41 50 29 3e f4 50 ea be 1f 05 63 3d d5 69 ee 3d
       0.1653452 -0.45764887 0.055424806 0.116412796
000060 30 5a 2a 3f 66 ef bc 3d 1c a2 5b bf 9e 65 3f be
       0.66543865 0.09225349 -0.85794234 -0.18691108
000070 97 68 5a bf a7 69 89 bf 7f 3f da be 97 78 94 be
       -0.8531584 -1.0735368 -0.4262657 -0.28998253
000080 6c 7f c8 be 1e f4 d3 3d a0 eb 83 bf 60 16 c3 bc
       -0.39159715 0.10349296 -1.0306282 -0.02381438
000090 6b 90 3f 3f 4b 12 1a 3e 89 69 59 3f ed dc 73 be
       0.7482974 0.1504604 0.8492666 -0.23814745
0000a0 f5 46 a3 bd 0f 4f 2e 3f fc 54 ad 3e 99 89 d5 be
       -0.07972518 0.68089384 0.338539 -0.4170654
0000b0 7a 94 c3 be fa 88 19 bf ba 8b 8f 3e be 33 b0 be
       -0.38199216 -0.59974635 0.2803629 -0.34414476
0000c0 04 05 02 3f 85 cf 3a bf 26 e6 ba 3e 83 ef 0c 3f
       0.50788903 -0.729729 0.36503714 0.55052966
0000d0 12 a6 04 bf 97 72 78 bf 7d 56 8a 3e 85 cb b9 bd
       -0.51815903 -0.9704985 0.2701911 -0.090720214
0000e0 3d 3b c2 be 77 75 46 be c0 f7 3f 3c f0 3c 7a be
       -0.3793582 -0.19380747 0.011716783 -0.24437308
0000f0 a1 b3 32 bf 87 08 c2 bc 1b 53 e5 bc 7e c1 24 3e
       -0.6980534 -0.023685707 -0.02799373 0.16089436
000100 aa 53 4e be 8b aa dc 3e b4 76 3a 3e b5 e9 f2 bd
       -0.20149103 0.43098864 0.18209344 -0.11860982
000110 17 5c 18 3f 83 8d 99 bf 7d 50 de be 2a bc d2 3e
       0.5951552 -1.1996311 -0.43420783 0.41159183
000120 56 bf 09 40 d4 22 b1 bf 38 36 17 3f 55 22 ec 3e
       2.1523032 -1.3838754 0.59067106 0.46119943
000130 57 b8 75 3f b2 44 0d bf 64 49 12 3e 26 45 23 bf
       0.95984405 -0.55182946 0.14285809 -0.6377739
000140 6f f7 f9 3d 14 75 71 be aa bb be bf 0f 7c 9a bd
       0.12205397 -0.23579818 -1.490102 -0.075431935
000150 35 2d 9f 3f 64 13 f0 be 53 e4 8c bf 4b ac a5 3f
       1.2435671 -0.46889794 -1.1007179 1.2943205
000160 61 42 a6 be c5 8e 70 3f 6b e7 d4 be b1 f9 8a bd
       -0.32472518 0.9396785 -0.41582808 -0.06785906
000170 98 91 53 3f 8d fb 98 3e 5d 99 bf 3e a3 18 cf 3b
       0.82644033 0.29879418 0.37421694 0.0063200756
000180 df ff f0 bb c1 58 6e 3f 36 bc 0d be 9c 8e bd be
       -0.007354721 0.9310418 -0.13841328 -0.37022865
000190 10 a0 17 3f 90 bb c8 3f 25 86 bd bd 36 f8 55 3f
       0.5922861 1.568224 -0.09254102 0.83581865
0001a0 89 54 34 bf 50 70 a9 3f e2 39 b3 3e b0 ff 01 bf
       -0.7044149 1.32374 0.350051 -0.50780773
0001b0 01 5e 9f be fc e5 67 3f 8a f0 0f 3f 11 2e 0f 3f
       -0.31126407 0.90585303 0.5622641 0.55929667
0001c0 a5 27 4c 3d 49 a8 64 bf fb 72 7e 3d 4e 4d 09 c0
       0.049842495 -0.8931928 0.062121373 -2.1453433
0001d0 5c d6 91 3f 95 9c 84 bf 82 24 ab bd 3f 4b c1 bd
       1.1393542 -1.0360285 -0.08356573 -0.0943818
0001e0 49 70 4d 3f e2 b2 a7 3e d5 2c 8d bd 24 42 16 bf
       0.8024946 0.32753664 -0.06893317 -0.5869467
0001f0 a5 4d 55 bf 07 28 cc bf 26 1b ac 3e f9 ec cf be
       -0.833216 -1.5949715 0.33614463 -0.40610483
000200 73 ef 80 3e f5 91 56 bf 29 d4 9c bd 5a 17 8b be
       0.25182685 -0.8381646 -0.07657654 -0.27166253
000210 da 9f 48 3f 01 b8 d9 3d 11 9f 05 bf b3 56 b4 be
       0.78368914 0.10630799 -0.5219584 -0.35222396
000220 fb 65 44 bf 16 ff 4e 3f 01 35 96 3f 42 05 e2 3d
       -0.7671811 0.8085798 1.1734926 0.11036159
000230 2c b9 3b be d5 f0 e7 be ae 22 d1 bf 07 ad bd 3e
       -0.18332356 -0.45300928 -1.6338708 0.37046072
000240 d3 d3 90 be 28 87 1a be c0 88 4d 3c 1d c9 49 3e
       -0.2828661 -0.1509062 0.012544811 0.19705625
000250 e1 c3 7f bc e6 43 89 be 21 e9 5f 3f 59 3f 87 3e
       -0.015610666 -0.26809615 0.874651 0.26415518
000260 57 1d f3 be 6b 14 a5 bd bf 8f 9d 3f eb 2e 6c bf
       -0.47483322 -0.08060535 1.2309493 -0.9225909
000270 b5 b4 17 3f 74 df 85 3e 50 46 f2 be fa bc 0d 3e
       0.5926011 0.26147044 -0.4731927 0.1384162
000280 61 b8 25 bf ed 37 85 3f df 92 b1 3f 8c 8b 95 bf
       -0.64734465 1.0407692 1.3872947 -1.1683211
000290 42 b4 3c 39 e7 a2 ee 3e 0a d2 a6 3e 05 78 00 3f
       0.00017996228 0.4660866 0.32582122 0.50183135
0002a0 27 f0 f7 be 47 e2 34 bf b9 da 04 3f 73 7b 49 bf
       -0.4842541 -0.7065777 0.51896244 -0.78703994
0002b0 44 1a 03 3f 1c 2d ba 3f a3 21 7c 3e 71 79 b7 be
       0.51211953 1.4545016 0.24622206 -0.3583484
0002c0 a9 35 3e 3f 5c 3c ab be 7c 7c b5 bf 7e e9 4b 3f
       0.7430063 -0.33444488 -1.4178615 0.79653156
0002d0 fc 1f 54 bf 29 9b 55 3f d3 a1 53 bc 3b aa f5 be
       -0.82861304 0.8343988 -0.012917 -0.47981438
0002e0 99 f3 36 3e de 7f 7f 3e eb f6 96 3e 97 3f 5a be
       0.17866363 0.24951121 0.29485258 -0.2131332
0002f0 78 04 b4 be 35 06 36 bf eb e3 4a 3f 29 d7 09 be
       -0.3515966 -0.7110322 0.79254025 -0.13460983
000300 c9 98 1c be cc 3e c0 be e5 6b 1c bf 51 0d a6 3f
       -0.15292658 -0.3754791 -0.61102134 1.2972814
000310 6c 89 32 bf c2 83 d1 bd 88 6a 0d 3b b7 af 28 3f
       -0.6974094 -0.10230209 0.002157839 0.6589312
000320 43 53 cd be df 47 38 3f b8 d1 30 3e 76 e8 be 3e
       -0.40102586 0.71984667 0.17267501 0.3728673
000330 e6 b2 3f bf 1d 91 6e 3f 40 64 a7 bf a3 9c 86 3f
       -0.7488235 0.93190175 -1.3077469 1.0516552
000340 78 6f c1 3e 46 6e 0c bd fd b4 21 be 0c ce 7b 3e
       0.37780356 -0.034284852 -0.15791698 0.2459032
000350 9c d4 74 bf 16 d6 cd 3e 15 17 96 bd 7a 83 0d 3f
       -0.95636916 0.40202397 -0.07328621 0.5527874
000360 5a 93 71 be 2d b8 d7 be 11 25 2b be b2 b2 32 be
       -0.23591366 -0.42132702 -0.16713358 -0.1745098
000370 57 ee 52 3d 03 ff fb be 34 e4 4d be 53 c9 fc 3e
       0.05149683 -0.49217996 -0.20106584 0.49372348
000380 3b f4 50 3f 67 0c 86 be 3e 3c 38 be 0e d9 1f bf
       0.81622666 -0.26181337 -0.1799173 -0.62440574
000390 74 79 8d bf da a6 01 bf d3 18 5b bd 80 ab c0 3f
       -1.105269 -0.5064522 -0.05349047 1.5052338
0003a0 63 70 fd 3d 81 e2 c0 be 48 da d7 3e f9 f7 92 3f
       0.12374952 -0.3767281 0.42158723 1.1481925
0003b0 71 3f dd 3d be 6e 5f bf 68 b4 81 3f ed e1 78 bf
       0.10803116 -0.87278354 1.0133181 -0.97219735
0003c0 31 a3 0c 3f 20 e4 ba be 9e f1 65 bc 99 0d ae 3d
       0.5493651 -0.3650217 -0.014034657 0.08498687
0003d0 54 d8 10 3f ac 7f ea 3d e2 ad 52 3f 0a e5 0e bf
       0.5658009 0.11450133 0.82296574 -0.55818236
0003e0 c3 4b 55 be e7 d0 f2 3d 0c f7 15 3e 7d af e0 be
       -0.20829682 0.11856251 0.14645022 -0.43883887
0003f0 4b 8b d2 bd b5 7d d6 3d ff 4f 86 bc a0 b7 93 3d
       -0.10280474 0.104731955 -0.016395567 0.07212758

feature.weight_hh_l0 f4 [512, 128]
000000 52 67 18 3d 7f 7d 66 3d 8e 50 11 3f ed 90 46 3e
       0.03720791 0.056272026 0.5676354 0.19391222
000010 22 5e 9c bd 9a 4a 07 3d 8f 7d 5c bf cd 9b 8b 3e
       -0.07635142 0.03303013 -0.8612909 0.27267304
000020 7b f8 0e be 45 7a 70 be 7e 15 9f 3e b8 34 a3 bf
       -0.13961975 -0.23484142 0.31071085 -1.2750463
000030 dc c4 28 3f e7 02 61 be 4c e7 8e bf bc 17 3e bf
       0.65925384 -0.21973763 -1.1164336 -0.74254966
000040 07 33 0b bf d9 bf e5 be dd 9a 3c be 65 3e 74 be
       -0.54374737 -0.4487293 -0.1841845 -0.23851927
000050 b4 b6 42 bf 74 ee 78 be b4 70 13 bf eb 74 85 bf
       -0.7606003 -0.24309713 -0.57593846 -1.0426306
000060 a2 88 44 3d 85 ca 95 be 3b ec ce be 8f ac 86 bc
       0.047981866 -0.29256073 -0.40414605 -0.016439704
000070 f6 60 5b bb 72 dc 99 be 5b 3a 91 3e 9b 5b 70 bf
       -0.0033474541 -0.30051 0.28364834 -0.9388978
000080 38 17 5c be 9f b1 81 be 76 cc 9a be 80 44 1d be
       -0.21493232 -0.25330827 -0.30234116 -0.15358162
000090 50 74 13 3f 94 6e ae 3e ed f0 26 be a3 d1 d7 3d
       0.57599354 0.3406874 -0.16302843 0.10538032
0000a0 9b ad 83 3f 2a 24 86 3e 81 90 c4 3e de dc 14 3f
       1.0287355 0.26199466 0.38391498 0.58149517
0000b0 48 bc 62 be 04 2f c5 be 50 d8 54 3e 8b a9 11 3f
       -0.22142136 -0.38512433 0.20785642 0.5689933
0000c0 7c 00 b9 be 10 b7 92 3d ef 10 bc bd 9d 02 09 3e
       -0.36133182 0.07163823 -0.09182917 0.13379903
0000d0 95 22 18 3e 9f 99 0d 3f db cd 29 3d 21 c8 24 bf
       0.14856942 0.5531253 0.041456085 -0.6436787
0000e0 71 fa 29 bf 8d e9 f3 be ca 9c a5 bd e1 84 8d be
       -0.6639777 -0.47639123 -0.08086546 -0.2764044
0000f0 ee a5 e6 3e a7 d7 a4 3e 25 6f 0a 3f fb f9 f4 be
       0.4504847 0.3219578 0.54075843 -0.4784697
000100 78 1e 3c 3f 46 71 ac 3e b5 b3 a3 3f be ab c9 be
       0.7348399 0.3368017 1.2789217 -0.3938884
000110 73 52 ec 3d 99 a3 d5 3e f5 94 66 bf 00 4a 7e 3e
       0.115391634 0.41726378 -0.9007104 0.24832916
000120 f7 61 0f bf 13 5d 2b bf 4e 66 06 3d bd 6b 13 3d
       -0.5600886 -0.66938895 0.03281241 0.03599142
000130 d6 89 95 be f7 ae 82 bf 5c 4f 80 3e ab ff 8b be
       -0.29206723 -1.0209645 0.25060546 -0.27343497
000140 ac f3 99 3e ea fd 8d 3d ab ac 02 3f 44 bd 2d bf
       0.3006872 0.06933196 0.5104472 -0.6786692
000150 dd 9d 3b 3e ee 89 0c bf 00 37 5c be ba 8f 04 bf
       0.18321939 -0.54897964 -0.21505356 -0.5178181
000160 29 70 05 bd e3 26 28 3d 63 2e 9f be a9 c1 9a bf
       -0.032577667 0.04105271 -0.31090078 -1.209035
000170 78 59 36 3c 2b c1 38 bf ea cc 83 3e 50 4d 15 3f
       0.011129729 -0.7216975 0.25742275 0.58321095
000180 60 f8 f2 bd 70 a1 4d be 65 65 17 3f fc 2f c7 be
       -0.1186378 -0.20081115 0.5913909 -0.38903797
000190 91 05 04 bf 73 71 60 be dd 58 b4 be 06 aa af 3e
       -0.51570994 -0.21918277 -0.35224047 0.34309405
0001a0 d9 5f 1e 3b 3d b2 b6 3e f4 48 f3 3d 68 f2 a2 bb
       0.0024166016 0.3568286 0.11879149 -0.0049727447
0001b0 41 b4 7d be 31 a0 a9 bd f7 5a a7 3e ff 9d 80 3d
       -0.24775793 -0.08282507 0.32686588 0.06280135
0001c0 75 4e 2c 3f 74 99 19 bf 4d 95 7e 3e db 58 47 3e
       0.67307216 -0.59999776 0.24861641 0.1946749
0001d0 1d 1a 8c be bf 92 c8 3c 3c a2 56 3e 3b b2 96 be
       -0.27363673 0.024484036 0.20960325 -0.29432854
0001e0 5e 89 35 be 5e b8 59 be 17 40 08 3f 05 b9 70 3e
       -0.17728183 -0.21261737 0.53222793 0.2350808
0001f0 54 6c 27 3f 97 9b d3 bd 22 41 2f 3f f7 f8 07 bf
       0.6539967 -0.10332411 0.6845876 -0.53114265
000200 7d e0 01 bf 0a 5f 57 3e 0f ff 6c 3b cd 13 a7 3e
       -0.50733167 0.21032348 0.003616277 0.32632294
000210 8b b6 8a 3e 42 ae fd bd d4 44 24 bf 43 c1 25 be
       0.27092394 -0.12386753 -0.64167523 -0.16187005
000220 6d 1e 83 be b2 65 05 bf 79 a4 a1 be 37 34 b9 3d
       -0.2560915 -0.521083 -0.31570795 0.09043162
000230 8e ac 03 3f 86 4b 60 3e eb 09 57 3d 01 2b 3c be
       0.5143517 0.2190381 0.052499693 -0.1837578
000240 64 1a 81 be d5 e4 5b 3f 62 66 02 be d8 88 af 3c
       -0.25215447 0.85896045 -0.12734368 0.021427557
000250 f0 49 c8 3e 23 d8 49 bd 51 08 52 be 63 60 a1 3f
       0.3911891 -0.04927839 -0.20510985 1.260754
000260 60 54 3d 3e a4 b7 c9 3e 2a 73 42 3e 27 f4 b3 3e
       0.18489218 0.3939792 0.18989244 0.3514721
000270 69 af 73 be 07 fe 98 3d 65 7c 5d bd 7c 5a 11 3e
       -0.23797382 0.07470327 -0.05407371 0.14194673
000280 4c ce ca 3e 28 e1 6c bd 7a 00 20 3f f1 3a a3 3d
       0.39610517 -0.057831913 0.6250073 0.079702266
000290 45 35 dd 3e f3 08 85 3e d1 43 ec be 05 22 59 3e
       0.43204704 0.2598339 -0.4614549 0.21204384
0002a0 4e 9c 0b be c5 97 76 bc 0b ee 25 3f ac 0f a4 3d
       -0.13633844 -0.015050833 0.6481635 0.08010802
0002b0 de 7d 11 3f da ee 83 3e 7f 05 d3 3e a4 88 2f bd
       0.56832683 0.25768167 0.4121513 -0.04285492
0002c0 42 c8 7a 3d 53 c8 e5 be a4 60 bb 3e 9d 9c 67 3e
       0.061226137 -0.44879398 0.36597168 0.22618337
0002d0 ba e8 a8 3d 90 77 dc 3b cd 80 1a 3f da d0 56 3e
       0.08247514 0.00672812 0.60352784 0.20978108
0002e0 2d c5 86 3e b5 cb 0b bf 47 58 42 bd fa 2e 1a bf
       0.26322308 -0.5460771 -0.04744747 -0.6022793
0002f0 a8 36 8d bd 47 99 17 3d ef c9 d4 3e 5c 3e 35 3e
       -0.068951905 0.03701141 0.41560313 0.1769957
000300 4f 94 a3 39 a7 53 b6 bc b6 40 3f bf 05 1f 89 3e
       0.0003120028 -0.022256685 -0.74708116 0.2678148
000310 96 19 97 3e 50 15 89 3e 67 ce 3b 3f 42 70 e5 3e
       0.29511708 0.26774073 0.7336182 0.44812208
000320 45 6c 57 bd 90 9a ac bf 60 40 42 3e 5e bc 62 3e
       -0.05259349 -1.3484669 0.1896987 0.22142169
000330 df b6 2c be 47 77 8d be bf bc 08 bf da f3 13 bf
       -0.16866635 -0.27630064 -0.53413004 -0.5779396
000340 26 ba 98 be ba 0e 0a 3f 19 1f 33 3e ed b3 d0 3e
       -0.2982952 0.5392872 0.17492332 0.40762272
000350 f8 57 5d be 0a 5a 7a 3e 4a 18 58 3e 2b fb 74 3e
       -0.21615589 0.2444841 0.21103016 0.23923938
000360 38 9c 8a bd 28 76 48 bf fe ac 3c bf df 7c c7 be
       -0.067680776 -0.7830529 -0.73701465 -0.38962457
000370 54 73 06 3d 3f e3 00 3f ba f7 02 bf ac cc 92 be
       0.03282483 0.5034675 -0.5115925 -0.28671777
000380 3b a2 a6 be 40 20 0d 3e c3 17 9f be ff e5 23 be
       -0.32545647 0.13781834 -0.31072816 -0.16005705
000390 67 db 05 3e df 25 76 3e 3c af ae be 66 be 8e 3d
       0.13071977 0.24037884 -0.34118068 0.06969909
0003a0 a6 31 9c 3e 46 ea b3 be 04 63 20 3e e3 ec 6c be
       0.3050663 -0.35139674 0.15662771 -0.2313724
0003b0 20 f5 f9 3e 32 06 f1 be 93 7b 82 ba 4b 07 fd 3c
       0.48819828 -0.4707504 -0.0009955041 0.030887267
0003c0 95 9e c2 3c 9b 91 ae 3e 4c 9c c6 be 99 dc 65 bd
       0.023757258 0.34095463 -0.3879112 -0.05611858
0003d0 38 cf 3e bb c4 0e a5 3e 56 29 99 3d 7f b3 fc bd
       -0.0029115211 0.32237828 0.07478587 -0.12338924
0003e0 fb b3 e1 be a6 cc 09 3e 70 8c 17 bf 75 f7 01 3f
       -0.44082627 0.13456973 -0.59198666 0.50768214
0003f0 a8 3e df be 54 bb 4c bf 6f 84 3b 3f 28 8c 3d 3e
       -0.4360249 -0.7997334 0.7324895 0.18510497

feature.bias_ih_l0 f4 [512]
000000 1b c7 1f bd c1 dc ef 3d 9b 59 8f 3e b4 ec 23 be
       -0.03900824 0.11712027 0.2799805 -0.16008264
000010 0b b4 99 3f 12 38 0b 3f d5 f6 19 3f fd d7 72 bd
       1.200807 0.5438243 0.6014226 -0.059288014
000020 b0 11 94 3d 22 ae d6 3e 92 02 46 3f 34 18 ab 3d
       0.07229936 0.41929728 0.7734767 0.08354226
000030 c9 6c 4c 3c 8a 7a ea 3d 64 75 db bb 25 a6 68 3e
       0.012477108 0.11449154 -0.0066973437 0.22719629
000040 7d 11 16 3e f4 bf 41 be 11 28 06 3f 44 10 2e be
       0.14655109 -0.1892088 0.52404886 -0.16998392
000050 c8 73 3d be 96 f8 b2 3e d5 3f 75 be 80 7b b9 3e
       -0.18501198 0.3495528 -0.23950131 0.36227036
000060 86 e4 01 bd cb d6 ac 3d 8e 19 5f be 67 d6 23 3f
       -0.031712078 0.08439406 -0.21787092 0.63999027
000070 2e f2 e4 be 1e 8d ef 3e 55 c4 30 3f 88 64 ad 3f
       -0.44716018 0.4678735 0.6904958 1.3546305
000080 a4 d2 45 be 28 c7 07 3e 7f 2a 91 be 8c 49 bc bd
       -0.19318634 0.13259566 -0.28352734 -0.091937155
000090 dd 85 94 be 60 db bd 3e 75 71 0f 3e ec 30 55 bd
       -0.2900838 0.37081432 0.14008124 -0.05204861
0000a0 96 c9 85 be 21 98 4f 3e c8 a4 3e bd 7b e5 19 3e
       -0.2613036 0.20272876 -0.046543866 0.15028946
0000b0 fd 12 a6 3e a1 04 cd 3d af a9 9d 3d 11 13 5e 3c
       0.32436362 0.100106485 0.0769838 0.0135543505
0000c0 07 83 15 3e 7c eb c5 bc 4e 96 e4 3d 6c f0 6e be
       0.14600764 -0.02416014 0.11161481 -0.23333901
0000d0 0a 80 12 3e 2d fd 2f 3c 1c 83 cb 3e c2 95 46 3d
       0.14306656 0.010741514 0.39748466 0.048482664
0000e0 9e d8 a1 bd a0 bf cb bd f3 13 af be 0e 50 82 3f
       -0.079026446 -0.09948659 -0.34194908 1.0180681
0000f0 82 8e e6 3d 26 da be 3e cb 14 c2 be a6 39 ea 3e
       0.1125765 0.3727581 -0.3790649 0.45747107
000100 7d 9c 86 3f a7 76 9b bd 89 61 8c 3f 5e 98 b0 3e
       1.0516506 -0.075909905 1.0967265 0.34491247
000110 1e 92 2c bd c6 35 07 3d df cc 10 be 78 29 28 be
       -0.042131536 0.033010267 -0.14140652 -0.16422069
000120 44 81 0c 3e 73 d9 8d be 55 11 37 3f 0c 7e c9 be
       0.13721186 -0.27704963 0.7151082 -0.3935398
000130 8d 51 a9 bc 38 f9 cd 3e eb eb cc 3e 2e b5 49 3f
       -0.02066877 0.402292 0.4002374 0.78792083
000140 f6 fd 2e 3f 1a 4e 4e be 47 15 df 3e 19 38 95 3e
       0.68356264 -0.20146981 0.4357092 0.29144362
000150 33 17 72 3e b7 f4 bd 3f ec 3f 73 3d c8 21 cc 3d
       0.23641662 1.4840306 0.059387133 0.09967381
000160 1c ff 3d be db b7 ae bb de 21 c1 bd e3 88 e7 3e
       -0.18554348 -0.005331976 -0.09430288 0.45221624
000170 4b 91 2e be 24 c7 76 be 08 c0 5c 3e e0 0d 96 3f
       -0.17047612 -0.24099404 0.21557629 1.1722984
000180 10 44 8a 3c b9 3a cb 3d c9 16 9c be 76 c9 15 be
       0.016878158 0.0992331 -0.30486134 -0.14627632
000190 06 19 d3 bd 9e 6b 25 bd 41 1a 44 be 21 5d 56 3f
       -0.10307507 -0.040385835 -0.1915064 0.83735853
0001a0 0b 9a 04 be 5f 46 d8 3d d4 31 8a 3e d5 19 73 be
       -0.12949388 0.10560297 0.2699114 -0.23740323
0001b0 4b 9a 0b 3e 0c 7c f8 3c b6 4d 30 3e fc e2 70 3d
       0.13633077 0.030332588 0.17217144 0.05881022
0001c0 20 27 95 3d 36 8d fc 3d 84 8d 8c be 8b 6b 03 be
       0.07282853 0.12331621 -0.27451718 -0.12833993
0001d0 ca 64 31 3d 1e 8d 9c 3f a5 d6 f5 3d f8 55 6d be
       0.04330901 1.2230566 0.12003831 -0.23177326
0001e0 ad 9b 59 3f 2a 4c b8 bd 07 22 29 3e 51 53 21 be
       0.8500317 -0.08998902 0.16516887 -0.15754439
0001f0 c4 2a 80 3e c7 04 9d be 61 12 46 3f 22 2d 1d bd
       0.25032628 -0.30667707 0.77371794 -0.03837312
000200 00 28 6c 3d ff 96 81 bd 9f c4 22 be d6 54 c8 bd
       0.057655334 -0.06327628 -0.15895317 -0.09781806
000210 31 56 9a be 29 fb c3 be 7b 5b 03 be 67 32 e8 be
       -0.30143884 -0.38277557 -0.12827866 -0.45350954
000220 25 46 61 3e fa 1d b9 be 1f e8 96 be 51 56 8f bd
       0.21999414 -0.36155683 -0.2947397 -0.069988854
000230 50 2c bd be ac 38 17 3e de 90 29 3e 6d f2 45 be
       -0.3694787 0.14767712 0.16559169 -0.1933076
000240 f7 93 28 bf 61 18 2a 3d 9b c2 04 bf 0c ce 53 3e
       -0.65850776 0.041527156 -0.51859444 0.2068407
000250 89 05 78 be 3c d6 67 bd f9 9f 10 bf 0a 0a a8 be
       -0.24220861 -0.056600794 -0.564941 -0.3282016
000260 52 eb d8 be 5f 90 41 3f e1 a5 a0 be 62 d6 fc be
       -0.42367035 0.7561092 -0.31376556 -0.4938231
000270 44 08 1d 3d 03 b1 31 bf 3c 71 e0 be 3e e1 e0 bd
       0.03833796 -0.69410723 -0.4383639 -0.109804615
000280 5e de 10 bf 2b b7 bc bd 7f e9 0f 3e 1b 0a 0b be
       -0.56589305 -0.09214624 0.14053915 -0.13578074
000290 cc 9d c5 3d 0e dd 3b be f2 2d ad 3d 09 58 7d 3d
       0.09649238 -0.18346044 0.08456029 0.061851535
0002a0 0e 2d 9c be 50 36 83 3b 6e 23 e6 bd 67 85 09 bf
       -0.30503124 0.0040042773 -0.112372264 -0.5371918
0002b0 96 5d c6 be 4d 40 44 be 49 10 2b be 22 52 7e bd
       -0.38743275 -0.19165154 -0.16705431 -0.062090047
0002c0 5b 2b 40 3e 63 5f 9e be c0 d7 9c be 0a 1e cb bd
       0.18766539 -0.3093215 -0.30633354 -0.09917839
0002d0 1a f3 c3 bd 85 e9 a8 bd 45 3d 32 bf db 84 dc 3c
       -0.09567852 -0.08247665 -0.6962474 0.02691882
0002e0 38 ef 41 be c6 62 da 3d 81 10 07 bd a7 47 20 bf
       -0.18938911 0.10663371 -0.032974724 -0.6260933
0002f0 ff c0 82 be 28 f4 a9 be 46 85 84 be 29 e6 10 bf
       -0.2553787 -0.3319409 -0.2588293 -0.56601197
000300 1f b8 95 be a0 52 64 be 2d fd 13 bf af c3 ba be
       -0.29242036 -0.22297144 -0.5780819 -0.3647742
000310 31 5b ce be 85 ac 7a 3e 6f c9 68 be e1 2d 7c 3d
       -0.4030395 0.24479873 -0.22733091 0.06156719
000320 c9 b3 a8 be f6 d9 58 bd f5 0e ee be 9c f3 eb bd
       -0.32949665 -0.05294224 -0.46495786 -0.11521074
000330 d4 eb d8 be d0 51 91 bc c0 ec 60 be 87 a8 e4 be
       -0.42367423 -0.017739207 -0.21965313 -0.44659826
000340 97 82 9d be 76 02 b2 3e 57 5d 9b 3d c9 b9 94 3d
       -0.30763695 0.34767503 0.075861625 0.07261998
000350 1a e8 04 bf 68 7f bd be 7f ca 9b be c0 4c 6c 3d
       -0.5191666 -0.37011266 -0.3042793 0.057690382
000360 2e 61 f2 3a 3b dd 03 3e c3 7f fc 3d a7 8a e3 be
       0.0018492097 0.12877361 0.12329056 -0.4444172
000370 49 34 2a be 59 09 d8 be 49 be 43 3e ca e7 b9 be
       -0.16621508 -0.42194632 0.19115557 -0.36309654
000380 86 47 ba be 58 fd a8 bd 74 04 e7 bd 34 12 c7 3c
       -0.36382693 -0.082514465 -0.11280146 0.024300672
000390 5d 0a 86 3d a6 16 81 bb 3c 55 a2 bd 50 d8 f5 be
       0.065449454 -0.0039394675 -0.079264134 -0.48016596
0003a0 0a ce e0 be d1 b0 e1 3d 7c 85 88 bd 3d 8e 1f bd
       -0.43907195 0.11020053 -0.06666085 -0.03895401
0003b0 64 5b 5d be 65 4d 80 3c 9a f1 5c bd be 62 43 be
       -0.21616894 0.015661905 -0.053941347 -0.19080636
0003c0 7b c4 3c 3e eb 78 1d bd 0f 18 91 3d 60 c7 67 bd
       0.18434326 -0.038445394 0.07084667 -0.056586623
0003d0 5c f8 d2 be fc 5c cc be 1f 8d 81 3d 9d 5d 68 bf
       -0.41205108 -0.3991469 0.06325745 -0.9076784
0003e0 2c 60 74 be 01 cd 21 bf ba 02 cf be 0d 41 1f 3e
       -0.23864812 -0.63203436 -0.40431768 0.15552159
0003f0 53 a4 03 bf 03 6d 64 be cd 1d b5 3e d4 bd 82 be
       -0.51422614 -0.2230721 0.353743 -0.25535452

feature.bias_hh_l0 f4 [512]
000000 7a bf 77 ba 53 09 0a 3e 8a 36 a4 3e 75 07 69 be
       -0.00094508345 0.1348012 0.3207286 -0.22756751
000010 50 f7 99 3f 10 18 f7 3e 70 15 11 3f 52 8c d9 bd
       1.2028599 0.48260546 0.56673336 -0.10622467
000020 84 83 bc bd 0d f5 d9 3e 67 2b 5b 3f d5 9f 00 bc
       -0.09204772 0.4256977 0.856131 -0.007850607
000030 e2 ca c8 3d 07 03 80 bc d9 78 05 3e 53 e2 27 3e
       0.09804322 -0.015626444 0.13034381 0.1639493
000040 a6 d6 e9 3d 27 f9 7e be e7 ff 1a 3f 49 38 9c bd
       0.11417894 -0.24899732 0.60546726 -0.07627923
000050 0f 3f 86 be 91 83 c7 3e c7 d0 aa be f5 6b be 3e
       -0.26219985 0.38967565 -0.3336241 0.3719174
000060 dd be 4b 3d 1f 9b de 3d fe 40 84 bd de a6 08 3f
       0.04974257 0.10869431 -0.06457709 0.5337962
000070 cf d0 c5 be 73 27 b7 3e 1c df 50 3f 06 2a b3 3f
       -0.3863587 0.35772285 0.8159044 1.39972
000080 12 b6 a1 be 59 5e 35 3e d2 f8 32 be e0 4c 37 be
       -0.3158422 0.17711772 -0.1747773 -0.17900419
000090 47 a1 a3 be 83 8d fd 3e 05 94 8c 3d 32 bb 16 bc
       -0.31958982 0.49522027 0.0686417 -0.009199904
0000a0 66 de 91 be e2 08 65 3e 33 ac 0b 3d 1a 7f 32 3e
       -0.2848999 0.2236667 0.03409977 0.17431298
0000b0 bd 10 93 3e 8e a0 31 3e 28 b3 89 3d 42 69 04 3e
       0.28723708 0.17346403 0.067236245 0.12930778
0000c0 7f bc 6f 3e ad 1c 09 be 41 38 c4 3d b0 27 99 bd
       0.2341175 -0.13389845 0.09581042 -0.07478273
0000d0 17 ed 53 3e 25 a5 1f 3e 57 60 b3 3e a9 51 5d 3e
       0.20695911 0.15590341 0.3503444 0.21613182
0000e0 54 4a fd 3c 81 2b a8 bd b1 fb 36 be 8c c3 80 3f
       0.030919231 -0.08211423 -0.1786945 1.0059676
0000f0 87 e2 8b 3c a9 c0 a1 3e e5 70 85 be 9f 52 de 3e
       0.01707579 0.315923 -0.26062694 0.4342241
000100 2f 76 93 3f a7 81 39 3b 0a 6e 8c 3f fa bd cc 3e
       1.1520442 0.0028306039 1.0971081 0.3998869
000110 a7 e9 54 bd 1a 9f 47 3e ad bb c3 bd 63 e8 24 be
       -0.05198064 0.19494286 -0.09557281 -0.16104273
000120 0b c2 85 3e ef 51 0e be 34 f6 37 3f f8 e6 f7 be
       0.26124606 -0.13898443 0.7186005 -0.48418403
000130 ce f9 1a 3d 67 59 9d 3e 8a 53 07 3f f1 65 6a 3f
       0.03783589 0.3073227 0.52861845 0.915618
000140 50 e3 37 3f 36 25 70 be 9c d9 ba 3e 32 72 2c 3e
       0.71831226 -0.23451695 0.36494148 0.16840437
000150 e6 71 b2 3e e3 9b bc 3f 6c 7b 9e 3e 37 5b 04 bb
       0.34852523 1.4735073 0.30953538 -0.002019597
000160 96 3d a5 be ea 53 0a bd 25 24 42 be fb b5 e3 3e
       -0.3227355 -0.033771433 -0.189591 0.44474778
000170 df 3b 72 be c4 7a 90 be b2 da 22 3e d7 1f 97 3f
       -0.23655652 -0.28218663 0.15903738 1.1806592
000180 75 ca fe 3b 69 f8 de 3d 92 16 b5 be 35 b2 45 bd
       0.0077755996 0.10887224 -0.35368782 -0.048265655
000190 97 38 ad bd fe 2e a9 bd 65 79 d9 bd ab f2 4d 3f
       -0.08458059 -0.08260916 -0.10618857 0.80448407
0001a0 e8 64 65 be 59 4f ca 3d cc cf 33 3e 6d c7 30 be
       -0.22401774 0.098784156 0.17559737 -0.17263575
0001b0 62 00 d1 3d 92 f3 51 3e 6d 5b 4e 3e bc 72 89 3d
       0.10205151 0.20503071 0.20152064 0.06711337
0001c0 9e 25 d9 3d 44 b7 12 3e bc a2 69 be 64 22 2f be
       0.10602878 0.14327723 -0.22815984 -0.17102963
0001d0 84 15 10 3e 3b 94 88 3f 4c 64 0d 3e 8f 83 9a be
       0.14070708 1.0670236 0.13807791 -0.30178496
0001e0 4a c2 70 3f 07 d9 f4 3b 77 0b d9 3d c8 f1 97 be
       0.9404646 0.0074721607 0.1059789 -0.29676652
0001f0 d9 92 ed 3e 85 c5 67 be 0e 21 39 3f cf d8 6c 3d
       0.46401098 -0.22633941 0.7231606 0.057823952
000200 ca 45 88 bc 88 92 b5 bd 57 14 49 be 12 02 35 be
       -0.01663484 -0.08865839 -0.19636665 -0.17676571
000210 ea 5e a4 be 5f bf ee be d5 d2 ac bd cc 50 e0 be
       -0.32103664 -0.4663038 -0.084386505 -0.43811643
000220 ab 57 70 3e b3 08 d7 be 26 74 b7 be 59 b7 b2 bd
       0.23470943 -0.41998824 -0.35830802 -0.08726377
000230 3d 3a db be 63 a0 3b 3e e3 35 53 3e 0c 35 0d be
       -0.4281787 0.18322901 0.20626025 -0.13789767
000240 b4 91 23 bf 7c 21 f0 bd 89 f1 fb be 21 d8 8a 3e
       -0.638942 -0.11725137 -0.49207714 0.27118018
000250 48 e6 46 be 75 a7 8a bd 9f b3 16 bf d1 0a 9b be
       -0.19423783 -0.06770221 -0.5886783 -0.3028169
000260 d5 15 f7 be b3 e9 3b 3f 63 b0 d1 be cf 19 a9 be
       -0.48258844 0.7340347 -0.40954885 -0.33027503
000270 9b ba 8a 3d ad 84 12 bf 9a 8b 9b be b4 f0 3f be
       0.067738734 -0.572337 -0.30379945 -0.18744165
000280 3a 21 ff be a3 e7 1a be 77 5b 11 3d c8 07 33 be
       -0.49830037 -0.15127425 0.03548762 -0.17483437
000290 3b 02 8b 3d 9b 62 7f be 0d 29 47 bc c9 af 24 3d
       0.06787535 -0.24939959 -0.012155783 0.040206704
0002a0 db e2 d3 be 55 b7 1a bd cc 61 ec bd fa d7 f9 be
       -0.41384014 -0.037772495 -0.11542091 -0.4879759
0002b0 c1 6e 9f be cd 08 2b be e3 51 6a be 8c bb 4b be
       -0.31139186 -0.16702576 -0.228828 -0.19895762
0002c0 d1 07 a1 3e 44 2f 16 be 17 e4 82 be 93 66 93 bd
       0.31451276 -0.14666468 -0.25564644 -0.07197299
0002d0 b0 05 f4 bd 40 83 21 be 6d cc 39 bf a2 81 0c 3e
       -0.11915147 -0.15772724 -0.72577554 0.13721326
0002e0 14 30 0e be 19 71 63 3d a9 3e 37 3c 98 f0 09 bf
       -0.13885528 0.05552778 0.011184373 -0.5388274
0002f0 68 5b 7b be 05 f4 bd be 89 30 40 be 77 c6 eb be
       -0.24546587 -0.37100235 -0.18768515 -0.46049854
000300 6e 5c 85 be 75 4e 0b be 99 ae 24 bf ce 87 ae be
       -0.2604708 -0.13604148 -0.64328915 -0.34087986
000310 94 03 8a be c4 fb 60 3e 7f a5 af be f1 c3 b7 3d
       -0.26955855 0.21971041 -0.3430595 0.0897292
000320 26 05 dd be cb 96 2f be 53 86 04 bf 3e 69 47 be
       -0.4316799 -0.17147367 -0.5176746 -0.1947374
000330 bc 4e 99 be ce 2d ff bc e8 4c 98 be 01 e9 fe be
       -0.29942882 -0.031149771 -0.29746175 -0.49787143
000340 a7 d4 cf be 79 57 c1 3e c1 70 33 3e 1e ba 47 bd
       -0.40591928 0.3776205 0.17523481 -0.04876148
000350 cc ab ee be bf a0 23 bf da 9b c8 be 73 1d a2 3d
       -0.46615446 -0.63917154 -0.39181405 0.07915773
000360 a1 37 0b 3e 14 d4 94 3e 6a c5 3f 3e d4 6c ff be
       0.1359544 0.29068053 0.18727651 -0.49887717
000370 89 ba bc bd 54 18 ca be 4d 3f 27 3e 68 e5 c5 be
       -0.09215266 -0.39471686 0.16332741 -0.38651586
000380 e0 80 bd be 5b 9b c3 bd 22 a9 8c bd 53 f9 09 3e
       -0.37012386 -0.09551116 -0.06868197 0.13474016
000390 92 9c a4 3c 15 7a 8f 3d 84 dc 0b be 51 95 0b bf
       0.02009419 0.07005707 -0.13658339 -0.54524714
0003a0 d4 dc d5 be 69 06 e7 3d 33 da a1 be 22 76 a4 3c
       -0.4177004 0.112805195 -0.31611785 0.020075861
0003b0 6f 55 0d be 47 3d a3 3d b2 37 b2 bc 7f 33 15 be
       -0.13802122 0.07970672 -0.021755073 -0.14570425
0003c0 ca f3 92 3e 47 55 37 bd b4 4a 62 3c 01 5e 04 bc
       0.2870162 -0.04475906 0.013811756 -0.008079053
0003d0 66 db a4 be 3d b7 c3 be cf e8 d6 bb 92 1a 65 bf
       -0.32198638 -0.38225737 -0.0065585147 -0.8949367
0003e0 70 88 be bd cb 00 02 bf 3b 64 f0 be c1 ad a7 3e
       -0.09303367 -0.5078246 -0.4695147 0.3274975
0003f0 26 7a d5 be 4b 0d 30 be 22 c8 8d 3e 9b 23 15 be
       -0.41694754 -0.17192571 0.27691752 -0.14564364

feature.weight_ih_l0_reverse f4 [512, 64]
000000 05 32 2d 3e aa 92 a7 bd d9 1d c1 3d 14 82 1c 3d
       0.16913612 -0.08182271 0.09429521 0.03820999
000010 f4 d2 7e 3e ea 2e 1a 3e f2 c5 a6 be d8 1f a5 bd
       0.2488516 0.15056959 -0.32572895 -0.08062714
000020 b3 29 19 bf a5 31 7c 3f 42 40 d4 bd a7 c0 20 bf
       -0.5982925 0.9851325 -0.10363819 -0.62793964
000030 80 60 12 3e cd 02 0e bf 59 36 51 3d 2a a8 d5 be
       0.14294624 -0.55473024 0.05107722 -0.41729861
000040 31 37 80 bf c1 9b e3 3e 74 a4 03 bf a0 7b a8 3f
       -1.0016843 0.44454768 -0.5142281 1.3162727
000050 e6 cf 10 be eb a7 8d be 89 38 35 3f 31 03 d2 be
       -0.14141807 -0.27667174 0.7078939 -0.4101806
000060 1b f2 ee be d9 16 85 bf 85 43 be 3d 77 6b 0c 3f
       -0.46669087 -1.0397598 0.09290222 0.5485148
000070 81 c7 8c be 56 f8 50 bd fe 80 2a bf 7f 7c 26 bf
       -0.2749596 -0.05101808 -0.66603076 -0.65033716
000080 b1 6b 3c bf 60 46 a9 3d 95 db a7 3d 0e 5f fc 3e
       -0.73601824 0.08265376 0.08196179 0.4929127
000090 a7 e8 83 be 3d 47 7f 3f 23 7b 49 bf f3 ab 96 3c
       -0.25763437 0.99718076 -0.78703517 0.018392539
0000a0 2d 54 61 3f 5f 1b 16 bf 4d f8 94 bf 68 99 13 be
       0.8801907 -0.58635515 -1.1638275 -0.14413989
0000b0 d9 6d f7 be 74 3a c8 3d 3b 39 76 bf 48 cd 33 3f
       -0.48325995 0.09776774 -0.96181077 0.7023511
0000c0 11 a8 8e be 5c cd 52 3f f2 51 1e bf 71 02 77 bf
       -0.278626 0.82344604 -0.6184379 -0.964881
0000d0 71 03 51 3f 9a 55 08 be 53 b9 77 be 44 94 cf bd
       0.81645876 -0.13313904 -0.2419179 -0.10135701
0000e0 16 c9 d4 3e af 81 c3 bc f2 2e 99 bd 21 25 64 3e
       0.41559666 -0.023865549 -0.07479657 0.22279789
0000f0 13 d9 52 3d 4b d7 64 bf f0 c9 60 3e 07 15 e5 bd
       0.05147655 -0.8939101 0.21952033 -0.11185651
000100 9f cd 10 3d bc 53 d7 3e 73 71 3f 3f f3 35 a9 3e
       0.035352346 0.42056072 0.74782485 0.33048972
000110 cc ee 10 3d 0e 2b b9 bd cf af 63 3e a9 da cf be
       0.035383984 -0.09041415 0.22235034 -0.40596512
000120 62 8f 4a bf ce 87 1a 3f 67 d2 48 3f 33 fd 40 3f
       -0.79125035 0.6036347 0.7844605 0.7538635
000130 dc 0a 4c 3e 6a 99 1d bf 70 92 02 bf 8f 62 34 bf
       0.19926018 -0.61562216 -0.51004696 -0.7046289
000140 93 d1 94 3d cf 1f 89 3e e9 2d 8e bf 82 39 e0 be
       0.072665356 0.2678208 -1.1107761 -0.43793875
000150 52 46 6f 3f a5 17 47 bf f3 e7 b6 be 9f 7d ba 3c
       0.93466675 -0.77770454 -0.35723838 0.022764979
000160 23 8d b4 3e 42 53 34 be 2a 1b 20 bf 4c 96 12 3f
       0.3526393 -0.17609885 -0.6254145 0.57260585
000170 dd 8f 5d 3f 37 c4 c0 3e 7c 82 9b be 80 dd 13 be
       0.8654764 0.376497 -0.3037299 -0.14439964
000180 76 d1 93 be a8 9f b3 bd 5a 61 e3 be ef 7a 5a bf
       -0.28870744 -0.087706864 -0.4441021 -0.8534383
000190 ac 95 0b 3f 2e a5 a9 be 04 19 59 3b 43 24 35 3e
       0.54525256 -0.33133835 0.0033126483 0.17689614
0001a0 ed 7f 62 3e ab a7 a6 3e 25 a8 e7 3e 48 2a 5f 3d
       0.22119112 0.32549796 0.45245472 0.054483682
0001b0 9c 12 4a 3e d8 69 f0 bd b7 a4 b0 3e f6 10 2d bf
       0.19733661 -0.11738938 0.34500667 -0.67604005
0001c0 f3 d4 d4 be a3 be ec 3d 9f ee 13 bf 6b e2 6e bf
       -0.41568717 0.115597986 -0.5778598 -0.93314236
0001d0 d5 dc 00 3f c1 e0 a5 be 3e c2 7f be 1b 49 02 bf
       0.5033696 -0.32398036 -0.24976441 -0.508928
0001e0 2b bf cd 3e bd 0f 69 3f f0 90 6c be d6 50 e6 3e
       0.40184912 0.9103964 -0.23102164 0.44983548
0001f0 73 46 5a 3f da 54 81 3e 41 3b 35 3e 42 60 23 be
       0.85263747 0.2526005 0.17698385 -0.15954688
000200 21 c9 1b be fc e0 da be df a5 85 3f 05 68 55 bd
       -0.15213443 -0.42749774 1.0441245 -0.052101154
000210 9e fd 10 bf 2f 23 0c 3f c5 d8 12 3f 88 be 2e 3f
       -0.5663699 0.54741186 0.57362014 0.6825948
000220 9e 1f e0 3e 48 4f 22 be ea be 24 3f 9b 2c 8a 3f
       0.43774122 -0.15850556 0.6435381 1.0794863
000230 1a 6e 96 bd d3 39 dc 3e 80 b1 13 be b6 e3 09 3f
       -0.07345219 0.43012866 -0.1442318 0.53863084
000240 76 f9 8f 3e 4c a7 b2 3e fb 22 c8 3e 23 68 23 bf
       0.2812001 0.34893262 0.39089188 -0.63830775
000250 d1 c4 04 be 9e f0 da 3e a6 7c 5b bf 24 29 30 3f
       -0.12965705 0.427617 -0.85737073 0.68812776
000260 69 5b 7d 3e 4c 8d d0 be c3 0d e6 3e 38 7c a5 bc
       0.24741901 -0.407328 0.44932374 -0.020200834
000270 d3 d7 22 3e 19 41 fa 3d a7 e2 16 bf 11 33 ea 3e
       0.15902643 0.12219448 -0.58939594 0.45742086
000280 3e 1c 44 3f 15 df c6 be 7e 1e 94 bc e5 4a 2a bf
       0.76605594 -0.38842073 -0.018080946 -0.6652053
000290 d5 33 89 bf cc 72 20 bf 67 8e f9 3d 73 14 03 3e
       -1.0718943 -0.62675166 0.12185364 0.1280077
0002a0 c9 c8 a8 bf c5 cb 0d be 7b 31 88 3f 7b 40 79 3f
       -1.3186275 -0.13847263 1.06401 0.97364014
0002b0 44 2b 91 be 40 44 c0 be 8c 09 2e 3f 6b e4 8a 3e
       -0.28353322 -0.3755207 0.6798332 0.27127394
0002c0 3f f2 6c be ce f1 4c 3e 07 09 aa be 92 0a 65 3f
       -0.23139285 0.20014116 -0.33210012 0.89469254
0002d0 81 40 a5 bb 73 67 cc 3e 00 69 ae bc 52 fe 88 bf
       -0.00504309 0.39922675 -0.021290302 -1.0702612
0002e0 4e 6b 3d 3f d5 6a 04 bf c9 ef 60 bf 9e 89 02 be
       0.7399186 -0.5172551 -0.87865883 -0.1274781
0002f0 ba a6 99 3e be 99 04 3f ae 3c a1 3e 11 f3 0b bf
       0.30010015 0.5179709 0.31491607 -0.54667765
000300 29 9e 2c bf e7 0a 34 3e ef 48 19 bf 96 4b 72 bf
       -0.67428833 0.17582284 -0.5987691 -0.94646585
000310 31 2f 82 be cd 5c 10 bf fa 4c e7 3d ff 89 98 3e
       -0.2542663 -0.563916 0.11293979 0.29792783
000320 c0 43 1b 3e 0c 78 a8 3f 7c 6e 1b bf 3f f3 37 bf
       0.15162563 1.3161635 -0.6071546 -0.7185554
000330 29 79 3b 3f af 6f ef 3e 41 95 1f 3f 54 1f f3 be
       0.7323175 0.46764895 0.6233712 -0.4748484
000340 e5 3d 3b bf df 4d 79 3e d0 d6 cf bd db f9 68 3e
       -0.7314132 0.24346112 -0.10148394 0.22751562
000350 c6 63 b8 3e db 0c 56 be 79 0b 19 3e fa 6d 4e be
       0.3601362 -0.20903341 0.14945783 -0.2015914
000360 0d a5 8a bd 6b bf 92 3f 90 29 89 be 13 ce c0 3e
       -0.06769762 1.1464666 -0.26789522 0.37657222
000370 21 d3 14 bf b7 08 f9 3d 58 69 15 bf 9f 21 25 3f
       -0.5813466 0.12159865 -0.58363867 0.64504427
000380 a5 b4 be 3e 4e 98 fe 3e 27 47 1d bb 6c 63 90 bf
       0.37247196 0.49725574 -0.002399871 -1.1280341
000390 62 ab c9 3e c8 2f 94 3e f7 41 18 bf 75 e3 2b 3e
       0.39388567 0.28942704 -0.59475654 0.16785987
0003a0 d7 17 81 be 59 8f 63 3f 5a bb 75 bf f1 ef 42 bf
       -0.252135 0.88890606 -0.95989 -0.7614737
0003b0 21 70 44 bc 58 00 ff be 11 a8 13 bf 5a 52 da 3e
       -0.011989624 -0.4980495 -0.57678324 0.42640954
0003c0 ab 36 f3 3e 40 19 0c bf d2 9a e4 be 7d 91 98 bd
       0.47502646 -0.5472603 -0.4464937 -0.07449625
0003d0 ba a3 7b bf ac 2d 4b 3e 4c ff fe bc 94 97 0e be
       -0.982967 0.19841641 -0.031127594 -0.1392501
0003e0 28 38 3d be 3b 5f 5f bf 11 35 49 bf 41 b6 a9 bd
       -0.18478453 -0.87254685 -0.785966 -0.08286715
0003f0 ce 24 49 bf 99 a7 4b be 0b 34 8b be 3f 23 5c 3f
       -0.78571784 -0.19888152 -0.27188143 0.8599128

feature.weight_hh_l0_reverse f4 [512, 128]
000000 b1 bc 0c bf ee 2f b9 3c af eb 0b 3e f3 30 3c 3e
       -0.5497542 0.022605862 0.13664125 0.18378048
000010 12 ba 13 3f 38 3b f1 be ca e8 62 be 47 51 e3 3e
       0.57705796 -0.47115493 -0.22159114 0.44397947
000020 0d 1e 35 bf 11 88 ec 3d 4d a9 1c bf 29 d3 f1 be
       -0.7074898 0.1154939 -0.6119583 -0.47231415
000030 78 f3 c7 be 53 4b 9b be c8 64 93 bf 06 4a ef 3e
       -0.3905294 -0.30330905 -1.1515131 0.46736163
000040 b6 0b 3c be 4d 83 9a be 3a 1d 75 3f 58 51 35 be
       -0.18363842 -0.301783 0.9574772 -0.17706811
000050 a0 f3 0f 3d 66 f9 b9 3e c8 89 e4 3d 64 a7 44 be
       0.03514445 0.36323088 0.11159092 -0.1920448
000060 db c8 dd be c9 12 a7 be ea d7 d6 3e 90 0b 7d be
       -0.43317303 -0.3263152 0.41961604 -0.24711442
000070 01 8c 34 bf 8f e3 94 3e 8e 7b 85 be 2c cd ab 3e
       -0.7052613 0.29079863 -0.26070827 0.3355497
000080 c0 af 44 3e 8a 09 99 be 17 c9 2b 3e f7 41 5c bf
       0.19207668 -0.2989009 0.16775928 -0.86038154
000090 72 cb 24 3f f0 94 62 3f 61 ba 8a bc 19 58 0a 3f
       0.6437293 0.8850851 -0.016934576 0.54040676
0000a0 0b b2 01 3f 70 99 55 bf a5 21 62 3e 3e 7a 53 3f
       0.50662297 -0.8343725 0.22083147 0.826084
0000b0 44 be 04 3f d2 71 7a bf fb f7 59 3f 6e bd 8d be
       0.5185282 -0.97829926 0.85144013 -0.27683586
0000c0 2b df a2 3d 13 4b 13 3f 72 e3 b5 bd fb 02 d3 3e
       0.07952722 0.5753643 -0.088812724 0.4121321
0000d0 96 ea a5 be c2 05 84 3f db 0d 9d 3d d2 b4 2f bf
       -0.32405537 1.0314257 0.07668658 -0.68635285
0000e0 7d 22 ae be 0e 5f c4 bd 57 0c 56 3f 7c f1 fe 3d
       -0.34010687 -0.09588443 0.8361258 0.12448403
0000f0 37 73 0f 3e db dc b1 3d ee 54 ca be 32 59 87 be
       0.14008795 0.08684703 -0.3951792 -0.26435238
000100 88 00 3b bf f9 ac 6c bf 83 84 68 3e 50 5e a6 be
       -0.73047686 -0.92451435 0.22706799 -0.3249383
000110 52 fa 88 3e b3 ab e5 be d2 1d 97 3e 69 9d 26 3f
       0.2675348 -0.4485756 0.2951494 0.6508394
000120 c8 f7 99 be b8 23 ff bd 6c 0a be 3e cf 4f 2c be
       -0.30071855 -0.12457985 0.37117326 -0.1682732
000130 05 6f 78 3f 57 06 a2 bf ae c9 17 3e fa 90 43 be
       0.970444 -1.2658185 0.14823028 -0.19098273
000140 23 af aa bf 61 d8 17 bd 09 9f 5f 3e ba 7f 20 3e
       -1.3334697 -0.03707159 0.21838011 0.15673724
000150 ea b8 11 3e 30 fc 8c be 52 65 f9 be 0c e9 12 bf
       0.14230695 -0.27536154 -0.48710114 -0.5738685
000160 9d 42 b4 3d f8 fa 92 3e e8 ab e0 be 53 a3 70 3d
       0.08801768 0.287071 -0.43881154 0.058749508
000170 ff 54 e8 3b 8e eb bf be 12 f6 a9 be f2 2f d8 3a
       0.0070902104 -0.374844 -0.3319555 0.0016493781
000180 ea 51 1f be 37 45 1d bf 78 ec 81 bd 36 68 2e 3f
       -0.15558591 -0.6143374 -0.06343931 0.68127763
000190 86 4c 5a bf 76 10 12 bd 80 69 8e 3f 30 b6 4a bf
       -0.85273015 -0.03566023 1.1125946 -0.79184246
0001a0 56 80 54 bf 1b 43 7d bf 54 f6 cf 3d b7 e9 55 3f
       -0.83008325 -0.9893052 0.10154405 0.83559746
0001b0 06 66 ea be 44 5b 57 bf fd e6 45 3f fb d6 22 bf
       -0.45780963 -0.84123635 0.77305585 -0.63609284
0001c0 f5 3b e8 3e 89 d4 cb bd d3 25 61 bf e3 9e 0d 3f
       0.45358244 -0.09952647 -0.8794834 0.55320567
0001d0 fa 56 7e be cc 41 cc 3c f4 d2 0f 3f 28 b0 b2 3e
       -0.24837866 0.024933718 0.56181264 0.34900022
0001e0 db 6b 2f 3f 4b 66 0a be ae 37 97 bd 3d 42 34 bf
       0.6852395 -0.13515584 -0.07383667 -0.7041357
0001f0 55 04 a8 3d aa a2 00 3f 5d 35 d2 be 12 b6 b0 3e
       0.08203951 0.50248206 -0.41056338 0.3451391
000200 d7 53 46 3f db 4d d2 be 91 b1 38 be b2 6d b2 3d
       0.7747168 -0.41075024 -0.18036486 0.08712329
000210 1b 7c 4d bc ee a1 c3 be 99 4c 60 bf 56 a6 66 3d
       -0.012541796 -0.3820948 -0.8761688 0.056310974
000220 b2 86 35 bf 24 03 4d 3f 76 14 86 3e 88 6d 18 be
       -0.70908654 0.8008292 0.26187485 -0.14885533
000230 09 82 23 bf 87 1d 82 be c9 ec 4c bf ab d8 99 3e
       -0.6387029 -0.25413153 -0.80048805 0.30048117
000240 1c 2e 9d bd 62 94 5a be 38 9d e5 be d4 0d bb be
       -0.0767481 -0.21345666 -0.4484651 -0.36533988
000250 7a 04 7e bf 91 43 d0 3d 73 22 76 bf 1f f4 38 be
       -0.9922558 0.10169137 -0.96146315 -0.18061875
000260 b4 19 3e 3e fc d9 26 3f e0 74 64 3e 3a f2 3d 3e
       0.18564492 0.6517637 0.2231021 0.18549433
000270 82 ed 08 3e 8d 86 5d bf f0 93 91 bd f3 d6 4a be
       0.13371852 -0.86533433 -0.07108295 -0.19808559
000280 e0 08 b7 be 24 8c 09 bf 85 b6 9c 3f ab 00 05 3f
       -0.3574896 -0.5372946 1.22432 0.51954144
000290 cb 00 83 3e 3c 2a e4 3e 07 58 b3 3e 2f 16 63 bf
       0.25586542 0.44563472 0.35028097 -0.88705724
0002a0 7e 77 5b 3f 47 15 c8 3e 8f c3 95 3e 63 fc 52 3f
       0.85729206 0.39078733 0.29250762 0.8241636
0002b0 bc 0a 00 3f ff ab f3 3e 47 a4 da 3e 59 ac 44 3f
       0.5001638 0.4759216 0.4270346 0.7682548
0002c0 0f 1d 1b be e6 fb 40 3f 51 6a ad be 34 23 0a be
       -0.15147804 0.75384367 -0.33870175 -0.13489991
0002d0 df c0 7a 3f a8 c6 0b bf 1b 25 b8 bd e2 95 3e 3f
       0.9795055 -0.546 -0.08991452 0.74447453
0002e0 58 7c 52 3e e1 ee b7 be 9d 6c 48 3e 41 6a 97 be
       0.20555246 -0.35924438 0.19572683 -0.29573253
0002f0 32 9c 2d 3f 2a 78 11 3f 3c e5 70 bf b0 cd e7 3e
       0.6781646 0.5682398 -0.94099784 0.45274115
000300 3f b2 85 3e 13 34 8f bc 99 0d 71 bd 9b 9d d8 be
       0.26112553 -0.017480886 -0.05885086 -0.42307743
000310 67 38 85 be 8e dd 52 3f a9 79 d4 3e 90 68 04 3f
       -0.26019594 0.82369316 0.4149907 0.5172205
000320 68 46 3f 3f d1 47 21 3f 67 c2 08 3f 83 4e 98 be
       0.74716806 0.6300021 0.53421634 -0.297474
000330 aa 09 72 3e ce ee 42 bd 8b f8 cb be b8 c0 74 bf
       0.23636499 -0.047591023 -0.3983806 -0.95606565
000340 4a ca 40 3f 4c 98 3b bf 77 fa 96 be 2f 2d d9 be
       0.7530867 -0.7327926 -0.29487965 -0.42417285
000350 40 6d 1b 3d 2e bf c9 bf 83 a5 1f bf 05 5a 3e be
       0.037945986 -1.5761468 -0.62361926 -0.18589027
000360 51 6e ae 3e 1a bc 6c 3e cc 25 cb 3e e7 dc 99 3e
       0.3406854 0.2311863 0.39677274 0.30051348
000370 70 67 9f bd 1d af c2 3e 34 cd 60 be 4b 18 9f be
       -0.07783401 0.38024226 -0.21953279 -0.31073222
000380 8c a4 e5 be 0c b8 17 bf e2 f7 35 3f 60 7f 73 be
       -0.44852102 -0.5926521 0.71081364 -0.23779058
000390 c4 c0 8c be ef 46 19 3d 60 63 3a be c1 be 43 3f
       -0.27490819 0.037421163 -0.18201971 0.7646294
0003a0 72 3b d2 3f f1 56 c9 3e 3d 8d 9a bf 0f 8e b4 bd
       1.6424391 0.39324144 -1.2074353 -0.08816158
0003b0 f8 b4 96 3e c5 61 a2 bf 93 6f 21 3f ff a2 b1 be
       0.29434943 -1.2686087 0.63060874 -0.3469467
0003c0 5a 7d f5 be 48 e2 ee 3e ef 0b 8e 3e 51 e5 4c 3f
       -0.47947198 0.46657014 0.2774348 0.8003741
0003d0 37 2d 89 3e 90 73 8e 3e a6 fa 36 bf 5d ac 88 be
       0.2679231 0.27822542 -0.7147621 -0.26694003
0003e0 b7 3a 0d 3a c6 64 0c 3f 25 1e 86 bf 45 23 db be
       0.00053874723 0.5484127 -1.0477949 -0.42800346
0003f0 2d 84 51 bf 1a ea 13 bf 87 64 8f be 36 9f 7c bf
       -0.8184231 -0.57779086 -0.28006384 -0.98680437

feature.bias_ih_l0_reverse f4 [512]
000000 92 7f 0e 3b d9 d0 a6 3b e9 04 ba 3e d2 aa 11 3e
       0.0021743518 0.0050908145 0.3633187 0.14225319
000010 81 ff 0a 3c 54 e5 ff 3c 09 9f 65 3e 5d 92 05 bd
       0.008483768 0.031237282 0.22423948 -0.032610286
000020 05 74 b0 bd 4c 0b 19 3e 38 e4 17 be de ca 1f 3f
       -0.08615879 0.14945716 -0.14833152 0.62418926
000030 91 90 1a be ad 1d d8 3d 7a b1 ef 3e 41 b9 57 3f
       -0.1509421 0.10552535 0.4681509 0.8426705
000040 9a d1 6b 3e 2b 93 86 bc 6b e5 00 3d 3f 77 29 3e
       0.23029175 -0.016427597 0.03146879 0.16549395
000050 04 59 b0 3e 36 21 c3 3e d3 de c0 3e 78 ae 9f 3e
       0.34442914 0.38111275 0.3767 0.31187797
000060 5f 8c 03 be 77 21 d1 3e f0 6c 12 be ae e1 a4 3c
       -0.12846516 0.40845844 -0.14299369 0.020127144
000070 cf 52 78 bc 3a 87 97 3d b3 9e 62 be 04 c5 46 be
       -0.015156462 0.07398839 -0.22130851 -0.19411093
000080 85 5d a1 3e 75 0e 28 be 7c 5a b9 3e 00 3c 06 bc
       0.31516662 -0.16411765 0.36201847 -0.008193016
000090 ad b7 cd bd 54 ba 96 3d 36 c1 de 3d 03 4d 76 3d
       -0.10044799 0.07359758 0.10876696 0.060132038
0000a0 0d e6 5d 3e 96 f3 32 3e 20 7a ce 3d bf 0e c8 3e
       0.21669789 0.17475733 0.10081887 0.3907375
0000b0 42 32 03 3f 3c 96 3c be 05 c0 1d 3f 30 de eb 3e
       0.5124856 -0.18416685 0.61621124 0.46067953
0000c0 22 c9 fd 3c 50 c8 a1 3e e3 68 76 be 05 60 19 3f
       0.030979697 0.3159814 -0.24063449 0.5991214
0000d0 a7 2b 3a be 65 0e 80 3e f3 7d 44 3e 78 40 b7 be
       -0.18180715 0.25010982 0.19188671 -0.35791373
0000e0 4d bf 9a be b5 cd c9 3e ec e0 84 3f aa fa 29 be
       -0.30224076 0.39414755 1.0381141 -0.16599527
0000f0 17 a6 a2 bd c8 5a 54 bd 69 11 a6 3e 57 c6 c3 3e
       -0.079418354 -0.05184439 0.32435158 0.3823726
000100 76 8c 3c be c3 7d f1 bd 3a ba 51 3e 25 27 96 bd
       -0.18412957 -0.11791565 0.20481196 -0.07331685
000110 81 9c db 3e 59 e7 e9 3e 5d 2b 40 be fe 36 92 3e
       0.4289284 0.45684317 -0.18766542 0.2855758
000120 a9 53 13 be ad 15 5b be 11 60 06 bf 7d ff 63 be
       -0.14387383 -0.21394987 -0.52490336 -0.2226543
000130 25 a1 0c 3f 4a c5 a0 3d 84 ad 53 be 12 12 0e be
       0.5493339 0.0785013 -0.2067166 -0.13874081
000140 4d bc 96 be 45 71 f6 3e 83 5c bb bd c7 16 42 3e
       -0.29440537 0.48133293 -0.091485046 0.18954001
000150 59 86 21 3e 07 9f 39 bd 6d 61 86 3d 2a 2d fb 3d
       0.15773906 -0.045317676 0.06561551 0.12264474
000160 82 86 96 3e 46 e7 80 ba db c1 f0 3e 7c 4a 30 be
       0.29399496 -0.000983455 0.470229 -0.17215914
000170 ce 5c a4 3e 99 45 f8 3d 9e 06 b5 3e cc f7 3d be
       0.32102054 0.1212265 0.3535661 -0.18551558
000180 77 d7 8e be 82 de b6 be d1 6a 9b be 00 54 aa 3e
       -0.27898762 -0.35716635 -0.30354932 0.33267212
000190 cf 03 7c be 87 b4 48 3e 15 d5 2a 3d 34 42 8f be
       -0.24610828 0.19600116 0.041707117 -0.27980196
0001a0 74 7a b6 3e fa 88 44 3e c0 1a 01 3f 3d 70 27 be
       0.356403 0.19192877 0.5043144 -0.1635141
0001b0 ac 72 8b bd 18 72 a9 3e 26 bf 89 3b f0 10 3a 3e
       -0.06808981 0.3309486 0.004203695 0.18170524
0001c0 28 f8 a3 3d 80 cb d2 3e e9 6c 43 bd 70 66 d3 3b
       0.080063164 0.41170883 -0.047711287 0.0064514205
0001d0 ca 2b 7c bd 4c ed 21 be af 0b 13 3d 9d 12 57 be
       -0.061565198 -0.15813178 0.035899814 -0.21003194
0001e0 df 23 3f be 5d 18 86 3e 8b 90 fa be 8f 1b b9 3e
       -0.18666027 0.26190463 -0.48938403 0.36153838
0001f0 4b 47 88 3e da f9 18 3e f0 3e e7 3e d2 9f a9 be
       0.26616892 0.14939061 0.45165205 -0.33129746
000200 b3 4e dd 3c 85 5b 1b 3f 30 fc 97 bd e5 e5 37 be
       0.027015066 0.6068652 -0.07421148 -0.17958792
000210 7e 7c ed be e8 ef 05 be 8f c9 a5 3e 87 3d e6 be
       -0.46384043 -0.13079798 0.3238034 -0.44968817
000220 81 2d 1d be eb f4 ac be 53 43 9d 3e c4 50 8e 3e
       -0.1534939 -0.33780608 0.30715427 0.27795994
000230 9a 7f a6 be 57 ce 8e bd 20 a5 06 bf f9 a3 6b bd
       -0.32519227 -0.0697295 -0.5259571 -0.057529423
000240 e3 35 05 bf d4 3e aa be 0c ea 98 3e cc 46 f9 bd
       -0.5203535 -0.3325106 0.29866064 -0.121717066
000250 06 e2 3c be d0 2e 64 bd 34 58 40 3e 45 cc 60 3f
       -0.18445596 -0.055708706 0.18783647 0.8781169
000260 c2 90 1d be 3a c4 a5 be 36 38 03 3e 6d 95 a1 be
       -0.15387252 -0.3237627 0.12814412 -0.31559315
000270 18 74 6f bd be 45 b3 be 79 ee 85 be ac 32 e2 3c
       -0.058460325 -0.35014147 -0.26158503 0.027612053
000280 69 1c bd be 59 26 9e bd 9e d4 9d be f7 ed 1e 3d
       -0.36935738 -0.07722158 -0.30826277 0.03880116
000290 ac cf df 3b 83 5b d0 bc ab f1 9a be 24 48 50 be
       0.0068301763 -0.025434261 -0.30262503 -0.2034002
0002a0 1d e5 42 be 86 a6 9b be 39 f2 d5 3d a2 df 1b 3e
       -0.19032712 -0.30400485 0.10446591 0.15222028
0002b0 ad 9b aa be 6e dd df 3c ce bf 2a bf ad 26 fc bd
       -0.33321896 0.027327266 -0.6669892 -0.12312064
0002c0 5e 6c d7 bc c1 5b 9b 3d 95 30 2b 3e 43 b6 bf be
       -0.02629679 0.0758586 0.16717751 -0.37443742
0002d0 cb 23 df be 83 45 e4 3e 80 cf ce bd dd 4a 97 3e
       -0.43581995 0.44584283 -0.10098171 0.29549304
0002e0 6c 23 cc bc d0 fe 43 3f 0a 00 f2 be 25 b4 24 3f
       -0.024919234 0.7656069 -0.47265655 0.6433738
0002f0 f5 2d 38 be d1 48 96 be 9a a6 d8 be df 94 3e be
       -0.17986281 -0.2935243 -0.42314607 -0.18611477
000300 ba d3 f9 3d dd a8 5a be 1b 23 e0 3e 3c 28 ef bd
       0.12198587 -0.21353479 0.43776783 -0.11677596
000310 9e 0c ba be de f0 14 3f d2 ad f3 3e 3c c5 1d be
       -0.3633775 0.58180034 0.47593552 -0.1540727
000320 be 7b 3a 3e f6 8b 50 3e 1b ef 36 bd 75 ed 85 3e
       0.18211266 0.20365891 -0.044661622 0.26157728
000330 be f2 ea bd 4f 2b 1b bf c2 a2 1b bd bd 32 ce bd
       -0.11472081 -0.6061296 -0.037997015 -0.10068271
000340 fb c7 18 be 37 ab b3 bd 20 7c 58 3d 53 8b 6a be
       -0.14920036 -0.08772891 0.05285275 -0.2290471
000350 ee 50 7e 3e ff 40 88 be b2 08 bb be cc 66 15 bd
       0.2483556 -0.26612088 -0.36530071 -0.036474988
000360 d8 34 21 be 38 01 58 3b 65 d8 ee be d3 9c 36 3e
       -0.15742815 0.003295971 -0.4664947 0.17833261
000370 07 bb 56 be f8 77 b9 3d e1 f5 40 3c 27 b7 cd bc
       -0.20969783 0.09056085 0.011777372 -0.025111748
000380 e8 5d 6d 3f f7 1d fa 3e 1f 42 f1 bd 36 42 e1 be
       0.92721415 0.48850986 -0.1178019 -0.43995827
000390 ae ce 9d be b6 36 79 be 69 eb a7 3e bc 28 ea 3e
       -0.30821747 -0.24337277 0.3279679 0.45734203
0003a0 39 33 8d be e3 98 fd 3d 18 b0 29 bf af 28 6d 3d
       -0.27578142 0.123826765 -0.6628432 0.057900127
0003b0 4e cb f4 bd 13 12 8d be c6 43 74 be 87 6f ff 3c
       -0.1195284 -0.27552852 -0.23853979 0.03118111
0003c0 81 17 57 3f b6 5b 0b 3e 82 09 12 bf 9d f3 aa bc
       0.8402024 0.13609204 -0.5704576 -0.020868117
0003d0 a1 a3 22 3e 03 72 0b 3e 42 f1 28 3d 7d 44 a1 3e
       0.15882732 0.13617711 0.041245706 0.31497565
0003e0 75 b5 88 3b ee 74 4d 3e 86 fb c7 3e 93 98 8f be
       0.004172022 0.20064136 0.39059085 -0.28046092
0003f0 ab 5a 8b be 0d 76 0a bf 9e 9c 39 bf 2a 65 4b 3f
       -0.27217612 -0.5408638 -0.72504604 0.7945124
