logs/classifier/5_contexts/fold_03/10-17-2022_22-14-25/model_params.pth (torch, 822087 bytes, 10 tensors)

feature.weight_ih_l0 f4 [512, 64]
0	0xbd62f975	-0.055413682
1	0x3eb4416f	0.35206172
2	0xbe9ca6ed	-0.30596104
3	0x3de27c9e	0.11058925
4	0xbe20017f	-0.1562557
5	0xbe37c1cc	-0.17945021
6	0x3f9353ae	1.1509912
7	0xbe61c721	-0.22048618
8	0xbf3266b2	-0.6968795
9	0x3f0e62b3	0.55619353
10	0xbf769a46	-0.9632915
11	0x3d3d7802	0.046257026
12	0xbf55d7f1	-0.83532625
13	0x3f068cc3	0.52558535
14	0xbdeeefdb	-0.116668426
15	0x3f3087a9	0.68957
16	0x3eb4113b	0.35169396
17	0xbf3b812a	-0.73243964
18	0x3ef30f65	0.47472683
19	0x3e6fced7	0.23418747
20	0x3e2d3bdd	0.16917367
21	0x3f3afffc	0.7304685
22	0x3dedbe3f	0.11608552
23	0xbf9eb4f7	-1.2398976
24	0xbe99c1c0	-0.30030632
25	0xbf5c9f7f	-0.8618087
26	0xbef6f06b	-0.482303
27	0xbebbde9c	-0.36693275
28	0xbf2ae898	-0.6676116
29	0x3e95c100	0.2924881
30	0xbeb9133c	-0.36147487
31	0xbf83aa81	-1.0286409
32	0xbff677ae	-1.9255273
33	0xbee5697a	-0.44807035
34	0x3e78f63e	0.24312684
35	0xbd6f1436	-0.058368884
36	0x3f0f4055	0.5595754
37	0xbf04abf9	-0.5182491
38	0x3eb10a0e	0.34577984
39	0xc0039ec5	-2.0565655
40	0xbe662ea9	-0.22478737
41	0xbdd21be2	-0.102592245
42	0xbe01a5df	-0.12660931
43	0xbe6394b3	-0.22224693
44	0x3eb67565	0.3563644
45	0xbe5eca7f	-0.21756934
46	0x3da0a856	0.078446075
47	0x3ee5a7bd	0.44854537
48	0x3e4eeb9d	0.20207067
49	0xbfb58ea2	-1.4184153
50	0xbf2c8475	-0.67389613
51	0x3dd4cbfc	0.103904694
52	0xbe611231	-0.21979596
53	0xbfa805d5	-1.312678
54	0xbbf87bf1	-0.0075831343
55	0x3d81a4f1	0.06330288
56	0xbb1258ee	-0.0022330838
57	0xbeabf598	-0.3358581
58	0xbe881211	-0.26576284
59	0x3ea491f1	0.32142594
60	0x3f2e22f3	0.6802208
61	0x3ed3d69c	0.4137467
62	0xbf796d34	-0.97432256
63	0x3e44b4e9	0.19209637
64	0x3e21033f	0.15723895
65	0xbd313b6c	-0.04326956
66	0xbee78f7b	-0.45226654
67	0xbd0dd2bf	-0.03462481
68	0xbc95866c	-0.018252574
69	0xbd990f8a	-0.07473667
70	0x3f7e9ea2	0.99460804
71	0xbee79dc7	-0.45237562
72	0x3db0bfef	0.086303584
73	0x3f130e82	0.5744401
74	0xbca6516e	-0.0203025
75	0x3ee5ed77	0.44907734
76	0xbee618cb	-0.4494079
77	0xbedefbda	-0.43551522
78	0x3f43c791	0.7647639
79	0xbaeb1a0e	-0.0017936842
80	0xbeb37939	-0.35053423
81	0x3f364af1	0.712081
82	0x3ec24731	0.3794494
83	0x3ea865b3	0.3289009
84	0x3f1e0745	0.6172984
85	0xbf0e8781	-0.5567551
86	0xbc0327da	-0.008005107
87	0xbeff9f5e	-0.49926275
88	0x3d201bfd	0.03908919
89	0x3f9f256d	1.2433296
90	0x3e14b803	0.1452332
91	0xbde9b634	-0.114117056
92	0xbce69d93	-0.02815131
93	0xbdd3cc87	-0.10341745
94	0x3f80cf9e	1.006336
95	0xbdc2f798	-0.09519881
96	0xbedda70b	-0.43291506
97	0xbf020eb0	-0.5080366
98	0xbd2c5fce	-0.042083554
99	0xbe332de0	-0.17497969
100	0x3f40a1ad	0.752467
101	0xbf146f12	-0.5798198
102	0xbebd948a	-0.3702739
103	0x3efbce03	0.49180612
104	0x3d061478	0.032734364
105	0x3ee88928	0.45417142
106	0xbf1ece75	-0.6203378
107	0x3e41f208	0.18939984
108	0xbd37202a	-0.04470841
109	0xbf368511	-0.71296793
110	0xbf702c35	-0.93817455
111	0x3ea01ce2	0.31272036
112	0xbf21ad24	-0.63154817
113	0xbed3ad75	-0.41343275
114	0xbf157252	-0.58377564
115	0xbf451c7d	-0.76996595
116	0x3ee7120c	0.45130956
117	0x3f1aedcc	0.605191
118	0xbf0debb1	-0.5543776
119	0xbde5cb7b	-0.112204514
120	0xbf5dbb44	-0.8661387
121	0xbf1eeb9c	-0.6207826
122	0x3afc2c58	0.001923929
123	0xbdab549d	-0.08365748
124	0xbefbc108	-0.4917071
125	0x3f1f0036	0.62109697
126	0xbe2a82ac	-0.1665141
127	0x3e892877	0.26788685
128	0xbc4f4049	-0.012649604
129	0x3e8e9182	0.2784539
130	0x3f884592	1.0646231
131	0xbdfb81da	-0.122806266
132	0xbfc988a8	-1.5744829
133	0xbee163c2	-0.44021422
134	0x3e617e0c	0.2202074
135	0x3e9a74e7	0.30167314
136	0x3d9fe8d0	0.07808077
137	0x3ee90ad5	0.45516077
138	0xbdaff344	-0.08591321
139	0xbe1a92d2	-0.1509507
140	0x3f5de91b	0.86683816
141	0x3f8b99c2	1.0906298
142	0xbe23e953	-0.16006975
143	0xbe6cbe48	-0.23119462
144	0xbf96a9e9	-1.1770602
145	0xbeaabd18	-0.33347392
146	0xbd24d9bd	-0.040246714
147	0xbd924d0e	-0.07143603
148	0x3f81c611	1.013857
149	0x3faee7bf	1.3664473
150	0x3f2c9af6	0.6742395
151	0x3dee8f2d	0.11648402
152	0xbe9f86cf	-0.31157538
153	0x3eb9dcd5	0.36301294
154	0x3e42e2b1	0.19031788
155	0xbf5b4276	-0.85648286
156	0x3ea3adc6	0.31968516
157	0x3f3befe7	0.73412937
158	0xbea3bea2	-0.3198138
159	0x3f01c240	0.50687027
160	0xbebae84e	-0.3650536
161	0xbd62fbfe	-0.0554161
162	0x3f282d3f	0.6569404
163	0xbf13cb2b	-0.57731885
164	0x3fba5cad	1.4559532
165	0xbebe7d51	-0.37204984
166	0xbf04c698	-0.5186553
167	0x3f19468e	0.5987328
168	0x3f82fb20	1.0232887
169	0xbf99a263	-1.2002681
170	0xbecd154a	-0.40055305
171	0x3b041c3c	0.002015843
172	0xbf7ebdec	-0.9950855
173	0x3f5dcba3	0.8663885
174	0xbe641092	-0.22271946
175	0xbeb6143f	-0.35562322
176	0x3fa7b634	1.3102479
177	0xbedabdd4	-0.42722952
178	0xbf6a99ca	-0.91640913
179	0x3f05b96b	0.5223605
180	0x3ebdb094	0.3704878
181	0xbe8c75d4	-0.27433646
182	0xbe6a8f18	-0.22906148
183	0x3ddd2c69	0.10799486
184	0x3ec18a95	0.37801042
185	0x3eb6838a	0.3564723
186	0x3dd8d313	0.10587134
187	0xbe34b114	-0.17645675
188	0xbef82eee	-0.48473305
189	0xbe948136	-0.2900483
190	0xbeb1c731	-0.34722283
191	0xbf069a72	-0.52579415
192	0xbeb837bc	-0.35980022
193	0xbbdb08f1	-0.0066844155
194	0xbe411219	-0.1885456
195	0xbf359b21	-0.7093983
196	0xbf7141c7	-0.94240993
197	0x3f31ddb8	0.6947894
198	0x3e1bca0e	0.15213796
199	0x3ea478a2	0.32123286
200	0x3f312063	0.69190043
201	0x3eb3aa22	0.3509074
202	0x3ee22637	0.4416978
203	0x3d9b5778	0.07585043
204	0x3e2e19fe	0.17002103
205	0xbf6a95c4	-0.91634774
206	0xbeaab86e	-0.33343834
207	0xbf146255	-0.5796254
208	0xbd997d43	-0.07494595
209	0xbf3136b0	-0.6922407
210	0x3dc0858e	0.094004735
211	0x3ef43f30	0.47704458
212	0xbe17f767	-0.1484047
213	0xbf2017ec	-0.625365
214	0xbe72bd79	-0.2370509
215	0x3e0c7c62	0.13719323
216	0x3ecb17bc	0.39666545
217	0xbde44a82	-0.11147024
218	0x3ef4656c	0.4773363
219	0x3da012d1	0.07816089
220	0x3eb71c79	0.3576391
221	0xbf0769b1	-0.5289565
222	0x3f740cb6	0.95331895
223	0xbd50e26d	-0.050997186
224	0xbf3cbd19	-0.7372604
225	0x3f6a1e22	0.9145223
226	0xbe8ca62a	-0.27470523
227	0x3de107bd	0.10987804
228	0x3f1d955c	0.6155603
229	0x3e172e92	0.14763859
230	0x3e2ff5ff	0.17183684
231	0xbec922e0	-0.3928442
232	0xbe91589e	-0.28387922
233	0x3d34dfe9	0.04415885
234	0xbdc288bc	-0.09498736
235	0x3ee8f010	0.45495653
236	0xbeb5290f	-0.35382888
237	0x3f5619f0	0.8363333
238	0xbe56aba5	-0.20963915
239	0x3eaf75b6	0.34269494
240	0xbe696fa1	-0.2279649
241	0xbe43679c	-0.19082493
242	0x3f3006ab	0.68760175
243	0xbf341a99	-0.70353085
244	0xbf2e9c91	-0.6820765
245	0xbf033380	-0.5125046
246	0x3ee77283	0.45204553
247	0x3e6e0e87	0.23247729
248	0xbf17203d	-0.59033567
249	0x3f42c9fc	0.76089454
250	0xbc65bb2c	-0.014021676
251	0x3df21770	0.118208766
252	0xbd00d9f6	-0.031457864
253	0xbf0d95c9	-0.5530668
254	0x3f2b9a4b	0.6703231
255	0xbf8014c4	-1.0006337

feature.weight_hh_l0 f4 [512, 128]
0	0x3ea498bb	0.32147774
1	0xbeadbc39	-0.33932665
2	0xbdfa87fe	-0.1223297
3	0xbe4f017a	-0.20215407
4	0x3e5fd5d2	0.2185891
5	0xbd86fc15	-0.065910496
6	0x3e93e64a	0.28886634
7	0x3f888555	1.066569
8	0xbfa4fff8	-1.2890615
9	0x3f173c98	0.59076834
10	0xbf83f036	-1.0307682
11	0xbf4d9e9e	-0.80320156
12	0xbdac065e	-0.08399652
13	0x3ea4b545	0.32169548
14	0xbed187df	-0.40923974
15	0x3eaed1b8	0.34144378
16	0xbf09a1da	-0.5376259
17	0x3f970d7b	1.1800989
18	0xbf807370	-1.0035229
19	0xbf013603	-0.5047304
20	0xbe376bde	-0.17912242
21	0xbe859d8b	-0.26096758
22	0xbe8809c3	-0.26569948
23	0x3e3bb596	0.18330988
24	0x3d23af92	0.03996236
25	0xbe496994	-0.19669181
26	0xbe6436e1	-0.2228656
27	0xbdf6d4b2	-0.12052287
28	0xbdf38b1f	-0.118917696
29	0xbe8cfb09	-0.27535275
30	0xbd1cebc8	-0.038310796
31	0x3efa386a	0.48871166
32	0xbe0de67d	-0.13857456
33	0x3d67698b	0.056497138
34	0xbecc3100	-0.39881134
35	0xbf283de9	-0.6571947
36	0x3e1da71e	0.15395781
37	0xbf361c7c	-0.71137214
38	0xbf6baf31	-0.92064196
39	0x3dfd63b3	0.12372532
40	0x3e97a6ed	0.29619542
41	0xbfa966d2	-1.3234503
42	0x3ef257a3	0.47332487
43	0xbe9ae670	-0.30253935
44	0x3f4cbaa7	0.7997231
45	0x3f17a9bb	0.59243363
46	0xbe9c0c2b	-0.30478033
47	0xbe84363a	-0.25822622
48	0xbe95fb58	-0.29293323
49	0xbe814c9f	-0.2525377
50	0x3e17213a	0.14758769
51	0x3df18250	0.11792433
52	0xbe21013a	-0.15723124
53	0x3eb13eff	0.34618375
54	0xbee7f824	-0.45306504
55	0xbecf258f	-0.40458342
56	0xbed7fb95	-0.4218413
57	0x3e63da21	0.22251178
58	0x3d131cf4	0.035916284
59	0x3e9bd1a1	0.30433372
60	0xbf01f946	-0.50770986
61	0x3e54b2cc	0.2077133
62	0xbf017b1d	-0.5057848
63	0x3e2474ea	0.16060224
64	0xbec56e29	-0.38560608
65	0x3f56066f	0.83603567
66	0x3f8e6ecc	1.1127563
67	0xbd4074f8	-0.04698655
68	0xbf316212	-0.6929027
69	0xbe1c94fd	-0.1529121
70	0x3f4321b1	0.76223284
71	0x3f471814	0.77771115
72	0x3e8e8101	0.27832797
73	0x3f935119	1.1509124
74	0xbe81ec33	-0.25375518
75	0x3eba690e	0.36408275
76	0x3f053e7d	0.52048475
77	0xbf22f5f9	-0.63656574
78	0x3e4a524e	0.19757959
79	0xbe4878aa	-0.1957728
80	0x3d903762	0.070418134
81	0xbe7ec331	-0.24879147
82	0xbf3f345a	-0.7468926
83	0xbf285d9a	-0.65767825
84	0x3ee3db3c	0.445032
85	0xbf321c23	-0.69574183
86	0x3e5d4e67	0.2161194
87	0x3ecf2e32	0.40464932
88	0x3ec56c69	0.38559273
89	0x3ea158db	0.31513104
90	0xbf7553a4	-0.9583075
91	0x3c87809b	0.016540816
92	0xbe923382	-0.28554922
93	0xbd85cc34	-0.06533089
94	0x3df64678	0.120251596
95	0xbec890d2	-0.3917299
96	0xbec58527	-0.3857815
97	0xbf86d948	-1.0535059
98	0x3e5ef234	0.2177208
99	0x3dae279f	0.08503651
100	0x3f88b832	1.0681212
101	0xbe9bd44d	-0.3043541
102	0xbef9a92e	-0.48761886
103	0xbebcd74c	-0.36883008
104	0xbe7841d0	-0.24243855
105	0xbf7a3ef2	-0.97752297
106	0xbf6104e9	-0.8789812
107	0xbe6dc6f1	-0.23220421
108	0xbd863fb4	-0.06555119
109	0x3e633c4f	0.22190975
110	0x3ebd68ed	0.36994115
111	0xbe80210c	-0.25025213
112	0xbe5dda7e	-0.2166538
113	0xbe840ca2	-0.25790888
114	0x3efd01db	0.49415478
115	0x3de22f0a	0.11044128
116	0x3eb91655	0.3614985
117	0x3e26367a	0.16231719
118	0xbf079cb3	-0.5297348
119	0xbf0acc34	-0.5421784
120	0xbf555bcb	-0.8334319
121	0xbf282290	-0.6567774
122	0xbf0d1f2f	-0.5512571
123	0x3ec82a56	0.390948
124	0x3e84ea0f	0.25959823
125	0xbe422fa8	-0.18963492
126	0x3f58464b	0.8448226
127	0xbe0149b6	-0.12625775
128	0x3db2e154	0.08734384
129	0x3e83c0ab	0.25732931
130	0xbed2036d	-0.4101824
131	0xbe38840f	-0.18019126
132	0xbf025190	-0.50905704
133	0xbe739725	-0.23788126
134	0x3ecd8d82	0.40147024
135	0xbec88669	-0.39165047
136	0xbed91677	-0.42399952
137	0xbf3d50e3	-0.7395155
138	0xbe4b0c98	-0.19829023
139	0xbf10447c	-0.563545
140	0x3f20f945	0.62880355
141	0x3d94f7b2	0.07273807
142	0x3e8fe2eb	0.28102812
143	0xbe9eab8e	-0.3099026
144	0xbf25b595	-0.647302
145	0x3f4d708c	0.8024986
146	0xbeb67e8a	-0.35643417
147	0x3f0c4dcd	0.54806215
148	0x3e126b29	0.14298691
149	0x3da97098	0.08273429
150	0xbe47e44a	-0.19520679
151	0x3f2ab923	0.66688746
152	0x3e831260	0.25599957
153	0xbebd41f3	-0.36964378
154	0xbf0313f5	-0.51202327
155	0x3f5571e4	0.8337691
156	0x3ddf9569	0.109171696
157	0xbd1e0b35	-0.038584907
158	0x3e1c2143	0.15247063
159	0x3d88e11b	0.066835605
160	0x3ef2f4dd	0.4745244
161	0x3e4f20d9	0.20227374
162	0x3f57a2aa	0.8423258
163	0x3e6996ec	0.22811478
164	0x3dca5cf9	0.098810144
165	0x3de6f570	0.11277282
166	0x3ef4e9c3	0.47834596
167	0x3e8e9a19	0.27851942
168	0x3ef2691e	0.47345823
169	0xbcda081b	-0.026615193
170	0xbed5ee50	-0.4178338
171	0x3f505e1e	0.8139361
172	0xbf00fd7e	-0.503868
173	0xbf09b9d6	-0.5379919
174	0x3f88366b	1.0641607
175	0x3eab0d83	0.33408746
176	0x3dab6c3c	0.083702534
177	0xbfe95973	-1.8230423
178	0x3ee80404	0.45315564
179	0xbecf3e77	-0.40477344
180	0x3e7e34c7	0.2482482
181	0xbf0bd7fb	-0.54626435
182	0x3e54d80e	0.20785543
183	0x3ef45206	0.4771883
184	0xbd222453	-0.039585423
185	0x3f0d8f98	0.5529723
186	0x3e7cc9de	0.24686381
187	0xbe453514	-0.19258529
188	0xbf0666c1	-0.5250054
189	0x3eab5ca4	0.33469117
190	0x3e862a72	0.26204258
191	0x3f1d77bd	0.6151083
192	0xbedd72a0	-0.43251514
193	0xbf338582	-0.7012559
194	0xbd838a52	-0.06422867
195	0xbe9da73b	-0.3079165
196	0x3f357635	0.70883495
197	0xbe9078ec	-0.28217256
198	0xbc26aaf8	-0.010172598
199	0x3cf8b22a	0.030358393
200	0x3d442ccd	0.047894288
201	0xbe002355	-0.12513478
202	0xbe4da86f	-0.20083784
203	0xbe22cc19	-0.1589817
204	0x3db762a1	0.08954359
205	0x3ecceae0	0.40022945
206	0x3cdcb146	0.02694
207	0xbd25304b	-0.04032926
208	0x3d90c922	0.07069613
209	0x3eb64bf0	0.3560481
210	0xbef650e5	-0.48108593
211	0x3ea9ed08	0.33188653
212	0xbeb0fc5e	-0.3456754
213	0x3e5c8adb	0.21537344
214	0x3eb90895	0.3613936
215	0x3f949a78	1.160964
216	0x3eef62fb	0.46755204
217	0x3ef4dabd	0.47823134
218	0x3e533453	0.20625429
219	0x3ea3e250	0.320086
220	0x3e0fb140	0.1403246
221	0xbe9ea055	-0.309817
222	0xbef372ec	-0.47548616
223	0xbdebe76a	-0.11518748
224	0x3eaab249	0.33339146
225	0xbe152573	-0.14565067
226	0x3e985538	0.29752517
227	0xbd773562	-0.060353644
228	0xbf41b1c9	-0.75661904
229	0xbdcfe9e5	-0.10152034
230	0xbe9acfb9	-0.30236605
231	0x3f5abba7	0.85442585
232	0x3eaef44f	0.34170768
233	0xbf6e9b0f	-0.9320535
234	0xbe2b0296	-0.16700205
235	0x3d1bcae7	0.0380353
236	0x3ebd7667	0.37004396
237	0xbeb7b04a	-0.35876685
238	0x3d0c3a3a	0.034235217
239	0xbc85684a	-0.01628508
240	0x3d500200	0.050783157
241	0x3e1a57aa	0.15072504
242	0x3ed355ae	0.41276306
243	0x3f928412	1.1446555
244	0x3f07f74b	0.53111714
245	0x3efc7c9e	0.49313825
246	0x3e8aa9e3	0.27082738
247	0x3f603f63	0.8759672
248	0xbf1e46a4	-0.6182654
249	0xbee6f2ab	-0.45107016
250	0x3ed5e361	0.4177504
251	0xbc81cab9	-0.015843736
252	0xbd2a934f	-0.04164439
253	0x3f25bf42	0.6474496
254	0x3f3a8768	0.72862864
255	0xbeb03ed0	-0.34422922

feature.bias_ih_l0 f4 [512]
0	0xbd9bff98	-0.0761711
1	0xbe21be82	-0.15795329
2	0x3e38ce61	0.18047477
3	0xbeccc613	-0.3999487
4	0x3f08f618	0.5350051
5	0xbce54224	-0.02798564
6	0x3d31938d	0.043353606
7	0x3bf5e96a	0.0075046318
8	0x3dda572e	0.106611595
9	0x3e97494e	0.29548115
10	0x3f9f8ad4	1.2464242
11	0xbd2dc20e	-0.042421393
12	0x3eaacadf	0.33357903
13	0xbd01c38e	-0.031680636
14	0x3db510a9	0.08841068
15	0x3e2ace1e	0.1668019
16	0x3ed93b4d	0.42428055
17	0xbe91fcca	-0.28513175
18	0x3e79872e	0.24367973
19	0xbe526a5c	-0.20548385
20	0xbec45f4e	-0.38353962
21	0xbe6d68fe	-0.23184583
22	0x3e072fa9	0.13201775
23	0x3eb81d7e	0.3596
24	0x3e35227d	0.17688937
25	0xbe80364f	-0.25041434
26	0x3d5be3e5	0.053684134
27	0x3f18ae73	0.5964119
28	0x3ed4f805	0.41595474
29	0xbe9a96a6	-0.3019306
30	0x3f7ef5f5	0.9959405
31	0xbe2944a8	-0.16530097
32	0xbdc0c145	-0.09411863
33	0x3ead2a1f	0.33821198
34	0x3d6e0946	0.058114313
35	0xbb9f3a2e	-0.0048592305
36	0xbe4d1df9	-0.20030965
37	0xbe195e89	-0.14977469
38	0x3e1e4270	0.15455031
39	0x3eaae943	0.3338109
40	0x3f248094	0.64258695
41	0x3edc5b0e	0.4303822
42	0x3dab5aae	0.08366905
43	0x3e2aa89b	0.1666588
44	0x3e9532aa	0.29140216
45	0x3ef00fe5	0.46887127
46	0x3e23642d	0.15956183
47	0x3d8537cc	0.06504783
48	0x3e69aa45	0.22818859
49	0x3d340dea	0.043958582
50	0x3f7ce642	0.98788846
51	0x3f76a0b7	0.9633898
52	0xbc86df43	-0.016463881
53	0x3f027196	0.5095457
54	0x3edd4d13	0.43222865
55	0x3c8e87b7	0.017398698
56	0x3ce737a0	0.028224766
57	0x3c81ec63	0.015859788
58	0xbeb11a9d	-0.34590617
59	0x3ee01a02	0.43769842
60	0xbe88e0ee	-0.26734108
61	0x3ebe7468	0.37198186
62	0x3ddbecf3	0.10738554
63	0x3ee695a3	0.4503604
64	0xbdac45d0	-0.08411753
65	0x3f55b0f3	0.8347313
66	0x3e607682	0.21920207
67	0x3faae339	1.3350593
68	0x3de6bf82	0.11266996
69	0x3e83369d	0.25627604
70	0x3ec46615	0.38359132
71	0xbe87add0	-0.26499796
72	0x3ea2e067	0.3181183
73	0xbdb45378	-0.08804983
74	0xbdea6f27	-0.11446982
75	0x3ee92c40	0.45541573
76	0x3f0d2af2	0.55143654
77	0x3df41c94	0.11919513
78	0x3f50fa64	0.81632066
79	0xbdd01abb	-0.101613484
80	0x3cd18213	0.02557472
81	0xbe9943fd	-0.29934683
82	0x3d7661b0	0.060151756
83	0x3bb58bd1	0.005540349
84	0x3e8aebc8	0.27133012
85	0x3e170845	0.14749248
86	0x3f46745b	0.77521294
87	0xbbee2d43	-0.007268579
88	0xbdfaf155	-0.12253062
89	0x3e067918	0.13132131
90	0x3ca00f0f	0.01953843
91	0x3f8b071d	1.0861546
92	0x3e86c3c8	0.26321244
93	0xbdbc41b2	-0.09192218
94	0x3de471b3	0.11154499
95	0xbad2ef59	-0.001609306
96	0xbe93105c	-0.2872342
97	0xbda29a0d	-0.07939539
98	0xbe7187f0	-0.23587012
99	0x3f516208	0.8179021
100	0xbd5b8426	-0.053592823
101	0x3faba0a4	1.3408399
102	0xbd3e1c5b	-0.04641376
103	0xbe94b576	-0.29044694
104	0xbeb41323	-0.3517085
105	0x3d45e8f7	0.048317876
106	0x3d756652	0.059912033
107	0xbefa1eca	-0.48851615
108	0x3df8acf3	0.121423624
109	0xbda7056c	-0.08155331
110	0x3e051671	0.12996842
111	0x3f0066cf	0.50156873
112	0x3ed8d227	0.42347834
113	0x3d0e3659	0.0347198
114	0x3df2cb5b	0.11855193
115	0xbdf08c3b	-0.11745497
116	0x3f1ebda1	0.620081
117	0xbe6756ea	-0.22591749
118	0x3f0feabe	0.56217563
119	0x3e75f16c	0.24017876
120	0x3e215bd2	0.15757683
121	0x3d96f5f0	0.073711276
122	0x3e4a517b	0.19757645
123	0x3df7f707	0.121076636
124	0x3ecabcf7	0.39597294
125	0x3e98a98f	0.29816863
126	0xbdbf7a8f	-0.09349548
127	0x3e084dcc	0.13310927
128	0xbe8a4295	-0.27003923
129	0xbf1c31e9	-0.61013657
130	0xbe44e4c2	-0.19227889
131	0xbe29a9a3	-0.16568618
132	0xbe61abe7	-0.22038232
133	0xbf03bca2	-0.51459706
134	0xbd1d233e	-0.038363688
135	0xbe9cb135	-0.30603948
136	0xbcd3f825	-0.02587516
137	0xbdc68696	-0.09693639
138	0xbeff1623	-0.49821576
139	0xbeae7826	-0.3407604
140	0xbe41383f	-0.18869112
141	0xbe5f4824	-0.21804863
142	0xbe81691a	-0.252755
143	0xbde09130	-0.10965192
144	0x3d5e5369	0.054278765
145	0xbe78578f	-0.24252151
146	0xbea32947	-0.3186743
147	0x3e30b491	0.1725638
148	0xbdd5cd10	-0.10439503
149	0xbe5779fa	-0.21042624
150	0xbd2d9916	-0.042382322
151	0xbe320638	-0.17385185
152	0xbcac2340	-0.021012902
153	0xbd4b8094	-0.04968317
154	0xbea589a6	-0.3233158
155	0x3e0ae908	0.13565457
156	0x3d42a2ec	0.047518656
157	0xbe0e464e	-0.13894007
158	0xbf13f772	-0.57799447
159	0xbea34390	-0.31887484
160	0x3d89372a	0.06699975
161	0xbe3a38f8	-0.18185794
162	0x3d0fee49	0.035139356
163	0xbeda03f1	-0.42581132
164	0xbea01c8b	-0.31271777
165	0xbd01eb68	-0.03171864
166	0x3ecccdb1	0.4000068
167	0x3eb336cd	0.35002747
168	0xbec70055	-0.3886744
169	0xbe35a133	-0.17737274
170	0xbdfdc090	-0.12390244
171	0xbdd70aa8	-0.105000794
172	0xbd0c474f	-0.034247693
173	0xbe1cfe19	-0.15331306
174	0xbd84b585	-0.064799346
175	0xbe179d0f	-0.14806007
176	0xbe50cfb7	-0.20391737
177	0xbed1a1b8	-0.40943694
178	0xbf15ea0c	-0.5856025
179	0x3db10cef	0.08645045
180	0x3d67f032	0.056625552
181	0xbe9770c0	-0.2957821
182	0x3ea428aa	0.32062274
183	0xbec57700	-0.38567352
184	0xbd3e9b32	-0.046534725
185	0xbeb0fce2	-0.34567934
186	0x3f0922ca	0.5356871
187	0x3e8dfbfd	0.27731314
188	0x3da2373c	0.07920691
189	0xbf171133	-0.5901062
190	0x3e1b10b4	0.1514309
191	0xbea31f66	-0.31859893
192	0xbde39a94	-0.11113468
193	0xbee9cfe2	-0.45666414
194	0x3e7e97e1	0.24862625
195	0xbec24cb7	-0.37949154
196	0x3da3e57c	0.08002755
197	0xbde7dbd7	-0.11321228
198	0xbce70b74	-0.028203703
199	0xbeb3af10	-0.350945
200	0xbe08ace8	-0.13347208
201	0xbde2a5e4	-0.110667974
202	0x3ea166d6	0.3152377
203	0x3e00e7a3	0.12588362
204	0xbebc5110	-0.36780596
205	0x3e991d88	0.29905343
206	0xbe246cfa	-0.16057196
207	0x3e87fa66	0.26558226
208	0xbda4dbf3	-0.080497645
209	0x3c93e30c	0.0180526
210	0xbdb9fce8	-0.09081441
211	0x3e4ba0a2	0.19885495
212	0xbec631dd	-0.38709918
213	0xbedd9539	-0.4327791
214	0xbe21e842	-0.15811256
215	0xbeb017e2	-0.3439322
216	0x3c48455f	0.012223571
217	0xbbad74f5	-0.0052934834
218	0x3d6b7e6c	0.057493612
219	0xbeb5df98	-0.3552215
220	0xbd830019	-0.06396503
221	0xbe7db830	-0.24777293
222	0xbea41a57	-0.32051346
223	0xbe861a2c	-0.26191843
224	0x3d06c087	0.032898452
225	0xbee90bee	-0.45516914
226	0x3dcb56aa	0.09928639
227	0xbf0dd1ca	-0.5539824
228	0xbe118e81	-0.14214517
229	0x3ea7f1df	0.3280172
230	0xbe6041e3	-0.21900134
231	0x3e19321b	0.1496052
232	0xbd1d4e82	-0.03840495
233	0xbe0236e1	-0.12716247
234	0x3c783134	0.01514845
235	0x3d18e50c	0.03732781
236	0xbea9220a	-0.33033782
237	0x3e3dac54	0.18522769
238	0x3dc34c4f	0.09536039
239	0x3d4abe80	0.04949808
240	0x3e16ca75	0.14725669
241	0xbf1e984c	-0.61951137
242	0xbd95e320	-0.07318711
243	0xbee7ae0a	-0.4524997
244	0x3e457717	0.1928371
245	0xbe9a778e	-0.30169338
246	0xbe841473	-0.25796852
247	0xbe1ff0f2	-0.15619257
248	0xbdaa2324	-0.08307484
249	0xbf127b60	-0.57219505
250	0xbf487f9d	-0.7831972
251	0xbe5534bf	-0.20820902
252	0xbe3b13cb	-0.18269269
253	0xbe7f7787	-0.2494794
254	0xbeb0156d	-0.34391347
255	0xbe97ac28	-0.29623532

feature.bias_hh_l0 f4 [512]
0	0xbc64858d	-0.013947857
1	0xbe678dba	-0.22612658
2	0x3e2173cd	0.1576683
3	0xbe8dbccd	-0.27683106
4	0x3ef6edb2	0.48228222
5	0xbd96465c	-0.07337639
6	0x3dcea3e4	0.100898534
7	0xbc5c319c	-0.013439562
8	0x3da745e4	0.081676275
9	0x3eab3346	0.33437556
10	0x3fa96eb5	1.323691
11	0xbe292ee3	-0.16521792
12	0x3eedac98	0.4642074
13	0xbdcee0d8	-0.10101479
14	0x3e05efd8	0.13079774
15	0x3d7945e5	0.060857672
16	0x3e8fc251	0.2807794
17	0xbdefa495	-0.117013134
18	0x3dea677c	0.11445519
19	0xbe74fcaa	-0.23924509
20	0xbecfe5aa	-0.40604907
21	0xbe91f648	-0.2850821
22	0x3e839d09	0.25705746
23	0x3f07909e	0.52955043
24	0x3e71c29e	0.23609397
25	0xbebe1aea	-0.3712991
26	0xbd535cd9	-0.05160222
27	0x3ed38820	0.41314793
28	0x3ebce2a7	0.36891672
29	0xbe766931	-0.24063565
30	0x3f41ed5d	0.7575281
31	0xbe480c77	-0.19536005
32	0xbddfa62d	-0.109203674
33	0x3eaad40b	0.333649
34	0x3c23d4b2	0.009999441
35	0xbdde5a51	-0.1085707
36	0xbea56000	-0.32299805
37	0xbc836afe	-0.016042229
38	0x3d8a00a5	0.06738404
39	0x3ece997a	0.40351468
40	0x3f1d7188	0.6150136
41	0x3edea6e6	0.43486708
42	0x3c825da8	0.0159138
43	0x3e5bd4ab	0.21467845
44	0x3e7794dc	0.24177879
45	0x3e54f858	0.2079786
46	0x3e10060b	0.14064805
47	0x3c921915	0.017834226
48	0x3df38ab5	0.11891691
49	0x3e3dceb2	0.18535879
50	0x3f83a292	1.0283988
51	0x3f64d030	0.8938017
52	0x3b9bb240	0.0047514737
53	0x3ef19042	0.47180372
54	0x3f1947be	0.59875095
55	0xbcb10895	-0.021610538
56	0x3d249d78	0.040189236
57	0x3e68968d	0.2271368
58	0xbe9f690e	-0.31134838
59	0x3f113250	0.56717396
60	0xbe1c7a9c	-0.15281147
61	0x3e947c6f	0.29001185
62	0x3d93de80	0.07220173
63	0x3ed7aea7	0.42125437
64	0xbe82316f	-0.2542834
65	0x3f758ee6	0.9592117
66	0x3ec36e7d	0.38170233
67	0x3f957bac	1.1678367
68	0x3d11d720	0.03560555
69	0x3ebcec1f	0.36898896
70	0x3ea255a6	0.3170597
71	0xbe92e689	-0.2869151
72	0x3edb96a8	0.4288838
73	0xbde50ed2	-0.111844674
74	0xbda4c2a7	-0.080449395
75	0x3eab3594	0.33439314
76	0x3f27227f	0.6528701
77	0x3db526dc	0.088453025
78	0x3f4e6093	0.8061611
79	0x3e49cee6	0.19707832
80	0x3d5e3cb7	0.05425712
81	0xbe96ffcb	-0.2949203
82	0x3b7acfe3	0.0038270883
83	0x3da2bd60	0.07946277
84	0x3ea02af4	0.3128277
85	0x3e6d669c	0.23183674
86	0x3f487b8f	0.78313535
87	0x3e157578	0.14595592
88	0xbe1eabb9	-0.15495194
89	0x3db83751	0.08994926
90	0xbd03c8bc	-0.032173857
91	0x3f828303	1.0196232
92	0x3e10dafe	0.14146039
93	0xbe5f5d1a	-0.21812859
94	0x3dfc3968	0.12315637
95	0xba7631f7	-0.00093916006
96	0xbe97c9bd	-0.29646102
97	0xbde93932	-0.11387862
98	0xbe38a514	-0.18031722
99	0x3f847535	1.0348269
100	0xbd1c9032	-0.038223453
101	0x3fb59cf2	1.4188521
102	0xbc38ee1b	-0.0112872375
103	0xbe44549b	-0.191729
104	0xbec2e728	-0.38066983
105	0x3e45fd17	0.19334827
106	0x3d901eec	0.07037148
107	0xbee8c4f9	-0.45462778
108	0xbdb9e243	-0.09076359
109	0xbdebd34e	-0.115149125
110	0x3d8d134b	0.068884455
111	0x3edb1548	0.42789674
112	0x3eb43dd5	0.35203424
113	0x3cb81104	0.022469051
114	0x3cedbf0b	0.02902176
115	0xbd34efe2	-0.044174083
116	0x3f1ea1a5	0.619654
117	0xbe6ae187	-0.22937594
118	0x3f1814b6	0.594066
119	0x3e2221f0	0.15833259
120	0x3e53861c	0.20656627
121	0x3db23f08	0.087034285
122	0x3e8b07d2	0.27154404
123	0x3db23e85	0.08703331
124	0x3ec8348c	0.3910259
125	0x3ec2a93b	0.38019738
126	0xbd108cc5	-0.0352905
127	0x3d905df7	0.07049172
128	0xbe90dd4a	-0.2829383
129	0xbf0aca1d	-0.5421465
130	0xbe3794d3	-0.17927866
131	0xbdf740c0	-0.12072897
132	0xbcc8c1ac	-0.024506412
133	0xbf16a150	-0.58839893
134	0xbced4d62	-0.028967563
135	0xbeada5b2	-0.33915478
136	0x3d138a7f	0.036020752
137	0xbe319819	-0.17343177
138	0xbf0e9d2c	-0.55708575
139	0xbec75bf8	-0.38937354
140	0xbe138d5c	-0.14409393
141	0xbe5ddc02	-0.21665958
142	0xbe001948	-0.12509644
143	0xbd7d133a	-0.061785914
144	0x3cc3f5f4	0.02392099
145	0xbe96e93e	-0.29474825
146	0xbe35d339	-0.17756356
147	0x3dec14e4	0.11527422
148	0xbe157239	-0.14594354
149	0xbe018897	-0.12649761
150	0xbca8a7ef	-0.02058789
151	0xbd1c2a89	-0.038126502
152	0xbde09073	-0.109650515
153	0xbe25ec3f	-0.16203402
154	0xbea60cb9	-0.32431582
155	0x3e4f9173	0.20270328
156	0x3b8acb8d	0.004235691
157	0xbdaf6e02	-0.08565904
158	0xbf316c5d	-0.69305974
159	0xbeeaa6ad	-0.4583029
160	0x3d37c095	0.044861395
161	0xbe3b7cf0	-0.18309379
162	0x3d2bd6f3	0.04195304
163	0xbedf2141	-0.43580058
164	0xbe948bcb	-0.29012904
165	0xbe4536ba	-0.19259158
166	0x3ec86766	0.39141387
167	0x3e8ec597	0.27885124
168	0xbe9fdb4b	-0.31221995
169	0xbe493e1e	-0.19652602
170	0xbd9c59b4	-0.07634297
171	0xbe64d830	-0.22348094
172	0xbe41dbd3	-0.18931513
173	0xbe2d1173	-0.16901188
174	0xbdc11ca2	-0.094292894
175	0xbe99c4b1	-0.30032876
176	0xbe88fbab	-0.26754507
177	0xbee8361a	-0.45353776
178	0xbf41ef9b	-0.75756234
179	0xbcc31a90	-0.023816377
180	0x3d272202	0.040803917
181	0xbe8082d6	-0.2509982
182	0x3eb3a70b	0.3508838
183	0xbefb3392	-0.49062783
184	0x3b9b45d0	0.004738547
185	0xbead898b	-0.33894
186	0x3f16a6d8	0.58848333
187	0x3ea04709	0.31304196
188	0xbd40be38	-0.047056407
189	0xbf2b9dce	-0.67037666
190	0x3d4e02f2	0.050295778
191	0xbea5a574	-0.32352793
192	0xbe15f401	-0.14643861
193	0xbf1de493	-0.616769
194	0x3e772738	0.24136055
195	0xbe825df0	-0.25462294
196	0xbcb5c10e	-0.022186782
197	0xbe5dc22d	-0.21656103
198	0x3e7f585a	0.24936047
199	0xbe9e5232	-0.30922085
200	0xbe56f7c3	-0.20992951
201	0xbe02a1d4	-0.12757045
202	0x3e0b0889	0.13577475
203	0x3d9d2939	0.07673878
204	0xbe83a0e2	-0.2570868
205	0x3e06ce7a	0.13164702
206	0x3d0f8b44	0.035044923
207	0x3e957ea6	0.29198188
208	0xbe4a5610	-0.19759393
209	0x3ddf2ab5	0.108968176
210	0xbe02d726	-0.12777385
211	0x3e6a4503	0.22877888
212	0xbeefd3b6	-0.4684121
213	0xbebe3a3c	-0.37153804
214	0xbe25ccd9	-0.16191424
215	0xbe9150dc	-0.28382003
216	0x3ccea1a4	0.02522356
217	0x3e32b50e	0.1745188
218	0x3da51708	0.080610335
219	0xbe952c2d	-0.29135266
220	0xbcee4df2	-0.029089902
221	0xbea54f0c	-0.3228687
222	0xbeba6192	-0.36402565
223	0xbecf12a7	-0.40443918
224	0xbcc001fe	-0.02343845
225	0xbed039e8	-0.4066918
226	0x3e44303e	0.19159028
227	0xbf201f8b	-0.6254813
228	0xbdafccfb	-0.08584019
229	0x3e88fdae	0.26756042
230	0xbe16dec9	-0.14733423
231	0x3e0c2c2c	0.13688725
232	0xbd62548e	-0.05525642
233	0xbe8b10a3	-0.2716113
234	0x3d2c61b5	0.04208537
235	0xbc963659	-0.018336462
236	0xbea411b9	-0.3204477
237	0x3e4996c9	0.19686426
238	0x3db204b4	0.08692303
239	0xbd7183f3	-0.058963727
240	0x3db8ebdc	0.090293616
241	0xbf122bc4	-0.5709803
242	0xbe56e0a4	-0.20984131
243	0xbeeebbed	-0.4662775
244	0x3e1a4097	0.15063702
245	0xbe9595a4	-0.2921573
246	0xbeb0db2a	-0.3454221
247	0xbe5b88dc	-0.21438926
248	0x3d87482f	0.06605565
249	0xbefa060f	-0.48832747
250	0xbf3863dc	-0.72027373
251	0xbdab10f6	-0.083528444
252	0xbe5e20f2	-0.21692255
253	0xbebeea3e	-0.37288088
254	0xbe3ccd77	-0.18437754
255	0xbe914efd	-0.28380576

feature.weight_ih_l0_reverse f4 [512, 64]
0	0xbef40ce4	-0.47666085
1	0xbf44b019	-0.76831204
2	0xbf1895ed	-0.5960377
3	0xbec5c0d3	-0.38623676
4	0xbf857e1a	-1.0429108
5	0x3f05f39d	0.5232485
6	0xbefe92f1	-0.49721482
7	0x3eacb0bf	0.33728597
8	0x3d3e1c47	0.046413686
9	0xbe50a98d	-0.20377178
10	0xbd97096d	-0.07374845
11	0x3eb2e668	0.3494141
12	0x3fb29d64	1.3954282
13	0x3e1c17df	0.15243481
14	0x3f475a33	0.7787201
15	0x3d570c17	0.052501764
16	0x3f1201ab	0.57033795
17	0xbeb264df	-0.34842584
18	0x3e814dba	0.25254613
19	0x3f835cee	1.0262735
20	0x3f1d1e13	0.61374015
21	0x3e81e71d	0.25371638
22	0xbd644775	-0.05573221
23	0x3eeae337	0.45876476
24	0xbeaad5bf	-0.333662
25	0xbe4ad983	-0.19809537
26	0xbe6ae1cd	-0.22937699
27	0xbf5b6505	-0.8570102
28	0xbe513e28	-0.20433867
29	0x3dfd1aa3	0.12358596
30	0x3edec4fa	0.43509656
31	0xbd618550	-0.055058777
32	0xbe0591a7	-0.13043843
33	0x3e1dc68b	0.1540777
34	0xbeb8c9bd	-0.36091414
35	0x3eebeeca	0.4608062
36	0x3ec1a720	0.3782282
37	0x3f39be51	0.72556025
38	0xbec57cfa	-0.38571912
39	0xbf366521	-0.7124806
40	0x3eda9e28	0.4269879
41	0x3f25da36	0.6478609
42	0xbe8928d8	-0.26788974
43	0xbf0972b6	-0.5369066
44	0x3e90b642	0.28264052
45	0xbe5fe120	-0.21863222
46	0x3e941fae	0.2893042
47	0xbeb0c808	-0.34527612
48	0x3d9f45db	0.07776996
49	0x3c974c43	0.018468982
50	0xbf8434a1	-1.0328561
51	0x3d898caf	0.067162864
52	0xbdaca333	-0.08429565
53	0xbe896bf4	-0.26840174
54	0x3f0d68df	0.55238146
55	0xbe2544d1	-0.16139533
56	0xbf0c123a	-0.5471531
57	0xbf844c83	-1.033585
58	0x3e10bb9d	0.14134069
59	0xbcacffdc	-0.021118097
60	0x3f786312	0.9702617
61	0xbf91af7c	-1.1381679
62	0xbec555d1	-0.38542035
63	0x3e6b0386	0.22950563
64	0xbde4c5c9	-0.11170537
65	0x3f259472	0.64679635
66	0xbca01a81	-0.019543888
67	0xbde8818a	-0.113528326
68	0x3f2f846f	0.6856145
69	0xbeafe32e	-0.34353012
70	0xbf0179be	-0.5057639
71	0x3e643c0d	0.22288533
72	0xbea32a96	-0.31868428
73	0xbe8d9c11	-0.27658132
74	0xbdaf22b8	-0.08551544
75	0x39fb93fe	0.00047984713
76	0x3e225b6f	0.15855192
77	0xbebf8822	-0.3740855
78	0xbeded065	-0.43518367
79	0xbf4db6a4	-0.8035681
80	0xbf98a20f	-1.1924456
81	0x3eeca3ce	0.46218723
82	0xbf11b5c7	-0.56917995
83	0x3f4c8a89	0.7989889
84	0xbc999678	-0.018748507
85	0x3e74dcac	0.23912305
86	0xbe8c670e	-0.27422374
87	0x3f1d3556	0.6140951
88	0x3be3f3eb	0.0069565675
89	0x3e297df9	0.16551961
90	0x3ef7cb0d	0.48397103
91	0x3f28bb13	0.6591045
92	0xbe7f9b41	-0.24961568
93	0xbeadfb58	-0.33980823
94	0x3f358b42	0.70915616
95	0x3f1c8160	0.6113491
96	0xbe278794	-0.16360313
97	0x3e43796c	0.19089288
98	0x3fb3fd0e	1.4061601
99	0x3e2ae4f6	0.16688904
100	0x3e8f4577	0.27982685
101	0xbdd7e81e	-0.1054232
102	0x3e9dfde6	0.30857772
103	0xbdb41a46	-0.08794074
104	0x3ee3e715	0.4451224
105	0x3eeb45c3	0.4595166
106	0x3f5d7cf7	0.86518806
107	0xbe2e4223	-0.17017417
108	0x3ee3e660	0.445117
109	0xbed56011	-0.41674855
110	0x3de3df7a	0.11126609
111	0x3d01ec1e	0.03171932
112	0xbe8feeba	-0.2811182
113	0xbef07e78	-0.46971488
114	0x3f258878	0.6466136
115	0xbf6ef2a1	-0.9333897
116	0xbd13ff89	-0.03613237
117	0x3db584a3	0.08863189
118	0x3ec25d17	0.37961647
119	0x3ebda8d3	0.37042865
120	0x3de52221	0.1118815
121	0x3f0f1f29	0.5590692
122	0xbc9777a9	-0.018489676
123	0x3eeea355	0.46608987
124	0xbe5c6e8c	-0.21526545
125	0x3f16e4bd	0.58942777
126	0x3f9b41d7	1.2129468
127	0x3ed52195	0.41627184
128	0x3e96d9ee	0.29463142
129	0xbfba3293	-1.4546684
130	0xbe2ba366	-0.1676155
131	0x3e9353d7	0.28774902
132	0x3f2d7c25	0.67767555
133	0x3fba5aa9	1.4558917
134	0xbecfa069	-0.4055207
135	0x3e905bb5	0.28194967
136	0x3f57ed74	0.843467
137	0x3fd4842e	1.6602838
138	0x3ec4b5cf	0.3841996
139	0xbe83d7be	-0.25750536
140	0xbeb9f3e3	-0.36318883
141	0xbe91a40c	-0.2844547
142	0x3ffc7539	1.9723274
143	0xbdb4446c	-0.08802113
144	0xbf046ae0	-0.5172558
145	0x3e3871e1	0.18012191
146	0x3d31f212	0.043443747
147	0xbea70d55	-0.3262736
148	0xbe1b70b6	-0.15179715
149	0x3e36378f	0.17794631
150	0x3e573c32	0.21019056
151	0xbf1b9635	-0.6077607
152	0xbefaf791	-0.49017003
153	0x3df10001	0.11767579
154	0x3bfbfc10	0.0076899603
155	0x3fa661cc	1.2998595
156	0xbfce9ad9	-1.6141006
157	0xbf362588	-0.7115102
158	0x3d071fb5	0.032989223
159	0xbf8cd576	-1.1002643
160	0x3fa1026e	1.2578866
161	0xbebbbc8b	-0.36667284
162	0xbf8df7d7	-1.109126
163	0xbf21992b	-0.6312434
164	0xbeaf6ef6	-0.34264344
165	0x3e4c72fd	0.1996574
166	0x3fb7229e	1.4307439
167	0x3d416cc6	0.047222875
168	0x3da98895	0.08278004
169	0x3e7aeb11	0.24503733
170	0x3f852b18	1.0403776
171	0x3f148f16	0.5803083
172	0xbe4673ba	-0.19380084
173	0xbef65694	-0.4811293
174	0x3f893b1a	1.0721161
175	0x3fb66b55	1.4251505
176	0xbe84348e	-0.25821346
177	0xbf4700aa	-0.7773539
178	0x3e05a5b9	0.130515
179	0x3e71fbdc	0.23631233
180	0x3f33dc48	0.70258
181	0xbeb1f2e6	-0.3475563
182	0x3ebea5ba	0.37235814
183	0x3e5a59b1	0.21323277
184	0x3fe75988	1.8074198
185	0xbfdde96c	-1.733686
186	0x3eadf336	0.33974618
187	0x3e63c47d	0.22242923
188	0x3e9a3ef7	0.30126163
189	0x3e4b38c4	0.19845873
190	0xbe87f25d	-0.26552096
191	0xbe3e1c70	-0.18565536
192	0x3ec3756d	0.38175526
193	0xbe615bff	-0.2200775
194	0xbe35b1c4	-0.17743593
195	0xbf11069e	-0.5665072
196	0xbd7742a5	-0.06036629
197	0x3f407002	0.7517091
198	0xbf14d165	-0.5813201
199	0xbec73187	-0.38904974
200	0xbd53cff1	-0.05171198
201	0xbecf58bc	-0.40497386
202	0xbed6210d	-0.4182209
203	0x3e423985	0.18967254
204	0x3f07f0ee	0.53102005
205	0x3f1c64db	0.61091393
206	0xbdb73cdc	-0.08947155
207	0xbdb950e4	-0.09048632
208	0x3f83d051	1.0297948
209	0x3f6352d0	0.88798237
210	0xbcd9a4f1	-0.026567908
211	0x3dae727e	0.085179314
212	0x3e652548	0.22377503
213	0xbd758966	-0.059945486
214	0x3da41f3a	0.080137685
215	0xbe6a0ffc	-0.2285766
216	0xbecfdc64	-0.40597832
217	0xbfab4c8a	-1.3382733
218	0x3de86641	0.113476284
219	0xbf011232	-0.5041839
220	0x3e323d39	0.17406167
221	0x3e3af61e	0.18257949
222	0x3e88c974	0.26716197
223	0x3e363e85	0.17797287
224	0xbea61615	-0.32438722
225	0xbf7a0026	-0.97656476
226	0xbf60e7b4	-0.8785355
227	0xbdd7a1e3	-0.10528924
228	0x3e14f5f5	0.1454695
229	0x3e1395de	0.14412639
230	0xbda76a3b	-0.08174559
231	0x3ed1afbf	0.40954396
232	0x3e72f525	0.23726328
233	0x3eb6a807	0.3567507
234	0x3ed473f3	0.41494712
235	0xbe28d00b	-0.16485612
236	0xbf272ccb	-0.65302724
237	0x3f16e143	0.5893747
238	0xbf8d9955	-1.1062418
239	0xbd89a93a	-0.067217305
240	0x3f0d55f7	0.55209297
241	0x3f6a79e0	0.91592216
242	0xbdd9c396	-0.10633008
243	0x3d675a61	0.056482676
244	0x3f95cea2	1.1703684
245	0xbe72d314	-0.23713332
246	0xbe2aaf78	-0.16668499
247	0x3f5e8532	0.8692199
248	0x3f880748	1.0627222
249	0xbeda7a77	-0.42671558
250	0xbee2927b	-0.4425238
251	0xbeca5ff5	-0.39526334
252	0xbf39dd56	-0.72603357
253	0xbf19c45c	-0.60065246
254	0xbf17ed7f	-0.59346765
255	0xbf714aaa	-0.94254553

feature.weight_hh_l0_reverse f4 [512, 128]
0	0x3efbc3c1	0.49172786
1	0x3e479247	0.19489394
2	0xbe2a89ad	-0.16654082
3	0xbe13214f	-0.14368175
4	0x3da48deb	0.08034881
5	0x3f292f54	0.6608784
6	0xbf2127a1	-0.62951094
7	0xbe8495ee	-0.25895637
8	0xbeb47e32	-0.3525253
9	0xbdc6853d	-0.09693382
10	0x3f2f8d8a	0.68575346
11	0xbf2b25f1	-0.6685477
12	0xbd205e32	-0.03915233
13	0x3e2f8802	0.17141727
14	0xbdc1bfda	-0.09460421
15	0x3ecb83f9	0.39749125
16	0x3d876635	0.06611291
17	0x3f2a645c	0.66559386
18	0xbc8e91a8	-0.017403439
19	0xbd540002	-0.05175782
20	0x3dd5518d	0.10415945
21	0xbea92764	-0.33037865
22	0xbe80a0df	-0.25122735
23	0xbeaf67d9	-0.34258917
24	0x3f25d2ff	0.6477508
25	0x3e93acec	0.28842866
26	0xbece0955	-0.40241495
27	0x3efc4cb8	0.49277282
28	0xbdb11443	-0.08646443
29	0x3e5708e1	0.20999481
30	0xbef08636	-0.46977395
31	0x3f3809cb	0.7188994
32	0x3e15a98b	0.14615457
33	0x3eab8d17	0.3350608
34	0xbeb1020a	-0.34571868
35	0xbda862d1	-0.08221973
36	0x3d8b89f2	0.0681342
37	0xbe3814a9	-0.17976631
38	0x3de783d6	0.113044426
39	0x3e5ebe64	0.21752316
40	0x3e8ea5ad	0.27860776
41	0x3dd51cd4	0.10405889
42	0x3e170c02	0.14750674
43	0x3d8f0772	0.06983842
44	0xbbaa857e	-0.005203902
45	0x3e01b87a	0.12668028
46	0x3eba8adc	0.36434066
47	0xbf1ae5c0	-0.6050682
48	0x3e0d59f2	0.13803843
49	0xbed15080	-0.4088173
50	0x3eabb83d	0.33539
51	0xbe5b615a	-0.21423855
52	0xbe2962f1	-0.1654165
53	0x3ed12a2a	0.4085248
54	0xbeb13955	-0.34614053
55	0xbf0add37	-0.542438
56	0xbe899b88	-0.26876473
57	0xbe9da4b2	-0.30789715
58	0x3ec6ec83	0.3885232
59	0x3e6c46bb	0.23073857
60	0xbde5ef89	-0.11227328
61	0x3dd10c1d	0.102073886
62	0xbebcc4a8	-0.36868787
63	0xbeab9b84	-0.33517087
64	0xbee8995c	-0.45429504
65	0xbecccd38	-0.4000032
66	0x3bd4848e	0.0064855283
67	0x3ce3112e	0.027718153
68	0x3ae8136c	0.0017705983
69	0xbf1a6590	-0.6031122
70	0x3f332cad	0.69990045
71	0x3e1c18cc	0.15243834
72	0xbc6132b3	-0.013744998
73	0xbdb9e9bf	-0.09077787
74	0xbf3e2c2e	-0.7428616
75	0xbdc945a0	-0.09827733
76	0x3d9c27d5	0.07624785
77	0x3e4ff923	0.20309882
78	0x3e02ef8e	0.12786695
79	0x3e78dc7c	0.24302858
80	0x3f18556a	0.5950533
81	0xbeebb3c0	-0.46035576
82	0x3eb5aaae	0.3548178
83	0xbe6438bc	-0.22287267
84	0xbdd9ca7f	-0.10634326
85	0xbe4ee7a2	-0.20205548
86	0x3d04de17	0.032438364
87	0xbee8ac75	-0.45444074
88	0xbecacb2e	-0.3960814
89	0xbc912ffc	-0.017723076
90	0xbe8f6662	-0.280078
91	0xbcdd003c	-0.02697765
92	0x3f99ddc8	1.2020807
93	0xbe45f712	-0.19332531
94	0xbdd4d923	-0.10392978
95	0x3dc5e4ec	0.09662804
96	0x3d922a12	0.071369305
97	0xbde1061b	-0.10987493
98	0x3c706de1	0.014674635
99	0xbe64c48a	-0.22340599
100	0xbeba4c7e	-0.36386484
101	0xbecef54d	-0.40421525
102	0xbec9cbc7	-0.39413282
103	0x3d11facf	0.03563958
104	0xbe22c57b	-0.15895645
105	0x3dca3c2b	0.098747574
106	0x3d9d445e	0.07679056
107	0x3d6ac76e	0.057319097
108	0xbe1d8c94	-0.15385658
109	0x3eeadde0	0.45872402
110	0xbf24fac4	-0.6444514
111	0xbeb3ca66	-0.35115355
112	0xbe8be939	-0.27326372
113	0xbe810f29	-0.2520688
114	0x3f373188	0.71559954
115	0xbeb3350a	-0.35001403
116	0xbd682092	-0.056671686
117	0xbe8c3d44	-0.27390492
118	0x3e993378	0.2992208
119	0xbf0347fb	-0.5128171
120	0x3da23f2b	0.079222046
121	0xbee486dc	-0.4463414
122	0x3e93eade	0.28890127
123	0xbe748c9e	-0.23881766
124	0x3ee8cdd8	0.45469546
125	0x3d71d144	0.059037462
126	0x3eb81a49	0.35957554
127	0x3e22f22b	0.15912692
128	0xbef5315e	-0.47889227
129	0x3e8bb1fb	0.27284226
130	0x3ee85655	0.45378366
131	0xbe370296	-0.1787208
132	0x3f2383f0	0.63873196
133	0x3f14ff3f	0.58201975
134	0x3e3e3891	0.18576266
135	0x3ed25d72	0.41086918
136	0x3ef6564d	0.48112717
137	0xbed73356	-0.42031354
138	0xbf85c4ea	-1.0450718
139	0x3f0712cb	0.5276305
140	0xbea3093f	-0.31842992
141	0xbd93a80b	-0.07209786
142	0xbec740e8	-0.38916707
143	0x3e83bc33	0.25729522
144	0x3e393132	0.18085173
145	0x3e6457a8	0.22299063
146	0xbf1b0562	-0.6055509
147	0xbd2dcea0	-0.04243338
148	0x3e0c7638	0.13716972
149	0x3dc1051b	0.09424802
150	0x3ec7ca47	0.39021513
151	0x3e72d147	0.23712645
152	0x3d836529	0.06415779
153	0xbe231631	-0.15926434
154	0xbef280d5	-0.47363916
155	0xbe7051a7	-0.23468648
156	0xbe57dab0	-0.21079516
157	0xbd60804f	-0.054809865
158	0x3f29cbb7	0.6632647
159	0x3e864536	0.2622468
160	0xbe0d213c	-0.13782209
161	0xbf6582b0	-0.8965254
162	0x3c91ddfb	0.017806044
163	0xbd3933c9	-0.0452154
164	0x3e5cb469	0.21553196
165	0x3e748911	0.23880412
166	0x3d72e5b8	0.059301108
167	0xbf073304	-0.5281222
168	0x3da698e0	0.08134627
169	0xbf1765c9	-0.59139687
170	0x3f59f91e	0.8514575
171	0x3d8f19dc	0.06987354
172	0xbc0895fd	-0.008336541
173	0x3f15e625	0.585543
174	0xbe2d5928	-0.16928542
175	0xbca6f219	-0.020379113
176	0xbe9bbb3d	-0.3041629
177	0xbdaf4f39	-0.085600324
178	0x3e91e225	0.28492847
179	0x3cc60c08	0.024175659
180	0x3e007d96	0.12547907
181	0xbebbf7ad	-0.367124
182	0xbf0e8343	-0.5566904
183	0x3e8c0b9f	0.27352616
184	0xbee352ad	-0.44399014
185	0x3f123a12	0.5711986
186	0x3f4ed398	0.80791616
187	0x3bc99dd4	0.006152848
188	0x3e630946	0.22171506
189	0x3eae1fe7	0.34008715
190	0x3e8ada92	0.2711988
191	0xbec14b18	-0.37752604
192	0x3e9d5bc4	0.30734074
193	0x3dfd09aa	0.12355359
194	0x3ee8469f	0.4536638
195	0x3efbe018	0.49194407
196	0xbf9b3482	-1.2125399
197	0x3dbd4008	0.092407286
198	0x3ee2a2c2	0.442648
199	0xbe97d357	-0.29653427
200	0xbea2705d	-0.3172635
201	0xbe44318b	-0.19159524
202	0xbd7e1496	-0.06203135
203	0xbe5466f5	-0.207424
204	0x39b1a4aa	0.00033882755
205	0x3f00f68f	0.5037622
206	0x3f05311f	0.5202808
207	0x3e3bfe10	0.18358636
208	0x3f0d596e	0.55214584
209	0x3ea1bf13	0.3159109
210	0xbee5b48e	-0.44864315
211	0x3e39cf12	0.18145397
212	0x3db3a447	0.08771568
213	0x3e93a080	0.2883339
214	0xbdf3cb32	-0.11903991
215	0x3c877c78	0.016538844
216	0x3dae0901	0.08497811
217	0x3ccaa031	0.024734588
218	0x3f09210f	0.5356607
219	0xbeb931c0	-0.3617077
220	0xbe6aec41	-0.22941686
221	0xbd410e31	-0.047132675
222	0xbed0261f	-0.40654084
223	0x3d825235	0.06363336
224	0xbf317641	-0.69321066
225	0x3e788f56	0.24273428
226	0xbe68e465	-0.22743376
227	0xbe538cf5	-0.2065924
228	0x3ed8ef7e	0.42370218
229	0x3dfcab5c	0.12337372
230	0xbf289faf	-0.6586866
231	0xbeb9f071	-0.36316255
232	0x3e947a7d	0.289997
233	0xbe401fb1	-0.1876209
234	0xbeaa3902	-0.33246619
235	0x3f06fbaa	0.5272776
236	0xbb516a09	-0.003195407
237	0xbeb14db3	-0.34629592
238	0x3eb64e35	0.35606542
239	0xbe2b12a3	-0.16706328
240	0xbdc01f85	-0.09381012
241	0xbc4f302e	-0.012645764
242	0xbf61203f	-0.8793983
243	0xbeede9fa	-0.46467572
244	0xbd8761d1	-0.06610454
245	0x3ea937e0	0.33050442
246	0xbd05e507	-0.03268912
247	0xbe89a0d0	-0.26880503
248	0x3de20a73	0.11037149
249	0xbe94b599	-0.29044798
250	0x3d100846	0.03516414
251	0xbe43dda8	-0.19127524
252	0xbe7458bf	-0.23861979
253	0x3f384f39	0.71995884
254	0xbdd48203	-0.1037636
255	0x3ec8f793	0.39251384

feature.bias_ih_l0_reverse f4 [512]
0	0x3d8547ac	0.06507811
1	0x3e83b7f7	0.25726292
2	0x3dd981ff	0.10620498
3	0xbea6a4c3	-0.32547578
4	0xbdb623b8	-0.088935316
5	0x3d4d2a87	0.050089385
6	0x3e90d0d7	0.28284332
7	0x3c9d641d	0.019212777
8	0x3e40bf7e	0.18823048
9	0x3e9452bb	0.28969368
10	0x3effc03e	0.49951357
11	0xbdb26661	-0.087109335
12	0xbe4055b6	-0.18782696
13	0x3ef01612	0.46891838
14	0xbd323b9d	-0.043513883
15	0x3e35bf87	0.17748843
16	0xbe7c31c4	-0.24628359
17	0xbd4b203d	-0.04959129
18	0x3d88dc87	0.06682687
19	0xbe110a09	-0.14163984
20	0x3e54781d	0.20748945
21	0x3e5a7e7c	0.21337312
22	0xbdc82fee	-0.09774767
23	0x3da6ae2c	0.081386894
24	0x3e2bbd60	0.1677146
25	0xbe3b9013	-0.18316679
26	0xbe4d063a	-0.20021906
27	0xbe796ba1	-0.24357463
28	0x3dbeed20	0.09322572
29	0x3f062ce8	0.5241227
30	0xbdc8744e	-0.09787808
31	0x3efbf615	0.49211183
32	0xbe7c148a	-0.2461721
33	0xbed2bdaf	-0.41160342
34	0x3eb39f3b	0.3508242
35	0x3e84b10f	0.25916335
36	0x3f48d455	0.7844899
37	0xbe633147	-0.22186767
38	0xbe4e2bc7	-0.20133887
39	0x3d43e9ec	0.047830507
40	0xbdb0c0d9	-0.08630533
41	0x3df198c8	0.11796719
42	0x3e040a6f	0.12894605
43	0x3a3330b8	0.0006835568
44	0x3e9678a2	0.2938891
45	0xbdb4b9cb	-0.088245
46	0x3e82baae	0.2553305
47	0x3e58d5ab	0.21175258
48	0xbea3fac1	-0.32027248
49	0xbe91556f	-0.28385493
50	0xbec08151	-0.3759866
51	0x3e0c7d09	0.13719572
52	0x3db32756	0.08747737
53	0xbc8a816c	-0.016907416
54	0x3eea8647	0.4580557
55	0x3ce35eef	0.027755229
56	0xbb4b6bc2	-0.003103957
57	0x3d64d489	0.05586675
58	0xbced25a7	-0.028948618
59	0x3e35db12	0.1775935
60	0xbe555666	-0.2083374
61	0xbe4ffccb	-0.20311277
62	0x3e5f0132	0.217778
63	0xbee31ab9	-0.44356325
64	0x3e37cce9	0.17949261
65	0x3e132d6e	0.14372799
66	0xbe21ba66	-0.15793762
67	0x3eb7742b	0.35830817
68	0xbe29146f	-0.16511701
69	0xbd470170	-0.048585355
70	0x3e892ca1	0.26791862
71	0xbe870842	-0.26373488
72	0xbe117eae	-0.1420848
73	0xbe184d59	-0.14873256
74	0x3ddb083d	0.10694931
75	0x3f079d76	0.5297464
76	0xbe2de461	-0.16981651
77	0x3e0a4730	0.13503718
78	0x3dc30fe8	0.09524518
79	0xbeae88e4	-0.34088814
80	0x3ad7c12a	0.0016460766
81	0x3e4b4cfa	0.19853583
82	0x3e58cfab	0.21172969
83	0x3ed03168	0.40662694
84	0xbdeadb19	-0.11467571
85	0x3eacaf0c	0.337273
86	0x3ddea1df	0.10870718
87	0x3dfc94e9	0.1233309
88	0xbccd7b53	-0.02508322
89	0x3a011848	0.00049245777
90	0x3ed215dd	0.41032305
91	0xbdd98efb	-0.106229745
92	0x3dd9e312	0.10639013
93	0x3e9176f6	0.28411072
94	0x3ebd4b3a	0.36971456
95	0xbda016eb	-0.07816871
96	0x3e8bf753	0.2733713
97	0x3e050e1c	0.12993664
98	0x3e493840	0.19650364
99	0xbeb9553b	-0.36197838
100	0xbe8f4682	-0.2798348
101	0xbdd1fb23	-0.10252979
102	0xbd99bc66	-0.07506637
103	0x3f240ed7	0.64085144
104	0xbe5afe68	-0.21386111
105	0x3e45655e	0.1927695
106	0xbd6ddb9f	-0.058070775
107	0x3f019c1b	0.50628823
108	0x3e224b72	0.15849093
109	0x3e2635d4	0.16231471
110	0x3e47a11b	0.1949505
111	0x3f2b0c87	0.6681599
112	0xbe890664	-0.26762688
113	0xbe93b67b	-0.2885016
114	0x3d55343c	0.052051768
115	0xbd8efa43	-0.069813274
116	0xbe35b5ca	-0.17745128
117	0x3e33e492	0.17567661
118	0x3e20f2ef	0.15717672
119	0x3f160f7c	0.5861738
120	0x3e4f3e41	0.20238592
121	0x3f7dee5f	0.9919185
122	0xbe4edc25	-0.20201166
123	0x3eebf3e6	0.46084517
124	0xbe1ec4c2	-0.15504745
125	0x3da81a42	0.08208133
126	0xbed52b3d	-0.4163455
127	0x3e777ac7	0.2416793
128	0x3d3abf1f	0.045592424
129	0x3cbd387f	0.023098228
130	0xbd00c86b	-0.031441133
131	0x3e8dccbb	0.2769526
132	0xbe6930d9	-0.2277254
133	0xbed4a80d	-0.41534463
134	0xbe671dd3	-0.22569971
135	0xbe414928	-0.18875563
136	0xbe4094f8	-0.18806827
137	0xbce3b96c	-0.027798377
138	0xbe0c8571	-0.13722779
139	0xbf17484d	-0.590947
140	0xbe5847e2	-0.21121171
141	0xbecf834b	-0.40529856
142	0xbe9e5d27	-0.30930445
143	0x3c96ad40	0.018393159
144	0x3ee0bd3f	0.43894383
145	0xbd928013	-0.071533345
146	0xbe8496b6	-0.25896233
147	0xbef099c5	-0.46992317
148	0xbea3b09d	-0.31970683
149	0x3e9044bc	0.2817744
150	0x3cf2271f	0.02955967
151	0x3d22ce5a	0.039747573
152	0xbe3df032	-0.18548658
153	0xbea21822	-0.31659037
154	0xbeb7110a	-0.35755187
155	0x3e29b05d	0.16571184
156	0xbe227213	-0.15863828
157	0x3ed8a975	0.42316785
158	0x3ef30074	0.47461283
159	0xbf05dd24	-0.5229056
160	0x3ebaa104	0.3645097
161	0x3ebb4fcf	0.36584327
162	0xbf00faf1	-0.50382906
163	0xbc62b593	-0.013837236
164	0x3d262e4f	0.040571507
165	0x3d9ae5cf	0.07563364
166	0x3d72804f	0.059204396
167	0x3dc3f2b7	0.095677786
168	0xbe4e55c5	-0.20149906
169	0x3ead1caa	0.3381093
170	0x3e0c361f	0.1369252
171	0xbeb98006	-0.36230487
172	0xbecb562f	-0.3971419
173	0x3e360a94	0.17777473
174	0xbe86e7cf	-0.2634873
175	0xbd086566	-0.033299826
176	0xbe328fc6	-0.17437658
177	0x3e92f71c	0.28704154
178	0xbe926fc2	-0.2860089
179	0x3eb11764	0.34588158
180	0xbd5213d8	-0.051288456
181	0xbe6a872e	-0.2290313
182	0x3ef54227	0.47902033
183	0xbced98bc	-0.029003493
184	0xbe8670e1	-0.26257995
185	0xbe71f500	-0.23628616
186	0xbe958063	-0.29199514
187	0x3e203744	0.15646082
188	0x3f02f943	0.51161593
189	0xbf19ba39	-0.6004978
190	0x3debf9a6	0.11522226
191	0x3de6078e	0.1123191
192	0xbe99738d	-0.2997097
193	0xbf0301bc	-0.5117452
194	0x3d5fa4ce	0.05460053
195	0xbd2bd5ef	-0.04195207
196	0xbe10aa36	-0.1412743
197	0x3e0f0c60	0.13969564
198	0xbdd6d2eb	-0.10489448
199	0x3f1cf4b5	0.61310893
200	0xbdaead77	-0.085291795
201	0x3ce928c4	0.028461821
202	0x3f678131	0.90431505
203	0xbeb391e8	-0.35072255
204	0x3e38110c	0.17975253
205	0xbdb34de4	-0.08755091
206	0xbd2144f6	-0.039372407
207	0xbc212f04	-0.00983787
208	0xbe609bd7	-0.21934448
209	0xbd85cb54	-0.065329224
210	0x3e997b01	0.29976657
211	0x3e0356f6	0.12826142
212	0xbe78e682	-0.24306682
213	0xbecf3083	-0.404667
214	0x3d6b74d2	0.057484455
215	0x3ea4257f	0.32059857
216	0x3f1a81d9	0.6035438
217	0x3e94f73c	0.29094875
218	0xbdf0b742	-0.11753704
219	0x3d1eb3b7	0.03874561
220	0xbecbd1f3	-0.39808616
221	0xbe871496	-0.26382893
222	0x3f0647d7	0.5245337
223	0xbca205ba	-0.019778121
224	0xbea5fb8a	-0.32418472
225	0xbe121ef3	-0.14269619
226	0xbd65958b	-0.05605082
227	0x3f5acc56	0.8546804
228	0x3e29bdf3	0.16576366
229	0xbe816102	-0.25269324
230	0xbe3e3d1f	-0.18578003
231	0xbe322e61	-0.17400505
232	0x3e354149	0.17700686
233	0x3ea04cc8	0.3130858
234	0x3dc8d8a9	0.0980695
235	0xbee40c01	-0.44540408
236	0xbe8e3b41	-0.27779582
237	0x3f118497	0.5684294
238	0xbedc4f14	-0.43029082
239	0xbeec5ae2	-0.46163088
240	0x3b7ba8d2	0.0038400185
241	0xbcac41b2	-0.02102742
242	0x3d0f5e32	0.03500194
243	0xbdcd9216	-0.10037629
244	0x3dce4155	0.10071055
245	0xbc5ebf8d	-0.013595474
246	0xbe02e16c	-0.12781304
247	0xbdbc5e40	-0.09197664
248	0xbe9a56a7	-0.30144235
249	0xbed0bb01	-0.40767673
250	0x3ea3431d	0.3188714
251	0x3f2547e1	0.64562804
252	0x3e36f919	0.1786846
253	0x3ed79803	0.42108163
254	0x3e489d69	0.19591297
255	0xbf0c23c6	-0.54742086
