logs/classifier/79_contexts/fold_02/10-17-2022_10-53-19/model_params.pth (torch, 822087 bytes, 10 tensors)

feature.weight_ih_l0 f4 [512, 64]
0	0xbe09b6d5	-0.13448651
1	0xbf941cfb	-1.1571344
2	0xbdf1ec18	-0.118126094
3	0x3ebfbfd3	0.37451038
4	0x3cba97b1	0.02277741
5	0xbf18a56e	-0.59627426
6	0x3f6f387c	0.93445563
7	0xbdee5a4c	-0.116383165
8	0x3e8e1f4d	0.27758256
9	0xbf0fdcbd	-0.56196195
10	0xbe8ec459	-0.27884176
11	0xbf26f9eb	-0.65225095
12	0xbe9f04d3	-0.31058368
13	0xbd1cd87a	-0.038292386
14	0x3f5e6434	0.8687165
15	0x3f4cb555	0.7996419
16	0x3e06b091	0.13153292
17	0xbd944115	-0.07238976
18	0xbd8c886e	-0.068619594
19	0x3eb73877	0.35785267
20	0x3faa25f2	1.329283
21	0xbf24e28a	-0.6440817
22	0xbea38848	-0.31939912
23	0x3e8bea52	0.2732721
24	0xbe65abf3	-0.22428875
25	0x3f68d769	0.9095369
26	0x3e5e199b	0.21689455
27	0xbed5a379	-0.41726282
28	0xbf19bdd7	-0.600553
29	0x3f44687a	0.7672192
30	0xbf52503c	-0.8215368
31	0x3dded451	0.1088034
32	0x3d5e447d	0.054264534
33	0xbf1b09b0	-0.60561657
34	0x3e5f4875	0.21804984
35	0xbf831e15	-1.0243555
36	0x3e8e3638	0.2777574
37	0x3fa0a483	1.2550205
38	0xbe51d2f1	-0.20490624
39	0x3f901abf	1.1258162
40	0xbeb5aa06	-0.3548128
41	0xbf0c2c0e	-0.5475472
42	0x3f9cb729	1.2243396
43	0x3de571d9	0.11203355
44	0x3ed99eb5	0.42503896
45	0x3f08ad91	0.5338984
46	0x3efc32bb	0.49257454
47	0x3f168517	0.5879683
48	0x3b81321c	0.003942741
49	0x3f506541	0.814045
50	0xbd45e3f2	-0.04831309
51	0xbe44f2d0	-0.1923325
52	0x3f5ff0d5	0.87476856
53	0x3f5c097b	0.85951966
54	0x3f318ad3	0.69352454
55	0xbc9a24bb	-0.018816343
56	0xbeb00335	-0.34377447
57	0x3eabc43e	0.33548158
58	0x3f39c872	0.7257148
59	0x3c44caf4	0.012011278
60	0xbd84743b	-0.06467482
61	0x3e80f42f	0.25186297
62	0xbd52ade2	-0.05143536
63	0xbfce5cf7	-1.6122121
64	0xbe47ecd8	-0.19523942
65	0xbd54171d	-0.051779855
66	0xbc9a64a4	-0.018846817
67	0x3d71367e	0.05888986
68	0xbf7fcf8c	-0.99926066
69	0x3cfb6497	0.030687613
70	0xbe20fadd	-0.15720697
71	0xbbabe880	-0.005246222
72	0xbd4cad10	-0.049969733
73	0xbe7ea013	-0.24865751
74	0xbe00e900	-0.12588882
75	0xbe0cd1ba	-0.1375188
76	0x3e3b4ff9	0.18292226
77	0xbeb8ac3b	-0.360689
78	0xbea937fb	-0.33050522
79	0xbe0211db	-0.12702124
80	0xbe04f2eb	-0.12983291
81	0xbede6b66	-0.43441314
82	0xbc1467a1	-0.00905791
83	0xbe46fec9	-0.1943313
84	0x3db3ab25	0.087728776
85	0xbe9cbf7f	-0.3061485
86	0x3eb8ae97	0.360707
87	0x3d5eafb6	0.05436679
88	0x3e445b62	0.19175485
89	0xbe85e66b	-0.26152357
90	0x3df8ccac	0.12148413
91	0xbe4ebcc1	-0.20189191
92	0x3e31ae93	0.17351751
93	0xbe87280b	-0.26397738
94	0x3d6e5588	0.058187038
95	0xbcb5356f	-0.022120206
96	0x3c95ad78	0.018271193
97	0xbe1090fd	-0.14117809
98	0x3ec0dcb2	0.37668377
99	0x3c0ad044	0.008472506
100	0xbc067f27	-0.008209026
101	0xbec12ca6	-0.37729377
102	0x3ef2cbb0	0.47421026
103	0xbea31815	-0.3185431
104	0xbe0cf96a	-0.13767019
105	0xbde01095	-0.10940663
106	0xbeafcc48	-0.34335542
107	0xbe0dbf98	-0.13842618
108	0x3b90abbb	0.004415003
109	0x3e98246d	0.2971529
110	0xbdff8e05	-0.1247826
111	0xbcf3acf5	-0.029745558
112	0xbd90d805	-0.070724525
113	0xbc93bcd3	-0.018034374
114	0xbd66da28	-0.056360394
115	0xbdbaf433	-0.091286086
116	0x3e3f5a91	0.18686892
117	0x3e911062	0.28332812
118	0x3c05e16e	0.008171422
119	0xbed5afd6	-0.41735715
120	0xbbb706f9	-0.005585548
121	0xbe313920	-0.17306948
122	0xbbf62c3d	-0.007512598
123	0xbe8602d5	-0.26174036
124	0x3e8867de	0.26641744
125	0xbdf13eeb	-0.11779579
126	0x3e0dc099	0.13843001
127	0x3e957270	0.2918887
128	0xbde93c2a	-0.113884285
129	0x3f06ccfb	0.52656525
130	0x3e08024c	0.13282126
131	0x3e11c308	0.14234555
132	0x3e1cff5b	0.15331785
133	0xbe95b9d0	-0.29243326
134	0xbea7e2ed	-0.32790318
135	0x3eb59b21	0.35469916
136	0xbd3ab5dc	-0.04558359
137	0xbca945ba	-0.020663131
138	0x3ebedbd2	0.37277085
139	0xbc51d7a6	-0.012807762
140	0x3ea625e2	0.32450777
141	0x3d88b62a	0.0667537
142	0xbd850290	-0.064946294
143	0xbe3c4440	-0.1838541
144	0x3e963ada	0.29341775
145	0xbf26642d	-0.64996606
146	0x3e09edd0	0.13469625
147	0x3f0af7e4	0.542845
148	0x3e0b50b6	0.13605008
149	0xbe6fa440	-0.234025
150	0xbe3e6320	-0.185925
151	0xbe863dcb	-0.2621902
152	0x3db9eef1	0.090787776
153	0x3ef8664d	0.4851555
154	0x3f173967	0.59071964
155	0xbe709078	-0.2349261
156	0x3ca49b7f	0.020093678
157	0x3e9510dc	0.29114425
158	0xbeaadaa3	-0.33369932
159	0x3eb01102	0.34387976
160	0xbe3cef4c	-0.1845066
161	0xbe740152	-0.23828629
162	0x3cf9df38	0.030501947
163	0x3f2cfa2e	0.67569244
164	0x3e9e677e	0.30938333
165	0x3e2981c7	0.16553412
166	0xbf3319b0	-0.6996107
167	0x3e650b3f	0.22367571
168	0x3e824d49	0.2544959
169	0xbf64fc2f	-0.894473
170	0x3ecc5226	0.39906424
171	0x3e9a7b09	0.30171993
172	0x3ab89c05	0.0014084583
173	0x3f23e698	0.64023733
174	0x3e006c27	0.12541257
175	0xbec4f0de	-0.38465017
176	0x3e87e7c1	0.26544002
177	0x3d613868	0.054985434
178	0xbe5dd690	-0.2166388
179	0x3ea1896d	0.3155016
180	0x3d8aa3b6	0.06769507
181	0x3dc299bc	0.09501979
182	0xbecfca96	-0.40584248
183	0x3e72fc05	0.2372895
184	0xbeec6a8f	-0.46175048
185	0xbeb2f25b	-0.34950528
186	0xbee900f9	-0.45508555
187	0x3e735dc2	0.23766235
188	0xbe505986	-0.2034665
189	0xbe8e3cca	-0.27780753
190	0xbd708f28	-0.058730274
191	0x3ec18bfb	0.3780211
192	0x3e9988a4	0.2998706
193	0xbf2a1d4e	-0.66450965
194	0x3f00deba	0.50339854
195	0x3e8a7eaf	0.27049777
196	0xbfae988d	-1.3640305
197	0xbdfe14f6	-0.12406342
198	0x3f48d037	0.7844271
199	0xbebd3479	-0.36954096
200	0x3ee32312	0.44362694
201	0xbeda7269	-0.42665413
202	0x3eed0e9e	0.46300215
203	0x3f6f1471	0.93390566
204	0xbedd3480	-0.43204117
205	0xbdd4b3c0	-0.10385847
206	0xbd95076c	-0.07276806
207	0x3dc4d98e	0.09611808
208	0x3f5053db	0.81377953
209	0x3ec79562	0.38981158
210	0xbe5ba9b8	-0.21451461
211	0xbf1b32da	-0.6062447
212	0x3e2191df	0.15778302
213	0xbe2e0596	-0.16994318
214	0xbe83d9ea	-0.25752193
215	0xbdaa636c	-0.083197445
216	0x3f9abc5c	1.2088733
217	0x3d2ec3dc	0.042667255
218	0xbf2de2d9	-0.6792427
219	0x3f065c01	0.52484137
220	0xbf169a08	-0.58828783
221	0xbf3e8d9a	-0.74434817
222	0x3f830e4e	1.023874
223	0x3f288019	0.6582046
224	0x3e0ec202	0.13941196
225	0xbf27d668	-0.6556153
226	0xbe5a1723	-0.21297888
227	0xbe8135e5	-0.2523643
228	0x3daf9cec	0.08574852
229	0xbe88e18c	-0.2673458
230	0xbe2a4f2e	-0.16631767
231	0xbf1985dd	-0.59969884
232	0xbbc864ee	-0.0061155474
233	0xbe1a7bde	-0.15086314
234	0x3efbc66e	0.49174827
235	0x3f1a3b43	0.60246676
236	0xbe9edd21	-0.31028083
237	0xbd348fe0	-0.044082522
238	0xbeadb098	-0.33923793
239	0xbfc56b72	-1.5423415
240	0x3d8075a0	0.06272435
241	0xbea724fe	-0.3264541
242	0x3b151d6e	0.0022753137
243	0x3f7fc966	0.99916685
244	0x3b8cd5e1	0.0042979573
245	0x3e9c0088	0.30469155
246	0xbd933e5e	-0.0718963
247	0x3eaf6f79	0.34264734
248	0x3f8c236f	1.0948313
249	0xbd3f3eb3	-0.046690654
250	0xbefe75a1	-0.4969912
251	0x3e8e9cc4	0.27853978
252	0xbf149302	-0.58036816
253	0x3ed477e1	0.4149771
254	0xbd77d830	-0.060508907
255	0x3e721fe1	0.23644973

feature.weight_hh_l0 f4 [512, 128]
0	0x3f749354	0.95537305
1	0xbe8a1839	-0.26971605
2	0x3e532066	0.20617828
3	0x3e264c6c	0.1624009
4	0xbee63e7a	-0.4496954
5	0xbf8bc226	-1.0918624
6	0x3e82f662	0.255786
7	0xbf446720	-0.76719856
8	0xbecefd9c	-0.40427864
9	0x3e51164c	0.20418662
10	0x3f3f4561	0.7471524
11	0x3ec07435	0.3758866
12	0x3f221c05	0.63324004
13	0xbf345612	-0.7044383
14	0xbf244017	-0.64160293
15	0x3ec7e18d	0.3903927
16	0xbf886170	-1.0654736
17	0xbe301eba	-0.17199221
18	0x3f1948ae	0.59876525
19	0xbe56d523	-0.20979743
20	0x3ea4fc16	0.32223576
21	0xbe89052c	-0.26761758
22	0x3f227c19	0.6347061
23	0xbe3cf389	-0.18452276
24	0x3d7087da	0.05872331
25	0xbf8af9f8	-1.0857534
26	0xbf17ff13	-0.5937359
27	0x3eaee2ad	0.34157315
28	0x3f2b9c56	0.67035425
29	0xbf2411a5	-0.64089423
30	0x3edf72b6	0.43642205
31	0x3e92467b	0.28569397
32	0x3ef9e771	0.48809388
33	0xbee76ff6	-0.45202607
34	0x3f15bdd2	0.5849277
35	0x3e6ae6b8	0.22939575
36	0xbeb7314f	-0.35779807
37	0xbd9fc7e4	-0.07801798
38	0x3d039fbe	0.032134764
39	0x3dca10f3	0.09866514
40	0x3ec50418	0.38479686
41	0x3f396cab	0.7243144
42	0xbd7420b4	-0.0596015
43	0xbcdcfa3e	-0.026974794
44	0x3e096fda	0.13421574
45	0xbde5273c	-0.11189124
46	0xbf2a05d6	-0.66415155
47	0xbf5928b0	-0.8482771
48	0x3eade2e8	0.33962178
49	0x3dd925ef	0.106029384
50	0x3dd3673c	0.10322425
51	0x3f155095	0.58326083
52	0xbe160937	-0.14651953
53	0x3e9b1d6c	0.30295885
54	0x3d4606ea	0.048346438
55	0xbf2bb758	-0.67076635
56	0x3f0e949a	0.556955
57	0xbf5cc9fa	-0.8624569
58	0x3d0eec35	0.034893233
59	0x3e0b68f0	0.13614249
60	0xbec94c97	-0.39316246
61	0x3e88ac75	0.26694074
62	0x3ea81f6a	0.32836467
63	0x3c631cfe	0.013861893
64	0x3d95832f	0.07300412
65	0xbf64f494	-0.89435697
66	0xbe60c5af	-0.2195041
67	0x3f108406	0.5645145
68	0x3ec3581c	0.3815316
69	0xbe9dde41	-0.3083363
70	0xbeb4bc05	-0.35299698
71	0xbe6a5a79	-0.22886075
72	0xbe85162a	-0.25993472
73	0xbe3586ba	-0.17727175
74	0x3f15003e	0.58203495
75	0x3ec26d1b	0.37973866
76	0x3de62bbe	0.11238812
77	0x3f18cbb1	0.5968581
78	0xbe1501a3	-0.14551406
79	0x3deb502c	0.11489901
80	0xbf35dc64	-0.71039414
81	0xbd55b4c9	-0.052174363
82	0x3ef9234c	0.48659742
83	0x3ea4e7d0	0.3220811
84	0x3f62b07c	0.88550544
85	0xbf4abb64	-0.79192185
86	0xbf694a2d	-0.9112881
87	0xbf94df0c	-1.1630569
88	0x3f4881a0	0.7832279
89	0x3f2fd172	0.68678963
90	0x3fcaf805	1.585694
91	0x3e316f62	0.17327645
92	0xbf52a5cf	-0.82284254
93	0x3e83bc11	0.2572942
94	0x3e0d5973	0.13803653
95	0x3f9124b5	1.1339327
96	0xbd298561	-0.041386966
97	0xbd81052e	-0.06299816
98	0x3e562b56	0.20914969
99	0x3e5db8c5	0.21652515
100	0x3f7c9fdf	0.98681444
101	0x3d928830	0.07154882
102	0xbeea7253	-0.45790347
103	0x3ef2bc9e	0.47409528
104	0xbe95bef3	-0.29247245
105	0x3ea9b4aa	0.33145648
106	0xbf9601d8	-1.1719313
107	0x3ff62338	1.9229498
108	0xbe928926	-0.2862026
109	0x3e4c05b4	0.1992405
110	0x3ede0bfa	0.43368512
111	0xbf5bad6e	-0.8581151
112	0xbf26fa95	-0.6522611
113	0xbeaac459	-0.33352926
114	0xbf0d3800	-0.55163574
115	0x3e935d2d	0.28782025
116	0xbf0aff32	-0.5429565
117	0xbf2ed103	-0.68287677
118	0x3f2e6664	0.68124986
119	0x3f2421e7	0.6411423
120	0x3ed1950f	0.40934035
121	0xbe8844a0	-0.26614857
122	0xbf4ad9fe	-0.7923888
123	0x3ee3195b	0.44355282
124	0xbf1c699d	-0.61098653
125	0xbeb424ef	-0.35184428
126	0xbf601532	-0.8753234
127	0x3e9fded2	0.31224686
128	0xbee95761	-0.45574477
129	0xbe208860	-0.15677023
130	0x3e89e70d	0.2693409
131	0xbdaf5a9f	-0.085622065
132	0xbdd126f2	-0.10212506
133	0xbeb927bc	-0.36163127
134	0x3efc218c	0.49244344
135	0x3ebd4e0a	0.36973602
136	0x3dca1bba	0.0986857
137	0xbe1f4964	-0.1555534
138	0xbb3bf86f	-0.0028682014
139	0xbe8d5217	-0.27601692
140	0xbe3d2a42	-0.18473151
141	0xbe1b6fd2	-0.15179375
142	0x3e90fb68	0.28316808
143	0xbe1c5e6c	-0.15270394
144	0xbe901962	-0.28144366
145	0x3f045956	0.51698816
146	0x3d1d134d	0.038348485
147	0x3e16d8f0	0.14731193
148	0x3d884462	0.06653668
149	0xbe511d3a	-0.20421305
150	0x3e7b4026	0.2453619
151	0xbf0b675b	-0.5445458
152	0xbd8e9298	-0.06961554
153	0xbdcecbe1	-0.100974806
154	0x3cd1f2ec	0.02562853
155	0xbdd5e76b	-0.1044453
156	0xbde1c080	-0.110230446
157	0x3db84e11	0.08999265
158	0xbd8eccd7	-0.06972664
159	0xbe4e52d7	-0.20148788
160	0x3d150acb	0.036387246
161	0xbe50979e	-0.20370337
162	0xbef749f0	-0.48298597
163	0x3eaed309	0.34145382
164	0x3df9f414	0.12204757
165	0xbc137104	-0.008999113
166	0x3dd5a0c6	0.10431056
167	0xbec1ab4d	-0.37826005
168	0xbe9d15ea	-0.30680782
169	0xbe0e1a0e	-0.13877127
170	0x3dfb89b1	0.12282122
171	0xbe22d10d	-0.15900059
172	0x3df69f8d	0.12042151
173	0x3e55d708	0.20882809
174	0xbee2b2b3	-0.44276962
175	0xbe7bd882	-0.2459431
176	0x3d9316bf	0.07182073
177	0xbef5db60	-0.48018932
178	0x3e56fede	0.20995662
179	0x3de45650	0.11149275
180	0x3d9e049e	0.077157244
181	0xbd32d760	-0.04366243
182	0x3dbc0fbf	0.09182691
183	0xbe814f91	-0.25256017
184	0x3e500485	0.20314224
185	0x3da273d2	0.07932247
186	0x3e5c9f8d	0.21545239
187	0x3ed7151b	0.4200829
188	0xbe72bb95	-0.2370437
189	0x3d235f1c	0.039885625
190	0x3f055bfa	0.5209347
191	0xbe5508aa	-0.20804086
192	0x3d8741fd	0.06604383
193	0xbd16ec57	-0.036846485
194	0x3bc19fd5	0.005908946
195	0xbe4d9d74	-0.20079595
196	0xbdec2928	-0.115312874
197	0xbe86fdd3	-0.26365528
198	0x3ed3e423	0.41384992
199	0x3d767de6	0.06017866
200	0xbf129c00	-0.5726929
201	0xbd888dad	-0.066676475
202	0xbef39bb6	-0.47579736
203	0x3d0142ef	0.031557973
204	0x3d91f4b8	0.071267545
205	0x3e596343	0.21229272
206	0xbe172f02	-0.14764026
207	0x3ef90fcd	0.48644868
208	0xbdf80a58	-0.12111348
209	0x3e828f52	0.2549997
210	0xbed73690	-0.42033815
211	0xbe5a88ff	-0.21341322
212	0xbe61a917	-0.22037159
213	0x3f298ead	0.6623333
214	0xbe12021f	-0.14258622
215	0x3ef08e58	0.469836
216	0x3f408c8f	0.75214475
217	0xbda03f57	-0.07824581
218	0xbee54ff7	-0.4478757
219	0xbdaa4593	-0.083140515
220	0xbede9f45	-0.43480888
221	0xbb38e79c	-0.0028214222
222	0xbd91a6aa	-0.07111867
223	0x3d97c1a5	0.07409982
224	0x3d68edbc	0.056867346
225	0xbc4f05d0	-0.012635663
226	0x3ee7a43a	0.45242482
227	0xbe277508	-0.16353238
228	0xbf1c451b	-0.61042947
229	0xbf260cd9	-0.64863354
230	0xbf11efaf	-0.57006353
231	0x3d4d7d54	0.05016835
232	0xbe94ae5b	-0.29039273
233	0x3e895cb6	0.26828545
234	0x3f0e40eb	0.55567807
235	0xbdd249b4	-0.10267964
236	0xbe95fb6b	-0.2929338
237	0x3eae3da9	0.34031418
238	0xbeb1551a	-0.3463524
239	0xbf11bb2e	-0.5692624
240	0xbcd250c9	-0.025673287
241	0x3eda33a6	0.4261753
242	0x3e17fcd2	0.14842537
243	0xbef29b6f	-0.4738421
244	0xbebde63a	-0.3708971
245	0xbdf4b22f	-0.11948048
246	0x3e5d6221	0.21619464
247	0x3d12bb77	0.03582331
248	0x3e63ca23	0.22245078
249	0x3d3eb2f8	0.046557397
250	0x3ed46cf1	0.41489366
251	0xbdc7e27a	-0.09759994
252	0x3bdb3510	0.006689675
253	0xbef00f2f	-0.46886584
254	0xbcf4fc03	-0.029905325
255	0x3cf52319	0.029923962

feature.bias_ih_l0 f4 [512]
0	0x3e8e447e	0.2778663
1	0xbd550a07	-0.052011516
2	0x3f09d752	0.5384418
3	0x3c01f8de	0.00793287
4	0xbe534fc7	-0.20635901
5	0x3d229268	0.039690405
6	0xbecd7410	-0.4012761
7	0x3e95820d	0.29200783
8	0xbe9dae04	-0.30796826
9	0x3f0ddd4a	0.55415785
10	0x3dc5a0d5	0.09649817
11	0x3acdc45a	0.0015698776
12	0x3ebbbaa9	0.36665848
13	0x3e8222e3	0.2541724
14	0x3ea6ecbf	0.32602498
15	0xbeb59105	-0.35462204
16	0xbf01d1fb	-0.5071103
17	0xbe8c3424	-0.2738353
18	0xbe29ff4b	-0.16601293
19	0xbe310c75	-0.17289908
20	0x3eb20648	0.34770417
21	0x3d3f66b2	0.046728797
22	0xbd2d03d2	-0.04223997
23	0xbe868be1	-0.26278594
24	0x3e6ba3c8	0.23011696
25	0x3b05775f	0.002036534
26	0xbc68fbe8	-0.014220215
27	0x3d8a0d28	0.067407906
28	0x3e73ab9c	0.23795933
29	0x3e5c22da	0.2149767
30	0xbe18221a	-0.14856759
31	0xbeac3bc1	-0.3363934
32	0xbe03c9e0	-0.12869978
33	0x3b15c531	0.002285313
34	0xbe6da0df	-0.23205899
35	0x3eb62524	0.3557521
36	0x3e83b2c5	0.25722328
37	0x3e89717f	0.26844403
38	0x3eaa12a8	0.3321736
39	0xbe81a9e4	-0.2532493
40	0x3e7353df	0.23762463
41	0x3ef94d56	0.48691815
42	0x3e9f6525	0.31131855
43	0xbea09f4d	-0.31371537
44	0xbe29cd51	-0.16582228
45	0xbee3cff5	-0.44494596
46	0x3daed891	0.085374005
47	0x3d84f694	0.064923435
48	0xbe4855a3	-0.19563918
49	0xbe94b52d	-0.29044476
50	0xbe779bd7	-0.24180542
51	0x3eafea13	0.34358272
52	0xbe41607f	-0.18884467
53	0xbe8a8994	-0.2705809
54	0x3ee2746a	0.44229442
55	0xbdcf3361	-0.101172216
56	0xbcc7e72f	-0.02440223
57	0x3e924a5f	0.28572366
58	0x3f833afd	1.0252377
59	0xbc26d222	-0.0101819355
60	0xbea31454	-0.31851447
61	0x3e998cfd	0.29990378
62	0x3dc62541	0.09675074
63	0xbe5f36bf	-0.21798228
64	0x3dcfcb7a	0.10146232
65	0x3e74c7ed	0.2390439
66	0x3d878b5b	0.06618377
67	0xbd9d5c9c	-0.076836795
68	0xbe4083d6	-0.18800291
69	0x3de92a39	0.113850065
70	0x3e76bd7d	0.24095722
71	0x3e416382	0.18885615
72	0x3eac546e	0.33658165
73	0x3e9dc1e9	0.30812004
74	0xbe2db568	-0.16963732
75	0x3e29c22c	0.16577977
76	0x3e95bae2	0.29244143
77	0x3eaae492	0.3337751
78	0x3dc7f838	0.09764141
79	0xbed38e11	-0.41319326
80	0xbdb50823	-0.088394426
81	0x3e5582a6	0.2085062
82	0xbe95dac0	-0.29268456
83	0x3e601227	0.21881925
84	0xbe152d19	-0.14567985
85	0x3d6cc1a2	0.05780185
86	0xbe7527fc	-0.23941034
87	0x3db238d5	0.08702246
88	0xbe02363c	-0.12716001
89	0xbd441956	-0.047875725
90	0x3dcf4e5c	0.10122368
91	0xbd94be43	-0.07262852
92	0x3d259453	0.040424656
93	0x3e626d12	0.2211192
94	0xbdc36314	-0.09540382
95	0xbe41d676	-0.18929467
96	0xbe06f561	-0.13179542
97	0x3e59aa22	0.21256307
98	0x3d190bb8	0.03736469
99	0x3e13edcf	0.14446186
100	0x3e7d6a5b	0.24747603
101	0x3e7d56f6	0.24740204
102	0xbe912154	-0.2834574
103	0xbe81ef80	-0.25378036
104	0x3bf7f5b1	0.0075671305
105	0x3de56250	0.11200392
106	0x3f3599c8	0.70937777
107	0x3d9d4dc0	0.07680845
108	0x3e12147e	0.1426563
109	0x3e934ba6	0.28768653
110	0x3d7d57c2	0.06185127
111	0x3ebc56b5	0.36784902
112	0x3f0f7c57	0.560491
113	0x3e888da1	0.26670554
114	0x3df59dda	0.119929984
115	0xbec950db	-0.393195
116	0xbe789e04	-0.24279028
117	0xbeb9e9a6	-0.36311072
118	0x3e19a392	0.15003803
119	0x3e9d215b	0.3068951
120	0x3ebef6e7	0.37297747
121	0x3e9600db	0.29297528
122	0xbaf9732b	-0.0019031515
123	0xbcabe39c	-0.020982556
124	0x3e5de713	0.21670179
125	0xbd8decce	-0.069299325
126	0xbd997d1b	-0.07494565
127	0x3f1c8d51	0.6115313
128	0xbebdd7b0	-0.3707862
129	0xbe89fee0	-0.26952267
130	0x3db12ff3	0.08651724
131	0x3e2e53e1	0.17024185
132	0xbf03a353	-0.5142109
133	0x3de227a9	0.11042721
134	0xbe0d18c3	-0.13778977
135	0xbe85d421	-0.26138404
136	0xbdd5f630	-0.10447347
137	0xbe25581d	-0.16146894
138	0xbeb6ca99	-0.35701445
139	0xbe6dce93	-0.23223333
140	0xbc1850c4	-0.0092966
141	0xbe0e4be9	-0.13896145
142	0x3e13d96d	0.1443841
143	0x3c3373ae	0.010952873
144	0x3ea305ea	0.3184045
145	0x3e7bfae3	0.24607424
146	0xbcaae869	-0.020862775
147	0xbea695dd	-0.32536212
148	0xbdb3cbed	-0.0877913
149	0x3c1c9a28	0.009558238
150	0x3e297911	0.1655009
151	0xbdbe2e6a	-0.092861965
152	0xbe395bac	-0.18101376
153	0xbdb83bdb	-0.089957915
154	0x3c74685c	0.014917459
155	0xbde27a3a	-0.11058469
156	0x3e8a1754	0.26970923
157	0x3e6a8f33	0.22906189
158	0xbdd8cc03	-0.10585787
159	0xbd0ea8da	-0.034829
160	0xbe235ab3	-0.15952568
161	0xbde477a4	-0.11155632
162	0xbe7fb95f	-0.24973057
163	0xbd65e3d8	-0.05612549
164	0xbe460309	-0.19337095
165	0x3d9baef0	0.07601726
166	0xbd094555	-0.033513386
167	0xbe5d6e47	-0.21624099
168	0xbe10ec27	-0.14152585
169	0xbeea3c04	-0.45748913
170	0xbe09ef68	-0.13470232
171	0xbe508bf5	-0.2036589
172	0xbd686a0c	-0.05674176
173	0xbeb706b2	-0.35747296
174	0xbbe049f6	-0.0068447543
175	0x3d4d9ec9	0.050200257
176	0xbe7d141b	-0.24714701
177	0xbe515b65	-0.2044502
178	0xbd73d8a0	-0.05953276
179	0xbee16c08	-0.44027734
180	0xbddc90e5	-0.10769824
181	0xbdd9d9b5	-0.106372274
182	0xbe22d84e	-0.15902826
183	0xbb2d30bb	-0.002642675
184	0xbe99be97	-0.3002822
185	0x3e7b79d0	0.24558187
186	0xbea37c46	-0.3193075
187	0xbd484bbd	-0.048900355
188	0xbe238f80	-0.1597271
189	0x3c6e1be0	0.014533013
190	0xbefcac6c	-0.49350297
191	0x3a42f3c0	0.0007436834
192	0x3d5fa983	0.05460502
193	0xbd555362	-0.052081473
194	0xbe9642e9	-0.29347923
195	0x3e1f614c	0.1556446
196	0xbdb98426	-0.090584084
197	0xbeaad5eb	-0.3336633
198	0x3d71f1c1	0.059068445
199	0x3e3a3b86	0.18186769
200	0xbe5064be	-0.2035093
201	0xbe1b5a32	-0.15171126
202	0xbe278796	-0.16360316
203	0x3dbcb1e9	0.09213621
204	0x3cce81df	0.025208412
205	0xbe86bf75	-0.26317945
206	0xbdf6d71b	-0.12052747
207	0xbe7074fa	-0.23482123
208	0xbe8d27a8	-0.27569318
209	0xbe82f02b	-0.2557386
210	0x3b8aa2a5	0.0042308145
211	0x3d9b7216	0.075901195
212	0xbdf133df	-0.11777472
213	0xbe450da2	-0.19243482
214	0xbdef88e4	-0.11696032
215	0xbec28843	-0.37994584
216	0xbe1f7ef5	-0.15575774
217	0x3ec446ff	0.38335416
218	0xbe751716	-0.23934588
219	0xbe2724d3	-0.16322641
220	0x3c5abdb8	0.013350897
221	0xbc9145ae	-0.017733421
222	0xbddfd20b	-0.109287344
223	0x3ed26870	0.41095304
224	0xbeb11447	-0.34585783
225	0x3db24d80	0.08706188
226	0xbe8e0b87	-0.2774317
227	0xbcb54d70	-0.022131652
228	0xbeb3aacc	-0.35091245
229	0xbc9d9086	-0.019233953
230	0xbed75cb9	-0.4206293
231	0xbe3d5762	-0.18490365
232	0x3d0a6c94	0.033794954
233	0xbe9cd250	-0.30629206
234	0xbe2eedf2	-0.17082956
235	0x3e45d97e	0.19321248
236	0xbe566136	-0.2093552
237	0x3d0469da	0.03232751
238	0x3e9beeac	0.3045553
239	0xbda005fc	-0.078136414
240	0xbea2ab46	-0.31771296
241	0xbe613f8b	-0.21996896
242	0x3ee52683	0.44755945
243	0x3dd0a488	0.10187632
244	0xbeac6186	-0.33668154
245	0xbe99a692	-0.30009896
246	0xbdb57e5f	-0.08861994
247	0xbd1a3d74	-0.037656263
248	0xbed4018d	-0.41407433
249	0xbda3915a	-0.07986708
250	0x3e87fb23	0.2655879
251	0x3db879fd	0.090076424
252	0xbe8073ff	-0.25088498
253	0xbe6cfce1	-0.2314334
254	0xbefe3fed	-0.49658147
255	0x3ddc1c16	0.107475445

feature.bias_hh_l0 f4 [512]
0	0x3e1f2bf3	0.15544109
1	0xbd5cacf0	-0.053875864
2	0x3f157932	0.58388054
3	0x3e1c5da6	0.15270099
4	0xbddf1c8c	-0.10894117
5	0x3d52cf9a	0.051467516
6	0xbec61183	-0.38685235
7	0x3eefebcc	0.46859586
8	0xbdb3bb32	-0.08775939
9	0x3f10c608	0.5655217
10	0xbd4e6a7c	-0.05039452
11	0x3cada2b5	0.021195749
12	0x3e874e3f	0.26426885
13	0x3e678e63	0.2261291
14	0x3eb94b47	0.36190245
15	0xbe84e19d	-0.2595338
16	0xbf06db1d	-0.5267809
17	0xbe531548	-0.20613587
18	0x3caac79e	0.020847138
19	0xbdcc4a0e	-0.09975062
20	0x3ed5030d	0.4160389
21	0x3d3a58e2	0.04549492
22	0xbd203ed1	-0.039122406
23	0xbe5268cb	-0.20547788
24	0x3edb1c6b	0.4279512
25	0xbd18c467	-0.03729668
26	0x3d8f0f9d	0.069854
27	0x3d4df7f3	0.05028529
28	0x3e9bae6d	0.30406514
29	0x3e9b560f	0.30339095
30	0xbe9e2545	-0.3088781
31	0xbeb69e86	-0.3566782
32	0xbe2e4db5	-0.1702183
33	0x3abc2aaf	0.0014355982
34	0xbe382f12	-0.17986706
35	0x3e84c5ce	0.25932163
36	0x3e920c1e	0.2852487
37	0x3e5f2a44	0.21793467
38	0x3eb456b9	0.35222414
39	0xbe146456	-0.144914
40	0x391b690e	0.00014821088
41	0x3f0735b4	0.5281632
42	0x3e34c4d8	0.17653215
43	0xbea79532	-0.32731014
44	0xbe5b932e	-0.21442863
45	0xbeda4379	-0.42629603
46	0x3c9d13e9	0.019174533
47	0xbd2adc1f	-0.04171383
48	0xbd82fd13	-0.06395926
49	0xbebe41d2	-0.37159592
50	0xbdfda9fa	-0.12385936
51	0x3edc5d3a	0.43039876
52	0xbe7f62cf	-0.24940036
53	0xbe2873ca	-0.1645042
54	0x3ec938d2	0.39301163
55	0xbd06ffe1	-0.03295887
56	0xbe1764b8	-0.14784515
57	0x3e7479a1	0.23874523
58	0x3f8aed4e	1.085367
59	0xbe45b181	-0.19305994
60	0xbee19c6d	-0.44064656
61	0x3e816700	0.25273895
62	0x3d8c5889	0.06852824
63	0xbeb7c4ad	-0.3589224
64	0x3e038475	0.12843497
65	0x3e89ec30	0.2693801
66	0xbcb4daef	-0.022077052
67	0xbd191c0e	-0.03738027
68	0xbd82ad55	-0.06380717
69	0x3e7d0557	0.24709068
70	0x3ea1461c	0.31498802
71	0x3e2f2dfb	0.17107384
72	0x3e85f450	0.26162958
73	0x3ec33dce	0.3813309
74	0xbdc2b0a1	-0.095063455
75	0x3e29a66f	0.16567396
76	0x3ef75697	0.4830825
77	0x3ebd2dbd	0.36948958
78	0x3e2d7394	0.16938621
79	0xbeefcfcd	-0.46838227
80	0xbc306b47	-0.010767764
81	0x3e35372f	0.17696832
82	0xbe8b3ee0	-0.27196407
83	0x3e72bcbf	0.23704813
84	0xbe6073cd	-0.21919174
85	0x3e00012c	0.12500447
86	0xbe9d406b	-0.3071321
87	0x3e49a70d	0.19692631
88	0xbd9a8a89	-0.07545955
89	0xbc46a905	-0.012125258
90	0x3e020254	0.126962
91	0xbc265cc8	-0.010153957
92	0x3e435255	0.19074376
93	0x3e7772ee	0.24164936
94	0x3c941973	0.018078541
95	0xbcbc2c0c	-0.022970222
96	0xbdb10732	-0.086439505
97	0x3e4b13c1	0.19831754
98	0xbb4fcaaa	-0.003170649
99	0x3e4a94b9	0.19783296
100	0x3e9996fd	0.29998007
101	0x3e646eb5	0.22307856
102	0xbe9a1047	-0.30090544
103	0xbe1f1a0f	-0.15537284
104	0xbe09e51f	-0.13466309
105	0x3e373fe5	0.17895468
106	0x3f100caf	0.56269354
107	0x3e44e7e9	0.19229092
108	0x3d9a7fe2	0.07543923
109	0x3eb8d1e6	0.3609764
110	0x3d5dce81	0.054152016
111	0x3f133e0b	0.57516545
112	0x3f062fdb	0.5241677
113	0x3e9f89d1	0.31159833
114	0x3de1fbad	0.110343315
115	0xbea64674	-0.32475626
116	0xbe5a3dbb	-0.21312611
117	0xbee7721e	-0.45204252
118	0x3e594ddc	0.21221107
119	0x3ecc5ed1	0.3991609
120	0x3e766b13	0.24064283
121	0x3e4567a1	0.19277813
122	0xbdc17900	-0.09446907
123	0x3bef7142	0.0073072026
124	0x3e62d677	0.22152124
125	0xbcbb7539	-0.022883045
126	0xbcd3b7c1	-0.025844457
127	0x3effa106	0.4992754
128	0xbea854fc	-0.32877338
129	0xbe6a647f	-0.22889899
130	0x3dc9d614	0.09855285
131	0x3e212ef5	0.15740569
132	0xbf146602	-0.5796815
133	0x3d496506	0.04916861
134	0xbdf6e2b5	-0.1205496
135	0xbeb4f3d1	-0.35342267
136	0xbd239079	-0.0399327
137	0xbe751066	-0.23932037
138	0xbe8fd7eb	-0.2809442
139	0xbdddc875	-0.1082925
140	0x3d8aa23c	0.06769225
141	0xbe256ac2	-0.16154006
142	0x3db1701b	0.086639605
143	0xbcb3e243	-0.021958476
144	0x3e9f3772	0.3109699
145	0x3e91035e	0.2832288
146	0x3cecf57e	0.028925654
147	0xbe8cadb7	-0.27476284
148	0xbe17e723	-0.14834265
149	0xbd5fcf1c	-0.054640874
150	0x3e2b77d0	0.16744924
151	0xbe1c2390	-0.15247941
152	0xbe1cf868	-0.15329134
153	0x3d45647d	0.048191536
154	0x3dca032a	0.09863885
155	0xbdcc02a7	-0.099614434
156	0x3e82e5a1	0.25565818
157	0x3e45e807	0.19326793
158	0xbe16506e	-0.14679119
159	0xbe047137	-0.12933813
160	0xbe208fa1	-0.1567979
161	0xbe2d2f0d	-0.1691248
162	0xbe7f43e7	-0.24928246
163	0xbe140907	-0.14456569
164	0xbe0d6361	-0.13807441
165	0x3e118d34	0.14214021
166	0xbd03eadf	-0.032206412
167	0xbe7563ca	-0.23963848
168	0x3c28667b	0.0102783395
169	0xbee8783c	-0.45404232
170	0xbe67eb8a	-0.22648445
171	0xbe30817e	-0.17236897
172	0xbd2d6e5d	-0.04234158
173	0xbe9ab7bb	-0.302183
174	0xbdba18d1	-0.090867646
175	0x3e13a520	0.14418459
176	0xbe5a9e16	-0.21349367
177	0xbd9d139f	-0.07669758
178	0xbddfb334	-0.10922852
179	0xbeb541e4	-0.35401833
180	0xbe1db007	-0.1539918
181	0xbdcd02ef	-0.10010325
182	0xbd6aca03	-0.05732156
183	0x3d626df2	0.055280633
184	0xbe8acbf7	-0.27108738
185	0x3e8e42b1	0.27785257
186	0xbe63bbae	-0.22239563
187	0xbda06dfa	-0.07833476
188	0xbe30ecc8	-0.17277825
189	0xbd08eb2a	-0.033427395
190	0xbf001d20	-0.5004444
191	0xbc6206fd	-0.013795611
192	0x3cb20710	0.021731883
193	0xbdd0d23a	-0.101963475
194	0xbe601d34	-0.2188614
195	0x3dd4ecf5	0.103967585
196	0xbd085280	-0.033281803
197	0xbe6a4d36	-0.22881016
198	0x3dfdf53d	0.12400291
199	0x3e661875	0.22470267
200	0xbe59b3c4	-0.21259981
201	0xbd44b526	-0.04802432
202	0xbe97d03d	-0.2965106
203	0x3dfe235b	0.12409087
204	0x3d157b79	0.036494706
205	0xbeaff26c	-0.3436464
206	0xbde2bfa0	-0.11071706
207	0xbe9e4ac8	-0.3091643
208	0xbefdcad1	-0.495688
209	0xbe3abeeb	-0.18236892
210	0x3c49b2af	0.012310668
211	0x3e032195	0.1280578
212	0xbe0b39f7	-0.1359633
213	0xbe0aa7e8	-0.13540614
214	0xbe664513	-0.22487287
215	0xbeb2cbbf	-0.3492107
216	0xbe659cc3	-0.22423081
217	0x3ead2bf7	0.33822605
218	0xbe8b063d	-0.27153197
219	0xbdd39a6a	-0.103321865
220	0x3d003958	0.031304687
221	0x3db8fb7d	0.090323426
222	0xbde4a6c1	-0.11164618
223	0x3ec30d1d	0.38095942
224	0xbe920079	-0.28515986
225	0x3e21b86a	0.15793005
226	0xbeb534c9	-0.35391834
227	0xbde06c4e	-0.109581575
228	0xbed07861	-0.40716842
229	0xbc67f642	-0.0141578335
230	0xbef08134	-0.46973574
231	0xbe46421b	-0.19361155
232	0xbe425d90	-0.18981004
233	0xbe8316b4	-0.2560326
234	0xbe646736	-0.22304997
235	0x3e60a8bb	0.21939366
236	0xbca274fa	-0.01983117
237	0xbd2d0f9c	-0.042251214
238	0x3eec9b64	0.46212304
239	0xbceb5baf	-0.028730242
240	0xbea10d90	-0.3145566
241	0xbe8ed2b3	-0.27895126
242	0x3e84aabf	0.2591152
243	0x3e92a584	0.28641903
244	0xbecc5178	-0.39905906
245	0xbf025803	-0.50915545
246	0xbd58f4cd	-0.052967835
247	0x3c924a58	0.017857715
248	0xbea3bb7c	-0.31978977
249	0xbe152d5d	-0.14568086
250	0x3e8e150c	0.27750432
251	0x3e1aab8e	0.15104505
252	0xbe17dcc2	-0.14830306
253	0xbe626cae	-0.2211177
254	0xbf02b85a	-0.5106255
255	0xbb7e1198	-0.003876781

feature.weight_ih_l0_reverse f4 [512, 64]
0	0xbe4ae7f6	-0.19815049
1	0x3e8826e6	0.26592177
2	0xbf39b4bf	-0.7254142
3	0x3f02a422	0.51031697
4	0xbf05b13c	-0.52223563
5	0xbddf572d	-0.10905299
6	0xbf0fb6b9	-0.5613819
7	0x3ec7bced	0.39011326
8	0x3e0c1f7f	0.1368389
9	0xbe1425aa	-0.14467493
10	0xbdd2f7df	-0.10301184
11	0xbea13ddb	-0.31492504
12	0x3f91bc50	1.1385593
13	0xbf1a4169	-0.6025606
14	0x3e80bafe	0.25142664
15	0xbedab6ae	-0.427175
16	0xbee7d939	-0.45282915
17	0xbe0d7623	-0.13814597
18	0x3ed91518	0.42398906
19	0xbea8a10d	-0.32935372
20	0x3e67cbb6	0.22636303
21	0x3ddbaf1b	0.10726758
22	0xbde7111d	-0.11282561
23	0x3f848852	1.0354102
24	0xbcdc16bd	-0.026866311
25	0x3efc3e79	0.49266413
26	0xbf935cb8	-1.151267
27	0xbe69a924	-0.22818428
28	0x3fa1512e	1.2602899
29	0xbe8677c6	-0.26263255
30	0x3e31f694	0.17379218
31	0x3fdd924d	1.7310272
32	0x3f1203a2	0.57036793
33	0xbdb34ced	-0.08754907
34	0xbe8c0f25	-0.27355304
35	0x3e97c3b1	0.29641488
36	0xbd52da3c	-0.051477656
37	0x3f4e08ef	0.8048238
38	0xbf37ae28	-0.71750116
39	0x3e60061a	0.21877328
40	0xbdc83b5f	-0.09776949
41	0x3f282b5d	0.6569117
42	0xbeda034e	-0.42580646
43	0x3e868460	0.2627287
44	0x3f2ebb84	0.68254876
45	0xbf09b1ed	-0.5378712
46	0xbea1b077	-0.31579944
47	0xbd4e220b	-0.050325435
48	0x3f0b0b7d	0.54314405
49	0x3e9af8f5	0.30268064
50	0x3f0f7dec	0.56051517
51	0xbd2a5aba	-0.04159043
52	0x3f035d58	0.51314306
53	0xbe8f84e4	-0.28031075
54	0xbea18e60	-0.31553936
55	0x3ff2bfcb	1.896478
56	0xbfa2ca02	-1.2717898
57	0xbd982407	-0.07428747
58	0x3f19cf83	0.6008226
59	0x3d0a8779	0.033820603
60	0x3e183195	0.14862664
61	0x3f31074b	0.69151753
62	0x3eb0e947	0.34552976
63	0xbf15e71d	-0.58555776
64	0xbedb8f65	-0.4288284
65	0xbe32c8be	-0.1745939
66	0xbf2880f3	-0.6582176
67	0x3f0b3195	0.5437253
68	0xbe793b6d	-0.24339075
69	0x3e48c466	0.1960617
70	0xbea5e2fd	-0.3239974
71	0xbecee932	-0.4041229
72	0x3f6109c1	0.8790551
73	0x3fcd2f1b	1.603
74	0xbf81b92e	-1.0134637
75	0x3ebe11ca	0.37122947
76	0xbf17abbc	-0.5924642
77	0x3f27de7e	0.6557387
78	0xbea46aea	-0.3211282
79	0xbf8fc49c	-1.1231875
80	0x3ea03bd9	0.3129566
81	0xbf88939e	-1.0670049
82	0x3f75afac	0.9597118
83	0xbe0de0e9	-0.13855328
84	0xbf481296	-0.7815336
85	0xbf173380	-0.5906296
86	0xbdd6f6d9	-0.10496301
87	0x3f046454	0.5171559
88	0x3f816ca3	1.0111278
89	0xbe0c0fc6	-0.13677892
90	0x3eb9969f	0.36247727
91	0xbf257e30	-0.6464567
92	0x3e9bdb36	0.30440682
93	0x3defea94	0.11714664
94	0x3ec257b7	0.37957546
95	0xbf3f1b5a	-0.7465111
96	0xbcf3c5a8	-0.029757336
97	0x3e8a15e6	0.26969832
98	0x3f66e779	0.9019695
99	0x3f348cc6	0.70527303
100	0x3cd5dca1	0.02610618
101	0x3fae0874	1.359633
102	0x3e7d178f	0.24716018
103	0x3f632ba7	0.88738483
104	0xbd7aabeb	-0.06119911
105	0x3f2ed0b3	0.682872
106	0xbf7d5ccd	-0.9896973
107	0x3de1776c	0.11009106
108	0x3e8d9deb	0.27659544
109	0xbf8c54e1	-1.0963403
110	0xbfab0447	-1.336068
111	0x3e852671	0.2600589
112	0xbe13ba34	-0.144265
113	0xbfab2006	-1.3369148
114	0x3e9dc7ad	0.30816403
115	0x3e3e125b	0.1856169
116	0xbe9b5f3a	-0.3034609
117	0x3f1df724	0.6170523
118	0x3e6c9acc	0.23105925
119	0xbe29739b	-0.16548006
120	0x3f48029a	0.7812897
121	0x3d0bac3b	0.0340998
122	0x3f1b455b	0.60652703
123	0xbf59b45c	-0.8504083
124	0xbda1a76e	-0.07893263
125	0x3ecce3ec	0.4001764
126	0x3d865f39	0.06561131
127	0x3ed24b45	0.4107305
128	0x3eaf19cb	0.34199366
129	0xbe008251	-0.12549712
130	0xbe84e75f	-0.25957772
131	0x3e8f4d9b	0.27988896
132	0xbde0c740	-0.10975504
133	0xbe2fc30e	-0.17164251
134	0x3f0b2f8c	0.54369426
135	0xbf2cf0d7	-0.6755499
136	0x3ea01ccc	0.3127197
137	0xbdd47671	-0.103741534
138	0x3e38bc26	0.18040523
139	0x3f36e00e	0.7143563
140	0xbf86101c	-1.0473666
141	0x3cdb758d	0.026789451
142	0xbed0ec1d	-0.4080514
143	0x3f17a978	0.59242964
144	0xb9e6e9e6	-0.00044043286
145	0xbbe17c18	-0.006881248
146	0x3efa8a65	0.48933712
147	0x3f0b92a3	0.54520625
148	0xbf06786b	-0.52527493
149	0x3e1c2ca0	0.15251398
150	0xbf0744a3	-0.52839106
151	0xbe841551	-0.25797513
152	0xbf5bec59	-0.8590751
153	0x3e2c0840	0.16800022
154	0xbed654f5	-0.41861692
155	0xbf4a2ccb	-0.789746
156	0xbe706922	-0.23477605
157	0xbf00eb35	-0.503589
158	0xbf1d8b4f	-0.61540693
159	0xbf0267db	-0.5093972
160	0x3cea877f	0.028629063
161	0x3eaba443	0.3352376
162	0x3ef584d5	0.47952905
163	0xbf2c996e	-0.67421615
164	0xbea0a3ea	-0.31375057
165	0xbea3e795	-0.3201262
166	0x3f4b0522	0.7930471
167	0x3f25cd0a	0.6476599
168	0xbe9343ce	-0.28762668
169	0x3ee1d7ad	0.4410986
170	0x3e0662b7	0.13123594
171	0x3ea52661	0.32255843
172	0x3e00db12	0.12583569
173	0xbedb29c1	-0.42805293
174	0x3f395f82	0.7241136
175	0x3edb32e8	0.42812276
176	0x3e600f0d	0.21880741
177	0xbf0a18c5	-0.53944045
178	0x3f7e6600	0.9937439
179	0x3f7473aa	0.9548899
180	0xbf98948b	-1.1920332
181	0xbefd36ff	-0.4945602
182	0x3ead0d8c	0.33799398
183	0x3c8619d2	0.016369734
184	0xbdc870c4	-0.09787133
185	0x3f82702b	1.0190481
186	0xbe5509f5	-0.2080458
187	0x3f9a3695	1.2047907
188	0xbd1a71bb	-0.037706118
189	0xbd30928f	-0.04310852
190	0xbe482651	-0.19545867
191	0x3e763bb7	0.24046217
192	0xbf446741	-0.7672005
193	0x3d1d707a	0.038437344
194	0xbe8ce16d	-0.27515736
195	0xbba43589	-0.0050112647
196	0xbf6b5e79	-0.9194103
197	0x3e1e4e53	0.15459566
198	0x3f3aa246	0.7290386
199	0xbefa3f69	-0.48876503
200	0xbf192741	-0.5982552
201	0xbee83d9e	-0.4535951
202	0xbe5202a0	-0.20508814
203	0xbfcdde3d	-1.6083447
204	0x3f3a351f	0.72737306
205	0x3f141db6	0.57857835
206	0x3ea1fcd6	0.3163821
207	0xbdc39c65	-0.09551314
208	0xbf84af4e	-1.0365999
209	0xbeb1e9ab	-0.34748587
210	0x3eae3412	0.34024101
211	0x3e865f7d	0.26244727
212	0xbeac253b	-0.33622155
213	0x3e5a68d7	0.21329056
214	0xbd767fa8	-0.060180336
215	0xbef9b470	-0.48770475
216	0x3ee0df6c	0.43920457
217	0xbf080086	-0.531258
218	0x3f500620	0.81259346
219	0x3b8205d6	0.003967981
220	0x3f525cc5	0.82172805
221	0xbea43ef0	-0.32079268
222	0x3d3cc39c	0.046084985
223	0xbe01fe85	-0.12694748
224	0x3f195414	0.5989392
225	0x3e1a6eea	0.15081373
226	0xbf209aae	-0.6273602
227	0x3f6158d7	0.88026184
228	0xbf192dde	-0.5983561
229	0x3f48c7cb	0.7842986
230	0x3df85857	0.121262245
231	0x3edc7516	0.4305808
232	0x3b799329	0.00380821
233	0xbee9c559	-0.45658377
234	0xbefcf5ec	-0.49406374
235	0x3f8dc431	1.1075498
236	0x3fb3bb3a	1.4041512
237	0xbef7f4a5	-0.48428836
238	0x3f01a119	0.5063644
239	0xbfa098f1	-1.2546674
240	0xbe1e226b	-0.15442817
241	0xbec4b470	-0.38418913
242	0xbf255f67	-0.645987
243	0xbf37227c	-0.71536994
244	0xbc81c142	-0.015839223
245	0xbeffa3cf	-0.49929664
246	0xbdd9ef13	-0.10641303
247	0xbf2d01e9	-0.6758104
248	0xbda85452	-0.08219208
249	0x3ef7acca	0.48374015
250	0x3f86a9e2	1.0520594
251	0xbf139257	-0.5764517
252	0x3f1ddd4f	0.61665815
253	0xbecaaaf9	-0.39583567
254	0x3e8ace54	0.2711054
255	0xbe7ca75e	-0.2467322

feature.weight_hh_l0_reverse f4 [512, 128]
0	0x3e8ccf76	0.2750203
1	0xbf1019d1	-0.5628939
2	0x3f43ab3d	0.76433164
3	0x3f45ba49	0.77237374
4	0x3e8f9df9	0.2805021
5	0x3f8190ca	1.0122311
6	0xbef3afe9	-0.47595146
7	0x3d48090f	0.048836764
8	0xbea7d522	-0.32779795
9	0xbd958da4	-0.073024064
10	0xbea3ef50	-0.32018518
11	0x3f4cf28b	0.8005759
12	0x3e5627f9	0.20913686
13	0xbf820d66	-1.0160339
14	0x3e84c1bc	0.25929058
15	0xbcce5e93	-0.02519158
16	0x3f0548a9	0.52063996
17	0xbf54f7e3	-0.83190745
18	0xbe3acad8	-0.18241441
19	0xbedc8b3b	-0.43074974
20	0xbc2953b1	-0.010334895
21	0x3df31018	0.11868304
22	0x3d35d83d	0.044395674
23	0x3f0f0b2d	0.5587643
24	0xbf358768	-0.7090974
25	0x3e14ba39	0.14524163
26	0xbf61d8ba	-0.88221323
27	0x3edb4758	0.42827868
28	0x3e09368c	0.13399714
29	0x3ee1d47e	0.4410743
30	0xbe66e10e	-0.22546789
31	0x3e2b4151	0.16724135
32	0x3e46432b	0.1936156
33	0xbcad1218	-0.021126792
34	0x3e139f9a	0.14416352
35	0x3e8e65ae	0.2781195
36	0x3f8e8e4c	1.1137176
37	0x3ee1ac91	0.4407697
38	0xbee90826	-0.4551403
39	0x3c2119c0	0.009832799
40	0x3f3902ad	0.7226971
41	0xbee7b621	-0.4525614
42	0x3e501aa8	0.20322669
43	0xbebe0e0a	-0.37120086
44	0x3de9e0aa	0.114198044
45	0xbea8a033	-0.32934722
46	0x3f6c946c	0.92413974
47	0x3e7aa4eb	0.24476974
48	0x3ee55d1f	0.44797608
49	0x3f33e5f6	0.7027277
50	0xbf0254d5	-0.50910693
51	0xbe28222e	-0.16419289
52	0xbcd39055	-0.025825659
53	0x3d1a138b	0.037616294
54	0x3daa0f09	0.08303649
55	0xbdfb8a54	-0.12282243
56	0xbdb97cd1	-0.0905701
57	0xbc878f2c	-0.016547762
58	0xbed1a535	-0.40946355
59	0x3d0aeb42	0.033915766
60	0xbf7977fe	-0.9744872
61	0xbe66b5fa	-0.22530356
62	0xbc5c1383	-0.013432386
63	0xbe3e3791	-0.18575884
64	0xbe914259	-0.28370932
65	0x3ca44ae8	0.02005525
66	0x3d411c7a	0.047146298
67	0x3e5a7075	0.21331961
68	0x3e4d50c1	0.20050336
69	0x3e8137d2	0.252379
70	0x3f5a555f	0.85286516
71	0x3e8122b5	0.25221792
72	0x3f7ea32f	0.9946775
73	0xbd679d25	-0.05654635
74	0xbeb85170	-0.35999632
75	0x3f13bf49	0.57713753
76	0xbe2f8ddc	-0.17143959
77	0xbe62e5a1	-0.22157909
78	0x3ec7dadc	0.39034164
79	0x3efdf1ae	0.4959845
80	0x3fa44156	1.2832439
81	0xbf66d96b	-0.90175503
82	0xbf181d91	-0.59420115
83	0xbe5af778	-0.21383464
84	0x3f0c7b0b	0.5487525
85	0x3efc76a9	0.4930928
86	0xbf664af8	-0.89958143
87	0xbe83f64b	-0.25773844
88	0xbe201138	-0.15631568
89	0xbfb986c6	-1.4494255
90	0x3bb30260	0.0054629296
91	0xbea86660	-0.32890606
92	0x3f91676e	1.1359689
93	0x3f98a0e0	1.1924095
94	0x3de4d0b5	0.1117262
95	0xbf13f39a	-0.5779358
96	0x3ebd14bc	0.36929882
97	0xbe101e57	-0.14074074
98	0xbee38c7a	-0.44443113
99	0xbf06c278	-0.52640486
100	0x3f028aec	0.5099323
101	0x3e2fdf08	0.17174923
102	0xbf07f015	-0.5310071
103	0x3e9ee99d	0.31037608
104	0xbeb7c8d9	-0.35895422
105	0x3e574177	0.21021067
106	0x3f02358f	0.50862974
107	0xbf4ae30b	-0.7925269
108	0x3dbc32c5	0.09189371
109	0xbdc0479f	-0.09388661
110	0x3e310281	0.17286111
111	0xbf04d9c5	-0.5189479
112	0x3e182b09	0.14860167
113	0x3edb237d	0.42800513
114	0x3fb4eb3a	1.4134285
115	0x3e21a660	0.15786123
116	0xbf2e828a	-0.68167937
117	0xbf037932	-0.51356804
118	0xbef13370	-0.47109556
119	0x3f4f8c87	0.810738
120	0xbf264ead	-0.649638
121	0xbdb335f8	-0.08750528
122	0xbe9386f0	-0.28813887
123	0xbe7621dc	-0.24036354
124	0xbe6b3650	-0.22969937
125	0xbf2e1c3a	-0.6801182
126	0x3e94e46d	0.29080525
127	0x3efba511	0.49149373
128	0x3e7d6dd1	0.24748923
129	0x3f2d9890	0.67810917
130	0xbf2e0c8a	-0.67987883
131	0x3d4f9dde	0.050687663
132	0xbe2954d2	-0.16536263
133	0x3f87131e	1.0552709
134	0xbf821032	-1.0161192
135	0xbf59c7a5	-0.8507026
136	0x3f014ab9	0.5050464
137	0x3daeb108	0.0852986
138	0x3f53e00c	0.82763743
139	0xbe8cc1a8	-0.27491498
140	0x3e69a2ba	0.22815982
141	0xbf40d21b	-0.75320596
142	0x3e1f3ead	0.15551253
143	0x3f0e3fcb	0.5556609
144	0x3e71008e	0.23535368
145	0x3f210028	0.62890863
146	0x3e148112	0.14502361
147	0xbf61fff5	-0.88281184
148	0x3eaa8ed1	0.33312085
149	0x3e9094f7	0.2823865
150	0xbf1a7509	-0.6033483
151	0xbf4e5b35	-0.8060792
152	0xbf8d5e15	-1.1044337
153	0xbca46f44	-0.020072587
154	0xbe98b08f	-0.29822204
155	0xbf72ab3c	-0.9479253
156	0xbb6bcd01	-0.0035980346
157	0x3e26a2a6	0.16272983
158	0x3f9b8ed2	1.215296
159	0x3f20cafb	0.62809724
160	0x3f515371	0.81767946
161	0x3f005c9e	0.5014132
162	0x3f3498d2	0.70545685
163	0x3f948a57	1.1604718
164	0xbebb48a7	-0.36578867
165	0xbf84ba1a	-1.0369294
166	0x3ead6a5c	0.33870208
167	0xbe9d0a61	-0.3067198
168	0x3f083f76	0.53221834
169	0x3ecb77e0	0.39739895
170	0x3f884b1b	1.064792
171	0xbe1fff65	-0.15624769
172	0xbf069c07	-0.5258183
173	0xbdb0d3a5	-0.08634118
174	0x3eb7a786	0.35869998
175	0xbe484d80	-0.19560814
176	0xbdcdfe9f	-0.10058331
177	0xbe7dc74f	-0.24783061
178	0xbfc7bcdd	-1.5604511
179	0xbf50558e	-0.81380546
180	0x3dce6fb2	0.10079898
181	0x3fa6b059	1.3022567
182	0x3e52dc1c	0.20591778
183	0xbd8cee8c	-0.06881437
184	0x3f619cd6	0.8812994
185	0xbe42dddf	-0.1902995
186	0xbec855c1	-0.39127925
187	0xbecec1c3	-0.40382203
188	0xbfaef1e2	-1.3667567
189	0x3f4f6510	0.81013584
190	0x3dedda36	0.11613886
191	0xbd1cc244	-0.038271204
192	0xbf1562a0	-0.58353615
193	0xbef88fc4	-0.48547184
194	0x3ea1a974	0.31574595
195	0x3f820c09	1.0159923
196	0xbc5be0a9	-0.013420262
197	0x3dd84114	0.10559288
198	0x3e2d1309	0.16901793
199	0x3ed73531	0.4203277
200	0xbcb90b25	-0.022588322
201	0x3e6c99f3	0.23105602
202	0x3ea528df	0.32257745
203	0x3d9e873f	0.0774064
204	0x3e2ca7da	0.16860905
205	0x3daad186	0.08340745
206	0xbe581c11	-0.21104456
207	0x3f00cae5	0.5030959
208	0x3f6b3681	0.9188004
209	0xbe378a4e	-0.17923853
210	0x3f428ae2	0.7599317
211	0x3eba3163	0.36365804
212	0xbf05bddc	-0.5224283
213	0xbe8b98a3	-0.2726489
214	0xbf0dcf7c	-0.5539472
215	0xbf37d9f9	-0.71816975
216	0xbfaa38c1	-1.329857
217	0xbf2d352e	-0.6765927
218	0x3e5d870a	0.21633545
219	0xbe14b64c	-0.14522666
220	0x3f238251	0.6387072
221	0xbec381db	-0.3818501
222	0xbf81c993	-1.013964
223	0x3fd161ec	1.6358008
224	0xbebb2f7f	-0.36559674
225	0x3f076f55	0.52904254
226	0x3f4ff96b	0.81239957
227	0xbf8d09fb	-1.1018671
228	0x3eea2140	0.45728493
229	0xbf0c59bd	-0.5482443
230	0x3e03a694	0.12856513
231	0xbef14ee0	-0.4713049
232	0xbe840837	-0.25787517
233	0xbf326da5	-0.69698554
234	0xbf0a8f99	-0.5412536
235	0xbf8194e1	-1.0123559
236	0x3ddac0ba	0.10681291
237	0xbe33ce43	-0.17559151
238	0x3e4273a3	0.18989424
239	0xbd8ff6c7	-0.07029491
240	0x3f49cbdf	0.7882671
241	0xbe412f29	-0.18865646
242	0x3e1487e2	0.1450496
243	0x3e953cbc	0.291479
244	0xbe8d921d	-0.27650538
245	0xbf3b4ec4	-0.7316706
246	0xbf5ff0cf	-0.8747682
247	0x3f26a404	0.6509402
248	0x3f3f2203	0.7466127
249	0xbe02cba2	-0.12772992
250	0xbf85cde1	-1.0453454
251	0xbe764998	-0.24051511
252	0x3f15717d	0.58376294
253	0xc00513ee	-2.0793414
254	0x3e9b1b2a	0.30294162
255	0x3e910911	0.2832723

feature.bias_ih_l0_reverse f4 [512]
0	0x3e98e10e	0.29859203
1	0xbf150472	-0.5820991
2	0xbe571d70	-0.21007323
3	0x3cba1fab	0.022720179
4	0xbe4e316b	-0.20136039
5	0xbdc01adf	-0.09380125
6	0x3df66cec	0.12032494
7	0x3ec09a0d	0.3761753
8	0xbd067f10	-0.03283602
9	0x3f49507a	0.7863842
10	0xbe1fefd5	-0.15618832
11	0x3e6f9ace	0.23398897
12	0xbe1096e3	-0.14120059
13	0x3ef64a0d	0.4810337
14	0x3ea19cbd	0.31564894
15	0x3ef8449b	0.48489842
16	0xbd9a3e69	-0.07531435
17	0x3dc3f604	0.09568408
18	0x3e3a7064	0.18206936
19	0x3dddf557	0.108378105
20	0x3e94c75e	0.29058355
21	0xbcd2514c	-0.025673531
22	0x3c84cc22	0.01621062
23	0xbd7b1d7e	-0.061307423
24	0xbdb0aefb	-0.08627125
25	0x3e444699	0.19167556
26	0x3e74a8c2	0.23892501
27	0x3c6e737a	0.014553899
28	0x3e9a7ef8	0.30174994
29	0x3ee9d367	0.456691
30	0x3e983887	0.29730627
31	0x3e9012d6	0.2813937
32	0x3dd9f3b1	0.106421836
33	0x3e4ee142	0.20203117
34	0x3c1b7aaf	0.009489699
35	0x3e486fca	0.19573894
36	0x3e0cb75f	0.13741826
37	0x3eca9209	0.3956454
38	0xbce5033c	-0.027955644
39	0x3e10c3a3	0.1413713
40	0xbda402fe	-0.08008383
41	0xbdeb8fb3	-0.11502018
42	0xbe46a9e7	-0.1940075
43	0x3e4a9fdc	0.19787544
44	0x3d0deed5	0.034651596
45	0x3e8b4df9	0.27207926
46	0x3e1e4b98	0.15458524
47	0x3d310e55	0.04322656
48	0xbdca699a	-0.09883423
49	0xbd955ab8	-0.07292694
50	0xbdaf0c94	-0.08547321
51	0x3f47958e	0.7796258
52	0x3e35ec59	0.1776594
53	0xbefdba46	-0.49556178
54	0x3ee8a0c9	0.4543517
55	0x3e162f9a	0.14666596
56	0x3ee16b69	0.4402726
57	0xbea298aa	-0.31757098
58	0x3deeed6c	0.116663784
59	0x3df61b99	0.120169826
60	0xbd9a7833	-0.075424574
61	0x3e12bf47	0.14330779
62	0x3e9718bb	0.29511055
63	0x3e8e4ffc	0.27795398
64	0x3d1ec001	0.038757328
65	0x3d9df6eb	0.077131115
66	0x3d60932a	0.054827847
67	0x3e402b71	0.18766572
68	0x3e5deadd	0.21671624
69	0x3da1fc62	0.07909466
70	0x3e30fb9f	0.17283486
71	0x3e95a354	0.29226172
72	0x3eebce6c	0.46055925
73	0xbe191dc1	-0.14952756
74	0x3e0e68ec	0.13907212
75	0x3e81b66c	0.2533449
76	0xbdf92e70	-0.121670604
77	0x3eec1f74	0.46117747
78	0x3eab2800	0.33428955
79	0x3e80c859	0.25152853
80	0xbc45656f	-0.012048109
81	0x3e88eb72	0.2674213
82	0xbdec16fb	-0.11527821
83	0x3df4a51d	0.11945555
84	0x3de560bc	0.11200091
85	0xbe8a68ad	-0.27032986
86	0x3cd24553	0.025667822
87	0xbdeb3ca2	-0.11486174
88	0xbe0851de	-0.1331248
89	0x3e82cece	0.25548404
90	0x3ea38417	0.31936714
91	0x3c5addc4	0.013358537
92	0x3ee38bdd	0.44442645
93	0x3d424e06	0.04743769
94	0x3eae6e2b	0.34068426
95	0x3d7da46f	0.061924394
96	0x3f2d55f1	0.6770926
97	0x3e035989	0.12827124
98	0x3ea11557	0.31461594
99	0xbd7c6e8e	-0.06162887
100	0x3e4a02c2	0.19727615
101	0x3c41801e	0.011810331
102	0xbed83ce6	-0.42233962
103	0x3e579e44	0.21056467
104	0x3e553fc6	0.20825109
105	0x3e92cec8	0.28673387
106	0xbdfc6447	-0.12323814
107	0xbe469c5f	-0.19395588
108	0x3e60014c	0.21875495
109	0x3d9280e5	0.07153491
110	0xbe62f0fd	-0.22162242
111	0x3e898c66	0.26864928
112	0x3f0c2f68	0.54759836
113	0xbd7ee6e4	-0.062231913
114	0x3d39f761	0.045401935
115	0x3f1cf447	0.6131024
116	0x3e0b669f	0.13613366
117	0x3e55835d	0.20850892
118	0x3eebbfd6	0.46044797
119	0x3cc21359	0.023690866
120	0x3d7719cf	0.060327347
121	0x3f01cab5	0.5069993
122	0x3f9a8f15	1.2074915
123	0x3ea367ab	0.3191503
124	0x3e01466b	0.12624519
125	0xbce4d1f8	-0.027932152
126	0xbe16b78f	-0.1471846
127	0xbd604219	-0.054750536
128	0x3ed08a52	0.4073053
129	0xbeaa9e42	-0.33323866
130	0x3f1f3515	0.6219037
131	0xbdaa8499	-0.08326072
132	0xbe28efd2	-0.16497734
133	0x3dd90c91	0.105981
134	0x3ebd864d	0.37016526
135	0x3dc4d7a0	0.0961144
136	0x3e99df4e	0.3005318
137	0xbec543b2	-0.3852821
138	0xbe3b8176	-0.18311104
139	0x3d224b52	0.039622612
140	0x3e73fd14	0.2382701
141	0xbee0bb2f	-0.4389281
142	0xbe13ae1d	-0.14421888
143	0xbeec94ba	-0.4620722
144	0x3e81bf70	0.25341368
145	0xbe4db170	-0.20087218
146	0xbdf04f7e	-0.11733912
147	0x3d072cb8	0.03300163
148	0xbeb1bc19	-0.3471382
149	0x3d1bdd50	0.038052857
150	0x3ea1f4e2	0.31632143
151	0x3e5af68f	0.21383117
152	0x3d9e9b1d	0.07744429
153	0x3e4118d1	0.18857123
154	0xbc9d56bc	-0.019206397
155	0x3d99836c	0.0749577
156	0xbe244fc5	-0.16046055
157	0xbea9a93b	-0.33136925
158	0x3eeea316	0.466088
159	0x3edc5347	0.43032286
160	0xbc07c9e5	-0.0082878815
161	0xbe0feec0	-0.1405592
162	0x3ed192b8	0.4093225
163	0xbdfae7bf	-0.12251233
164	0x3d843235	0.06454889
165	0x3ea4b803	0.3217164
166	0x3f2f1401	0.683899
167	0x3d502431	0.050815765
168	0x3f08267c	0.5318372
169	0x3f14d5b4	0.58138585
170	0xbe2e2052	-0.17004517
171	0xbf0b8c3d	-0.5451086
172	0x3e02fe59	0.12792338
173	0x3ea31915	0.31855074
174	0x3e7b8656	0.24562964
175	0xbe41b405	-0.18916328
176	0x3df354e9	0.1188143
177	0x3d88b54e	0.06675206
178	0x3e4c881d	0.19973798
179	0x3d6c3972	0.05767197
180	0xbe1fd03e	-0.15606782
181	0x3f6028e3	0.8756239
182	0x3f02bd50	0.5107012
183	0xbd5bba3a	-0.053644396
184	0x3cf120c5	0.029434571
185	0x3de0315e	0.10946916
186	0xbdcc67bd	-0.09980724
187	0x3f380ddb	0.7189614
188	0x3e655778	0.22396648
189	0xbdea9eec	-0.11456093
190	0xbe897212	-0.2684484
191	0xbe81127d	-0.25209418
192	0x3ea31493	0.31851634
193	0x3e78ef90	0.24310136
194	0x3c0fbc8c	0.00877298
195	0x3d143add	0.03618895
196	0xbe509e9a	-0.20373002
197	0xbe064a7b	-0.1311435
198	0x3e1152bd	0.14191718
199	0xbc5b0b73	-0.013369429
200	0xbeccbfcd	-0.39990082
201	0x3d888471	0.06665886
202	0x3e296f49	0.16546358
203	0x3e2063db	0.15663092
204	0xbeaa3e3d	-0.3325061
205	0xbd711b0d	-0.05886369
206	0xbe615ef3	-0.22008877
207	0x3f6ac95f	0.9171352
208	0xbe1862fc	-0.1488151
209	0xbf032acc	-0.5123718
210	0x3cbe1e3c	0.023207776
211	0x3db99824	0.09062222
212	0xbde7aaf2	-0.11311902
213	0x3e931775	0.28728834
214	0x3e175236	0.14777455
215	0xbd817168	-0.06320459
216	0x3eb7088a	0.35748702
217	0xbddc166b	-0.107464634
218	0xbe8704ef	-0.26370952
219	0x3eaab2f5	0.33339658
220	0xbd8ada95	-0.067799725
221	0xbe0c1e81	-0.13683511
222	0x3c0b2cd3	0.008494574
223	0x3e068ec1	0.13140394
224	0x3f2f7953	0.685445
225	0x3eafb2a2	0.34315974
226	0x3f34ca34	0.7062104
227	0xbe9ac279	-0.30226496
228	0x3e21d959	0.15805568
229	0xbd927511	-0.07151235
230	0x3e520ba6	0.20512256
231	0x3e94ad53	0.29038486
232	0xbe5cd1a8	-0.21564353
233	0x3ec496ea	0.38396388
234	0xbcacb1cc	-0.021080874
235	0xbe037426	-0.12837276
236	0x3d616913	0.055031847
237	0x3e7a2d30	0.244313
238	0x3e1481be	0.14502618
239	0xbe907927	-0.28217432
240	0x3e3e32d6	0.1857408
241	0xbe2b1b52	-0.1670964
242	0x3ca86456	0.020555656
243	0xbdb643c3	-0.08899643
244	0xbd87bd8b	-0.06627949
245	0x3e53d6e8	0.20687449
246	0xbef005b3	-0.46879348
247	0xbe7e5861	-0.24838401
248	0x3ef981c8	0.48731828
249	0xbe3e7cf5	-0.18602355
250	0xbd4a4f75	-0.049392182
251	0xbef6f358	-0.48232532
252	0xbe4ffa03	-0.20310216
253	0xbeef34d7	-0.4672
254	0x3ec21d0c	0.37912786
255	0xbed6999e	-0.41914076
