logs/classifier/15_contexts/fold_03/10-18-2022_15-21-47/model_params.pth (torch, 822087 bytes, 10 tensors)

feature.weight_ih_l0 f4 [512, 64]
000000 86 0f 45 bf e0 4a 99 be 88 df 07 3e 44 32 70 be
       -0.7697681 -0.29939938 0.13268864 -0.23456675
000010 6c ee 4b 3f 4c f9 db 3d 20 69 e3 be fa 8f 2a 3e
       0.7966068 0.10740909 -0.44416142 0.16656485
000020 4b d8 97 be 4e ad db 3e e1 a0 a3 bd cc 0f 83 be
       -0.29657206 0.42905658 -0.079896696 -0.2559799
000030 f3 b0 a0 bf 2e b3 c0 be ed 5a 11 be 13 26 0a 3f
       -1.2554001 -0.37636703 -0.14194842 0.53964347
000040 2f 64 68 bd 10 53 d5 be 62 b5 14 3f c9 54 e8 bf
       -0.056736168 -0.41664934 0.5808927 -1.8150874
000050 7e d6 fa be e3 ae b8 3d 83 1d 20 3f ff 04 0c 3f
       -0.4899177 0.09017732 0.6254503 0.54695123
000060 85 5b 9e 3f 75 08 43 3f e8 6a 2b be 82 fd fa 3c
       1.237168 0.7618478 -0.1674 0.03063846
000070 ca 34 12 bf bf 1e 6f 3e 61 4a e1 3c fa f0 32 bf
       -0.571118 0.23351572 0.027501287 -0.6989895
000080 01 24 b7 3e e4 e9 64 3e 5e e6 0e be af 11 3c 3e
       0.35769656 0.22354847 -0.13955066 0.18366121
000090 96 11 42 3f ef 81 11 bd 04 7a ca bc 15 ac dd 3d
       0.75808084 -0.035524305 -0.024716385 0.10823838
0000a0 f7 9e 78 3e 54 f2 c1 be 6e 9e 25 be e2 8f 50 bc
       0.2427939 -0.37880194 -0.16173717 -0.012729617
0000b0 14 89 d4 3d 21 56 29 bf f8 b1 81 be d3 d9 87 3f
       0.10377708 -0.6614705 -0.25331092 1.061335
0000c0 97 0f ca be b1 61 37 bf 19 b5 a3 3d b4 ed a2 3f
       -0.3946502 -0.7163344 0.07993526 1.2728791
0000d0 61 04 03 3e a9 89 66 3e bf cc 31 bb f8 82 56 bf
       0.12794639 0.2251345 -0.0027130095 -0.8379359
0000e0 70 c1 37 be ee 35 2b 3f 12 f6 22 3f b2 31 39 bf
       -0.17944884 0.66879165 0.63656723 -0.72341454
0000f0 d1 a3 0d be 08 ef 0b bd db 42 cb be 62 1f 01 bf
       -0.13832022 -0.034163505 -0.39699444 -0.5043851
000100 13 92 12 bf 63 e6 59 bf aa 93 43 3f a3 33 83 be
       -0.5725414 -0.8511717 0.7639719 -0.25625333
000110 04 d7 12 bf 7d 77 a9 3e d8 f7 c9 3e 48 37 98 3e
       -0.5735934 0.33098975 0.39446902 0.29729676
000120 fd ec 0b 3f 93 da 33 3f c8 2e 4d 3f 83 5a 4a be
       0.5465849 0.7025539 0.8014951 -0.1976109
000130 74 8e 8f 3f 14 2d 42 bf 68 3f 85 3f ce 56 b0 3d
       1.1215348 -0.75850034 1.0409975 0.08610307
000140 1f d6 2b 3e f9 06 6d 3f 88 b7 01 bf 94 52 09 3e
       0.167809 0.92588764 -0.5067067 0.13410407
000150 06 89 94 3e ae 5e 2d bd b8 4d fc 3e 0f 1c 7e 3e
       0.2901079 -0.04232662 0.49278045 0.24815391
000160 d4 f7 ca be 62 d6 6e 3e 18 7e 8f be 6e 40 23 3f
       -0.39642203 0.23323968 -0.2802589 0.63770187
000170 26 e8 16 bf 86 d6 ab be c3 f4 59 3f 47 91 78 bf
       -0.5894798 -0.33562106 0.851391 -0.97096676
000180 b0 48 82 3f 28 00 44 bf 7b 46 15 bf a7 bf 47 3f
       1.0178432 -0.7656274 -0.5831067 0.78026813
000190 5e 75 e4 3d 75 f0 94 3f 5e 5e a2 bf eb a5 3f bf
       0.111551985 1.1635882 -1.2685049 -0.74862546
0001a0 09 2d 33 be eb 88 8d bf d6 e3 20 be 16 93 92 be
       -0.17497648 -1.1057409 -0.15711913 -0.28627843
0001b0 af bd 8c 3e a8 c8 89 be 3c 00 02 be 4a f4 91 bb
       0.27488467 -0.269109 -0.12695402 -0.0044541704
0001c0 a8 2e 7f 3f 35 ee fd 3d 15 84 c5 3e bd b3 91 3e
       0.99680567 0.1239895 0.38577333 0.28457442
0001d0 31 31 ba 3e a4 ec 0f 3e 0a 45 78 bf 89 29 70 3f
       0.36365655 0.14055115 -0.96980345 0.9381338
0001e0 4b 31 1c bf 33 33 fa bd ec 1a 14 3f 9b bf ed 3e
       -0.61012715 -0.12216797 0.5785358 0.46435246
0001f0 b7 cc 98 3e b8 c9 84 bf e3 f3 44 3e 79 8c de be
       0.29843685 -1.037406 0.1923366 -0.43466547
000200 12 13 9a 3e e1 f1 6b 3e b9 8e a4 be 3c 3d b8 3e
       0.30092674 0.23041488 -0.3214014 0.35984218
000210 a0 d1 28 3f d7 60 5b be 89 a9 10 be 6c c9 df 3e
       0.6594486 -0.2142366 -0.14127173 0.4370836
000220 38 8e bc 3d 05 2c 8c 3e d0 36 0a 3e 96 ca 38 bf
       0.092068136 0.27377334 0.13497472 -0.7218412
000230 19 18 65 3e 73 d9 be 3c 39 80 96 bf dc b4 e5 bd
       0.22372474 0.023297047 -1.175788 -0.11216137
000240 0b 4c 8d be 13 1d b0 be e6 0f cb be a9 e6 4b bf
       -0.2759708 -0.34397182 -0.39660567 -0.79648834
000250 07 9c 24 bf 84 65 85 be 63 c2 55 be 48 03 94 bd
       -0.6430058 -0.26054013 -0.20874934 -0.07227188
000260 4d 00 41 3f 3a 3f 37 3e c8 31 47 3d a2 e4 74 3e
       0.75391084 0.17895213 0.04863146 0.23915341
000270 c7 df 89 3e 58 70 8d be 0f d3 cc be ea e5 08 bf
       0.2692854 -0.27624774 -0.40004775 -0.5347582
000280 5e a2 13 3e 56 08 14 3f 88 10 98 bf b4 2d 61 3f
       0.14417407 0.5782522 -1.1880045 0.8796036
000290 14 04 c5 bf 8b ab 89 3f d4 e0 c0 3e 6e 33 02 3f
       -1.539187 1.0755476 0.3767153 0.50859725
0002a0 9e 86 50 bc 6c 87 ff 3e 7e ef a1 3e 8e 72 21 bf
       -0.012727408 0.49908006 0.3162803 -0.6306542
0002b0 84 9e c7 bf df 5b 16 be 5f 24 97 3e 92 a7 63 bf
       -1.559525 -0.14683484 0.29519936 -0.88927567
0002c0 4c f9 27 3e 93 a4 3a 3f 5d 51 43 3d 55 f3 36 3f
       0.16403693 0.7290737 0.047685016 0.71465045
0002d0 e1 f8 15 3f 16 82 5d bf 38 7e c1 bc d0 63 e9 be
       0.58582884 -0.8652662 -0.023619756 -0.45583963
0002e0 58 cb 4c 3f 25 6c 35 3e e5 f0 36 3e 65 da 75 bf
       0.7999778 0.17717035 0.17865331 -0.9603637
0002f0 bc f4 51 3e f0 b6 95 be d7 dc 06 bf 93 b2 96 3f
       0.20503515 -0.29241133 -0.52680725 1.1773247
000300 d4 df 9e 3e bd 68 41 3e 01 ee 64 3e d3 94 74 3f
       0.31030142 0.1888761 0.22356416 0.9553959
000310 9f 95 3b be 56 99 e8 3d 4f 96 04 bf 45 6a e6 bd
       -0.18318795 0.113573715 -0.5179185 -0.11250738
000320 d0 c8 dc 3d 88 56 68 be 2a 3b 32 bf ff b4 88 3c
       0.107804894 -0.22689259 -0.6962153 0.016687868
000330 e7 e2 5d bf 6f 00 3b 3f 08 55 16 3f bc 1b 2c 3d
       -0.8667435 0.73047537 0.587235 0.042018637
000340 a3 f3 ed 3e ad 83 ac be 68 1e e5 3b 7f 0c b7 be
       0.46474943 -0.3369421 0.00699215 -0.3575172
000350 e1 3d 0d 3f 41 35 cf 3e 31 8b 87 be 70 aa 43 be
       0.55172545 0.40470317 -0.26473382 -0.19107985
000360 8f 31 d1 be 45 2a d3 bd 48 e1 3c 3e 3f 7e a3 3e
       -0.40858123 -0.10310797 0.18445313 0.31932256
000370 1b e0 96 be 28 7f 92 be a2 19 48 3f df 4c 30 bf
       -0.29467854 -0.28612638 0.7816411 -0.68867296
000380 c8 06 45 3e 0f db 25 3e 3b 5e 42 3f b1 fd 80 3e
       0.19240868 0.16196845 0.75925034 0.2519355
000390 ca 31 3e 3e 31 e6 94 3f ee 14 64 bf af ab 74 3f
       0.1857368 1.1632749 -0.89094436 0.9557447
0003a0 21 1c e5 3d 14 32 06 bf a4 e2 39 3d 8b 07 23 3f
       0.11187006 -0.52420163 0.045382157 0.63683385
0003b0 c2 05 1b 3d 2c 3a 69 3e 31 15 c4 be ab 26 41 be
       0.037847288 0.22776097 -0.38297418 -0.18862407
0003c0 a9 7a 90 bf cc 2c 35 bf 85 7f 1f bf 39 71 0e bf
       -1.1287433 -0.7077148 -0.62303954 -0.55641514
0003d0 c8 a4 6a 3e fc 74 fc 3e cd 9d b8 3e 9b 42 07 3d
       0.22914422 0.49308002 0.36057892 0.033022504
0003e0 43 b1 90 bf 51 61 fb 3e 87 8f a5 3e a0 fc 16 be
       -1.1304096 0.49097684 0.32336065 -0.14744806
0003f0 98 a8 9f bd 03 7c 84 3e 24 7a 25 3f f2 79 a0 3e
       -0.077958286 0.25875863 0.64639497 0.31343037

feature.weight_hh_l0 f4 [512, 128]
000000 47 b3 93 3e 76 d1 b2 be 2d 38 c4 3e 5f ca 30 3f
       0.28847715 -0.3492543 0.3832411 0.69058794
000010 01 24 bb be 98 4e 67 be ec 6e f0 3e e1 3e 9a be
       -0.36550906 -0.22588575 0.46959627 -0.30126098
000020 b0 6f 4d 3f d2 8f 5f 3d 7a c7 f5 3d 48 b7 bf 3e
       0.80248547 0.054580517 0.12000938 0.3744452
000030 2e 69 c7 3e 5a 17 d6 bd 39 dc d4 bd 3c 8f 9c 3d
       0.38947433 -0.10453673 -0.10393567 0.07644507
000040 71 af 16 3f 9f ad 81 bf 98 3b 5d 3f 80 08 ce 3e
       0.5886145 -1.013111 0.8641906 0.4024086
000050 73 e7 9a be ef 67 08 3f ed 69 8d be 7f 7c a0 3d
       -0.30254707 0.5328359 -0.27619877 0.07836246
000060 ba 9f ba bd ca 96 2f 3e 3b 47 ef 3d 9f 5c 12 bf
       -0.09112497 0.17147365 0.11683508 -0.5717258
000070 33 61 c7 be c6 6c 74 bc 11 31 04 3e 99 36 5b bf
       -0.38941345 -0.014918512 0.12909342 -0.85630184
000080 a0 29 d5 be 52 a7 85 3c c0 f6 45 3e dc 7a 5a be
       -0.4163332 0.016315136 0.19332409 -0.2133593
000090 d6 f5 5e 3f 0d cb 2c 3f 52 2c ce be 99 ae fd 3e
       0.87093866 0.6749733 -0.4026819 0.4954727
0000a0 fc b7 78 be 9d f6 35 be 12 1f 56 3e de fa 6d 3f
       -0.24288934 -0.17769857 0.2091029 0.9296092
0000b0 2a aa 07 3f 34 c9 b3 3e a2 0a 8a 3f 7d da 11 bf
       0.52994025 0.35114443 1.0784495 -0.5697401
0000c0 57 f6 3f 3f 23 35 be be 33 34 e5 be 0c 9a b9 be
       0.7498526 -0.37149915 -0.44766387 -0.3625034
0000d0 20 f3 08 be c5 2b 76 3f 72 a4 53 be d7 a6 bf bd
       -0.13373995 0.96160537 -0.206682 -0.09357994
0000e0 dc 97 b6 be 8c 42 62 be d3 99 c4 be 49 68 fc be
       -0.35662735 -0.22095698 -0.3839861 -0.49298313
0000f0 b4 ee 83 be 45 dc f6 be d3 c1 ae be 18 bf 62 be
       -0.25768054 -0.48214927 -0.3413225 -0.22143209
000100 09 3e 3a 3f 47 0f 02 3e 9b cb 4d be 3f f3 e9 be
       0.7275091 0.1270114 -0.200972 -0.45693395
000110 c3 1c c1 3c fb 7c 4e be 35 78 0a bf db 70 a6 3e
       0.023573285 -0.20164864 -0.5408967 0.32507977
000120 40 45 be be 87 f1 1e be 55 80 8e be fd a4 8e be
       -0.3716221 -0.15521823 -0.27832285 -0.2786025
000130 dd 89 a8 be dc f2 a1 bd 12 12 bb be 5b f6 9d 3e
       -0.3291768 -0.0790765 -0.36537224 0.30852017
000140 3e 9b d3 be 36 34 18 bf 0d 6f 1d be 80 a2 e5 3e
       -0.41329378 -0.5945467 -0.15374394 0.4485054
000150 a1 44 c9 be 3b 59 42 bf 3d 14 a1 bd 32 96 c8 bc
       -0.39310172 -0.75917405 -0.07865188 -0.024485681
000160 f9 06 d6 be 3a e9 b5 3e ad 86 2f bf 2f 8d fc 3c
       -0.41802195 0.355295 -0.68564874 0.03082904
000170 92 34 9c 3e 7e 35 02 bf fc 5a 2d 3e 0b e5 4f 3f
       0.30508858 -0.5086287 0.16929239 0.81208867
000180 4e 85 1a be f1 6f a7 be e7 e7 58 3e 76 f7 95 3f
       -0.15089914 -0.32702592 0.21182214 1.1716144
000190 62 c5 4e 3f a8 a9 02 3f bc c2 e4 be 35 96 24 3f
       0.8076993 0.51040125 -0.4467982 0.642917
0001a0 0a 62 66 be e2 9b d7 be f5 bd 57 3e 33 44 14 3f
       -0.22498336 -0.42111117 0.21068557 0.57916564
0001b0 44 b6 c2 be 41 70 79 bf d1 49 ef bc 2e 0c 59 be
       -0.38029683 -0.9743691 -0.029210003 -0.21196052
0001c0 68 d4 05 be 64 74 11 3e bf 0a d2 bc ee ce 3b be
       -0.13069308 0.14204556 -0.02563989 -0.18340656
0001d0 24 e0 73 bf e4 98 60 3f f9 21 aa bf 92 05 5b bf
       -0.95263886 0.8773329 -1.3291618 -0.85555375
0001e0 b6 d1 d4 3e c2 86 99 be a8 68 c2 be cb ee 2f 3e
       0.41566247 -0.29985625 -0.3797047 0.17180936
0001f0 bc 8c 81 3e f4 e3 e0 be 24 bb 98 be 78 68 96 3e
       0.25302684 -0.43923914 -0.29830277 0.29376578
000200 c3 1c ac be 4b bb a3 3e 96 be 93 3c a5 71 95 3e
       -0.33615693 0.3197883 0.018035214 0.29188266
000210 16 4b 95 bd b3 c4 a1 be 38 e6 c6 3e 56 ec 00 3f
       -0.07289712 -0.31595382 0.38847518 0.5036062
000220 f0 de d0 bc 1b c0 0e bd 64 5f 7e bf b5 0b 76 bf
       -0.02549693 -0.034851175 -0.99364305 -0.96111614
000230 ef a4 da 3e 2d d2 21 bf 5a 04 84 3d b6 c6 32 bf
       0.4270396 -0.6321133 0.064461425 -0.6983446
000240 4d bd 3c bf e1 97 e1 3e 83 78 17 be e8 e5 ea 3e
       -0.7372635 0.44061187 -0.14792065 0.4587853
000250 64 49 c8 3e c9 e2 bc 3d 2c 7e 1d be c9 dd 4a be
       0.39118493 0.09222943 -0.15380162 -0.19811167
000260 b8 02 8a 3e 91 fb 0d bf f7 4b 30 3f 3b 76 8e be
       0.269552 -0.55461985 0.68865913 -0.27824578
000270 26 54 11 bd 19 65 7a be c1 4e c8 bc 06 f0 9a be
       -0.03548064 -0.24452628 -0.024451615 -0.30261248
000280 35 2b 7b bf 39 6b 36 be 68 e2 c9 be c7 df 09 bf
       -0.98112804 -0.1781434 -0.39430547 -0.5385708
000290 48 9c 35 be 5e 32 7d be ea 68 59 be 82 41 72 bd
       -0.17735398 -0.24726245 -0.21231428 -0.059144504
0002a0 b0 c2 40 3f 1f 1e 83 3f 48 54 e7 3e cc 7c 85 be
       0.7529707 1.0243567 0.4518149 -0.26071775
0002b0 6a e2 c2 bf f1 9d 88 bf 11 88 89 be 35 05 e9 3e
       -1.5225346 -1.06732 -0.26861623 0.45511785
0002c0 8a 32 1f bf a2 b1 ba bd 5b 51 c9 3d bd 38 89 be
       -0.6218649 -0.09115912 0.098299704 -0.268011
0002d0 95 70 7c 3f 4e 92 8b 3f c7 b7 65 be 84 49 30 3f
       0.98609287 1.0904024 -0.22433387 0.68862176
0002e0 65 fc a1 3e c8 13 08 bf 28 31 33 bf b4 04 d6 3e
       0.31637874 -0.53155184 -0.6999688 0.41800463
0002f0 7c 60 22 3e 14 5f 1f be d1 78 10 bf 74 8b 21 3e
       0.15857118 -0.15563613 -0.5643435 0.15775853
000300 47 d2 7e 3e 17 bc 3c 3d 42 b7 37 3e 30 75 db be
       0.24884902 0.046077814 0.17941001 -0.42862844
000310 35 07 b0 3e 19 cc 1e bf 32 35 89 bf 83 81 87 bd
       0.343805 -0.6203018 -1.0719359 -0.06616499
000320 c5 9e bb bd fc 3f 93 3e ad be 55 3e 78 46 25 bf
       -0.09161142 0.28759754 0.20873518 -0.6456065
000330 ed 96 33 bf 81 35 dc be 5d b5 4a bf be 9a 9b be
       -0.7015217 -0.4300957 -0.7918299 -0.30391496
000340 31 29 67 3f da 73 dd be 05 c6 64 be ee 6b ad be
       0.9029723 -0.4325245 -0.22341163 -0.33871406
000350 d3 ce 08 be 93 7b fa 3e ee fc 9c 3e 9e b0 84 bd
       -0.13360147 0.48922405 0.3066172 -0.064789996
000360 5c c1 a5 3e 97 e0 34 3f 33 d0 4a bf 5e 32 ca 3e
       0.32374084 0.70655197 -0.79223937 0.39491552
000370 86 c3 9d 3e 47 c1 00 3f 6f 94 7b bf 9f d6 69 3f
       0.30813235 0.5029492 -0.98273367 0.9134311
000380 b1 74 b3 bc b1 0c 04 3e 17 09 44 3f a3 ba bb be
       -0.021906229 0.12895466 0.7657637 -0.3666583
000390 c2 4a d0 be 26 2a d1 be 76 d3 e8 3e a6 32 2d bf
       -0.40682036 -0.4085247 0.45473832 -0.6765541
0003a0 22 ae 3a 3e dd 08 1f bf f6 ea a4 3e 15 83 bf be
       0.18230489 -0.621229 0.3221051 -0.37404695
0003b0 a9 27 29 be 36 86 9b be 53 bf 9b 3d 02 37 81 be
       -0.16519035 -0.30375832 0.076048516 -0.2523728
0003c0 08 d6 55 3f b3 f1 45 bf e7 f7 06 3e 5a fd ad be
       0.8352971 -0.7732193 0.13180505 -0.33982354
0003d0 94 e9 46 bf ef b4 ec bd 91 5b 63 3f 41 0a 3a bf
       -0.7770016 -0.11557948 0.88811594 -0.72671896
0003e0 c9 cc 9b 3e 03 f4 ae 3e 4f a5 8f be 8d f4 2b 3e
       0.30429676 0.3417054 -0.28055808 0.16792507
0003f0 2b 39 38 3d d3 3a 28 bd c2 c0 10 3f 27 43 e5 3e
       0.044976395 -0.041071724 0.56544125 0.44777796

feature.bias_ih_l0 f4 [512]
000000 1b bc 3d bd 04 b5 93 3e 38 b8 57 3d 2f 80 cd 3d
       -0.04632197 0.2884904 0.05266592 0.10034215
000010 6c 92 f1 3e 18 fb e9 3e ed 69 6b be 84 45 bd 3e
       0.47182024 0.45699382 -0.22989626 0.369671
000020 ed 9a 0e be 5a ad f4 3e 6d 91 08 be ae 3b 96 3f
       -0.13926287 0.47788507 -0.13336726 1.1736963
000030 2a ea 1a be b8 ce 41 3e 5c a9 a1 3e c6 39 40 3e
       -0.15128389 0.18926513 0.31574523 0.18772039
000040 9d 20 13 3f 61 47 d3 bd c8 38 98 be 6a 8c e5 3d
       0.5747164 -0.10316349 -0.2973082 0.112084225
000050 9c 82 70 be 12 43 c4 bd 64 9c 87 3e 20 0c 25 3d
       -0.23487324 -0.09583105 0.26486504 0.040294766
000060 6c cb 57 be 42 d7 b3 bd 72 ef 69 3f be cc e3 3e
       -0.21073693 -0.087812915 0.9138099 0.44492143
000070 b3 95 9e 3f a2 2c 20 bd a0 ae 11 be e4 5b b4 3e
       1.2389435 -0.039105065 -0.1422677 0.35226357
000080 6e c4 a2 3d df a8 ff 3e ed 94 b3 bd c5 07 cc 3d
       0.07947622 0.49933526 -0.0876864 0.099624194
000090 97 b4 e1 3e bd 46 cb 3e bc 49 6a 3e 42 45 2b 3e
       0.44083092 0.39702407 0.2287969 0.16725639
0000a0 08 51 f4 3c c8 8d f5 3b b5 1b 12 be 2f 27 cb 3e
       0.029823795 0.0074937083 -0.14268382 0.39678332
0000b0 44 7e 4e 3f ff ec 68 be 09 0f 69 3e 39 b9 ec 3e
       0.80661416 -0.22746657 0.22759642 0.46235064
0000c0 a4 8f 57 3e af ed 1e 3f f3 2f 8d 3e e5 02 ea 3e
       0.21050888 0.62081426 0.27575645 0.45705333
0000d0 be 0b a1 3e b6 0d 3e 3f cc 70 e7 bc b8 37 03 bf
       0.3145427 0.7423967 -0.028252028 -0.51256895
0000e0 0b 8e fa 3e 7f 4b f5 bd 02 c1 c6 be c8 da aa 3e
       0.48936495 -0.1197729 -0.38819128 0.33370042
0000f0 b5 85 b8 3e 73 70 52 3d 9d 3b b1 3f d5 10 0a 3f
       0.3603951 0.05137677 1.3846318 0.53931934
000100 ae 7a cb 3e 5b a9 68 bd fd ca 5e 3d f7 26 8d 3e
       0.39742035 -0.056802135 0.054392803 0.2756879
000110 f3 03 74 bd 9e ec 8a bd 45 88 3a be 0e c0 3b be
       -0.05957408 -0.067834124 -0.18216045 -0.18334982
000120 9b c0 a2 be 54 8e 23 3e 80 11 dd 3e 89 7f 58 3d
       -0.3178757 0.15972263 0.43177414 0.052856002
000130 3b 3f 68 bd 8a 02 0f bc 6e c2 51 bd cb f1 bb 3e
       -0.056700926 -0.008728633 -0.051210813 0.3670791
000140 bb c4 df bd 3a 08 96 3e d2 d9 ff 3e d4 ef 4f 3d
       -0.10926195 0.2930315 0.4997087 0.050765827
000150 a8 97 de 3e 3c 54 44 be 4a e9 c9 bd 9d b0 0e 3e
       0.4347508 -0.19172758 -0.098589495 0.1393456
000160 05 83 18 3f 92 28 d5 be 32 a7 a5 3c 0e fe 18 3f
       0.5957492 -0.41632515 0.020221327 0.59762657
000170 da 16 3f be 53 ec 14 3f db d9 32 3e b6 a2 74 3f
       -0.18661061 0.581731 0.17465918 0.9556078
000180 05 7d c0 3e dd 73 20 3f ee 89 84 3e 6d 21 69 3d
       0.37595382 0.62676793 0.25886482 0.056916643
000190 f0 22 91 be eb 5c c3 bd a8 4f 75 3f da 76 01 3e
       -0.28346968 -0.09539207 0.9582467 0.12642995
0001a0 73 b0 78 3c da 79 9f be e0 79 93 3e f6 cb 54 3e
       0.0151787875 -0.31147653 0.2880392 0.2078093
0001b0 0e ce f3 3e 30 74 b5 3e be 69 a4 3e 25 10 44 be
       0.47618145 0.35440207 0.32111925 -0.19146784
0001c0 61 3f cf 3d d2 bb a0 3b d6 e0 98 3f 6a 66 5a be
       0.101195104 0.0049052024 1.1943614 -0.2132813
0001d0 fe 3a 23 bf f7 29 9a 3e 76 18 ff 3e 28 b5 af bc
       -0.6376189 0.30110142 0.4982335 -0.021448687
0001e0 8a 4c bf 3e c2 3e 26 3e 35 90 df 3e 0c 5b 7c bd
       0.37363082 0.16234878 0.4366471 -0.061610267
0001f0 ed 1a 20 3f 17 90 4e 3d 3c 83 80 3f 3f ed c1 3c
       0.62541085 0.050430384 1.004005 0.023672698
000200 aa 90 27 3e d0 c5 af 3e 32 0a 37 bf 2e 0f be be
       0.16363779 0.34330606 -0.7149993 -0.37120956
000210 92 0b 3c bf 3b 43 9e 3e b7 30 bf 3d bf a4 3f 3e
       -0.73455155 0.30910668 0.093354635 0.1871519
000220 f7 3f ca be 5d d6 9f 3e ed fc 8b 3e 28 26 c4 be
       -0.39501926 0.31218234 0.27341405 -0.3831036
000230 11 6c ca 3d be 73 0d bf 93 51 8b be a3 dd 8f bd
       0.09883893 -0.55254734 -0.27210674 -0.07024696
000240 74 6d 4e be 2f 07 b0 3d 98 9f 76 be b7 42 89 be
       -0.2015894 0.0859512 -0.24084318 -0.26808712
000250 ff 6f ec bd a7 fc 12 3d d3 9b f8 bc fb 6b ab bb
       -0.11544799 0.03588548 -0.03034774 -0.005231378
000260 43 47 6f be 44 11 53 3e 41 16 54 3e fa 5f 04 be
       -0.23367028 0.20612055 0.20711614 -0.12927237
000270 8d 7c 07 bf 17 3f 94 3d b7 2d b1 3e ab 2d 69 be
       -0.52924424 0.07238596 0.3460519 -0.22771327
000280 78 24 f7 be c0 83 3a be 39 21 37 bc c6 ef 46 3e
       -0.4827001 -0.18214321 -0.0111773545 0.19427404
000290 9d ed 39 3e c1 24 a8 3e 8f 58 04 be 1a b7 f0 be
       0.18157049 0.3284054 -0.12924407 -0.47014695
0002a0 34 80 2a be 8e d1 a5 3e 83 6f e2 3b c7 67 42 3e
       -0.16650468 0.3238644 0.006910266 0.189849
0002b0 93 ad 1e bf 59 4c 0b 3e 0d 3f 76 be ce 60 97 be
       -0.61983603 0.13603343 -0.2404749 -0.29566044
0002c0 cc 06 e2 bd 78 d1 2a be c7 4e fa be 10 96 b1 be
       -0.11036453 -0.16681468 -0.48888227 -0.346848
0002d0 dd e0 4f bd 07 21 aa 3d 44 40 66 be 81 a4 15 be
       -0.050751556 0.08307081 -0.22485453 -0.14613535
0002e0 df 18 f2 bd 15 00 a5 3e 0b f7 09 be d9 1d d6 be
       -0.1182115 0.32226625 -0.13473146 -0.41819647
0002f0 ab 60 92 3e 14 90 2c bf f2 8e 3c bf 79 3c c0 be
       0.28589377 -0.67407346 -0.7365562 -0.37546137
000300 54 fc 68 3d 59 33 37 be 1c d3 10 bf 54 84 cc 3e
       0.056881264 -0.17890681 -0.5657213 0.39944708
000310 de 08 08 3e e2 48 ab be b0 8c 89 be 40 50 c8 3d
       0.13284633 -0.33454043 -0.2686515 0.097809315
000320 b7 40 35 3e 2d 38 b4 3e 16 f0 21 bd f9 6f 28 bf
       0.17700468 0.3519911 -0.039535604 -0.65795857
000330 7d 31 17 3d d8 30 0c be 58 98 df 3d ea 5e 14 be
       0.03691243 -0.13690507 0.10917729 -0.14489332
000340 ae bf d2 be ac ce 77 3e 88 47 f5 3d a5 ec 9d bd
       -0.41161865 0.24199933 0.11976534 -0.07711152
000350 5c 72 d4 3e 06 87 f5 3d b8 ac ba be 17 68 c3 be
       0.414935 0.11988644 -0.364599 -0.38165352
000360 58 8d 00 3e a9 2d af 3e 8b 54 37 be 7c 17 63 3e
       0.12553918 0.34214523 -0.17903344 0.22176927
000370 a5 fc f3 bd 1a d9 8f 3e 57 92 c8 3c d2 06 00 bf
       -0.119134225 0.28095323 0.024483843 -0.50010407
000380 8a 01 83 3d 28 8b f5 be c8 83 3f bf 0e 5d 88 be
       0.06396778 -0.4795773 -0.7481046 -0.26633495
000390 d5 54 6e bc 7b 46 c1 be 6b 04 e0 be 86 d7 53 be
       -0.014546593 -0.37749085 -0.4375337 -0.20687684
0003a0 2c 0b cc 3e 04 a5 85 3e 21 1e f7 bc 7b ec 25 be
       0.39852273 0.2610246 -0.030165734 -0.16203491
0003b0 7f 29 d6 be 72 b2 6d be cb ad 04 be 44 d1 09 3f
       -0.41828534 -0.23212603 -0.12956922 0.5383494
0003c0 55 54 49 be 84 a3 94 be 12 9d 87 bc 60 07 a6 be
       -0.19661076 -0.29031003 -0.01655439 -0.32427502
0003d0 de 8e 7d be e8 5c c5 bd 11 fa 40 3e 7a e5 d4 3e
       -0.24761531 -0.09636861 0.18845393 0.41581327
0003e0 67 3d 83 3e df e8 62 3d d6 da de bd 1c c9 03 bf
       0.25632784 0.055397864 -0.108815834 -0.51478744
0003f0 d1 27 d5 be 75 4a 48 bf ae df 59 be 5e 55 fe 3d
       -0.4163194 -0.7823861 -0.21276733 0.12418626

feature.bias_hh_l0 f4 [512]
000000 72 2a 3b be 61 45 9c 3e 45 b8 50 bd 1a 77 1e 3c
       -0.1827791 0.30521682 -0.050956983 0.009671951
000010 9d 34 f0 3e dc 22 05 3f ec d8 72 be ce f8 a9 3e
       0.4691514 0.52006316 -0.23715562 0.33197635
000020 a1 58 3e bc 5b 74 b2 3e 52 b4 0a be 75 9f 8e 3f
       -0.01161781 0.34854397 -0.13545349 1.1142412
000030 05 83 bc bd 01 ec b2 3e 94 c7 79 3e a1 99 15 3e
       -0.092046775 0.34945682 0.2439254 0.14609386
000040 d1 4e 04 3f 4f 2d 60 be ed 6b dc be a0 07 88 bb
       0.51682764 -0.21892284 -0.4305109 -0.0041512996
000050 68 cb 22 be bd e8 6e bd 78 76 4d 3e 7a 5d 66 3b
       -0.15897906 -0.058327425 0.20064723 0.0035150931
000060 a9 8d 80 be 88 9c f8 bd 38 b4 82 3f 80 28 e1 3e
       -0.25108078 -0.12139231 1.0211248 0.43976212
000070 cb 48 a0 3f 1a cc ab bd 0c 5a 26 bd c2 8a a8 3e
       1.2522215 -0.08388539 -0.04061322 0.32918364
000080 d8 49 16 3e 81 f6 1d 3f 0b f8 17 be fb de 8a 3d
       0.14676607 0.6170426 -0.14840715 0.067808114
000090 cf c5 04 3f 94 0e 9e 3e 0c 01 1b 3c ab 9b 07 3d
       0.5186433 0.30870497 0.009460699 0.03310744
0000a0 28 a0 16 3c a5 21 1d bd 41 97 0e be e8 b3 a6 3e
       0.009193458 -0.038362164 -0.13924886 0.32559133
0000b0 04 6b 39 3f 9f aa 89 be 2d 70 61 3e 21 c3 c6 3e
       0.7242892 -0.26887986 0.22015448 0.38820747
0000c0 12 c9 94 3e 8d 9a 28 3f e4 0d 81 3e 9b 87 d2 3e
       0.29059654 0.65860826 0.2520591 0.41119084
0000d0 05 e5 c3 3e 06 30 1c 3f 81 11 fb 3d 2e 56 f4 be
       0.38260666 0.6101078 0.12259198 -0.47722
0000e0 10 21 ef 3e ad e6 9f 3c 2e d7 bc be 9b 30 fa 3e
       0.46704912 0.019519174 -0.3688292 0.48865208
0000f0 81 35 a4 3e b3 3f f9 bc a7 87 c1 3f f4 f0 e9 3e
       0.3207207 -0.030425882 1.5119523 0.45691645
000100 39 6e 06 3f db a3 01 3d 8a 9b 86 3d 42 92 d7 3d
       0.52511936 0.031650405 0.065726355 0.10525943
000110 02 95 46 bd 70 50 c0 bc 15 9a d9 bd 7e 02 ba be
       -0.04848195 -0.023475856 -0.10625092 -0.36330026
000120 c9 db 56 be 5e 0b 84 3c 32 45 8f 3e 94 32 a2 3e
       -0.20982279 0.016118702 0.2798248 0.31679213
000130 d2 56 5c bd 4c 98 06 3d 01 a4 da 3d e0 d2 c8 3e
       -0.053793736 0.032860085 0.106758125 0.39223385
000140 6d cb 4e be 6f 64 50 3e 7b 62 bf 3e 1b 62 46 3e
       -0.20194788 0.20350812 0.37379822 0.19373362
000150 f7 fc d3 3e d3 2c 99 bd 79 57 8c bd f9 b6 27 3e
       0.41403934 -0.07479253 -0.068526216 0.16378392
000160 3e 24 1f 3f 04 5b 97 be 7e a3 07 3d 68 b2 1a 3f
       0.62164676 -0.29561627 0.033114903 0.60428476
000170 3c 54 87 3d 4a 84 f1 3e 85 5a 3c 3e 4a 0c 71 3f
       0.06607863 0.4717124 0.18393905 0.94159377
000180 ce c9 c3 3e 48 c6 f7 3e 18 a1 a3 3e fc f5 17 3e
       0.38239902 0.48393464 0.31958842 0.1483993
000190 bb ec d7 be dd 78 6b 3d d5 c2 7c 3f c7 96 34 3e
       -0.421728 0.05748831 0.9873479 0.17635642
0001a0 46 2a 60 bd 95 8d b1 be 8f e1 ce 3e f4 65 37 3e
       -0.054727815 -0.3467833 0.40406463 0.17909986
0001b0 3e cc 01 3f 51 e1 d0 3e dd 3d 82 3e 6c 11 00 bc
       0.50702274 0.40796903 0.25437823 -0.007816654
0001c0 12 4f 51 3d a8 7f 80 bc ef a1 9a 3f c9 4f 94 be
       0.051100798 -0.015685871 1.2080668 -0.2896712
0001d0 99 90 28 bf b8 eb a6 3e 1f c5 1f 3f fb 1f f5 3d
       -0.6584564 0.32601714 0.6241016 0.119689904
0001e0 ce 7d e5 3e 72 cc 0e 3e ba 66 01 3f 18 04 c1 3c
       0.44822544 0.13945177 0.50547373 0.023561522
0001f0 81 5d 18 3f 55 40 79 3d 2b 88 80 3f f5 a7 25 3d
       0.59517676 0.060852367 1.0041555 0.04044338
000200 1f 58 ee bb 4a 1d 92 3e a5 2b 33 bf 7b 78 02 bf
       -0.0072736884 0.2853797 -0.6998847 -0.5096509
000210 48 80 0f bf 9f 7c d2 3e 56 a1 c5 bc a3 1e 82 3e
       -0.56055117 0.41110703 -0.024124783 0.25414
000220 74 00 87 be 12 e5 14 3e 2c 73 a5 3e b6 80 d5 be
       -0.26367533 0.14540508 0.32314432 -0.4169976
000230 97 5f 32 be 57 32 04 bf 15 0e 84 be 1c 0d 3d be
       -0.17419277 -0.5163931 -0.25791994 -0.18462032
000240 52 84 3f be 46 26 14 3e 60 e1 18 bd b4 a2 6c be
       -0.1870282 0.14467725 -0.03732431 -0.23108941
000250 34 e6 d9 3d d1 a9 c5 bd 6a 71 f6 bd 41 b6 0e bc
       0.10639611 -0.096515305 -0.12033351 -0.008710445
000260 43 da 59 be 42 5e 2d 3e 20 55 fc 3d f9 86 ef bd
       -0.21274666 0.16930488 0.12320924 -0.11695666
000270 44 82 ee be e0 68 10 3c 60 5f f3 3e 10 04 45 be
       -0.4658376 0.008814067 0.47533703 -0.19239831
000280 a9 f9 f3 be c6 db 48 be 6f dd de bc d3 6d 73 3e
       -0.47651413 -0.19615087 -0.027205197 0.23772363
000290 7e b2 0b 3e aa ef 93 3e c4 6a cb bd 92 cb f9 be
       0.13642308 0.28893787 -0.09932473 -0.48788124
0002a0 52 b0 76 bd 17 f2 72 3e fc 5a 0a bc 11 19 ce 3d
       -0.060226746 0.23725162 -0.008444544 0.10063375
0002b0 54 2a 20 bf c3 85 c6 3d 24 c0 58 be a9 e0 b2 be
       -0.6256459 0.09693482 -0.21167046 -0.34937027
0002c0 2d 6f 22 be ad e3 80 be d9 e6 17 bf 5e 66 c5 be
       -0.15862723 -0.25173703 -0.5933662 -0.38554662
0002d0 a8 74 63 bd c0 0f 8b 3d 4a c0 0d be cb db 47 be
       -0.055531174 0.067901134 -0.13842884 -0.19517438
0002e0 d0 7e 79 bd 6e 47 be 3e bb 2a dd bd 77 d7 a6 be
       -0.060911953 0.37163872 -0.10799166 -0.32586262
0002f0 a7 8f 8a 3e fb cd 2d bf 3b b1 21 bf 06 18 d7 be
       0.27062723 -0.67892426 -0.6316106 -0.42010516
000300 e3 9e e2 bd 4b 21 62 be 3d c2 0e bf 18 19 c1 3e
       -0.110654615 -0.22083013 -0.55765134 0.37714458
000310 18 d8 22 3e e6 05 af be 66 54 2b be d5 67 be 3d
       0.15902746 -0.34184188 -0.16731414 0.09297148
000320 a6 98 56 3d 6c 6e 40 3e 66 31 8c bd 0b c3 0d bf
       0.05239167 0.18792123 -0.068453595 -0.55375737
000330 4c ca bb 3d 3d 33 84 be af 33 7f 3d d4 87 02 be
       0.091694444 -0.25820342 0.06230515 -0.12747127
000340 de b5 e2 be d9 94 43 3e 5a c6 7a 3e d4 22 27 be
       -0.4427938 0.1909975 0.24489728 -0.1632188
000350 c7 8c fe 3e d6 5c 21 3e 34 ce ca be af aa b2 be
       0.4971678 0.1575807 -0.39610445 -0.34895846
000360 bc 8a 3d 3e 7e ae df 3e 32 68 48 be de 30 bf 3e
       0.18509954 0.43687814 -0.19570997 0.3734197
000370 28 d5 b9 bd fe 97 90 3e fd c1 16 3d d4 54 f8 be
       -0.090738595 0.2824096 0.036806095 -0.4850222
000380 01 8d e7 bc ec 16 ef be c9 28 33 bf 81 99 8e be
       -0.028265478 -0.46697176 -0.6998411 -0.2785149
000390 f7 21 84 bd 2e 1a b2 be be 20 04 bf db b4 86 bd
       -0.06451791 -0.347856 -0.5161246 -0.06577464
0003a0 41 38 b2 3e 3a c2 54 3e c6 4c 66 bd 3a 1b 9c be
       0.34808543 0.20777217 -0.05622556 -0.30489522
0003b0 3f 73 fb be bf 66 c2 bd 52 73 f6 3b 6a 63 2e 3f
       -0.49111363 -0.094922535 0.0075210715 0.68120444
0003c0 72 3f c9 bd 20 88 4e be 03 45 eb 3d 1d 68 3d be
       -0.09826554 -0.20169115 0.11487772 -0.18496747
0003d0 b7 74 90 be 11 b9 2c be 17 ca 6d 3e 44 65 9a 3e
       -0.28214046 -0.16867472 0.23221622 0.30155385
0003e0 b8 8e 62 3e 8a d0 4c bd 2b a5 53 be ee fb 1a bf
       0.22124755 -0.050003566 -0.20668475 -0.60540664
0003f0 2b 08 10 bf e2 95 54 bf 6e 35 0f be 68 42 76 bc
       -0.56262463 -0.83041203 -0.13985226 -0.015030481

feature.weight_ih_l0_reverse f4 [512, 64]
000000 af 31 5d bf 6d 59 cb 3d 9a b9 d5 3d 5e fa 13 3f
       -0.86403936 0.09929166 0.10435791 0.57803905
000010 9f b6 0a 3f 9a f9 1f bf c2 99 56 bf 79 1d 1d be
       0.5418491 -0.62490237 -0.83828366 -0.15343274
000020 8d dd 04 3f d0 25 a0 bf 90 6d 9b 3f 57 d0 83 3d
       0.5190056 -1.251154 1.2142811 0.06436222
000030 ac 84 78 bf 72 c2 34 bd 06 88 21 bf ee 19 b7 be
       -0.9707744 -0.04413075 -0.6309818 -0.3576197
000040 26 2a 07 3f 8d ea 0b bf 97 dd 56 3e b6 c8 a5 be
       0.5279869 -0.5465477 0.20982967 -0.32379693
000050 11 cd d4 3e 83 38 85 3d 55 b2 65 3f a3 5f a4 3f
       0.41562703 0.065049194 0.8972524 1.2841686
000060 c9 c6 d9 be b4 5b c2 bb d3 5c 57 bf 5f e4 fb be
       -0.42534474 -0.005931342 -0.84126014 -0.4919767
000070 b4 55 90 bd 3c 4e cb 3e ff 80 20 3e b3 cc 91 bf
       -0.070475966 0.39708126 0.15674208 -1.1390594
000080 77 57 e1 3e b7 a4 94 3e a5 1a a9 3e 97 4d 77 3e
       0.44012043 0.29031917 0.3302814 0.24150692
000090 01 d0 01 bf ca cd 0c bf ec 53 18 3f 67 1a d0 3e
       -0.50708014 -0.5500151 0.59503055 0.40645143
0000a0 42 2e 72 bf 67 eb ca bd bf 48 82 bf 55 1a 2d bf
       -0.94601834 -0.09908181 -1.017845 -0.67618304
0000b0 cf 17 27 bf 80 db 95 bf 41 8a 69 3f 44 41 03 3f
       -0.65270704 -1.1707611 0.91226584 0.5127146
0000c0 7f e0 80 bd 95 ec 83 bf 91 69 55 bf 63 65 ec 3e
       -0.06292819 -1.0306574 -0.83364207 0.46171102
0000d0 ec ae 77 3f e8 aa 2a 3e 44 e2 4f be 83 9c d1 be
       0.96751285 0.16666758 -0.20301157 -0.4093972
0000e0 6b dc 12 be d1 a7 37 be 39 45 f8 3d a0 20 81 bf
       -0.14341895 -0.1793511 0.12122578 -1.0088081
0000f0 87 4f 34 bf e7 48 9f bd dc 10 d4 3d b3 04 39 3f
       -0.7043385 -0.07777577 0.10354778 0.72272795
000100 14 b6 79 bf ee a1 53 bf 3b 1a 66 3d 88 76 bb bf
       -0.97543454 -0.8266896 0.05617736 -1.4645548
000110 e8 f6 4d be f2 46 9d 3e 30 00 4d 3d 5d 70 f8 3e
       -0.20113719 0.3071819 0.050049007 0.48523226
000120 ad 3c 87 be ce 34 c5 3e 39 81 2e bf fd 4a 6a 3f
       -0.2641348 0.3851685 -0.6816593 0.91520673
000130 3a 33 85 3f 4c e8 0e bf 9c 9c 25 3e e9 68 15 3f
       1.0406258 -0.55823207 0.16173023 0.58363205
000140 58 0a 3c bf ff d8 e3 3e 85 66 6d 3f 02 12 32 be
       -0.73453283 0.44501492 0.9273456 -0.17389682
000150 1b 00 28 3e a7 d8 e3 be e5 e4 88 3f 63 e1 2a 3f
       0.1640629 -0.4450123 1.0694853 0.6675016
000160 e3 7e a8 be 9e 4f 2f bf 21 41 86 3f 1d 0c 06 3f
       -0.32909307 -0.6848086 1.0488626 0.52362233
000170 ca c3 b3 3f 19 14 7d 3e 12 5a eb be f5 ee fc be
       1.4044125 0.24714698 -0.45967156 -0.4940106
000180 d2 2d 60 3f 8b 6c a8 be 5a a0 17 3f dd 65 ea bf
       0.87569916 -0.32895312 0.5922905 -1.8312336
000190 8f a3 d2 be a2 4d 8a 3e 83 28 ea 3e a4 b8 ab be
       -0.4114041 0.27012354 0.45734033 -0.33539307
0001a0 22 94 0d be 20 63 a7 bf b6 3c 45 3f 56 92 60 bc
       -0.1382604 -1.3077126 0.7704576 -0.013706764
0001b0 5a 1c 5d 3e 25 d3 86 3f 22 d9 cf 3d be 85 1e be
       0.21592847 1.0533186 0.10148837 -0.15480706
0001c0 14 17 89 3d 9a 49 ba be 5e ad 51 3e a2 46 55 bf
       0.06693855 -0.3638428 0.2047629 -0.833109
0001d0 66 63 74 bf e9 78 09 bd 8f d6 d4 3e 12 a5 ba bb
       -0.9546417 -0.033562575 0.41569945 -0.0056959474
0001e0 e1 70 58 3f 68 cf 9c be bb 62 8c 3e f4 f4 c5 be
       0.8454724 -0.30626988 0.27419075 -0.38663447
0001f0 f7 a8 ab 3d 6a c7 da be 02 11 b2 3e a0 e4 13 bf
       0.08381837 -0.42730266 0.347786 -0.5777073
000200 96 72 20 be 56 39 c7 3d 3c c4 e6 bc ee 68 20 bf
       -0.15668711 0.09727733 -0.028169744 -0.6266011
000210 6c 01 5f 3e e8 66 2d be 6e 18 4f 3e 05 39 87 3e
       0.21777886 -0.16933787 0.20224163 0.2641069
000220 73 bb 2e 3e 9e 36 50 3e 7b 71 80 3f 57 80 36 bf
       0.17063694 0.20333335 1.0034631 -0.7128958
000230 97 74 31 be 01 f7 a0 3e 31 9b 1f 3e e2 63 05 bf
       -0.17329632 0.3143845 0.15586545 -0.52105534
000240 88 31 23 bd bf 9e 77 bf e2 08 52 bf 93 0a 8e be
       -0.03984216 -0.967266 -0.82044804 -0.27742442
000250 01 1d f2 3e 51 bd 8b 3e b5 dd 81 3e 74 3b 02 bf
       0.47287753 0.27292874 0.25364462 -0.5087197
000260 3c 5d ce be 78 c5 09 3f f4 aa e5 3d 77 ea c4 be
       -0.40305507 0.5381694 0.11214247 -0.38460132
000270 26 1e 89 bf 33 55 33 3f 31 38 b8 3e 9d 5f ba bd
       -1.0712326 0.7005188 0.3598037 -0.09100268
000280 d4 16 c0 3d 33 ab 69 3f d7 4d ff 3e 96 4b ca 3c
       0.09379354 0.91276854 0.49864075 0.024694245
000290 27 e3 ba be e7 da 26 bd 1d 5a ef 3e 29 b9 37 bf
       -0.36501428 -0.040736105 0.46748438 -0.71766907
0002a0 aa cd 4a 3d 90 91 38 bf c4 fb 25 bf b8 bc 22 3f
       0.049512543 -0.7209711 -0.6483729 0.6356921
0002b0 f6 5d 3b 3f 43 26 4c 3f df 00 50 3f d1 b0 08 bf
       0.7319025 0.7974588 0.8125133 -0.533948
0002c0 e8 58 e4 be 1a db 32 bf 21 b5 6e bf ce 7b 36 bf
       -0.4459908 -0.6986557 -0.9324513 -0.7128266
0002d0 51 d6 a5 bf f9 a9 82 bd 43 a1 49 3f 8b 6c 8f bf
       -1.2956029 -0.06380076 0.7876169 -1.1205
0002e0 ea f1 66 bf fa 0f 93 be f6 f8 14 bf a0 d6 2b 3f
       -0.9021288 -0.28723127 -0.58192384 0.67124367
0002f0 e3 2a 5d be ef b6 24 3e 49 3d 77 bd 90 6a da bd
       -0.21598391 0.16085409 -0.06036118 -0.106648564
000300 55 67 7a 3f e4 87 7d bf 10 7b 5a 3c 79 93 0a 3f
       0.9781392 -0.9903548 0.013335004 0.54131275
000310 c4 38 ed be 8c 71 fc be 90 fc c4 be 9d 93 67 3e
       -0.4633237 -0.4930538 -0.3847394 0.22614904
000320 8b 77 5d bf 6b 81 63 3f 21 f8 d4 be cf f0 df bd
       -0.86510533 0.8886935 -0.41595557 -0.109346025
000330 5f 23 b6 3d f1 41 0b 3e 8a a5 55 bf 8f 44 22 bf
       0.08893465 0.13599373 -0.8345572 -0.6338586
000340 ae fc 91 3d a3 52 1c 3f 0e 13 fb be 54 21 18 be
       0.07128273 0.61063594 -0.49037975 -0.14856464
000350 08 a5 85 3e 0a f2 92 3e f1 fb 4e 3e 0e 64 ef be
       0.2610247 0.28700286 0.20213296 -0.46756023
000360 35 7c 23 bf 06 88 37 bf a0 b3 46 3e b0 0c 13 be
       -0.638614 -0.7169193 0.19404459 -0.14360309
000370 ba 36 37 bd 71 16 09 bc 4b 2b a6 be 94 7a 0d 3f
       -0.044729926 -0.008367167 -0.32454905 0.55265164
000380 3d 7a 5a be 50 1d 51 be 99 aa f9 bd 5e 99 99 3f
       -0.21335693 -0.20421338 -0.12190742 1.1999929
000390 1b b4 5a 3e 78 0b 6c 3f 99 82 a5 3e df f3 9a be
       0.21357767 0.92205 0.323262 -0.30264184
0003a0 47 63 85 3c 12 a2 0e 3f e2 f6 ce bc cf e2 27 3e
       0.01628269 0.5571605 -0.025264207 0.16395114
0003b0 b9 16 56 bf 06 d7 cc bd 57 ad 85 3e 14 fc 41 bf
       -0.8362842 -0.1000195 0.2610881 -0.75775266
0003c0 56 6f 43 be 13 5c e3 be 61 7b d1 3e 97 4a b2 3e
       -0.1908544 -0.44406185 0.40914443 0.34822533
0003d0 34 b5 63 3f 50 a1 f8 bc 81 d8 9f be dc 66 69 3f
       0.8894837 -0.030350357 -0.31219867 0.91172576
0003e0 94 47 1b bf 92 f4 fb be ec 48 11 3e 3b cb 5b bf
       -0.60656095 -0.4921003 0.14187974 -0.8585698
0003f0 27 33 9e 3d c8 5a 0b bf fe 14 c5 bd e1 36 f2 3f
       0.077246 -0.54435396 -0.096231446 1.8922998

feature.weight_hh_l0_reverse f4 [512, 128]
000000 67 c2 ac 3e 4c f4 a7 3d ce 25 40 3f 14 89 9b be
       0.33742067 0.08200893 0.75057685 -0.3037802
000010 46 fe b6 3d a7 ed 1a bf cf 41 e6 3d b3 66 0c bf
       0.089352176 -0.6051888 0.11243021 -0.54844207
000020 b6 51 a6 3d 52 b8 d4 3e bd f2 2d 3f 04 31 9a be
       0.08121054 0.41546875 0.67948514 -0.3011552
000030 bf 41 d7 be 7c 67 ba be 6c 2e 6e 3e 1d 38 9e 3d
       -0.42042348 -0.36407077 0.23259896 0.077255465
000040 9e 46 26 3f cd 8d 47 3f d5 26 02 bf 7e 90 d9 bd
       0.64951503 0.77950746 -0.508405 -0.10623263
000050 c3 e2 21 3f bc c1 cf be 1a 5b 38 be f1 31 1c bf
       0.63236636 -0.40577495 -0.18003502 -0.61013705
000060 05 35 d2 be 9e ef 47 be ab 31 39 be 58 53 25 bf
       -0.41056076 -0.19525 -0.18085353 -0.645803
000070 fe 92 3c bf 28 6d 8c 3e 14 4c 12 3f 0f aa 64 3e
       -0.7366179 0.2742703 0.57147336 0.22330497
000080 8c 3a 9b 3e b8 95 84 3e a4 2d 0a 3e b3 a6 cf bd
       0.30318105 0.25895476 0.13493973 -0.10139217
000090 15 a0 25 3f 41 8a 25 3e 03 a8 42 3b 77 1e dd be
       0.6469739 0.16166021 0.0029702194 -0.43187305
0000a0 21 1b 92 3c e5 f5 77 3e b6 96 0c 3f e5 21 cd 3e
       0.017835202 0.24214895 0.54917467 0.40064922
0000b0 7c a3 b0 be ab c1 17 bf 47 fe 6b be 5d 41 28 3e
       -0.3449973 -0.5927989 -0.23046218 0.16431184
0000c0 ea d1 b9 be 71 41 81 3e 71 66 09 3f 5d ad 04 bf
       -0.36292964 0.2524524 0.5367194 -0.5182703
0000d0 4f a1 22 be 48 0c 7b be a0 3c 8c 3e 87 6f 5c be
       -0.15881847 -0.24516404 0.27390003 -0.2152692
0000e0 a5 8e ef 3d 3b ea 76 be a3 e4 f2 be 11 33 0e 3f
       0.11697129 -0.2411279 -0.4744006 0.5554667
0000f0 c7 5d 85 bf a7 ae 7e bd c6 20 c1 be 66 9c 14 bf
       -1.0419244 -0.06217828 -0.37720317 -0.58051145
000100 0a b9 28 bf 67 ca 70 3f 54 55 7e 3e 84 d7 e8 bd
       -0.6590735 0.9405884 0.24837238 -0.11369231
000110 4d 93 17 3f 27 1a b8 be e7 71 b7 3e 82 7b ad 3e
       0.5920914 -0.35957453 0.35829088 0.3388329
000120 ab e9 7c bd b8 36 39 3f 4d 79 58 3f 04 b6 f7 be
       -0.06174628 0.7234912 0.8456009 -0.48381054
000130 2f 09 05 3f 62 58 f8 3e 9c 1b 22 3e 3e c6 a8 be
       0.5196714 0.4850493 0.15830845 -0.32963747
000140 47 15 75 be b7 89 0d 3e b3 c4 4b bf a8 8c f2 be
       -0.23933898 0.13822065 -0.79597014 -0.47372937
000150 fb 8e 1e 3e 4a 9e 83 3f c9 20 8d bb 7c a4 7d 3e
       0.1548423 1.0282681 -0.004306887 0.24769777
000160 cf 9c 0e be fb cb c1 bd 2c 90 2a 3e 23 34 42 be
       -0.13927005 -0.09462734 0.1665656 -0.18965201
000170 27 80 92 be 45 79 4f bf 7f 50 26 3e ae b4 08 3f
       -0.28613397 -0.8104442 0.16241644 0.53400695
000180 44 2a 93 3e 55 45 41 3f b5 dc 17 bf 4d 96 a4 be
       0.28743184 0.7549642 -0.5932115 -0.3214592
000190 02 ec 5b 3d b6 78 10 be 1e bd c4 3d 2c bc df 3d
       0.05369187 -0.14108548 0.09606384 0.10924563
0001a0 fc ad 27 3f 2f e0 3e 3f d9 65 e1 be 9f 09 23 bf
       0.65499854 0.74560827 -0.44023016 -0.63686556
0001b0 dd 3b 06 bf ae e8 82 be 34 7c 51 3d b1 d5 3b be
       -0.52435094 -0.25568146 0.05114384 -0.18343236
0001c0 dd 9d 90 be 73 86 4a 3f 18 2f e0 3e 2e 2f 3e 3e
       -0.2824544 0.79111403 0.4378593 0.18572685
0001d0 f0 27 07 3d 61 1b 7d bd f8 e9 7b be 82 6d 01 bd
       0.03299707 -0.06179369 -0.24600971 -0.031598575
0001e0 89 a2 bf 3e 18 77 c2 bb 23 ca 16 bf 80 fb 63 3f
       0.37428692 -0.0059346072 -0.58902186 0.89055634
0001f0 30 5b eb 3d 97 0a f5 3e 5f bc 78 be f8 59 d7 be
       0.11492002 0.47859642 -0.24290608 -0.42060828
000200 19 04 05 3f 23 2c 35 3f a1 4a 80 bf ae a2 f1 be
       0.5195938 0.7077047 -1.0022775 -0.47194427
000210 29 c0 55 3f d3 bb 14 bf fb 17 e5 be cc eb 35 be
       0.8349634 -0.58099097 -0.44744858 -0.1776573
000220 95 91 46 be 5e 26 a6 3e 9e 8c 48 be a1 ce 1b 3f
       -0.19391473 0.32451147 -0.19584891 0.60862166
000230 3e 61 0b 3f 41 ba 19 3f 67 c6 e3 3e b6 39 68 3f
       0.54445255 0.60049826 0.44487306 0.9071306
000240 13 04 43 be b7 d5 8a 3f 65 ca f4 3e 98 29 94 bf
       -0.19044523 1.084647 0.47810665 -1.1575193
000250 6e bb c1 3d 31 b2 83 3f f2 e2 47 3f cf f1 29 3f
       0.094595775 1.0288755 0.78080666 0.66384596
000260 a5 11 9f be 86 5a f4 3e a8 e5 61 3f 2d e8 6c 3e
       -0.3106815 0.47725314 0.8824105 0.23135443
000270 b9 ef c2 bd 3b 4f a2 3d 6a d2 56 bf ee d7 5c be
       -0.0951838 0.07925268 -0.83914816 -0.21566746
000280 b2 eb 35 3b ff c9 ce be 57 f4 4a 3d c7 9e ab 3e
       0.0027758894 -0.40388486 0.049549427 0.33519575
000290 66 9a 6e 3e 82 e6 7f be 78 b5 b9 be ed 78 4e 3f
       0.23301086 -0.24990276 -0.36271262 0.8065327
0002a0 72 7f 18 be 24 75 bb be 61 97 df 3c a8 14 e9 3e
       -0.14892367 -0.3661281 0.027293863 0.45523572
0002b0 a7 d3 f9 3e 58 43 2f bf 61 28 79 3f bd 63 27 3f
       0.4879429 -0.68462133 0.9732724 0.65386564
0002c0 86 71 0b 3f 49 7e c2 be be 8c 21 3f fd 7f c8 be
       0.544701 -0.37986973 0.6310538 -0.39160147
0002d0 51 63 65 3e 7b d1 0a bf 64 5a b6 3e ea 4b 68 3d
       0.22401167 -0.5422589 0.35615838 0.056713022
0002e0 ef 47 5d bd c0 a9 e2 3d 5b 8f 06 bf 40 4e fb 3d
       -0.05402368 0.110675335 -0.52562493 0.122707844
0002f0 ab 15 c5 3f 3b 7f f3 3b 64 4d 0f bf 92 4f 10 bf
       1.5397238 0.0074309385 -0.55977464 -0.56371415
000300 47 32 07 3f ae aa a9 be c7 3e 88 bf 94 30 26 bf
       0.5281109 -0.3313803 -1.0644158 -0.64917874
000310 5f 4b 91 3f 91 6e d0 3e b8 83 5b 3e 81 3a 93 be
       1.1351126 0.40709355 0.21436965 -0.28755572
000320 1c 82 0d 3f 2f e2 c8 bd a6 e9 ee 3d 60 27 df be
       0.55276656 -0.09808766 0.11665659 -0.43584728
000330 01 26 c2 bc fd 38 26 3e f0 68 aa 3d e8 45 42 3f
       -0.023699762 0.16232677 0.083207965 0.7588792
000340 77 42 99 be 44 f0 1d bf 70 2d 9c 3e 2e 17 d0 be
       -0.2993352 -0.6169474 0.30503416 -0.40642685
000350 83 a9 fe 3e f7 39 43 3e b4 b2 e1 be bf 41 10 bf
       0.49738702 0.1906508 -0.44081652 -0.5635032
000360 f4 d5 2a bf a9 86 81 3e af 2d 8c be a8 61 19 bf
       -0.66732717 0.2529805 -0.27378604 -0.59914637
000370 01 38 ee 3d c3 8e 8a 3e 2c 72 b3 3e 81 95 02 bf
       0.11631776 0.27062044 0.35048044 -0.51009375
000380 6f f5 86 3d 74 be 44 bf 2f 41 0f bf e1 cc fe 3d
       0.065897815 -0.7685311 -0.5595884 0.12441421
000390 78 ba 99 be 58 a9 52 bf 07 8f 39 3e bb c7 40 bd
       -0.30025077 -0.8228965 0.18120967 -0.047065478
0003a0 cc c4 50 3e 9e c3 99 be c4 16 62 3e 93 a3 41 bd
       0.20387572 -0.30032057 0.22078997 -0.047275137
0003b0 63 1d 8d be 2e 7c 2c bf 45 c0 17 bf 1a 68 05 3f
       -0.27561483 -0.67376983 -0.59277755 0.5211197
0003c0 c2 cd 05 bf 4c e2 c8 3e ef e0 d4 bd 7c 01 ed bd
       -0.52267087 0.3923515 -0.10394465 -0.11572549
0003d0 84 c2 a2 3c 81 09 17 3f 07 c8 d2 3e f1 3c 63 3f
       0.019868143 0.58998877 0.41168234 0.88764864
0003e0 df 3a 7f be 3e 9a 45 3f 0d 41 56 be ba 5e 9a 3e
       -0.24924801 0.7718848 -0.20923252 0.30150396
0003f0 98 58 a3 be 60 6e a6 bd 5a 40 9b 3f 47 58 f6 be
       -0.3190353 -0.08126521 1.2129014 -0.48114225

feature.bias_ih_l0_reverse f4 [512]
000000 60 13 42 3c 74 97 19 3f 80 60 b7 3e 6c c7 83 3d
       0.01184544 0.59996724 0.3581581 0.06434521
000010 85 32 c1 be c2 fb 29 3d 91 20 ef 3d 93 45 47 3d
       -0.37733856 0.04149986 0.116761334 0.048650336
000020 91 b4 a2 be 4c 14 37 3e 73 ff 8a 3e 49 44 11 3f
       -0.31778386 0.17878836 0.27148017 0.5674482
000030 d7 04 47 bf ce 20 24 bf dd 46 27 be 30 f8 67 3e
       -0.7774176 -0.64112556 -0.16335626 0.2265327
000040 d7 58 c2 3b 43 27 3e be 1e f8 34 3e 41 ab 09 3f
       0.0059310007 -0.18569665 0.17672774 0.5377694
000050 2a c7 d7 be f6 d0 43 3d 98 12 86 3e 56 70 fe 3e
       -0.42144138 0.047806703 0.2618606 0.4969508
000060 66 25 85 be af 11 c3 3d 06 95 13 bb 70 01 0a be
       -0.26005095 0.09524857 -0.0022519245 -0.13477111
000070 d9 f6 90 be 16 e7 b7 bc 13 f7 03 3f af 7a 1a be
       -0.2831333 -0.022449058 0.5154888 -0.15085863
000080 28 8c 81 3e 24 15 c0 be b9 48 e4 3d af 37 29 be
       0.25302243 -0.3751613 0.11146683 -0.16525148
000090 43 51 89 3d fe ef 8d 3c 28 91 87 bd a9 c4 64 3f
       0.067049526 0.017326351 -0.06619483 0.8936258
0000a0 3b b3 d3 3e 72 0f a3 3f 45 f0 e2 bc 88 e5 44 3e
       0.4134768 1.2739089 -0.02770246 0.19228184
0000b0 dd 7a 84 be 45 76 56 3f 28 81 f4 3e 29 24 86 3e
       -0.25874987 0.83774215 0.47754788 0.26199463
0000c0 cc 94 35 3f 65 c5 b9 bd 5f 12 94 bd c5 b7 cb 3d
       0.7093017 -0.09070853 -0.072300665 0.09947161
0000d0 d2 11 88 be 27 8f 7d be 20 18 ff bd 28 82 ec bc
       -0.26576096 -0.2476164 -0.12455773 -0.028870657
0000e0 df 5f ce bd 34 10 35 be ea ef 09 3e 54 42 2c 3e
       -0.1007688 -0.17681962 0.13470426 0.16822177
0000f0 5b d8 b0 3e 3d f9 f3 3e 5e 67 eb 3e 9a 26 5d 3f
       0.34540066 0.4765109 0.459773 0.86387026
000100 a1 e6 83 be 4e 4b ac 3e 6a 62 11 be 7b c6 48 be
       -0.25761893 0.33651203 -0.14197698 -0.19606964
000110 c8 4f 3b 3e 4e 85 c1 3e f9 7c 00 bf b4 7b 72 3d
       0.18292153 0.37797016 -0.50190693 0.059200004
000120 ab 41 a1 bd be cd e0 3d a0 b9 ec 3d 7e 15 46 be
       -0.07873853 0.10976742 0.11558843 -0.19344136
000130 ac 15 6f be 5b 07 0f 3f c8 9c 09 3e 68 da ab be
       -0.23348111 0.558706 0.13438714 -0.33565068
000140 5b 7f 0c 3d 11 4c 01 be 3a 13 6b 3e d6 59 9f be
       0.034301143 -0.12626673 0.22956553 -0.31123227
000150 3e 58 b7 bd 52 75 00 be cf d5 c3 3e 1c a7 9c be
       -0.08952378 -0.12544754 0.3824906 -0.30596244
000160 9c 3f 3f 3e f0 95 c6 bd fa 23 00 3e 2f 21 1d 3f
       0.18676609 -0.09696567 0.12513724 0.6137876
000170 e4 48 f1 3d 9e b4 bf 3d 3b 4a 08 3f 9a 14 93 3e
       0.11781481 0.09360622 0.53238267 0.28726655
000180 ff 96 6e 3e 0c 4c 30 3e 51 93 46 be 4c f8 1a be
       0.23299788 0.1721651 -0.19392134 -0.1513378
000190 c1 6f 1a be 5b a4 8d 3e c3 72 8d bc f3 7b 26 be
       -0.15081693 0.27664456 -0.017266637 -0.1625822
0001a0 ed 59 4b be e3 7a b4 3e 81 6d c1 3d 75 e5 ec bd
       -0.19858523 0.35250005 0.09444714 -0.11567203
0001b0 c6 ac b7 bd f0 57 eb 3c c4 8b ce 3d e0 0a 22 be
       -0.08968501 0.028728455 0.10085252 -0.15824461
0001c0 b3 ed a5 bd 39 fa 11 3d 12 58 c5 3e 9d 40 4d be
       -0.08101978 0.03563902 0.38543755 -0.2004418
0001d0 56 c4 90 be 4f 86 7b 3e 40 63 82 bd a8 46 6b bc
       -0.28274792 0.24562953 -0.06366587 -0.0143601075
0001e0 8d c7 25 be b3 14 3d ba d9 c8 d5 bd 98 9c 11 3d
       -0.16189404 -0.0007212862 -0.10438699 0.03554973
0001f0 2e 33 0d 3f d7 97 4d 3e 97 7f 56 3e 31 99 4d bd
       0.5515622 0.20077454 0.20947109 -0.050194923
000200 e8 d1 48 3b 28 6d b7 be 61 c2 94 3e d5 2a 96 bc
       0.0030642692 -0.35825467 0.2905455 -0.01833097
000210 fe ee 55 3b e4 c2 86 be 5c 02 82 be 83 5e 81 bd
       0.003264367 -0.26320565 -0.25392425 -0.06316855
000220 46 05 08 bd 42 2c eb 3d d5 9b 93 be 6b 50 cf be
       -0.033208154 0.11483051 -0.28829828 -0.40491042
000230 69 69 9e 3e e1 b1 c4 bd 10 ac e1 3c 78 e5 da be
       0.30939797 -0.0960424 0.027547866 -0.42753196
000240 36 49 9c be cf 1e 09 3f 78 4c 25 bf c8 ec 15 bf
       -0.30524606 0.53562635 -0.6456981 -0.58564425
000250 82 ff 43 be eb 00 0c be ba d7 a3 be c9 73 79 be
       -0.19140437 -0.13672225 -0.32000524 -0.24360575
000260 c8 4a 20 3e ee 38 4d bd cd c3 6c bd e6 18 1a be
       0.15653527 -0.05010312 -0.057803918 -0.1504856
000270 af a7 a4 3d 22 76 2d ba 95 7e 35 be ab 4c 30 bd
       0.080397956 -0.00066170294 -0.17724068 -0.043041866
000280 67 fb ce be f8 97 20 be 9e 18 34 bf 72 fc c7 3c
       -0.4042618 -0.15682971 -0.7035006 0.024412367
000290 3f 4a c0 bd 46 bd bd 3d 92 89 97 be b2 dc f3 be
       -0.09389161 0.09264617 -0.29597145 -0.47629315
0002a0 64 f8 1e be f0 29 3b 3e 36 67 ba 3e 0c c4 5d bc
       -0.15524441 0.18277717 0.3640687 -0.013535511
0002b0 68 5d bc be c1 da 02 3f 3d 46 e7 be a5 8a 83 3d
       -0.36790013 0.5111504 -0.45170775 0.06422929
0002c0 3c 78 d8 be 1d 12 a8 be ad fd 80 be cb a5 bd 3e
       -0.42279232 -0.3282632 -0.2519354 0.37040552
0002d0 f4 9d ff bd 6e 51 1f be 6e c2 ed 3c 3b d7 05 3e
       -0.12481299 -0.15558407 0.029023375 0.13070385
0002e0 1c 66 09 3e 23 6e 12 bd 48 1f 83 bc 97 4b 5a 3f
       0.13417858 -0.035749566 -0.016006127 0.8527159
0002f0 01 9a 92 be 48 98 81 be 0b ec db 3e fa fb 83 3e
       -0.2863312 -0.25311494 0.42953524 0.2577818
000300 2a b5 b1 bd 74 46 d5 3e ac 03 a5 3c 73 d7 96 be
       -0.086771324 0.41655314 0.020143352 -0.2946125
000310 fc 6c f8 be 14 0f e8 bd bb 96 f6 3d 16 c2 9c bd
       -0.48520648 -0.11331001 0.12040468 -0.076542065
000320 75 22 53 be ca 90 c5 3e 86 6e c7 bd 69 5b c0 3e
       -0.20618613 0.38587028 -0.097378775 0.3756974
000330 82 c8 85 3d 66 8d d3 be d4 c4 25 bf e8 ec ce be
       0.065323845 -0.41318816 -0.6475346 -0.4041512
000340 6c 6e 55 3c 16 34 1a be 3a ad 9c 3c ac 4a 2d 3e
       0.013026815 -0.15058932 0.01912557 0.16923016
000350 7e 37 81 3f 8c cc b8 3e 2b d4 db 3e d4 80 bc be
       1.009506 0.36093557 0.4293531 -0.36817038
000360 0c 65 d3 bc 90 c1 08 3c e2 8f 6b 3f a8 32 8a be
       -0.025805019 0.00834693 0.9201642 -0.26991773
000370 b7 69 5b 3e 52 2d 84 be e1 04 0c bf a4 c8 57 be
       0.21427046 -0.25815827 -0.54694945 -0.21072632
000380 b6 5a d7 be 37 ac 6d bd a6 8c da be 20 f3 55 3a
       -0.42061394 -0.058025565 -0.4268543 0.00081615336
000390 9b 89 3f 3e 92 6c 89 3d 4a 40 fe bd 48 e9 f0 3e
       0.18704836 0.06710161 -0.12414606 0.4705298
0003a0 f7 3b 27 3e 6e 85 63 be a2 6b 06 3f 85 77 a9 be
       0.16331469 -0.22218868 0.52507985 -0.33099
0003b0 2f 7b 0a bd 50 57 40 be 07 bf c7 bd 70 14 da 3e
       -0.033808883 -0.18783307 -0.097532324 0.42593718
0003c0 ba d9 03 3e c8 fe e5 bd c9 c1 03 3e 3d 37 f7 bd
       0.12876025 -0.11230236 0.12866892 -0.12071083
0003d0 82 fd a2 be 8a 21 ee bd 55 8a da bd f9 11 4e 3d
       -0.31834036 -0.11627491 -0.10670916 0.05031011
0003e0 fd 35 4f be 02 5d c6 be cf 6d 08 bf 1f 8f e5 bd
       -0.20235439 -0.38742834 -0.53292555 -0.11208939
0003f0 7b 9a 35 bf 81 ce c7 be 5d 24 a3 be 5b b0 a1 be
       -0.70938843 -0.39024737 -0.3186368 -0.3157986
