logs/zero/fold_4/10-24-2022_18-31-50/model_params.pth (torch, 821283 bytes, 10 tensors)

feature.weight_ih_l0 f4 [512, 64]
0.847207 -0.9045667 -0.18281066 -0.7039946 -0.46290082 -0.71664923 0.7333322 0.9766533
-0.32728085 0.47631985 -0.80948424 -1.0351448 -1.3120129 -0.2805256 -0.39163953 0.9937339
0.36060175 0.25473046 -0.8106988 0.6439451 -0.1358257 0.38413295 -0.5380496 0.17172863
-0.0049255705 0.21167761 0.97592014 -0.5576671 0.8346304 -0.30788052 -0.4195437 0.4849481
-1.0692893 0.52763945 -0.29352668 -0.9737368 -0.07948313 0.19674192 0.3603207 0.21789715
0.31845915 -0.12680651 -1.1698318 0.83687955 -0.2899834 0.20103239 -0.049412746 -0.33278877
-0.68411946 0.14685301 0.4739604 -0.07940664 -0.38054246 0.3737134 -1.734604 -0.94419944
-0.93703073 0.5883474 0.7389404 0.8038596 0.85441625 -0.094420075 0.2270994 0.7639576
-0.56974363 1.3837698 -0.9800688 0.7612527 0.79031515 -1.6800365 -0.93751895 0.8287992
0.9482297 0.79463744 -0.8110608 1.6490532 0.8346246 0.23035987 1.1463559 -1.321479
-1.2084806 -1.7617698 -0.24770258 -0.23253849 0.8140327 0.021249976 0.1693572 -1.0811695
-1.7926716 0.75629264 -0.43031946 -1.3114866 0.7914592 1.5201557 -1.7617668 1.2111022
0.446531 0.41465 1.1307687 -1.4687961 -0.41721153 0.4983005 0.24228658 0.41269603
0.4369153 0.72852117 -0.12505232 -0.10967472 0.4622962 0.11961553 0.19098657 -0.3032087
1.0834812 2.8960135 0.57230854 0.40429872 1.5502493 -0.12154645 -1.3156295 -0.069633596
-0.27206963 0.42401096 -1.197523 -0.47798923 -0.8623079 0.9690829 0.85270125 -0.7047856
-0.14420135 -0.47570348 1.0052319 0.3189883 0.00911536 0.02342162 0.07069957 0.8889528
0.5483496 0.09775448 0.0789743 -0.16519944 -0.5034234 0.11641486 0.32454005 -0.37380657
0.43843925 -0.052975517 0.4423841 -0.08695529 -0.05336707 0.8439334 -0.330707 0.4812976
-0.24202454 0.1615952 0.043304898 0.020431489 -0.49047703 -0.831368 0.17425679 0.1336747
0.39522988 -0.54672825 0.2269446 -0.58751726 0.39913955 -0.11047637 0.6541205 -0.29293564
-0.8215421 0.5363217 0.8833423 -1.0038012 -0.33153272 -0.3481448 0.86523944 -0.17704849
-0.3812889 -0.06623258 0.6643728 0.57083786 0.65034825 -0.49323848 -0.3629142 -0.0015456115
0.25668958 -0.26683348 -0.20413722 -0.2871309 -0.25661698 0.44699925 -0.21716991 -0.31168133
-0.22429492 -0.062229488 -1.1918613 -0.5580753 -0.26291683 0.8611185 -0.942834 0.34950268
-0.029950906 1.8258649 1.3527114 -0.29017738 -0.1431896 -0.040148206 1.7129546 -0.28554454
0.01217813 0.4758254 0.4490923 -1.1020783 -0.058008045 -1.4834535 1.3401287 -0.12656346
1.0647655 0.85699826 -0.10797084 0.5737705 -0.31241086 0.04237393 0.23552234 -1.0752214
0.24572785 0.14654152 -0.18427122 0.27936134 0.53206474 -0.011440659 -0.23810296 -0.40065062
-0.52066904 0.8444371 -0.21596842 -0.10907162 -0.9939602 0.5768055 -2.072845 1.3776177
-0.42186233 -0.9125502 -0.35102287 0.051227804 0.61176103 0.5008763 0.16807261 0.5459733
-0.016254393 -0.33203244 0.8556034 0.010956 0.6572238 -0.38923055 0.4555644 -0.7283242
00000000: 8fe2 583f af91 67bf b832 3bbe fd38 34bf
00000010: 5601 edbe 5376 37bf a9bb 3b3f f305 7a3f
00000020: 5b91 a7be 32e0 f33e 5c3a 4fbf a07f 84bf
00000030: 0af0 a7bf 0da1 8fbe fa84 c8be 5865 7e3f
00000040: cba0 b83e 086c 823e f589 4fbf 96d9 243f
00000050: e415 0bbe 13ad c43e 9ebd 09bf a1d9 2f3e
00000060: ae66 a1bb 04c2 583e e7d5 793f 45c3 0ebf
00000070: 57aa 553f 84a2 9dbe 6fce d6be 1e4b f83e
00000080: 79de 88bf 6113 073f 2149 96be d146 79bf
00000090: 0dc8 a2bd b776 493e f47b b83e 6e20 5f3e
000000a0: 140d a33e 91d9 01be 0cbd 95bf bd3d 563f
000000b0: b478 94be 6fdb 4d3e 0565 4abd 4a63 aabe
000000c0: 7422 2fbf a360 163e f0aa f23e f39f a2bd
000000d0: 76d6 c2be 5d57 bf3e 8107 debf 0eb7 71bf
000000e0: 3fe1 6fbf ef9d 163f 332b 3d3f bec9 4d3f
000000f0: 06bb 5a3f 505f c1bd bf8c 683e ba92 433f
00000100: b8da 11bf 5e1f b13f cae5 7abf 75e1 423f
00000110: 1852 4a3f 700b d7bf 3e01 70bf 2f2c 543f
00000120: 2ebf 723f 5c6d 4b3f aea1 4fbf 2d14 d33f
00000130: f5a9 553f 75e3 6b3e cabb 923f 3926 a9bf
00000140: 7eaf 9abf ac81 e1bf bfa5 7dbe 921e 6ebe
00000150: 7264 503f 6e14 ae3c f96b 2d3e c363 8abf
00000160: 4376 e5bf 659c 413f d552 dcbe cbde a7bf
00000170: 129d 4a3f 7694 c23f 9381 e1bf 6605 9b3f
00000180: b69f e43e 014d d43e 07bd 903f 8301 bcbf
00000190: c09c d5be 3e21 ff3e f919 783e e54c d33e
000001a0: 5db3 df3e 5d80 3a3f b70d 00be 249d e0bd
000001b0: 16b2 ec3e fdf8 f43d fc91 433e 2c3e 9bbe
000001c0: 83af 8a3f 4958 3940 d082 123f 3e00 cf3e
000001d0: 926e c63f 58ed f8bd 8c66 a8bf 0f9c 8ebd
000001e0: b64c 8bbe f717 d93e 6f48 99bf 01bb f4be
000001f0: 36c0 5cbf d115 783f a14a 5a3f d46c 34bf
00000200: 85a9 13be 688f f3be 70ab 803f 6f52 a33e
00000210: 9758 153c b2de bf3c f0ca 903d 6992 633f
00000220: a460 0c3f 8033 c83d 47bd a13d 0b2a 29be
00000230: 5be0 00bf ea6a ee3d 1d2a a63e 9363 bfbe
00000240: 1c7b e03e dbfc 58bd 2b80 e23e 9d15 b2bd
00000250: 6e97 5abd 050c 583f 6e52 a9be a46c f63e
00000260: 48d5 77be 3679 253e 7a60 313d f05f a73c
00000270: ce1f fbbe 89d4 54bf 5f70 323e 05e2 083e
00000280: 925b ca3e 62f6 0bbf 2a64 683e 8867 16bf
00000290: 055c cc3e 6f41 e2bd 7174 273f a9fb 95be
000002a0: 9550 52bf 614c 093f b922 623f 8f7c 80bf
000002b0: a8be a9be 0940 b2be 5580 5d3f 334c 35be
000002c0: 4c38 c3be f2a4 87bd 5614 2a3f 6e22 123f
000002d0: 397d 263f c189 fcbe e4cf b9be 1e96 caba
000002e0: d16c 833e 669e 88be 5909 51be d202 93be
000002f0: 4d63 83be 16dd e43e ca61 5ebe b294 9fbe
00000300: 91ad 65be 59e4 7ebd e98e 98bf 06de 0ebf
00000310: 099d 86be 4372 5c3f 925d 71bf 04f2 b23e
00000320: 9a5b f5bc f1b5 e93f a625 ad3f 2192 94be
00000330: 4ba0 12be 7272 24bd 1942 db3f e532 92be
00000340: c886 473c 639f f33e 6def e53e e710 8dbf
00000350: d899 6dbd cee1 bdbf 5689 ab3f da99 01be
00000360: 3c4a 883f 3d64 5b3f d11f ddbd a0e2 123f
00000370: 51f4 9fbe 4990 2d3d c52c 713e dba0 89bf
00000380: 15a0 7b3e fb0e 163e 98b1 3cbe 7308 8f3e
00000390: 6535 083f 9a71 3bbc 43d1 73be 1422 cdbe
000003a0: 914a 05bf 082d 583f d326 5dbe f160 dfbd
000003b0: 2d74 7ebf 86a9 133f 7ea9 04c0 c755 b03f
000003c0: 57fe d7be e49c 69bf 45b9 b3be 3fd4 513d
000003d0: 5f9c 1c3f 6e39 003f 3a1b 2c3e e8c4 0b3f
000003e0: ef27 85bc 2800 aabe d308 5b3f cb80 333c
000003f0: d23f 283f 3a49 c7be bd3f e93e 7473 3abf

feature.weight_hh_l0 f4 [512, 128]
-0.53332365 -0.36095747 -0.6436846 0.15965015 0.27428243 -0.29430234 -0.019860717 0.19113345
-0.012604356 -0.5150346 -0.8231392 -0.2986808 0.40379936 -0.6337856 1.1902469 -0.35605258
0.5582719 -0.21525334 0.18432544 -0.50207675 -0.22551626 0.3071831 0.30953512 -0.40812016
-0.94828427 0.4286798 -0.20721413 -0.061046824 -0.5882995 -0.22547708 0.47995272 -0.3838744
0.0206118 -0.06157707 0.45753244 0.4340189 -0.52734745 0.9484763 -0.12318954 0.53386354
-0.2605885 0.08433836 0.40060583 0.29683363 0.27238217 0.14838113 0.16890551 0.70729387
0.67029625 0.7868698 0.3186382 -0.33166358 -0.2891432 -0.54656684 0.18452032 -0.5087793
0.18430553 0.3148896 -0.20359738 -1.0544084 0.07951163 -0.27306235 -0.4907746 -0.10599053
1.0546728 0.027452055 -0.08023139 -0.009763131 0.49410346 -0.6132517 -0.70340306 0.1846509
0.23039453 -0.7971088 -0.15774037 -0.45570558 -0.62998915 -0.1314741 1.0575808 -0.1614457
0.13743833 -0.0069462643 -0.6910562 0.17363885 -0.6931931 -0.66414565 -0.27531752 0.51867974
0.26104513 0.48194224 0.015291737 0.8654726 0.23007144 1.0584736 -0.060969155 0.06601631
0.18995722 -0.14077014 -0.061680548 0.24155515 -0.40694684 -0.6818925 0.03633687 -0.07182986
-0.15439698 0.21182813 -0.59108734 -0.46317804 -0.14538187 -0.14786945 0.86020094 -0.7721823
0.47778156 0.30726492 1.1491112 -0.710346 -0.42319244 0.47589177 -0.27095786 0.23747285
0.20374463 0.13767906 -0.055073597 0.59688824 0.20927194 0.6511817 -0.07215482 -0.51138556
0.18548942 -0.97170955 0.0906974 -0.79795545 -0.4542908 -0.95490974 -0.055900086 0.40225673
-0.3188267 -0.12718539 0.8441243 -0.0032400216 -1.3576807 -0.20192234 -0.77711254 0.49363506
0.04096722 -0.32856894 -0.31090763 0.2334307 0.19646755 0.03571853 0.52721083 0.18503079
-0.5868119 -0.19211422 -0.24997975 0.8072078 0.8212033 0.19859527 -0.41655347 0.5477998
-0.29433483 -0.48800868 0.11915401 -0.22937907 -0.6238759 -0.40501547 -0.38410237 -0.62583405
-0.680033 0.03743374 -0.15841153 -0.6240063 -1.11655 0.9485626 0.59681237 -0.7562063
-0.22171763 0.4087648 1.1439583 0.009148994 -0.17146799 -0.23627734 -0.03239963 -0.02046172
0.3348619 0.28570804 0.9309837 0.40208757 0.08029361 -0.7881 -0.10088615 0.92174345
-0.82898945 0.020295784 -0.49823666 0.31074733 -0.35491744 -0.19450572 0.3947835 -0.8504225
0.31342575 0.83016497 -0.27761656 0.917053 0.15084398 -0.7074456 0.8479641 -0.085791156
0.12848648 0.24007188 -0.40925354 0.60990506 -0.342524 0.51544183 0.5154921 0.023359545
-0.82852167 -0.08253408 0.18659365 -0.430048 1.1109772 -0.75269073 0.007727361 -0.34867278
0.4528723 -0.21700928 0.2010103 -0.4121191 0.5920574 -0.17578101 0.6244206 0.03484228
-0.1795973 -0.35802755 -0.37790525 0.2214901 1.1140372 0.24114871 -0.6270796 -0.022819318
-0.13385342 -0.7622024 -0.35227633 0.43464115 -0.33058256 0.9896178 0.04201871 -0.45108858
0.6918674 0.33461127 0.019982995 -0.5121113 -0.4523914 -0.36216164 -0.1977944 -0.3956289
00000000: e687 08bf 6bcf b8be 84c8 24bf 547b 233e
00000010: bf6e 8c3e ccae 96be f1b2 a2bc 7db8 433e
00000020: 8082 4ebc 4fd9 03bf 40b9 52bf b1ec 98be
00000030: cabe ce3e c63f 22bf 035a 983f 864c b6be
00000040: e8ea 0e3f 5f6b 5cbe cfbf 3c3e 1a88 00bf
00000050: bced 66be 1a47 9d3e 637b 9e3e 20f5 d0be
00000060: c2c2 72bf eb7b db3e f12f 54be 3c0c 7abd
00000070: cc9a 16bf 77e3 66be 5dbc f53e 2f8b c4be
00000080: 14da a83c 3d38 7cbd b141 ea3e ba37 de3e
00000090: 3e00 07bf 58cf 723f cc4a fcbd 48ab 083f
000000a0: db6b 85be 97b9 ac3d 351c cd3e 94fa 973e
000000b0: ad75 8b3e 39f1 173e 91f5 2c3e 3611 353f
000000c0: 8998 2b3f 4d70 493f 8c24 a33e cfcf a9be
000000d0: 940a 94be ceeb 0bbf e5f2 3c3e 5c3f 02bf
000000e0: 97ba 3c3e 3639 a13e d57b 50be dbf6 86bf
000000f0: fed6 a23d d4ce 8bbe cf46 fbbe 9011 d9bd
00000100: 85ff 863f 22e3 e03c 5b50 a4bd 8af5 1fbc
00000110: 21fb fc3e 10fe 1cbf 3912 34bf 2015 3d3e
00000120: 8bec 6b3e 530f 4cbf b186 21be 3e52 e9be
00000130: f846 21bf 25a1 06be cf5e 873f 0652 25be
00000140: a2bc 0c3e 7d9d e3bb 0fe9 30bf 62ce 313e
00000150: 1a75 31bf 7305 2abf 6bf6 8cbe 32c8 043f
00000160: b5a7 853e 22c1 f63e 328a 7a3c 9d8f 5d3f
00000170: d997 6b3e 107c 873f cbba 79bd 8f33 873d
00000180: 2584 423e 0c26 10be bea4 7cbd 3c5a 773e
00000190: 565b d0be 8290 2ebf f8d5 143d 891b 93bd
000001a0: 3e1a 1ebe 79e9 583e 8051 17bf ac25 edbe
000001b0: fcde 14be 176b 17be 2136 5c3f bdad 45bf
000001c0: c99f f43e d451 9d3e 1316 933f 3cd9 35bf
000001d0: aeac d8be 16a8 f33e fdba 8abe 152c 733e
000001e0: 6fa2 503e bdfb 0c3e da94 61bd abcd 183f
000001f0: 624b 563e d8b3 263f e8c5 93bd 2aea 02bf
00000200: f0f0 3d3e f5c1 78bf 8fbf b93d cf46 4cbf
00000210: ce98 e8be f774 74bf 7df7 64bd 98f4 cd3e
00000220: 413d a3be e33c 02be 8818 583f 8b56 54bb
00000230: 7bc8 adbf bbc4 4ebe d9f0 46bf bcbd fc3e
00000240: 3ecd 273d 303a a8be 492f 9fbe 7508 6f3e
00000250: ca2e 493e 984d 123d 4af7 063f b678 3d3e
00000260: 4e39 16bf 97b9 44be b1fa 7fbe 2ca5 4e3f
00000270: 613a 523f 8f5c 4b3e 7f46 d5be 9c3c 0c3f
00000280: 0eb3 96be 46dc f9be 0507 f43d 59e2 6abe
00000290: 55b6 1fbf 305e cfbe 11a9 c4be a936 20bf
000002a0: a516 2ebf 1f54 193d a236 22be e0be 1fbf
000002b0: 1ceb 8ebf 00d5 723f b2c8 183f bc96 41bf
000002c0: f209 63be 9f49 d13e 3a6d 923f aae5 153c
000002d0: 4e95 2fbe b0f2 71be 79b5 04bd 569f a7bc
000002e0: 0573 ab3e 5348 923e f354 6e3f 6cde cd3e
000002f0: fa70 a43d ecc0 49bf 669d cebd 61f7 6b3f
00000300: a738 54bf 5843 a63c e018 ffbe 461a 9f3e
00000310: bdb7 b5be 822c 47be 1021 ca3e 4ab5 59bf
00000320: 5779 a03e b185 543f c223 8ebe fcc3 6a3f
00000330: d876 1a3e 281b 35bf 2d14 593f 46b3 afbd
00000340: f691 033e 67d5 753e ae89 d1be bd22 1c3f
00000350: 4e5f afbe fff3 033f 4af7 033f 845c bf3c
00000360: ff19 54bf a107 a9bd 6812 3f3e 402f dcbe
00000370: 8034 8e3f 57b0 40bf cd35 fd3b 3d85 b2be
00000380: e1de e73e ae37 5ebe a5d5 4d3e 4601 d3be
00000390: 1391 173f f0ff 33be 07da 1f3f c7b6 0e3d
000003a0: 5be8 37be 634f b7be cc7c c1be 4dce 623e
000003b0: c598 8e3f b0ef 763e 4a88 20bf 94ef babc
000003c0: df10 09be b21f 43bf 905d b4be 4989 de3e
000003d0: 1e42 a9be 9857 7d3f d01b 2c3d 15f5 e6be
000003e0: 391e 313f 2b52 ab3e 61b3 a33c ba19 03bf
000003f0: d89f e7be 406d b9be 9d8a 4abe df8f cabe

feature.bias_ih_l0 f4 [512]
-0.06890132 0.3231558 0.04114266 -0.47320756 -0.17883016 -0.07107387 0.047072336 -0.29936442
-0.37172818 -0.06644071 0.75099236 0.7454993 -0.25996536 -0.16233508 0.21207958 0.017415518
-0.0007583104 -0.040391307 0.25200155 -0.08948503 -0.20709279 0.017558496 0.42119294 0.5807045
0.048019525 0.27758175 -0.13037284 -0.092363626 -0.22657533 -0.26659343 -0.21726117 0.52618265
0.0042013032 -0.034394197 0.09616251 0.030533263 -0.019680623 -0.53534627 -0.15974522 0.06870193
-0.29008636 0.6769939 0.0864345 -0.04388554 -0.045609888 0.41083664 0.15239586 0.13580734
0.04328936 -0.27384064 -0.45064843 0.08150114 -0.05062516 -0.01328028 -0.5353859 -0.033921458
0.4222714 0.27149862 -0.3165483 -0.19131012 -0.28979328 0.8800738 -0.39390668 0.0021863054
-0.5551174 0.16748184 0.054330632 -0.2937246 0.24829635 -0.010665439 -0.23727602 -0.18379788
0.4154609 -0.2310219 -0.20777445 -0.07542378 0.14878844 -0.017695226 0.38722703 -0.15267366
-0.27534857 0.35926273 -0.058238808 0.045698352 -0.26379684 0.50381577 -0.11207963 -0.13220555
0.14291398 0.1306781 -0.30033398 -0.27827892 -0.029492388 0.06735965 -0.23251623 0.38135323
-0.03559603 0.34252477 -0.32672706 0.22742085 1.0187628 -0.17328401 -0.3512966 0.25663778
-0.1073113 0.6549256 -0.011185795 0.09786115 0.18072002 -0.0018513484 0.23235776 -0.14927144
0.2363395 -0.109132625 -0.17907432 0.023812406 1.2218094 0.21450971 -0.40792444 0.09212491
-0.033584345 0.058882784 0.04197372 -0.3989536 -0.3780663 -0.13921812 0.108292915 0.21329673
-0.4017573 -0.19909742 -0.21170664 -0.26262617 -0.11737297 0.015411213 0.018151583 -0.44105396
-0.22837025 -0.29422605 -0.19763425 0.2974718 -0.04476087 0.042129505 -0.365072 0.10809533
0.45006883 0.06964467 -0.4943781 -0.29092792 -0.091136985 -0.13054182 -0.07111458 0.30328792
0.040129606 -0.12099394 0.5429094 -0.19867332 0.22306763 -0.44719505 -0.54615015 0.29509303
-0.0987854 0.07781746 -0.04757397 -0.33272666 0.17369255 -0.34401637 -0.30405995 0.052760392
-0.057800807 -0.32209826 -0.043542586 -0.16853715 -0.058005687 -0.25432047 -0.25869566 0.112949066
0.37575024 -0.051922467 -0.005683177 0.13900332 0.22113138 -0.1325596 -0.11310577 -0.021551132
-0.27254072 -0.16045372 -0.32377225 -0.042493325 -0.24112944 -0.21317296 -0.15783004 0.30139452
-0.03923033 -0.042187467 0.20688939 -0.30948475 -0.21623076 -0.10641976 -0.020867707 -0.25777432
-0.04867471 0.07697199 -0.08538603 -0.047935445 0.08105967 0.01960578 -0.4324265 0.18465453
-0.26481417 0.53801024 -0.2219731 -0.19028579 -0.062407106 -0.342571 -0.018869007 -0.2360017
0.12201619 -0.40781516 0.14650114 -0.02015754 -0.12883085 -0.21318105 -0.45879748 0.0051563145
-0.017223954 -0.039572634 -0.18943995 -0.3602603 -0.02381681 -0.44613 -0.35952073 0.0572209
-0.5492455 -0.72414005 -0.032741543 0.5431082 -0.26353803 0.091519505 -0.37612152 -0.5771222
0.10395088 0.004490756 -0.1664616 -0.26274315 -0.23820083 -0.34402183 -0.4624142 -0.17270952
-0.4636853 -0.23232211 -0.16948 0.037375867 -0.57667017 -0.22590373 0.05276839 0.056073356
00000000: 231c 8dbd ad74 a53e 3585 283d 4348 f2be
00000010: 411f 37be 2d8f 91bd ecce 403d 4b46 99be
00000020: 2853 bebe 1112 88bd 0941 403f 0bd9 3e3f
00000030: 2e1a 85be 2b3b 26be 642b 593e fdaa 8e3c
00000040: 59c9 46ba 5b71 25bd 5906 813e ed43 b7bd
00000050: 2210 54be d6d6 8f3c 9aa6 d73e 0da9 143f
00000060: 1fb0 443d 321f 8e3e 7580 05be 2429 bdbd
00000070: 5d03 68be ef7e 88be b679 5ebe e8b3 063f
00000080: 16ab 893b eee0 0cbd daf0 c43d e520 fa3c
00000090: 4239 a1bc 740c 09bf 4094 23be 99b3 8c3d
000000a0: 3386 94be 794f 2d3f 9204 b13d 53c1 33bd
000000b0: 6fd1 3abd 2e59 d23e a90d 1c3e 1411 0b3e
000000c0: 2f50 313d d734 8cbe 64bb e6be 12ea a63d
000000d0: 545c 4fbd 8895 59bc 0d0f 09bf 3af1 0abd
000000e0: f533 d83e de01 8b3e 9e12 a2be cde6 43be
000000f0: c95f 94be 844c 613f 23ae c9be 1e48 0f3b
00000100: 2d1c 0ebf 5c80 2b3e cc89 5e3d 1263 96be
00000110: 6641 7e3e 18be 2ebc 7cf8 72be 8335 3cbe
00000120: 4bb7 d43e 0191 6cbe d3c2 54be c877 9abd
00000130: ff5b 183e 94f5 90bc 9f42 c63e 7c56 1cbe
00000140: 7dfa 8cbe 49f1 b73e d18b 6ebd 322e 3b3d
00000150: 6110 87be 12fa 003f 018a e5bd e460 07be
00000160: 0b58 123e 7bd0 053e 60c5 99be 937a 8ebe
00000170: 059a f1bc dbf3 893d bc18 6ebe bb40 c33e
00000180: 25cd 11bd 685f af3e c548 a7be 03e1 683e
00000190: d266 823f 5d71 31be 26dd b3be 0766 833e
000001a0: 07c6 dbbd 34a9 273f a044 37bc 6d6b c83d
000001b0: ab0e 393e f2a8 f2ba 31ef 6d3e 9dda 18be
000001c0: fb02 723e ed80 dfbd 425f 37be 3c12 c33c
000001d0: 4064 9c3f 6fa8 5b3e 79db d0be fcab bc3d
000001e0: bd8f 09bd 132f 713d a3ec 2b3d a543 ccbe
000001f0: e891 c1be 328f 0ebe adc8 dd3d 756a 5a3e
00000200: 22b3 cdbe 32e0 4bbe a0c9 58be f076 86be
00000210: 3d61 f0bd 507f 7c3c a1b2 943c d3d1 e1be
00000220: e4d9 69be cca4 96be a260 4abe 394e 983e
00000230: 2d57 37bd fd8f 2c3d b8ea babe 1661 dd3d
00000240: 6c6f e63e dda1 8e3d 201f fdbe 81f4 94be
00000250: 07a6 babd c1ac 05be 85a4 91bd 8e48 9b3e
00000260: f15e 243d accb f7bd 1cfc 0a3f 0571 4bbe
00000270: d76b 643e c0f6 e4be 7fd0 0bbf 6f16 973e
00000280: 0050 cabd c35e 9f3d ecdc 42bd 265b aabe
00000290: 76dc 313e ea22 b0be bfad 9bbe 481b 583d
000002a0: 8ac0 6cbd 10ea a4be b659 32bd 0195 2cbe
000002b0: 5f97 6dbd 4b36 82be c273 84be d751 e73d
000002c0: 5662 c03e a7ac 54bd f239 babb e356 0e3e
000002d0: 4470 623e b4bd 07be ffa3 e7bd 008c b0bc
000002e0: 758a 8bbe fb4d 24be 7ac5 a5be 7b0d 2ebd
000002f0: a3ea 76be 034a 5abe 339e 21be 6250 9a3e
00000300: fcaf 20bd c4cc 2cbd d0da 533e c974 9ebe
00000310: 996b 5dbe 9af2 d9bd c1f2 aabc fffa 83be
00000320: 225f 47bd 7ea3 9d3d dfde aebd f557 44bd
00000330: 9d02 a63d 4d9c a03c 0267 ddbe 1416 3d3e
00000340: b995 87be 0abb 093f eb4c 63be 47da 42be
00000350: 989e 7fbd 7765 afbe 2d93 9abc 6eaa 71be
00000360: a0e3 f93d 26cd d0be 6504 163e 6d21 a5bc
00000370: 3cec 03be 224c 5abe 81e7 eabe 4df6 a83b
00000380: 4019 8dbc ea16 22bd 8cfc 41be 0a74 b8be
00000390: 791b c3bc 276b e4be 1a13 b8be 7660 6a3d
000003a0: 5a9b 0cbf 3e61 39bf ff1b 06bd 2409 0b3f
000003b0: 75ee 86be 946e bb3d 0093 c0be 48be 13bf
000003c0: 33e4 d43d 3127 933b e974 2abe 4586 86be
000003d0: ebea 73be a123 b0be 8ec1 ecbe c4da 30be
000003e0: 2968 edbe d9e5 6dbe 2a8c 2dbe 7017 193d
000003f0: a8a0 13bf 4f53 67be ab23 583d 2dad 653d

feature.bias_hh_l0 f4 [512]
-0.08813977 0.33038634 0.010444876 -0.31587327 -0.112384036 -0.15454647 0.10399213 -0.26140636
-0.41648427 0.04753684 0.8132311 0.7312032 -0.18260689 -0.005670782 0.17591953 -0.04335045
0.025798807 -0.1466736 0.34763554 -0.14808898 -0.21818732 -0.03591588 0.28522465 0.54623157
0.21452308 0.24636412 -0.16582936 -0.040140618 -0.12806973 -0.30328143 -0.25627983 0.45624128
0.06857189 0.028977403 0.110619575 0.12204882 -0.035133433 -0.60761374 -0.13693243 0.08359891
-0.29820332 0.71826446 0.049717307 -0.012904722 -0.12039975 0.4848348 0.19438486 0.15484217
0.15007612 -0.19944048 -0.41450396 0.004274908 -0.089593254 -0.05197159 -0.43475842 0.07050412
0.43690026 0.5026615 -0.30089724 -0.23986806 -0.2987211 0.9087502 -0.3061971 0.08706322
-0.46615157 0.16783515 0.10528187 -0.37824804 0.33986875 0.08202393 -0.14874765 -0.14698423
0.33948475 -0.24931313 -0.25459352 0.020414935 0.1333321 0.061238118 0.3878438 -0.18189332
-0.36662415 0.25315425 -0.31092268 -0.0075126933 -0.29264057 0.41938657 -0.08426918 -0.13788229
0.21846665 0.14409098 -0.3685465 -0.2999459 -0.013169499 0.17932793 -0.4364569 0.35488343
0.07021495 0.25997594 -0.24278946 0.15184093 1.0189319 -0.14513664 -0.28654024 0.23238076
-0.21203096 0.5297566 0.07300431 0.07792192 0.21734555 0.06889869 0.0484619 -0.03987364
0.19958802 -0.14110221 -0.19544847 0.0029436415 1.1913303 0.26128697 -0.41092548 0.06276052
-0.040062934 0.052204978 0.042393867 -0.58554864 -0.37101716 -0.02325467 0.20345819 0.16661872
-0.5323597 -0.17770512 -0.20860948 -0.15551704 -0.18496978 -0.18180896 0.07058318 -0.45953092
-0.25380883 -0.37578127 -0.23881096 0.36211136 0.042745866 -0.027504418 -0.39141312 -0.023951959
0.30215624 0.11190672 -0.47911078 -0.40238723 -0.08917698 -0.15461676 0.029776845 0.21604943
0.018963227 -0.15797715 0.63228095 -0.18348241 0.2161877 -0.44773483 -0.4453067 0.22208467
-0.1655026 0.04006345 -0.14914541 -0.2573095 0.14596601 -0.18395337 -0.24015106 0.00738601
0.008153475 -0.15953407 -0.012108948 -0.27335292 -0.20827563 -0.22790976 -0.4033851 0.15120745
0.28650376 -0.09644299 0.04746443 0.1850746 0.062828556 -0.15557146 0.09578428 -0.10267577
-0.29327464 -0.1866693 -0.28301182 -0.087650456 -0.1518387 -0.2996976 -0.1539485 0.2848773
-0.065376006 -0.064069904 0.25466174 -0.31737342 -0.18045834 0.05063232 -0.105921485 -0.3043134
0.040951803 0.073652394 -0.10108217 0.010227456 0.08534424 0.076271646 -0.44115636 0.11767298
-0.22032034 0.6256277 -0.22683361 -0.2588542 -0.20928451 -0.37258208 -0.0063817175 -0.23299982
0.115335844 -0.5717901 0.024230244 -0.0022852449 -0.15374759 -0.32224396 -0.36188596 0.045283537
-0.015159035 -0.04942342 -0.06838191 -0.28573868 -0.08659374 -0.39085793 -0.37832484 0.08752554
-0.4030511 -0.70748526 -0.07930014 0.52294636 -0.23142712 0.18442589 -0.26418388 -0.57396454
-0.026237564 -0.11379542 -0.26525992 -0.29909238 -0.24932714 -0.55457085 -0.5265072 -0.24349548
-0.5706086 -0.3919173 -0.072350554 0.08809536 -0.57191586 -0.2792668 0.09099651 0.12094083
00000000: a082 b4bd 6628 a93e fc20 2b3c 24ba a1be
00000010: 9a29 e6bd 6e41 1ebe d3f9 d43d 0ed7 85be
00000020: 6d3d d5be fdb5 423d ea2f 503f 2230 3b3f
00000030: 4dfd 3abe f8d1 b9bb 4024 343e 3e90 31bd
00000040: 0558 d33c 9b31 16be 49fd b13e a3a4 17be
00000050: 7f6c 5fbe 881c 13bd f708 923e d5d5 0b3f
00000060: f0ab 5b3e e046 7c3e 2ccf 29be 7d6a 24bd
00000070: b624 03be b447 9bbe 1c37 83be 7598 e93e
00000080: 6b6f 8c3d 0562 ed3c 848c e23d bbf4 f93d
00000090: 13e8 0fbd 938c 1bbf 0438 0cbe e835 ab3d
000000a0: 1bae 98be 2ee0 373f 60a4 4b3d 546e 53bc
000000b0: 2594 f6bd 443c f83e d30c 473e f28e 1e3e
000000c0: 8ead 193e 203a 4cbe dd39 d4be 8714 8c3b
000000d0: ab7c b7bd 29e0 54bd a898 debe 7764 903d
000000e0: 64b1 df3e 6dae 003f 340f 9abe f99f 75be
000000f0: f9f1 98be daa3 683f dec5 9cbe 344e b23d
00000100: 6bab eebe fadc 2b3e 059e d73d baa9 c1be
00000110: 4703 ae3e 2afc a73d 4e51 18be 0983 16be
00000120: f2d0 ad3e f14b 7fbe 155a 82be 393d a73c
00000130: 3688 083e d2d4 7a3d 7693 c63e 3e42 3abe
00000140: 29b6 bbbe 6f9d 813e 4231 9fbe 0a2d f6bb
00000150: fcd4 95be d6b9 d63e 5295 acbd 0431 0dbe
00000160: b9b5 5f3e 968c 133e 20b2 bcbe 8292 99be
00000170: e2c4 57bc bea1 373e 4777 dfbe 48b3 b53e
00000180: dbcc 8f3d 911b 853e cd9d 78be 307c 1b3e
00000190: 5c6c 823f b39e 14be 67b5 92be 39f5 6d3e
000001a0: a51e 59be 219e 073f 4983 953d 8795 9f3d
000001b0: d58f 5e3e c21a 8d3d fc7f 463d 8b52 23bd
000001c0: cd60 4c3e 197d 10be a523 48be 1cea 403b
000001d0: 837d 983f 68c7 853e d364 d2be 9688 803d
000001e0: 0819 24bd e3d4 553d 31a5 2d3d 84e6 15bf
000001f0: f6f5 bdbe 9480 bebc 5857 503e 199e 2a3e
00000200: ba48 08bf 55f8 35be b99d 55be dc3f 1fbe
00000210: b868 3dbe 212c 3abe ea8d 903d a347 ebbe
00000220: 3bf3 81be 6766 c0be dc8a 74be a966 b93e
00000230: 4a16 2f3d f250 e1bc 4d67 c8be e636 c4bc
00000240: 39b4 9a3e 5a2f e53d 024e f5be b305 cebe
00000250: 6ca2 b6bd db53 1ebe 92ee f33c 103c 5d3e
00000260: c558 9b3c c3c4 21be 2add 213f d0e2 3bbe
00000270: 4f60 5d3e 803d e5be 3dff e3be 2a6a 633e
00000280: 8379 29be 9219 243d 93b9 18be 12be 83be
00000290: 1d78 153e 465e 3cbe 29ea 75be 5806 f23b
000002a0: 2796 053c e65c 23be 9c64 46bc eaf4 8bbe
000002b0: 3546 55be 2d61 69be 7e88 cebe 20d6 1a3e
000002c0: 9fb0 923e e783 c5bd 106a 423d 3284 3d3e
000002d0: 42ac 803d 204e 1fbe 8c2a c43d ad47 d2bd
000002e0: 1828 96be 3d26 3fbe ede6 90be 1582 b3bd
000002f0: 9b7b 1bbe f771 99be ada4 1dbe 70db 913e
00000300: dbe3 85bd 1537 83bd 0663 823e c57e a2be
00000310: 12ca 38be d663 4f3d 5ded d8bd f7ce 9bbe
00000320: 14bd 273d 11d7 963d 2b04 cfbd 0f91 273c
00000330: f6c8 ae3d 4f34 9c3d 3fdf e1be 88fe f03d
00000340: a89b 61be 2329 203f 1247 68be 8a88 84be
00000350: ae4e 56be 14c3 bebe ba1d d1bb 8197 6ebe
00000360: 3335 ec3d d660 12bf 817e c63c 0cc4 15bb
00000370: 0270 1dbe 29fd a4be 1e49 b9be 3b7b 393d
00000380: 9a5d 78bc 3670 4abd d10b 8cbd 574c 92be
00000390: 0f58 b1bd 881e c8be cbb3 c1be 9740 b33d
000003a0: b75c cebe c11d 35bf 1d68 a2bd d0df 053f
000003b0: 3bfb 6cbe 24da 3c3e 1c43 87be 57ef 12bf
000003c0: 29f0 d6bc 930d e9bd 26d0 87be a322 99be
000003d0: 9d4f 7fbe 5bf8 0dbf 2dc9 06bf e156 79be
000003e0: 6813 12bf 62a9 c8be 872c 94bd 576b b43d
000003f0: 1469 12bf 0ffc 8ebe 615c ba3d d3af f73d

feature.weight_ih_l0_reverse f4 [512, 64]
0.46988112 -0.0068374714 -0.42264506 0.22714591 0.22884792 -0.6459653 0.56197363 0.42145282
-0.24165913 -0.24117777 -0.58174336 -0.14205973 -0.5453691 0.37515113 0.09816372 0.8686999
0.64839303 0.021206956 -0.31543225 0.8789655 1.5081037 -0.48550335 0.14134859 -0.67409015
-0.6427298 -0.5822438 -0.25373104 0.15818885 -0.43108565 0.113929175 0.7575188 0.44979018
-0.0003884855 0.38816506 -0.360081 0.006868447 0.102488466 0.49950716 -0.37321186 -0.25092307
0.4369859 0.13296847 0.36280945 0.7404248 -0.8044266 -0.025156157 -0.25029907 -0.5871252
0.15233098 -0.18832663 -0.7022952 -0.5238037 -0.093260944 0.45754266 1.1607889 -0.005436079
-0.60374236 0.8083725 1.287472 0.076159455 0.2100707 -0.6042237 0.0096935835 -0.43420532
-0.80836403 -0.09052749 -0.62502337 0.59650767 -0.22575538 0.37982208 0.16007484 -1.3409612
-0.5950301 -0.47450364 0.250002 -0.1934772 -0.5179179 1.1668932 0.13108382 -0.29177335
0.08173983 0.64377105 -0.40039748 -0.41404918 0.8472049 0.5686383 0.88626057 0.74214244
0.47491333 -0.60025454 -0.6443252 -0.99276096 -0.67999774 0.42404875 0.36167085 -0.34857267
1.120628 0.32875735 -1.4862157 -0.91892874 -0.32729277 -0.2800774 0.624494 -0.88096243
-0.32702604 0.7775526 0.6731752 -0.28255278 -0.5474173 -1.8266283 -0.21128583 0.87663543
0.51356626 -2.189881 -0.95604706 0.6766252 0.82480115 -0.90078723 -0.08492106 0.31375733
0.41621786 0.96058017 1.9190603 0.81856185 -1.1088884 0.6189234 0.26706895 -0.62882185
-0.32658175 -1.1307408 1.1870023 0.35507053 -0.046099965 -0.051447958 -0.08132096 -0.648797
0.02066963 0.50666624 -2.2501519 0.32263586 -0.22368574 -0.8092759 -0.74653167 -0.3607317
-0.063729145 -0.029794853 0.275202 0.10808751 -0.8514076 -0.75667304 0.33201897 0.9900493
-0.554491 -0.21952005 -0.8285089 -0.36737254 -0.12776332 -2.405711 0.40387502 -0.42107207
-0.53321093 -0.27629584 -0.05252893 0.91108173 -1.0785923 -0.26398215 -0.6918359 -0.7690113
-0.8692507 -0.42820987 -0.07108867 -0.4299258 -0.0380374 0.052276246 0.2934842 -0.5884719
-0.09385663 0.23662475 0.45081457 -0.22598664 -1.6541469 0.78336877 0.6878665 0.5551928
0.54715383 -0.8164717 0.87611717 -0.004698635 -0.015333216 -0.07470719 -0.36343727 1.0327812
0.35372216 -0.15311162 -0.7538733 1.6465372 -1.4343765 0.4677899 0.1749659 0.050599206
-0.106144756 -0.7500691 -0.7620152 0.11901774 0.009560501 0.29935223 -0.24664271 -0.59532404
0.436709 0.91581327 -0.9379214 0.54076415 0.79049814 -0.27732733 -0.9081875 -1.3439837
0.33455256 -1.933625 0.29666448 -0.4418956 -0.40590104 -0.18967044 0.06129892 -0.6378374
0.1390286 0.04578633 -0.044782095 0.50964636 -0.49040782 0.28965938 -0.6474959 -0.38069004
-0.49706656 0.08880796 -0.74106735 0.8971082 -2.3884933 0.90318996 0.073354766 -1.6838156
-0.6446486 0.3098432 -0.15926237 -0.06871387 0.31526917 0.48339504 0.6372671 1.2885011
0.5766444 -0.74962664 0.07221643 -0.47804064 -0.4065183 0.35153827 0.13987462 0.2626477
00000000: 4294 f03e de0c e0bb ef64 d8be f098 683e
00000010: 1c57 6a3e fb5d 25bf 81dd 0f3f aac8 d73e
00000020: 7e75 77be 4ef7 76be 22ed 14bf 1b78 11be
00000030: 4f9d 0bbf cf13 c03e 0f0a c93d 1e63 5e3f
00000040: 16fd 253f 36ba ad3c 5680 a1be e203 613f
00000050: 8b09 c13f e593 f8be afbd 103e 2c91 2cbf
00000060: f189 24bf ee0d 15bf 09e9 81be 42fc 213e
00000070: 42b7 dcbe b353 e93d c1ec 413f e64a e63e
00000080: a4ad cbb9 92bd c63e 895c b8be b610 e13b
00000090: 79e5 d13d 67bf ff3e a015 bfbe fd78 80be
000000a0: 9ebc df3e e328 083e 29c2 b93e 7b8c 3d3f
000000b0: e7ee 4dbf 4914 cebc 3327 80be d64d 16bf
000000c0: a7fc 1b3e b2d8 40be 9ec9 33bf 0018 06bf
000000d0: 98ff bebd 0843 ea3e bb94 943f 2321 b2bb
000000e0: dc8e 1abf 80f1 4e3f e2cb a43f 7df9 9b3d
000000f0: c61c 573e 68ae 1abf d6d1 1e3c 2950 debe
00000100: f2f0 4ebf 7a66 b9bd 8801 20bf bab4 183f
00000110: 6b2c 67be 0a78 c23e a9ea 233e 9ea4 abbf
00000120: e553 18bf 24f2 f2be 4300 803e e31e 46be
00000130: 4496 04bf c25c 953f d63a 063e 5163 95be
00000140: 3667 a73d 2ece 243f e600 cdbe 41fe d3be
00000150: 6ce2 583f 4892 113f f9e1 623f 0cfd 3d3f
00000160: d727 f33e 48aa 19bf 7ff2 24bf 9525 7ebf
00000170: 5514 2ebf eb1c d93e ec2c b93e 1e78 b2be
00000180: bd70 8f3f e252 a83e 513c bebf ea3e 6bbf
00000190: eb92 a7be 4e66 8fbe d7de 1f3f c186 61bf
000001a0: f56f a7be b00d 473f 3655 2c3f c2aa 90be
000001b0: 8a23 0cbf f5ce e9bf 505b 58be 2e6b 603f
000001c0: 1479 033f 0327 0cc0 80bf 74bf 4f37 2d3f
000001d0: 2b26 533f fe99 66bf 18eb adbd cda4 a03e
000001e0: 821a d53e 95e8 753f c5a3 f53f 458d 513f
000001f0: 0ef0 8dbf c471 1e3f 43bd 883e 78fa 20bf
00000200: b935 a7be 1dbc 90bf b1ef 973f cecb b53e
00000210: 51d3 3cbd 18bb 52bd 9a8b a6bd 8f17 26bf
00000220: 5b53 a93c e1b4 013f 7d02 10c0 8730 a53e
00000230: e00d 65be b52c 4fbf b31c 3fbf d3b1 b8be
00000240: 6d84 82bd 5614 f4bc 47e7 8c3e fc5c dd3d
00000250: d9f5 59bf 53b5 41bf 64fe a93e df73 7d3f
00000260: 1ff3 0dbf ddc9 60be 2919 54bf 4118 bcbe
00000270: 63d4 02be 2bf7 19c0 b5c8 ce3e c296 d7be
00000280: 8380 08bf a676 8dbe 9328 57bd a73c 693f
00000290: 500f 8abf ab28 87be 281c 31bf eddd 44bf
000002a0: 3787 5ebf 533e dbbe f096 91bd 3c1f dcbe
000002b0: 1bcd 1bbd 9e1f 563d 9043 963e 18a6 16bf
000002c0: e837 c0bd c24d 723e 2bd1 e63e 0b69 67be
000002d0: 16bb d3bf db8a 483f 0518 303f 1e21 0e3f
000002e0: 4612 0c3f 4a04 51bf 3749 603f 02f7 99bb
000002f0: 2b38 7bbc 1500 99bd 7314 babe 2d32 843f
00000300: 121b b53e 4bc9 1cbe d7fd 40bf bbc1 d23f
00000310: a699 b7bf 2882 ef3e 432a 333e 1d41 4f3d
00000320: 6c62 d9bd 8704 40bf 6e13 43bf 93bf f33d
00000330: a6a3 1c3c b244 993e e88f 7cbe 2867 18bf
00000340: 5298 df3e bd72 6a3f 9e1b 70bf 856f 0a3f
00000350: 165e 4a3f d9fd 8dbe fa7e 68bf a807 acbf
00000360: 794a ab3e 0681 f7bf 68e4 973e 2440 e2be
00000370: 43d2 cfbe f838 42be 9414 7b3d 5049 23bf
00000380: 835d 0e3e 728a 3b3d 6e6d 37bd 2f78 023f
00000390: bc16 fbbe 3c4e 943e 4bc2 25bf cee9 c2be
000003a0: 827f febe f3e0 b53d 97b6 3dbf e2a8 653f
000003b0: 13dd 18c0 7537 673f 063b 963d 4587 d7bf
000003c0: b107 25bf c5a3 9e3e ad15 23be dcb9 8cbd
000003d0: f66a a13e 8e7f f73e f023 233f 9bed a43f
000003e0: f89e 133f 88e7 3fbf 35e6 933d bec1 f4be
000003f0: 2b23 d0be d3fc b33e 4b3b 0f3e c279 863e

feature.weight_hh_l0_reverse f4 [512, 128]
0.23197897 0.7006339 0.37866446 -1.2652305 0.7157543 0.7235334 0.1824833 0.65318537
-0.3074955 -0.50418156 -0.11167061 -0.27264178 0.7525317 0.42673102 0.48030317 -0.4335665
0.26537693 -0.13224895 -0.20100354 -0.20161256 -0.09595721 -0.37753695 0.54593545 -0.16926208
-0.0259038 -0.0076325536 0.6603804 0.19405253 -0.08727396 0.7762565 0.87438905 0.0408283
0.32878298 -0.9382657 -0.1446369 -0.21685112 -0.9370832 0.18921334 0.34359398 0.76098424
0.44392136 -0.18712154 0.62133217 0.41469917 0.17509554 0.080784254 0.32801148 -0.10866729
-0.081431516 -0.32845464 0.20613056 -0.5862231 0.2762555 -0.52981365 0.48081827 -0.009562066
-0.2659385 -0.7899436 0.16532084 -0.46519268 -0.039614096 -0.041642856 0.638452 -0.09283385
0.08353686 0.13700783 -0.5630605 -0.6913978 -0.12758557 1.0808647 -0.4946646 0.5222641
0.32783964 0.48008582 -0.29709995 0.0021971627 0.14655404 0.47232696 -1.3181759 -0.4636393
0.8143906 0.4165197 0.94047666 0.21029513 0.043363534 -0.76525515 0.23317704 0.069115624
0.38891342 -0.008135156 0.28608954 -0.80533135 0.23305276 0.48427212 -0.3605517 0.3844398
0.37639362 0.94368994 0.48956433 0.01297988 0.42536736 -0.18180251 0.023877526 0.24230129
-0.5480172 -0.21405637 -0.20481499 0.45141047 -0.068507776 -0.08780273 -0.18972687 0.16836719
0.19521856 0.52744526 -0.14579646 0.13355921 0.142278 0.10686541 -0.72387767 -0.06171106
0.22055183 0.19488221 -0.8152754 0.63224876 -0.20886129 -0.3590087 -0.16951394 0.3374502
0.0377565 0.12267504 0.23997143 0.5658861 0.097643636 0.18901445 -0.5057508 0.3346317
-0.045342598 -0.709849 -0.24197765 -0.24158444 -0.17243442 0.43028912 0.37059352 -0.04327943
0.11568951 -0.3433707 -0.94011277 -0.56419176 0.046445824 -0.3611015 -0.04272825 0.89819634
0.8186066 0.4294348 0.23441754 -0.6012362 -0.050962947 -0.12935768 -0.7199695 0.054157317
0.7228411 -0.5426184 -0.399935 0.0005776472 0.82673794 0.014826619 0.31887588 0.05617275
0.20638682 -0.15351216 -0.40310213 0.15810677 -0.11525286 -1.20523 -0.0034128178 -0.2320833
0.12282888 0.011835887 -0.44036093 0.42332202 0.102643415 -0.026171295 -0.31834608 -0.09125807
-0.15650024 -0.002673855 -0.37312156 0.034821525 0.6455947 -0.16739705 0.19657816 -0.93498635
0.2549876 -0.56870264 0.43678 0.23868254 0.3691835 -0.39057916 -0.78025967 -0.055235613
-0.017743628 0.18535495 -0.49805275 0.22039984 0.40668142 -0.34413925 -0.13100658 0.3610245
-0.05116815 -0.17890202 0.018768722 0.81255656 -0.107487984 0.52407134 -0.52839947 -0.061249677
-0.14572456 0.044257723 -0.30238855 0.32394502 -0.01333706 1.4407077 0.53270864 0.823235
0.8798563 -0.16362302 0.020669464 0.25137004 -0.6305413 -0.006646846 0.5288655 0.118917175
0.40411747 0.056831725 -0.2975594 0.7793137 -0.5794217 0.14545055 -0.03387155 0.13034515
0.07145824 0.04013152 0.3314307 0.44607398 -0.7246199 -0.021470763 0.7776246 0.2739199
-0.060785025 -0.6938838 -0.4288678 -0.24053092 0.027652845 -0.086303025 -0.21919662 0.2324721
00000000: e58b 6d3e be5c 333f 4fe0 c13e 13f3 a1bf
00000010: ac3b 373f 7c39 393f e7dc 3a3e 2837 273f
00000020: 0d70 9dbe 0b12 01bf 90b3 e4bd b497 8bbe
00000030: eba5 403f 7d7c da3e 4cea f53e 6efc ddbe
00000040: 7cdf 873e 456c 07be dfd3 4dbe 8673 4ebe
00000050: 3785 c4bd 864c c1be 6dc2 0b3f 0a53 2dbe
00000060: 3534 d4bc 801a fabb b10e 293f b5b5 463e
00000070: b1bc b2bd bfb8 463f f6d7 5f3f 933b 273d
00000080: 3e56 a83e 2e32 70bf b21b 14be 380e 5ebe
00000090: afe4 6fbf 24c1 413e 8deb af3e ddcf 423f
000000a0: a949 e33e ca9c 3fbe a00f 1f3f 7353 d43e
000000b0: 3f4c 333e 3772 a53d 1ff1 a73e f58c debd
000000c0: 91c5 a6bd 352b a8be e413 533e b812 16bf
000000d0: 5c71 8d3e dea1 07bf d02d f63e 36aa 1cbc
000000e0: 1729 88be be39 4abf de49 293e bc2d eebe
000000f0: 6442 22bd b391 2abd 9771 233f ac1f bebd
00000100: 6015 ab3d c84b 0c3e bc24 10bf 72ff 30bf
00000110: cba5 02be c659 8a3f ae44 fdbe 1ab3 053f
00000120: 99da a73e cfcd f53e 7c1d 98be 46fe 0f3b
00000130: 4312 163e d7d4 f13e fdb9 a8bf 2162 edbe
00000140: e77b 503f 1242 d53e 14c3 703f 9b57 573e
00000150: f69d 313d c3e7 43bf f6c5 6e3e 7e8c 8d3d
00000160: a91f c73e 5149 05bc 547a 923e 322a 4ebf
00000170: 62a5 6e3e 84f2 f73e 3c9a b8be 4bd5 c43e
00000180: aab6 c03e aa95 713f 2da8 fa3e 90a9 543c
00000190: c0c9 d93e 702a 3abe cd9a c33c d41d 783e
000001a0: db4a 0cbf 9831 5bbe 05bb 51be 461f e73e
000001b0: ce4d 8cbd ebd1 b3bd c347 42be 7368 2c3e
000001c0: 60e7 473e a706 073f ab4b 15be bfc3 083e
000001d0: 53b1 113e 41dc da3d 0c50 39bf bdc4 7cbd
000001e0: 57d8 613e 348f 473e e3b5 50bf 0edb 213f
000001f0: bcdf 55be fdcf b7be 1095 2dbe 46c6 ac3e
00000200: 8fa6 1a3d 0d3d fb3d 12bb 753e e9dd 103f
00000210: 63f9 c73d 018d 413e e278 01bf d954 ab3e
00000220: 29b9 39bd aab8 35bf fdc8 77be e961 77be
00000230: a692 30be db4e dc3e 6fbe bd3e c645 31bd
00000240: 9fee ec3d 49ce afbe 3bab 70bf df6e 10bf
00000250: fa3d 3e3d 4ce2 b8be d103 2fbd 32f0 653f
00000260: 3490 513f e1de db3e 270b 703e 9eea 19bf
00000270: 86be 50bd 5776 04be ec4f 38bf 10d4 5d3d
00000280: 1d0c 393f 0ae9 0abf 48c4 ccbe 3f6d 173a
00000290: 19a5 533f 59eb 723c b343 a33e 6615 663d
000002a0: 1157 533e 4b32 1dbe 6763 cebe bee6 213e
000002b0: b109 ecbd fa44 9abf 95a9 5fbb 3fa7 6dbe
000002c0: b58d fb3d 4feb 413c fd76 e1be aabd d83e
000002d0: b636 d23d 2f65 d6bc 42fe a2be 83e5 babd
000002e0: 9941 20be d83b 2fbb ca09 bfbe 04a1 0e3d
000002f0: b245 253f 226a 2bbe c94b 493e 445b 6fbf
00000300: bc8d 823e 7f96 11bf a1a1 df3e 3269 743e
00000310: 9f05 bd3e fef9 c7be 19bf 47bf bd3e 62bd
00000320: 165b 91bc b0cd 3d3e c500 ffbe 7fb0 613e
00000330: 8c38 d03e 0533 b0be 9726 06be 34d8 b83e
00000340: b295 51bd 1732 37be ddc0 993c b503 503f
00000350: a922 dcbd 8a29 063f 3045 07bf f1e0 7abd
00000360: d238 15be 9647 353d acd2 9abe 1fdc a53e
00000370: af83 5abc 1c69 b83f 985f 083f 87bf 523f
00000380: 433e 613f cb8c 27be 0253 a93c 93b3 803e
00000390: 286b 21bf c9cd d9bb bb63 073f d98a f33d
000003a0: 7ce8 ce3e 62c8 683d b559 98be 1a81 473f
000003b0: fb54 14bf fdf0 143e e5bc 0abd 3379 053e
000003c0: b358 923d f360 243d 49b1 a93e cf63 e43e
000003d0: b180 39bf 74e3 afbc 6812 473f 3b3f 8c3e
000003e0: b8f9 78bd 5ea2 31bf 8f94 dbbe bd4d 76be
000003f0: 3888 e23c a4bf b0bd 1475 60be 2b0d 6e3e

feature.bias_ih_l0_reverse f4 [512]
0.24230962 -0.31728423 0.01261624 0.054841515 0.05698081 -0.0327649 0.47898787 0.29256472
-0.07625064 0.4587061 -0.1558465 -0.08872287 0.41740507 0.065148525 0.044091806 0.24998367
0.16713594 0.19058764 0.03553459 0.1953935 0.30752498 0.23107661 0.29211167 0.08461881
0.252795 0.0019014248 0.011672684 -0.23109882 0.14194259 0.42076844 0.20561086 -0.008522769
0.35444805 0.4803959 0.29525775 -0.19178832 0.35632232 0.114158906 0.11897723 0.16156282
0.28446954 0.31185305 0.15078098 0.18333401 0.0015136688 0.017636938 0.24049942 0.17197108
-0.112193204 0.22402078 0.054280583 -0.43816137 0.16516997 0.031931024 0.22662929 -0.16395393
0.18147403 0.18518779 -0.16361806 0.003220528 0.6324571 0.31223863 0.16132957 -0.056260977
0.3737734 0.35855693 0.31446064 0.045585353 -0.1569454 -0.3174074 0.2608974 -0.1266439
-0.094924524 0.08268106 0.10085707 -0.1409929 -0.094612695 -0.082453676 0.039994024 0.41408446
0.17237942 0.47779205 0.2669233 0.21015026 -0.04602837 -0.24870436 0.056988154 0.46590775
-0.06490428 -0.055313166 0.22120458 0.23513024 0.08104748 0.23258866 0.3450681 0.17588787
-0.30394307 0.1603354 -0.03512423 0.5988311 0.35756397 -0.16986239 0.10416538 0.019975582
0.13402025 0.1365829 -0.08449947 0.037753053 0.36988667 0.21999186 0.04868114 0.24363737
0.17739409 0.16918656 -0.16469158 0.29941285 0.20169109 -0.04553174 -0.44940823 0.35692316
0.39884123 0.18133998 -0.2469332 0.4042605 0.5154187 0.113785885 0.38470912 -0.12163476
0.38494176 0.053908985 0.02718128 0.049149994 0.03372118 -0.26635605 0.2743506 -0.0029710464
-0.004739668 0.054288816 0.2349908 0.01480284 -0.65175235 -0.03650571 -0.21581739 0.27876005
-0.008837037 -0.18349585 0.13699563 0.49059904 0.13516262 -0.26022118 -0.08432094 -0.2208428
-0.15135412 0.15170284 0.24335143 -0.20811868 -0.0015048468 0.19865426 -0.27603626 -0.4526821
-0.37459126 0.27788603 0.019664176 -0.17304641 -0.12618724 0.008854404 -0.050581604 -0.49098298
-0.17096645 0.02403729 -0.12306763 -0.27844003 -0.032577943 -0.0021810771 -0.2069906 -0.18403022
0.26010334 0.14207573 -0.004637839 -0.13644637 -0.48390886 -0.01910719 -0.06931899 -0.0391468
0.155992 0.14185587 -0.0042358846 0.16654535 -0.22384837 0.018964224 -0.19244401 0.32814053
-0.2089419 -0.15195331 -0.21548381 -0.31342614 0.26682585 -0.44133908 -0.05763151 0.22907427
-0.16296922 0.35571662 -0.29165956 -0.05058756 -0.3195249 0.1270553 0.23674805 -0.19951801
-0.06685243 0.11769672 0.14962652 0.0056039086 0.078183874 -0.13529749 -0.0617213 0.13582899
-0.2910488 -0.18071799 0.095200725 0.0585174 0.06624604 -0.47351462 -0.17197989 -0.15982036
-0.08804283 -0.23260972 0.086293 0.13539323 -0.18003978 -0.052220345 0.1426158 -0.032993928
0.08158965 0.046594366 -0.1433647 0.13493523 -0.21446146 0.23933603 -0.07626188 -0.412075
-0.24277373 0.012685836 0.01910189 -0.10083767 -0.1645695 0.090408884 0.16316922 -0.06316764
0.34121883 0.27677616 -0.25252858 -0.30671275 0.052536014 -0.018476292 0.14521804 -0.14263664
00000000: 0320 783e 1473 a2be 59b4 4e3c 7fa1 603d
00000010: b664 693d 7d34 06bd e63d f53e 0bcb 953e
00000020: 4c29 9cbd 87db ea3e 3a96 1fbe 56b4 b5bd
00000030: 1eb6 d53e 976c 853d 9c99 343d b8fb 7f3e
00000040: af25 2b3e 6829 433e b88c 113d 3c15 483e
00000050: ea73 9d3e 599f 6c3e a98f 953e a04c ad3d
00000060: 596e 813e 3b39 f93a c93e 3f3c 2ba5 6cbe
00000070: 6659 113e f66e d73e a78b 523e 16a3 0bbc
00000080: 377a b53e 74f6 f53e 062c 973e 2864 44be
00000090: e16f b63e 25cc e93d 55aa f33d b970 253e
000000a0: fea5 913e 34ab 9f3e 5466 1a3e e9bb 3b3e
000000b0: 4c66 c63a 577b 903c 7b45 763e 3019 303e
000000c0: 8dc5 e5bd b465 653e 5155 5e3d b056 e0be
000000d0: 5122 293e 1bca 023d 8211 683e 8ae3 27be
000000e0: 54d4 393e dea1 3d3e 7e8b 27be 7e0f 533b
000000f0: b5e8 213f bedd 9f3e 9433 253e e971 66bd
00000100: 3a5f bf3e c694 b73e fc00 a13e b5b7 3a3d
00000110: 4cb6 20be 3983 a2be 5894 853e f0ae 01be
00000120: ca67 c2bd b054 a93d 278e ce3d 7160 10be
00000130: 4dc4 c1bd 79dd a8bd c6d0 233d e102 d43e
00000140: 3b84 303e 29a1 f43e 2caa 883e a131 573e
00000150: 3e88 3cbd 5bac 7ebe 696c 693d 768b ee3e
00000160: 89ec 84bd 0f90 62bd 7483 623e fbc5 703e
00000170: 39fc a53d b92b 6e3e c4ac b03e f31b 343e
00000180: 6d9e 9bbe f72e 243e 6dde 0fbd ff4c 193f
00000190: a012 b73e 68f0 2dbe a954 d53d d5a3 a33c
000001a0: 9b3c 093e 63dc 0b3e 0f0e adbd f2a2 1a3d
000001b0: c961 bd3e 8c45 613e e065 473d 137c 793e
000001c0: cca6 353e 3e3f 2d3e e9a4 28be a44c 993e
000001d0: 1c88 4e3e 7d7f 3abd d618 e6be a2be b63e
000001e0: eb34 cc3e 30b1 393e 0fdc 7cbe 3bfb ce3e
000001f0: 7bf2 033f 9308 e93d 98f8 c43e a51b f9bd
00000200: 1617 c53e abcf 5c3d 47ab de3c 8151 493d
00000210: 381f 0a3d d25f 88be af77 8c3e e3b5 42bb
00000220: 384f 9bbb f35d 5e3d 6ea1 703e 9c87 723c
00000230: 3ed9 26bf 0387 15bd 3cff 5cbe a3b9 8e3e
00000240: 38c9 10bc 56e6 3bbe 9548 0c3e cc2f fb3e
00000250: 1268 0a3e b63b 85be 75b0 acbd 9d24 62be
00000260: 93fc 1abe fd57 1b3e 1e31 793e 101d 55be
00000270: 483e c5ba 066c 4b3e a054 8dbe f3c5 e7be
00000280: 6dca bfbe 1447 8e3e c416 a13c 1433 31be
00000290: 3a37 01be 1012 113c a82e 4fbd 1f62 fbbe
000002a0: d411 2fbe dae9 c43c e20a fcbd b18f 8ebe
000002b0: 7370 05bd 67f0 0ebb 58f5 53be 6b72 3cbe
000002c0: 442c 853e 4d7c 113e 03f9 97bb 99b8 0bbe
000002d0: e7c2 f7be af86 9cbc 1df7 8dbd 6558 20bd
000002e0: 5ebc 1f3e aa42 113e 2dcd 8abb dd8a 2a3e
000002f0: 8238 65be dc5a 9b3c 0b10 45be 0902 a83e
00000300: def4 55be a699 1bbe caa7 5cbe 6479 a0be
00000310: 669d 883e 32f7 e1be 050f 6cbd 7292 6a3e
00000320: 67e1 26be 7d20 b63e 6754 95be e734 4fbd
00000330: c598 a3be c91a 023e 156e 723e 734e 4cbe
00000340: ede9 88bd fa0a f13d b237 193e fea0 b73b
00000350: de1e a03d 6d8b 0abe 79cf 7cbd c116 0b3e
00000360: 5904 95be 230e 39be 99f8 c23d f1af 6f3d
00000370: 01ac 873d 8270 f2be 7f1b 30be f3a7 23be
00000380: cd4f b4bd 3e31 6ebe 62ba b03d 86a4 0a3e
00000390: 595c 38be 00e5 55bd e009 123e a424 07bd
000003a0: 7918 a73d bcd9 3e3d 32ce 12be 762c 0a3e
000003b0: c99b 5bbe 8114 753e 302f 9cbd 7ffb d2be
000003c0: ad99 78be 41d8 4f3c 917b 9c3c fb83 cebd
000003d0: e884 28be 4b28 b93d d515 273e 095e 81bd
000003e0: 3cb4 ae3e 9bb5 8d3e 6d4b 81be 7409 9dbe
000003f0: 0130 573d 985b 97bc 0ab4 143e 570f 12be

feature.bias_hh_l0_reverse f4 [512]
0.17453732 -0.27162662 -0.01584536 0.21182494 -0.12730968 -0.16849835 0.55753523 0.4332168
0.0013161638 0.35066208 -0.008061224 0.036528748 0.45016292 0.05781983 0.0787869 0.21262446
0.3117513 0.14205825 0.040030476 0.09758387 0.23945543 0.18406712 0.23136348 0.20965508
0.15447055 -0.08519505 0.105369024 -0.28054065 0.122587435 0.49230808 0.120870024 0.16489239
0.34743074 0.48270684 0.28548044 -0.081224196 0.2893171 -0.03324029 0.052609023 0.31638482
0.17685781 0.3080753 0.043094985 0.11157202 0.06798265 -0.096658275 0.22176608 0.10528283
-0.048762333 0.21190898 0.119047165 -0.45311028 0.04707747 0.056466628 0.2700515 -0.06935759
0.22802445 0.26351035 0.02302384 0.14081663 0.6536754 0.29887927 0.22068864 -0.087516524
0.28128564 0.38191018 0.2737484 0.09356405 -0.15094163 -0.16888818 0.04846671 -0.080528155
-0.072926894 0.17327698 0.14186433 -0.22383977 0.035560038 -0.1308799 -0.015963824 0.4872066
0.27500054 0.46031135 0.3595725 0.19932285 0.022608126 -0.18998322 0.19451709 0.39474764
-0.24860303 -0.026682444 0.30473918 -0.014768708 0.22922306 0.3107034 0.44424966 0.17662121
-0.25120607 0.19442765 -0.046882737 0.5210898 0.3427162 -0.19889641 -0.009688872 -0.1260991
0.26828057 0.18773805 0.0015857748 0.113694295 0.40360478 0.08453233 0.06686983 0.056951165
0.15027837 0.2130299 -0.2974806 0.10081069 0.40055245 0.10935165 -0.49549 0.30673608
0.2952398 0.3134221 -0.26616886 0.45912465 0.6500627 0.1331142 0.30279145 0.064956166
0.39053538 0.2203818 -0.049956292 0.15663293 -0.12701207 -0.17809187 0.21751994 0.031368345
-0.0021247747 -0.022122758 0.049529254 -0.01916249 -0.5488868 -0.07903061 -0.21461609 0.18597229
-0.007897881 -0.24049942 0.2115416 0.46134123 0.15885633 -0.262594 -0.023687193 -0.21031524
-0.2308219 0.20146495 0.14334802 -0.22094622 -0.0016218377 0.1414894 -0.2685998 -0.46912363
-0.3716495 0.22658844 0.04820589 -0.3236703 -0.23163937 0.0059802625 -0.26799896 -0.33523914
-0.22277421 -0.010760085 -0.17860883 -0.38533124 -0.040308785 0.049599145 -0.21323022 -0.171064
0.2341708 0.07576816 0.026327975 -0.014827352 -0.2843948 0.028522816 -0.006926125 0.15499912
0.0936107 0.261498 -0.012370227 0.17259397 -0.4011572 0.08909626 -0.01882019 0.398622
-0.25060812 -0.21877456 -0.34983462 -0.20816375 0.26191813 -0.2778989 -0.12762839 0.127199
-0.22944905 0.40361348 -0.30601126 -0.018562887 -0.24517794 0.001787633 0.19703138 -0.21390246
-0.029242592 0.21175452 0.05829886 -0.023465104 0.06869803 -0.25237355 -0.17515348 0.0868611
-0.24226521 -0.09935768 0.17461 -0.09457 0.23300351 -0.53798115 -0.28749055 -0.09744427
-0.028193591 -0.23016255 0.22228377 0.12806723 -0.115585536 -0.1035813 0.02332455 -0.05480779
0.13053769 0.1356065 -0.21237557 0.05835818 -0.214313 0.20335992 -0.023113118 -0.25750735
-0.43666798 -0.09856793 0.04494595 -0.06981478 -0.26887783 0.16586253 0.1483158 -0.119051404
0.39698288 0.111437336 -0.28343314 -0.23168916 0.030371075 0.20233215 0.1169727 -0.08906262
00000000: e9b9 323e a512 8bbe 21ce 81bc a3e8 583e
00000010: 785d 02be d58a 2cbe a1ba 0e3f 98ce dd3e
00000020: 2183 ac3a fb89 b33e 3913 04bc 2b9f 153d
00000030: c17b e63e 7cd4 6c3d 075b a13d 3aba 593e
00000040: de9d 9f3e b877 113e fff6 233d 0dda c73d
00000050: ce33 753e 177c 3c3e 8cea 6c3e d2af 563e
00000060: 872d 1e3e be7a aebd b7cb d73d 06a3 8fbe
00000070: 1f0f fb3d ce0f fc3e b48a f73d 8dd9 283e
00000080: 71e2 b13e 5a25 f73e 7e2a 923e df58 a6bd
00000090: 5f21 943e f826 08bd 8f7c 573d 31fd a13e
000000a0: 371a 353e 0cbc 9d3e 5e84 303d df7f e43d
000000b0: 7d3a 8b3d c6f4 c5bd a616 633e 869e d73d
000000c0: 03bb 47bd abfe 583e 00cf f33d 12fe e7be
000000d0: 4ed4 403d 8d49 673d 3144 8a3e 5a0b 8ebd
000000e0: 3e7f 693e d4ea 863e 7e9c bc3c 3c32 103e
000000f0: 4557 273f b406 993e 34fc 613e dd3b b3bd
00000100: ac04 903e bb89 c33e c028 8c3e 829e bf3d
00000110: 7190 1abe 06f1 2cbe 0785 463d f2eb a4bd
00000120: b25a 95bd 856f 313e e244 113e 4136 65be
00000130: 67a7 113d 6105 06be 91c6 82bc 2573 f93e
00000140: dfcc 8c3e eead eb3e e319 b83e 4a1b 4c3e
00000150: ad34 b93c f68a 42be 7d2f 473e 5d1c ca3e
00000160: cb91 7ebe 2495 dabc c606 9c3e 73f8 71bc
00000170: 73b9 6a3e 8414 9f3e b174 e33e 31dc 343e
00000180: 159e 80be 0b18 473e 1d08 40bd 2466 053f
00000190: 7f78 af3e 80ab 4bbe 13be 1ebc 1f20 01be
000001a0: 125c 893e 673e 403e c6d9 cf3a 8ed8 e83d
000001b0: 49a5 ce3e 491f ad3d 0df3 883d a045 693d
000001c0: 93e2 193e 8324 5a3e 614f 98be d675 ce3d
000001d0: 3615 cd3e c2f3 df3d deb0 fdbe 830c 9d3e
000001e0: ac29 973e dd78 a03e 4947 88be 6312 eb3e
000001f0: 826a 263f 174f 083e 7b07 9b3e bd07 853d
00000200: 41f4 c73e c4ab 613e f89e 4cbd 6264 203e
00000210: 740f 02be b75d 36be 8cbd 5e3e 187c 003d
00000220: ce3f 0bbb c93a b5bc 30df 4a3d a7fa 9cbc
00000230: d883 0cbf cdda a1bd 52c4 5bbe 856f 3e3e
00000240: 1d66 01bc 7b45 76be 5c9e 583e eb34 ec3e
00000250: 3cab 223e b972 86be a50b c2bc e15c 57be
00000260: 935c 6cbe d44c 4e3e d3c9 123e ba3f 62be
00000270: d893 d4ba 99e2 103e ea85 89be f930 f0be
00000280: d848 bebe cd06 683e 8a73 453d 1db8 a5be
00000290: df32 6dbe 14f6 c33b 2937 89be 77a4 abbe
000002a0: ec1e 64be 114b 30bc 3ce5 36be 234a c5be
000002b0: d31a 25bd 7928 4b3d 0659 5abe 672b 2fbe
000002c0: 78ca 6f3e 562c 9b3d c4ad d73c 6cee 72bc
000002d0: 329c 91be aea8 e93c 8cf4 e2bb 17b8 1e3e
000002e0: f7b6 bf3d 11e3 853e 7eac 4abc 79bc 303e
000002f0: 7a64 cdbe 1a78 b63d cd2c 9abc 2f18 cc3e
00000300: b54f 80be 7006 60be 861d b3be e128 55be
00000310: 221a 863e c448 8ebe 04b1 02be 7440 023e
00000320: b1f4 6abe 6da6 ce3e 82ad 9cbe 3211 98bc
00000330: ed0f 7bbe 034f ea3a 98c2 493e 3f09 5bbe
00000340: 298e efbc 2dd6 583e c9ca 6e3d e439 c0bc
00000350: 8eb1 8c3d 1b37 81be 6f5b 33be 3be4 b13d
00000360: 5f14 78be 0a7c cbbd f7cc 323e ebad c1bd
00000370: 7998 6e3e 22b9 09bf f631 93be dd90 c7bd
00000380: 3ff6 e6bc bbaf 6bbe 5b9e 633e 0e24 033e
00000390: 1cb8 ecbd 6f22 d4bd 2013 bf3c 227e 60bd
000003a0: acab 053e 6edc 0a3e fb78 59be fd08 6f3d
000003b0: de74 5bbe 953d 503e b957 bdbc 01d8 83be
000003c0: f292 dfbe fcdd c9bd 3f19 383d 0dfb 8ebd
000003d0: 5baa 89be ded7 293e 19e0 173e 39d1 f3bd
000003e0: 5741 cb3e 4239 e43d 261e 91be ec3f 6dbe
000003f0: c3cc f83c 2930 4f3e 628f ef3d 7766 b6bd
