logs/classifier/50_contexts/fold_01/10-19-2022_10-46-15/model_params.pth (torch, 821283 bytes, 10 tensors)

feature.weight_ih_l0 f4 [512, 64]
00000000: 7b6d 943e 2da8 bc3e 7164 2fbf e5db 84bf
00000010: 5fd0 b8be 689b 883e aadc 24be 640f 7ebe
00000020: 00f3 17bf 729d 70be 4085 f2be 6db6 c7bf
00000030: 1632 413f d37b 54be d6b9 d1be 7ad6 f5be
00000040: b235 6abf d6e7 02bf 3871 8c3e 87cb 003f
00000050: 0f43 1d3f 273c aabd 0ab2 d53e ce35 6d3f
00000060: 9f85 2b3f 3589 64bd a2f0 103f 5427 6d3e
00000070: 6e1a 2a3d e349 643f ed83 17bf 0c54 16bf
00000080: 0112 ecbd 7367 e43e 8545 223f 2d18 333f
00000090: ce49 d13e 0cbe 393f 7b40 d7be 5f30 183f
000000a0: c957 e2bd 142f ac3d 247a 64be c023 f23e
000000b0: 125e 123e aef7 e13e d57b e2be d89d 28be
000000c0: fba4 e5bd 0da2 fb3e 5ea3 92bf 9efd e7be
000000d0: 6cac 98bd 4e49 1dbf 7fae ca3e 5b0a 57be
000000e0: 179d 8fbf e58e 46be 84d4 203f a471 d2be
000000f0: 758b 0cbf 2956 673e 56d0 6c3f 3311 493d
00000100: 681d 30be dc4c b23f 945d 8bbf 5824 45bf
00000110: 2d43 e3bd 7b5a 2e3f 3aa7 d3be 918c fabe
00000120: 4f88 013f 440c b3be a362 253f 7db4 23be
00000130: fb3e 6e3e cef7 883e 98d1 403e e241 b4bf
00000140: ef85 8dbe f35c 633f 5e69 223d ab7d 62bf
00000150: ceab cebe 4490 ccbe 340e 9b3e eace 943f
00000160: 2264 84be 9fa8 94be 0b87 4dbf 2de3 d2be
00000170: 9d04 2fbf a2d7 963e 5a01 9abd 62dc 45bb
00000180: 3c38 9c3e c00e ddbd 04a8 403e 855e 0abf
00000190: 5940 c63e fd71 94bf 039f 2f3f e6e3 193e
000001a0: 3ed2 86be 2200 853f ffbb 88be 8c5b ea3d
000001b0: 18b1 5d3d 5f56 1bbe c44f 6cbe 2092 82bf
000001c0: 6b01 6fbe f023 d4be f6f5 343f d6d4 a13f
000001d0: 5ad5 7ebf d7e5 0e3e d9ff 633e c71e bd3e
000001e0: e74b 4e3f 3ab9 e9be c208 643f f1b8 f5be
000001f0: 16ee a3be f259 b73f d0ec 943e d043 2d3f
00000200: 308a b5bd a402 083f 7d90 e3bd 5e30 a9be
00000210: b363 db3e ec4c 5dbf 804a abbf 29ba 73bf
00000220: da4f 9d3f b4d8 063f b2d1 34bf e33a 873f
00000230: f9b0 083d 2c24 9fbe 6c95 9c3e b1cc af3e
00000240: 248e 9b3e a43c 61bf 4089 bb3d f908 253f
00000250: 90a5 fa3e ebe2 41bf 533c 623d 8373 15bf
00000260: f5ae 0f3b 9067 473f bfd5 55bf 60a7 c7be
00000270: f865 35bf bda8 ed3e 96c4 9ebe 0749 43be
00000280: 1229 c03e 0377 053f de3d 113e 8666 9fbe
00000290: 8640 aa3f 4cce ff3e 6883 a23e 7b6a 3dbf
000002a0: 7431 683e 88de 433f d428 73bf 4425 0cbf
000002b0: 4eab 84bd 1874 28bf 9dd8 c23d b39e 083f
000002c0: 037c c73e bcb8 9bbc a3c7 bebe 8a6c 81bd
000002d0: a6a8 b33d 7172 b9be 6d5d 02bf f7da 0fbf
000002e0: bd8d 57be 07ed eb3e 49f3 8ebd 715e 453e
000002f0: 4ce7 e4be 2ad9 613d 0e21 c53e 97e9 94be
00000300: 92cc b83d 09d5 823e 0b1f b3be 5163 d63e
00000310: 83c0 50bd 4909 a83e b36a 5c3e dfc3 cd3e
00000320: 4872 6dbe 2e50 173f 2e2c 413f 9acd 0dbf
00000330: c7f6 023f 84f4 ddbd 5d9f 66bd d6b1 96bf
00000340: 0b9c bcbd eabf 263f 8197 e03d 05a0 cf3e
00000350: 48ab b43e 8a40 253e fc89 60bf 73ac 0ebe
00000360: c3a4 3bbf ace0 923e e3b0 49be c098 a9be
00000370: a6f4 e7be bf38 c43e 8c47 8cbd 4e38 f6bd
00000380: 1e40 8abe 9bd9 3dbf 681e a7bf da05 cabd
00000390: 804c a8be d587 9abe 9c54 fa3d 698c 12bf
000003a0: 9d92 2e3f 1c63 893e 1a1f 813f 8f98 76bf
000003b0: e838 9b3e 602d 2abc 8abd 73bf 57c8 9b3d
000003c0: e008 ae3e 2b7d c2be f4a6 3e3f 3ce5 81bd
000003d0: bf5c 86be 8f02 9bbe a3b7 8fbd 1725 06bf
000003e0: 616e 633e 465a 26bf a11a 0bbf 8937 cabd
000003f0: 889e ce3e 6ef7 493e 9049 09bf 05e4 43be
0.28989777 0.36847058 -0.68512636 -1.0379606 -0.36096475 0.26681066 -0.16099802 -0.24810559
-0.59355164 -0.2349756 -0.47367287 -1.5602547 0.7546705 -0.2075036 -0.40962094 -0.48015195
-0.9148818 -0.51135004 0.2743013 0.5031056 0.6143045 -0.083122544 0.41737396 0.92660224
0.67000765 -0.055794913 0.56617177 0.23159534 0.04152911 0.8917524 -0.5918568 -0.58721995
-0.115268715 0.44610175 0.6338733 0.69958764 0.4087662 0.72555614 -0.42041382 0.5944881
-0.110519 0.08407417 -0.22312218 0.472929 0.14293697 0.44134277 -0.442351 -0.16466463
-0.11213108 0.49147072 -1.1456106 -0.45310682 -0.07454762 -0.6143998 0.39586255 -0.21000044
-1.1219815 -0.19390447 0.62824273 -0.41102326 -0.54900295 0.22591461 0.92505395 0.049088668
-0.17198718 1.3929706 -1.0887933 -0.7700858 -0.11096797 0.6810681 -0.4133852 -0.4893537
0.50598615 -0.34970295 0.6460363 -0.1598682 0.23266213 0.2675156 0.18829954 -1.4082606
-0.27641246 0.88813704 0.039651267 -0.88473004 -0.40365452 -0.39953816 0.30284274 1.1625645
-0.25857645 -0.29034898 -0.80284184 -0.41188946 -0.68366414 0.2946139 -0.07519789 -0.0030191173
0.30511653 -0.10793829 0.18814093 -0.54050475 0.38720968 -1.1597286 0.6860201 0.15028343
-0.26332277 1.0390666 -0.2670593 0.114432424 0.054123968 -0.15169667 -0.23077303 -1.0200844
-0.23340385 -0.41433668 0.70687807 1.2643077 -0.995443 0.13954864 0.22265567 0.36937544
0.8058457 -0.4564913 0.89075863 -0.47992662 -0.32017583 1.4324324 0.29086924 0.676816
-0.08864248 0.5312903 -0.11111543 -0.33044714 0.42849502 -0.864455 -1.338211 -0.9520593
1.2289994 0.5267441 -0.7063247 1.0564846 0.0333719 -0.31082284 0.3058275 0.34335855
0.30381882 -0.87983155 0.09157038 0.64466816 0.4895444 -0.75736874 0.05523331 -0.5837938
0.002192435 0.778924 -0.83529276 -0.38994884 -0.70858717 0.464178 -0.31009358 -0.19070826
0.37531334 0.5213472 0.14183757 -0.31132907 1.3300941 0.4996208 0.3174088 -0.739906
0.22675115 0.7651143 -0.94984174 -0.5474436 -0.06477986 -0.65802145 0.09513972 0.53367156
0.389618 -0.019008987 -0.37261686 -0.0631953 0.087724015 -0.36220124 -0.50923806 -0.5619349
-0.21050163 0.46079275 -0.06979997 0.19274308 -0.44707716 0.055138744 0.3850178 -0.29084465
0.09023394 0.25553158 -0.3498462 0.41872647 -0.050964843 0.32819584 0.21525078 0.401885
-0.23188126 0.5910672 0.7545804 -0.5539185 0.511578 -0.10837653 -0.056304324 -1.1773021
-0.0920945 0.6513659 0.10966397 0.40551773 0.35286927 0.16137901 -0.8771055 -0.13932972
-0.7329828 0.28687036 -0.19696383 -0.33124352 -0.4530384 0.38324544 -0.06849584 -0.12022458
-0.27002043 -0.74160165 -1.3056154 -0.09864397 -0.32870865 -0.30181757 0.12223169 -0.572455
0.68192464 0.26833427 1.0087616 -0.96326536 0.30316854 -0.010386795 -0.9521109 0.07606571
0.33991146 -0.3798612 0.744735 -0.06342551 -0.26242635 -0.3027539 -0.07017448 -0.52400345
0.22210075 -0.64981496 -0.5433751 -0.09873874 0.40355325 0.19723293 -0.5362787 -0.19129951

feature.weight_hh_l0 f4 [512, 128]
00000000: 9c33 073f ef2c 233f 2b1e d3be e883 febe
00000010: 44e5 19bf b98a a33f fb11 953d bd67 6b3e
00000020: d734 29bf b8ee 24bf e4f9 bbbe 7124 8d3d
00000030: 5d54 39bf 444b f33d 3fa0 4ebf 329e 20be
00000040: 9896 93be a102 b43e ae7f 83bd 12cb b63e
00000050: c9e8 31bf 8221 283f a8d7 c23b 7bd8 823d
00000060: 8961 7cbf 2d8f bebd c2b2 543e 552a 26bc
00000070: 7faf 243f f633 02be 3cae 8a3e 3840 09bf
00000080: b5d6 af3e 4bc2 66be 1ace a33e d94c 18bf
00000090: 42ae 173f 7786 a0bf 0b29 b03e 8e57 99be
000000a0: 417d 63bd e512 4abf 03ff f73e b395 b6be
000000b0: bb9e 673e 6a63 75be 296a 313f e476 df3e
000000c0: 4873 943e 6ae5 bfbe 4838 8dbf d43f 6fbe
000000d0: cd0c ea3e 69f9 2abf 1b29 1dbe 07c6 983e
000000e0: 27ac 41bf cbea 73bf 1387 403f e022 443e
000000f0: 799b a43e 5071 bb3e 9dac 023e 5fec 41be
00000100: ff92 643e be7c 3abf d76f 4e3e c0e4 243f
00000110: 01f8 b8be 55e1 b03e 94fd 95be 3a7a 38bc
00000120: a88a 0abe 705d d53e 1cb2 38bf 6f3e 0a3f
00000130: 84ff 11be ea36 4cbf cf55 0f3e 1e35 bdbe
00000140: 9fe1 273f 4b2f 63bc 25c8 8d3d 3a44 173f
00000150: 82f7 a83e 8740 323e ff8e 96be 3d44 95be
00000160: e266 e4bd 0e5c 903e 1549 30bf d542 d3be
00000170: 77a6 853d 720f debd 804d ec3c 0fed e6be
00000180: d26a 053f ea32 883e 59c4 23be 4857 683d
00000190: 5957 db3e 3cc2 e9be 91b1 9ebe 9f9b 313e
000001a0: 5da5 43be e4a0 9f3d 8fe6 8dbc ad1b 9a3e
000001b0: d665 b23e f69c 93be 0e4a f63e 1381 39be
000001c0: 3ebe 9c3e 1e15 adbe 0170 e33e f941 afbe
000001d0: caa9 433f c241 d1be 537b ff3d 57c7 123f
000001e0: a3be 9bbd 003c 48bf c559 86be 7481 17bf
000001f0: dada 103f 1698 13bf d9e8 173f 11b7 f23d
00000200: 22eb 0e3f 7fdb 89be 017c 673e b6f7 e23e
00000210: 9ddc d83e 1f94 ab3d b8a4 7cbe 4a30 30bf
00000220: fdc3 d33e 58a5 b1bd 5b63 a1be c110 d73e
00000230: edaf 87bf d7e7 41bf 4956 e63d 5e68 af3e
00000240: c01b c63c 7440 53be 739f 513e c062 63be
00000250: 01b3 cb3d 7bc1 c93e 308d 943e 71c6 31bf
00000260: bc49 953f 6870 1a3f e49f c23e c2c9 243d
00000270: 5b98 83be 568e e33e c172 3f3d 0f01 70be
00000280: 0d8b 373f 8925 a4bd 6ed2 c9bf 3c21 103f
00000290: e18f 823d af84 a0be 0f43 25bc 4dd6 d33e
000002a0: 779a d83e 4c05 963f afe9 c63d 099d 293e
000002b0: a9b8 4bbf 10ef 1cbf 6da8 4c3e 5336 08bf
000002c0: 561f adbe d726 e33e e244 d33d 1ddd 873e
000002d0: 5e90 ed3e 6027 40bf 3e43 e9be aa46 073d
000002e0: eb9a 94bb e4ad 463d 4e34 95be a917 2bbd
000002f0: a477 893e 87e0 b8bd 69c9 d0bc 5065 12be
00000300: b800 4bbd 4f1b d53d 6098 5f3e b5cc bb3d
00000310: 3d3b 6a3e a15f 12bd 1b54 9bbe 7d3b 923e
00000320: 5d5d 1fbf 31f9 d13d fba4 8a3d 0077 133e
00000330: d93a 373e 11d8 ed3e 55ef 86be 42ae 303d
00000340: 815d 1abf 89b9 20be 623b ccbd 491d f3bd
00000350: 76df 81be bc88 643d b755 d7bd 0b3d b9bd
00000360: cee4 49be cd2d 073e c58e 0e3e 8e03 d2be
00000370: 575b b33e 7812 0f3f b125 45bf b949 233f
00000380: 73c0 9c3c a630 0abf 2d49 acbc 53a8 c93e
00000390: 1670 9c3d 770d 1c3f a24c b53e fbef be3d
000003a0: a216 e93d 99e6 89be 6cc4 31bf 6563 cabe
000003b0: 436e 903e dc59 823d bad6 d7bd 9236 a7be
000003c0: edb0 3cbf b488 2dbd 2136 f73e 5383 043e
000003d0: 89aa fd3d 8bd4 f8be d488 9fbe a8f9 8b3c
000003e0: 318a b83e 4b48 ecbe e673 15bf 0bf4 993e
000003f0: 04b9 1b3f 71ab 243f 396f e1bb 6a2b d3bd
0.52813125 0.6374044 -0.41233954 -0.4971001 -0.60115457 1.277671 0.0727882 0.22988792
-0.6609625 -0.64426756 -0.3671409 0.06891716 -0.72394353 0.1187959 -0.80713266 -0.15685347
-0.2882583 0.35158256 -0.06420837 0.35701805 -0.69495827 0.6567613 0.0059461184 0.063889466
-0.98586327 -0.09304652 0.20771316 -0.010141929 0.64330286 -0.12715134 0.27086055 -0.53613615
0.34343496 -0.22535054 0.3199318 -0.5949226 0.5925027 -1.2541035 0.34406313 -0.2994961
-0.055539373 -0.7893508 0.48436746 -0.35661086 0.22619145 -0.23963705 0.6930261 0.43645394
0.28994203 -0.37479717 -1.1032801 -0.23364192 0.4571289 -0.6678682 -0.15347712 0.29838583
-0.7565331 -0.9528014 0.75206107 0.19153929 0.32149866 0.36609888 0.12761159 -0.18937825
0.223217 -0.7284659 0.20159851 0.64411545 -0.36126712 0.34546915 -0.29295027 -0.01125961
-0.13529456 0.4167285 -0.72146773 0.54001516 -0.14257628 -0.7977129 0.13997577 -0.36954588
0.65578645 -0.013866256 0.0692294 0.5908848 0.33001333 0.17407428 -0.29405972 -0.29153624
-0.11152436 0.28195232 -0.68861514 -0.41261926 0.06525891 -0.1084279 0.028845549 -0.45102736
0.5211612 0.26601344 -0.1599287 0.056723863 0.42840078 -0.45656002 -0.30994847 0.17344521
-0.1910605 0.07794359 -0.017321853 0.3009924 0.3484332 -0.2883069 0.48103374 -0.18115644
0.30613893 -0.33805174 0.4442139 -0.3423002 0.7643095 -0.40870482 0.12474694 0.5733542
-0.076047204 -0.7821655 -0.26240364 -0.59181905 0.5658394 -0.5765394 0.5933967 0.118513234
0.55827534 -0.26925275 0.22605897 0.44329613 0.42355815 0.08377861 -0.2467221 -0.68823683
0.41360465 -0.08674115 -0.31521115 0.4200497 -1.0600563 -0.75744385 0.11246926 0.34259313
0.024183154 -0.20630056 0.20470981 -0.22205639 0.09946252 0.39405426 0.29013968 -0.6944342
1.1663127 0.6032777 0.38012612 0.040231474 -0.25702175 0.4444453 0.046740297 -0.23437904
0.7169655 -0.08014972 -1.5767343 0.5630071 0.06375099 -0.3135123 -0.010086789 0.41374436
0.42305347 1.1720366 0.0971254 0.1656381 -0.79578644 -0.6130228 0.19986124 -0.5320789
-0.3381297 0.4436557 0.10315873 0.26535884 0.46399206 -0.7506008 -0.45559114 0.033026375
-0.004535069 0.04850568 -0.29141468 -0.04177061 0.2684909 -0.090272 -0.025486665 -0.1429646
-0.049561232 0.10405599 0.2183547 0.09169904 0.2287416 -0.03573573 -0.30337605 0.2856101
-0.62251836 0.102526076 0.06769749 0.14400864 0.17893542 0.46453908 -0.2635447 0.043134935
-0.60298926 -0.15695776 -0.09972264 -0.1187082 -0.253658 0.055794463 -0.10514396 -0.09044846
-0.19716188 0.13201065 0.1392165 -0.41018337 0.35030624 0.55887556 -0.7701064 0.63784367
0.019134736 -0.5398048 -0.021030987 0.39386234 0.07638566 0.60958046 0.3541003 0.093231164
0.1138127 -0.26933745 -0.6944034 -0.39528957 0.28209123 0.063647956 -0.10539003 -0.3265882
-0.7370747 -0.0423667 0.48283485 0.12940721 0.123860426 -0.48599657 -0.3115908 0.017086819
0.36042932 -0.46148905 -0.5837997 0.30069003 0.60829186 0.643241 -0.006879714 -0.10311015

feature.bias_ih_l0 f4 [512]
00000000: c02a 5a3f 4a8f b53e bcf4 7abc 0d75 1e3d
00000010: 20df 94be 078c 013d 2b3e e1bd 8227 093f
00000020: f496 3dbe 42ea 41bd 379a 153e b66f babe
00000030: 0c1e dfbb 5d89 863e 07e6 e13e 4193 833e
00000040: 9fc4 3e3e a91c 923e 6a26 be3c 5072 db3e
00000050: 2a19 2bbe f523 e63e 52fa 9dbe 6669 b7be
00000060: 3d85 c4be 0a83 10bf ab2d 01be 6ee5 69bd
00000070: dcbe 31be babc 9b3d 7c31 db3e 25e0 853d
00000080: ac31 dd3e 6c45 6f3d b66c 203e 8b37 a6bd
00000090: c43d 543e 93b5 52be 7817 693c 998c 103f
000000a0: 6c08 ffbe 6cf8 ad3d e8cd 783e e6bd 843e
000000b0: bd72 823e 4aa7 133e 5924 873e e8cc 4c3f
000000c0: da4f 473e e8c0 2e3e d82b bdbe 46b6 d53d
000000d0: 18f9 193d e6bb f43d 404c 5fbe 4801 fe3e
000000e0: f941 c3ba ebbc 8b3f eede 833e cf53 87be
000000f0: 07ba 743c d7df 5a3d f1e9 993d 5878 e1be
00000100: 3aba 48bd e27a 533e 29ce acbe 2235 223e
00000110: ae1a f1be e3ad a83e b621 6b3e acc7 903e
00000120: 75de c53c 0f56 393f 6066 d7bd e77c d2be
00000130: 99c6 363e 9ea2 e33d 2fde e33e 6e48 183f
00000140: 900b 4fbe b33c 1e3d 982d 093e 431a 273f
00000150: b776 df3e 81dc a0bc d418 b03d db1e 423f
00000160: 8d0e c73e 1738 0dbd 7fbe d73d ebbb 253f
00000170: e042 513d ee25 9f3e d8cd a5be c1db 253c
00000180: 6c8e 8b3d dcee 1bbe 528c a73e 3493 9d3d
00000190: 75cf c63e 2122 ab3e 3cac 153f 6981 493c
000001a0: 2a39 573e 4fb3 823e acc5 9f3e 00bb 573e
000001b0: a036 933d 208d 153f e97c 63be a68c b93f
000001c0: 3d11 88be c0b7 883d 8d03 fcbd dc2f ff3e
000001d0: ce25 ee3e f509 97bd cd2a 293d d308 dbbd
000001e0: a7b3 d23d 2de7 6fbd 247d cb3e 135b 16be
000001f0: 5ab6 6a3f b618 9f3b cbef 633e 9e33 8abe
00000200: 91c2 02bf f37c 17be ba53 d7be 96f4 983e
00000210: 9bed c8be 5813 43be 83e0 86bb cedf 063e
00000220: 2498 293e 8a3a 9cbe dd3f c43e 0dd2 80bd
00000230: 8c1c b5be 3d51 063c 510b 23be 75eb 32be
00000240: f2df d03d edd8 37be 5085 01be c7c5 b8be
00000250: dfe8 b33d bf3f e5be 9439 8abe 5d82 04bf
00000260: 65a7 a63c 31b3 18be ab62 32bf 63e2 f7bd
00000270: 3f39 95be 9551 803d 54ed 28bc 15c2 debd
00000280: 05a8 cbbe 1b04 03be 464c bfbe a172 ce3e
00000290: a022 1f3e 9c93 eebe 5525 02be 4656 8ebe
000002a0: f0b7 e23c a612 25bf ab8b bfbd deff e3be
000002b0: f16d 7a3e eef1 37be 24e2 8bbe f089 b1be
000002c0: c884 c2bd 2727 cfbc e9f5 9dbe c1e6 08be
000002d0: baeb a53e aefe e2be 0f53 7ebe 1165 e23d
000002e0: da97 49be d172 37be d8b9 a43d 3cc9 f2bd
000002f0: a538 603d 18a0 edbc ab3a a2bc e749 c43e
00000300: 79af d43d 4c17 a93d 87eb 91be cb4a 3e3f
00000310: 970f 083e f8c9 9e3c c6ad c93d 4860 edbd
00000320: 40dd 51be f3ab 7cbe ab0a 3cbe 9fa5 96be
00000330: 7f0d cfbe 938d eebd dfa7 223e 20b7 97be
00000340: 5ee3 033d 3ff5 53bf 78a8 f03d 18ca 92be
00000350: eec8 90be faaa ba3e 04ac 17be c825 17bf
00000360: e88e 0f3d 8bf1 35bd a751 993e 3031 1cbe
00000370: d8ef c5bd ea10 993e 720b 1bbf 14dd 033e
00000380: e0a9 5c3d 8153 4bbe 0b35 823e 5a04 7b3d
00000390: 1a07 163e 49b2 89bd d735 46be e9a4 4c3d
000003a0: 8396 1d3d e4a6 d0bd 8683 d43d 4238 8ebe
000003b0: 8b7c a53d a765 a4be a13c ed3d bed1 16bf
000003c0: 57c0 2ebe 2feb 7bbe ddc4 bdbd 21c3 23bf
000003d0: 2aef e9be 473d 25be 5285 84be 2bdd c43d
000003e0: 6e41 0bbf d220 fcbe d390 0ebf c4b1 493d
000003f0: a25e d5bd 640a e83c 4b92 3c3e bdd1 15be
0.8522148 0.35460883 -0.015317138 0.038685847 -0.2907648 0.03162768 -0.10998186 0.5357591
-0.18514615 -0.047342546 0.1460961 -0.36413354 -0.006809002 0.26276675 0.4412081 0.25698283
0.18629692 0.2853749 0.023211677 0.4286065 -0.16708818 0.44949308 -0.30855042 -0.358226
-0.38382903 -0.5644995 -0.12615077 -0.057103567 -0.17357963 0.07604356 0.4281119 0.06536893
0.4320196 0.058415815 0.1566647 -0.08116063 0.20726687 -0.20577078 0.014226787 0.56464535
-0.49811113 0.08494648 0.24297297 0.2592613 0.25478163 0.14419284 0.2639492 0.8000016
0.19464055 0.17065775 -0.36947513 0.104351565 0.03759107 0.11949901 -0.21806431 0.49610353
-0.0014896981 1.0917028 0.2575602 -0.26431128 0.0149369305 0.053436127 0.07515324 -0.44037127
-0.049005724 0.20652345 -0.33751038 0.15840581 -0.47090667 0.32945165 0.22962078 0.28277338
0.024153927 0.7239694 -0.10517573 -0.41110918 0.17849196 0.11115001 0.4450545 0.5948552
-0.20219254 0.038632106 0.13396299 0.6527445 0.4364526 -0.019636394 0.085984856 0.7582833
0.3887829 -0.03447732 0.10534381 0.64739865 0.051089168 0.31083626 -0.3238361 0.010123194
0.06814274 -0.15227836 0.32724243 0.076940924 0.38830152 0.33424476 0.58465934 0.01229892
0.210179 0.25527427 0.312055 0.21067429 0.07188153 0.58418465 -0.22215618 1.4496047
-0.26575652 0.066756725 -0.12305365 0.498412 0.46513218 -0.07374946 0.041300584 -0.106950425
0.10288172 -0.058570076 0.39743912 -0.1468318 0.91684496 0.0048552407 0.22259443 -0.26992506
-0.51078135 -0.14793758 -0.42056066 0.29874104 -0.3924378 -0.19050348 -0.0041161194 0.13171312
0.16561943 -0.30513412 0.38329974 -0.06290064 -0.35373342 0.00819808 -0.15922286 -0.17472632
0.10198964 -0.17953844 -0.12648511 -0.36088392 0.08784651 -0.44775197 -0.26997054 -0.5176142
0.020343492 -0.14912106 -0.69681805 -0.12103727 -0.29145238 0.062655605 -0.01031049 -0.10876862
-0.39776626 -0.12794535 -0.3736288 0.4032183 0.15540552 -0.46596992 -0.12709554 -0.27800196
0.027675599 -0.6448158 -0.093528114 -0.4453115 0.24456002 -0.17963383 -0.2732097 -0.3467555
-0.09497982 -0.025287224 -0.30851677 -0.13369276 0.32406408 -0.4433493 -0.24836372 0.11054433
-0.19686833 -0.17914893 0.080432594 -0.11854789 0.05474152 -0.029007003 -0.019803366 0.38337633
0.10385031 0.08256397 -0.28500006 0.74332875 0.13287197 0.019383416 0.09847598 -0.1159063
-0.20494556 -0.24674968 -0.18363445 -0.29423234 -0.40439984 -0.11648097 0.1588435 -0.296319
0.032199256 -0.8279609 0.11750883 -0.2866981 -0.28278297 0.3645857 -0.14811713 -0.59042025
0.035048395 -0.044419806 0.29945108 -0.15253139 -0.09664887 0.29895717 -0.6056434 0.12877303
0.053872943 -0.19856073 0.25431094 0.061283447 0.14651147 -0.06723458 -0.19356476 0.049961958
0.038473617 -0.10188082 0.103766486 -0.27777296 0.08080395 -0.32108805 0.1158383 -0.5891379
-0.1706556 -0.24601434 -0.09266064 -0.6396962 -0.4569028 -0.16136657 -0.25882965 0.09612497
-0.5439671 -0.4924379 -0.55689734 0.049241796 -0.104184404 0.028325267 0.18415181 -0.1463079

feature.bias_hh_l0 f4 [512]
00000000: 3224 503f 86e9 853e 76cf 88be 88d4 6b3d
00000010: a842 82be 36bb ab3d 261d 04be 30cb 113f
00000020: 05be 94be a7c6 1cbc df86 2c3d b863 bdbe
00000030: 6ef2 023e a04f 7f3e 6bdd a33e ec8f 6c3e
00000040: 2856 8e3e ae3b 303e 57d4 9c3c 7811 ee3e
00000050: 752f efbd 43a5 c33e d5e0 95be fe62 14bf
00000060: 7be8 09bf 9365 9dbe 4687 eabd 599f cebc
00000070: 8daa 36be bcd9 163e c1c3 9c3e 93b4 a43d
00000080: 47b6 003f 5e7e f93d 478d 423e 601a 05be
00000090: 7e8c 9f3d 9ab6 e3bd 783f 463e fd98 043f
000000a0: dd99 3bbf c012 033e 02b2 a53e 1a05 9b3e
000000b0: 25ee 633e 1a03 5a3e ad99 d43e c5b2 3e3f
000000c0: 7f4b 1e3e 61d2 313e 19b8 8bbe 4b02 bd3c
000000d0: 08be de3d 959f 383e 0db0 0bbe d044 093f
000000e0: cbda a63d 7c10 863f 7a12 7c3d e788 dabd
000000f0: a2ae 38bc d593 833e e8bc 273d eed4 babe
00000100: 0df1 febd 274a 223e 98a0 5ebe cf1e c93e
00000110: 6a2b debe 66b1 cc3e 5c30 863e 0c73 be3e
00000120: c9ba 08bd f2b2 463f 046c abbd 9fae 9dbe
00000130: a9ae 673e 70a2 57bb 609a de3e f34b 103f
00000140: 17df 3abe 9f83 82bd b294 403e 990a 2b3f
00000150: 4f6f e53e 321b 5c3c 3357 f63d fd59 583f
00000160: a31a b63e 92f7 50bd e4ac a7bb 95e3 2a3f
00000170: 932c 8a3d 98d0 cb3e 01fa 96be 3b66 043e
00000180: 00d9 033e 0e3f 0cbe 2c31 603e a7a1 f43d
00000190: 0179 6c3e b62d b53e 73ca fc3e f7a8 343d
000001a0: 0eee 3b3e 73b9 8b3e 785d 003f b8d8 a63e
000001b0: 69d4 7f3d 7165 ec3e 57a8 16be 455e b33f
000001c0: b618 87be 655f 1c3e 3cc3 8dbe d4e1 243f
000001d0: b5b4 fc3e 13a8 01be 5046 1a3c efa9 5cbe
000001e0: 5f8a 523e f65c 4f3b 65c2 f63e 3d0a b9bd
000001f0: 5bd0 7e3f 172c ec3c 6434 263e 9d65 d2be
00000200: 94c7 e7be 0078 2ebd e291 a0be b49c 973e
00000210: 111b 90be 735a 94be 3075 0ebd 50d6 35bb
00000220: 7bf1 943d 76bb 45be 5f2a cc3e efdb 18be
00000230: 09fd c4be ef4f cc3c af0f 52be ab1d 17be
00000240: 3a7b 433e f211 2cbd 48f2 37be 3458 63be
00000250: 1145 823d c9af ecbe 1050 95be 03fa 04bf
00000260: 91b3 98ba 972a 5dbe 9c8c 3abf 0359 21be
00000270: 45b2 88be 1ec0 973c 5bc5 adbc 4a0d 55be
00000280: 0210 8abe 2628 66be 4bdc aebe 06d2 a33e
00000290: 234c f33d 1c62 fcbe 71e3 64be 812b 9abe
000002a0: 9d7c 433d 340c f9be b1b9 11be 1c5e c3be
000002b0: 828b 953e b2ba dcbd 42f5 67be ff21 08bf
000002c0: 9d50 0cbd 0e2a 20be 141c aebe b717 0fbd
000002d0: 7e98 bd3e 7e38 24bf fb51 d4be cc45 07bc
000002e0: beb5 71bd 11df 9dbe 2775 4bbd dda2 34be
000002f0: bd3e 513d 3dcd 56be fdf7 f13b b693 b43e
00000300: 459a 3f3d 0d5f c6bc 5430 aebd 5f3f 433f
00000310: a438 0a3e d1a2 873b dc05 483e afb1 11be
00000320: 9ca9 fbbd 9868 9fbe 69e9 57be 6a21 85be
00000330: 9a47 b9be d1a6 2d3d e251 373d 9d78 d5be
00000340: 8008 243e d2e6 45bf 6842 e13d 84ca cbbe
00000350: a7ab 8cbe 7cb1 4e3e 0b51 53be d170 04bf
00000360: 5083 113e 7cae 17bd 44d5 c23e 14cd f8bd
00000370: 7125 c0bd 5914 983e f568 2cbf bfdc 6b3d
00000380: 73ea c33d 0dd4 cabd 54eb 973e e9ad 563e
00000390: 3dbb 2a3d 5aa0 c0bd 63f0 06be 881a 4d3b
000003a0: acac 8e3c 414f 1abe 2d0a 253e e3aa 53be
000003b0: e779 ddbd 66ff c5be ca02 6cbd 0abe e9be
000003c0: 0f2b 1cbe 9c8f 9abe 9d2a 5a3d ed6e f2be
000003d0: f3e0 fcbe 5a12 72be ac41 8dbe 3345 763e
000003e0: eec5 d9be 0f46 2abf bdc5 36bf 87f5 163d
000003f0: b757 033e 0192 f2bd a9f3 b83e 2f4c 40be
0.8130523 0.26154727 -0.2672078 0.057575732 -0.2544148 0.08385317 -0.12901744 0.56950665
-0.29051223 -0.009568847 0.04212081 -0.36990142 0.12787792 0.24932718 0.32004866 0.23101777
0.27800107 0.17210266 0.01914422 0.46497703 -0.116789736 0.38212022 -0.29273096 -0.5796355
-0.5387036 -0.30741557 -0.114515826 -0.025222467 -0.17838497 0.14731497 0.30618098 0.08042254
0.50278133 0.12182306 0.18999206 -0.12998343 0.07790469 -0.11118813 0.19360149 0.5179594
-0.7328165 0.12800121 0.32362372 0.3027733 0.22258814 0.21290246 0.41523495 0.7449153
0.15458487 0.1736541 -0.27288893 0.023072382 0.10876089 0.18029626 -0.13641377 0.53620625
0.081472 1.0473781 0.061541058 -0.10670643 -0.011272104 0.25698724 0.04095164 -0.36490577
-0.124483205 0.158486 -0.21740949 0.39281318 -0.43392497 0.39979094 0.2620877 0.3719715
-0.033381257 0.776168 -0.08370212 -0.30797288 0.22625221 -0.0032903217 0.43477154 0.5636589
-0.18249165 -0.06372761 0.18806723 0.66813046 0.44811484 0.013434218 0.12028351 0.8451231
0.35567197 -0.05101735 -0.0051170457 0.6675351 0.06746783 0.39807582 -0.29487613 0.12929623
0.12875748 -0.13695928 0.21893758 0.11944895 0.23093034 0.35386437 0.49373206 0.04410645
0.1835253 0.27289924 0.5014262 0.32587218 0.06245843 0.46171144 -0.14712654 1.4013144
-0.2638604 0.15270765 -0.27688015 0.64407086 0.4935662 -0.12661771 0.009416178 -0.215492
0.20560597 0.0031641102 0.48195186 -0.09035156 0.99536675 0.028829617 0.16230923 -0.4109315
-0.45269454 -0.04259491 -0.313613 0.29611742 -0.2814565 -0.28975257 -0.034779727 -0.0027746148
0.07272621 -0.19309792 0.39876077 -0.14927648 -0.384743 0.024940459 -0.20513795 -0.14757411
0.19089976 -0.0420093 -0.17963517 -0.22201616 0.063608296 -0.46227863 -0.29162645 -0.5194399
-0.0011650195 -0.21598278 -0.728708 -0.15756612 -0.2669851 0.018524226 -0.02121227 -0.2080585
-0.26965338 -0.22476253 -0.34152445 0.31996173 0.11879756 -0.49293602 -0.22352387 -0.30111316
0.047726262 -0.48642123 -0.14230992 -0.38157737 0.29208 -0.10777797 -0.22652152 -0.53176874
-0.034256566 -0.15641043 -0.34005797 -0.034934726 0.37030405 -0.641487 -0.41468796 -0.008256387
-0.059011213 -0.3083425 -0.049672272 -0.17640252 0.051085223 -0.2097673 0.007384299 0.35268945
0.046777982 -0.024215246 -0.085053116 0.7626857 0.13498169 0.0041392823 0.19533485 -0.14227937
-0.1228821 -0.31134486 -0.21085133 -0.26002055 -0.3618744 0.042395417 0.044755824 -0.41693583
0.16018867 -0.7730533 0.10998994 -0.39802945 -0.2747471 0.20184892 -0.20636384 -0.51734644
0.14210248 -0.037031636 0.38053334 -0.121484905 -0.093821414 0.29703024 -0.6734765 0.057583567
0.09566202 -0.09903727 0.2967173 0.20964779 0.04168247 -0.09405585 -0.13177638 0.0031296331
0.01741632 -0.15069295 0.16117163 -0.20670657 -0.10814267 -0.38671416 -0.057619847 -0.456528
-0.152508 -0.3018769 0.053263295 -0.47350255 -0.49390373 -0.23639813 -0.27589166 0.24049835
-0.4253382 -0.6651315 -0.71395475 0.036855247 0.1282643 -0.11844254 0.36123398 -0.18779062

feature.weight_ih_l0_reverse f4 [512, 64]
00000000: d17c 193f 8ef2 8a3f b786 6fbe 15e5 113f
00000010: e27f 863e 254b e93e 6691 71bf 1baa 7cbf
00000020: 30ef 443f f8f8 5fbf 896f 8bbe 0895 363f
00000030: 7f6d 223f bdd6 293f e526 8b3c 7025 a2be
00000040: 97b2 31bf 6244 0f3f ab38 52bf ea24 0c3f
00000050: e238 cfbe 4ab0 46be 589d a8be 5086 dd3e
00000060: 0635 1bbe 351b d83d c9c6 cc39 1675 adbf
00000070: bc60 c93e bcbf eb3c 1d19 3cbf 667a 28be
00000080: c506 fabd 7b5b a93d 8715 53bf 6e16 05bf
00000090: 1a48 8b3d 0ca5 473f e5ff 3d3e 5110 083c
000000a0: ba8c e4be 7ff6 c03e f3f3 973d 893a 80ba
000000b0: f70d 31bf 3086 80bf 69af f43d 5bd9 353f
000000c0: d1e4 67be 9c63 863e d8bd a2bd 1142 1f3f
000000d0: e3e3 8ebf 86ee ae3e b36d bfbe 3794 e33d
000000e0: a488 073c 38be ba3d a359 f5bd 942d 0d3f
000000f0: b8b0 e63e 3fbc 8b3e ade9 063f 3dbc 82be
00000100: 0492 1abf 02f2 7bbe bf2c 1a3f f980 0dbf
00000110: c03d 83be 494c 523f da3c dc3e d881 18be
00000120: 4d2c b03e 0900 423f 77ea a9be 7993 133f
00000130: 4d4b 5e3c 2785 8a3d 97b0 23bf 80a4 3ebe
00000140: 6dd6 e1be 2769 ad3e c2ce 273e 454a b33e
00000150: 32bb 053f b5e5 953e 98dc 81be 65f6 35be
00000160: f11e 793f d39f 3bbf 5352 8f3e cfab 193d
00000170: 1c8b 85bf c95b b23e 5613 0e3f 3810 b4bd
00000180: ed80 adbe 1b2b 013f 06ec 3abf d0b1 2bbf
00000190: a9ed 28bf 5fda efbe 9c10 d23e 9bc2 293e
000001a0: f257 1b3f 60d9 9e3e 3472 053e 2a84 f6be
000001b0: 2857 bd3e 1039 dcbd 5f03 623d df80 563f
000001c0: 8cc0 df3e 4f16 0c3e e42e a13e af76 003e
000001d0: c3be 80bf 1bac 523e 194f b53e d56c 77be
000001e0: 6e2c 08bf 45d9 c63d dd45 a43e b9a2 bdbf
000001f0: a700 013f 8d10 403e 72b8 223f 1927 383f
00000200: b90e 813f 20e3 b7bf b5c0 47be 0617 a83e
00000210: 0382 bcbf 39ae 29bf 6fba 7d3e 5365 183f
00000220: ff07 38be 6be5 933e 0ad0 363e 1e6b ff3d
00000230: c0aa 25bf b9b4 513f 80f6 f1be 8578 40be
00000240: ab34 b6bf 364e 04be e6bf f23e 4d4c 5a3f
00000250: eec2 32bf a27a 0e3f 23ef 1dbe 9620 a7be
00000260: f86f e7bd cfe8 8b3e 9d5f 653e b6a1 25be
00000270: c3b9 ddbe 9410 95bf 1acc a6be 137e 413e
00000280: d84b 32bf 670b e9bd d738 0a3d a224 26be
00000290: de2c 32bf 7834 943e dc87 643d 0b36 2f3f
000002a0: f707 c0be 15af 84be 12ff 4f3e e3e3 83be
000002b0: e191 0c3f 6b6c f8be 24ca 5bbf 1280 4a3f
000002c0: f843 2a3f a65d cbbd 45bc b3be 2f0f b43e
000002d0: 6bda 363f 2157 48bf 7f41 5fbf a013 fbbd
000002e0: addf 903d d970 da3e ae27 64bf c116 ad3e
000002f0: 7e59 87bf 58e2 3c3e 1655 babd 0f41 273f
00000300: fcd2 0dbf 966c 67bf fef3 4bbe 05d5 6cbd
00000310: 64b3 c13e e600 56be 0220 96be a983 733e
00000320: 6aef 6f3f ee29 813e 977f 763e 603a 8abe
00000330: 4a1b 04bf 743c c13e 1400 c2be 04c4 d8be
00000340: 6252 2fbb ff6e 663e 2548 ecbc 0bd3 adbe
00000350: d343 c7bc bc10 393f b15b a53e acf4 1c3d
00000360: 3f49 1cbc 57b8 cf3e acca 03bf 9492 003e
00000370: c5d6 83bf d819 77bd c095 003f de87 acbd
00000380: ecda f3bd e492 963e e14a c6bf b4d5 b4be
00000390: 2a36 89bf ddb8 243c 73b7 87bf 2fc8 48bf
000003a0: 4e8f f7be f415 51bd 93f3 9d3f dac9 23bd
000003b0: 2c6d 17bf 44b4 7c3f 49b4 08bf a407 f73e
000003c0: 20b8 4e3f af92 4ebe b241 cdbe eb25 cc3d
000003d0: f31f 4c3f 4a70 623e 0733 22bf ca24 fcbe
000003e0: 043a 473f fe18 99bf 9d3a 44bf 8c60 e9be
000003f0: 1579 013f 61b8 833e 6b4b c63e e35a 273e
0.5995608 1.0855272 -0.23391233 0.56990176 0.26269442 0.45565143 -0.94362485 -0.9869706
0.7692747 -0.8748927 -0.27233532 0.71321154 0.6344833 0.6634329 0.01698632 -0.31669188
-0.6941313 0.5596372 -0.8211772 0.54743826 -0.40473086 -0.19403186 -0.32932544 0.43266535
-0.15156946 0.10552064 0.0003905802 -1.3551357 0.39331615 0.02877795 -0.7347582 -0.16452941
-0.122083224 0.08269402 -0.82454723 -0.5198735 0.06800862 0.77986217 0.18554647 0.008304671
-0.44638616 0.37688062 0.074195765 -0.000978307 -0.69161934 -1.0040951 0.11947519 0.71034783
-0.2264588 0.2624787 -0.07946366 0.62210184 -1.1163296 0.34166354 -0.3738838 0.11112254
0.008272324 0.091183126 -0.119799875 0.5514767 0.450567 0.27292058 0.5270031 -0.2553424
-0.6037905 -0.24604037 0.6022453 -0.5527492 -0.2563305 0.8214765 0.43015176 -0.14893281
0.344088 0.75781304 -0.33186695 0.576469 0.013567758 0.06763678 -0.6394133 -0.1861744
-0.44108906 0.33869287 0.16387466 0.350176 0.5223876 0.29276815 -0.25363612 -0.17769773
0.9731284 -0.7329075 0.27992496 0.037517365 -1.0433078 0.34835652 0.55498254 -0.08792156
-0.33887425 0.504564 -0.73016393 -0.67068195 -0.6598764 -0.4684629 0.41028297 0.16578142
0.6068107 0.3102522 0.13031846 -0.48147708 0.36980557 -0.10753071 0.055178996 0.8379039
0.4370159 0.13680385 0.31481087 0.12545274 -1.0058216 0.20573466 0.3541191 -0.2416261
-0.53192794 0.097094096 0.3208455 -1.4815284 0.5039162 0.18756314 0.6356269 0.7193466
1.0082618 -1.4366188 -0.19507106 0.32830065 -1.4727176 -0.6628147 0.2477815 0.5952961
-0.179718 0.2888597 0.17852798 0.12471603 -0.6471367 0.81916386 -0.47258377 -0.18795975
-1.4234823 -0.1292046 0.47412032 0.85272676 -0.6982869 0.5565587 -0.15423255 -0.3264205
-0.11300653 0.27326056 0.22399755 -0.16174969 -0.43305787 -1.1645684 -0.32577592 0.1889575
-0.6964698 -0.11379128 0.033745613 -0.16224912 -0.6959971 0.2894628 0.055793628 0.6844184
-0.37506077 -0.25914827 0.20312145 -0.257598 0.54910094 -0.48520216 -0.8585532 0.7910167
0.6650996 -0.099299714 -0.35104576 0.35167834 0.7142703 -0.7825795 -0.87209314 -0.122596025
0.07073913 0.4266422 -0.89123046 0.33806422 -1.0574186 0.18445718 -0.0909826 0.65333647
-0.5540006 -0.90400064 -0.19917294 -0.05782034 0.37832177 -0.2089878 -0.29321295 0.23780693
0.9372469 0.25227302 0.24072109 -0.26997662 -0.5160414 0.37741435 -0.37890685 -0.42337048
-0.0026751985 0.22503279 -0.028842995 -0.33950076 -0.024324333 0.7229116 0.32296517 0.038319275
-0.009538948 0.40570328 -0.5148113 0.12555915 -1.0299917 -0.06032738 0.502285 -0.08424352
-0.119069904 0.29408944 -1.5491601 -0.35319293 -1.0719655 0.0100538405 -1.0602859 -0.78430456
-0.4835152 -0.051046327 1.2339958 -0.039987423 -0.5915096 0.98712564 -0.53400093 0.48248017
0.807497 -0.20173143 -0.40089184 0.0996817 0.7973625 0.22113147 -0.6335911 -0.49246818
0.778229 -1.1960752 -0.76651937 -0.45581472 0.5057538 0.25726607 0.38729414 0.16343264

feature.weight_hh_l0_reverse f4 [512, 128]
00000000: 8808 6abf fabe 7a3e 2475 a03e f0b7 a73d
00000010: a2a3 08bf 189c a6be a55f 0c3f 9fcf d6be
00000020: ac28 373d 4601 123f 271d 5b3f 7cc2 1bbf
00000030: f8b9 273f d7a9 693f ea3f d83e 5067 70be
00000040: 314e 5a3f 3e10 543f 4075 ed3d 04ca 39be
00000050: b153 67bf 6d27 5cbf 4fa8 3a3e a0c8 ae3e
00000060: 074c 0cbf 8ab9 b1bd 73f0 4bbf f255 56bf
00000070: e85b 9bbd a613 f93e 6724 863d 5663 e33e
00000080: fe30 d63e 41e9 67be 6a3d 8f3e 19ec 74be
00000090: d4d9 133d 273a 13bf b10f fcbe d7ca 06bf
000000a0: 740b 483e 3a68 ecbe e795 683f cab8 6fbf
000000b0: 24a4 13be 5671 9cbe 193f f3be bca6 99bf
000000c0: 7564 683f 4392 1cbd ff9f d03e f377 d23e
000000d0: 4a95 d43e f8f7 fbbe a6da 613d 795e adbe
000000e0: 694d 39be 5525 c63e f145 05bf 4c65 423c
000000f0: a26b 9ebc 8c8a 163e 4802 533f e928 80be
00000100: 0d0d 023e a597 e93e c29f 193f 3e71 3abe
00000110: 2a04 29bf e459 afbc 2d8e c13d 6ffe c63c
00000120: d412 f1be deca 27bf af5f 8a3f adea 94be
00000130: fb2a 0b3e 5c64 11bc c540 f83e b731 ac3e
00000140: 7fae d53d 53d5 953e 8c51 9bbd 137b 483e
00000150: ac4c 663f d066 02bf 0f4d cebe 7595 863b
00000160: 0ded 463f ad1c b5be 165e f03d 9efc fa3d
00000170: d1a2 26bf 3c1e d63c 46fb 603e 80e0 98bf
00000180: dc25 593c 00fe 953f da39 f0be ae04 443f
00000190: 9888 b33e 926e de3e c4a1 f3bd bb00 b93f
000001a0: 307c 2cbf 01ec 76bf f830 00bf 2381 463e
000001b0: 55fd 02bf bdca 8cbe 5302 71be 01ad 5a3e
000001c0: dab4 283f a224 1f3e 07e6 48bf f599 993f
000001d0: ee3a 99bf 42f4 48bf c6c1 283e 9b82 11bf
000001e0: 12a5 583f e1ac 543f 2b47 4c3f cb96 0bbe
000001f0: d0ea 3d3e f040 203c 17b4 2b3f a1b4 1dbe
00000200: 8649 32bf d3d6 db3e cf06 66bf 5532 0abe
00000210: f4f4 093e 6178 cb3e aaba 203f e6b1 aebc
00000220: 6152 f03e 7bed 203f ba7d 13bf a44c e13e
00000230: 191c fabd e127 fdbe 7474 3bbf 4e65 aa3c
00000240: 858f 61bd 6d4c b93d a080 653f c692 abbb
00000250: 4f0d 163f fd3f fa3e 76c1 5e3f edaf 91be
00000260: 9164 6dbd 627c 0bbf dbdb d7be 89fe d4be
00000270: 880a 20be 60b5 133f b4ca 493e 7152 9dbe
00000280: 56e4 0dbe 7e70 843f ed5f 883e fbd6 36bf
00000290: 7ff7 8dbe 404f 043e a000 553e 0978 9d3e
000002a0: d37a bdbe fc82 b5bd 0a38 6abf 1b7e 82bf
000002b0: df8c 7dbe 5b28 30be 69ad c43e a771 d5be
000002c0: 099c 0a3e c178 843f 0ff2 1cbf d48a c2bd
000002d0: ab2f 39be 08d9 13be fe94 773e 40c5 953e
000002e0: 9641 4b3e f586 32be cc37 88bd 55fe 0e3e
000002f0: 9b52 c9be 8f7c b3bd 4b77 adbe f25b b93d
00000300: 5760 bfbe b97c ab3d 7654 91be 5c50 a8be
00000310: 6b87 fd3c a252 803e 8257 6b3e c257 58bf
00000320: 86b4 07be 3a5f d6be 7d85 4abf 1518 ec3d
00000330: c36d 20bf 9919 da3e bed7 af3d 3889 923f
00000340: 2bd7 f1be 46eb 73bf 7f43 033e 8306 c1be
00000350: 1da1 fdbc c999 113e 2b6b abbe da33 9d3e
00000360: ba59 f83e 4883 1fbf 50d3 c83e ce08 bd3e
00000370: 02f7 ee3e 572d 103f e72b 88bf 0327 183f
00000380: 4461 78bf 312f f2be efc0 b13e b39b 183f
00000390: b7f3 d6be 6bae 4c3f ec63 933e 9c8c cd3e
000003a0: 7e59 edbe 3588 10bf 3333 003e 2cd0 12bf
000003b0: 6a34 b2bd 1900 053f 6e3d 013f 30d4 14bf
000003c0: 6652 dfbe 9218 a13b 1997 bbbd 83f5 473e
000003d0: c8ba 563e d685 a4bd 60a9 5c3e c21f f3bd
000003e0: 9d0f b83c fbeb 44be 9a23 eebd 01e5 8cbe
000003f0: 776b 61be 3ff3 123e 9fca 2a3f c980 013f
-0.9141927 0.24486914 0.3133937 0.0818938 -0.53374684 -0.32540965 0.5483344 -0.41955277
0.044716522 0.57033193 0.8559136 -0.60843635 0.6551814 0.9127478 0.42236263 -0.2347691
0.8527556 0.82837284 0.11594629 -0.18143469 -0.9036208 -0.8599766 0.18228267 0.3413744
-0.5480351 -0.08677967 -0.7966377 -0.8372489 -0.07585889 0.48647803 0.06549912 0.44411725
0.41834253 -0.22647573 0.27976543 -0.23918189 0.03609641 -0.5751061 -0.49230722 -0.5265326
0.19535619 -0.4617327 0.9085373 -0.9364134 -0.14418083 -0.30555218 -0.47509077 -1.2004008
0.90778285 -0.038225424 0.40747067 0.4110714 0.4152015 -0.49212623 0.05514016 -0.3386114
-0.18095936 0.38700357 -0.5205985 0.011864971 -0.019338433 0.14701289 0.82425356 -0.25031212
0.12700291 0.45623508 0.60009396 -0.18207261 -0.6602198 -0.021405168 0.09450946 0.024291245
-0.47084677 -0.65543926 1.081045 -0.29085293 0.13590614 -0.008874025 0.48486915 0.3363168
0.10433673 0.29264316 -0.07583913 0.19578199 0.8996074 -0.5093813 -0.40293166 0.004107172
0.7770546 -0.3537344 0.117366955 0.12255214 -0.6509219 0.026137464 0.21970853 -1.1943512
0.013253655 1.171814 -0.46919137 0.7656964 0.3506515 0.43443733 -0.11896089 1.4453348
-0.67376995 -0.96453863 -0.5007472 0.19385199 -0.51167804 -0.27498427 -0.23536043 0.21355058
0.6590096 0.15541318 -0.78475994 1.2000109 -1.1971109 -0.7849771 0.16480169 -0.56839913
0.8462688 0.8307629 0.79796094 -0.13631742 0.18546605 0.009781107 0.6707167 -0.15400936
-0.6964344 0.42937335 -0.8985414 -0.13495763 0.13472348 0.3974028 0.62784827 -0.021325063
0.4693785 0.62862366 -0.5761372 0.44003785 -0.122123905 -0.49444488 -0.7322457 0.020800259
-0.05506851 0.0904778 0.8964939 -0.0052360026 0.5861406 0.48876944 0.8701395 -0.28454533
-0.057957236 -0.5448667 -0.42159924 -0.41600445 -0.15629017 0.5769863 0.19706231 -0.3072696
-0.13856634 1.034683 0.26635686 -0.71421784 -0.27727887 0.12920856 0.2080102 0.30755642
-0.3700777 -0.08862874 -0.9149176 -1.0194734 -0.2476077 -0.17202894 0.3841355 -0.41688272
0.13536085 1.0349351 -0.6130685 -0.094991356 -0.1808459 -0.1443826 0.2417793 0.29252052
0.19849238 -0.17434295 -0.066512674 0.13964207 -0.39320835 -0.08763992 -0.33880076 0.0905074
-0.3737819 0.08373398 -0.2838475 -0.3287381 0.030948361 0.25063044 0.229826 -0.8450891
-0.13252458 -0.41869527 -0.79109937 0.11528031 -0.62667483 0.42597654 0.085860714 1.1448126
-0.47234473 -0.95280874 0.12818716 -0.3770028 -0.030960614 0.1421882 -0.334802 0.30703622
0.48505956 -0.62309694 0.3922372 0.3692078 0.46672827 0.56319183 -1.0638398 0.5943453
-0.97023416 -0.4730163 0.3471751 0.5961258 -0.41982815 0.7995364 0.28787172 0.4014634
-0.4635734 -0.56457835 0.12519531 -0.57348895 -0.087014034 0.51953274 0.5048436 -0.5813627
-0.43617553 0.004916259 -0.09159679 0.19527249 0.20969689 -0.0803334 0.21548986 -0.11871292
0.022468382 -0.19230644 -0.11627884 -0.27518466 -0.22013651 0.14350604 0.66715425 0.50587136

feature.bias_ih_l0_reverse f4 [512]
00000000: 4b40 f63e 476f 31be 74da 933d e40f a7be
00000010: f641 0fbe a95c 333d 0f0d 563e 5c4d 923d
00000020: 9d30 5cbe a569 acbd d627 5f3c 7c1a 133f
00000030: d93f 163e 35e4 513d 87f5 ab3d 3960 923e
00000040: 3cff 1c3e 74d0 603e 0963 1b3f ae32 de3d
00000050: e917 663f 131b 1d3e fb84 4d3e ba01 85be
00000060: 09fc 13bc 2252 1b3f 234a 1fbe 0412 d43e
00000070: 99d9 9f3d a072 873e 4abd 083e 4ef2 823e
00000080: bdef 743e 6779 d23d b543 75be 5d9f a4be
00000090: 7ef6 8f3e a455 acbe 46b1 9cbe fb2c 513d
000000a0: 82c9 cd3c 2010 07be 7991 943e 874c b33e
000000b0: 29b4 223f 31e9 123e e33a b13e bbe1 603d
000000c0: 4c4e a13e 013f 783d 88ed a8bd 7eb3 f0bd
000000d0: 7e10 56be 4058 893b a677 d43e 5bfb c03e
000000e0: fac0 5cbe 6c56 2e3e 7155 5cbe 4e5f 79bd
000000f0: 1899 dc3e a889 813f 9b3e 4e3f 16ef f7bd
00000100: 5948 0f3f 914c 6abe 197c b03e 87d7 173d
00000110: 2853 f3be 1a06 16be 5dd0 323e 46c0 6dbe
00000120: 7da3 0d3f e09f 373d 89ed 803e 92fa 29bd
00000130: ed71 8c3e be95 93bd 7bce a73e 6210 2c3f
00000140: ab4b 00be cd64 e73e 8de7 39bd e074 843e
00000150: 134a 253f 2370 27bd ef65 02be 5daa 803d
00000160: 4ccd 4a3e b270 ed3e c786 823e 4c9d 083f
00000170: 88a7 d93e e7ae 013c 8ea4 093f 3c2c 9f3d
00000180: 7fef 313d 329a d3be 2b91 ff3e 1655 423e
00000190: 93bb 363e 2d5a 183e eaf9 433f c8de f6be
000001a0: 46cf a43f 6ac5 833d 8b93 bb3d 326c 12be
000001b0: dbe6 a53e 7427 f4bd be9c c63d 527d 8ebd
000001c0: 9050 913e 9fd0 483f 3dbf e9be a79d 823e
000001d0: 64ae ac3e b7ed 90be 902f 40be 3e2c 193f
000001e0: 8612 083e e79a bd3c db84 593c f900 dc3b
000001f0: e1bd 46bd 3954 7fbd d11e 2f3a 37af b83e
00000200: 0a70 993d 7631 3cbe c3ee 0abe f21d 1e3d
00000210: 5fe4 d9be 2ea4 f93c 8e15 35bd 27f8 5d3d
00000220: f3c0 16be bfc8 ab3e 19b5 c03e d008 bd3d
00000230: fe24 45be 4597 353e d0cf e53d ce0a de3e
00000240: 8c9a a63d b3c3 16be 63d1 fcbb bf82 d4bd
00000250: e6ea 57be 97a2 9fbe b4fc 713e 7ceb 9c3e
00000260: 1179 cdbd 6bca 0b3e 1824 7cbe 76fc d6bd
00000270: 7a7c 8dbe eebd f83d dfe9 f03c 8d27 3fbe
00000280: cc3e a53f 99fb c33d 1425 173e 23b6 e43e
00000290: 2f67 46be 9fd3 ecbb a529 b7be b4e0 b23e
000002a0: db74 a9bd efa3 dabe 6f56 a2bd 9f52 843c
000002b0: a2a9 5dbe fd16 ca3e 1eaa 57be f31f 023f
000002c0: ff9e b53e d984 fd3e 7b98 583f bd79 913d
000002d0: 898e 83be 9a34 913c cf96 453d d4fe 8abe
000002e0: 495a 6ebe 1c53 a5bd f489 083e 587e a1bd
000002f0: 620b 6cbd a122 47be ab6e 3cbf 9695 fc3c
00000300: 8fa4 e13e 50e5 d7be ed3f a2be 8a59 1a3f
00000310: 0858 953d 14d9 283d 8a54 843d c6ae 80be
00000320: 55ac c13e 11c0 92be 18b8 193e 8620 063e
00000330: a3cf 1b3e d622 22be de42 573e 4158 0fbf
00000340: ba73 11be 94f9 02bd df30 0a3e 05e0 a1bd
00000350: b90a 483e 3ec7 9bbe 80d0 8bbd ea14 0c3e
00000360: ecac 1fbe b857 4bbe a115 e8bd cfdf 933c
00000370: e81a fbbd c09e 32be 4bf7 96bd a90f 923e
00000380: 032b e4bd 7d64 eebc d3b2 42be 1259 22be
00000390: 6b7d 923e 4eb5 5cbe 3ddb 453f 876e da3d
000003a0: b25b 85be bf07 b8be a376 7d3e 42c9 55be
000003b0: 25d0 acbe 5bb8 93bd 93f1 89be c9c0 14be
000003c0: 5143 063d 9281 01bf 3606 973e 3eb1 fb3e
000003d0: 105d ddbe 41ca f03d 4242 2f3d 4819 393e
000003e0: c6da c23e b013 933e 2ddb 993e 753d 4bbe
000003f0: a12c 43be 7354 403c 557c de3b 73f3 60be
0.48095927 -0.17327605 0.07219401 -0.3262931 -0.13990006 0.04378954 0.20903419 0.071436614
-0.2150292 -0.084185876 0.0136203375 0.57462287 0.14672793 0.051243026 0.0839644 0.28589037
0.15331739 0.21954519 0.6069799 0.1084951 0.89880234 0.15342359 0.2007026 -0.2597788
-0.009032258 0.606722 -0.15555625 0.41419995 0.07805175 0.2645464 0.13353458 0.2557549
0.23919578 0.10277062 -0.2395161 -0.32152835 0.28117746 -0.3365909 -0.30604 0.051068287
0.0251205 -0.13189745 0.29017237 0.35019323 0.6355615 0.14346768 0.3461524 0.054902773
0.31505048 0.06060696 -0.082484305 -0.117529854 -0.20904729 0.0041914284 0.41497535 0.3769177
-0.2155799 0.17025155 -0.21516968 -0.060881905 0.4308555 1.0120134 0.8056428 -0.12106149
0.5596977 -0.2288077 0.3446968 0.037070777 -0.4752438 -0.14650765 0.17462297 -0.23217878
0.5532759 0.044830203 0.25181225 -0.041498728 0.27430668 -0.072062954 0.3277472 0.672125
-0.12528865 0.45194092 -0.04538684 0.2587042 0.64566153 -0.040878426 -0.12734197 0.06282494
0.19804877 0.46375042 0.25493452 0.53365016 0.4251063 0.007915235 0.53766716 0.07772109
0.043441292 -0.4132858 0.49915442 0.1897777 0.17844991 0.1487815 0.76553214 -0.48216844
1.2875755 0.06434138 0.09159001 -0.14299086 0.3240269 -0.119215876 0.09697865 -0.06957497
0.28381777 0.7844333 -0.45653716 0.25510904 0.337268 -0.28306362 -0.18768144 0.59833133
0.13288316 0.023145152 0.013276304 0.006713983 -0.048520926 -0.06233618 0.0006680312 0.36071178
0.07492073 -0.18378243 -0.13567643 0.038602777 -0.42557046 0.030473795 -0.04421001 0.054191735
-0.14722042 0.33551595 0.37638167 0.092301965 -0.19252393 0.17733486 0.11221278 0.43367618
0.08134946 -0.14723091 -0.0077153905 -0.103765 -0.210857 -0.31178734 0.23631555 0.3064841
-0.10032857 0.13651435 -0.24623144 -0.10497372 -0.2763403 0.12145601 0.029408393 -0.18667431
1.2909789 0.09569473 0.14760238 0.4467021 -0.19375299 -0.0072273756 -0.3577396 0.3493706
-0.082742415 -0.42703196 -0.07926642 0.016152678 -0.21646741 0.39470664 -0.21060988 0.5083
0.35472867 0.49515417 0.84607667 0.07103298 -0.25694683 0.017725278 0.048239525 -0.27147543
-0.23276629 -0.080724925 0.13333875 -0.07885426 -0.057628043 -0.19446804 -0.73606366 0.030833047
0.4407086 -0.4216714 -0.31689397 0.60292876 0.07292181 0.041222647 0.06461437 -0.25133342
0.3782679 -0.2866216 0.15011632 0.13098344 0.15215926 -0.15833601 0.21021602 -0.5599404
-0.14204302 -0.031976297 0.13495205 -0.079040565 0.1953534 -0.30425447 -0.068268776 0.13679853
-0.15593308 -0.19857681 -0.113322504 0.018051056 -0.12260991 -0.17443371 -0.07371386 0.28527573
-0.11141016 -0.02910065 -0.19013529 -0.1585429 0.2861131 -0.21553537 0.77287656 0.10665613
-0.2604652 -0.3594341 0.24752288 -0.20877555 -0.33752552 -0.072128974 -0.2694212 -0.14526667
0.03277904 -0.50588334 0.29496926 0.49158663 -0.43235064 0.11757327 0.042787798 0.1807605
0.38057536 0.28725958 0.3005003 -0.19847663 -0.19059993 0.011738884 0.006789724 -0.21967869

feature.bias_hh_l0_reverse f4 [512]
00000000: 9baa c73e 35e9 c9bd f9ea 67bd 0eb6 b9be
00000010: 6bbb 49be 3872 65be c2fb 623e 76aa b63d
00000020: 7b07 75be c41c f1bd 120c ab3b 0c9a cb3e
00000030: 3e18 393e 9f4a 713d 077c 0b3e b239 923e
00000040: e6bf 883d b588 623e b7a3 233f b206 1ebc
00000050: e66b 693f b07d 023e f6eb 8a3e fdea 3abe
00000060: 8fe1 76bd 7d96 153f 5403 2bbe 6a00 c23e
00000070: 941f 413c ccca 793e 0591 e8bd f935 b93e
00000080: 3581 6a3e bd07 c83c 7730 77be a5ca 91be
00000090: 1d2a 893e 3e3f d5be a46d 0bbe 498b 753b
000000a0: 3564 393e 73d5 febd 5271 5e3e 14bd b33e
000000b0: 037c 363f 6aae 813d 43e6 953e fe7f 173d
000000c0: 9c30 823e 5f82 b03d 7109 d7bd c068 093d
000000d0: fb4b 6ebe 9897 57bd 9599 c23e 1679 b23e
000000e0: 2212 87be 9892 e63d 0c20 40be e1bb f73d
000000f0: c7de ed3e e01e 723f fa84 553f 105e a33b
00000100: f160 df3e 7dfb 13be 6af8 933e fb5f 9cbd
00000110: 4b9c bbbe 3489 b8bd ee03 153e cf72 2bbe
00000120: 4093 f43e fa38 c93d 4c43 613e 9ee8 b9bd
00000130: 8043 d13e ec83 2abe ea53 893e 7bd1 523f
00000140: ec30 cdbd 8f25 033f 4d3b 2dbe fed5 563e
00000150: 9515 103f e1c3 8dbd 3f1f 82bc d3f8 843d
00000160: 6142 803e 5332 003f c7b9 bd3d dc41 b43e
00000170: d4b5 003f a05e 20bc 78d5 1f3f 9e45 af3d
00000180: 0f34 ea3d c5c4 05bf 0aec 063f c394 663e
00000190: 1693 283e 2823 603e 5ec6 2c3f b844 f7be
000001a0: a17a a63f 8cdc ff3d 0960 033e c711 b6bd
000001b0: 9394 8d3e 1132 ecbd 9923 1c3e 4af3 32bd
000001c0: e6ca 913e 3489 473f 747d 15bf aaef 113e
000001d0: b0a6 bd3e f59d 31be cb95 1ebe d86d 093f
000001e0: 986d 2b3e 1b00 bbbd 7a95 303d a538 6bbd
000001f0: 6c95 3dbe 7ab7 d9bc 9ac5 743c 22c6 c43e
00000200: 4e05 d0bd d76b 7ebd 6b0a 3ebe 7224 b73d
00000210: d27d 95be 7df2 a83c 77d2 1bbe 9a06 03bd
00000220: 7917 eabd e62b b83e 3bab 9f3e b8f7 f6bb
00000230: d471 e0bd 8f25 523e d61c 603e 5746 e93e
00000240: 61c8 87bd bc5b 32be c3af 33bd 998f 56bd
00000250: 4eab bebe b329 d1bd f855 3d3e 88c6 8c3e
00000260: 34f3 00be eaf3 20bd 3224 cbbe 1c26 b53d
00000270: a6de 08be 17de f93d 8736 acbc bd23 8cbd
00000280: 302b 9d3f c0fc fe3d a057 0b3e dd4d d13e
00000290: 9b18 96be 6d10 79bd c640 babe c198 4e3e
000002a0: ae53 723c d82c 07bf 7c22 cdbd d9c2 a33c
000002b0: 9ce5 9ebe 6279 c83e 7f96 9ebe 04d4 f03e
000002c0: 879d bb3e ef9e 0d3f 7fb5 703f e4ca 7a3d
000002d0: 2fc3 21be caee 3f3d 8a09 ac3b aa55 9abe
000002e0: 37eb 18be c6bb 0ebe 0b2e c43d 85bf 5cbe
000002f0: 7077 4f3d c38e 0ebe 5dd2 34bf 80ff af3b
00000300: 7838 b43e 7628 adbe f711 c3be d5c5 193f
00000310: 16f9 843e 776d cd3d 6e21 883e 461b 63be
00000320: 29d9 793e f343 6cbe 2706 303e 04c1 123e
00000330: 559d af3e 67fc f7bd 9897 af3e 3430 0ebf
00000340: 109b a9bd 9da1 613d 9ff4 0f3e 2a05 23be
00000350: 1668 de3d bd8a 63be b8c2 00be f880 cb3d
00000360: fb32 fbbd f1cb a2be 0317 a4be 7fd3 bf3c
00000370: 0f4e 44be c824 ebbd b6dc 03bc cf09 a53e
00000380: 498b 21be ec26 8a3c f271 82be 4892 b4bd
00000390: 3ecd 233e 8afe 83be 62b9 3b3f 8c26 543e
000003a0: dca5 e5be 723a e3be 0aac 843e 1481 98bd
000003b0: 074b a0be a3c2 35bc b7ff c2be 2a36 20be
000003c0: 9f43 3f3b 096f 09bf be2e 8f3e 5e2f 1c3f
000003d0: cd07 dabe cad7 aabd c4fe ce3c 1026 2a3e
000003e0: 32bf fe3e 3cf7 813e 3fba a83e e100 97be
000003f0: 9484 72be e7fe 1abe 7cd9 7f3c 7d43 6dbe
0.3899735 -0.09858934 -0.05662057 -0.3627171 -0.197004 -0.22406852 0.2216635 0.089192316
-0.23928635 -0.11773065 0.0052199448 0.39765966 0.18075654 0.058909055 0.13621531 0.28559643
0.06677227 0.22122462 0.63921684 -0.009645151 0.91180265 0.12743258 0.2713315 -0.18253703
-0.060273703 0.5843275 -0.16700488 0.3789094 0.011787314 0.24393767 -0.11355785 0.3617399
0.22900851 0.024417752 -0.24139582 -0.28474918 0.26789942 -0.41649812 -0.13616043 0.0037467054
0.18104632 -0.12443056 0.21722916 0.35105193 0.71282977 0.06332095 0.29277238 0.036987297
0.2542771 0.08618616 -0.10499848 0.033547163 -0.23271172 -0.052634805 0.380078 0.34858006
-0.26381022 0.11258429 -0.18762225 0.12096382 0.46459028 0.9457836 0.8340603 0.0049855784
0.43628648 -0.14451404 0.28900462 -0.07635494 -0.3664268 -0.090105444 0.1455228 -0.16743015
0.47768593 0.098253205 0.21998328 -0.09077571 0.4087181 -0.16651887 0.26821834 0.8235089
-0.10019097 0.51229185 -0.16917153 0.20980069 0.5628293 -0.069221266 -0.01588404 0.06492772
0.25050643 0.5007679 0.0926395 0.35206497 0.5027745 -0.009788185 0.624351 0.085582
0.11435711 -0.5225337 0.5270392 0.22517686 0.16462359 0.21888411 0.67490184 -0.48294616
1.3006173 0.12493238 0.12829603 -0.088901095 0.27652416 -0.11532987 0.15247954 -0.04368905
0.28475112 0.7794373 -0.5839455 0.14251581 0.37041235 -0.17345412 -0.15486829 0.53683233
0.16741025 -0.091308795 0.043111302 -0.057427067 -0.18514031 -0.026576746 0.01493969 0.38432413
-0.10157262 -0.062114563 -0.18558662 0.08942498 -0.29197556 0.02062344 -0.15217005 -0.031988718
-0.11430258 0.35970992 0.31185326 -0.0075368546 -0.10959211 0.2052214 0.21886 0.45561478
-0.06630016 -0.17417806 -0.04386879 -0.05238304 -0.3724007 -0.102130316 0.18489826 0.27495217
-0.12592775 -0.039295115 -0.39676052 0.088451594 -0.13366184 0.122005634 -0.021022094 -0.06842754
1.2278805 0.12450552 0.13607645 0.40879717 -0.29315647 -0.06080668 -0.36377543 0.20175458
0.014790459 -0.528028 -0.10016343 0.019990372 -0.31034553 0.39155108 -0.30974194 0.47036755
0.3664362 0.5532064 0.9402694 0.061228648 -0.15797113 0.046858586 0.0052501606 -0.30143481
-0.14933477 -0.13938817 0.095790945 -0.21557434 0.050651014 -0.13921647 -0.7063349 0.005371034
0.35199332 -0.33819932 -0.38099644 0.6006749 0.25971287 0.100306444 0.26588005 -0.22178373
0.24399246 -0.23072796 0.17189847 0.14331442 0.34299722 -0.12108689 0.34295344 -0.555423
-0.08281529 0.055085767 0.1405816 -0.15919939 0.108596966 -0.22220893 -0.1257428 0.09936708
-0.12265583 -0.3179622 -0.32048807 0.023416279 -0.19170402 -0.11481625 -0.008048227 0.32234046
-0.1577579 0.016864263 -0.25477558 -0.088169634 0.15996262 -0.25780135 0.73329747 0.2071783
-0.44853103 -0.44380528 0.25912505 -0.07446495 -0.3130724 -0.011093768 -0.3808572 -0.15645662
0.0029184592 -0.5368505 0.2796535 0.61009777 -0.42584077 -0.0834194 0.025267966 0.16616082
0.49755245 0.25383937 0.32954594 -0.29492858 -0.23683387 -0.151363 0.015615817 -0.23170276
