logs/classifier/70_contexts/fold_04/10-19-2022_12-46-15/model_params.pth (torch, 821283 bytes, 10 tensors)

feature.weight_ih_l0 f4 [512, 64]
-0.25022313 -0.24450982 0.042538714 -0.22247861 0.42026475 -0.32021913 -0.06967922 0.38377747
-0.6435766 0.13156313 -0.67176247 -1.0127207 -0.6455059 0.43240148 -0.43778843 1.0283474
-0.6361728 0.55236816 -0.4995915 0.06314704 0.12479722 0.56278145 0.63896614 -0.04941562
-0.35602048 -0.38798645 0.0881992 -0.29081148 0.43876323 0.53502786 0.09633418 0.1536051
0.22990745 0.35696188 0.75898904 0.5587869 0.4480804 0.52842724 0.15802817 0.22597069
0.1463893 -0.7248739 -0.026885845 0.37214598 -0.6422988 0.4263406 0.20758322 -0.31876516
0.7948172 0.031704552 -1.156675 1.0460656 -1.1523628 -0.549739 0.55933 0.20914489
-0.16931291 0.15081283 -0.40222877 0.36229143 -0.67841095 0.4734059 0.6877558 -0.07619662
0.3876798 0.060669135 0.10194957 -0.92048275 0.095034026 0.36562836 -0.038965084 -0.45996633
-0.5270692 0.30947092 -0.98161596 -0.89987975 -0.2717638 -0.073897615 -0.08056031 0.7213126
1.0420208 0.10891377 -0.5491173 -0.9357445 0.39009303 -0.62389505 -0.7367651 -0.34676275
-0.26588425 -0.15430123 -0.15078798 0.33398652 1.5463477 0.21414332 -0.36262617 0.16893344
0.65253866 0.5296405 0.5437551 1.395057 -0.3446168 0.7356446 0.18940854 1.1295403
1.2674448 -0.65802634 -0.045735117 0.8197537 -0.84285307 -0.8106074 -0.27363712 0.7974119
-0.06481804 0.32019556 -1.0973912 -0.6995949 0.08157522 0.20841324 -0.3836486 0.25394607
-0.0336069 0.2612622 0.30663538 -0.16380319 -0.4317329 -0.029991277 0.59798026 -0.07382859
-0.6425393 -0.010755737 -0.77917707 0.35624677 -0.43130803 -0.11220105 0.931927 -0.37247717
-0.70978016 -0.19700755 0.21166812 0.8011046 0.37612188 -0.3565875 0.038270373 0.21012546
-0.7255236 -0.090196595 0.2889528 -0.16286841 0.2798526 0.83251923 -0.7061817 -0.40854847
-0.4892656 0.32177296 0.14537525 -0.7941719 -0.71345294 -0.0015591125 0.4602396 0.90102255
0.34148785 -0.5811695 0.73589253 -0.82503945 0.2194923 0.1543913 0.5563681 0.2747476
-0.016712124 -0.033874974 0.034769528 -0.21616913 -0.07052793 0.14780419 -0.15960978 0.2765876
0.6243991 -0.61928624 -0.42945707 1.062345 -0.07060808 -0.8510074 0.6086006 0.2332448
-0.8368341 -0.40987545 -0.39084977 0.26857808 -0.27610093 0.9059229 0.10197463 0.81524664
-0.6987482 -0.47745273 0.21665855 -0.4098026 0.36525333 -0.6260577 0.17621619 -0.34717476
0.02360499 -0.13288395 0.79079413 0.38696003 0.05108502 0.49617818 -0.3439009 -0.0990938
-0.092064135 -1.4059123 0.27595899 0.4528405 0.2252303 1.8372924 -0.48400092 0.57701826
-0.3899675 0.67454565 0.41741005 -1.2008554 -0.22606158 0.4609689 -0.59429526 0.24681288
-0.052855253 -0.11691286 -0.5543941 1.0909208 -0.27619776 0.113272876 -0.35339212 -0.808754
-0.5818922 -0.5646799 0.24598329 -0.40952435 -0.4253995 0.19302465 0.43371204 -0.81562877
0.8260999 0.23852049 0.31106532 0.6399764 -0.92453104 0.2902503 0.55027455 0.36779642
-0.5288202 0.96064425 0.4801829 0.15348987 -0.2972058 0.7690893 -0.40231043 0.08825415
00000000: 3f1d 80be c860 7abe 133d 2e3d 6fd1 63be
00000010: f12c d73e c3f3 a3be fbb3 8ebd 7b7e c43e
00000020: 70c1 24bf 7cb8 063e a0f8 2bbf d5a0 81bf
00000030: e03f 25bf ba63 dd3e ce25 e0be e3a0 833f
00000040: 38dc 22bf 0068 0d3f 75ca ffbe 3c53 813d
00000050: af95 ff3d 7212 103f 4993 233f 0868 4abd
00000060: 5148 b6be 29a6 c6be c8a1 b43d 3ee5 94be
00000070: 93a5 e03e 96f7 083f db4a c53d a84a 1d3e
00000080: dc6c 6b3e b5c3 b63e 1b4d 423f a90c 0f3f
00000090: cb6a e53e 0247 073f 23d2 213e dc64 673e
000000a0: 14e7 153e 5691 39bf b43f dcbc eb89 be3e
000000b0: b26d 24bf 5149 da3e b290 543e 3035 a3be
000000c0: 2479 4b3f a2dc 013d ed0d 94bf 7ae5 853f
000000d0: a080 93bf b2bb 0cbf 4030 0f3f 142a 563e
000000e0: 5d60 2dbe ae6e 1a3e eef0 cdbe 437e b93e
000000f0: 57ac 2dbf 4262 f23e c410 303f f90c 9cbd
00000100: f77d c63e 3380 783d f0ca d03d c2a4 6bbf
00000110: 33a1 c23d a433 bb3e da99 1fbd b580 ebbe
00000120: 02ee 06bf f972 9e3e 2f4b 7bbf 855e 66bf
00000130: a024 8bbe a257 97bd cefc a4bd f1a7 383f
00000140: f060 853f 2f0e df3d f492 0cbf f48c 6fbf
00000150: 46ba c73e 96b7 1fbf a39c 3cbf e38a b1be
00000160: fb21 88be 2401 1ebe 2a68 1abe 4800 ab3e
00000170: b9ee c53f 6348 5b3e 23aa b9be e3fc 2c3e
00000180: c60c 273f 8596 073f 8933 0b3f 3a91 b23f
00000190: 9d71 b0be 3453 3c3f 50f4 413e c794 903f
000001a0: a23b a23f 6a74 28bf bf54 3bbd 61db 513f
000001b0: 38c5 57bf f783 4fbf 2a1a 8cbe 3023 4c3f
000001c0: 52bf 84bd acf0 a33e 5177 8cbf a718 33bf
000001d0: e910 a73d 486a 553e 976d c4be 3805 823e
000001e0: 64a7 09bd 29c4 853e 50ff 9c3e 06bc 27be
000001f0: 180c ddbe 44b0 f5bc 3c15 193f 7233 97bd
00000200: 757d 24bf d538 30bc 2678 47bf fa65 b63e
00000210: 68d4 dcbe aac9 e5bd c592 6e3f 54b5 bebe
00000220: 27b4 35bf 59bc 49be 87bf 583e 3115 4d3f
00000230: 0c93 c03e a392 b6be 65c1 1c3d 212b 573e
00000240: eabb 39bf feb8 b8bd 9ff1 933e fac6 26be
00000250: d748 8f3e fb1f 553f 53c8 34bf 442d d1be
00000260: 0581 fabe 6dbf a43e 40dd 143e da4e 4bbf
00000270: daa4 36bf 225b ccba 86a4 eb3e 6aa9 663f
00000280: 7fd7 ae3e 86c7 14bf 7463 3c3f c935 53bf
00000290: 97c2 603e c118 1e3e 246e 0e3f b8ab 8c3e
000002a0: dde7 88bc 7cc0 0abd 7e6a 0e3d 715b 5dbe
000002b0: f370 90bd fb59 173e bf70 23be e49c 8d3e
000002c0: 9fd8 1f3f 8b89 1ebf cce1 dbbe ecfa 873f
000002d0: f89a 90bd 9fdb 59bf 40cd 1b3f bad7 6e3e
000002e0: c23a 56bf 32db d1be 761d c8be 1183 893e
000002f0: 1a5d 8dbe 90ea 673f 13d8 d03d 01b4 503f
00000300: 29e1 32bf af74 f4be bddb 5d3e a5d1 d1be
00000310: 7c02 bb3e 5145 20bf 0472 343e e4c0 b1be
00000320: 415f c13c bb12 08be 7c71 4a3f a01f c63e
00000330: 873e 513d 110b fe3e c713 b0be b1f1 cabd
00000340: 1f8c bcbd eff4 b3bf 7f4a 8d3e b6da e73e
00000350: c6a2 663e 662c eb3f f8ce f7be 78b7 133f
00000360: d2a9 c7be 06af 2c3f c5b6 d53e a1b5 99bf
00000370: b07c 67be 1e04 ec3e bc23 18bf 84bc 7c3e
00000380: c07e 58bd 0270 efbd c6ec 0dbf 4ba3 8b3f
00000390: cb69 8dbe 9cfb e73d d0ef b4be 810a 4fbf
000003a0: e3f6 14bf dd8e 10bf 0be3 7b3e 2dad d1be
000003b0: f7cd d9be 41a8 453e 810f de3e 0ccd 50bf
000003c0: 487b 533f b73e 743e f443 9f3e 7ed5 233f
000003d0: 11ae 6cbf b09b 943e cbde 0c3f d04f bc3e
000003e0: c360 07bf c8ec 753f 88da f53e 732c 1d3e
000003f0: 5c2b 98be 09e3 443f a2fb cdbe 97be b43d

feature.weight_hh_l0 f4 [512, 128]
-0.041767173 -0.14377025 -0.39803258 -0.08324401 -0.374618 0.0742976 0.27356973 -0.20751953
0.173604 -0.44993708 -0.35097572 0.14771682 -0.13081335 -0.57984746 0.011552162 -0.130753
-0.22463419 -0.107582845 0.4383586 0.047718663 0.089236766 0.39370826 -0.5270838 0.100405276
-1.0438751 -0.54972255 0.33227903 0.53002787 -0.24686524 0.124095626 -0.51188976 0.017022127
0.16071181 -0.42943418 0.09306358 -0.2075428 -0.04364467 -0.31980354 0.3099411 0.5835853
0.14456604 -0.014553127 -0.22662236 0.08752938 0.4331219 -0.2970748 0.38528895 0.2391586
0.114797965 -0.4874807 0.12982455 -0.3796477 -0.55279297 -0.30556616 0.65481544 0.13501695
0.09497247 0.11945542 -0.29065228 -0.5741469 0.11854508 -0.16581182 -0.24736206 0.6682675
-0.14920619 -0.28837 0.16160394 -0.8550738 0.17325976 0.043741405 -0.097627945 0.565641
-0.1063348 -0.003480626 0.2798205 0.081288315 0.08281752 0.1481545 -0.2758458 0.6078341
0.26077837 -0.1482149 -0.6862659 0.2684013 0.28787205 0.22559537 -0.032409742 0.21607119
-0.11217407 -0.4480569 0.6859236 0.40991035 -0.69950837 -0.17281702 -0.0035989357 0.50041586
-0.25629506 0.25260746 0.18192321 -0.4238462 0.74952596 0.15928663 -0.010477069 -0.103207126
0.49354193 0.04232295 0.23321714 -0.29164392 -0.19324766 0.104877934 0.10961478 -0.25108144
0.034725666 -0.4476137 0.26463047 0.2662597 -0.4061966 -0.052129112 0.48871967 -0.6449412
-0.07416245 -0.4655612 0.14951801 -0.05744649 0.038180478 -0.023158653 0.7380465 0.2800132
-0.37386352 0.18495414 -0.28307682 -0.38337842 -0.65012926 0.6447372 0.953958 0.9540423
0.26994658 -0.56986547 -0.28493124 -0.5876367 0.5921812 -0.26484564 -0.332537 -0.5298445
0.73559725 -0.39109075 -0.22928503 -0.40180624 -0.3558924 -0.13219814 -0.37976384 -0.68635243
0.30524322 0.0033456825 0.13275139 -0.45862663 0.04582464 0.00066346204 0.0070194392 0.3176823
-0.40674934 -0.4588754 -0.1174854 1.0265582 -0.09400936 -0.28972587 -0.3277363 0.15600546
0.8759432 -0.92903805 0.34329253 0.5855842 -0.025922962 0.14263348 -0.0387253 0.49681637
-0.47093892 0.22882418 -0.002169473 -0.3939452 -0.098043524 0.049685687 0.50175226 0.057626076
-0.31451538 0.16861631 -0.5574686 0.050971817 -0.32936913 -0.23353274 1.072315 -0.15056226
0.5269811 0.91876364 -0.061143212 0.3712795 -0.085158646 0.07806262 0.010270268 0.2923523
-0.39754608 0.07954803 -0.30937564 0.11571287 -0.79632944 0.07105428 -0.31170574 0.06432762
0.15396363 -0.22433491 -0.43563485 -0.37812403 0.00018009044 0.6874799 0.18845761 0.16103655
0.3243778 0.11636388 -0.2632424 0.17415018 0.3819062 0.17752805 -1.0134208 -0.4976408
0.27980965 1.1748585 -0.3349046 -0.0231829 0.21580173 -0.2047415 0.029649546 0.39396796
-0.033045214 0.3158867 -0.6199372 0.86759484 -0.8020222 -0.86564535 1.1697129 -0.24799508
0.7461864 0.27434647 -0.6358425 0.9567311 0.4194608 -0.18051307 0.040803827 0.23897268
0.057605263 0.4385332 -0.021899603 -0.57332635 -0.35208476 -0.62058765 -0.5787989 -0.17027748
00000000: 0e14 2bbd 8238 13be edca cbbe d67b aabd
00000010: eecd bfbe 5729 983d 5511 8c3e 0080 54be
00000020: 3fc5 313e 275e e6be 17b3 b3be 1443 173e
00000030: eff3 05be e270 14bf 4745 3d3c 1de4 05be
00000040: 8106 66be 6554 dcbd 8a70 e03e a574 433d
00000050: c4c1 b63d 2194 c93e f7ee 06bf 48a1 cd3d
00000060: b39d 85bf 9eba 0cbf 7a20 aa3e e8af 073f
00000070: 3eca 7cbe d925 fe3d 350b 03bf fd71 8b3c
00000080: a391 243e ccde dbbe 1e98 be3d 1a86 54be
00000090: c1c4 32bd 4abd a3be 9ab0 9e3e d965 153f
000000a0: 1f09 143e 3d70 6ebc b10f 68be 9b42 b33d
000000b0: 27c2 dd3e 301a 98be 9844 c53e fee5 743e
000000c0: 321b eb3d 1297 f9be baf0 043e 2f61 c2be
000000d0: d783 0dbf 2b73 9cbe fca1 273f e241 0a3e
000000e0: ed80 c23d 0ba5 f43d 60d0 94be 4bfb 12bf
000000f0: c3c7 f23d 93ca 29be 7b4c 7dbe 9413 2b3f
00000100: 82c9 18be 3ca5 93be 817b 253e 1ee6 5abf
00000110: 026b 313e 302a 333d 29f1 c7bd d9cd 103f
00000120: 0fc6 d9bd 371b 64bb a244 8f3e 7d7a a63d
00000130: 3b9c a93d d0b5 173e a93b 8dbe 049b 1b3f
00000140: be84 853e a6c5 17be 1faf 2fbf e56b 893e
00000150: f763 933e 7902 673e 14c0 04bd c441 5d3e
00000160: 85bb e5bd b767 e5be b098 2f3f c5df d13e
00000170: fb12 33bf f2f6 30be 1fdc 6bbb 411b 003f
00000180: 1b39 83be c455 813e 144a 3a3e 5e02 d9be
00000190: efe0 3f3f 091c 233e 03a8 2bbc 425e d3bd
000001a0: 87b1 fc3e d45a 2d3d 79d0 6e3e 5a52 95be
000001b0: b7e2 45be 3eca d63d b77d e03d bf8d 80be
000001c0: 803c 0e3d 9f2d e5be a57d 873e 3153 883e
000001d0: 00f9 cfbe 5685 55bd 7739 fa3e de1a 25bf
000001e0: 7ce2 97bd 0a5e eebe 401b 193e 034d 6bbd
000001f0: 2263 1c3d 37b7 bdbc 9ef0 3c3f e45d 8f3e
00000200: 0a6b bfbe 9e64 3d3e 72ef 90be 2d4a c4be
00000210: df6e 26bf 7f0d 253f 9736 743f 1e3c 743f
00000220: 7036 8a3e b4e2 11bf 82e2 91be 5c6f 16bf
00000230: 3099 173f d999 87be 4a42 aabe e4a3 07bf
00000240: 1a50 3c3f 0c3d c8be b2c9 6abe 8cb9 cdbe
00000250: 8737 b6be f35e 07be 6870 c2be cbb4 2fbf
00000260: d748 9c3e 3d43 5b3b fbef 073e 1cd1 eabe
00000270: 9eb2 3b3d 2fec 2d3a 5303 e63b 41a7 a23e
00000280: 7341 d0be b7f1 eabe 2f9c f0bd 4266 833f
00000290: fb87 c0bd f356 94be 0dcd a7be e5bf 1f3e
000002a0: d03d 603f 70d5 6dbf 0ac4 af3e d9e8 153f
000002b0: 645c d4bc 830e 123e 6c9e 1ebd b75e fe3e
000002c0: e81e f1be e350 6a3e b82d 0ebb 2fb3 c9be
000002d0: 0bcb c8bd 3883 4b3d d672 003f 5209 6c3d
000002e0: 2908 a1be c1a9 2c3e 43b6 0ebf d3c7 503d
000002f0: 12a3 a8be 3523 6fbe 9e41 893f fe2c 1abe
00000300: 3ce8 063f 1834 6b3f 4e71 7abd 5918 be3e
00000310: a867 aebd 4bdf 9f3d a044 283c 33af 953e
00000320: 298b cbbe 14ea a23d 7c66 9ebe dffa ec3d
00000330: 3fdc 4bbf e884 913d e597 9fbe 33be 833d
00000340: a4a8 1d3e 0db8 65be 880b dfbe 7999 c1be
00000350: a9d6 3c39 affe 2f3f 08fb 403e c4e6 243e
00000360: d914 a63e 3050 ee3d b5c7 86be 6d54 323e
00000370: 3689 c33e eac9 353e c6b7 81bf c6ca febe
00000380: 3643 8f3e c361 963f 9e78 abbe 11ea bdbc
00000390: 21fb 5c3e c1a7 51be 9be3 f23c 2bb6 c93e
000003a0: 6b5a 07bd e7bb a13e 34b4 1ebf b21a 5e3f
000003b0: 5451 4dbf ef9a 5dbf 27b9 953f 6cf2 7dbe
000003c0: 1206 3f3f 2477 8c3e 93c6 22bf 54ec 743f
000003d0: 91c3 d63e 6bd8 38be ea21 273d 41b5 743e
000003e0: 7ff3 6b3d 6c87 e03e cc66 b3bc 84c5 12bf
000003f0: 7444 b4be d5de 1ebf 2a2c 14bf 385d 2ebe

feature.bias_ih_l0 f4 [512]
0.7956864 0.050973203 -0.6914808 0.13309212 0.58371097 -0.00087270496 0.025636857 0.32655784
0.259783 0.5063702 -0.28768694 -0.29767853 -0.15772727 0.44232544 0.31274718 0.32755017
-0.04805408 0.22192638 0.023335058 0.30863985 -0.095020756 0.13291559 0.080874264 0.2755178
0.9903144 0.012398497 -0.48553127 0.82074624 -0.24006334 0.17391457 0.8275783 0.0065007727
0.30908513 -0.055361576 0.10021382 -0.42817187 0.79514974 0.10214002 -0.0127677275 0.6155938
-0.13379872 0.010380311 0.25710115 -0.47485968 0.12727284 -0.22843306 0.29298767 0.43860316
-0.00887611 1.0221144 -0.026541313 -0.2780309 -0.32679814 0.2221123 0.26607156 -0.14321208
0.5285072 -0.35208723 0.27603552 -0.16069594 -0.33740506 -0.003715629 0.33080477 -0.38186872
-0.10000126 0.12337272 -0.18937705 0.9800776 0.23198411 -0.14396238 0.23739381 0.16108645
0.4045904 0.09848791 0.23404057 0.19483463 -0.28021362 0.6926294 -0.10607611 -0.39494124
0.106467724 -0.031428467 0.27202043 -0.2998895 0.286301 -0.23928979 0.28371003 -0.07538884
0.3329165 0.8209852 -0.00015169111 0.18705715 1.1774714 -0.16462556 0.022503717 -0.16359375
-0.46776205 0.30766773 0.017307073 -0.0035918981 0.33943135 0.31718418 0.2545804 -0.08768752
0.9412236 0.4074143 -0.17126466 -0.028681723 -0.23725857 0.15411289 -0.18410751 0.4412158
0.34950006 0.22565988 -0.10162337 -0.23431087 0.14261484 0.36223754 0.19795229 0.8929068
0.6646216 0.5740713 0.061394166 0.17426048 -0.25660834 -0.18719009 0.6358672 0.39583674
-0.018306563 -0.019746944 -0.40380725 -0.013393849 -0.01970216 -0.06294283 0.0040403698 -0.20315713
-0.20781387 -0.2600669 -0.068353616 -0.23116426 -0.062194124 -0.2963355 -0.46085596 -0.2902408
-0.41604692 -0.19842114 0.12088533 -0.15098137 -0.388302 0.18195754 -0.66833985 -0.4554291
-0.29613155 0.5758918 0.9390947 -0.19291428 -0.44961005 -0.10558949 0.98957026 -0.3013983
-0.4652863 -0.17275803 -0.45545292 0.23690258 0.16318789 -0.13186002 -0.055024303 -0.45232978
-0.26997736 0.2186551 -0.02434141 0.27997217 -0.044537056 0.20801745 -0.29013956 -0.60033876
0.35799932 0.045143094 0.115350254 0.105653144 -0.19036944 -0.23254566 0.3344377 -0.323285
0.3600338 -0.8000981 -0.3190034 -0.22905456 -0.7294822 -0.06767991 -0.020692613 -0.2347353
-0.41664377 0.3716777 0.13351314 0.47717965 0.104959264 0.3653819 -0.3361678 -0.0052792025
0.3511352 -0.43201643 -0.31506523 -0.013828164 -0.47846872 -0.46418518 -0.021185996 -0.33396775
0.28403205 -0.2809584 -0.5128836 -0.30646852 -0.060601734 0.099301115 -0.1726045 -0.1286313
-0.07502943 -0.07972925 -0.15187134 -0.097792454 0.027326666 -0.2623631 0.08946882 0.031617645
-0.4574841 -0.059917413 -0.2815072 0.36431506 -0.54750866 -0.07746642 -0.18620574 0.23228356
0.5198133 -0.3549904 -0.26026592 0.059312757 -0.37551385 -0.28428635 -0.11783547 -0.4812612
-0.17316546 -0.6376792 0.13081148 0.053832363 0.011358738 -0.4990062 -0.0750574 -0.5148037
-0.08348779 -0.014960965 -0.021454373 -0.39327607 -0.15114276 -0.07977577 -0.40117323 -0.48151955
00000000: 1bb2 4b3f 47c9 503d e304 31bf 4d49 083e
00000010: 156e 153f 3dc6 64ba 6304 d23c 9732 a73e
00000020: 4702 853e 7aa1 013f b44b 93be 5269 98be
00000030: 4283 21be 7b78 e23e 6620 a03e a8b4 a73e
00000040: 5bd4 44bd ab40 633e 2a29 bf3c 0b06 9e3e
00000050: 3e9a c2bd 061b 083e 68a1 a53d ab10 8d3e
00000060: 3f85 7d3f 1123 4b3c 8e97 f8be 6d1c 523f
00000070: 2ad3 75be a916 323e 2cdc 533f 6f04 d53b
00000080: 6840 9e3e d2c2 62bd e73c cd3d 5839 dbbe
00000090: ef8e 4b3f c92e d13d bb2f 51bc 8e97 1d3f
000000a0: 8802 09be 2e12 2a3c c3a2 833e cf20 f3be
000000b0: d053 023e 5bea 69be 7b02 963e 9890 e03e
000000c0: 1b6d 11bc a5d4 823f 2b6d d9bc 115a 8ebe
000000d0: 1652 a7be 6871 633e 883a 883e 30a6 12be
000000e0: 3f4c 073f c744 b4be 8754 8d3e 7a8d 24be
000000f0: 5bc0 acbe e981 73bb 3e5f a93e 4c84 c3be
00000100: 76cd ccbd d6aa fc3d 0fec 41be 5ee6 7a3f
00000110: 3e8d 6d3e e06a 13be 5d17 733e d9f3 243e
00000120: 7926 cf3e 08b4 c93d 55a8 6f3e bb82 473e
00000130: 2978 8fbe 2950 313f 6e3e d9bd bd35 cabe
00000140: c00b da3d 23bb 00bd 4346 8b3e 1e8b 99be
00000150: 0b96 923e 6208 75be 7142 913e 7765 9abd
00000160: 0874 aa3e 162c 523f 460f 1fb9 e98b 3f3e
00000170: 62b7 963f 9a93 28be b759 b83c 1f85 27be
00000180: 827e efbe a086 9d3e 90c7 8d3c 0d66 6bbb
00000190: f2c9 ad3e f765 a23e 5d58 823e 8495 b3bd
000001a0: 08f4 703f 9b98 d03e 0160 2fbe eff5 eabc
000001b0: e9f3 72be c5cf 1d3e ae86 3cbe 0ae7 e13e
000001c0: acf1 b23e 6213 673e ea1f d0bd 30ef 6fbe
000001d0: a009 123e 3377 b93e 01b4 4a3e 8a95 643f
000001e0: a424 2a3f 56f6 123f 7378 7b3d 5771 323e
000001f0: 2b62 83be c2ae 3fbe 31c8 223f 1dab ca3e
00000200: a5f7 95bc 58c4 a1bc d3bf cebe e071 5bbc
00000210: 6d66 a1bc 2ce8 80bd 1465 843b 6c08 50be
00000220: 29cd 54be 7d27 85be fbfc 8bbd 53b6 6cbe
00000230: 44bf 7ebd 49b9 97be 50f5 ebbe 719a 94be
00000240: 1a04 d5be e92e 4bbe ba92 f73d dc9a 1abe
00000250: 85cf c6be 1453 3a3e 5218 2bbf 012e e9be
00000260: 8e9e 97be a56d 133f 8368 703f 528b 45be
00000270: 4a33 e6be 4d3f d8bd 7a54 7d3f e150 9abe
00000280: 023a eebe 7be7 30be 2031 e9be 9796 723e
00000290: ba1a 273e 5006 07be 2a61 61bd c597 e7be
000002a0: 793a 8abe 1fe7 5f3e a367 c7bc 8358 8f3e
000002b0: 7d6c 36bd 8702 553e 2c8d 94be cdaf 19bf
000002c0: b04b b73e f7e7 383d c13c ec3d ad60 d83d
000002d0: 35f0 42be 7320 6ebe 6b3b ab3e 9d85 a5be
000002e0: 5a56 b83e 3bd3 4cbf 6a54 a3be 478d 6abe
000002f0: 58bf 3abf c49b 8abd 8e83 a9bc 735e 70be
00000300: 5552 d5be 8a4c be3e abb7 083e e450 f43e
00000310: e2f4 d63d 5613 bb3e 301e acbe 29fd acbb
00000320: fec7 b33e 4231 ddbe 3b50 a1be 868f 62bc
00000330: daf9 f4be aea9 edbe 418e adbc d2fd aabe
00000340: a66c 913e c8d9 8fbe 574c 03bf 71e9 9cbe
00000350: 8639 78bd 625e cb3d 3cbf 30be ecb7 03be
00000360: 08a9 99bd 1749 a3bd 2984 1bbe 6947 c8bd
00000370: 2cdc df3c 7554 86be 6e3b b73d 8181 013d
00000380: 5b3b eabe f66b 75bd b621 90be 8187 ba3e
00000390: 8729 0cbf b7a6 9ebd b8ac 3ebe bedb 6d3e
000003a0: 7c12 053f 4dc1 b5be 9341 85be eff1 723d
000003b0: 5a43 c0be fb8d 91be b953 f1bd de67 f6be
000003c0: 4952 31be f23e 23bf 72f3 053e 537f 5c3d
000003d0: 001a 3a3c be7d ffbe b2b7 99bd 2dca 03bf
000003e0: a5fb aabd d61e 75bc 15c1 afbc 7b5b c9be
000003f0: 2bc5 1abe 7b61 a3bd 9466 cdbe bb89 f6be

feature.bias_hh_l0 f4 [512]
0.9114187 0.081161484 -0.7731171 0.11442672 0.5075776 0.0037429945 -0.0071466016 0.29911312
0.34011465 0.6776531 -0.29463515 -0.43843266 -0.14257598 0.5345905 0.3472727 0.37230134
-0.094468735 0.26430807 -0.06660856 0.35003212 -0.113335475 0.2096858 0.020544436 0.2532901
1.0189412 -0.0047467626 -0.49774805 0.8128325 -0.3162715 0.26581746 0.9196221 0.06945342
0.33106595 -0.027662551 0.005987702 -0.32817617 0.7513421 0.22813517 0.04195464 0.6730424
-0.3132365 -0.1659794 0.3902296 -0.38975203 0.018204335 -0.063380435 0.27023733 0.33807358
-0.05329311 0.977856 -0.1716151 -0.21884748 -0.2420588 0.14608988 0.21351929 0.041387994
0.61523724 -0.3344687 0.24747552 0.017516434 -0.45597604 -0.078835115 0.38597885 -0.3884916
-0.19287254 0.20677933 -0.19128837 0.9605229 0.21718612 -0.13020737 0.17431265 0.095160946
0.30003795 0.0631838 0.26459727 0.28119797 -0.20179023 0.80875117 -0.169788 -0.4167583
0.2632833 -0.016430242 0.15987615 -0.3793629 0.21059862 -0.10716115 0.3228953 0.020332277
0.31875566 0.96524835 0.08602289 0.21376954 1.207001 -0.2750295 0.14957385 0.0057904674
-0.43878797 0.2625451 0.036184683 -0.089974694 0.33787614 0.21882075 0.1494072 -0.113677345
0.9555288 0.2935436 -0.03847704 -0.08073267 -0.17127983 0.16783175 -0.13791896 0.4473206
0.40124995 0.323622 -0.18845761 -0.11691884 0.09811756 0.43302926 0.11684021 0.7662142
0.60307395 0.5606261 0.078950875 0.14585704 -0.19084105 -0.12965138 0.5506645 0.5186201
0.12429281 -0.11256142 -0.37076536 0.025337575 -0.117256105 -0.11875867 -0.11545168 -0.28531617
-0.12865864 -0.25769892 -0.081615254 -0.1572264 0.00617054 -0.30141106 -0.55011415 -0.3412224
-0.37075996 -0.14671434 0.07095565 -0.23834136 -0.29508945 0.18007034 -0.6596449 -0.5296723
-0.25618017 0.7215066 0.9700909 -0.20185162 -0.55891997 -0.12685491 1.0174466 -0.22881399
-0.4660635 -0.07838953 -0.47424942 0.1860816 0.24417114 -0.07366257 -0.119226314 -0.3733229
-0.30295336 0.18837415 0.10825364 0.3304018 0.011690338 0.12828715 -0.2870735 -0.50118357
0.20562057 -0.16119267 -0.008393026 0.15988655 -0.11984843 -0.2320322 0.3563518 -0.2124717
0.48905563 -0.73816997 -0.28942037 -0.3308519 -0.7496338 -0.1276093 -0.20860833 -0.15233183
-0.31646264 0.3603797 0.22249445 0.4804269 0.26236427 0.44901904 -0.3368497 0.00697031
0.43437624 -0.3490438 -0.26539955 0.14729346 -0.40745467 -0.51166826 0.05940431 -0.32110402
0.2729355 -0.21438996 -0.4690011 -0.31938553 -0.07030732 0.028196586 -0.02593084 -0.13727462
-0.06786667 -0.15858 -0.17461915 -0.1123837 0.0058531556 -0.12357233 0.049536213 0.036749013
-0.48481488 -0.11236928 -0.19470148 0.37876534 -0.54680604 -0.11290532 -0.2814904 0.27084303
0.40653557 -0.2946442 -0.14418775 0.036186475 -0.39029792 -0.13596642 -0.21856034 -0.5036738
-0.07488222 -0.58053774 -0.002216218 0.20721838 0.03141188 -0.31759655 0.063674465 -0.6172798
-0.14611053 -0.0020112467 -0.002766733 -0.38573444 -0.23286392 -0.15177779 -0.462354 -0.4384391
00000000: bc52 693f fe37 a63d 01eb 45bf 8e58 ea3d
00000010: 9bf0 013f 074d 753b 0a2e eabb 5b25 993e
00000020: 8223 ae3e ac7a 2d3f 6bda 96be 3f7a e0be
00000030: 70ff 11be ecda 083f bacd b13e 489e be3e
00000040: d378 c1bd 6353 873e 126a 88bd 6937 b33e
00000050: 6e1c e8bd e0b7 563e ce4c a83c 3daf 813e
00000060: aa6c 823f bb8a 9bbb d5d8 febe ca15 503f
00000070: 57ee a1be 3a19 883e 5b6c 6b3f 983d 8e3d
00000080: 7a81 a93e 939c e2bc 7c34 c43b b506 a8be
00000090: f557 403f 449c 693e a1d8 2b3d 824c 2c3f
000000a0: 8960 a0be 81f6 29be 2dcc c73e 948d c7be
000000b0: 4221 953c 9acd 81bd 8c5c 8a3e fb17 ad3e
000000c0: e049 5abd c554 7a3f debb 2fbe 8e19 60be
000000d0: 43de 77be 9698 153e cda4 5a3e 7586 293d
000000e0: 3080 1d3f 7b3f abbe 396a 7d3e a07e 8f3c
000000f0: b175 e9be 4e74 a1bd 059f c53e 5fe8 c6be
00000100: 6180 45be f6bd 533e 19e1 43be d4e4 753f
00000110: 0a66 5e3e 1555 05be 047f 323e bee3 c23d
00000120: 939e 993e 8266 813d 4b79 873e 2ef9 8f3e
00000130: 19a2 4ebe 510a 4f3f e8dc 2dbe 5861 d5be
00000140: 12cd 863e b798 86bc 93b6 233e db3b c2be
00000150: 2aa7 573e 4e77 dbbd 8852 a53e e08f a63c
00000160: f133 a33e 841a 773f c52c b03d 67e6 5a3e
00000170: 027f 9a3f abd0 8cbe e329 193e f6bd bd3b
00000180: d1a8 e0be 506c 863e 6436 143d a744 b8bd
00000190: 1afe ac3e 8c12 603e 33fe 183e abcf e8bd
000001a0: 899d 743f 594b 963e 1a9a 1dbd 2c57 a5bd
000001b0: fb63 2fbe 16dc 2b3e a13a 0dbe 3507 e53e
000001c0: a270 cd3e c8b1 a53e 08fb 40be 2573 efbd
000001d0: dcf1 c83d 03b6 dd3e ec49 ef3d 9d26 443f
000001e0: 0e63 1a3f 3185 0f3f ffb0 a13d 8c5b 153e
000001f0: d66b 43be 55c3 04be 59f8 0c3f 49c4 043f
00000200: 3b8d fe3d 9a86 e6bd f5d4 bdbe bf90 cf3c
00000210: f823 f0bd bf37 f3bd ee71 ecbd f614 92be
00000220: 17bf 03be 1df1 83be e625 a7bd f5ff 20be
00000230: 3e32 ca3b 8d52 9abe 48d4 0cbf b4b4 aebe
00000240: 40d4 bdbe 493c 16be 3251 913d c20f 74be
00000250: f715 97be 5c64 383e 7dde 28bf 9b98 07bf
00000260: 0c2a 83be a8b4 383f e157 783f 31b2 4ebe
00000270: 6115 0fbf 41e6 01be b13b 823f 374e 6abe
00000280: e09f eebe b18a a0bd d2d0 f2be 2d8c 3e3e
00000290: 0008 7a3e 67dc 96bd ed2c f4bd 2e24 bfbe
000002a0: b41c 9bbe 27e5 403e 16b4 dd3d 6d2a a93e
000002b0: d588 3f3c b55d 033e 4cfb 92be 914d 00bf
000002c0: 338e 523e b10f 25be e782 09bc 4db9 233e
000002d0: 1873 f5bd d999 6dbe be73 b63e 2e92 59be
000002e0: 8065 fa3e b5f8 3cbf e82e 94be 6c65 a9be
000002f0: 00e8 3fbf 03ac 02be 6c9d 55be e0fc 1bbe
00000300: 6407 a2be b083 b83e 96d5 633e 84fa f53e
00000310: 9c54 863e d3e5 e53e 9077 acbe 3367 e43b
00000320: 9066 de3e deb5 b2be 73e2 87be 19d4 163e
00000330: e69d d0be b1fc 02bf ef51 733d bf67 a4be
00000340: 34be 8b3e 0b89 5bbe ea20 f0be 8086 a3be
00000350: 49fd 8fbd 87fc e63c ea6c d4bc b891 0cbe
00000360: aefd 8abd cc62 22be 5dcf 32be 6d29 e6bd
00000370: d4cb bf3b 7d13 fdbd 7ce6 4a3d 2286 163d
00000380: a839 f8be dd21 e6bd d35f 47be 88ed c13e
00000390: 7bfb 0bbf e83a e7bd 821f 90be f0ab 8a3e
000003a0: 6e25 d03e 9bdb 96be f4a5 13be 4538 143d
000003b0: 21d5 c7be c83a 0bbe 48ce 5fbe c4f0 00bf
000003c0: d95b 99bd 1f9e 14bf f83d 11bb 0e31 543e
000003d0: bea9 003d 049c a2be c267 823d 0d06 1ebf
000003e0: 009e 15be 1fcf 03bb 1452 35bb fc7e c5be
000003f0: e173 6ebe a36b 1bbe aab9 ecbe 177b e0be

feature.weight_ih_l0_reverse f4 [512, 64]
0.38969624 0.85192746 0.30293545 0.8942498 -0.9296684 0.31467083 -1.2224146 -0.7960812
-0.75175357 0.19629924 0.17324351 -0.21013801 -0.03169704 0.12229931 -0.62482685 0.89882153
-0.9235275 -0.1512063 -0.21947417 -0.94593817 -0.41913766 -0.51346874 0.34702665 -0.95277554
0.18277888 -0.32529026 -0.5094406 1.4671766 -0.06289635 0.54793197 1.1120002 0.0984294
-0.39573213 0.41986644 0.1647192 0.52311707 -0.031317674 -0.063369416 -1.0902964 -0.24356143
-0.13296631 1.1296204 -0.41898113 0.6219103 0.41950765 0.1505169 -1.3227912 1.018846
-0.7747268 1.0203639 -0.36761326 -0.57889706 -0.8659023 -0.24928427 0.56093144 -0.88660914
-0.111303985 -0.5192793 -0.087253526 -0.67700016 -0.020991145 -0.8348916 -0.0146864075 -1.0862286
0.3666977 -1.2807564 -0.14583085 0.3588916 0.025476769 -0.34122092 0.67944217 -0.012551809
0.8588572 0.107141696 0.2508374 0.20565088 0.008393077 -0.12949254 -1.2302786 -0.2995399
0.17913838 0.8635175 0.46193042 0.53054804 0.26205826 -0.8721403 -0.3119501 -0.1790826
0.19741917 0.28612146 0.3227103 -0.4424237 -0.13333508 -0.19295618 0.3550276 -0.82868576
0.38169232 -0.42940772 -0.11055952 0.39901415 0.603379 0.77076733 -0.6646725 0.6959236
0.25761044 0.98307055 1.1757286 0.5566031 -0.42414233 0.6011012 0.20366734 -0.9984982
0.59915555 0.12216178 -0.0014371993 0.34097737 -0.058024712 -0.010410131 -0.34894413 0.16135247
-0.23006216 0.14782266 0.3236571 0.9683041 0.3486216 -1.3909007 0.51600385 -0.4035898
0.5289721 -0.2265278 0.13009506 -0.45180082 0.05571944 0.4757533 0.22130774 -0.52675116
-0.3509965 1.0539111 -0.44112334 -0.27344587 0.08476542 -0.31643933 -1.308109 -0.092640534
0.45636854 -0.70318556 1.5308777 -0.18032303 -1.0020097 0.601043 0.023787934 0.66483366
-0.48081547 -0.90248203 1.0032779 0.5329399 0.9745703 -0.4880438 0.39643875 -0.42866883
-0.42030504 -0.4829458 0.54976404 0.30305892 -0.117619395 0.30731416 -0.90622216 0.3542442
0.33909535 0.09824016 0.5275916 -0.114426784 0.5626639 -0.40927765 0.70775 -0.1858342
-0.98125094 1.2283894 0.34048086 -0.22093463 -0.26357445 -0.2617399 -0.20330639 0.3189626
0.22997558 -0.35114318 0.16927399 -0.17691156 -0.62878263 -0.70598507 0.9161545 1.0686665
-0.024756245 -0.23653731 0.89784545 -0.10397261 -0.8114467 0.94597286 0.70856285 -0.05745091
0.420445 -1.3254948 -0.10523264 -0.7186827 -0.2132409 -0.99066913 0.4428905 -0.22734652
0.19330207 0.11747875 -0.82700896 -0.85587376 -0.6849773 0.02706187 -0.8012803 1.481937
-0.5452324 -1.3174433 -0.3359437 0.41081545 -1.1299893 -1.0825409 0.00600058 0.39037746
0.94827324 -1.2839199 -1.3218333 0.03164123 -0.2254723 -0.17169867 0.23352689 -0.1693007
0.4802984 -0.19361195 -0.4501628 0.09545664 -0.06868791 -0.5618026 -0.67209363 1.0424788
-2.0994194 0.77242357 0.52222955 -0.17124222 -0.1570287 0.24366166 0.49087018 0.8675238
0.28832385 -1.7386873 -1.4682478 -0.56847167 -0.113755405 0.099786475 -1.1844263 0.5683721
00000000: 4486 c73e eb17 5a3f 5b1a 9b3e 8eed 643f
00000010: c0fe 6dbf 891c a13e 1578 9cbf facb 4bbf
00000020: ec72 40bf ab02 493e bf66 313e 6b2e 57be
00000030: c1d4 01bd 1078 fa3d a7f4 1fbf 2b19 663f
00000040: 4c6c 6cbf d3d5 1abe d6bd 60be 0129 72bf
00000050: 3699 d6be b072 03bf 7aad b13e 19e9 73bf
00000060: 632a 3b3e 728c a6be b36a 02bf 71cc bb3f
00000070: cdcf 80bd 4545 0c3f 0656 8e3f 5a95 c93d
00000080: 679d cabe bcf8 d63e 26ac 283e 00eb 053f
00000090: f646 00bd d3c7 81bd d58e 8bbf 2b68 79be
000000a0: 5228 08be 6797 903f b284 d6be 8335 1f3f
000000b0: b5c9 d63e 1a21 1a3e 3951 a9bf 8c69 823f
000000c0: 7f54 46bf 499b 823f ce37 bcbe 9932 14bf
000000d0: c6ab 5dbf 6044 7fbe 3499 0f3f d1f8 62bf
000000e0: 58f3 e3bd 7def 04bf fab1 b2bd e24f 2dbf
000000f0: 9ff5 abbc 75bb 55bf 429f 70bc 8a09 8bbf
00000100: cdbf bb3e d3ef a3bf af54 15be a4c0 b73e
00000110: a8b4 d03c 82b4 aebe ecef 2d3f 1aa6 4dbc
00000120: 11de 5b3f 1b6d db3d c26d 803e 2596 523e
00000130: 1e83 093c b199 04be c579 9dbf 4b5d 99be
00000140: 0d70 373e 7c0f 5d3f 2582 ec3e ffd1 073f
00000150: 802c 863e 9644 5fbf ecb7 9fbe 6e61 37be
00000160: 4028 4a3e 837e 923e 493a a53e 5c85 e2be
00000170: fe88 08be 4e96 45be 2dc6 b53e c024 54bf
00000180: 2d6d c33e 54db dbbe 086d e2bd 954b cc3e
00000190: 0c77 1a3f 0251 453f fa27 2abf 0d28 323f
000001a0: 84e5 833e 83aa 7b3f 467e 963f 8a7d 0e3f
000001b0: 2f29 d9be c5e1 193f 2c8e 503e 949d 7fbf
000001c0: 4262 193f f52f fa3d 6860 bcba 9694 ae3e
000001d0: 52ab 6dbd 418f 2abc cea8 b2be 9539 253e
000001e0: 6a95 6bbe d35e 173e 62b6 a53e c7e2 773f
000001f0: 887e b23e 0909 b2bf d418 043f 52a3 cebe
00000200: b76a 073f e7f6 67be a437 053e 7052 e7be
00000210: 113a 643d f095 f33e 7f9e 623e 2ad9 06bf
00000220: d0b5 b3be 8fe6 863f ebda e1be 1901 8cbe
00000230: 7e99 ad3d 5604 a2be 1e70 a7bf 52ba bdbd
00000240: 23a9 e93e f803 34bf cdf3 c33f 9aa6 38be
00000250: db41 80bf f4dd 193f eade c23c 8a32 2a3f
00000260: 722d f6be 1009 67bf 696b 803f c06e 083f
00000270: 707d 793f e1e0 f9be 05fa ca3e 7b7a dbbe
00000280: 3932 d7be ac44 f7be 56bd 0c3f 8a2a 9b3e
00000290: 70e2 f0bd 4858 9d3e 2dfe 67bf 7f5f b53e
000002a0: e89d ad3e 2332 c93d 3e10 073f 9758 eabd
000002b0: be0a 103f d78c d1be 1b2f 353f 524b 3ebe
000002c0: 4333 7bbf dd3b 9d3f 8253 ae3e b03c 62be
000002d0: 3bf3 86be c602 86be 8d2f 50be 114f a33e
000002e0: b87e 6b3e 0ac9 b3be 2956 2d3e 4e28 35be
000002f0: e6f7 20bf 70bb 34bf 1a89 6a3f 10ca 883f
00000300: 9ccd cabc d636 72be 33d9 653f 97ef d4bd
00000310: f9ba 4fbf 472b 723f 6064 353f a551 6bbd
00000320: 9144 d73e d0a9 a9bf 3684 d7bd 97fb 37bf
00000330: d35b 5abe 7e9c 7dbf 8bc2 e23e 87cd 68be
00000340: faf0 453e b398 f03d dcb6 53bf 8b1a 5bbf
00000350: ac5a 2fbf dbb0 dd3c b520 4dbf 1db0 bd3f
00000360: 5a94 0bbf fba1 a8bf d000 acbe 6756 d23e
00000370: 7da3 90bf b390 8abf 83a0 c43b 8edf c73e
00000380: 09c2 723f 7d57 a4bf d531 a9bf 3c9a 013d
00000390: 36e2 66be c7d1 2fbe ac21 6f3e 2a5d 2dbe
000003a0: ace9 f53e 3642 46be bd7b e6be c57e c33d
000003b0: 3fac 8cbd 4cd2 0fbf 540e 2cbf f26f 853f
000003c0: e35c 06c0 8dbd 453f d6b0 053f 1f5a 2fbe
000003d0: 22cc 20be 7182 793e 5653 fb3e 0a16 5e3f
000003e0: 2f9f 933e 4e8d debf 8bef bbbf 5c87 11bf
000003f0: 98f8 e8bd da5c cc3d 489b 97bf d580 113f

feature.weight_hh_l0_reverse f4 [512, 128]
-0.24892724 0.045666654 0.022098789 0.5634387 -0.15554634 0.56870335 -0.78882766 0.110274136
-0.2938613 0.42286554 0.27468738 -0.89928985 0.41077977 0.2986728 -0.37134022 -0.38643715
0.5327491 0.32912552 0.51034063 -0.47317848 0.27971053 0.07333132 -0.40034884 -0.52563614
0.66982013 -0.30445608 -0.96034986 0.35425943 0.36019725 -0.07598367 -0.05170289 -0.6644595
-0.023210319 -0.40655905 1.1374248 -0.24202721 -0.24807727 0.4817569 1.036761 -0.7415506
0.78578746 -0.05596937 -0.4100153 0.011432236 -0.18644202 -0.36637595 -0.29202837 -1.042415
-0.01728541 0.14570819 0.2291174 -0.029499276 1.0749153 0.23865125 -0.40811697 -0.41321823
-0.26092452 -0.6839225 -1.0862342 -0.13671063 0.42289826 0.25908557 0.03471155 0.15516073
0.24658105 0.05037617 0.93485725 0.0805556 0.3929051 0.76767004 0.35500634 0.52679014
0.053098835 0.24208562 -0.1427266 -0.10986037 0.13193943 -0.07240379 0.49250942 -0.50095004
-0.064003155 0.1508542 0.63216513 -0.3976114 -0.51404893 -0.26647642 -0.56377816 -0.59311
0.35438094 0.56393427 -0.20830677 0.16643175 0.087659016 0.55442953 0.10520841 0.96095794
0.5745027 -0.1102413 -0.74771374 -0.5133799 -0.61079437 -0.15412767 -0.48405185 0.8040109
0.56240165 -0.40817896 -1.2040186 0.010043019 0.36771646 0.21942736 0.001190681 -0.19023892
-0.14905973 0.82588726 -0.13622667 0.32356614 0.12336226 0.5057487 0.6522494 -0.3846448
0.66493356 -0.013824779 -0.49445224 0.25040877 0.12642835 -0.13357757 -0.2774489 0.26317972
0.0465378 0.07808039 0.059918415 -0.46577972 0.25293425 0.77630097 -0.17779212 -0.23726603
-0.6763514 0.26821923 0.6871763 0.5609589 0.7208082 0.5228157 -0.35254988 -0.3996648
-0.4024895 0.2995901 -0.8056373 -0.5005839 0.12699558 -0.14435723 -0.0380765 -0.7926145
1.446886 -0.5048654 -0.016586466 0.68375725 0.4799889 -0.37994424 -0.316583 -0.045209676
0.24497624 -0.86408126 0.48358813 -0.5809069 -0.16742136 -0.20375781 -0.05253509 -0.40116522
-0.646185 0.21152468 -0.011591002 0.8166787 0.60862213 0.9547793 0.46618804 0.1574773
0.10887076 0.022785323 -0.023949066 0.15924788 0.5897411 0.76449156 -0.5449331 -0.5162564
0.37075344 -0.22597821 -0.40184262 0.35072687 -0.5921241 0.15619248 -0.13587469 0.6719744
0.3806415 0.41455743 0.048732087 0.0227844 0.013121477 -0.29453152 -0.43666714 0.29401317
-0.57818377 -0.13251008 0.8215733 -0.97679925 0.009171833 -0.51702774 -0.6757148 -0.2189833
-0.2727682 0.6983587 -0.13927296 -0.6114031 -0.7008771 0.25799558 0.111757606 -0.004400846
0.12793057 -1.0450785 0.9680253 0.74426574 0.05182039 -0.42384353 -0.011120622 0.26248074
-0.13284995 -0.40950233 -0.46309605 0.25434613 0.19617668 0.95833576 -0.6509576 0.02615056
-0.33235148 -0.09479974 -0.13340804 -0.3564181 0.072817706 -0.3215959 0.25114995 0.20189054
0.42953277 -0.45344648 -0.43325388 -0.3780368 -0.26893237 0.16986534 0.03757799 0.75056165
-0.41998303 -0.17192274 0.53842235 -0.6127022 0.36797228 -0.3071546 -0.47368303 -0.11734874
00000000: c8e6 7ebe f50c 3b3d 8508 b53c 853d 103f
00000010: 8a47 1fbe 8b96 113f 9cf0 49bf 68d7 e13d
00000020: fd74 96be d581 d83e d3a3 8c3e dc37 66bf
00000030: ba51 d23e a4eb 983e 4e20 bebe 17db c5be
00000040: 3f62 083f 2483 a83e afa5 023f 7344 f2be
00000050: 3836 8f3e bb2e 963d 86fa ccbe 1790 06bf
00000060: 5579 2b3f abe1 9bbe 7dd9 75bf 7e61 b53e
00000070: c66b b83e 549d 9bbd 69c6 53bd 051a 2abf
00000080: 9123 bebc 8228 d0be 2397 913f fbd5 77be
00000090: f807 7ebe d7a8 f63e 96b4 843f 43d6 3dbf
000000a0: 5e29 493f 2340 65bd 87ed d1be 464e 3b3c
000000b0: a8ea 3ebe a195 bbbe be84 95be db6d 85bf
000000c0: 229a 8dbc 8734 153e c09d 6a3e 77a8 f1bc
000000d0: d396 893f fe60 743e b5f4 d0be 5791 d3be
000000e0: e697 85be 8c15 2fbf b909 8bbf dffd 0bbe
000000f0: 1f86 d83e dda6 843e b32d 0e3d 74e2 1e3e
00000100: be7f 7c3e 3e57 4e3d ce52 6f3f 56fa a43d
00000110: db2a c93e 0686 443f 64c3 b53e b8db 063f
00000120: 2a7e 593d 4be5 773e ec26 12be 79fe e0bd
00000130: 211b 073e 7048 94bd 322a fc3e 433e 00bf
00000140: 1614 83bd 8679 1a3e 93d5 213f b993 cbbe
00000150: b698 03bf 996f 88be c453 10bf 0fd6 17bf
00000160: 6b71 b53e ff5d 103f 5f4e 55be 166d 2a3e
00000170: 9286 b33d 18ef 0d3f 8277 d73d 5701 763f
00000180: 9c12 133f 31c6 e1bd 2b6a 3fbf dd6c 03bf
00000190: 055d 1cbf a5d3 1dbe a5d5 f7be a9d3 4d3f
000001a0: 8ef9 0f3f d5fc d0be 481d 9abf 7a8b 243c
000001b0: 5545 bc3e 91b1 603e a010 9c3a fecd 42be
000001c0: 1da3 18be 596d 533f 017f 0bbe 76aa a53e
000001d0: 5aa5 fc3d bf78 013f d1f9 263f 2af0 c4be
000001e0: 1639 2a3f 5381 62bc d828 fdbe 9435 803e
000001f0: 6f76 013e 8fc8 08be c80d 8ebe 7ebf 863e
00000200: 6c9e 3e3d 9de8 9f3d 036d 753d ae7a eebe
00000210: 9980 813e a9bb 463f 230f 36be def5 72be
00000220: 5e25 2dbf 0854 893e c9ea 2f3f 019b 0f3f
00000230: e386 383f 40d7 053f 6b81 b4be dda0 ccbe
00000240: 1b13 cebe e063 993e 3f3e 4ebf 4426 00bf
00000250: 210b 023e 62d2 13be 1bf6 1bbd c9e8 4abf
00000260: 8f33 b93f dc3e 01bf 57e0 87bc b70a 2f3f
00000270: 1bc1 f53e 0d88 c2be 2b17 a2be c82d 39bd
00000280: 0ddb 7a3e 6e34 5dbf dd98 f73e 51b6 14bf
00000290: 8170 2bbe e3a5 50be 092f 57bd 8765 cdbe
000002a0: 616c 25bf ed99 583e 30e8 3dbc db11 513f
000002b0: a9ce 1b3f 6b6c 743f 33b0 ee3e bb41 213e
000002c0: a2f7 de3d 49a8 ba3c d530 c4bc e011 233e
000002d0: 46f9 163f b8b5 433f bc80 0bbf 6129 04bf
000002e0: 65d3 bd3e d566 67be 51be cdbe 7992 b33e
000002f0: 7295 17bf ecf0 1f3e bc22 0bbe 8406 2c3f
00000300: 71e3 c23e df40 d43e 4c9b 473d 5aa6 ba3c
00000310: 77fb 563c d6cc 96be d692 dfbe e588 963e
00000320: da03 14bf b9b0 07be a152 523f 840f 7abf
00000330: 7545 163c ee5b 04bf a5fb 2cbf 283d 60be
00000340: 46a8 8bbe a3c7 323f 929d 0ebe ea84 1cbf
00000350: ae6c 33bf ff17 843e 2ce1 e43d f934 90bb
00000360: 3b00 033e 22c5 85bf 82d0 773f 3388 3e3f
00000370: 9e41 543d 0502 d9be 4533 36bc e063 863e
00000380: d109 08be 4aaa d1be ed1a edbe a839 823e
00000390: 8ae2 483e 7e55 753f 28a5 26bf b339 d63c
000003a0: f929 aabe 5e26 c2bd 1e9c 08be 6f7c b6be
000003b0: 7321 953d 38a8 a4be ba96 803e 65bc 4e3e
000003c0: b8eb db3e 232a e8be 74d3 ddbe 0a8e c1be
000003d0: 81b1 89be 2ef1 2d3e 61eb 193d cf24 403f
000003e0: 0408 d7be 840c 30be 0cd6 093f 0dda 1cbf
000003f0: dd66 bc3e 5e43 9dbe 9586 f2be 8954 f0bd

feature.bias_ih_l0_reverse f4 [512]
0.35568738 0.31838855 0.2838193 -0.18237723 0.6517072 -0.4206817 -0.032941885 0.8355744
0.1299275 0.38408905 -0.3570021 0.00033680594 -0.20405242 0.2378724 0.35023817 -0.15330048
0.13391668 0.6160911 0.0056458875 0.38126412 -0.004904535 0.014921899 0.16703862 0.11695105
-0.15030827 0.12568578 0.14726236 -0.04274872 0.24795735 0.36555123 0.2632928 0.028915495
1.0639305 -0.38446414 0.36567387 0.46175706 -0.24270748 0.13345142 -0.16155419 0.17546439
0.38116744 0.4325791 0.087859005 0.3039048 0.44721445 0.08215254 0.97555846 -0.34040344
0.03404568 -0.49854463 0.57243675 0.2484135 0.28333235 -0.10469233 0.42457116 -0.04434694
-0.19922176 0.1282718 -0.59714776 0.6891305 -0.2831871 0.23473398 0.22348703 -0.10906444
0.033444516 -0.1516468 0.1313063 0.66129416 0.047807653 -0.33380535 0.006337219 0.29330942
0.052383438 -0.05745065 -0.046105213 -0.035529442 0.1807664 -0.09498004 -0.19080527 0.2392057
-0.06928551 0.23846237 -0.30335924 -0.18291415 0.09449073 0.31918952 -0.09068453 0.3166627
-0.14797035 0.060007952 -0.28222892 0.22295035 0.3320132 0.021741997 -0.44071743 0.22322327
-0.37675545 -0.30159488 0.15363558 0.028942144 0.053696964 -0.37325215 -0.18222916 0.5111919
-0.124837324 0.31315577 0.29507637 -0.04463724 -0.12706046 0.067253225 0.38442525 0.17322797
-0.006560329 -0.10607612 0.18281648 0.029263875 0.08224373 0.3709645 0.091044016 -0.41231993
-0.14088902 -0.060329128 0.22241649 0.09726671 -0.17719926 0.5120553 0.13522029 0.3491769
-0.39089835 -0.4521729 -0.2518891 0.0011699456 -0.16114746 -0.6151599 -0.048209608 -0.50512266
0.061875634 -0.09924299 0.16313249 -0.29697588 -0.038055763 0.018379342 -0.2966097 -0.27307945
-0.33359188 -0.09755478 -0.72952276 0.3329919 -0.24480441 0.019265704 0.10534759 -0.26480436
0.34310752 0.024464702 -0.07955165 0.24480079 -0.63877046 -0.34742388 -0.39811596 -0.51642513
-0.37240258 0.5360316 0.63674927 -0.458516 -0.109270476 0.30881786 -0.33047402 -0.03995167
-0.43256977 -0.22643812 0.21685192 -0.084347546 -0.4232177 -0.1140519 -0.4907874 -0.4337984
-0.013977192 -0.01122034 0.22830409 0.07431564 0.43655992 -0.14883801 -0.02498563 -0.018374512
-0.3504017 -0.079929546 -0.16744818 -0.61433405 0.3896018 -0.44833648 -0.12915732 1.2567924
0.09186384 0.67811745 0.47999424 -0.5945348 -0.24253672 0.2451065 -0.48856118 -0.5662893
0.017224588 -0.49460378 -0.21797656 -0.42579874 -0.017622404 0.045491412 -0.010509402 0.049189996
0.23217982 -0.50143236 -0.052328665 0.15422277 -0.24768326 -0.08602511 0.20787218 -0.11859034
0.3268397 -0.22751653 0.19952373 -0.47932753 -0.33066592 0.34884644 -0.108981505 -0.33598045
-0.15290685 0.008647935 -0.24315897 -0.1555412 0.23961371 1.333063 0.068154365 0.03796851
-0.43099272 -0.25643143 -0.09758338 0.6310169 -0.06168384 -0.14192773 -0.67807555 -0.305008
-0.19639541 -0.17534539 -0.1793336 -0.33416724 -0.32515985 -0.066900626 0.034669686 -0.124907926
-0.020669485 -0.047231924 -0.0145568885 -0.13400786 -0.061453514 -0.44575915 -0.023191055 -0.18333372
00000000: a81c b63e d303 a33e c350 913e 19c1 3abe
00000010: 48d6 263f 9763 d7be 12ee 06bd 34e8 553f
00000020: b70b 053e 52a7 c43e fbc8 b6be 5495 b039
00000030: 1ef3 50be d394 733e 6b52 b33e cdfa 1cbe
00000040: 7421 093e 25b8 1d3f 2301 b93b 0d35 c33e
00000050: 39b6 a0bb fb7a 743c 2c0c 2b3e 0884 ef3d
00000060: 69ea 19be c6b3 003e f2cb 163e 4819 2fbd
00000070: 88e8 7d3e 8829 bb3e 50ce 863e 30e0 ec3c
00000080: e02e 883f 7cd8 c4be 9b39 bb3e 6c6b ec3e
00000090: 4f88 78be 7da7 083e 766e 25be f0ac 333e
000000a0: 6128 c33e 027b dd3e 6cef b33d 6999 9b3e
000000b0: 4bf9 e43e 973f a83d 33be 793f 5c49 aebe
000000c0: 7c73 0b3d 3e41 ffbe 378b 123f 1c60 7e3e
000000d0: f010 913e ef68 d6bd 6461 d93e 23a5 35bd
000000e0: ca00 4cbe af59 033e adde 18bf db6a 303f
000000f0: e6fd 90be 1b5e 703e c9d9 643e 2d5d dfbd
00000100: 1efd 083d 4c49 1bbe 2975 063e 934a 293f
00000110: f5d1 433d 89e8 aabe 72a8 cf3b a72c 963e
00000120: 0490 563d 5f51 6bbd d2d8 3cbd 5287 11bd
00000130: d41a 393e e584 c2bd 7562 43be 57f2 743e
00000140: 90e5 8dbd 7b2f 743e e751 9bbe d94d 3bbe
00000150: 5b84 c13d cf6c a33e d0b8 b9bd 9d21 a23e
00000160: 8a85 17be e6ca 753d 4f80 90be 194d 643e
00000170: a2fd a93e 461c b23c b7a5 e1be a494 643e
00000180: 17e6 c0be a56a 9abe a552 1d3e 1318 ed3c
00000190: 59f1 5b3d e81a bfbe 489a 3abe 79dd 023f
000001a0: b6aa ffbd f455 a03e 4014 973e 8ad5 36bd
000001b0: 231c 02be 0fbc 893d 63d3 c43e ac62 313e
000001c0: 07f8 d6bb 703e d9bd 3e34 3b3e cbba ef3c
000001d0: 676f a83d 0fef bd3e 4975 ba3d 991b d3be
000001e0: 3645 10be ad1b 77bd 26c1 633e c533 c73d
000001f0: b973 35be 0e16 033f 3077 0a3e 51c7 b23e
00000200: d423 c8be 3583 e7be 9cf7 80be dc58 993a
00000210: d703 25be 1f7b 1dbf 7077 45bd b84f 01bf
00000220: 4e71 7d3d e93f cbbd 340c 273e 390d 98be
00000230: 5ce0 1bbd 4690 963c 3add 97be 12d1 8bbe
00000240: 8ecc aabe cdca c7bd 01c2 3abf ea7d aa3e
00000250: 02ae 7abe 1cd3 9d3c 7ac0 d73d 7094 87be
00000260: caab af3e 336a c83c faeb a2bd 0fad 7a3e
00000270: 7686 23bf 8be1 b1be dbd5 cbbe 7034 04bf
00000280: 8dab bebe 5e39 093f 0002 233f 9cc2 eabe
00000290: 33c9 dfbd 601d 9e3e e433 a9be 5da4 23bd
000002a0: c979 ddbe 65df 67be 6e0e 5e3e 68be acbd
000002b0: feaf d8be 0b94 e9bd 7c48 fbbe d31a debe
000002c0: 9800 65bc 84d5 37bc 8cc8 693e cc32 983d
000002d0: c884 df3e fe68 18be aaae ccbc 2586 96bc
000002e0: da67 b3be 1ab2 a3bd 8977 2bbe ff44 1dbf
000002f0: e379 c73e 5c8c e5be d141 04be 93de a03f
00000300: 1c23 bc3d 1b99 2d3f cec1 f53e 6f33 18bf
00000310: 8c5b 78be 33fd 7a3e b124 fabe 56f8 10bf
00000320: 941a 8d3c b53c fdbe 3f35 5fbe 4b02 dabe
00000330: dc5c 90bc 3455 3a3d a02f 2cbc 737b 493d
00000340: 8cc0 6d3e df5d 00bf 9556 56bd 93ec 1d3e
00000350: aea0 7dbe ef2d b0bd 72dc 543e 7edf f2bd
00000360: 8857 a73e 18fa 68be f34f 4c3e 6b6a f5be
00000370: 0b4d a9be 009c b23e b231 dfbd a105 acbe
00000380: 9d93 1cbe 12b0 0d3c aafe 78be 3146 1fbe
00000390: 4c5d 753e cfa1 aa3f 8494 8b3d de84 1b3d
000003a0: 14ab dcbe fb4a 83be ccd9 c7bd 538a 213f
000003b0: 32a8 7cbd 8155 11be 5c96 2dbf 022a 9cbe
000003c0: e11b 49be be8d 33be 3aa3 37be f817 abbe
000003d0: 5a7b a6be 3203 89bd cd01 0e3d bacf ffbd
000003e0: 0d53 a9bc 4376 41bd 0480 6ebc 5b39 09be
000003f0: aeb6 7bbd 8b3a e4be 2bfb bdbc d6bb 3bbe

feature.bias_hh_l0_reverse f4 [512]
0.38300422 0.22953479 0.3194213 -0.17256336 0.6792511 -0.44246793 0.024171578 0.9474508
0.12355615 0.31579933 -0.3241867 -0.09125625 -0.07076382 0.067593634 0.3357986 -0.106688745
0.0463128 0.62871975 -0.02967253 0.46180898 -0.066912554 -0.016529547 0.089532495 0.11560924
-0.25056967 0.026045555 0.13548683 0.06135573 0.096335314 0.32873383 0.17482768 0.0112751145
0.9779086 -0.32678315 0.4050315 0.33659646 -0.3528838 0.1667351 -0.28344992 0.23248959
0.36088532 0.38894963 0.17167825 0.21812679 0.33028355 0.08656882 0.9041682 -0.23709401
-0.1535306 -0.43692055 0.53759843 0.22201757 0.176616 -0.1877819 0.35836223 -0.10862582
0.017691908 0.24180785 -0.6138141 0.67382985 -0.21653606 0.19328533 0.19638449 -0.0016576761
0.16374527 -0.06627151 0.19361445 0.5340258 0.095353544 -0.41144696 0.063902676 0.35629842
0.0782053 -0.15497874 -0.057000183 0.07435671 0.1575631 -0.1331521 -0.21502356 0.16673808
-0.0536377 0.18433163 -0.17244904 -0.13291055 0.061356485 0.2882836 -0.006635704 0.3663856
-0.14949413 0.067368165 -0.28951454 0.23574413 0.3639888 -0.06578669 -0.30456504 0.22329089
-0.2822081 -0.25014594 0.039263822 -0.06704373 0.12117801 -0.3770958 -0.2487491 0.49745476
-0.13086802 0.33227372 0.40281588 -0.14703682 -0.20109989 0.06664615 0.30159533 0.09670453
-0.043686226 -0.13957945 -0.015384435 0.08283734 0.13145675 0.29931036 0.16431224 -0.41056937
0.002559045 -0.13223316 0.08205462 -0.01925463 -0.2701076 0.4736886 0.14570124 0.34654513
-0.15359737 -0.38182878 -0.26161402 0.007704288 -0.19887401 -0.54526293 -0.036250684 -0.61265516
0.03403623 0.027214654 0.34049404 -0.1823826 -0.13212964 -0.06436589 -0.31185782 -0.16946381
-0.31505927 -0.13419685 -0.6472451 0.51612467 -0.31080553 -0.004289402 -0.036928363 -0.36652032
0.23629262 -0.0045933085 -0.19775656 0.23218751 -0.7224448 -0.25548822 -0.31875575 -0.47187606
-0.2876799 0.4701414 0.7311546 -0.45402515 -0.21274233 0.4741499 -0.31908983 -0.123805895
-0.4465384 -0.2213103 0.168768 -0.19373858 -0.5436048 0.052879557 -0.3086769 -0.33841223
-0.035307687 -0.074600436 0.1410488 0.18482931 0.39360318 -0.18984625 -0.03949716 0.006899578
-0.49355552 -0.09534934 -0.25733623 -0.47946477 0.56560904 -0.35516554 -0.09596899 1.1832775
-0.027593853 0.56921804 0.5310167 -0.6302088 -0.36392322 0.16021873 -0.5095143 -0.5609523
0.007066811 -0.4513294 -0.1818131 -0.39052778 -0.073024645 0.12730674 -0.04742054 0.18072408
0.02912877 -0.4570459 0.009753479 0.13531893 -0.4781311 -0.23639403 0.16564599 -0.022910967
0.368852 -0.20936824 0.2063656 -0.4318544 -0.38833442 0.4130296 0.041068617 -0.34462076
-0.20679404 -0.045748927 -0.20910834 -0.10406957 0.2652973 1.2348286 0.19833787 -0.060468048
-0.3475223 -0.1575364 -0.031251255 0.60563505 -0.07082593 -0.22954759 -0.6172836 -0.26806077
-0.14434347 -0.22576842 -0.13547464 -0.30446032 -0.520097 -0.045922022 0.10294028 0.033872247
-0.017586859 -0.119199425 0.0073665646 -0.05712179 -0.08204152 -0.43857628 -0.11907482 -0.22447199
00000000: 2119 c43e 2b0b 6b3e 308b a33e 73b4 30be
00000010: 66e3 2d3f 288b e2be 7903 c63c 238c 723f
00000020: 020b fd3d 73b0 a13e cdfb a5be 8fe4 babd
00000030: 9fec 90bd 886e 8a3d cbed ab3e a17f dabd
00000040: 7eb2 3d3d c7f3 203f ce13 f3bc 3a72 ec3e
00000050: 7309 89bd f968 87bc d05c b73d 8ac4 ec3d
00000060: ab4a 80be 7d5d d53c 0fbd 0a3e 2550 7b3d
00000070: 734b c53d cd4f a83e 0706 333e 42bb 383c
00000080: 3858 7a3f 1f50 a7be 4a60 cf3e 5f56 ac3e
00000090: 2fad b4be 9bbc 2a3e 5920 91be c011 6e3e
000000a0: f6c5 b83e 6824 c73e 6ccc 2f3e a15c 5f3e
000000b0: ed1a a93e fe4a b13d 9177 673f c6c8 72be
000000c0: 2037 1dbe 0db4 dfbe 0da0 093f 9358 633e
000000d0: d3da 343e e649 40be 417b b73e 3777 debd
000000e0: 9fee 903c 7a9c 773e ec22 1dbf 1d80 2c3f
000000f0: a1bb 5dbe 97ec 453e 0419 493e 6146 d9ba
00000100: d7ac 273e 5cb9 87bd de42 463e eab5 083f
00000110: b848 c33d 2da9 d2be 68df 823d bf6c b63e
00000120: 1a2a a03d bfb2 1ebe 0679 69bd 5548 983d
00000130: 3958 213e 0659 08be 232f 5cbe 63bd 2a3e
00000140: 34b3 5bbd 6ec1 3c3e 7b96 30be b419 08be
00000150: f050 7b3d e899 933e 5270 d9bb e596 bb3e
00000160: fd14 19be 52f8 893d 403b 94be e966 713e
00000170: bd5c ba3e 2cbb 86bd f3ef 9bbe 5ea6 643e
00000180: 957d 90be 2113 80be 1ad3 203d 394e 89bd
00000190: 2d2c f83d b312 c1be 16b8 7ebe 64b2 fe3e
000001a0: 4402 06be c81f aa3e e23d ce3e d290 16be
000001b0: 21ed 4dbe c77d 883d b46a 9a3e 060d c63d
000001c0: 54f0 32bd eaed 0ebe ff0e 7cbc a0a6 a93d
000001d0: 999c 063e 353f 993e 7841 283e 2636 d2be
000001e0: a7b5 273b 2168 07be 410c a83d e3bb 9dbc
000001f0: 8b4b 8abe 5087 f23e b532 153e 5d6e b13e
00000200: a148 1dbe 107f c3be 46f2 85be 4074 fc3b
00000210: a1a5 4bbe 5a96 0bbf 997b 14bd f8d6 1cbf
00000220: 9369 0b3d 44f1 de3c 3c55 ae3e 81c2 3abe
00000230: fe4c 07be 44d2 83bd d4ab 9fbe ec87 2dbe
00000240: 734f a1be e66a 09be dbb1 25bf bf20 043f
00000250: e721 9fbe 1d8e 8cbb 3242 17bd 8da8 bbbe
00000260: b1f6 713e 7783 96bb b280 4abe 90c2 6d3e
00000270: 24f2 38bf 5acf 82be f433 a3be bd99 f1be
00000280: c84a 93be 60b6 f03e f32c 3b3f fc75 e8be
00000290: 20d9 59be c7c3 f23e be5f a3be f28d fdbd
000002a0: aea0 e4be 2b9f 62be 85d1 2c3e 6863 46be
000002b0: af29 0bbf 3c98 583d e60a 9ebe 5e44 adbe
000002c0: cb9e 10bd 1dc8 98bd 196f 103e e543 3d3e
000002d0: 5b86 c93e 0e67 42be c6c7 21bd db15 e23b
000002e0: 4fb3 fcbe 8446 c3bd 93c1 83be 687c f5be
000002f0: c1cb 103f 42d8 b5be 648b c4bd a375 973f
00000300: 810c e2bc 46b8 113f b6f0 073f 5d55 21bf
00000310: 2554 babe 6110 243e 876f 02bf 929a 0fbf
00000320: b590 e73b a614 e7be 372d 3abe 42f3 c7be
00000330: f28d 95bd b35c 023e 0a3c 42bd bc0f 393e
00000340: 759f ee3c ec01 eabe 0ecd 1f3c 0c91 0a3e
00000350: 99cd f4be 4711 72be 1a9f 293e c8af bbbc
00000360: 2bda bc3e a164 56be 8151 533e 051c ddbe
00000370: c5d3 c6be 9e78 d33e 9137 283d 2272 b0be
00000380: d1c1 53be 3a63 3bbd 7f20 56be 6d22 d5bd
00000390: 0cd5 873e dd0e 9e3f 1519 4b3e 58ad 77bd
000003a0: 71ee b1be 3951 21be 5101 00bd e60a 1b3f
000003b0: 2f0d 91bd 860e 6bbe 4c06 1ebf 433f 89be
000003c0: c6ce 13be d62f 67be ddb9 0abe 39e2 9bbe
000003d0: 1425 05bf bb18 3cbd 5bd2 d23d a0bd 0a3d
000003e0: 5112 90bc d41e f4bd 3963 f13b 8af8 69bd
000003f0: 6205 a8bd 128d e0be 80dd f3bd fcdb 65be
