logs/classifier/5_contexts/fold_04/10-17-2022_22-40-25/model_params.pth (torch, 822087 bytes, 10 tensors)

feature.weight_ih_l0 f4 [512, 64]
-0.6211281 -0.107195705 -1.2638373 -0.45463246 -0.25150108 -0.05286608 -0.19575302 0.47600138
0.61057234 0.22969413 0.96590215 0.37341946 -0.40553918 -0.3895114 -0.9950523 -0.14214537
0.36594614 -1.1760443 -0.3589862 1.5000998 -0.7310535 0.0962949 0.4470393 -0.1891234
0.21403785 0.599567 -0.20138523 0.04971808 0.039267108 0.57477725 -0.8122555 -0.40704578
0.18606725 0.4129004 -0.26958138 0.59983116 1.0258064 -0.33237445 0.37082472 -0.15790232
-0.6048011 0.12945944 -0.101177104 -0.04327453 -0.28570285 0.8347369 0.58442086 -0.04662112
0.08658573 -0.2575368 -1.090904 -0.25902948 -0.053472318 -0.5616489 0.71019906 0.38981578
-0.23309442 -0.086312436 0.45794958 -0.44826895 0.14126831 0.1463625 0.59485376 0.028044106
-0.098585285 -0.2783561 0.060806055 -0.09193893 -0.36952078 0.85163456 -1.0022296 0.4322587
-0.7074999 -0.315341 0.327445 0.13765676 -0.6968415 -0.24227391 -0.6073657 -0.0053307223
0.40753558 -0.23869915 -0.010218868 0.22828014 -0.022439048 0.9031165 0.6105527 -0.25589478
-0.39446303 0.35046056 -0.6679064 -0.07885114 -0.019364009 -0.29695803 -1.5816436 -0.9615631
0.012562551 0.10291877 0.58466846 -1.0309324 0.7252213 -0.51067305 0.4278983 -0.35322732
0.48394963 0.4644638 -0.42324883 0.14085516 0.87638974 1.0100114 0.033079196 1.4918234
-0.3142493 0.45477897 -0.0428896 -0.1151183 -0.2528021 -0.49362186 -0.375844 -0.5900575
-0.479837 -0.52156246 0.22912979 -1.0149018 0.48911935 -0.27122384 0.2876508 0.47891393
-0.01951525 -0.36019623 -0.44534904 0.6008031 0.39440966 0.19512215 0.15158583 0.18661927
-0.69488305 -0.08023796 -0.30987898 -0.6146135 -0.016525209 1.2615302 0.7971702 0.83577585
-0.5222314 1.031886 -0.72773975 0.040779386 0.58660036 0.5938689 -0.6116895 0.60627633
-0.63101673 0.5830463 -0.090619415 0.54489326 0.30457547 -0.015281273 -0.9243135 1.213063
0.22128436 0.98171705 2.2774985 -0.34040257 1.5138406 0.98152643 0.020785825 0.52170086
0.23380072 -0.81724685 0.04828043 0.17921536 0.5089653 0.6889883 0.8883523 -0.5719255
-0.40058893 -0.24518453 0.13911963 0.20360236 0.32960266 -0.71890086 -0.3167049 0.39260483
0.9554781 0.30650154 -0.3176756 1.1304559 0.40854493 -0.5458971 -0.44849253 0.1097959
-0.7571407 0.6776973 0.76746 -0.7326962 -0.76720655 0.57819605 -0.7366589 0.059279766
0.37839922 -0.10183593 0.96787304 0.72401196 -0.662557 -0.29206207 -0.2489234 -1.084562
-0.3855102 0.6676733 -0.01541292 -0.24260949 -1.4878427 0.31358862 0.30174923 0.27012482
-0.7595898 -0.13922292 -0.17160708 -0.22961086 -0.15347674 0.04883438 0.39590856 0.62115
0.18085052 0.3803019 -0.17332694 -0.92080617 -0.2368164 0.2889231 0.86273694 -1.5684152
-0.09443653 -0.36351028 0.33014426 -0.58349717 -0.028221406 0.76893175 -0.7112663 1.0446632
-0.43609804 -0.82642376 0.46687368 -1.1233429 0.093103044 0.9619722 -0.13020119 -0.20719993
0.53731817 0.26925355 0.6446099 -0.5596004 0.8350983 0.12571576 -0.88754153 0.010731351
00000000: 4002 1fbf 6c89 dbbd 6cc5 a1bf 96c5 e8be
00000010: c0c4 80be 1a8a 58bd 7b73 48be 74b6 f33e
00000020: 784e 1c3f f034 6b3e 5d45 773f d630 bf3e
00000030: d5a2 cfbe 0a6e c7be bfbb 7ebf 8e8e 11be
00000040: 4b5d bb3e 9f88 96bf 0acd b7be 4503 c03f
00000050: 5226 3bbf 4336 c53d 56e2 e43e 91a9 41be
00000060: bd2c 5b3e 397d 193f ee37 4ebe 2fa5 4b3d
00000070: 8cd6 203d 9a24 133f faef 4fbf 4e68 d0be
00000080: 6a88 3e3e ae67 d33e 9206 8abe 898e 193f
00000090: a04d 833f fc2c aabe bddc bd3e 25b1 21be
000000a0: 3fd4 1abf 0491 043e f135 cfbd a240 31bd
000000b0: a547 92be 51b1 553f 9b9c 153f caf5 3ebd
000000c0: dc53 b13d dddb 83be bea2 8bbf 839f 84be
000000d0: ca05 5bbd 39c8 0fbf 9bcf 353f ef95 c73e
000000e0: 4eb0 6ebe 93c4 b0bd 5e78 ea3e 8283 e5be
000000f0: a4a8 103e 0de0 153e 5648 183f c1bc e53c
00000100: 15e7 c9bd b184 8ebe c50f 793d 7a4a bcbd
00000110: d431 bdbe b904 5a3f 0f49 80bf 0351 dd3e
00000120: b71e 35bf 6074 a1be dfa6 a73e e5f5 0c3e
00000130: 3464 32bf a716 78be 527c 1bbf 57ad aebb
00000140: 81a8 d03e 8d6d 74be 0a6d 27bc 45c2 693e
00000150: 18d2 b7bc a532 673f 2f4d 1c3f a404 83be
00000160: 0ff7 c9be 916f b33e eafb 2abf b57c a1bd
00000170: 45a1 9ebc e20a 98be 4c73 cabf 0029 76bf
00000180: 28d3 4d3c 13c7 d23d d5ac 153f 98f5 83bf
00000190: 1aa8 393f 78bb 02bf 7c15 db3e 36da b4be
000001a0: 3fc8 f73e 33ce ed3e 12b4 d8be 563c 103e
000001b0: 145b 603f 0e48 813f 0d7e 073d 12f4 be3f
000001c0: 49e5 a0be cad8 e83e 01ad 2fbd 25c3 ebbd
000001d0: 476f 81be 01bc fcbe a06e c0be 020e 17bf
000001e0: 32ad f5be 1e85 05bf 00a1 6a3e 4de8 81bf
000001f0: da6d fa3e dadd 8abe f746 933e 3534 f53e
00000200: 72de 9fbc a46b b8be ca04 e4be 3bce 193f
00000210: 10f0 c93e 1ace 473e 5139 1b3e 1f19 3f3e
00000220: dbe3 31bf cd53 a4bd 75a8 9ebe 4f57 1dbf
00000230: e05f 87bc d279 a13f 5913 4c3f 68f5 553f
00000240: f5b0 05bf d714 843f 274d 3abf 4908 273d
00000250: 712b 163f cb07 183f af97 1cbf ed34 1b3f
00000260: 508a 21bf 8642 153f ac96 b9bd 207e 0b3f
00000270: 51f1 9b3e 4e5e 7abc cf9f 6cbf a645 9b3f
00000280: 5e98 623e cf51 7b3f 89c2 1140 3f49 aebe
00000290: 87c5 c13f 5145 7b3f 0947 aa3c 308e 053f
000002a0: 7569 6f3e 1737 51bf b3c1 453d 3b84 373e
000002b0: 8d4b 023f 8a61 303f 0e6b 633f b669 12bf
000002c0: fe19 cdbe a711 7bbe 6075 0e3e 237d 503e
000002d0: aec1 a83e e309 38bf 2527 a2be 8003 c93e
000002e0: 369a 743f c5ed 9c3e 60a6 a2be c7b2 903f
000002f0: cd2c d13e eabf 0bbf d0a0 e5be acdc e03d
00000300: f9d3 41bf 927d 2d3f 4278 443f fa91 3bbf
00000310: a667 44bf a804 143f ad95 3cbf 57cf 723d
00000320: 8bbd c13e 5b8f d0bd 87c6 773f d958 393f
00000330: 569d 29bf 2989 95be c7e5 7ebe edd2 8abf
00000340: 9861 c5be a3ec 2a3f 7986 7cbc 9f6e 78be
00000350: a171 bebf b08e a03e e07e 9a3e cd4d 8a3e
00000360: 7a74 42bf 7490 0ebe c4b9 2fbe 1c1f 6bbe
00000370: 0229 1dbe 8f06 483d 87b4 ca3e b003 1f3f
00000380: e130 393e eeb6 c23e 9e7c 31be f4b9 6bbf
00000390: 0080 72be bbed 933e 54dc 5c3f d4c1 c8bf
000003a0: f067 c1bd 051e babe ab08 a93e 1260 15bf
000003b0: 9430 e7bc b6d8 443f 8c15 36bf 86b7 853f
000003c0: 3e48 dfbe 8290 53bf 110a ef3e b3c9 8fbf
000003d0: cfac be3d cf43 763f 7653 05be 382c 54be
000003e0: af8d 093f 9adb 893e 2805 253f f941 0fbf
000003f0: 01c9 553f a2bb 003e ec35 63bf 8cd2 2f3c

feature.weight_hh_l0 f4 [512, 128]
-0.30975342 -0.2826296 -0.45986435 -0.5344753 0.045439295 0.25974143 0.42354247 0.9173359
0.41232538 -0.32275578 -0.33922607 -0.2942797 0.29560316 -0.02846005 1.0265958 0.8245201
-0.016383436 -0.16004883 0.79624164 0.5628092 -0.32963303 -0.9567268 0.8938228 -0.49401274
0.6798234 -0.67913043 -0.08452861 0.31683773 0.28692016 -0.011950842 0.34434193 -0.074030854
0.020045184 0.35905626 -0.41680342 -0.7587416 0.26635742 0.38730448 -0.22737673 -0.60383576
0.6229123 1.0615705 1.1085949 -0.79039794 -0.66173846 -0.5442348 0.1703606 0.34768263
-0.43393546 0.6261333 0.14088957 1.0906355 -0.9653876 0.08445657 0.36352506 -0.49943924
0.4674383 0.7052034 -0.35736158 -0.5574698 0.019023849 1.0617123 -0.9275746 -0.71025836
0.7260473 0.2447644 0.8368664 0.9462226 0.26803425 -0.4891692 -0.27359393 0.14605081
0.38543096 0.67929655 0.5111586 0.8508116 -0.48781598 0.73252106 0.34016097 0.5367146
-0.28937688 -0.00052357663 -0.20606346 0.22170037 0.078786634 -0.2477937 0.12707394 -0.6237131
-0.60657066 -0.41308647 -0.2621722 -0.32205045 0.23149966 -0.49091962 -0.33929753 -0.01903363
0.5934833 0.5174449 0.007457563 -0.7634815 0.19955169 -0.22832954 0.05119946 -0.3720992
-0.81266385 -0.29492617 0.13793314 -0.5409618 -0.08635051 0.9760284 -0.37416333 -0.10235162
0.033571467 0.11875344 0.12110626 0.38852483 -0.6420863 0.5859065 0.36351383 0.5004436
-0.57330465 -0.40683296 -0.09251673 0.0864537 0.37323463 0.17680229 0.119372234 -0.75670284
0.04052169 -0.26433653 -1.1065094 -0.14439856 -0.70189476 0.32254806 -0.4299467 0.6756954
0.3557415 -0.72224283 0.27437237 0.72931206 0.06984532 1.1405553 0.42365044 -0.39358807
0.56573814 0.5091561 -0.31794193 0.30462423 0.7446957 -0.6634531 -0.33718756 0.5287624
-0.04622377 -0.108339325 0.54577476 -0.8019082 0.36852828 0.64785475 -0.21980664 0.17525506
-0.27149704 -0.095822476 0.47214347 -0.31323215 -0.24686204 0.74374187 0.3636982 0.18830945
-0.10048268 0.25111467 0.0148482835 0.8029138 0.21875513 0.3957318 -0.1570505 -0.31432796
-0.18614988 -1.1245669 -0.49261376 0.30888543 0.31025127 -0.04704392 0.34690043 -0.20990665
-0.26146245 0.26517507 0.116452485 -0.5755072 0.70961726 1.3111341 -0.4539961 0.20403628
0.4661686 0.3027125 -0.24277252 0.15834607 -0.15307671 -0.07420591 0.057117265 0.09262237
-0.8938581 -0.31783095 0.05264413 -0.1658815 -1.4290913 -0.3018961 0.54059684 -0.3744677
-0.0015709472 0.33935943 -0.45894232 -0.06304072 -1.3483764 0.30512846 0.9204846 -0.13554746
-0.536429 -0.47853976 -0.41757184 -0.19384842 -0.23250023 -0.29119286 -0.72283655 -0.05840948
-0.3529103 0.47894397 -0.1982991 0.025715215 -0.12918855 0.14892098 0.026832288 -0.49284256
0.22469556 -0.18933463 -0.10592573 0.23440543 0.7195429 0.07818674 -0.4759199 0.26810044
0.19680563 0.218273 0.05219206 -0.36670914 -0.5910069 -0.5983536 0.03881687 -0.34095398
-0.04820415 0.06686282 0.49742934 0.015563978 0.2121954 0.8614512 -0.4238306 0.93435514
00000000: 0098 9ebe d4b4 90be 5773 ebbe 60d3 08bf
00000010: 8e1e 3a3d d4fc 843e 8fda d83e 87d6 6a3f
00000020: 501c d33e 3f40 a5be 0aaf adbe d4ab 96be
00000030: 4c59 973e 0d25 e9bc 7e67 833f c013 533f
00000040: 8e36 86bc d7e3 23be 7ed6 4b3f 4414 103f
00000050: a9c5 a8be 0cec 74bf 92d1 643f 3def fcbe
00000060: e808 2e3f 7edb 2dbf 561d adbd 8e38 a23e
00000070: 33e7 923e 77cd 43bc 964d b03e 7d9d 97bd
00000080: cc35 a43c 39d6 b73e 4267 d5be e43c 42bf
00000090: 0060 883e c64c c63e 72d5 68be fb94 1abf
000000a0: 2e77 1f3f 8be1 873f 70e6 8d3f 8557 4abf
000000b0: b167 29bf f952 0bbf 0273 2e3e 7503 b23e
000000c0: ca2c debe 464a 203f 5b45 103e f299 8b3f
000000d0: a423 77bf 91f7 ac3d f51f ba3e 80b6 ffbe
000000e0: 1354 ef3e 3688 343f 19f8 b6be 57b6 0ebf
000000f0: e7d7 9b3c 30e6 873f 8775 6dbf 7ed3 35bf
00000100: 3cde 393f 85a3 7a3e e03c 563f a53b 723f
00000110: c93b 893e 6374 fabe 8114 8cbe 588e 153e
00000120: 3557 c53e 61e6 2d3f 4adb 023f cace 593f
00000130: 04c3 f9be 8086 3b3f 9429 ae3e 2166 093f
00000140: 3529 94be a240 09ba 4d02 53be 6c05 633e
00000150: e35a a13d a2bd 7dbe ac1f 023e a9ab 1fbf
00000160: 3748 1bbf 1280 d3be 6f3b 86be cce3 a4be
00000170: 3f0e 6d3e d159 fbbe 68b8 adbe 6aec 9bbc
00000180: 86ee 173f 4577 043f 935e f43b 8673 43bf
00000190: 4757 4c3e 38cf 69be 86b6 513d c983 bebe
000001a0: bd0a 50bf 9000 97be 583e 0d3e 797c 0abf
000001b0: 89d8 b0bd ffdc 793f 5692 bfbe ba9d d1bd
000001c0: 3c82 093d 0135 f33d 8f06 f83d baec c63e
000001d0: c55f 24bf f8fd 153f 7c1e ba3e 121d 003f
000001e0: 18c4 12bf 694c d0be 6979 bdbd a30e b13d
000001f0: 9c18 bf3e a90b 353e 6e79 f43d 47b7 41bf
00000200: 12fa 253d 1e57 87be 1aa2 8dbf 37dd 13be
00000210: 60af 33bf 0525 a53e f921 dcbe 60fa 2c3f
00000220: c023 b63e e8e4 38bf 897a 8c3e 32b4 3a3f
00000230: 100b 8f3d b7fd 913f b6e8 d83e 6084 c9be
00000240: 37d4 103f 0e58 023f 49c9 a2be b5f7 9b3e
00000250: 61a4 3e3f 10d8 29bf d9a3 acbe f95c 073f
00000260: 2355 3dbd 02e1 ddbd e5b7 0b3f db49 4dbf
00000270: bdaf bc3e cfd9 253f fe14 61be 1076 333e
00000280: a901 8bbe 933e c4bd cabc f13e f75f a0be
00000290: 67c9 7cbe de65 3e3f a736 ba3e 31d4 403e
000002a0: ddc9 cdbd 1a92 803e 3746 733c c28b 4d3f
000002b0: 5801 603e 5c9d ca3e d9d1 20be 98ef a0be
000002c0: 139e 3ebe cff1 8fbf df37 fcbe 3b26 9e3e
000002d0: 41d9 9e3e 20b1 40bd ef9c b13e c5f1 56be
000002e0: 68de 85be 07c5 873e a47e ee3d 7154 13bf
000002f0: 7aa9 353f 3ed3 a73f 2d72 e8be e3ee 503e
00000300: a7ad ee3e 22fd 9a3e 5c99 78be 7925 223e
00000310: 24c0 1cbe 45f9 97bd cbf3 693d ccb0 bd3d
00000320: e2d3 64bf bdba a2be 5fa1 573d d7dc 29be
00000330: 77ec b6bf 2092 9abe 8e64 0a3f 3bba bfbe
00000340: 3ee8 cdba 85c0 ad3e 7dfa eabe 7e1b 81bd
00000350: 9997 acbf cc39 9c3e e1a4 6b3f f4cc 0abe
00000360: 6953 09bf 2a03 f5be facb d5be 3380 46be
00000370: 8a14 6ebe 3b17 95be d10b 39bf c73e 6fbd
00000380: a9b0 b4be 2538 f53e eb0e 4bbe b7a8 d23c
00000390: 014a 04be be7e 183e 63cf db3c dc55 fcbe
000003a0: 9816 663e f0e0 41be 97ef d8bd fa07 703e
000003b0: f733 383f 5f20 a03d c6ab f3be 7644 893e
000003c0: 6a87 493e f582 5f3e 57c7 553d 4dc1 bbbe
000003d0: 3a4c 17bf b42d 19bf 70fe 1e3d 8591 aebe
000003e0: b771 45bd 60ef 883d 0faf fe3e 0e00 7f3c
000003f0: c049 593e 1188 5c3f 5300 d9be e631 6f3f

feature.bias_ih_l0 f4 [512]
0.31007683 0.17163423 -0.059850574 -0.044331226 -0.21397828 0.30947107 0.0364987 0.22398067
-0.14979927 0.22305857 -0.034076903 -0.108984604 -0.37908402 0.010233965 0.87940735 1.1026595
0.45581678 0.10465617 0.9438694 0.2781497 -0.02665524 -0.3667029 -0.014020814 -0.22570485
0.2690324 0.2596236 -0.1451586 -0.12510534 0.19824646 -0.24394988 -0.02592801 -0.24297538
0.45178217 1.8476071 0.45055833 0.15608853 0.5347427 -0.03113466 0.53632367 -0.0007720821
1.7208785 1.1398273 0.13619146 0.39363313 0.59213483 -0.4871869 0.908351 -0.09525179
0.048723567 0.19209759 -0.16199633 0.21173003 -0.37124512 0.21099617 0.3035855 0.12463001
-0.35827342 0.16816637 0.10019912 0.31842506 -0.18204421 0.14457221 1.1566538 0.35085508
0.06415021 0.5071413 0.85058403 0.14203796 0.6597375 -0.5580228 0.6502324 -0.25364068
-0.021281797 -0.04558634 -0.12490361 0.5245014 0.118040726 -0.6176494 -0.4002357 0.16472314
0.009512 0.12002673 0.4801291 0.19521435 0.07806448 0.07368941 0.07394553 -0.5907659
-0.29057518 -0.06396495 0.14471681 -0.39120567 0.32294637 0.3947156 0.21617198 -0.23236501
0.2512475 0.14144284 0.54440355 -0.21309298 0.5083688 -0.19320787 -0.148303 0.58387357
-0.027599676 0.036363203 -0.057058435 0.100770056 0.34667635 0.35919204 0.24459924 0.19400716
0.45588607 -0.17181304 -0.29905707 0.48105636 -0.14455652 0.18419111 -0.20900472 0.1977071
0.08149395 -0.04836807 0.19374254 -0.16453661 -0.27021942 -0.14042926 0.24833596 -0.115869164
-0.2066041 -0.05502075 -0.19962947 -0.19469889 -0.008040066 0.022787094 -0.5005449 -0.21989737
-0.08638731 -0.10342986 0.3480891 0.11464234 -0.29308817 -0.07427873 0.18299554 -0.3888785
0.25126415 -0.053368032 -0.19364214 0.08784459 -0.005988487 -0.3495573 0.11207073 0.03723194
-0.7749719 -0.13241857 -0.24132332 -0.17729056 -0.2747937 -0.09958058 -0.32321715 0.051032968
-0.026873136 0.5243286 0.020627908 -0.27897343 -0.7719663 0.0072245193 -0.25225174 -0.47391915
-0.39358062 -0.22342676 -0.24989857 -0.4202328 -0.17783396 0.00034822506 0.1813302 -0.14329068
0.17982945 -0.18471543 0.018587934 0.009055561 0.0953614 0.23972896 -0.013163962 -0.14043774
-0.2562171 -0.17685038 -0.5263149 0.15609163 -0.08252198 -0.106686056 -0.7858938 -0.36924607
-0.29151145 -0.11955094 -0.1264271 -0.57586366 -0.6109432 0.26904723 -0.3061469 -0.42057267
-0.16306596 0.18263236 -0.061019003 -0.6052758 -0.45400757 0.33125 0.06503769 -0.14603482
0.21849428 0.037249736 -0.2152819 0.08710953 -0.39661545 0.10046469 -0.57465875 0.114175886
-0.3964553 -0.22540642 0.03862384 -0.33318117 -0.15173984 -0.19668141 -0.3856572 -0.21842863
0.12278154 -0.3771814 -0.3459443 0.20522676 -0.062774606 -0.65665984 -0.1985633 -0.010567116
-0.15049909 0.025812032 -0.57741386 0.07822468 -0.2994836 -0.24689558 -0.09510765 -0.33013752
-0.15831642 -0.02783721 0.25709385 -0.25600442 -0.32933128 -0.7647925 0.18371245 -0.19679841
0.04011836 -0.15131572 -0.070195526 -0.21961387 0.39593834 -0.5406692 -0.55737305 -0.12709947
00000000: 64c2 9e3e e2c0 2f3e e025 75bd a994 35bd
00000010: 1f1d 5bbe fe72 9e3e a97f 153d 305b 653e
00000020: fb64 19be 7769 643e 3994 0bbd 5233 dfbd
00000030: 4d17 c2be 5cac 273c d720 613f f223 8d3f
00000040: d160 e93e f955 d63d 6da1 713f a369 8e3e
00000050: 175c dabc 7cc0 bbbe 8eb7 65bc 2c1f 67be
00000060: 9dbe 893e 62ed 843e 75a4 14be 9d1b 00be
00000070: 1f01 4b3e ffcd 79be fa66 d4bc 8ace 78be
00000080: fe4f e73e 647e ec3f 95af e63e acd5 1f3e
00000090: e6e4 083f 1d0e ffbc 824c 093f 8d65 4aba
000000a0: bf45 dc3f dce5 913f c675 0b3e 488a c93e
000000b0: 2696 173f 9070 f9be b189 683f 5f13 c3bd
000000c0: 5d92 473d 3bb5 443e 5ee2 25be c2cf 583e
000000d0: d713 bebe 610f 583e 8f6f 9b3e 053e ff3d
000000e0: 9d6f b7be ce33 2c3e 3235 cd3d 9c08 a33e
000000f0: cc69 3abe bd0a 143e 3b0d 943f 47a3 b33e
00000100: 2f61 833d 03d4 013f e0bf 593f 6672 113e
00000110: 8fe4 283f 95da 0ebf a175 263f 31dd 81be
00000120: 2a57 aebc beb8 3abd 77cd ffbd b945 063f
00000130: 56bf f13d 451e 1ebf b2eb ccbe 2fad 283e
00000140: 38d8 1b3c 93d0 f53d 7bd3 f53e 45e6 473e
00000150: 45e0 9f3d 79ea 963d c170 973d 6f3c 17bf
00000160: 45c6 94be 0e00 83bd a530 143e 1c4c c8be
00000170: 3a59 a53e 2a18 ca3e 305c 5d3e 18f1 6dbe
00000180: 83a3 803e 64d6 103e 085e 0b3f 0c35 5abe
00000190: 7524 023f 49d8 45be bedc 17be bd78 153f
000001a0: b718 e2bc 95f1 143d 1bb6 69bd 8860 ce3d
000001b0: 907f b13e 05e8 b73e 3978 7a3e d0a9 463e
000001c0: e669 e93e c2ef 2fbe 021e 99be 054d f63e
000001d0: a006 14be 989c 3c3e 5505 56be bb73 4a3e
000001e0: 4de6 a63d 991d 46bd 7264 463e 497c 28be
000001f0: 335a 8abe b0cc 0fbe c84b 7e3e d04c edbd
00000200: 0690 53be 705d 61bd ab6b 4cbe 255f 47be
00000210: 7bba 03bc 00ac ba3c b623 00bf c72c 61be
00000220: d4eb b0bd 09d3 d3bd bc38 b23e 9ac9 ea3d
00000230: a70f 96be 721f 98bd 2f63 3b3e 151b c7be
00000240: b2a5 803e 7098 5abd 204a 46be dde7 b33d
00000250: 123b c4bb 2df9 b2be 5785 e53d 8580 183d
00000260: 8f64 46bf bc98 07be 761d 77be a88b 35be
00000270: c3b1 8cbe e7f0 cbbd b87c a5be f207 513d
00000280: 0d25 dcbc 663a 063f dcfb a83c 9bd5 8ebe
00000290: 959f 45bf a9bb ec3b 2427 81be 88a5 f2be
000002a0: 6683 c9be fcc9 64be 69e5 7fbe c128 d7be
000002b0: 1b1a 36be fa91 b639 a0ae 393e cbba 12be
000002c0: 3625 383e 0b26 3dbe b945 983c c75d 143c
000002d0: d64c c33d 827b 753e a9ad 57bc e9ce 0fbe
000002e0: e32e 83be 4418 35be 93bc 06bf 7cd6 1f3e
000002f0: 4901 a9bd 387e dabd 5630 49bf d20d bdbe
00000300: fd40 95be 20d7 f4bd 1b76 01be cd6b 13bf
00000310: c666 1cbf 8fc0 893e 49bf 9cbe 4d55 d7be
00000320: c3fa 26be fa03 3b3e 10ef 79bd 5bf3 1abf
00000330: ae73 e8be 9a99 a93e 7b32 853d 278a 15be
00000340: f7bc 5f3e 2e93 183d dc72 5cbe 7b66 b23d
00000350: 2e11 cbbe 6ec0 cd3d d61c 13bf 0cd5 e93d
00000360: 30fc cabe f1d0 66be 0834 1e3d b996 aabe
00000370: b061 1bbe da66 49be dc74 c5be c1ab 5fbe
00000380: e374 fb3d ec1d c1be 9c1f b1be f726 523e
00000390: f98f 80bd dc1a 28bf 2d54 4bbe b221 2dbc
000003a0: 6f1c 1abe c173 d33c 65d1 13bf 4334 a03d
000003b0: ea55 99be 32d2 7cbe cdc7 c2bd c907 a9be
000003c0: b31d 22be dc0a e4bc cea1 833e 0313 83be
000003d0: 1c9e a8be 71c9 43bf 1e1f 3c3e 8685 49be
000003e0: 2653 243d 82f2 1abe acc2 8fbd 75e2 60be
000003f0: 6eb8 ca3e 4c69 0abf 00b0 0ebf 5d26 02be

feature.bias_hh_l0 f4 [512]
0.32280853 0.22716334 0.01583682 0.0128793195 -0.19583146 0.3952822 -0.012750898 0.21186437
-0.12232357 0.20204173 -0.21775582 -0.14341743 -0.2622307 0.025889661 0.84693784 1.1491356
0.5083881 0.27079448 1.0034869 0.43556848 0.037861533 -0.476464 -0.079078436 -0.20862
0.41057733 0.21632645 -0.23172946 -0.2948424 0.18671016 -0.26330736 0.13484885 -0.16965243
0.4352807 1.8537334 0.37163448 0.26123583 0.5105695 0.0052275304 0.52624774 -0.041876655
1.7738961 1.1190251 0.17459571 0.44832295 0.5609469 -0.52626705 0.87588096 0.050832745
-0.06532015 0.32363367 -0.34458184 0.10299493 -0.5079221 0.1917188 0.23412535 0.087997355
-0.4214682 0.24703164 0.07449324 0.29277802 -0.08161238 -0.0036988903 1.1784307 0.24431881
0.11087366 0.48381585 0.75207466 0.22179718 0.5471562 -0.6044147 0.5447791 -0.3854894
0.04763656 -0.16133201 -0.032664005 0.53431875 0.18767242 -0.47135675 -0.38742554 0.19031394
-0.06815835 0.15953623 0.43175754 0.08597739 -0.012829701 0.18647917 0.16751632 -0.446243
-0.1214859 -0.08360494 0.24889971 -0.3837345 0.40393585 0.52628654 0.16500041 -0.20236626
0.19508035 0.06415641 0.44318935 -0.21964172 0.6593395 -0.020193508 -0.25894204 0.660608
0.059717223 0.081960306 0.013188743 0.24918959 0.23403774 0.11722984 0.27965719 0.3807093
0.37401497 -0.28224215 -0.43372238 0.5488436 -0.11268771 -0.09846551 -0.11919335 0.09550977
0.17530955 0.035443958 0.189391 -0.044453263 -0.3101006 -0.110971466 0.44310293 -0.057701834
-0.17643058 0.012044991 -0.31454724 -0.31597492 -0.022823922 0.057644397 -0.52995807 -0.300522
-0.087898575 0.008281887 0.3527684 0.08395456 -0.17797646 -0.16450845 0.05702339 -0.5535448
0.03899247 -0.07130781 -0.17974314 0.19413492 0.025305983 -0.28538814 0.14581513 0.07697217
-0.803698 -0.2102206 -0.19349459 -0.10877326 -0.38635662 0.015856974 -0.24144866 0.036965266
0.092089444 0.67617196 0.110847846 -0.35850933 -0.7009131 -0.052954473 -0.27978492 -0.5439968
-0.45632884 -0.16365549 -0.29811466 -0.41838214 -0.2378459 -0.1335858 0.07979119 -0.10831772
0.110093005 -0.24730477 0.0696802 -0.1185961 0.01388479 0.1143057 0.0071157496 -0.02536864
-0.4091315 -0.26948372 -0.4831598 0.13746573 -0.24295232 -0.057128053 -0.9349459 -0.57014394
-0.17979497 -0.1568091 -0.23763658 -0.48984647 -0.5337381 0.2692451 -0.25926888 -0.56896836
-0.08855125 0.06203284 -0.10780604 -0.5626413 -0.4556995 0.29854482 0.058752168 -0.15310994
0.2578491 0.10711884 -0.036718063 0.090279065 -0.43341288 0.12781118 -0.5319737 0.023748208
-0.39869726 -0.29999602 -0.11421467 -0.25382474 -0.102001384 -0.22271225 -0.1956369 -0.13593099
0.2268032 -0.2809669 -0.39151624 0.24210823 0.030581227 -0.6221943 -0.06842942 0.01640187
-0.27708897 -0.017105877 -0.52306986 0.09589203 -0.15417634 -0.14761424 0.014712682 -0.2159178
-0.18690711 -0.09530809 0.17480874 -0.3698801 -0.27980673 -0.67139083 0.10719478 -0.1540759
-0.02729191 0.03342906 0.03563765 -0.1481514 0.44863307 -0.60329866 -0.5633379 -0.24823259
00000000: 2947 a53e 829d 683e 38bc 813c c803 533c
00000010: 0b88 48be 6e62 ca3e 24e9 50bc f9f2 583e
00000020: c884 fabd 07e4 4e3e 62fb 5ebe 05dc 12be
00000030: 1a43 86be 8e16 d43c ebd0 583f e016 933f
00000040: b925 023f 93a5 8a3e 4272 803f d502 df3e
00000050: b214 1b3d 17f3 f3be e0f3 a1bd 7ba0 55be
00000060: 3137 d23e ae84 5d3e 7d4a 6dbe 95f5 96be
00000070: f330 3f3e 39d0 86be d115 0a3e 5eb9 2dbe
00000080: 1ddd de3e 2347 ed3f e046 be3e b4c0 853e
00000090: afb4 023f b44b ab3b 2cb8 063f db86 2bbd
000000a0: 070f e33f 373c 8f3f 38c9 323e 968a e53e
000000b0: 379a 0f3f 70b9 06bf bc39 603f ff35 503d
000000c0: 92c6 85bd 50b3 a53e 086d b0be 02ef d23d
000000d0: 2f07 02bf ef51 443e 8ebe 6f3e f537 b43d
000000e0: aeca d7be ddf5 7c3e e98f 983d 00e7 953e
000000f0: 6424 a7bd 1569 72bb d1d6 963f b62e 7a3e
00000100: bb11 e33d b6b6 f73e f787 403f cd1e 633e
00000110: 6e12 0c3f ecba 1abf a576 0b3f de5e c5be
00000120: 8e1e 433d 3834 25be b1ca 05bd 1dc9 083f
00000130: 332d 403e ac55 f1be a45c c6be a8e1 423e
00000140: 9b96 8bbd 775d 233e 530f dd3e ea14 b03d
00000150: ab33 52bc 65f4 3e3e 6689 2b3e f679 e4be
00000160: 99cd f8bd 1139 abbd 91df 7e3e d978 c4be
00000170: aed0 ce3e b7ba 063f def5 283e 1a39 4fbe
00000180: 25c3 473e 7064 833d b7e9 e23e c2e9 60be
00000190: 79ca 283f db6c a5bc 0d94 84be 9b1d 293f
000001a0: 0c9a 743d ceda a73d 9915 583c 8e2b 7f3e
000001b0: 97a7 6f3e 3316 f03d 3a2f 8f3e 54ec c23e
000001c0: e47e bf3e 0b82 90be dc10 debe 0481 0c3f
000001d0: d0c8 e6bd 49a8 c9bd a51b f4bd a09a c33d
000001e0: 5984 333e af2d 113d b7ef 413e a014 36bd
000001f0: 81c5 9ebe 0245 e3bd 63de e23e c258 6cbd
00000200: 38aa 34be 5b58 453c 560c a1be 77c7 a1be
00000210: 3cf9 babc 881c 6c3d 55ab 07bf 05de 99be
00000220: 2b04 b4bd c0b0 073c 0f9e b43e 5ef0 ab3d
00000230: 763f 36be e774 28be 5c91 693d 1db5 0dbf
00000240: 91b6 1f3d d409 92bd 960e 38be 4ecb 463e
00000250: 7e4e cf3c 651e 92be 9050 153e 96a3 9d3d
00000260: 27bf 4dbf 1244 57be 7223 46be 84c4 debd
00000270: 89d0 c5be 7ce6 813c 513e 77be e468 173d
00000280: 6499 bc3d 9b19 2d3f 3204 e33d 898e b7be
00000290: 0a6f 33bf cae6 58bd f83f 8fbe 6043 0bbf
000002a0: efa3 e9be 4e95 27be 7ca2 98be 2f36 d6be
000002b0: e08d 73be b7ca 08be 9069 a33d aed5 ddbd
000002c0: 7178 e13d 763d 7dbe 7eb4 8e3d 83e2 f2bd
000002d0: 087d 633c 1b19 ea3d 3c2b e93b e5d1 cfbc
000002e0: af79 d1be c5f9 89be b960 f7be d1c3 0c3e
000002f0: 7ec8 78be 1bff 69bd 9d58 6fbf f4f4 11bf
00000300: 2c1c 38be 9192 20be 0157 73be 28cd fabe
00000310: 0fa3 08bf 7eda 893e e4be 84be e9a7 11bf
00000320: 5c5a b5bd 2616 7e3d 6ac9 dcbd 4309 10bf
00000330: 7251 e9be deda 983e 1da6 703d dac8 1cbe
00000340: cc04 843e 1f61 db3d ae65 16bd 3be4 b83d
00000350: 4be8 ddbe efe0 023e 6e2f 08bf 9a8b c23c
00000360: 0c22 ccbe 1499 99be 62e9 e9bd 51f5 81be
00000370: 1ae6 d0bd ae0e 64be 0a55 48be 7e31 0bbe
00000380: 193f 683e e5da 8fbe d174 c8be 38eb 773e
00000390: 7b85 fa3c 2048 1fbf b924 8cbd 375d 863c
000003a0: 9bde 8dbe a021 8cbc e8e7 05bf 0a63 c43d
000003b0: 67e0 1dbe 3028 17be 760d 713c 8e19 5dbe
000003c0: 9464 3fbe e330 c3bd 1001 333e ed60 bdbe
000003d0: d442 8fbe 45e0 2bbf f088 db3d 13c6 1dbe
000003e0: 4993 dfbc e9ec 083d c9f8 113d 00b5 17be
000003f0: 3cb3 e53e c871 1abf ea36 10bf af30 7ebe

feature.weight_ih_l0_reverse f4 [512, 64]
0.108159065 0.5148853 -0.16082032 -0.5463565 0.24602753 0.8788834 0.30606133 -0.23429714
0.84729296 0.6413997 -0.32134137 0.22820918 0.51665366 -0.09178002 -0.103988186 -0.03286553
-0.23039295 -0.16678251 -0.05514961 0.09853869 -0.60636055 1.2008387 0.392321 -0.23189452
0.03417072 0.2797406 -0.020179495 0.20905456 -0.7061716 -0.38815692 -0.7330891 -0.40290788
-0.5068575 0.007582981 0.35440925 0.16610128 -0.27822554 0.08596174 -0.109368324 -1.4451213
-0.5478902 -0.38779774 0.2796656 -6.892567e-05 -0.6986067 -1.1366513 0.24590969 -0.8744762
0.27392688 0.42113882 0.6267126 -0.5002449 -0.3749203 0.6999059 0.5950631 0.09059606
0.57183665 -0.5966935 -0.86967534 0.7225607 0.020720057 -0.31181395 -0.015152747 0.6840954
0.6257105 0.22342539 -0.7964156 -0.5084114 0.119881764 -0.39662778 -0.57106966 0.20961207
-0.73518723 0.53704625 0.045459066 -0.541382 0.26144955 0.40241817 -0.47714522 -0.08348214
0.574104 -1.1623569 0.031962227 1.0752035 0.774623 0.7948454 0.21610679 0.023104846
0.08215681 -0.6981148 -0.75983787 0.46847957 0.37783068 -0.35938066 -0.57244015 -0.4686204
-0.9771006 0.13019085 0.65180737 0.17266414 0.09601917 0.15366577 0.17418636 -0.36426544
-0.8454507 -0.21023518 -0.46723056 -0.51175696 0.54503626 0.5680024 0.06376144 1.0210797
0.20127176 0.50214165 -0.29649153 0.14946644 -0.9310697 0.06724927 0.8092412 0.02266647
0.8901337 0.16188806 0.37222812 -0.35173395 -0.7836137 -0.26167738 0.74576813 0.21018538
-0.0048457207 -0.31740707 1.2600621 -0.06296691 0.19194724 -0.10429163 1.057335 0.03456644
-0.3795179 -1.3295302 -1.1215283 0.8703551 0.33514005 1.0710541 0.35107931 0.48876733
-0.074508876 0.7621632 -0.40902758 -0.07745907 -0.4646845 0.056684263 -0.5126014 0.27076283
-0.33796635 0.6243234 0.13452636 -0.2834091 0.025751526 0.3522447 0.30523968 0.9380814
0.8301373 -0.77397287 0.41622177 0.14823538 -0.09412666 0.28445983 1.0396056 0.41182205
-0.1423531 0.05338123 -0.058585286 -0.050126333 0.57619476 -0.70722955 -0.51256126 -0.6130618
0.9517354 0.2354102 0.10731055 -0.14429906 0.70683044 0.13230258 -1.2809411 -0.16948995
0.5125664 0.87647456 0.5471105 -0.09353254 -0.29640287 0.7384382 -0.053094424 0.037365004
1.0293698 0.8723568 0.6010171 0.82145596 1.2052011 -0.35752445 -0.46765906 -0.34425744
-0.6412659 0.15023303 0.5465761 -0.18067876 0.30688956 1.2907274 -0.7425749 0.25488615
-0.26214856 -0.81180435 0.26069927 -0.5021548 -0.34877142 0.539692 1.108295 0.82454145
-0.68738484 -0.20226394 -0.27229482 0.08290572 -0.022395654 0.4192283 1.1800665 -0.6424912
-0.01734125 1.3000375 -0.68958664 -0.0980599 -0.9533814 -0.9286919 0.22754441 0.47532436
-0.36783105 0.0543367 -1.7855842 1.4773083 -1.1605626 -0.38867134 0.09458978 1.624441
-0.5583356 -1.097511 0.14897646 0.19971679 0.45894942 1.3972532 1.3162317 -3.2481337
-0.5524606 1.7413341 -0.24586073 -0.858562 -1.3961664 -0.70837605 -0.17966579 -0.8517087
00000000: 8082 dd3d 86cf 033f 15ae 24be 05de 0bbf
00000010: a4ee 7b3e 81fe 603f 12b4 9c3e 97eb 6fbe
00000020: 31e8 583f c532 243f db86 a4be abaf 693e
00000030: 6a43 043f 2af7 bbbd c2f7 d4bd 029e 06bd
00000040: 21ec 6bbe 09c9 2abe 8fe4 61bd a7ce c93d
00000050: 723a 1bbf 15b5 993f 4cde c83e c275 6dbe
00000060: 99f6 0b3d 293a 8f3e 784f a5bc 6612 563e
00000070: a9c7 34bf 81bc c6be baab 3bbf f149 cebe
00000080: 6ac1 01bf a87a f83b 2175 b53e 7416 2a3e
00000090: 9473 8ebe b50c b03d 80fc dfbd bcf9 b8bf
000000a0: 8842 0cbf 6d8d c6be 5430 8f3e 308c 90b8
000000b0: e4d7 32bf ca7d 91bf c0cf 7b3e acdd 5fbf
000000c0: 2540 8c3e 829f d73e 3d70 203f 0d10 00bf
000000d0: 8ef5 bfbe 082d 333f 0e56 183f 6d8a b93d
000000e0: e363 123f e8c0 18bf 0ba3 5ebf bdf9 383f
000000f0: 1cbd a93c 14a6 9fbe 3a43 78bc e020 2f3f
00000100: 902e 203f a0c9 643e e5e1 4bbf 4027 02bf
00000110: 9284 f53d cc12 cbbe 9f31 12bf 8ca4 563e
00000120: 3b35 3cbf dd7b 093f 4933 3a3d 0398 0abf
00000130: b7dc 853e c109 ce3e 614c f4be aff8 aabd
00000140: 7bf8 123f 1cc8 94bf d3ea 023d 45a0 893f
00000150: b14d 463f fd7a 4b3f 194b 5d3e 6046 bd3c
00000160: d441 a83d a7b7 32bf bc84 42bf 8edc ef3e
00000170: 0673 c13e be00 b8be 708b 12bf 03ef efbe
00000180: 4423 7abf c050 053e d9dc 263f dece 303e
00000190: b3a5 c43d 8f5a 1d3e e95d 323e 0081 babe
000001a0: 756f 58bf e447 57be d838 efbe 8102 03bf
000001b0: 7f87 0b3f 9b68 113f 5c95 823d bdb2 823f
000001c0: 2f1a 4e3e 5b8c 003f bdcd 97be bb0d 193e
000001d0: 955a 6ebf fcb9 893d 6e2a 4f3f 08af b93c
000001e0: cddf 633f fcc5 253e af94 be3e 7916 b4be
000001f0: e89a 48bf 94fa 85be a9ea 3e3f d63a 573e
00000200: dac8 9ebb 2e83 a2be b749 a13f ccf4 80bd
00000210: d18d 443e da96 d5bd c156 873f 8a95 0d3d
00000220: 2c50 c2be 0c2e aabf 3d8e 8fbf 98cf 5e3f
00000230: 7a97 ab3e 4d18 893f abc0 b33e b63f fa3e
00000240: 1c98 98bd 211d 433f 106c d1be dca2 9ebd
00000250: 20eb edbe c22d 683d d839 03bf 6da1 8a3e
00000260: ed09 adbe a9d3 1f3f 47c1 093e ff1a 91be
00000270: ddf4 d23c 6b59 b43e 6048 9c3e 1a26 703f
00000280: e183 543f 1623 46bf 051b d53e 04cb 173e
00000290: 7ac5 c0bd b8a4 913e cc11 853f 57da d23e
000002a0: 03c5 11be 47a6 5a3d 20f7 6fbd 4551 4dbd
000002b0: 8081 133f ff0c 35bf 3737 03bf 9ef1 1cbf
000002c0: eea4 733f 5f0f 713e a2c5 db3d 22c3 13be
000002d0: d7f2 343f 547a 073e e1f5 a3bf c68e 2dbe
000002e0: 8d37 033f a360 603f 6f0f 0c3f fd8d bfbd
000002f0: 1ec2 97be 490a 3d3f 8a79 59bd 0c0c 193d
00000300: 64c2 833f c652 5f3f 42dc 193f f04a 523f
00000310: 0844 9a3f 720d b7be 0271 efbe 8342 b0be
00000320: 012a 24bf b0d6 193e 69ec 0b3f da03 39be
00000330: a120 9d3e 8e36 a53f 6319 3ebf 7080 823e
00000340: 5638 86be 69d2 4fbf 607a 853e 388d 00bf
00000350: 2b92 b2be 4129 0a3f 9cdc 8d3f 2615 533f
00000360: 74f8 2fbf 471e 4fbe 3a6a 8bbe 79ca a93d
00000370: 1777 b7bc 17a5 d63e 6b0c 973f 4e7a 24bf
00000380: 3d0f 8ebc a167 a63f c088 30bf a1d3 c8bd
00000390: ce10 74bf c1be 6dbf 6701 693e b75d f33e
000003a0: 5a54 bcbe 2990 5e3d 068e e4bf 7018 bd3f
000003b0: 518d 94bf eeff c6be 49b8 c13d afed cf3f
000003c0: 15ef 0ebf 3e7b 8cbf 498d 183e 8f82 4c3e
000003d0: 6bfb ea3e 31d9 b23f 487a a83f 6ce1 4fc0
000003e0: 0f6e 0dbf 09e4 de3f eac2 7bbe b8ca 5bbf
000003f0: 95b5 b2bf 2258 35bf 4ffa 37be 9509 5abf

feature.weight_hh_l0_reverse f4 [512, 128]
-0.20262365 -0.7405035 0.41084024 0.41293052 -0.18651938 0.20623845 -0.58730257 0.1105242
-0.33283415 -0.36910778 -0.2523408 0.059481766 0.33567202 -0.011671606 -0.82406175 0.08369354
-0.26092497 -0.02313063 -0.040775727 0.40143153 -0.7034176 -0.91077363 -0.5830383 0.34005547
-0.5226475 -0.254644 0.16494742 -0.24910125 0.14134812 -0.053917114 -0.15834616 0.22847633
0.15099505 -0.18580286 0.027299508 -0.1536907 0.120053455 -0.13584523 0.5045515 0.12882462
-0.18396698 -0.038470846 0.64598423 0.13227808 -0.034498814 -0.34543285 -0.431461 -0.13343295
-0.37936112 0.65246373 0.0759673 -0.14858784 -0.99270284 1.3590071 0.3685551 -0.5324846
-0.32115906 0.051144306 -0.0043769367 0.3494766 0.5478236 -0.05636389 0.12061737 0.6002766
0.43361953 0.40954536 0.21537046 -0.8235849 0.014361633 0.9110369 -0.3519301 -1.4448941
-0.9546483 0.009589907 -0.122113205 1.0398508 0.09074574 0.49628472 0.76708263 -0.07682784
-0.41274673 -0.074152194 0.1302874 -0.86423016 0.017627124 -0.00624184 0.7522216 1.0348194
0.2785433 -0.6585266 -0.4443228 0.0843047 -0.49941596 -0.38241553 -0.056753486 -0.99528986
0.34101602 0.111638896 -0.3315547 0.7293278 -0.6377248 -0.19448933 -0.53055155 -0.10167859
-0.48314154 -0.3387104 -0.27547157 0.0011218223 -0.39746475 0.55790794 0.18703279 0.94160455
-1.0424507 0.34440067 -0.056799203 -0.40648007 -0.021459157 0.34819207 -0.36268264 -0.079815485
0.39224225 0.44991192 0.4717668 -0.382096 -0.222839 0.095469244 -0.2576431 0.22484274
-0.026350405 0.3581169 -0.03921875 0.4510465 0.72473496 0.43701664 -1.161821 -0.5589763
0.38238707 0.2762369 0.6878646 -0.86347806 0.12752892 0.07843802 0.093203045 0.06384098
0.4366409 0.26986802 0.17138495 -0.35328957 0.10978989 -0.44188005 -0.12103994 -0.033070978
-0.74695617 -0.06560952 -0.5279841 0.25396857 0.93301815 0.34027174 0.6226981 0.054133918
0.5038658 0.30259925 0.11685396 0.07131181 -0.3209081 -0.19659775 0.34738123 0.16733402
0.3580429 0.4266567 0.24134101 0.6825212 0.37186936 -0.58680046 -0.74723256 0.2924597
0.112261884 -0.036691725 0.35504508 -0.7125484 -0.23295653 -0.406538 0.7293465 0.39998657
0.54734856 0.55468327 -0.21897747 -0.15743256 -0.5247587 0.25774595 0.083331265 -0.20769608
0.10394885 0.096640475 -0.14113465 0.19617657 0.512334 0.8840588 -0.81860125 -0.31330162
0.06080509 0.3565874 0.18937619 -0.010974421 -0.13888904 -0.19574884 -0.7657899 -0.46676314
-0.33559045 0.20116705 0.26885465 -0.4091358 0.19598497 -0.8058468 -0.8856568 -0.28769532
-0.011160787 0.13312957 -0.15527038 -0.28237766 -0.5066189 -0.100876585 0.092713214 0.56111336
-0.24642445 -0.61873055 -0.04456167 0.25733426 -0.39281595 -0.3981022 -0.21812226 0.19208162
0.51269954 -0.14734073 0.13914171 0.11218922 0.2060689 -0.81548434 -0.43979394 0.044830944
-0.7307094 -0.049638342 -0.2663952 0.68909985 -0.17024226 0.06984199 0.0753831 -0.13380401
-0.34697956 0.41462982 -0.24149694 0.38818926 -0.38182694 0.3337923 -0.6056457 -0.15282698
00000000: 937c 4fbe a391 3dbf a759 d23e a16b d33e
00000010: f0fe 3ebe 2c30 533e 7659 16bf 835a e23d
00000020: 3d69 aabe b2fb bcbe d032 81be 27a3 733d
00000030: 34dd ab3e 443a 3fbc b6f5 52bf 8567 ab3d
00000040: f597 85be 727c bdbc 7304 27bd 6f88 cd3e
00000050: 2d13 34bf 7628 69bf ff41 15bf c01b ae3e
00000060: 3acc 05bf b360 82be fae7 283e 6614 7fbe
00000070: 90bd 103e 31d8 5cbd 7f25 22be b3f5 693e
00000080: 729e 1a3e 1b43 3ebe 38a3 df3c 1861 1dbe
00000090: 96de f53d 031b 0bbe 492a 013f 9aea 033e
000000a0: d761 3cbe 9b93 1dbd 395f 253f e873 073e
000000b0: a14e 0dbd 93dc b0be 75e8 dcbe a6a2 08be
000000c0: 9f3b c2be dd07 273f be94 9b3d 6927 18be
000000d0: c621 7ebf f2f3 ad3f 41b3 bc3e e950 08bf
000000e0: f66e a4be b17c 513d 686c 8fbb 99ee b23e
000000f0: 2b3e 0c3f d3dd 66bd 3d06 f73d baab 193f
00000100: 6103 de3e eeaf d13e 138a 5c3e 76d6 52bf
00000110: 0e4d 6b3c b739 693f 2f30 b4be 4af2 b8bf
00000120: d563 74bf fc1e 1d3c 7d16 fabd d519 853f
00000130: e7d8 b93d 0819 fe3e 875f 443f ea57 9dbd
00000140: 8a53 d3be 1bdd 97bd 0f6a 053e 303e 5dbf
00000150: c266 903c 5988 ccbb 9891 403f f674 843f
00000160: 3a9d 8e3e 3395 28bf 477e e3be f1a7 ac3d
00000170: 73b3 ffbe f8cb c3be 5876 68bd 51cb 7ebf
00000180: a799 ae3e efa2 e43d 8ac1 a9be 3ab5 3a3f
00000190: ef41 23bf 3628 47be 3ad2 07bf dd3c d0bd
000001a0: 545e f7be 736b adbe 9c0a 8dbe 1c0a 933a
000001b0: 8080 cbbe 0ed3 0e3f 8685 3f3e ff0c 713f
000001c0: 066f 85bf 4955 b03e 48a6 68bd 281e d0be
000001d0: 1dcb afbc 3b46 b23e 8ab1 b9be 4d76 a3bd
000001e0: fad3 c83e db5a e63e 6b8b f13e 16a2 c3be
000001f0: e82f 64be 6185 c33d cce9 83be 2d3d 663e
00000200: cedc d7bc 195b b73e d7a3 20bd 91ef e63e
00000210: 3b88 393f a5c0 df3e 8db6 94bf 1219 0fbf
00000220: 3dc8 c33e ec6e 8d3e e517 303f e60c 5dbf
00000230: f196 023e 1da4 a03d 3de1 be3d 0fbf 823d
00000240: 658f df3e 242c 8a3e 897f 2f3e 5fe2 b4be
00000250: 86d9 e03d 1a3e e2be cae3 f7bd 6f75 07bd
00000260: 8538 3fbf 495e 86bd f729 07bf 2b08 823e
00000270: 47da 6e3f 1938 ae3e 2569 1f3f 87bb 5d3d
00000280: 59fd 003f 4aee 9a3e 2151 ef3d ed0b 923d
00000290: 114e a4be ec50 49be f4db b13e 9c59 2b3e
000002a0: 6651 b73e bf72 da3e 1922 773e b6b9 2e3f
000002b0: a965 be3e 8e38 16bf a24a 3fbf 47bd 953e
000002c0: 8fe9 e53d 104a 16bd 78c8 b53e 9269 36bf
000002d0: 288c 6ebe c025 d0be 74b6 3a3f 0acb cc3e
000002e0: 091f 0c3f b9ff 0d3f a13b 60be 0036 21be
000002f0: 9656 06bf 47f7 833e 95a9 aa3d 48ae 54be
00000300: 22e3 d43d 71eb c53d 9a85 10be 83e2 483e
00000310: 5228 033f ad51 623f da8f 51bf 1269 a0be
00000320: c20e 793d a092 b63e d5eb 413e 0fce 33bc
00000330: ee38 0ebe 6272 48be cf0a 44bf 94fb eebe
00000340: 83d2 abbe bcfe 4d3e 51a7 893e 3f7a d1be
00000350: 49b0 483e fa4b 4ebf 67ba 62bf cd4c 93be
00000360: bcdb 36bc 1e53 083e 33ff 1ebe ce93 90be
00000370: c7b1 01bf 6298 cebd 6de0 bd3d 20a5 0f3f
00000380: b156 7cbe 2065 1ebf 4c86 36bd 51c1 833e
00000390: 2c1f c9be 0dd4 cbbe 715b 5fbe 0bb1 443e
000003a0: 4740 033f 7de0 16be 2a7b 0e3e 76c3 e53d
000003b0: ba03 533e 95c3 50bf ac2c e1be a7a0 373d
000003c0: c50f 3bbf 9351 4bbd f464 88be d968 303f
000003d0: fd53 2ebe 5109 8f3d 7462 9a3d eb03 09be
000003e0: 4ea7 b1be 5c4a d43e f94a 77be bec0 c63e
000003f0: d27e c3be d3e6 aa3e 990b 1bbf ad7e 1cbe

feature.bias_ih_l0_reverse f4 [512]
-0.08630804 0.57814395 -0.08780323 0.11870168 0.38895336 0.2887975 0.26260847 0.43572465
0.20149149 0.20883285 -0.030132715 0.4966101 0.03170832 0.33192512 0.15698789 -0.11495376
0.21519117 0.07730449 -0.2869101 -0.2588279 -0.254429 0.37389773 0.12585044 0.40074992
0.056702293 0.042111143 -0.37370282 0.39771533 0.0057588927 0.39585537 0.23156779 -0.2649383
-0.17317246 -0.1716699 0.17111933 -0.104407966 -0.12651496 0.62257946 0.35071474 0.4042244
0.12643287 0.4723552 0.14058384 0.1796291 0.33896375 -0.011251738 0.52761513 0.19295661
-0.016520433 0.36931226 -0.22518086 -0.13175403 0.3390385 0.23193479 0.3784856 0.13825871
0.30360448 0.10674108 0.074420385 0.40199655 0.25121602 -0.04039382 0.3792495 0.18772149
0.28601363 0.20093654 0.36983538 0.05720628 -0.18292378 0.10048612 -0.025002645 0.029851794
-0.015716374 -0.041927334 -0.14305633 0.13807611 0.026671022 -0.030741578 0.025321383 -0.37958273
0.10527433 0.4325514 0.062400702 0.3255001 -0.11452286 -0.08027996 0.16648453 0.49377036
0.1921727 0.36142465 -0.33905354 0.3151258 0.083814785 0.31930113 0.12897553 0.14672434
0.040404845 0.05380499 0.13408954 0.49663436 0.28019762 0.18627307 -0.11485642 0.1621977
0.052959733 0.03787263 0.2103672 -0.03906719 -0.36881456 0.10930266 -0.13743754 0.25303745
-0.22053345 0.13284309 0.120346636 -0.05245852 0.26314357 -0.13342534 0.113761045 -0.06773917
-0.42154786 0.3250939 -0.29750115 0.1960621 -0.32627216 0.20390241 0.42817327 0.44202423
0.13828513 0.85823286 0.13298605 -0.36826694 0.013184746 0.3301679 0.26889375 -0.3499684
-0.27762774 0.19972551 0.3359191 -0.47279128 0.055699762 -0.14132783 -0.09096967 -0.37452722
0.37977773 0.01407391 -0.13637744 -0.1389191 0.09248865 -0.35755563 -0.30127963 -0.17259029
0.03435832 -0.12543736 -0.17828192 -0.07975317 0.06407833 -0.21959935 0.2177006 -0.2388034
0.38720122 0.5284296 0.030662213 -0.35534558 -0.23428406 0.3300577 -0.017357163 0.5821197
0.043519136 0.40260863 0.25847358 -0.24246787 0.27843648 -0.32275316 -0.26516327 -0.043088708
0.04281645 0.02304333 0.11618355 0.51156574 0.39959857 -0.11459603 0.4324231 -0.029206019
0.0257092 -0.010061512 0.2208028 0.28945366 0.20210981 0.11984158 0.32896855 -0.021544175
-0.2448043 -0.25887805 0.33789086 0.33616665 0.08824047 0.14225547 -0.12942304 0.06653145
-0.2390287 0.11923126 -0.15962234 0.14685844 0.016701113 0.050129157 0.39184532 -0.35469443
-0.078383535 -0.44330978 -0.22590289 -0.22501539 -0.18061577 -0.100830615 0.71835023 0.024371587
-0.31007832 -0.2639088 0.30820468 0.00311335 0.104974315 -0.22548854 0.5524357 -0.27142558
-0.13263114 -0.23411828 -0.12266926 0.20422837 -0.05083714 -0.029940002 -0.08510167 0.19226119
-0.15941812 -0.12249811 -0.332567 -0.11906727 -0.06782743 0.7405538 0.3358713 0.39872247
0.10560865 0.27878314 0.2622857 -0.058603503 -0.1869099 0.2869015 0.090014875 0.038584292
0.85320854 -0.0041733785 0.28555822 -0.25255707 0.04877402 0.02788235 -0.113034576 0.20751463
00000000: 45c2 b0bd 3e01 143f 2ed2 b3bd de19 f33d
00000010: e524 c73e 44dd 933e 9e74 863e 4d17 df3e
00000020: c953 4e3e 47d8 553e e2d8 f6bc ae43 fe3e
00000030: 95e0 013d 17f2 a93e 6fc1 203e e06c ebbd
00000040: 135b 5c3e d151 9e3d e1e5 92be 1785 84be
00000050: 8544 82be 866f bf3e f0de 003e 182f cd3e
00000060: aa40 683d bc7c 2c3d fa55 bfbe 58a1 cb3e
00000070: 18b5 bc3b 8ead ca3e 1b20 6d3e fea5 87be
00000080: 1f54 31be 3cca 2fbe e839 2f3e d8d3 d5bd
00000090: 238d 01be 5e61 1f3f e290 b33e 80f6 ce3e
000000a0: 9e77 013e 8ad8 f13e 36f5 0f3e b1f0 373e
000000b0: a88c ad3e 3659 38bc c911 073f 6b96 453e
000000c0: dc55 87bc 7f16 bd3e d095 66be 87ea 06be
000000d0: 7496 ad3e 5080 6d3e ddc8 c13e b193 0d3e
000000e0: 0c72 9b3e 119b da3d b769 983d 7ed2 cd3e
000000f0: 639f 803e fd73 25bd fe2c c23e 103a 403e
00000100: 6170 923e 4fc2 4d3e 105b bd3e 2251 6a3d
00000110: 5f50 3bbe abcb cd3d 59d2 ccbc c08b f43c
00000120: a0bf 80bc ffbb 2bbd 5c7d 12be d363 0d3e
00000130: 307d da3c c3d5 fbbc ca6e cf3c ab58 c2be
00000140: 119a d73d 6177 dd3e e197 7f3d f3a7 a63e
00000150: f68a eabd d269 a4bd ec7a 2a3e 78cf fc3e
00000160: ecc8 443e a70c b93e 6d98 adbe 2b58 a13e
00000170: 16a7 ab3d 707b a33e 2912 043e e83e 163e
00000180: 8d7f 253d 9f62 5c3d c54e 093e dc46 fe3e
00000190: 1076 8f3e 5ebe 3e3e d839 ebbd 2717 263e
000001a0: 4eec 583d 5520 1b3d 806a 573e eb04 20bd
000001b0: 43d5 bcbe 13da df3d 6dbc 0cbe 208e 813e
000001c0: 85d3 61be 0508 083e 4c78 f63d bfde 56bd
000001d0: c1ba 863e a7a0 08be 8dfb e83d d5ba 8abd
000001e0: 1fd5 d7be b572 a63e 1252 98be 81c4 483e
000001f0: 250d a7be cbcb 503e 8739 db3e 0051 e23e
00000200: 9e9a 0d3e 26b5 5b3f 7f2d 083e 7c8d bcbe
00000210: d504 583c c40b a93e 71ac 893e 0f2f b3be
00000220: 3925 8ebe d884 4c3e 97fd ab3e b311 f2be
00000230: 6f25 643d 3eb8 10be 4e4e babd 08c2 bfbe
00000240: 3a72 c23e 4296 663c 87a6 0bbe cf40 0ebe
00000250: b06a bd3d 8811 b7be 5341 9abe 82bb 30be
00000260: 4fbb 0c3d a772 00be 898f 36be a155 a3bd
00000270: 803b 833d a7de 60be e8ec 5e3e e188 74be
00000280: 3d3f c63e 2a47 073f 522f fb3c dbef b5be
00000290: 29e8 6fbe 53fd a83e 9c30 8ebc cc05 153f
000002a0: 1f41 323d b822 ce3e a656 843e 7f49 78be
000002b0: 3a8f 8e3e e73f a5be 7bc3 87be c97d 30bd
000002c0: 4d60 2f3d 5ec5 bc3c a4f1 ed3d f9f5 023f
000002d0: 2f98 cc3e 53b1 eabd 9066 dd3e 7641 efbc
000002e0: 1a9c d23c 0ad9 24bc 211a 623e 4533 943e
000002f0: e0f5 4e3e 816f f53d 916e a83e 697d b0bc
00000300: faad 7abe aa8b 84be 0800 ad3e 091e ac3e
00000310: 6bb7 b43d 6bab 113e 7987 04be a441 883d
00000320: f1c3 74be 852f f43d 0a74 23be 0f62 163e
00000330: c6d0 883c 3b54 4d3d f39f c83e 829a b5be
00000340: 8c87 a0bd 80f9 e2be 1653 67be 6f6a 66be
00000350: 57f3 38be 4880 cebd cde5 373f eca6 c73c
00000360: 96c2 9ebe 0e1f 87be 01cd 9d3e 5809 4c3b
00000370: c6fc d63d 78e6 66be 6d6c 0d3f 4bf8 8abe
00000380: 75d0 07be b4bc 6fbe 053a fbbd 3e21 513e
00000390: 9b3a 50bd bc44 f5bc c949 aebd 1ee0 443e
000003a0: 813e 23be 4ae0 fabd 3946 aabe 8ad9 f3bd
000003b0: 1ce9 8abd ef94 3d3f 53f7 ab3e 5a25 cc3e
000003c0: 5949 d83d aabc 8e3e 504a 863e 3a0a 70bd
000003d0: 4f65 3fbe c1e4 923e b859 b83d 900a 1e3d
000003e0: e06b 5a3f d6c0 88bb b034 923e 294f 81be
000003f0: 44c7 473d 8769 e43c ac7e e7bd b77e 543e

feature.bias_hh_l0_reverse f4 [512]
-0.099652804 0.59671545 -0.11183651 0.2644562 0.38607228 0.22050019 0.16691737 0.39241526
0.27613467 0.19469157 -0.10291199 0.5686321 0.052870993 0.16379099 0.19740446 -0.06850683
0.21234973 0.081637256 -0.24889691 -0.26064694 -0.3730384 0.2524721 0.17055511 0.29977208
0.20451319 -0.00055999693 -0.4293875 0.4736108 0.042621233 0.47165245 0.23591158 -0.18852219
-0.18194737 -0.09133154 0.12337596 -0.03145824 -0.2700358 0.754949 0.36361155 0.3605135
0.1205354 0.5022724 0.18197344 0.13248163 0.47570086 0.10347033 0.5139674 0.22746329
-0.0071245194 0.31756532 -0.1658351 -0.24501763 0.33203194 0.2746633 0.4530234 0.11005702
0.3980049 0.033141546 -0.012231569 0.33744192 0.2822979 0.12546551 0.26877302 0.18389869
0.2970215 0.17888647 0.14722872 -0.09832092 -0.1264722 0.015910177 -0.0032731593 0.030478671
-0.06252592 0.09543939 -0.32653752 0.12495564 0.17955148 0.009444862 0.11832914 -0.47910568
0.31702 0.27089775 0.14331616 0.1984168 -0.020185094 -0.10842508 0.22560605 0.45125008
0.07781146 0.3876024 -0.28332812 0.3710428 0.1535384 0.23864672 0.058635555 0.15238829
-0.012137619 -0.068855226 0.20237114 0.43745896 0.20104338 0.19096437 -0.17297275 0.23495974
0.18784378 -0.039137926 0.13165244 0.09960244 -0.3365722 0.15314157 -0.029672148 0.36458746
-0.110470325 0.12332794 0.06646508 -0.23566402 0.48748866 -0.12939593 0.083363004 0.08236927
-0.49416375 0.32119924 -0.20728758 0.22996768 -0.2125012 0.18804675 0.42274866 0.45725378
0.1578967 0.993374 0.023659855 -0.3490673 0.054600902 0.34608895 0.42726684 -0.43382412
-0.26070574 0.15087518 0.25407282 -0.4821318 -0.11265003 -0.1881633 -0.012617227 -0.33526617
0.29591084 -0.038942583 -0.088416144 -0.06981269 0.12179139 -0.39578706 -0.255911 -0.16698375
0.039610058 -0.1331558 -0.20745161 -0.21895964 0.0082626315 -0.40215957 0.0849163 -0.13554808
0.41146013 0.44489413 0.17176959 -0.27267215 -0.2729113 0.35115466 0.100987814 0.5206715
-0.06805969 0.5140691 0.04247788 -0.3324105 0.27541503 -0.5283439 -0.22402078 -0.121582076
0.054665167 -0.07627886 0.0686032 0.66228664 0.44720837 -0.15925264 0.5862802 -0.110647246
-0.1990093 -0.020962408 0.14821775 0.17985412 0.1500392 0.25792745 0.2748744 -0.17614722
-0.26759622 -0.034333225 0.3091623 0.33178684 0.08713962 0.13970542 0.017015912 0.009131473
-0.33531082 0.18118031 -0.11069472 0.19861226 -0.0302579 0.0689491 0.41011384 -0.29514086
-0.054517053 -0.33822727 -0.18132064 -0.08402767 -0.13715915 -0.10583478 0.7560415 0.06461775
-0.45250645 -0.40208784 0.38591173 0.12449499 -0.08419001 -0.2727865 0.5287101 -0.321104
-0.07224863 -0.3554753 -0.19422734 0.19900434 0.012709361 0.036732644 -0.2007886 0.197689
0.006137086 -0.21744156 -0.43165493 -0.071539834 -0.05809225 0.68095887 0.33308873 0.31149623
0.1466159 0.26909775 0.17933147 -0.1345474 -0.16477579 0.199963 -0.009572085 0.09615541
0.8353793 0.09461883 0.18332718 -0.3257613 -0.0037247764 0.0030613993 -0.090157665 0.31139278
00000000: c516 ccbd 58c2 183f 8a0a e5bd ce66 873e
00000010: 44ab c53e cdca 613e 63ec 2a3e a7ea c83e
00000020: 8661 8d3e 3a5d 473e 85c3 d2bd e091 113f
00000030: 418f 583d d3b8 273e 6524 4a3e 4f4d 8cbd
00000040: 3572 593e 6f31 a73d d5de 7ebe 8473 85be
00000050: e4fe bebe 0644 813e 00a6 2e3e ba7b 993e
00000060: e86b 513e c2cc 12ba aed8 dbbe 1d7d f23e
00000070: 9a93 2e3d 6e7c f13e ce92 713e f60b 41be
00000080: 6950 3abe 080c bbbd 89ac fc3d 5bda 00bd
00000090: 2242 8abe 5644 413f 4b2b ba3e 3a95 b83e
000000a0: 44db f63d ed94 003f 3f57 3a3e 44a9 073e
000000b0: 108f f33e 41e8 d33d 5e93 033f 23ec 683e
000000c0: cd74 e9bb ec97 a23e add0 29be e7e5 7abe
000000d0: 1700 aa3e aba0 8c3e aff2 e73e 9365 e13d
000000e0: 4cc7 cb3e 6ebf 073d eb66 48bc 30c5 ac3e
000000f0: 5a89 903e 087a 003e 9e9c 893e f04f 3c3e
00000100: 3413 983e 042e 373e 20c3 163e 7a5c c9bd
00000110: ee81 01be 0f56 823c 8082 56bb 68ae f93c
00000120: 970d 80bd ba75 c33d ed2f a7be bee8 ff3d
00000130: 58dc 373e 9fbe 1a3c 8c56 f23d 574d f5be
00000140: 7250 a23e 1cb3 8a3e 79c1 123e c62d 4b3e
00000150: 365b a5bc f80d debd 4605 673e 400a e73e
00000160: 9d5b 9f3d d273 c63e 6210 91be 52f9 bd3e
00000170: 2c39 1d3e ce5f 743e d62b 703d ad0b 1c3e
00000180: dddc 46bc f803 8dbd 613a 4f3e 9ffa df3e
00000190: 51de 4d3e 2a8c 433e c51f 31be 4999 703e
000001a0: 1f5a 403e 174f 20bd e6cf 063e 5dfc cb3d
000001b0: 3153 acbe 25d1 1c3e 0113 f3bc 35ab ba3e
000001c0: 443e e2bd 5c93 fc3d d81e 883d e951 71be
000001d0: 1d98 f93e 5e80 04be 39ba aa3d 38b1 a83d
000001e0: 0803 fdbe 3a74 a43e 3243 54be a67c 6b3e
000001f0: ea99 59be 548f 403e 8372 d83e 2b1d ea3e
00000200: acaf 213e c24d 7e3f 50d2 c13c f3b8 b2be
00000210: 32a5 5f3d 9232 b13e b8c2 da3e 321e debe
00000220: 397b 85be 067f 1a3e d515 823e fbd9 f6be
00000230: 0fb5 e6bd e1ad 40be 7cb8 4ebc 02a8 abbe
00000240: a081 973e 4282 1fbd 8613 b5bd f5f9 8ebd
00000250: c46d f93d 9aa4 cabe c406 83be cafd 2abe
00000260: 283e 223d fe59 08be 326e 54be f536 60be
00000270: fd5f 073c dce7 cdbe 99e8 ad3d 1ecd 0abe
00000280: e7aa d23e 2ac9 e33e 5ee4 2f3e af9b 8bbe
00000290: 08bb 8bbe 8bca b33e b3d2 ce3d ba4a 053f
000002a0: e162 8bbd 089a 033f 49fd 2d3d b631 aabe
000002b0: 3303 8d3e 8c41 07bf b465 65be 0600 f9bd
000002c0: 95e8 5f3d 1738 9cbd d67f 8c3d 9e8b 293f
000002d0: 7ff8 e43e 2013 23be 7616 163f 069b e2bd
000002e0: 18c9 4bbe 5bb9 abbc 65c6 173e ae2b 383e
000002f0: e0a3 193e 110f 843e 56bc 8c3e f05f 34be
00000300: 5f02 89be ffa0 0cbd 854a 9e3e f7df a93e
00000310: 4276 b23d f00e 0f3e f464 8b3c 2c9c 153c
00000320: dcad abbe 5587 393e eab3 e2bd 0361 4b3e
00000330: 6adf f7bc 3035 8d3d 71fa d13e b41c 97be
00000340: 464d 5fbd 202c adbe 1eac 39be b316 acbd
00000350: 7373 0cbe e8bf d8bd f08b 413f 5056 843d
00000360: edae e7be 75de cdbe 3996 c53e 3bf7 fe3d
00000370: d06b acbd acaa 8bbe 8c59 073f be67 a4be
00000380: 17f7 93bd dc00 b6be 88e3 46be cbc7 4b3e
00000390: ec3a 503c f874 163d 879b 4dbe fc6e 4a3e
000003a0: 9c19 c93b 00a9 5ebe e001 ddbe 7a83 92bd
000003b0: 24f2 6dbd 5253 2e3f 9b8a aa3e 6f7c 9f3e
000003c0: 7a22 163e 2ec7 893e aba2 373e cbc6 09be
000003d0: fcba 28be 1ac3 4c3e 3cd4 1cbc 21ed c43d
000003e0: 6bdb 553f 84c7 c13d 1fba 3b3e 2fca a6be
000003f0: 611b 74bb c2a1 483b 95a4 b8bd e06e 9f3e
