logs/classifier/1_contexts/fold_03/10-19-2022_13-28-23/model_params.pth (torch, 821283 bytes, 10 tensors)

feature.weight_ih_l0 f4 [512, 64]
00000000: 9394 b3be 2325 a4be 7de2 1c3d a072 373e
00000010: 7c17 34be 0e0c 583e e6ba f7be 9112 1e3d
00000020: 390e a03d 1e94 033f bfa6 933e f59d 8b3c
00000030: c1a1 c03e 4d65 8fbf ac26 1f3e d96b b1be
00000040: 4a19 e5be 3da1 a1be a36d 9fbd d845 dd3e
00000050: f7a1 583e 4318 02be 7503 8a3f 8982 3f3f
00000060: 3574 8abe 8e91 98bd 7ce5 833e 8843 0e3f
00000070: 302c 3abf f86c dcbe 7467 1cbf e5ca 06c0
00000080: 86e3 01bf 2bfb e3bd 60db debe 3494 c3bd
00000090: ce5f 683d aed3 99be 1582 063f 4ea9 f13d
000000a0: 5f5c 48be e657 7c3d 92d6 c33e bf1e 92be
000000b0: 8508 23bf ed43 733f fb71 203f 3cae 9d3f
000000c0: adcd 73bf d9a6 bf3e 531b 773d 3d28 c4be
000000d0: 4a12 e4bd bd53 34be 4487 b83d 8c72 11bf
000000e0: 2c34 b33f e662 04be ce84 273e 05a3 59bf
000000f0: dd40 10be d57e e3bc ea59 25bf 3004 bbbf
00000100: dea1 2dbf 3980 843e 4b5b c43d 2e0a dd3e
00000110: 3db0 c93c 801c c43e 12cf 673e 8da9 18bf
00000120: 30e7 df3d 72c9 f2be 4ecb b3bf be82 2e3f
00000130: e421 8b3d fbf1 0340 b98d 26bf 8ecb 8f3e
00000140: 88d4 543d 7173 cabd b836 043f da0a df3e
00000150: 121b 263f 3f44 05be ef2a 343e 312a 08bf
00000160: 72b8 cd3b baac 6b3e abee 353e 5242 203e
00000170: ca1a 2bbf 75e6 473f 2de3 52bf 79e4 b33f
00000180: bb7a 943e 3ee3 ad3f 301e 8cbe 3977 cdbe
00000190: afbd 2e3f cad7 94be 3a21 6f3e cb01 43bf
000001a0: dc30 4bbf 1ad5 1abd 046d 05bf 776e 1abf
000001b0: ae5d c0be ba05 03bf f011 3f3e 024f 763f
000001c0: c38a 883e 9595 ec3d dd89 1cbf c0d6 003f
000001d0: 842f 35bf b90c e83e ce37 96be 3c0e c4bd
000001e0: c55c 0bbf 719b b6bd abe5 adbe 5081 a7bd
000001f0: 5895 0fbe bf87 98bf f6ce 973f ca4e 27be
00000200: 2f91 3d3f 24cf 8ebf a282 143f f2f5 0b3f
00000210: 5eef 0cbf 2541 2ebe 75fd 87bf b622 95be
00000220: 8b85 0d3e 57a4 16be 6665 00bf 00c4 06bf
00000230: 3042 473e 0b37 7bbf 8ef0 b53e 3231 9ebe
00000240: 48bf b93f f28b 473f 77d7 1f3d a1ec 3b3f
00000250: 736a 99bd 6e2b f53e a974 d6bd 6c36 0d3f
00000260: 4604 373f cab1 cb3e 7a6c e83d 3f7f 1cbf
00000270: 4218 f0be 0de0 d53e 9b1c 9abe eab0 f2bf
00000280: f5ba bfbf 829a 123f 23b4 32bf 8764 9a3e
00000290: 3400 57be b1f5 9ebe 32eb 823e 3d42 9bbe
000002a0: 85bb 94be 7478 343f 4034 e13e 9d47 953e
000002b0: 655c 3d3f 32b3 73bf 3adb 983d c085 c63e
000002c0: 718f bb3d a9d1 e1bd 97a8 c9bd 72ed a83d
000002d0: 4edd 8a3e 8631 363e 89c6 e4be fadd 46bd
000002e0: 53b2 533f 0812 11be a023 cbbe ba23 483f
000002f0: 8f42 753f a98a 1dbe 0fa0 a1be 3229 2fbf
00000300: 7a05 823e e850 dbbc 9ba7 18bf ae8c 38bf
00000310: a8d5 60be b41a f83e 2caf 8a3f 96d5 36bf
00000320: 7444 063e 618e 4abe afdc 9a3f 7223 173e
00000330: c730 023f d6f0 2dbe 57b1 21bf 44b3 91bd
00000340: 1d2d b43d 808d ee3e cea1 da3d aeee 9abf
00000350: 2c14 52be d76a 653e 0b46 913f c1c7 bdbe
00000360: ffe7 553f fa26 64bf c39f bcbf 61cb 03bf
00000370: eb89 cf3e 0acb f7bd e553 24be 4655 883d
00000380: eb9a 64bf f712 9c3d b4ea c1be 8e34 54bf
00000390: 06cd 1a3f 4eca 30bf 1082 3a3f 4316 1c3e
000003a0: aef4 e6be 068c 733f d085 c3be 04ff dd3d
000003b0: 3f25 a13e feaa 633e de1e 45be 9fc5 28bf
000003c0: 03e8 793f 1f50 41bf 076a babe acbe 623f
000003d0: 0ed9 62bf 2a35 043f 6726 02bf ba98 a03e
000003e0: 8ecf 043f 18e7 7d3b b27b b4be cf32 653f
000003f0: 1f6e 0a3d 2f35 093e 458e a33e 600e 4a3e
-0.3507429 -0.32059583 0.038301934 0.1791482 -0.17587084 0.21098348 -0.4838478 0.038591925
0.07815213 0.51397884 0.28838155 0.017043093 0.37623408 -1.120279 0.15542096 -0.34652594
-0.44745857 -0.31568328 -0.077845834 0.4321735 0.21155535 -0.12704568 1.0782305 0.74808556
-0.27041784 -0.07449637 0.2576102 0.55571795 -0.72723675 -0.43051887 -0.61095357 -2.1061337
-0.507378 -0.11131891 -0.43526745 -0.09549752 0.05673199 -0.3004431 0.5254224 0.117998704
-0.19566487 0.061607264 0.38249642 -0.28539082 -0.63684875 0.9502552 0.6267392 1.2318797
-0.9523571 0.37431982 0.060328793 -0.3831195 -0.11136301 -0.17610069 0.09010175 -0.5681541
1.4000297 -0.12928352 0.16359255 -0.85014373 -0.14087243 -0.02777044 -0.6459032 -1.4610653
-0.67825115 0.25879076 0.09587725 0.4317183 0.02462017 0.38302994 0.22637585 -0.59633714
0.109327674 -0.47419316 -1.4046419 0.68168247 0.067935735 2.0616443 -0.6506 0.28084987
0.051960498 -0.098853 0.51645994 0.43562967 0.64885056 -0.13014315 0.17594503 -0.5318938
0.006278091 0.23015109 0.17766826 0.15650299 -0.6683775 0.78086025 -0.8237789 1.4054099
0.28999886 1.3584974 -0.2736678 -0.40130022 0.68258184 -0.29070884 0.23352519 -0.7617461
-0.7937143 -0.037800886 -0.5211947 -0.60324806 -0.37571472 -0.51180613 0.18659186 0.96214306
0.26668367 0.11551968 -0.6114786 0.5032768 -0.7077563 0.45322207 -0.2933945 -0.095730275
-0.5443843 -0.08916367 -0.33964285 -0.08178961 -0.14021814 -1.1916426 1.1860034 -0.1633865
0.7404966 -1.1156964 0.5801183 0.5467216 -0.55052745 -0.17017038 -1.0624224 -0.29128045
0.13820474 -0.14711128 -0.5015472 -0.5264282 0.19458842 -0.98130864 0.3553509 -0.30896908
1.45115 0.77947915 0.039023843 0.7340794 -0.07491007 0.47884697 -0.1047147 0.55161166
0.71490896 0.3978408 0.11348815 -0.6113166 -0.46893507 0.417725 -0.3009995 -1.896024
-1.497893 0.5726701 -0.69806117 0.3015482 -0.20996171 -0.31046823 0.25570065 -0.30323973
-0.29049316 0.70496297 0.43985176 0.291562 0.7396911 -0.95195305 0.07463689 0.38773918
0.09158219 -0.110263176 -0.09846609 0.08248414 0.27121967 0.17792329 -0.4468272 -0.048551537
0.82693976 -0.14167035 -0.39675617 0.78179514 0.95804685 -0.15384926 -0.31567428 -0.68422234
0.25394803 -0.026771978 -0.59630746 -0.7208966 -0.21956503 0.48457873 1.0834708 -0.71419656
0.1311205 -0.19780876 1.2098597 0.14759615 0.5085568 -0.16986403 -0.63161224 -0.0711427
0.08797667 0.4659233 0.10675393 -1.2104089 -0.20515507 0.22404037 1.13495 -0.37066463
0.8355712 -0.89121974 -1.4736255 -0.51482207 0.4053491 -0.120992735 -0.16047628 0.066568896
-0.89298886 0.07620805 -0.37874377 -0.8289269 0.6046909 -0.6905869 0.7285471 0.15242867
-0.4510855 0.95135534 -0.38188028 0.10839656 0.3147373 0.22233197 -0.19250056 -0.65926546
0.97619647 -0.7551288 -0.36409017 0.8857219 -0.8861245 0.5164362 -0.5083985 0.3136652
0.51879203 0.003874248 -0.35250622 0.8953065 0.033796426 0.13399194 0.3194448 0.19732046

feature.weight_hh_l0 f4 [512, 128]
00000000: 01c3 0c3f c0f8 f8be ce11 943e 1c55 553e
00000010: ed65 d4be 5bfd d1be 172f 48bf e8cc f13b
00000020: 54c3 12bd 31ff 95be 294f 993f b629 0b3f
00000030: 4779 ab3c b732 363f 78d5 75be ca56 7cbc
00000040: 125f 023f 45e6 02be 2255 163e dfa7 713f
00000050: d0ce 91be 8566 12bd 676e 133f 258f 14bf
00000060: 7fc7 1a3e c7c5 e53e fab0 abbe 1413 e53e
00000070: 0bed 213e 791e 463f 5ca2 1abf 5ec0 d73e
00000080: 6aba ccbe 6b99 fc3e b655 133f 8cdd 163d
00000090: 9291 733f cdd4 b93d 29f3 723e 6df7 c73e
000000a0: e109 223f eb98 5b3d 71ff aa3e a2da e3be
000000b0: d4b1 e93e abb2 4fbd 0a98 5bbf 0ed1 bc3d
000000c0: 0088 78bd 61e7 c4be 8cb5 443f 37d9 1e3f
000000d0: 6d72 083f 92e1 fa3e d53d efbe ad54 96bf
000000e0: 3b8a 663c defe 11bf cbec 22bf 3780 043f
000000f0: 5e64 6bbf 3383 e1be d687 033f facd e93c
00000100: 5ae8 49bf 22c7 acbe 3740 8fbe a7e1 743e
00000110: 0e19 963c fe2f e4bd 067b 0abf 435e a63d
00000120: 8e1a 82be 59ae 813e c6a3 2abe ea73 2ebe
00000130: 7bec 3e3e 1c0d 9f3f 7f72 15bf 7cbf a8be
00000140: 0379 0b3d ffa3 873e 9b83 87bb cf79 e13d
00000150: a07b 573d 6a37 0b3f eb94 9d3c 517a dbbe
00000160: de0e 3c3f d98e f13d 2e89 98bd 4b05 13bf
00000170: ff8f d3be 311f af3e b15d d83e 3445 d43e
00000180: 7fa6 4cbe ee09 3f3d ba69 3abe f82e e53c
00000190: dd7a 4a3f 2c45 d5bd b744 e8bd de95 443e
000001a0: c371 ad3d 8027 74bc e679 d6be abd5 fdbd
000001b0: 6788 48bd ab10 79be 0bfb b6be ba2e ffbe
000001c0: 151b 29bf b436 28bf fa47 29bd ea24 433e
000001d0: b8e3 87be de90 7fbe c097 9bbe f63c d3be
000001e0: 817b edbd 9222 1b3f b69c 9ebd 126d c03c
000001f0: d84a 9c3e 5c03 d4be 2807 b53e ddb9 1a3f
00000200: 720f 3fbe b0d8 b8be 91d1 48bf 859c 1bbf
00000210: b168 b13d 451b 153f cc7e 3e3d e978 393d
00000220: 1cf6 c43d 3107 a33e cf6a 523e 3cf4 1c3f
00000230: b6e1 22bf b908 c73e c714 a0be 4c13 3cbf
00000240: ba07 e33e 7c6a 3ebd ae92 4e3f 6a50 7abe
00000250: c3fd 4bbe 548f 5a3e aa4d 9cbe 6f5f 40be
00000260: 6645 4dbe b242 6bbf 83e4 2b3d 3986 203f
00000270: 03fd 19bf e843 40be ca6d 1d3f a539 8b3e
00000280: 9183 bbbe ea39 f7be 6bba 63bd 3dd6 efbe
00000290: 7f6d cd3d 8f2b 873e 3655 4cbe ad35 003f
000002a0: 3439 e73d 64ed 10be e69a 753f d028 16bf
000002b0: 3b32 85be b1ee 09bf 63b2 3bbd 99c1 04bd
000002c0: 0bf6 cb3c 8f7c 3b3f 5ff0 e43e 5e5b 193e
000002d0: 0c69 1bbe 86d8 a33e 57a3 9bbe 39a6 ed3d
000002e0: 9c03 b3be f8d5 b13e d833 2fbc 7e39 4cbf
000002f0: dba9 dc3e 1fa6 593f f5b9 103e 3c84 93bd
00000300: b517 72be 3535 4cbf f606 58bf 854d 22bf
00000310: 0175 a8be 7354 b4bd e3c2 0c3f 30a7 c73e
00000320: 3f22 a83e 8b63 583e fbde 72be 4b74 54bf
00000330: 7adf 273f d068 dc3e 7208 c33d d180 5f3e
00000340: 9542 03bf 27d1 953e 8e66 ccbd e918 8a3e
00000350: e628 9ebe 59a6 973e b834 94be f057 fe3e
00000360: 3486 433f 8a61 3ebf 8d09 413f 106d 93be
00000370: 7db8 a0bf a35d 00bf a39b 3d3f 81dd 6bbf
00000380: aaa8 eebd 4715 c4be 940c 2f3e 2e77 c6bd
00000390: 5848 17bf b96a 8e3f c3ff c0be 6031 123f
000003a0: df3e 143f 42b8 0d3f 860f 5cbe 0d22 cbbd
000003b0: 1ba5 c4be 8dc4 06bf f5fc 6e3e 5013 21bf
000003c0: 6477 1dbf 925c 2bbf 8f4e ebbe 5665 cdbe
000003d0: ae1f f4be acd2 7b3e 2581 ca3d 19e3 473d
000003e0: f308 0abf f9f1 a53e 7c9d 46be dd4b 2dbf
000003f0: 4569 503e 4ec5 553f 4af3 59bf 380a 37be
0.5498505 -0.4862728 0.28919834 0.20833248 -0.41484013 -0.41013607 -0.78196853 0.007379163
-0.03583081 -0.29296258 1.1977283 0.5436052 0.020931853 0.71171135 -0.24007213 -0.0154015515
0.50926316 -0.12783153 0.14680913 0.94396776 -0.28478098 -0.0357423 0.57590336 -0.5803092
0.15115164 0.44877455 -0.3353346 0.44741118 0.15813081 0.7739025 -0.6040399 0.42138952
-0.39985973 0.493358 0.5755266 0.036832377 0.95144 0.09073792 0.2372557 0.39055958
0.63296324 0.05361263 0.3339801 -0.4450274 0.45643485 -0.0507075 -0.8577887 0.092195615
-0.060676575 -0.38457778 0.7683952 0.62050194 0.532996 0.49000221 -0.46726862 -1.1744591
0.014071043 -0.5702952 -0.6364257 0.5175814 -0.91950023 -0.4404541 0.51379144 0.0285406
-0.78870165 -0.33745676 -0.2797868 0.23914205 0.018322494 -0.11141966 -0.5409397 0.08123448
-0.25410885 0.2532833 -0.16664037 -0.17036405 0.18644898 1.2425876 -0.5837783 -0.3295859
0.034050953 0.26492307 -0.0041355616 0.11009561 0.052608132 0.5438143 0.019236049 -0.42866758
0.73460186 0.11794824 -0.0744804 -0.5742995 -0.41320798 0.34203485 0.4225898 0.41459048
-0.19985388 0.04664033 -0.18204394 0.027976498 0.79093724 -0.10413584 -0.11341231 0.19197795
0.08468964 -0.014901996 -0.41889876 -0.123942696 -0.04895821 -0.24322765 -0.35738406 -0.49840337
-0.6605695 -0.6570847 -0.041328408 0.1905705 -0.26540923 -0.24957606 -0.30389214 -0.41257447
-0.11595822 0.60599625 -0.07744734 0.023489509 0.3052585 -0.41408813 0.35357022 0.60439855
-0.18658236 -0.3610282 -0.7844477 -0.60785705 0.086625464 0.58244735 0.04650764 0.045281325
0.09617254 0.31841424 0.20548557 0.6131017 -0.6362566 0.38873842 -0.31265852 -0.73466945
0.44341832 -0.04648827 0.80692565 -0.24444738 -0.19921021 0.21343738 -0.30528003 -0.18786405
-0.20046005 -0.91898644 0.041965973 0.6270481 -0.6015169 -0.18775904 0.6149565 0.27192417
-0.36623815 -0.48286372 -0.055597704 -0.46843138 0.1003065 0.2640042 -0.1995438 0.500819
0.112902075 -0.14153057 0.9593948 -0.58656025 -0.26014885 -0.5387984 -0.04582442 -0.03241119
0.024897596 0.73236936 0.4471464 0.1497626 -0.15176791 0.32001132 -0.30398056 0.1160397
-0.3496369 0.34733558 -0.010693513 -0.79775226 0.4309834 0.85019106 0.14133437 -0.07202956
-0.23641856 -0.7976869 -0.8438562 -0.63399535 -0.32901767 -0.0880517 0.54984874 0.3899474
0.32838628 0.21131723 -0.23717873 -0.8298995 0.65575373 0.43048716 0.09523095 0.21826483
-0.5127347 0.29261133 -0.09980498 0.2697213 -0.30890578 0.296191 -0.2894647 0.49676466
0.7637665 -0.7436758 0.754052 -0.28794146 -1.2556301 -0.5014288 0.7406561 -0.92134863
-0.11653264 -0.38297483 0.17094642 -0.096907005 -0.5909476 1.1126319 -0.3769513 0.5710659
0.57908434 0.5535928 -0.21490297 -0.09918604 -0.38407215 -0.5264366 0.23338683 -0.62920094
-0.615103 -0.66938126 -0.45958373 -0.40116376 -0.4768042 0.24592084 0.098879136 0.04880056
-0.53919905 0.32411173 -0.19396013 -0.67693883 0.20352657 0.8350419 -0.85136855 -0.17874992

feature.bias_ih_l0 f4 [512]
00000000: f758 b0be 2a79 703e d1d2 a33e b341 c03e
00000010: 6cbe a3be be54 463f 8966 b23e 6e4d 27bf
00000020: b38e 9f3e 8665 193f 8ef6 a73e f501 543f
00000030: 061a 0abe f167 993e a83e 00be 97db 5f3f
00000040: c508 a73c ac5f 953d dd1c b63e 3f7a 993f
00000050: 66f4 febb b386 453d 0779 653e a731 d7be
00000060: 2254 fb3e 57f8 99be e03d 083f 8831 08be
00000070: cfad 103f 389e f83c 5d6a 353f ee15 f33e
00000080: bd0b a9bc e3d4 00be ab58 7a3f b1b3 12be
00000090: 0fbc 7d3e 6b28 30be 7048 b23d d167 933d
000000a0: 8c1f af3d 435a b43d 1f09 ddbd c252 503e
000000b0: 4c89 8c3d 4eca 7e3e 857e ad3e 1d85 f63e
000000c0: 7a11 b03e f6cd 033d 8ec8 ab3e e90c 123e
000000d0: db89 563f 95e3 ec3e 3d17 143e a276 6d3d
000000e0: 32a0 743e 00f8 043f dc86 103d 1f18 da3d
000000f0: eb03 10bd fd23 e83d 35e5 b0bd 0c40 d13c
00000100: 59b7 b7bc d176 ff3f 83a6 0a3f f387 8fbd
00000110: dc60 5f3d a290 d53e c470 663e 48f3 64be
00000120: 30c1 eb3c fdf0 e43e e7ec 2c3e a765 363f
00000130: b70e 7d3d 237f 0a3f 568c 4e3f 3481 33bd
00000140: 54de 953e 129a be3d 0bce a63e dd36 113f
00000150: e36d c6bd c194 3f3e 195b dc3d 94ae 823e
00000160: 1823 af3e e68e 313f 547d 803e 4746 d1be
00000170: 321e d73d ba57 373e 2e9c 65bd 8ab2 cd3d
00000180: 512b fe3e d3cf 923f 8ae2 013e 89e6 9d3d
00000190: 1621 9a3f 07e2 4a3f fded 213f 50e8 81bc
000001a0: 4bc8 723e 080f 643e a643 4e3f fafe 64be
000001b0: 679c 823e 8be6 b5bc b972 50be 3ee0 5d3e
000001c0: fcd9 2f3e c2a8 643e e13e 96bd e24d 683f
000001d0: b3e8 223f 0833 053d bea9 983d 0c5c e93e
000001e0: dcdf d5be f63a 923c 0264 b3be dc3a f83e
000001f0: f63f c3bc 55f6 203e 31e2 f63e f396 0fbd
00000200: 14ff f43d 3787 43be fee5 f03c 32b5 3bbd
00000210: 24bb d4be 96b2 b5bd 4380 6bbe 4e4f b3be
00000220: 3734 343d 64da 523e 4ade 423e a366 d2be
00000230: 4855 3d3c 6e92 24bd f4c1 a63d a2bc df3e
00000240: c6f9 abbe 41e1 7fbe d1a8 17bf 0246 d93e
00000250: b5be 68bd 4e31 d5be d2da b93d 9525 7a3c
00000260: 3a79 663e b47a 9fbe d973 ddbc f998 e1bd
00000270: 2e39 333e a7d1 1ebe 0d37 893e 31ca 303f
00000280: af68 a33d e1a0 17be 6451 fbbe cedb c6bd
00000290: d56b 0fbe d1e2 9b3e 0c38 4a3e 4438 c73e
000002a0: f531 ad3e fa3c 53be f7bc 59be 5d10 72be
000002b0: d115 84bd fd9d cbbe 4a87 143e 5c6f 11be
000002c0: 19d4 52bd de53 0bbf a931 0d3d 26f3 8fbe
000002d0: 98f9 e73e 156a cdbe 6551 77be a218 1c3e
000002e0: 68d3 6cbe b8a7 16bf 9f37 37be bbb0 26bf
000002f0: 171a b1be 410c 623e cbff a4be d521 33be
00000300: c6ad 83be 3762 53bf 26cd 91be f273 25be
00000310: 50c6 60bc 7f53 2bbd ed8d d8be 86b3 293f
00000320: 213e 143e 54cf 1ebf c2d3 6d3e afde 08bf
00000330: 9843 e33e 3c7e 333d 8802 6c3e ec93 84bd
00000340: 6a65 5e3d aea5 a4be c694 9fbb 2ee9 ec3e
00000350: 7dd8 8cbe e57c ab3e 196c 34bd 09b9 193f
00000360: 12be 3abd b738 74bf b306 2abe 57d9 a4bd
00000370: 58ec e53c c423 c03e 865c 073e c184 8f3e
00000380: 8874 b3bd 6cf3 4ebd 489a 80be 1c60 ca3d
00000390: 9d9d 2e3d 657c 053f 28d1 0cbe 3a42 5bbe
000003a0: f0bf 9b3e 387d da3d 9b6c 34be c4e7 38be
000003b0: 4f25 89be b048 073e 357b 873e c3fd 6bbe
000003c0: beaa 2fbe baf8 96bd 6855 27bf 9f7a 93be
000003d0: 627d 13bf 4b0f 2dbf 58fe 30bf 31b4 713e
000003e0: 9df9 313e c39c d3be 4f32 14be 5f66 42be
000003f0: 62fd 18be d478 243e d721 c0bc 3d8b aebd
-0.34442875 0.2348372 0.31996778 0.37550125 -0.31981218 0.77473056 0.34843853 -0.65352523
0.31163558 0.5992054 0.32805294 0.82815486 -0.1348649 0.29962113 -0.12523901 0.8744444
0.020389924 0.072936386 0.35568896 1.1990432 -0.0077805994 0.048224162 0.2240945 -0.4203007
0.49087626 -0.3007228 0.53219414 -0.13300145 0.5651521 0.030348882 0.7086542 0.4747767
-0.02063548 -0.1258121 0.97791547 -0.1432636 0.2477877 -0.17202918 0.087052226 0.07197536
0.08550939 0.088062786 -0.10792755 0.2034407 0.06862125 0.2488186 0.3388559 0.48148432
0.34388334 0.03217884 0.3355145 0.14262737 0.838041 0.4626738 0.1446199 0.057974465
0.23889235 0.5194092 0.035284862 0.10649132 -0.035159986 0.11334989 -0.08637468 0.025543235
-0.022426294 1.9958135 0.54160327 -0.07008352 0.05453573 0.4171191 0.22503954 -0.2235843
0.028778642 0.4471511 0.16887246 0.7124886 0.06178161 0.54100245 0.80682886 -0.04382439
0.29271185 0.0930673 0.32579073 0.5672434 -0.09688928 0.18709089 0.10759563 0.25523818
0.34206462 0.6935867 0.25095618 -0.4087393 0.10503806 0.17904559 -0.056057148 0.10043819
0.49642423 1.1469673 0.12684074 0.07709987 1.2041347 0.7925114 0.63253766 -0.015857846
0.23709218 0.22271359 0.80571973 -0.22362891 0.2550995 -0.022204658 -0.20356263 0.21667573
0.17172998 0.22330001 -0.07336212 0.9074384 0.6363632 0.03251937 0.07454251 0.4557804
-0.41772354 0.01785038 -0.35037237 0.48482406 -0.02383421 0.15718968 0.48219445 -0.035056066
0.11962715 -0.19094549 0.029406544 -0.0458271 -0.41549027 -0.08871953 -0.22998147 -0.35021442
0.04399511 0.20591122 0.19030109 -0.4109393 0.011555977 -0.04017871 0.081424624 0.43698603
-0.33589 -0.24988271 -0.5924197 0.42436224 -0.056822497 -0.4163918 0.0907494 0.015267749
0.22507182 -0.31148303 -0.02703278 -0.11015505 0.17502281 -0.15509664 0.26799813 0.6905852
0.07978951 -0.14807464 -0.49085534 -0.09709893 -0.14005978 0.30446485 0.19747943 0.38910115
0.33827177 -0.2062873 -0.2126349 -0.23639055 -0.06449474 -0.39768973 0.14504734 -0.14202636
-0.051471803 -0.54424846 0.034471188 -0.28115195 0.45307612 -0.40119997 -0.24152143 0.15243772
-0.2312752 -0.5884967 -0.17892312 -0.6511342 -0.34590217 0.22074987 -0.32226405 -0.17493375
-0.25718516 -0.8257174 -0.28476828 -0.16157511 -0.013719156 -0.041827675 -0.4229578 0.66289556
0.14476825 -0.6203511 0.2322531 -0.5346479 0.44387507 0.04382156 0.2304784 -0.06473526
0.054295935 -0.32157654 -0.00487003 0.46271652 -0.27508917 0.33493724 -0.044048402 0.60047966
-0.04559142 -0.9539904 -0.16604118 -0.08049267 0.028066799 0.37527287 0.13218889 0.2803097
-0.08762461 -0.050525114 -0.25117707 0.09881613 0.04263078 0.52142936 -0.13751662 -0.21411982
0.30419874 0.10668415 -0.17619555 -0.18057162 -0.26786277 0.13211322 0.26461187 -0.23046021
-0.17154977 -0.073716596 -0.65364695 -0.2880449 -0.57613194 -0.6760146 -0.691381 0.23603894
0.17380376 -0.41330537 -0.14472316 -0.18984364 -0.14940408 0.16061717 -0.023453636 -0.08522651

feature.bias_hh_l0 f4 [512]
00000000: 78ae 65be 59d1 5e3e a4c5 bd3e ece3 d93e
00000010: ac62 abbe 0f79 143f e219 b6bb 13b1 00bf
00000020: 22ec a63e e09b 443f 04b0 af3e 13a8 6c3f
00000030: 8f83 45be 4b85 803e 8b44 8abd 71b7 373f
00000040: 0582 1e3c 4e22 aebc caaa d23e 8495 8b3f
00000050: 9bbb e4bd 47b4 29bd 87d5 28bd d0a6 c2be
00000060: 80d1 e63e 70c9 92be 8d05 1c3f 5e53 42bd
00000070: 19e4 053f a3e2 6dba 2901 4b3f 6b12 c23e
00000080: be15 0abd e3f1 e4bd 8fc9 623f 6172 b1bd
00000090: 3e08 9c3e f8b1 18be f323 293e 4ac1 3f3e
000000a0: 6cf5 a8bd 379f 183c 0314 d3bd 0d69 3f3e
000000b0: fe07 66bc 4050 993e b0a2 b53e 1aaa df3e
000000c0: fde2 b13e 1fe2 e93c a06c d83e db82 203e
000000d0: abee 4e3f e781 053f 2ad3 35bd 40d5 6b3d
000000e0: 2c27 293e bcd2 db3e 86cd 913c 77c2 a03d
000000f0: 024e 853d e9ab 59bd 2c36 29bd cb2b 913d
00000100: 2b27 15bc fceb 0140 9ee8 f53e 8522 bcbd
00000110: 6bc6 a2bd a05d ed3e 1279 173e 7b6f 12bd
00000120: 1110 6d3c d235 143f c300 5b3e bf6b 533f
00000130: 1925 1f3d b80c 143f ccfd 253f f0f1 753d
00000140: 5b0a 363e 7123 243b 766f bc3e 227a 2a3f
00000150: e9c8 41bc b38b bcbc 8194 763c 4b1e 303e
00000160: bd9e ac3e ff09 223f cc4d 543e 19d8 a8be
00000170: c859 bd3d 10e5 9d3e ac77 1a3d a081 273d
00000180: cd04 093f dd99 8a3f a880 0a3e 83ba d73d
00000190: c6ba 903f d488 3d3f 0e81 443f 669d 1bbc
000001a0: e026 663e 5c58 453e f116 3d3f 7f80 2fbe
000001b0: 7b9d 4c3e d51d cb3d 5840 64be f8d0 793e
000001c0: fbc2 713e 5422 683e bf7d 1fbe 09e9 433f
000001d0: 1f67 0f3f bb82 f83d ec33 b53d a27f 113f
000001e0: eb7c f5be a82f edbc dbdb debe 3c3e 163f
000001f0: b1a1 92bd d71a 7e3e 7523 103f 07aa f93d
00000200: 3220 9b3e c2fd 6cbe 5398 23be 2277 a03d
00000210: 0449 cabe 34cd c9bc 9971 8ebe d1da 64be
00000220: 055d bdbc aa23 923e a0e2 1c3e 0652 ebbe
00000230: c811 c33d 914b 553a 6545 513d 4134 df3e
00000240: d2de 93be 6039 a1be e1e5 19bf 4e8c c83e
00000250: a6a9 93bd 7269 55be b2c3 a53d 6fce 8cbd
00000260: 1cba 9a3e cb60 8abe a973 d5bd 48b8 68be
00000270: 2123 8c3e 4b41 5abe 1d8b c53e 5845 353f
00000280: 7f96 1e3c eeb1 50bd 884d 11bf 7e4b 3dbe
00000290: c8f3 febc c665 5e3e 1fc9 c63d 4a67 d53e
000002a0: 6f28 7e3e 5144 3dbe fda4 51be c348 73be
000002b0: 804b 243d 4489 c7be 4862 043d 91cd d9bd
000002c0: e89a 6ebd 9a67 14bf 83f7 623d 59fc 28be
000002d0: 19e5 c83e 34d1 d9be f68a bcbe 79bf ab3d
000002e0: f305 26be b7bf 0bbf 86c6 1ebe c420 4fbf
000002f0: 264b 3abe eb52 933d ec4c 9bbe a3e7 1cbe
00000300: 0f90 65be 51fc 75bf c4b7 adbe 81d7 e5bc
00000310: d273 52be b519 513d bd8a f4be bda4 093f
00000320: 6a53 1e3e eb12 2bbf 55e7 a53e fe88 15bf
00000330: 22ea e13e f967 a9bc b8c0 d83d ff7b 613d
00000340: 48e5 3d3e fba5 a3be 5408 f3bc 16b1 ea3e
00000350: f65f 6ebe 357a dd3e ce96 01be b7f7 ec3e
00000360: ddf0 483d 24d6 81bf e3c1 45be a81c 36be
00000370: 4387 87bd ce6c 3f3e 4630 823e 27df 103e
00000380: 787b 00be 8db9 0dbe 78ab eabd 5a32 643c
00000390: 2ef9 be3d 5b96 fc3e bf53 5e3c ad3e 89be
000003a0: b900 ac3e b7fc 883d 0f22 0ebd 7db6 dcbd
000003b0: acd2 87be 1993 703d 1abd 963e 518f 20be
000003c0: a02d 9dbe 46b0 a93d 64c7 08bf d5ab cfbe
000003d0: 5d03 febe 6a5d 54bf 07b5 31bf 42ee 323e
000003e0: b3b1 0d3e f6e3 f8be dbd7 7dbe 2dbb 0bbe
000003f0: 87e0 48be d2a1 113e 32f0 23be 55b8 9abe
-0.22429836 0.21759547 0.3706485 0.42556703 -0.33473718 0.5799722 -0.0055572847 -0.50270194
0.3260203 0.76800346 0.34313977 0.9244396 -0.19288467 0.25101694 -0.06751355 0.71764284
0.009674554 -0.021256592 0.41145927 1.0905004 -0.111685954 -0.04143169 -0.04121926 -0.38017893
0.4508171 -0.2866931 0.6094597 -0.047442786 0.52301174 -0.0009074604 0.79298645 0.37904677
-0.03371214 -0.11178949 0.88588804 -0.08664394 0.30475038 -0.1491164 0.1651762 0.18726078
-0.082499355 0.0093153035 -0.10306551 0.18692417 -0.014039991 0.29944038 0.35475683 0.43684465
0.3474349 0.028550206 0.42270374 0.15674917 0.8083293 0.5215134 -0.044390835 0.057576418
0.16518849 0.42934215 0.017798197 0.07849591 0.065090194 -0.053142462 -0.041311428 0.07088431
-0.009103577 2.0300283 0.48029035 -0.091862716 -0.079480015 0.46360493 0.14792278 -0.035750847
0.014469163 0.57894623 0.2138701 0.8258628 0.03885374 0.5783191 0.6484039 0.060045183
0.17777388 0.0025045539 0.36803788 0.6659261 -0.011827686 -0.023015833 0.0150500545 0.17199056
0.33714858 0.632965 0.20732802 -0.3297737 0.0924564 0.30838823 0.037711784 0.040895104
0.5352295 1.0828205 0.13525641 0.10533621 1.1306999 0.7403691 0.7675942 -0.009497976
0.22475767 0.19271988 0.7386313 -0.17138861 0.19981949 0.099177994 -0.2229017 0.24396122
0.23609535 0.22669345 -0.15575312 0.7652746 0.56016725 0.1213431 0.08847794 0.5683538
-0.47946867 -0.028953388 -0.4352711 0.5868871 -0.071597464 0.24814926 0.56304103 0.12190633
0.30298 -0.23143676 -0.15976076 0.07835223 -0.39508832 -0.024633981 -0.27821043 -0.22349097
-0.023115644 0.28542835 0.15320826 -0.45961016 0.09524876 0.00081365654 0.05109157 0.43594554
-0.28880936 -0.31489086 -0.6011639 0.39169544 -0.07210092 -0.20841005 0.080939665 -0.068753116
0.30220115 -0.27026972 -0.10422451 -0.22726548 0.2737055 -0.2131397 0.38582698 0.70808935
0.009679436 -0.050950937 -0.5675893 -0.18485829 -0.031122103 0.21718511 0.097063296 0.41680366
0.24820112 -0.18483092 -0.20473094 -0.23758225 0.040111065 -0.38971913 0.03232029 -0.10634912
-0.0582532 -0.57970583 0.055411827 -0.16502513 0.39237288 -0.42542422 -0.3682477 0.0838613
-0.16213207 -0.5458941 -0.15505418 -0.8090937 -0.1819273 0.0719355 -0.30332124 -0.15322737
-0.22418235 -0.9608813 -0.33929265 -0.028056862 -0.20551994 0.051049907 -0.477621 0.53766996
0.15461507 -0.6682574 0.32403055 -0.5841216 0.44123942 -0.02067946 0.10583633 0.055049893
0.18544495 -0.3196257 -0.029667057 0.4583823 -0.23278794 0.432573 -0.12655184 0.4628274
0.04905783 -1.0143476 -0.19312243 -0.17784369 -0.06617596 0.1869385 0.25427455 0.14147626
-0.125471 -0.13840313 -0.11458486 0.01392802 0.09324871 0.49333462 0.013569771 -0.2680563
0.335943 0.066888265 -0.03470045 -0.107769944 -0.26527917 0.058734033 0.29441148 -0.15679671
-0.30698872 0.082855746 -0.53429246 -0.40560785 -0.4961194 -0.8295504 -0.6941685 0.174737
0.13837318 -0.4861142 -0.24789374 -0.1364562 -0.196169 0.14221886 -0.16009596 -0.3021876

feature.weight_ih_l0_reverse f4 [512, 64]
00000000: ae1c 17bf 2a57 3a3e ab99 073e 2cc1 d2bc
00000010: 816b 70be ef64 94bf 3e5d 043e 1b03 67be
00000020: f6ae 68bf df2e 60be 9699 15bf 1359 9dbe
00000030: 4500 e83e eb85 b63f 4e27 d43e 3043 c73e
00000040: b332 b23e 1f68 fbbd 6872 d23d dd8d fb3e
00000050: 63d0 63bf 0277 03bf 3563 40be 88c4 44be
00000060: a521 4ebe 8c9d 28bf 9921 873f 48fe 423f
00000070: 18ef 713c 0871 763d 6735 62be 36d6 56be
00000080: 7b0a 2a3f 89a4 a33e ed88 223e a476 78bf
00000090: d364 ea3e 734c 1a3e 16e3 c0bb 86ad ab3e
000000a0: 9d3f d83e 5b18 aebe a644 aebf d96f 0a3e
000000b0: 2d53 84bf ace7 a5bd db19 26bf 4fd6 393e
000000c0: e322 ac3e 1ea1 c1be 1c89 afbe 8daa 66bf
000000d0: 2ca6 203f 5a67 bc3f 9b28 5cbe 1514 42bf
000000e0: fc5a 30bf a3c0 883f 70ae f5be 302c 353e
000000f0: 64d2 a0be f22c c33c 42f7 4bbe 1c1a c3bd
00000100: 6114 40be 9db6 0f3e 7451 a13e 68c2 303d
00000110: e734 b53e eef2 313f f13d 09bd 9e6d ea3e
00000120: 1e9d 9cbf 811b 553f 029f 043f 4839 a3be
00000130: 336b bdbd 7973 cdbe 1182 a03c 95f3 103f
00000140: 216f 2ebf 1b3e bebd 7fa2 5d3f 5cbb 323e
00000150: 3527 ed3f a744 503e c33f 2fbf b212 a3bf
00000160: 1ed5 23bf a110 32bf 1656 abbf 9bad b93e
00000170: 01fa 30bf 8991 0fbf daa4 50bf c07b 583f
00000180: ddef 203f 6fb3 74be eb6c fa3e 2d09 e63e
00000190: 6720 463f 8da0 a93e 0180 673f 59b5 553f
000001a0: 28ce c43f 5615 5bbf 7113 f53e 758b 093e
000001b0: 75f3 f0be 9986 5dbe 6e38 1cbf 20da d03d
000001c0: 7d25 0e3f 39cc 25bf 6983 ee3e 4f85 6bbe
000001d0: 8a89 3b3f cedf 223e 828f 073f c66a b6be
000001e0: c515 533e 5e90 1f3f 355c a93d a5e6 133e
000001f0: 7482 c93d 642a 273b 0173 f7be c967 d1be
00000200: 0224 c0bf 44ce a1be 45f3 64bf 0e81 42bd
00000210: 7e7a 91bb 2e8d 52bf 9734 0dbf 259e 3ebf
00000220: 2b3e 033f d4e7 07be 4360 473f a47a bcbf
00000230: 701a d8bf d361 1f3f 99da 233e 3cb3 8e3f
00000240: 7eb9 05bf 4fb9 823e b845 88bf 9e98 983c
00000250: 7f5f a3be db0b e93e c8a9 f33e 99c8 2a3f
00000260: c3d1 e7be ecd3 4c3d 3772 1bbc da73 83bf
00000270: 7d24 db3f cc31 a7bf d174 cfbe e6b9 07bd
00000280: 405a 3dbe d115 693e cd22 1bbe 8952 d2be
00000290: 92b9 bf3e 852d a03f e836 27be 4396 8f3f
000002a0: ed68 78be fbbf fb3d ef9c fd3e 0e6a ad3e
000002b0: 367b 4c3f 344a 993d fe4c 663e 1726 983c
000002c0: b387 373e 695f 13bf 3eae 29bf 3d25 823e
000002d0: 019a a53e bf1d c23f f603 883f e97f 81bf
000002e0: 6b2f 3bbf 01d0 e83f de7b 36be f821 943f
000002f0: d644 9b3e 5b56 6dbf 357f 77be e9a5 06bf
00000300: 096c 4a3e 5cfe 0abf 3b40 2bbe 5344 f43d
00000310: db45 d8be 30ae 9ebe 94c6 9fbe a097 e73e
00000320: e0c1 24bf 9f5a 2e3f 03ca 8abf 8512 4a3f
00000330: 64ed 6a3f 6a37 7f3f 8388 333f 4db7 e23e
00000340: 6691 93be 23df 8dbe 1216 b53d 2fc9 0b3f
00000350: 4971 c93f 2379 99bd f9d7 86be 4430 7f3f
00000360: cbb3 cb3e 47a0 523e 90f3 97be cb5c a43f
00000370: c3f8 13bf ccdc ff3d 4b2e 37bf c71b 80bd
00000380: eb04 58bf 159d ac3f 23b9 4abc 9eed 88bf
00000390: 8628 823f 261c babe 9b00 253f 1b0d 63bd
000003a0: c84e 683f 359a 1c3e d7aa 303f 705c d4bc
000003b0: 484d 3fbf 3b12 1abe 0fb5 063f 167f 0c3f
000003c0: 77d5 0abe 4d50 8b3c e5ab 3a3d 45dd 7bbe
000003d0: 90bd 09be 9ede a63f f999 be3e 7300 b03c
000003e0: 1173 c9bd e47a a03e 5981 813e 955a b1be
000003f0: fa95 de3e 4f88 2bbe 926a 9abe 1300 a1bf
-0.59028137 0.18197313 0.13242213 -0.025726877 -0.2347851 -1.1593302 0.12926194 -0.22559778
-0.9089197 -0.2189288 -0.5843748 -0.3073202 0.45312706 1.4259619 0.41436237 0.38918447
0.34804305 -0.12275719 0.102757275 0.4913167 -0.8898985 -0.51353467 -0.18787844 -0.19215596
-0.20130022 -0.658654 1.0557128 0.7616925 0.014766477 0.06016639 -0.22090684 -0.20980152
0.6642224 0.31961468 0.15872546 -0.9705603 0.45780048 0.15068226 -0.0058864458 0.33530825
0.42236033 -0.34002957 -1.36147 0.13519229 -1.0337883 -0.081008285 -0.648832 0.18148158
0.33620366 -0.37818235 -0.34284294 -0.9010399 0.6275356 1.471904 -0.21499865 -0.7581189
-0.6888883 1.0683788 -0.47984648 0.17692637 -0.31410515 0.023825143 -0.1991854 -0.09526464
-0.18757774 0.14034505 0.31507456 0.04315415 0.35391924 0.69511306 -0.033506338 0.45786756
-1.2235448 0.8324509 0.51805127 -0.3187964 -0.09248962 -0.4012716 0.01959327 0.56621677
-0.6813832 -0.092891894 0.86576074 0.17454284 1.852759 0.20338689 -0.6845667 -1.274008
-0.63997066 -0.69556624 -1.3385646 0.36265263 -0.69131476 -0.56081444 -0.81501544 0.8456383
0.62866 -0.23896573 0.48911223 0.44928876 0.7739319 0.33130303 0.90429693 0.8347984
1.5375414 -0.8557943 0.47866395 0.13432105 -0.47060743 -0.21633376 -0.61023605 0.10197854
0.5552595 -0.64764744 0.46584633 -0.23000072 0.7325674 0.15905687 0.5295335 -0.35628337
0.20613773 0.6232966 0.0826954 0.14443453 0.09839335 0.0025507445 -0.4832993 -0.40899494
-1.5010989 -0.3160268 -0.894337 -0.047486357 -0.004439651 -0.82246673 -0.5515837 -0.7446006
0.51266736 -0.13272029 0.7788126 -1.4724927 -1.6883068 0.6225864 0.16001357 1.1148448
-0.52236164 0.25532004 -1.0646276 0.018627461 -0.31908795 0.45516858 0.4759047 0.6671234
-0.45277223 0.050006792 -0.00948768 -1.026973 1.712051 -1.3062072 -0.4051881 -0.03313627
-0.18491459 0.22762229 -0.15149994 -0.41078594 0.37446266 1.2513891 -0.16329539 1.1217731
-0.24258776 0.12292477 0.49533793 0.33869976 0.79875505 0.07484856 0.22490308 0.01857285
0.17922859 -0.5756746 -0.662815 0.25419036 0.32344058 1.5165328 1.0626209 -1.011716
-0.7311923 1.8188478 -0.17820689 1.1572866 0.30325955 -0.92709893 -0.2416962 -0.5259691
0.19767775 -0.5429437 -0.1672372 0.11927094 -0.42240795 -0.3099227 -0.3120619 0.45232868
-0.6435833 0.68107027 -1.0842899 0.7893451 0.9176848 0.9969393 0.70130175 0.44280472
-0.28821868 -0.27709302 0.088421 0.54603857 1.5737697 -0.07493808 -0.2633665 0.9968302
0.3978561 0.20568953 -0.2967801 1.2840818 -0.57801455 0.124932855 -0.7155501 -0.06255298
-0.84382504 1.3485438 -0.012373242 -1.0697515 1.0168617 -0.363496 0.6445405 -0.05543242
0.9074521 0.152932 0.6901068 -0.025922984 -0.74727297 -0.15046017 0.52620023 0.5488142
-0.13557993 0.017006064 0.045574088 -0.24596126 -0.13451219 1.3036687 0.37226847 0.02148459
-0.098364 0.31343758 0.25293997 -0.3463942 0.43473798 -0.16751216 -0.30159432 -1.2578148

feature.weight_hh_l0_reverse f4 [512, 128]
00000000: 3353 f6be 7432 4f3e cba3 a8be bec9 45bf
00000010: 12f3 b8bd 098c 133e 44c8 fabd 9935 bd3d
00000020: 7000 443f 3664 1b3e 35ae 35bf f4b9 f0be
00000030: adc2 87be 43d9 32bf 9570 ec3d b002 1abe
00000040: 156c 40bf 0fab 363f a6db fcbe d5b9 a03c
00000050: fcc6 82bc bca0 bfbe 3487 89bc 0f13 513e
00000060: 75e9 a33e db9f 27be ab11 de3c 4480 eb3d
00000070: ff1f 723e 0028 233d a8a2 fa3e 4c02 a4be
00000080: 0f85 49be 902c 04bf c385 4cbf 8ba2 2fbf
00000090: 33b9 953e 05e2 fc3e ec58 99be 19ab b3bf
000000a0: e869 58bf 19c2 dd3e d342 86be 1365 f43d
000000b0: ca96 663f 0d45 17bf 97e8 3cbe c066 56be
000000c0: 40e4 cd3e c2b5 3a3e d465 843e 8c9b fdbe
000000d0: 0cd1 803f 76d0 103f f3b1 a8bc 3a7e a33c
000000e0: ec16 c43e 2832 a7be 0344 55bf 4832 123f
000000f0: e82f d93e b7f5 6cbd e4b9 e1bd 167a 3d3e
00000100: ba42 11bf aee7 eebe 3ab9 903e d246 cc3c
00000110: 378e b83e 867b 41bf 9493 d13d d704 c9be
00000120: 1dad 8cbe 383a adbf 426b 86bd cc45 65bf
00000130: 64f6 883e 366f 37bf 4c33 803e 1fce 943e
00000140: b619 483f 0a5d a13e ab76 e5be 0016 8b3c
00000150: fc18 113e 7ba2 d53d 871c 3d3f 1a2f 7b3d
00000160: fce6 8f3e 9a4a fe3e dafc 32bf 42ee 96be
00000170: 9fb3 bd3e 1284 dd3e 9eec 473e 7558 233f
00000180: 6a1c 43bf 8baf 6a3e fb8f 06bf b1c6 433d
00000190: 7a64 1a3f ba6d fabd 9cfa bbbd 62b2 dc3e
000001a0: 61db cd3d 310d dd3d 23c2 96bf fc2e 61bf
000001b0: e5af 383e d23d 8cbe ac53 8fbe 553a 403e
000001c0: 17b5 a8be c7c3 b6be 897f 0dbf 0cb0 b33e
000001d0: a309 c53c b496 323e b393 1a3f cadd 4d3f
000001e0: a1af 8d3e 50ef 1bbf 7f21 093f aa21 f73e
000001f0: 1eb3 a43e c71e 09bf ca52 e33e 3eeb ea3e
00000200: d6ab 03be 20d3 a93e bbff 683f 281e 623f
00000210: 1680 4fbf 25e1 763f 0e68 d4bd 5f65 dfbe
00000220: c549 aa3e 35f1 5c3f f160 32bc 8829 6bbe
00000230: 489a 8bbe e956 833f b452 1bbe 8316 abbd
00000240: eb20 5bbf 4804 b83d f09a e73e f0a7 c53c
00000250: f066 823e 075c a43e fc4c 753d ca72 b63c
00000260: 2132 8abf 95e8 343f 29c7 543f e9fd 0e3f
00000270: d377 133f 4eef 643e 44ef dcbd fe28 c83d
00000280: e060 f4be 9d92 7cbf 4c01 42bf 1b2c a83e
00000290: 34ee e83c 582b ba3e bf75 61bf 1033 acbe
000002a0: 1d21 f73e 23e5 5f3e 91ed a3bd a0c0 23be
000002b0: b21c 43bf fcdf 1a3f 0344 01bf 34f8 803f
000002c0: 5796 e63d 7ce2 463f 888d f73e c76c d7bc
000002d0: 534d 9bbe cdc0 eebf 21b8 3e3e 3eca c5be
000002e0: 1fac 2fbf c1ba 993f 1667 f9be 5b3f 6f3f
000002f0: f252 48bf 2484 6dbe 80ef 81bf 9f96 253f
00000300: 9ed5 ddbe 8295 513f 330b 803f cbd9 9b3e
00000310: 90e8 b93e dee2 503e 4c5c ad3e 5afc e2bd
00000320: 4326 203f 71f3 ba3c 5edc a43e 1ce2 1f3e
00000330: c2fe 813e 522a 5a3c 4f06 2dbe 354a e23d
00000340: 2713 e4be cedd 0c3f b1dd eabe 3d92 eb3e
00000350: d565 813b 91f1 94be 6c99 77bf 17a6 5e3f
00000360: 09d4 fcbe 100d 4b3f 1143 f7be 7b77 373d
00000370: 04ef a9bf 1d5d e03e c7c8 9cbc 7cdd c03d
00000380: 4bac 4fbc 487e cd3e aebb a0be 09b6 43be
00000390: 2556 36bd 0b03 743f af59 c93e d2d2 063f
000003a0: 63f0 643e abad 6b3e 35b9 38bf a16c 58be
000003b0: e5e3 23bf 8d48 b73e 29e4 07bf 7c48 7b3f
000003c0: 01ae 13bf 5458 dfbd cd50 583e 2892 4fbf
000003d0: 388a d2be 2b92 febe 779c 333f d3fb aabf
000003e0: 982e 043f 9778 5bbf 22c6 8abf 83fb ad3f
000003f0: 6b83 59bf 09b7 25bf af27 8f3f 2a9b cd3e
-0.4811035 0.2023409 -0.32937464 -0.7726096 -0.09030737 0.14408888 -0.12245229 0.092387386
0.7656317 0.15174946 -0.70968944 -0.4701687 -0.26515713 -0.69862765 0.11544911 -0.15040088
-0.7516492 0.71354765 -0.49386328 0.019619862 -0.015964024 -0.37427318 -0.016788103 0.20417427
0.3201405 -0.16369574 0.027108034 0.11499074 0.23645018 0.03983307 0.48952222 -0.32033002
-0.19679664 -0.51630497 -0.79891604 -0.68607396 0.29242858 0.4939119 -0.29950655 -1.403659
-0.845366 0.43312147 -0.26222858 0.11933341 0.90073836 -0.5908974 -0.18448101 -0.20937634
0.40213203 0.18233398 0.2585894 -0.49532735 1.0063796 0.56568086 -0.020592665 0.01995765
0.38298738 -0.32655454 -0.833069 0.57107973 0.42419362 -0.05785152 -0.11021784 0.18503603
-0.5674244 -0.46661133 0.28266317 0.024936114 0.36046 -0.75579107 0.102332264 -0.39261505
-0.27475825 -1.3533392 -0.065634266 -0.89559627 0.2675048 -0.7165407 0.25039136 0.29063508
0.7816423 0.31516296 -0.448171 0.016978264 0.14169687 0.10431381 0.73871654 0.061324216
0.28105915 0.4966629 -0.6991707 -0.2947865 0.37051103 0.43264824 0.19523856 0.6380685
-0.7621523 0.22918527 -0.52563447 0.04779691 0.60309565 -0.1222796 -0.09178659 0.43104845
0.10051609 0.10793532 -1.1777996 -0.8796232 0.18035848 -0.27390915 -0.27993524 0.18772252
-0.3295066 -0.3569624 -0.5527273 0.3509525 0.024052447 0.17440301 0.6038162 0.8041655
0.27673057 -0.60912037 0.53566736 0.4826787 0.32167906 -0.5356259 0.443991 0.458826
-0.12858519 0.33168888 0.91015214 0.88327265 -0.8105482 0.96437293 -0.10371409 -0.43632028
0.33259407 0.8630555 -0.01088737 -0.22965062 -0.27266145 1.0260898 -0.15168267 -0.08353903
-0.85597104 0.089851916 0.45235395 0.02412793 0.2546916 0.3210146 0.05988787 0.022271533
-1.0796548 0.7066739 0.83116394 0.55856186 0.5760471 0.22356912 -0.10787824 0.09773444
-0.4773016 -0.98661214 -0.7578323 0.3284615 0.028433897 0.36361194 -0.8807029 -0.33632708
0.4826745 0.21864752 -0.080042966 -0.1599145 -0.7621566 0.60498023 -0.504944 1.0075746
0.11259144 0.7768934 0.48350167 -0.026296986 -0.3033243 -1.8652588 0.18624927 -0.3863086
-0.6862201 1.2010118 -0.4871146 0.9345605 -0.78251565 -0.23194939 -1.0151215 0.64682955
-0.4332704 0.81868756 1.0003418 0.304396 0.36310244 0.20399043 0.3385948 -0.110832885
0.6255838 0.02282116 0.32199377 0.15613598 0.25389677 0.013315754 -0.16896938 0.1104931
-0.44545862 0.5502595 -0.45872262 0.46010008 0.003948907 -0.2909055 -0.9671848 0.86972183
-0.4938052 0.79316807 -0.48293355 0.04479168 -1.3276067 0.4382104 -0.019138707 0.09417245
-0.012675355 0.40135407 -0.31393188 -0.1911241 -0.044515748 0.95317143 0.39326236 0.52665436
0.22357325 0.23015468 -0.72157604 -0.21135189 -0.64019614 0.3579754 -0.5308252 0.9815748
-0.57687384 -0.10905519 0.21124573 -0.8108239 -0.41121078 -0.49720892 0.7016062 -1.3358101
0.51633596 -0.8573088 -1.0841715 1.359238 -0.8496615 -0.64732414 1.1183985 0.40157443

feature.bias_ih_l0_reverse f4 [512]
00000000: ed93 2abe ec08 f13e f1b7 a2bd c308 523f
00000010: 6d9d d63e c2dd f03d 0af3 dd3e d7ab 243e
00000020: 4596 9c3e beb2 ee3c 7348 a9be 627f e53e
00000030: 7e01 da3e 2c26 3f3f 372e e9bd c957 d0be
00000040: 56da a3bc e91c afbe 9e5b f6bc 7572 71be
00000050: 7606 303e 2469 3cbe 7f42 8c3d e4f1 f2bc
00000060: 27b7 8a3f fbac 4cbc 734e 1d3f ccff 283e
00000070: ffc2 7cbe 3a34 54bd 362a 843e 4e2f f1bd
00000080: 0534 84be c0de 48be 2b15 fe3e 32db 7e3e
00000090: 7a80 053f fc2b 83bd 50ca 2ebe ae08 1abe
000000a0: d7c9 8c3e 94c1 adbe 5aaa c03e 08db 2f3f
000000b0: 4773 833d c136 d63e cffe ffbb acb4 0a3e
000000c0: b64e c93e f166 f93c 7f4c ffbd 4828 9bbe
000000d0: 662d 86be b226 0cbe 3689 0e3e 04ec b03e
000000e0: 9f6c 993e 9b7e 123e f048 153e a175 70be
000000f0: 0b75 f8bd 2a44 2a3e 9337 143d 7275 c83c
00000100: a096 373e ce01 d43e eb63 1d3f 8988 85bd
00000110: 9c23 09be a2a1 103e 01d0 263e c66c d73e
00000120: b211 6dbe ad1a 003f 4147 12bd 82c3 a43e
00000130: 1b5c 0e3d 7ea9 3ebe 2ad6 7cbc 99b2 483c
00000140: 2b58 f6bb d607 80be 9765 703e 1f54 873d
00000150: f9a2 d43e 8e55 133e 596b 47bd 2d20 2e3d
00000160: 6e07 493f 8d1e 963d a554 86be 0496 993e
00000170: 53e8 833d 342a 3bbe dac3 173e 3058 213e
00000180: 8499 5bbd cdb8 2e3e 5a6a 33bd b623 e73e
00000190: d191 d43e 69ea 86be 1d8b 343e 5bf8 0b3c
000001a0: 7000 5fbe ad09 9fbe 8007 683e ca9a e53e
000001b0: f985 36bd 7330 2b3e 97fa a43d 0c13 343f
000001c0: 864b 68bd 011a 40bf dbbc 23bd a559 21be
000001d0: 9f02 713f 180e 2c3e 1d4d e03e 3562 54be
000001e0: 5286 77be 74cb b93c 19ca 1abe 0e14 a7be
000001f0: 795c 28be 710c 533f 9d70 553d 1d9f de3d
00000200: 7f94 67be 8b81 e2be b297 f8be a8ef 5fbe
00000210: 39f7 90be a8a1 01bf 2b74 f43d ea8e 03bf
00000220: 7bad c23e 6730 2fbe 2803 1b3e 231d c8be
00000230: 1758 03be e943 cbbe fd0d dfbe 0e55 563f
00000240: 7fc5 98bd b495 81be 5a46 1f3f b4c1 f2bd
00000250: 336d 0c3c 8572 c4be f4ea b8be 3410 ef3e
00000260: 9c56 a0be b3e3 37be 6607 1fbf 84c6 fbbd
00000270: e3f9 613e 4e83 43be 57f3 66bc dcf4 c3be
00000280: e659 bf3e e813 da3e 85d2 053f 7b41 21be
00000290: 9b30 823e 9d66 9bbe 6752 c73d ea23 08be
000002a0: f7cd 12be bc1e bcbe 2eb9 4e3f bd3a 8ebe
000002b0: 3295 013e 0b28 e5bd 0f32 d43d 26cd 2ebe
000002c0: 10f3 20be fe59 03bf 6361 0cbe db38 38be
000002d0: 5287 c33e f588 d43e bc26 4f3e 0ad1 e83c
000002e0: c447 073e de26 61be 0111 8ebe 8010 41be
000002f0: 9aa9 9bbe cade 00be bfec 3d3d 515c b9bd
00000300: 0cc2 7f3e 089f 85be f807 12bd 0f41 c23d
00000310: 09a9 39be 21e7 c5be d486 733e 0a4a 2fbe
00000320: d684 acbd f864 4abe 6cc3 d9bd e130 063f
00000330: 4904 073e 0cb2 d93e 6cdf 5dbe fc56 bfbc
00000340: 259a 213e 8d46 49bd a0b6 883e ad6c f53e
00000350: 6f36 83be 014e 1dbe 2339 bdbd 18b4 973d
00000360: 00ca 2c3d 91fa 9f3e b5df 9ebe b047 393f
00000370: 4e34 74be 56cf a2be c938 563d 8c5f 18be
00000380: db94 043d 484a f93e 2a7a 363e 5dc7 4bbe
00000390: b619 3abe f598 1fbe b408 c5bd 0f9a 7fbe
000003a0: e991 563f 2b82 f23e 67d6 98be 3159 52bc
000003b0: fa65 ca3d 0e8c 19be acc3 b0be a09f d5be
000003c0: 6178 923e e34c 9e3c 1138 503f 61d9 833e
000003d0: d8ca d2be 639b 203d c5a3 3cbe 5da5 38be
000003e0: e7a9 fd3d d572 c7bd aae1 77bd ce36 173c
000003f0: eb35 c43e 0562 59bd a978 64be 431f 143f
-0.16657992 0.4707712 -0.0794524 0.8204462 0.4191698 0.11761047 0.43349487 0.16081177
0.30583397 0.029137965 -0.33063087 0.44823748 0.42579263 0.7466762 -0.11385768 -0.40691975
-0.020001572 -0.34201744 -0.030072983 -0.23578818 0.17189965 -0.18399483 0.068486206 -0.029656358
1.0837144 -0.012492414 0.6144783 0.16503829 -0.2468376 -0.05180762 0.25813454 -0.11776601
-0.25820938 -0.19616222 0.49625525 0.24888304 0.52149165 -0.06404874 -0.17069364 -0.15042374
0.27497742 -0.3393675 0.37629968 0.6869359 0.06418472 0.4183865 -0.007812358 0.13545483
0.39317864 0.030444594 -0.12465762 -0.3030417 -0.2620651 -0.13686636 0.1391953 0.34555066
0.29965684 0.14306109 0.14578605 -0.23482372 -0.12131699 0.16627565 0.036185812 0.024470065
0.17928553 0.41407627 0.6148059 -0.06520183 -0.1339249 0.14124158 0.16290285 0.42075175
-0.23151281 0.50040704 -0.035712484 0.3218041 0.034755807 -0.18619344 -0.01543192 0.012249612
-0.0075178347 -0.25005978 0.23476253 0.06607842 0.41530588 0.14388105 -0.04868636 0.042511154
0.7852696 0.07330046 -0.26236454 0.29997265 0.06440797 -0.18277818 0.14820805 0.15756297
-0.0536132 0.17062683 -0.043802597 0.45144433 0.415175 -0.26350716 0.17631193 0.008543099
-0.2177751 -0.3106207 0.22659111 0.44844657 -0.04456136 0.167177 0.08055609 0.70341563
-0.05671265 -0.7503968 -0.03997503 -0.15756853 0.94144624 0.16802251 0.43808833 -0.20740588
-0.24172333 0.022680022 -0.15116157 -0.32632488 -0.16441526 0.8244086 0.05210935 0.10870192
-0.2261524 -0.44239458 -0.48553234 -0.21868765 -0.28313616 -0.5063729 0.1193622 -0.51389945
0.3802298 -0.17108308 0.15137923 -0.3908473 -0.12826572 -0.3970025 -0.4356536 0.83723533
-0.074595444 -0.25309527 0.6221672 -0.11853352 0.008570957 -0.3836862 -0.36116755 0.4669205
-0.31316078 -0.17957954 -0.62120664 -0.12293723 0.2206798 -0.19093058 -0.014096103 -0.3827275
0.37373275 0.42593312 0.5227435 -0.15747635 0.25427708 -0.30351725 0.09732514 -0.1329495
-0.14336382 -0.36742198 0.8075131 -0.2777919 0.1265457 -0.11189278 0.103611104 -0.17070445
-0.15717721 -0.5130919 -0.13709025 -0.17990439 0.3818918 0.4151074 0.2022962 0.02841999
0.1321097 -0.21987483 -0.27747348 -0.1885395 -0.30402833 -0.12584987 0.046368357 -0.09050811
0.24976367 -0.26097894 -0.03565213 0.09485065 -0.18130888 -0.386529 0.23781902 -0.17118087
-0.08423774 -0.19765079 -0.10632977 0.52418333 0.13185228 0.4251865 -0.2166726 -0.023356907
0.15781458 -0.049139548 0.26701832 0.47934476 -0.25627467 -0.15361787 -0.092394136 0.07407397
0.04218483 0.31245854 -0.3103005 0.7237501 -0.23848078 -0.3179881 0.05230025 -0.14880198
0.032368522 0.48689485 0.1782004 -0.1990027 -0.1817387 -0.15585692 -0.096208006 -0.24961112
0.8381639 0.47364935 -0.29851076 -0.012838648 0.09882732 -0.14994833 -0.34524286 -0.41723347
0.28607467 0.019323772 0.8133555 0.25751784 -0.41170382 0.03921069 -0.18421848 -0.18031831
0.12385922 -0.09738699 -0.060517944 0.009229375 0.38322386 -0.053071994 -0.22311653 0.578602

feature.bias_hh_l0_reverse f4 [512]
00000000: fbd2 0fbe 6a9e b83e 8f35 5b3a 7770 413f
00000010: e923 e73e d26f e43c 430a 063f 7579 023d
00000020: 1e3a 313e 05b0 a63d aac7 90be 8bff e93e
00000030: 2b38 a93e b778 473f 827b 073c 2354 92be
00000040: 8a7c 93bd 81af b1be 2681 70bd 0f1a 54be
00000050: 5151 5c3e 5d55 d2bd 1128 103e ea57 8dbb
00000060: 3992 863f cf21 a2bd 5677 2e3f 5fb6 653e
00000070: 9293 ddbd f4cc 533e 8a3d 613e ea15 24bd
00000080: 7b22 aebe b4d0 5abe 9112 bf3e 5519 d73d
00000090: 8e6a bd3e 9f84 e73c 8bad 06be 3278 c2be
000000a0: 33d6 d93d 2067 c1be cb62 023f 2f3c 013f
000000b0: f23c e33d 9df7 c93e ed32 0abe 696b 833e
000000c0: e59f b13e ef16 683d 5ff8 babc f137 97be
000000d0: 5d1f 90be c9b1 fabc 0fc4 3c3e 39d8 bf3e
000000e0: da64 8d3e 5e3d 9a3e f468 40bc ae8b b8bd
000000f0: 882c 223d 0a3c 093e 2138 683d 512a f8bd
00000100: d708 7f3e 08e8 a53e 80a8 2e3f 0bdd 5abe
00000110: 68e0 a7bc c3b2 1d3e 8187 463e f71f 093f
00000120: 45dd d9bd 1754 bb3e d9bd d93d 4502 e03e
00000130: a639 c93d 2131 cc3d 1b3a a5bd adb5 dc3d
00000140: 04c4 253d a562 35be 757a 843e 61f6 a13d
00000150: e774 f03e 1588 0a3e c757 3fbe 274c 753d
00000160: 57cf 303f 50b3 d43d 6574 b1be 5143 b83e
00000170: 90ab fd3d 33ea a0bd 563f 153c b118 133e
00000180: a1e8 c43c 62cc 113e ee70 0f3d efd2 da3e
00000190: 2bed b03e 1887 4bbe a836 433e 8908 8fbd
000001a0: ab4f 11be 7630 8bbe c3ea 233e a453 9c3e
000001b0: 71e4 84bd c706 8a3e f0ef c03d f352 393f
000001c0: 0789 02be 47dd 35bf 599a a6bd b669 d9bd
000001d0: 55d4 723f df27 1c3e f917 f83e 57e9 34bd
000001e0: 46ab 7cbe 491f 453e f32d 49bd 38de 9dbe
000001f0: fc10 acbd 30e2 4d3f 717f da3c 40a6 453d
00000200: 3172 28be 9c1f 07bf 4e76 f2be 5353 8ebe
00000210: 7d99 35be d182 0fbf d578 0f3e cb07 cabe
00000220: 5e76 823e 864a febc 5dfc 823e fe9f fcbe
00000230: 2b88 84bd 3a84 cbbe 8fd3 abbe d731 3f3f
00000240: 9ce1 1bbe 985c d6be 3f1c 0f3f 90c4 95bd
00000250: 3887 26bd 2140 e1be 88c3 f9be 6306 173f
00000260: 9dd6 99be f9b9 abbe 6b5d 26bf 39e4 33bb
00000270: 10c0 813e dcf9 0bbe f730 bebd 738e a2be
00000280: 951d 9d3e b5b4 d33e f3bb 1b3f 1161 1abe
00000290: c1df 313e 1765 b7be dba6 a33d c08f 32be
000002a0: 9cde 3ebe 0e86 d1be 03c0 433f 00ef b3be
000002b0: ccbb 8c3d 587b 3dbe f027 1e3e c995 2ebe
000002c0: aa0f 54be 8511 f7be 5696 fdbc 4f63 febd
000002d0: e943 823e 924d c03e ffdb a83e 2561 0f3e
000002e0: fe44 c93d 6ff8 89be 6a51 8dbe 30dc 1bbe
000002f0: aa88 2cbe 4646 67be 4921 853d 21e7 bebc
00000300: 7082 3b3d e3c1 dabd 3466 47be 0e74 b3bd
00000310: 4bfe 2bbe 66b9 c9be 31f5 273e dc24 6fbe
00000320: f822 dd3c 32cb 70be 5609 3dbd 82f2 0e3f
00000330: 3a0e 2b3e 5ca0 cd3e 9e98 09bd 28d8 5b3c
00000340: dfe0 353e 2d32 c0bd 8f1c d23d 9343 ff3e
00000350: 07ed bcbe daaf 14be a5bd c0bc fc77 883d
00000360: 08e7 013e da0f ca3e 612a 94be 5ca2 2c3f
00000370: 0bd0 29be 658e adbe 1f11 1a3d 4cc8 95bd
00000380: 191b 46bd 764c d93e e3d6 1fbe acb4 1cbe
00000390: 6f05 18be 6f4b 21be c878 fcbd 12f5 8dbd
000003a0: a49c 5f3f de45 1e3f 7be4 98be 05b5 983d
000003b0: ffd7 eb3d abd4 15be 8897 e3be 4cc4 c5be
000003c0: ffc8 9c3e dca8 9abd 74eb 723f 59c4 613e
000003d0: 8e31 dbbe bf32 2c3e db59 7bbe a85f 90be
000003e0: 0512 f13d 477b 7dbd 4501 2f3c db0a 03be
000003f0: 3146 b53e 5a7b 96bd f000 18be 9145 253f
-0.14045326 0.3605836 0.0008362168 0.7556223 0.45144585 0.027885351 0.5235941 0.03185411
0.17307326 0.08139042 -0.28277332 0.45702776 0.33050665 0.7791857 0.008269193 -0.28579816
-0.07201488 -0.3470421 -0.058716916 -0.20713066 0.21515395 -0.10270188 0.14077784 -0.0043134587
1.0513374 -0.07916605 0.6815084 0.2243285 -0.108191624 0.20683652 0.21996132 -0.04005996
-0.34010682 -0.21368676 0.37318853 0.105028786 0.36995357 0.02826148 -0.13152139 -0.37982327
0.106365584 -0.3777399 0.50931996 0.5048246 0.11095609 0.39446726 -0.13495989 0.25667885
0.34692302 0.056662496 -0.02282351 -0.29534867 -0.28148928 -0.030602353 0.18434165 0.37469652
0.27616006 0.30124944 -0.011743773 -0.09011017 0.03959325 0.1340181 0.056694154 -0.12117446
0.24905716 0.32403588 0.6822586 -0.21373384 -0.020492747 0.15400223 0.19387628 0.535644
-0.10637907 0.36587593 0.10631914 0.43751732 0.09825449 0.09970308 -0.08067723 0.107768394
0.04047014 -0.17713411 0.25874677 0.07908321 0.4696419 0.13528474 -0.18685828 0.059887078
0.69066375 0.10385764 -0.34659114 0.35988858 0.123862386 -0.0785717 0.009109339 0.14364888
0.024036707 0.14238122 0.035019808 0.42739055 0.34555945 -0.19875753 0.19063818 -0.0698405
-0.14190547 -0.2718541 0.16007523 0.30532563 -0.06488884 0.26958296 0.094207644 0.72392195
-0.12747584 -0.7104077 -0.08134908 -0.10615866 0.9485524 0.15249585 0.4845579 -0.044167843
-0.2467471 0.19250216 -0.049116086 -0.30833602 -0.08401677 0.8042326 0.026672097 0.04825425
-0.1644981 -0.5278261 -0.47355884 -0.27797946 -0.17734332 -0.56058985 0.14010938 -0.3945907
0.25480932 -0.031041395 0.25583163 -0.49340814 -0.064712845 -0.39749318 -0.33559844 0.74685425
-0.15222782 -0.41867518 0.55902475 -0.07312882 -0.0406563 -0.4399424 -0.4878199 0.5899412
-0.3004655 -0.33540323 -0.64986295 -0.0027449264 0.25341845 -0.13669533 -0.09286683 -0.31749305
0.30686632 0.41348806 0.6083366 -0.1507609 0.17370512 -0.35819313 0.079908095 -0.17437649
-0.18639606 -0.40922588 0.7646486 -0.3514328 0.06871757 -0.18504083 0.15444922 -0.17049326
-0.207091 -0.48255554 -0.030955475 -0.12421285 0.25442436 0.3755918 0.32980344 0.14001901
0.09827612 -0.26947352 -0.27601177 -0.15220714 -0.16849008 -0.22585401 0.06500489 -0.02330357
0.04577869 -0.10681512 -0.19472581 -0.0876237 -0.16796224 -0.3939926 0.16402127 -0.23353904
0.026994213 -0.23515013 -0.04615148 0.5583879 0.16704646 0.40161407 -0.033592813 0.013418235
0.17761563 -0.0938457 0.10259353 0.49856243 -0.36899588 -0.14520207 -0.02352793 0.0666351
0.12685788 0.3946522 -0.28938583 0.6743524 -0.16583268 -0.338977 0.037613984 -0.07313594
-0.048365686 0.42441148 -0.15609317 -0.15303296 -0.14845823 -0.15751432 -0.12327725 -0.06931509
0.8734839 0.6182536 -0.29861817 0.07456402 0.11515807 -0.14631908 -0.44451547 -0.38626325
0.30622098 -0.075517386 0.9489052 0.22047557 -0.42811245 0.16816233 -0.24545996 -0.2819798
0.11771015 -0.061885145 0.010681455 -0.1279711 0.35405114 -0.07347746 -0.14844108 0.64559275
