logs/classifier/40_contexts/fold_03/10-19-2022_10-18-04/model_params.pth (torch, 821283 bytes, 10 tensors)

feature.weight_ih_l0 f4 [512, 64]
0	0x3f879335	1.0591799
1	0xbe402b68	-0.18766558
2	0xbcb548f4	-0.022129513
3	0x3e979bd5	0.29611078
4	0xbf67465b	-0.9034173
5	0x3dfa2607	0.122142844
6	0xbed5282b	-0.41632208
7	0x3f1fe1d5	0.6245397
8	0x3debfe26	0.11523084
9	0xbe7e55e6	-0.24837455
10	0x3ec520ef	0.3850169
11	0xbf0ed73c	-0.5579717
12	0x3f6b9181	0.92018896
13	0x3e706765	0.23476942
14	0xbf29b73e	-0.6629523
15	0xbe79d0af	-0.24396013
16	0xbf3c942d	-0.736636
17	0x3f016983	0.50551623
18	0x3f97e3f4	1.1866441
19	0x3e705be7	0.23472558
20	0xbf1b4101	-0.60646063
21	0xbec2226e	-0.37916893
22	0xbe70566c	-0.23470467
23	0xbe8fe22b	-0.2810224
24	0xbe8ffc07	-0.2812197
25	0x3e894263	0.26808462
26	0x3e82b7f7	0.2553098
27	0xbedbf028	-0.42956662
28	0xbf16fd09	-0.5897985
29	0x3eafdc46	0.34347743
30	0x3e945e45	0.28978172
31	0xbe80f23d	-0.25184813
32	0x3e8472cf	0.25868842
33	0xbfb914aa	-1.4459431
34	0x3cc80156	0.0244147
35	0x3e643621	0.22286274
36	0xbebc1963	-0.3673812
37	0xbf8c7c0e	-1.0975358
38	0xbf1705dd	-0.5899332
39	0xbf1be5e3	-0.60897654
40	0xbdcb534e	-0.099279985
41	0x3f0dd727	0.5540642
42	0xbebdafce	-0.3704819
43	0xbeaeb26a	-0.34120494
44	0xbed886b2	-0.42290264
45	0xbec005b3	-0.37504348
46	0xbe02f43e	-0.12788484
47	0x3ea65f94	0.32494795
48	0xbe70f0e4	-0.23529392
49	0x3ea65aff	0.324913
50	0xbeed7748	-0.46380067
51	0x3f1b0c59	0.60565716
52	0x3d18b60f	0.037283
53	0xbfb52d67	-1.4154481
54	0xbf84607c	-1.0341945
55	0xbf5262da	-0.82182086
56	0x3e0a9dbb	0.13536732
57	0xbf11d14a	-0.56959975
58	0x3ea63a09	0.32466152
59	0xbeb6316f	-0.3558459
60	0x3d88d969	0.06682093
61	0xbed814f7	-0.42203495
62	0x3ed86872	0.42267185
63	0xbd850445	-0.06494955
64	0x3e6b929d	0.23005147
65	0xbd6974e5	-0.056996245
66	0xbf656154	-0.89601636
67	0x3f1cbd77	0.612266
68	0x3e880fa2	0.26574427
69	0xbf03e3b8	-0.51519346
70	0xbf5634c2	-0.8367425
71	0x3ee497ac	0.44646966
72	0x3eee652f	0.46561572
73	0xbec45d17	-0.38352272
74	0xbe466839	-0.19375695
75	0x3f00cf40	0.5031624
76	0x3ecb3a38	0.39692855
77	0xbf339f45	-0.701649
78	0x3d34d5d0	0.04414922
79	0x3eea8d09	0.45810726
80	0xbed86a1f	-0.42268464
81	0x3eafa0c6	0.34302348
82	0x3f5c1ef8	0.85984755
83	0x3e5569c7	0.20841132
84	0x3e0e0c83	0.1387196
85	0xbeb5335b	-0.35390744
86	0x3f2212e8	0.633101
87	0xbeeece84	-0.46641934
88	0x3d88459d	0.06653903
89	0xbf20c611	-0.62802225
90	0xbf36b215	-0.7136548
91	0xbf31eb01	-0.6949921
92	0xbee8cd9e	-0.45469373
93	0xbdc800e1	-0.09765793
94	0xbca3b75c	-0.019984894
95	0xbe066b72	-0.13126925
96	0xbab7d494	-0.0014025145
97	0xbf3ece71	-0.74533755
98	0x3e5e36f5	0.21700652
99	0x3fa115d6	1.2584789
100	0x3e087bd8	0.13328493
101	0x3ee5f928	0.44916654
102	0x3db43235	0.08798639
103	0xbef79b51	-0.48360685
104	0x3ba1db5d	0.00493948
105	0xbf2fab2c	-0.6862056
106	0x3f4ee842	0.8082315
107	0x3d939a54	0.0720717
108	0x3ed795ce	0.4210648
109	0xbe7de760	-0.24795294
110	0x3f6725c5	0.90292007
111	0x3dd46fbd	0.10372875
112	0x3f286c6e	0.6579045
113	0x3ef46aea	0.4773782
114	0x3ee65e00	0.4499359
115	0xbfb6200f	-1.4228534
116	0xbefdf91a	-0.49604112
117	0x3f04880a	0.5177008
118	0x3e5201cd	0.205085
119	0x3e0b2fa3	0.1359239
120	0x3f5bd127	0.85866016
121	0xbee96d79	-0.45591334
122	0xbf45e2ec	-0.7729938
123	0xbf0035de	-0.50082195
124	0x3ef820da	0.48462564
125	0x3d009357	0.031390514
126	0xbb7f1f3f	-0.0038928536
127	0xbf10bbd6	-0.56536615
128	0xbe83b77b	-0.25725922
129	0xbec83efd	-0.39110556
130	0xbe35bf60	-0.17748785
131	0x3ecfdd29	0.4059842
132	0xbf464508	-0.77449083
133	0xbf7ef19b	-0.9958741
134	0x3e9d3da7	0.307111
135	0x3f849554	1.0358071
136	0x3e08de98	0.13366163
137	0x3f3b2895	0.731088
138	0x3f5ec4be	0.87018955
139	0xbdb57f48	-0.088621676
140	0xbe4fa999	-0.2027954
141	0xbeb048bd	-0.34430495
142	0xbeb23305	-0.3480455
143	0x3f4f3012	0.80932724
144	0xbe8d46b3	-0.27593002
145	0xbdbee42a	-0.093208626
146	0xbf390014	-0.72265744
147	0x3d415c35	0.047207076
148	0xbe7a9d10	-0.24473977
149	0x3f0c4fc7	0.5480923
150	0xbef8cc0e	-0.4859318
151	0x3f047531	0.5174132
152	0xbf0ec0f4	-0.55763173
153	0x3d879ccf	0.06621706
154	0x3e613ef0	0.21996665
155	0x3e49ccd9	0.1970705
156	0x3e07fd5b	0.13280241
157	0x3ef0f23a	0.47059804
158	0xbf9b53e1	-1.2134973
159	0xbd45fc48	-0.048336297
160	0xbf8bf402	-1.093384
161	0xbf230545	-0.63679916
162	0x3ea7f31b	0.32802662
163	0x3efc41b8	0.4926889
164	0x3e1f85e7	0.15578423
165	0x3e9b82ba	0.30373174
166	0xbf6b1ed7	-0.9184393
167	0xbf184d24	-0.5949271
168	0x3f280cee	0.6564473
169	0x3e094a97	0.1340736
170	0xbc5e2f06	-0.013561016
171	0x3efc3554	0.49259436
172	0x3e31afa8	0.17352164
173	0xbe86e602	-0.26347357
174	0x3ee4289e	0.44562238
175	0x3efe772b	0.49700293
176	0xbf38b35e	-0.7214869
177	0x3f493707	0.7859959
178	0x3e030d41	0.12798025
179	0xbf5acc01	-0.85467535
180	0x3f070ee9	0.52757126
181	0x3f527604	0.8221133
182	0xbf10692e	-0.5641049
183	0xbf158c12	-0.58416855
184	0x3e95d7ba	0.2926615
185	0xbec4add5	-0.38413873
186	0xbeb4386c	-0.35199296
187	0xbe5585df	-0.20851849
188	0xbedb1d69	-0.42795876
189	0xbfccc78e	-1.5998399
190	0xbed96236	-0.42457741
191	0x3f8dd8b8	1.1081762
192	0x3e82c7d8	0.25543094
193	0x3e05b835	0.1305855
194	0xbe8b2227	-0.27174494
195	0xbf49f0c6	-0.78883016
196	0x3e3116f4	0.17293912
197	0xbebf2b25	-0.37337604
198	0x3f0e1ed5	0.55515796
199	0xbdc90cfd	-0.098169304
200	0xbf11390e	-0.56727684
201	0xbe8fc55a	-0.28080255
202	0xbe8b4dc2	-0.27207762
203	0xbe768027	-0.24072324
204	0xbf284724	-0.6573355
205	0x3f31c86a	0.6944643
206	0xbddc0fa5	-0.107451715
207	0xbf29b57f	-0.66292566
208	0xbf2b5f15	-0.6694196
209	0xbfa33da6	-1.2753189
210	0xbf22f29e	-0.63651454
211	0x3f1d32c4	0.6140559
212	0x3f2030d2	0.62574494
213	0xbf693afb	-0.9110562
214	0xbf46ee03	-0.7770693
215	0x3f80b201	1.0054322
216	0xbf2a79ab	-0.665919
217	0xbeb32c96	-0.34994954
218	0x3dd4fb37	0.10399478
219	0xbefec544	-0.49759877
220	0x3ecfbc62	0.40573412
221	0x3dbba7e3	0.09162881
222	0x3e7b3cf5	0.24534972
223	0x3fac1071	1.3442518
224	0xbf37201d	-0.71533376
225	0xbe1fe775	-0.15615638
226	0x3f8af38d	1.0855576
227	0xbd860f8c	-0.06545934
228	0xbebd82a2	-0.37013727
229	0xbdedebbe	-0.1161723
230	0xbfb1d753	-1.3893837
231	0xbd9ac793	-0.07557597
232	0x3f26bcf6	0.6513208
233	0xbfc36461	-1.5265008
234	0x3e226c4c	0.15861624
235	0xbebfba7c	-0.37446964
236	0xbf197782	-0.5994798
237	0xbd94d614	-0.07267395
238	0x3e705601	0.23470308
239	0x3ea40555	0.32035318
240	0x3da203e9	0.07910902
241	0xbeead225	-0.45863453
242	0x3cf47f5c	0.029845886
243	0xbecc49dc	-0.399001
244	0xbf774908	-0.9659581
245	0xbeef5d97	-0.4675109
246	0x3eedcb83	0.4644433
247	0x3f1ef95f	0.6209926
248	0xbf37171f	-0.71519655
249	0x3f839134	1.0278687
250	0xbf2394f2	-0.6389915
251	0xbeaee435	-0.34158483
252	0x3f8d20bc	1.1025615
253	0xbebda29f	-0.37038133
254	0x3dbc493f	0.09193658
255	0x3eeb7cd8	0.45993686

feature.weight_hh_l0 f4 [512, 128]
0	0xbee481a5	-0.4463016
1	0x3eb9c5cc	0.3628372
2	0x3f48e86f	0.78479666
3	0xbe6498d3	-0.22323923
4	0xbd38529d	-0.04500066
5	0x3e19600d	0.14978047
6	0xbf27fcb5	-0.65619975
7	0x3de1116e	0.109896526
8	0x3e3ba221	0.18323566
9	0x3dd58125	0.10425023
10	0x3ec83a4e	0.39106983
11	0x3d66b56d	0.056325365
12	0x3ea62e6f	0.324573
13	0xbd278874	-0.040901616
14	0x3fa843b9	1.3145667
15	0x3eb2f594	0.34952986
16	0xbeb57fcc	-0.35449064
17	0xbed941b5	-0.42432943
18	0xbf120fcd	-0.5705536
19	0x3e4ebde4	0.20189625
20	0x3ec80e02	0.39073187
21	0xbed382d6	-0.41310757
22	0xbeabc224	-0.33546555
23	0xbf7f1be7	-0.9965195
24	0x3ed91c20	0.4240427
25	0xbed167a4	-0.40899384
26	0x3eb00bae	0.3438391
27	0xbf03e722	-0.51524556
28	0xbf0a7d63	-0.54097575
29	0x3e2ba1e0	0.16760969
30	0x3f1efd72	0.62105477
31	0x3ee931e5	0.4554588
32	0xbdeb0954	-0.114763886
33	0x3e2027b1	0.15640141
34	0x3f00616e	0.50148666
35	0x3e16bb7d	0.14719959
36	0xbf38e71f	-0.7222766
37	0x3ecac052	0.39599854
38	0xbebc54b8	-0.36783385
39	0xbe5d26b9	-0.21596803
40	0xbf1ad4bd	-0.6048086
41	0x3f35c95f	0.7101039
42	0xbfa02c12	-1.2513449
43	0x3e258f10	0.16167855
44	0x3e47c25b	0.19507734
45	0xbeb46164	-0.35230553
46	0xbf16b6eb	-0.5887286
47	0x3d6f1aba	0.058375098
48	0x3e49913f	0.19684313
49	0xbf691e8c	-0.91062236
50	0x3dae99d0	0.08525431
51	0x3ef1161b	0.47087178
52	0xbf04eee8	-0.5192704
53	0xbed5d791	-0.41766027
54	0xbef85025	-0.48498645
55	0xbf063213	-0.5242016
56	0xbf4584e5	-0.77155906
57	0xbe3315e7	-0.17488824
58	0xbd869adb	-0.06572505
59	0xbec6c5c4	-0.38822758
60	0x3e78a3d7	0.2428125
61	0x3e85d6fe	0.2614059
62	0xbef7bd62	-0.48386675
63	0xbf083d4f	-0.5321855
64	0xbe3f5980	-0.18686485
65	0xbe1677aa	-0.14694086
66	0xbf196aac	-0.59928393
67	0xbdace166	-0.08441429
68	0xbedb6f7b	-0.4285849
69	0xbed769e3	-0.42072973
70	0xbf1f0290	-0.62113285
71	0x3f14367f	0.57895654
72	0xbf0f6a08	-0.56021166
73	0xbf444a0a	-0.76675475
74	0x3ed87bb3	0.42281875
75	0x3d0a6b44	0.033793703
76	0xbf487213	-0.78299063
77	0x3e30594c	0.17221564
78	0xbe8802cf	-0.26564643
79	0xbed12f0b	-0.40856203
80	0x3dc5443f	0.096321575
81	0xbec57c63	-0.38571462
82	0x3ec7a9c9	0.38996723
83	0xbe1d6b90	-0.15373063
84	0x3e9b9afb	0.30391678
85	0xbe78a189	-0.24280371
86	0x3f8af025	1.0854536
87	0x3d2a0bfe	0.041515343
88	0xbd79cf57	-0.06098875
89	0x3c808f8b	0.015693447
90	0xbd6f8122	-0.05847276
91	0x3e24ca14	0.16092712
92	0x3e50e554	0.20399982
93	0x3eef0ae8	0.46688008
94	0x3fa07c83	1.2537998
95	0xbe563e9d	-0.20922323
96	0xbf2c4063	-0.67285746
97	0x3e1f758e	0.15572187
98	0xbf4eb286	-0.80741155
99	0xbe8e03f9	-0.27737406
100	0xbf0fc476	-0.5615915
101	0xbe7aa45b	-0.24476759
102	0x3f580121	0.8437672
103	0x3f6e42b4	0.9307053
104	0xbe84afc6	-0.25915354
105	0xbef3df78	-0.4763143
106	0x3f144d7d	0.5793074
107	0x3f2a321b	0.66482705
108	0xbf1e23f9	-0.6177364
109	0x3eb317c8	0.3497908
110	0xbee63b2f	-0.44967028
111	0x3ed1c325	0.40969196
112	0xbdcbe90b	-0.09956559
113	0xbf151733	-0.58238524
114	0xbed49876	-0.41522568
115	0x3c984576	0.018587809
116	0x3eef6914	0.46759856
117	0xbe0c32e7	-0.13691293
118	0x3ee05c0b	0.43820223
119	0x3f762d47	0.9616284
120	0xbe8925ce	-0.26786655
121	0xbe02e588	-0.12782872
122	0x3f211c3b	0.629337
123	0xbec3ae7d	-0.38219061
124	0x3ee6937c	0.45034397
125	0xbe9ad096	-0.30237263
126	0xbebc42f7	-0.3676984
127	0x3f3fd745	0.7493785
128	0xbeb87192	-0.36024147
129	0x3f1d06fa	0.6133877
130	0xbe3d52f9	-0.18488683
131	0x3de70820	0.112808466
132	0xbe31dc00	-0.1736908
133	0xbf8f5835	-1.1198794
134	0x3e841dbf	0.25803944
135	0xbebf8bf8	-0.37411475
136	0xbf03053b	-0.51179856
137	0xbea8ec34	-0.3299271
138	0xbf142721	-0.57872206
139	0xbf10fa5b	-0.5663201
140	0x3bdfeb83	0.006833495
141	0xbe73749b	-0.2377495
142	0xbe4fb3cd	-0.20283432
143	0x3d8151f8	0.063144624
144	0x3ce665ed	0.028124774
145	0xbea22b72	-0.3167377
146	0x3dbc1d6b	0.091852985
147	0x3e811a7f	0.25215527
148	0xbf2cbf73	-0.6747963
149	0xbe891907	-0.26776907
150	0x3e9961c5	0.29957405
151	0x3f771acf	0.9652528
152	0xbe0e69cf	-0.1390755
153	0xbf3b44dd	-0.7315195
154	0x3e4d6449	0.20057787
155	0x3e3866d6	0.18007979
156	0x3d003587	0.031301048
157	0xbeab2f94	-0.33434737
158	0x3e7409a0	0.23831797
159	0xbe9452c0	-0.28969383
160	0xbe211c2d	-0.15733404
161	0xbe831b94	-0.25606978
162	0x3e2d824d	0.16944237
163	0xbed8843d	-0.4228839
164	0x3dce6b5a	0.100790694
165	0x3f3ae3c7	0.7300381
166	0x3f064b4a	0.5245863
167	0xbefa7eef	-0.48924968
168	0xbe68157c	-0.22664446
169	0xbf14e94d	-0.5816849
170	0x3ddbf461	0.10739971
171	0x3e0677bc	0.13131613
172	0x3e64cedd	0.22344537
173	0xbf151553	-0.58235663
174	0x3eb698f2	0.35663563
175	0xbe66247e	-0.22474858
176	0x3eda7f67	0.42675325
177	0x3ed6c215	0.41944948
178	0xbf9da43a	-1.2315743
179	0xbd91f1bf	-0.071261875
180	0xbe7d7734	-0.24752504
181	0x3f514e12	0.8175975
182	0x3e9ec036	0.3100602
183	0x3eb84d7f	0.35996625
184	0xbe14a6ce	-0.14516756
185	0x3e4e1e8f	0.20128845
186	0x3e2963c2	0.16541961
187	0xbf13aaf9	-0.5768276
188	0xbeddac8b	-0.43295702
189	0x3c1ea1bc	0.009682115
190	0x3ebbd680	0.36687088
191	0x3ecf330d	0.40468636
192	0xbf2864af	-0.6577863
193	0x3de705c0	0.112803936
194	0x3ba79be5	0.0051150196
195	0xbe694a87	-0.22782336
196	0x3f37b474	0.71759725
197	0x3f35931c	0.70927596
198	0x3eb6b1e3	0.35682592
199	0x3e3e2bce	0.18571398
200	0xbf196fd9	-0.5993629
201	0x3f085754	0.5325825
202	0xbf2a0625	-0.66415626
203	0x3f3b691e	0.7320727
204	0x3d0e3bbd	0.03472494
205	0x3f0d7f89	0.5527273
206	0x3f089c34	0.5336335
207	0x3e755be4	0.23960835
208	0x3eaecabc	0.3413905
209	0x3f5cd28b	0.86258763
210	0x3f31b3d8	0.69415045
211	0xbf22cf9d	-0.6359804
212	0xbf098505	-0.53718597
213	0xbf444b8f	-0.76677793
214	0xbd6dad67	-0.058026697
215	0x3e17f80e	0.14840719
216	0x3dc60d1d	0.0967047
217	0x3e359894	0.17733985
218	0x3dff246b	0.12458118
219	0xbf8b508b	-1.0883955
220	0xbe4897c6	-0.19589147
221	0x3f04b271	0.5183478
222	0xbd5db891	-0.054131094
223	0xbf8cd67d	-1.1002957
224	0x3faa2936	1.3293827
225	0x3fa59f78	1.2939291
226	0x3e263aa9	0.16233315
227	0xbe6edf55	-0.23327382
228	0xbf377d2c	-0.7167537
229	0xbebb5a1c	-0.36592185
230	0x3e2ee889	0.17080893
231	0x3ea7b1f7	0.32752964
232	0xbe03197a	-0.12802687
233	0x3ec81723	0.39080152
234	0xbcfa72c3	-0.0305723
235	0xbbe0b88e	-0.006857938
236	0xba9b9952	-0.0011871255
237	0x3ec57b02	0.3857041
238	0xbd675756	-0.056479774
239	0x3ef97de6	0.48728865
240	0x3d8a3bfa	0.06749721
241	0x3f21133b	0.6291997
242	0x3ebcc7f7	0.3687131
243	0x3ea60cc0	0.32431602
244	0x3f43837b	0.763725
245	0x3f2012cd	0.6252869
246	0x3e6633cf	0.22480701
247	0x3f31aec2	0.69407284
248	0xbf456216	-0.7710279
249	0xbf26e380	-0.6519089
250	0xbf09f282	-0.5388566
251	0x3e02b034	0.12762529
252	0xbf21d84d	-0.63220674
253	0xbeea00da	-0.45703775
254	0x3e0b3859	0.13595714
255	0xbe5b7cbc	-0.21434301

feature.bias_ih_l0 f4 [512]
0	0xbe060a56	-0.1308988
1	0xbe0619f3	-0.13095836
2	0xbc39049b	-0.011292602
3	0x3e8f8cca	0.280371
4	0xbe8bf605	-0.27336136
5	0xbe2ab561	-0.16670753
6	0x3e0e4f15	0.13897355
7	0x3dee6af2	0.11641492
8	0x3e6b3be7	0.2297207
9	0xbd72bf88	-0.05926469
10	0x3ea23856	0.31683606
11	0x3e269507	0.16267787
12	0x3e381316	0.1797603
13	0xbe884395	-0.2661406
14	0x3e4b9497	0.19880901
15	0xbea12061	-0.31470016
16	0x3d0aea7a	0.03391502
17	0x3ed63497	0.41836998
18	0xbd7bbad4	-0.06145747
19	0x3e1e7963	0.15475993
20	0xbec4734a	-0.3836921
21	0xbe6ce6c0	-0.23134899
22	0xbde7686c	-0.11299214
23	0x3f0b00bb	0.5429799
24	0xbef3299a	-0.47492677
25	0x3ee05414	0.43814147
26	0x3e664c03	0.22489934
27	0x3f66c319	0.90141445
28	0x3e292dbc	0.16521353
29	0x3d842ccd	0.064538576
30	0x3f2bb57b	0.6707379
31	0xbe0e4745	-0.13894375
32	0xbe86f376	-0.2635762
33	0x3c98ffbd	0.018676633
34	0x3f29a696	0.66269815
35	0x3f59f90c	0.8514564
36	0x3f3aa001	0.72900397
37	0xbc6fb4fb	-0.014630551
38	0x3dc52168	0.09625512
39	0x3d9ba6e4	0.07600191
40	0x3e52f05c	0.20599502
41	0x3f023ab5	0.5087083
42	0x3f2d838e	0.6777886
43	0xbdb60699	-0.08887977
44	0x3ee6c7a2	0.45074183
45	0x3d406573	0.04697175
46	0xbe1886f7	-0.14895235
47	0xbe4d73cb	-0.20063703
48	0x3e3db830	0.18527293
49	0x3d5418c8	0.051781446
50	0xbda266ee	-0.079297885
51	0x3e82a380	0.25515366
52	0x3f3e13ca	0.74248946
53	0x3f0a443f	0.54010385
54	0x3e3eb4f9	0.18623723
55	0xbebaa8fb	-0.36457047
56	0x3ed95f83	0.42455682
57	0xbdc126bc	-0.09431216
58	0x3ec517c6	0.384947
59	0x3ec0997b	0.37617096
60	0x3e1472f4	0.14496976
61	0x3ebec53e	0.3725986
62	0xbe02a91b	-0.12759821
63	0x3f02cb5e	0.51091564
64	0xbeb4c3af	-0.35305545
65	0xbddddb3b	-0.108328305
66	0x3e555ff3	0.20837383
67	0xbda2d7ea	-0.079513386
68	0x3e21da63	0.15805964
69	0x3e8b15ef	0.27165172
70	0x3f9874e3	1.1910671
71	0x3f1516b2	0.58237755
72	0xbe00f05b	-0.12591688
73	0x3d71e68d	0.05905776
74	0x3fbf5d45	1.4950339
75	0xbec5f946	-0.38666743
76	0x3f4496f4	0.76792836
77	0x3fe29451	1.7701513
78	0x3e80c4ea	0.25150234
79	0x3ebfab4e	0.37435383
80	0x3eeb17fd	0.4591674
81	0xbd03632d	-0.032077003
82	0x3f433fd5	0.76269275
83	0x395c8567	0.00021030531
84	0x3dd33452	0.10312714
85	0x3e1942cf	0.14966892
86	0xbdc78730	-0.09742582
87	0x3e2dc917	0.16971241
88	0xbebc890e	-0.36823314
89	0x3f5832a3	0.84452266
90	0xbd950720	-0.072767496
91	0x3f710a55	0.9415639
92	0x3e0ee65c	0.13955063
93	0x3f02e18d	0.51125413
94	0x3da7e30e	0.08197604
95	0x3d17e0d7	0.03707966
96	0x3ed1c6bb	0.40971932
97	0xbe6fcf16	-0.23418841
98	0xbe9c6948	-0.30549073
99	0x3e82945b	0.2550381
100	0x3b18c3fc	0.0023310175
101	0x3d8c05c6	0.06837039
102	0x3edf54d4	0.43619406
103	0xbd9e84b9	-0.077401586
104	0xbde69a9c	-0.11259958
105	0x3f0d63e1	0.5523053
106	0x3e0c9d2c	0.13731831
107	0x3e24d31a	0.16096154
108	0x3f1a5dd8	0.60299444
109	0x3ee0fd18	0.43943095
110	0x3dbc087a	0.09181304
111	0x3edc1461	0.42984298
112	0xbbdd6413	-0.0067563145
113	0x3d556ed1	0.052107636
114	0x3eb07faf	0.34472415
115	0xbe23db88	-0.16001713
116	0xbd020895	-0.031746466
117	0x3ec63afa	0.3871687
118	0xbdbee815	-0.0932161
119	0x3f1df6a2	0.61704457
120	0xbea867a5	-0.32891575
121	0x3efafb44	0.49019825
122	0x3ead5c9e	0.33859724
123	0x3f4bb400	0.79571533
124	0x3f95941b	1.1685823
125	0xbe2043df	-0.15650891
126	0x3e511545	0.2041827
127	0xbe0f6d92	-0.14006642
128	0xbe4bece3	-0.19914584
129	0xbecd1726	-0.40056723
130	0xbd860b48	-0.065451205
131	0x3e32c48d	0.1745779
132	0xbd8cf9c8	-0.068835795
133	0xbe2fddda	-0.17174473
134	0x3cadb050	0.021202236
135	0xbf022ebb	-0.50852555
136	0xbdb3f8e3	-0.08787706
137	0x3ddcdd27	0.10784369
138	0xbee974f9	-0.45597056
139	0x3d0d8134	0.034547046
140	0xbe47804a	-0.19482532
141	0x3eaa43e1	0.33254912
142	0xbe174c8a	-0.14775291
143	0xbe0923f6	-0.13392624
144	0xbd0c5608	-0.034261733
145	0xbedb84fe	-0.42874902
146	0xbebdbead	-0.37059537
147	0xbe589e85	-0.2115422
148	0xbee74ec9	-0.45177296
149	0x3cd0d754	0.025493301
150	0xbdd3cdf2	-0.10342015
151	0xbe877cce	-0.26462406
152	0xbf2f233c	-0.6841314
153	0x3d9cd95d	0.07658646
154	0xb80778cf	-3.229902e-05
155	0xbea61b0e	-0.32442516
156	0x3e2d0b21	0.16898777
157	0xbd1e40a6	-0.038635872
158	0xbe295189	-0.1653501
159	0xbdd692a7	-0.104771905
160	0x3dbdc390	0.09265816
161	0xbec27ab1	-0.3798423
162	0x3ede4d4d	0.4341835
163	0xbf02b57e	-0.51058185
164	0x3f5602f3	0.8359825
165	0x3eeff15c	0.4686383
166	0xbeca970d	-0.39568368
167	0xbf22f312	-0.63652146
168	0xbcaf39a1	-0.021389784
169	0xbe5833a1	-0.21113445
170	0xbe696e67	-0.22796021
171	0xbe879cde	-0.26486868
172	0xbdb96d0a	-0.09054001
173	0x3e2d4767	0.16921769
174	0x3deed95b	0.11662551
175	0xbf1c2fb5	-0.61010295
176	0x3e6b60e7	0.22986184
177	0x3dfd2956	0.123614
178	0x3e053adc	0.13010734
179	0x3e8ebc42	0.27878004
180	0xbe3f3152	-0.18671158
181	0xbec83196	-0.3910033
182	0x3cd4f480	0.025995493
183	0xbf111b82	-0.566826
184	0xbe1ab040	-0.15106297
185	0xbe6d8805	-0.23196419
186	0xbec54d06	-0.38535327
187	0xbefab786	-0.48968142
188	0xbe410bb1	-0.18852116
189	0x3e490470	0.19630599
190	0xbe9a62a1	-0.30153373
191	0xbda7605c	-0.08172676
192	0xbefff9af	-0.4999518
193	0xbbabed92	-0.0052468264
194	0x3ebca02e	0.36840957
195	0xbf0b9e80	-0.54538727
196	0x3de20bdb	0.110374175
197	0xbd82ec31	-0.06392706
198	0xbe96a97a	-0.29426175
199	0x3aabe090	0.001311319
200	0xbe61dc8b	-0.22056787
201	0xbe20b546	-0.1569415
202	0x3e1bb7d6	0.15206847
203	0xbe4e3538	-0.20137489
204	0xbeb49db9	-0.35276583
205	0x3ccb1922	0.024792258
206	0x3ea273b6	0.31728905
207	0xbd1cd6bb	-0.03829072
208	0x3ddd0b7d	0.10793207
209	0xbe4d831f	-0.2006955
210	0xbefc54a7	-0.49283335
211	0xbdc8dcbd	-0.098077275
212	0xbf00fc26	-0.5038475
213	0x3d64ff89	0.05590776
214	0xbe156525	-0.14589365
215	0xbf73f969	-0.95302445
216	0xbf31ffe8	-0.69531107
217	0xbf1e4f9c	-0.61840224
218	0x3d9fef4c	0.07809314
219	0xbe8fbac2	-0.28072172
220	0xbdb2ee18	-0.08736819
221	0xbe9c72ac	-0.30556238
222	0xbf1bb16e	-0.6081761
223	0xbde13108	-0.1099568
224	0x3d9de40b	0.07709511
225	0xbed2a144	-0.4113866
226	0xbdceb001	-0.10092164
227	0xbd0f2caa	-0.034954704
228	0xbea2c9da	-0.31794626
229	0xbe20528d	-0.1565649
230	0xbe926494	-0.2859236
231	0xbdf535d7	-0.1197316
232	0xbdd14c5c	-0.102196425
233	0xbe8f91d5	-0.2804095
234	0xbeef0a39	-0.46687487
235	0x3dd53210	0.10409939
236	0x3ead6c73	0.33871803
237	0xbf0ac799	-0.5421081
238	0xbecb5bf5	-0.39718595
239	0xbf06c1f8	-0.5263972
240	0x3e128260	0.14307547
241	0xbe990d73	-0.29893073
242	0xbea158b7	-0.31512997
243	0x3d893534	0.06699601
244	0xbe1c3d60	-0.15257788
245	0xbea7c47a	-0.32767087
246	0xbe54bb87	-0.20774661
247	0xbf180459	-0.59381634
248	0xbec3ea97	-0.38264915
249	0xbe0edc58	-0.13951242
250	0xbe1038f4	-0.14084226
251	0xbe154248	-0.14576066
252	0x3e9420ad	0.2893118
253	0x3e14c5f5	0.1452864
254	0x3e7ff633	0.24996261
255	0x3e8371f9	0.25672892

feature.bias_hh_l0 f4 [512]
0	0xbe23e847	-0.16006576
1	0xbdad84f0	-0.084726214
2	0xbdca9352	-0.0989138
3	0x3e8ec39f	0.27883622
4	0xbe01bc68	-0.12669528
5	0xbe0272d3	-0.12739114
6	0x3cc8d250	0.024514347
7	0x3e798d18	0.24370229
8	0x3e8b48b9	0.2720392
9	0x3dd91c40	0.106010914
10	0x3e3cb17d	0.18427081
11	0x3dff9fd7	0.12481659
12	0x3dd2a80f	0.10285961
13	0xbe8b7bbc	-0.2724284
14	0x3e4e9074	0.20172292
15	0xbecc3878	-0.39886832
16	0x3e01e7a0	0.12686014
17	0x3ee60467	0.44925234
18	0xbd9ba2be	-0.075994
19	0x3e274a78	0.16337001
20	0xbed305b8	-0.412153
21	0xbedc07e4	-0.4297477
22	0xbd913907	-0.07090955
23	0x3f0ca59e	0.5494021
24	0xbeba495d	-0.36384097
25	0x3ea26f50	0.3172555
26	0x3e26a698	0.16274488
27	0x3f593c6c	0.8485782
28	0x3e98f911	0.29877523
29	0x3c0186de	0.00790569
30	0x3f437697	0.7635283
31	0xbe641a89	-0.22275747
32	0xbe9455e5	-0.28971782
33	0xbcc5889f	-0.024112998
34	0x3f292596	0.66072977
35	0x3f30c93e	0.6905707
36	0x3f2b7f67	0.66991276
37	0xbd55e882	-0.05222369
38	0x3b7d0ae1	0.003861122
39	0x3bcafd88	0.006194774
40	0x3ea2153e	0.31656832
41	0x3f23f052	0.64038575
42	0x3f391c4d	0.7230881
43	0xbda4fcc2	-0.08056022
44	0x3ed45968	0.41474462
45	0x3c8a16d9	0.016856598
46	0xbd94bc41	-0.07262469
47	0xbe41c7b1	-0.18923832
48	0x3d279b45	0.04091956
49	0xbd85c926	-0.06532507
50	0xbdfdea84	-0.12398246
51	0x3ebcab97	0.36849663
52	0x3f375244	0.716099
53	0x3ee15b4a	0.4401496
54	0x3ede550d	0.43424264
55	0xbe85449b	-0.26028904
56	0x3e752259	0.23938884
57	0xbc8808b9	-0.016605722
58	0x3ede1694	0.433766
59	0x3ec8f49b	0.3924912
60	0x3e277cfb	0.1635627
61	0x3e76f5ec	0.24117249
62	0xbdfed0cc	-0.124421686
63	0x3e9883c3	0.29788026
64	0xbe99e98e	-0.30061
65	0xbe0c0fe9	-0.13677944
66	0x3e7615e9	0.24031796
67	0xbd3731b2	-0.044725128
68	0x3dbd97e7	0.09257489
69	0x3e87cd2e	0.26523727
70	0x3f94683a	1.1594307
71	0x3f244e42	0.6418191
72	0xbdeca55e	-0.11554979
73	0x3d52030d	0.05127244
74	0x3fafcd32	1.3734496
75	0xbebefeb5	-0.373037
76	0x3f63d987	0.89003795
77	0x3fe5552b	1.7916616
78	0x3e225fd6	0.15856871
79	0x3e550531	0.20802762
80	0x3ee61d37	0.44944164
81	0x3d8d2563	0.068918966
82	0x3f596823	0.84924525
83	0x3e0eb993	0.13937978
84	0x3da40033	0.080078505
85	0x3e2b4897	0.1672691
86	0xbc0d37ae	-0.008619232
87	0x3e3bfd69	0.18358387
88	0xbe2ca8be	-0.16861245
89	0x3f532858	0.82483435
90	0x3c20ebd9	0.009821855
91	0x3f6b772c	0.91978717
92	0x3e12f76d	0.14352198
93	0x3ee86a83	0.45393762
94	0x3ddd4a57	0.10805195
95	0xbc2f8f8e	-0.010715378
96	0x3e98a685	0.29814544
97	0xbe10ef81	-0.14153863
98	0xbe8a7e41	-0.2704945
99	0x3e594b77	0.21220194
100	0x3da90d7b	0.08254524
101	0xbd8be825	-0.068313874
102	0x3eba140d	0.36343423
103	0xbce44105	-0.027863035
104	0xbe4e689e	-0.20157096
105	0x3ee42a3e	0.44563478
106	0x3e4800cd	0.19531555
107	0x3e5cdac3	0.21567826
108	0x3f3d5df5	0.7397149
109	0x3eee6028	0.46557736
110	0x3d7a6649	0.061132703
111	0x3eddb8a7	0.4330494
112	0xbda4415e	-0.0802028
113	0x3ce7c227	0.028290821
114	0x3ebdf925	0.37104145
115	0xbe578005	-0.2104493
116	0xbe5b5901	-0.21420671
117	0x3e489877	0.1958941
118	0xbcc84038	-0.024444684
119	0x3f21f4d5	0.6326421
120	0xbebb8330	-0.36623526
121	0x3ee111a6	0.43958777
122	0x3eafe066	0.3435089
123	0x3f6cd9ea	0.9252001
124	0x3f9ab70d	1.2087113
125	0xbdc7460c	-0.09730157
126	0x3d9a0e60	0.07522273
127	0xbe710aec	-0.23539323
128	0xbe401678	-0.18758571
129	0xbedbde8d	-0.4294323
130	0xbdbda937	-0.09260791
131	0x3dc41876	0.09574978
132	0xbe47bc80	-0.19505501
133	0xbdd18a4b	-0.102314554
134	0x3d0127f1	0.03153223
135	0xbef0eb7c	-0.4705466
136	0xbe8bca9e	-0.27303022
137	0x3cec7aba	0.028867114
138	0xbecde888	-0.4021647
139	0xbce4671d	-0.0278812
140	0xbe8aa55a	-0.27079278
141	0x3ed34ca8	0.41269422
142	0xbdf7f4bc	-0.12107226
143	0xbe6e4cda	-0.23271504
144	0x3c9065b6	0.017626625
145	0xbef62451	-0.48074582
146	0xbe930ed2	-0.28722245
147	0xbe2e7012	-0.17034939
148	0xbedbb38b	-0.42910418
149	0xbbb32384	-0.0054668803
150	0xbe16c69f	-0.14724205
151	0xbe7dab31	-0.24772336
152	0xbf3bfce9	-0.73432785
153	0x3e0e7f8f	0.13915847
154	0xbe143d40	-0.1447649
155	0xbea8ecf8	-0.32993293
156	0x3ea99846	0.33123988
157	0xbe25907f	-0.16168402
158	0xbe5c6303	-0.21522145
159	0x3d0cfac9	0.034418855
160	0x3dcb71a1	0.09933782
161	0xbea6b561	-0.32560256
162	0x3edafe81	0.42772296
163	0xbec26094	-0.37964308
164	0x3f2a3bd0	0.66497517
165	0x3f00e60f	0.5035104
166	0xbeac62d2	-0.33669144
167	0xbf2d6e4c	-0.67746425
168	0x3d625157	0.055253353
169	0xbe65225b	-0.22376387
170	0xbce723f0	-0.028215379
171	0xbe8a2d07	-0.26987478
172	0x3b748ece	0.0037316564
173	0x3de6de18	0.1127283
174	0x3e86b1d2	0.2630754
175	0xbedf4af6	-0.43611878
176	0x3e2d9298	0.16950452
177	0xbcb74282	-0.02237058
178	0x3e38edf7	0.18059526
179	0x3e5d03e2	0.21583512
180	0xbe443790	-0.1916182
181	0xbece7593	-0.40324077
182	0xbb3b59b3	-0.00285874
183	0xbf015707	-0.5052342
184	0xbde710d8	-0.112825096
185	0xbe4b7f61	-0.1987281
186	0xbecc4aab	-0.39900717
187	0xbf158257	-0.5840201
188	0x3ce2c9dd	0.027684147
189	0x3dbf3008	0.09335333
190	0xbe8b766d	-0.2723879
191	0xbc9f66a6	-0.019458126
192	0xbeb993bb	-0.36245522
193	0xbdb8de6b	-0.09026798
194	0x3e86ce89	0.2632945
195	0xbf13e8db	-0.57777184
196	0x3dafbd6f	0.085810535
197	0xbdd534a3	-0.1041043
198	0xbe96ac90	-0.2942853
199	0xbd87975a	-0.06620665
200	0xbe3a32c0	-0.18183422
201	0xbd177669	-0.03697816
202	0x3dfaf4b6	0.12253706
203	0xbe30d291	-0.17267825
204	0xbe9fbb55	-0.3119761
205	0xbde59dd9	-0.11211748
206	0x3ebca856	0.3684718
207	0xbe6fd2e5	-0.23420294
208	0x3ce573c8	0.02800931
209	0xbe9a9554	-0.30192053
210	0xbf0432e5	-0.5164016
211	0xbe4cb7f0	-0.19992042
212	0xbf14ea8b	-0.58170384
213	0x3da775a7	0.08176737
214	0xbe59e85e	-0.21280047
215	0xbf74892b	-0.955218
216	0xbf1d65a8	-0.6148324
217	0xbf2eb271	-0.6824103
218	0xbde5b799	-0.11216659
219	0xbeb6b02b	-0.3568128
220	0xbd2e917e	-0.04261922
221	0xbede9ff1	-0.434814
222	0xbf481440	-0.781559
223	0xbe43b1af	-0.1911075
224	0x3dae5691	0.08512605
225	0xbeb029b6	-0.34406823
226	0xbdbf9a91	-0.09355653
227	0xbdf81b45	-0.12114576
228	0xbe9cfa83	-0.30659875
229	0xbe378b77	-0.17924295
230	0xbebf9150	-0.37415552
231	0xbb9b51e0	-0.004739985
232	0xbdecacc7	-0.11556392
233	0xbeb28d56	-0.34873456
234	0xbf0b1067	-0.54321903
235	0x3eb2a320	0.3489008
236	0x3ef04a4b	0.4693168
237	0xbed08e3f	-0.40733525
238	0xbe7b447c	-0.24537843
239	0xbf1431b0	-0.5788832
240	0x3e14c4d1	0.14528205
241	0xbe72fa66	-0.23728332
242	0xbf09e2a0	-0.5386143
243	0x3de0d5ca	0.10978277
244	0xbe264632	-0.16237715
245	0xbda704fc	-0.081552476
246	0xbe1adfbd	-0.15124412
247	0xbec67dcd	-0.38767853
248	0xbee59b0a	-0.44844848
249	0xbe15d3fd	-0.14631648
250	0xbec3d88e	-0.38251156
251	0xbe803124	-0.2503749
252	0x3e8f72f3	0.28017387
253	0x3d830c1e	0.063987955
254	0x3e5f40b0	0.2180202
255	0x3ea9703c	0.3309344

feature.weight_ih_l0_reverse f4 [512, 64]
0	0x3f2cc764	0.67491746
1	0x3f15e766	0.5855621
2	0xbeee3a06	-0.46528643
3	0x3e667e3b	0.2250909
4	0xbf76a17e	-0.9634017
5	0xbe607130	-0.21918178
6	0x3f0e3f8d	0.5556572
7	0xbec9d651	-0.39421323
8	0xbcd7af69	-0.02632876
9	0x3ede6e33	0.4344345
10	0xbf5dfc60	-0.8671322
11	0x3e7e7a78	0.24851406
12	0xbf2fcc01	-0.6867066
13	0xbe68ac84	-0.2272206
14	0x3e830bfc	0.2559508
15	0xbda69ef1	-0.081357844
16	0x3e752381	0.23939325
17	0x3eb3a668	0.35087895
18	0xbecd0ac4	-0.40047276
19	0xbf25a5c8	-0.6470609
20	0x3ec71dec	0.38890016
21	0x3e9c7488	0.30557656
22	0xbeb1787d	-0.34662238
23	0xbe43be2f	-0.19115518
24	0xbef819ea	-0.4845727
25	0xbd7d24f9	-0.061802838
26	0x3f1be549	0.60896736
27	0xbe9ccd1e	-0.30625242
28	0x3e5e4249	0.21704973
29	0x3b3cdf44	0.00288196
30	0xbd110ed1	-0.03541452
31	0xbd230a24	-0.039804593
32	0x3f2c4789	0.67296654
33	0xbccf12cf	-0.025277523
34	0xbe52ae3f	-0.20574282
35	0xbec4f9e8	-0.38471913
36	0x3e88384e	0.26605457
37	0x3f9d6588	1.229661
38	0xbfa79e02	-1.3095095
39	0x3c40c86b	0.011766533
40	0x3e41963b	0.18904965
41	0xbce3c365	-0.027803132
42	0x3f3fc916	0.7491621
43	0xbee129d7	-0.43977234
44	0x3db73dbc	0.08947322
45	0x3ee5ccee	0.4488291
46	0xbf9db4f4	-1.2320848
47	0x3f260b07	0.64860576
48	0x3f079990	0.5296869
49	0x3e451d76	0.1924952
50	0xbf2cc62f	-0.67489904
51	0xbead9932	-0.3390594
52	0x3eee3818	0.4652717
53	0xbf2e6547	-0.68123287
54	0x3f978f88	1.1840677
55	0xbe6e8074	-0.23291188
56	0xbebde40e	-0.37088054
57	0xbd21c2ee	-0.03949254
58	0xbf3b5b3b	-0.7318608
59	0xbeaaef9e	-0.33385938
60	0x3e4e8197	0.20166622
61	0x3dffed8f	0.124964826
62	0xbef089a0	-0.4698
63	0xbe17789e	-0.14792106
64	0xbf49ac0e	-0.7877816
65	0x3f6cf33f	0.92558664
66	0xbe1f08c6	-0.1553069
67	0xbc7169e3	-0.014734718
68	0xbd4aa1b0	-0.049470603
69	0xbce51473	-0.027963853
70	0xbf78e713	-0.9722759
71	0x3f4608a4	0.77356935
72	0x3ecd9e48	0.40159822
73	0xbddb11e5	-0.106967725
74	0x3db9654a	0.090525225
75	0xbe2a413f	-0.16626452
76	0xbf6d2dea	-0.92648184
77	0x3edbb2a5	0.42909732
78	0x3c1131b1	0.008861945
79	0x3e1b6fae	0.15179321
80	0xbef88cbf	-0.4854488
81	0x3e3faecd	0.18719025
82	0x3e1d7eec	0.15380448
83	0xbfc4d2c3	-1.5376819
84	0xbe9348af	-0.2876639
85	0xbeacdfa5	-0.33764377
86	0xbf8ae3c2	-1.0850756
87	0x3eeedd80	0.46653366
88	0x3ee651d0	0.44984293
89	0x3f0197b2	0.50622094
90	0x3f157104	0.58375573
91	0xbe50aa63	-0.20377497
92	0xbf3347b4	-0.70031285
93	0x3e0f589b	0.13998644
94	0xbea8c896	-0.32965535
95	0x3e5af85c	0.21383804
96	0x3fbe56f1	1.4870282
97	0xbedbed43	-0.42954454
98	0xbf15613c	-0.5835149
99	0xbe0a7c7c	-0.1352405
100	0xbf1d981b	-0.6156022
101	0x3e06fed9	0.13183154
102	0xbca28d1a	-0.019842673
103	0x3f1e4290	0.61820316
104	0xbe8704ff	-0.26371
105	0x3e23d7e5	0.16000326
106	0xbcbf4a23	-0.02335078
107	0xbfa48d56	-1.2855632
108	0xbf81b6f2	-1.0133955
109	0x3e74ada0	0.23894358
110	0xbf09e219	-0.5386062
111	0x3dd94c9f	0.106103174
112	0xbf5b75a2	-0.8572637
113	0xbe2771f6	-0.16352066
114	0xbf6f9741	-0.9359017
115	0x3f07e6c7	0.53086513
116	0x3f072707	0.52793926
117	0xbf43caa6	-0.7648109
118	0x3f5a8516	0.85359323
119	0x3f527c87	0.82221264
120	0x3c8567f9	0.01628493
121	0xbe857109	-0.260628
122	0xbf594891	-0.8487635
123	0x3e254b0f	0.16141914
124	0xbc817268	-0.015801623
125	0x3e4b71c4	0.19867617
126	0xbdcf0160	-0.10107684
127	0x3d4d3c10	0.05010611
128	0x3f19caac	0.6007488
129	0xbf159e5b	-0.58444756
130	0xbf012b5b	-0.5045678
131	0x3f81d0ee	1.0141885
132	0xbe8c1584	-0.27360165
133	0xbdec4693	-0.115368985
134	0x3e9bd175	0.3043324
135	0x3e87ccbf	0.26523396
136	0x3e31fd7e	0.17381856
137	0x3e01fd63	0.12694316
138	0xbe907b8e	-0.28219265
139	0x3db731ae	0.089450225
140	0x3f65b36a	0.8972689
141	0xbe0e4db3	-0.13896827
142	0x3d42c17d	0.047547806
143	0xbe19c53d	-0.15016647
144	0x3f85d9fa	1.0457146
145	0x3f10217b	0.5630109
146	0xbe758766	-0.23977432
147	0xbf2575e6	-0.64633024
148	0xbe61e176	-0.22058663
149	0x3e99cff5	0.3004147
150	0x3f9635a2	1.1735117
151	0xbea34dc2	-0.31895262
152	0xbeaae6b2	-0.33379132
153	0xbede8ed8	-0.43468356
154	0xbeaadcd3	-0.333716
155	0x3ecfc7fd	0.40582266
156	0xbdd77080	-0.105195045
157	0x3f21c004	0.6318362
158	0xbec15292	-0.3775831
159	0xbe25b023	-0.16180472
160	0x3ebabd2d	0.36472455
161	0x3f412544	0.7544749
162	0xbf158232	-0.5840179
163	0xbecfbc41	-0.40573314
164	0xbf02761e	-0.5096148
165	0x3f78fb1b	0.97258157
166	0x3ed0cb2e	0.40780014
167	0x3f8a7f20	1.0820045
168	0xbf81ad1e	-1.0130956
169	0x3e84198c	0.2580074
170	0x3ec05fd7	0.3757312
171	0x3f98ccdc	1.1937518
172	0x3efb0c41	0.49032786
173	0x3e77dda9	0.2420565
174	0xbc138367	-0.009003497
175	0x3efe3ade	0.49654287
176	0xbf7f5a23	-0.9974691
177	0x3fcc7530	1.5973263
178	0x3eb97bc3	0.36227235
179	0xbf3f5fa3	-0.74755305
180	0x3f505474	0.81378865
181	0xbe1e4799	-0.15457
182	0xbf1b6570	-0.60701656
183	0xbf80c8ee	-1.0061319
184	0xbed83e01	-0.42234805
185	0xbf2aebff	-0.6676635
186	0xbe24827f	-0.16065405
187	0xbf2920f3	-0.660659
188	0xbf992a16	-1.1965969
189	0xbf44c04a	-0.7685591
190	0x3e49d68d	0.19710751
191	0xbfc12291	-1.5088674
192	0x3eb7adde	0.35874838
193	0x3f82fcdf	1.023342
194	0xbe7cd7ed	-0.24691744
195	0xbe527704	-0.20553213
196	0x3da7cec2	0.08193733
197	0xbd9660a3	-0.07342651
198	0xbe9c8583	-0.3057061
199	0x3f3f7b6b	0.74797696
200	0x3e72c069	0.23706211
201	0x3eb285ec	0.348678
202	0xbe7d89c8	-0.2475959
203	0xbdabfec1	-0.083982
204	0x3e83f8c7	0.2577574
205	0xbee715ce	-0.45133823
206	0x3f3d1ad7	0.7386908
207	0x3df76f40	0.12081766
208	0x3e05da4a	0.13071552
209	0x3eb5ddf3	0.35520896
210	0xbdba7647	-0.09104591
211	0x3f059973	0.5218727
212	0xbf10972a	-0.5648066
213	0x3f081a38	0.53165007
214	0x3f84323e	1.0327833
215	0xbed85fca	-0.4226058
216	0x3d035179	0.03206012
217	0xbf117397	-0.56817
218	0xbf6eaaf0	-0.9322958
219	0xbe54b179	-0.20770825
220	0xbd964ac6	-0.07338481
221	0x3f71dde7	0.9447922
222	0x3d865f65	0.06561164
223	0x3e8213b0	0.25405645
224	0xbf932c3d	-1.1497875
225	0xbebd0243	-0.36915788
226	0xbea83e3b	-0.32859978
227	0xbe8010ec	-0.2501291
228	0xbf0880c7	-0.533215
229	0x3e07c67d	0.13259311
230	0xbeaf899c	-0.34284675
231	0xbef84d60	-0.48496532
232	0x3ea07e97	0.3134658
233	0xbf1755ff	-0.59115595
234	0xbe8024af	-0.25027987
235	0x3ea6e125	0.32593647
236	0x3f096bc1	0.53680044
237	0x3f59e993	0.8512203
238	0x3f2b304a	0.6687056
239	0xbd298fe7	-0.041397
240	0xbddf1b8c	-0.10893926
241	0xbf2f213f	-0.68410105
242	0xbe5e0d61	-0.21684791
243	0xbf41efdb	-0.75756615
244	0xbd584c45	-0.05280711
245	0x3ec5531e	0.38539976
246	0x3f9e51ce	1.2368715
247	0xbf1219c0	-0.5707054
248	0x3f4e07fc	0.80480933
249	0xbf48eb39	-0.7848392
250	0xbf0536f5	-0.5203698
251	0x3f31620e	0.69290245
252	0xbeeff0f2	-0.46863514
253	0x3ef23b6e	0.47310966
254	0x3ea5c1fe	0.32374567
255	0xbdcf8dc0	-0.101344585

feature.weight_hh_l0_reverse f4 [512, 128]
0	0xbed62cc1	-0.4183102
1	0xbeff9971	-0.49921754
2	0x3ec30ce7	0.3809578
3	0x3e8336ac	0.2562765
4	0x3e0253ac	0.12727231
5	0x3dac2c18	0.08406848
6	0x3d20b1d1	0.03923208
7	0x3ee6e149	0.45093754
8	0xbded965f	-0.11600947
9	0xbe2f09f1	-0.17093636
10	0x3f4dc0f4	0.8037255
11	0x3d958f9c	0.07302782
12	0xbd6dd844	-0.058067575
13	0xbc69bda3	-0.014266404
14	0x3f5a9fd4	0.8540013
15	0x3ec43023	0.38317975
16	0xbd1f2bf3	-0.038860273
17	0x3e322127	0.17395459
18	0x3ef70965	0.48249355
19	0xbf6afa09	-0.91787773
20	0x3eb451c8	0.35218644
21	0x3f2dfac2	0.6796075
22	0xbf8d6ebb	-1.1049417
23	0x3f23fb07	0.6405491
24	0xbd216a13	-0.0394078
25	0xba1cb5fd	-0.0005978046
26	0xbdeca9ea	-0.11555846
27	0xbe841d37	-0.2580354
28	0xbf1edc1a	-0.620546
29	0xbf1b7c4b	-0.6073653
30	0x3e058262	0.13038018
31	0x3f18ef24	0.597399
32	0xbf1098de	-0.56483257
33	0xbe7d2c5d	-0.24723954
34	0x3e213669	0.15743412
35	0xbe8dc3d8	-0.2768848
36	0x3f93608a	1.1513836
37	0xbe56d9e6	-0.20981559
38	0x3e1d173a	0.15340891
39	0xbdc5d7aa	-0.09660275
40	0x3e6464c0	0.22304058
41	0x3e2f5ba3	0.171248
42	0x3dca301e	0.09872459
43	0xbea53872	-0.32269627
44	0x3e40930c	0.18806094
45	0xbe9e0258	-0.30861163
46	0xbe35b613	-0.17745237
47	0xbd9632af	-0.07333886
48	0xbe77c655	-0.24196751
49	0xbdc328ef	-0.09529292
50	0x3eda0f99	0.42590025
51	0xbdaa6911	-0.08320821
52	0x3e4e8e0a	0.20171371
53	0x3e96e649	0.2947257
54	0x3f39d288	0.7258687
55	0xbe4f61d6	-0.20252165
56	0x3eac5325	0.33657184
57	0xbdd53a7c	-0.10411546
58	0x3d429c5e	0.047512405
59	0x3ecd5193	0.401013
60	0x3fabb443	1.3414387
61	0xbcc264ad	-0.023729647
62	0xbc8cc617	-0.0171843
63	0x3e699f2d	0.22814627
64	0x3dabe28e	0.08392821
65	0xbe4f39f9	-0.20236959
66	0xbebfc09e	-0.37451643
67	0xbe41be78	-0.18920314
68	0xbe3d72b3	-0.18500786
69	0x3e57a6ea	0.21059766
70	0xbeb01bd4	-0.3439623
71	0x3eca1d28	0.3947537
72	0xbea78a1b	-0.32722554
73	0x3f407e09	0.75192314
74	0xbcfdc414	-0.030977286
75	0xbe120e2d	-0.1426322
76	0xbf6ef027	-0.93335193
77	0xbed1d6fa	-0.40984327
78	0x3e68fc06	0.2275239
79	0xbe81349d	-0.25235453
80	0x3e15b41b	0.14619486
81	0x3e912b5b	0.2835339
82	0xbffe1887	-1.9851235
83	0x3e8c43c0	0.2739544
84	0x3f21c730	0.6319456
85	0xbef560fb	-0.47925553
86	0xbf087655	-0.5330556
87	0x3f70558c	0.93880534
88	0xbd286911	-0.041115824
89	0x3cfe58fd	0.031048292
90	0x3bf8bb0f	0.0075906585
91	0x3dc6d8d4	0.097093254
92	0xbe111b93	-0.14170675
93	0xbe474e43	-0.19463448
94	0xbea4d62d	-0.32194653
95	0x3f60ce7e	0.8781508
96	0x3e939ace	0.28829044
97	0xbdc899bc	-0.097949475
98	0x3f6ad30d	0.9172829
99	0x3e9abb2e	0.30220932
100	0x3f81e77f	1.0148772
101	0xbdb9a7d6	-0.09065215
102	0x3e3fde19	0.18737067
103	0xbf00160e	-0.5003365
104	0xbdb7846f	-0.089608066
105	0x3e8c5865	0.2741119
106	0xbf02b0b2	-0.51050866
107	0xbdaac545	-0.083384074
108	0xbe1d1b17	-0.15342365
109	0x3e6e8538	0.23293006
110	0xbe899d43	-0.26877794
111	0xbf05df62	-0.5229398
112	0x3f28e643	0.6597635
113	0x3ecf7422	0.4051829
114	0xbe91dd2b	-0.2848905
115	0xbf15e008	-0.5854497
116	0xbe11ac95	-0.14225991
117	0x3b77367b	0.0037721682
118	0x3c93d1ba	0.018044341
119	0x3b3f08e5	0.0029149589
120	0xbf09df60	-0.5385647
121	0x3e17e517	0.14833485
122	0x3a9b81d8	0.0011864258
123	0xbf6457f7	-0.89196724
124	0x3dd8d475	0.10587398
125	0xbd86a6a9	-0.06574757
126	0xbf1a4d30	-0.6027403
127	0xbed042b1	-0.40675882
128	0xbd4749d3	-0.04865439
129	0xbeef3e12	-0.46727043
130	0xbe4e158a	-0.20125404
131	0x3e2ab004	0.16668707
132	0xbf76bb5e	-0.9637965
133	0x3ec84743	0.39116868
134	0x3efa95e9	0.48942497
135	0xbf4bc8ba	-0.7960316
136	0x3e42283f	0.18960665
137	0xbf2448c6	-0.64173543
138	0xbe973202	-0.2953034
139	0x3e919bc8	0.28439164
140	0xbda071c2	-0.078341976
141	0x3c7256e6	0.014791226
142	0x3ea69135	0.3253266
143	0x3a97a1cf	0.0011568608
144	0x3ed7cb46	0.42147273
145	0x3ef56dc9	0.47935322
146	0x3d1bbcc8	0.038021833
147	0xbd0a9a63	-0.03383864
148	0x3e4744ff	0.19459914
149	0xbe5271d5	-0.20551236
150	0xbe0dfb01	-0.13865282
151	0xbede4166	-0.4340927
152	0xbe242fdf	-0.16033886
153	0xbf2e490b	-0.68080205
154	0x3eebfd25	0.4609157
155	0xbf1f90b3	-0.6233017
156	0xbe46e3a3	-0.19422774
157	0xbeadf18a	-0.33973342
158	0xbd512784	-0.051063076
159	0x3eb85347	0.36001036
160	0xbceae3cb	-0.028673073
161	0x3ef1f684	0.4725839
162	0x3de278e4	0.11058214
163	0x3e228af7	0.15873323
164	0x3e2fd367	0.17170487
165	0x3e986692	0.29765755
166	0xbf1139c3	-0.5672876
167	0x3e9a3cb9	0.30124453
168	0xbe6e20d4	-0.2325471
169	0xbda29d4b	-0.079401575
170	0x3daefa18	0.08543795
171	0x3d1f56f1	0.038901273
172	0x3e531922	0.20615056
173	0xbf1b67dc	-0.6070535
174	0xbd7ef08d	-0.062241126
175	0x3d4bd240	0.049761057
176	0xbf272fd0	-0.6530733
177	0x3de26c31	0.11055792
178	0x3d330785	0.043708343
179	0xbe5b09dd	-0.21390481
180	0x3eae4b6e	0.34041923
181	0xbe4745ca	-0.19460216
182	0x3e1c3a4c	0.15256613
183	0xbf110cf1	-0.5666037
184	0x3e55e51a	0.20888177
185	0xbf10e143	-0.5659372
186	0xbeb94a8d	-0.3618969
187	0xbe2fc84d	-0.17166252
188	0x3eb3fe38	0.3515489
189	0x3e8df5fe	0.2772674
190	0x3de21424	0.11038998
191	0xbf21972c	-0.63121295
192	0x3d8ae6fc	0.06782338
193	0x3e4e0a3d	0.20121093
194	0x3ee3be2f	0.44481036
195	0x3ea2d5ef	0.31803843
196	0xbf2c31cb	-0.6726348
197	0xbdf9dcbb	-0.12200304
198	0xbaed7a37	-0.0018118088
199	0xbe5866d2	-0.21132973
200	0xbed57040	-0.41687202
201	0x3eb0abef	0.34506175
202	0x3ed55b8b	0.41671404
203	0xbdcc0a77	-0.099629335
204	0xbe815cd4	-0.25266135
205	0xbf2395f3	-0.6390068
206	0x3e8cd1fb	0.27503952
207	0x3f225449	0.6340986
208	0x3e1ff37e	0.15620229
209	0xbe36ec3a	-0.17863551
210	0x3e37b399	0.17939605
211	0xbe0b96a4	-0.13631684
212	0x3f8a4a37	1.0803899
213	0x3f0b3804	0.5438235
214	0x3f37813d	0.71681577
215	0x3f018b9f	0.5060367
216	0xbf28f211	-0.65994364
217	0xbda0fafe	-0.07860373
218	0x3f195b3c	0.5990484
219	0xbdebd100	-0.11514473
220	0x3ceb7272	0.028741095
221	0x3e241bc6	0.1602622
222	0xbff73f90	-1.9316273
223	0xbe9bfd5d	-0.30466738
224	0xba9bba27	-0.0011881039
225	0xbec3b9a2	-0.38227564
226	0xbd7d26fe	-0.061804764
227	0xbe90b6dc	-0.2826451
228	0xbe53ed72	-0.20696047
229	0xbfae8191	-1.363329
230	0x3e3eaf14	0.18621475
231	0x3e142c84	0.14470106
232	0x3eb2928d	0.34877434
233	0xbeae15e7	-0.34001085
234	0x3d94d74e	0.072676286
235	0x3e51d08e	0.20489714
236	0xbab87636	-0.0014073316
237	0x3cf65f32	0.03007469
238	0xbe178daa	-0.14800134
239	0x3d57e0d8	0.052704662
240	0x3e70cf5b	0.235166
241	0xbe83c2c3	-0.2573453
242	0x3f118565	0.5684417
243	0xbe9412be	-0.2892055
244	0xbf3baa20	-0.73306465
245	0x3e942b34	0.2893921
246	0xbf3717aa	-0.71520483
247	0xbe941d36	-0.28928536
248	0x37cf8293	2.4737126e-05
249	0xbd91540d	-0.070961095
250	0x3f658099	0.8964935
251	0xbeafc8fb	-0.34333023
252	0x3e5a0e34	0.2129448
253	0xbdac9889	-0.08427531
254	0xbeef7636	-0.46769875
255	0x3e2742e8	0.16334116

feature.bias_ih_l0_reverse f4 [512]
0	0x3ecfcef7	0.4058759
1	0xbe838777	-0.2568929
2	0xbe7d9ae3	-0.24766116
3	0x3d8b660b	0.068065725
4	0x3ef5cb41	0.48006633
5	0x3d6188a0	0.055061936
6	0x3f0747e4	0.5284407
7	0x3e9994f8	0.29996467
8	0x3d90b120	0.07065034
9	0x3ef01116	0.46888036
10	0x3e99d9c9	0.3004897
11	0x3ec7f14b	0.3905128
12	0xbe1e852a	-0.15480486
13	0xbdb3e2af	-0.08783471
14	0x3e5d7226	0.21625575
15	0xbc0c79e2	-0.008573981
16	0x3ec904af	0.39261386
17	0x3daf2499	0.08551902
18	0x3d225a80	0.03963709
19	0x3d7a826a	0.06115953
20	0x3ea68bd4	0.32528555
21	0xbe7ec2de	-0.24879023
22	0xbe49ce01	-0.1970749
23	0x3eacab53	0.3372446
24	0x3f0875af	0.5330457
25	0x3eb5ad42	0.35483748
26	0xbea439cd	-0.32075348
27	0x3f1adc91	0.6049281
28	0x3e4ac523	0.19801764
29	0x3e163b36	0.14671025
30	0xbd8b8f8e	-0.0681449
31	0x3e8ae196	0.27125233
32	0x3ebc6b3e	0.3680057
33	0x3e03783b	0.12838833
34	0xbc37b725	-0.011213099
35	0xbbbce484	-0.005764546
36	0x3e4eaad4	0.20182353
37	0x3e4f4374	0.20240575
38	0x3e931901	0.28730014
39	0xbe3f4e66	-0.1868225
40	0xbe37429c	-0.17896503
41	0x3e9ddcfb	0.30832657
42	0x3e408bea	0.18803373
43	0xbe72edfa	-0.23723593
44	0x3dc875a2	0.09788062
45	0x3f65a820	0.89709663
46	0xbe19398d	-0.1496336
47	0xbdf28e45	-0.11843542
48	0x3e389b5d	0.18028016
49	0x3f16e712	0.58946335
50	0xbd81541c	-0.06314871
51	0x3efe1f12	0.4963308
52	0x3ea0b13b	0.31385216
53	0xbb828f22	-0.003984348
54	0x3e98a566	0.2981369
55	0x3eaf5212	0.34242302
56	0xbd5bb523	-0.053639542
57	0xbe28bbbb	-0.16477863
58	0xbf08d880	-0.5345535
59	0x3dc3bd73	0.09557619
60	0xbe3f3688	-0.18673146
61	0xbbbc8df7	-0.005754228
62	0x3e37b001	0.17938234
63	0xbdc3a07f	-0.095520966
64	0xbe367d59	-0.17821254
65	0x3eaf8f39	0.34288958
66	0x3f26093c	0.6485784
67	0xbe985929	-0.29755524
68	0x3f0a9fe4	0.54150224
69	0x3d3a36f8	0.04546258
70	0x3cf31e62	0.029677574
71	0x3dbde9c9	0.092731066
72	0x3eae3044	0.340212
73	0x3ccb5a35	0.024823288
74	0x3e80c266	0.25148314
75	0x3f097636	0.53696
76	0x3f0f2c17	0.5592665
77	0x3c300908	0.010744341
78	0x3d308018	0.04309091
79	0x3e1e2246	0.15442762
80	0x3d996c5c	0.07491371
81	0x3ee2bd63	0.44285116
82	0xbe7bb5a5	-0.2458101
83	0x3d93ffa7	0.07226496
84	0xbe84208c	-0.2580608
85	0x3ddc5976	0.10759251
86	0xbdbdbf13	-0.0926496
87	0xbb478d36	-0.0030449159
88	0xbc8d6dbf	-0.017264245
89	0x3f01cf8a	0.50707304
90	0x3efb6478	0.4910009
91	0xbcff5d4d	-0.031172419
92	0x3d74b2c6	0.059740804
93	0x3de76aa2	0.112996355
94	0x3e38abf2	0.18034342
95	0x3f1ccc49	0.61249214
96	0x3d84b547	0.064798884
97	0x3f70f82a	0.9412867
98	0x3e51324f	0.20429347
99	0x3e6dbc27	0.23216306
100	0x3e5431ea	0.20722166
101	0xbe23f464	-0.16011196
102	0xbe09f2c9	-0.13471521
103	0x3e90ab56	0.2825572
104	0x3dbfff9d	0.09374926
105	0x3ea2e178	0.31812644
106	0xbebeeb98	-0.3728912
107	0x3d909900	0.070604324
108	0xbd65d278	-0.05610892
109	0xbe8817b1	-0.26580575
110	0xbe0ab37a	-0.13545027
111	0x3e746f2d	0.23870535
112	0x3e74d0cf	0.23907779
113	0x3e64e5e4	0.22353321
114	0xbde26237	-0.11053889
115	0xbcbee24b	-0.023301264
116	0xbc583e05	-0.01319838
117	0x3e691342	0.22761253
118	0x3d89a119	0.0672018
119	0x3f21f395	0.632623
120	0xbe5d387c	-0.21603578
121	0xbe36dbea	-0.17857328
122	0x3e60253c	0.21889204
123	0x3f5a2ed8	0.8522773
124	0x3e3e71d4	0.1859811
125	0x3d77237c	0.060336575
126	0xbe0b9a22	-0.13633016
127	0x3dcca88b	0.099930845
128	0x3f050b3f	0.51970285
129	0xbe2d5480	-0.16926765
130	0xbebd6bcb	-0.36996302
131	0x3ebaeccc	0.36508787
132	0xbda98fe6	-0.082793996
133	0x3e90b4a5	0.2826282
134	0xbe977e0a	-0.29588348
135	0x3ecd1e33	0.40062103
136	0xbe0a61bd	-0.13513847
137	0x3eb35878	0.35028434
138	0xbcdc3580	-0.02688098
139	0xbf171d14	-0.59028745
140	0x3c252b8e	0.010081185
141	0x3ea4d861	0.32196334
142	0xbee49311	-0.44643453
143	0x3e084c05	0.13310249
144	0xbdeffed2	-0.11718525
145	0x3e9350ef	0.28772685
146	0x3e04b49b	0.1295952
147	0x3df8a475	0.12140743
148	0xbe593942	-0.21213248
149	0x3e8116c8	0.25212693
150	0x3ec5d3f7	0.3863828
151	0x3dec9197	0.115512066
152	0xbde281c2	-0.110599056
153	0xbee3f881	-0.4452553
154	0x3f7f28cb	0.9967162
155	0xbf061259	-0.52371746
156	0xbdbefc6c	-0.093254894
157	0x3e5c9ff2	0.2154539
158	0xbeaf7333	-0.34267578
159	0x3cb1aa7c	0.021687739
160	0x3c81d4d5	0.015848557
161	0xbe576829	-0.21035828
162	0x3d419f0f	0.04727083
163	0x3f237bf2	0.63861
164	0xbe8312ee	-0.2560038
165	0x3e01e57d	0.12685199
166	0xbe10f101	-0.14154436
167	0xbdb907b1	-0.0903467
168	0x3df65d60	0.120295286
169	0xbe833aae	-0.25630707
170	0x3e6d6024	0.23181206
171	0x3e22cd60	0.15898657
172	0x3d41f0c2	0.047348745
173	0xbea23fe8	-0.31689382
174	0xbeace53e	-0.33768648
175	0xbde625dc	-0.1123769
176	0x3f3e70ff	0.7439117
177	0xbe90aa78	-0.28255057
178	0xbdd78dce	-0.10525094
179	0xbe1f6a44	-0.15567881
180	0x3e79606f	0.24353193
181	0xbecddb93	-0.40206584
182	0x3e18187d	0.14853092
183	0x3d0ea40e	0.034824423
184	0xbe2b93d2	-0.16755608
185	0xbe6c9338	-0.23103034
186	0x3e70c449	0.23512377
187	0xbe11dee8	-0.14245188
188	0x3e5b08ce	0.21390077
189	0xbe1c96e0	-0.15291929
190	0xbdea1aa6	-0.11430864
191	0x3e3ee257	0.1864103
192	0xbdd8e872	-0.105912104
193	0xbd5624b2	-0.05228109
194	0xbe94d7c5	-0.2907087
195	0xbe8a73a8	-0.27041364
196	0xbd205686	-0.039145015
197	0x3c60e25f	0.013725846
198	0x3e979595	0.2960631
199	0xbe9a7dcd	-0.30174103
200	0xbdaec63e	-0.085339054
201	0xbcc18c1d	-0.023626382
202	0x3ef3184a	0.4747947
203	0xbeedb018	-0.4642341
204	0xbeaf8a5e	-0.34285253
205	0xbe7be325	-0.24598368
206	0xbe69b3bb	-0.22822468
207	0x3f27b082	0.65503705
208	0xbda84b85	-0.08217529
209	0x3f451ff4	0.7700188
210	0xbe1643a2	-0.14674237
211	0xbe1a9bef	-0.15098546
212	0xbe3ed381	-0.1863537
213	0xbe279c8b	-0.1636831
214	0xbe108eae	-0.14116928
215	0xbf20ff76	-0.628898
216	0xbec215a9	-0.3790715
217	0x3da4308b	0.08017071
218	0x3d4e5690	0.05037552
219	0xbe13ee75	-0.14446433
220	0x3e99822c	0.29982126
221	0xbd7c3e4e	-0.061582856
222	0xbdfd33ac	-0.12363371
223	0xbf359292	-0.70926774
224	0xbf070b4d	-0.5275162
225	0x3ed49a17	0.4152381
226	0x3efe0570	0.49613523
227	0xbe28b647	-0.16475783
228	0xbe8918d8	-0.26776767
229	0x3d6ee57e	0.05832433
230	0xbe3cc8e2	-0.18436006
231	0x3e97522c	0.2955488
232	0xbe81b7b3	-0.25335464
233	0xbea3d0eb	-0.3199533
234	0xbdb75d88	-0.089533865
235	0x3e381f19	0.17980613
236	0x3eefc0d2	0.46826798
237	0x3eec5c18	0.46164012
238	0xbe479d89	-0.19493689
239	0x3f581b71	0.8441687
240	0x3db79938	0.08964771
241	0x3e4c77c3	0.1996756
242	0x3e109006	0.1411744
243	0xbb1a7f37	-0.002357436
244	0x3c5f566d	0.013631445
245	0x3e19dba7	0.15025197
246	0xbe76bdcc	-0.2409584
247	0xbeaa3e83	-0.33250818
248	0x3e24faf8	0.16111362
249	0xbc0e6349	-0.008690664
250	0xbe941f1b	-0.28929982
251	0xbe7d5105	-0.24737938
252	0xbde56468	-0.112007916
253	0xbef807c5	-0.48443428
254	0xbe47ceb3	-0.19512443
255	0x3cae930f	0.021310357
