logs/classifier/30_contexts/fold_04/10-19-2022_09-12-38/model_params.pth (torch, 821283 bytes, 10 tensors)

feature.weight_ih_l0 f4 [512, 64]
00000000: db0c bebe c436 c23d 12ef 11be 45b5 ddbe
00000010: 36c4 493e dcbf e5be 590d 053e 1c24 2dbf
00000020: 1a0e 33be 9e64 d93f 69df 92bf aec8 eebe
00000030: b968 343f 3ebe 4a3e 809f bfbf b6a4 303e
00000040: 8759 6dbf dfb6 8e3e b223 1dbf 28ce 373f
00000050: c105 a13f 1bf2 6cbf 6988 993e a85b 34bf
00000060: a4d0 8a3f 9fc2 c6be 2857 203f 557a 1fbf
00000070: 42ca d73f 3144 0f3f 9d9b 90bf e9bf 003e
00000080: baf9 aebe 1ef8 2e3e 5f99 3f3f cd44 fcbe
00000090: 7c15 013f f724 873e cc16 7bbf 7daa 833d
000000a0: 7772 9d3e 0215 61bf 6471 103f 8a9e 63be
000000b0: 2b97 3ebd d1fe d2be cb07 b0be 7ef0 213f
000000c0: 28d7 803f bf71 213f c4f1 2ebf ad6f abbe
000000d0: b40c 04be 612c dd3e c6a4 473f c27a 423e
000000e0: 6e9e 52bf fc1d 403e 8eb1 9dbe d301 0dbf
000000f0: ebd3 4c3f 0a0b d8be 062f 033f f403 a7bd
00000100: 9347 e23e 4a45 33be 5004 2cbe c3c9 4bbf
00000110: 066e 4b3f 91a6 063f 9623 f2bd 7b93 e73e
00000120: 1975 4dbd d2e1 02bf 90fb bdbe c391 803f
00000130: cce0 543e 2fa3 3b3f a430 bcbd 49c3 c13a
00000140: d6cb 91be c5ff d53e 9681 81bf 6d3c 26bf
00000150: 0b6d 0abf dbb9 d7be b7f2 803f a2de 8d3d
00000160: 2c86 36bf cdfb 7fbf 190f 35bf b039 7b3e
00000170: 3c67 3cbe 363e f03e 84c7 043e d5eb 96be
00000180: 0c60 303e 3c48 0f3f aff8 f7be f249 fcbe
00000190: 8695 13be a321 0c3f 6e80 4dbe cd04 99be
000001a0: 004f 56bf fa3f 493c 6cf7 58bf 88d2 03be
000001b0: c251 183e 0a3b babe ccdb a33d dc02 e3bd
000001c0: ab05 b93e 1f77 193e 6246 5bbe c40c d1be
000001d0: ccc5 1abf e059 203f 3c9f 063f 3b4a 05be
000001e0: 74c7 ad3e f5e2 cf3f 974a b53d 062a 24bf
000001f0: 0f43 3cbc f4aa cf3e 3821 b73e 919d 84bf
00000200: 26ee efbe cb92 f7be 489d 973e 1ebb 9a3e
00000210: 5d62 493f 9482 243e ee06 533f 8849 abbe
00000220: b907 9dbe 0a24 fb3e 4b94 a4be a9d2 dabe
00000230: 75a0 8bbf cf69 cbbc 2093 cbbe 9ae7 83bd
00000240: 80a5 2e3f 4f84 86bf d803 3fbe 2fac 983e
00000250: 7f94 013e bffc 92be 322c a5be 8c04 663f
00000260: 9283 403f f501 99bc 2c7b 023f 1b7c 63be
00000270: c67a 3d3f ff3b 583f d1d4 b7be 864d edbd
00000280: 274d e83e 3e76 50bf 20b3 01be 24d5 a6be
00000290: a1e8 8b3e 640a 8d3f 4074 383f 6239 e73e
000002a0: f993 e23e 3b2b d0be 75e8 a13e b6d1 41bf
000002b0: 608a b8be c2fa 2a3f 4d27 cabe 1d95 a43e
000002c0: 4722 a43f 3c3d e83e a1b1 d9be 1c97 a8be
000002d0: 1ddc 02be 5fb2 453e 7901 82bf 5e34 b6bd
000002e0: ee25 883f 4bb3 ef3d 4a85 473e 172e 71bf
000002f0: 04b8 9e3e 042e 83bf 0f6a 993e 4c73 6ebf
00000300: 7c21 0cbf 05c2 0c3e ab31 cd3e 1297 1f3f
00000310: 0b67 a4bf 9ac2 793f 534a 2e3f dd11 47bf
00000320: d3ab f13e d0c7 b5bf 0a3c c63f 9a1a 5e3f
00000330: 6d02 e73e d736 0fbe eca1 1ebf 5c08 e73e
00000340: d320 2abf 2996 3f3f bae2 4bbf cb90 423d
00000350: dafe 773f 8f64 18bf bd69 bb3d 17ee 113f
00000360: 249a ccbd b7ff 8fbe 1dd7 02bf 5ff7 243e
00000370: 35d1 b7be 831c 36bf bf5f 1d3e c23c abbe
00000380: 012c 843e faed 6abf 34ea 9e3e 7d16 03bf
00000390: f308 8a3f aab5 73bf 4087 333f 37f1 c2bd
000003a0: 5ce7 063f f740 80be e32f 1b3f b90f 88bf
000003b0: dce0 3cbf ca1b b63e b65a f43e b0b2 62bf
000003c0: 6bcb 0e3f 8137 993d d871 6b3e 0ac8 59bf
000003d0: b2c3 2bbf e859 323e 298a b8bf 994b a43e
000003e0: 234e 16bf bda3 093e 3a47 1f3f c3c0 80be
000003f0: 9371 e7be fe4a e83e 2b59 08bf 73ba a03f
-0.37119183 0.09483102 -0.14251354 -0.4330236 0.19703755 -0.4487294 0.12993373 -0.67633224
-0.17485848 1.6983831 -1.1474429 -0.4663748 0.70472294 0.19799134 -1.497055 0.17250332
-0.9271473 0.27873895 -0.6138259 0.71798944 1.2579881 -0.92556924 0.29986885 -0.70452356
1.0844922 -0.3882036 0.6263299 -0.6229604 1.6858599 0.55963427 -1.129749 0.12573208
-0.341749 0.17086837 0.748434 -0.4927124 0.5042341 0.2639539 -0.9808166 0.064290024
0.30751392 -0.8792268 0.5642302 -0.22228447 -0.046530884 -0.41210034 -0.34380946 0.63257587
1.006566 0.6306419 -0.68337655 -0.3348364 -0.12895471 0.4319792 0.779858 0.18992141
-0.82272995 0.18761438 -0.30799526 -0.5508091 0.8001086 -0.42195922 0.5124363 -0.08155051
0.44195232 -0.175069 -0.1679852 -0.7960474 0.7946476 0.5259791 -0.11823194 0.45229706
-0.0501605 -0.51125824 -0.3710599 1.0044483 0.20788878 0.73295873 -0.09188965 0.0014782931
-0.28475827 0.417967 -1.0117671 -0.6493595 -0.54072636 -0.42133984 1.0074071 0.069272295
-0.7129848 -0.9999359 -0.7072616 0.24533725 -0.18398756 0.46922463 0.12966734 -0.294768
0.17224139 0.55969596 -0.48431918 -0.49275166 -0.14412507 0.54738826 -0.20068523 -0.29886475
-0.83714294 0.01228332 -0.84752536 -0.1287328 0.14874938 -0.36373168 0.08000907 -0.1108453
0.36137137 0.14986847 -0.21413568 -0.40830052 -0.60458064 0.6263714 0.5258672 -0.13016598
0.33941233 1.6241137 0.088521175 -0.6412662 -0.011490597 0.40560114 0.3576753 -1.0360585
-0.4686138 -0.48354182 0.29612184 0.30220884 0.78665715 0.16065437 0.8243245 -0.33454537
-0.30669954 0.49050933 -0.3214439 -0.42738846 -1.0908343 -0.024830727 -0.39760685 -0.06440659
0.6822128 -1.0509127 -0.1865381 0.29818866 0.12654303 -0.28708455 -0.3226028 0.8985069
0.7520076 -0.018677691 0.50969195 -0.22215311 0.7401546 0.84466547 -0.35904554 -0.11587052
0.45371363 -0.81430423 -0.12665987 -0.32584488 0.2732592 1.1018796 0.72052383 0.45160967
0.4425352 -0.40657982 0.31622663 -0.7571062 -0.36043072 0.66788876 -0.3948311 0.32145014
1.2822961 0.45359218 -0.42518333 -0.32927787 -0.12779279 0.19306324 -1.01567 -0.08896707
1.0636575 0.11704119 0.1948444 -0.9421095 0.30999768 -1.0248418 0.2996373 -0.9314468
-0.54738593 0.13745888 0.40076956 0.6233989 -1.2843946 0.97562563 0.6808216 -0.7776163
0.47201404 -1.4201603 1.5487072 0.8675934 0.45119038 -0.13985763 -0.61965823 0.45123565
-0.66456336 0.748385 -0.7964283 0.047501367 0.9687325 -0.5952844 0.09151027 0.5700392
-0.099903375 -0.28124782 -0.51109487 0.1610999 -0.359018 -0.71137255 0.15368555 -0.33444792
0.25814822 -0.91769373 0.31038058 -0.5120619 1.0783981 -0.9519907 0.7012825 -0.09518664
0.52696776 -0.25049564 0.60619944 -1.0629798 -0.7378061 0.35568076 0.47725457 -0.88553905
0.5577914 0.0748129 0.22992647 -0.8507086 -0.6709548 0.17417109 -1.4417163 0.32088926
-0.5871298 0.13441367 0.6221806 -0.25147066 -0.45203838 0.45369714 -0.5326106 1.25569

feature.weight_hh_l0 f4 [512, 128]
00000000: 0106 6e3f d75d b9bd 7f33 81bf d0fc 913e
00000010: 686d a3be 1ae0 80be 302a a3be c3ee 39bf
00000020: 3b54 afbd 49d6 dbbe 3f92 f83e e202 63be
00000030: c32b 753f 8281 213f 6151 933e 9e07 5cbe
00000040: 6091 f13d 59ee a73e 70f6 143e 97dc a73e
00000050: 2665 d5ba ebd1 0abe df5c 4fbf a655 443e
00000060: 8822 343f 382a 003f aa16 983e 7905 8e3e
00000070: 3297 bc3d 87f7 bbbe 2cd2 113e e6cc 9e3f
00000080: 311c 233e 08a3 263f 2ab3 0f3f 7b53 cf3e
00000090: 6740 a53d 3f48 813e b2a6 6cbe 39e8 03bf
000000a0: b82b 93bd a1e6 8a3e 9bc3 ad3e ec1f dabd
000000b0: 1532 86be 28fc 88be 44a4 bebe 583b 063e
000000c0: a13c 64bf 8913 a0bd aa50 a03e c68a 9c3e
000000d0: 707c d3be 17e8 48be 7d98 433e ca04 ae3e
000000e0: e6f1 1cbf a801 39bf 72b8 993e 644b 973e
000000f0: f728 9e3e 9f6e b63e 927d e3bf c8f2 33bf
00000100: 1941 2c3f d980 9abe a60f 9dbe db24 3bbe
00000110: fadd 9dbe f4e5 48bf 864b dabe ddba ccbe
00000120: 2bd0 c0be 8e08 a3bf e8ef a9be 0dce 3e3f
00000130: 902f fc3e cb49 7ebd 49cc 503e edb1 053f
00000140: 280f 743d 4880 173f a40e c0be 8111 103f
00000150: 9005 403e 363b 5a3e fe14 463e 70c7 983e
00000160: 592a 8f3f 4bf6 0b3f 6780 4c3e a88c 133f
00000170: 2840 853f f7b1 09be 0db5 94be 8e25 993e
00000180: 7ff2 0b3e 073b 083f 2ff1 cbbe bc2f fd3e
00000190: d251 0a3f 4d9e 633d 59da ffbe f0a4 bbbe
000001a0: 8e1f 70bf 307a 79bf 0b94 723e 6239 c03c
000001b0: 3664 533f afbc c0bd 5598 0abf 5b10 aebe
000001c0: eb9c 993f 28ef 32be 46f4 043f cfea aa3e
000001d0: e935 d2be 62ef 91bd c7f4 a23e 81c6 24bf
000001e0: fe10 cbbd 51e1 a3bd 0230 00bf 22fc c43d
000001f0: 380d 8d3d b1b9 8d3e b09b 5b3e 6a03 38bc
00000200: 97ac 3cbf 1cc2 b43e 60e2 b23f 52a7 833e
00000210: 7777 1e3f 9ed8 02bf ba89 e4be 8a88 3cbf
00000220: f36d 583f 1e3c e63d e49c 8f3e 064d 413f
00000230: 2252 aa3b fee3 22bd e45e 77be d661 cabd
00000240: c9f0 1f3f 4859 cfbe 9bb2 603e b497 d83e
00000250: c27a 683f 7868 3bbe 6199 473f 0d82 92bf
00000260: 82a4 bb3e 35de fc3e 8dbe c3be 132b e33e
00000270: 0efc b6bf ef9e 9ebe 3132 97be 572b 383f
00000280: 0b1c d73b 8398 90be 0b5c 11be ba0e 89be
00000290: 0eb5 32be fab4 39bf ebb7 c83f 911d 563f
000002a0: f77f 46bf 8074 a0be 5381 1dbf 6368 623f
000002b0: 4232 8d3e b5fe 9a3e f75f ac3e e9e4 443f
000002c0: 7e49 0fbf e368 0f3f 00f0 ed3e 2254 e03d
000002d0: b1dc 923f 4fbb 8abe 539d 49be 00c4 6bbf
000002e0: 2ba9 58bf fe01 223f 203b 103f 144f ea3e
000002f0: 68c4 2c3f f84e a8be 17d2 4fbe 0607 3d3f
00000300: a9c7 8b3f c076 c03e ce62 3f3f 31ba 8e3e
00000310: de00 bcbe f3a5 33be da36 e43e 2d07 75be
00000320: 2d97 bc3e 310e e83d a66a 573f be40 47bd
00000330: a6b4 2f3e fd87 d7be 54ce 73bd dc42 853f
00000340: 96f8 04bf af23 2a3f ce14 833f 7f64 833e
00000350: d3ee eebe 9d4e 793f db52 96be 3a05 f1be
00000360: 5d06 863f 4437 593e f66c 67be ab67 61bf
00000370: c8ef cd3e 2b99 88be 8391 e83e 90fb bb3e
00000380: 5e49 c5be 6124 f33e ca1b 283f 88e3 5f3f
00000390: 3050 2b3f a3e3 4a3d 7c1a 063e f145 b23f
000003a0: bfc0 0e3e 0767 e9be 9893 a13e ad07 94be
000003b0: 78be 28bf c469 b63e a7b9 343f 3519 d4be
000003c0: 3563 52be b7f9 fdbe 7e51 77be da5a a2be
000003d0: 942c afbc cafa bd3e a7a3 adbe 8cf8 80be
000003e0: 3b10 2ebf 7b67 6bbf 1aa9 b43f f17c 0b3f
000003f0: 0d1d c0be cd77 a6be 21a8 2cbf 996e a63f
0.9297791 -0.09051102 -1.009384 0.28513193 -0.31919408 -0.25170976 -0.31868124 -0.72629946
-0.085609876 -0.42936924 0.48549077 -0.22169068 0.957699 0.6308824 0.28773025 -0.2148728
0.11795306 0.32799032 0.14547133 0.32785484 -0.0016280755 -0.1355664 -0.81001085 0.19173297
0.7036519 0.5006442 0.2970479 0.2773855 0.09208526 -0.36712286 0.1424033 1.240628
0.15928723 0.65092516 0.5613276 0.40493378 0.080689244 0.25250432 -0.23110464 -0.5152622
-0.07186073 0.2712908 0.33938298 -0.1065062 -0.26210085 -0.2675488 -0.372347 0.13108575
-0.8915501 -0.07816226 0.31311542 0.30574626 -0.41305876 -0.19619785 0.19101138 0.3398803
-0.6130661 -0.7226815 0.30023533 0.29549706 0.3089063 0.35631272 -1.7772696 -0.7029233
0.6728683 -0.30176428 -0.30676 -0.18275778 -0.30833417 -0.7847588 -0.42635745 -0.39986315
-0.3765882 -1.2736986 -0.33190846 0.7453316 0.49255037 -0.062082093 0.20390429 0.5222462
0.059584767 0.59180117 -0.3751117 0.5627671 0.18752122 0.2131165 0.19343945 0.2983966
1.1184798 0.5467269 0.19970857 0.576365 1.0410204 -0.13446794 -0.2904438 0.29911464
0.13666724 0.5321507 -0.39832446 0.4945048 0.540311 0.05557089 -0.49971274 -0.36649275
-0.9379815 -0.9745207 0.23689286 0.023464862 0.82574785 -0.094109885 -0.5413869 -0.33996853
1.2001013 -0.17474043 0.5193523 0.3338227 -0.41056755 -0.07125737 0.31827375 -0.6436539
-0.099153504 -0.0800196 -0.50073254 0.09618403 0.06887287 0.27680734 0.21446109 -0.011231283
-0.7370085 0.35304344 1.3975334 0.25713593 0.6190104 -0.5111178 -0.44636327 -0.7364584
0.8454277 0.11241935 0.28049386 0.75508153 0.0051977793 -0.03976821 -0.24157292 -0.09881942
0.62476784 -0.40497804 0.21943133 0.4230324 0.90812314 -0.1830157 0.7796841 -1.1445938
0.36648947 0.4938828 -0.38231316 0.443688 -1.4295671 -0.30980632 -0.2953048 0.7194113
0.0065646223 -0.28241357 -0.14195268 -0.26769048 -0.1745188 -0.72541773 1.5681127 0.83638865
-0.7753901 -0.31338882 -0.6152546 0.8844053 0.27577406 0.3027245 0.33666965 0.7691179
-0.55971515 0.5601942 0.46472168 0.10953547 1.14736 -0.2709603 -0.1968892 -0.9209595
-0.8463313 0.6328429 0.5634022 0.45763457 0.6748719 -0.32872748 -0.20294987 0.7383884
1.0920306 0.375906 0.7476014 0.27876428 -0.36719412 -0.17543773 0.44573098 -0.23928519
0.36834088 0.11330832 0.8414711 -0.048645727 0.17158756 -0.42095938 -0.05952294 1.0411029
-0.5194181 0.664607 1.0240724 0.2566261 -0.46666583 0.9738558 -0.2936009 -0.470743
1.0470692 0.21212488 -0.22600159 -0.8804881 0.40222 -0.26679358 0.45423517 0.36715364
-0.38532537 0.47488692 0.656674 0.8745656 0.6691923 0.049533498 0.1309604 1.3927594
0.13940714 -0.45586416 0.31557918 -0.28912106 -0.6591563 0.35627568 0.70595783 -0.4142548
-0.20545657 -0.4960458 -0.2415218 -0.3170994 -0.021383561 0.371054 -0.3391392 -0.25189626
-0.67993516 -0.91954774 1.4114106 0.5448752 -0.37522164 -0.32513276 -0.67444044 1.3002502

feature.bias_ih_l0 f4 [512]
00000000: 0dce 813e 42d3 fe3e 2878 ecbd e2fa b73d
00000010: fe13 07be 0e01 823c 87d8 343e 97ed 37bd
00000020: 9542 9bbe ea63 9bbe 5346 fb3e cd65 b53f
00000030: 04f9 3f3e a357 18be 34c3 893e a591 743d
00000040: 1f7f 5d3f 8fba 17bd 437c 393f 159e 433f
00000050: 3835 c43e 0440 a5be a3db 5fbd a4ee 44be
00000060: 6b71 ca3e 5e9e a63e 8e26 8a3e 82b1 58be
00000070: 75de 26be 2268 eb3e 2373 2b3f faa5 843d
00000080: 435e 92be 34d1 893e ede9 7cbe 9006 0abe
00000090: fe40 773e f1e1 25be 724c 803e 9b25 5f3e
000000a0: 1fff c43e 86f6 14be b444 463f 5251 9bbe
000000b0: 20ef 44be 06f3 01bd a1a1 403f 604c eb3e
000000c0: 2e6f 8bbe 74d5 27be f8a9 313f 54ba 2d3e
000000d0: 5725 babe 7d76 a93c ff50 a43d 6f28 0f3f
000000e0: 15d8 183f 49d3 72be 93ab 3f3e 37bd 4cbe
000000f0: da23 60be 8f18 163f f656 563f 410a d03e
00000100: 629a 773c c207 843e d8c1 983d c67f f7bd
00000110: a742 9fbc 9032 57be 904f 3cbe 0b2d d43e
00000120: 9c2f 86be b305 f33d 3bc3 703e 7bc3 013d
00000130: 7069 273d 0176 0d3f 4bee 0ebe 7447 4f3d
00000140: 4888 74be 3d0f e53d cc2b 233e 6f77 bfbd
00000150: 3390 48bd e057 05bd d654 8f3e e715 35bd
00000160: 4d5d 94be 571a 26be 039c 67be c300 19bd
00000170: 8de3 043f d392 933d 69ec 1c3e 4ca5 fabd
00000180: 4890 953c c0c3 713f 11a0 873d b3a6 96be
00000190: 9350 a43e e192 c2be 5702 a23e a46c a03d
000001a0: 8c18 8fbd 35d1 033f fcab 263f 8173 7a3e
000001b0: ee97 043f 75c2 82bd 967e 8b3f 7f3b 953c
000001c0: dcef 953e f991 343c 0dc7 e9bd 04b5 ff3c
000001d0: e8a4 88bd be77 2ebc 7344 1f3f d366 a2bd
000001e0: 1707 c33d 2712 ef3e 8fc7 ec3e 0aeb 86bc
000001f0: bfe5 82be 5a66 5fbd cbfa db3e 8d19 ca3d
00000200: e327 b9be b154 a33e ec8a 37be 6b7b cabe
00000210: 6b10 92be 9de9 afbe 874e 303e 5f42 71be
00000220: a8e0 56bd 89cb 03bb 0a46 57bd 7ee8 0dbf
00000230: d5c2 a5be a109 2bbe b219 05bf 8d9d a8be
00000240: 1302 4abe bbb4 19bd 9248 4f3e de19 4cbf
00000250: 9916 94bd 2ed3 763e ebec 25be cb3c 12be
00000260: 6d68 b4be 3938 acbd ebf1 edbe 91b5 fdbc
00000270: 1614 23be 9d98 11be adb9 46bc fb61 1cbf
00000280: b572 e43d 00ff 1b3e a0c2 9cbd 1b33 6dbd
00000290: 6124 9bbe 0b6c c4bd d738 a6bd 3af6 66bd
000002a0: fcf0 493e 5456 46bd f6b6 92bd 9110 35be
000002b0: aabd 5dbd 3067 e33b 6e45 99bc 1d2e 1abf
000002c0: 797d 9f3d 32a0 cdbd 5165 de3e 4e8b 60be
000002d0: c480 f7be 1084 06bf 82f4 b3be 37d5 103d
000002e0: d98f aabe b3a9 273c 2e32 ac3d 2aef 393e
000002f0: 2cf0 5cbe 6ca4 773e 8cc9 d4be 330e 2fbf
00000300: 8c9b d8be 4fcf 49bf 34bc ddbe 5705 803d
00000310: 9ead 873e 5b4a 4dbe 1fda b1be 382f eabd
00000320: 4f7e 36ba 9fa7 9bbe 7f29 d5be 60f8 3dbe
00000330: ae36 563d f0ac d7be cda8 3c3d 1b93 4cbd
00000340: ec84 74be bb74 cabe 1941 423d d39f ddbe
00000350: a040 e7bc 4071 11bf d240 da3d 1d89 babe
00000360: 8021 dbbd ec79 49bf 00ab 4a3d 1953 47be
00000370: 90e0 683e 9b3c c7be b9ce 453e 4634 e4bb
00000380: 5e12 8cbe 975f 99be 7eb8 39be 2bd1 4abe
00000390: 85e8 68be ba75 ebbe 16f1 af3e b48a cf3e
000003a0: 05bb d6bd 096f b93c 34f9 16be 72a3 38bd
000003b0: b8af a13e 9f2d 9bbd 406e e4bd a2bb 91be
000003c0: cdc6 4ebe 9c29 9c3e ec83 b2bd 380b 8b3e
000003d0: 2e46 523d 22b4 25bf 3976 43be b152 aabc
000003e0: c5c8 e23d 7779 5dbe e079 b3be 3be6 9fbe
000003f0: 6d27 b4be 411b 39be 8f51 b83d b9ab 1abe
0.25352517 0.49770552 -0.115463555 0.08983399 -0.1319122 0.015869644 0.17660724 -0.044904318
-0.30324236 -0.30349666 0.4907709 1.4171692 0.18747336 -0.14877181 0.2690674 0.05970921
0.86522096 -0.03704315 0.72455233 0.7641309 0.38321853 -0.32275403 -0.05465282 -0.19231659
0.39539656 0.325427 0.2698254 -0.21161464 -0.16295798 0.45977885 0.6697256 0.0647697
-0.2858754 0.26917422 -0.2469861 -0.13479066 0.24145886 -0.16199471 0.25058323 0.21791689
0.38475892 -0.14547166 0.7744858 -0.3033548 -0.19231844 -0.031725906 0.75246626 0.45956707
-0.2723326 -0.1639002 0.69399977 0.1696561 -0.36356613 0.020686382 0.08023261 0.5592107
0.59704715 -0.23713411 0.18717794 -0.19994055 -0.21888676 0.58631223 0.8372644 0.40632823
0.015112491 0.2578717 0.07458848 -0.12084918 -0.019440962 -0.21015382 -0.18389726 0.41440615
-0.26208198 0.118663214 0.23511975 0.031680565 0.040872037 0.55258185 -0.13958089 0.050605252
-0.23880112 0.11184547 0.15934676 -0.09348952 -0.048965644 -0.032554507 0.27994412 -0.04421034
-0.28977433 -0.16220985 -0.22618107 -0.037354242 0.51909715 0.07205739 0.15324558 -0.12238559
0.018257275 0.94439316 0.06622327 -0.29424056 0.32092723 -0.38002685 0.3164241 0.078332216
-0.06987104 0.514911 0.6510618 0.24458124 0.51794326 -0.06384746 1.0898006 0.018216847
0.2928456 0.011021131 -0.11414919 0.031214245 -0.06672078 -0.010648666 0.6221382 -0.079297684
0.09522837 0.46693537 0.46246 -0.016469497 -0.25565907 -0.05454097 0.42964777 0.09868155
-0.36163244 0.31900552 -0.17924088 -0.39547285 -0.2852815 -0.3435792 0.17217456 -0.23560475
-0.052460343 -0.002011033 -0.05255703 -0.5543288 -0.32375208 -0.16702892 -0.5199233 -0.32932702
-0.19727354 -0.037525874 0.20242527 -0.7972697 -0.07230873 0.24103996 -0.16203658 -0.14281003
-0.3523592 -0.08409161 -0.4647363 -0.030970367 -0.15925631 -0.14218374 -0.0121292295 -0.61087006
0.11154691 0.15233994 -0.07654309 -0.057910066 -0.30301192 -0.0959092 -0.0811631 -0.056387164
0.19720834 -0.048422173 -0.07163803 -0.17682101 -0.054135956 0.006939791 -0.018709864 -0.60226613
0.07787604 -0.100403205 0.43436673 -0.2192814 -0.48340428 -0.5254526 -0.35147482 0.035359588
-0.33312872 0.010233331 0.084080085 0.1815764 -0.21575993 0.24183816 -0.41560018 -0.6838104
-0.42306173 -0.7883195 -0.4330765 0.062510185 0.26499647 -0.20047896 -0.34736726 -0.114347875
-0.00069615705 -0.30401322 -0.41633222 -0.18551779 0.05229824 -0.42124128 0.04605942 -0.04994498
-0.2387883 -0.39542183 0.047425363 -0.43286 -0.028229058 -0.5681343 0.10656895 -0.36432734
-0.10699749 -0.78701663 0.049479485 -0.19465293 0.22741914 -0.38913426 0.1931714 -0.0069642393
-0.27357763 -0.29955742 -0.18136784 -0.19806354 -0.22744949 -0.45988256 0.3436362 0.4053551
-0.1048489 0.022635954 -0.14743501 -0.04507775 0.31579375 -0.07577061 -0.11153841 -0.28463465
-0.20193024 0.30500495 -0.08716568 0.27156997 0.05133646 -0.64727986 -0.19088067 -0.020791383
0.1107345 -0.21628366 -0.3505392 -0.3123034 -0.3518633 -0.18076803 0.08999931 -0.1510457

feature.bias_hh_l0 f4 [512]
00000000: bb3e 913e 554e d03e 27e6 82bd 117c f93d
00000010: ff28 50be e7e7 cd3d 9f7f 0f3d 2cf3 993d
00000020: 7f84 b7be ddf0 5abe ab38 a43e 6a7b a03f
00000030: fcce 043e f62c 1dbe f6d8 733e df52 c939
00000040: d8b3 373f 0abd 2fbe f45e 573f 44bf 4f3f
00000050: 048b a53e bd9d 92be eab7 f63d bf01 51be
00000060: d144 ab3e b27e 9d3e d1b1 4b3e 333d 58be
00000070: c93d d0bd 72d5 6d3e 8f80 1e3f fd83 cb3c
00000080: f4f0 97be b79d df3e 7dda c3be 3adc 4cbe
00000090: 4188 903e 3b1f e0bd 0e1d e33d b10c 123e
000000a0: d008 683e 7fbc fcbd ec95 593f 4464 3ebe
000000b0: ce1c eabd 99de 68bd 1b88 363f 89d4 fd3e
000000c0: 3f29 29be e2ab 7cbe 49ac 2c3f bd73 4e3e
000000d0: 9622 89be 9dcb 5f3c f0df 04bd 0fc3 153f
000000e0: 35d4 f53e 0a5b 5cbe 1861 df3d a126 e4bd
000000f0: 8e38 21be 4a75 473f 8f0d 193f 95af d83e
00000100: f3e0 fab9 06cb b03e f137 f23d 0d35 ecbc
00000110: 641f 983d 2a78 1f3d f10a efbd b778 253e
00000120: f722 6fbe 876a d23d d335 9a3e f49b de3b
00000130: 58e0 dfbc 91b7 313f 0d26 b8bd d77f 053c
00000140: 9d9b 45be 6910 a33d c6b8 b23d 1b10 95bd
00000150: 5de0 b8bd 824a a13d 21c0 563e b404 0ebe
00000160: b6c9 99be c681 50be 3dc8 53be 5c3d 9dbd
00000170: 3cfb fb3e 090a 143e b93b 003e 6fe2 21be
00000180: 1151 e3bc 6bfe 6f3f 81c3 8e3d dac3 dbbe
00000190: 26ea 973e 4494 92be c878 c03e 13fd d73d
000001a0: 135e 4d3d ce84 083f 486a 3d3f a4b3 9d3e
000001b0: 1e75 df3e 0ce6 23be ce19 983f 9a17 78bd
000001c0: a734 913e 2419 253d cd92 8bbe 940e 273d
000001d0: fb98 34be 9b03 9dbc 4d1d 363f 19fc 0fbe
000001e0: 31ec d03d daa1 103f 4ac2 f73e 24d5 7639
000001f0: 894f 2bbe 14df c1bd 46d6 c43e 991c b13d
00000200: 8469 efbe 9baa ab3e 8455 8abe 71dd b0be
00000210: a804 87be 255e 5bbe 5b1f 5a3d 9d44 82be
00000220: ec62 23be bb63 89bd f0a9 f4bc d845 13bf
00000230: 8f67 c5be c054 72be ef40 fbbe 541e 8dbe
00000240: 5db5 1ebe 5728 9abd 7b1d 133e 962c 43bf
00000250: 3048 0cbe 4b69 6c3e 2b6c 47be e8ba 4bbe
00000260: 873f a1be b9fd 50bd 5eeb ddbe 5262 c1bc
00000270: cd51 c8bd 574f 69bc e7d2 cf3d aac2 d0be
00000280: bf92 693e 7de7 593e 5bf7 9b3c b911 be3d
00000290: 35dd 72be 4dbb 85be 1430 4cbd fd20 21be
000002a0: 6200 183e 97fd 113c f0a5 42bd 9366 efbd
000002b0: b21b 0b3d ad94 7e3e 12dc dcbd ff82 febe
000002c0: 7db1 c73d 2d99 7cbd 4d9f 1e3f 7353 87be
000002d0: 3024 f4be 2bd3 04bf 04bf babe b349 b1bc
000002e0: 3f6f b0be 51a3 20be 2b30 a4bc fa35 bf3d
000002f0: e8f0 1cbe fa01 5c3e dde1 0cbf d421 36bf
00000300: 40d3 c6be 7628 55bf 99ab 9dbe 7c2c 4e3e
00000310: 7cd4 203e ae4d 17be 74eb 9ebe 75e0 c3bd
00000320: 93f8 91bc b459 46be 72cc f3be dc91 97be
00000330: f7cf 71bc ea2d babe 8b35 513d 4780 733d
00000340: 1f18 49be 365b 7cbe 17c3 993d 43a6 cdbe
00000350: 0ee5 003b 1f1f 12bf 6494 0f3e d78f 71be
00000360: e072 21be e1a6 36bf 79de d53d aa60 6cbe
00000370: 30b9 d83d 94d5 afbe d828 603e 6885 943d
00000380: 3bbd 93be 3161 a1be 6cd5 88be 86bd a3bd
00000390: db68 83be cbfe f5be 873c 2d3e d2f9 e63e
000003a0: 521f 34be 3cd2 103d 1289 0dbe 49c0 32be
000003b0: e09e 833e 84d1 d1bb 0715 093d 8b4f 82be
000003c0: 700e 9abe 04b9 ae3e 50af 4fbe 61b5 fa3d
000003d0: 3729 c3bc 13bf 47bf 02cb 4abe f189 0dbe
000003e0: 35f0 963d e549 78be 794a acbe 00f0 fabe
000003f0: bd79 d1be f5a6 a7be da62 313e eb40 26be
0.28368172 0.40684763 -0.06391554 0.12181867 -0.20328139 0.100539975 0.03503382 0.075170845
-0.35843274 -0.21380945 0.32074484 1.2537663 0.12969583 -0.15349182 0.23813233 0.0003839945
0.71758795 -0.17161956 0.8412926 0.81151223 0.32332623 -0.2863597 0.120467976 -0.20410822
0.3345094 0.30760723 0.1989205 -0.21117096 -0.101680346 0.23225954 0.61914915 0.02484321
-0.2967602 0.43675014 -0.3825263 -0.20005885 0.28228953 -0.10943457 0.11089526 0.14262654
0.22659612 -0.1234064 0.8499439 -0.18592936 -0.11431275 -0.05685291 0.7130143 0.49576214
-0.1651964 -0.24674943 0.67450386 0.20161338 -0.267842 0.013659385 -0.032440126 0.5850076
0.48013464 -0.21519104 0.10907191 -0.111401804 -0.1574423 0.77913344 0.59786314 0.42321458
-0.00047851316 0.34529895 0.11827076 -0.02883389 0.07427862 0.038932957 -0.11672009 0.1615933
-0.23353182 0.10274225 0.3011919 0.0067934934 -0.027328655 0.69420725 -0.089916326 0.008148155
-0.19297643 0.07962114 0.08726649 -0.072784625 -0.09027169 0.07875539 0.20971729 -0.13868982
-0.30036706 -0.20362005 -0.20681854 -0.07677719 0.49215114 0.14456953 0.12522782 -0.15809034
-0.027748616 0.93747586 0.06970883 -0.4292286 0.2967083 -0.28628743 0.3759215 0.10546317
0.050138544 0.53327644 0.739903 0.30801117 0.4364404 -0.16005725 1.1882875 -0.060569383
0.28360483 0.04030718 -0.27260438 0.040785387 -0.17636482 -0.019166758 0.7113846 -0.14061011
0.102013 0.56496966 0.48390418 0.00023539789 -0.16729559 -0.09466377 0.38444728 0.08648033
-0.4676019 0.335286 -0.27018368 -0.34543946 -0.2637074 -0.21422632 0.05325256 -0.25442973
-0.15955704 -0.06708475 -0.029866189 -0.5752845 -0.3855557 -0.23665142 -0.49072978 -0.275622
-0.15498872 -0.075272255 0.14366715 -0.7623991 -0.13699412 0.23087041 -0.19474857 -0.19895518
-0.3149378 -0.05102322 -0.43343633 -0.023606453 -0.09781227 -0.0142401075 0.10147648 -0.40773517
0.22809885 0.21279712 0.019038847 0.09280724 -0.23717196 -0.26119462 -0.04985054 -0.1573524
0.14843896 0.008910558 -0.04752153 -0.11689486 0.03396196 0.24861403 -0.107841626 -0.49709317
0.0975065 -0.061669517 0.61961824 -0.26430854 -0.4768386 -0.51884717 -0.36473858 -0.021641588
-0.34459874 -0.156873 -0.0200425 0.09336467 -0.15326273 0.21485129 -0.5503214 -0.7114537
-0.38833046 -0.83264863 -0.3079498 0.20134157 0.15706056 -0.14775726 -0.3103901 -0.09564296
-0.017818725 -0.19370157 -0.47616917 -0.2960347 -0.014759055 -0.36363155 0.051076453 0.059448507
-0.19638108 -0.24644169 0.075079136 -0.4016591 0.0019667777 -0.5707874 0.1402145 -0.23590027
-0.15766478 -0.71348387 0.10442824 -0.2308375 0.10582197 -0.34342635 0.2189058 0.07252008
-0.2885531 -0.31519464 -0.26725328 -0.07995133 -0.25665936 -0.48045954 0.1691762 0.45112473
-0.17590073 0.035356745 -0.1382182 -0.17456163 0.2570715 -0.00640315 0.03346732 -0.2545131
-0.3008914 0.3412553 -0.2028172 0.122416265 -0.023823364 -0.7802593 -0.19804004 -0.13822152
0.073700346 -0.24246939 -0.33650568 -0.4901123 -0.4091319 -0.32744566 0.17322865 -0.16235702

feature.weight_ih_l0_reverse f4 [512, 64]
00000000: 4dcb 86bf e6b7 96be 2030 58b9 9a4a 033d
00000010: 1eb4 cfbe 4dea b9be 7f13 19bf 05f7 2a3f
00000020: 175f 073f b9a7 a0bd 70ff 6f3f b66e 3e3e
00000030: 9a29 76bc 0d54 2e3d e27b 8dbf 8318 28be
00000040: 2818 c1be c069 74bf e065 3dbe b4a9 a5bf
00000050: d40c 8dbf 5109 1bbf 5214 dc3e 5b39 5f3f
00000060: 8900 7abd 416d 0bbf 6cc5 6bbf 968e c63d
00000070: fe41 40bf 6c30 3dbe 263a e43e 6ad0 733e
00000080: 48cc 953f 1679 c43e 0e6a e13e cd53 d83e
00000090: b64a 94bf 308b e0be 54aa bebe 450b 243e
000000a0: e1d5 4ebf c3d9 933f 326a 083e 68e4 37be
000000b0: bdcf b1be d417 bbbe 093c 353f b7a6 1d3f
000000c0: fea1 68bf 43a8 c0be 807e 0e3f 0d89 c43e
000000d0: e769 8e3f 705f 41bf 0ede dd3f 2d16 853e
000000e0: a31b 263f 022b 28bf f340 88bd 6e33 463f
000000f0: 40c0 043e 69fe e93e f2c5 52be a001 0c3f
00000100: da26 83bf b83b 1c3f 1c1c 3cbf 1a82 d53e
00000110: 95dc 6abe 5518 85bf 3a3d a7bf 88b8 44be
00000120: 9e37 ce3c 598d bb3f 5bc5 3e3f 86d2 4ebe
00000130: e82a 763f e120 64be 8ac5 b83f 9255 5a3e
00000140: deff 6a3f 5d0a d7be 2e15 e83e 9ba3 72be
00000150: a891 3f3f 0e9d 953e ecd7 293f e60d efbe
00000160: 721e 68bc 2d49 d7be 8003 ae3d 7fb0 8abf
00000170: be19 b43e dd49 233d 69bd 1bbf bec8 52bf
00000180: 165b 2c3d fcd8 5e3f d680 713f 5ea1 98be
00000190: 1acf 0a3f 22c4 b43e 3929 b0be 0ec2 d339
000001a0: 122c 59be 1fe5 d03e a51b 9dbd d6ec 6f3f
000001b0: 1be2 a73d e9dc 37bf dcff 0d3f d40d 963e
000001c0: 7872 6dbe d780 22be cfc4 82be 6d70 1e3e
000001d0: f067 eb3e 9c23 653f 1c0e 403f cc90 5f3e
000001e0: f407 853d b880 84be f6d6 ff3e fe3a e23e
000001f0: 7cc5 a5be 1192 eb3c fa9f 383e d02a 13bf
00000200: fac2 023f ba05 f43d f6ce 18bf ee42 50be
00000210: 9aaf 0cbf 3ebb 7fbd 545e 88bf 5b67 9a3e
00000220: 8d0b 643f 434c fa3e aa46 2d3e 4d0a 5ebf
00000230: 7025 1f3f bb3e b63e 1db1 e0be 10b0 24bf
00000240: 2c3f 013f 779e 2c3f 8201 df3f 2499 153f
00000250: a63c a83f f6fe 6bbe d378 2b3c a980 123d
00000260: 08ac 9a3e f0e5 b7bc ccaf bd3d 8b82 733f
00000270: 2476 8ebd d652 bbbe 7f45 3d3e db7e b4be
00000280: 3293 32bf 7c62 923f 3ff3 923f 9339 27bc
00000290: 2542 063f eda8 52bd 9550 86bf ccef 1c3f
000002a0: de28 1ebe ed2c 9cbe 7cc5 343e 9ecf be3e
000002b0: 84e8 f93e 17b0 753e 10d8 5a3f c87e 6c3d
000002c0: c0a0 03bf 62a2 ebbe 78de 7bbe d7ef 7c3d
000002d0: deab 083f 7489 5ebf f446 b33e 1d32 6e3f
000002e0: 1590 15bf ec75 b03e 909b 0d3f a118 103f
000002f0: 255b ed3e 39d2 cc3e 15d4 2a3f e94d e3be
00000300: 79bd 04bf 7088 6a3f 3718 e33c ed95 763f
00000310: 2084 28be 1f3f c5bd a830 4a3e 2758 a03e
00000320: c001 243e 6458 73be 4b3b 80bf 6f01 1ebf
00000330: 0959 2dbf cf47 803e c7d8 e3bd 8722 8f3f
00000340: 1389 393f fcd1 f7be 6ae8 aebe 723a 7dbf
00000350: 876e 933e 2c9f ea3e 9656 36bd b773 933e
00000360: 216f 783f 25ff 2b3f 1e04 643f 6e65 c6bf
00000370: e00f a53f 42d1 a1be 8faa 79bf 29b7 39bd
00000380: 21ab e9be ce46 95bd a15f 103f fa69 84bf
00000390: da5f 8b3f 0cd4 2b3f 3094 1bbf adca 873f
000003a0: 28f4 ea3e 43d0 b9be ba5a 16bf 2549 bdbd
000003b0: b471 aabe d1f6 133f 3e08 0d3f 5666 10be
000003c0: 17be 243e 71ae f13e 9a28 10bf b3a2 643f
000003d0: 8cd0 393e 9e6a 6dbe 1fb3 2f3f 0248 9bbf
000003e0: 8af9 893d f10a ca3f c8d4 b33e 2377 89bf
000003f0: f021 ea3e 917f 113f 70ec c93e 22a3 b4be
-1.0530792 -0.29437178 -0.00020617293 0.032053567 -0.40567106 -0.3631157 -0.59795374 0.6678317
0.5287947 -0.078444906 0.9374914 0.1859692 -0.015024567 0.042560626 -1.1053431 -0.164156
-0.37713742 -0.9547386 -0.18495893 -1.2942414 -1.101954 -0.6056109 0.42984253 0.8719689
-0.061035667 -0.54463583 -0.92098117 0.09695165 -0.75100696 -0.18475503 0.44575614 0.23809972
1.1702967 0.3837363 0.44026226 0.42251435 -1.15853 -0.43856192 -0.37239325 0.16019924
-0.80795103 1.1550831 0.1332176 -0.17958224 -0.34728804 -0.36541617 0.7079473 0.6158251
-0.9087218 -0.37628374 0.55661774 0.3838581 1.1126069 -0.7553625 1.7333391 0.2599348
0.6488592 -0.65690625 -0.06653013 0.77422225 0.12963963 0.45701912 -0.20583323 0.5468998
-1.0246232 0.61028624 -0.7348039 0.41700822 -0.22935708 -1.039805 -1.306556 -0.19211018
0.025173005 1.4652511 0.7451989 -0.20197496 0.9615922 -0.22278167 1.4435284 0.21321705
0.9179667 -0.42000094 0.4532866 -0.23695223 0.7483163 0.29221386 0.66345096 -0.4669029
-0.014167415 -0.42048016 0.08496761 -1.0835112 0.3517589 0.039865363 -0.6083589 -0.8233756
0.042079054 0.8704984 0.94337213 -0.29810613 0.5422226 0.35305887 -0.3440645 0.00040389638
-0.21208218 0.40799806 -0.076712884 0.9372076 0.08197423 -0.7182146 0.55468535 0.29307425
-0.23188198 -0.15869461 -0.25540778 0.15472575 0.45977736 0.8950746 0.7502153 0.2183258
0.064956576 -0.25879455 0.4996869 0.44185632 -0.3237723 0.028756173 0.18029776 -0.574872
0.5107876 0.11915155 -0.596908 -0.20338032 -0.54955447 -0.062434427 -1.0653787 0.3015698
0.89080125 0.48886308 0.16921487 -0.8673447 0.621665 0.35594735 -0.43885127 -0.6433115
0.5048702 0.674293 1.7422335 0.584368 1.3143508 -0.23046479 0.010465818 0.03576723
0.30209374 -0.02244851 0.09262046 0.9512107 -0.06956127 -0.36586636 0.18483542 -0.35253033
-0.6975585 1.1436305 1.1480483 -0.010206598 0.5244468 -0.05143063 -1.0493342 0.613034
-0.15445277 -0.30503026 0.1765346 0.37267774 0.48810208 0.23992954 0.85485935 0.057738096
-0.5141716 -0.46022326 -0.24596584 0.061752167 0.5338725 -0.86928487 0.3501507 0.93045217
-0.58422977 0.34464967 0.55315495 0.5628758 0.463586 0.40004137 0.6672986 -0.44395378
-0.5185161 0.9161444 0.027721507 0.9632252 -0.16456652 -0.0963118 0.19745123 0.31317255
0.16016293 -0.23764187 -1.0018095 -0.6172094 -0.6771398 0.25054786 -0.11125331 1.1182412
0.72474784 -0.48402393 -0.34161693 -0.98917305 0.28795263 0.45824564 -0.04451617 0.2879922
0.9704457 0.67186195 0.8906878 -1.5499704 1.289547 -0.31604964 -0.97525877 -0.04534069
-0.45638373 -0.072888955 0.5639592 -1.0344841 1.0888627 0.6712043 -0.6077299 1.0608727
0.458894 -0.36291704 -0.5873219 -0.09242467 -0.33289874 0.57798487 0.550907 -0.14101538
0.16088139 0.472034 -0.56311953 0.8931076 0.1814596 -0.23185202 0.6863269 -1.213135
0.06737049 1.5784589 0.35123277 -1.0739483 0.45729017 0.56835276 0.394382 -0.3528071

feature.weight_hh_l0_reverse f4 [512, 128]
00000000: fff7 a63f a41b 0dbe 41cc 24be 113b 313f
00000010: 0a41 af3f 7c57 703f 9736 0c3f 4b0b bbbe
00000020: f423 dbbc 2cb1 1cbf 9563 d7bd 6117 00be
00000030: 5aa3 34bf 9b87 203e 7af2 eabd 758d 9ebe
00000040: cb81 8c3d 23a8 03bf ede5 963f 5c04 c7be
00000050: 93bc 09bf 162a ae3e bcc4 39bf ae9b ef3d
00000060: 1259 883f a007 e33e a888 08be ce4e 123e
00000070: 3d05 9ebd 829d 3bbf bef7 96bf 729e 783e
00000080: c9d0 893f 38b4 81bf 28a1 cdbe f584 7a3d
00000090: 9f45 dd3e 8024 943f 8dbd ebbd 3e4b 483f
000000a0: 828a e3be 5934 2fbe a348 d1be 38ea 10be
000000b0: fbad 0cbf eb80 253f 6ac6 3dbe 7fa6 4d3e
000000c0: 9d44 e9be 5f6c 68be 3463 24be 1b36 e23e
000000d0: 8245 92be d0a4 de3e ef77 bdbe 2f71 9cbf
000000e0: 0296 dabe 46dd b03e cac6 2c3e 326f 30bf
000000f0: 0042 7a3e da8b 693c 9c6e 00bd f678 78bf
00000100: c2b5 b1bd 551e 99be 8d7e 8cbe 38bd f83e
00000110: cb75 933e 86c4 0a3e a557 d73e 7128 36be
00000120: 296b 31bf feb4 f7be 55bb 083f 74ea da3e
00000130: 7f9f febe a364 28bf 4b2e ca3e 181f 89bf
00000140: ebf4 04bf 22fb 263f 1f41 e53d b550 f43e
00000150: f9cf 70bd c083 52be e734 3ebf 141f ce3e
00000160: a66e a13c 8c04 38bf aea9 5b3c 28b2 d13e
00000170: ed56 9bbe 5ef5 103f 850f 8fbe f889 debd
00000180: d0fc 823b 8bcc 363d 9f5b 2fbd d11d 0cbf
00000190: b80b c03f c84b d9be bd7c f2be b1ce 0c3d
000001a0: cb32 0dbf b9d9 32bf c1e8 f43d c73b 3bbd
000001b0: e099 1bbd aa89 a3be 04aa 1a3f 78de 013d
000001c0: 6c09 b43d a59e b8bc 6cc2 c33e 317c 623c
000001d0: 172d 2dbf 7f2a c03d 03ac ec3d 3eee eebe
000001e0: d96e 6ebf b21a 9e3e 0203 c63e 7432 643e
000001f0: 1c50 313f 5604 08bd c683 f2be 09a7 b7be
00000200: e5c8 32be 78d7 183f 21c9 3ebf c254 21bf
00000210: 9482 8bbe 3f88 c03e 787c 6cbf cdeb 863c
00000220: f3e1 5b3e 379a 97bf faee 8abf 248f 76bf
00000230: 5914 c3ba e0c5 793f 9bba 063f 9f51 593f
00000240: e9a8 163f 98cf 14bf eb62 fd3d 9c4b 0ebd
00000250: e51a 91bf 60d5 113d 38b1 bbbe 253a 2cbe
00000260: a5dd 303f d639 b23e 1aed 883d 36f0 9ebe
00000270: 0450 00bf cc96 853f 2514 eabe 3dfd 8abe
00000280: 0401 dc3e b54d 4c3e dc37 eabc 3d51 2d3f
00000290: 83f1 c43e 4924 3c3e 83e1 133e 1b51 5e3e
000002a0: d245 6e3e ef6e 0a3f f8ca f53e de7b 343e
000002b0: e502 91bc 30e5 ad3e 2742 7ebd a8c4 d8be
000002c0: 5fc9 cf3d 7a89 413f e4b4 6bbf 6900 3c3f
000002d0: 85b2 513f ee48 e6be 3aab a13e af97 f13e
000002e0: 3e6b 4ebf 2f65 b0be 1ed6 d83e 429d 74be
000002f0: df80 da3d 339d 353f 9383 a9be 4598 7a3f
00000300: 37d9 55bf 8d26 b73b 8396 103e a93c 5bbe
00000310: 36c1 82be 2c3d d2bd 5175 48bf 0445 9a3f
00000320: 89b4 14bf 7046 9abf a90d 1abe 15f6 bbbe
00000330: fc2c e03e dd62 25bf 430e 51bd 9c27 9cbe
00000340: 0dd0 2d3d 4409 4a3f 4db8 c93e 773c b1bc
00000350: b0f1 1d3e d93e c63e 4d55 b83f a6c8 923d
00000360: b2a0 2e3e 75e3 79bf d7f6 24bf f9cf 623e
00000370: a844 69be 14db e63e 2d13 6d3f 7eb2 693f
00000380: a55f bcbe 3989 46be 4bfd 8e3d 33f5 1b3e
00000390: 08fe dd3d 82a1 47be 9119 213f cb61 8fbe
000003a0: b469 bebe 08c3 24be 3ff8 8fbe 97ee 83be
000003b0: 3e78 00be 3703 4dbf 6e7f 4abf b833 d3be
000003c0: 5b51 15bf 2a19 e0be 847f cabd 49fa 3f3f
000003d0: 55c6 e83e 820a 4abe b211 243f 9fe3 21bf
000003e0: e072 983e 4785 2b3e 4a92 c7be 9168 a13e
000003f0: e10d 44bf c985 1d3e 29b1 89be 39df 88bf
1.3044432 -0.13780075 -0.16093542 0.69230753 1.3691723 0.9388349 0.547708 -0.36532053
-0.026750542 -0.6120784 -0.10517041 -0.12508918 -0.70561755 0.1567673 -0.1147203 -0.30967298
0.068606935 -0.5142843 1.1788918 -0.38870513 -0.53803366 0.34016484 -0.7256582 0.116996154
1.0652182 0.44341755 -0.1333338 0.14287874 -0.07715843 -0.7328721 -1.1794355 0.24279192
1.0766841 -1.0133123 -0.40162015 0.061161954 0.4321718 1.1573639 -0.11510763 0.7823981
-0.4444161 -0.17109813 -0.4087573 -0.14151847 -0.54952973 0.6464984 -0.1853272 0.20083044
-0.4556016 -0.2269759 -0.16053468 0.44181904 -0.28568655 0.43485117 -0.37005565 -1.2222041
-0.42692572 0.34543818 0.16872707 -0.6891967 0.2443924 0.014254535 -0.031355485 -0.9705957
-0.08677246 -0.29905954 -0.274403 0.48581862 0.28800806 0.1355153 0.42059055 -0.17788865
-0.6930414 -0.48380274 0.53410846 0.42757 -0.4973106 -0.6577856 0.39488444 -1.0712614
-0.51936215 0.6522695 0.111940615 0.47717825 -0.05879209 -0.20558071 -0.7429947 0.40258086
0.019706082 -0.7188194 0.013407154 0.40956235 -0.30339757 0.566244 -0.27941528 -0.10866159
0.0039974228 0.04462866 -0.042811986 -0.54732996 1.5003576 -0.4244063 -0.47360793 0.034376804
-0.5515563 -0.6986347 0.11958457 -0.045711305 -0.037988544 -0.31940967 0.60415673 0.031706303
0.087908596 -0.022536585 0.3823427 0.013823555 -0.67646927 0.093831055 0.11556246 -0.4666614
-0.9313789 0.30879742 0.3867417 0.22284871 0.6926286 -0.03320726 -0.4736616 -0.35869625
-0.17459448 0.5970378 -0.7452565 -0.63019955 -0.2724806 0.37603948 -0.92377424 0.01646986
0.21472912 -1.1843938 -1.085418 -0.96312165 -0.0014883383 0.9756756 0.5262849 0.8489017
0.58851486 -0.5812926 0.12372383 -0.034740075 -1.1336333 0.03560388 -0.36658645 -0.16819055
0.690882 0.3480975 0.066858485 -0.3104264 -0.50122094 1.0436645 -0.45718494 -0.2714633
0.42969525 0.19951518 -0.028591089 0.67702085 0.3846551 0.18373217 0.14441495 0.21710627
0.23268822 0.5407552 0.48006415 0.17625377 -0.017701576 0.3396392 -0.062074807 -0.42337537
0.1014583 0.756004 -0.9207289 0.73438126 0.81913024 -0.44977516 0.31575948 0.47186038
-0.8063239 -0.34452197 0.42350858 -0.23888114 0.106691115 0.7094299 -0.33108196 0.97888595
-0.8353457 0.0055893124 0.14119916 -0.21409859 -0.25538033 -0.10265574 -0.7830401 1.2052312
-0.58087975 -1.2052746 -0.15044273 -0.36711183 0.4378432 -0.6460398 -0.05103899 -0.3049897
0.04243474 0.7892039 0.39398423 -0.021635277 0.15424228 0.38719824 1.4401032 0.07167177
0.17053488 -0.97612697 -0.6443915 0.22149648 -0.22780097 0.45089018 0.92607385 0.9128798
-0.3679172 -0.19388284 0.069819055 0.15230255 0.10839468 -0.19495204 0.62929636 -0.28004298
-0.3719002 -0.16090024 -0.28119084 -0.25767967 -0.12545869 -0.8008303 -0.7910069 -0.41250396
-0.58327264 -0.437692 -0.09887603 0.7499128 0.45463815 -0.19730571 0.640895 -0.6323795
0.29775143 0.1675006 -0.38978797 0.3152509 -0.7658368 0.15383066 -0.26892975 -1.0693122

feature.bias_ih_l0_reverse f4 [512]
00000000: 4297 b2bd 4a15 c4be 2b4d 433e c87f 6e3e
00000010: 2abd bebe 450a 453f 7e9f 00bf 0272 413d
00000020: 2a0e b43e cfba b4be a0a6 d93e 6dca 1f3e
00000030: 8703 c5be 7359 1dbe ba6b d43e 9115 10bd
00000040: fd28 c2be cef8 35be 81fe 0ebe c575 333f
00000050: ee62 2d3b a50c 733e 588f 87be a897 113f
00000060: d62f 4ebe c410 3d3e bc70 ab3b 8a41 babd
00000070: ac1a 993d 1b0b 04be 92a8 c43e 9d49 c4be
00000080: d2df 11bf f4f2 fc3d 1948 46be db02 89bd
00000090: 81d7 4f3e 0369 98be ae81 033f 6d83 2f3e
000000a0: e0c9 4d3e 7306 f53e f03c e63d 3464 21bd
000000b0: fdba eb3e 8f3e b03a 45a9 4bbe dd93 4ebd
000000c0: dc10 d1bd 304c 4b3f 2a4e 0c3e 6cac 0a3d
000000d0: 9b52 053f b65c 963e 71a3 cbbd c12a 453e
000000e0: 4f2f 87bd 3fc4 cabd 08e5 753e 62c1 bebe
000000f0: fd2f 0f3e 82c3 a8be 488d 293d 8497 87bd
00000100: 3cd8 2d3e e9b5 4d3e 003e 063f e738 983e
00000110: a300 eebd 911d 6abe 6933 ef3d 878c f73d
00000120: 6bf2 a4bd 6005 b5be 64d3 6abe 0525 90be
00000130: ac7a 89bd 5396 a63e 9b75 9a3e c088 23be
00000140: 7829 5f3e 2e0f 263f 0542 4a3e 4c08 8938
00000150: 7a69 abbe 2599 f23d 417a b63e 7454 183e
00000160: a05e 25be 73bf 663f f481 723e f7a8 95be
00000170: c710 983e b99a 01be f933 903e 40c2 5ebc
00000180: 7944 fe3e b1eb ef3e 2ba0 453f 28ba 90bd
00000190: f6ee a93e 8ac6 d8bc ddd1 aa3e 12e3 13be
000001a0: 7c4c ebbd 71a2 ebbd 38f0 bfbc 1f8d b6bd
000001b0: 188b 31bf b4a1 05bf ba67 9ebe c7d4 44bd
000001c0: ae2c 9dbe 34e8 97bd 66bd 183e 646d 39bf
000001d0: ec91 123f 8e25 5db9 6599 32bf c8b4 543f
000001e0: d673 75bd 30b7 d93d 6cfc 1a3d 06eb 00be
000001f0: 09f7 a53c f5c6 afbe 9ea0 243f 1252 54bc
00000200: d27b 49be e28a 11be dfc1 b8be 472f 10bf
00000210: 1a27 12be 6f4b 12bf 14cf 563d 543b 043f
00000220: 5a95 963e 4f2d 87be f9c3 a13e 9dc7 e23e
00000230: e8b0 adbc 5be3 473e 218b 663d e9a5 02be
00000240: 1cf9 153f dabd 37be f78c 09bf e51e afbe
00000250: d940 06bd 06bc bb3e 3f11 eabe 5c7f 803d
00000260: 8111 57bd bd89 08be f5c3 933d 351e 963e
00000270: e76b f83d afcf dc3d 427b 8ebe b648 45bd
00000280: a778 0bbf 5bc7 b2be 1484 3abe 94c2 5a3e
00000290: f60c 97bd a91e b8be c966 8f3e 9e65 58be
000002a0: 7a34 afbe cec0 89be c63d 87be aef1 cb3a
000002b0: 939d b9be e967 213f a40d a13d 2c7b 79bd
000002c0: b9a7 0e3d e7ab 00bf 5879 233d 2eef ce3e
000002d0: 981f f5be 0f37 91be 2279 703d 3465 a3be
000002e0: c55b c73d 2279 62be 8092 203d 8d13 efbd
000002f0: 7e1a dfbe 683c 55be 198b 0c3e 3628 f5be
00000300: ecb1 0fbe a25f 703b 66b9 89be 534b 273f
00000310: 2cbd 1d3e 03a9 92be f4cd 97be c43e c93d
00000320: fe2f c2bd a5f8 0abf b33b a0be 31a5 c4bd
00000330: f82c 33be 508b 6dbf e50b d0be fb22 7abe
00000340: 60ef a4be b8c1 67be 9319 d6bd 8360 05bd
00000350: b287 29be 2f37 143e 69e4 653e d2cd 29be
00000360: 7e99 383e de60 10bf cb14 65bc 3280 50be
00000370: 80fe 72be 4689 f5be c096 80be 42a6 ccbe
00000380: ea4d edbe 0a37 80be 46f7 a6be 2d71 84bc
00000390: b567 52bf cf47 6bbe 3f81 d4be 49c7 9b3e
000003a0: 58c6 c43e 83d4 1abf 1b5b f4be 4d7b acbd
000003b0: 436b 8dbe 7031 85bd 975b 2abf 90cc 55be
000003c0: b271 973e b40a ecb9 aa56 1b3e fed2 833e
000003d0: 76af 8bbe 0566 523e 418a 263f c66b b9be
000003e0: d009 92be 619c 933d cf90 8fbb 4e45 83be
000003f0: 7ca6 32be dd54 8a3e 369f 45be 3498 023e
-0.087202564 -0.38297492 0.19072406 0.23290932 -0.37253696 0.76968795 -0.50243366 0.047227867
0.35167056 -0.35298774 0.42509937 0.15604563 -0.38479254 -0.15366153 0.4148844 -0.035176817
-0.37921897 -0.17770693 -0.13964273 0.7010158 0.0026456672 0.23735292 -0.2647655 0.56872034
-0.20135435 0.18463427 0.005231945 -0.09094532 0.074757904 -0.12894861 0.3840986 -0.38337412
-0.5698215 0.12351027 -0.1936344 -0.06689998 0.20297052 -0.29767618 0.5136975 0.17139979
0.2009654 0.47856483 0.11242092 -0.0394022 0.46041098 0.0013446378 -0.1988879 -0.050433982
-0.10208294 0.7941313 0.13701692 0.03385584 0.5207917 0.29367608 -0.09943283 0.1925459
-0.0660082 -0.09900712 0.2401315 -0.37256914 0.1398315 -0.3296166 0.041394502 -0.06620696
0.16977018 0.20088924 0.52438354 0.29730913 -0.11621215 -0.22862841 0.116797276 0.1208735
-0.0805405 -0.35355663 -0.22932202 -0.28153244 -0.06712851 0.32536563 0.3016785 -0.15970135
0.21793163 0.6486691 0.19751747 6.5342145e-05 -0.3347891 0.11845616 0.35640147 0.14875966
-0.16149378 0.9013588 0.23682386 -0.29230472 0.297003 -0.12656678 0.28164652 -0.0135961175
0.49661615 0.46859506 0.7719752 -0.070667565 0.33190125 -0.026461858 0.33363238 -0.14442089
-0.114891976 -0.115055926 -0.023429975 -0.089136355 -0.69352865 -0.52199864 -0.30938512 -0.048054483
-0.3069815 -0.07417336 0.14916 -0.7243254 0.5725391 -0.00021090193 -0.6976531 0.8308835
-0.059924923 0.10630643 0.037838385 -0.12589654 0.020259397 -0.3433148 0.6430758 -0.01295902
-0.1967614 -0.14213136 -0.36085412 -0.5632214 -0.14272729 -0.5714635 0.05244358 0.5165303
0.2941082 -0.26401755 0.31594828 0.44292918 -0.02120252 0.19520323 0.056285027 -0.12758602
0.58583236 -0.17943516 -0.5373072 -0.34203258 -0.032776687 0.36666888 -0.45716283 0.06274292
-0.052506927 -0.13333793 0.0721511 0.2931992 0.12129956 0.107818 -0.27828413 -0.048165046
-0.54480976 -0.3491772 -0.18214446 0.21363288 -0.07375519 -0.35960892 0.28008106 -0.21132514
-0.34219724 -0.2690491 -0.26414317 0.0015559697 -0.36253032 0.6304918 0.0786393 -0.06090848
0.03482792 -0.502623 0.039910644 0.40416855 -0.47875667 -0.2836232 0.05870927 -0.3191315
0.097343005 -0.22116521 0.039202213 -0.11673651 -0.435749 -0.20823824 0.13724937 -0.4788224
-0.14032716 0.0036678095 -0.2689926 0.6534931 0.15404195 -0.2864457 -0.29649317 0.09826425
-0.0948181 -0.5428565 -0.31295547 -0.0960182 -0.17497623 -0.927907 -0.40634075 -0.24427406
-0.3221388 -0.22632492 -0.10454097 -0.032562744 -0.1655567 0.14474176 0.22450413 -0.1658242
0.18027303 -0.5639781 -0.013982008 -0.20361403 -0.23729897 -0.47956294 -0.25115013 -0.39970595
-0.46348506 -0.2504199 -0.3261053 -0.016167248 -0.82189494 -0.22976612 -0.41504857 0.3042548
0.38432574 -0.6048052 -0.47725758 -0.08421955 -0.27620897 -0.0650357 -0.66546005 -0.20878816
0.2957893 -0.00045021402 0.15169778 0.25746912 -0.27282304 0.2054673 0.6505471 -0.36215037
-0.2852311 0.07207561 -0.004381276 -0.25638813 -0.17446321 0.2701787 -0.19299015 0.12753373

feature.bias_hh_l0_reverse f4 [512]
00000000: f753 abbc 5a27 c7be a402 903e b850 7c3e
00000010: 4ca8 d0be 19f8 3a3f 45a7 c9be 8812 ce3d
00000020: 46b1 763e f1ec cbbe 5ecd cc3e a9cb 9d3d
00000030: d0e4 83be a884 cfbd efc1 b43e 1c15 debd
00000040: 4c9b f7be bfbd 95bd 86b1 1bbe 476b 353f
00000050: 1d77 d2bc b235 643e 9ea1 81be d982 263f
00000060: 7c39 12be 924b 133e 6d26 72bd d36d 35be
00000070: f029 d73d a293 e5bd 3872 a63e e5bc 0abe
00000080: 5915 1ebf 0f03 d53d 14fb 28be f6d5 11be
00000090: 24d8 83ba c0d3 68be e4c2 033f 02c5 7f3d
000000a0: b488 833e 3a2c 103f c705 c53d 88f4 1ebe
000000b0: f50e 063f bece a1bc 2896 8fbe 7bc9 a4bd
000000c0: 38d4 85be 7f98 2d3f f684 1dbd b0be d93d
000000d0: 4dee f53e 17ff 973e 94c1 0bbd ba19 8c3e
000000e0: 09ed 47be 2d1d 30be 0d7b e33d 1a16 9cbe
000000f0: d620 813e 232b 86be d2e1 30bd c1be 7dbc
00000100: 59e2 8f3e 2303 343e bb88 113f b0f0 613e
00000110: 246c 1fbe 615d 53be 66f6 0b3e 5272 453d
00000120: 02d8 09be 1df2 b8be d20c 6abe df29 73be
00000130: 4e1d f4bc c890 9c3e ccd5 7b3e 39d6 83be
00000140: 80ee 1b3e e70d 373f c823 123e 2349 a13c
00000150: 7c54 bebe e9ca 203e 9b8d c73e 5383 f23d
00000160: 747d bdbd 3ef9 473f 566b 4f3e 35d8 b6be
00000170: 2040 a83e 7a1d d4bd c1d6 ca3e e771 89bd
00000180: 62b8 1b3f e265 e03e de54 5b3f 0f32 aabd
00000190: 06a6 6a3e 6015 e6bd 8932 b33e 814f 33be
000001a0: d9d5 7abe 990c 6e3c c1b1 39be fa15 a0bd
000001b0: 9f8c 44bf de8a fcbe 77a9 b1be d3f2 d0bd
000001c0: a96c b2be 7fec 71bd 5df3 163e 62da 2cbf
000001d0: f1ef 043f 53f6 9bbc 1849 0fbf 324c 503f
000001e0: 9a9f 88bd e37f 843d 39dc efbb 7570 11be
000001f0: 3d88 babd f4bd a1be 9657 363f 8f7f d2bb
00000200: c130 5cbe bd90 b73c f136 d3be 1049 e7be
00000210: adde 723c f622 31bf 7534 dbbd d779 113f
00000220: 03c5 4a3e 9cec 0fbe 621d e03e 9e0f bf3e
00000230: 44f9 b8bd 6df6 113e 1c2e 9ebd ba45 2ebe
00000240: ddd9 1e3f 1842 9dbe 9083 08bf 22d0 c7be
00000250: 228d 74be e566 aa3e f6b8 7abe 8a89 923d
00000260: c021 4bbe 0489 c4bc 7d99 263e 9692 743e
00000270: ec50 613c f50c 563e acf6 84be 173f 81be
00000280: ce81 f8be 9c4d 9bbe aefd 95bd 37cd 413e
00000290: 3f36 bcbd 4e51 bcbe bdc6 9f3e fc71 45be
000002a0: 503c 3cbe e7fd 90be e2ab 61be 3afa 0f3a
000002b0: c0da 7fbe 438f 1d3f 9164 a53c dcfa 93bd
000002c0: 7a19 bbbd 7a5f eebe 4a6d 70bd 893d 073f
000002d0: 0fde c1be 6e8c 88be 31a0 2e3e 02ab bfbe
000002e0: 51d1 053d 846f 92be 9f45 49bd 986c 39be
000002f0: 0dc8 b3be cdd4 a8be 93b0 c83c 6c35 05bf
00000300: f1b9 5abe 3d43 a7bc 9141 a5be d352 fe3e
00000310: a5c5 c13d 651f 83be 4d10 8ebe ae9a 0f3e
00000320: 38e3 5f3d 1b78 0abf 0b22 c6be e691 9cbe
00000330: 029b 05be 8d88 58bf 60bf b0be ddfb 71be
00000340: e150 eabe 2384 73be 7188 a2bd bddb 303e
00000350: 4034 37be 9209 233e 3281 093e a110 9cbe
00000360: 9b04 5f3e fecf 11bf 5728 b6bd e51d 4bbe
00000370: 104e 7dbe e28d 02bf 99fd 98be 745b f0be
00000380: 029a bcbe b8c3 83be 0fc2 96be 888a 73bd
00000390: 963d 38bf a8fd efbd 6143 aebe d9d3 ab3e
000003a0: 2578 c83e 6890 0dbf d88a dfbe 4ae8 18bd
000003b0: 517b a5be 7ad7 9fbd 0546 1fbf 21ea 5cbe
000003c0: d1d8 c93e 7f7d 373d d790 263e 6f37 a03e
000003d0: e494 54be dd4f 963d 47d4 2e3f f897 98be
000003e0: dc54 2ebe f908 3cbd 2566 d83c 24c5 9dbe
000003f0: 722f 04bd 9bdf a03e 83a0 6bbe 84c1 2b3e
-0.020914061 -0.3889721 0.28127015 0.24640167 -0.407534 0.73034817 -0.3938543 0.10062128
0.24091062 -0.3982921 0.40000433 0.07704861 -0.25760508 -0.10132724 0.3530421 -0.1084387
-0.4836067 -0.07311582 -0.15204439 0.7086682 -0.025691563 0.22286108 -0.25318617 0.6504341
-0.14279741 0.14384297 -0.059118677 -0.17717676 0.10506046 -0.11209799 0.32509017 -0.1354862
-0.61751324 0.10400974 -0.16502029 -0.14241776 -0.0010058922 -0.22737026 0.51469254 0.06244374
0.25690234 0.56317484 0.096202426 -0.15522969 0.5236657 -0.019751903 -0.28044248 -0.08046242
-0.26138473 0.67810816 -0.03845688 0.10632074 0.48033372 0.29686806 -0.034120157 0.27363378
-0.19524015 -0.1719863 0.111074544 -0.30485612 0.25220364 -0.26204786 -0.04318411 -0.015487374
0.28102377 0.17579322 0.5684926 0.22064471 -0.15568596 -0.2064109 0.13668212 0.048204727
-0.13461307 -0.36122218 -0.22856453 -0.23746441 -0.02979913 0.3057921 0.24593276 -0.25749376
0.152277 0.7150559 0.14271462 0.019688195 -0.3717383 0.15702404 0.38975224 0.11841454
-0.09252444 0.7811469 0.20255789 -0.35711828 0.32861423 -0.10357185 0.3961697 -0.06711178
0.6082822 0.4382773 0.8567637 -0.08310329 0.22914895 -0.11234546 0.34999493 -0.17510797
-0.24495639 0.014529371 -0.18134214 -0.07816692 -0.7677707 -0.49324697 -0.34699604 -0.10202565
-0.34848526 -0.05906343 0.14741273 -0.67520726 0.5192862 -0.019038355 -0.5597091 0.81366265
-0.066710666 0.06469705 -0.0073199538 -0.14203055 -0.09108017 -0.31590235 0.71227396 -0.0064238976
-0.21502973 0.022407884 -0.41252854 -0.4517293 0.014823598 -0.6919397 -0.10703365 0.5682654
0.19801717 -0.14055103 0.43772417 0.37316602 -0.09031919 0.1425416 -0.077236384 -0.17018786
0.62051183 -0.30714488 -0.5332575 -0.3902598 -0.23881963 0.33281627 -0.2448462 0.0715514
-0.19837093 -0.023991115 0.16269489 0.23884043 0.013752203 0.2090338 -0.25969446 -0.25243446
-0.48536533 -0.3033265 -0.07323776 0.1892594 -0.09190034 -0.3678078 0.31206313 -0.19281763
-0.18382382 -0.28318712 -0.22038224 0.0005492304 -0.2498579 0.61546725 0.020189555 -0.07225582
-0.09135719 -0.46557218 -0.058697976 0.5282827 -0.3786473 -0.2666964 0.17053296 -0.37435156
0.032670323 -0.28600705 -0.04913866 -0.18107831 -0.35113564 -0.32974854 0.02449826 -0.5203464
-0.21359994 -0.020417804 -0.32276586 0.49672565 0.09461526 -0.2560989 -0.27746812 0.1402385
0.054660052 -0.54089516 -0.38697848 -0.30580062 -0.13047412 -0.8458336 -0.34521008 -0.23631234
-0.4576483 -0.23780875 -0.079361804 0.17271324 -0.17891026 0.1592162 0.1342819 -0.30481437
0.217791 -0.56957996 -0.08894413 -0.19835623 -0.2473681 -0.50997746 -0.2988098 -0.46944773
-0.3683625 -0.2573526 -0.2944493 -0.059458286 -0.7196897 -0.11718303 -0.3403578 0.33560064
0.39154163 -0.5529847 -0.43660617 -0.037330903 -0.32320645 -0.07804771 -0.62216216 -0.21573688
0.3942323 0.044797417 0.1626619 0.31292292 -0.20759922 0.073394515 0.6829266 -0.29803443
-0.17024559 -0.045906994 0.026415894 -0.3081447 -0.03227181 0.31420597 -0.23010449 0.16773039
