logs/classifier/20_contexts/fold_01/10-18-2022_19-28-47/model_params.pth (torch, 822087 bytes, 10 tensors)

feature.weight_ih_l0 f4 [512, 64]
0.11133928 -0.53619635 0.21567698 0.6348557 0.4758045 0.33428192 0.4626631 0.6704921
-0.7809369 -0.14959306 -0.39034778 0.15450965 0.26578686 -0.18532923 -0.5124772 0.11825349
0.27952492 -0.25464693 -0.121744595 0.6941797 0.20903392 0.22990976 0.5221544 0.29663187
0.70337987 -1.0020266 -0.48767594 -0.3909844 0.09022208 0.7762329 0.057786044 0.36229557
-0.8428862 -0.0889977 -0.7335652 0.62278396 0.41415343 0.09572339 -0.31423414 0.18590029
-0.5446192 -0.4891271 -0.3865094 0.121113695 1.0249679 -0.06324777 -0.8749894 0.49217513
-0.25351873 0.77496886 0.36339864 0.39043805 0.40558115 -1.4277376 -1.2075884 -0.84997594
0.52165866 -0.31246558 -1.3774143 0.9674179 0.6157172 0.31569266 -0.34874547 0.1919608
-0.6799037 -0.91564655 -0.16824198 0.33811682 -0.84241676 0.7374314 -0.34444824 0.6261918
0.37491393 -0.058683906 -1.0204397 -1.3437241 0.31459448 -0.49077034 0.31892782 0.32161465
-0.049775604 -0.5124376 0.4180827 -0.7808345 -1.126181 0.69953805 -0.09244305 -0.26617056
0.46642444 -0.47524634 0.0769598 0.64193106 0.54007286 0.76273584 -0.13508774 -1.238321
0.03585081 -0.40082076 0.07168745 -0.061692763 0.41825074 -0.40127274 -0.5684974 -0.4640264
0.5178139 -0.30497724 -1.351401 1.16078 -1.0120988 -0.8759723 0.013169571 0.72088796
0.01068646 -0.3360844 -0.19257915 -0.51564234 1.4374853 -0.074464954 -0.20406058 -0.35722965
0.43939465 -0.38914198 -0.3510643 -0.8139278 -0.007528887 0.16518612 0.35099667 -1.2730206
0.32821125 0.4538304 -0.09263709 0.3542849 0.27477857 0.13578327 0.46900544 0.6024727
-0.07688712 0.10892041 -0.2001991 -0.45486397 0.34912643 -0.24320081 0.14695409 -0.40683156
-0.025179781 -0.8887648 0.37234858 0.7026222 0.64330286 -0.40806976 0.37964082 0.63677317
-0.8686737 -0.53445673 -0.6195329 0.95224607 -0.8837176 -0.856481 0.35321376 -1.2273242
0.15757579 1.124122 -1.081494 -0.055200927 -0.081212945 0.40844443 0.31127328 0.4103347
-0.5281467 0.28125507 -0.6507917 -0.32513833 -0.7419482 0.85717297 0.025414515 -0.46859705
0.22306788 -0.11174162 -0.84671867 -0.8569063 0.74665076 -1.1962851 0.50675595 0.09389585
0.04376792 -0.05540493 0.086268246 0.33608186 -0.60921526 -0.20231327 -0.6106753 -0.34908536
-0.14227028 -0.86877745 0.17766677 1.046871 0.35066703 0.12019171 0.47251377 0.8295084
0.5096291 -0.0013437802 -0.37519422 -0.32892618 -0.8886982 -0.7248974 -0.58366346 -0.12977858
-0.23763573 -0.08720484 0.26495752 0.5976569 0.43600768 -0.4643163 -0.61743623 0.42582297
0.19134353 -0.044550877 -0.6611906 0.09834364 -0.53495204 -0.52784705 1.114362 -0.60303986
-0.7923724 -0.73129827 -1.2604594 0.2617569 0.7544629 -0.26873738 0.4194505 0.2886935
0.11432574 1.1249502 -0.4339302 0.2090998 0.7303592 -0.6170298 1.1630393 -0.7660334
0.5438967 -0.2743382 -0.19024883 -0.14935605 0.52218324 -0.9310665 0.06435674 -0.54045117
1.0787121 0.1487289 0.39177385 0.17225462 0.06928407 -0.76262105 -0.8546773 0.21365106
00000000: d905 e43d 2a44 09bf 6dda 5c3e e785 223f
00000010: a69c f33e 0027 ab3e 2ee2 ec3e 5fa5 2b3f
00000020: 7beb 47bf ec2e 19be aadb c7be c737 1e3e
00000030: 3715 883e f2c6 3dbe b531 03bf e32e f23d
00000040: e41d 8f3e 1561 82be 3b55 f9bd c3b5 313f
00000050: fd0c 563e 776d 6b3e e9ab 053f 22e0 973e
00000060: b410 343f 6842 80bf a9b0 f9be 1b2f c8be
00000070: 5bc6 b83d 33b7 463f 0fb1 6c3d ce7e b93e
00000080: 64c7 57bf 6d44 b6bd eeca 3bbf c56e 1f3f
00000090: eb0b d43e a00a c43d 4ce3 a0be a55c 3e3e
000000a0: 2a6c 0bbf de6e fabe 8fe4 c5be 750a f83d
000000b0: 2632 833f 0c88 81bd 4eff 5fbf 61fe fb3e
000000c0: 35cd 81be 5c64 463f 630f ba3e 7fe7 c73e
000000d0: 55a8 cf3e 1bc0 b6bf 4292 9abf 0698 59bf
000000e0: 6c8b 053f 7dfb 9fbe 1d4f b0bf b3a8 773f
000000f0: a49f 1d3f 78a2 a13e c48e b2be 5f91 443e
00000100: 2b0e 2ebf d067 6abf a047 2cbe a61d ad3e
00000110: a0a8 57bf 4ec8 3c3f 855b b0be 1b4e 203f
00000120: b8f4 bf3e 895e 70bd c59d 82bf 27ff abbf
00000130: 8712 a13e 4046 fbbe 824a a33e adaa a43e
00000140: 81e1 4bbd 1c2f 03bf f00e d63e c5e4 47bf
00000150: b326 90bf ed14 333f c852 bdbd 8247 88be
00000160: 2fcf ee3e 7d53 f3be 1a9d 9d3d 9855 243f
00000170: 3742 0a3f a842 433f 7154 0abe 4d81 9ebf
00000180: 4dd8 123d 6138 cdbe dfd0 923d 8db1 7cbd
00000190: f624 d63e 9f73 cdbe 0c89 11bf de94 edbe
000001a0: 748f 043f fa25 9cbe b5fa acbf 7094 943f
000001b0: 748c 81bf b83f 60bf 2fc5 573c 1d8c 383f
000001c0: 4316 2f3c 4113 acbe 7833 45be 2301 04bf
000001d0: 85ff b73f 1581 98bd 42f5 50be cee6 b6be
000001e0: 56f8 e03e 9e3d c7be b3be b3be 935d 50bf
000001f0: e2b4 f6bb 8d26 293e d6b5 b33e 57f2 a2bf
00000200: 4e0b a83e 755c e83e 84b8 bdbd d564 b53e
00000210: c7af 8c3e c50a 0b3e 7b21 f03e a73b 1a3f
00000220: ff76 9dbd aa11 df3d fe00 4dbe eee3 e8be
00000230: b3c0 b23e a209 79be 227b 163e 3a4c d0be
00000240: d445 cebc 1786 63bf 79a4 be3e 0cdf 333f
00000250: 7faf 243f 85ee d0be 4860 c23e 9103 233f
00000260: 6661 5ebf 28d2 08bf b599 1ebf 66c6 733f
00000270: 513b 62bf 5742 5bbf 6fd8 b43e f618 9dbf
00000280: 8c5b 213e 3be3 8f3f 656e 8abf 5e1a 62bd
00000290: f952 a6bd a11f d13e 365f 9f3e 6417 d23e
000002a0: 9f34 07bf aa00 903e 499a 26bf 8878 a6be
000002b0: 51f0 3dbf b06f 5b3f 1a32 d03c f4eb efbe
000002c0: e86b 643e cad8 e4bd 8ec2 58bf 365e 5bbf
000002d0: 8124 3f3f df1f 99bf c2ba 013f 784c c03d
000002e0: fe45 333d 48f0 62bd 68ad b03d ec12 ac3e
000002f0: 88f5 1bbf 362b 4fbe 3755 1cbf 51bb b2be
00000300: 4daf 11be 3368 5ebf 47ee 353e deff 853f
00000310: a18a b33e 1227 f63d 53ed f13e aa5a 543f
00000320: 0d77 023f c821 b0ba 7519 c0be 0369 a8be
00000330: ba81 63bf e092 39bf f86a 15bf ade4 04be
00000340: c856 73be 7398 b2bd 83a8 873e 0b00 193f
00000350: 663c df3e deba edbe 4d10 1ebf 7805 da3e
00000360: 8fef 433e fb7a 36bd ca43 29bf 6468 c93d
00000370: 9ef2 08bf fc20 07bf 6aa3 8e3f d260 1abf
00000380: ebd8 4abf 5d36 3bbf bc56 a1bf 0005 863e
00000390: 7b24 413f f297 89be 37c2 d63e a2cf 933e
000003a0: 9d23 ea3d 5efe 8f3f 192c debe 421e 563e
000003b0: d2f8 3a3f aaf5 1dbf 79de 943f c41a 44bf
000003c0: d03c 0b3f 0e76 8cbe 97d0 42be cbf0 18be
000003d0: cdad 053f 605a 6ebf 77cd 833d 025b 0abf
000003e0: 3d13 8a3f 644c 183e 9596 c83e 8463 303e
000003f0: cee4 8d3d 223b 43bf 22cc 5abf 58c7 5a3e

feature.weight_hh_l0 f4 [512, 128]
0.101783164 0.48082635 -0.55949813 0.030033687 0.007676849 0.5825049 0.11414485 -0.08966414
0.509182 0.019290833 -0.19704221 -0.2351911 0.08331334 0.2995584 -0.6203639 0.45207888
-0.09746775 0.17597733 0.093382165 0.7670954 -0.0027393633 -0.49247748 0.031507507 0.15676694
0.050526597 -1.1121832 0.035355132 -0.24120104 0.7187014 -0.36628374 -0.011295436 -0.45867762
-0.7631066 -0.9875333 0.19783951 -0.9954553 -0.39277592 0.33418506 0.51560545 -0.06298034
0.2633753 -0.11219193 -0.20403722 -0.3690132 0.21994483 -0.028637001 1.1169674 0.39796737
-0.2612102 0.34721512 0.70040643 0.69721353 -0.80587876 -0.99650675 0.6670693 0.3061305
0.33234543 0.038957175 -0.29610002 -0.7373472 -0.8447893 0.46609366 -0.3797516 -0.63027585
0.15981214 0.53812224 0.3329193 0.07834631 -0.7346827 -0.20205863 0.24764627 0.30850703
-0.6317173 1.0790545 -0.03212203 -0.20846282 -0.7815932 0.2563102 -0.121212505 -0.080237955
-1.1084788 0.11206878 0.016693112 -0.5738939 -0.0403642 -0.040680714 -0.9611468 -0.055929646
0.22849163 0.611836 0.366241 -0.6428406 1.2156231 0.28436562 0.1331871 0.2516064
-0.64698493 0.2838635 -0.5700818 0.36444575 0.61842597 -0.61707944 -0.039488476 1.2457001
0.69158506 0.6667071 0.7411266 -0.07137173 0.9133389 -0.039557524 0.29793614 0.8879092
-0.22080356 -0.20849703 1.1204832 0.854751 -1.3994882 1.0945011 0.7811529 0.48741356
0.08548219 0.40993628 0.22657578 -0.56992155 0.2706493 -0.71143776 0.43212223 0.5476705
-0.85359246 -0.107053325 -0.22791103 0.36718634 0.031425357 -0.14481151 0.65108854 -0.492536
-0.23194595 -0.33087483 -0.07569795 -0.6903264 -0.35878086 0.02630474 -0.47468907 -0.40713403
-0.31900457 0.082460046 -0.021118097 -0.07015912 -0.5216358 -0.9226398 -0.40669194 -0.05199923
-0.63404965 -0.10306366 -0.6001145 0.69685376 1.1318474 0.20391661 -0.5695805 0.10821307
0.024007596 0.08850613 -0.024578461 -0.45872775 0.3527186 0.6900618 0.15503813 0.23839755
0.06406254 0.46413255 0.74341327 -0.16480267 -0.6730773 0.089555696 -0.26373103 0.8866235
-0.068860635 1.1305798 -0.112610094 0.017888028 -0.11310268 0.06920046 0.15430844 0.70788443
0.41188562 0.7675668 -0.71303666 0.044564504 0.15107708 -1.2182314 -0.38607624 0.46971214
-0.40143472 0.4842549 -0.94110405 0.35875893 -0.032859698 -0.052478984 -0.010788233 -0.5582294
-0.18764043 -0.19799767 0.42530343 -0.4720262 0.2536971 0.69864565 -0.25808638 -0.17194177
0.67554706 -0.08964873 -0.56324416 -0.4463747 0.32914928 -0.26614884 0.6563235 -0.14663461
0.5447943 -0.12932779 0.0053318683 0.14999355 -0.40177038 -0.115483426 0.27188125 0.5745558
-0.09247599 0.54639894 0.44759595 0.6098615 -0.8308031 1.0002766 0.20280845 -0.21413341
0.34799132 0.022679562 0.44258112 0.59389776 -0.5747442 -0.034469265 -0.08457723 0.3723935
0.62981176 -0.54811233 0.06871755 0.36314863 0.3445882 -0.10857512 -0.5616961 -0.7767253
1.156483 0.3580312 0.6177147 -0.8626051 0.82676584 0.037878834 -0.16540624 0.0746985
00000000: b173 d03d df2e f63e 453b 0fbf 3509 f63c
00000010: 148e fb3b 0b1f 153f c6c4 e93d d5a1 b7bd
00000020: c059 023f cf07 9e3c 6fc5 49be f0d5 70be
00000030: 2fa0 aa3d b85f 993e 2bd0 1ebf e276 e73e
00000040: 2c9d c7bd 6733 343e 263f bf3d 5d60 443f
00000050: e486 33bb 0226 fcbe 040e 013d 8387 203e
00000060: faf4 4e3d 055c 8ebf 8bd0 103d 68fd 76be
00000070: d1fc 373f 8b89 bbbe 7e10 39bc cbd7 eabe
00000080: f45a 43bf fbce 7cbf 7196 4a3e 29d6 7ebf
00000090: ed19 c9be 4e1a ab3e b8fe 033f d6fb 80bd
000000a0: 21d9 863e e2c4 e5bd 22ef 50be 4cef bcbe
000000b0: 3839 613e 2598 eabc caf8 8e3f 61c2 cb3e
000000c0: 58bd 85be 2ec6 b13e d64d 333f 967c 323f
000000d0: 124e 4ebf 111b 7fbf 0ec5 2a3f 23bd 9c3e
000000e0: 2e29 aa3e 8f91 1f3d 6c9a 97be c9c2 3cbf
000000f0: 1d44 58bf d4a3 ee3e cd6e c2be c259 21bf
00000100: cba5 233e 61c2 093f 6674 aa3e 0874 a03d
00000110: 2a14 3cbf 75e8 4ebe fc96 7d3e a2f4 9d3e
00000120: 3ab8 21bf 751e 8a3f 6492 03bd 4777 55be
00000130: 7e16 48bf 173b 833e 433e f8bd cc53 a4bd
00000140: a2e2 8dbf 5184 e53d febf 883c b6ea 12bf
00000150: ee54 25bd d2a0 26bd b70d 76bf 7c16 65bd
00000160: b6f9 693e 49a1 1c3f f183 bb3e 3491 24bf
00000170: 8a99 9b3f 5f98 913e 3362 083e 8ed2 803e
00000180: cea0 25bf 8f56 913e e1f0 11bf a298 ba3e
00000190: 2a51 1e3f ebf8 1dbf abbe 21bd 1a73 9f3f
000001a0: b80b 313f 51ad 2a3f 79ba 3d3f 572b 92bd
000001b0: 94d0 693f 1207 22bd 168b 983e 044e 633f
000001c0: 541a 62be 3f80 55be fe6b 8f3f f6d0 5a3f
000001d0: 6e22 b3bf 9d18 8c3f a3f9 473f 458e f93e
000001e0: 4911 af3d 2be3 d13e 7b03 683e 61e6 11bf
000001f0: 8c92 8a3e c920 36bf 203f dd3e 2234 0c3f
00000200: 0985 5abf c63e dbbd 8261 69be d9ff bb3e
00000210: e0b7 003d 7849 14be bdad 263f ae2d fcbe
00000220: 3d83 6dbe 6d68 a9be 8707 9bbd 3bb9 30bf
00000230: 20b2 b7be 0a7d d73c 720a f3be df73 d0be
00000240: 9154 a3be d0e0 a83d dcff acbc 96af 8fbd
00000250: ec89 05bf 1f32 6cbf ed39 d0be 25fd 54bd
00000260: 1451 22bf 0a13 d3bd 1ba1 19bf 0265 323f
00000270: 60e0 903f 84cf 503e 07d0 11bf d09e dd3d
00000280: 94ab c43c b442 b53d c558 c9bc 5dde eabe
00000290: 8897 b43e e4a7 303f 51c2 1e3e 7d1e 743e
000002a0: 3933 833d c8a2 ed3e 5550 3e3f 08c2 28be
000002b0: cb4e 2cbf fa68 b73d c107 87be c2f9 623f
000002c0: ce06 8dbd d7b6 903f 1fa0 e6bd ea89 923c
000002d0: 61a2 e7bd f9b8 8d3d 0803 1e3e ea37 353f
000002e0: ace2 d23e 427f 443f 9289 36bf 4589 363d
000002f0: f3b3 1a3e 02ef 9bbf c9ab c5be 1c7e f03e
00000300: da88 cdbe 42f0 f73e 32ec 70bf 40af b73e
00000310: e497 06bd 34f4 56bd 21c1 30bc 1fe8 0ebf
00000320: d024 40be e7bf 4abe 5fc1 d93e 6bad f1be
00000330: 96e4 813e 71da 323f e623 84be 8111 30be
00000340: a7f0 2c3f c199 b7bd c530 10bf 3a8b e4be
00000350: 4186 a83e a944 88be d104 283f 6227 16be
00000360: a477 0b3f 816e 04be f4b6 ae3b e997 193e
00000370: d9b4 cdbe 9382 ecbd 0534 8b3e 1716 133f
00000380: 0d64 bdbd cde0 0b3f 4c2b e53e e21f 1c3f
00000390: 83af 54bf 1009 803f 05ad 4f3e ca45 5bbe
000003a0: eb2b b23e 7dca b93c fe99 e23e af09 183f
000003b0: 7022 13bf a52f 0dbd d436 adbd 5caa be3e
000003c0: 583b 213f 1751 0cbf c9bb 8c3d 9eee b93e
000003d0: dd6d b03e a25c debd 51cb 0fbf 78d7 46bf
000003e0: a307 943f de4f b73e 8d22 1e3f b0d3 5cbf
000003f0: eda6 533f d626 1b3d 4160 29be 87fb 983d

feature.bias_ih_l0 f4 [512]
-0.1601485 0.88595396 0.36015937 -0.072257094 -0.033734377 0.4443308 -0.18202613 0.71804667
0.71906286 -0.09601863 -0.2736411 -0.094689466 0.2210938 0.27107143 0.24263981 -0.14655474
-0.045389898 0.21954697 0.026263148 0.22925408 0.8273204 0.021835035 0.014707395 -0.13607779
-0.032015942 0.1310956 0.29865402 1.1456344 0.14795068 -0.2694317 -0.42362472 0.43013984
-0.17535388 0.27750716 -0.11778014 0.5107317 -0.09529502 0.025445513 0.021922424 0.20982057
-0.2718677 -0.11706817 0.36849102 -0.110433124 -0.24699144 0.35332713 0.27412856 0.12159752
-0.09262237 0.12685457 0.545027 -0.119059175 -0.28364176 0.38993293 -0.100485556 0.1780405
0.3554435 0.13952191 0.08069563 -0.20455037 0.28532365 0.16484775 -0.12788275 0.23073815
0.28527164 0.96261907 0.090185866 1.3289603 0.021048408 0.3215796 -0.0592145 0.19397223
0.17821549 0.050296504 0.09547255 -0.1250328 0.35905418 -0.21578489 -0.11506559 -0.08233789
-0.2837444 -0.48025957 -0.43215802 -0.18739897 0.045249946 0.11893245 -0.21829352 -0.027337238
0.104472734 -0.12666559 -0.37476492 0.39287695 0.07541594 -0.20982717 -0.42054716 0.46017346
-0.117258765 -0.06039344 -0.15875697 0.23963532 -0.14026733 0.7710946 0.35541016 -0.36669573
0.68357 -0.04195118 0.71994 0.5762627 -0.15204519 0.011203902 0.002777636 0.11032989
0.016281692 -0.45796603 0.33444503 -0.2428468 -0.2551465 0.06831507 0.04394092 -0.2707462
0.81580657 -0.027381983 0.5230111 0.17011209 0.17197667 -0.044707503 -0.2032842 0.050640017
0.10498362 0.23346394 -0.24371082 0.35354042 -0.21603006 -0.31761464 -0.15047169 0.7881216
-0.68804437 -0.1696461 0.13661237 -0.19662789 -0.30800182 -0.30722028 0.17390344 -0.017480727
-0.4387842 -0.36192554 -0.007890055 -0.7856264 -0.01571201 -0.00036145613 -0.35318378 0.03639968
-0.022247821 -0.51733357 0.04769755 -0.5689248 -0.21321374 -0.28892857 0.2731845 -0.25975674
-0.07918506 -0.81083906 -0.28700754 -0.3873626 0.14554292 0.024309477 -0.35346246 0.18249328
-0.45900422 0.069612145 -0.051901277 -0.4010721 -0.023777919 0.028788295 -0.16273406 -0.2168
-0.06371551 -0.3716494 -0.1612732 -0.4269848 0.13782535 -0.57682604 -0.8186576 -0.53447324
-0.043343846 -0.1253537 -0.004121965 -0.34415904 0.25403166 -0.19994818 -0.44371286 0.05787492
-0.45386863 -0.6601016 0.07447124 0.12196803 0.009558715 -0.39684093 -0.30276996 -0.40921867
0.033347398 -0.3329093 -0.7214295 0.019418899 -0.62488043 -0.34116626 -0.2608658 0.15947616
-0.81610495 -0.0070257485 0.38752806 -0.24679849 -0.40270486 -0.1490492 0.105990216 -0.6037087
-0.25790256 -0.34129396 -0.53584546 -0.2624621 -0.054264706 0.24655439 -0.33017355 -0.59015304
-0.08428143 0.07638079 -0.2693092 -0.3142914 0.2057264 0.11385516 -0.32383546 -0.11649974
-0.07920385 -0.17845182 -0.36921668 -0.57760894 -0.15098998 -0.15022215 -0.062018063 -0.24157357
-0.028769834 -0.4196032 -0.25671634 0.3158629 -0.12955005 -0.44695628 -0.36211982 0.002278084
0.29373088 -0.3295087 -0.40573177 -0.49912176 0.014379995 -0.52358836 -0.1969213 -0.2260942
00000000: f8fd 23be e1cd 623f cf66 b83e 87fb 93bd
00000010: 0f2d 0abd 547f e33e 0f65 3abe e8d1 373f
00000020: 8114 383f 6aa5 c4bd b01a 8cbe 8dec c1bd
00000030: 6a66 623e e0c9 8a3e 9276 783e 7212 16be
00000040: c2ea 39bd ecd0 603e d025 d73c 95c1 6a3e
00000050: 45cb 533f 63df b23c 49f7 703c fa57 0bbe
00000060: 2623 03bd ed3d 063e 2ee9 983e 26a4 923f
00000070: 6280 173e f4f2 89be 57e5 d8be 4a3b dc3e
00000080: f88f 33be 6b15 8e3e b736 f1bd 50bf 023f
00000090: 092a c3bd 1c73 d03c a896 b33c 34db 563e
000000a0: 3e32 8bbe 70c1 efbd dbaa bc3e c32a e2bd
000000b0: 53eb 7cbe 4be7 b43e 945a 8c3e 1f08 f93d
000000c0: ccb0 bdbd 2ae6 013e e486 0b3f 4cd5 f3bd
000000d0: 7e39 91be 4aa5 c73e 5fcb cdbd 4050 363e
000000e0: b1fc b53e d5de 0e3e c043 a53d a775 51be
000000f0: f115 923e d9cd 283e b2f3 02be 9f46 6c3e
00000100: 200f 923e 346e 763f 5eb3 b83d 5f1b aa3f
00000110: b66d ac3c 15a6 a43e e78a 72bd a8a0 463e
00000120: 1f7e 363e b503 4e3d 1d87 c33d 9908 00be
00000130: f3d5 b73e b7f6 5cbe 82a7 ebbd c5a0 a8bd
00000140: f246 91be 95e4 f5be d143 ddbe 84e5 3fbe
00000150: 0258 393d db92 f33d 5688 5fbe 58f2 dfbc
00000160: cdf5 d53d a0b4 01be 30e1 bfbe 2b27 c93e
00000170: ac73 9a3d efdc 56be f551 d7be db9b eb3e
00000180: 5d25 f0bd 1d5f 77bd 3091 22be f662 753e
00000190: 3da2 0fbe 7566 453f 52f8 b53e 8bbf bbbe
000001a0: 72fe 2e3f 00d5 2bbd fd4d 383f f485 133f
000001b0: bcb1 1bbe 9290 373c 0009 363b a3f4 e13d
000001c0: 2f61 853c 867a eabe 613c ab3e d5ac 78be
000001d0: 90a2 82be c5e8 8b3d 65fb 333d 3f9f 8abe
000001e0: b3d8 503f 2e50 e0bc 0ee4 053f dd31 2e3e
000001f0: a71a 303e 371f 37bd bc29 50be e86b 4f3d
00000200: a701 d73d 2c11 6f3e 548f 79be 4003 b53e
00000210: fc36 5dbe 639e a2be 4015 1abe 56c2 493f
00000220: ad23 30bf b5b7 2dbe 1de4 0b3e d258 49be
00000230: 6ab2 9dbe fa4b 9dbe be13 323e be33 8fbc
00000240: 53a8 e0be 4e4e b9be 4a45 01bc d01e 49bf
00000250: 79b6 80bc d281 bdb9 81d4 b4be d517 153d
00000260: 1041 b6bc f96f 04bf 825e 433d 0ea5 11bf
00000270: b454 5abe 72ee 93be d7de 8b3e d6fe 84be
00000280: c72b a2bd 2693 4fbf a7f2 92be 6454 c6be
00000290: 3409 153e ab24 c73c 08f9 b4be 85df 3a3e
000002a0: 9a02 ebbe d090 8e3d 6f96 54bd 5359 cdbe
000002b0: e9c9 c2bc 6ed5 eb3c c2a3 26be d200 5ebe
000002c0: 477d 82bd d548 bebe cd24 25be c09d dabe
000002d0: 1722 0d3e dfaa 13bf 8b93 51bf 3dd3 08bf
000002e0: 5189 31bd b85c 00be 8c11 87bb 9d35 b0be
000002f0: 7010 823e 37bf 4cbe 552e e3be 410e 6d3d
00000300: 7861 e8be 6bfc 28bf 6184 983d 60ca f93d
00000310: 289c 1c3c bc2e cbbe aa04 9bbe 1c85 d1be
00000320: 4897 083d 1673 aabe 9baf 38bf 6214 9f3c
00000330: 2af8 1fbf 58ad aebe 3490 85be b84d 233e
00000340: 41ec 50bf 4038 e6bb 146a c63e beb8 7cbe
00000350: 552f cebe 5aa0 18be 6611 d93d a78c 1abf
00000360: ce0b 84be 15be aebe 2b2d 09bf 6f61 86be
00000370: ab44 5ebd c178 7c3e 820c a9be 4514 17bf
00000380: be9b acbd 886d 9c3d e5e2 89be cdea a0be
00000390: f1a9 523e e52c e93d c3cd a5be 6a97 eebd
000003a0: a135 a2bd 13bc 36be f809 bdbe 2ede 13bf
000003b0: 1e9d 1abe d6d3 19be a706 7ebd 105f 77be
000003c0: b7ae ebbc 3bd6 d6be 5370 83be c8b8 a13e
000003d0: c5a8 04be 74d7 e4be c567 b9be e84b 153b
000003e0: e563 963e 5db5 a8be 13bc cfbe e38c ffbe
000003f0: 129a 6b3c e309 06bf bda5 49be 3d85 67be

feature.bias_hh_l0 f4 [512]
-0.2690835 0.91955805 0.3749998 -0.22577454 0.113289796 0.4047852 -0.29121205 0.9694892
0.5848124 -0.096821286 -0.4217026 -0.10555485 0.13975944 0.20209429 0.17807105 -0.017183049
0.027675886 0.4302155 0.024868168 0.36497617 0.98519963 0.099360004 0.12763476 -0.11847122
-0.112620436 0.15233813 0.33776277 0.93278575 0.2287547 -0.10547058 -0.22161414 0.35829717
-0.19021522 0.14719316 -0.13882363 0.513581 -0.143071 0.06419856 -0.08193247 0.06587894
-0.31238404 -0.067277946 0.36181602 -0.034594998 -0.1651314 0.41966775 0.47568917 0.0451288
-0.044153653 0.18713036 0.5149052 -0.004027381 -0.24865742 0.4348201 -0.15132734 0.11339426
0.45888123 0.095156066 -0.0857035 -0.19413215 0.23394634 0.11283793 -0.14203867 0.29907903
0.3006799 1.0402358 -0.025916236 1.3095641 -0.059420686 0.324791 -0.049700726 0.17432776
0.19989508 0.08933285 0.0631814 -0.19651276 0.35268462 -0.23322308 -0.010438073 0.05741453
-0.229389 -0.48255268 -0.51793873 -0.20788859 0.07809116 0.044488467 -0.18958975 0.033706065
0.18748462 -0.1447621 -0.4451142 0.46755725 0.03489413 -0.3697128 -0.48236957 0.39399835
-0.09682169 -0.065185614 -0.18860862 0.4251793 -0.08243966 0.8677661 0.4246942 -0.29791176
0.70286036 -0.08357988 0.91150284 0.63988996 -0.029465744 -0.15172225 -0.001065704 0.11273412
0.012128949 -0.38239184 0.2928365 -0.33003005 -0.21336867 0.13866125 0.15545982 -0.47744533
0.84547436 -0.14495297 0.5238057 0.08941777 0.20873244 -0.08528009 -0.10046075 -0.10113424
0.20913655 0.2093476 -0.3446732 0.27039176 -0.2166117 -0.3577322 -0.1547429 0.69103104
-0.65918773 -0.22223245 0.16775154 -0.12742302 -0.33660677 -0.2867145 0.18451887 -0.019878304
-0.4152292 -0.33244234 0.1336756 -0.90948623 -0.17622058 0.03482946 -0.28156558 0.09684943
-0.03243899 -0.49770638 0.11067123 -0.51805115 -0.26912668 -0.26887637 0.19055267 -0.14021388
-0.10204456 -0.63363206 -0.30619165 -0.35124806 0.11265605 -0.028159449 -0.3556885 0.25908732
-0.4393913 -0.075014025 0.062105738 -0.3707524 -0.008136706 0.10541311 -0.041606378 -0.25280094
-0.07814915 -0.24238296 -0.15584747 -0.28040656 0.10128025 -0.47543743 -0.84394443 -0.38215292
-0.12184562 -0.2770457 0.065748945 -0.37444782 0.26445323 -0.025950344 -0.43159643 0.0510977
-0.4623169 -0.6184457 0.08632278 0.12518728 0.036602315 -0.51093924 -0.45033586 -0.4182048
0.0768759 -0.24083433 -0.6963026 0.055703916 -0.58714604 -0.2326665 -0.06796657 0.07938149
-0.7068606 -0.02619345 0.37847042 -0.23138312 -0.39746118 -0.18452218 0.11889768 -0.712718
-0.0965334 -0.38774586 -0.5942055 -0.18330783 0.09851437 0.18188217 -0.23986845 -0.6435069
-0.15394522 0.1468128 -0.24098563 -0.39727956 -0.021928076 -0.058274787 -0.24432918 0.07341668
0.03158014 -0.1503606 -0.434124 -0.5267567 -0.24392663 -0.20379233 -0.13378984 -0.24562193
0.11139975 -0.46919212 -0.14176877 0.29328597 -0.17089158 -0.25029472 -0.27772996 0.061601795
0.2804357 -0.3746821 -0.40772098 -0.30740383 0.09885368 -0.45662263 -0.14243509 -0.25164646
00000000: 50c5 89be 2868 6b3f f9ff bf3e 7131 67be
00000010: 7b04 e83d 0140 cf3e bf19 95be 7230 783f
00000020: 44b6 153f 3d4a c6bd 67e9 d7be 242d d8bd
00000030: 191d 0f3e cef1 4e3e 4258 363e 77c3 8cbc
00000040: 8ab8 e23c 3545 dc3e 54b8 cb3c 28de ba3e
00000050: 0b36 7c3f 427d cb3d b0b2 023e 0aa1 f2bd
00000060: 8ba5 e6bd 87fe 1b3e 3eef ac3e 0ccb 6e3f
00000070: ac3e 6a3e f600 d8bd d1ee 62be ba72 b73e
00000080: c7c7 42be ceb9 163e c827 0ebe 0b7a 033f
00000090: 3481 12be 897a 833d 36cc a7bd 8aeb 863d
000000a0: cdf0 9fbe 05c9 89bd f33f b93e 7cb3 0dbd
000000b0: 3518 29be b1de d63e 888d f33e fad8 383d
000000c0: 76da 34bd 1a9f 3f3e d4d0 033f 1ff8 83bb
000000d0: 0da0 7ebe bda0 de3e 8ef5 1abe 403b e83d
000000e0: 7bf2 ea3e 2fe1 c23d 5185 afbd 94ca 46be
000000f0: a18f 6f3e 9317 e73d 9672 11be e320 993e
00000100: b7f2 993e 7226 853f 494e d4bc cc9f a73f
00000110: 1b63 73bd 024b a63e fd92 4bbd fa82 323e
00000120: 4cb1 4c3e 24f4 b63d 4065 813d a43a 49be
00000130: 1493 b43e 08d2 6ebe 7404 2bbc 802b 6b3d
00000140: f3e4 6abe 2511 f7be a297 04bf bfe0 54be
00000150: 42ee 9f3d 8a39 363d d123 42be 5f0f 0a3d
00000160: f8fb 3f3e 843c 14be 02e6 e3be aa63 ef3e
00000170: 26ed 0e3d ff4a bdbe 25f9 f6be 27ba c93e
00000180: 734a c6bd 0980 85bd 9e22 41be 1ab1 d93e
00000190: 20d6 a8bd eb25 5e3f 8571 d93e e487 98be
000001a0: a8ee 333f ee2b abbd 4058 693f d4cf 233f
000001b0: 2562 f1bc 145d 1bbe 18af 8bba 25e1 e63d
000001c0: 80b8 463c ddc8 c3be aaee 953e b3f9 a8be
000001d0: 517d 5abe 37fd 0d3e dc30 1f3e b773 f4be
000001e0: 0271 583f 8d6e 14be 2118 063f aa20 b73d
000001f0: f5bd 553e 54a7 aebd 5ebe cdbd 781f cfbd
00000200: e427 563e 385f 563e 0179 b0be ca70 8a3e
00000210: 75cf 5dbe ad28 b7be ec74 1ebe 69e7 303f
00000220: 87c0 28bf e790 63be 0fc7 2b3e 2e7b 02be
00000230: b957 acbe 3ecc 92be 84f2 3c3e d3d7 a2bc
00000240: ec98 d4be e235 aabe 42e2 083e 17d4 68bf
00000250: 2b73 34be 56a9 0e3d 5d29 90be fe58 c63d
00000260: bfde 04bd 5fd3 febe 99a7 e23d 009f 04bf
00000270: f9ca 89be 2aaa 89be 3d20 433e 3a94 0fbe
00000280: bdfc d0bd b635 22bf 27c5 9cbe c9d6 b3be
00000290: 37b8 e63d a5ae e6bc ce1c b6be 18a7 843e
000002a0: e5f7 e0be f4a0 99bd 9662 7e3d 42d3 bdbe
000002b0: d24f 05bc d4e2 d73d 736b 2abd 206f 81be
000002c0: a90c a0bd 3d33 78be 7b96 1fbe 7391 8fbe
000002d0: 056c cf3d 896c f3be be0c 58bf 8ca9 c3be
000002e0: 328a f9bd efd8 8dbe 62a7 863d a0b7 bfbe
000002f0: 6a66 873e d195 d4bc 35fa dcbe d24b 513d
00000300: cdb4 ecbe 7552 1ebf ffc9 b03d 1831 003e
00000310: 4fec 153d eacc 02bf 6c92 e6be f11e d6be
00000320: 1d71 9d3d 469d 76be e340 32bf ca29 643d
00000330: 344f 16bf 2140 6ebe 0f32 8bbd c392 a23d
00000340: d1f4 34bf a593 d6bc e0c6 c13e b2ef 6cbe
00000350: 0880 cbbe 62f3 3cbe a080 f33d b074 36bf
00000360: 4eb3 c5bd a086 c6be da1d 18bf 0cb5 3bbe
00000370: e7c1 c93d 523f 3a3e 13a0 75be debc 24bf
00000380: d1a3 1dbe 1856 163e f0c4 76be 3a68 cbbe
00000390: 82a2 b3bc 8bb1 6ebd 6e31 7abe 7c5b 963d
000003a0: 2d5a 013d 21f8 19be 8045 debe 87d9 06bf
000003b0: e7c7 79be f0ae 50be 3400 09be 5184 7bbe
000003c0: 8d25 e43d f339 f0be d52b 11be 9429 963e
000003d0: 34fe 2ebe a126 80be 9f32 8ebe 2a52 7c3d
000003e0: 4595 8f3e 55d6 bfbe cec0 d0be 0964 9dbe
000003f0: cc73 ca3d 71ca e9be 81da 11be ced7 80be

feature.weight_ih_l0_reverse f4 [512, 64]
1.0588613 0.18733306 0.49959308 1.0470504 -0.28476918 -0.35044467 -0.18362026 0.7515402
0.0074112224 1.3311552 -0.7113944 -0.99870753 -1.297843 0.16667494 0.87493116 0.00083490665
0.5213277 -0.2079949 0.96571904 -0.46432382 -0.8077867 1.045545 -1.6739767 0.33724195
0.31366006 0.63082755 -0.28239062 1.4854101 -0.6391413 -0.19792342 -0.8978325 0.6233007
1.7331488 0.61765957 -1.920925 -0.6882957 0.5400351 -0.25243127 -0.7122833 0.11140742
0.93433577 -0.5247458 0.41125873 1.3299503 0.8393003 0.0048480458 -0.05552719 -0.9970968
-1.346305 0.29938552 0.33524016 -0.9879076 0.6593326 -0.72609043 0.63855314 0.3549191
0.333776 0.25044417 0.81533605 -0.7942606 1.0941308 -0.85997796 -0.66818625 -0.18283486
-0.09866556 -0.63735414 0.8015431 -0.32831395 -0.042768266 0.645509 0.16085663 -0.46916807
-0.26954246 -0.22814178 0.60129046 0.3034731 1.0726914 -0.048309222 1.2291807 -0.63850355
-1.0361339 -0.3783041 -0.08685967 -0.7089956 0.41044676 0.45325795 0.4252418 -0.33009455
-0.4382894 0.23964795 -0.7562019 -0.21828233 -0.120641544 0.46935368 -1.1760252 0.45934728
0.47543958 -0.66471815 0.17587455 -0.40889266 -0.30560753 0.33304796 -0.053467534 -0.3493142
0.36296016 0.6964861 -0.82744545 0.266981 0.7311378 -0.15917225 -0.56309503 -0.022449557
-0.18025309 -0.09670058 0.35641497 0.32649133 0.92824394 0.24222547 -0.62494224 0.745146
0.5822332 0.10127942 -0.8326977 -0.9087437 0.14715722 -0.60705596 0.06203597 0.054998312
0.45022473 0.1509655 -1.3402106 -0.15335423 -0.67479706 -0.40438312 -0.049744125 -0.28769144
0.12030185 0.97452277 0.8196503 -0.31072274 0.32451236 -0.88734263 -0.35000238 -0.64345217
1.5079088 0.87189406 -0.68002915 -0.30916527 -0.36952055 -0.9920852 0.55444425 0.1303023
0.5121968 -0.22283877 -0.71598464 0.39037 0.29159677 0.16156518 1.3815153 0.017096106
0.020899761 -0.6107922 0.12391799 0.7738923 -1.088078 -0.877483 0.41951236 0.84431404
-0.44191658 0.5399422 0.35893232 0.1823031 -0.38454786 0.96136284 -0.5509352 -0.07748842
-1.027922 -0.2306213 1.0367153 -0.15237527 -1.3418583 -0.33144093 0.1986955 0.6880066
0.58239305 -1.4548191 0.44335657 -0.13589312 -0.08643989 0.62726426 -0.93986696 1.3878068
0.041176837 -0.35580745 0.5408999 0.7859968 0.820358 -0.19281024 0.97545594 0.3866088
-0.43263683 0.3539127 -0.48334816 0.11156973 0.20028666 -0.031647403 -0.7563056 0.58996296
-0.49305007 0.19726999 0.40735906 -0.25192484 1.3038927 1.0421201 -0.21806163 0.95068115
0.36044264 0.18058164 0.30707002 0.6143391 0.18407322 0.2452794 -0.68730515 0.6230949
-0.28523228 0.0064306743 0.64956564 -0.7125252 0.57191205 0.58485067 -0.24077782 0.763604
0.350664 0.82058346 0.43680772 -0.23079924 0.9468394 0.508081 -0.6107558 -0.24182305
-0.01233417 0.47061488 -0.075570695 -0.3293569 0.20565069 -1.3239105 -0.6397453 -0.38140684
-0.18863255 0.7024546 0.28537467 0.20274426 0.36801887 0.27969775 -1.2665569 -0.42307776
00000000: c488 873f 3dd4 3f3e aaca ff3e bf05 863f
00000010: 44cd 91be 7c6d b3be f306 3cbe f064 403f
00000020: d7d9 f23b 4b63 aa3f f21d 36bf 4cab 7fbf
00000030: b81f a6bf d6ac 2a3e 7dfb 5f3f a3dd 5a3a
00000040: bb75 053f 9dfc 54be 5d39 773f dabb edbe
00000050: 1ccb 4ebf 6bd4 853f de44 d6bf faaa ac3e
00000060: 0d98 a03e ea7d 213f 8195 90be eb21 be3f
00000070: c49e 23bf 70ac 4abe 5ad8 65bf a290 1f3f
00000080: d2d7 dd3f f01e 1e3f dfe0 f5bf 2634 30bf
00000090: be3f 0a3f ac3e 81be 3358 36bf 9329 e43d
000000a0: a130 6f3f be55 06bf 8190 d23e d03b aa3f
000000b0: 62dc 563f 5bdc 9e3b 7b70 63bd bc41 7fbf
000000c0: b953 acbf 0f49 993e 99a4 ab3e 83e7 7cbf
000000d0: 05ca 283f 10e1 39bf 3878 233f f5b7 b53e
000000e0: b0e4 aa3e 383a 803e ddb9 503f aa54 4bbf
000000f0: 7a0c 8c3f 8427 5cbf 410e 2bbf 1039 3bbe
00000100: 2b11 cabd a429 23bf ee31 4d3f c418 a8be
00000110: c72d 2fbd 1440 253f 9ab7 243e cc36 f0be
00000120: 7801 8abe 009e 69be 2cee 193f d360 9b3e
00000130: f44d 893f e4df 45bd cb55 9d3f f874 23bf
00000140: 09a0 84bf 13b1 c1be 7ce3 b1bd bc80 35bf
00000150: 1426 d23e 6d11 e83e 4bb9 d93e 2702 a9be
00000160: 7867 e0be 4666 753e 7396 41bf 6785 5fbe
00000170: ea12 f7bd 204f f03e fe87 96bf 912f eb3e
00000180: d16c f33e f82a 2abf 7518 343e 615a d1be
00000190: 9778 9cbe 4385 aa3e c600 5bbd 50d9 b2be
000001a0: ead5 b93e ea4c 323f 77d3 53bf bcb1 883e
000001b0: d92b 3b3f 0dfe 22be ff26 10bf 22e8 b7bc
000001c0: 4494 38be f40a c6bd 067c b63e df29 a73e
000001d0: 65a1 6d3f f409 783e 37fc 1fbf e3c1 3e3f
000001e0: 3c0d 153f 966b cf3d ad2b 55bf 6da3 68bf
000001f0: 62b0 163e 0568 1bbf 6e19 7e3d e945 613d
00000200: db83 e63e b396 1a3e 058c abbf e408 1dbe
00000210: 80bf 2cbf 4e0b cfbe 7fc0 4bbd 4b4c 93be
00000220: d160 f63d 537a 793f 9ad4 513f 0d17 9fbe
00000230: 7c26 a63e e328 63bf 8333 b3be 48b9 24bf
00000240: 2803 c13f 7334 5f3f 6416 2ebf e94a 9ebe
00000250: cc31 bdbe 4cf9 7dbf 0ff0 0d3f f76d 053e
00000260: 541f 033f d92f 64be c54a 37bf 94de c73e
00000270: 2c4c 953e 5871 253e 7ed5 b03f 220d 8c3c
00000280: fa35 ab3c e15c 1cbf b7c8 fd3d ce1d 463f
00000290: 2446 8bbf baa2 60bf 53ca d63e f724 583f
000002a0: e442 e2be a739 0a3f fac5 b73e aaad 3a3e
000002b0: 75e3 c4be e01b 763f 170a 0dbf 40b2 9ebd
000002c0: f392 83bf fd27 6cbe 16b3 843f 4308 1cbe
000002d0: 03c2 abbf a0b2 a9be d576 4b3e 3321 303f
000002e0: b617 153f 8337 babf a2ff e23e 9127 0bbe
000002f0: 6607 b1bd 6494 203f 1f9b 70bf a7a3 b13f
00000300: 0ba9 283d 652c b6be 6a78 0a3f 1637 493f
00000310: fb02 523f 0c70 45be 7bb7 793f 97f1 c53e
00000320: 9382 ddbe 0c34 b53e 6979 f7be ac7e e43d
00000330: f217 4d3e b5a0 01bd 3e9d 41bf d007 173f
00000340: 0f71 fcbe 2501 4a3e 5e91 d03e 4bfc 80be
00000350: f5e5 a63f 3164 853f 8c4b 5fbe d75f 733f
00000360: f08b b83e 65ea 383e 4838 9d3e 5445 1d3f
00000370: b17d 3c3e 862a 7b3e 3bf3 2fbf 2683 1f3f
00000380: f709 92be 68b8 d23b ef49 263f 0d68 36bf
00000390: d468 123f c6b8 153f 768e 76be 8d7b 433f
000003a0: 3b8a b33e c211 523f 43a5 df3e a356 6cbe
000003b0: 1164 723f 9911 023f 7e5a 1cbf 76a0 77be
000003c0: 4215 4abc 6ff4 f03e cfc4 9abd 78a1 a8be
000003d0: 1896 523e e675 a9bf 59c6 23bf c247 c3be
000003e0: e428 41be 11d4 333f a11c 923e 319c 4f3e
000003f0: f86c bc3e 8b34 8f3e 891e a2bf a69d d8be

feature.weight_hh_l0_reverse f4 [512, 128]
0.05062976 0.47956017 -0.36768553 -0.47977203 0.09665303 0.091703825 0.00794755 -0.013215519
-0.10949603 1.1844363 -0.7676936 -0.36523885 -0.10882558 -0.73151463 -0.62693924 -0.94141895
0.6662481 -0.033139158 -0.12637827 -0.4870137 -0.07348654 -0.46755353 -0.18183273 -0.30966935
0.01308394 -0.31850243 0.4958638 0.29339442 -0.11881318 0.23107772 -0.10761996 -0.18072142
0.8172914 -0.3816121 0.58400255 0.27485195 -0.58765674 -0.69475126 -0.51007336 -0.07015227
-0.3734246 -0.103918515 0.32746437 0.34855366 0.2649432 -0.22371201 -0.136793 -0.27164716
0.21958545 -0.4420685 -0.31840897 0.21651977 -0.24608266 0.051463086 0.47033703 0.015260318
1.0776683 -0.5479637 -0.12860547 -1.0566461 0.103645794 0.035081066 0.5188502 0.32631397
0.019489823 0.02985342 0.7653881 -0.27781564 -0.58148617 0.6848239 -0.28034097 1.194772
-0.26799786 0.287323 -0.097320005 0.050284475 -0.08074776 0.16369313 0.27860272 0.4610717
-0.68514454 0.08691546 -0.38804996 -0.33786467 -0.15169217 -0.86701435 -0.6389479 -0.15567748
-0.36067626 -0.06419571 0.29425293 -0.054922793 0.06653247 0.35902056 0.21801858 0.21193685
-0.73076314 -0.3087451 0.49700242 -0.12906292 0.03713302 0.08817522 -0.4306403 -0.3595226
-0.6777402 0.1285839 -0.74243283 0.15245067 -0.7282829 0.453866 -0.38479358 0.34191227
0.1339209 0.33071452 -0.26662987 0.17360726 0.21515428 -0.018923553 0.06438241 -0.9599786
0.049563807 -0.000846875 0.33327955 -0.12605922 0.76566267 -0.16433072 -0.18737547 -0.66978526
1.3834707 -0.009136102 -0.33964053 -0.20752022 0.6563887 0.8766897 -0.4782662 -0.8479215
0.55326664 -0.17721479 -0.20201492 0.79562867 -0.18413366 0.17607497 -0.063091375 -0.19583435
0.3476455 -0.8655316 -0.8355818 -0.18634136 0.2911529 0.8406592 0.0031948544 0.2853927
-0.41198587 -0.29116237 -0.33507133 0.11735183 0.9043135 -1.0271486 -0.16348208 -0.097561195
-0.8733553 -0.11360034 -0.9041412 -0.34711838 0.94967705 -0.2593437 -1.3391111 -0.42646146
-0.80139095 0.37877443 0.72470474 -0.27109778 0.19175352 -0.22470206 -0.43965745 0.049195945
0.45006013 -0.29316196 0.37963295 0.16124076 0.050727874 0.4597082 0.94270945 -0.44926715
0.5034693 -0.56899863 -0.5155593 -0.866417 -0.55443484 -0.130149 0.9606841 -0.11566906
-0.29089248 0.44040003 0.073050745 -0.109008975 0.57824713 -0.08846805 -0.5183249 -0.81606007
0.851047 0.5936893 -0.17101319 0.11681049 0.08056851 -0.102329224 -0.5479676 0.10292426
1.0579482 -0.6323968 0.16082013 -0.3479495 -0.3909018 -1.8870399 0.02331712 -0.41974375
0.55665606 0.24264775 0.14124514 0.24546713 -0.10411276 -0.2809347 -0.37411433 0.046845682
-0.21850938 -0.42954817 1.0315244 -0.63872766 -0.20858993 -0.06893832 1.1302146 -0.4997417
0.00060665887 -0.097998425 -0.82015914 -0.22139344 0.50650257 -0.15256456 0.4146953 -0.48768163
-0.88805455 0.9388347 0.79318506 -0.28272998 -0.69048405 -0.34799486 0.8999487 -0.63023853
0.5089118 -0.81344604 0.051042248 0.5100017 0.19952662 -0.18087192 0.10110128 -0.86595166
00000000: 2761 4f3d e988 f53e 4741 bcbe aea4 f5be
00000010: 06f2 c53d 37cf bb3d 7136 023c e785 58bc
00000020: 743f e0bd 9c9b 973f 9187 44bf 9600 bbbe
00000030: f2df debd 8b44 3bbf 177f 20bf d500 71bf
00000040: 3c8f 2a3f edbc 07bd 4e69 01be dc59 f9be
00000050: 1c80 96bd 2d63 efbe 5c32 3abe fb8c 9ebe
00000060: 065e 563c c012 a3be dce1 fd3e cb37 963e
00000070: 5354 f3bd a39f 6c3e db67 dcbd 090f 39be
00000080: 023a 513f a962 c3be 3181 153f 65b9 8c3e
00000090: ac70 16bf 38db 31bf 2b94 02bf feab 8fbd
000000a0: 8231 bfbe 3bd3 d4bd 69a9 a73e a075 b23e
000000b0: a3a6 873e c314 65be 7713 0cbe 5615 8bbe
000000c0: 02db 603e cd56 e2be 8006 a3be 5cb7 5d3e
000000d0: 18fd 7bbe f5ca 523d 04d0 f03e 6a06 7a3c
000000e0: 09f1 893f 5947 0cbf 27b1 03be 2e40 87bf
000000f0: 3f44 d43d 2ab1 0f3d 5ed3 043f a012 a73e
00000100: 1fa9 9f3c 298f f43c 79f0 433f da3d 8ebe
00000110: 47dc 14bf 9e50 2f3f da88 8fbe 4aee 983f
00000120: 0437 89be 001c 933e b64f c7bd 18f7 4d3d
00000130: 155f a5bd 2c9f 273e 04a5 8e3e 9711 ec3e
00000140: a265 2fbf bc00 b23d 7cae c6be 99fc acbe
00000150: 3155 1bbe a7f4 5dbf 1792 23bf eb69 1fbe
00000160: 8faa b8be 0a79 83bd 52a8 963e b9f6 60bd
00000170: 2d42 883d 8bd1 b73e 4340 5f3e f905 593e
00000180: 4b13 3bbf d613 9ebe 1a77 fe3e 1229 04be
00000190: cb18 183d 3695 b43d e37c dcbe 5913 b8be
000001a0: 6280 2dbf 7fab 033e 1410 3ebf 071c 1c3e
000001b0: c070 3abf 2061 e83e aa03 c5be 200f af3e
000001c0: 8f22 093e 6a53 a93e b683 88be 1ac6 313e
000001d0: 6751 5c3e 9105 9bbc edda 833d 28c1 75bf
000001e0: 6b03 4b3d d200 5eba 9ea3 aa3e ab15 01be
000001f0: 7802 443f 5046 28be 5bdf 3fbe 0c77 2bbf
00000200: 9115 b13f 97af 15bc 5de5 adbe 2e80 54be
00000210: 1709 283f bc6e 603f 4fdf f4be 6211 59bf
00000220: e2a2 0d3f cb77 35be 00dd 4ebe 52ae 4b3f
00000230: 898d 3cbe ff4c 343e 0d36 81bd cd88 48be
00000240: 97fe b13e 7b93 5dbf b0e8 55bf 45d0 3ebe
00000250: fe11 953e 7135 573f c360 513b fe1e 923e
00000260: d0ef d2be 3c13 95be 788e abbe 2856 f03d
00000270: 1781 673f 9b79 83bf d967 27be 2ace c7bd
00000280: 3794 5fbf 4ca7 e8bd cc75 67bf 80b9 b1be
00000290: 091e 733f b3c8 84be fe67 abbf 2859 dabe
000002a0: f527 4dbf b9ee c13e 4086 393f 54cd 8abe
000002b0: 095b 443e 4c18 66be c81a e1be b081 493d
000002c0: 486e e63e 5319 96be 405f c23e 4c1c 253e
000002d0: 08c8 4f3d e05e eb3e 6855 713f 5806 e6be
000002e0: 5de3 003f e5a9 11bf b2fb 03bf 81cd 5dbf
000002f0: 71ef 0dbf c845 05be 65ef 753f e6e3 ecbd
00000300: dcef 94be 1d7c e13e a19b 953d 1940 dfbd
00000310: 0108 143f bd2e b5bd f1b0 04bf 50e9 50bf
00000320: 37de 593f 06fc 173f 151e 2fbe 573a ef3d
00000330: 1a01 a53d fc91 d1bd 9b47 0cbf f4c9 d23d
00000340: d96a 873f c2e4 21bf 08ae 243e 7026 b2be
00000350: 4824 c8be 868a f1bf 8b03 bf3c a7e8 d6be
00000360: 0381 0e3f a778 783e 91a2 103e bc5b 7b3e
00000370: 1239 d5bd acd6 8fbe ea8b bfbe 42e1 3f3d
00000380: ecc0 5fbe bded dbbe fe08 843f a883 23bf
00000390: 9998 55be 892f 8dbd dfaa 903f 25de ffbe
000003a0: 3008 1f3a 66b3 c8bd f3f5 51bf f6b4 62be
000003b0: 27aa 013f e239 1cbe f152 d43e 68b1 f9be
000003c0: 8b57 63bf 7957 703f 2d0e 4b3f fcc1 90be
000003d0: 90c3 30bf 622c b2be 0a63 663f 5057 21bf
000003e0: 0b48 023f 003e 50bf ad11 513d 798f 023f
000003f0: b550 4c3e 7d36 39be 300e cf3d 02af 5dbf

feature.bias_ih_l0_reverse f4 [512]
-0.07492284 -0.22963205 -0.43834072 -0.053145055 0.1889521 -0.5299806 0.030463684 -0.07582962
-0.10456085 0.6238509 -0.1914502 0.11044977 -0.11061876 -0.1796912 0.4181203 0.08220091
0.094260365 -0.17650916 -0.21065265 -0.03392031 0.13728505 -0.124736585 0.22381872 0.713713
0.038759973 -0.3536398 0.51818454 0.2171607 -0.04859958 -0.08695306 -0.2739491 0.7089385
0.34889525 0.101638235 0.10650746 0.08567836 0.1856388 0.46330515 0.6441454 0.18474215
-0.0069808867 -0.044781778 -0.28703767 -0.08807988 -0.3243886 -0.2398798 0.10162859 0.062956244
0.69819635 -0.062808335 0.15052882 -0.030387037 0.043950185 0.30488172 -0.20333333 -0.22201774
0.095800325 -0.2549118 0.40990713 0.29787725 0.36506808 -0.045794513 0.5707 0.37292242
-0.23756209 0.9594096 0.65316635 -0.09276473 -0.18630779 0.52752906 0.7715081 -0.17997867
0.90224016 0.244762 -0.14479424 0.10795763 0.83419174 -0.33932325 0.1292594 0.17017852
-0.2305688 0.39816484 -0.19626777 -0.32725427 -0.15291488 -0.246441 0.030398898 0.13627905
0.3319393 0.41904697 0.12021623 0.45017597 -0.11286461 -0.026937831 0.06448185 0.3138736
0.020691207 0.09380378 0.40895995 -0.1588936 0.31643587 -0.06842593 0.21722214 0.06075866
0.107581325 0.55305344 0.09505506 0.03890458 0.1938979 0.08057955 0.45060796 -0.086513564
0.3831427 0.2559495 0.513732 0.3637677 -0.15011384 0.61603314 -0.0065464177 -0.4030876
0.040928606 0.4686779 -0.21020788 -0.21117106 0.029928276 0.12600814 0.07703722 0.12771773
-0.33207116 -0.1749124 0.043038283 0.3155977 -0.1526964 0.17808412 -0.062454607 -0.39491007
-0.35401452 -0.54418474 0.4479446 0.11555178 0.30702832 -0.07775242 -0.10537335 -0.24888109
-0.02533711 0.27859998 0.12651943 0.27282906 -0.0029571136 -0.1827633 -0.09797249 -0.2306009
-0.4789559 -0.26204553 -0.23698922 0.27944133 0.093438335 -0.11996696 -0.32461506 -0.22105654
-0.19849108 0.26082304 -0.40360323 0.0937474 -0.6060852 -0.09969603 -0.8051079 0.035703056
-0.49570403 -0.07055593 -0.16185464 0.1019211 -0.13480799 0.15683953 0.15858239 -0.33855894
-0.5458191 -0.22295631 -0.571427 -0.15292706 -0.39526004 0.55743426 0.1791659 0.019899692
-0.3797546 -0.036109846 -0.16309631 -0.2929638 -0.3508138 -0.3828904 0.5215972 0.014566196
-0.00733522 -0.0113928765 -0.3890446 -0.20577729 -0.007870091 0.5594271 -0.6547327 0.65986776
-0.5680526 -0.66175354 -0.28720632 -0.24784823 -0.29464677 -0.08655411 -0.4740206 -0.04917352
0.2610048 1.0239731 0.03660132 0.15338059 -0.0034192302 0.23247497 -0.46282077 -0.014726216
0.2604936 -0.30349445 -0.25872782 -0.5418102 0.42983538 -0.10843637 0.7533945 -0.19017722
-0.40890124 -0.34400612 -0.5483024 0.34162167 0.18539251 0.12459137 -0.020473026 0.37912568
0.33190832 -0.18574129 -0.0017335349 0.28156805 -0.4388415 0.4693187 0.06207372 0.13200705
-0.1204744 0.050011545 -0.25002998 0.0035770983 -0.2466696 -0.13040905 0.44560695 -0.10444714
0.5322352 -0.27584785 0.17896248 0.17346299 -0.41078812 0.013165175 -0.5339377 0.06886013
00000000: 2571 99bd aa24 6bbe 326e e0be a1ae 59bd
00000010: a97c 413e cfac 07bf fa8e f93c 8f4c 9bbd
00000020: 0024 d6bd b1b4 1f3f 850b 44be 7d33 e23d
00000030: 178c e2bd f800 38be dd13 d63e f358 a83d
00000040: 940b c13d d1be 34be 54b5 57be 06f0 0abd
00000050: 7494 0c3e e575 ffbd bc30 653e e5b5 363f
00000060: c7c2 1e3d 4710 b5be bea7 043f 605f 5e3e
00000070: 5a10 47bd 7214 b2bd 0e43 8cbe fe7c 353f
00000080: 66a2 b23e b527 d03d 9520 da3d 2378 af3d
00000090: 1918 3e3e 5536 ed3e b7e6 243f 0c2d 3d3e
000000a0: ecbf e4bb 196d 37bd 9af6 92be 3963 b4bd
000000b0: 4316 a6be 0da3 75be a622 d03d 34ef 803d
000000c0: ffbc 323f a8a1 80bd 3a24 1a3e 3cee f8bc
000000d0: 1c05 343d 7519 9c3e 9d36 50be 9e58 63be
000000e0: f632 c43d cd83 82be 59df d13e 5e83 983e
000000f0: 34ea ba3e 0793 3bbd 6519 123f b0ef be3e
00000100: 7a43 73be de9b 753f e935 273f 6ffb bdbd
00000110: 78c7 3ebe 250c 073f 8e81 453f 544c 38be
00000120: 36f9 663f e4a2 7a3e f144 14be e418 dd3d
00000130: 978d 553f c7bb adbe 935c 043e 4743 2e3e
00000140: 3a1a 6cbe 43dc cb3e 6bfa 48be df8d a7be
00000150: b895 1cbe 085b 7cbe 1c07 f93c bc8c 0b3e
00000160: f3f3 a93e 538d d63e ed33 f63d 777d e63e
00000170: 9025 e7bd baac dcbc 0f0f 843d 0ab4 a03e
00000180: 9b80 a93c 321c c03d 3363 d13e 01b5 22be
00000190: e203 a23e e522 8cbd 7b6f 5e3e 13de 783d
000001a0: 9953 dc3d e994 0d3f 3aac c23d 695a 1f3d
000001b0: 2c8d 463e e406 a53d 16b6 e63e 062e b1bd
000001c0: 482b c43e d00b 833e f183 033f c33f ba3e
000001d0: 71b7 19be 59b4 1d3f 5583 d6bb 7f61 cebe
000001e0: c1a4 273d 8df6 ef3e bc40 57be 3a3d 58be
000001f0: 252c f53c 4708 013e b1c5 9d3d 70c8 023e
00000200: 3b05 aabe 3c1c 33be e948 303d 0696 a13e
00000210: 725c 1cbe af5b 363e 67d0 7fbd a731 cabe
00000220: 6441 b5be b14f 0bbf ff58 e53e 69a6 ec3d
00000230: d132 9d3e a93c 9fbd fccd d7bd afda 7ebe
00000240: c58f cfbc a8a4 8e3e 4f8e 013e 40b0 8b3e
00000250: 22cc 41bb 4d26 3bbe cda5 c8bd a422 6cbe
00000260: b539 f5be d52a 86be 4dad 72be ef12 8f3e
00000270: 995c bf3d 3db1 f5bd f233 a6be a55c 62be
00000280: 3f41 4bbe 998a 853e 15a5 cebe a3fe bf3d
00000290: 6628 1bbf 6f2d ccbd 8d1b 4ebf 5e3d 123d
000002a0: ebcc fdbe a17f 90bd 39bd 25be 02bc d03d
000002b0: 1b0b 0abe 8b9a 203e 6c63 223e 9957 adbe
000002c0: cdba 0bbf a94e 64be 0a49 12bf e998 1cbe
000002d0: 865f cabe 03b4 0e3f 4477 373e ae04 a33c
000002e0: 326f c2be ebe7 13bd b802 27be 5aff 95be
000002f0: de9d b3be 360a c4be 6587 053f 0ea7 6e3c
00000300: 495c f0bb 30a9 3abc db30 c7be 48b7 52be
00000310: 8ef1 00bc 9d36 0f3f 909c 27bf 18ed 283f
00000320: e56b 11bf ae68 29bf b50c 93be edcb 7dbe
00000330: f1db 96be 4843 b1bd d4b2 f2be 2c6a 49bd
00000340: 6ca2 853e 8d11 833f 44eb 153d cd0f 1d3e
00000350: 2a15 60bb eb0d 6e3e d8f6 ecbe 3a46 71bc
00000360: 6b5f 853e a063 9bbe f977 84be 13b4 0abf
00000370: 6213 dc3e e313 debd 76de 403f d1bd 42be
00000380: 815b d1be 9221 b0be 8c5d 0cbf 09e9 ae3e
00000390: 89d7 3d3e c329 ff3d 0cb7 a7bc c31c c23e
000003a0: e3ef a93e f732 3ebe c737 e3ba b029 903e
000003b0: d5af e0be 8a4a f03e 0341 7e3d db2c 073e
000003c0: 48bb f6bd e8d8 4c3d ee03 80be c06d 6a3b
000003d0: f596 7cbe f389 05be 9826 e43e 62e8 d5bd
000003e0: 9140 083f ee3b 8dbe f141 373e 48a0 313e
000003f0: d252 d2be bfb2 573c 24b0 08bf 8a06 8d3d

feature.bias_hh_l0_reverse f4 [512]
-0.1422734 -0.31079456 -0.4338462 -0.0042819604 0.024900837 -0.37255472 -0.025658794 -0.09245949
-0.058782708 0.5707824 -0.19436568 0.18214107 0.021994403 -0.28604892 0.46887785 0.22300048
0.091743775 -0.1370071 -0.21046597 -0.04994474 0.23139797 -0.20203723 0.23382832 0.7033992
-0.0072943475 -0.32352707 0.49051765 0.17964752 0.039242003 -0.05707006 -0.3934158 0.781812
0.32587343 0.06514401 0.20436212 0.04954839 0.12598929 0.40938377 0.5813309 0.19918112
0.10069188 -0.08359139 -0.33241132 0.050143387 -0.23479018 -0.20795125 0.094271466 -0.056894116
0.8126575 0.023529653 0.096824855 -0.14484248 0.03609433 0.4445769 -0.2033144 -0.07186813
0.08697475 -0.2011243 0.44639084 0.23616117 0.48333952 -0.085886985 0.70914406 0.34987888
-0.114805415 0.93283474 0.6287707 0.019717962 -0.11551769 0.40902582 0.8049602 0.00877443
0.8934684 0.24115033 -0.18294495 0.11034495 0.8031994 -0.2607797 0.020887988 0.11448582
-0.09530541 0.37009916 -0.2714263 -0.47642705 -0.04746342 -0.15169221 0.15484908 0.18159415
0.3032257 0.44125637 0.13469519 0.48866662 -0.1653707 -0.14669748 -0.024499305 0.32306302
0.02688096 0.1475759 0.27989164 -0.02931136 0.2916139 -0.16488037 0.22167057 0.16255265
-0.009389472 0.35543215 0.24876344 -0.017803445 0.19096285 0.011910027 0.5331962 0.06802896
0.15088443 0.19556676 0.55202603 0.45167828 -0.2172868 0.6123012 0.15939416 -0.4048345
0.019908559 0.5184917 -0.17533535 -0.26259175 -0.012346584 0.13664748 0.051433325 0.21570231
-0.32061157 -0.0384397 0.048051793 0.23033962 0.00732737 0.19030236 0.0004677616 -0.20113884
-0.2261815 -0.58437496 0.58298206 0.06568818 0.32048652 -0.0644011 -0.18637058 -0.1306692
0.046703383 0.12064243 -0.018236559 0.14090583 -0.15849423 -0.12375284 -0.053415194 -0.28431237
-0.37465894 -0.23668951 -0.26893002 0.37720096 0.08603329 -0.1409106 -0.36975333 -0.19266005
-0.2380344 0.23240034 -0.39349526 0.03735731 -0.6079998 -0.0073640733 -0.7879856 0.020741912
-0.61678845 0.056298975 0.0036033343 0.09183482 -0.2972032 0.24636509 0.098978296 -0.24257259
-0.38090476 -0.33439136 -0.57573533 -0.15797064 -0.51175046 0.4981365 0.1821829 -0.004781598
-0.36241037 -0.059147537 -0.13343616 -0.23308864 -0.40167433 -0.25918823 0.5260916 0.1018688
0.106227 0.08387195 -0.2620429 -0.17637119 -0.03560389 0.72976005 -0.48957002 0.6401574
-0.4659743 -0.4711006 -0.33093753 -0.2867736 -0.28753483 -0.10495436 -0.35726 0.018384676
0.13186234 0.8887174 0.08927145 0.05736146 0.049647 0.45675012 -0.48673812 -0.09938954
0.5453616 -0.26502043 -0.26160884 -0.5497435 0.34866974 -0.1896773 0.65865964 -0.18136616
-0.43472302 -0.2809927 -0.6168888 0.20665699 0.25840327 0.11971905 0.01725186 0.5448603
0.33348548 -0.21870686 0.17819124 0.099571966 -0.4421014 0.47341785 -0.06652658 0.061266694
-0.07619632 0.027165815 -0.16504253 -0.24170841 -0.26458955 -0.2641774 0.336853 -0.007558385
0.56541586 -0.24785577 0.20740898 0.11559296 -0.29527846 0.0077489326 -0.39335692 -0.070747346
00000000: 1eb0 11be 7720 9fbe 1721 debe b04f 8cbb
00000010: d7fc cb3c 7ebf bebe 6432 d2bc 675b bdbd
00000020: 23c6 70bd cc1e 123f cc07 47be 3083 3a3e
00000030: 9b2d b43c 0175 92be c210 f03e 3d5a 643e
00000040: 29e4 bb3d 974b 0cbe 6484 57be db92 4cbd
00000050: 97f3 6c3e d9e2 4ebe b170 6f3e f811 343f
00000060: 6c05 efbb 57a5 a5be 2125 fb3e 85f5 373e
00000070: 39bc 203d 4cc2 69bd cc6d c9be d524 483f
00000080: e2d8 a63e 396a 853d 4e44 513e 41f3 4a3d
00000090: 5603 013e c09a d13e 1ad2 143f 23f6 4b3e
000000a0: 8b37 ce3d f631 abbd d131 aabe 2763 4d3d
000000b0: d66c 70be 2cf1 54be 6611 c13d ce09 69bd
000000c0: 520a 503f 42c1 c03c 1c4c c63d 9651 14be
000000d0: a6d7 133d 959f e33e a631 50be 992f 93bd
000000e0: d11f b23d 87f3 4dbe 578d e43e 3cd4 713e
000000f0: 4778 f73e 84e5 afbd 778a 353f 5323 b33e
00000100: 1a1f ebbd 42ce 6e3f 1ef7 203f 9087 a13c
00000110: 8a94 ecbd d56b d13e df11 4e3f a0c2 0f3c
00000120: 58ba 643f 1df0 763e ec55 3bbe 88fc e13d
00000130: 7a9e 4d3f eb84 85be 491d ab3c 8b77 ea3d
00000140: 7c2f c3bd a37d bd3e 63f8 8abe 3fee f3be
00000150: 0169 42bd 3455 1bbe c290 1e3e d1f3 393e
00000160: 6640 9b3e 5bec e13e 89ed 093e 8332 fa3e
00000170: f056 29be dd37 16be c4b2 c8bc 8468 a53e
00000180: 7635 dc3c 231e 173e f54d 8f3e 611e f0bc
00000190: 6b4e 953e 66d6 28be 9cfd 623e 3474 263e
000001a0: 4dd6 19bc 34fb b53e d8bb 7e3e 88d8 91bc
000001b0: c48b 433e 4622 433c 8c7f 083f c452 8b3d
000001c0: 7381 1a3e a742 483e 9451 0d3f 6042 e73e
000001d0: 6e80 5ebe c5bf 1c3f 3938 233e 7846 cfbe
000001e0: 4617 a33c dfbb 043f 1c8b 33be 6d72 86be
000001f0: 5449 4abc 51ed 0b3e c0ab 523d 11e1 5c3e
00000200: 3327 a4be f272 1dbd f5d1 443d 26de 6b3e
00000210: 6f1a f03b 9fde 423e e63d f539 57f7 4dbe
00000220: 209c 67be 9999 15bf 503e 153f 8687 863d
00000230: cf16 a43e b9e4 83bd eed7 3ebe 26ce 05be
00000240: 0c4c 3f3d 6113 f73d d664 95bc 9e49 103e
00000250: 504c 22be 2172 fdbd e4c9 5abd 6491 91be
00000260: 4cd3 bfbe bc5e 72be 32b1 89be 7c20 c13e
00000270: 3932 b03d de4a 10be 4f50 bdbe ad48 45be
00000280: 4abf 73be 5bfa 6d3e 3678 c9be fb03 193d
00000290: e0a5 1bbf 534e f1bb 6db9 49bf f1ea a93c
000002a0: d9e5 1dbf c199 663d eb25 6c3b e513 bc3d
000002b0: 052b 98be 2147 7c3e 22b5 ca3d f364 78be
000002c0: f305 c3be 5835 abbe 6463 13bf 0ec3 21be
000002d0: 1402 03bf bf0b ff3e 278e 3a3e f4ae 9cbb
000002e0: da8d b9be b044 72bd 7da3 08be caae 6ebe
000002f0: 42a8 cdbe 52b4 84be f0ad 063f 97a0 d03d
00000300: 8b8d d93d 0fc5 ab3d 7d2a 86be a69a 34be
00000310: 62d5 11bd 8ed1 3a3f eca8 fabe 5be1 233f
00000320: 2f94 eebe 1934 f1be a570 a9be fdd3 92be
00000330: c437 93be 50f2 d6bd c8ea b6be 769b 963c
00000340: ec06 073e fc82 633f f3d3 b63d daf3 6a3d
00000350: a75a 4b3d 27db e93e bd35 f9be be8c cbbd
00000360: d19c 0b3f c2b0 87be 98f1 85be fdbb 0cbf
00000370: d784 b23e c43a 42be eb9d 283f 0db8 39be
00000380: 0494 debe 46de 8fbe 6dec 1dbf e49d 533e
00000390: 6f4d 843e 432f f53d c653 8d3c f77b 0b3f
000003a0: 9cbe aa3e b1f4 5fbe c477 363e 63ec cb3d
000003b0: 1d5b e2be d363 f23e 163f 88bd c9f2 7a3d
000003c0: d10c 9cbd d88a de3c e900 29be 6982 77be
000003d0: 4878 87be 4342 87be ff77 ac3e 54ac f7bb
000003e0: 18bf 103f e7cd 7dbe 0563 543e 00bc ec3d
000003f0: bd2e 97be c2ea fd3b 1466 c9be fce3 90bd
