logs/classifier/45_contexts/fold_02/10-19-2022_10-28-29/model_params.pth (torch, 821283 bytes, 10 tensors)

feature.weight_ih_l0 f4 [512, 64]
0	0xbd025d2f	-0.031827148
1	0x3d54592a	0.051842846
2	0xbc686074	-0.0141831525
3	0xbf1c74f0	-0.6111593
4	0x3f059844	0.52185464
5	0xbe7b11b4	-0.24518472
6	0xbee290a1	-0.44250968
7	0x3f1fc371	0.62407595
8	0xbda86bc2	-0.08223678
9	0xbe832634	-0.25615084
10	0x3f2c6f72	0.6735755
11	0xbeb94b0b	-0.36190066
12	0xbdf9756d	-0.121806
13	0x3e58da58	0.21177042
14	0xbf54322e	-0.8288907
15	0xbf222d15	-0.6335004
16	0xbf3db1f4	-0.7409966
17	0xbf13dddc	-0.57760406
18	0xbef8d053	-0.4859644
19	0x3f34810c	0.7050941
20	0x3ee5d5f5	0.448898
21	0x3f09ffe4	0.53906083
22	0xbddb2a29	-0.10701401
23	0x3dce830d	0.1008359
24	0x3d642ba4	0.05570568
25	0xbed0c2a2	-0.40773493
26	0x3dc7e918	0.09761256
27	0xbdba69c4	-0.091022044
28	0xbd842954	-0.06453195
29	0x3e92ea92	0.28694588
30	0x3ef6d59a	0.4820984
31	0x3e49e596	0.19716486
32	0xbfd69919	-1.6765472
33	0x3e60196a	0.21884695
34	0xbec8c075	-0.39209333
35	0xbd4b72f0	-0.04967016
36	0xbe3171a3	-0.17328505
37	0xbf188c56	-0.59589136
38	0xbcd3ad1c	-0.02583938
39	0x3d22826f	0.039675172
40	0xbdf645c0	-0.120250225
41	0x3f4ed546	0.8079418
42	0xbee75ad7	-0.45186493
43	0xbdc63227	-0.096775346
44	0xbf74aeb3	-0.9557907
45	0x3e3d1780	0.18465996
46	0x3f92ae08	1.145936
47	0xbe50cd2f	-0.20390771
48	0x3ed83d20	0.42234135
49	0xbe628a23	-0.22123007
50	0xbfbd0f93	-1.4770378
51	0x3dfa8fe7	0.122344784
52	0xbe1ec4d2	-0.15504768
53	0x3ebf7aa4	0.37398255
54	0xbeb443c6	-0.35207957
55	0xbf472fb4	-0.77807164
56	0x3d47778b	0.04869799
57	0x3e85165d	0.25993624
58	0xbe86738d	-0.26260033
59	0x3f4cdb08	0.80021715
60	0xbdbbdd83	-0.091731094
61	0xbea0ce20	-0.3140726
62	0xbe2c4e6a	-0.16826788
63	0x3e4c0244	0.1992274
64	0xbe37e001	-0.17956544
65	0x3ccd1130	0.02503261
66	0xbf45d3ad	-0.77276117
67	0xbeb22b40	-0.34798622
68	0xbf1af0c7	-0.6052365
69	0x3bed2ff6	0.0072383834
70	0x3fccd428	1.6002245
71	0xbed10dac	-0.40830743
72	0xbf5e9a0b	-0.869538
73	0xbed74667	-0.420459
74	0xbf38cc74	-0.7218697
75	0x3e3113b6	0.17292675
76	0xbf22de26	-0.6362022
77	0xbf307fa0	-0.6894474
78	0x3e0b336a	0.13593832
79	0x3ec0b6ca	0.37639457
80	0x3e03aa30	0.1285789
81	0x3e3424c1	0.17592146
82	0x3f8902de	1.0704
83	0x3e7f5404	0.24934393
84	0x3f84e3cc	1.0382018
85	0x3e4e3c68	0.2014023
86	0xbf3afb3a	-0.7303959
87	0xbfb23d39	-1.3924934
88	0xbf812f3c	-1.009254
89	0xbe63084e	-0.22171137
90	0x3dc75a75	0.0973405
91	0x3d58d68f	0.052938994
92	0x3eda5ae0	0.42647457
93	0xbf495bd6	-0.78655756
94	0x3f02a57e	0.5103377
95	0xbe98aadd	-0.29817858
96	0x3cd5dfa8	0.026107624
97	0x3f3d952d	0.7405575
98	0x3f7375a2	0.9510137
99	0x3f80a942	1.0051653
100	0xbef2cbf4	-0.4742123
101	0x3ec331ef	0.38124034
102	0xbf99a9cd	-1.2004944
103	0xbed60bd5	-0.41805902
104	0xbf026999	-0.5094238
105	0xbcae9b6b	-0.021314343
106	0x3d0d6e1f	0.034528848
107	0x3ed7c1d1	0.42140058
108	0x3ec72a74	0.38899577
109	0x3ef031af	0.46912906
110	0xbef9435d	-0.48684207
111	0x3ca6c5e4	0.020358033
112	0x3f21fe43	0.632786
113	0xbe11ed11	-0.1425059
114	0xbee33116	-0.44373387
115	0xbeec23df	-0.46121117
116	0xbeb9b4ac	-0.36270654
117	0x3f5a7abc	0.8534353
118	0x3e7c442f	0.24635385
119	0x3eb891eb	0.36048827
120	0xbe9e53cc	-0.30923307
121	0xbe0f969a	-0.14022294
122	0x3dcae779	0.09907431
123	0xbe4a1b32	-0.19736937
124	0xbdc719e2	-0.09721734
125	0xbd7403ca	-0.059573926
126	0x3c9bd753	0.019023573
127	0xbf6f7419	-0.93536526
128	0x3e95ee86	0.2928354
129	0xbd8cd8d6	-0.06877296
130	0xbda87edf	-0.08227324
131	0x3fb2cdeb	1.3969091
132	0x3f4da037	0.80322593
133	0xbdb57345	-0.088598765
134	0xbf39ceaa	-0.7258097
135	0x3d78d09a	0.060745813
136	0x3d0dfd23	0.034665238
137	0x3d1ed6b4	0.038778976
138	0x3f0ce83b	0.55041856
139	0x3e1a2558	0.15053308
140	0x3ddc682c	0.10762057
141	0xbeae7695	-0.34074846
142	0x3e8f4087	0.27978918
143	0xbf3e5a7a	-0.74356806
144	0xbede6419	-0.43435743
145	0x3e50e8ca	0.20401302
146	0x3ef193ae	0.47182983
147	0x3f2470c4	0.64234567
148	0x3ec9e7fc	0.39434803
149	0x3f354215	0.7080396
150	0x3f24f96f	0.64443105
151	0xbeb015af	-0.34391543
152	0x3db8167e	0.08988665
153	0x3e317402	0.1732941
154	0xbeb529ab	-0.35383353
155	0x3f26e72d	0.65196496
156	0xbef1f0c5	-0.47254005
157	0x3f4f4dd6	0.80978143
158	0x3f5fe121	0.87452894
159	0xbf5861a7	-0.84524006
160	0xbe53113c	-0.20612043
161	0xbe3ebd04	-0.18626791
162	0x3f18498d	0.5948723
163	0x3fc80f70	1.5629711
164	0xbee846cb	-0.4536651
165	0xbcf23d91	-0.029570373
166	0xbcc30175	-0.023804406
167	0xbcebc78c	-0.028781675
168	0xbf1a9c2c	-0.6039455
169	0x3fbfe646	1.4992149
170	0xbf2d6ca0	-0.67743874
171	0xbee17d41	-0.44040874
172	0x3e7cfde4	0.24706227
173	0xbea510e1	-0.3223944
174	0x3cf517da	0.0299186
175	0xbe991633	-0.2989975
176	0xbdf77421	-0.12082697
177	0x3f2ff389	0.6873098
178	0x3df94a74	0.12172404
179	0xbe02311c	-0.12714046
180	0xbf1132e0	-0.56718254
181	0x3f43c341	0.7646981
182	0x3e2bd09e	0.167788
183	0xbf3d7d1d	-0.7401903
184	0xbefffe1d	-0.4999856
185	0x3e93129d	0.28725138
186	0xbf54be39	-0.83102757
187	0x3e8928fe	0.26789087
188	0xbdd9d349	-0.106360026
189	0xbe5cd35e	-0.21565005
190	0xbe3e9568	-0.18611681
191	0xbe762808	-0.24038708
192	0x3f77c1c1	0.9678002
193	0x3e18f96f	0.14938901
194	0xbecd19a3	-0.40058622
195	0x3f69aad5	0.91276294
196	0xbe3c15f4	-0.1836775
197	0x3ddc74a3	0.10764434
198	0xbe43208e	-0.19055387
199	0x3e884447	0.2661459
200	0x3e08ec99	0.13371505
201	0x3e169c2c	0.14708012
202	0xbd323d5c	-0.043515548
203	0xbf4d8981	-0.8028794
204	0x3e34aa7b	0.17643158
205	0xbf525f30	-0.82176495
206	0x3d951639	0.07279629
207	0x3eff56aa	0.49870807
208	0xbf4c18ba	-0.7972523
209	0xbf2a9f80	-0.6664963
210	0xbf852d8b	-1.0404524
211	0x3e04a89b	0.12954943
212	0x3deea227	0.11652022
213	0x3e549ea5	0.20763643
214	0x3d849422	0.064735666
215	0xbe4060d4	-0.18786937
216	0x3c7287b4	0.014802862
217	0x3f24a298	0.643106
218	0xbe93bd19	-0.28855208
219	0xbe6230d1	-0.22088934
220	0xbea59cae	-0.323461
221	0xbe818bab	-0.2530187
222	0xbf73b04b	-0.95190877
223	0x3ee2faf0	0.44332075
224	0xbeb62e5d	-0.35582247
225	0x3ec90dae	0.3926825
226	0x3eca7186	0.39539737
227	0x3da2cd12	0.0794927
228	0x3f7b5971	0.9818335
229	0x3f121046	0.5705608
230	0x3f10e7b7	0.5660357
231	0x3da7e052	0.081970826
232	0xbe80a731	-0.25127557
233	0x3f8a3d14	1.079989
234	0xbfa88610	-1.3165913
235	0x3f4c2ff2	0.7976066
236	0x3eb5c508	0.35501885
237	0x3edbbd1a	0.4291771
238	0x3f0272aa	0.50956213
239	0xbebc5fa2	-0.36791712
240	0xbddecc77	-0.10878842
241	0xbf1a45e3	-0.6026289
242	0x3f5d25cf	0.86385816
243	0x3eb344cb	0.35013422
244	0x3f15e248	0.585484
245	0xbe45f1a8	-0.19330466
246	0xbf70982f	-0.93982214
247	0x3d1e2ff9	0.03861997
248	0xbe4e50b9	-0.20147981
249	0xbea671f4	-0.32508814
250	0x3e4279bb	0.18991749
251	0xbf1985f5	-0.5997003
252	0xbebc5d04	-0.36789715
253	0xbf66e6dd	-0.9019602
254	0x3dbf1578	0.09330267
255	0xbe1929c8	-0.14957345

feature.weight_hh_l0 f4 [512, 128]
0	0x3e49f2c0	0.19721508
1	0xbf1893d0	-0.59600544
2	0xbe18ae06	-0.14910135
3	0x3ce0b3c8	0.027429476
4	0xbf19be03	-0.6005556
5	0xbd79fa65	-0.06102981
6	0xbe220514	-0.1582225
7	0x3f40f07c	0.7536695
8	0x3e0ed44b	0.13948171
9	0xbe7e7179	-0.24847974
10	0x3d78bb81	0.060725693
11	0xbdf081f7	-0.11743539
12	0xbe9d5ef9	-0.3073652
13	0x3e0153bf	0.12629603
14	0xbf6372db	-0.8884713
15	0xbe18fa35	-0.14939196
16	0xbea3dfbd	-0.32006636
17	0x3e995750	0.29949427
18	0x3ef4ca8f	0.4781079
19	0xbeeb0dcd	-0.45908967
20	0x3e4be255	0.19910558
21	0x3f5a1362	0.85185826
22	0xbf04dcd4	-0.51899457
23	0x3ca62ee2	0.020286027
24	0xbe28ce5e	-0.16484973
25	0xbd98e342	-0.07465221
26	0x3e8b8b35	0.27254644
27	0x3eb48e8a	0.35265
28	0xbf1e0fcf	-0.6174287
29	0xbf1c74e7	-0.6111588
30	0x3d2618ba	0.040550925
31	0xbe587409	-0.21138014
32	0xbe7b51bc	-0.24542898
33	0xbee37ead	-0.44432583
34	0x3eb66a35	0.35627905
35	0x3ed1ae33	0.40953216
36	0x3d5d2628	0.053991467
37	0xbd7eb8f8	-0.06218812
38	0xbf0c1bb7	-0.5472979
39	0xbe8b809a	-0.27246553
40	0xbe5efd6d	-0.21776362
41	0xbead3ee2	-0.33837038
42	0xbbc02a4b	-0.0058644167
43	0xbe3c8af7	-0.18412386
44	0xbe8e0d90	-0.27744722
45	0xbf17481a	-0.59094393
46	0xbea182a4	-0.31544983
47	0x3e99d1a9	0.3004277
48	0xba75e013	-0.0009379398
49	0x3e640ac1	0.22269727
50	0x3e4d07cf	0.2002251
51	0xbf1fb02c	-0.6237819
52	0xbc101f4c	-0.008796524
53	0xbeae7117	-0.34070656
54	0x3f26b09d	0.6511324
55	0xbea8a960	-0.32941723
56	0xbea5aea4	-0.32359803
57	0xbc7ad3c2	-0.015309276
58	0x3f5b1c1b	0.8558976
59	0xbddcc7da	-0.10780306
60	0x3f466270	0.77493954
61	0xbf6abcad	-0.91694146
62	0x3e79f90b	0.24411409
63	0xbee40eb0	-0.44542456
64	0xbe615d2c	-0.22008198
65	0xbf126129	-0.57179505
66	0x3da878b6	0.08226149
67	0x3d2cafc9	0.04215983
68	0xbe9c0ef7	-0.30480167
69	0x3c044f6d	0.008075577
70	0xbd8aebe2	-0.06783272
71	0x3ccd85ed	0.025088275
72	0xbf2600f3	-0.648452
73	0x3dfc5872	0.12321557
74	0xbf673331	-0.90312487
75	0xbf3e0140	-0.7422066
76	0x3c9b64c6	0.018968951
77	0xbeec93f0	-0.46206617
78	0xbef18c15	-0.47177187
79	0x3df1771b	0.11790296
80	0xbe048188	-0.12940037
81	0xbded059d	-0.11573336
82	0x3f354f63	0.7082426
83	0x3d9e7971	0.07738007
84	0x3eda16be	0.42595476
85	0x3b61e6f4	0.0034469934
86	0x3e84553d	0.25846282
87	0x3e7893b2	0.24275091
88	0xbefc0f62	-0.49230486
89	0xbde40a69	-0.11134798
90	0x3f360741	0.7110482
91	0xbf47a5f4	-0.779876
92	0x3f180c14	0.5939343
93	0x3e376a6e	0.17911693
94	0x3e1143d5	0.14186032
95	0x3e9613fd	0.29312125
96	0x3ea4bc8e	0.32175106
97	0xbe41f94b	-0.18942754
98	0x3f02d580	0.51107025
99	0xbe159fdf	-0.14611767
100	0xbe26cee2	-0.16289857
101	0xbc912e44	-0.017722256
102	0x3f18cce3	0.5968763
103	0x3e9920c0	0.299078
104	0x3edad067	0.42737123
105	0xbec08e45	-0.37608543
106	0x3d87ac0d	0.06624613
107	0xbd774e59	-0.060377453
108	0x3e5c20ee	0.21496937
109	0xbcb0609e	-0.021530446
110	0xbe9406f2	-0.2891155
111	0xbe660bfc	-0.22465509
112	0x3e15da5a	0.14634076
113	0xbeb16306	-0.3464586
114	0x3ed65f44	0.41869557
115	0xbd9332fa	-0.071874574
116	0x3d8d7672	0.06907357
117	0x3c257b90	0.01010026
118	0x3e74fa2a	0.23923555
119	0xbdd312b7	-0.10306304
120	0xbe2af0b5	-0.16693385
121	0xbdc04a03	-0.093891166
122	0x3f7b6970	0.9820776
123	0x3f293edb	0.66111535
124	0x3eb7f4fa	0.3592909
125	0x3df39e7b	0.11895462
126	0x3eb00df1	0.34385636
127	0x3ea2b594	0.31779158
128	0x3dfd1f6b	0.12359508
129	0xbe46b6fe	-0.19405743
130	0xbdbfe276	-0.09369366
131	0x3e545ade	0.20737788
132	0xbe5e6770	-0.21719146
133	0x3e9b4b24	0.30330765
134	0x3dd5ca9c	0.10439035
135	0x3e84b1ed	0.25916997
136	0xbe648a16	-0.223183
137	0xbf21405f	-0.6298885
138	0xbea760e5	-0.32691112
139	0x3f41015c	0.753927
140	0xbf1ba852	-0.6080371
141	0x3da4eb63	0.08052709
142	0xbe476e50	-0.19475675
143	0x3f83e3da	1.030391
144	0x3e9df8d6	0.3085391
145	0x3f3a1fb9	0.72704655
146	0x3ee35733	0.44402465
147	0x3f1d53be	0.61455905
148	0x3ef90076	0.48633164
149	0x3dba0723	0.090833925
150	0x3f23a85d	0.63928777
151	0x3e8155d5	0.25260797
152	0x3e89bb27	0.26900598
153	0xbc8dfecb	-0.017333409
154	0xbf027ed4	-0.50974774
155	0x3f336ce8	0.7008805
156	0x3e398b6e	0.18119594
157	0x3cd317ee	0.025768247
158	0xbf2e1f13	-0.68016165
159	0x3f50f79e	0.81627834
160	0x3e361665	0.1778198
161	0x3e536420	0.20643663
162	0x3fb89c5f	1.4422721
163	0xbe87ded0	-0.2653718
164	0x3ce05c5d	0.027387792
165	0xbed3954e	-0.41324848
166	0xbea02257	-0.312762
167	0x3f19ad3d	0.60029966
168	0xbebf84bb	-0.37405953
169	0xbe83e35d	-0.25759402
170	0xbdef86e5	-0.11695651
171	0x3ebab87c	0.36468875
172	0x3e93808a	0.28809005
173	0x3e13b383	0.14423947
174	0x3e053211	0.1300738
175	0x3ed33748	0.41253114
176	0x3f481992	0.7816402
177	0x3ecf224c	0.40455854
178	0x3eafa1b8	0.3430307
179	0xbe820365	-0.25393215
180	0x3e7c2225	0.246224
181	0xbdb95388	-0.090491354
182	0x3e4b4335	0.19849856
183	0xbf320b76	-0.6954874
184	0x3d893b43	0.067007564
185	0x3eb161c7	0.3464491
186	0x3e94a840	0.29034615
187	0xbf80e266	-1.0069091
188	0xbee333da	-0.44375497
189	0x3e991164	0.2989608
190	0x3db96939	0.09053273
191	0xbf551209	-0.83230644
192	0x3e3d1966	0.1846672
193	0x3db4abae	0.08821808
194	0xbee4f097	-0.44714805
195	0x3ead5c49	0.3385947
196	0x3efa15a5	0.48844638
197	0xbf1268e3	-0.57191294
198	0xbf43652b	-0.76326245
199	0xbe2661e6	-0.16248283
200	0xbe70acf7	-0.23503481
201	0xbef09a35	-0.4699265
202	0xbea7971e	-0.3273248
203	0x3f07fc30	0.5311918
204	0xbe9a5059	-0.30139425
205	0x3e51fa02	0.20505527
206	0xbed5aea2	-0.41734797
207	0xbe18777e	-0.14889333
208	0x3db0efd4	0.086394936
209	0xbe55e210	-0.20887017
210	0xbe1f9a27	-0.15586148
211	0xbea56416	-0.32302922
212	0x3ec14cef	0.37754008
213	0x3ef810ac	0.4845022
214	0xbd0077e4	-0.031364337
215	0x3e9b0874	0.30279887
216	0x3e8ff7fb	0.28118882
217	0x3e36adb0	0.17839694
218	0xbe559ba7	-0.20860158
219	0xbdf777f4	-0.12083426
220	0x3e596fda	0.21234074
221	0x3e75715d	0.23969026
222	0xbd2af233	-0.041734885
223	0x3efce2e6	0.4939186
224	0xbe133d42	-0.14378837
225	0x3d81aa10	0.06331265
226	0x3ea7bf95	0.32763353
227	0xbf61846f	-0.880927
228	0xbe704a2f	-0.23465799
229	0x3f6373a4	0.8884833
230	0x3ef3f7e3	0.4765006
231	0x3f880e40	1.0629349
232	0x3f1d62f4	0.61479115
233	0x3e186519	0.14882316
234	0xbc4cadaf	-0.012492581
235	0xbf1d1b20	-0.61369514
236	0xbeb2ecaa	-0.34946185
237	0xbf9e037d	-1.2344815
238	0xbe9ecde7	-0.31016466
239	0xbe271eb4	-0.16320306
240	0xbf8152e8	-1.0103426
241	0x3f3a77da	0.7283913
242	0x3f3f4f54	0.7473042
243	0xbd92b63c	-0.07163665
244	0xbf1707d1	-0.589963
245	0x3d140acf	0.03614312
246	0xbe07f378	-0.1327647
247	0x3ed8bf7c	0.4233359
248	0x3eefb922	0.46820933
249	0x3f24b190	0.6433344
250	0x3e804ccc	0.2505859
251	0x3f8b5a59	1.0886947
252	0x3ce50286	0.027955305
253	0x3f001d79	0.5004497
254	0x3f099734	0.5374634
255	0xbe02740d	-0.12739582

feature.bias_ih_l0 f4 [512]
0	0xbe0b07f9	-0.1357726
1	0xbe2656b5	-0.16244014
2	0xbf0194b9	-0.5061756
3	0x3eedaa9e	0.46419233
4	0x3ed5c53c	0.4175204
5	0xbdfb6171	-0.12274445
6	0x3edb39aa	0.42817432
7	0xbf035492	-0.5130092
8	0xbdfc9762	-0.123335615
9	0x3e6e72ac	0.23285931
10	0xbd1aa7b9	-0.03775761
11	0x3e3ccbeb	0.18437164
12	0x3db71d29	0.08941109
13	0x3db9ea9f	0.090779535
14	0xbc1ccc43	-0.009570184
15	0x3f5e1b5a	0.86760485
16	0x3e3df739	0.18551339
17	0xbd31278f	-0.043250617
18	0xbe089df6	-0.13341507
19	0x3f65025e	0.8945674
20	0x3e1f2cf4	0.15544492
21	0xb932f722	-0.00017067467
22	0x3f0e7347	0.5564465
23	0x3d8defe5	0.06930522
24	0xbdbdc142	-0.092653766
25	0x3f8084b3	1.0040497
26	0xbe54dc80	-0.20787239
27	0xbe69c9ae	-0.22830841
28	0xbeb06984	-0.34455502
29	0x3e056797	0.13027798
30	0xbed3a8fc	-0.41339862
31	0xbe3840f9	-0.17993535
32	0x3ed3ac14	0.41342223
33	0xbe2ba85c	-0.16763443
34	0x3ea34361	0.31887344
35	0x3f10c0ee	0.5654439
36	0xbe37a8c7	-0.17935477
37	0xbd5934d4	-0.053028896
38	0x3d2328bc	0.03983377
39	0xbe201f8e	-0.15637037
40	0x3ec74cd4	0.38925803
41	0xbc91ed00	-0.017813206
42	0xbec1df43	-0.37865648
43	0xbd986921	-0.07441927
44	0x3dd0d95c	0.10197708
45	0x3d860902	0.06544687
46	0xbca56d7d	-0.02019381
47	0x3f064440	0.5244789
48	0xbed090e2	-0.40735537
49	0x3e698fbf	0.22808741
50	0x3d1337d5	0.035941917
51	0x3e8ba170	0.27271605
52	0x3e8d36af	0.27580783
53	0xbe7aa94a	-0.24478641
54	0x3e1540c9	0.14575495
55	0x3d6f4ad5	0.058420975
56	0xbe7d9f26	-0.24767742
57	0xbe7909c7	-0.24320136
58	0xbe325dc6	-0.17418584
59	0xbdcca729	-0.09992821
60	0xbec1009b	-0.37695774
61	0x3d748996	0.059701525
62	0xbe65fad9	-0.22458972
63	0x3d8a2f98	0.06747359
64	0x3e2342bf	0.1594343
65	0xbdc2b431	-0.09507025
66	0xbe32910c	-0.17438143
67	0xbf0cc9e1	-0.5499554
68	0xbdd8c7fd	-0.1058502
69	0xbd1cd48e	-0.038288645
70	0x3dec89e5	0.11549739
71	0x3e1cc2ce	0.15308687
72	0xbe503750	-0.203336
73	0x3d67c1ad	0.056581188
74	0xbddf7fa5	-0.10913018
75	0xbc5a0def	-0.013308986
76	0x3d7181d6	0.05896171
77	0x3fa9b230	1.3257504
78	0x3dfa6b2a	0.12227471
79	0xbe854ed9	-0.26036718
80	0x3f0a7477	0.5408396
81	0x3ef807d7	0.4844348
82	0x3f949f74	1.1611161
83	0xbe3e8b8a	-0.18607917
84	0xbeaacfca	-0.33361655
85	0xbe8a3d1a	-0.26999742
86	0x3d329a9e	0.043604486
87	0x3eaef8f4	0.3417431
88	0xbedbe82e	-0.42950577
89	0x3e669308	0.22517025
90	0x3f34e62b	0.7066371
91	0xbd969600	-0.07352829
92	0xbe506a37	-0.20353018
93	0x3f8e5117	1.1118497
94	0x3ea307c3	0.3184186
95	0xbe89bd37	-0.26902172
96	0x3e752527	0.23939954
97	0x3f2e0d01	0.6798859
98	0x3ec6b1a8	0.38807416
99	0xbea2e12b	-0.31812415
100	0x3eba52c4	0.3639127
101	0x3d0bb379	0.034106705
102	0x3ed66748	0.41875672
103	0x3d5a8edf	0.05335891
104	0x3b2eb73c	0.002665951
105	0x3e0b4e58	0.13604105
106	0xbd6126a5	-0.054968495
107	0x3e4961a0	0.19666147
108	0x3e88eb44	0.26741993
109	0x3eb7d7a8	0.3590672
110	0x3edf4c3b	0.43612847
111	0xbe89689c	-0.26837623
112	0xbc93760a	-0.018000621
113	0x3e429afe	0.19004437
114	0x3f28c7ae	0.6592969
115	0xbee43df0	-0.44578505
116	0x3d894c2b	0.06703981
117	0xbe2f2e5a	-0.17107525
118	0x3fa708d3	1.3049568
119	0xbed2b10a	-0.41150695
120	0x3ee67342	0.4500981
121	0x3f213d53	0.629842
122	0x3e04a8cf	0.1295502
123	0x3f0f5e06	0.56002843
124	0x3f94dab5	1.1629244
125	0xbe266ced	-0.1625249
126	0x3f1a0ba2	0.60174
127	0x3f24f701	0.644394
128	0x3e4a4ce0	0.19755888
129	0xbea089a0	-0.31355
130	0x3dfd5e57	0.123715095
131	0xbece701f	-0.40319917
132	0xbee323a2	-0.44363123
133	0xbeb29018	-0.3487556
134	0x3e4a143a	0.19734278
135	0xbe885295	-0.26625505
136	0xbf23b09e	-0.6394137
137	0xbf129961	-0.5726529
138	0x3e1e5179	0.15460767
139	0x3d4b9305	0.049700756
140	0x3dfb9e26	0.12286024
141	0x3e2b1fee	0.16711399
142	0xbe6e49e5	-0.23270376
143	0xbf4266e3	-0.7593824
144	0x3e73339f	0.2375016
145	0xbefd1f63	-0.4943801
146	0x3f072f84	0.5280688
147	0xbf0aeb5d	-0.54265386
148	0x3e6a336f	0.22871183
149	0x3e05e55b	0.13075773
150	0x3e608f80	0.21929741
151	0xbefffe89	-0.49998882
152	0xbf2125bf	-0.6294822
153	0xbe5c708c	-0.21527308
154	0xbe44fc38	-0.19236839
155	0xbc4b2481	-0.01239884
156	0x3eb680ae	0.3564505
157	0xbec59e25	-0.38597217
158	0x3d41841c	0.04724513
159	0xbd979bdb	-0.07402774
160	0x3c2b706d	0.010463816
161	0xbf154a50	-0.58316517
162	0xbebf84b1	-0.37405923
163	0xbeaaf43e	-0.33389467
164	0xbef53447	-0.47891447
165	0x3dc6bd8e	0.097041234
166	0xbea3b6f7	-0.3197553
167	0xbdf41c87	-0.11919504
168	0x3d3f7619	0.046743486
169	0xbede216e	-0.4338488
170	0xbe88b966	-0.26703948
171	0xbe02865d	-0.12746568
172	0x3eb533ce	0.35391086
173	0xbe09b20e	-0.13446829
174	0x3efcd2f9	0.4937971
175	0x3e92b73c	0.28655422
176	0xbd3bd233	-0.04585476
177	0xbe645a30	-0.22300029
178	0x3d647853	0.055778813
179	0xbe2c2770	-0.16811919
180	0x3da190f0	0.07888973
181	0xbebb040e	-0.3652653
182	0x3e521564	0.20515972
183	0xbd800dea	-0.06252654
184	0xbf353ea1	-0.7079869
185	0xbea29fdf	-0.31762597
186	0x3dac9fb1	0.08428896
187	0xbe2d52e3	-0.1692615
188	0xbe02703b	-0.12738125
189	0xbebccae9	-0.36873558
190	0xbc75d7cc	-0.015005063
191	0xbed717cd	-0.42010346
192	0xbee65650	-0.44987726
193	0x3db957da	0.090499595
194	0xbe6913d3	-0.22761469
195	0x3da8da1c	0.08244726
196	0x3e98401a	0.29736406
197	0xbe74da6a	-0.23911443
198	0xbdfd38e5	-0.123643674
199	0xbd4f3bbd	-0.05059408
200	0xbeda8522	-0.42679697
201	0x3e733b13	0.23753004
202	0x3eae728a	0.3407176
203	0xbef92892	-0.48663765
204	0xbe3f8a6d	-0.18705149
205	0xbec1d30c	-0.37856328
206	0xbe75f2fa	-0.2401847
207	0xbe315ca1	-0.17320491
208	0xbf50adbc	-0.815151
209	0xbe44feb7	-0.19237791
210	0xbede7e03	-0.43455514
211	0xbe7135d0	-0.23555684
212	0xbf0b0acc	-0.5431335
213	0x3dbb92fa	0.09158893
214	0x3e127435	0.14302142
215	0xbdd0029b	-0.10156747
216	0xbd80ea79	-0.06294722
217	0xbea058cc	-0.31317747
218	0xbdc13def	-0.09435641
219	0x3eb13524	0.34610856
220	0xbe8396b9	-0.2570093
221	0xbe80cf47	-0.2515814
222	0xbe0d82df	-0.13819455
223	0x3de3eb3f	0.11128854
224	0xbd311d3e	-0.04324078
225	0x3ebd9036	0.37024087
226	0x3e8bb0c5	0.27283302
227	0xbea6b269	-0.3255799
228	0x3da673a7	0.08127528
229	0x3e2bc4f2	0.16774347
230	0x3e06c3cb	0.13160627
231	0xbc5842dc	-0.013199534
232	0xbeb4bdf3	-0.3530117
233	0x3e63dbcb	0.22251813
234	0xbea576b6	-0.32317132
235	0xbe254342	-0.16138938
236	0xbf1f55c9	-0.6224027
237	0x3d9b9d30	0.075983405
238	0x3dbb5d3d	0.09148643
239	0xbdb34240	-0.087528706
240	0xbe9a20ec	-0.30103242
241	0x3e205cf9	0.15660466
242	0xbeb82c3a	-0.35971242
243	0xbea1efce	-0.3162827
244	0x3e56271f	0.20913361
245	0x3e17cc67	0.14824067
246	0xbf43b834	-0.76452947
247	0xbe3ee12c	-0.18640584
248	0xbd3f5288	-0.046709567
249	0xbf3a65f3	-0.7281181
250	0xbe8563eb	-0.26052794
251	0xbe856777	-0.260555
252	0xbf4b34c4	-0.7937739
253	0x3d8c394f	0.06846868
254	0x3e445dec	0.19176453
255	0xbf12daad	-0.5736492

feature.bias_hh_l0 f4 [512]
0	0xbead98cd	-0.3390564
1	0x3d9a7bc2	0.07543136
2	0xbef82fd5	-0.48473993
3	0x3ed79e0d	0.4211277
4	0x3ea1c885	0.31598297
5	0xbd0164bd	-0.031590212
6	0x3ed8bd52	0.4233194
7	0xbf029aa0	-0.5101719
8	0xbdac8cba	-0.08425279
9	0x3e5a717c	0.21332353
10	0x3dc6fe5f	0.09716486
11	0x3e25c8bb	0.16189854
12	0x3d02dced	0.031948972
13	0x3ddfb133	0.1092247
14	0xbc7608da	-0.015016759
15	0x3f50f215	0.8161939
16	0x3de1c401	0.11023713
17	0x3e0937d0	0.13400197
18	0xbe308aaf	-0.17240404
19	0x3f6e0c95	0.9298795
20	0x3e6c573b	0.23080151
21	0xbd6401b0	-0.05566567
22	0x3f0ecf0a	0.55784667
23	0x3e194cbf	0.14970683
24	0x3b08f3b8	0.002089722
25	0x3f98bade	1.1932027
26	0xbe581f3f	-0.2110567
27	0xbeb8b0c9	-0.36072376
28	0xbe99da21	-0.30049232
29	0x3e68f25d	0.22748704
30	0xbe9f58ef	-0.31122538
31	0xbe6dbe0e	-0.23217031
32	0x3eb09adf	0.34493157
33	0xbe0bada2	-0.13640454
34	0x3dfb591e	0.12272857
35	0x3f0aef50	0.5427141
36	0xbe3a09a7	-0.18167745
37	0xbe0eda78	-0.13950527
38	0xbd72aaff	-0.059245106
39	0xbe22d08b	-0.15899865
40	0x3ed393c6	0.4132368
41	0x3dbb6cff	0.09151649
42	0xbed85aff	-0.42256925
43	0xbe236543	-0.15956597
44	0x3dbd7233	0.092502974
45	0xbda39038	-0.07986492
46	0xbdc6cd59	-0.09707136
47	0x3ef6fa07	0.4823763
48	0xbeeb8a7e	-0.460041
49	0x3e0a0495	0.1347831
50	0x3df294a0	0.11844754
51	0x3eb3ac2e	0.350923
52	0x3e210c00	0.15727234
53	0xbea1102a	-0.31457645
54	0x3d8a8db7	0.06765311
55	0x3c1d0565	0.009583806
56	0xbdbb1d1b	-0.09136411
57	0xbecf6671	-0.40507844
58	0xbe2a7f3d	-0.166501
59	0xbd03d523	-0.032185685
60	0xbe9c2799	-0.3049896
61	0x3d693848	0.05693844
62	0xbe84c550	-0.25931787
63	0x3da0ba11	0.07847989
64	0x3dc3b809	0.09556586
65	0xbe9b5ed6	-0.30345792
66	0xbde91b88	-0.11382204
67	0xbf1c8a74	-0.6114876
68	0xbe0e5699	-0.13900222
69	0x3d572664	0.052526847
70	0x3df32292	0.11871828
71	0x3e0225fe	0.12709805
72	0xbede8955	-0.4346415
73	0xbc877723	-0.016536301
74	0xbe1c3610	-0.15254998
75	0x3c732d26	0.014842307
76	0x3d89462b	0.067028366
77	0x3faa939f	1.33263
78	0x3dd2af01	0.102872856
79	0xbe9333b7	-0.28750393
80	0x3f012d10	0.50459385
81	0x3ef1ae3b	0.4720324
82	0x3fa7e449	1.3116542
83	0xbe5025b7	-0.20326887
84	0xbe007029	-0.12542786
85	0xbe91c29b	-0.28468785
86	0x3c35fc70	0.011107549
87	0x3ea9521b	0.33070454
88	0xbf0c03d6	-0.54693353
89	0x3eb2a836	0.3489396
90	0x3f2aa3a1	0.6665593
91	0xbdde8a3d	-0.108662106
92	0xbe9c20bf	-0.30493733
93	0x3f6d4178	0.9267802
94	0x3ebfc366	0.37453765
95	0xbea0b6cc	-0.31389463
96	0x3eb399a8	0.35078168
97	0x3f14cbdf	0.5812358
98	0x3ead5b3a	0.33858663
99	0xbe9525af	-0.29130313
100	0x3eda8f44	0.42687428
101	0x3cb9f722	0.02270085
102	0x3eba9548	0.36442018
103	0xbd8c3215	-0.0684549
104	0xbd861296	-0.06546514
105	0x3e9ca647	0.3059561
106	0x3da33edf	0.07970976
107	0x3e532d1d	0.20622678
108	0x3e4f3251	0.20234038
109	0x3eb00ba2	0.34383875
110	0x3e85d3f1	0.2613826
111	0xbead1df7	-0.33811924
112	0x3ad9c50b	0.001661451
113	0x3e70411b	0.23462336
114	0x3f2f113f	0.6838569
115	0xbebefac6	-0.373007
116	0x3cf1bc0e	0.029508617
117	0xbe632682	-0.22182658
118	0x3fa4090e	1.2815263
119	0xbec1d2d1	-0.37856153
120	0x3edc6690	0.43047
121	0x3f2ea5ed	0.6822193
122	0x3e0330d1	0.1281159
123	0x3f04e00d	0.51904374
124	0x3f69f1fb	0.9138486
125	0xbe44a5b1	-0.19203831
126	0x3ecfc1d7	0.40577576
127	0x3f64e4f7	0.8941187
128	0x3e878976	0.26472062
129	0xbe54016a	-0.20703664
130	0x3e3e9e28	0.1861502
131	0xbef40747	-0.47661802
132	0xbed575b8	-0.41691375
133	0xbeac9b4e	-0.33712238
134	0x3eb043ac	0.3442663
135	0xbe8e2345	-0.27761284
136	0xbefe9894	-0.49725783
137	0xbf1076db	-0.5643136
138	0x3e72d2b5	0.23713191
139	0xbd3b627c	-0.04574822
140	0x3d902aa7	0.07039385
141	0x3d12f6ba	0.035879828
142	0xbec7f933	-0.3905731
143	0xbf1b8999	-0.6075683
144	0x3e296a3f	0.16544436
145	0xbf2ab911	-0.6668864
146	0x3f1ba83d	0.60803586
147	0xbee25c87	-0.44211218
148	0x3e24daf1	0.16099145
149	0x3e2646cf	0.16237949
150	0x3e03d9e6	0.1287609
151	0xbeaf8809	-0.34283474
152	0xbf181128	-0.5940118
153	0xbe963cbc	-0.29343212
154	0xbe3c8f51	-0.18414046
155	0x3d692b95	0.05692633
156	0x3e156844	0.14590555
157	0xbee0bd4f	-0.4389443
158	0x3d96f117	0.07370203
159	0xbdea9a46	-0.114552066
160	0x3e081155	0.13287862
161	0xbf1a1b6b	-0.60198087
162	0xbea6d127	-0.32581446
163	0xbebc9c34	-0.36837924
164	0xbedfb7d8	-0.4369495
165	0x3c9f2b8a	0.01942994
166	0xbefb8228	-0.4912274
167	0xbc925a32	-0.017865274
168	0xbdd09f74	-0.10186663
169	0xbee25634	-0.44206393
170	0xbe3b36ca	-0.18282619
171	0xbe3cd79f	-0.18441628
172	0x3e95f8b3	0.29291305
173	0xbe207b3a	-0.15672007
174	0x3ef4e551	0.47831205
175	0x3e901a1a	0.28144914
176	0xbd825467	-0.06363755
177	0xbe4dfbf9	-0.20115651
178	0x3d9a5609	0.07535941
179	0xbe344a36	-0.17606434
180	0x3e2373f3	0.159622
181	0xbee2ba63	-0.44282827
182	0x3db3ba35	0.087757505
183	0xbd23ff83	-0.040038597
184	0xbf34ba8b	-0.7059714
185	0xbe596b15	-0.21232255
186	0xbc1da985	-0.009622936
187	0xbe49a7da	-0.19692937
188	0xbe8b92ae	-0.27260345
189	0xbec429e2	-0.38313204
190	0xbc427ae4	-0.01187012
191	0xbee9fd90	-0.45701265
192	0xbeab87ac	-0.33501947
193	0x3de7d2ca	0.11319502
194	0xbea77049	-0.32702854
195	0xbddde237	-0.10834163
196	0x3e4a762d	0.19771643
197	0xbe7e9607	-0.24861918
198	0xbe07b4b0	-0.1325252
199	0xbcd04faa	-0.025428612
200	0xbee9dd6e	-0.4567675
201	0x3ebdffe0	0.3710928
202	0x3efae93e	0.49006075
203	0xbf1b0ca0	-0.6056614
204	0xbebc7da4	-0.36814606
205	0xbea41da0	-0.32053852
206	0xbed35428	-0.41275144
207	0xbe6698f2	-0.22519282
208	0xbf3ed744	-0.7454722
209	0xbea12f15	-0.31481233
210	0xbf070f65	-0.52757865
211	0xbe503f51	-0.20336653
212	0xbe91ef46	-0.28502864
213	0x3e3fcd52	0.18730667
214	0x3ddc9fb9	0.10772652
215	0xbd0378a2	-0.032097466
216	0xbd941048	-0.07229668
217	0xbe3e6a31	-0.18595196
218	0x3db2188d	0.08696089
219	0x3e51945c	0.20466751
220	0xbe5971f7	-0.2123488
221	0xbeaad8c3	-0.333685
222	0xbdc57ab3	-0.09642544
223	0xbe07f53e	-0.13277146
224	0x3d44cae9	0.048045073
225	0x3ec41b08	0.38301873
226	0x3e52fad4	0.20603496
227	0xbed4a89a	-0.41534883
228	0xbd6b1130	-0.05738944
229	0x3e01fe10	0.12694573
230	0x3c9a7e60	0.018859088
231	0x3c030317	0.007996342
232	0xbe90e6ad	-0.28300992
233	0x3de0aee7	0.1097086
234	0xbe114596	-0.14186701
235	0xbe893e8a	-0.26805526
236	0xbf47c58a	-0.78035796
237	0x3e02829f	0.1274514
238	0x3d8ec609	0.06971366
239	0xbdc86d64	-0.097864896
240	0xbe3f250a	-0.18666473
241	0x3d963882	0.07334997
242	0xbeb45649	-0.3522208
243	0xbedb5a04	-0.42842114
244	0x3e61b107	0.22040187
245	0x3e203731	0.15646054
246	0xbf3be9b2	-0.73403466
247	0xbc1795fb	-0.009252067
248	0x3d67f868	0.056633383
249	0xbf23eb0e	-0.6403054
250	0xbebc264a	-0.36747962
251	0xbe355137	-0.17706762
252	0xbf3a8f45	-0.7287486
253	0x3de744cd	0.112924196
254	0x3ded2ae3	0.115804456
255	0xbee05998	-0.43818355

feature.weight_ih_l0_reverse f4 [512, 64]
0	0x3f57cc84	0.8429644
1	0x3ebda5ef	0.3704066
2	0x3f7cd88a	0.9876791
3	0x3efc2e2e	0.49253982
4	0x3f2cb08b	0.67456883
5	0xbeb3aa3d	-0.3509082
6	0xbddf7c4f	-0.10912382
7	0x3f264d48	0.6496167
8	0x3be1782c	0.0068807807
9	0xbd11289d	-0.035439122
10	0xbe4b0633	-0.19826584
11	0x3f92f386	1.1480567
12	0xbf1d686a	-0.6148745
13	0x3f8214c1	1.0162584
14	0x3edb4b4f	0.42830893
15	0xbe9b4134	-0.30323184
16	0xbea89385	-0.32925048
17	0xbed93d06	-0.4242937
18	0xbf300b6d	-0.68767434
19	0xbf1eaf03	-0.61985797
20	0xbf2107ee	-0.62902725
21	0x3e7cdd79	0.2469386
22	0x3ce571a6	0.028008293
23	0xbe99630c	-0.2995838
24	0xbe11e850	-0.14248776
25	0x3e866675	0.26250044
26	0x3c6c64d4	0.014428336
27	0xbf0c9efe	-0.549301
28	0x3f86c762	1.0529597
29	0xbe11e70a	-0.1424829
30	0xbe577053	-0.21038942
31	0xbee8bca7	-0.4545643
32	0x3d3e7add	0.04650389
33	0xbe93dd98	-0.2888
34	0x3e155da9	0.1458651
35	0xbe9aeb01	-0.3025742
36	0xbd31a729	-0.043372307
37	0x3e07b6f5	0.13253386
38	0x3ee0716c	0.43836534
39	0xbc902958	-0.01759784
40	0x3ed398aa	0.4132741
41	0xbfc955f2	-1.5729353
42	0xbe6de5bb	-0.23232166
43	0xbeb381e0	-0.35060024
44	0x3dbe95a0	0.093058825
45	0x3e9515c6	0.29118174
46	0x3e0ebd44	0.13939387
47	0x3f6af794	0.91784024
48	0x3f4be7fa	0.79650843
49	0x3ed16209	0.40895107
50	0x3d670ee2	0.056410678
51	0xbf68aff8	-0.90893507
52	0xbeaf648b	-0.34256396
53	0x3d81e8c6	0.06343226
54	0x3edba01b	0.42895588
55	0xbf402a76	-0.7506479
56	0x3ec05c0a	0.3757022
57	0x3e98f556	0.29874676
58	0x3f4596a3	0.7718298
59	0x3f2bdc1c	0.67132735
60	0xbf4b0897	-0.7930998
61	0x3eed937c	0.46401584
62	0xbf879b77	-1.0594319
63	0xbecf0992	-0.4043699
64	0xbd8533fc	-0.06504056
65	0x3efc9db4	0.49339068
66	0xbef4e3d4	-0.4783007
67	0xbd85ed2e	-0.06539379
68	0x3d6e056b	0.058110636
69	0x3eba85a5	0.36430088
70	0x3e2e7271	0.17035843
71	0xbed6564d	-0.41862717
72	0xbedb67d2	-0.42852646
73	0xbe95f1df	-0.29286095
74	0x3f1e4ee0	0.61839104
75	0xbe85deb4	-0.26146472
76	0x3d94fae4	0.07274416
77	0xbb241b18	-0.0025040563
78	0xbd8a095c	-0.067400664
79	0x3e070354	0.13184863
80	0x3dfb88d7	0.122819595
81	0xbf2302af	-0.6367597
82	0x3f47e2f3	0.7808067
83	0x3f8027a4	1.0012097
84	0xbf0106de	-0.50401103
85	0x3e87e544	0.26542103
86	0xbd8956ea	-0.06706031
87	0xbf20d6c5	-0.6282771
88	0x3ec443cb	0.38332972
89	0x3e9cc75d	0.30620852
90	0xbe1c9617	-0.1529163
91	0xbe8dd8a7	-0.27704355
92	0xbf06e8ef	-0.5269918
93	0xbe32cbfa	-0.17460623
94	0xbf8872cc	-1.0660033
95	0x3f18dd49	0.59712654
96	0x3f2fb420	0.68634224
97	0xbedf1419	-0.4357002
98	0xbf266985	-0.6500476
99	0x3e429137	0.19000708
100	0xbf077ee0	-0.5292797
101	0xbe36425a	-0.17798749
102	0x3f3a2880	0.7271805
103	0x3e3a1335	0.1817139
104	0xbebae0d8	-0.36499667
105	0xbf2a726a	-0.6658083
106	0x3e29482c	0.16531438
107	0xbbb3cdb2	-0.0054871673
108	0x3f0b8225	0.5449546
109	0x3ed97a69	0.42476204
110	0x3e1f4095	0.1555198
111	0x3d2f9f83	0.04287673
112	0x3ee66f03	0.4500657
113	0xbf0de4dd	-0.5542734
114	0x3f4d3a39	0.80166966
115	0xbfb31385	-1.3990332
116	0x3f2bc19d	0.67092305
117	0x3ee2adb3	0.44273147
118	0x3f1ea9bc	0.61977744
119	0xbedcf40d	-0.43154946
120	0x3d4ea250	0.050447762
121	0xbea11932	-0.31464535
122	0x3e8a17e0	0.2697134
123	0x3e83661a	0.25663835
124	0x3f0c1178	0.54714155
125	0xbf0018ad	-0.5003765
126	0xbf7540e4	-0.9580214
127	0x3e8676cc	0.2626251
128	0xbf8f414a	-1.11918
129	0xbedabc5b	-0.4272183
130	0xbdd17287	-0.102269225
131	0x3da127c2	0.07868911
132	0xbf75c118	-0.9599776
133	0x3b8a4141	0.0042192047
134	0x3de52991	0.11189569
135	0xbdb856d0	-0.09000933
136	0x3e5bfa42	0.21482185
137	0xbdb87a2d	-0.09007678
138	0xbf2a91e1	-0.66628844
139	0xbeb1076d	-0.34575978
140	0xbe4e4100	-0.20141983
141	0x3e96aa76	0.29426926
142	0xbf6e0f09	-0.9299169
143	0xbf1e8907	-0.6192784
144	0x3f1032cf	0.5632753
145	0x3e88fd83	0.26755914
146	0xbeaf753a	-0.34269124
147	0x3e007002	0.12542728
148	0x3d5673bd	0.05235647
149	0xbf3067bf	-0.68908304
150	0x3f72266a	0.94589865
151	0x3f829fca	1.0205014
152	0xbb2b7ba8	-0.0026166234
153	0x3eaaec2e	0.33383316
154	0xbee20a64	-0.44148552
155	0x3ee7603d	0.4519061
156	0x3e8b6f46	0.27233332
157	0x3f7cc6b8	0.9874072
158	0xbf1694cf	-0.58820814
159	0xbf03f883	-0.51551074
160	0x3cb284f8	0.02179192
161	0x3f9c0f07	1.2192086
162	0xbf15a3a3	-0.58452815
163	0xbf2fbc48	-0.6864667
164	0x3e6faa85	0.23404892
165	0xbf774f64	-0.96605515
166	0x3f2de43b	0.6792638
167	0xbf7a6c42	-0.9782144
168	0x3e7c4771	0.24636628
169	0x3ed3ee5e	0.41392797
170	0xbf94eef5	-1.1635424
171	0xbedb1c99	-0.42795256
172	0x3ec97c30	0.3935256
173	0x3e0bb2af	0.13642381
174	0xbe779144	-0.24176508
175	0xbf1388fd	-0.576309
176	0xbf371acc	-0.71525264
177	0xbf277d61	-0.6542569
178	0x3e89a312	0.26882225
179	0xbe896ca2	-0.26840693
180	0xbeb9b963	-0.3627425
181	0x3e1340d8	0.14380205
182	0xbf2971f5	-0.6618951
183	0x3f32ecb9	0.6989246
184	0x3e87e285	0.26540008
185	0xbe306a63	-0.17228083
186	0x3cb50b80	0.02210021
187	0xbebde949	-0.37092045
188	0xbe03647c	-0.128313
189	0x3f3943aa	0.7236887
190	0x3e551a28	0.20810759
191	0x3f1c8a17	0.6114821
192	0x3e423826	0.18966731
193	0x3ddd7fe6	0.1081541
194	0x3eec1f8b	0.46117815
195	0x3f829392	1.0201285
196	0x3e80cf45	0.25158134
197	0x3e8a1f60	0.26977062
198	0x3d8f08dc	0.06984112
199	0x3ef71dae	0.4826483
200	0x3d8f6c52	0.07003082
201	0x3ed854d2	0.42252213
202	0xbeffd1bf	-0.4996471
203	0xbce28181	-0.027649643
204	0xbe9a6a24	-0.30159104
205	0x3ec8cb18	0.39217448
206	0xbf6192c0	-0.8811455
207	0xbf028f38	-0.50999784
208	0x3de3e553	0.111277245
209	0x3e9c5439	0.30533007
210	0x3e548142	0.20752433
211	0x3e3ad504	0.18245322
212	0xbf009e9e	-0.5024203
213	0x3ed197ab	0.40936026
214	0x3f8b6aea	1.0892003
215	0x3f8e560b	1.1120008
216	0x3fcac526	1.5841415
217	0xbef4e4e5	-0.47830883
218	0xba466022	-0.00075674255
219	0xbec67535	-0.38761297
220	0x3ee41732	0.44548947
221	0x3f093822	0.53601277
222	0xbf43632d	-0.76323205
223	0xbf05b139	-0.52223545
224	0x3df49404	0.11942294
225	0x3ec6d23a	0.38832265
226	0xbf20affa	-0.6276852
227	0xbf81d135	-1.014197
228	0x3ea61a52	0.32441956
229	0xbeb7cd94	-0.3589903
230	0xbd7d051b	-0.061772447
231	0x3ec5c893	0.38629588
232	0x3e83e4ac	0.257604
233	0xbf5c2f83	-0.8601
234	0x3d41292f	0.047158416
235	0x3ee175e1	0.44035247
236	0x3eee7803	0.46575937
237	0x3e94acfe	0.29038233
238	0x3f3e7e71	0.74411684
239	0x3f07b55e	0.5301112
240	0x3eda1cfe	0.42600244
241	0xbf9db506	-1.2320869
242	0x3d8cd7cb	0.06877097
243	0xbf4b5bb4	-0.794368
244	0xbe2792a8	-0.16364539
245	0x3eaed34b	0.3414558
246	0xbed76cdb	-0.42075238
247	0x3ea456d6	0.320975
248	0xbf13e701	-0.5777436
249	0xbeb33a80	-0.3500557
250	0xbc05119a	-0.008121872
251	0xbf32fbee	-0.69915664
252	0xbf492071	-0.78565127
253	0x3f08352d	0.5320614
254	0x3e3db13e	0.18524644
255	0xbe6bf570	-0.23042846

feature.weight_hh_l0_reverse f4 [512, 128]
0	0xbe5ac495	-0.21364053
1	0x3eadc51e	0.3393945
2	0xbf2be05a	-0.6713921
3	0x3f3b4f3b	0.7316777
4	0x3e7903cc	0.24317855
5	0xbf46797a	-0.7752911
6	0xbe7bbd11	-0.24583842
7	0xbe47c9df	-0.19510601
8	0xbe73b75d	-0.23800416
9	0x3f0825a9	0.53182465
10	0xbeaefcea	-0.34177333
11	0xbf562844	-0.8365519
12	0x3d964219	0.07336826
13	0xbf11262c	-0.5669887
14	0x3d8a7987	0.06761461
15	0x3cabad04	0.020956524
16	0xbe7763a3	-0.24159102
17	0x3e8ad1ab	0.2711309
18	0x3e507759	0.20358028
19	0xbeb3d3bf	-0.35122487
20	0xbe7db14b	-0.24774663
21	0x3e036558	0.12831628
22	0xbe527007	-0.20550548
23	0xbde71bff	-0.11284637
24	0xbe9a9901	-0.30194858
25	0x3f232928	0.63734674
26	0xbec41ce8	-0.38303304
27	0x3dbabf30	0.09118497
28	0xbe352dfd	-0.17693324
29	0x3f00ae49	0.5026594
30	0xbef389e2	-0.47566134
31	0xbddc91f0	-0.10770023
32	0x3e599a0c	0.2125017
33	0x3d30b3c1	0.043140177
34	0x3ed2aabc	0.41145885
35	0x3dcc72dc	0.09982845
36	0xbf2f6e16	-0.6852735
37	0x3ddedd34	0.10882035
38	0xbf9e5f4c	-1.2372832
39	0xbe53bfd1	-0.20678641
40	0x3ef51d4d	0.47873917
41	0x3f0dbcdb	0.55366296
42	0xbf9ca95a	-1.2239182
43	0xbef02e1c	-0.4691018
44	0xbe159bb0	-0.14610171
45	0xbf0baf66	-0.5456451
46	0xbe9d2c14	-0.3069769
47	0x3d1703eb	0.03686897
48	0x3e84ffc9	0.259764
49	0xbe5e5662	-0.2171264
50	0x3ed5a9f4	0.41731226
51	0xbe292b25	-0.16520365
52	0xbd3413c8	-0.043964177
53	0x3f025b88	0.50920916
54	0xbd882a4b	-0.06648692
55	0x3e94fb30	0.2909789
56	0xbfc89acc	-1.567224
57	0xbd0fde37	-0.03512403
58	0x3d74aecf	0.059737023
59	0x3d2aec94	0.041729525
60	0x3e808197	0.2509887
61	0xbee90bb1	-0.45516732
62	0x3dfcbba5	0.12340478
63	0xbe0f8810	-0.14016747
64	0x3deec1ea	0.1165808
65	0xbf72f2a1	-0.9490147
66	0x3ebb165f	0.36540505
67	0x3da06e3e	0.07833527
68	0x3f1d59c9	0.61465126
69	0xbf0a21b8	-0.539577
70	0x3f228258	0.6348014
71	0xbeee5421	-0.4654856
72	0x3ea08e0e	0.3135838
73	0x3e8654de	0.26236624
74	0x3dc2adaa	0.0950578
75	0x3e748925	0.23880441
76	0xbc8adb05	-0.01695014
77	0xbdc8e317	-0.09808939
78	0x3eb3de30	0.35130453
79	0xbf4c2c19	-0.7975479
80	0xbec77adf	-0.3896093
81	0x3e6d169a	0.23153153
82	0x3edd1850	0.4318261
83	0x3dc29430	0.09500921
84	0x3e334338	0.1750611
85	0xbebe4ece	-0.37169498
86	0x3cebdfb9	0.028793203
87	0x3f46f280	0.77713776
88	0xbeef49f7	-0.46736118
89	0xbf047a7d	-0.517494
90	0x3e51d194	0.20490104
91	0xbf190661	-0.5977536
92	0xbe92cf22	-0.28673655
93	0xbf7b2d7c	-0.9811628
94	0x3e3c71d0	0.18402791
95	0xbd5679b9	-0.052362178
96	0x3f05e482	0.523018
97	0x3f5223b0	0.82085705
98	0x3b8783ca	0.0041355835
99	0x3dd8bc66	0.10582809
100	0x3ec90cf1	0.39267686
101	0xbe4770c5	-0.19476612
102	0xbe94133f	-0.28920934
103	0x3e4a9d59	0.19786586
104	0xbcc72025	-0.02430732
105	0x3f11467a	0.56748164
106	0x3d890236	0.06689875
107	0xbe7c915d	-0.24664827
108	0xbe961f11	-0.29320577
109	0x3edd78f6	0.43256348
110	0x3f42349e	0.7586154
111	0xbd3d8f61	-0.046279315
112	0x3e999f7f	0.30004498
113	0xbf096a2f	-0.5367765
114	0x3e7b1b04	0.24522024
115	0x3ef46930	0.47736502
116	0xbf962dcc	-1.1732726
117	0x3f31da99	0.6947418
118	0xbf134514	-0.5752728
119	0x3f54f66a	0.831885
120	0xbf0e53c4	-0.55596566
121	0x3ec9c673	0.39409217
122	0x3ec19f90	0.3781705
123	0xbc11cf52	-0.008899527
124	0x3e2264a1	0.158587
125	0x3f0e61a8	0.5561776
126	0x3ec7c093	0.3901411
127	0x3f3d57f5	0.73962337
128	0xbf8814c5	-1.0631338
129	0xbdf477d9	-0.119369216
130	0xbf276a53	-0.6539661
131	0xbd36a304	-0.044589058
132	0xbe9bf6f6	-0.30461854
133	0x3f7094c4	0.93977
134	0xbe0dbb03	-0.1384087
135	0x3def506d	0.11685262
136	0xbed96adb	-0.42464337
137	0x3f133b4b	0.5751235
138	0x3c9d957f	0.019236324
139	0x3e6c3822	0.23068288
140	0xbf6c2457	-0.9224295
141	0x3f5a8153	0.85353583
142	0x3d532e21	0.051557664
143	0x3f0368ef	0.5133199
144	0xbe4c7f8e	-0.19970533
145	0x3d95e6e8	0.073194325
146	0xbf0cb0f1	-0.5495749
147	0xbf333c32	-0.70013726
148	0x3e0d7d49	0.13817324
149	0x3e2e6187	0.17029391
150	0x3e92d643	0.28679094
151	0xbf3bded7	-0.733869
152	0x3ab7193f	0.0013969316
153	0x3cba5057	0.022743387
154	0x3d27dc31	0.040981475
155	0x3f05c8ea	0.52259696
156	0x3de3fc6a	0.111321285
157	0xbd01117e	-0.031510822
158	0x3eaed20c	0.34144628
159	0xbf95ccfd	-1.1703182
160	0x3e0dcebb	0.13848393
161	0xbe648516	-0.22316393
162	0xbe8fff98	-0.2812469
163	0x3eda748b	0.4266704
164	0x3d8603a1	0.06543661
165	0x3e21120b	0.15729539
166	0xbda6b50e	-0.08140002
167	0x3ebb4dfb	0.36582932
168	0xbecf193e	-0.40448946
169	0x3e5a261c	0.213036
170	0x3f4f8240	0.8105812
171	0xbf84b323	-1.0367168
172	0xbcfba817	-0.0307198
173	0xbf5dd81a	-0.8665787
174	0x3f753a1d	0.957918
175	0x3e8ae102	0.27124792
176	0x3ed282f6	0.4111554
177	0xbf389825	-0.72107154
178	0x3de03304	0.109472305
179	0x3d52380d	0.051322985
180	0xbf1ed8d0	-0.6204958
181	0x3f215083	0.63013476
182	0xbe2a4958	-0.16629541
183	0x3f77457b	0.96590394
184	0x3f992bc2	1.1966479
185	0xbd92ec0c	-0.071739286
186	0xbed124da	-0.40848428
187	0x3ca89e27	0.020583225
188	0x3f94d644	1.1627889
189	0x3ea15c89	0.3151591
190	0x3f30d6ef	0.6907796
191	0x3d465675	0.048422296
192	0x3ec99401	0.3937073
193	0x3e7e5856	0.24838385
194	0xbf8dfa78	-1.1092062
195	0x3f12307c	0.5710523
196	0x3f261745	0.64879256
197	0xbe58e2ae	-0.21180221
198	0xbdbe46d8	-0.09290856
199	0xbfa2b252	-1.2710669
200	0xbf3683d8	-0.7129493
201	0xbe3970a4	-0.18109375
202	0xbda1dfc0	-0.07904005
203	0x3f18caa3	0.596842
204	0xbe6f0f85	-0.23345764
205	0x3ea2fbbd	0.31832686
206	0x3e8c7e58	0.27440143
207	0xbf229bbc	-0.6351888
208	0x3e550254	0.2080167
209	0xbeacf72c	-0.33782327
210	0xbf20c922	-0.62806904
211	0x3e1f355f	0.15547703
212	0x3ea6afac	0.32555902
213	0x3ea886db	0.32915387
214	0x3f0e3e40	0.55563736
215	0xbf207113	-0.6267254
216	0xbe5e75c6	-0.21724615
217	0xbf3ad2b1	-0.7297774
218	0x3ef16959	0.47150686
219	0x3d60a26d	0.0548424
220	0x3d1c81dc	0.03820978
221	0xbda8201c	-0.082092494
222	0x3e21ae08	0.15789044
223	0x3f835ac7	1.0262078
224	0xbea0f77e	-0.31438822
225	0xbe74bec3	-0.23900895
226	0x3e3541da	0.17700902
227	0xbe9da902	-0.30793005
228	0xbdcaaf93	-0.098967694
229	0x3e67260d	0.22573109
230	0x3f1201e3	0.5703413
231	0xbf7b236e	-0.98100936
232	0xbd8fa048	-0.07012993
233	0xbf888f91	-1.0668813
234	0xbf2a6f4c	-0.66576076
235	0xbb9c4eb6	-0.0047701253
236	0xbeb97441	-0.36221507
237	0xbec87deb	-0.39158568
238	0x3f064369	0.5244661
239	0xbe13e05f	-0.1444106
240	0x3d742563	0.059605967
241	0x3f0a0111	0.5390788
242	0x3f131e6d	0.574683
243	0xbfb90b76	-1.4456623
244	0xbe0484e4	-0.12941319
245	0xbf07f732	-0.53111565
246	0xbf463e35	-0.7743867
247	0xbeddcecb	-0.43321833
248	0xbdeafc16	-0.11473863
249	0x3e905c1f	0.28195283
250	0xbe8e152c	-0.27750528
251	0xbea650ec	-0.32483613
252	0x3ea5b61b	0.32365498
253	0x3dcb4a8b	0.09926327
254	0x3e3911d7	0.18073212
255	0xbf01e780	-0.50743866

feature.bias_ih_l0_reverse f4 [512]
0	0xbeb4b38a	-0.35293227
1	0x3cb5a15d	0.02217167
2	0xbea82c1d	-0.32846156
3	0x3eb897bf	0.36053273
4	0x3dcca831	0.099930175
5	0xb9bed187	-0.00036395734
6	0x3ce801a1	0.02832109
7	0x3e487375	0.19575293
8	0xbe2ef9d9	-0.17087497
9	0x3e56a1f6	0.2096022
10	0xbea38069	-0.31933907
11	0x3b1dd14b	0.0024081047
12	0xbe42daee	-0.19028828
13	0x3ef32968	0.47492528
14	0xbc161f6b	-0.009162764
15	0x3e8aae19	0.2708595
16	0x3c15a374	0.009133209
17	0x3ed3f0b8	0.4139459
18	0xbde90cde	-0.11379407
19	0x3e193729	0.14962448
20	0xb7a7693d	-1.9956957e-05
21	0x3ebcf9cb	0.36909327
22	0xbe4c039c	-0.19923252
23	0x3e04a851	0.12954833
24	0xbe4fb2e8	-0.20283091
25	0x3de32b3b	0.1109223
26	0x3de2489a	0.11049004
27	0x3f094dd7	0.536344
28	0x3e71654c	0.23573798
29	0xbd0247dc	-0.03180681
30	0x3d058faf	0.03260773
31	0x3f49c697	0.7881865
32	0x3ecd41c5	0.4008924
33	0xbe1bbbaa	-0.15208307
34	0x3e3fec1d	0.18742414
35	0xbe0c70f2	-0.1371496
36	0xbddb564a	-0.10709818
37	0xbd8de416	-0.069282696
38	0xbeb95aff	-0.36202237
39	0xbe148141	-0.14502431
40	0xbe6ab210	-0.22919488
41	0x3f0a86a3	0.5411169
42	0x3e6c2ba4	0.23063523
43	0x3f11869f	0.5684604
44	0x3e72c536	0.23708043
45	0x3ee7fdf2	0.45310932
46	0x3c30292c	0.010752004
47	0x3f52ccc5	0.82343704
48	0xbb52871f	-0.0032123995
49	0xbe3b6f3a	-0.18304148
50	0x3eb055e8	0.3444054
51	0x3e7c3589	0.24629797
52	0x3eb82bf5	0.35971037
53	0x3bbbafee	0.0057277596
54	0xbe292156	-0.16516623
55	0x3ed61323	0.41811475
56	0x3f1ceaa9	0.61295563
57	0x3c8e6e66	0.017386626
58	0x3e49f0da	0.19720784
59	0x3ea72e80	0.32652664
60	0x3f1cea0e	0.6129464
61	0x3d352b00	0.04423046
62	0x3f20181f	0.62536806
63	0x3dbfe974	0.093706995
64	0x3d69b7e6	0.057060145
65	0x3f054e73	0.5207283
66	0xbef204ac	-0.4726919
67	0x3e809ff7	0.25122043
68	0x3f00f4a8	0.50373316
69	0xbde1d6c8	-0.110272944
70	0x3f3a91fb	0.72879
71	0x3d823812	0.06358351
72	0x3e8d0c0c	0.27548254
73	0xbe49573f	-0.19662188
74	0x3e2ed896	0.17074808
75	0x3e822548	0.25419068
76	0x3d6a2be9	0.057170782
77	0xbe658793	-0.22414999
78	0xbccaaeb1	-0.024741502
79	0xbea01db4	-0.31272662
80	0x3cf6daca	0.030133624
81	0x3e40ccce	0.18828127
82	0x3e733ee1	0.23754455
83	0x3e1cfa39	0.15329827
84	0x3e0d1dbf	0.13780878
85	0x3e05936c	0.13044518
86	0x3f0910a1	0.53541
87	0xbf1583f8	-0.58404493
88	0xbd7f232e	-0.06228941
89	0xbee86814	-0.45391905
90	0x3e87b597	0.2650573
91	0x3f23733c	0.6384771
92	0x3ed0a742	0.40752608
93	0xbd608908	-0.054818183
94	0x3e60cc04	0.21952826
95	0xbdeee9ac	-0.11665663
96	0x3e1d5ae7	0.15366708
97	0x3cd26b28	0.025685862
98	0x3e87f613	0.26554927
99	0x3d20d1a5	0.039262433
100	0x3eb6e46e	0.35721153
101	0xbea3a27b	-0.319599
102	0xbe6dee9b	-0.23235552
103	0x3e8b3759	0.27190664
104	0x3ebc6936	0.3679902
105	0x3d69d831	0.05709094
106	0xbd5d4f53	-0.054030728
107	0x3e1da8ed	0.15396471
108	0x3ebc78aa	0.3681081
109	0x3df22f74	0.11825457
110	0x3efbccd3	0.49179706
111	0x3e898237	0.2685716
112	0x3e425898	0.18979108
113	0x3e8f2366	0.27956694
114	0x3e2b5557	0.16731773
115	0x3f22dc7f	0.636177
116	0x3d14f291	0.03636414
117	0x3c1a368f	0.009412422
118	0xbd12ec04	-0.035869613
119	0x3e6c13ab	0.23054378
120	0xbec34474	-0.38138163
121	0x3f366d72	0.7126075
122	0x3f46ede9	0.7770677
123	0xbc0dd74f	-0.008657291
124	0x3e59aa19	0.21256293
125	0x3ed3355b	0.41251644
126	0x3e7b9c61	0.24571373
127	0x3d7eaa7a	0.062174298
128	0x3dea3b4b	0.114370905
129	0x3cfd0c68	0.030889705
130	0xbdbeda07	-0.09318929
131	0x3bbbabd2	0.0057272697
132	0xbe4ca9bd	-0.19986625
133	0x3c2cd434	0.01054864
134	0xbe7b23cc	-0.24525374
135	0xbe96f36d	-0.29482594
136	0x3f33fbe6	0.7030624
137	0xbd11ed8b	-0.03562693
138	0x3f51ea82	0.81998456
139	0x3ec5ed55	0.38657632
140	0xbe8282a7	-0.25490305
141	0x3b82f524	0.003996508
142	0xbd88bdfb	-0.06676861
143	0xbd42eb97	-0.047587957
144	0xbe739546	-0.23787412
145	0xbeaa159e	-0.33219618
146	0xbdf363b1	-0.11884249
147	0xbe283601	-0.16426851
148	0x3e260203	0.16211705
149	0x3e91cc1c	0.28476036
150	0x3f633bb1	0.88762957
151	0xbe61773a	-0.22018138
152	0xbe7e06fe	-0.24807355
153	0xbe579fef	-0.21057104
154	0xbddeb634	-0.10874596
155	0x3e842f4b	0.25817332
156	0x3d48e416	0.049045645
157	0x3e26fcc7	0.16307364
158	0x3d48dd81	0.049039368
159	0xbd478f72	-0.048720784
160	0x3ea96256	0.33082837
161	0x3dfd626a	0.123722866
162	0xbe53658e	-0.20644209
163	0xbd6fbff7	-0.05853268
164	0x3d8c1c3f	0.06841325
165	0xbdac2fe1	-0.0840757
166	0xbeb731b5	-0.3578011
167	0xbe41c6fc	-0.18923563
168	0x3e86c286	0.26320285
169	0x3ea37825	0.319276
170	0xbecf4c20	-0.40487766
171	0xbe08bb0c	-0.13352603
172	0xbd198174	-0.03747697
173	0xbebe9c7c	-0.37228763
174	0x3d6b7e59	0.05749354
175	0xbe800c59	-0.2500942
176	0xbde5d5c9	-0.11222417
177	0x3e8cc765	0.27495876
178	0x3e833f66	0.25634307
179	0xbe1904eb	-0.14943282
180	0x3e4cb40d	0.19990559
181	0x3f15f3f3	0.5857536
182	0xbdad2512	-0.08454336
183	0x3cfa528a	0.030556936
184	0xbe0c9d91	-0.13731982
185	0x3f018c7b	0.5060498
186	0xbdddfc23	-0.10839107
187	0xbea18e4f	-0.31553885
188	0x3f37b255	0.7175649
189	0x3e254b0b	0.16141908
190	0xbe0a8f0b	-0.13531129
191	0x3d41630d	0.047213603
192	0xbeb83df5	-0.3598477
193	0xbeaa093d	-0.33210173
194	0x3d8a8427	0.06763487
195	0xbf3a04b6	-0.7266344
196	0x3eb7f91a	0.35932237
197	0x3eac7438	0.33682418
198	0xbec42ede	-0.38317007
199	0x3e902271	0.28151277
200	0xbeb25113	-0.3482748
201	0x3f7f37ae	0.99694335
202	0xbe8c166c	-0.27360857
203	0xbd1b3526	-0.037892483
204	0xbe6d417c	-0.23169512
205	0x3ebf4d2a	0.3736356
206	0x3e8460a1	0.25854972
207	0x3ea9b7e4	0.3314811
208	0x3f25183d	0.6449011
209	0xbe196cd5	-0.14982922
210	0xbdcc38f8	-0.099718034
211	0x3d4e7c19	0.050411317
212	0xbe4e0199	-0.20117797
213	0xbd03b94a	-0.032159127
214	0xbf09b5e2	-0.53793156
215	0x3e938e20	0.2881937
216	0x3d8270c6	0.06369166
217	0x3db3d1e3	0.08780267
218	0x3e7a5364	0.24445873
219	0xbea8acb9	-0.32944277
220	0xbe0be84b	-0.13662831
221	0xbebf790f	-0.37397048
222	0xbd8a7408	-0.067604125
223	0x3e4b84ea	0.19874921
224	0xbe20c5b9	-0.15700425
225	0xbe19962f	-0.14998697
226	0x3b90cfe1	0.0044193123
227	0xbe2956cf	-0.16537021
228	0xbd53929a	-0.051653482
229	0x3f66bea4	0.90134645
230	0x3db118c7	0.08647304
231	0x3f129d9d	0.5727175
232	0x3f2c47a3	0.6729681
233	0x3ef10e42	0.4708119
234	0xbde6ce6b	-0.1126984
235	0xbdaf62b7	-0.0856375
236	0xbd8a8812	-0.067642346
237	0x3f1adbaa	0.6049143
238	0x3e0bcd1d	0.13652463
239	0x3e06c02a	0.13159242
240	0x3e9e5734	0.30925906
241	0x3ee297c0	0.442564
242	0xbe0fcbd2	-0.14042595
243	0xbed224fc	-0.41043842
244	0x3e8b59b8	0.27216887
245	0x3e829fcc	0.2551254
246	0xbc488cd2	-0.012240605
247	0x3e4deb94	0.20109397
248	0x3f3d0ae9	0.7384477
249	0xbdd88a1d	-0.10573218
250	0xbdd8ae37	-0.10580104
251	0xbda52253	-0.080631875
252	0x3ef209f0	0.47273207
253	0xbee3e816	-0.44513005
254	0xbe78e1ef	-0.24304937
255	0xbcd45231	-0.025918098
